model_street/models_street_demand/LSTM_model_FRESH POND ROAD.pth (torch, 350978 bytes, 17 tensors)

input_projection.weight f4 [2, 2]
0	0x3e6f8b7d	0.23393054
1	0x3ebaf6ca	0.3651641
2	0x3f3131c6	0.69216573
3	0x3f239870	0.63904476

input_projection.bias f4 [2]
0	0xbf218b99	-0.63103634
1	0x3bf290d2	0.007402518

cells.0.x2h.weight f4 [256, 2]
0	0xbe1f6b39	-0.15568246
1	0xbf30bf81	-0.6904221
2	0x3f22d447	0.6360516
3	0xbe066a3f	-0.13126467
4	0x3e8fb95f	0.28071114
5	0x3f1bd108	0.6086583
6	0xbf025e99	-0.50925595
7	0xbf05de2c	-0.5229213
8	0x3ed451e1	0.4146872
9	0x3f2f5c0a	0.68499815
10	0x3ed634e3	0.41837224
11	0x3f268f0b	0.65062016
12	0x3f0254af	0.50910467
13	0xbd8e7932	-0.0695671
14	0xbf2a5335	-0.66533214
15	0xbea3b95b	-0.31977352
16	0x3f00eef2	0.503646
17	0xbe9abb6f	-0.30221125
18	0xbebb2220	-0.36549473
19	0x3eca9a61	0.39570907
20	0x3f1aeb7a	0.6051556
21	0xbeea961c	-0.4581765
22	0xbea0411b	-0.31299672
23	0x3ef83e1f	0.48484895
24	0xbea209d7	-0.31648132
25	0xbee42f40	-0.445673
26	0xbde844e1	-0.113412626
27	0x3eef72e8	0.46767354
28	0x3ddbfb47	0.10741287
29	0xbbeb0ec6	-0.007173392
30	0x3e6df767	0.23238908
31	0xbea385e0	-0.31938076
32	0x3f1ec6ee	0.6202229
33	0x3edecae0	0.43514156
34	0xbf208ab6	-0.62711656
35	0xbf0e68a1	-0.556284
36	0xbe6a03a0	-0.22852945
37	0x3eedd662	0.46452624
38	0xbef4954d	-0.47770157
39	0x3f045fe4	0.5170882
40	0xbec93827	-0.39300653
41	0x3cbbc6c5	0.02292193
42	0xbede59bb	-0.43427834
43	0xbea78669	-0.32719734
44	0xbb9a07c4	-0.0047006328
45	0x3d44fc8a	0.048092403
46	0xbbc19895	-0.005908082
47	0x3e125aba	0.14292422
48	0xbefa5b99	-0.48898008
49	0xbed4457c	-0.41459262
50	0x3df7267b	0.120678864
51	0x3ee84941	0.45368388
52	0x3ea08107	0.3134844
53	0x3e163ab2	0.14670828
54	0xbe3dd71b	-0.18539087
55	0x3da8bfbe	0.08239697
56	0x3ef28301	0.47365573
57	0xbd07766e	-0.033071928
58	0xbf15ebc1	-0.58562857
59	0xbeeb8206	-0.45997638
60	0xbf324ab8	-0.6964526
61	0xbcefbbfd	-0.029264444
62	0xbe955fc4	-0.29174626
63	0x3e68e6f8	0.22744358
64	0x3eacff0a	0.3378833
65	0xbe90ecef	-0.28305766
66	0xbf1c4354	-0.61040235
67	0x3f018b52	0.5060321
68	0x3e9e5967	0.30927584
69	0x3e872140	0.26392555
70	0x3f03cc18	0.514833
71	0xbea7f219	-0.32801893
72	0x3ec1f2a5	0.37880436
73	0xbe34ca08	-0.17655194
74	0x3d3e9a55	0.0465339
75	0x3e9214fd	0.28531638
76	0x3ed83043	0.4222432
77	0x3f449341	0.7678719
78	0x3eb3c853	0.35113773
79	0x3e037817	0.1283878
80	0xbeaf99f8	-0.34297156
81	0xbd3a0b6d	-0.045421053
82	0xbeff1616	-0.49821538
83	0xbedef82b	-0.43548712
84	0xbd2d13c2	-0.04225517
85	0x3df2e294	0.118596226
86	0xbebb3c93	-0.36569652
87	0xbf0f23d0	-0.5591402
88	0x3ea6ed9b	0.32603154
89	0xbe4c8fb2	-0.1997669
90	0xbdb0665e	-0.08613275
91	0xbe6f01a6	-0.23340473
92	0xbf22c00e	-0.635743
93	0xbf28f22b	-0.6599452
94	0x3e215385	0.15754516
95	0xbf31a5a7	-0.6939339
96	0x3eaa1eff	0.33226773
97	0xbe8f6985	-0.28010193
98	0xbf264077	-0.64942116
99	0xbe9452e9	-0.28969505
100	0x3e8c22f9	0.27370432
101	0xbe19cf9f	-0.15020607
102	0xbf0f24f1	-0.55915743
103	0x3f290897	0.6602873
104	0xbe911343	-0.28335008
105	0xbe9544ed	-0.2915415
106	0x3f19ee95	0.6012967
107	0x3f4dcfe1	0.80395323
108	0x3e5270e7	0.20550881
109	0x3e6a365a	0.22872296
110	0xbebaed62	-0.36509234
111	0xbef5a4ba	-0.4797724
112	0xbf16914d	-0.5881546
113	0xbcfc352f	-0.030787079
114	0xbf0e50a9	-0.5559183
115	0x3e60f038	0.21966636
116	0x3e406646	0.18789014
117	0x3e6a55e6	0.2288433
118	0xbee52238	-0.4475267
119	0xbed023a5	-0.40652195
120	0xbe2999c7	-0.16562568
121	0x3e6775a1	0.22603466
122	0xbd9bb557	-0.07602947
123	0x3ecb5a15	0.39717165
124	0x3da0650e	0.07831775
125	0x3eaea7bd	0.3411235
126	0x3e874a8f	0.2642407
127	0xbf0bd59e	-0.5462283
128	0xbf27153c	-0.65266776
129	0x3f09808f	0.5371179
130	0x3dc5eae3	0.09663942
131	0x3eceabad	0.40365353
132	0x3ebfec8f	0.37485167
133	0x3c26abc5	0.010172789
134	0x3e9be791	0.3045011
135	0xbf1c99ae	-0.61171997
136	0x3f1dd73b	0.6165654
137	0x3f2dffdf	0.67968553
138	0xbecaf3a5	-0.3963901
139	0xbe5869a2	-0.21134046
140	0xbe4b1099	-0.1983055
141	0xbf117863	-0.5682432
142	0xbecbe0ca	-0.39819938
143	0xbf17f460	-0.5935726
144	0x3f262696	0.6490263
145	0x3f076844	0.5289347
146	0xbf19d8fe	-0.6009673
147	0xbef4397b	-0.47700104
148	0x3e8a80ba	0.27051336
149	0xbf301879	-0.6878734
150	0x3ee9266b	0.45537123
151	0xbea1c51f	-0.31595704
152	0xbe1c638f	-0.15272354
153	0xbeaddf04	-0.3395921
154	0xbefa493a	-0.48883992
155	0xbf0958c6	-0.5365108
156	0x3f0e4bb6	0.55584276
157	0xbdae9a12	-0.0852548
158	0x3ed445b0	0.41459417
159	0x3f29fb5c	0.6639917
160	0x3c69fbd3	0.014281231
161	0x3f32eac0	0.6988945
162	0x3e17ce37	0.14824758
163	0xbf2d75f8	-0.6775813
164	0x3f13e774	0.57775044
165	0x3f2a516b	0.66530484
166	0xbe6fbbe0	-0.23411512
167	0x3b3085e4	0.0026935274
168	0x3e98033c	0.29689968
169	0x3f0220bb	0.5083119
170	0x3d84620a	0.06464012
171	0x3dcde25e	0.10052942
172	0xbf243c71	-0.64154726
173	0x3f26d0ae	0.6516217
174	0x3f1f781d	0.62292653
175	0xbdf1dd6c	-0.11809811
176	0x3ecede62	0.4040404
177	0xbe264ac4	-0.16239458
178	0xbf1054a8	-0.56379175
179	0x3df9a960	0.12190509
180	0x3f245d3a	0.6420475
181	0xbe521dfd	-0.20519252
182	0xbef835d7	-0.48478577
183	0x3e07d714	0.1326564
184	0xbf0627f1	-0.52404696
185	0x3ee5a9c9	0.44856098
186	0xbf125a9c	-0.5716951
187	0x3ed79507	0.42105886
188	0x3f2f217f	0.68410486
189	0x3bc0d201	0.0058844094
190	0x3defb756	0.117048904
191	0xbf27c722	-0.6553823
192	0xbf1055c2	-0.56380856
193	0xbec2a674	-0.3801762
194	0x3f338346	0.7012218
195	0xbe041d6d	-0.1290185
196	0xbea57504	-0.32315838
197	0x3cb476c4	0.022029288
198	0xbe3e9abb	-0.18613712
199	0xbef5ce02	-0.48008734
200	0xbe5f619b	-0.21814577
201	0x3ed9fd16	0.42575902
202	0xbee7e3f6	-0.45291108
203	0xbf23e07b	-0.64014405
204	0x3eba9036	0.3643815
205	0x3ef6bd32	0.4819122
206	0xbec0180c	-0.37518346
207	0x3f0a1843	0.5394327
208	0x3f0a3e63	0.54001445
209	0xbeaeb2f1	-0.34120896
210	0xbeabd350	-0.33559656
211	0xbe22ff7f	-0.15917777
212	0xbde73edc	-0.11291286
213	0x3dd47344	0.10373548
214	0x3e80632e	0.25075668
215	0xbf286b94	-0.6578915
216	0xbf2b2f8e	-0.6686944
217	0x3f301b4a	0.6879164
218	0x3effd401	0.49966434
219	0xbe6494ae	-0.22322342
220	0x3ee97ad3	0.4560152
221	0xbf0c5181	-0.54811865
222	0xbe537334	-0.20649415
223	0x3f102833	0.5631134
224	0x3f3276ae	0.6971234
225	0xbe91252f	-0.2834868
226	0x3e5d401c	0.21606487
227	0x3edee94e	0.43537372
228	0x3e2b352e	0.16719505
229	0x3c8fce1f	0.01755434
230	0x3e645546	0.22298154
231	0xbf097698	-0.53696585
232	0xbdcf8414	-0.10132614
233	0x3f022799	0.5084167
234	0xbeb8bedf	-0.36083123
235	0x3ed605ff	0.4180145
236	0xbf110463	-0.5664732
237	0x3de7134c	0.112829775
238	0xbea7e72b	-0.32793555
239	0x3e88287d	0.2659339
240	0x3d94b74c	0.072615236
241	0xbe124b08	-0.14286435
242	0x3d4804d1	0.04883272
243	0xbf07bf4e	-0.5302628
244	0x3efc9bbd	0.4933757
245	0xbe96d66a	-0.2946046
246	0x3edcf5ab	0.4315618
247	0x3f060473	0.5235054
248	0xbe37e8d6	-0.17959914
249	0xbf21e7b4	-0.63244176
250	0x3f058e13	0.52169913
251	0xbf315677	-0.6927256
252	0x3f28f4a0	0.6599827
253	0x3ee58019	0.44824293
254	0x3e83bafe	0.257286
255	0xbef0139c	-0.4688996

cells.0.x2h.bias f4 [256]
0	0xbee39510	-0.44449663
1	0x3f08cd43	0.53438205
2	0xbddc6980	-0.1076231
3	0x3f0c1e1b	0.5473344
4	0x3df192c0	0.117955685
5	0x3f3378f4	0.70106435
6	0xbf0c8019	-0.5488296
7	0xbeeae038	-0.4587419
8	0x3e4dfc4e	0.20115778
9	0xbe74152a	-0.23836198
10	0xbe84e275	-0.25954023
11	0x3db768e1	0.08955551
12	0xbed2d87b	-0.41180786
13	0x3f00080c	0.5001228
14	0x3f0f7c88	0.56049395
15	0x3eb17757	0.34661362
16	0xbeab5d5a	-0.3346966
17	0x3f1f2d3c	0.621784
18	0x3f03ca59	0.51480633
19	0x3e0ad0e1	0.13556243
20	0x3ee5a81c	0.4485482
21	0x3e508224	0.20362145
22	0x3e4699cd	0.19394608
23	0x3ef5845d	0.47952548
24	0x3f031697	0.51206344
25	0xbf1d1e4c	-0.61374354
26	0xbeb154f8	-0.3463514
27	0xbf332b4a	-0.6998793
28	0xbf0f80f6	-0.56056154
29	0xbf1ce892	-0.61292374
30	0x3f07c0b6	0.5302843
31	0xbe939acd	-0.2882904
32	0xbf09e021	-0.5385762
33	0xbb97910e	-0.004625446
34	0xbf2e58e6	-0.681044
35	0x3f1408a4	0.57825685
36	0xbf1e5997	-0.61855453
37	0xbf1b4399	-0.6065002
38	0xbf0d87ba	-0.5528523
39	0x3e1e5697	0.15462719
40	0x3c17f927	0.009275711
41	0x3f10a71e	0.56505
42	0xbe40f304	-0.18842703
43	0xbf15f13f	-0.5857124
44	0x3ea3a540	0.31962013
45	0xbd09cbcb	-0.033641618
46	0x3c937a8d	0.018002773
47	0x3e85fe31	0.26170495
48	0x3e39e457	0.18153511
49	0xbe8109c5	-0.25202766
50	0xbe795aeb	-0.24351089
51	0x3f2fb911	0.68641764
52	0x3e33e07c	0.17566103
53	0xbf0ee364	-0.5581572
54	0xbf10ec31	-0.566104
55	0xbf135842	-0.57556546
56	0xbe519021	-0.20465137
57	0x3f1929f1	0.5982962
58	0x3f208a02	0.62710583
59	0xbf348d12	-0.70527756
60	0x3f2f7020	0.68530464
61	0x3eb7385a	0.3578518
62	0x3f252068	0.64502573
63	0xbe861f6e	-0.26195854
64	0xbb4350ca	-0.0029802793
65	0x3f1a375c	0.6024072
66	0xbe00c819	-0.12576331
67	0x3f104b2b	0.563647
68	0xbf12c8d0	-0.57337666
69	0x3f006efc	0.5016935
70	0xbe69780f	-0.22799705
71	0x3f2c3f7f	0.6728439
72	0xbef50431	-0.4785476
73	0xbea0f081	-0.3143349
74	0xbebbb6ba	-0.36662847
75	0x3e6d0bc2	0.23149016
76	0xbf3142ea	-0.6924273
77	0x3eda98be	0.42694658
78	0xbf01754d	-0.5056961
79	0xbf06f93b	-0.52724046
80	0xbe28dfe1	-0.16491653
81	0xbe57a47c	-0.2105884
82	0xbe4ef3b4	-0.20210153
83	0x3ec48d3e	0.3838901
84	0x3f1aaa46	0.60416067
85	0xbedc826b	-0.4306825
86	0x3e7793df	0.24177502
87	0xbf266886	-0.6500324
88	0xbc8fe297	-0.017564101
89	0xbe65215f	-0.22376011
90	0xbc8f1a5e	-0.017468628
91	0x3e61ec25	0.22062738
92	0x3e453c36	0.1926125
93	0xbea5bccc	-0.32370603
94	0xbf283d2d	-0.65718347
95	0x3ecfa003	0.40551767
96	0x3ec1209b	0.37720188
97	0x3f0848e3	0.53236216
98	0x3efa5c52	0.4889856
99	0xbf137f1f	-0.57615846
100	0xbe914f23	-0.2838069
101	0xbe57c23d	-0.2107019
102	0xbe6f5e5d	-0.2337584
103	0xbd802b11	-0.06258214
104	0x3f302459	0.6880546
105	0x3dcdcdaa	0.10048993
106	0xbe84cc16	-0.25936955
107	0xbec74769	-0.3892167
108	0xbee2b4db	-0.44278607
109	0xbed7c52f	-0.42142627
110	0xbea101f0	-0.3144679
111	0xbd4ee199	-0.050508115
112	0xbd953ea5	-0.07287339
113	0xbdc4f9f7	-0.096179895
114	0xbf1bd9e3	-0.60879344
115	0x3efcd8f7	0.4938428
116	0xbf108276	-0.5644907
117	0x3f114af8	0.5675502
118	0xbf31eb65	-0.6949981
119	0xbe039b99	-0.12852325
120	0xbd61e6fa	-0.055151917
121	0xbed7da61	-0.42158797
122	0xbe958c4b	-0.29208598
123	0x3d0847e3	0.03327168
124	0xbcb36e7a	-0.021903265
125	0xbf01241f	-0.5044574
126	0x3f025d39	0.50923496
127	0x3eadc296	0.3393752
128	0x3ead23b3	0.338163
129	0x3eac25dc	0.33622634
130	0xbf0d73e4	-0.5525496
131	0x3e59369f	0.21212243
132	0x3eefe152	0.46851593
133	0x3f064776	0.5245279
134	0x3d03b4d2	0.032154866
135	0x3e0bc992	0.13651112
136	0xbf030c40	-0.51190567
137	0xbf24d55e	-0.6438807
138	0xbf2633da	-0.6492287
139	0x3f050d51	0.51973444
140	0xbe6d63ef	-0.23182653
141	0x3f35b99a	0.7098633
142	0x3f0b39a2	0.54384816
143	0xbde86c79	-0.113488145
144	0xbf2e731e	-0.68144405
145	0xbddfd138	-0.10928577
146	0x3eca7b0c	0.39547002
147	0x3dc3699f	0.0954163
148	0xbe3ea1e3	-0.18616442
149	0xbf0dbd3a	-0.5536686
150	0xbe0c6997	-0.13712154
151	0x3f1c6b98	0.61101675
152	0x3f0175d5	0.5057042
153	0x3e41754a	0.18892398
154	0x3ea00435	0.3125321
155	0xbec0b86b	-0.376407
156	0x3dd9b3b3	0.10629978
157	0x3ea76c06	0.32699603
158	0x3eb9b285	0.36269012
159	0xbf0286fa	-0.5098721
160	0x3d10871f	0.03528511
161	0xbebd06ad	-0.36919156
162	0x3f2a6017	0.6655287
163	0x3f25ccbf	0.6476554
164	0xbe91ab91	-0.28451207
165	0xbdd980e1	-0.10620285
166	0xbf1c251c	-0.60994124
167	0xbece0d50	-0.40244532
168	0xbf30949e	-0.6897677
169	0xbe512e17	-0.20427738
170	0x3dd5cfcb	0.10440024
171	0xbe76fc77	-0.24119745
172	0x3f2ff90e	0.687394
173	0xbd9f94ff	-0.077920906
174	0x3f3393f6	0.70147645
175	0x3e4dd8ef	0.20102285
176	0xbf181d67	-0.59419864
177	0x3cc06810	0.02348712
178	0x3ddb6957	0.10713451
179	0x3e2e96b3	0.17049675
180	0xbe755f58	-0.23962152
181	0xbf2bf315	-0.6716779
182	0x3eed073c	0.46294582
183	0x3f29eb43	0.66374606
184	0xbe6dabc9	-0.23210062
185	0x3e9acaa6	0.30232733
186	0xbe8471b5	-0.25868002
187	0xbe6da258	-0.2320646
188	0xbeafdd95	-0.3434874
189	0xbf1caf1c	-0.61204696
190	0x3f055d0a	0.5209509
191	0xbe04fae5	-0.12986334
192	0xbf24a067	-0.64307255
193	0xbedd8f51	-0.43273404
194	0xbf315aa0	-0.6927891
195	0xbf1cf4be	-0.61310947
196	0x3f23416a	0.6377169
197	0xbedda0a4	-0.43286622
198	0xbec5695b	-0.38556942
199	0x3df9be1d	0.12194464
200	0xbd8fd857	-0.070236854
201	0x3f15f1e7	0.5857224
202	0x3f0f6b77	0.56023353
203	0x3f3a8e42	0.7287332
204	0x3ef858e6	0.48505324
205	0xbe8fa46f	-0.2805514
206	0x3e4aee57	0.19817482
207	0xbee0f9fc	-0.43940723
208	0xbe8c6a18	-0.27424693
209	0xbf301091	-0.6877528
210	0x3f342f8f	0.7038507
211	0xbe23c31f	-0.15992402
212	0xbe2ceafa	-0.16886511
213	0x3eb9bdb4	0.36277544
214	0x3ef55104	0.47913373
215	0x3e9e0e31	0.30870202
216	0xbea06065	-0.31323543
217	0x3e11058e	0.14162275
218	0x3e88709a	0.26648408
219	0x3db6b6b5	0.08921567
220	0xbe606dab	-0.21916835
221	0x3f2bf0dc	0.671644
222	0x3f204a34	0.62613225
223	0xbf350ef3	-0.70725936
224	0xbe9bec09	-0.30453518
225	0xbf1755e7	-0.5911545
226	0xbd952af9	-0.07283587
227	0xbef19ec1	-0.47191432
228	0x3e95fe89	0.29295757
229	0x3ed8d6e8	0.4235146
230	0xbe7f5cee	-0.24937794
231	0xbf247d56	-0.6425375
232	0xbbfebafd	-0.0077737556
233	0xbf0272b2	-0.5095626
234	0xbd8038f8	-0.06260866
235	0xbeaeb2f5	-0.34120908
236	0xbdf1af64	-0.11801031
237	0x3e22ef7b	0.15911667
238	0x3e0adc7f	0.13560675
239	0x3eb1b562	0.34708697
240	0x3f102346	0.56303823
241	0xbee53fad	-0.44775143
242	0xbefacc85	-0.4898416
243	0xbe5b92d4	-0.21442729
244	0x3f23fded	0.64059335
245	0xbea1259e	-0.31474012
246	0x3ea7b2d7	0.3275363
247	0xbeba66fa	-0.3640669
248	0xbcde90bb	-0.027168622
249	0xbf105a84	-0.56388116
250	0x3e7caa56	0.24674353
251	0x3f17a942	0.5924264
252	0xbf036bb5	-0.5133622
253	0x3d3efb62	0.046626456
254	0xbdc58ab7	-0.096455984
255	0x3e98d047	0.29846403

cells.0.h2h.weight f4 [256, 64]
0	0x3cd9e284	0.026597269
1	0x3dc92f79	0.09823508
2	0xbda6e1a4	-0.08148506
3	0xbd0997f2	-0.033592172
4	0xbcc6dbeb	-0.024274787
5	0x3d5afacb	0.05346183
6	0x3d6c526e	0.0576958
7	0xbda9ab15	-0.082845844
8	0x3d07f288	0.03319028
9	0x3bf5007e	0.0074768653
10	0x3d895907	0.06706434
11	0x3d9a640a	0.07538612
12	0x3df8d6c7	0.121503405
13	0xbd84bcfc	-0.064813584
14	0x3c694345	0.01423723
15	0xbd452c5d	-0.04813801
16	0xbda450de	-0.08023237
17	0xbd8aa478	-0.06769651
18	0xbd3ebebc	-0.046568617
19	0x3c9d1857	0.019176645
20	0xbc3bf1c4	-0.011471216
21	0xbe0a908a	-0.135317
22	0x3aa3bf2c	0.0012492887
23	0xbd5e45f2	-0.054265924
24	0x3d9b57ed	0.0758513
25	0xbe01c788	-0.12673771
26	0x3e065074	0.13116628
27	0xb9481643	-0.0001908178
28	0xbd7b9822	-0.061424382
29	0x3d6ccb5f	0.057811137
30	0x3dd66505	0.10468487
31	0xbdb5ace8	-0.0887087
32	0xbdf80c69	-0.12111742
33	0xbe003f64	-0.12524182
34	0x3d69ea19	0.05710802
35	0xbdf11036	-0.1177067
36	0x3cbe3b86	0.023221742
37	0x3dd0fd4f	0.10204565
38	0xbe1811bf	-0.1485052
39	0x3d34dcef	0.04415601
40	0xbdfe0bca	-0.12404592
41	0xbe0132b8	-0.12617004
42	0xbd8dff45	-0.069334544
43	0x3d6ab505	0.05730154
44	0x3c5b3874	0.013380159
45	0xbdbe5866	-0.092942044
46	0x3c9f0d7b	0.019415608
47	0xbd830c9c	-0.063988894
48	0xbd989487	-0.07450204
49	0xbcf49eb3	-0.02986083
50	0xbd05b42f	-0.03264254
51	0xbdcc60a4	-0.0997937
52	0x3d4dc907	0.050240543
53	0x3d079b59	0.033107135
54	0xbdb1b26d	-0.0867661
55	0xbda3a503	-0.07990458
56	0xbdbc51c4	-0.09195283
57	0xbda18df4	-0.078884035
58	0x3d56d61d	0.052450288
59	0xbdae9750	-0.08524954
60	0xbdbb6414	-0.09149948
61	0xbdfa14f2	-0.12211026
62	0x3dbfa073	0.09356775
63	0x3d7e0c33	0.062023353
64	0xbdb852a1	-0.09000135
65	0x3bd5dfaa	0.006526907
66	0xbdb8c2c6	-0.09021525
67	0xbd1198a5	-0.035545964
68	0x3dbe49ee	0.09291445
69	0xbb93e352	-0.0045131827
70	0x3b62b72b	0.003459404
71	0xbd8c7941	-0.06859065
72	0x3d819f80	0.0632925
73	0xbc840a45	-0.016118178
74	0x3d12038f	0.035647925
75	0x3cb4414d	0.022003794
76	0xbd6bf930	-0.05761069
77	0x3cccfb0f	0.025022058
78	0x3b895c43	0.0041919067
79	0x3cc68c9e	0.024236973
80	0xbca8bd61	-0.020598115
81	0xbd8e10ab	-0.06936773
82	0xbdc8f2d7	-0.09811943
83	0xbd977416	-0.073951885
84	0x3d4fc5c7	0.050725725
85	0x3c449352	0.0119980145
86	0x3ce8267b	0.028338661
87	0x3d43f092	0.047836848
88	0x3ddc7877	0.10765164
89	0xbc8845c1	-0.016634824
90	0x3d0eeda7	0.03489461
91	0x3d89c79d	0.06727526
92	0xbca8cdfa	-0.02060603
93	0xbd6e84f5	-0.058232266
94	0x3db24d36	0.08706133
95	0xbc06a90c	-0.008219015
96	0x3d1ed478	0.038776845
97	0x3dec2823	0.11531093
98	0xbd5696c0	-0.05238986
99	0x3d0cda73	0.034388017
100	0xbdda4d12	-0.10659231
101	0xbd87d461	-0.06632305
102	0xbd87b010	-0.06625378
103	0x3dcd4a75	0.10023967
104	0xbcc9b8dc	-0.02462428
105	0xbdd2236b	-0.10260662
106	0xbda584b3	-0.08081951
107	0xbd5f5653	-0.054525685
108	0x3c95bad6	0.018277567
109	0x3da414ce	0.08011781
110	0xbda5833d	-0.08081672
111	0x3d1b63e5	0.037937064
112	0x3a9c608b	0.0011930628
113	0xbd38a089	-0.045074973
114	0x3da28947	0.0793634
115	0xbdd36bfe	-0.10323332
116	0x3dbb53d7	0.091468506
117	0xbe250d9f	-0.16118477
118	0xbdc8047d	-0.09766481
119	0x3e00ee26	0.12590846
120	0xbdf8e715	-0.121534504
121	0xbbc8fa49	-0.006133352
122	0xbcaddd3a	-0.021223653
123	0x3cfacc08	0.030614868
124	0x3d6c9ead	0.057768513
125	0xbdbc12de	-0.09183286
126	0x3e07f02b	0.1327521
127	0x3ddd8651	0.108166344
128	0x3daf71b4	0.08566609
129	0xbe023203	-0.1271439
130	0x3dab8651	0.08375228
131	0x3d642498	0.05569896
132	0x3d53f8bc	0.051750883
133	0xbd3046b1	-0.043036167
134	0x3ceac58c	0.02865865
135	0x3ddcf76e	0.10789381
136	0x3dc1d25b	0.0946395
137	0xbdb860d0	-0.090028405
138	0xbca1fdbf	-0.019774316
139	0x3d30204a	0.042999543
140	0xbdc926b5	-0.09821836
141	0xbd26b018	-0.04069528
142	0x3d5be964	0.053689376
143	0x3de64dec	0.11245331
144	0x3d8a0e0d	0.06740961
145	0xbc5e3018	-0.013561271
146	0x3d3b2623	0.045690667
147	0xbcfff217	-0.031243367
148	0x3c02c9e4	0.007982705
149	0x3d98c0d1	0.07458652
150	0xbcf43716	-0.029811423
151	0xbd95b8c2	-0.073106304
152	0xbdf097a8	-0.11747676
153	0xbae29fec	-0.0017290092
154	0x3cf892a2	0.030343357
155	0x3c8c1024	0.01709754
156	0xbde343eb	-0.11096939
157	0xbe09c376	-0.13453469
158	0xbe0d88ac	-0.13821667
159	0xbd3446d3	-0.044012856
160	0x3caca228	0.021073416
161	0xbcf74080	-0.030182123
162	0x3cc7cb8b	0.024389049
163	0x3da4c20c	0.08044824
164	0xbd76bf45	-0.060241003
165	0xbd13b0de	-0.036057346
166	0x3d272673	0.040808152
167	0x3d223e94	0.03961046
168	0xbd1f5b94	-0.038905695
169	0xbdcbfe87	-0.099606566
170	0xbdabfcbf	-0.08397817
171	0x3d66125e	0.05616986
172	0x3dd12e6c	0.102139324
173	0x3acad8b5	0.0015475961
174	0x3d2cade5	0.042158026
175	0xbd063d74	-0.03277345
176	0xbd6d281d	-0.057899583
177	0x3e0a2bed	0.13493319
178	0xbd9abb1b	-0.07555219
179	0x3dfedc9d	0.124444224
180	0x3cd9c2b5	0.026582101
181	0xbdb97e59	-0.09057302
182	0x3d83d2ca	0.06436689
183	0x3d97e877	0.07417386
184	0x3dbe7ea7	0.09301501
185	0xbd29b174	-0.041428998
186	0x3942b2f1	0.00018567943
187	0x3c23b6ef	0.009992345
188	0x3d85ecd3	0.06539311
189	0xbc42cf55	-0.011890252
190	0x3d4387dd	0.04773699
191	0xbdcdd8a5	-0.10051087
192	0x3e198e31	0.14995648
193	0x3e366515	0.17811997
194	0x3e15203c	0.14563078
195	0x3ca5c376	0.020234805
196	0xbb940261	-0.004516885
197	0xbd9fddb7	-0.078059606
198	0xbe396126	-0.18103465
199	0xbddf066d	-0.108898975
200	0xbdb6306c	-0.088959545
201	0xbb11dd08	-0.002225699
202	0x3de4acf3	0.111658
203	0xbe276b01	-0.16349413
204	0x3d3abfb1	0.045592967
205	0xbbccfbb1	-0.00625559
206	0x3c84b71a	0.01620059
207	0x3d0bbecd	0.03411751
208	0xbcba12d1	-0.02271405
209	0xbc3628d4	-0.011118133
210	0xbdf6befe	-0.120481476
211	0xbd829f49	-0.063780375
212	0xbc086493	-0.00832476
213	0x3c95fd24	0.018309183
214	0x3ca23cca	0.019804377
215	0x3d2f4590	0.04279095
216	0xbcfd10f5	-0.030891875
217	0x3e4e9269	0.20173039
218	0x3dd44fb5	0.103667654
219	0xbe2a704c	-0.166444
220	0xbdf494cd	-0.11942444
221	0x3e45835e	0.19288394
222	0x3e300e9b	0.17193072
223	0x3d73228d	0.059359122
224	0x3e45833c	0.19288343
225	0xbd662664	-0.056188956
226	0xbdacf07f	-0.084443085
227	0x3e02dc93	0.12779455
228	0xbc2d33b4	-0.010571409
229	0xbbb558ae	-0.005534253
230	0x3e11bf17	0.14233051
231	0xbdb9dca2	-0.090752855
232	0x3d0e01f8	0.034669846
233	0x3cb84783	0.022495037
234	0xbd5adfe3	-0.05343617
235	0xbcc89fa8	-0.024490193
236	0xbdbcf8e7	-0.09227162
237	0x3d9e818c	0.07739553
238	0xbd987cf5	-0.07445709
239	0x3d9475e1	0.07249046
240	0xbc2bc681	-0.010484339
241	0xbe16be3e	-0.14721009
242	0xbdfcd340	-0.1234498
243	0xbdbb18ba	-0.091355756
244	0xbe34ab4a	-0.17643467
245	0x3e30bc86	0.17259416
246	0xbc305563	-0.010762545
247	0x3de2d5fd	0.11075971
248	0xbe06df13	-0.13171034
249	0xbcf6a316	-0.030107062
250	0x3dbbab55	0.09163538
251	0xbaf2eb2a	-0.0018533219
252	0xbd08b171	-0.033372346
253	0xbe079045	-0.13238628
254	0xbd2a1111	-0.041520182
255	0xbdd809d3	-0.10548749

cells.0.h2h.bias f4 [256]
0	0xbce3f11b	-0.027824929
1	0x3dd50cd9	0.10402841
2	0xbaa7d9b0	-0.0012805965
3	0xbce668d1	-0.028126152
4	0xbdba57dd	-0.0909879
5	0xbca2ae99	-0.019858645
6	0xbd1ef500	-0.03880787
7	0x3c7c9ec2	0.01541871
8	0xbd8a0e04	-0.067409545
9	0x3d23c630	0.03998393
10	0x3d386368	0.045016676
11	0xbd843b38	-0.064566076
12	0x3d9cf1c5	0.076633014
13	0x3d795998	0.06087646
14	0xbc641193	-0.013920206
15	0xbc7e8e81	-0.015536905
16	0xbd7cfe30	-0.06176585
17	0xbc98549a	-0.018595029
18	0xbdcb118b	-0.099154554
19	0xbd28ae28	-0.041181713
20	0x3c26c3eb	0.010178546
21	0x3dc0eae1	0.094197996
22	0x3da79b30	0.081838965
23	0xbd03599f	-0.03206789
24	0x3d5ccb04	0.05390455
25	0xbd9ba5b6	-0.07599966
26	0x3d8fa3ae	0.07013641
27	0xbcacddd9	-0.021101879
28	0xbcf3f075	-0.029777745
29	0x3c75b002	0.014995577
30	0xbdd5a3a3	-0.10431602
31	0xbdcdaf3b	-0.10043188
32	0xbccaf35d	-0.024774248
33	0xbd825ca3	-0.06365325
34	0x3d955ff0	0.07293689
35	0xbdd224c9	-0.102609225
36	0xbd500c7d	-0.05079316
37	0x3e17eff6	0.14837632
38	0xbd43ce8d	-0.047804404
39	0x3d2fe315	0.04294117
40	0x3cefd86e	0.029278006
41	0xbdcf4efc	-0.10122487
42	0x3d826f97	0.0636894
43	0xbe161adf	-0.14658688
44	0xbd5ae496	-0.053440653
45	0x3e350894	0.17679054
46	0x3d3518e2	0.044213183
47	0x3dbb3a50	0.091419816
48	0xbdf301c5	-0.11865572
49	0x3dd0af6e	0.101897106
50	0x3dc86eed	0.097867824
51	0xbcc167a2	-0.023608986
52	0xbd6fdeae	-0.058561973
53	0xbc77110a	-0.015079746
54	0x3d0dfdc8	0.034665853
55	0x3d385b14	0.045008734
56	0xbaabaf2f	-0.0013098473
57	0x3d4d1f6f	0.050078806
58	0x3b1b9a93	0.0023743256
59	0xbc762ba1	-0.01502505
60	0x3de56de3	0.112026
61	0xbd3a218b	-0.045442145
62	0x3e045e1e	0.12926528
63	0x3da950a0	0.08267331
64	0x3d8c0bef	0.06838214
65	0xbd9c0541	-0.076181896
66	0xbdfa29ec	-0.12215027
67	0x3dbcb3e8	0.09214002
68	0xbd5888cb	-0.05286483
69	0xbd3a7ca2	-0.045529015
70	0x3d87b04a	0.06625421
71	0xbd8ea9e8	-0.06966001
72	0x3dcbc8b0	0.099503875
73	0x3dc70878	0.09718412
74	0xbdce9c14	-0.10088363
75	0x3e0cba60	0.13742971
76	0x3db48896	0.08815114
77	0x3d3f21a3	0.046662938
78	0xbd912957	-0.07087963
79	0x3d8624b4	0.06549969
80	0xbdd4aea3	-0.10384872
81	0xbd96de30	-0.07366598
82	0xbd187c0b	-0.03722767
83	0x3d5ba7b6	0.05362674
84	0x3df304fe	0.118661866
85	0xbd0f131f	-0.034930345
86	0x3c81e6ab	0.015857061
87	0xbc8abe30	-0.016936392
88	0xbe0c1c93	-0.13682775
89	0x3d9f96e3	0.07792451
90	0xbdc4bf12	-0.09606756
91	0x3c833ffa	0.016021717
92	0x3d77c470	0.06049007
93	0x3c0888cb	0.008333395
94	0xbcffeb0d	-0.03124001
95	0xbdb4ddfe	-0.08831404
96	0xbe024328	-0.1272093
97	0x3da81e01	0.08208848
98	0xbd277231	-0.040880386
99	0xbdd84dcc	-0.105617136
100	0xbad74408	-0.0016423473
101	0xbe068015	-0.13134797
102	0x3db4793b	0.088121854
103	0xbdae4b00	-0.08510399
104	0x3daf52bf	0.085607044
105	0xbddb7abe	-0.107167706
106	0xbcacd1de	-0.021096166
107	0xbdffede4	-0.12496546
108	0x3d85834a	0.06519182
109	0x3c9f48ca	0.019443888
110	0x3e091604	0.13387305
111	0xbda1edb2	-0.07906665
112	0x3d2ac7f8	0.04169461
113	0xbcf74563	-0.030184453
114	0x3db7fdbd	0.089839436
115	0x3d95a2e7	0.07306462
116	0x3d80ad41	0.062830456
117	0x3dac9a84	0.08427909
118	0xbdbb093d	-0.091326214
119	0x3d378450	0.044803917
120	0x3d7ab322	0.06120599
121	0x3e02e298	0.12781751
122	0x3d5d5473	0.054035615
123	0x3d46adad	0.048505474
124	0xbde125de	-0.10993551
125	0x3d417e8f	0.047239836
126	0x3da35c86	0.07976632
127	0x3dc06686	0.09394555
128	0xbc35ca56	-0.011095604
129	0x3de3031e	0.11084579
130	0xbdccd781	-0.100020416
131	0x3e1dd36b	0.15412681
132	0x3def20d4	0.11676183
133	0x3dcfc4df	0.10144972
134	0x3da03ce1	0.07824112
135	0xbca15856	-0.019695442
136	0xbdfda7b0	-0.123854995
137	0x3cc802f3	0.024415469
138	0xbd1c6d02	-0.038189895
139	0xbde27464	-0.11057356
140	0x3d1054cc	0.03523712
141	0x3d559abe	0.052149527
142	0xbc57cc92	-0.013171332
143	0x3c1219d7	0.0089172935
144	0x3d4e9530	0.050435245
145	0xbd943ada	-0.072377875
146	0xbcc43a82	-0.02395368
147	0x3dbe1dc8	0.09283024
148	0xbce13c0f	-0.027494458
149	0xbbabe8e4	-0.0052462686
150	0x3d83d2ec	0.064367145
151	0xbdb58f7a	-0.088652566
152	0x3b54d4cc	0.003247547
153	0xbdb6b489	-0.08921153
154	0xbdcbd08a	-0.09951885
155	0xbde8e5e9	-0.11371977
156	0x3c170def	0.009219631
157	0xbcade8b5	-0.021229127
158	0xbdfd2484	-0.123604804
159	0x3d5259fa	0.05135534
160	0xbd8aaf69	-0.06771738
161	0x3e18e16e	0.14929745
162	0xbc8a6a51	-0.016896399
163	0x3cef2090	0.029190332
164	0xbca9b9bd	-0.02071845
165	0xbc929526	-0.017893385
166	0xbd35de97	-0.04440173
167	0x3db90316	0.09033792
168	0x3db7f41c	0.08982107
169	0x3d2788b7	0.040901866
170	0x3dcd33b8	0.1001963
171	0x3dabb4ff	0.08384132
172	0x3cbb1d9f	0.022841273
173	0xbdb4a144	-0.088198215
174	0x3d96efdb	0.073699676
175	0xbdb39d20	-0.087702036
176	0xbe092f3e	-0.13396928
177	0xbde89b3c	-0.113577336
178	0x3d20a30e	0.039218
179	0x3d932cc1	0.071862705
180	0x3dc32d56	0.095301315
181	0x3d805f2c	0.062681526
182	0xbcdab3a6	-0.026696991
183	0xbbb3e77d	-0.005490242
184	0x3db9c7da	0.09071322
185	0xbd57b6e9	-0.05266467
186	0x3dd53a20	0.10411477
187	0xbcb2b473	-0.02181456
188	0x3e02b156	0.12762961
189	0x3d342508	0.04398063
190	0x3e0439f3	0.12912731
191	0xbdde572d	-0.10856471
192	0x3e0000e5	0.12500341
193	0x3dfa4933	0.12220993
194	0xbc3b991d	-0.011450079
195	0x3c9956ea	0.018718202
196	0x3d4c97ba	0.049949385
197	0xbd4b5f02	-0.049651153
198	0xbcfea39a	-0.03108387
199	0xbce2f5a2	-0.027705017
200	0xbd07bac7	-0.03313711
201	0x3d9f6484	0.07782844
202	0x3c266e9d	0.010158208
203	0x3e0759f4	0.13217908
204	0xbcabd2bd	-0.020974511
205	0x3d0f9bb0	0.035060585
206	0x3c04f2db	0.008114542
207	0xbd965805	-0.07341007
208	0xbe020c86	-0.1270009
209	0x3d0b1485	0.033955116
210	0x3da3fd45	0.08007292
211	0x3bc53b5a	0.006019038
212	0xbd81a695	-0.06330601
213	0x3c95596f	0.018231122
214	0xbd3bedbb	-0.045881014
215	0xbdd61a2c	-0.10454211
216	0xbd711eee	-0.058867387
217	0x3dbc565e	0.09196161
218	0x3bb2b150	0.005453266
219	0x3daeab5e	0.085287794
220	0x3df600de	0.12011884
221	0x3dd542c7	0.104131274
222	0xbd0d1574	-0.034444287
223	0xbdb8ae13	-0.09017577
224	0x3b4e8a4b	0.0031515535
225	0x3d822978	0.06355566
226	0xbd1a8441	-0.037723783
227	0x3dd27db4	0.10277882
228	0xbcdcdafb	-0.026959887
229	0xbd8f22a3	-0.06989028
230	0x3cf2a535	0.029619792
231	0x3d1eaf5a	0.038741447
232	0xbd87832a	-0.066168144
233	0x3c67dee0	0.014152259
234	0x3ce71029	0.028205948
235	0xbdf0532d	-0.117346145
236	0x3dc66653	0.096874855
237	0x3de5a97f	0.112139694
238	0xbc771daf	-0.015082761
239	0xbcf99740	-0.03046763
240	0x3c6b6950	0.01436837
241	0xbde4ad43	-0.111658596
242	0x3c918c84	0.017767198
243	0xbd00450f	-0.03131586
244	0xbd6b2cd8	-0.057415813
245	0x3e2c0a51	0.1680081
246	0xbddca385	-0.107733764
247	0xbdcde0b4	-0.10052624
248	0xbcb5cb39	-0.02219163
249	0x3d114fff	0.03547668
250	0x3de38a38	0.111103475
251	0x3d2cc382	0.04217864
252	0xbd58f351	-0.05296642
253	0xbc9d119b	-0.019173434
254	0x3df99640	0.12186861
255	0xbdc69b2c	-0.096975654

cells.1.x2h.weight f4 [256, 64]
0	0xbda52606	-0.08063893
1	0xbd7987c0	-0.060920477
2	0xbdb18c6f	-0.08669364
3	0xbd4394e3	-0.04774941
4	0xbda7859b	-0.0817978
5	0x3d3cfb23	0.04613794
6	0x3db476ec	0.08811745
7	0x3dc826f2	0.09773053
8	0xbd7f74b9	-0.062367175
9	0xbd3369e9	-0.043802176
10	0x3d98c8f8	0.07460207
11	0xbd95ab13	-0.073080204
12	0xbdff24bb	-0.12458178
13	0xbdfbb4fe	-0.12290381
14	0x3c0b1703	0.008489373
15	0x3d377ba9	0.044795666
16	0x3d44f049	0.048080716
17	0x3cd7560f	0.026286153
18	0xbd3f5ff3	-0.046722364
19	0xbdc05d53	-0.093928
20	0xbd516732	-0.051123805
21	0xbbc30322	-0.005951301
22	0x3e149e53	0.14513521
23	0x3d37b272	0.044847913
24	0xbda8bae5	-0.08238772
25	0x3b1e395b	0.0024143073
26	0xbe1bdd58	-0.15221155
27	0xbdb571bf	-0.08859586
28	0x3d32d7f8	0.043662995
29	0xbd0ac539	-0.033879492
30	0xbdb025c3	-0.086009525
31	0x3da89fbf	0.08233594
32	0x3dcd192c	0.10014567
33	0xbd833680	-0.064068794
34	0x3bcac1f8	0.0061876737
35	0x3d63a04e	0.0555728
36	0xbc5772a4	-0.013149891
37	0xbd9eafb0	-0.077483535
38	0x3de25b94	0.110526234
39	0xbddf40e7	-0.10901051
40	0x3d1b1f81	0.03787184
41	0x3d990d5b	0.074732505
42	0x3dac9b7b	0.08428093
43	0x3d09f02d	0.033676315
44	0xbd140ca2	-0.03614486
45	0x3d2b1ace	0.04177361
46	0x3d8d81a2	0.06909491
47	0x3d597ee7	0.05309954
48	0x3db58fa9	0.088652916
49	0xbd2e5d47	-0.042569425
50	0xbe084681	-0.13308145
51	0x3da3f7e2	0.08006264
52	0xbcb6cd00	-0.022314548
53	0xbd0b1584	-0.033956066
54	0xbcfeaa84	-0.031087168
55	0x3db07282	0.08615591
56	0xbcdc6365	-0.026902864
57	0x3db721f4	0.08942023
58	0x3d2f828f	0.04284912
59	0x3da0e3a5	0.0785592
60	0xbd8bf85b	-0.068344794
61	0xbd880ffe	-0.06643675
62	0xbc9e9cda	-0.019361902
63	0xbcc8b365	-0.024499604
64	0xbcdf1fb1	-0.027236791
65	0xbcc77879	-0.024349438
66	0xbdb9b4ff	-0.090677254
67	0x3dbd318c	0.09237966
68	0x3d514ad9	0.05109677
69	0xbdb18647	-0.086681895
70	0xbc037b9f	-0.008025079
71	0x3db745da	0.0894887
72	0x3dbfb3ca	0.09360464
73	0xbd4198b7	-0.04726478
74	0xbd17e4fa	-0.037083603
75	0xbda10587	-0.078623824
76	0xbd8a7757	-0.067610435
77	0x3dafcaad	0.08583579
78	0xbe091a42	-0.13388923
79	0xbdbd519e	-0.09244083
80	0x3cc09f98	0.0235136
81	0xbcdd2bf5	-0.0269985
82	0xbd12b20a	-0.035814323
83	0x3dfaebf5	0.122520365
84	0x3d427b49	0.047480855
85	0xbd10efba	-0.03538487
86	0x3dc17f1f	0.094480745
87	0x3d18146b	0.037128847
88	0x3db20775	0.086928286
89	0xbd9d8b53	-0.076925896
90	0x3dcd4bd2	0.10024227
91	0xbd82dedf	-0.063901655
92	0xbdae2ec1	-0.08505011
93	0xbc2f401a	-0.010696435
94	0xbe02300c	-0.12713641
95	0xbdbde972	-0.09273042
96	0xbc073dee	-0.008254511
97	0x3d260281	0.04052973
98	0x3d7ace3c	0.061231837
99	0xbd88c0bc	-0.06677386
100	0x3d44e887	0.048073318
101	0x3bb3072b	0.005463501
102	0xbcef0e4b	-0.02918162
103	0xbddffb89	-0.109366484
104	0x3db0fb7c	0.08641717
105	0xbd539a30	-0.051660717
106	0x3dd076fa	0.10178943
107	0x3dc67359	0.096899696
108	0x3c1bef19	0.009517455
109	0xbe0a9fce	-0.13537523
110	0x3d7e8eb9	0.06214783
111	0xbd26bc4a	-0.04070691
112	0x3d6b2b82	0.05741454
113	0x3e0fb360	0.1403327
114	0x3e1bdaa4	0.15220124
115	0x3cd53196	0.026024621
116	0x3dce2c33	0.10067024
117	0xbdaea5c4	-0.08527711
118	0xbdd3de4e	-0.10345136
119	0x3dde5437	0.108559065
120	0x3dc04cb2	0.093896285
121	0xbda583ea	-0.08081801
122	0x3dfc2fba	0.123137906
123	0xbddf0af5	-0.10890762
124	0xba024e20	-0.0004970748
125	0x3dfcff31	0.123533614
126	0xbdc94206	-0.09827046
127	0x3c0c808e	0.008575572
128	0x3bfa45e3	0.0076377257
129	0x3df3d890	0.119065404
130	0x3d2a1c90	0.041531146
131	0xbdeb687b	-0.114945374
132	0x3caffd9d	0.021483237
133	0x3cbff323	0.023431366
134	0xbdcd2c1b	-0.10018178
135	0xbe0e49fe	-0.13895413
136	0xbd7079cb	-0.0587099
137	0x3d154590	0.036443293
138	0x3dc1a174	0.09454623
139	0xbda9bfb7	-0.0828852
140	0x3af4d38b	0.0018678767
141	0x3cc42818	0.0239449
142	0xbd9bda55	-0.07610003
143	0x3d60b28c	0.054857776
144	0xbd9b5d8b	-0.07586201
145	0xbca73ed4	-0.020415701
146	0x3b9c7a53	0.0047753244
147	0x3d6589d8	0.05603966
148	0x3d2d7212	0.042345114
149	0xbd463d93	-0.048398566
150	0xbd5d5b33	-0.054042052
151	0xbd0353ee	-0.032062463
152	0x3c98c207	0.018647207
153	0xbdc0f3da	-0.09421511
154	0x3c87563d	0.016520614
155	0xbcee60a1	-0.02909881
156	0xbdfedaee	-0.12444101
157	0x3dd75df2	0.105159655
158	0x3db298e1	0.087205656
159	0xbde1acb6	-0.1101927
160	0xbd7d4f10	-0.061842978
161	0xbdbccfff	-0.092193596
162	0xbe03b622	-0.12862447
163	0x3d97f3b1	0.07419527
164	0xbdabea49	-0.08394296
165	0xbcc4df46	-0.024032246
166	0xbd5e1370	-0.054217756
167	0xbde9d736	-0.11418001
168	0x3cf3a0ac	0.0297397
169	0xbb9fa76b	-0.0048722527
170	0xbd2805d1	-0.041021172
171	0xbdb2646c	-0.0871056
172	0xbbb10730	-0.005402468
173	0x3dfdf76b	0.12400707
174	0xbda061df	-0.078311674
175	0x3daaefcd	0.083465196
176	0x3dae22d6	0.08502738
177	0xbd4504db	-0.048100334
178	0xbd82ecab	-0.06392797
179	0xbdca27f3	-0.09870901
180	0xbde2ebf2	-0.11080159
181	0xbd919715	-0.07108895
182	0xbdd95d9c	-0.10613558
183	0xbdfc2341	-0.12311412
184	0xbdb50c6c	-0.0884026
185	0x3a69c7b0	0.00089180004
186	0x3db90505	0.090341605
187	0xbbfcc64f	-0.00771407
188	0xbd81c33e	-0.063360676
189	0x3d86c185	0.0657988
190	0xbccc9b3b	-0.024976363
191	0x3dd58f89	0.10427768
192	0x3dfe3052	0.1241156
193	0x3d39320d	0.045213748
194	0x3ccaee69	0.024771886
195	0xbdccd10a	-0.100008085
196	0xbd1bb864	-0.038017645
197	0x3c5f27fc	0.013620373
198	0xbdd43dec	-0.10363373
199	0xbd58b71e	-0.05290901
200	0xbda0725c	-0.07834312
201	0xbdd0f55d	-0.10203049
202	0x3cc1c469	0.023653226
203	0x3dd172e1	0.102269895
204	0x3df0ad50	0.11751807
205	0x3ddae1fa	0.10687633
206	0xbd6d74a9	-0.057972584
207	0x3dcc4289	0.09973628
208	0x3db0a5a3	0.08625343
209	0xbc48bf5e	-0.012252657
210	0x3d7d95d4	0.061910465
211	0x3cb33567	0.02187605
212	0x3aa04d6b	0.0012230104
213	0xbd568179	-0.05236957
214	0xbc0ff854	-0.008787233
215	0x3d4cc551	0.049992863
216	0x3d715b41	0.058924917
217	0x3a397a70	0.00070754346
218	0x3d17acc5	0.03703
219	0x3c963d55	0.018339792
220	0xbdb60a48	-0.0888868
221	0xbdde8907	-0.1086598
222	0xbd5a55e5	-0.05330457
223	0xbc015ece	-0.007896138
224	0xbdaf5eb5	-0.08562986
225	0xbdc90733	-0.09815826
226	0xbd832b26	-0.06404714
227	0x3dae5b5b	0.085135184
228	0x3e00093e	0.12503526
229	0xbe02928e	-0.12751219
230	0xbd1c7e0b	-0.03820614
231	0x3c7d5c17	0.01546385
232	0xbdc16b7a	-0.09444328
233	0xba9727fd	-0.0011532303
234	0x3d516120	0.051118016
235	0xbe018315	-0.1264766
236	0x3daf816f	0.085696094
237	0xbcd26df4	-0.025687195
238	0xbc982108	-0.018570438
239	0xbdac29f7	-0.08406442
240	0xbd87213f	-0.06598138
241	0x3ca02252	0.019547615
242	0xbd78b6a4	-0.060721055
243	0x3de213fa	0.110389665
244	0xbdde0fce	-0.10842858
245	0x3ceec5dc	0.029147081
246	0x3de0f2f6	0.10983841
247	0x3dfe5bf0	0.124198794
248	0x3d6f1182	0.058366306
249	0xbd8a46dc	-0.067517966
250	0x3bc03eb6	0.0058668507
251	0xbe0090ac	-0.12555188
252	0xbdcaba8e	-0.09898864
253	0x3d99ef8a	0.075163916
254	0xbc814a04	-0.015782364
255	0x3da62f84	0.08114532

cells.1.x2h.bias f4 [256]
0	0xbdde9f67	-0.10870247
1	0x3d73ace5	0.059491057
2	0x3db27b34	0.087149054
3	0x3e02f162	0.12787393
4	0xbdbb77d4	-0.09153715
5	0xbd540756	-0.05176481
6	0x3db1dacb	0.086843096
7	0xbc771e0a	-0.015082845
8	0xbd9da303	-0.07697108
9	0xbd381ee6	-0.044951342
10	0xbdcc52fa	-0.09976764
11	0x3d2e2c1c	0.042522535
12	0xbbf682ca	-0.0075229155
13	0x3def842a	0.1169513
14	0xbba7eeac	-0.0051248875
15	0x3d70f97e	0.058831684
16	0x3b911f31	0.004428767
17	0x3d3b0b80	0.045665264
18	0xbdc115c5	-0.0942798
19	0xbdacb7f6	-0.08433525
20	0x3da8af43	0.082365535
21	0x3d97b096	0.07406728
22	0xbd3b3684	-0.045706287
23	0xbdd7b154	-0.105318695
24	0x3db9abc0	0.09065962
25	0xbd7063ae	-0.058688812
26	0xbc924ac2	-0.017857913
27	0x3da9c994	0.08290401
28	0x3d80f328	0.062963784
29	0x3caef2f0	0.021356076
30	0xbc1a4cce	-0.009417726
31	0xbce5bd15	-0.028044263
32	0x3dc904c7	0.09815364
33	0xbd9bc04d	-0.07605038
34	0x3d956554	0.072947174
35	0x3e0aa5b4	0.13539773
36	0x3da4ebe7	0.08052807
37	0x3d1574ce	0.036488347
38	0x3db158b1	0.08659495
39	0xbc897c9b	-0.01678305
40	0x3cb3a66d	0.021929944
41	0x3dcb8996	0.09938352
42	0x3e0aaa55	0.13541539
43	0x3d1ef51e	0.03880798
44	0xbdbf2c2e	-0.093345985
45	0xbd4f8453	-0.050663304
46	0x3dbb12c9	0.09134442
47	0x3cdc3f8a	0.026885767
48	0x3de7e6f0	0.11323345
49	0xbcee58aa	-0.029095013
50	0xbdeb757c	-0.11497018
51	0xbd2e645b	-0.042576175
52	0x3d24a734	0.04019852
53	0x3d83dcbc	0.06438586
54	0x3dbd1220	0.09231973
55	0xbdacabf9	-0.08431239
56	0x3d917c68	0.07103807
57	0x3d15468a	0.036444224
58	0x3c5d4d5f	0.013507216
59	0x3d91bcf2	0.071161166
60	0xbd980c25	-0.074241914
61	0x3d91a1d6	0.07110946
62	0x3e1074e1	0.14107086
63	0x3c35c8a7	0.0110952025
64	0x3dd83efc	0.10558888
65	0xbe06cb61	-0.1316352
66	0x3cc7a2df	0.024369655
67	0x3e0438b3	0.12912254
68	0xbde27350	-0.1105715
69	0xbd741e2f	-0.059599098
70	0x3b9d0efe	0.004793047
71	0x3d2ac1b3	0.041688632
72	0x3deb9acc	0.115041345
73	0x3db0e685	0.08637718
74	0xbde06036	-0.10955851
75	0x3e092505	0.13393028
76	0x3dea9b7a	0.11455436
77	0x3ca4b084	0.0201037
78	0xbc8893dd	-0.01667207
79	0x3e03bc36	0.12864766
80	0x3dcf0655	0.101086296
81	0xbdb71a1c	-0.08940527
82	0x3d99bfe7	0.075073056
83	0xbd0a4ac3	-0.033762705
84	0x3dc38fa0	0.09548879
85	0x3d854b6b	0.065085255
86	0x3d695069	0.05696145
87	0x3c1321b5	0.008980204
88	0x3dc6189f	0.09672665
89	0xbd44df82	-0.048064716
90	0x3d8bdcb5	0.06829206
91	0xbcf650e8	-0.030067876
92	0xbc6d998c	-0.01450194
93	0x3de30411	0.1108476
94	0xbdf0fbae	-0.11766754
95	0xbd716a6f	-0.058939394
96	0x3dc6f529	0.09714729
97	0xbd801f83	-0.062560104
98	0xba8f06e4	-0.0010912088
99	0x3dcc22f5	0.09967605
100	0x3d8948a2	0.06703307
101	0xbd29dc9d	-0.04147016
102	0xbd8a9788	-0.067671835
103	0x3ccd0b90	0.025029927
104	0x3d8fb62c	0.070171684
105	0xbd94632a	-0.072454765
106	0x3d777bf4	0.060420945
107	0xbd6ceec9	-0.05784491
108	0xbc9119c7	-0.017712487
109	0xba1f3d9a	-0.0006074548
110	0x3dd02940	0.10164118
111	0xbc91a358	-0.017778084
112	0x3ccecc64	0.025243945
113	0x38f88e0a	0.00011852018
114	0xbbff0987	-0.007783118
115	0xbc88091b	-0.016605904
116	0xbe02e767	-0.12783585
117	0xbdd918dc	-0.10600445
118	0xbd6168c0	-0.055031538
119	0x3dec36bc	0.11533877
120	0x3da4d11f	0.08047699
121	0x3df4fd06	0.11962323
122	0x3ddb3bad	0.107047416
123	0x3df51b43	0.119680904
124	0xbdeb5231	-0.11490286
125	0xbdec3d29	-0.11535103
126	0x3d996fca	0.07492025
127	0xbcb415f7	-0.02198313
128	0xbd1f9f51	-0.038970295
129	0x3c829ec0	0.015944839
130	0x3ab6d504	0.0013948982
131	0x3cacad26	0.021078657
132	0x3d2119f7	0.039331403
133	0xbe086e0e	-0.13323233
134	0x3d49b64e	0.049246125
135	0x3dc1390f	0.09434711
136	0xbdd82b94	-0.10555187
137	0xbd42deeb	-0.047575872
138	0x3da600f5	0.08105651
139	0xbe040c58	-0.12895334
140	0xbdc7a4af	-0.09748208
141	0x3d1a9d5e	0.037747733
142	0x3cb41233	0.021981334
143	0x3d109fe8	0.03530875
144	0x3de44c3e	0.111473545
145	0x3da219ac	0.07915053
146	0x3db46abf	0.08809423
147	0x3d0d6e5f	0.034529086
148	0x3d65c028	0.056091458
149	0xbdfa642d	-0.12226138
150	0x3b44845c	0.002998612
151	0xbd85fb83	-0.06542113
152	0x3dc353c6	0.09537463
153	0xbdb75587	-0.0895186
154	0x3caeae4e	0.02132335
155	0x3dd0997a	0.10185523
156	0xbd5dfe3d	-0.05419754
157	0x3db50dda	0.088405326
158	0xbd644b00	-0.055735588
159	0xbdcb303c	-0.09921309
160	0x3ddc4f96	0.10757367
161	0x3dfc485f	0.12318491
162	0x3de22ac9	0.11043317
163	0x3b6823f0	0.003542181
164	0x3d20487c	0.039131626
165	0x3d7e6920	0.062111974
166	0xbe002854	-0.12515384
167	0x3d29c162	0.04144419
168	0xbd7e7b5f	-0.062129375
169	0xbd842035	-0.064514555
170	0x3d5de529	0.054173622
171	0xbc9d8506	-0.01922847
172	0xbdb26a6f	-0.08711707
173	0x3e07daf0	0.13267112
174	0x3de51edb	0.11187526
175	0xbd809e0d	-0.06280146
176	0x3d53268d	0.051550437
177	0xbe01e9de	-0.1268687
178	0xbd77706c	-0.06040995
179	0x3dcb95a4	0.09940651
180	0xbd10c808	-0.035347015
181	0xbcf0b673	-0.029383874
182	0xbdf150e1	-0.117830046
183	0xbde7492a	-0.11293252
184	0x3dc87d1f	0.0978949
185	0xbd518a6c	-0.0511574
186	0x3e0ee272	0.1395357
187	0xbe07e882	-0.13272288
188	0xbd963c05	-0.073356666
189	0xbd7d574a	-0.061850823
190	0xbdf0c0fe	-0.1175556
191	0xbe0a0e67	-0.13482057
192	0x3d18674f	0.037207898
193	0x3cc77acb	0.024350544
194	0x3d05b080	0.032639027
195	0x3d65a13c	0.05606197
196	0xbb57f786	-0.0032953932
197	0x3d23e1bf	0.04001021
198	0xbdce661f	-0.10078072
199	0x3dc5d3ea	0.0965956
200	0x3d136d21	0.035992745
201	0xbacc9543	-0.0015608448
202	0xbd073217	-0.033006754
203	0x3db356c3	0.08756783
204	0xbd05ac4d	-0.032635022
205	0x3bbca7d0	0.0057573095
206	0x3ce8f9ec	0.028439485
207	0x3d998fe5	0.07498149
208	0xbcd15191	-0.02555159
209	0x3d39aa67	0.045328524
210	0xbd90c156	-0.07068126
211	0x3c8e6472	0.01738188
212	0xbd885da5	-0.06658486
213	0x3df97b89	0.121817656
214	0xbd8a5f02	-0.067564026
215	0x3ca23a70	0.019803256
216	0x3d819a11	0.06328214
217	0xbd9fef86	-0.07809357
218	0x3c801ec0	0.015639663
219	0x3c374846	0.011186665
220	0xbd8d7e76	-0.06908886
221	0xbd3eff30	-0.046630085
222	0xbdd2a43e	-0.10285233
223	0x3d085648	0.03328541
224	0x3c8b0407	0.016969694
225	0x3d93badc	0.07213375
226	0x3d45cbb3	0.048289966
227	0x3df35fc4	0.118835
228	0x3d3cb2d8	0.046068996
229	0xbcf372cc	-0.029717825
230	0xbbeaa820	-0.0071611553
231	0x3c09042f	0.008362814
232	0xbdbb24a5	-0.09137849
233	0xbba4087c	-0.005005894
234	0x3d713039	0.05888388
235	0xbcb9baaf	-0.022672025
236	0x3dd04393	0.10169139
237	0xbd000748	-0.031256944
238	0x3ceb0b2c	0.02869185
239	0xbdb29163	-0.087191366
240	0x3c7e7225	0.015530144
241	0xbd862a78	-0.06551069
242	0x3de0c4a3	0.109750055
243	0x3d046c42	0.032329805
244	0xbdc58825	-0.09645108
245	0x3c7b869b	0.015351917
246	0x3dbeb438	0.09311718
247	0xbd9f2869	-0.077713795
248	0x3ccc1b1f	0.024915276
249	0xbd3c32cc	-0.04594688
250	0x3da96289	0.08270747
251	0xbd9f8cf3	-0.07790556
252	0xbdd64619	-0.10462589
253	0x3d0c9189	0.03431848
254	0xbc93b511	-0.018030675
255	0x3dc2fdd4	0.0952107

cells.1.h2h.weight f4 [256, 64]
0	0x3b5321dd	0.003221623
1	0xbdcd918f	-0.10037529
2	0xbd0381ac	-0.032106087
3	0x3dcbf26c	0.09958348
4	0xbdeadb11	-0.11467565
5	0xbd6002d0	-0.054690182
6	0xbd7ef6cf	-0.062247094
7	0x3dd0b632	0.10191001
8	0xbdd70f87	-0.105010085
9	0x3d2e23cb	0.042514604
10	0x3badbebb	0.005302278
11	0x3ddd78ad	0.10814033
12	0xbdb61296	-0.08890264
13	0xba551e62	-0.00081298326
14	0x3cdb89a5	0.026799032
15	0xbda40fb7	-0.0801081
16	0x3de870ca	0.11349638
17	0x3e02aebb	0.12761967
18	0xbdceb1e2	-0.10092522
19	0x3d963c6e	0.07335745
20	0xbdd21f82	-0.10259916
21	0xbdc3c5ce	-0.095592126
22	0xbdad84ef	-0.08472621
23	0x3ce536e7	0.027980281
24	0x3b27b252	0.0025588465
25	0xbe03720c	-0.12836474
26	0xbce410a1	-0.02783996
27	0xbdcde5f7	-0.10053628
28	0x3d9bae3a	0.076015905
29	0xbdda7cf9	-0.10668368
30	0xbc2af200	-0.010433674
31	0xbdbe111c	-0.09280607
32	0xbd615279	-0.055010293
33	0xbd5e300b	-0.054245036
34	0xbd6801a8	-0.056642205
35	0xbdcacbfb	-0.099021874
36	0x3d495cc0	0.04916072
37	0x3d14389e	0.036186807
38	0x3df70be9	0.120628186
39	0x3ddddd49	0.108332224
40	0x3d92e8e1	0.071733244
41	0xbdaedba5	-0.085379876
42	0x3b6d21c7	0.0036183463
43	0x3dc141c2	0.094363704
44	0x3d32e78f	0.043677863
45	0xbda15d48	-0.0787912
46	0xbdf523ee	-0.11969744
47	0xbdaec26d	-0.085331775
48	0xbd4f4d53	-0.05061085
49	0xbce2538b	-0.027627727
50	0x3dd136bd	0.102155186
51	0x3df03720	0.11729264
52	0xbe00c4cb	-0.1257507
53	0xbde120a1	-0.109925516
54	0xbda9047b	-0.08252808
55	0xbdd4336a	-0.10361369
56	0xbd754c1f	-0.059887048
57	0x3d44046e	0.047855787
58	0x3dc5dab8	0.09660858
59	0xbda934f6	-0.082620546
60	0x3d53b00d	0.051681567
61	0x3df67ebb	0.12035891
62	0xbdd50a74	-0.104023844
63	0xbd5f92a5	-0.05458321
64	0x3c981bba	0.018567909
65	0x3de36b46	0.11104445
66	0xbc92e37e	-0.017930742
67	0xbd8a2c00	-0.067466736
68	0xbdbcf1e9	-0.09225828
69	0xbdabc3e8	-0.083869755
70	0x3dcca626	0.09992628
71	0xbdaa1e62	-0.08306576
72	0xbbf7b8e5	-0.007559883
73	0xbd80fba4	-0.06297997
74	0xbcf6f29e	-0.030144986
75	0xbda0c226	-0.07849531
76	0xbdaf7b79	-0.085684724
77	0x3d15c523	0.036564957
78	0x3d941064	0.07229689
79	0x3d58ed46	0.052960657
80	0x3d86b558	0.06577557
81	0x3ddfad3f	0.10921716
82	0xbe0dcaf8	-0.13846958
83	0xbdcf4788	-0.101210654
84	0xbdde9178	-0.1086759
85	0x3d81884c	0.06324825
86	0xbd87d613	-0.06632628
87	0x3db07bcf	0.086173646
88	0x3ddf58a2	0.10905577
89	0x3cdacf8f	0.0267103
90	0xbd2c3558	-0.04204306
91	0xbe00fd69	-0.12596668
92	0x3d5d3c2a	0.054012455
93	0x3be554cd	0.0069986344
94	0x3a4d061a	0.00078210386
95	0x3d8be920	0.068315744
96	0xbd8d180d	-0.06889353
97	0xbd4eb900	-0.0504694
98	0xbd7a05db	-0.06104074
99	0xbda28ca7	-0.079369836
100	0x3d5a8f7b	0.05335949
101	0x3dc2e14f	0.095156305
102	0x3d9f7181	0.07785321
103	0xbd8e9286	-0.06961541
104	0x3c7c6757	0.0154054975
105	0xbced641e	-0.028978404
106	0xbdb8c209	-0.09021384
107	0x3d026b85	0.03184082
108	0x3d75d01b	0.060012918
109	0x3d80eda4	0.06295326
110	0xbca469b2	-0.02006993
111	0x3d17f392	0.03709752
112	0xbcd18c28	-0.025579527
113	0x3d9acb18	0.07558268
114	0xbba87e57	-0.005142014
115	0xbdb123be	-0.086493954
116	0xbcf7ba9e	-0.030240353
117	0x3d2a10fa	0.041520096
118	0x3d6f06f7	0.05835625
119	0x3d93331e	0.07187484
120	0x3d214884	0.039375797
121	0xbb4e5340	-0.0031482726
122	0xbd984795	-0.07435528
123	0xbc08dc81	-0.0083533535
124	0xbe11c5b5	-0.14235575
125	0xbb28a3c7	-0.0025732385
126	0x3d94d7d4	0.072677284
127	0x3d985bc3	0.07439377
128	0x3dca8651	0.098889
129	0x3d0209be	0.031747572
130	0x3c93b64a	0.018031258
131	0xbd04f875	-0.03246351
132	0x3da44cbf	0.08022451
133	0xbdf1678a	-0.11787327
134	0xbd27fd04	-0.04101278
135	0xbdb238a5	-0.0870221
136	0xbdc7d6a9	-0.0975774
137	0xbde18790	-0.110121846
138	0xbd073ad3	-0.033015084
139	0xbd3f494a	-0.046700753
140	0x3cb3d333	0.021951294
141	0xbd996a4d	-0.074909784
142	0x3d904b6e	0.07045637
143	0xbd0bea11	-0.03415877
144	0x3d826663	0.06367185
145	0x3de623e2	0.11237313
146	0x3de4366d	0.111431934
147	0x3cca85ef	0.024722068
148	0xbdc080d2	-0.093995705
149	0xbdc6484f	-0.096817605
150	0x3d646c14	0.055767134
151	0x3c64bcee	0.01396106
152	0x3ce69b68	0.028150275
153	0xbd32070e	-0.04346376
154	0xbc9ec2ed	-0.019380057
155	0x3d22de3a	0.039762713
156	0x3dd325cf	0.10309946
157	0xbcbc6baf	-0.023000566
158	0xbdcb6e39	-0.09933133
159	0x3e01d0c6	0.12677297
160	0x3d9c6f89	0.07638461
161	0xbcd56c95	-0.026052753
162	0x3d2a2085	0.04153492
163	0xbc8f2cf7	-0.017477496
164	0x3c8ead4c	0.017416619
165	0xbd5eb444	-0.054371133
166	0xbcd7bd71	-0.02633545
167	0xbd6be366	-0.05758991
168	0xbc0d51c4	-0.0086254515
169	0xbdfc35d9	-0.12314958
170	0x3db2c4e7	0.087289624
171	0xbd6df21c	-0.05809222
172	0x3da40800	0.080093384
173	0x3d6cbdc3	0.05779816
174	0x3da605f0	0.08106601
175	0x3d0a12a6	0.03370919
176	0x3d99ec31	0.07515753
177	0xbda7fb13	-0.082021855
178	0x3dd8395b	0.10557815
179	0x3d2c8bbc	0.04212545
180	0xbded664f	-0.115917794
181	0x3de9f3d7	0.11423462
182	0x3dfc77fa	0.12327571
183	0xbdb5d0e5	-0.08877734
184	0xbd4a00d7	-0.049317207
185	0x3d23c1f0	0.039979875
186	0xbbfb04ef	-0.0076605002
187	0x3dacf0a8	0.08444339
188	0x3df8302b	0.12118562
189	0xbd40c3e9	-0.047061834
190	0x3d738f1f	0.059462663
191	0x3d169754	0.03676541
192	0xbda10617	-0.0786249
193	0x3d8cd806	0.06877141
194	0x3bfe7081	0.0077648764
195	0xbd882658	-0.066479385
196	0xbd6f8468	-0.05847588
197	0x3d93f848	0.0722509
198	0x3cdc3abc	0.026883475
199	0x3dcda9ea	0.10042174
200	0x3d48cf12	0.049025603
201	0xbcb5b18d	-0.02217939
202	0xbd2067ef	-0.03916162
203	0xbdcbb45a	-0.09946509
204	0xbd67f23a	-0.05662749
205	0xbcf488ca	-0.029850382
206	0x3d80ddca	0.06292303
207	0xbce42373	-0.027848935
208	0xbb9f95b4	-0.004870141
209	0xbc85d26c	-0.016335689
210	0x3da08f4c	0.07839832
211	0x3cc6ce29	0.024268227
212	0x3db5d6d7	0.08878868
213	0xbd05f594	-0.032704905
214	0xbdccf0b5	-0.10006849
215	0xbe062af6	-0.13102326
216	0xbda62f36	-0.081144735
217	0x3d909510	0.070596814
218	0xbd873691	-0.066022046
219	0x3e002b98	0.1251663
220	0x3d1e8436	0.038700305
221	0x3d9aae42	0.07552768
222	0x3b7cbd8e	0.0038565132
223	0xbdc640bb	-0.09680315
224	0x3df60c5c	0.12014076
225	0x3d5cd171	0.053910676
226	0xbb00f1bd	-0.0019675337
227	0xbdbe33b3	-0.092872046
228	0x3d78a79b	0.060706716
229	0xbd6da858	-0.058021873
230	0xba2b60fe	-0.0006537585
231	0x3c96df13	0.018416917
232	0x3dba55d9	0.090984054
233	0xbcf8ca33	-0.030369854
234	0xbd6ea382	-0.058261402
235	0xbe05dc17	-0.13072239
236	0x3dd73d88	0.10509783
237	0x3db87886	0.09007363
238	0x3db0b48e	0.08628188
239	0x3dab4e70	0.0836457
240	0xbdb1a5c1	-0.08674193
241	0x3da0d0cf	0.07852327
242	0xbe0d1a7e	-0.13779637
243	0x3e01cc5e	0.12675616
244	0x3de4f8db	0.11180278
245	0x3dbd6122	0.09247042
246	0xbd8c0942	-0.06837703
247	0xbdd2af78	-0.10287374
248	0xbd78fd24	-0.06078829
249	0x3da00a45	0.07814459
250	0xbda835b6	-0.082133695
251	0x3ba8ec7b	0.005155144
252	0xbdc4dd28	-0.09612495
253	0xbdd9e0f0	-0.106386065
254	0xbdc6cef3	-0.09707441
255	0xbda7869b	-0.08179971
