model_group/models_group_historical/LSTM_model_MANHATTAN_CENTRAL PARK SOUTH.pth (torch, 351264 bytes, 17 tensors)

input_projection.weight f4 [2, 2]
0	0xbf25f7cc	-0.64831233
1	0xbd5a8bd4	-0.053356007
2	0xbf234dcd	-0.6379059
3	0xbe7e9b56	-0.24863943

input_projection.bias f4 [2]
0	0x3f288b35	0.65837413
1	0x3f29da59	0.663488

cells.0.x2h.weight f4 [256, 2]
0	0x3ed91912	0.4240194
1	0x3f0ad742	0.5423471
2	0x3d4014dc	0.046894893
3	0xbf0f780c	-0.5604255
4	0xbf165014	-0.5871594
5	0x3f047cc6	0.5175289
6	0xbf0904a8	-0.5352273
7	0x3ee32189	0.44361523
8	0x3e991cd5	0.2990481
9	0xbec736ef	-0.38909099
10	0x3edee3cc	0.4353317
11	0x3e66cd7c	0.22539324
12	0xbee94041	-0.45556834
13	0xbf0d16c7	-0.5511288
14	0x3f2e7952	0.6815387
15	0x3e6fe9ba	0.23429003
16	0x3ee9123c	0.45521724
17	0xbd664366	-0.05621662
18	0x3e525421	0.20539905
19	0xbe829403	-0.2550355
20	0xbef6d829	-0.48211792
21	0x3ebbe6cb	0.3669952
22	0xbf032544	-0.5122874
23	0x3d2a0c38	0.04151556
24	0xbf07aa18	-0.5299392
25	0xbefc67bd	-0.49297896
26	0xbf1ccf3d	-0.6125372
27	0x3ee464c6	0.44608134
28	0xbf239e04	-0.6391299
29	0xbeb91694	-0.36150038
30	0x3e639332	0.2222412
31	0xbf1f54a3	-0.6223852
32	0x3e7742ac	0.24146527
33	0x3eded7fb	0.43524155
34	0xbf0c0d67	-0.5470795
35	0x3f3915ec	0.72299075
36	0xbf1d49c4	-0.6144068
37	0xbe85c0a7	-0.26123545
38	0xbe09c8f8	-0.1345557
39	0x3f112819	0.5670181
40	0xbd49dc29	-0.049282227
41	0xbe5d462b	-0.21608798
42	0x3f26f733	0.65220946
43	0x3f2b366d	0.6687992
44	0x3f464e81	0.7746354
45	0x3d1369d1	0.035989586
46	0xbe32cd31	-0.17461087
47	0xbdbf236a	-0.093329266
48	0xbe704bb0	-0.23466372
49	0xbec8056b	-0.39066634
50	0x3e85713a	0.26062948
51	0x3d67ac0f	0.056560572
52	0xbea198e5	-0.31561962
53	0x3ed1c1a3	0.40968046
54	0x3edb66d5	0.42851892
55	0xbf20a97e	-0.62758625
56	0xbf1b3151	-0.60622126
57	0x3f393585	0.7234729
58	0x3e5c0a9d	0.21488424
59	0xbc11df17	-0.008903286
60	0x3f283847	0.6571087
61	0x3edac6f4	0.42729914
62	0xbf2eca10	-0.6827707
63	0x3d87c62e	0.06629597
64	0x3cee710b	0.029106637
65	0x3e9c2943	0.3050023
66	0x3ed3185c	0.41229522
67	0xbe4838ab	-0.19552867
68	0x3f405164	0.7512419
69	0x3edc2a01	0.43000796
70	0x3deac0ee	0.1146258
71	0xbeb9ef85	-0.3631555
72	0x3f14c832	0.58117974
73	0x3efbebe6	0.49203414
74	0x3ecccf6a	0.40001994
75	0x3f3080c0	0.68946457
76	0x3f12c241	0.5732766
77	0x3e13ee3c	0.14446348
78	0x3ece5c6b	0.40304884
79	0x3f09e79f	0.5386905
80	0x3cc25834	0.0237237
81	0xbeda2fe5	-0.42614666
82	0x3f183479	0.59455067
83	0x3e9fa08c	0.31177175
84	0x3f12f700	0.5740814
85	0xbe6fbe31	-0.23412396
86	0xbe04329c	-0.12909931
87	0xbe1ff8d0	-0.15622258
88	0x3f292e66	0.66086423
89	0xbef1d332	-0.47231442
90	0x3eadc295	0.33937517
91	0x3e8af9cb	0.27143702
92	0xbec4f026	-0.3846447
93	0xbebda621	-0.3704081
94	0x3f0feee2	0.5622388
95	0xbece3d3d	-0.40281096
96	0x3ef2b9b3	0.47407302
97	0xbf22516a	-0.6340548
98	0xbebc233e	-0.36745638
99	0xbe9aaca9	-0.30209854
100	0xbeaad060	-0.33362103
101	0x3dc0b499	0.09409446
102	0xbd20b731	-0.039237205
103	0x3e7629dc	0.24039406
104	0xbe3dc1ce	-0.18530962
105	0x3eecc586	0.46244448
106	0x3f161893	0.5863125
107	0xbf00ee15	-0.50363284
108	0x3e0df899	0.13864364
109	0x3f282d70	0.6569433
110	0x3e463ae7	0.19358407
111	0xbed41c02	-0.41427618
112	0xbf1af582	-0.60530865
113	0xbe288fa9	-0.16461052
114	0x3e06121c	0.13092846
115	0xbf12a05d	-0.57275945
116	0xbe3251e1	-0.17414047
117	0xbe59c928	-0.21268141
118	0x3f2cae59	0.67453533
119	0x3f28131d	0.65654165
120	0x3e80bacd	0.25142518
121	0x3e81cb87	0.25350592
122	0xbf2b2468	-0.66852427
123	0xbeb54afb	-0.35408768
124	0x3dff95cb	0.124797426
125	0xbdfd79fb	-0.123767816
126	0xbf1355cc	-0.5755279
127	0x3e014cb8	0.12626922
128	0xbd740f01	-0.05958462
129	0x3dc98e48	0.09841591
130	0xbdd1ebfb	-0.10250088
131	0x3f028f7a	0.5100018
132	0x3bdd5b6f	0.0067552845
133	0x3ee6ac05	0.45053115
134	0x3e46f37c	0.1942882
135	0xbd2d6252	-0.042330094
136	0xbed2bcbb	-0.41159615
137	0xbdbb9ff3	-0.09161367
138	0xbe8d3ede	-0.27587026
139	0xbf28c71b	-0.6592881
140	0xbe27e2b7	-0.16395079
141	0xbea15f02	-0.31517798
142	0xbe95b006	-0.29235858
143	0x3e9494a1	0.29019645
144	0xbeea3131	-0.45740655
145	0x3ef0b9e9	0.47016838
146	0xbeb617dd	-0.3556508
147	0x3ef21832	0.47284085
148	0x3c700c9e	0.014651446
149	0x3f2782b9	0.6543384
150	0xbe1395c9	-0.14412607
151	0x3f1db59f	0.61605257
152	0xbed07e87	-0.40721533
153	0x3f071802	0.5277101
154	0x3f2c2670	0.6724615
155	0xbeac4f38	-0.3365419
156	0xbe9d58e1	-0.30731872
157	0x3e9ce96c	0.30646837
158	0xbed06bb8	-0.40707183
159	0x3e9a54c1	0.30142787
160	0x3f1e997f	0.61952966
161	0x3ec34543	0.3813878
162	0x3eae660c	0.3406223
163	0xbf06ce45	-0.5265849
164	0x3e895da4	0.26829255
165	0xbe2abef5	-0.16674407
166	0x3ee3f90a	0.4452594
167	0xbf1af91a	-0.6053635
168	0x3e89c972	0.26911503
169	0x3f075826	0.5286888
170	0xbf241ad1	-0.6410342
171	0x3f24da02	0.64395154
172	0x3ee2e0ae	0.44312042
173	0xbebd50e4	-0.36975777
174	0x398a6fa2	0.00026404584
175	0xbf0ecebe	-0.55784214
176	0xbdb5a4a0	-0.0886929
177	0xbd10ac74	-0.035320714
178	0xbf03ef03	-0.5153658
179	0xbe84f68b	-0.25969347
180	0xbe675acc	-0.2259323
181	0x3e3b2596	0.18276057
182	0x3ebcb079	0.36853388
183	0xbd9747e9	-0.07386763
184	0xbeafb347	-0.34316465
185	0xbf2fed47	-0.6872143
186	0x3e0dd64a	0.13851276
187	0x3ed210b5	0.4102837
188	0x3c99797e	0.01873469
189	0xbc840dbf	-0.016119836
190	0xbea6ffbe	-0.3261699
191	0xbdd3a2df	-0.103337996
192	0x3e2df194	0.16986686
193	0xbe82b94b	-0.25531992
194	0x3eda6c27	0.4266064
195	0x3e466832	0.19375685
196	0x3f380933	0.71889037
197	0xbe4a628c	-0.19764155
198	0xbea38699	-0.31938627
199	0xbe86cab6	-0.2632653
200	0xbd5f1b59	-0.05446944
201	0xbdccc3e0	-0.09998298
202	0xbec91ecd	-0.39281312
203	0xbe0b33a4	-0.13593918
204	0x3d7ea062	0.06216467
205	0x3ed764e2	0.42069155
206	0xbf14aab3	-0.58072966
207	0x3f17c38b	0.5928275
208	0xbdf89ad5	-0.12138907
209	0xbf17b375	-0.59258205
210	0x3f1a366e	0.60239303
211	0x3eb7c4bf	0.35892293
212	0x3e6e7bfc	0.23289484
213	0xbe72c2d6	-0.23707137
214	0xbe7187a1	-0.23586895
215	0x3efca0e0	0.49341488
216	0x3e78cdc5	0.24297245
217	0xbe986bfc	-0.29769886
218	0x3f3952cd	0.7239197
219	0xbf002dad	-0.50069696
220	0x3f1ea766	0.6197418
221	0x3e6f9274	0.23395711
222	0x3ea3ce3b	0.3199328
223	0xbd9f29ba	-0.077716306
224	0x3d69b453	0.057056736
225	0x3e406af3	0.18790798
226	0x3e079c85	0.13243301
227	0x3f209655	0.6272939
228	0xbec3d992	-0.3825193
229	0x3dd2300c	0.102630705
230	0xbeb75d3b	-0.35813317
231	0x3f290092	0.66016495
232	0x3e18b82b	0.14914005
233	0x3ecf786f	0.4052157
234	0x3de0d191	0.109774716
235	0x3eb14f97	0.34631035
236	0x3f0db008	0.5534673
237	0x3eef2c37	0.4671342
238	0xbf16b26b	-0.58865994
239	0x3f0b3e43	0.5439188
240	0xbf0b1ae3	-0.543379
241	0xbee2bc74	-0.44284403
242	0xbdecf40f	-0.11569988
243	0xbee407e5	-0.44537273
244	0xbee15fc9	-0.4401839
245	0xbe620aaa	-0.2207438
246	0x3e8452f5	0.2584454
247	0xbf0534c3	-0.52033633
248	0xbe0e6729	-0.1390654
249	0xbc06c594	-0.008225817
250	0xbde2f0c1	-0.110810764
251	0x3dec5611	0.11539853
252	0x3f08dafe	0.53459156
253	0xbf1f213c	-0.62160087
254	0x3d06054f	0.032719906
255	0xbe8f7195	-0.28016344

cells.0.x2h.bias f4 [256]
0	0x3e2de079	0.16980161
1	0x3f2ab5ac	0.6668346
2	0xbf2a295d	-0.66469365
3	0xbe823698	-0.25432277
4	0xbe4b1285	-0.19831283
5	0x3eade02c	0.33960092
6	0x3ea7ef2e	0.32799667
7	0xbd03b90a	-0.03215889
8	0xbeec68c4	-0.4617368
9	0x3edea157	0.43482468
10	0x3f1652f0	0.587203
11	0xbf2ab9ec	-0.66689944
12	0x3e2d405d	0.16919084
13	0x3eb0c4ae	0.34525055
14	0x3e015180	0.12628746
15	0x3ec9f14a	0.394419
16	0xbf29dfe3	-0.6635725
17	0x3ed9ddb7	0.42551968
18	0x3e966a37	0.2937791
19	0xbe1a18c6	-0.15048513
20	0xbe7e8ec2	-0.24859145
21	0xbf212c08	-0.6295781
22	0xbea51c17	-0.32247993
23	0x3e7d49ea	0.24735227
24	0xbe875b85	-0.2643701
25	0x3b34f092	0.0027609211
26	0xbe9202a9	-0.28517655
27	0xbc423f49	-0.011855909
28	0x3efca778	0.4934652
29	0x3f1db72f	0.6160764
30	0x3f0bc954	0.5460408
31	0x3ee31063	0.4434844
32	0xbdc58684	-0.096447974
33	0xbecf0587	-0.40433905
34	0x3f13a408	0.57672167
35	0xbe73b80b	-0.23800676
36	0x3de61c53	0.11235871
37	0x3e0c9bfa	0.13731375
38	0x3d27c685	0.040960807
39	0xbf2bd86a	-0.67127097
40	0xbf283e2c	-0.65719867
41	0xbed84ad4	-0.4224459
42	0x3df88a15	0.12135712
43	0x3ed3c586	0.41361636
44	0xbf0697d8	-0.52575445
45	0x3e4fcdfa	0.20293418
46	0xbde82174	-0.11334506
47	0xbebd2997	-0.36945793
48	0x3ee0b0fc	0.43885028
49	0x3cc46b37	0.023976905
50	0x3ef9ef74	0.488155
51	0x3f044dfb	0.5168149
52	0xbd5de635	-0.05417462
53	0x3f1752ec	0.59110904
54	0x3ea1503a	0.3150652
55	0xbccf03af	-0.025270311
56	0xbf0e8869	-0.55676895
57	0xbece1021	-0.4024668
58	0xbe984848	-0.29742646
59	0x3ed63145	0.41834465
60	0x3ed9ea41	0.42561534
61	0x3e26485a	0.16238537
62	0x3ebc2fec	0.3675531
63	0xbdce201d	-0.10064719
64	0xbebfe11a	-0.37476426
65	0x3f10fd02	0.5663606
66	0x3ed6f6f0	0.41985273
67	0xbefae3d7	-0.49001953
68	0xbeae7ae9	-0.34078148
69	0x3e26f266	0.16303405
70	0x3eb74ce5	0.35800853
71	0x3ec1b447	0.37832853
72	0xbe99620a	-0.2995761
73	0x3e0458b9	0.1292447
74	0x3eba8f21	0.36437324
75	0xbedd733b	-0.43251976
76	0x3c3b52d6	0.011433324
77	0xbefc5eb2	-0.49290997
78	0xbf18a9a4	-0.5963385
79	0x3e10c08b	0.1413595
80	0xbd60fd59	-0.05492911
81	0x3ec37b57	0.38180038
82	0xbf0836de	-0.5320872
83	0x3eec64df	0.4617071
84	0xbee164cc	-0.44022214
85	0xbef93284	-0.48671353
86	0xbf23bbd9	-0.6395851
87	0xbc6a23ff	-0.014290809
88	0xbe43c40c	-0.19117755
89	0x3f19f21c	0.60135055
90	0xbf03d6a6	-0.514994
91	0xbf093e5c	-0.5361078
92	0x3dbf0956	0.093279526
93	0x3f0c1dac	0.54732776
94	0xbf1370b8	-0.5759387
95	0xbd9033fc	-0.07041165
96	0xbe4c047d	-0.19923587
97	0x3e867a2f	0.26265094
98	0xbe4a852a	-0.1977736
99	0x3f2e24aa	0.68024695
100	0xbe6aa981	-0.22916223
101	0xbf0f0710	-0.5587015
102	0xbb8d7a2a	-0.0043175416
103	0x3f0972da	0.53690875
104	0x3ea59f2c	0.32348
105	0xbd78bedf	-0.060728904
106	0x3f1aae8b	0.6042258
107	0xbe2ed01f	-0.1707158
108	0x3efb57d7	0.49090454
109	0x3e552ad3	0.20817117
110	0x3ed5a181	0.4172478
111	0xbe9dcdd0	-0.30821085
112	0x3c8c8230	0.017151922
113	0xbeb4292c	-0.35187662
114	0xbf1720df	-0.5903453
115	0x3f48c892	0.78431046
116	0x3f23b25f	0.6394405
117	0x3ed9dbb2	0.42550427
118	0xbf1d9960	-0.61562157
119	0xbe7840e6	-0.24243507
120	0x3d9be02a	0.07611115
121	0xbe3ffa90	-0.18747926
122	0xbeed4955	-0.4634501
123	0xbea9da94	-0.33174574
124	0xbef1e86b	-0.47247633
125	0x3efd4150	0.49463892
126	0xbe569fbe	-0.20959374
127	0x3e1a13c7	0.15046607
128	0xbe699a11	-0.22812678
129	0x3f01ee4d	0.50754243
130	0xbe172f33	-0.14764099
131	0x3e83448e	0.2563824
132	0x3f2eb423	0.68243617
133	0x3e342ccb	0.17595212
134	0x3e7edf42	0.24889854
135	0x3dc2a1ad	0.095034935
136	0xbd6894af	-0.05678242
137	0xbf138cc9	-0.57636696
138	0xbdeea19c	-0.11651918
139	0x3d348186	0.044068836
140	0x3df21bbc	0.11821696
141	0xbe6c5519	-0.23079337
142	0xbdfc0181	-0.12304974
143	0x3e617541	0.22017385
144	0xbe936007	-0.287842
145	0x3d1b8bcb	0.037975114
146	0xbf3817d2	-0.71911347
147	0xbd64a7ce	-0.055824094
148	0x3ea0de7e	0.31419748
149	0x3ead982a	0.33905154
150	0x3ebb3295	0.3656203
151	0xbf1b762f	-0.6072721
152	0xbf140ba9	-0.5783029
153	0x3e8e2d4d	0.27768937
154	0x3f2490a9	0.64283234
155	0x3e1c1bee	0.1524503
156	0x3d157347	0.03648689
157	0xbf2a5508	-0.66536
158	0x3ed94bb8	0.4244058
159	0x3ecc34f9	0.39884165
160	0xbe6302fa	-0.22169104
161	0x3e44bce2	0.19212678
162	0xbeacc2b3	-0.33742294
163	0x3f01bbd3	0.5067722
164	0x3f31200d	0.6918953
165	0x3eca2253	0.39479312
166	0x3f3384b6	0.70124376
167	0x3f16f587	0.58968395
168	0xbe4e5299	-0.20148696
169	0x3efe8574	0.49711192
170	0xbf05d862	-0.522833
171	0xbe83e458	-0.2576015
172	0xbf12df78	-0.57372236
173	0x3f29c920	0.6632252
174	0x3ef25442	0.4732991
175	0x3f0401f3	0.51565474
176	0x3e0ffe78	0.14061916
177	0xbf164751	-0.5870257
178	0x3f2f51b6	0.68484056
179	0x3e29377c	0.16525072
180	0x3eb23c0c	0.34811437
181	0xbf291733	-0.66051024
182	0xbeebf2ac	-0.4608358
183	0xbe669b11	-0.2252009
184	0x3f1643a7	0.5869698
185	0x3e4e9d18	0.20177114
186	0xbdde1289	-0.10843379
187	0x3e65c4f7	0.22438417
188	0x3e686fcf	0.22698902
189	0x3e951cc9	0.29123524
190	0x3f220fa4	0.63305116
191	0xbe562732	-0.2091339
192	0x3f04bbae	0.51848876
193	0xbe8e6205	-0.27809158
194	0x3eb333a3	0.35000333
195	0xbed66d01	-0.41880038
196	0x3dfe0265	0.124028005
197	0x3e26d702	0.16292956
198	0xbdb303d8	-0.087409675
199	0x3ee59419	0.44839552
200	0xbf23a707	-0.6392674
201	0xbf118d14	-0.56855893
202	0xbb79cd86	-0.0038116886
203	0xbf13d8ad	-0.57752496
204	0xbf176620	-0.59140205
205	0x3f04f329	0.5193353
206	0xbeab4ad6	-0.33455533
207	0x3e38986c	0.18026894
208	0xbe35593b	-0.1770982
209	0x3d040b6a	0.032237448
210	0x3f2cae6c	0.67453647
211	0x3e941d47	0.28928587
212	0x3f0fbef7	0.56150764
213	0x3f2bee04	0.6716006
214	0x3ef69c5b	0.48166165
215	0xbe601451	-0.2188275
216	0xbe1334e2	-0.14375642
217	0xbee0cb05	-0.43904892
218	0x3ea6c053	0.32568607
219	0x3eecf5ef	0.46281382
220	0x3e86273b	0.26201805
221	0x3f2b6ae4	0.6695998
222	0x3f0940f2	0.53614724
223	0xbf2dff76	-0.6796793
224	0xbecc192e	-0.3986296
225	0x3e0a98df	0.13534878
226	0x3caf3c05	0.021390924
227	0x3cfe606f	0.031051842
228	0xbe3c345f	-0.18379353
229	0xbeb37e53	-0.35057315
230	0x3ef60061	0.48047164
231	0x3e99f5c7	0.30070326
232	0x3ed1dbe3	0.40988073
233	0xbf13e25a	-0.5776726
234	0x3ecfa4a1	0.4055529
235	0xbdcb77fc	-0.099349946
236	0xbe7c9db0	-0.24669528
237	0x3ec04de6	0.37559432
238	0x3ef8ba19	0.4857948
239	0x3e13247c	0.14369386
240	0x3de7a96e	0.11311613
241	0xbe21e735	-0.15810855
242	0xbe380bbd	-0.17973228
243	0x3ed21007	0.41027853
244	0x3ee2a304	0.44264996
245	0xbf1b455c	-0.6065271
246	0xbeed9738	-0.46404433
247	0xbf0e8472	-0.55670846
248	0x3ebd045c	0.36917388
249	0xbe682e2e	-0.22673866
250	0x3f1f16a4	0.6214392
251	0x3f35f0b0	0.71070385
252	0xbee8eff0	-0.45495558
253	0x3f22540b	0.6340949
254	0xbeab06ec	-0.33403718
255	0x3f1268c0	0.57191086

cells.0.h2h.weight f4 [256, 64]
0	0xbdd7d9ec	-0.10539612
1	0xbd7b0c8c	-0.061291263
2	0x3caa6114	0.020798244
3	0xbdef14f1	-0.11673916
4	0x3e11a1fc	0.14221948
5	0xbd4a34d0	-0.049366772
6	0xbcafd1e7	-0.021462394
7	0x3d5a9efd	0.05337428
8	0xbd8032a1	-0.06259657
9	0xbd8958b6	-0.067063734
10	0x3d6ef70e	0.05834108
11	0x3d2bbce3	0.041928183
12	0x3d364caf	0.044506725
13	0xbdeb38e3	-0.1148546
14	0x3e04fa0f	0.12986015
15	0xbdc615c9	-0.09672124
16	0xbce15251	-0.027505072
17	0xbe0619ad	-0.13095732
18	0xbe1f0e50	-0.15532804
19	0x3d6962bf	0.056978937
20	0x3c20767a	0.009793872
21	0xbad9cb0d	-0.00166163
22	0x3dbd159d	0.09232638
23	0xbdfe6199	-0.12420959
24	0xbdf5755f	-0.119852774
25	0xbd56f509	-0.052479777
26	0x3b8aa3bc	0.0042309444
27	0x3cea710f	0.028618364
28	0x3e0b30ec	0.13592881
29	0x3d27b797	0.04094657
30	0x3d83b090	0.06430161
31	0x3e099398	0.13435209
32	0xbe3777e3	-0.17916827
33	0x3e1d860c	0.15383166
34	0x3d6645b5	0.05621882
35	0xbdeee99a	-0.1166565
36	0xbd9f9999	-0.07792968
37	0xbd2d82ee	-0.042361192
38	0x3d8c5248	0.068516314
39	0x3daa611f	0.08319306
40	0xbdb0ab73	-0.08626451
41	0x3d81c47b	0.06336304
42	0x3d8526d7	0.06501549
43	0xbdc5172e	-0.09623562
44	0xbda1e93f	-0.07905816
45	0x3dd7e6d4	0.10542074
46	0x3ca51aef	0.020154445
47	0xbc2d3e62	-0.010573955
48	0x3e0100a4	0.125979
49	0x3d9d90b0	0.076936126
50	0x3d587d9f	0.052854177
51	0xbc436926	-0.011926925
52	0xbd3ab1c6	-0.045579694
53	0x3d9640d5	0.073365845
54	0x3d7baa9c	0.061442003
55	0xbd65ba32	-0.056085773
56	0x3dee4b86	0.11635499
57	0xbd03aa1d	-0.032144655
58	0xbe48c694	-0.19607002
59	0x3d78df67	0.060759928
60	0x3df7d287	0.12100702
61	0xbc6d90bc	-0.014499839
62	0xbd802661	-0.0625732
63	0x3cca2577	0.024676068
64	0xbe107237	-0.1410607
65	0xbc93b881	-0.018032314
66	0x3cf1ebc5	0.029531369
67	0x3d564a9d	0.05231725
68	0x3c451c5f	0.01203069
69	0xbdad3ac2	-0.08458473
70	0xba66770a	-0.0008791542
71	0xbe02627a	-0.12732878
72	0xbbc41a62	-0.0059845904
73	0xbde5b6a9	-0.1121648
74	0x3da9c9ef	0.08290469
75	0x3d861833	0.065475844
76	0x3b8b89a8	0.0042583533
77	0xbe130e61	-0.14360954
78	0xbc47617b	-0.012169237
79	0xbdf71c6c	-0.12065968
80	0x3da991f7	0.08279794
81	0x3d86e3d7	0.06586426
82	0x3dd0edcd	0.10201607
83	0xbca99677	-0.02070163
84	0xbde6135e	-0.11234163
85	0x3d1a177f	0.037620064
86	0x3ceee11c	0.029160075
87	0xbcc7f340	-0.024407983
88	0x3e068e0c	0.13140124
89	0x3d9a7421	0.07541681
90	0x3d08c493	0.033390593
91	0x3d2bdd3d	0.041959036
92	0xbd302a60	-0.043009162
93	0x3d5df5a3	0.054189336
94	0xbd47d38c	-0.04878573
95	0x3d15966b	0.036520403
96	0xbe0151ef	-0.12628911
97	0x3e199966	0.14999923
98	0xbd6d83fe	-0.057987206
99	0x3ded3085	0.1158152
100	0xbb7108b0	-0.003677886
101	0x3d8c8ff0	0.068633914
102	0x3d97fadc	0.074208945
103	0xbdc48963	-0.09596517
104	0x3db82973	0.08992281
105	0xbcef7888	-0.029232278
106	0xbd69651d	-0.056981195
107	0x3d0d8730	0.034552753
108	0xbd1f4853	-0.038887333
109	0x3e0ed7f3	0.13949566
110	0x3dfd746e	0.12375723
111	0x3df9ed7f	0.12203502
112	0x3da43e1d	0.0801966
113	0x3cfe369d	0.031031901
114	0x3ddd628d	0.10809813
115	0xbd5d3a08	-0.05401042
116	0x3ddb1fb9	0.1069941
117	0xbd3c0eaa	-0.045912422
118	0x3cab67e5	0.020923564
119	0xbc967357	-0.018365545
120	0x3b875446	0.004129919
121	0xbdbd9156	-0.09256236
122	0x3c840563	0.01611585
123	0x3d8b0a82	0.067891136
124	0x3e136e2d	0.14397497
125	0xbcee9eb5	-0.029128412
126	0xbd0c93e0	-0.034320712
127	0xbd32a31b	-0.04361258
128	0xbe095a74	-0.13413411
129	0xbcddeb98	-0.027089879
130	0xbdacccdf	-0.084375136
131	0x3dc7a276	0.09747784
132	0xbd286276	-0.041109525
133	0x3c21be28	0.009871997
134	0xbe2cee21	-0.16887714
135	0xbcd69565	-0.026194284
136	0x3d77d347	0.060504224
137	0x3da804f9	0.082040735
138	0x3ce20fd7	0.027595444
139	0xbc45b920	-0.012068063
140	0x3dc7fc3b	0.09764906
141	0x3b69f596	0.003569936
142	0x3d27c564	0.04095973
143	0x3ceb3537	0.028711898
144	0xbd94b290	-0.072606206
145	0xba3de199	-0.00072433945
146	0x3d2c4db4	0.04206629
147	0x3dc22fc0	0.09481764
148	0xbd80f5af	-0.062968604
149	0xbde55234	-0.111973196
150	0xbd7ed92d	-0.062218834
151	0x3d269525	0.04066958
152	0x3d037330	0.032092273
153	0xbdcd015d	-0.10010026
154	0x3da1b1ea	0.078952625
155	0xbce0cf27	-0.027442528
156	0xbda1e208	-0.0790444
157	0x3d13d510	0.036091864
158	0xbd0a5a86	-0.033777736
159	0x3d624b17	0.055247393
160	0xbdd2e9d4	-0.102985054
161	0x3dcf2de7	0.10116177
162	0xbd76fc16	-0.060299
163	0x3d8a9b99	0.06767959
164	0x3d3dfef1	0.04638571
165	0x3d53bd52	0.05169422
166	0x3c4c749d	0.012478975
167	0x3dbfab48	0.09358841
168	0xbd3f9edd	-0.046782363
169	0x3da13619	0.078716464
170	0x3d647727	0.055777695
171	0xbd31619a	-0.04330597
172	0x3d5bbfa0	0.053649545
173	0x3d70fc8a	0.05883459
174	0xbd6e79ca	-0.058221616
175	0x3d9c9562	0.0764568
176	0x3dd4bb9c	0.10387346
177	0x3c1fcc7d	0.009753344
178	0xbce1c793	-0.027560985
179	0x3afe44f3	0.001939921
180	0xbbb5e642	-0.0055511305
181	0xbd9f7f60	-0.07787967
182	0x3d103cf9	0.035214398
183	0x3b0c8817	0.002144342
184	0x3d48e7e9	0.04904929
185	0xbe046c25	-0.12931879
186	0x3deaeb08	0.1147061
187	0x3e024447	0.12721358
188	0x3de95298	0.11392707
189	0xbccfedd8	-0.025381967
190	0xbc737da9	-0.014861503
191	0xbdc3bb20	-0.09557176
192	0x3c81514c	0.015785836
193	0xbd361380	-0.04445219
194	0xbc0d388e	-0.008619441
195	0x3da21cfb	0.07915684
196	0x3d836029	0.064148255
197	0x3dc189ef	0.09450137
198	0x3cc70a31	0.024296852
199	0xbbfa7347	-0.0076431367
200	0x3cb472cf	0.022027401
201	0x3dac6e9c	0.084195346
202	0xbe163899	-0.14670028
203	0xbdd7eed3	-0.10543599
204	0xbe1766e7	-0.14785348
205	0xbd0b31a0	-0.033982873
206	0xbdcaec1b	-0.09908315
207	0x3da63039	0.081146665
208	0xbdc7880f	-0.09742748
209	0x3c7b9ed5	0.015357693
210	0xbe1f6f5a	-0.15569821
211	0xbdcda054	-0.10040346
212	0x3c9b5edb	0.018966129
213	0xbc9ca9b6	-0.019123893
214	0xbd6e4157	-0.05816778
215	0xbd36b9e1	-0.04461086
216	0x3cbcf455	0.023065725
217	0x3d9967a0	0.07490468
218	0xbd914122	-0.07092501
219	0x3d2c23af	0.042026218
220	0x3e29a30a	0.165661
221	0xbd2f93ac	-0.04286544
222	0xbbc8144c	-0.006105935
223	0x3dbca33b	0.09210821
224	0xbe0f94ae	-0.1402156
225	0xbdcaaaa6	-0.0989583
226	0xbccac927	-0.02475412
227	0x3da5fe5c	0.08105156
228	0xb95c38d8	-0.00021002011
229	0x3e01d2d4	0.12678081
230	0x3e1a06a5	0.15041597
231	0x3e2cada0	0.16863108
232	0xbbff4fe5	-0.0077915066
233	0x3d612ce4	0.05497445
234	0xbca022b4	-0.019547798
235	0xbe447e03	-0.19188695
236	0xbc200948	-0.009767838
237	0x3dadd56c	0.084879726
238	0xbd5a7bce	-0.053340726
239	0xbccd8754	-0.025088944
240	0xbd215915	-0.039391596
241	0x3d2b40e8	0.041809946
242	0xbc7100f4	-0.0147097
243	0xbbf3490f	-0.0074244807
244	0x3e1c7e45	0.15282543
245	0xbda6e905	-0.08149914
246	0xbd86056d	-0.06544004
247	0x3de8d2f3	0.1136836
248	0x3dbe1390	0.09281075
249	0x3e1e76c2	0.1547499
250	0xbdfd9dfc	-0.12383649
251	0xbdcbeb08	-0.09956938
252	0x3d181c55	0.037136395
253	0xbd30faf1	-0.043208066
254	0xbc95d644	-0.018290646
255	0xbdcf2a7d	-0.10115526

cells.0.h2h.bias f4 [256]
0	0xbd49a07d	-0.04922532
1	0x3d8089bd	0.062762715
2	0x3de79174	0.1130704
3	0xbd938cbf	-0.072045796
4	0x3c4e4ff6	0.012592306
5	0x3c165a61	0.009176821
6	0x3d50c428	0.05096832
7	0x3c1bb2c5	0.009503071
8	0x3d8b791f	0.068102114
9	0xbd9db0d6	-0.076997444
10	0xbd7dd2b3	-0.061968517
11	0x3e107a9b	0.1410927
12	0xbc522c1e	-0.012827901
13	0x3e05df1a	0.13073388
14	0x3dab2789	0.0835715
15	0x3c232841	0.009958328
16	0xbd8ee795	-0.069777645
17	0x3dace503	0.08442118
18	0x3db07d6e	0.08617674
19	0x3e26646b	0.16249244
20	0x3bc3fe8a	0.005981271
21	0xbdc229f3	-0.094806574
22	0x3e073ec3	0.13207535
23	0xbd37a213	-0.0448323
24	0x3d44100a	0.04786686
25	0x3e24fcfa	0.16112128
26	0xbba78410	-0.0051121786
27	0x3e1e9cf5	0.15489562
28	0xbcf5b625	-0.02999408
29	0xbd4f9124	-0.050675526
30	0x3a4eb6dd	0.0007885525
31	0xbdaf07f2	-0.08546437
32	0xbc9fd516	-0.019510787
33	0x3c8dd3db	0.017312935
34	0xbd8cb003	-0.06869509
35	0xbd9fb88f	-0.07798874
36	0xbd95758f	-0.07297813
37	0xbd90a0f1	-0.07061947
38	0x3dd1717d	0.10226724
39	0xbd75dc4b	-0.06002454
40	0x3d061c3b	0.032741766
41	0x3d1838c9	0.03716353
42	0x3d3a2633	0.045446586
43	0x3e2fabfa	0.17155448
44	0x3d9788c9	0.073991366
45	0x3dc04d47	0.093897395
46	0x3db75c5e	0.089531645
47	0x3dde9f2f	0.108702056
48	0xbd67cb11	-0.056590144
49	0xbd240ce8	-0.04005137
50	0x3d1db611	0.03850371
51	0x3e429746	0.19003019
52	0xbd2f84c0	-0.04285121
53	0xbd8a3787	-0.06748872
54	0xbcb7368b	-0.022364875
55	0xbcd66437	-0.026170833
56	0x3cdc75ea	0.026911695
57	0x3e039a54	0.1285184
58	0x3ccdbb7d	0.025113815
59	0x3d4c96bf	0.04994845
60	0xbd60680e	-0.054786734
61	0xbd52ec23	-0.05149473
62	0xbd504f32	-0.050856777
63	0xbc46bfc9	-0.012130686
64	0x3dc74057	0.09729069
65	0xbd37d252	-0.04487831
66	0x3d003994	0.03130491
67	0x3ddadfb5	0.106872
68	0xbd8f2e1b	-0.06991216
69	0x3e07719d	0.13226934
70	0x3cf68ff4	0.03009794
71	0xbe07cdbf	-0.1326208
72	0xbd8022b6	-0.062566206
73	0xbe006bd4	-0.12541133
74	0xbda43496	-0.080178425
75	0x3e2142ca	0.15748134
76	0xbad54e21	-0.0016273895
77	0x3e1d8226	0.15381679
78	0xbb5c3b97	-0.0033604854
79	0x3d5b3aa6	0.05352273
80	0xbd01a5ee	-0.031652384
81	0x3d071b22	0.03298486
82	0x3b87f94d	0.004149592
83	0x3e1630b5	0.14667018
84	0x3da968db	0.08271953
85	0xbdcc1e69	-0.09966738
86	0xbd8920b1	-0.066956885
87	0x3d09066e	0.033453397
88	0x3d99f38e	0.075171575
89	0xbd067811	-0.032829348
90	0x3d8f74b4	0.07004681
91	0x3dcb95d9	0.099406905
92	0xbcf5321b	-0.029931119
93	0x3bdd2f36	0.0067500127
94	0x3d2b1300	0.041766167
95	0x3dcd45ac	0.100230545
96	0xbceb6806	-0.028736126
97	0xbd5c3f74	-0.05377145
98	0x3da183c3	0.0788646
99	0x3db5d6ba	0.088788465
100	0x3d8492ed	0.06473336
101	0xbda9333f	-0.082617275
102	0xbabf53ed	-0.0014597155
103	0x3d04fe40	0.032469034
104	0x3d9ddb62	0.077078596
105	0xbd700ecc	-0.05860786
106	0x3da4173d	0.08012245
107	0x3d5d2426	0.053989552
108	0xbdf209cc	-0.11818275
109	0xbd39bb3b	-0.045344573
110	0x3e1aa791	0.15102984
111	0xbdb30542	-0.08741237
112	0xbbf3c96f	-0.0074397842
113	0xbdd36d09	-0.10323531
114	0x3d7fbceb	0.062436026
115	0x3d153074	0.03642316
116	0xbe15e87f	-0.14639471
117	0x3e07d0df	0.13263272
118	0x3d21d5fc	0.039510712
119	0x3da4940a	0.08036049
120	0xbd1a9e48	-0.037748605
121	0x3e0bceeb	0.13653152
122	0x3d9c7694	0.076398045
123	0xbdb319d6	-0.08745162
124	0xbd0c1da3	-0.03420795
125	0x3d0f1dba	0.03494046
126	0x3e06ccb5	0.13164027
127	0xbdaaaae0	-0.08333373
128	0x3d6b68fe	0.057473175
129	0xbe00b653	-0.12569551
130	0xbd35a07f	-0.044342514
131	0xbd700812	-0.058601446
132	0xba9819b5	-0.0011604341
133	0xbda2e6d6	-0.07954185
134	0xbdcc562f	-0.09977376
135	0xbc8768af	-0.01652941
136	0xbb212f26	-0.0024594753
137	0xbbfe4baa	-0.0077604847
138	0xbaf1046e	-0.0018388161
139	0x3cb13ead	0.021636331
140	0x3bd40d37	0.006471302
141	0xbb59f430	-0.003325712
142	0x3c87aa30	0.016560644
143	0xbccb3595	-0.024805823
144	0xbdc29146	-0.09500365
145	0x3d6807df	0.05664813
146	0xbdaa4c75	-0.08315364
147	0x3c49a2fe	0.012306927
148	0xbd94da2d	-0.07268176
149	0x3d030239	0.03198454
150	0x3e1df2d2	0.1542466
151	0x3d18b49a	0.03728161
152	0x3d9faa81	0.07796193
153	0xbdf0fd6e	-0.11767088
154	0xbdb3eef4	-0.08785811
155	0xbd6d520a	-0.057939567
156	0x3db3c9d8	0.08778733
157	0x3c84e51b	0.016222527
158	0xbdc2a792	-0.09504618
159	0xbca9767e	-0.020686384
160	0x3d48c88c	0.04901938
161	0xbde9f9bb	-0.114245854
162	0x3da48197	0.0803253
163	0xbd81296a	-0.06306727
164	0x3cdedb07	0.02720405
165	0xbae5fd76	-0.0017546851
166	0x3de254ba	0.110513166
167	0xbd8930ee	-0.06698786
168	0x3d8cc283	0.06873038
169	0xbd526d89	-0.051373992
170	0x3c32eade	0.0109202545
171	0xbd7ed5c9	-0.0622156
172	0x3dd6e9c7	0.10493808
173	0x3e0b03ec	0.13575715
174	0x3c145d50	0.009055451
175	0x3d6664ad	0.056248356
176	0x3da2834c	0.07935199
177	0x3ce6ff14	0.028197803
178	0x3d0efe02	0.03491021
179	0x3ba33cf7	0.004981633
180	0x3db72a67	0.089436345
181	0x3d560897	0.052254286
182	0xbdc6fb54	-0.09715906
183	0x3d4fcb76	0.050731145
184	0xbd2e4947	-0.04255035
185	0xbdd70e90	-0.105008245
186	0xbdc75522	-0.09733035
187	0xbd5ca5ff	-0.053869244
188	0x3d842c62	0.06453778
189	0x3de2a2ff	0.11066245
190	0x3d1e7e88	0.03869489
191	0x3d2b6251	0.04184181
192	0x3cb4ce79	0.02207111
193	0xbd99d715	-0.07511727
194	0x3d3d252a	0.04617802
195	0x3b2939dc	0.002582184
196	0xbc38dcdb	-0.011283125
197	0x3be0c33a	0.0068592103
198	0xbd6c6c63	-0.057720553
199	0xbe0bc802	-0.13650516
200	0xbcb39760	-0.021922767
201	0x3dd659a6	0.10466318
202	0x3dd75974	0.10515109
203	0xbd5c96ff	-0.05385494
204	0xbd82699b	-0.06367799
205	0x3bebf6aa	0.0072010355
206	0x3dd7f38f	0.10544502
207	0x3c2cfa1b	0.010557677
208	0x3da7db50	0.081961274
209	0x3dea102a	0.11428864
210	0xbdd1d19c	-0.10245058
211	0xbd8dab31	-0.06917418
212	0x3dfd1d85	0.12359146
213	0x3db7798d	0.08958731
214	0x3e026e33	0.1273735
215	0x3da78948	0.08180481
216	0x3cd86843	0.026416903
217	0xbd66cf70	-0.05635017
218	0xbdaac850	-0.08338988
219	0x3e22e89b	0.15909044
220	0x3e08928b	0.13337152
221	0x3d0aeb6e	0.03391593
222	0x3cc9e736	0.024646383
223	0xbdfd0e61	-0.12356258
224	0x3c810dfa	0.015753735
225	0x3df2fc7f	0.11864566
226	0x3c98a44d	0.018633032
227	0xbcb87cb1	-0.022520395
228	0xbdb4733c	-0.08811042
229	0x3df19951	0.11796821
230	0x3dae8afb	0.08522602
231	0xbd133cf4	-0.0359468
232	0x3c9b5bea	0.018964726
233	0xbd9a775b	-0.075422965
234	0xbd48e882	-0.04904986
235	0x3d23e46e	0.04001277
236	0xbd0f0319	-0.034915064
237	0xbc20c606	-0.0098128375
238	0xbc1c5e2f	-0.0095439395
239	0x3cd58ba9	0.026067572
240	0xbc54c3c9	-0.012986132
241	0x39ab8237	0.0003271268
242	0x3dc15926	0.09440832
243	0x3b99d402	0.0046944628
244	0x3deae6f7	0.11469834
245	0x3dfd8fc5	0.123809375
246	0x3da1c996	0.078997776
247	0x3d981e76	0.07427685
248	0xbaff5897	-0.0019481358
249	0x3cf5b6cc	0.02999439
250	0x3dec8e7b	0.115506135
251	0x3db73a79	0.089467
252	0x3cf2eb85	0.02965332
253	0x3d8e098b	0.06935414
254	0xbdc6e29d	-0.09711192
255	0x3df64b68	0.12026101

cells.1.x2h.weight f4 [256, 64]
0	0x3d3657fb	0.0445175
1	0xbba10f9c	-0.004915191
2	0x3d1ea740	0.03873372
3	0x3d859259	0.06522054
4	0x3d7503a8	0.05981794
5	0x3d48ace7	0.048993018
6	0x3d25b4d7	0.040455665
7	0x3ba51b33	0.005038643
8	0xbe0edfb5	-0.13952525
9	0xbdfcdcfd	-0.12346838
10	0xbcce5710	-0.025187999
11	0xbda0017e	-0.078127846
12	0x3dd116de	0.1020944
13	0x3cdc1976	0.02686761
14	0xbdbfca48	-0.09364754
15	0x3d855788	0.06510836
16	0x3c89ff74	0.016845442
17	0x3dd142e5	0.10217837
18	0xbdbc0847	-0.09181266
19	0xbc8ad18f	-0.016945628
20	0x3d4bb21c	0.049730405
21	0xbb883374	-0.0041565243
22	0x3de7b2f1	0.11313427
23	0x3b61fa41	0.0034481438
24	0xbe0fba9a	-0.14036027
25	0xbb2ed7c8	-0.0026678909
26	0xbcbfd102	-0.023415092
27	0xbc5831d8	-0.013195477
28	0x3deb32c8	0.11484295
29	0xbd5f6898	-0.054543108
30	0xbc346d9c	-0.011012461
31	0x3d697880	0.056999683
32	0xbcd62f79	-0.026145684
33	0x3d6873e8	0.05675116
34	0xbd950163	-0.07275655
35	0x3be7c920	0.0070735365
36	0xbdab7708	-0.08372313
37	0x3dce3239	0.10068173
38	0xbdad67f1	-0.08467091
39	0xbd2e2a5a	-0.04252086
40	0x3d968bbc	0.07350871
41	0xbd521616	-0.051290594
42	0xbc422170	-0.011848792
43	0xbda7f331	-0.08200682
44	0xbdcd3cb6	-0.10021345
45	0xbd5731c9	-0.052537713
46	0xbd037182	-0.03209067
47	0x3c41cf5f	0.011829226
48	0xbb853bec	-0.004065981
49	0xbd12e6d3	-0.035864662
50	0xbcb4043c	-0.021974675
51	0x3c414574	0.011796344
52	0x3b6949d1	0.0035596977
53	0x3d25c02f	0.040466484
54	0x3dc908f8	0.09816164
55	0xbe2122ae	-0.15735886
56	0x3da1fe03	0.07909777
57	0xb8e3e836	-0.00010867456
58	0x3cece387	0.028917087
59	0x3dd20b64	0.10256079
60	0x3d6e2068	0.058136374
61	0xbdb518ee	-0.088426456
62	0x3d616c44	0.05503489
63	0x3d97c4a4	0.07410553
64	0xbcb5b509	-0.02218105
65	0xbdaa1a36	-0.083057806
66	0x3c8363e9	0.016038852
67	0x3dc4bf54	0.096068054
68	0x3dc84daa	0.09780438
69	0xbd64ced9	-0.055861328
70	0x3db28c42	0.08718158
71	0x3dbdae34	0.09261742
72	0x3c9631d1	0.018334301
73	0xbd6d2d06	-0.057904266
74	0x3dce7c09	0.100822516
75	0xbda04e11	-0.0782739
76	0x3d725dc4	0.059171453
77	0xbd00a814	-0.03141029
78	0xbd7ed079	-0.062210534
79	0xbcdd5477	-0.027017815
80	0x3d84aacd	0.0647789
81	0xbdc8d903	-0.09807017
82	0x3c924ac5	0.017857919
83	0xbd6e627f	-0.058199402
84	0x3d329e73	0.04360814
85	0x3dedf2fd	0.11618612
86	0x3d9c2f84	0.076262504
87	0x3e05085f	0.12991475
88	0xbdb1682f	-0.086624496
89	0xbd6e95c7	-0.058248308
90	0xbd97a837	-0.07405131
91	0xbda960d1	-0.082704194
92	0xbd4ca46f	-0.049961504
93	0xbdb615bd	-0.08890865
94	0xbd8f9600	-0.07011032
95	0xbdd8fcde	-0.105951056
96	0x3e2bc014	0.1677249
97	0xbe2e5d3b	-0.17027752
98	0xbcb3f103	-0.02196551
99	0xbdc9c314	-0.09851661
100	0xbd47a5a6	-0.04874196
101	0xbe139012	-0.14410427
102	0x3ddec000	0.10876465
103	0x3de3cd81	0.11123181
104	0x3be37cdc	0.0069423746
105	0xbd9da7b0	-0.076979995
106	0xbb544b5b	-0.0032393548
107	0xbd064308	-0.03277877
108	0xbceab1fa	-0.028649319
109	0xbc815083	-0.015785461
110	0xbde890a9	-0.11355717
111	0x3ba2bbca	0.004966234
112	0xbda2c554	-0.079477936
113	0xbce7beba	-0.028289188
114	0xbdcad359	-0.099035926
115	0x3defdcc6	0.11712031
116	0xbd4205e4	-0.0473689
117	0xbd110f4e	-0.035414986
118	0x3da1cd61	0.07900501
119	0x3e2b2b35	0.16715701
120	0xbcfbf3da	-0.030755926
121	0xbcf41799	-0.029796408
122	0x3c90dbe5	0.017682979
123	0x3c214a28	0.00984434
124	0xbd9def7b	-0.07711693
125	0x3ca60fde	0.020271238
126	0x364a6260	3.0157607e-06
127	0x3d69fc12	0.05712516
128	0x3d092379	0.033481095
129	0x3d0b610d	0.0340281
130	0x3dce137e	0.100623116
131	0x3cb7a277	0.022416336
132	0x3c82b4f0	0.015955418
133	0x3db83fd6	0.08996551
134	0x3dcffef4	0.1015605
135	0x3dfa97f1	0.12236012
136	0x3c833338	0.016015634
137	0xbd32109b	-0.043472867
138	0xbdb6ee1d	-0.08932135
139	0xbcf8e4f8	-0.030382618
140	0xbdbdda24	-0.09270123
141	0x3cdd1bcd	0.026990796
142	0x3df5b21c	0.11996862
143	0x3d8476da	0.06467982
144	0xbda15abf	-0.078786366
145	0x3d455150	0.04817325
146	0xbdefce59	-0.117092796
147	0x3d1f0cf6	0.03883072
148	0x3cf6842b	0.03009232
149	0x3de6f922	0.11277987
150	0x3e06256a	0.1310021
151	0x3d91a25d	0.071110465
152	0xbe076c2c	-0.13224858
153	0x3d786568	0.060643584
154	0x3d35a5b6	0.044347487
155	0x3d92aa01	0.07161332
156	0x3dbb79ec	0.09154114
157	0xbd0d4857	-0.034492817
158	0x3da2a57a	0.079417184
159	0x3d5fd5dc	0.05464731
160	0xbcf25e4a	-0.029585976
161	0x3df2c934	0.11854783
162	0xbdae676a	-0.085158184
163	0x3d33e092	0.04391534
164	0x3dce94ba	0.10086961
165	0xbc3618e9	-0.0111143375
166	0xbc7aaef2	-0.015300499
167	0xbdb1b84a	-0.086777285
168	0xbda04f62	-0.07827641
169	0xbdb3a87b	-0.087723695
170	0xbda39fb0	-0.07989442
171	0xbc08b84a	-0.008344719
172	0x3de6ec08	0.11275488
173	0xbd08e58d	-0.03342204
174	0xbcd40af8	-0.025884137
175	0xbd7ca76a	-0.061683096
176	0x3d84d1db	0.06485339
177	0x3dbc9fba	0.09210153
178	0x3df479f1	0.11937321
179	0xbd718ae5	-0.05897035
180	0xbd0ec166	-0.034852408
181	0xbc4a3dbb	-0.012343819
182	0x3d1198a6	0.035545968
183	0xbde49bd5	-0.11162535
184	0x3deb9e4c	0.11504802
185	0xbc0138db	-0.007887091
186	0xbddc0f63	-0.10745122
187	0x3dc93b41	0.09825755
188	0x3aca34a8	0.001542707
189	0xbdc4e5df	-0.09614157
190	0x3d0bdc11	0.03414542
191	0xbd60e6f2	-0.054907747
192	0x3ce73069	0.028221326
193	0x3d92e15c	0.0717189
194	0xbe1e6305	-0.1546746
195	0x3d4226b3	0.047400188
196	0x3de601fd	0.11230848
197	0xbd80bcab	-0.062859856
198	0xbd2da176	-0.04239031
199	0xbd973fa1	-0.07385183
200	0x3de612a4	0.11234024
201	0x3dd8d7e3	0.10588052
202	0xbd98addf	-0.07455038
203	0x3cf62c40	0.030050397
204	0xbdc9e69d	-0.09858439
205	0x3c666191	0.014061348
206	0xbdad0efd	-0.084501244
207	0xbdf237de	-0.11827062
208	0xbc69db05	-0.01427341
209	0xbda837c8	-0.082137644
210	0xbdea9e5c	-0.11455986
211	0xbe06a7ad	-0.131499
212	0xbcbd1a53	-0.023083841
213	0xbd4230f9	-0.047409985
214	0xbc11b183	-0.00889242
215	0xbcb636a3	-0.02224285
216	0xbc6553f0	-0.013997063
217	0x3c9bb3ef	0.019006697
218	0x3db29455	0.08719698
219	0xbdda9ff6	-0.106750414
220	0xbdae3059	-0.08505315
221	0xbb738536	-0.0037158257
222	0x3dbf9c13	0.09355941
223	0xbdd30f04	-0.103055984
224	0x3de0227a	0.10944076
225	0x3c9c68a9	0.019092875
226	0x3d7c6240	0.061617136
227	0xbc67cc4b	-0.014147828
228	0x3d5a44b6	0.053288184
229	0xbddb70d0	-0.10714877
230	0x3ccab479	0.02474426
231	0x3d18ffe5	0.037353415
232	0xbdfe7bd4	-0.12425962
233	0xbd96e8f0	-0.07368648
234	0x3cbca496	0.0230277
235	0xbe13a5b8	-0.14418685
236	0x3dc15cfa	0.09441562
237	0x3d293a04	0.041315094
238	0x3d578339	0.052615378
239	0xbde425ef	-0.11140048
240	0xbe22e757	-0.15908562
241	0xbe0aef02	-0.13567737
242	0x3d975feb	0.07391342
243	0x3da46c4f	0.08028471
244	0xbde242ee	-0.11047922
245	0xbd069016	-0.032852255
246	0x3e0b577c	0.13607591
247	0x3b9052c3	0.004404397
248	0x3dd14bf4	0.10219565
249	0xbdb90399	-0.09033889
250	0x3d8111c9	0.063022204
251	0x3dcf8097	0.101319484
252	0xbdbc9d43	-0.09209683
253	0x3d607227	0.054796364
254	0xbd84a052	-0.06475891
255	0x3dde4fb5	0.10855047

cells.1.x2h.bias f4 [256]
0	0x3dbd278b	0.09236058
1	0x3dc7c067	0.09753495
2	0xbd463f49	-0.048400197
3	0xbd67bdb0	-0.056577384
4	0x3d91de73	0.07122507
5	0xbdebc10d	-0.11511431
6	0x3cad1781	0.021129372
7	0xbceb9b0e	-0.02876046
8	0xbd52812a	-0.05139271
9	0x3dafc75d	0.085829474
10	0x3deced84	0.1156874
11	0x3ce7c73a	0.02829324
12	0x3d5db301	0.05412579
13	0x3e0e3664	0.13887936
14	0x3d9bd089	0.07608134
15	0x3ca4d8ad	0.02012285
16	0xbc8e514a	-0.017372746
17	0x3d526529	0.051366005
18	0x3c0b81ea	0.008514861
19	0x3e1e20e3	0.15442233
20	0xbc760b70	-0.015017375
21	0x3e060166	0.13086471
22	0xbc4d0262	-0.012512775
23	0xbd9d377e	-0.076766
24	0x3e01e5ab	0.12685268
25	0x3d7be833	0.06150074
26	0xbde0d2bc	-0.109776944
27	0x3dfe21db	0.12408801
28	0xbdcf810b	-0.10132035
29	0xbd2cccda	-0.04218755
30	0xb896e554	-7.195273e-05
31	0x3c91afec	0.017784081
32	0xbc1bbc7c	-0.009505387
33	0x3d978984	0.07399276
34	0xbe03f1f0	-0.1288526
35	0xbd34c7a3	-0.0441357
36	0xbc90759a	-0.017634202
37	0xbdd3779d	-0.10325549
38	0x3cbd1a8a	0.023083944
39	0x3e0e3efa	0.13891211
40	0xbd3ce956	-0.046120964
41	0x3d726eb1	0.059187595
42	0xbcd9f53d	-0.026606197
43	0x3d9c6819	0.076370426
44	0xbc82a693	-0.01594857
45	0xbda52a2c	-0.08064684
46	0x3df8d178	0.12149328
47	0x3c6141d9	0.013748609
48	0x3c287be8	0.010283448
49	0xbd9315ef	-0.07181918
50	0x3da7e901	0.08198739
51	0x3db08594	0.08619228
52	0x3d83cfa5	0.064360894
53	0x3e0818b4	0.13290673
54	0xbd55da65	-0.05221023
55	0x3deee1e3	0.11664178
56	0x3d4fc04e	0.050720505
57	0x3cef3126	0.02919824
58	0x3ccf6782	0.025317911
59	0x3c103119	0.008800768
60	0xbddcdecb	-0.10784682
61	0x3d04a326	0.032382153
62	0xbdcf56d0	-0.1012398
63	0x3cb718ca	0.022350688
64	0xbdc7b33e	-0.097509846
65	0xbd22010e	-0.039551787
66	0x3c8b102e	0.016975489
67	0x3c52d0fd	0.0128672095
68	0x3d95201e	0.072815165
69	0xbd8ec357	-0.06970852
70	0xbca8c874	-0.020603396
71	0xbce21fcb	-0.02760305
72	0x3ccc577e	0.024944063
73	0x3dac0660	0.083996534
74	0x3dc45910	0.095873
75	0xbbf86f60	-0.0075816363
76	0xbcae76a1	-0.021296801
77	0xbd5bae45	-0.053632993
78	0x387eaf02	6.0721308e-05
79	0x3ddfdf85	0.10931305
80	0xbdf1b968	-0.118029416
81	0x3db59aa8	0.08867389
82	0xbd9a13ed	-0.07523332
83	0xbc8cd4b1	-0.017191263
84	0xbd93539f	-0.07193684
85	0x3e0834ec	0.13301438
86	0xbdf50466	-0.119637296
87	0x3da1e914	0.07905784
88	0xbdfb6f78	-0.1227712
89	0x3df55640	0.119793415
90	0xbdffd9b2	-0.12492694
91	0x3d8955bd	0.067058064
92	0x3cecca65	0.028905103
93	0xbdb4060e	-0.08790217
94	0x3d96729a	0.07346077
95	0xbd1e42dd	-0.038637985
96	0xbcb2254c	-0.0217463
97	0x3de5f5cb	0.11228522
98	0x3d6d6d65	0.057965655
99	0x3dcd6255	0.10028521
100	0xbde900c4	-0.11377099
101	0xbd4e152d	-0.050313164
102	0x3d89eb84	0.06734374
103	0xbd9f8b7e	-0.07790278
104	0xbdc4112c	-0.09573588
105	0xbaf4c894	-0.00186755
106	0x3de86204	0.1134682
107	0x3dce1e18	0.10064334
108	0x3ca96bb8	0.020681247
109	0xbe1127bf	-0.14175318
110	0x3dbafcef	0.091302745
111	0xbd6ed13a	-0.058305003
112	0x3d7a8127	0.061158326
113	0xbd095b83	-0.033534538
114	0xbda4f2a5	-0.08054093
115	0xbdc5f398	-0.096656024
116	0x3d688188	0.056764156
117	0xbb9da5f0	-0.004811041
118	0xbcbea6a9	-0.02327283
119	0xbd87e95b	-0.06636306
120	0xbd7db3e6	-0.061939143
121	0xbddd1f73	-0.10797014
122	0xbdec0f94	-0.11526409
123	0xbdda46c6	-0.1065803
124	0x3d961552	0.07328285
125	0xbde801a2	-0.113284364
126	0x3d952928	0.072832406
127	0x3cd03ed9	0.025420593
128	0x3c95bb9e	0.01827794
129	0x3d9ffeef	0.078122966
130	0xbdb359b5	-0.08757345
131	0xbde000b9	-0.10937638
132	0x3d912ac4	0.07088235
133	0xbdb8ef44	-0.09030011
134	0xbdead09a	-0.11465569
135	0xbdb5b167	-0.088717274
136	0x3df046a3	0.11732223
137	0xbd92de78	-0.07171339
138	0xbdc9fa9d	-0.09862254
139	0x3df40079	0.11914153
140	0x3d64806c	0.055786535
141	0x3da30596	0.0796005
142	0xbdac2e93	-0.08407321
143	0xbc999665	-0.018748472
144	0x3e0d9841	0.13827612
145	0x3d3d78fb	0.046257954
146	0xbe0316c7	-0.12801658
147	0xbdf395e4	-0.11893824
148	0xbda55a2e	-0.08073841
149	0x3d27f5e2	0.041005976
150	0xbcc22193	-0.02369765
151	0x3bf01787	0.0073270234
152	0xbd6b30fb	-0.05741976
153	0x3d489db2	0.048978515
154	0xbce2db85	-0.027692566
155	0x3da2bbdf	0.0794599
156	0x3dafab2c	0.0857757
157	0x3dac074b	0.083998285
158	0xbc3dc84d	-0.0115834
159	0x3d5d3b06	0.054011367
160	0x3c798872	0.015230285
161	0x3d93317a	0.07187171
162	0x3c29502b	0.010334055
163	0x3dc23c93	0.0948421
164	0x3d81c381	0.063361175
165	0xbd4b692f	-0.049660858
166	0xbd755ab0	-0.05990094
167	0xbd07d807	-0.033165004
168	0xbc14a0c3	-0.009071532
169	0x3d84b16c	0.06479153
170	0x3ddb984e	0.10722409
171	0xbd8d45ce	-0.0689808
172	0xbd3fcd60	-0.04682672
173	0x3d25c444	0.040470377
174	0xbde18dfc	-0.110134095
175	0xbc901d4a	-0.017592091
176	0x3c88a85b	0.01668184
177	0xbba17b8e	-0.004928059
178	0x3c1a670b	0.009423981
179	0xbbfbee18	-0.007688295
180	0x3db862de	0.090032324
181	0xbd41aa2a	-0.04728142
182	0xbdcc4d0b	-0.09975632
183	0xbc3b35fd	-0.011426446
184	0x3da4bda9	0.08043987
185	0xbddf5169	-0.109042
186	0xbda26ba3	-0.07930686
187	0x3ce742c3	0.028230077
188	0x3d9c2f1a	0.076261714
189	0xbe01564f	-0.1263058
190	0x3c2d6c21	0.010584862
191	0xbda975af	-0.082743995
192	0xbd09782f	-0.03356188
193	0x3d693726	0.05693736
194	0x3d18c28d	0.037294913
195	0xbdc97e71	-0.0983857
196	0xbacfda81	-0.0015857966
197	0x3d882881	0.066483505
198	0x3c81f9a8	0.015866116
199	0x3cb050f5	0.021522978
200	0xbca2ed17	-0.019888444
201	0xbd80f319	-0.06296367
202	0x3de54360	0.111944914
203	0x3d774304	0.060366645
204	0x3ce50155	0.027954737
205	0xbd28deb2	-0.041228004
206	0x3dc0f315	0.09421364
207	0xbd0b6dc0	-0.034040213
208	0xbd9fddbf	-0.078059666
209	0xbbb30efc	-0.0054644328
210	0x3b2b0cc3	0.0026100136
211	0x3dc9b077	0.09848111
212	0x3d2c7c3c	0.042110667
213	0x3da5c1f1	0.08093632
214	0x3dabacf3	0.08382597
215	0x3e10e5fa	0.14150229
216	0xbdc96906	-0.09834485
217	0x3d831f4d	0.064024545
218	0xbcd90965	-0.026493737
219	0xbd8185ac	-0.06324324
220	0x3d9b2de8	0.07577115
221	0xbd98377d	-0.074324585
222	0x3d05dce2	0.032681353
223	0xbca8738c	-0.02056291
224	0xbd9205db	-0.07130023
225	0xbdbe94ee	-0.0930575
226	0x3d457481	0.04820681
227	0x3daafd90	0.083491445
228	0x3df172d4	0.1178948
229	0xbe0062c3	-0.12537675
230	0x3d256dad	0.040387798
231	0xbd813d09	-0.0631047
232	0x3d46b7ab	0.048515003
233	0xbd77c87d	-0.060493935
234	0xbd8980fa	-0.067140535
235	0x3bd02b9f	0.0063528563
236	0x3cbc466a	0.022982795
237	0xbd301753	-0.042990994
238	0x3d762020	0.06008923
239	0x3d06970d	0.032858897
240	0x3d9326ee	0.071851596
241	0xbd34d041	-0.04414392
242	0xbd7a7555	-0.061147053
243	0xbcf48a30	-0.02985105
244	0xbd62a894	-0.05533655
245	0x3bb133da	0.0054077925
246	0x3dc1c7bc	0.094619244
247	0x3da2f08d	0.07956038
248	0xbded0fde	-0.11575292
249	0xbd9f9b68	-0.07793313
250	0xbd3fd72d	-0.046836067
251	0x3dabd6b0	0.08390558
252	0xbd31ab63	-0.043376338
253	0xbd503c38	-0.05083868
254	0xbd9923cb	-0.0747753
255	0x3db761fb	0.08954235

cells.1.h2h.weight f4 [256, 64]
0	0x3d2d66a9	0.042334232
1	0xbb612b64	-0.0034358138
2	0x3cef35f8	0.029200539
3	0x3b376591	0.0027984122
4	0xbdab054c	-0.0835062
5	0x3d2e5b02	0.04256726
6	0xbb88241e	-0.004154696
7	0x3d07b361	0.033130053
8	0x3dd75e93	0.105160855
9	0x3db409cc	0.08790931
10	0x3d7ae352	0.061251946
11	0x3d27a785	0.040931243
12	0xbdcd4746	-0.1002336
13	0x3d28732c	0.04112546
14	0x3d50a7ad	0.050941158
15	0xbda5402f	-0.08068883
16	0x3e0a60a3	0.13513426
17	0x3ddfdc89	0.109307356
18	0xbd5243fd	-0.05133437
19	0xbd403df7	-0.046934094
20	0x3de44bbc	0.11147258
21	0xbc005333	-0.007832336
22	0xbd147f0a	-0.036253966
23	0xbd5418b3	-0.051781368
24	0x3d261cb7	0.04055473
25	0xbd3509c6	-0.044198774
26	0x3d7cf6b2	0.061758704
27	0x3e0193ac	0.12653989
28	0x3db0402a	0.08605988
29	0xbc43c4d8	-0.011948787
30	0x3dc1eccc	0.094689935
31	0x3c880cab	0.016607603
32	0xbd82de64	-0.06390074
33	0xbd47bc72	-0.0487637
34	0xbd69802f	-0.05700701
35	0x3d8be091	0.06829942
36	0x3d03fdd9	0.03222451
37	0x3dfb9df9	0.1228599
38	0xbc55dcd5	-0.013053139
39	0x3dfe8772	0.12428178
40	0xbdfc53b0	-0.123206496
41	0xbde505c8	-0.11182743
42	0x3d075a6c	0.033045217
43	0xbce94107	-0.02847339
44	0x3d09dd9d	0.033658613
45	0x3d45a7f9	0.048255894
46	0x3da92c91	0.082604535
47	0x3db8f440	0.09030962
48	0x3da0b9b9	0.07847924
49	0x3de1936e	0.11014448
50	0xbc9d1603	-0.019175535
51	0x3e19f612	0.15035275
52	0xbd823f59	-0.06359739
53	0x3c93c397	0.0180376
54	0xbced691e	-0.028980788
55	0xbdb3d7a7	-0.08781367
56	0x3bae77a6	0.005324322
57	0x3be46a76	0.006970699
58	0xbc8c4fb2	-0.017127845
59	0xbe1684a5	-0.14699037
60	0xbe183f45	-0.14867885
61	0x3d646634	0.05576153
62	0x3c3e0a72	0.01159917
63	0x3d80adbb	0.062831365
64	0x3de9f5af	0.114238136
65	0xbdb557a0	-0.08854604
66	0xbd877cbd	-0.06615589
67	0xbdc6c883	-0.09706213
68	0x3dc350fc	0.09536931
69	0x3e02b085	0.1276265
70	0xbd88087c	-0.06642243
71	0xbe0365bd	-0.12831779
72	0x3d82ede1	0.06393028
73	0x3db77c20	0.08959222
74	0xbd3a963c	-0.04555343
75	0x3e00ed2b	0.12590472
76	0xbdb08d08	-0.086206496
77	0xbd2e62ae	-0.042574577
78	0xbd88c104	-0.0667744
79	0x3d59bd55	0.053159077
80	0x3dfa1a2f	0.122120254
81	0x3c93d1de	0.018044408
82	0x3d154128	0.03643909
83	0xbdb1a995	-0.08674923
84	0xbda7420c	-0.08166894
85	0x3d8037e4	0.0626066
86	0x3d4e73a1	0.05040324
87	0x3d6b9305	0.057513256
88	0xbdb215b1	-0.086955436
89	0x3d579ee7	0.052641775
90	0x3d4df521	0.0502826
91	0x3db3e8cc	0.08784637
92	0x3daec564	0.08533743
93	0x3ad98046	0.0016594015
94	0x3c32430b	0.010880242
95	0x3c2416bd	0.010015187
96	0x3d78b765	0.060721774
97	0x3dd17216	0.10226838
98	0xbce30857	-0.027713938
99	0xbdaa2cab	-0.08309301
100	0x3d9cb8a9	0.07652409
101	0xbd8d2306	-0.06891446
102	0xbd0d9515	-0.034566004
103	0x3cf7a504	0.030230053
104	0xbdd977e2	-0.10618569
105	0xbd5341a8	-0.051576287
106	0xbd926dd1	-0.07149852
107	0xbcd4ed69	-0.025992112
108	0x3e0e1c5f	0.1387801
109	0xbdcc2faa	-0.09970029
110	0x3df85625	0.12125806
111	0xbd9cceff	-0.07656669
112	0x3d9dda90	0.07707703
113	0xbd09034e	-0.033450417
114	0x3da815a4	0.082072526
115	0xbdc1ce9d	-0.094632365
116	0xbcb25711	-0.021770032
117	0x3d10ddfb	0.035367947
118	0xbc49afe8	-0.012310006
119	0xbdb89420	-0.090126276
120	0xbcb9d755	-0.022685686
121	0xbd56f4a6	-0.05247941
122	0x3cae7256	0.021294754
123	0x3dbc288b	0.091874205
124	0xbcb958bc	-0.02262532
125	0x3dc54001	0.096313484
126	0x3d95e410	0.0731889
127	0x3c9c54fd	0.019083494
128	0xbd8e76cf	-0.06956255
129	0xbac43222	-0.0014968554
130	0xbc83f5a9	-0.01610835
131	0x3a0af2d2	0.0005300465
132	0x3ce3a6e2	0.027789537
133	0xbda2bb9c	-0.0794594
134	0xbdceaca4	-0.10091522
135	0xbb59dcc2	-0.0033243154
136	0xbd3890b0	-0.04505986
137	0xbb838585	-0.0040137195
138	0xbd9619e8	-0.0732916
139	0xbc93743a	-0.017999757
140	0xbd7c168d	-0.061544944
141	0x3d059c87	0.03261998
142	0x3d5d5ec5	0.054045457
143	0xbdfdba82	-0.12389089
144	0xbdddb821	-0.108261354
145	0x3da3cb3c	0.07997748
146	0x3dbdb2ac	0.092625946
147	0x3d71df9c	0.05905114
148	0xbcd8f3ad	-0.026483381
149	0xbe087ae2	-0.13328126
150	0xbe08bfc1	-0.13354398
151	0xbdd264cb	-0.10273131
152	0x3db7e89a	0.08979912
153	0xbd5d12cc	-0.053973004
154	0x3d5d662f	0.054052528
155	0xbd6f129d	-0.05836736
156	0x3c267d03	0.010161641
157	0xbdaf0a86	-0.08546929
158	0xbd237f39	-0.03991625
159	0xbde5bfd4	-0.11218229
160	0x3da64308	0.08118254
161	0x3d7a9cd2	0.06118471
162	0x3dc69d2b	0.09697946
163	0xbc6257b9	-0.01381486
164	0xbde1df81	-0.11028958
165	0x3d9a3e27	0.07531386
166	0x3de9c83d	0.114151455
167	0x3d5ec04a	0.0543826
168	0xbc525fb3	-0.012840199
169	0x3dba9e34	0.09112206
170	0xbd899f68	-0.067198575
171	0x3d2423c0	0.040073156
172	0x3d1cdccd	0.03829651
173	0xbd84882b	-0.064712845
174	0x3dcd80b2	0.10034312
175	0xbd35c5e0	-0.04437816
176	0x3c4e797f	0.012602209
177	0xbd148acf	-0.03626519
178	0x3cd76fd1	0.026298435
179	0x3d4c5f96	0.049895845
180	0xbd82fc9c	-0.06395838
181	0x3ce31927	0.027721955
182	0xbd84a001	-0.06475831
183	0x3d8c3c2e	0.06847416
184	0x3d13df92	0.036101885
185	0xbd62ebd8	-0.0554007
186	0x3d18e0e7	0.03732386
187	0x3d6eae66	0.058271788
188	0xbcfe30fe	-0.03102922
189	0xbd9c329e	-0.07626842
190	0x3de7be41	0.11315585
191	0x3d4b3022	0.04960645
192	0x3e22287b	0.15835755
193	0x3c5665a4	0.013085756
194	0xbdd52db6	-0.10409109
195	0xbe0aecc6	-0.13566884
196	0xbd35227a	-0.044222333
197	0x3deb3b7f	0.11485957
198	0xbd34fa78	-0.044184178
199	0x3dddad0b	0.10824021
200	0xbdc421a5	-0.0957673
201	0x3b64a93c	0.003489091
202	0xbcf2d588	-0.029642835
203	0xbd4cff2d	-0.050048042
204	0x3dcb3138	0.09921497
205	0x3cb4559e	0.022013482
206	0x3c0fc4ec	0.008774977
207	0xbd826369	-0.06366617
208	0x3e142f03	0.14471059
209	0x3dfdb6eb	0.123884045
210	0xbe101426	-0.14070186
211	0x3d25f259	0.040514324
212	0x3d44f655	0.048086483
213	0x3dc8ee83	0.098111175
214	0xbd714503	-0.058903705
215	0x3c82737f	0.015924213
216	0x3afb52b4	0.0019174428
217	0xbcb526bc	-0.022113197
218	0x3d012908	0.03153327
219	0x3e20bf61	0.15698005
220	0x3e0476a4	0.12935883
221	0xbd361c6e	-0.044460706
222	0x3da47454	0.0803
223	0x3de6bb11	0.11266149
224	0x3b06ebd5	0.0020587344
225	0xbddfafde	-0.10922216
226	0xbdc2a863	-0.095047735
227	0x3de152a3	0.1100209
228	0xbdf3808b	-0.11889752
229	0xbd5a68b0	-0.053322494
230	0x3ce92b74	0.028463103
231	0x3d89dbc9	0.06731374
232	0xbbfb5ec9	-0.0076712114
233	0x3dc14ff1	0.09439076
234	0x3e33ce94	0.17559272
235	0x3d960c88	0.07326609
236	0xbb994865	-0.0046778196
237	0x3d36bcb2	0.044613548
238	0x3d0f5e36	0.035001956
239	0x3c2c09bf	0.0105003705
240	0x3c903f95	0.017608443
241	0xbbf2c027	-0.0074081603
242	0x3d541da5	0.051786084
243	0x3d57e82d	0.052711654
244	0x3dd791f7	0.105258875
245	0x3e2753b4	0.16340524
246	0xbcfa48e4	-0.030552335
247	0x3c9213d7	0.017831726
248	0xbd9b6422	-0.07587458
249	0xbddbf46a	-0.10739978
250	0xbd9a354e	-0.07529698
251	0xbd433ac2	-0.047663458
252	0xbdf88bff	-0.12136077
253	0xbd7e9487	-0.062153365
254	0xbdf56f66	-0.11984138
255	0xbd4f129f	-0.050554868
