model_group/models_group_historical/LSTM_model_BROOKLYN_GRAND STREET BRIDGE.pth (torch, 350240 bytes, 15 tensors)

cells.0.x2h.weight f4 [256, 1]
00000000: d29f 4a3f 0c75 543f 7eb0 5cbf 6a95 003c
00000010: fbd8 63bf 726d 5d3f a611 3ebd 9a75 9f3d
00000020: 0034 953e b960 573e 8024 163e d617 313f
00000030: 4cad 303f 0a25 cb3d c006 6bbf 5aed 273e
00000040: 519a 5f3e 103f f8bd 754a 40bf 9046 0abf
00000050: f1ef 41bf 4b97 f43e 2af2 4ebf ce94 65bf
00000060: 1c99 42bf 14c1 4b3f 5a54 25bf 77c3 d23e
00000070: b055 223e def3 033f e758 a93e ae8c 963e
00000080: 007c 54bf ba5c b5bd 93cf 3abf 765c a4be
00000090: 30f9 103f 6c0e 97bd 49cc f0be e5cd 6c3f
000000a0: c014 723f c178 853e 71c3 5abe 6877 ff3e
000000b0: ac32 26be 9661 043e ab12 d5be 8c0a 6dbf
000000c0: 08cd 35bf 851f 303f de79 48bf 82e6 693e
000000d0: d368 4e3d b24c 143f d06c 1b3f f058 cfbe
000000e0: b271 69bf 33ce 43bf 55fd d3be 40a2 453f
000000f0: f91c 01bf cce1 36bf 2ce9 c63e e93b 5cbf
00000100: 9f9f e53e 4613 43bf 2d0a 743e ff31 073f
00000110: 0a8e e03e d9f8 6dbf 5e89 abbe 278a 033f
00000120: 64ee 703f 9e1e f13e 0a7d 3abf 1143 1bbf
00000130: 6270 4b3f 1df3 4fbf dfa2 18bf 3d92 a9bd
00000140: e475 473f fa42 0ebe 54ad 4f3f f087 47bf
00000150: a67d b7bd e06b 363f 46c3 84bc d9bd bc3d
00000160: b3e7 d5be 35f7 20be b829 52bd d651 2cbf
00000170: 9847 343f 3d3d 3abf 37e1 583c 30ec 35bf
00000180: 3330 d13e 6ffb 01bf 220f 443d e088 4a3f
00000190: 3d90 243f 0073 61bf 7400 bcbe 4620 29bf
000001a0: a8c9 2d3f 90f5 ca3e a922 07bf ced0 cc3e
000001b0: 73cb 7abe 4fae 8d3e 3058 05bf ce6f 08bf
000001c0: d0d7 193f 1a92 2abe 0867 69bf 0f85 133d
000001d0: c17a 843f da3f 60be b02e 37bf 9a02 24bf
000001e0: 2f5e 723e 300d 46bf 244e fe3d 1049 51be
000001f0: 80a1 d63c e18a 793e 694d 643f ff94 7b3e
00000200: 1200 803e 854b cbbc 377c bd3c 55d6 b1be
00000210: 21ea 38bf 3afc 23bf 4a7e d6bd 985d 5f3d
00000220: 1981 7abf 5d83 d53e 5ffc 703d 5c2f 0b3f
00000230: d90c 61bf 981d 893e 63ee 46bf cbd9 223d
00000240: 6fcc ce3e 15ee 9f3e 6eea 53bf 7228 f33e
00000250: caff 0ebf 0137 06bf dc7b 11bf d0b2 49bf
00000260: 9dcb 273f 739c babe 0dc7 ec3e eade 5cbd
00000270: c439 553e 549a c53e b285 7c3f 7fae 26bf
00000280: 2e69 493f dded d43e 9c42 1f3f 06d7 4d3f
00000290: a9ed 113f db39 cf3d 07f1 16be 4963 17be
000002a0: 574c f9bd 2955 14bf 8e3f b53e 17bb 4dbf
000002b0: 8fe2 44bf 0c2b 59bf 06da 2abf 330c 68bf
000002c0: b2a7 05bf df4c 46bf 7938 d73e 9db1 82bf
000002d0: 323e 143f 0ada fabe 32d4 5bbf 1a96 dabd
000002e0: e9b6 cebe 1726 5e3f 9c2c e3be 384a 08bf
000002f0: 1061 e33e 9a4d 763f 1f48 ae3e 38ee 073b
00000300: 3f6e 083f 0e4c 643f 0d45 ad3e 1378 07bf
00000310: 9765 25bf 956b 3b3f cf80 563f c178 1cbd
00000320: 3046 3e3f f920 07be b5ef 053f 59b3 31bf
00000330: e093 60bf bb7f 99be affe 06bd e8e9 72bf
00000340: 9308 cfbe 6072 b2be 8677 22be 44f2 4ebf
00000350: 16e8 343f a762 16be 1f09 96be 3129 5cbd
00000360: 78c9 f03d ac1e 62bf 289f 773f 6688 2e3e
00000370: de92 0e3f 542b 49bf 361b 31bf a8c9 203f
00000380: 2463 fb3e 366b a3be ec10 a53e 61fc db3e
00000390: 167a dfbe 056c 393f f5a9 88bc 711b 083f
000003a0: f64e 4dbf 6285 e4be 317e 33bf 814b 06bf
000003b0: f117 8e3e f3e3 143f e536 ab3e 5a85 57bf
000003c0: 874b 5ebf c0ba c5be 331d 21bf 8148 3b3f
000003d0: da44 87be b877 273e 99a3 8d3d d3e2 e1bd
000003e0: 79d1 89bd 0d54 96be 1123 07be a892 bb3d
000003f0: afe8 00be 9a6e 413f 3b90 3a3f 98c8 743e
0.79150116 0.829911 -0.86206806 0.007848123 -0.8900296 0.86495125 -0.04640355 0.077861026
0.29141235 0.2103299 0.14662361 0.69176996 0.6901443 0.09919174 -0.91807175 0.16399136
0.21836211 -0.12121403 -0.7511361 -0.5401392 -0.75756747 0.47771677 -0.80838263 -0.8968018
-0.76014876 0.7959149 -0.64581835 0.41164753 0.15853 0.51543987 0.3307564 0.29404205
-0.8300171 -0.08855577 -0.72972983 -0.32101792 0.5663023 -0.07375798 -0.47030857 0.9250167
0.9456291 0.2606869 -0.21363617 0.49895787 -0.16230267 0.12927851 -0.41615805 -0.9259422
-0.7101598 0.68798095 -0.78310955 0.22841838 0.050392937 0.5792953 0.6071291 -0.4049754
-0.9118911 -0.7648651 -0.41404215 0.772007 -0.50434834 -0.7143829 0.3884977 -0.86028916
0.44848344 -0.76201284 0.23832007 0.52810663 0.43858367 -0.92957836 -0.3350324 0.5138268
0.94113755 0.47093672 -0.72847044 -0.6064921 0.7946836 -0.81230336 -0.5962352 -0.08279846
0.7791426 -0.13892737 0.8112385 -0.779418 -0.089595124 0.71258354 -0.016206395 0.09215898
-0.41778335 -0.15719302 -0.051309317 -0.6731237 0.70421743 -0.7274969 0.013237289 -0.7106352
0.40857086 -0.5077428 0.047865994 0.79115105 0.6428259 -0.880661 -0.36719096 -0.6606487
0.6788583 0.39640474 -0.5278726 0.40003055 -0.24491672 0.2767205 -0.5208769 -0.532956
0.6009493 -0.16657296 -0.9117284 0.036015566 1.0349962 -0.21899357 -0.71555614 -0.6406647
0.2366874 -0.7736387 0.12417248 -0.20438027 0.026200056 0.24369384 0.8918062 0.24568556
0.25000054 -0.024816284 0.02313052 -0.34733835 -0.7223225 -0.6405674 -0.104733065 0.054532617
-0.9785324 0.41701785 0.05883443 0.5436914 -0.8791023 0.2678039 -0.777075 0.039758485
0.40390345 0.3123633 -0.82779586 0.47491795 -0.55859053 -0.5242768 -0.5682962 -0.7878847
0.65545064 -0.36447486 0.46245614 -0.053923525 0.20822817 0.38594306 0.986415 -0.6511001
0.78676116 0.41587725 0.6221101 0.80406225 0.57003266 0.10118457 -0.14740382 -0.14783968
-0.12172764 -0.57942444 0.3540005 -0.803636 -0.769082 -0.8483131 -0.6673893 -0.90643615
-0.5220901 -0.77461046 0.42035273 -1.0210453 0.579074 -0.48994476 -0.8587066 -0.10673161
-0.40373924 0.8677687 -0.44369972 -0.5323825 0.4440999 0.9621216 0.340394 0.0020741355
0.5329322 0.8917855 0.33841744 -0.52917594 -0.6460814 0.7321103 0.83790296 -0.038201097
0.7432585 -0.13196172 0.5231889 -0.6941429 -0.8772564 -0.29980263 -0.03295773 -0.9488816
-0.4043623 -0.34852886 -0.15865907 -0.8083842 0.70666635 -0.1468607 -0.29303834 -0.05375022
0.11757177 -0.8832805 0.9672723 0.1704422 0.5569285 -0.7858174 -0.69182146 0.62807703
0.49099076 -0.31917733 0.32239473 0.42965987 -0.43647832 0.7243045 -0.016682604 0.5316687
-0.8019861 -0.44633013 -0.7011443 -0.5245896 0.2775264 0.5816032 0.3344032 -0.84187853
-0.86833996 -0.3861904 -0.6293518 0.7315751 -0.26419717 0.16354263 0.069159694 -0.110295914
-0.06729407 -0.29361 -0.1319697 0.09158832 -0.12588762 0.7555939 0.7287633 0.23904645

cells.0.x2h.bias f4 [256]
00000000: 888d 0fbe eddb 7abe f382 cb3e f7b6 8d3d
00000010: adcb 71bf 26fb 803f b322 4bbc 1193 48be
00000020: 38d5 543e 494e 273f e5c6 5d3f 0fa0 3c3f
00000030: 1580 8abc 22c2 8f3e 0850 1c3c 4805 87be
00000040: 3101 eb3e f475 053f b7fe f3be 58c4 253f
00000050: d792 583e 0b50 8b3e 8477 89bd f5d4 dbbd
00000060: 5ac7 71bf 3ec2 adbe 1e88 51bf 20e9 a3be
00000070: 1cba 743e 2536 a43e 7122 2cbe f998 2f3f
00000080: c31b 6c3f ebba d5be d29a 683f a951 193f
00000090: daa1 053e 516d 39be d28e 5cbf 1ca6 973c
000000a0: 7c17 97be 2590 413f 958f 4c3f 5e27 cabd
000000b0: 4389 433f a2c0 05bf b444 733f 883a 843e
000000c0: 28f8 2e3f 0db4 813f d919 25be fdfb 0dbd
000000d0: 4536 c1be a2e0 70bf 49c6 10bd 5c98 b7bc
000000e0: 6ed4 6fbf ff7a 06bf a3ab f93e 0655 4dbf
000000f0: f2b1 8b3e 2775 123e 9d13 083f b9a3 19bf
00000100: 6908 813f 6fca 0bbf 1617 3dbf e003 32bf
00000110: c15d 3dbe 0160 c53e 3c56 443e eeae 763f
00000120: c1d7 61be a189 45be be37 cabe 102f 42bf
00000130: 3bae d43c a8be 7b3d f9ab 133f 256f 6abf
00000140: 994a 38be c4f0 463e 3483 2b3e 7909 9fbe
00000150: aec9 d53e 0d23 32bf 665f 20bf d363 9c3d
00000160: 5492 5c3f 924b 883d fe67 dbbe 18cc ebbe
00000170: f871 823f 541d 5cbf 2b61 90be e29e df3e
00000180: e7cf 893e d0ff f3be e944 78bf 037b 313f
00000190: 2ae4 1ebf ca6b 0dbf 82fb 6fbf 9b82 27bf
000001a0: 0a4b ba3e c842 993e cb08 743f 116e 1d3f
000001b0: 2f9b 6e3f 8d48 aa3e 8464 4dbd 38f5 38bf
000001c0: 6869 b7be daa3 84be 0a70 75bf 0371 f63e
000001d0: b5aa 843e 8bd5 a8be f9a5 a5be 0951 e53e
000001e0: 92c9 593f 1b50 4a3f 614b 283f 91ce 0bbf
000001f0: 82dd 133f 11c6 a6be 2867 103f 959e 623f
00000200: 032e 52bf 5ac7 243f bb40 f3be bfc1 8dbd
00000210: c53f 083f 68d3 fc3e 34a2 68be 537c 5e3f
00000220: a0f7 523f ba0c 18bf aa51 5ebf 1cbf b1bd
00000230: d3c4 913e e9ea 763f 1257 72bf 446f 08bf
00000240: d006 81bf 74a3 dbbe eda3 ffbe 2e0b 803f
00000250: 27d5 a4be a05c 613f 09ea c33e c81b 39bf
00000260: 3fb0 4f3f dfc9 8e3e 78bd 4ebd 670f e7be
00000270: ad45 f93e db00 42bf 0498 74be 225b 253f
00000280: 7fc3 dbbe f8e4 263d e0fa 4f3f c0d2 553e
00000290: d076 b1be ba4e 66bf 5416 533f 2aa4 17bf
000002a0: 8c50 0c3f 1eab 11bf 31d0 303f 5793 653f
000002b0: 660b fd3e b8ab b7be 1a46 453f ba86 543e
000002c0: d00c c33e 6377 3ebf 6221 bc3c 4537 dcbe
000002d0: d201 b0be 763b a2be 8227 afbe 66d7 7d3e
000002e0: 2d6d 633f f136 52bf 9be2 413f 1ecc 6abf
000002f0: f39b 703f cdd3 4bbe a426 283f 74ce 88be
00000300: 96ba 7abf 5ed8 3dbe 3450 0bbf e3e8 723f
00000310: 7ef2 bdbe 2561 e3bc a0d1 62bf e01d 083f
00000320: 6114 e5be c071 52bf 3ba7 95bd da19 c23e
00000330: c9db 673f bdf3 6cbf 68ab 6ebf ee52 503f
00000340: 43de 253f 0126 06bf b933 503f e2ee 2abe
00000350: 1242 f1be eb7c 92bd d045 b43e 9676 323f
00000360: bb74 473f f285 aabd 57e1 993e b413 d83e
00000370: 612b 1e3b 5bbd ca3e ec78 293f 8c6a a53e
00000380: cc5e 0c3f 2dcf cabe fcd9 193d 416c bdbe
00000390: 2cf0 6ebf 1b65 d3be 976e debd 4b55 53bf
000003a0: a0bf df3e 1f13 23bf 7233 1b3f 5ade cabe
000003b0: 87be 5bbf b3ed 153f 936f 9f3e 94a6 25be
000003c0: 1a7f f9bd 2a75 64bf a582 783f 2bea 2bbf
000003d0: 8d45 1d3f 6c0d 3ebf 852e 7fbe b01b 95be
000003e0: 1b30 a73e 499b 5dbf 0064 71be e55d 203f
000003f0: a008 ec3e 56e4 59be b6de 16bf 0070 2f3f
-0.14018834 -0.24497958 0.39748344 0.069196634 -0.9445141 1.0076644 -0.01239841 -0.19587351
0.20784461 0.6535383 0.86631614 0.7368173 -0.016906777 0.280778 0.009540565 -0.26371217
0.45899346 0.5213311 -0.4765527 0.6475272 0.21149765 0.27209505 -0.06712249 -0.10733978
-0.9444481 -0.33937258 -0.81848323 -0.32013798 0.2389912 0.3207256 -0.16810013 0.6859279
0.9222986 -0.4174417 0.9086124 0.5989023 0.13050023 -0.18108107 -0.86155427 0.018511824
-0.29510105 0.7561057 0.7990659 -0.0987079 0.7638132 -0.5224706 0.9502671 0.25825906
0.68347406 1.0133072 -0.16123141 -0.034664143 -0.37736717 -0.9409276 -0.03534535 -0.022411518
-0.93683517 -0.5253143 0.4876376 -0.8020786 0.272842 0.14302503 0.5315493 -0.60015446
1.0080692 -0.54605764 -0.7386335 -0.6953716 -0.18492796 0.38549808 0.19173521 0.9636067
-0.2205496 -0.19290783 -0.39495653 -0.7585306 0.025961986 0.06146112 0.57684284 -0.91575843
-0.17997207 0.19427782 0.16749269 -0.31061915 0.41755432 -0.69584733 -0.62645566 0.076362275
0.8616078 0.06655039 -0.42852777 -0.4605415 1.019103 -0.8598225 -0.28199133 0.43675905
0.2691643 -0.47656107 -0.9698015 0.69328326 -0.620669 -0.552426 -0.93743145 -0.65433663
0.36385375 0.29933763 0.95325917 0.61496073 0.9320554 0.33258477 -0.050144687 -0.72249174
-0.35822606 -0.2590626 -0.95874083 0.48133096 0.2591149 -0.3297542 -0.3235319 0.44788387
0.85073197 0.7902848 0.6574002 -0.5461207 0.5775987 -0.32572988 0.56407404 0.88523227
-0.8210146 0.64366686 -0.47510323 -0.0692172 0.53222305 0.4938004 -0.22718126 0.86908454
0.82409096 -0.5939442 -0.8684336 -0.08679029 0.28470477 0.96452194 -0.9466411 -0.5329478
-1.0080204 -0.42898142 -0.49929753 1.0003412 -0.32193872 0.8803196 0.38264492 -0.72308016
0.81128305 0.2788839 -0.05047366 -0.4512894 0.4868597 -0.75782555 -0.23886114 0.6459218
-0.4292259 0.040745705 0.8124218 0.20881176 -0.3466096 -0.8996388 0.82455945 -0.5923487
0.54810405 -0.5690173 0.69067675 0.8967795 0.4942276 -0.35873199 0.7706009 0.20754519
0.38095713 -0.7440092 0.022965137 -0.43010917 -0.3437639 -0.3168599 -0.3420983 0.24789199
0.88838464 -0.82115084 0.757364 -0.9171771 0.9398796 -0.19905014 0.6568396 -0.2672001
-0.9794096 -0.18539569 -0.54419255 0.94886607 -0.3709907 -0.027756283 -0.8860111 0.53170586
-0.4474211 -0.8220482 -0.07307287 0.37910348 0.9056974 -0.92559415 -0.93230295 0.8137654
0.6479227 -0.5240174 0.8132892 -0.16692689 -0.4712072 -0.071527325 0.35209513 0.697122
0.7791249 -0.08326329 0.30054733 0.42202532 0.0024134743 0.39597592 0.6620014 0.3230785
0.5483215 -0.39611188 0.0375614 -0.36996654 -0.93335223 -0.41288075 -0.10860937 -0.8255202
0.43700886 -0.6370105 0.60625374 -0.39622766 -0.85837597 0.58565825 0.31139812 -0.16176826
-0.12182446 -0.8924128 0.9707435 -0.67154187 0.6143425 -0.7423923 -0.2492009 -0.29122686
0.3265389 -0.8656507 -0.23573303 0.6264327 0.4610033 -0.2127851 -0.5893358 0.68530273

cells.0.h2h.weight f4 [256, 64]
00000000: 7ec4 053d 4013 1b3e 762f dbbb 24fc 1cbd
00000010: c6f9 c23d 2720 60bd 5558 c23d 46e0 07bd
00000020: e08b 04be 68b5 b53d 0846 9d3c 457b 093e
00000030: c9e0 f2bd d3ad e73d ef51 a13d 5973 b13d
00000040: 8797 a9bd 87f4 c5bc 331a f4bb 5378 cd3d
00000050: 1bf5 803d e506 d73d 28d0 893d 6184 06be
00000060: eca3 01be 3060 03bc cc69 1e3e d987 e9bd
00000070: f68e 4cbd f347 963d dcbc 233a efad 00be
00000080: d45b 0abc 83eb 643d e91e e43d 1c9f e83d
00000090: 781e 2fbd 96bc febd cc28 183d 41ef 1fbd
000000a0: f3c8 f43d d11f 41bd 9312 debd 71b9 9a3d
000000b0: f112 573d aa77 a6bd 26f1 d5bd d633 04bd
000000c0: 555d 10be f3f7 8b3c 8b27 943d ebe9 a8bd
000000d0: 210a 933d 1332 063d e4a2 b1bc b077 cc3d
000000e0: f4b5 663d de9f 263c f814 bebc d545 18be
000000f0: f8b9 c53d c9c4 283e 8886 e13d 4c36 e8bd
00000100: 3d72 47bc f08e b43d 73f9 733d 06af 86bd
00000110: c6b5 0cbe 684c f6bd ac26 38bd aa65 c9bd
00000120: 20a7 973b bc2a 10bd af1e d23c 0537 193c
00000130: 119a 14be 2607 643d d57c e73c b2d0 d0bc
00000140: 3e6c b5bc 2ce5 a43d 223f 683d 8c79 01be
00000150: 606b 52bd 8507 89bd f20e afbd 1277 89bd
00000160: 3f61 983d 70a7 97bd 1d6e ff3d 823f 04be
00000170: 4a6f 063e d198 2b3c 5d6d 5b3d 70b0 f2bd
00000180: 832f fa3d 4882 213e a43e 143e 2169 d93d
00000190: 9752 90bd 4fec fabd 3f9c ac3d 203c 9abd
000001a0: c812 0dbb e6d0 e3bd af30 9fbd b47b 953d
000001b0: 5fc0 2ebe c5b8 19bc c609 29bb 9e6a 32bd
000001c0: 178f cb3b f55b 9abd 9ddb 0a3e 6d06 1abe
000001d0: 4450 9dbd 0fc1 adbd 7806 af3c 2c45 e0bd
000001e0: 951a 6fbc de0d 233e 512c c4bd ca6d 94bd
000001f0: f178 843d 7645 4fbc d5f3 fd3d bb80 fb3b
00000200: 31ad ab3d f749 fcbc 3e80 aab9 1c4a 9ebd
00000210: ce3f 12bd f5f1 77bd c449 df3d f41d dabd
00000220: c404 dfbd 2577 c63c 3063 21bd db7f 2cbd
00000230: 3991 d5bb 2147 ce3d 5c6d 323c 874a ce3d
00000240: 43da bc3d 8104 6e3d be5d da3d 4482 fd3d
00000250: 551e efbd 0abd 693c 0410 10be e8b6 c0bc
00000260: ebd4 753d 68c3 f038 ddc3 c73d 98df ab3d
00000270: be51 08bd ba5f c13c eb39 833d d43d d8bd
00000280: d83d c63d bb5e df3d 2a6f 703c d827 b5bd
00000290: e19d 733d b6e5 b3bc b9d7 2cbc a579 ebbd
000002a0: bac1 473d 79e9 24bd c6c3 9a3d 30b3 913d
000002b0: 03ec e6bd 3f86 00be 3887 ef3c f8d4 c73d
000002c0: 942c a93d 02c3 91bc e0be e23d 8efd 72bd
000002d0: c164 143e 1a1f 21bd 8456 86bd d9a0 933d
000002e0: a221 aa3d 10eb 483c b645 b23d a4b6 fdbc
000002f0: 226f b3bc 04c5 babd fe7c 25bd 2e27 01be
00000300: 1955 213d 5c32 863d 0a39 acbc fe98 07bd
00000310: 3db5 193d 1d2e 083e e1ae e3bd da52 373c
00000320: d8fa a03d 5aad b1bd e275 ce3d 6df0 843c
00000330: 1434 963b 0b85 a2bd 5430 c93d c8a6 15be
00000340: f74f 8abd b0ab 17bd 5e15 903d 5662 0d3d
00000350: be82 9dbd 272f 083e cd1c 7ebd c39c 2abd
00000360: ca0e f53c 800c 803c 9bd8 cb3d 3b6c 533c
00000370: 12f7 ca3d 96f8 ad3d d6d3 9c3b 805f d73b
00000380: 6178 813d 72a9 4e3d 6913 ca3d 7836 013e
00000390: d4ef 853d ba05 14be 1bbc 97bd c6ae 05be
000003a0: 4390 87bd 5575 a83d 2236 17bd 0a20 023d
000003b0: 319c 813c cd4a dd3d dae5 26bd 424d 213c
000003c0: e39e 7a3c a2db 6c3b 1e9e 04bc e7f2 b43d
000003d0: 867c 06be 1155 64bd cfcb ef3c a695 803c
000003e0: 72ba ddbc 3171 87bd b9e2 d2bc 1a55 06be
000003f0: f5d9 93bd 08c9 1cbb a85e bc3d c6e3 fdbd
0.032658093 0.15144062 -0.0066890074 -0.038326398 0.09520297 -0.054718163 0.09489504 -0.03317287
-0.12943983 0.08872491 0.019198433 0.1342593 -0.118592806 0.11312451 0.07876956 0.08664579
-0.08280855 -0.024164451 -0.0074494123 0.10032716 0.0629675 0.10499362 0.06729156 -0.13136436
-0.12660187 -0.008018538 0.15470046 -0.11402864 -0.049941026 0.07337942 0.0006246099 -0.1256635
-0.008444745 0.055888664 0.11138708 0.11358473 -0.042753667 -0.12438314 0.037148282 -0.03904653
0.119523905 -0.047149483 -0.108433865 0.075549014 0.0525083 -0.08128293 -0.10446386 -0.032275997
-0.14098103 0.017086005 0.07234105 -0.08247741 0.07179666 0.0327626 -0.021684118 0.09983766
0.056325868 0.010169951 -0.023203358 -0.14870389 0.09654611 0.16481318 0.11011988 -0.11338481
-0.012173233 0.08816326 0.059564065 -0.06576352 -0.13741216 -0.12026292 -0.044958755 -0.09833844
0.004628077 -0.035197005 0.025649397 0.009351497 -0.14511897 0.05567088 0.028257767 -0.025490139
-0.02214634 0.080515236 0.056700833 -0.12644023 -0.051371932 -0.06690887 -0.085477725 -0.06712164
0.07440423 -0.07404983 0.12472174 -0.12914851 0.13128391 0.010473446 0.053571094 -0.11850059
0.122160934 0.15772355 0.1447702 0.10615755 -0.07047003 -0.122521035 0.08428239 -0.07530999
-0.0021526087 -0.111238286 -0.077729575 0.07298985 -0.17065571 -0.009382431 -0.002579318 -0.04355871
0.006212126 -0.07537071 0.13560338 -0.15041514 -0.07681325 -0.08484089 0.02136539 -0.109506935
-0.01459374 0.15923259 -0.09578765 -0.07247503 0.0646838 -0.012650838 0.12400023 0.007675258
0.08382643 -0.030796988 -0.00032520475 -0.07728979 -0.03570538 -0.060533483 0.109027416 -0.10650244
-0.10889581 0.024226734 -0.039401233 -0.04211412 -0.006517556 0.100721605 0.010890331 0.10072809
0.092213176 0.058109764 0.10662411 0.12378362 -0.11675707 0.014266262 -0.1406861 -0.023524716
0.060017508 0.00011480489 0.09754155 0.083922565 -0.03328108 0.023605216 0.06407531 -0.10558668
0.096797645 0.1090674 0.014674941 -0.0884549 0.059476737 -0.02196012 -0.010549479 -0.11497811
0.048768736 -0.04026172 0.07556872 0.071142554 -0.112754844 -0.12551211 0.029239282 0.097574174
0.08260456 -0.017793182 0.11071563 -0.05932384 0.1449156 -0.0393363 -0.0655947 0.07208414
0.08307196 0.0122630745 0.087047026 -0.030970879 -0.021903578 -0.09119609 -0.040402405 -0.12612602
0.039387796 0.06552574 -0.021023292 -0.03310489 0.037526358 0.13298841 -0.1111734 0.011189187
0.07860345 -0.08675642 0.10081078 0.016227925 0.004583845 -0.07935532 0.09823671 -0.14614403
-0.06753533 -0.03702897 0.070353255 0.03451761 -0.07690953 0.13299237 -0.062039185 -0.041653406
0.029914279 0.01563096 0.099534236 0.012904222 0.09910406 0.0849468 0.004785995 0.006572664
0.063217886 0.050454564 0.098669834 0.12618434 0.06539884 -0.1445531 -0.07408925 -0.13054952
-0.066193126 0.08225504 -0.03691686 0.031768836 0.015821548 0.10805283 -0.040746547 0.00984508
0.015296671 0.0036141654 -0.008094339 0.088353924 -0.1313344 -0.05574519 0.029271988 0.015696358
-0.027066443 -0.066133864 -0.025742875 -0.13118401 -0.072193064 -0.0023923535 0.09197742 -0.1239696

cells.0.h2h.bias f4 [256]
00000000: ab8e 7cba 1d26 803d 5978 453d 6e2d 42bd
00000010: d672 8c3c 7e20 863d 5f91 a3bd 113c 0d3e
00000020: 02bf 8b3d a693 c1bd 5d13 90bc ea28 d7bd
00000030: 68df 5bbd 91c1 863d 8dd8 dd3c a031 01bd
00000040: 2e28 4e3d 1b70 7e3d d0d4 ec3d b546 943d
00000050: a1ef 503d 17ac 6cbd efac 15bd 73f3 98bd
00000060: 497b d8bd 75c8 a33d ebef d83c 574b 613d
00000070: bcd8 993d 72f3 28bd 28a1 1dbc 3ea3 47bd
00000080: 325a 6bbd 8729 153e 3c21 353d 1efb 02bc
00000090: f51f 243c 72d1 e03d bd40 06bd 5265 c6bd
000000a0: 1757 f83d db07 fabc 2ee0 5e3c 0da8 29bd
000000b0: f8c8 b63d d3f1 60bd ed23 9bbd f2ed d1bc
000000c0: 5d53 263d bb61 e83d de7b 22bd 9d3e fabc
000000d0: 2faf 9fbc 4db8 123e a973 90bd e374 a43d
000000e0: 8abe f73d b461 103c a45d 9a3d a9e5 fc3d
000000f0: d98b fd3d dcd6 39bd 9482 373d ca9d 843d
00000100: aec2 f73d 7afd a43d ff73 b9bd 8c3d cb3d
00000110: 6b94 b8bd 4af2 37bd 3007 db3a 54be f93d
00000120: 2249 bbbd 06aa 993d a78d 563d 6fb9 763d
00000130: a3f9 dc3c 34cf dabd 0b00 a23d 11e9 e7bc
00000140: 030c e9bd 8516 e4bc 9549 483b 8371 96bd
00000150: b00d 86bd e535 e6bd a8a1 36bd 5132 db3c
00000160: 2677 da3a 528e 963d ce03 95bd e369 c73b
00000170: 828f b43c 7375 c2bd acee a43c 8fb5 7c3c
00000180: e763 a4bd bda2 a83d f14d 2e3d 4c1d b6bc
00000190: 2794 4f3d f236 b43d 6fdd f83d 09d2 c6bd
000001a0: 28cb 9cbc 3656 e23d 6843 283d 61eb df3d
000001b0: 8564 56bc 9a0b 3d3d 25f2 1b3e 0b5a c73c
000001c0: a2da 5c3d f750 37bd 20e2 e3bc 3549 1fbc
000001d0: 638f 553d 6e26 933d 3fa4 54bd 0164 86bb
000001e0: d2b7 a1bd 997f 7a3d 028d 1bbd 29a0 7ebb
000001f0: 2ebd d13c 46f6 983c 450f a03d 1061 b7bd
00000200: d74f a23d 67a6 bbbd 2065 37ba 102d eabb
00000210: 08ee 9bbb 401d 70bd 290b 0dbd a88f 6ebc
00000220: e470 38bd 3886 0abe 7190 883d 984e 87bd
00000230: 6066 4f39 0dd6 a5bd be6d 11be 1575 4dbd
00000240: 7983 0ebe 07b7 dcbc 914d eebd 624b 24bd
00000250: cd0b 343d de4f 03be a0c3 eabc e80a e73d
00000260: 61fb 643c f797 97bd d26c 5c3d 8743 d43d
00000270: 6d2a 6cbc 0865 5abd 18ff e5bd e650 00be
00000280: e5e2 a7bd aaad c43d 346b 6a3c e207 87bd
00000290: 8320 ef3d 75e2 aa3d 8e13 483d 5489 5fbc
000002a0: 22fa 003d 9077 d9bd f649 d73d f48e 05be
000002b0: 6af7 80bd 3638 9e3d 5916 1ebc 3882 e5bd
000002c0: 6887 1e3d 578c 89bd 5dce 443d f043 193e
000002d0: d8e2 6a3c b79f 02bd d7c9 273d da21 dd3c
000002e0: 0e3f b83d b925 ef3c 9b5e 923d 94c7 e0bc
000002f0: 2a8d d13d 9b1a 903d 5d5e 32bc 228e cabd
00000300: 3cbe c5bd b406 0e3e 549d 073e 9a7a dcbc
00000310: 1fad 7fbd 55e3 0a3e f840 613d 68d2 223d
00000320: 87a8 13bd 91f9 ca3d 8155 c7bd abcd 8dbd
00000330: a9a9 8fbd 6bad db3d 460e 253d 0905 dd3d
00000340: 8397 3b3b c7fd 25bc 766a 143e 2884 12bd
00000350: f1de 0f3e 8206 08bd 0445 0f3c d575 9a3d
00000360: 0e55 fd3d aa83 40bd 475c 0a3e 90f5 38bb
00000370: d718 4cbd b395 8c3d 30b7 a33b b6f8 ff3c
00000380: 5910 f33d ce4d d83c 0f31 0c3c 8c9b 183e
00000390: acfa 9dbd 8c6c e13d fc6c 0ebd 80d6 edbd
000003a0: cc2d adba a9cb bebc dd0f 4ebd 505f 9ebc
000003b0: 1196 df3d af1a 9cbd e444 173e fc67 a2bc
000003c0: 95c0 353d 44d2 dfbc b8d9 d33d aab4 97bc
000003d0: 680a 77bd fa25 f23d d90b da3d 6f92 323b
000003e0: b5c0 193d 4e9d 073c 33da 703d 70a2 ec3d
000003f0: c5c0 c2bd 44fc 7dbd eb0d e43d 5490 13bd
-0.00096342963 0.062572695 0.048210476 -0.047406606 0.017144602 0.06549166 -0.07986712 0.13792445
0.06823541 -0.0945199 -0.017587358 -0.105058506 -0.053679854 0.065798886 0.027080799 -0.031541467
0.050331287 0.06211863 0.11564028 0.07240049 0.051009778 -0.057781305 -0.036541875 -0.07468309
-0.1057039 0.079972185 0.02648159 0.05500349 0.07512042 -0.041247793 -0.009620942 -0.048739664
-0.057459064 0.14566623 0.044221148 -0.007994441 0.010017385 0.109774485 -0.032776583 -0.09687294
0.12125986 -0.030521324 0.013603253 -0.04142003 0.089250505 -0.05491812 -0.07575212 -0.025626156
0.040606845 0.113467656 -0.03966891 -0.030547434 -0.019492714 0.14328118 -0.070533104 0.08030107
0.12096889 0.008812357 0.07537392 0.12348492 0.123801894 -0.04537092 0.044802263 0.064754084
0.12097679 0.08056159 -0.090553276 0.099238485 -0.090126835 -0.0449088 0.0016710516 0.12194505
-0.09144808 0.075031325 0.052381184 0.060235437 0.026974505 -0.10684052 0.079101644 -0.028309377
-0.11379244 -0.02784277 0.0030561436 -0.073458694 -0.065455794 -0.11240748 -0.04458776 0.026757391
0.0016667589 0.07351364 -0.07276116 0.0060856207 0.022041086 -0.09495058 0.020133339 0.015424146
-0.08026867 0.08234165 0.0425548 -0.022230767 0.0506784 0.087995425 0.1215161 -0.0970803
-0.019139841 0.110516 0.04107991 0.10933567 -0.013085489 0.046153642 0.1522909 0.024334928
0.053919442 -0.04475495 -0.027817786 -0.009722044 0.052138697 0.07185064 -0.05191445 -0.004101277
-0.07896389 0.061156843 -0.037976272 -0.0038852787 0.025602903 0.01867212 0.078154124 -0.0895406
0.079253845 -0.09162598 -0.0006995965 -0.007146485 -0.0047586 -0.058621645 -0.03443447 -0.0145606175
-0.045029536 -0.13527763 0.06668175 -0.066067874 0.00019779196 -0.080974676 -0.1420202 -0.050160486
-0.1391734 -0.026942743 -0.11635888 -0.040110953 0.043956567 -0.12823436 -0.028657734 0.11281377
0.013975949 -0.07402032 0.053814717 0.10364442 -0.014414412 -0.053319007 -0.11230296 -0.1253086
-0.081975736 0.09603436 0.014307786 -0.065933004 0.11676123 0.083439745 0.048846774 -0.013643581
0.031488545 -0.10618508 0.10512154 -0.13042814 -0.062971905 0.07725565 -0.009648883 -0.11206478
0.038703352 -0.06716221 0.048048366 0.14967322 0.01433631 -0.031890597 0.040963974 0.02699368
0.08996402 0.029192792 0.07146951 -0.027438916 0.10232003 0.070363246 -0.010886756 -0.09890391
-0.09655425 0.13869745 0.1324361 -0.02691393 -0.06242096 0.13563283 0.0549936 0.03975144
-0.036049392 0.09910882 -0.097331055 -0.06923994 -0.07014782 0.10726436 0.040296815 0.10791976
0.0028624244 -0.010131306 0.14493737 -0.035770565 0.14049889 -0.03320933 0.008744482 0.07542006
0.123697385 -0.047000565 0.13511764 -0.0028222539 -0.049828377 0.0686449 0.004996203 0.031246524
0.118683524 0.026404288 0.008556618 0.14903086 -0.077138275 0.11007032 -0.034771904 -0.11613178
-0.0013212501 -0.023290472 -0.050308097 -0.019332558 0.10917295 -0.07622277 0.14772373 -0.019824974
0.044373114 -0.027321942 0.10344261 -0.018518765 -0.06031266 0.1182365 0.10646791 0.0027247926
0.037537295 0.00827725 0.05880184 0.1155442 -0.09509424 -0.062008157 0.11135467 -0.036026314

cells.1.x2h.weight f4 [256, 64]
00000000: 415c 843d 2fba 363d 7dd6 c5bd fcd4 aabd
00000010: e18e 85bd fd74 c03d 190a 9abb 89ad 8cbd
00000020: 2ff2 ba3d 4d84 90bd 487e d3bc abf4 053e
00000030: f648 953d 6a1f 343d 41be 19be b1af 083d
00000040: 3e01 31bd 8b6a 19be a6db a03d d525 1d3d
00000050: a87f aebc b073 92bc 14d8 bf3d 2ca9 7abc
00000060: e7c1 c03b 9fdf a7bc a1a6 e83d fbdd 7b3d
00000070: a937 023e a2fb dabd 6f45 57bd b74f 293d
00000080: 8f29 e13d 5350 063e 765a 2ebc 8bd7 0a3d
00000090: 281d b13d c520 bfbd 48a1 013e 68a1 18be
000000a0: ddb6 223e 6e14 933d acdd 2e3d 4b9f f73d
000000b0: 3a9c 873d ac5a 443d 1f1a 8d3d 4199 d13d
000000c0: c290 83bd 607e ccbb 5e77 85bc 9c33 e6bd
000000d0: c4d4 dd3d f9f9 babd 29b4 663d 1d98 6a3d
000000e0: d341 babd 0474 9b3d 7017 8bbd b7ea c83c
000000f0: 0ab5 a8bd d52d e53c 392f a13d ae16 a7bd
00000100: f61f dcbc 15c1 193e 1a59 613d 4d8d cdbd
00000110: 9a10 7abd 1c24 4d3d 003d 16be 7e59 26bd
00000120: 52d7 1b3d 44e6 cc3d 7958 9c3d beb3 013d
00000130: a8aa c6bd 6303 ce3b c8ab 8f3d 93d9 c4bb
00000140: def3 8a3d 5aa3 cfbc 2420 833d 365e 8dbd
00000150: 80eb 08be 732f db3c 77ee debc 05b4 25bd
00000160: d171 acbd ef31 08bd 620b bf3d 1d80 14bd
00000170: e045 e33c 0efb 97bd 48b0 32bd 7ff5 0bbd
00000180: 8cfb 23bd ab57 b6bd 7069 3cbb 8f5c c03c
00000190: ed68 773d e18a febc 4295 b4bd efd0 cbbd
000001a0: 517a b53d c794 63bc 3918 eabc 5144 e3bd
000001b0: 9d63 bf3c 468e 8b3d ea5a db3d 4693 c53d
000001c0: 220f 833d d3e4 42bd df60 48bd 0c98 88bd
000001d0: 0844 a33d ba39 c6bd 4092 20bc 9e04 b43d
000001e0: 5da8 8d3c b214 c03d 5c8b a9bd 2ff3 afba
000001f0: aae7 043e fac7 77bd b464 debc 85d1 dfbd
00000200: 2169 29bd 5321 5f3d 8757 acbd 9fd4 a7bd
00000210: 89aa 9e3d 80be b8bd 88c9 dfbd a604 9f3d
00000220: 220b 9fbc e8c9 5fbd fb0f a63d 63e4 24bd
00000230: 3ffc ef3d 2ed6 8abd f22d 30bc 2a95 c2bc
00000240: 61ec 493c 1429 8dbd 8477 92bd e467 48bd
00000250: b759 3abc d3a7 083d 8cb2 08bd 81d7 abbc
00000260: 173f d3bd bf18 403b f056 d3bc 4ecf a33d
00000270: 68ac 82bb 0783 b53d 6afd bc3d da88 51bd
00000280: 1912 993d f123 b03d 1aae c1bc 1be4 d73d
00000290: dae0 5c3d 82b7 233d 63d6 633d 069b c3bd
000002a0: edd0 f43d c579 9dbc d6a3 9c3d cfb2 c3bd
000002b0: 119b ffbd f4db e93d 199d b9bc 9c22 83bd
000002c0: da94 e0bd bb5b 963c 84e8 533d befe c2bd
000002d0: b234 db3d 8811 7cbd c9a6 02bd e5c0 5e3d
000002e0: b482 d4bc 5cf7 8d3d bf43 87bc a955 313d
000002f0: 20f6 9dbd 70f6 a13d c926 133d 1731 0e3d
00000300: 9b22 12be 495f a1bd 0f21 b33d f585 06be
00000310: fe84 a13d 8dbd 173e beb0 41bc 37b5 17bc
00000320: 481e aabd ddd1 a8bc 9523 08be 196b 7e3d
00000330: ad83 bf3d 167e a33d 3dd1 ab3d 71f0 84bd
00000340: 1236 4ab9 5e6f 82bd 4160 363d eac8 863d
00000350: 23a7 b4bd e4cc aebd 9d5e 96bd ab47 1c3d
00000360: 26fe 103e d0a5 a5bd 8ac8 a83c 4838 22bd
00000370: ca06 5abd 74a9 ebbb 2254 773d 7f90 703d
00000380: 9a35 093d 8efb 403d 3352 02bb 18ef 153e
00000390: 51f1 be3c cd92 9a3c 9e4d a63d 0aa0 abbb
000003a0: bec7 333d 9015 683b e48e 87bd a523 9f3d
000003b0: 57c8 99bd a697 a83a f0a0 3b3d c17e a43c
000003c0: 2bc0 f73d 0506 ab3d fa95 893d 6ebb bebd
000003d0: bf27 cb3d d6c3 b23a b205 a43c 7c3b 0c3e
000003e0: 3b01 26bd 5722 d7bd e7b1 633d 4322 52bd
000003f0: ac8b 0d3e dfcb 893c 2eb9 4f3d e985 2bbb
0.064629085 0.044611152 -0.09660051 -0.08341405 -0.065213926 0.09397314 -0.0047009108 -0.06869037
0.09128224 -0.07056484 -0.025817052 0.13081615 0.07289307 0.04397527 -0.15013982 0.033370677
-0.043214075 -0.14982049 0.078543946 0.038366158 -0.021301106 -0.01787743 0.093673855 -0.015299123
0.00588249 -0.020492373 0.11359907 0.061490994 0.12716545 -0.106925264 -0.05255645 0.041335788
0.10994255 0.13116579 -0.010641685 0.033896964 0.08648139 -0.09332422 0.1265918 -0.14905322
0.1589007 0.07181631 0.04269187 0.120909296 0.06621595 0.047938034 0.06889748 0.10234309
-0.06424095 -0.006240651 -0.01629227 -0.112403125 0.108315974 -0.0912971 0.056324158 0.057273973
-0.09094586 0.075904876 -0.0679158 0.024525983 -0.082376555 0.027975956 0.07870335 -0.08158623
-0.026870709 0.15015061 0.055016614 -0.100367166 -0.06105099 0.050083265 -0.14671707 -0.04061269
0.038047142 0.10004857 0.07634062 0.031665556 -0.09700519 0.006287025 0.070151865 -0.006007382
0.06784795 -0.025346447 0.06402615 -0.06902735 -0.13371086 0.026756024 -0.027213318 -0.040454883
-0.08420146 -0.033250745 0.09328343 -0.03625499 0.02774328 -0.07420932 -0.043625146 -0.03416967
-0.040034816 -0.0890344 -0.002874937 0.023481635 0.0604028 -0.031072082 -0.08817531 -0.0995196
0.08861221 -0.013890452 -0.028576003 -0.11097015 0.023362929 0.06814246 0.107107 0.09647231
0.06399371 -0.047581505 -0.04892051 -0.06669626 0.0797196 -0.09678979 -0.009800494 0.08789943
0.017292196 0.09378947 -0.08278534 -0.0013423915 0.12978998 -0.060493447 -0.027147628 -0.109286346
-0.041360024 0.05447514 -0.08415132 -0.08194851 0.07747371 -0.0902071 -0.10927111 0.077645585
-0.019414488 -0.054635912 0.08108517 -0.04025687 0.11718034 -0.06779133 -0.010753142 -0.023752768
0.0123244235 -0.06892601 -0.07151702 -0.048927203 -0.011373929 0.033363175 -0.0333734 -0.020976784
-0.10314768 0.0029311625 -0.025798291 0.079985246 -0.0039878376 0.08862882 0.092280224 -0.051155902
0.07474155 0.08600605 -0.023642588 0.105415545 0.053925373 0.03996993 0.055624377 -0.09551053
0.11953912 -0.019223103 0.07648437 -0.095555894 -0.124807484 0.11418906 -0.022657918 -0.064030856
-0.10965891 0.018354287 0.051735416 -0.095212445 0.1070341 -0.061540157 -0.03189734 0.054383177
-0.02594123 0.06931946 -0.016511796 0.043294583 -0.0771296 0.07908332 0.03592566 0.034714784
-0.14271013 -0.07879502 0.0874654 -0.13137038 0.07886694 0.14818402 -0.011821924 -0.009259514
-0.08306557 -0.020607883 -0.13294823 0.062113855 0.09351287 0.07983033 0.083895184 -0.06491173
-0.00019284364 -0.06368898 0.04452539 0.0658129 -0.08820941 -0.085351735 -0.07342265 0.038154285
0.1415945 -0.08088267 0.020603437 -0.039604455 -0.05322913 -0.0071918312 0.06038297 0.058731552
0.033498384 0.0471149 -0.001988542 0.14641988 0.023308428 0.018868828 0.08120273 -0.005237584
0.04389166 0.0035413243 -0.06619051 0.077704705 -0.07508915 0.0012862578 0.04580778 0.020079972
0.120972 0.083507575 0.06718059 -0.09313093 0.0991969 0.0013638686 0.020022247 0.13694566
-0.040528517 -0.10504597 0.055589583 -0.051302206 0.13822812 0.016820846 0.05071371 -0.0026172346

cells.1.x2h.bias f4 [256]
00000000: 7fa1 123d 3f70 fbbb 05d2 c93d fe4d 623d
00000010: 7e74 2e3d b880 d73c dda9 2cbd bddd aabc
00000020: dd1a b63d 8f19 bd3b 74e2 2e3d 78e2 ce3d
00000030: fabf 1f3d 1e0e 873d 2273 203d ddf0 87bd
00000040: cb21 023e 0985 1f3d c41e 86bd e0a3 613b
00000050: 81c5 4c3c 125d 6e3d 9aaf bebc 3e76 31bd
00000060: 9fdd 593c 8621 c33c 3adf e53d 6b59 d53d
00000070: bacc c0bd 1f87 ebbc cd55 f33d 1c94 2f3d
00000080: a476 063d 81b4 fdbc 5e35 413c 5834 863d
00000090: 5798 a1bd 96bf 90bd d523 e13d 1fda a63c
000000a0: 9d09 fbbc fd61 f43b 8de9 bb3d 56b1 b63d
000000b0: bce6 0c3e c0fd 753d 62f2 0ebd 9589 d5bd
000000c0: fb3a 7ebc 3b01 8d3d 2648 43bd 1a1d b4bd
000000d0: f9cc 2a3d 2016 f43c f503 af3d dcb4 f53d
000000e0: 5b5b 163e dce6 8d3c 7878 78bd 56b1 073e
000000f0: 0fb9 ff3d b446 90bc 9b63 093e ba52 0c3d
00000100: f01a 8e3d d229 baba 0c59 b3bd 01c1 7d3d
00000110: c292 34bb 91fa 603d 6988 5f3d 3ef3 fb3d
00000120: f3b3 4e3b 000f 06bd dbbd c7bd 96a8 073d
00000130: cb4f b03d a8ed 24bd e23d 1bbd 2721 e53c
00000140: ad4c 0b3e 0b77 523c d612 653d 17c2 873c
00000150: 29e2 013d 1c84 503d b4b3 8f3d adbc e03d
00000160: 27a4 b9bc 08ee 61bc 7ac2 c03c b45b e9bb
00000170: 05eb b4bd 0b61 85bd 4beb 7cbd 80c0 cebd
00000180: e58a 77bd 455a 773d 9087 a5bd 14b8 be3d
00000190: b3b2 abbd 515d 713d f075 cb3c 212b ccbd
000001a0: 74e3 afbc 2aff a63d 317c 063e e9ea f03c
000001b0: 4163 383c dc20 593d 6242 2fbc a3f6 35bd
000001c0: 67dd 063c 9e15 29bc 6bb3 0d3e f333 6e3c
000001d0: bd0b c13d 3266 36bd 0b24 103e 975f 42bd
000001e0: 46bb 233d 7523 073e 7ce8 f3ba fa1b 88bc
000001f0: 329b d23c 9c5a 263c 815e c93b 142f dc3c
00000200: 25a2 81bd acee 3f3d 705a d43a f9b7 753d
00000210: 5b83 9e3d 9f78 e5bd 3bfc fa3d 62f6 483d
00000220: 51e0 98bd 7473 4ebd 6a16 0dbb c6a1 e2bd
00000230: d645 3cbd 1c39 293d 1d5e 02be 752f 843d
00000240: d6f4 b0bd a336 a1bd 6bb2 0d3e 7388 ecbd
00000250: d942 993d a090 af3d a631 d1bd 82c7 e23c
00000260: f54a 233d 78af 9fbd 80a0 d33d 2787 a0bd
00000270: 97cb dd3d 3010 e2bc b63e ae3d be02 113d
00000280: 34dc 6fbc e722 f9bd 9e3f a33d fb35 9fbd
00000290: eeb0 f8bd 157f adbd 2a21 d8bc 8a79 853d
000002a0: fe5a b53d 8d10 90bd a53b 2a3d 9170 48bc
000002b0: 2bc4 973d 7f2b db3d eff2 933d a4b0 9b3d
000002c0: e973 2c3d 8d93 be3d 8ccf 0dbb 79c4 a0bd
000002d0: 285b 903d 5fd8 ae3d 6cb0 873d fec8 873a
000002e0: 6fc4 6d3c 38f9 8bbd f13f 163e 1746 f5bd
000002f0: 0e4e 51bc 60eb 833d 4bfa 0f3d e188 ecbb
00000300: 3b9b 933d ee0e a63d e711 ab3d 2abc 833d
00000310: 38c6 b0bc a91e f4bd b7b8 0a3e 6c03 3d3d
00000320: b1ea de3d 6d06 50bd a8cc ffbc 5f16 a5bd
00000330: 2977 aabd f01b d93b 3695 073e bd46 5e3d
00000340: cf4f ec3d 22c7 3f3c 0f9e 233c 336c 0d3e
00000350: 26c0 e3bd 4529 a0bd 8aa6 7f3b 7c80 1abd
00000360: 0692 a7bd f331 a4bd 97c0 ea3d ebfd 23bd
00000370: 9922 3cbb 6f4a 07bd f1a4 f13d bc2e 813d
00000380: 76bf dd3d 932f 4ebd bb3c f03d 04af f73c
00000390: ac16 f63c 627f 2f3d fa82 b8bb 3220 8e3d
000003a0: 47da ab3c c7da 9c3d 13e2 003e 4809 1b3e
000003b0: c613 b6bc 6d8c 393d adb6 673c bd7d 35bd
000003c0: 0db9 de3d 26c3 bb3c f51f 053e cf12 cf3c
000003d0: ead1 cabd 1a4b 8f3d 3c72 8d3d 9b58 063e
000003e0: 6fcb 89bd 8dfd 51bc 8799 d93d 7cda debc
000003f0: ec90 b63d 148f 3cbd 2a0b 88bd 5b6c 71bd
0.035798546 -0.007673293 0.09854511 0.05525016 0.042591564 0.026306495 -0.04215418 -0.020857686
0.088918425 0.005770869 0.04269643 0.10101789 0.039001442 0.065944895 0.0391723 -0.06637738
0.12708203 0.03894523 -0.06548837 0.0034429953 0.0124982605 0.058194228 -0.023277093 -0.043325655
0.0132974675 0.023819696 0.11224218 0.10417446 -0.094140485 -0.028750954 0.118815996 0.042865857
0.03282799 -0.03096986 0.011792509 0.065529525 -0.07890385 -0.07067792 0.109931625 0.02036768
-0.030644232 0.00745797 0.09175406 0.08920543 0.13759893 0.060056448 -0.034899123 -0.10426632
-0.015516992 0.06885 -0.047676228 -0.08794613 0.041699383 0.029795706 0.085456766 0.11997387
0.14683287 0.017321996 -0.060661763 0.13251242 0.12486469 -0.017611839 0.13416903 0.03425858
0.06938732 -0.0014203137 -0.08757219 0.06195164 -0.0027553295 0.05492646 0.05457345 0.12302254
0.0031540364 -0.03272915 -0.09753009 0.03311976 0.08608969 -0.04026571 -0.037900813 0.02796991
0.13603468 0.012845765 0.055926166 0.016572041 0.031709824 0.05090724 0.070166975 0.10973487
-0.022661282 -0.013789661 0.023530234 -0.0071215276 -0.08833889 -0.0651265 -0.06174783 -0.1009531
-0.060435195 0.060388822 -0.08082497 0.09312454 -0.083836935 0.058926884 0.02483651 -0.09969164
-0.021470763 0.081541374 0.13133313 0.029408889 0.011254133 0.053009853 -0.010696979 -0.044424664
0.008231497 -0.010320095 0.13837974 0.014538753 0.09426067 -0.044531055 0.1407625 -0.047454443
0.03997352 0.1319712 -0.0018608714 -0.016614903 0.025708769 0.010153439 0.006145299 0.026877917
-0.06329755 0.046858475 0.0016201269 0.059989903 0.07739898 -0.11204647 0.122551404 0.049063094
-0.0746466 -0.050403073 -0.0021528252 -0.11066012 -0.04596504 0.04131423 -0.12731214 0.06454364
-0.08640449 -0.07871749 0.13837592 -0.11549463 0.07483453 0.08572507 -0.10214548 0.027683023
0.039866406 -0.0779714 0.10333347 -0.07838278 0.10829847 -0.02759561 0.08508055 0.035403006
-0.014639903 -0.1216486 0.079711184 -0.07773968 -0.12143122 -0.084715046 -0.026383001 0.06517322
0.08855246 -0.07034407 0.041560788 -0.012233869 0.07410463 0.107016556 0.0722407 0.07602051
0.042102728 0.09305487 -0.00216386 -0.07849974 0.07048637 0.08537363 0.06625447 0.0010359583
0.014512165 -0.06834644 0.14672829 -0.11976259 -0.012774957 0.064413786 0.035150807 -0.0072184657
0.07207342 0.08108316 0.08353024 0.06432374 -0.021578893 -0.119199105 0.13547026 0.04614584
0.108846076 -0.050787378 -0.031225517 -0.080609076 -0.08323509 0.006625645 0.13240513 0.05426668
0.1153866 0.011705192 0.009986415 0.13810806 -0.11120634 -0.078203715 0.0039009177 -0.03772019
-0.08182149 -0.080173396 0.11462515 -0.040037077 -0.0028707145 -0.03302997 0.11799038 0.06307742
0.10827534 -0.05033834 0.117303334 0.030234821 0.030040108 0.04284609 -0.005630848 0.069397345
0.020978106 0.07658916 0.1258624 0.1514026 -0.022226226 0.045299936 0.014142674 -0.044309366
0.108751394 0.022920202 0.13000472 0.025277523 -0.09903319 0.06996746 0.06906554 0.13119738
-0.06728255 -0.012816799 0.10624986 -0.02720379 0.089143604 -0.046034887 -0.066427544 -0.058941226

cells.1.h2h.weight f4 [256, 64]
00000000: 1412 01bc d20c 383d ebd3 9fbd beb8 203d
00000010: cb47 25bc 7e66 8d3c 302c 263e 6d67 4a3d
00000020: 0cf8 7ebc b4c8 af3d b140 0ebd 1696 0d3e
00000030: f3ea e4bd ebc5 b23c b913 35bd ec1f 0cbe
00000040: 71be b03d 01b6 f9bd 7d41 e93d d007 29be
00000050: 5177 74bc 1127 8e3d 67c0 c13d d848 1d3b
00000060: 2c66 62bc 934f c73c 71ad 13bd 9f87 0abe
00000070: 8ead ee3c d9ca e2bb 1fc3 4f3c 1e63 fe3c
00000080: 6dd3 1e3e 2d6e 8f3d ee7a 0a3e 06ef b73c
00000090: 2270 8f3c 1fd1 76bd 407e 97bd 92b4 b33c
000000a0: b4b9 0d3d 5bd6 83bd e0eb 173c 97e7 473d
000000b0: eba5 b93d 7982 d53c 4c3d f93c 2c5b 54bd
000000c0: 2184 843d 8c5f 003e 0a87 d9bd 1d58 03be
000000d0: fd0f d33c 2b81 0fbe 161f d5bc 7a4b 98bc
000000e0: 272d 123e 0519 a7bd 6192 0bbd 101b a93d
000000f0: 3289 10be b2f1 06be abe5 e13d 4f5f 223e
00000100: b02a c4bd 4c5d 153b 8ebc 503d 15d9 b93d
00000110: cbc4 9cbb 3465 8b3d 9bad 143d d44b 36bd
00000120: a75d 4ebd 53a2 313c ac2e 90bb 29c7 fa3d
00000130: eaa2 41bd 69d7 50bd 68ae 76bd 2cb6 67bd
00000140: 5cd4 e0bd ed1f 90bd 133e 0c3e cb7d 85bd
00000150: 8b8c 17be 3478 e83b f716 673d bc26 1cbd
00000160: a6e4 99bb a3e2 f2bd 623d 1fbd 9788 0bbe
00000170: c234 f7bc b14f a4bd 54a7 77bc 65d4 0c3d
00000180: 0744 043e 4fc3 c83d 9b82 ad3d 0a1e c0bd
00000190: 1321 503d 5c35 e2bd f786 50bd 429f 9a3b
000001a0: 74c2 de3c d072 d9bd ac58 fa3c b5df f63d
000001b0: 282c b13c c972 8cbd 078c 49bd 82e5 083e
000001c0: 594f d6bd a3c9 063e adf7 f9bc b36e 75bd
000001d0: c15a f0bd 39e4 b53d 87cb e6bd 499b b33d
000001e0: c276 bd39 e13d c4bd 0d50 903b e9b0 0abd
000001f0: c989 b5bc 211e 18bd 451a 923d dfbe 6bbd
00000200: 8f3f 2d3c 987e 493d 1eda 3bbd 5682 4d3d
00000210: e5d7 9bbc 329a 8cbd ba3a f53d bd0e d93d
00000220: f180 00bd c491 72bd 1eeb 123d c66a 0c3e
00000230: 8a4e 00bc e1e1 813d eb96 ef3d ae0f d4bc
00000240: cb1d b13d 16fa ccb9 240d 573d 4b31 f1bb
00000250: 391d 09be f0d9 6a3d 67b7 293c 5f8b 57bd
00000260: 233a 19bd 0834 903d 9cbe 953d d258 b6bd
00000270: 69d6 d0bc 5ea2 073b 28d0 7abd e8a2 e83c
00000280: d97e 71bc 7074 dbbd 5f22 d93c 077d 773d
00000290: d09c a5bc 1eab 1d3d f468 b43c 8bb7 703d
000002a0: c22b 0a3d 5cd8 17bd d6b7 343d 79fd cfbc
000002b0: 7425 a63c ad04 6e3d 2bd7 98bd 0afb 6e3d
000002c0: f438 9a3d 739d a8bd 2525 7bbd 09b0 32bd
000002d0: be5f 2ebd e30c 98bd 41f2 013e 2f0d 4f3d
000002e0: 7564 803c c01f 983d 9b01 4b3c f918 b43c
000002f0: ed5d 4fbd 9364 b5bd dea2 94bd 2320 6cba
00000300: 7689 0f3e f6af abbd e03e bb3d e0c5 41bd
00000310: 7d79 6abd 8f9e ffbd a05d bcbd 919b 6cbd
00000320: d87d ebbd b7c1 083d b819 643d 3d24 85bc
00000330: 95c6 febd aea1 63bd 340f d33c d7be 0ebe
00000340: 98eb e3bc b9fe c83d 8a4e 2f3d 0251 833d
00000350: 9f79 273d 87bd 353d c85d 893d cb66 ab3d
00000360: 4989 103d dba5 a1bc 3e28 e93d abe0 b93c
00000370: 3634 c4bd 75c4 433d 1c69 383d 589b da3d
00000380: 94f4 8d3c 2299 b3bd 6514 bc3d 68c2 ebbd
00000390: 3076 dcbd f083 0fbd cc11 393d 1189 5ebc
000003a0: e2a1 d43d 21f5 293d da0b 823c 99ae 0d3d
000003b0: 8038 473d c445 1abc 5b5b 3a3d 7447 0b3e
000003c0: e870 5cbb eac8 bcbd 2e7b 563b 7f23 323d
000003d0: 610a ffbc ee4d a83c 8084 d2b8 883e eebd
000003e0: d8b0 a3bd bb67 0e3c 63b3 78bc 0181 04bd
000003f0: f426 433d 8690 a93d cbfe cabd 298b 753d
-0.007877845 0.0449341 -0.07804092 0.039238684 -0.010087918 0.017260786 0.16227794 0.04941504
-0.015562069 0.08583203 -0.034729663 0.13826784 -0.111776255 0.02182289 -0.044208262 -0.13684052
0.08630074 -0.121929176 0.11389444 -0.16506886 -0.014921025 0.06941045 0.09460526 0.0023999717
-0.013818305 0.024329936 -0.03605408 -0.13528298 0.029135492 -0.006921154 0.012680798 0.031053122
0.1551034 0.07003436 0.13523456 0.022452842 0.017509524 -0.060258027 -0.07397127 0.021936689
0.03460093 -0.064373694 0.009272546 0.048804846 0.090648495 0.02606319 0.030424736 -0.05184476
0.06470514 0.12536448 -0.1062146 -0.12826581 0.02576446 -0.14014117 -0.0260158 -0.018590678
0.14275037 -0.08159069 -0.034075145 0.08257115 -0.14114836 -0.13178137 0.11030134 0.1585667
-0.095784545 0.0022791205 0.05096107 0.09074608 -0.0047842017 0.06806412 0.036298376 -0.04450591
-0.050382283 0.010841924 -0.004400095 0.12245018 -0.047274508 -0.05098668 -0.06022492 -0.056570217
-0.10978004 -0.07037339 0.13695554 -0.06518134 -0.14799707 0.0070944075 0.056418385 -0.038122877
-0.0046964465 -0.11859634 -0.0388769 -0.13626324 -0.030176524 -0.080230124 -0.015115578 0.034382243
0.12916575 0.09802877 0.08472177 -0.093807295 0.050812792 -0.11045334 -0.050909963 0.004718692
0.027192332 -0.10617602 0.03055986 0.120543875 0.0216275 -0.06857831 -0.049205806 0.133688
-0.10464353 0.13162856 -0.030513609 -0.059920024 -0.1173606 0.08881421 -0.112692885 0.08769853
0.0003613737 -0.09582115 0.004404074 -0.03386012 -0.022160428 -0.03713811 0.07133917 -0.057555076
0.010574236 0.049192995 -0.04586231 0.050173126 -0.019023845 -0.06865348 0.11974092 0.10598514
-0.031372968 -0.059221044 0.035868756 0.13712606 -0.007831225 0.06341911 0.11698707 -0.025886383
0.08648261 -0.0003909624 0.052502766 -0.0073606125 -0.13390054 0.057336748 0.010358668 -0.05262315
-0.03740896 0.07041174 0.073117465 -0.0890366 -0.025492864 0.0020696144 -0.06123367 0.028397992
-0.0147397155 -0.10715568 0.026505647 0.06042197 -0.020216376 0.03849327 0.022022702 0.05876879
0.033733137 -0.03707157 0.044120632 -0.02538942 0.02028153 0.058109928 -0.07462915 0.05834488
0.07530394 -0.08233156 -0.06131472 -0.04362491 -0.042571776 -0.07424333 0.12690069 0.050549682
0.015672902 0.07427931 0.0123905195 0.021984564 -0.050626684 -0.08857074 -0.07257627 -0.00090074743
0.14017281 -0.08383171 0.09142852 -0.04730785 -0.057244767 -0.124814145 -0.09197545 -0.057765547
-0.11498612 0.033387866 0.05568859 -0.016252631 -0.1244022 -0.05557411 0.025764085 -0.13939987
-0.0278223 0.098142095 0.04279951 0.064119354 0.04088747 0.0443702 0.067073405 0.083692156
0.035287175 -0.019732406 0.11384629 0.022690138 -0.09580271 0.047794778 0.045022115 0.10674161
0.017328538 -0.08769442 0.091835774 -0.115116894 -0.1076473 -0.035037935 0.045182988 -0.013582484
0.10382439 0.04149354 0.015874792 0.034590337 0.048637867 -0.0094160475 0.04549728 0.13601476
-0.0033636633 -0.09218009 0.003272723 0.043490883 -0.031132879 0.020544972 -0.000100382604 -0.11633021
-0.07992715 0.008691723 -0.015179488 -0.03234959 0.04764457 0.08279519 -0.09911879 0.059947167

cells.1.h2h.bias f4 [256]
00000000: 001c 803c 8cf6 8bbd 817e 653d 82a2 13bd
00000010: 6c24 fc3d 877f 903d 519b d23d d3fb 0d3e
00000020: fd8b 73bd 3cbb f13c 6e1e d2bc a836 053e
00000030: ddef 483d ff8a 133e 44df 93bd 7ac4 09bc
00000040: 4ba6 f73a da1e 153e dce1 c83d 0588 e13d
00000050: 5b68 d33d 93ed 5dbd 49de 133e ac65 c0bd
00000060: c7bd 833c e28d ae3d 1e8b 363c 70a1 38bd
00000070: 6e63 aabc 3b44 99bd 5db3 b2ba 55ac a73b
00000080: 5ce1 e13d b47c 73bd 4a1c c23d 93fd 93bc
00000090: 57f0 cfbd 5bab 093e 6716 183d ebb8 023e
000000a0: 2ede 91bd 5d59 013e 91cf 9f3d a611 2f3d
000000b0: 3180 ed3d 2362 c73d 878a 9e3d 674f d4bd
000000c0: af49 c33d 494e 753d 8c54 8f3d 9452 f43d
000000d0: 5534 b9bd 1ce2 893d 968f c03c eb3e b8bb
000000e0: 753e 083e d0bf ee3d 1b19 873d 93b3 12bd
000000f0: b3a2 8cbd 5526 903d 822f b13d 3083 8cbc
00000100: 766b 8ebd 8734 0f3c 389b e63c eb3b c23d
00000110: f508 fb3d 4257 d83d 4812 5e3c 8866 a9bb
00000120: 9818 273e 0063 6ebd 24fa 853c 3f83 d83d
00000130: 6040 52bd 4a76 973d 0ce8 d53d ed6b 5ebc
00000140: c43f 0a3e bb61 0e3c 83a3 083e 7e99 9b3d
00000150: 1674 053e f32e 6b3c 89b8 9fbd 2be4 e23d
00000160: beb1 9339 fada 093e 9ac7 27bd 9f16 d63d
00000170: d149 9fbd 9b40 1e3d 393a 3cbd 36ab b7bc
00000180: 5170 69bd b2e8 013d f4aa 8abd 94b7 f03d
00000190: 148f 60bd a9f4 44bd 1bd9 99bd ccda c83b
000001a0: e947 b83d 8484 dd3b 7337 bfbd 01ca 993d
000001b0: b79d e53c 771d e8bc b057 9cbd fe21 4cbb
000001c0: 0dcb 5dbd 80a4 da3d 9a4a 423d 3d09 50bd
000001d0: f3c8 483c d103 c63c b810 6a3d 8c7f 9a3c
000001e0: 940f abbd f031 8cbd 693a 51bd 1dd9 37bd
000001f0: 73d9 b23d 9acb c93d 97e8 af3d 03c6 b6bd
00000200: 8d93 593d 1b20 a83d ad9e b1bd 85d8 6c3d
00000210: 2e39 6dbd 4f2b 9e3d f867 00bd 6b3a 7ebd
00000220: 0cd4 ff3d 0331 033e 8a3a 0ebc 4867 433d
00000230: 3658 cdbd 2582 9abd 1929 d0bc e360 fabd
00000240: daf2 06bc 6010 ffbd 0e74 a3bc 9578 463d
00000250: 9bbe 9bbd d2af 8cbb ba13 d33d c55d bb3d
00000260: e003 75bd 53d1 d1bc f262 d6bc 70a2 01be
00000270: 9550 d3bd 2e30 e4bd 65ff 483c 75fc 893c
00000280: d031 d3bd 42d2 9d3c 68f6 e83c abdc 813b
00000290: 9d06 00be 7bae b5bc ab6e 033e f0a0 cebd
000002a0: 0450 07be c3b9 d83b 4b5a 8dbd 931a bb3d
000002b0: 0801 84bd 69f4 d43c 5361 3ebd 3a85 ad3d
000002c0: 1822 00bd ad00 edbc d284 04bc 7683 26bd
000002d0: d005 b2bd 5d5e 963d ad57 06bd 171b 043d
000002e0: 25d3 e6bc c8cb 22bc 247b 083c e303 00be
000002f0: 7870 f5bd b242 f53d b28a fa3d e02c a6bd
00000300: 2473 01bc 8c29 a73d 6b68 53bc 3fa9 a9bd
00000310: 8484 22bd 4bcd d53d e49d a2bc a279 c23a
00000320: c3b0 7abb adda e03d a31e 51bc 17ec d03d
00000330: 0ffc 693c d40d 2cbd 8b65 9f3d 9d12 e0bd
00000340: 1923 6cbd 8891 8bbd 33b8 623d 527b 88bd
00000350: fb24 fe3c 8635 f3bc 2474 d23d 1a65 bcbc
00000360: 1c84 7f3d 5fa8 3a3c 0fea 21bc 7b42 983d
00000370: c965 5fbd 8bfc a03d 2120 0c3d 3323 37bd
00000380: be23 98bd b0e5 a43d 418c f4bc 4cf2 83bc
00000390: 6ac1 b0bc 2b8f acbd 78ea dabb 1e76 22bd
000003a0: 60c7 fb3d 907e 7e3d c916 c2bd fc74 d73d
000003b0: 7fb5 a8bc fddf 4dbc 0dac b63d 9eda c73d
000003c0: 91f1 9c3d be52 913c c63a 913b 975d 34bc
000003d0: 6eb6 4bbd 8530 f73d c6e9 87bc dbe6 f43d
000003e0: 92c9 0b3e d8f9 0cbd cfa3 2a3d 8028 a43d
000003f0: 46ff 183c a50f b8bc 3a2d e43d bd31 513d
0.015638351 -0.068341345 0.056028847 -0.03604365 0.123116344 0.07055574 0.102835305 0.13865595
-0.059459675 0.029508226 -0.025649276 0.13009131 0.049056876 0.14408492 -0.07220319 -0.00840866
0.0018894164 0.1456255 0.09808704 0.11012272 0.103226386 -0.054181647 0.14440264 -0.09394392
0.016081704 0.08523156 0.011141567 -0.045075834 -0.020799365 -0.07483717 -0.0013633777 0.005116979
0.11029312 -0.059445098 0.09478052 -0.01806525 -0.10153263 0.13444273 0.03713074 0.12765853
-0.071224555 0.12631746 0.07803262 0.04274144 0.11596716 0.09735515 0.07741266 -0.10366707
0.095355384 0.05988911 0.06998548 0.11929813 -0.09043185 0.0673258 0.023505967 -0.005622735
0.13305075 0.11657679 0.06596585 -0.035815787 -0.0686697 0.07038561 0.086516395 -0.017152399
-0.0695409 0.008740551 0.028150186 0.09484085 0.12257568 0.10563518 0.013554163 -0.0051696934
0.16317976 -0.058199883 0.016354628 0.10571908 -0.051330924 0.07395609 0.1044465 -0.013575536
0.13500887 0.008690293 0.13343625 0.07597636 0.13032565 0.014354455 -0.07798869 0.11078676
0.00028170453 0.13462439 -0.04096184 0.104535334 -0.07777751 0.03863583 -0.045953963 -0.022420507
-0.05699188 0.031716056 -0.06770888 0.11753765 -0.05482395 -0.04808489 -0.07512113 0.0061295982
0.08998091 0.006760182 -0.09336748 0.07509232 0.028029306 -0.028334362 -0.076339126 -0.003114819
-0.054148722 0.10675907 0.047434427 -0.05079006 0.012254941 0.024171742 0.05714485 0.018859647
-0.08352581 -0.06845462 -0.051081095 -0.04488479 0.087328814 0.09853287 0.08589285 -0.089244865
0.05311923 0.08209249 -0.08672843 0.057823677 -0.05791586 0.07723104 -0.031349152 -0.06206743
0.124916166 0.12811665 -0.008680949 0.04770592 -0.100265905 -0.07544354 -0.025410222 -0.12225511
-0.008236611 -0.12454295 -0.0199528 0.04845484 -0.076047145 -0.0042934204 0.10306497 0.091487445
-0.05981815 -0.025612509 -0.026170228 -0.12659621 -0.10318104 -0.11142002 0.012267922 0.016844014
-0.10312235 0.019265298 0.028437808 0.0039630732 -0.12502523 -0.022177925 0.12835185 -0.1008929
-0.13214117 0.0066139414 -0.06901988 0.09135928 -0.06445509 0.02599545 -0.046479534 0.084726766
-0.031282514 -0.028930986 -0.008088307 -0.040652715 -0.08692515 0.07342217 -0.032798458 0.032252397
-0.028176853 -0.009936281 0.00833014 -0.12501483 -0.11984342 0.11975612 0.12233485 -0.08114028
-0.007900987 0.08162221 -0.012903313 -0.08284234 -0.039677158 0.10439547 -0.019850679 0.0014837275
-0.003825233 0.10979209 -0.012763652 0.102012806 0.014281287 -0.042005375 0.0778304 -0.1094105
-0.05765066 -0.06814867 0.055351447 -0.066641465 0.031023493 -0.029688608 0.10276058 -0.022997428
0.06238185 0.011392682 -0.009882464 0.07434555 -0.05454043 0.07860669 0.034210328 -0.044711303
-0.07428692 0.08051622 -0.029852035 -0.016106747 -0.021576602 -0.084257446 -0.006680783 -0.039663427
0.12293887 0.06213242 -0.09477002 0.1052036 -0.020594357 -0.01256561 0.08919535 0.09758495
0.07663263 0.01773965 0.004432055 -0.011008642 -0.049734525 0.12069801 -0.016590964 0.11958095
0.13651112 -0.034417957 0.041660126 0.08015537 0.009338206 -0.022468397 0.11141439 0.051072825
