model_group/models_group_all/LSTM_model_QUEENS_JJ BYRNE MEMORIAL BRIDGE.pth (torch, 358882 bytes, 17 tensors)

input_projection.weight f4 [9, 9]
0	0x3e4c64ed	0.19960375
1	0xbe3b3681	-0.1828251
2	0x3d9d6282	0.076848045
3	0x3e8db7be	0.27679247
4	0x3b64279f	0.0034813655
5	0x3e88c242	0.26710707
6	0xbe534f9b	-0.20635836
7	0x3e5847ed	0.21121188
8	0xbe992ea4	-0.29918396
9	0xbe9f5d2b	-0.3112577
10	0x3e85cc5d	0.2613248
11	0xbc390f14	-0.011295099
12	0xbeaf3486	-0.3421976
13	0x3e43da4d	0.19126244
14	0xbe0e8ac0	-0.13920116
15	0xbe8f5906	-0.27997607
16	0x3e0b5584	0.1360684
17	0xbe72f88f	-0.2372763
18	0x3ea66c85	0.3250467
19	0x3da6c7a3	0.081435464
20	0x3e5335d6	0.20626006
21	0x3e10cc91	0.14140536
22	0x3e426ccc	0.18986815
23	0x3e9cc6bb	0.3062037
24	0x3e1ea390	0.15492082
25	0xbdcb4b19	-0.09926433
26	0xbd9caf5d	-0.076506354
27	0x3ebb363f	0.36564824
28	0x3e113558	0.14180505
29	0x3e28b97e	0.1647701
30	0x3da981dd	0.082767226
31	0xbd982161	-0.074282415
32	0xbe8398a7	-0.25702402
33	0x3e3ea30e	0.18616888
34	0x3e80974d	0.25115433
35	0x3e0a13f0	0.13484168
36	0x3e6f61e7	0.2337719
37	0x3d9d4b9f	0.07680439
38	0xbdbe8043	-0.09301808
39	0x3d1c2fe3	0.038131606
40	0x3e8188e1	0.25299743
41	0xbe5e2ea6	-0.21697482
42	0x3e9908c9	0.29889515
43	0x3cb4727e	0.02202725
44	0x3e75af72	0.23992708
45	0x3e1c20a7	0.15246831
46	0xbd4700b8	-0.04858467
47	0xbe9ccf83	-0.3062707
48	0x3e60c387	0.21949588
49	0x3e8a499d	0.27009287
50	0x3e0e76b9	0.13912477
51	0xbda48ce8	-0.08034688
52	0x3e6d03d8	0.23145998
53	0x3ea1f904	0.31635296
54	0xbd9d953e	-0.07694481
55	0xbe7e7b8e	-0.2485182
56	0xbe06e1bb	-0.13172047
57	0xbe0f1e98	-0.13976514
58	0x3e0a7543	0.13521294
59	0x3e86bfec	0.263183
60	0x3e4f430e	0.20240423
61	0xbe20c686	-0.1570073
62	0xbe045960	-0.12924719
63	0x3ebadf40	0.3649845
64	0x3e543e74	0.20726949
65	0xbe6ccf8c	-0.23126048
66	0x3df83f7b	0.12121483
67	0xbe5e3ff5	-0.21704085
68	0x3da96427	0.08271056
69	0xbeab3287	-0.33436987
70	0xbe360924	-0.17776924
71	0xbdf43ee2	-0.119260564
72	0xbe8735dd	-0.26408282
73	0xbe4c112a	-0.19928423
74	0x3e90de96	0.2829482
75	0x3ce9ce25	0.02854068
76	0xbe6e34cf	-0.23262332
77	0x3db08004	0.08618167
78	0x3e796787	0.24355899
79	0x3e6040ae	0.21899673
80	0xbe4c0447	-0.19923507

input_projection.bias f4 [9]
0	0xbe45113b	-0.19244854
1	0x3e961f80	0.29320908
2	0xbda27d9a	-0.07934113
3	0xbe7c7ec2	-0.2465773
4	0xbe3c7868	-0.18405306
5	0xbd842956	-0.06453197
6	0x3e3ffa9d	0.18747945
7	0x3ea82434	0.3284012
8	0xbea23f76	-0.31689042

cells.0.x2h.weight f4 [256, 9]
0	0x3e06fde4	0.13182789
1	0xbe0df54b	-0.13863103
2	0xbe1ffde3	-0.15624194
3	0x3e84a574	0.2590748
4	0x3d8363cc	0.06415519
5	0xbc61e378	-0.013787143
6	0x3e6b6f21	0.22991611
7	0xbe14a844	-0.14517313
8	0xbe7fd1ab	-0.24982326
9	0x3e0a36bb	0.1349744
10	0x3ec16d26	0.37778586
11	0xbe90c511	-0.2827535
12	0xbe99f65e	-0.30070776
13	0xbe058e32	-0.13042524
14	0xbdb5c271	-0.088749774
15	0xbc68d759	-0.014211499
16	0xbe43f911	-0.1913798
17	0xbe197b9d	-0.14988561
18	0x3e560fda	0.20904484
19	0x3e982158	0.2971294
20	0x3e68792e	0.22702476
21	0x3c02dc12	0.007987039
22	0xbe268e9d	-0.1626534
23	0xbcdc38ba	-0.026882518
24	0xbe891c93	-0.26779613
25	0xbd9bb6f7	-0.07603257
26	0xbcc74340	-0.02432406
27	0xbde5ad39	-0.1121468
28	0x3d9b84b1	0.07593668
29	0x3d9292d4	0.071569115
30	0x3df8bb57	0.12145107
31	0x3c9843b1	0.018586965
32	0x3dc49be2	0.09600045
33	0xbd8e318d	-0.06943045
34	0x3d7b2c7a	0.061321713
35	0x3c7783c4	0.015107099
36	0x3e75a154	0.23987323
37	0xbd831ad2	-0.064016
38	0x3e2f8aa5	0.17142732
39	0xbe98c09a	-0.29834443
40	0xbeb5202b	-0.35376105
41	0x3e668cfe	0.22514722
42	0x3eb26fbf	0.3485088
43	0xbd614c1d	-0.055004228
44	0xbe49b1de	-0.19696757
45	0xbe9fa922	-0.31183726
46	0xbe7b2855	-0.24527104
47	0x3dfbb1b9	0.12289757
48	0xbd7f0cc9	-0.062268052
49	0x3e6e9e0f	0.23302482
50	0x3d9622c9	0.073308535
51	0xbeb39d3b	-0.35080895
52	0xbe46ceee	-0.19414875
53	0xbe2ffc1b	-0.17186014
54	0x3e0a58d2	0.13510445
55	0xbe2346c0	-0.15944958
56	0x3e34a521	0.17641117
57	0xbde6ee80	-0.11275959
58	0xbe1d13b2	-0.15339544
59	0x3dc679be	0.09691189
60	0x3e48933e	0.19587418
61	0x3e63e1c4	0.22254092
62	0x3e9f08ca	0.31061393
63	0x3e69c8d9	0.22830524
64	0xbc2ac702	-0.010423424
65	0x3b9f14d4	0.004854778
66	0xbe088fb1	-0.13336064
67	0x3e21ca16	0.15799746
68	0xbe80c093	-0.25146922
69	0xbe44ac97	-0.19206463
70	0x3d2aa335	0.041659553
71	0x3e7b3530	0.24532008
72	0xbe098d7c	-0.13432878
73	0x3e151f34	0.14562684
74	0x3c804253	0.015656626
75	0xbe95c618	-0.29252696
76	0x3e8f9815	0.28045717
77	0xbe712fce	-0.23553392
78	0xbe68ddd5	-0.22740872
79	0xbd059f5b	-0.032622676
80	0x3d16e0e5	0.03683557
81	0x3dcc055d	0.099619605
82	0x3d3a5fff	0.045501705
83	0x3e6d30c6	0.23163137
84	0x3e94e91f	0.29084107
85	0xbe97b548	-0.29630494
86	0xbd19137f	-0.03737211
87	0xbe435186	-0.19074067
88	0x3e805fba	0.25073034
89	0x3dbb0dfa	0.09133525
90	0xbe858e6d	-0.26085225
91	0x3e50f0c6	0.20404348
92	0x3df1ab35	0.11800233
93	0x3ea77de8	0.32713246
94	0x3e8f5976	0.2799794
95	0xbdea001a	-0.114258006
96	0xbe5cab31	-0.2154968
97	0x3ea3258a	0.31864578
98	0xbe8cbd1d	-0.27488032
99	0x3c27fbfb	0.010252948
100	0xbc1e1cbf	-0.009650408
101	0x3e3c71a8	0.18402731
102	0xbe8fe272	-0.28102452
103	0x3e971f25	0.2951595
104	0x3e84fbbd	0.2597331
105	0xbcf55dba	-0.029951919
106	0x3d6a3183	0.057176124
107	0xbde653c0	-0.11246443
108	0xbe6704da	-0.22560444
109	0x3e98cd2b	0.2984403
110	0x3dc9db50	0.09856284
111	0x3d1915af	0.037374195
112	0x3de2a212	0.11066069
113	0xbd67ed37	-0.05662271
114	0xbc87eaae	-0.016591396
115	0xbd7cf635	-0.06175824
116	0x3e91501d	0.28381434
117	0xbe91c702	-0.28472143
118	0x3d403626	0.04692664
119	0x3e6e2808	0.23257458
120	0xbdc2c344	-0.095099
121	0x3e51377a	0.20431319
122	0x3e6d70f6	0.23187622
123	0x3d70a0a6	0.058746956
124	0xbe9460a3	-0.28979978
125	0x3d17350e	0.03691583
126	0xbdebbea8	-0.11510974
127	0x3e1f9491	0.15584017
128	0x3e64d641	0.22347356
129	0x3e9afb9a	0.30270082
130	0x3e817d69	0.25290993
131	0x3df022f0	0.11725414
132	0x3d9cb70a	0.076520994
133	0xbe4e1cec	-0.2012822
134	0xbe9c0f22	-0.30480295
135	0x3e523838	0.20529258
136	0x3e863885	0.26214996
137	0xbecd106c	-0.4005159
138	0xbe850fa1	-0.25988486
139	0x3e621795	0.22079308
140	0xbe5e8b74	-0.21732885
141	0xbe3d84f5	-0.1850775
142	0x3e1dea23	0.15421347
143	0xbd873aac	-0.06602988
144	0x3bad7238	0.005293157
145	0xbda7b19b	-0.081881724
146	0xbe5339fb	-0.20627587
147	0x3d5fed62	0.054669745
148	0x3e7b8461	0.24562217
149	0xbe8ebf4d	-0.27880326
150	0x3e285326	0.16437969
151	0x3e78657b	0.24257462
152	0xbe192819	-0.14956702
153	0xbe265274	-0.16242391
154	0x3e566080	0.2093525
155	0xbe5307b3	-0.20608406
156	0xbe93febc	-0.28905284
157	0xbe91634d	-0.28396073
158	0xbd1311bd	-0.03590559
159	0x3da5fc18	0.08104724
160	0xbcb65c26	-0.022260737
161	0x3d3a48fc	0.04547976
162	0xbdb234e3	-0.087014936
163	0xbcb2ca90	-0.021825105
164	0x3da3454e	0.07972203
165	0xbeb0cb3f	-0.34530064
166	0xbdf500c7	-0.11963039
167	0x3e199e2d	0.15001746
168	0xbeaaca05	-0.33357254
169	0xbc665f81	-0.014060856
170	0x3dcf2284	0.10114005
171	0xbea4ba46	-0.32173365
172	0xbe1839b3	-0.1486576
173	0x3e80366c	0.2504152
174	0xbe55425d	-0.20826097
175	0x3e9ca70b	0.30596194
176	0xbea8fe1a	-0.33006364
177	0x3db247bc	0.087050885
178	0xbe7a75ca	-0.24458995
179	0x3dc3dfb7	0.095641546
180	0xbe2ea589	-0.17055334
181	0xbe990e1a	-0.2989357
182	0xbe6f7474	-0.23384267
183	0xbe94a203	-0.29029855
184	0xbea7ab8b	-0.32748064
185	0x3e10c6c6	0.14138326
186	0xbe2d74d1	-0.16939093
187	0xbe08175e	-0.13290164
188	0xbe4fd830	-0.20297313
189	0xbe014cc1	-0.12626936
190	0x3dbf6ea1	0.09347273
191	0x3d8f2353	0.069891594
192	0xbebfa581	-0.37430957
193	0xbdece448	-0.11566979
194	0xbe8c3545	-0.2738439
195	0x3a785116	0.0009472532
196	0xbec2c80f	-0.38043258
197	0x3e135d89	0.1439115
198	0x3d81c059	0.063355155
199	0x3e4a4853	0.19754152
200	0xbb944487	-0.0045247707
201	0x3e8ca9c9	0.27473286
202	0xbe5dff75	-0.2167948
203	0x3a8e20ff	0.0010843574
204	0xbe7e07a3	-0.248076
205	0xbe196462	-0.14979699
206	0xbe1b5361	-0.15168525
207	0xbe4c70c4	-0.19964892
208	0x3e6a4194	0.22876579
209	0xbea22935	-0.31672063
210	0xbeb5b67b	-0.35490784
211	0xbea13be0	-0.31490993
212	0xbe9fa011	-0.31176808
213	0x3d0579ad	0.032586742
214	0x3e14efbf	0.14544581
215	0xbe7aa0ec	-0.2447545
216	0x3d5af865	0.053459544
217	0xbd2d0a6f	-0.04224628
218	0xbea22421	-0.3166819
219	0x3cc66411	0.024217637
220	0x3d37df95	0.04489096
221	0xbe032b19	-0.12809409
222	0xbdb9a92f	-0.09065472
223	0xbe9c2185	-0.30494323
224	0xbdaf910d	-0.08572588
225	0xbe6ef8cc	-0.23337096
226	0xbdc88455	-0.09790865
227	0xbe80d5ec	-0.2516321
228	0xbc04b998	-0.00810089
229	0xbe975318	-0.29555583
230	0x3e817032	0.2528091
231	0x3e4ec8c3	0.20193772
232	0x3c7f478d	0.015581024
233	0x3e9c348d	0.30508843
234	0xbea7a38f	-0.32741973
235	0x3dd6181e	0.10453819
236	0xbdf654f0	-0.12027919
237	0x3dc1e7be	0.094680294
238	0xbd40a59f	-0.04703295
239	0x3e8e4214	0.2778479
240	0x3deb06d6	0.11475913
241	0xbdd36378	-0.103217065
242	0x3eb2b21a	0.34901506
243	0xbea03b78	-0.3129537
244	0x3e85ef36	0.26159066
245	0xbe9c5d21	-0.30539802
246	0x3e20be8a	0.15697685
247	0xbdde4a9d	-0.10854075
248	0xbdbafeec	-0.09130654
249	0x3e5db243	0.21650033
250	0x3de5e65c	0.11225578
251	0xbd478095	-0.04870661
252	0x3dbfea1d	0.093708254
253	0x3dde21dd	0.10846303
254	0xbe3cd7c9	-0.1844169
255	0x3e7fdd48	0.24986756

cells.0.x2h.bias f4 [256]
0	0x3e1e49ea	0.15457883
1	0xbdac5f1c	-0.08416578
2	0x3ec07385	0.37588134
3	0xbbf52ea1	-0.0074823652
4	0x3e8ae54a	0.2712806
5	0x3d9f24d7	0.077706985
6	0xbcd7cfcc	-0.026344202
7	0xbe4e57c3	-0.20150666
8	0x3e854edd	0.2603673
9	0x3e2f00e4	0.17090183
10	0x3da6868d	0.08131132
11	0x3e1fa9ff	0.15592192
12	0xbe641d52	-0.2227681
13	0xbe438a1d	-0.19095655
14	0xb91d228b	-0.00014985555
15	0x3e84716b	0.2586778
16	0x3dab05c5	0.0835071
17	0xbe962555	-0.29325357
18	0x3e3f67cf	0.18691944
19	0x3e879437	0.26480266
20	0x3e136c72	0.14396837
21	0xbe835af8	-0.2565534
22	0x3ea067bd	0.31329146
23	0xbe22ea8b	-0.15909784
24	0xbe508c8b	-0.20366113
25	0x3e7acd21	0.24492313
26	0x3e1b9ec7	0.15197287
27	0x3e45d8bd	0.1932096
28	0xbdeb462a	-0.11487992
29	0xbe6691cd	-0.22516556
30	0x3d532ce3	0.05155648
31	0xbdff0131	-0.12451399
32	0x3d30a618	0.04312715
33	0x3d89a5e6	0.06721096
34	0xbcd8ee73	-0.026480889
35	0xbdac0f75	-0.08401386
36	0x3c97e062	0.018539611
37	0x3de6fc0a	0.112785414
38	0xbdf7dd7b	-0.12102791
39	0xbd2e727e	-0.042589657
40	0x3e2971b2	0.16547278
41	0xbe753613	-0.23946409
42	0x3e8e864e	0.2783684
43	0xbde18543	-0.11011746
44	0x3d86b7a9	0.06577999
45	0x3ccb772b	0.024837097
46	0xbe6e878b	-0.23293893
47	0x3d09578f	0.033530768
48	0x3e8de3f7	0.27712986
49	0x3d873605	0.066021
50	0xbe64889a	-0.22317734
51	0xbe24c560	-0.16090918
52	0x3d0e2761	0.034705523
53	0x3d39a70c	0.045325324
54	0xbe4ac1dd	-0.19800515
55	0xbe627d93	-0.22118215
56	0xbd9d35ea	-0.07676299
57	0x3e8ab6ef	0.27092692
58	0x3e0ce846	0.1376048
59	0xbe75d96b	-0.2400872
60	0xbe411270	-0.1885469
61	0xbdc14395	-0.094367184
62	0xbe091be7	-0.1338955
63	0x3eaae158	0.3337505
64	0xbe39dacb	-0.18149869
65	0xbe5c01b1	-0.2148502
66	0x3e7eae06	0.24871072
67	0x3e387529	0.18013443
68	0xbcb3aee4	-0.02193398
69	0xbe2c475f	-0.16824101
70	0xbe5a6c44	-0.21330363
71	0x3dcf5bbc	0.10124919
72	0x3ea6ad60	0.3255415
73	0x3ea219d1	0.3166032
74	0x3a93229f	0.0011225528
75	0xbded7713	-0.11594977
76	0xbdcee010	-0.1010133
77	0x3eb036fd	0.34416953
78	0xbdd21e4a	-0.102596834
79	0xbe058a58	-0.13041055
80	0x3e234f53	0.15948229
81	0xbdddb4b8	-0.10825485
82	0x3cc16ee4	0.023612447
83	0xbe8e7ab8	-0.27828002
84	0x3d0ac1a4	0.033876076
85	0xbdb18eae	-0.08669792
86	0xbe9baa2e	-0.30403274
87	0x3d82703a	0.06369062
88	0xbe2e3b0d	-0.17014714
89	0xbeae4142	-0.34034163
90	0xbe86e9aa	-0.26350147
91	0x3e72c255	0.23706944
92	0x3e0c71f4	0.13715345
93	0xbca7d009	-0.020484941
94	0xbdd27ea9	-0.10278065
95	0xbe8c8bc9	-0.27450398
96	0x3e36d8af	0.17856096
97	0xbe891b6a	-0.26778728
98	0xbdabab6a	-0.08382304
99	0x3e8f0bc2	0.27938658
100	0x3e370d3f	0.17876147
101	0xbe71e432	-0.23622206
102	0x3e96beb2	0.29442364
103	0x3e9f762d	0.31144848
104	0x3e18f534	0.14937288
105	0x3cc080b7	0.023498876
106	0xbe23ee0f	-0.16008781
107	0xbda00dcc	-0.078151315
108	0x3dc430b8	0.09579605
109	0x3dcf9801	0.10136414
110	0x3e695732	0.22787169
111	0x3e20b704	0.15694815
112	0xbd3bef65	-0.0458826
113	0xbe4f9f4e	-0.20275614
114	0x3ec0e230	0.37672567
115	0xbdaa7ba3	-0.08324363
116	0x3e9b95d4	0.30387747
117	0xbea2c888	-0.31793618
118	0x3e8c89db	0.27448925
119	0x3e8a3f41	0.27001384
120	0x3e9e6788	0.30938363
121	0xbe8b02cd	-0.27150574
122	0xbdf9685e	-0.121781096
123	0xbe51a25a	-0.20472088
124	0x3ce312f6	0.027719002
125	0x3c649107	0.013950593
126	0x3e47a0d3	0.19494943
127	0xbe2e5930	-0.1702621
128	0xbccd3820	-0.025051177
129	0x3eac5b01	0.3366318
130	0xbe38cd86	-0.18047151
131	0xbc131be7	-0.00897882
132	0xbd40f6a2	-0.047110207
133	0x3ea272f8	0.3172834
134	0xbe00f67d	-0.12594028
135	0xbe6c3e51	-0.23070647
136	0x3e08ce9b	0.13360064
137	0xbe3e1fa5	-0.18566759
138	0x3e90e24d	0.28297654
139	0xbdfc447c	-0.1231775
140	0xbe8f61c8	-0.2800429
141	0xbe0a258f	-0.1349089
142	0xbacf16b0	-0.0015799608
143	0xbcf989c9	-0.030461209
144	0x3d329bde	0.043605678
145	0xbead8490	-0.338902
146	0xbdbffec3	-0.09374764
147	0xbc55a3f2	-0.013039576
148	0xbe7ffa20	-0.24997759
149	0x3e22a8ea	0.15884748
150	0x3e9a64ba	0.30154973
151	0xbcf1ccba	-0.029516567
152	0xbea55420	-0.32290745
153	0xbc5aa4a9	-0.013344922
154	0x3d6c9c5c	0.057766303
155	0xbe4fd863	-0.20297389
156	0xbe122d44	-0.1427508
157	0xbc308e07	-0.010776049
158	0xbe3fa612	-0.18715695
159	0x3d81a3ba	0.063300565
160	0x3d9869ef	0.0744208
161	0xbe891db3	-0.2678047
162	0x3e0c3dda	0.1369547
163	0xbe43f42d	-0.19136114
164	0xbe0d4dcf	-0.13799213
165	0xbd11859d	-0.035527814
166	0xbe9711a2	-0.2950564
167	0x3e0c991a	0.13730279
168	0x3d454424	0.048160687
169	0xbdedf3d2	-0.11618771
170	0xbe53e469	-0.206926
171	0xbd3e5760	-0.046470046
172	0x3e5f4a4e	0.21805689
173	0x3e24ad0a	0.16081634
174	0x3ea2bfcf	0.31786963
175	0x3ea60db4	0.3243233
176	0x3dd6682c	0.10469088
177	0x3e52758a	0.2055265
178	0x3e1d803a	0.15380946
179	0x3e37b94e	0.17941782
180	0x3e8cf404	0.2752992
181	0xbddfe887	-0.10933023
182	0x3e64b9d7	0.22336517
183	0x3eb30a30	0.3496871
184	0xbda24f4d	-0.07925282
185	0xbdf79e9b	-0.120907985
186	0x3ea1331e	0.31484312
187	0x3e7d72a7	0.24750768
188	0x3e0745d3	0.1321023
189	0x3dc570eb	0.09640678
190	0x3e8af4a9	0.27139786
191	0x3dcf3fcc	0.1011959
192	0x3e90fcf2	0.28317982
193	0x3ec67536	0.387613
194	0x3e83ffc7	0.2578108
195	0xbe729d8d	-0.23692913
196	0x3e78371b	0.24239771
197	0x3e489cb2	0.19591025
198	0x3e4fd37c	0.20295519
199	0xbdede62a	-0.11616166
200	0xbe14e001	-0.14538576
201	0x3c7b53b3	0.01533978
202	0x3eab3d30	0.3344512
203	0x3eac5432	0.33657986
204	0x3d4ca3d6	0.049960934
205	0x3e5194e0	0.20466948
206	0xbddd9db3	-0.10821094
207	0x3e07da1c	0.13266796
208	0xbe52307d	-0.2052631
209	0xbe30f10b	-0.1727945
210	0x3ea327ac	0.31866205
211	0x3dc075e1	0.093974836
212	0x3ea55ced	0.3229746
213	0x3d95015f	0.07275652
214	0xbda07521	-0.078348406
215	0x3d20560b	0.039144557
216	0xbe9b3566	-0.30314177
217	0x3da70f53	0.0815722
218	0xbe0c7e96	-0.13720164
219	0x3e6b36c6	0.22970113
220	0x3db17243	0.08664372
221	0xbe21c61a	-0.15798226
222	0xbc4d4e9b	-0.012530948
223	0xbc9917db	-0.018688133
224	0xbd6b7d8e	-0.057492785
225	0x3e4925cb	0.19643323
226	0x3eab2fa4	0.33434784
227	0xbe2d6281	-0.16932108
228	0xbe07546b	-0.13215797
229	0xbe8f828c	-0.28029287
230	0x3e5e3351	0.21699263
231	0xbe26d96a	-0.16293874
232	0x3e6c4908	0.23074734
233	0xbe12b917	-0.14328419
234	0x3b607980	0.0034252107
235	0x3ea3ac2d	0.31967297
236	0xbc3e958b	-0.0116323335
237	0x3e56f5b3	0.20992164
238	0x3e79e41b	0.24403422
239	0xbe45ef33	-0.19329529
240	0x3e31ed1f	0.17375611
241	0x3eb32c29	0.3499463
242	0xbc29b615	-0.010358353
243	0x3e921e66	0.28538817
244	0x3c7dedd1	0.015498594
245	0x3d512dd2	0.05106909
246	0x3e9704ec	0.29495943
247	0x3e88b153	0.26697788
248	0x3e04a113	0.1295207
249	0x3e502a23	0.20328574
250	0xbe3d03e2	-0.18458512
251	0x3d76da33	0.060266685
252	0x3e2075d3	0.15669946
253	0x3d4fa480	0.05069399
254	0x3e8c9ab0	0.27461767
255	0xbe614583	-0.21999173

cells.0.h2h.weight f4 [256, 64]
0	0xbc997748	-0.018733636
1	0xbd4cd7a3	-0.050010335
2	0x3baa7027	0.005201358
3	0x3e3f4843	0.1867991
4	0x3e07ee19	0.13274421
5	0xbde47d5c	-0.11156723
6	0xbcbc6036	-0.022995096
7	0xbdf5f8c3	-0.12010338
8	0xbdcc1574	-0.09965029
9	0x3e3fa75e	0.1871619
10	0xbddf7de7	-0.10912686
11	0xbd73780b	-0.059440654
12	0x3d65ec31	0.056133453
13	0x3e260624	0.1621328
14	0x3e0b5b28	0.13608992
15	0x3d905b35	0.07048646
16	0x3c1a31a2	0.009411247
17	0x3c52e112	0.012871044
18	0xbcaa0539	-0.020754443
19	0xbb369ba0	-0.0027863756
20	0x3d988bcd	0.0744854
21	0x3e29a7c4	0.16567904
22	0x3e012dc7	0.12615119
23	0xbcb67df7	-0.022276862
24	0x3daa534a	0.083166674
25	0xbe177695	-0.14791329
26	0xbda82479	-0.082100816
27	0x3df6cfd8	0.12051362
28	0x3d75dee8	0.060027033
29	0x3c82baf3	0.015958285
30	0xbdd4f60a	-0.10398491
31	0xbd387b2f	-0.045039352
32	0x3e0af5f4	0.13570386
33	0xbd195ac1	-0.037440065
34	0xbc9219da	-0.017834593
35	0x3ddedf03	0.1088238
36	0xbe04f4dc	-0.12984031
37	0xbdec16b3	-0.11527767
38	0x3d9677df	0.07347082
39	0x3dda47b9	0.10658211
40	0x3b8569b9	0.004071441
41	0xbd431077	-0.047623124
42	0x3c5977b9	0.013273173
43	0x3d683628	0.056692272
44	0x3c806359	0.015672373
45	0x3d391d2c	0.045193836
46	0x3da99f22	0.08282305
47	0xbd444dae	-0.047925644
48	0x3b237556	0.0024941764
49	0x3df758d0	0.120774865
50	0x3d607900	0.054802895
51	0xbcffb909	-0.031216161
52	0x3e16d216	0.14728579
53	0x3b241e14	0.0025042342
54	0xbc237ef8	-0.009979002
55	0x3d71a84e	0.0589984
56	0x3df68e9c	0.12038919
57	0x3e2a21e6	0.16614494
58	0x3d5ce76c	0.05393164
59	0xbcf18c75	-0.02948592
60	0xbd83ca9c	-0.06435129
61	0x3df08559	0.11744184
62	0xbdb9abb5	-0.09065954
63	0x3dc2cc5a	0.09511633
64	0x3dce28b6	0.10066359
65	0x3ddec13d	0.10876701
66	0xbdcb6fb9	-0.09933419
67	0x3dbf8ee3	0.09353425
68	0xbd25a73d	-0.040442694
69	0x3d52d7ce	0.05147534
70	0xbde926f6	-0.11384384
71	0xbdd6f4d9	-0.1049592
72	0xbd3de776	-0.046363316
73	0xbd38bd04	-0.045102134
74	0x3e1a0371	0.15040375
75	0x3d92eb8f	0.071738355
76	0x3d5dfb1c	0.054194555
77	0xbd691416	-0.05690392
78	0x3e1b74db	0.15181296
79	0xbca1ec29	-0.01976593
80	0x3dfab473	0.12241449
81	0xbdd5f845	-0.10447744
82	0x3da132df	0.07871031
83	0xbdfd38dd	-0.123643614
84	0xbca786bd	-0.02044999
85	0x3d89b49b	0.06723901
86	0x3c858207	0.016297353
87	0x3e41efc5	0.18939121
88	0xbd37c3d1	-0.04486448
89	0xbd2d3e9e	-0.042296045
90	0xbdaaad45	-0.0833383
91	0x3d70874f	0.05872279
92	0x3ddf242a	0.108955696
93	0x3e4b358e	0.19844648
94	0xbdda254f	-0.10651647
95	0x3de7dfa6	0.113219544
96	0x3e1a8b8d	0.15092297
97	0xbe1bf093	-0.1522849
98	0x3a9af70e	0.0011822896
99	0x3d14f651	0.036367718
100	0xbda9f959	-0.082995124
101	0xbd231f85	-0.03982498
102	0xbdab5d15	-0.08367363
103	0xbd3cd924	-0.04610552
104	0xbe1e4567	-0.15456162
105	0xbda8bf68	-0.08239633
106	0xbcf74095	-0.030182162
107	0x3b412a04	0.0029474506
108	0xbc6ddfb2	-0.014518665
109	0xbd8665c6	-0.065623805
110	0x3e1837d6	0.1486505
111	0xbd9469ca	-0.0724674
112	0xbe2bcf26	-0.1677824
113	0xbb80a5fb	-0.0039260364
114	0x3d57efa8	0.05271879
115	0x3dc89e8f	0.09795868
116	0xbdb3aba6	-0.08772974
117	0xbd67694d	-0.056496907
118	0x3db6efed	0.08932481
119	0x3c25658c	0.010095011
120	0x3de123a2	0.109931245
121	0xbd57e5d2	-0.052709408
122	0xbd141845	-0.036155958
123	0x3cdc979f	0.026927767
124	0x3d3eea90	0.046610415
125	0x3e2109ff	0.1572647
126	0xbd614099	-0.054993246
127	0x3e04b66c	0.12960213
128	0x3dbc9791	0.092085965
129	0xbd607a6a	-0.054804243
130	0xbb862aba	-0.004094449
131	0x3a91a07e	0.0011110452
132	0x3d5a8332	0.053347774
133	0x3e52611f	0.20544861
134	0xbe1a8a21	-0.15091754
135	0xbe1d5740	-0.15365314
136	0x3ce4aaba	0.02791344
137	0x3c63765c	0.0138832
138	0x3da91a5d	0.082569815
139	0x3e21bca1	0.15794612
140	0x3d167a0a	0.03673748
141	0xbcbc62f2	-0.0229964
142	0x3dff8808	0.12477118
143	0xb9667ed2	-0.00021981754
144	0xbcbe9b2e	-0.023267355
145	0x3d37adb0	0.044843376
146	0xbcc47afa	-0.023984421
147	0xbd9a01a1	-0.07519842
148	0xbdf198bc	-0.1179671
149	0xbd0ac467	-0.03387871
150	0x3d491259	0.049089763
151	0xbd936b6d	-0.07198224
152	0x3d205c3b	0.039150458
153	0xbd88a877	-0.06672757
154	0xbdcffcca	-0.101556376
155	0xbaf9a41d	-0.0019046102
156	0xbdd3038a	-0.103034094
157	0x3d89b063	0.06723096
158	0xbd9b5eb4	-0.075864226
159	0xbd3e02bc	-0.046389326
160	0x3db89c2f	0.09014165
161	0xbd405767	-0.046958353
162	0x3bca3f13	0.00617207
163	0xbd16d6f9	-0.036826108
164	0xbc7912b1	-0.01520221
165	0xbe15d1a3	-0.14630751
166	0x3d65ae98	0.05607471
167	0x3e18f8be	0.14938638
168	0xbd8928e4	-0.066972524
169	0xbd1ccfba	-0.03828404
170	0xbcd89750	-0.026439339
171	0x3d7669ec	0.06015961
172	0x3e0940e5	0.13403662
173	0x3ddddcd7	0.108331375
174	0x3e0d5055	0.13800175
175	0x3e0db8cd	0.13840027
176	0x3df8073a	0.12110753
177	0x3e1ac29c	0.151133
178	0xbc367c06	-0.011137968
179	0x3de60998	0.112322986
180	0x3e000796	0.12502894
181	0x3bdbf819	0.006712925
182	0x3da387f3	0.07984915
183	0x3c2c3f4b	0.010513137
184	0xbcfab66f	-0.03060457
185	0x3dd0a8ec	0.10188469
186	0x3d2d4f58	0.042311996
187	0xbb873cb5	-0.00412711
188	0xbdcbc088	-0.09948832
189	0x3d74a48a	0.05972723
190	0x3c1cac4c	0.009562563
191	0xbe15d588	-0.14632237
192	0xbd88faea	-0.06688483
193	0xbdd48687	-0.103772216
194	0xbc879a5e	-0.0165531
195	0x3dcd7bfc	0.10033414
196	0xbd0de8e2	-0.034645922
197	0xbd8efb40	-0.06981516
198	0x3d4c86c5	0.049933214
199	0x3d5d3b3a	0.05401156
200	0x3d4311f8	0.04762456
201	0xbd13eb7d	-0.03611325
202	0x3dbfc50e	0.09363757
203	0x3d202b80	0.039103985
204	0xbdefee0a	-0.11715324
205	0x3ca1b99f	0.019741831
206	0x3d846d49	0.06466157
207	0x3de46d7f	0.11153697
208	0x3c5c4872	0.013445007
209	0xbcc9df03	-0.024642473
210	0xbacb4076	-0.0015506882
211	0x38d7c618	0.00010288897
212	0xbddfe3a9	-0.109320946
213	0xbd77585a	-0.060386993
214	0x3da81351	0.08206809
215	0xbc588d85	-0.013217335
216	0xbddd5365	-0.10806922
217	0xbd0acb6d	-0.03388541
218	0xbd9dd0d7	-0.07705849
219	0x3dad9382	0.084754005
220	0xbc9a9000	-0.018867493
221	0x3cbb89a1	0.022892775
222	0x3d79d64c	0.060995385
223	0x3dd88adf	0.105733626
224	0xbd40a046	-0.04702785
225	0xbdc49660	-0.09598994
226	0x3dd95362	0.10611607
227	0xbd8614bb	-0.06546923
228	0x3d98057a	0.074229196
229	0xbd75b3de	-0.059985988
230	0xbe00bc14	-0.12571746
231	0x3c9c27d2	0.019061957
232	0xbd85c6be	-0.06532048
233	0x3db37dac	0.087642044
234	0xbd91360a	-0.07090385
235	0x3d1480fa	0.036255814
236	0x3d268868	0.04065743
237	0x3d0ed063	0.0348667
238	0x3cd4764f	0.02593532
239	0xbce2bd3e	-0.027678128
240	0x3d888271	0.06665505
241	0xbd8ab40c	-0.067726225
242	0xbda81bc9	-0.082084246
243	0xbd0ae3ee	-0.033908777
244	0x3bb394ad	0.00548037
245	0x3d22a468	0.03970757
246	0xbdcdb2ba	-0.10043855
247	0x3ddf8527	0.10914069
248	0x3d9aa5e1	0.0755117
249	0x3cb285dd	0.021792347
250	0xbd9d39bc	-0.076770276
251	0x3d27ed92	0.04099805
252	0x3d655096	0.055985056
253	0x3c991d4a	0.018690724
254	0x3d8efd0f	0.06981861
255	0x3d35b485	0.04436161

cells.0.h2h.bias f4 [256]
0	0xbce71788	-0.028209463
1	0x3e0fcf42	0.14043906
2	0xbd5ffe0f	-0.05468565
3	0x3d928cc0	0.07155752
4	0x3d9cdc06	0.07659154
5	0x3d8248f0	0.06361568
6	0xbd0c53a0	-0.03425944
7	0xbde56833	-0.11201515
8	0xbdc7d314	-0.09757057
9	0x3d691671	0.056906167
10	0x3c3b4f04	0.011432413
11	0xbcd164f5	-0.025560835
12	0x3d9e7043	0.07736256
13	0x3e073a18	0.13205755
14	0xbcb4d811	-0.022075685
15	0xbc813a35	-0.015774826
16	0x3de32b61	0.11092258
17	0x3dbefea1	0.0932591
18	0x3de159e7	0.11003476
19	0xbb91c2fd	-0.0044482932
20	0xbde734fe	-0.11289404
21	0x3e28a2c3	0.16468339
22	0xbdf316a1	-0.118695505
23	0xbd9c92e0	-0.07645202
24	0x3d40dddc	0.04708658
25	0x3b06bb4c	0.0020558415
26	0x3de7d99f	0.11320805
27	0xbd05661c	-0.032568082
28	0xbd50579c	-0.0508648
29	0x3df16429	0.11786682
30	0x3dbcbfe4	0.09216288
31	0xbd8ef6cb	-0.06980666
32	0x3c81f1e1	0.015862407
33	0xbdaa1239	-0.08304257
34	0x3d97424c	0.07385692
35	0x3ddaeb82	0.10689451
36	0xbd98472e	-0.074354514
37	0x3b210dbb	0.0024574834
38	0x3e0487ff	0.12942503
39	0xbbe20406	-0.0068974523
40	0x3da19cb6	0.07891218
41	0x3c225b8b	0.009909521
42	0x3d3b9766	0.04579868
43	0xbba435a5	-0.0050112777
44	0x3d0da6d2	0.03458292
45	0x3dabf12e	0.08395611
46	0x3d9f6f77	0.07784932
47	0x3dd975a0	0.10618138
48	0xbda27840	-0.07933092
49	0x3e3c5cc9	0.1839477
50	0x3e18f98e	0.14938948
51	0xbdb94b4a	-0.090475634
52	0x3dd396bb	0.10331484
53	0x3dfc5411	0.12320722
54	0xbae76020	-0.0017652549
55	0x3df2b17a	0.11850257
56	0x3cdffa3e	0.027341004
57	0xbd9c0743	-0.076185726
58	0x3d2dbcb1	0.04241628
59	0xbca34acd	-0.019933129
60	0x3e07b8ba	0.13254061
61	0x3d1d8b4d	0.038462926
62	0x3da52859	0.08064336
63	0x3c8c2a04	0.017109878
64	0x3c55746d	0.013028246
65	0x3ca37e8c	0.019957803
66	0x3d91b895	0.07115284
67	0xbddd68c8	-0.10811001
68	0x3d8f0ffc	0.06985471
69	0x3d67f7e5	0.056632895
70	0xbdbb1cf6	-0.09136383
71	0x3c571b77	0.013129107
72	0x3d9c34e3	0.07627275
73	0xbd8c67f0	-0.06855762
74	0xbd15955a	-0.036519386
75	0xbd24700f	-0.04014593
76	0xbd53aa92	-0.05167634
77	0x3ca96195	0.020676414
78	0x3d7afc30	0.06127566
79	0x3d34a478	0.044102162
80	0x3d956f67	0.07296639
81	0xbb1c6bbd	-0.0023867928
82	0xbdb1131b	-0.08646222
83	0xbdaebc28	-0.08531982
84	0x3d96d16a	0.07364161
85	0xbc3d03e3	-0.011536571
86	0xbdec2e96	-0.11532323
87	0xbd24a691	-0.040197913
88	0x3ca10360	0.01965493
89	0x3d815fe7	0.0631712
90	0xbcfbe860	-0.030750453
91	0x3db802c8	0.089849055
92	0x3d6aa38c	0.057284877
93	0x3af2ca05	0.0018523341
94	0x3dba1bd3	0.09087338
95	0xbd9dd0d0	-0.077058434
96	0xbcc383d0	-0.023866564
97	0x3dfb5001	0.12271119
98	0xbda6d9a4	-0.081469804
99	0x3be63fd8	0.0070266537
100	0x3cf1d94f	0.029522566
101	0x3bf87be5	0.0075831288
102	0xbd9b22a0	-0.075749636
103	0x3e184266	0.14869079
104	0x3dd27b40	0.10277414
105	0x3de7cd57	0.11318462
106	0xbdeb9f82	-0.11505033
107	0xbd100583	-0.035161506
108	0xbd5ca99e	-0.053872697
109	0xbde09c77	-0.10967343
110	0xbbb8167d	-0.005617915
111	0x3dc2e729	0.095167466
112	0x3d0bb1ab	0.034104984
113	0x3dafc356	0.08582179
114	0x3de4098a	0.11134632
115	0xbc9d3066	-0.019188117
116	0x3da424dd	0.080148436
117	0x3da1ee15	0.07906739
118	0xbd7fc7b2	-0.062446304
119	0x3df8b3f5	0.12143699
120	0xbd96303a	-0.07333417
121	0xbd2228ed	-0.03958981
122	0xbd35d61d	-0.044393647
123	0x3bb7cbc7	0.005609009
124	0xbd53a22a	-0.051668324
125	0x3e0011d9	0.12506808
126	0x3d0bd45b	0.034138065
127	0x3c97a422	0.018510882
128	0x3ddc1baa	0.10747464
129	0x3cf824d3	0.030290997
130	0xbdbdba46	-0.092640445
131	0xbda4e57d	-0.08051584
132	0x3d87ed72	0.06637086
133	0x3d564608	0.05231288
134	0xbdc9fd1f	-0.09862732
135	0xbdbbc67c	-0.09168717
136	0x3cce9d2e	0.025221433
137	0x3d14b0bc	0.03630136
138	0xbdb8c686	-0.0902224
139	0x3dad3b11	0.08458532
140	0x3b74ce51	0.003735442
141	0xbddbcc2f	-0.10732304
142	0x3e040ae1	0.12894775
143	0xbd5d0f95	-0.05396994
144	0xbb43c51f	-0.0029872132
145	0xbd647081	-0.055771355
146	0x3ded86c8	0.11597973
147	0xbdaa57d9	-0.08317537
148	0xbd40ff9d	-0.04711877
149	0x3dddd2d0	0.10831225
150	0x3da5593e	0.08073662
151	0x3ddf176b	0.108931385
152	0x3d3435a6	0.043996476
153	0xbd4ef60b	-0.050527614
154	0x3dee7216	0.11642854
155	0x3d79215f	0.06082284
156	0x3da7de75	0.08196727
157	0xbd580180	-0.052735806
158	0xbdddf4ee	-0.10837732
159	0x3d23275d	0.03983246
160	0x3da8e1d8	0.08246201
161	0x3dc1d74d	0.094648935
162	0x3d05d9f0	0.032678545
163	0xbc52ac93	-0.012858528
164	0x3d5cf028	0.05393997
165	0xbc8ed2e8	-0.017434552
166	0x3da57e44	0.08080724
167	0xbcb90b35	-0.022588352
168	0xbd1fe70a	-0.039038695
169	0xbc9183b4	-0.017762996
170	0x3e01a0e7	0.12659036
171	0x3b6cc478	0.0036127847
172	0x3e0ece43	0.1394587
173	0xbdc53e55	-0.096310295
174	0xbd0f4041	-0.034973387
175	0xbdc5bddf	-0.09655356
176	0xbdd622e8	-0.104558766
177	0x3e18bbd2	0.14915398
178	0x3e07119e	0.13190314
179	0xbb00b110	-0.0019636787
180	0xbdb6ee6c	-0.08932194
181	0xbcfb2e92	-0.030661855
182	0x3cec0040	0.028808713
183	0x3ac858e1	0.0015285277
184	0x3d98aa33	0.07454338
185	0xbdfe2b47	-0.12410598
186	0x3d12ab02	0.035807617
187	0xbdcfa42a	-0.10138734
188	0xbd6f59ce	-0.058435254
189	0xbbd98be9	-0.006638993
190	0xbd8583b6	-0.065192625
191	0xbd867c68	-0.06566697
192	0x3dc109a2	0.094256654
193	0x3e154e26	0.14580593
194	0x3c3dd2ce	0.011585904
195	0x3d999aaa	0.07500203
196	0x3e001f95	0.12512048
197	0xbc84f197	-0.01622848
198	0x3db1b4ef	0.086770885
199	0xbc301ce3	-0.010749075
200	0x3de48546	0.111582324
201	0x3d58d03d	0.052932967
202	0xbb92edfe	-0.0044839373
203	0x3dd44c64	0.10366133
204	0x3d04e65f	0.03244626
205	0xbddef733	-0.10886993
206	0xbc5030d9	-0.012706959
207	0xbcad6e99	-0.021170901
208	0x3d717f75	0.058959443
209	0x3d303a0b	0.043024104
210	0xbd1b6db8	-0.037946433
211	0xbd80db91	-0.06291879
212	0xbcb20fe9	-0.021736102
213	0x3e31a704	0.17348868
214	0x3bc29ddd	0.005939229
215	0x3bff1bab	0.0077852807
216	0x3d6606f7	0.056158986
217	0x3a8f1ce4	0.0010918644
218	0x3e34b0bc	0.17645544
219	0x3ca4cb33	0.020116424
220	0x3de3820e	0.1110879
221	0xbdad6091	-0.08465684
222	0x3d753a78	0.059870213
223	0xbc755d91	-0.014975921
224	0xbaa57ce5	-0.0012625722
225	0xbd73bac9	-0.059504304
226	0x3d49f864	0.04930915
227	0x3da6e50c	0.08149156
228	0x3cd636dc	0.026149206
229	0xbc8f8ca1	-0.017523112
230	0x3e00800c	0.12548846
231	0xbd84978b	-0.06474217
232	0xbd085f7a	-0.03329418
233	0xbdc1e065	-0.09466628
234	0xbc84860a	-0.016177196
235	0xbd4905da	-0.049077846
236	0xbdaef533	-0.08542862
237	0x3db6b21a	0.08920689
238	0xbd528d49	-0.05140427
239	0x3e0564fd	0.13026805
240	0xbda43d06	-0.08019452
241	0x3e10fda4	0.14159256
242	0xbd0dcab3	-0.034617137
243	0xbb8bfe37	-0.004272248
244	0xbd8a53b8	-0.06754249
245	0x3db2830f	0.08716404
246	0x3e2653c3	0.1624289
247	0x3cbe98fa	0.023266304
248	0xbc550928	-0.013002671
249	0xbc7bc37b	-0.01536643
250	0x3bd9fae0	0.006652221
251	0xbc96d50f	-0.018412141
252	0x3de60a0e	0.112323865
253	0xbcc04ff9	-0.023475634
254	0x3cf74d5b	0.030188253
255	0x3e12c6c0	0.1433363

cells.1.x2h.weight f4 [256, 64]
0	0xbc661ebd	-0.0140454145
1	0xbd95e463	-0.07318952
2	0xbdf70f99	-0.12063522
3	0xbd329963	-0.043603312
4	0xbd4cd269	-0.05000535
5	0x3adba4d7	0.00167575
6	0xbe06c99b	-0.13162844
7	0xbd1a0822	-0.037605412
8	0x3dc8c438	0.09803051
9	0xbd99f608	-0.0751763
10	0x3d97b589	0.07407672
11	0x3c05be0d	0.008162987
12	0xbdcc84c9	-0.09986264
13	0xbc0ebee5	-0.008712505
14	0xbddfb6cd	-0.10923538
15	0x3d4564fc	0.04819201
16	0x3da457c9	0.08024556
17	0x3d991f35	0.074766554
18	0xbdb968b1	-0.090531714
19	0x3dd89c66	0.10576706
20	0x3d45d7ad	0.048301388
21	0x3e1e506a	0.15460363
22	0x3c2e41ea	0.010635832
23	0xbc935c82	-0.017988447
24	0xbdb07824	-0.08616665
25	0x3d28c08f	0.041199263
26	0x3e1e8218	0.15479314
27	0xbdb4e384	-0.08832458
28	0x3dbcba85	0.09215263
29	0xbd729b28	-0.05923
30	0x3dae4060	0.08508372
31	0x3e025eb0	0.12731433
32	0xbca6100d	-0.020271325
33	0xbddf2949	-0.108965464
34	0xbd0747ca	-0.033027448
35	0xbe16a6bd	-0.14712043
36	0x3b6720e6	0.0035267412
37	0x3ddd4ee2	0.10806061
38	0x3d4c4e8b	0.049879592
39	0xbd9e33ca	-0.07724722
40	0x3d150f5e	0.03639161
41	0xbca08277	-0.01959346
42	0xbd5412a3	-0.051775586
43	0xbd95e8ab	-0.073197685
44	0xbdc1c8df	-0.09462141
45	0x3e16ce91	0.14727236
46	0xbce62827	-0.028095318
47	0x3e014f42	0.1262789
48	0x3d67785a	0.05651126
49	0x3d9fcc69	0.0780266
50	0xbb5cb8aa	-0.0033679404
51	0xbcbc1106	-0.022957336
52	0x3d2aa0c3	0.04165722
53	0x3dd87b74	0.10570422
54	0xbd930266	-0.07178192
55	0x3dd9601f	0.10614037
56	0xbd189b92	-0.03725774
57	0x3c89c8ed	0.016819442
58	0xbe017cef	-0.12645315
59	0x3d6719ec	0.056421205
60	0x3d97e23a	0.07416196
61	0xbd7c665f	-0.061621066
62	0x3d954efb	0.07290455
63	0xbd979371	-0.07401169
64	0x3dc7a5d1	0.09748424
65	0xbc8d6a23	-0.017262524
66	0x3dc3c604	0.09559253
67	0x3daeed2f	0.08541333
68	0x3d16d6ce	0.036825947
69	0x3dc842ef	0.097783916
70	0x3ded28a8	0.1158002
71	0xbd832b18	-0.06404704
72	0xbdb10093	-0.08642688
73	0xbd973651	-0.07383407
74	0xbd94533a	-0.07242437
75	0x3cfe9a70	0.0310795
76	0x3da42799	0.08015365
77	0xbc03dcb7	-0.008048228
78	0xbd95056a	-0.07276423
79	0x3cff032a	0.031129438
80	0xbe2d8710	-0.16946054
81	0xbd3a3ab0	-0.045466125
82	0xbd282db0	-0.041059196
83	0xbd535be9	-0.051601324
84	0x3c97d43c	0.018533818
85	0xbdb3894a	-0.0876642
86	0x3ce31506	0.027719986
87	0x3e4372e9	0.19086803
88	0x3d1fd16b	0.039018076
89	0xbcb2939f	-0.021798907
90	0xbe38bb75	-0.18040259
91	0x3c107b82	0.008818509
92	0x3cc46903	0.023975855
93	0xbc413501	-0.011792422
94	0xbcfa3d76	-0.030546885
95	0xbde60f17	-0.11233347
96	0x3e096e9d	0.13421102
97	0xbe17ee84	-0.1483708
98	0xbdd2ae54	-0.10287157
99	0xbdb11e04	-0.08648303
100	0x3d795c1b	0.060878854
101	0x3dec2918	0.115312755
102	0xbd87c594	-0.06629482
103	0xbd82bed1	-0.063840516
104	0xbcf92586	-0.0304134
105	0x3ccbe619	0.024889993
106	0x3d6fd64e	0.058553986
107	0x3e07611b	0.13220637
108	0xbd4167f9	-0.047218297
109	0xbe0171f5	-0.12641127
110	0x3cba53f5	0.022745112
111	0x3bd08212	0.006363162
112	0xbdb89175	-0.09012119
113	0xbda60ecf	-0.08108293
114	0x3d8f40b0	0.0699476
115	0xbde5afb3	-0.112151526
116	0x3daa4eed	0.08315835
117	0x3e0ecbeb	0.13944976
118	0x3d25640a	0.040378608
119	0xbdd96778	-0.10615438
120	0x3d08a40c	0.033359572
121	0x3e3802ec	0.17969865
122	0x3d39c8b1	0.04535741
123	0xbab8672a	-0.0014068831
124	0x3c762d8c	0.015025508
125	0xbda3f0fa	-0.08004947
126	0xbb716aa7	-0.0036837251
127	0xbd620e90	-0.05518967
128	0xbd1ae221	-0.03781331
129	0xbcbf1e3d	-0.023329848
130	0x3d25329d	0.04033147
131	0x3d86aa1f	0.06575417
132	0x3d23152a	0.039815105
133	0xbe028862	-0.12747338
134	0xbdd102e2	-0.10205628
135	0xbd55c291	-0.052187506
136	0x3d8c0a4f	0.06837904
137	0x3dcb220e	0.09918605
138	0xbd65cd10	-0.056103766
139	0xbdda9783	-0.1067343
140	0x3d98a7fb	0.07453915
141	0xbd5076ef	-0.050894674
142	0x3dad3f54	0.084593445
143	0xbdd60972	-0.1045102
144	0x3d32d651	0.04366142
145	0x3d830bdc	0.06398746
146	0x3d1a5c33	0.037685584
147	0xbda1783a	-0.078842595
148	0x3dd64aa8	0.10463458
149	0xbcab772a	-0.020930845
150	0x3af0cc54	0.0018371441
151	0xbd8cd49c	-0.068764895
152	0x3d69a970	0.057046354
153	0x3cadada0	0.021200955
154	0x3baa06a0	0.005188778
155	0x3dee56e8	0.1163767
156	0x3d7132c7	0.058886316
157	0x3d920091	0.07129014
158	0x3dc699e3	0.0969732
159	0x3dde902a	0.10867341
160	0x3d6701c7	0.05639818
161	0xbde0e28a	-0.10980709
162	0x3dabd536	0.08390276
163	0xbd90d849	-0.07072503
164	0xbd9844e8	-0.07435018
165	0xbceef034	-0.029167272
166	0xbda60eb1	-0.08108271
167	0xbd950880	-0.07277012
168	0xbd96b520	-0.073587656
169	0xbde8137a	-0.1133184
170	0xbd04c1cb	-0.032411378
171	0x3d389014	0.04505928
172	0x3d272c06	0.04081347
173	0x3da3d8f7	0.08000367
174	0x3d45f4e4	0.04832925
175	0x3d0007d2	0.031257458
176	0xbddf4d3b	-0.109034024
177	0x3d2c01b4	0.04199381
178	0x3db16316	0.08661477
179	0x3d59043f	0.052982565
180	0x3dab04d6	0.08350532
181	0xbe027c12	-0.12742642
182	0x3ba1251a	0.004917753
183	0xbd05cde2	-0.03266705
184	0x3d7c4df3	0.061597776
185	0x3d6ed75b	0.058310848
186	0x3d12d51b	0.035847764
187	0xbd46a7af	-0.04849976
188	0x3df94ca5	0.12172822
189	0x3ad55804	0.0016276841
190	0x3d4f52c0	0.050616026
191	0xbcb0a7d3	-0.0215644
192	0xbd44deec	-0.048064157
193	0xbd547192	-0.05186612
194	0x3cb3f6a6	0.021968197
195	0xbd4e82f8	-0.05041787
196	0xbe1038a9	-0.14084114
197	0xbdfbd3d4	-0.122962624
198	0x3d150d6c	0.036389753
199	0x3cbde4c1	0.023180367
200	0x3df789df	0.12086844
201	0xbc835996	-0.016033929
202	0x3d6df34f	0.058093365
203	0xbcab8380	-0.020936728
204	0x3c3fcd91	0.011706726
205	0x3d93270b	0.07185181
206	0x3de5594a	0.11198671
207	0xbcb14e38	-0.021643743
208	0xbd9996c4	-0.074994594
209	0x3d1752e5	0.03694429
210	0x3cea0e24	0.028571196
211	0xbd2fbc50	-0.0429042
212	0xbdf539c0	-0.119739056
213	0x3d88903b	0.06668135
214	0xba24fd87	-0.0006293882
215	0xbe20ee87	-0.15715991
216	0xbdbe03ca	-0.092780665
217	0xbc7229c7	-0.014780468
218	0x3db16906	0.0866261
219	0x3d527f9a	0.05139122
220	0xbdf0d852	-0.1176001
221	0x3cce4dfd	0.025183672
222	0x3d027be2	0.031856425
223	0x3da62c1c	0.08113882
224	0x3d9c0b3d	0.07619331
225	0x3d2e0805	0.042488117
226	0xbd818b48	-0.06325394
227	0x3cc3726f	0.023858277
228	0xbd2077f5	-0.0391769
229	0x3dd3f6a8	0.1034978
230	0xbc65b028	-0.01401905
231	0x3e0aa31a	0.13538781
232	0x3bb30e63	0.0054643615
233	0xbe10d962	-0.14145425
234	0xbdea665f	-0.11445307
235	0xbe040c0f	-0.12895225
236	0x3e1244f3	0.14284115
237	0x3bddec7c	0.006772576
238	0x3e2e83c8	0.17042458
239	0xbdc788d0	-0.09742892
240	0xbdd2112b	-0.10257181
241	0x3dd67b4e	0.10472737
242	0x3d256f0f	0.040389117
243	0xbc10f355	-0.008847077
244	0xbd93cca1	-0.07216764
245	0x3d847a0f	0.06468593
246	0x3c6d44d5	0.014481743
247	0xbd5ba34f	-0.05362254
248	0x3d6dd916	0.058068357
249	0x3da76058	0.08172673
250	0xbdc6106e	-0.096711025
251	0xbcb3735a	-0.02190559
252	0xbd683371	-0.056689683
253	0x3e12fa16	0.14353213
254	0x3bd9ab9a	0.006642771
255	0x3d810b9b	0.06301042

cells.1.x2h.bias f4 [256]
0	0x3db8504b	0.0899969
1	0xbd916538	-0.07099384
2	0xbd16b617	-0.03679475
3	0xbdd407d0	-0.103530526
4	0xbc9ef42a	-0.019403536
5	0xbdcf4b0a	-0.101217344
6	0xbd6ea13b	-0.05825923
7	0x3df05c8d	0.11736403
8	0xbd71130c	-0.058856055
9	0x3d0c39ba	0.03423474
10	0x3d863518	0.065530956
11	0x3df0d04e	0.11758481
12	0x3cab91e1	0.020943584
13	0x3d828a05	0.063739814
14	0x3dd565e4	0.10419825
15	0xbd0bc5a0	-0.034124017
16	0xbdd9da06	-0.10637288
17	0xbd8ca6ab	-0.06867727
18	0x3c2bc776	0.010484567
19	0x3c973911	0.018459829
20	0x3bed932f	0.0072502117
21	0xbc288002	-0.010284426
22	0xbd887bcd	-0.06664238
23	0x3d6b4f62	0.057448752
24	0xbc9707c1	-0.018436315
25	0x3db95b46	0.09050612
26	0x3dc9fae9	0.098623104
27	0xbdec2041	-0.115295894
28	0x3b9d727f	0.0048049088
29	0xbdd1dbc4	-0.10246995
30	0x3ddbd329	0.10733635
31	0xbd786b6e	-0.060649328
32	0x3e259ec6	0.16173849
33	0x3da78a5f	0.08180689
34	0x3d4acedf	0.049513694
35	0xbdb9115b	-0.090365134
36	0xbe032ab1	-0.12809254
37	0xbbbb772f	-0.005720995
38	0x3d09ade8	0.033613116
39	0x3dc85694	0.097821385
40	0xbac40891	-0.0014956166
41	0xbaacd2bb	-0.0013185361
42	0x3cb9218a	0.022599
43	0xbd466bfb	-0.048442822
44	0xbdd07eb8	-0.1018042
45	0x3dee0e53	0.11623826
46	0xbdc97fb8	-0.098388135
47	0x3c19a4db	0.0093776835
48	0xbc9475ce	-0.01812258
49	0x3d6d464e	0.057928376
50	0x3d80d852	0.0629126
51	0x3e0ed99f	0.13950203
52	0x3d88e345	0.06683973
53	0x3ca46d9d	0.020071799
54	0x3dadd305	0.084875144
55	0x3d4a5f45	0.049407262
56	0xbd31e461	-0.04343069
57	0x3dc8ee02	0.098110214
58	0x3d9ebbbd	0.07750652
59	0x3ddbf699	0.10740394
60	0xbc12408e	-0.008926524
61	0xbda6f28c	-0.08151731
62	0x3de9a8b4	0.11409131
63	0x3df0fc9d	0.11766932
64	0xbd06089d	-0.032723058
65	0x3d400805	0.046882648
66	0x3dc15f76	0.09442036
67	0x3d28a187	0.04116967
68	0x3b6cbb11	0.0036122242
69	0x3d2088db	0.039193016
70	0x3d7a1f9e	0.06106531
71	0x3d39d091	0.04536492
72	0x3d870f11	0.065946706
73	0xbda57803	-0.08079531
74	0xbdc3de6d	-0.09563909
75	0x3c451287	0.012028343
76	0xbcd8b853	-0.02645508
77	0xbdb0f348	-0.08640152
78	0x3e005243	0.1253138
79	0x3d35246f	0.0442242
80	0x3de16f3e	0.11007546
81	0x3e06c72f	0.1316192
82	0xbdc5758b	-0.0964156
83	0x3ba2453b	0.0049521006
84	0xbcded793	-0.027202403
85	0x3d9bb2ad	0.07602439
86	0xbd865819	-0.06559772
87	0x3d29dcba	0.041470267
88	0x3dd9d669	0.106365986
89	0xbd8915e1	-0.06693626
90	0x3d30b43a	0.043140627
91	0xbd28e0c2	-0.04122997
92	0x3dbecc10	0.093162656
93	0x3dd1203e	0.10211228
94	0x3cbbd6ba	0.022929538
95	0x3ddfe94e	0.10933171
96	0xbc5d55e7	-0.01350925
97	0x3dce0d09	0.1006108
98	0x3de44c4c	0.11147365
99	0xbd75a0a5	-0.059967656
100	0x3d2fd880	0.04293108
101	0xbcd06e66	-0.025443267
102	0xbd94679a	-0.07246323
103	0x3d981272	0.07425393
104	0xbd2721e0	-0.04080379
105	0xb8b5a7ce	-8.6620086e-05
106	0xbb272dda	-0.0025509507
107	0x3d533c1c	0.051570997
108	0xbd11791d	-0.035515893
109	0x3d8bb86b	0.06822284
110	0x3b50d754	0.0031866627
111	0x3d83526b	0.06412204
112	0xbd0d9ecc	-0.03457527
113	0x3d95bbdb	0.07311221
114	0x3db01f79	0.08599753
115	0xbda069d1	-0.07832683
116	0x3bfd7df6	0.007735963
117	0xbdaaf6ee	-0.08347879
118	0x3de70f93	0.112822674
119	0xbd350e85	-0.0442033
120	0x3c853feb	0.01626583
121	0x3dd25b20	0.10271287
122	0xbdd334e6	-0.10312824
123	0x3d4ec26a	0.050478376
124	0x3c08f02b	0.008358042
125	0xbd8de44d	-0.069283105
126	0x3e05f0b8	0.13080108
127	0x3d5a705a	0.053329803
128	0xbdadf612	-0.084942
129	0xbd650bcd	-0.055919457
130	0x3deccf9c	0.11563036
131	0x3d0ae72a	0.03391186
132	0xbdacdcb7	-0.084405355
133	0x3db65802	0.08903505
134	0xbca1c209	-0.019745843
135	0xbc5c0ef0	-0.013431296
136	0x3c1bccae	0.009509249
137	0xbd5a5df8	-0.05331227
138	0xbd5e0e8d	-0.054213095
139	0xbdbacb9a	-0.09120865
140	0xbe033cda	-0.12816182
141	0xbd6e0755	-0.05811246
142	0x3cc9954c	0.024607323
143	0x3cc207c6	0.023685347
144	0x3da5a87a	0.08088775
145	0x3d4dcdbe	0.05024504
146	0xb9c57679	-0.00037663037
147	0x3c7c02fb	0.01538157
148	0x3def058d	0.116709806
149	0xbdcea0c8	-0.1008926
150	0xbd917442	-0.071022525
151	0x3e027540	0.1274004
152	0xbd9499dc	-0.07255909
153	0xbe001906	-0.12509546
154	0xbb51e47f	-0.0032027063
155	0xbd9774c8	-0.07395321
156	0xbd1e273a	-0.038611628
157	0xbdc45a54	-0.09587541
158	0x3dac0aa8	0.0840047
159	0xbdc05c07	-0.09392553
160	0xbc83234f	-0.016008047
161	0xbd9a8fe0	-0.07546973
162	0x3cf16224	0.029465742
163	0x3d91cd5a	0.07119246
164	0xbd318d10	-0.04334742
165	0x3c1f15f6	0.009709826
166	0xbda47610	-0.08030331
167	0x3b6c46cb	0.0036052938
168	0xbdbde750	-0.09272635
169	0x3d5ea37d	0.054355133
170	0xbd2b04e2	-0.041752703
171	0xbe06f845	-0.13180645
172	0xbd779774	-0.06044717
173	0x3dfa39fa	0.122180894
174	0xbdc9d7c1	-0.09855605
175	0xbd83e0a7	-0.064393334
176	0xbdd0e42d	-0.10199771
177	0x3c186491	0.009301321
178	0xbdb7275e	-0.089430556
179	0x3d281720	0.04103768
180	0xbd77904e	-0.060440354
181	0xbdbc2592	-0.091868535
182	0x3db9a703	0.09065058
183	0xbd5b8bcd	-0.05360012
184	0xbc713823	-0.014722857
185	0x3ddd1d08	0.10796553
186	0xbb577571	-0.0032876397
187	0x3d67582c	0.05648057
188	0xbdb762f3	-0.0895442
189	0x3da09ab9	0.07842011
190	0xbc8db5c9	-0.017298596
191	0x3d542045	0.051788587
192	0x3e09ba70	0.13450027
193	0x3cc96f32	0.024589155
194	0xbdac8ba9	-0.084250756
195	0xbb333216	-0.0027343086
196	0x3cff3b49	0.031156199
197	0xbd25719c	-0.04039155
198	0x3d042400	0.032260895
199	0xbc8b887a	-0.01703285
200	0x3bdada61	0.006678865
201	0xbdb5b8e3	-0.08873155
202	0x3e03bdae	0.12865326
203	0xbd902e9d	-0.07040141
204	0xbdba4ae1	-0.09096313
205	0xbbc11e8f	-0.0058935354
206	0x3d0bd5c0	0.034139395
207	0xbdb5c502	-0.08875467
208	0xbdbdedcf	-0.09273874
209	0x3df49847	0.11943107
210	0x3bee7d32	0.007278108
211	0xbd12225a	-0.03567729
212	0xbd453508	-0.048146278
213	0x3da3d85a	0.0800025
214	0xbdd378f9	-0.10325808
215	0xbd498bdf	-0.049205657
216	0x3e0ba7c7	0.1363822
217	0xbd3fec02	-0.046855934
218	0x3df0eba5	0.117636956
219	0x3c8cb114	0.017174281
220	0xbd6c6551	-0.05771381
221	0xbcc6d8cc	-0.024273299
222	0xbd16ddde	-0.036832683
223	0x3c2fc7cb	0.010728787
224	0x3e053097	0.13006817
225	0x3dfe1582	0.12406446
226	0x3d7c81b6	0.06164714
227	0xbd7d85e2	-0.06189526
228	0x3d41df81	0.04733229
229	0x3d71f2b1	0.05906934
230	0x3c5ce118	0.013481401
231	0x3d800cd5	0.062524475
232	0xbdd23fd1	-0.10266078
233	0xbce41216	-0.027840655
234	0xbd4f76d3	-0.05065043
235	0x3d4e610d	0.050385524
236	0x3dc282c0	0.09497595
237	0xbcd86a3e	-0.026417848
238	0xbc39bb7b	-0.011336203
239	0x3dc9ebb1	0.09859408
240	0x3d1937e5	0.03740682
241	0xbd1d18ce	-0.038353734
242	0x3bc0540d	0.0058693946
243	0x3d780a51	0.060556713
244	0xbd4b24e7	-0.04959574
245	0xbde8db58	-0.113699615
246	0xbce1463f	-0.027499316
247	0xbda9bd1f	-0.08288025
248	0x3d8e64c1	0.06952811
249	0x3e0871f3	0.13324718
250	0x3c566c93	0.01308741
251	0x3dd26097	0.10272329
252	0x3dded06d	0.10879598
253	0xbd0bb32e	-0.034106426
254	0x3d828d6f	0.063746326
255	0x3ddb705d	0.10714791

cells.1.h2h.weight f4 [256, 64]
0	0xbcaba5c5	-0.020953069
1	0xbd9f1ce3	-0.077691816
2	0x3cc794d1	0.024362953
3	0xbd2e6f41	-0.04258657
4	0xbd6d35b5	-0.057912547
5	0xbc9e4bc3	-0.019323235
6	0xbe0cb261	-0.13739921
7	0xbdd59475	-0.104287066
8	0xbdd74263	-0.10510709
9	0x3d06f17d	0.032945145
10	0x3dd1df59	0.10247678
11	0x3e112d59	0.14177455
12	0xbddca534	-0.107736975
13	0x3d554504	0.05206777
14	0x3db4d6c8	0.08830029
15	0x3de4339c	0.11142656
16	0xbdbca387	-0.09210878
17	0xbdb0cfbc	-0.08633372
18	0x3e023616	0.12715945
19	0xbc819101	-0.015816214
20	0x3d67c9d9	0.05658898
21	0xbd67d352	-0.056598015
22	0xbdc4e282	-0.096135154
23	0x3df79b49	0.12090165
24	0xbe0aabc1	-0.13542081
25	0xbd59d256	-0.053179108
26	0x3deb39cc	0.11485633
27	0x3d3d0d1b	0.046155076
28	0x3c18af63	0.009319159
29	0xbe0f1789	-0.13973822
30	0x3dce949e	0.1008694
31	0x3e12357a	0.14278212
32	0x3dea0e26	0.1142848
33	0x3d83ff84	0.0644522
34	0xbd35c75d	-0.04437958
35	0x3d1c6c83	0.038189422
36	0x3d9e49c3	0.07728913
37	0x3ddea74c	0.10871753
38	0x3c4216de	0.011846272
39	0xbd8aa89a	-0.067704394
40	0x3d9fafad	0.07797179
41	0x3d2a430d	0.04156785
42	0x3dbc005b	0.09179755
43	0x3d5b0b50	0.053477585
44	0xbdb3e51d	-0.08783934
45	0x3de90779	0.113783784
46	0xbb29babf	-0.0025898663
47	0x3d8b5e32	0.06805076
48	0xbce5ad57	-0.028036756
49	0x3dc3d5c5	0.09562258
50	0x3c6e46f3	0.014543283
51	0x3cc658e8	0.024212316
52	0x3d6d2972	0.057900853
53	0x3dc4f6ed	0.0961741
54	0xbe11acc0	-0.14226055
55	0xbd46041c	-0.048343763
56	0x3c790765	0.015199517
57	0xbdb0efb6	-0.08639471
58	0x3d576644	0.052587762
59	0x3d2389e4	0.039926425
60	0x3d25578e	0.0403667
61	0xbd9e1bf2	-0.07720174
62	0x3d6babb5	0.0575368
63	0x3c1879d2	0.009306388
64	0xbdc0be82	-0.094113365
65	0xbc4c8799	-0.012483501
66	0x3dd56973	0.104205035
67	0x3cc482db	0.023988178
68	0xbdb11474	-0.08646479
69	0xbd871080	-0.06594944
70	0x3c71be0b	0.014754782
71	0x3d27efa8	0.04100004
72	0x3cd4a9fb	0.02595996
73	0xbda37e89	-0.07983119
74	0x3e25425a	0.16138592
75	0xbdac80f0	-0.084230304
76	0xbde7936e	-0.11307417
77	0xbe17cdff	-0.14824675
78	0xbe086133	-0.13318329
79	0xbd48bb06	-0.049006484
80	0xbce0c33c	-0.027436845
81	0xbd818b98	-0.063254535
82	0xbe124c72	-0.14286974
83	0x3d8a357b	0.06748482
84	0xbdbd7bd4	-0.09252134
85	0xbc2b0161	-0.0104373405
86	0xbd349344	-0.044085756
87	0x3d8b1ecd	0.06792984
88	0x3cfb5ffb	0.030685415
89	0x3dc73073	0.09726038
90	0x3d8728f2	0.065996066
91	0xbda552cc	-0.08072433
92	0xbd9cb2e5	-0.07651309
93	0x3cfcb3c2	0.030847434
94	0x3d89633e	0.06708382
95	0xbced23e9	-0.028947787
96	0xbd081429	-0.03322235
97	0xbe63709a	-0.22210923
98	0x3d45d722	0.04830087
99	0xbe17fdeb	-0.14842956
100	0x3afd990e	0.0019347982
101	0x3d47c221	0.04876912
102	0xbdaa83ac	-0.08325896
103	0x3dce456f	0.10071837
104	0xbc266424	-0.010155711
105	0xbd76fdd3	-0.06030066
106	0xbd74f461	-0.05980337
107	0x3be24791	0.006905504
108	0xbddb142f	-0.10697209
109	0x3d12a932	0.03580589
110	0x3da342ce	0.07971726
111	0xbdba8c7e	-0.09108828
112	0xbb075ddd	-0.0020655312
113	0x3d36350e	0.04448419
114	0xbd934f05	-0.07192806
115	0xbe2b7509	-0.16743864
116	0xbdb653a4	-0.08902672
117	0x3dadc793	0.084853314
118	0xbd6a1a70	-0.05715412
119	0xbe0bad96	-0.13640437
120	0xbcf39d97	-0.02973823
121	0xbd95494c	-0.07289371
122	0xbda43108	-0.080171645
123	0xbced6d9d	-0.028982932
124	0xbdeaa868	-0.11457902
125	0x3dedf85b	0.11619636
126	0x3cc13d2e	0.023588743
127	0x3ce0c1c7	0.02743615
128	0x3d6b70cc	0.05748062
129	0xbd2bc651	-0.041937176
130	0x3d2f23fd	0.04275893
131	0x3d26d4b9	0.040730212
132	0xbd47649f	-0.048679944
133	0xbe01d9d0	-0.12680745
134	0x3d313624	0.043264523
135	0xbdf8f94f	-0.12156927
136	0x3d9674b8	0.07346481
137	0x3d88e54d	0.06684361
138	0xbd6060c3	-0.05477978
139	0xbdef7fb2	-0.11694278
140	0xbd7fb928	-0.062432438
141	0xbda17a81	-0.07884694
142	0xbce0a099	-0.027420329
143	0xbbc89bcb	-0.0061220876
144	0xbdf8e8b5	-0.1215376
145	0xbd862460	-0.06549907
146	0x3cfa3324	0.030541964
147	0x3cedd5e6	0.029032659
148	0x3dabf43e	0.08396195
149	0x3d702b2d	0.058634926
150	0xbcfca0c3	-0.030838376
151	0x3c1683ac	0.009186666
152	0x3c02553d	0.007954893
153	0x3d93c691	0.07215608
154	0x3da7a3b3	0.0818552
155	0xbda9c3b1	-0.08289278
156	0xbddfa44d	-0.1092001
157	0xbb4d86db	-0.0031360898
158	0xbdf5e912	-0.12007345
159	0xbd9f0be6	-0.07765941
160	0x3e014ac3	0.12626176
161	0x3d93ac8c	0.07210645
162	0x3db43111	0.08798421
163	0xbdbe9245	-0.093052424
164	0x3e0dcf73	0.13848667
165	0x3bf09c4a	0.00734285
166	0x3d8fc670	0.07020271
167	0x3db2bec3	0.08727791
168	0xbda2f07d	-0.07956026
169	0x3d7f48b0	0.06232518
170	0x3d844bec	0.064597934
171	0x3d3528c1	0.04422832
172	0x3dd1c488	0.102425635
173	0x3d73f830	0.059562862
174	0xbce574ff	-0.02800989
175	0xbd3c7507	-0.046010043
176	0xbd9c839d	-0.07642291
177	0x3ca6f953	0.020382559
178	0x3ce9a672	0.02852175
179	0xbd9e696e	-0.07734953
180	0xbd97ee4d	-0.07418499
181	0xbda4f58a	-0.08054645
182	0xbd75f7ea	-0.060050882
183	0x3d9207cb	0.07130393
184	0x3d13d938	0.036095828
185	0x3cebf5ba	0.028803695
186	0x3dc15eba	0.09441896
187	0xbcad74b6	-0.021173816
188	0xbcb24897	-0.02176313
189	0x3cdfd833	0.027324772
190	0x3c2da4f3	0.010598409
191	0x3d10425b	0.03521953
192	0xbe124278	-0.14283168
193	0x3cafd752	0.021464977
194	0x3d91712e	0.071016654
195	0xbdcc5b4f	-0.09978353
196	0xbdc1378e	-0.09434424
197	0xbcb20e8f	-0.021735458
198	0x3d45551f	0.04817688
199	0xbda511db	-0.08060046
200	0xbd1d940d	-0.03847127
201	0x3dba9a79	0.091114946
202	0x3d0dd1fc	0.034624085
203	0x3d8d70b1	0.0690626
204	0x3d411649	0.047140393
205	0x3d72d0ac	0.059281036
206	0x3e170efd	0.14751811
207	0x3d4ccd9b	0.05000077
208	0xbcfe3e22	-0.031035487
209	0xbcc3d32b	-0.023904404
210	0xbbd707db	-0.0065622157
211	0x3ce38ef3	0.027778124
212	0xbcc6c0e1	-0.024261894
213	0x3d1565ab	0.03647391
214	0x3d947ade	0.072499976
215	0xbd1f1cd2	-0.038845845
216	0xbdfd4e12	-0.12368406
217	0xbdbb9973	-0.091601275
218	0x3e079a84	0.13242537
219	0xbd9efc72	-0.07762994
220	0xbd902715	-0.07038704
221	0x3d0aacbe	0.033856146
222	0xbda395ad	-0.07987533
223	0x3dd64918	0.1046316
224	0x3e28de55	0.16491063
225	0x3d1a9f07	0.037749317
226	0x3ca149d9	0.019688534
227	0x3d9ec5ed	0.07752595
228	0xbe080149	-0.1328174
229	0xbdbf05cd	-0.09327278
230	0x3ce6fbd2	0.02819625
231	0x3dab6b6a	0.08370097
232	0xbd0461f9	-0.032319997
233	0xbdaa5e6b	-0.0831879
234	0xbe019c74	-0.12657338
235	0x3d4f361e	0.05058872
236	0x3dae0da9	0.08498699
237	0x3d96b07a	0.07357879
238	0xbcd39f38	-0.025832757
239	0x3dc540fa	0.09631534
240	0x3d2881bb	0.041139346
241	0xbd101d95	-0.03518446
242	0xbe1bcb99	-0.15214385
243	0x3d9472b0	0.072484374
244	0x3d79de89	0.06100324
245	0xbbcf74e7	-0.0063310745
246	0xbe0d8974	-0.13821965
247	0xbc78d0d5	-0.015186508
248	0xbcbc589e	-0.022991475
249	0xbd491fc8	-0.049102575
250	0x3dc6a832	0.097000495
251	0x3cd57f39	0.026061641
252	0x3dab3e25	0.083614625
253	0xbdcaf5ce	-0.09910165
254	0xbd395f61	-0.045256976
255	0xbbbd4cc6	-0.0057769744
