model_group/models_group_all/LSTM_model_BRONX_PELHAM BRIDGE.pth (torch, 358554 bytes, 17 tensors)

input_projection.weight f4 [9, 9]
000000 81 5e 6c be a9 70 12 3d 9d e7 b5 be d1 b6 e8 bc
       -0.23082925 0.035751972 -0.3552827 -0.028407486
000010 a4 6a 60 3e 57 a8 cc 3d 86 e3 29 3e 5f d3 8d 3e
       0.2191568 0.09993046 0.165907 0.27700326
000020 16 8f 84 3e c8 ed b0 3d 18 b9 04 3e 54 0c 34 be
       0.25890416 0.08639103 0.12961233 -0.17582828
000030 06 2c 3f bd 10 e3 60 be 87 4d 0d be 71 1d 62 3e
       -0.046672843 -0.21961617 -0.13799106 0.22081544
000040 19 b3 54 3e c6 30 1e 3e 0f de bd be 00 56 97 be
       0.20771445 0.15448293 -0.3708348 -0.295578
000050 f6 5d 45 3e 38 f2 59 be 5e 28 2c be 85 1f 42 be
       0.19274125 -0.21283805 -0.16812274 -0.18957336
000060 d2 7c 2e 3e 43 51 68 3e 56 9d d1 bb 05 61 d7 be
       0.17039803 0.22687249 -0.0063969297 -0.42066208
000070 ab ee 08 3e 3d 45 a6 3c bf 22 06 be 53 02 34 be
       0.13372295 0.020296687 -0.13099192 -0.17579012
000080 ea 07 07 be fd 3c 36 3e 7c a1 53 be 67 e4 9f 3e
       -0.13186613 0.17796703 -0.2066707 0.31228945
000090 31 e5 6e 3e 00 f0 59 be 32 95 95 3e ad cb 2a bd
       0.23329617 -0.21282959 0.2921539 -0.041698147
0000a0 ed 17 3e bd 19 30 84 be bc 59 b8 3c b9 08 1d 3e
       -0.046409536 -0.25817946 0.022503726 0.15335359
0000b0 eb d4 e9 3d a5 db ce 3e 3d 15 c3 bd 93 af 8b 3e
       0.11417564 0.4040195 -0.09525535 0.2728239
0000c0 c3 54 ad be 54 5a 9e 3e b8 cb 98 3e 3a dc a9 3d
       -0.3385373 0.3092829 0.29842925 0.08293958
0000d0 43 15 d9 bc d3 31 5e 3e 13 26 18 be d7 5d b5 3d
       -0.026499396 0.21698694 -0.14858274 0.08855789
0000e0 e4 c1 cd 3b e4 bb 7d 3e 6c c6 8a 3e bb 2d ab 3e
       0.006279217 0.24778706 0.2710451 0.33433327
0000f0 ad 0a 01 3e d5 4b 17 bd ab 06 b3 bd 96 4c 27 be
       0.12601729 -0.036937553 -0.08741506 -0.16337809
000100 bc f3 81 3e 53 1d b1 be 20 28 49 3e 76 7d 78 3b
       0.25381267 -0.34592685 0.19644213 0.0037916577
000110 bd 38 6c 3e 00 72 04 bd 33 de 94 3e d6 3b 2c 3c
       0.23068519 -0.03233528 0.29075775 0.010512313
000120 11 92 35 3e 4e 1a 55 3e 08 0f 92 be ba 6e a1 bd
       0.17731501 0.20810816 -0.28527093 -0.078824475
000130 b2 1e 07 3e 7b ae 85 bd 78 15 c0 3d 77 e9 2c be
       0.13195303 -0.0652742 0.09379095 -0.16885935
000140 d6 c2 49 bd
       -0.049258076

input_projection.bias f4 [9]
000000 1a ed 82 3e 03 66 19 be e6 f3 51 be 50 a2 8f 3e
       0.2557152 -0.1498032 -0.20503196 0.28053522
000010 23 84 6f bd 38 3e 96 3e 96 9d 62 3d b0 5d 98 3e
       -0.058475625 0.29344344 0.055326067 0.29758978
000020 db 93 83 be
       -0.25698742

cells.0.x2h.weight f4 [256, 9]
000000 4c f8 ad bd 7f ee 99 be d8 ab f1 3d 93 27 98 3e
       -0.084946245 -0.3006477 0.11800355 0.29717693
000010 3d 83 11 3e a0 90 12 be 60 9b 79 3c 03 d1 31 bd
       0.1421022 -0.14312983 0.015234798 -0.04341222
000020 67 11 9b be 32 5d 86 be 2c f1 88 bd 13 88 13 3e
       -0.30286714 -0.26242977 -0.06686625 0.14407377
000030 1b 52 08 3d 6f 56 eb ba 74 24 a4 be f6 72 bb 3d
       0.033281427 -0.0017954836 -0.32059062 0.091527864
000040 c4 84 8b bd 93 9f bf 3c 19 fd b7 3d 8b f8 f5 bd
       -0.068124324 0.02339152 0.089838214 -0.120102964
000050 4c 62 b9 3c be 60 de bc 87 c4 5a bc a3 83 af be
       0.02262988 -0.02714574 -0.01335252 -0.34280118
000060 87 df 32 3d 76 73 9c bd 59 32 d7 be 54 d9 7c 3e
       0.043670204 -0.0763921 -0.420306 0.24692279
000070 d0 60 59 be 6b 3b 87 3d 4d d7 36 3e cd d0 72 be
       -0.21228337 0.0660313 0.17855568 -0.23712464
000080 63 2a 51 3e 0c b1 c4 bd 90 36 75 be 15 d5 58 be
       0.20426326 -0.096040815 -0.23946595 -0.21175034
000090 3e 29 64 3e b8 e1 80 3e 5a da 6a be 83 48 03 3d
       0.22281358 0.2517221 -0.22934857 0.032051574
0000a0 58 f6 0d 3e ee 7a a1 be d8 16 71 be 54 88 e5 3d
       0.13863504 -0.315391 -0.2354387 0.11207643
0000b0 c4 d8 b3 be 23 f2 aa bc ae fe 1e be 95 40 88 3e
       -0.35126317 -0.020867413 -0.1552684 0.26611772
0000c0 72 52 00 3e 05 0b 81 be 11 38 56 3e 2c f9 c4 bd
       0.1253145 -0.2520372 0.20919825 -0.09617838
0000d0 c9 1c 8f bc d0 ff 91 bd 41 e5 15 be b1 a5 ed bd
       -0.01746978 -0.071288705 -0.14638235 -0.11603869
0000e0 35 76 df 3c cb 25 98 bc 79 63 3a bc d8 9a 51 be
       0.027278045 -0.018572709 -0.011376255 -0.20469224
0000f0 7a d4 97 3d d6 6d 94 be c2 51 ce be 25 9f 2a be
       0.074135736 -0.28990048 -0.4029675 -0.16662271
000100 48 ae 3f 3b 34 b5 09 be f3 f8 2d be e6 c3 4a be
       0.0029248167 -0.1344803 -0.16989498 -0.19801292
000110 7e b1 8d 3e af 49 97 be 0f 61 ff bd 2c 21 81 be
       0.27674478 -0.29548404 -0.12469684 -0.2522062
000120 50 de e8 bc e3 48 9a be ad da 1a be c9 ea 4c 3e
       -0.02842632 -0.30133733 -0.1512248 0.20011438
000130 8b 0f 44 3e b0 d0 8b 3e 89 4b 18 3e 00 b9 a4 3e
       0.19146554 0.27307653 0.14872564 0.32172394
000140 75 5e 2d be 46 c3 33 3e 66 ba 4d 3d 52 07 93 bd
       -0.16930564 0.1755496 0.05022659 -0.071791306
000150 ac 56 7d be 01 cb 0a be 3e 83 af bd d8 b7 9b 3e
       -0.24740094 -0.13554002 -0.08569954 0.304137
000160 ff c3 ef bd 24 21 36 be b0 de 74 be 91 ce 06 be
       -0.11707305 -0.1778608 -0.23913074 -0.13164736
000170 e8 aa 91 be 1b 9a 32 bd fe 2e c5 bd 74 88 4c be
       -0.28450704 -0.043603998 -0.09628104 -0.19973928
000180 83 11 28 be 50 75 8a be 81 9d 26 be f4 04 ab be
       -0.1641293 -0.27042627 -0.1627102 -0.33402216
000190 96 5d bb be 7b ec 47 be 21 d1 77 be 05 ff 50 be
       -0.36594838 -0.19523804 -0.2420087 -0.20409782
0001a0 9f f5 48 bd 43 34 31 be 10 7f cc 3d 59 1b 47 3e
       -0.049062368 -0.17305093 0.09985173 0.19444026
0001b0 db 42 3c 3e e6 3d 94 be 04 5e 56 3d d7 c5 c1 be
       0.18384878 -0.28953475 0.052335754 -0.37846252
0001c0 3a 30 98 bd ab 1c 67 3c 10 c0 d0 3c 85 35 01 be
       -0.074310735 0.014105956 0.025482208 -0.12618072
0001d0 94 43 4f be 10 26 14 3e b3 97 f1 bd d9 5f c8 3e
       -0.20240623 0.14467645 -0.117965125 0.39135626
0001e0 5a 19 0a 3e a7 d5 83 be 14 0c 44 3e ab 85 6e 3e
       0.13486233 -0.2574894 0.19145232 0.23293178
0001f0 ee 51 8d 3e 3d a4 48 be 3a 34 9a 3e fa 4c c3 be
       0.2760157 -0.19593902 0.3011797 -0.38144666
000200 09 f4 0e bd 3a 7d 64 3d e5 a9 c9 bd 95 86 98 be
       -0.0349007 0.055783488 -0.09846858 -0.29790178
000210 13 ce b4 3e 07 bc ea 3d 01 f8 81 be ce 15 5a be
       0.35313472 0.114616446 -0.25384524 -0.2129738
000220 81 45 60 3e c1 f4 e7 3d 66 7f d6 3e 89 8e 60 bc
       0.21901514 0.1132598 0.41894072 -0.013705858
000230 b9 f2 ad be cb 2b 1c 3e 4a 16 6b 3d da e8 91 3d
       -0.33974245 0.1525108 0.057394303 0.07124491
000240 7c 1c 93 3e 99 0c 53 be 37 ba 76 bd 91 e8 e8 3d
       0.2873267 -0.20610274 -0.060236182 0.113724835
000250 bd 28 86 3e d6 80 9e be eb b2 88 3d e8 01 54 be
       0.26202956 -0.3095767 0.06674751 -0.20703852
000260 4f ae 92 3e 60 da 7c 3e 90 e6 c2 be a4 65 66 be
       0.28648612 0.24692678 -0.3806653 -0.2249971
000270 37 9a 56 be c1 af 71 3e eb c6 59 3e 00 3d 84 3e
       -0.20957266 0.23602201 0.21267287 0.2582779
000280 34 a3 2d 3e 30 9f d7 bd 07 60 11 3e a3 99 94 bd
       0.16956788 -0.105284095 0.14196788 -0.072558664
000290 fc 91 05 3d 9c 4f d3 3b ca 05 eb 3d 53 c2 89 3e
       0.032609925 0.006448699 0.114757136 0.2690607
0002a0 b5 6c 0a 3e a9 8a 12 bd e3 7b e5 bd 86 10 3f be
       0.13518031 -0.035776768 -0.1120527 -0.18658647
0002b0 a2 a4 c7 bd d4 c6 d5 3d a3 c1 63 bd 14 75 15 be
       -0.09748198 0.10438314 -0.05560459 -0.14595443
0002c0 14 f5 ae be 26 22 a8 bd a2 b9 14 bc a0 87 17 be
       -0.34171355 -0.08209638 -0.009077461 -0.1479783
0002d0 1f 2c bd 3e c6 34 99 be 05 a9 08 bd 16 9d 87 3e
       0.36947724 -0.29923075 -0.033364315 0.26487035
0002e0 8a ff 7e be 41 14 1c be 7a 36 8c be ea 55 36 be
       -0.24902168 -0.15242101 -0.27385312 -0.17806211
0002f0 d9 aa 1e 3d 08 18 d4 bc 58 6a 43 be 10 ed a6 bc
       0.03873715 -0.025890365 -0.19083536 -0.020376712
000300 24 bc b6 3d b1 60 0e 3d 5b 61 42 3e d2 e6 bb bd
       0.08922604 0.03476018 0.1898245 -0.09174885
000310 13 0c 5d be 36 d9 16 be 8a fe 63 3e 39 c1 85 3e
       -0.21586637 -0.14731297 0.22265068 0.2612398
000320 80 9f 56 3d dc 2e 64 3e 53 04 86 be 95 12 63 be
       0.052398205 0.222835 -0.26175174 -0.22175057
000330 a3 94 03 3e c2 0a 1f 3e 08 7b 29 38 97 41 bc be
       0.12849669 0.15531448 4.040732e-05 -0.3676879
000340 dc cf 4c 3d 3c 72 ac 3e d9 d5 62 be 5f 84 53 3e
       0.050002918 0.33680904 -0.22151889 0.20655964
000350 1a c5 c6 3d 6e c9 bc be 16 b5 5b be a7 3f 4d bd
       0.09705563 -0.3687243 -0.21455798 -0.05010953
000360 46 d9 ac 3e ef 58 8c be 35 f4 ce 3e a3 7c df 3e
       0.33759516 -0.274116 0.4042069 0.43649778
000370 d5 f5 77 be 88 72 8d be ed 60 f4 bd 79 cd a5 3e
       -0.24214871 -0.27626443 -0.119325496 0.32383326
000380 e8 44 68 be d2 4b 70 3e d5 51 98 3e e8 c4 52 be
       -0.22682536 0.23466423 0.29749933 -0.20582926
000390 a5 ed 9d be 53 d0 1f be a0 dc 84 3e 96 6e 9e 3e
       -0.3084537 -0.15606813 0.25949574 0.30943745
0003a0 4d c7 78 3e 4d d2 d6 3d 2c c2 6a 3e 5a 3a 4c be
       0.24294777 0.104893304 0.22925633 -0.19944134
0003b0 d5 7c c9 3e dc f7 3d be d9 c9 64 3e 53 fc 94 be
       0.39353052 -0.18551582 0.22342624 -0.29098758
0003c0 6f 59 b0 be b4 d3 a9 be c9 2b 4d 3d 74 fa 77 3d
       -0.34443232 -0.3316933 0.050090585 0.060541585
0003d0 2e 6e 3f 3e 85 a7 c7 bd 76 0d 08 3d 96 90 99 bc
       0.18694374 -0.09748749 0.033215962 -0.018745702
0003e0 fd 65 47 be d2 32 d3 3d 9a 1f 73 3a 96 bc 4f be
       -0.19472499 0.103124276 0.00092744234 -0.20286784
0003f0 b2 a9 19 bd d9 3f 9e 3c d3 27 6b 3e c2 0e 48 be
       -0.03751535 0.019317554 0.2296441 -0.1953688

cells.0.x2h.bias f4 [256]
000000 a9 b7 17 3e 63 3e ae 3c 5b cf 17 be 25 c3 fc 3d
       0.14816155 0.021269983 -0.14825194 0.12341908
000010 1a be d9 3d 68 1a bc bd 71 0d 7a be 54 08 1a 3e
       0.10631962 -0.09184724 -0.2441919 0.1504224
000020 60 94 8b 3d 7b 33 df bd be 07 56 be ca 6a 0f 3e
       0.0681541 -0.10898491 -0.20901391 0.1400558
000030 89 eb 89 be d0 f4 9d 3d ba 35 3e 3e 4d c5 c1 3c
       -0.26937512 0.0771271 0.18575183 0.02365365
000040 2c 60 16 be c7 26 c0 3d 7d 71 77 be d0 21 84 be
       -0.14685124 0.09382396 -0.24164386 -0.25807047
000050 b8 e2 e2 bc df f5 b5 3e 38 58 8f 3e 3b 1a 53 be
       -0.027695999 0.35539147 0.27996993 -0.20615475
000060 40 0a 8d be d2 e0 4e be e9 b2 8f be 6b 04 66 3d
       -0.27546883 -0.2020295 -0.28066185 0.056156557
000070 be 6a 57 be 6a ca 2d 3e 2a fc 5e be 8d f6 82 be
       -0.21036813 0.16971746 -0.2177588 -0.25578728
000080 e7 a0 89 bc e1 08 26 be cb 2a 98 3e e7 bf 8d bd
       -0.016800357 -0.16214325 0.29720148 -0.06921368
000090 05 67 54 3e 28 68 80 bd 1c 9c 87 bd 38 c0 9d 3e
       0.20742424 -0.06269866 -0.066215724 0.30810714
0000a0 db 98 1c 3e 4c 11 40 be 9c 54 9d be 04 d9 9b be
       0.15292685 -0.18756598 -0.30728614 -0.30439007
0000b0 97 fe 29 3c 52 69 41 3e d8 16 15 bd a6 77 4a be
       0.01037564 0.18887833 -0.03639874 -0.19772205
0000c0 e9 24 10 be 3d f4 ab 3e 86 02 e1 3d a3 cd a8 3d
       -0.1407658 0.33584777 0.109868094 0.08242347
0000d0 6c df 10 3e 6e 6b a8 bc ac 54 99 be db 32 8d be
       0.14147729 -0.020559039 -0.29947412 -0.27577862
0000e0 fc ca 2d 3d 9d 80 3e 3e ca de 99 3e 09 ed 72 3e
       0.04242991 0.1860375 0.30052787 0.23723234
0000f0 08 e8 87 3e 73 c0 5b 3e 34 5d 1a be c5 2c 44 be
       0.26544213 0.21460132 -0.15074617 -0.19157703
000100 d9 73 23 3e 7a ab 9c 3e 57 61 9e 3d d8 f2 67 3e
       0.15962161 0.30599576 0.0773341 0.22651231
000110 38 a3 90 be 60 a9 9a be 68 18 c4 3c 3e 30 73 3e
       -0.28249526 -0.30207348 0.023937419 0.23748872
000120 bc 1f 1d 3d 67 91 a9 bc 45 ba f6 3d 45 25 ad 3e
       0.038360342 -0.020699216 0.12047247 0.33817497
000130 ea e7 15 be 98 18 56 be 4b 75 74 3e 10 1d 83 bd
       -0.1463925 -0.2090782 0.23872869 -0.064020276
000140 be fb fc bd 2d 30 30 3d c6 19 9c 3e e2 c2 db bd
       -0.123527035 0.043014694 0.30488414 -0.1073053
000150 f2 11 3b 3d 9e 6a 5b 3e ea 2c ab 3e c9 36 65 3e
       0.04567141 0.2142739 0.33432704 0.2238418
000160 b9 1f 27 3e 33 0c 9f 3e 39 08 48 be 5b c4 81 be
       0.16320695 0.31063995 -0.19534387 -0.2534512
000170 c6 3a ae bd 9e b8 23 3e f2 ec e4 3d 85 68 b9 3d
       -0.08507304 0.15988395 0.11178006 0.09053139
000180 ab b1 9a 3e 66 7a 84 be f3 c2 f4 bd 18 ca 93 3e
       0.30213675 -0.25874633 -0.11951246 0.28865123
000190 65 09 92 be 4c c8 99 3e 95 6b c0 3d 16 4a 00 3d
       -0.28522792 0.30035627 0.0939552 0.031320654
0001a0 bc 76 01 3e 68 3c cb bb 56 f7 89 3e 16 d5 8b be
       0.1264295 -0.0062022693 0.26946515 -0.2731101
0001b0 f0 04 61 3e f7 51 40 be 3d 40 5f be f1 ed 99 be
       0.2197454 -0.18781267 -0.21801849 -0.30064347
0001c0 80 12 81 bc 5f ad 15 bd c0 39 da 3d d9 02 26 be
       -0.015755892 -0.036542293 0.10655546 -0.16212024
0001d0 8f fb e5 3d 57 ac 67 3d 45 d3 ce bd 3f d6 8c bd
       0.112296216 0.05656084 -0.1009889 -0.06876802
0001e0 53 1d 59 3e 69 58 f1 3b ab 0a 88 be 39 8c 4f be
       0.21202593 0.0073652756 -0.2657064 -0.20268334
0001f0 34 4b 3a 3e d9 d5 80 3e c8 07 8e be 97 78 89 3e
       0.1819275 0.25163153 -0.27740312 0.26849815
000200 2e 3f 32 be 82 20 b7 bd 9e c5 97 3e 0b 15 ef bc
       -0.17406914 -0.08941747 0.29642957 -0.029184839
000210 1f 80 cb 3d f5 c2 24 bd 22 a1 00 3e c4 ae a0 3e
       0.099365465 -0.040224988 0.12561467 0.31383336
000220 bd 38 09 3d 60 46 b9 3d 02 b1 a3 3e 5c ee e6 bd
       0.033501375 0.09046626 0.31970984 -0.11275932
000230 89 5c 08 3e 56 ae 3a 3e 39 5f 62 be 42 f0 18 3e
       0.1331655 0.18230566 -0.22106637 0.14935401
000240 8d e7 7a 3e 1f f9 c0 3d 41 35 0f be 82 f1 84 be
       0.24502392 0.09422516 -0.13985159 -0.25965506
000250 97 94 17 be c6 9b 66 3e 31 e2 2e be db ff cd bd
       -0.14802776 0.2252036 -0.17078473 -0.10058566
000260 07 83 48 3d 72 12 2c bd aa 78 8c bd 95 42 1c 3d
       0.048953082 -0.04200978 -0.06858952 0.038149435
000270 c3 03 e4 3c f8 8d b9 3d 55 6b 98 bc 2b 0f a4 3e
       0.027833825 0.090602815 -0.018605867 0.32042822
000280 80 85 a1 3e 2d 77 b6 3c 05 61 94 3e 45 39 b1 3d
       0.31547165 0.022273624 0.2898027 0.086535014
000290 ba c3 65 3e 26 c9 39 be 12 98 3a 3e f5 97 81 be
       0.22437945 -0.18143138 0.18222073 -0.25311247
0002a0 2d b3 e0 3d f6 9f 31 be 4e c5 5c be 43 58 95 be
       0.10971675 -0.17346177 -0.21559641 -0.291689
0002b0 57 2d 70 3e 5d e2 2d be 3c c4 31 3d c0 c1 83 be
       0.23454796 -0.16980882 0.043400034 -0.25733757
0002c0 3f 32 92 3e 23 7d 90 be b4 15 22 3e 5c d4 81 be
       0.2855396 -0.28220472 0.15828592 -0.2535733
0002d0 55 06 2f 3e 98 29 a4 bd d1 36 6c be 1e 55 98 bd
       0.17092259 -0.08015746 -0.23067786 -0.0743811
0002e0 86 28 84 be cd 0c 92 bd cd 10 c2 3d a0 d9 0d 3d
       -0.25812167 -0.07131348 0.09475861 0.03463137
0002f0 99 5c af be 8e f6 28 be a3 b7 62 3e 18 f2 a8 be
       -0.34250334 -0.16500303 0.22140364 -0.32997203
000300 28 71 95 3e 46 c7 74 3d 32 28 a3 3e 16 af 33 3e
       0.29187894 0.059760354 0.31866604 0.17547259
000310 a4 5e 7f bd 83 69 a8 bd d8 d9 80 3d b9 a1 80 3e
       -0.062346116 -0.0822325 0.062915504 0.25123385
000320 8f fc 99 3e 70 b2 58 3d 22 2a 09 3e d4 32 57 be
       0.300755 0.052904546 0.13394979 -0.21015483
000330 36 ae 63 3e fe ce ad 3e e8 2b 63 be be 77 1f 3e
       0.22234425 0.33946985 -0.22184718 0.15573022
000340 06 ca ad bc 05 b9 e4 bd 2f 26 74 3d 81 27 0c 3d
       -0.021214496 -0.11168102 0.059606727 0.03421736
000350 b7 ee 29 be 55 5e ab 3d 60 d7 a6 3e ba df 86 be
       -0.16594969 0.08367602 0.32586193 -0.26342565
000360 0a 92 b1 3e bb c9 35 3e fa 80 71 3e 87 fc 02 be
       0.3468173 0.17752735 0.23584357 -0.12791644
000370 f2 a7 d0 3d 40 43 1e 3b b0 4f 52 3e f5 46 4b 3e
       0.10188283 0.002414897 0.20538211 0.19851287
000380 2e 41 05 3e ee 0d bc 3b cb 30 b3 bd 17 5a d3 3b
       0.13013145 0.0057389652 -0.08749541 0.0064499485
000390 4b 8a 8e 3e 8d 49 54 be b9 66 27 be e7 9c 93 3e
       0.27839884 -0.20731182 -0.1634778 0.28830644
0003a0 1e 9c 3d be 4b d8 6c bd fd 0c 07 be 9f 34 6d be
       -0.18516585 -0.05782346 -0.13188548 -0.23164605
0003b0 68 d9 15 be 57 47 9a 3e b8 60 f3 bd 5a 48 38 3e
       -0.14633715 0.30132553 -0.11883682 0.1799635
0003c0 4c b3 2d 3e 94 5b 9f bb a9 2d 56 3e 1b 43 5a be
       0.16962928 -0.004863212 0.20915855 -0.21314661
0003d0 5c 4d af 3e 20 61 60 bc 8b 8a 05 be e9 eb 91 3d
       0.34238708 -0.013695031 -0.13041131 0.071250744
0003e0 fb ae 30 3e c1 dc 8f 3e 5f e1 c8 3d 27 c5 c2 ba
       0.1725425 0.2809811 0.09808611 -0.0014859781
0003f0 8e 6e 9f be 54 3d 6d be e7 37 81 be 96 6e d8 bc
       -0.31139034 -0.23167926 -0.25237963 -0.026419919

cells.0.h2h.weight f4 [256, 64]
000000 6b c7 18 bd 78 28 9d bd 61 e3 f8 bc bb 3c f0 bd
       -0.037299555 -0.076737344 -0.03038186 -0.117303334
000010 66 d8 bc bd 94 33 36 3e ec 24 8f 3b c2 d0 4d 3d
       -0.09220962 0.17793113 0.004368415 0.050247915
000020 34 2a 85 3d d4 6b 31 3c b0 75 e1 3d c9 23 ba bd
       0.0650219 0.010828931 0.11008775 -0.09088857
000030 83 20 8a bd 32 c1 b7 3d 50 3b c3 3d 3a ef 5a bc
       -0.06744482 0.08972396 0.09532797 -0.0133627
000040 07 92 2e 3c c4 bf 92 3c 57 ef 58 bd f8 1e b9 bb
       0.010654933 0.017913707 -0.052962627 -0.0056494437
000050 db 22 0d 3e a1 43 c1 3d 71 4d 91 3d cc 42 9a bd
       0.13782828 0.09436727 0.07094849 -0.07532272
000060 62 3e b7 bd fe 34 b0 3b 20 c8 93 bc d0 e7 80 bd
       -0.089474455 0.005377411 -0.018039763 -0.06294215
000070 df 79 65 3c 29 be b5 3d 01 ea 31 3e cb 0d cc 3d
       0.014006107 0.08874161 0.17374422 0.09963568
000080 7d 43 b8 bd 6a 48 b6 bd ab de e2 3a f8 65 00 be
       -0.08997247 -0.08900531 0.0017308792 -0.12538898
000090 25 a1 b4 3d 4f 14 06 3e bc 99 1d 3d fe 7b e6 3c
       0.088197984 0.13093685 0.03847669 0.028135296
0000a0 f8 c2 0c 3e 21 91 b5 3d ac c5 e7 3d a8 25 30 bd
       0.1374625 0.08865572 0.11317 -0.04300466
0000b0 55 e1 da bd bb 76 6d 3d da 01 27 3e 50 b9 82 bc
       -0.1068751 0.05797456 0.163093 -0.015957505
0000c0 ba fe 80 bd 2a ef 74 bc 6b 00 8b 3d fd fa 91 bd
       -0.06298585 -0.014949599 0.06787189 -0.0712795
0000d0 35 db 1a 3d f2 0e 94 bd 33 35 05 3e c3 6f b5 3d
       0.03780671 -0.07229413 0.13008575 0.088592075
0000e0 86 df 9c ba 23 6f 4d bd 01 b0 e6 bd 3d fb 91 3c
       -0.0011968471 -0.050154816 -0.11264039 0.017819995
0000f0 74 7c 77 3d 6d 0f 94 3d 6b cb 53 bd 1a 89 80 3d
       0.060421422 0.07229505 -0.051707666 0.0627615
000100 e6 a5 7a bd 35 1a 99 3c d3 78 90 bc 52 18 a1 3c
       -0.06119337 0.018689254 -0.017635738 0.019664917
000110 d2 75 95 3d 50 f3 91 bd 9a ab 30 bd 60 c6 56 bc
       0.07297863 -0.07126486 -0.043132402 -0.01310882
000120 6a 15 be bd 1d 3c 1c be 21 4a a9 3d 41 03 b6 3b
       -0.09281428 -0.15257306 0.08266092 0.005554587
000130 d1 ee 82 3c 3f 8d d6 bd d9 34 f3 3a f9 88 81 bb
       0.015983017 -0.10476159 0.0018555179 -0.003953096
000140 ca c2 c5 bd 8e b3 08 be 9a a7 0c be d0 e2 a2 3d
       -0.09656294 -0.13349745 -0.1373581 0.07953417
000150 d9 b0 a8 bc 87 04 d7 3d a2 5f e1 bd 37 7a 3a bd
       -0.02059214 0.104989104 -0.11004569 -0.04552671
000160 a8 12 f0 bb 93 1c 98 bd c5 ec fa 3d fd 53 91 bc
       -0.0073264427 -0.07427325 0.122521915 -0.017740244
000170 d3 ac 92 3c 11 e1 b9 bc aa 36 24 bd 0d b8 7f bd
       0.017904675 -0.022690328 -0.040091194 -0.062431384
000180 3d 92 e1 bc 05 f3 42 bd 03 1d 4f bd 7d 0c 28 3d
       -0.027535552 -0.047595043 -0.050564777 0.041027535
000190 9e 62 6d bc 18 be b4 bc 36 79 4f 3d 27 63 cb bd
       -0.014488844 -0.0220633 0.050652705 -0.09931021
0001a0 35 ce 68 3c e4 57 c2 bd f6 ee c8 bd 1c 64 9b 3d
       0.01420932 -0.0948942 -0.09811203 0.07587454
0001b0 28 44 c2 bd ae 1c e2 3d 56 fd 99 3b 1f 6f c2 3d
       -0.09485656 0.110406265 0.0046993895 0.09493851
0001c0 28 43 09 be 05 71 8e bd 85 5c 38 3c f4 2e eb bd
       -0.13404524 -0.069551505 0.011252527 -0.11483565
0001d0 42 93 5c bd 33 36 7b bd d6 33 7c bd 47 ef 25 bd
       -0.053851373 -0.061330985 -0.061572872 -0.040511396
0001e0 c2 db 34 bd a4 b1 b0 bd 1a 2e 9c 3c ad 29 75 3d
       -0.04415489 -0.08627632 0.019064952 0.0598542
0001f0 93 22 a1 3c 83 44 1f be f5 68 09 3e 88 0f b9 3c
       0.019669807 -0.15553479 0.13418944 0.022590414
000200 4b 59 c3 3d 30 54 26 3e e4 98 c2 bd 79 0e 5b 3c
       0.09538516 0.16243052 -0.09501818 0.01337015
000210 cc 08 1a be 87 10 70 bc ac 27 6c be 82 e4 b8 bd
       -0.15042418 -0.014652378 -0.23062009 -0.090279594
000220 66 bf ae bc cf dd 65 be f9 38 86 3c c0 92 df bd
       -0.0213315 -0.22447895 0.016384589 -0.10916662
000230 d9 2f ff bd 97 b8 71 be f2 83 a0 bd 96 d2 45 3e
       -0.12460298 -0.23605572 -0.078376666 0.19318613
000240 b0 aa 7a 3d 20 46 7c bd 56 27 b9 bd 46 94 03 be
       0.061197937 -0.061590314 -0.09040706 -0.1284953
000250 15 a9 a9 bd 76 4a 29 3e 21 e0 1e be 35 44 8b bd
       -0.08284203 0.16532311 -0.15515186 -0.06800119
000260 40 eb 1a 3e c4 c8 5b bd 2f ba ae 3d c4 22 9c bd
       0.15128803 -0.053658262 0.085316055 -0.076238185
000270 d9 12 39 be a9 ae 0f 3e d3 ad 0c 3d 89 0e 08 be
       -0.18073596 0.14031471 0.03434546 -0.13286795
000280 fa 91 5e 3c 79 9f 0c bd 22 fd fe bc b3 17 bd bd
       0.013584608 -0.034331772 -0.031126563 -0.09233036
000290 87 70 a2 3d ba 4b f3 bd 22 c3 48 bb ed a8 f5 bd
       0.07931619 -0.11879678 -0.0030633886 -0.11995111
0002a0 57 f5 79 3d a7 ab 23 be 2d 85 78 3d e6 3c b3 3d
       0.06102499 -0.15983449 0.06067388 0.0875185
0002b0 0a 44 8f bc 0f b2 98 3d 65 6d d9 3c 62 47 12 be
       -0.017488498 0.07455837 0.026541421 -0.14285043
0002c0 e6 a3 e3 3d 7f 91 32 be a3 23 76 3e 14 47 0c bc
       0.111152455 -0.17438315 0.24037032 -0.008561868
0002d0 e2 72 9d 3c 97 98 09 be 9c c3 b5 3c 82 31 29 be
       0.01921982 -0.13437115 0.022188 -0.16522792
0002e0 4b 29 c5 bd 3d ea 1b 3d fe b7 f4 3c 9d 9b 93 3d
       -0.09627017 0.038065184 0.02987289 0.07207415
0002f0 85 a4 32 3c b2 16 74 bd ed de 2e 3e 26 73 91 39
       0.010903482 -0.059591956 0.17077227 0.00027742347
000300 ff 6a 24 be 25 79 80 bd 60 cd 2c bd a2 77 b8 bd
       -0.16056441 -0.062731065 -0.04218805 -0.09007193
000310 ed 33 ff bd de 56 0a 3e 4c 66 6e 3d 52 84 0b 3d
       -0.12461076 0.135097 0.058203027 0.034061737
000320 89 d8 a3 3d 57 81 1d 3d fb 9d f6 bd 27 f6 de ba
       0.08000285 0.038453426 -0.12041851 -0.0017010615
000330 4f 0a 51 3d 4e 2a 2d bb bc e4 f7 3c 81 e2 f2 3d
       0.05103522 -0.002642292 0.030260436 0.118596084
000340 c1 0a a3 3d 6a d5 27 bd 74 15 53 3d 4c d4 ab bd
       0.079610355 -0.040975012 0.05153413 -0.08390102
000350 ee 99 59 3c 37 b9 f4 3d af 92 c1 bb de 84 98 3c
       0.013281329 0.119493894 -0.0059073786 0.018618044
000360 a6 4d d1 3d 91 b8 ab 3d b4 46 20 3e ec 6d 57 bb
       0.102198884 0.083848126 0.15651971 -0.0032871915
000370 5f bc a3 bd 35 3d 05 3e cb 07 75 bc 4d d3 9d bd
       -0.07994913 0.1301163 -0.014955471 -0.07706318
000380 bf 68 84 3d 6e 47 92 3d cc c1 bc bc 88 85 cc bd
       0.06465291 0.071425304 -0.023041628 -0.099864066
000390 f4 6b c8 3c cc 4d 97 bd c1 d9 b4 bc f8 c4 32 3c
       0.024465539 -0.073878855 -0.02207649 0.010911219
0003a0 fa b8 cb bd bb 49 64 3d 97 91 44 3c 73 f2 3a 3b
       -0.09947391 0.055734377 0.011997602 0.0028525859
0003b0 5b 15 5a 3d 74 49 a6 3d 6c 09 f4 3d ea 2a 37 bd
       0.053243022 0.08119479 0.119158596 -0.04471866
0003c0 33 9d a7 3d b8 92 bb 3d 77 58 61 bd 63 40 e1 3d
       0.0818428 0.09158844 -0.055016007 0.10998609
0003d0 32 f6 41 3d ca 1f 15 be f0 4c 58 bd f6 1d 04 be
       0.04735393 -0.14562908 -0.05280775 -0.12902054
0003e0 12 26 8c 3c 3b e5 85 3c bc b0 8c b9 bc 0b 02 3c
       0.017107997 0.016344657 -0.00026834558 0.007937368
0003f0 2b d6 40 3d d3 45 c1 3d a5 cc 29 3e 5f e7 c0 bc
       0.047079246 0.09437146 0.16581972 -0.023547826

cells.0.h2h.bias f4 [256]
000000 7d 1f c9 3d 56 b0 fe 3d af 9c 10 3e 3a 7c 9d 3d
       0.09820459 0.12435977 0.1412227 0.0768971
000010 63 7b a0 bc df c0 2e bc d4 ec ab bd 77 0c a6 3d
       -0.019590085 -0.010666101 -0.08394781 0.08107846
000020 8e d3 cb bd de 94 28 3e 31 80 a9 3d 81 89 8e 3d
       -0.0995246 0.16463038 0.08276404 0.069598205
000030 cc a0 71 3d 6c 91 ef bc f0 26 a6 3d 34 f2 6b 3d
       0.05899124 -0.029244147 0.081128955 0.05760403
000040 d6 da ec bd 7b 73 8f bd aa 26 db 3d 38 2b 90 bd
       -0.11565177 -0.07004448 0.10700734 -0.07039493
000050 a6 c2 6d bd 02 fc b5 3d 62 35 22 3e 24 fa 48 3d
       -0.05804696 0.08885957 0.15840676 0.049066678
000060 60 e4 d5 bd 79 6b 7e 3d ae 38 91 3c 30 d3 05 3e
       -0.1044395 0.062114213 0.017727222 0.13068843
000070 37 fb 0c 3d 46 d0 90 bc b3 13 47 bd 5b 44 b4 3c
       0.034419265 -0.017677438 -0.04860277 0.02200525
000080 bb 4b b6 3d b2 5d f3 bd c1 38 9c 3d 99 0a 83 3d
       0.08901163 -0.11883105 0.076280124 0.06398506
000090 3c dc bb 3d ec a6 98 bd 7c 7c 6e bd bd a5 1b bd
       0.09172866 -0.07453713 -0.058224186 -0.037999857
0000a0 20 20 02 3d 99 20 9c bc 65 22 bd bd 45 e5 6e bc
       0.031768918 -0.019058513 -0.09235076 -0.014581029
0000b0 77 18 10 3e cb d7 72 3c 5c cf 13 3e 2d f2 79 bd
       0.14071833 0.014821957 0.1443457 -0.061021972
0000c0 d2 2a bb 3d ee 2d 99 3c 21 bb 49 3d c7 a6 af 3d
       0.09139027 0.018698659 0.049250726 0.08576732
0000d0 7a 5a b7 bd ae 81 9d 3d e8 5b 31 bc 9c 7d 7c bd
       -0.08952804 0.0769075 -0.010825135 -0.061643228
0000e0 3b 42 2e bc d6 6b 97 bd d9 97 38 ba 0e e4 e4 bc
       -0.010635908 -0.07393615 -0.000704167 -0.027940776
0000f0 8e 6a 23 3c 37 15 25 3e 30 bd 50 bc ce 60 b8 3d
       0.009974135 0.16121374 -0.012740418 0.09002839
000100 c4 cc b6 bc 9e 05 8e 3c e0 ef d7 3d 0f 5a 48 bd
       -0.022314437 0.017336663 0.105437994 -0.04891401
000110 19 80 98 3c 8d 37 c4 bd 33 b7 d8 bd 7a 29 c2 3c
       0.01861577 -0.09580908 -0.105818175 0.023701418
000120 46 41 9c 3d 4e e7 a4 3d 75 09 aa bd 15 f5 39 bd
       0.076296374 0.0805193 -0.08302585 -0.045399744
000130 43 a2 12 3e 04 62 de 3d 98 d7 02 bd 94 fe e4 3d
       0.1431971 0.10858539 -0.031943887 0.111813694
000140 e2 b7 49 bc 6f 32 ae bd b1 15 d5 3c 20 6f 03 be
       -0.0123119075 -0.08505713 0.02601132 -0.1283536
000150 20 34 c7 3d 91 5c 52 bc a6 a0 99 bd 67 a0 e7 bd
       0.09726739 -0.012839452 -0.075013444 -0.11309891
000160 44 8b 06 bd 99 30 ee 3c 28 b1 0b 3d af 5e bc 3d
       -0.032847658 0.029075908 0.034104496 0.09197747
000170 38 f1 a2 3b d1 0c 80 3d f3 64 13 3e 49 22 9c 3d
       0.004972603 0.062524445 0.14393978 0.07623727
000180 6a c1 44 3d 47 8a c7 3d 42 1c 87 bc 61 09 b6 bd
       0.048036017 0.09743171 -0.016492967 -0.08888508
000190 73 a7 0a be 08 8c a7 bc 4e e2 91 bd b8 be 89 bd
       -0.1354044 -0.020452514 -0.07123242 -0.0672583
0001a0 53 cc 70 bd 87 a3 c1 bd cc e6 d8 3d f0 55 57 bd
       -0.05878861 -0.094550185 0.10590896 -0.05257219
0001b0 65 d6 b7 bd 3c 14 90 3d 00 55 00 3e 7a e7 b9 3d
       -0.089764394 0.070351094 0.12532425 0.09077354
0001c0 5f 87 a4 bd 28 ea 4a bd ee c1 6e bc eb a9 34 bc
       -0.080336325 -0.049539715 -0.014572604 -0.01102684
0001d0 22 60 f7 3d f4 b9 27 3d fa 8c 7b 3c 07 1e bb 3c
       0.12078883 0.040948823 0.015353436 0.022841467
0001e0 75 15 c7 3d b7 e5 8e bd 00 81 cd 3d 04 29 af 3b
       0.097208895 -0.069774084 0.100343704 0.0053454656
0001f0 dc e7 b2 3d ee 24 b9 3d c7 5c a3 3c 9f 0f 9d bd
       0.0873563 0.09040247 0.0199417 -0.07668995
000200 b5 7a 89 bc b7 d2 f1 3d 58 ee 03 3d 8f b4 9c 3d
       -0.016782144 0.11807769 0.032209724 0.07651626
000210 1d b8 13 3d f9 1a c1 bd a8 2d 1b bd da 03 3c bd
       0.036064256 -0.09428973 -0.037885338 -0.04590211
000220 32 3d 4f bd de c2 d3 3c 3c a8 af 3d 92 9a 78 bd
       -0.05059547 0.025849756 0.0857701 -0.060694285
000230 b3 69 f6 3c 71 65 63 3d f4 99 b2 3d 69 fe f8 3d
       0.030079698 0.055516664 0.087207705 0.121579
000240 21 ca ef 3d f3 05 bc bd e1 51 22 3d d3 42 b4 3d
       0.11708475 -0.09180822 0.039628867 0.08801808
000250 47 b5 9f 3d 05 f1 c5 bd 64 a7 9b 3d 38 83 6d 3c
       0.07798248 -0.096651115 0.076002866 0.014496617
000260 12 db ce 3b 91 7c 2a bc 54 26 3c 3d 05 c6 70 bd
       0.0063127363 -0.0104056755 0.04593499 -0.058782596
000270 4e 32 8f bd e5 86 a0 bc 19 48 93 bd ca 72 a7 bb
       -0.06992017 -0.019595573 -0.07191486 -0.0051101195
000280 18 b7 d2 bd ff 40 28 3d d3 aa 83 3d 16 23 02 3d
       -0.102888286 0.04107761 0.064290665 0.03177174
000290 92 63 0e 3e 1d 19 57 3c 50 c0 19 3d 47 f7 8f 3c
       0.1390517 0.013128546 0.03753692 0.017573966
0002a0 36 4b 04 be d3 18 65 bd fe 95 e1 3d 8a 2d 58 bd
       -0.12919316 -0.055931877 0.11014937 -0.052777804
0002b0 cf ae 93 3d 70 8c eb 3d 06 bd cb bd 10 30 82 3d
       0.072110765 0.11501396 -0.09948163 0.063568234
0002c0 02 28 ea 3d 46 54 f6 bd 93 47 db bd b3 90 b8 3d
       0.11433412 -0.12027793 -0.10707011 0.09011974
0002d0 41 49 f4 bc d2 a1 e2 bc 20 87 65 3d 3d 1d 32 bd
       -0.029820086 -0.027665053 0.05603707 -0.043484915
0002e0 df 6b 1d 3d 38 b4 3c bd eb 07 94 bd 6a 7f 6d 3d
       0.038432952 -0.046070307 -0.07228073 0.05798284
0002f0 c5 dd 27 3d 1c d9 e5 bd aa b3 ea 3b 1d ba 46 bd
       0.04098298 -0.11223051 0.007162531 -0.048517335
000300 c8 16 c3 3d aa ea 40 bd 9f 57 6c 3d 86 c4 bd 3c
       0.095258296 -0.047098793 0.05770075 0.023164999
000310 29 b0 9f 3c 66 07 3b bc 69 7b 1e 3d 4d 2f bb bd
       0.01949318 -0.011415338 0.03869191 -0.09139881
000320 78 36 42 bc eb d3 da bc 1c a9 5b bd 0d 77 e2 3d
       -0.011853807 -0.026712378 -0.053628072 0.110578634
000330 7a 8e 8b 3d bb d7 d2 3d be 0d ae 3d aa 8d ae 3c
       0.068142846 0.102950536 0.08498715 0.021307785
000340 54 94 a1 bd 91 c1 a2 bd 00 c1 07 3e d9 8b 0f 3d
       -0.078896195 -0.07947076 0.13257217 0.03504548
000350 f1 d6 68 bd 13 75 7e bd 4d 49 fe bc a4 8c 95 bd
       -0.05684561 -0.06212337 -0.031040812 -0.07302216
000360 0f 0b e9 3d eb 76 02 3e 3d aa 11 3e 4f 51 d8 3d
       0.113790624 0.12740676 0.14225097 0.105623834
000370 a4 ed 1d 3d 53 43 d1 3b c2 f1 47 bd 5a 60 61 3d
       0.03855671 0.0063861995 -0.048814543 0.05502353
000380 f2 59 c0 3d 25 ae 9a 3d 1e bd fa bc b4 10 f0 bb
       0.09392156 0.07552747 -0.030607756 -0.00732621
000390 ca c7 36 bd 72 c1 63 3d bd 63 1a bd 0e 3e 2c bd
       -0.044624127 0.055604406 -0.037692774 -0.042051367
0003a0 4d 53 df bc 2f 37 05 3e 41 7f 01 3e 21 25 68 bd
       -0.0272614 0.13009332 0.126462 -0.056676034
0003b0 64 70 96 bd be 78 8e bd 13 d6 bb bb 27 f5 1b 3d
       -0.073456556 -0.069566235 -0.0057323067 0.038075592
0003c0 51 a7 98 3c 88 4d 67 3d a3 74 14 bd 0c 28 16 3d
       0.01863447 0.056470424 -0.036244046 0.036659285
0003d0 81 c2 b4 bd 5b f6 8b 3d ad 05 48 3d 6c ce 78 3c
       -0.08826161 0.06834098 0.048833538 0.015185934
0003e0 fe 50 e9 bd 43 a9 25 bd d9 cc b6 3d aa 54 d3 bd
       -0.11392401 -0.040444624 0.0892579 -0.10318883
0003f0 aa 41 e0 3d 84 41 25 bd d9 03 92 3c 6b d7 94 3d
       0.109500244 -0.040345684 0.0178241 0.0726765

cells.1.x2h.weight f4 [256, 64]
000000 9b aa e0 bc 5f 86 23 3e 0a 0b 9f 3d 14 a0 99 bc
       -0.027425101 0.15969227 0.077657774 -0.018753089
000010 a8 6a 99 3c 0b d8 a2 bc c2 af a2 3d 23 19 d9 3c
       0.018727615 -0.019878408 0.079436794 0.026501244
000020 86 3f 31 bd 90 93 84 3c 69 c6 8c bd 38 4c 53 bd
       -0.04327347 0.016183645 -0.06873781 -0.05158636
000030 b0 73 8b 3d cc e7 8a bd 1a c4 64 bc 7f c5 8d bd
       0.06809175 -0.06782493 -0.01396277 -0.06922435
000040 4f e2 1e 3d 7a e2 74 bd 83 3d 54 3d ca 3f 82 3d
       0.038790043 -0.059786297 0.051816475 0.06359823
000050 45 81 ac 3d 49 04 35 3d 6a 6a ec 3d 68 21 48 3c
       0.08423094 0.04419354 0.11543734 0.012214996
000060 27 bf 0f be 8a a5 d6 3d bf b0 b0 bd 1e c2 e3 bd
       -0.14037763 0.10480793 -0.08627462 -0.11121009
000070 d4 14 21 be 13 e3 63 bd 15 36 2b 3e 9b 2a d6 3d
       -0.15730602 -0.055636477 0.1671985 0.10457345
000080 47 ad 9b 3d 84 f2 ed 3d fe 80 c8 3d 65 b5 ec 3c
       0.076014094 0.11618522 0.09790228 0.02889509
000090 64 9b c8 bd 42 2a 8d bd bf 9c f1 bd 41 8b 06 be
       -0.097952634 -0.06892826 -0.11797475 -0.13139059
0000a0 70 20 dc 3d 14 63 f4 bc 87 9c 24 be d2 03 7a bc
       0.107483745 -0.0298324 -0.16075335 -0.0152597
0000b0 d5 5a ac bd 83 57 04 3e fb 00 f4 bc 5a 5f 2d 3d
       -0.08415762 0.12924008 -0.029785624 0.042327262
0000c0 36 88 24 3d 56 c7 36 3c 73 62 d4 3d f6 67 b0 bd
       0.040168963 0.011155924 0.1037034 -0.08613579
0000d0 cd 4d bc 3d 0c 73 11 bd e0 c3 56 bb b8 2a b4 bd
       0.09194527 -0.035510108 -0.003277056 -0.087972105
0000e0 3f 37 08 be 86 52 6d bd 63 2a b6 3c 95 a8 95 3d
       -0.13302325 -0.05794003 0.022237008 0.07307545
0000f0 46 d8 6a 3d 9e 1b de bc 39 47 30 3e 7e fb 5d bd
       0.05733516 -0.027112778 0.1721467 -0.05419492
000100 b6 37 c2 bd 29 fa fa 3d 85 a6 ac 3d bd 6f 71 bd
       -0.09483282 0.122547455 0.084301986 -0.058944453
000110 7a 78 eb bd 71 7b cd bd 4d 3f 05 be 9d 9f 83 bd
       -0.114975885 -0.1003331 -0.13012429 -0.06426928
000120 9e 96 c9 bd 1c f1 cc ba e8 d3 e8 3d 2f 0f 61 bd
       -0.09843181 -0.0015635821 0.11368543 -0.05494612
000130 5b d5 26 3d 96 91 0b 3d 34 51 34 3d 05 f4 06 3e
       0.040730815 0.03407439 0.044022754 0.13179024
000140 5a d3 8d 3c 11 ca 1c bd 5c d7 c0 3c b6 20 27 be
       0.017312694 -0.038278643 0.023540191 -0.16321072
000150 fd ab f3 bd 26 4b 52 3d 22 20 f6 bc b4 b4 2d bd
       -0.118980385 0.0513412 -0.030044619 -0.04240866
000160 f1 dc 85 bc 79 f4 fd 3d db 7e e3 bd 58 99 a7 bb
       -0.016340705 0.12400145 -0.1110818 -0.0051147155
000170 9a a5 95 3d c1 46 01 3e c7 46 4e 3e 1b 6a 98 bd
       0.073069766 0.12624647 0.20144187 -0.07442113
000180 2a cf f6 3b 79 0f 17 3c 26 f1 38 3d 89 01 10 be
       0.00753202 0.009219998 0.045151852 -0.14063086
000190 cb 24 4f 3d 2e cb 01 be 69 c8 99 3c 59 8b 73 bd
       0.050572198 -0.12675163 0.01877232 -0.059459064
0001a0 50 73 41 bd 76 3e 52 3d 4c 54 7d 3d c4 79 84 bc
       -0.04722911 0.0513291 0.06184797 -0.016171344
0001b0 53 11 cb bd a3 5f aa 3c 2f 9c dd bc d8 a2 26 be
       -0.09915414 0.020797556 -0.027052013 -0.16273057
0001c0 2f 23 ca bd e2 4d 81 3d d7 a2 5a 3e a2 cd 82 bd
       -0.09869992 0.06313683 0.21351181 -0.063868776
0001d0 34 ce a5 bd 5e 2b 1d 3d 0d a3 1d 3d d3 68 c2 bd
       -0.08095971 0.038371436 0.038485575 -0.0949265
0001e0 27 aa 80 bd ad 23 0a bd a3 20 cf 3d 85 8d 8f bd
       -0.06282454 -0.03372543 0.10113647 -0.070094146
0001f0 11 2e 27 3a e9 4e 06 be 77 a1 d3 3d 5c 71 9e bc
       0.0006377409 -0.1311604 0.10333531 -0.019341163
000200 13 96 82 bd 48 91 c8 3d 3d 62 16 ba 3c 23 1d bd
       -0.06376281 0.09793335 -0.00057366845 -0.03836368
000210 19 fd 2d bd 96 36 90 3b 00 76 50 ba 62 05 bf bc
       -0.0424777 0.0044010384 -0.00079521537 -0.023317996
000220 38 1e d4 bd 71 7f 00 3e a4 55 ab bd 12 23 cd 3c
       -0.10357326 0.12548615 -0.08365944 0.025041137
000230 fb e5 96 3c b7 77 15 be b4 5d a4 3b 06 08 49 bd
       0.01842021 -0.14596449 0.005016053 -0.049079917
000240 84 0f ca bd 94 0d ea 3d cb 89 d4 bc 69 78 a7 3d
       -0.098662406 0.11428371 -0.025944611 0.08177263
000250 63 88 8e 3c 1f 39 b3 3c 69 80 d6 3d 57 69 06 bd
       0.017399019 0.021877823 0.10473711 -0.032815304
000260 b4 e9 f6 bc 37 c5 08 be f7 e8 0e be 1b 1f 00 3e
       -0.030140735 -0.13356481 -0.13956057 0.12511866
000270 3e 18 5a 3c 7f 8f 2d bc 96 29 11 3d b6 8a f1 bd
       0.013311444 -0.010593294 0.03544005 -0.11794035
000280 a3 f2 ac 3c 91 c0 ac 3d a3 19 00 3e 47 9f be 3d
       0.021111792 0.084351666 0.1250978 0.093077235
000290 28 68 c8 bd 0f 66 72 bc 4b d6 02 be 51 43 37 bb
       -0.09785491 -0.0147948405 -0.12777059 -0.0027963708
0002a0 85 e6 3d 3c 65 23 96 3d 22 ec 0b 3e f3 42 4a 3d
       0.011590605 0.0733097 0.13664296 0.049380254
0002b0 0f 8c d6 bd d9 33 89 bd 5e a1 06 3e 46 a2 96 bd
       -0.10475933 -0.06699342 0.13147494 -0.0735517
0002c0 7b a8 64 3d c8 2b 56 bc cd 02 82 bc 55 fa e7 3d
       0.055824738 -0.013071962 -0.015870476 0.11327044
0002d0 d2 5f 0d 3e 44 be bb 3c 22 4e 4e bd 43 bd 84 3d
       0.13806084 0.022917874 -0.050367482 0.06481411
0002e0 4b ee 1b 3d 1f 71 1f bc c1 5a 96 bc 06 50 bf 3d
       0.03806905 -0.00973156 -0.018353822 0.09341435
0002f0 b1 2c 23 bd d0 41 29 bd ab a6 4b 3c d2 2f b3 3d
       -0.039837543 -0.04132253 0.012429873 0.087493554
000300 b0 12 e0 bc 65 38 f9 3d 6e f3 7d bd f7 28 00 3e
       -0.02735266 0.121689595 -0.06199973 0.12515627
000310 96 f5 2c bd cf f9 65 3d c0 29 9c 3b ca a8 e7 bd
       -0.042226397 0.05614644 0.004765719 -0.11311491
000320 71 22 ab 3c b6 36 56 3c 9e 4f 88 bd 99 80 e5 3c
       0.020890446 0.013074568 -0.06655811 0.028015422
000330 db 4e a2 bd 2b d8 13 bd ec 03 98 bd 66 8a 0c 3d
       -0.07925197 -0.036094826 -0.07422623 0.034311675
000340 cd eb db 3d 66 80 8f 3d bb 12 83 bc 7a 1e 4e 3b
       0.10738335 0.07006912 -0.016000142 0.003145127
000350 e9 94 09 3d 70 cd c2 3d ee 1e 42 3d 3c a6 78 3d
       0.033589277 0.0951184 0.047392778 0.06070541
000360 ed 9d 8d 3c 38 4c fa 3d 6f 58 00 be 01 34 7b 3d
       0.017287219 0.12221569 -0.12533735 0.06132889
000370 a9 25 b4 3d 6d 62 cc 3d 88 97 6b 3d 68 e6 54 bb
       0.087962456 0.09979711 0.05751756 -0.0032485966
000380 40 4e 59 3d bb eb 86 bd 90 1f 71 3d 7d 7a d7 3d
       0.05305314 -0.06587931 0.05886799 0.1052141
000390 79 1c b9 bd ab 54 dd bd d0 29 94 bd e9 7b 8e 3c
       -0.09038634 -0.10807165 -0.072345376 0.01739307
0003a0 2e d0 5d 3d d2 aa 91 bd 1b ff 9d bd 44 c8 4a 3c
       0.054153614 -0.071126595 -0.07714673 0.012376849
0003b0 4d 37 b5 3c e6 01 02 3e c4 04 65 3d 6f 3b 9b 3d
       0.022121096 0.12696037 0.055912748 0.075796954
0003c0 c1 5c 2f 3c 61 4b 0b be e8 73 6c 3c 17 08 90 3d
       0.010703267 -0.13602974 0.014431931 0.07032793
0003d0 70 99 20 bd 83 f8 a8 3d 24 85 ae 3d bf 84 44 3d
       -0.03920883 0.08250525 0.08521488 0.04797816
0003e0 3a 8d d9 bd a5 e4 3a bd c5 fc 33 3c 9f c7 e7 3d
       -0.1062264 -0.04562821 0.010985558 0.113173716
0003f0 64 75 0c bd 06 67 5d 3d ed 95 af 3d ed b0 8d bd
       -0.03429164 0.05405333 0.08573518 -0.069185115

cells.1.x2h.bias f4 [256]
000000 ef 21 53 3d 93 29 28 3d 32 7f dc 3d 07 d7 90 bc
       0.051546033 0.041055273 0.10766448 -0.017680658
000010 4b b6 4c 3d d2 4d ba 3d 49 65 27 3e d2 2b 7e 3d
       0.049978536 0.09096874 0.16347231 0.06205351
000020 c5 c2 7d 3c 3a 6c d3 3d 02 37 3f 3c a4 8d b7 bd
       0.015488331 0.10323377 0.01167083 -0.08962563
000030 9f 02 8d 3d a5 d0 a0 3c 08 00 c7 b8 b3 67 74 bc
       0.068852656 0.01963074 -9.489065e-05 -0.014917302
000040 e2 f7 65 3c 18 03 e9 3d 29 56 0f 3e ec 8b 35 3d
       0.014036151 0.11377543 0.13997711 0.044322893
000050 2e 33 ff bc 8a b0 7e bd 76 49 93 3d 8b 77 93 bc
       -0.031152334 -0.06218008 0.07191746 -0.018001338
000060 c7 bc 94 3b 4e 37 a5 3d 0a 2e 6a 3d cc d6 94 3d
       0.0045391056 0.08067189 0.057172813 0.07267532
000070 2d c8 95 bc d8 85 d6 3d 05 21 9c bd ae 19 82 3d
       -0.018283928 0.104747474 -0.076234855 0.06352554
000080 63 ae 6b bd d2 52 ca 3d 9d 4c ca bd b6 f7 94 3d
       -0.057539355 0.09879078 -0.09877894 0.072738096
000090 d5 51 e0 3c a8 8a b5 bd 32 37 2f bd cf 77 02 3d
       0.02738277 -0.08864337 -0.042777248 0.03185254
0000a0 58 b8 85 bd ec 3c 9f 3d 85 bb fa 3d 0c 17 da bd
       -0.065293014 0.07775292 0.12242798 -0.10648927
0000b0 8f 9e d0 3d a9 e5 10 3e e2 09 e5 bd a8 6b a3 3d
       0.10186493 0.14150108 -0.111835256 0.07979518
0000c0 3a d2 5f 3d e3 4f da bc a1 65 04 3c ae e5 56 bd
       0.054643847 -0.026649421 0.008080871 -0.052465133
0000d0 c3 41 8e 3d 6d c8 62 bd fe 7f 82 bd 5c 90 24 3e
       0.06946137 -0.055366922 -0.06372069 0.16070694
0000e0 9c f8 c5 bd 68 2d e9 3d ca 8b c0 3d 10 5b 63 bd
       -0.09666559 0.11385614 0.09401663 -0.055506766
0000f0 21 ac 4e bd ea 3a 15 bc 48 2c 99 3d 8b ed f2 bc
       -0.050457124 -0.0091082845 0.07479149 -0.029654285
000100 0d a2 66 bd ec c4 ca bd 53 35 9e bc 6d 90 7d 3d
       -0.056306887 -0.09900841 -0.019312536 0.061905313
000110 0d 45 e3 3d 57 4d a2 3d a1 39 ff 3d 0b c1 e2 bd
       0.11097155 0.07924908 0.12462164 -0.11071976
000120 03 9b 09 bd bf 80 6f bd c4 a8 eb 3d 63 2c 87 3d
       -0.033595096 -0.05847239 0.11506799 0.06600263
000130 5c 19 cc 3d 01 1d dc bd d7 a0 f6 3c d0 f7 b4 bc
       0.099657744 -0.107477196 0.030105991 -0.022090822
000140 04 e5 a7 3d 56 94 ee bb c3 42 6e bd 09 40 83 3d
       0.08197978 -0.0072808666 -0.058169138 0.06408698
000150 5a d9 ec 3d 00 f8 4d 3d ef 52 d4 3c b7 cb f0 3d
       0.11564894 0.05028534 0.025918452 0.117576055
000160 65 a3 24 3d c5 52 d3 bc 21 86 e7 bd 36 f7 f8 3c
       0.040194888 -0.025796304 -0.1130488 0.030391317
000170 20 43 b3 bd a2 a2 a8 3d a3 80 9a 3d 08 1e 31 bd
       -0.087530375 0.08234145 0.07544067 -0.04324153
000180 2f 7d 2d bd 61 bc b6 bd 85 8a ad 3c 73 37 29 bd
       -0.042355713 -0.08922649 0.021184215 -0.041312646
000190 5e 59 87 bc 12 74 ef 3d 5b 51 e8 bd 3c c6 ae bd
       -0.016522106 0.116920605 -0.11343642 -0.08533904
0001a0 08 1c 44 bd d9 2a b0 bd ed 81 14 bc 5f f9 8b 3d
       -0.047878295 -0.086019225 -0.00906418 0.06834673
0001b0 bc 94 33 3d 6e 29 ba bd f2 fa a7 3d 0b 88 3a bd
       0.043843016 -0.09089933 0.08202161 -0.045539897
0001c0 a1 30 8d bc e1 cb 36 3c c2 cc 64 3d 85 de c9 3d
       -0.017235102 0.011157007 0.055859335 0.09856895
0001d0 e1 e7 80 bd e6 b3 c1 bc 7a 5f 94 3b c7 7b 2d bc
       -0.062942274 -0.023645353 0.0045279833 -0.010588593
0001e0 ad 4b b1 3b 35 6a a1 bd 7e ec e2 bd 49 c5 b1 3d
       0.0054106326 -0.078815855 -0.110802636 0.08680207
0001f0 24 7f 90 bc 0e 02 df 3d d0 01 91 3d e7 95 3e bd
       -0.01763875 0.10889064 0.07080424 -0.046529677
000200 84 3d ed bc 43 73 e6 bc 38 93 ae bd fe 34 47 3d
       -0.028959997 -0.028131133 -0.085241735 0.04863452
000210 90 97 c5 3d 61 d7 e3 bd cc 5a 9d 3d 9f 4a 91 bd
       0.09648049 -0.11125065 0.07683334 -0.07094311
000220 c8 1d b0 bc 69 45 d2 3d 40 d6 df bd 73 ad d6 3d
       -0.021498576 0.10267145 -0.10929537 0.104823016
000230 b3 cb 90 3d ea 58 a6 3d dd ec 9d 3c 96 a1 2c bd
       0.070701025 0.08122428 0.019277984 -0.042146288
000240 92 69 7b 3b 72 dd a8 3d e9 4e 0a 3e ea bc 5c bd
       0.0038362485 0.08245362 0.13506664 -0.0538911
000250 0b 55 c2 3c be 0f 44 3d b0 b2 05 bd 61 88 07 be
       0.023722192 0.047866575 -0.032641113 -0.13235618
000260 2f 7d 0e bd e1 6c c6 bb f3 4c b2 bd 0b f2 82 3c
       -0.034787353 -0.00605546 -0.08706083 0.015984556
000270 ee c3 6b 3d 75 7e c9 bd e8 b6 bb bc d2 f1 08 be
       0.0575599 -0.09838573 -0.022914365 -0.13373497
000280 2b 92 db bc 03 6c fc 3c dc 81 d2 bd aa 1b c7 bd
       -0.026803097 0.030813223 -0.10278675 -0.097220734
000290 e2 68 c2 bd da 92 e2 3a 93 21 96 3d 70 88 da 3b
       -0.09492661 0.0017286197 0.073306225 0.0066690966
0002a0 bc 5e 63 3d 42 89 10 bd 7e 5e f6 3d 56 30 e6 bd
       0.055510268 -0.03528715 0.12029742 -0.11239688
0002b0 0e 2d d8 bd 17 f7 0c bd 84 5d 5b 3d f0 a3 01 be
       -0.105554685 -0.03441533 0.05355598 -0.12660193
0002c0 e7 7c d7 3c 07 bc 0c bd 36 0e 31 3d 8d 73 07 be
       0.026304675 -0.034359004 0.043226443 -0.13227673
0002d0 17 8a 04 bd cb a2 45 3c 1a 4b 15 bd 23 cd 81 3d
       -0.032358255 0.012062739 -0.036448576 0.06337955
0002e0 a4 8c a0 bd 3c c6 96 3d 5f 51 22 3d bd 6f b2 3d
       -0.07839325 0.07362029 0.039628383 0.08712719
0002f0 16 42 76 3d d7 fd e9 3d aa f2 06 3e 47 5b 87 3c
       0.06012162 0.11425369 0.13178506 0.016523017
000300 7c d4 fa 3a 9f cd a1 3d d1 d7 cb bd 4f 55 1d 3e
       0.0019136812 0.07900547 -0.09953273 0.15364574
000310 e3 f4 52 3d de 55 a1 3d e9 86 10 3e 1e 9e c0 bd
       0.051503073 0.07877706 0.14113964 -0.094051585
000320 c8 15 bd 3d 02 d0 1a 3e 15 f9 74 bc fa 44 c7 bc
       0.0923267 0.15118411 -0.014951964 -0.024324883
000330 31 5b fa 3b 7f 32 c7 3d 30 4f f1 3d f0 9c b6 3d
       0.0076402654 0.09726428 0.11782682 0.08916652
000340 c1 48 db 3c 00 12 2c bc cc 3c ad 3d e9 38 bc bd
       0.02676809 -0.010502338 0.08458862 -0.09190542
000350 71 f2 42 bd 98 20 f7 bc 8b 68 ab 3d 86 1a a8 3b
       -0.04759449 -0.03016691 0.08369549 0.005130115
000360 0c be 42 bd 35 22 21 bd 25 17 82 3d d9 ca a0 3d
       -0.047544524 -0.039339263 0.06352071 0.0785119
000370 d6 a3 ae 3d 3c a7 c9 bc 08 7b f6 3d 42 56 f2 3d
       0.08527343 -0.024615876 0.12035185 0.118328586
000380 36 15 a1 3d 7c 7f 52 bd 3f da 30 bd 66 92 af bd
       0.07865374 -0.05139111 -0.043176886 -0.08572845
000390 54 ff 31 3d 70 54 ed bc 53 4b 1e bc 6e d1 02 3e
       0.04345639 -0.028970927 -0.009661513 0.12775204
0003a0 ae 4a f0 3d f9 b2 f0 bd 07 db 85 bc 67 9c d8 bd
       0.11732994 -0.11752886 -0.016339792 -0.105767064
0003b0 a3 07 e6 3d 34 ad c8 3d 09 93 9f 3d 59 0a 18 bd
       0.11231925 0.09798661 0.077917166 -0.037119243
0003c0 f2 05 a6 3d 56 17 af 3d c2 1d 20 3d 72 c7 d1 bd
       0.08106603 0.08549373 0.03909088 -0.10243119
0003d0 ca c3 e9 3d ae ea 83 bd bb 6e bd 3c 27 5c b4 3d
       0.11414297 -0.06441246 0.02312409 0.08806639
0003e0 ee 82 9d 3d 6d 80 7c bd 12 82 8a bd 10 5e c4 3c
       0.076909885 -0.061645914 -0.0676309 0.023970634
0003f0 05 d5 86 bc 40 f0 8a bd 06 c2 e6 3b 22 66 79 bd
       -0.016458998 -0.06784105 0.0070421724 -0.060888417
