model_group/models_group_all/LSTM_model_MANHATTAN_FREDERICK DOUGLASS BOULEVARD.pth (torch, 359036 bytes, 17 tensors)

input_projection.weight f4 [9, 9]
0	0x3eb43b11	0.35201314
1	0x3e76ec69	0.24113621
2	0xbdc0c9db	-0.09413501
3	0xbe5ae2f5	-0.2137564
4	0xbe346270	-0.17615676
5	0x3e971ad9	0.2951267
6	0x3da71251	0.081577905
7	0x3e600d3d	0.2188005
8	0xbdad509b	-0.0846264
9	0x3e8d32e9	0.27577904
10	0x3dff2e36	0.12459986
11	0xbd504041	-0.050842527
12	0x3e818ca0	0.253026
13	0x3dfc0016	0.12304704
14	0xbe854a3c	-0.260332
15	0xbdf95f05	-0.12176327
16	0xbde7b3c9	-0.11313588
17	0xbe6f300e	-0.23358175
18	0xbe930e55	-0.28721872
19	0x3cb2d392	0.0218294
20	0x3b793738	0.0038027298
21	0xbe73b09a	-0.23797837
22	0xbe250b48	-0.16117585
23	0xbdd6ca15	-0.10487763
24	0xbd8ec82b	-0.06971773
25	0x3d517076	0.05113264
26	0xbe24ee76	-0.1610659
27	0xbe35a1ec	-0.1773755
28	0x3e4f3e47	0.202386
29	0xbd3696f7	-0.044577565
30	0xbe706981	-0.23477747
31	0xbe7767e4	-0.24160725
32	0x3c2e7579	0.010648125
33	0x3eba7668	0.36418462
34	0xbe9b066e	-0.30278343
35	0xbe83c82f	-0.25738665
36	0x3ea89c18	0.3293159
37	0xbe692326	-0.22767314
38	0x3e1b2f4a	0.15154758
39	0xbcb7e07b	-0.022445908
40	0xbe83824f	-0.25685355
41	0xbe1d0dac	-0.15337247
42	0x3d7a7e8a	0.061155833
43	0xbeaa95de	-0.33317465
44	0x3e5cb143	0.21551995
45	0xbeb32001	-0.34985355
46	0x3e932ff7	0.28747532
47	0x3e1b8087	0.15185748
48	0x3dd75845	0.10514883
49	0xbe8d984e	-0.27655262
50	0xbe94dff4	-0.29077113
51	0xbe3fb4e8	-0.18721354
52	0x3e7e2c7e	0.2482166
53	0x3e80ea7a	0.2517889
54	0xbd4e8e0a	-0.050428428
55	0xbe89692d	-0.26838055
56	0x3e3152c1	0.17316724
57	0x3df9e856	0.12202518
58	0x3e83e355	0.25759378
59	0x3e8a943f	0.27066228
60	0xbdd04d1c	-0.101709574
61	0x3e84313d	0.25818816
62	0xbb9b0256	-0.004730503
63	0xbca0ae3a	-0.019614328
64	0x3e04599c	0.12924808
65	0x3d8b9f7c	0.068175286
66	0xbea703de	-0.32620138
67	0x3dfc329e	0.12314342
68	0xbd62ce41	-0.05537248
69	0x3c14a557	0.009072623
70	0xbd40be57	-0.047056522
71	0xbe865557	-0.26236984
72	0x3e6ba1c3	0.23010926
73	0x3e7826bd	0.24233527
74	0x3e15d874	0.14633352
75	0xbda1e179	-0.079043336
76	0xbd7804de	-0.060551517
77	0xbe915fea	-0.2839349
78	0x3daf06c0	0.08546209
79	0x3e349318	0.17634237
80	0x3e9ab0f0	0.30213118

input_projection.bias f4 [9]
0	0xbe6216de	-0.22079036
1	0xbd021560	-0.031758666
2	0xbd8b5fbd	-0.0680537
3	0xbde0ff68	-0.10986215
4	0x3e827f0f	0.25487563
5	0x3dcf4d19	0.10122127
6	0x3dc43270	0.09579933
7	0x3e8ea491	0.2785993
8	0x3d218dc3	0.039441835

cells.0.x2h.weight f4 [256, 9]
0	0xbdd1c302	-0.10242273
1	0xbe8f857d	-0.2803153
2	0x3e8dae2a	0.2767194
3	0x3dddc391	0.10828317
4	0xbd8564b6	-0.0651335
5	0xbe903175	-0.28162733
6	0x3e594910	0.21219277
7	0x3e155fa6	0.14587268
8	0xbde8f331	-0.1137451
9	0x3e4edc19	0.20201148
10	0xbdc0ab51	-0.09407676
11	0x3eaad24b	0.33363566
12	0xbcb4681b	-0.022022298
13	0x3eb43099	0.35193327
14	0xbc0773bf	-0.008267342
15	0x3e175bcb	0.1478111
16	0xbdc0bd43	-0.09411099
17	0xbdf16f05	-0.117887534
18	0x3e41fd92	0.18944386
19	0x3e16517e	0.14679524
20	0xbe236cdb	-0.15959494
21	0xbd75ed53	-0.060040783
22	0x3d88f35b	0.06687041
23	0x3e348b13	0.17631178
24	0xbdae900b	-0.08523568
25	0x3ea39dba	0.31956273
26	0xbeab5700	-0.33464813
27	0xbe3cf4f5	-0.18452819
28	0xbe8374b5	-0.25674978
29	0x3e2a4882	0.16629222
30	0x3e80443c	0.2505206
31	0x3ebd1a60	0.36934185
32	0x3e8559ae	0.26044983
33	0xbe17ed3c	-0.14836591
34	0xbdfc1756	-0.123091385
35	0xbd93e523	-0.07221439
36	0x3c54180a	0.0129451845
37	0x3e46913d	0.19391342
38	0xbdf7d3d6	-0.121009514
39	0xbe851a58	-0.2599666
40	0x3df91aad	0.12163291
41	0x3e54eaf5	0.20792754
42	0x3ea1a831	0.31573632
43	0x3de2dd50	0.11077368
44	0x3dbe7d5a	0.09301253
45	0x3e93114c	0.28724134
46	0xbe81ccf6	-0.25351685
47	0x3cb9bf15	0.022674123
48	0xbe992a04	-0.29914868
49	0x3e745163	0.23859172
50	0x3e5d0a43	0.21585946
51	0x3e5a5aa9	0.21323647
52	0x3e71b495	0.23604043
53	0x3e58a7e9	0.21157803
54	0xbe8412a5	-0.25795475
55	0xbec61b29	-0.38692597
56	0x3eaa52be	0.33266252
57	0x3e17babc	0.14817327
58	0xbe917b36	-0.28414315
59	0x3e966bb9	0.2937906
60	0xbe85fa0d	-0.26167336
61	0x3ea6f86f	0.32611415
62	0xbe288ba3	-0.16459517
63	0xbeb933bf	-0.36172292
64	0xbd9634b5	-0.07334272
65	0xbe76a85e	-0.24087664
66	0xbe10bf37	-0.14135443
67	0xbd8c04a3	-0.06836822
68	0x3e3dc261	0.18531181
69	0xbe3bed77	-0.18352304
70	0xbe8be53a	-0.27323323
71	0xbdba5078	-0.090973794
72	0x3e876b7a	0.26449186
73	0xbdad6b6d	-0.084677555
74	0xbe6efb82	-0.2333813
75	0x3e397f3c	0.18114942
76	0x3d74187d	0.059593666
77	0x3e335ab5	0.1751507
78	0x3da4db4c	0.0804964
79	0xbd363d3d	-0.044491995
80	0x3e08f94a	0.13376346
81	0xbc1913ad	-0.00934307
82	0x3e632c7a	0.22184935
83	0x3cd6b661	0.026210012
84	0xbe17f248	-0.14838517
85	0xbead8384	-0.338894
86	0x3e64173c	0.22274488
87	0x3dbedd1c	0.09319517
88	0xbe87cbac	-0.26522577
89	0x3e469500	0.19392776
90	0x3d3a6c2b	0.045513313
91	0xbe950819	-0.2910774
92	0x3e9a2ab3	0.30110702
93	0x3d23becc	0.03997688
94	0xbea2ffa2	-0.31835657
95	0xbda79841	-0.08183337
96	0xbdee3aed	-0.11632333
97	0x3c8253be	0.015909072
98	0xbe9d6280	-0.30739212
99	0x3e52d8ed	0.20590563
100	0x3de98e60	0.11404109
101	0x3e86e81c	0.2634896
102	0x3e6c128c	0.2305395
103	0x3e14ef85	0.14544494
104	0xbe5bb438	-0.21455467
105	0x3e43804a	0.19091907
106	0x3e873d6d	0.26414052
107	0x3e206810	0.15664697
108	0xbe99e25c	-0.3005551
109	0x3e4f15f5	0.2022322
110	0xbcea97ad	-0.028636778
111	0xbd8fb698	-0.07017249
112	0xbe8a5799	-0.27019957
113	0x3db4c294	0.08826175
114	0x3e8745fc	0.2642058
115	0x3e979528	0.29605985
116	0xbe3d6fce	-0.18499681
117	0x3e19bd51	0.15013625
118	0x3e88b1ea	0.26698238
119	0x3e99d091	0.30041936
120	0xbd5b7811	-0.0535813
121	0xbe2af6dd	-0.16695733
122	0x3e745ec3	0.23864274
123	0xbe8bc00a	-0.27294952
124	0xbe14a7af	-0.14517091
125	0x3ebda273	0.37038
126	0xbe8b7e1a	-0.27244645
127	0xbe2b51f2	-0.16730478
128	0xbdd2fecf	-0.10302507
129	0x3cbcc3eb	0.02304264
130	0xbe90a923	-0.2825404
131	0xbd91f1a8	-0.071261704
132	0x3e498a22	0.196816
133	0x3e143866	0.1447464
134	0x3e92296e	0.28547233
135	0xbe995a3d	-0.2995166
136	0x3e39b88f	0.1813681
137	0xbd8798be	-0.0662093
138	0xbdc7ef50	-0.09762442
139	0x3e1fd830	0.15609813
140	0xbe1c9a4a	-0.15293232
141	0x3e6f99c2	0.23398498
142	0x3e8e937c	0.27846897
143	0x3e846b2d	0.2586302
144	0x3d92238b	0.071356855
145	0x3e8804d5	0.26566187
146	0xbd5a0a75	-0.05323263
147	0x3e1cf0ea	0.15326276
148	0x3d023a30	0.031793773
149	0xbe4bfa00	-0.19919586
150	0xbe389171	-0.18024231
151	0x3e1a3383	0.15058713
152	0x3e2ab3ff	0.16670226
153	0x3d4ee905	0.050515193
154	0xbe118465	-0.14210661
155	0x3e23b4c2	0.15986922
156	0x3ce4c883	0.027927643
157	0xbe810e51	-0.25206235
158	0xbe04bdd1	-0.12963034
159	0x3d392c39	0.04520819
160	0x3e7b039d	0.24513097
161	0xbeb7584c	-0.35809553
162	0x3e3d560b	0.18489854
163	0x3e4380a0	0.19092035
164	0x3d2bf423	0.041980874
165	0x3db0d2b3	0.08633938
166	0x3e984602	0.29740912
167	0x3d6321d9	0.0554522
168	0x3e4cc97c	0.19998735
169	0xbe8ff9cd	-0.2812027
170	0x3eaebd89	0.3412898
171	0xbe07e6d0	-0.13271642
172	0xbecb6147	-0.39722654
173	0x3ec6f6d5	0.38860193
174	0x3e157691	0.1459601
175	0xbe2dd708	-0.16976559
176	0x3ed4364e	0.4144768
177	0xbdb99ca3	-0.09063079
178	0x3ea8a12c	0.32935464
179	0xbb7647fd	-0.003757953
180	0xbe8e1863	-0.2775298
181	0x3ccaf3ae	0.024774399
182	0x3ebaec8f	0.36508605
183	0xbe329f52	-0.17443588
184	0x3eab315b	0.33436093
185	0xbe912d72	-0.28354985
186	0x3e80249d	0.25027934
187	0xbdd94fc1	-0.10610915
188	0x3e455751	0.1927159
189	0xbdd97daa	-0.10619672
190	0xbe530504	-0.20607382
191	0x3dd37090	0.10324204
192	0xbe370836	-0.17874226
193	0xbcafff01	-0.0214839
194	0x3e67ec59	0.22648753
195	0x3e53137a	0.20612898
196	0x3e476b5a	0.19474545
197	0xbe96b984	-0.29438412
198	0xbe45ace8	-0.1930424
199	0xbe24275d	-0.16030641
200	0xbeae30ca	-0.34021598
201	0x3e9c9d35	0.3058869
202	0xbe51d2dd	-0.20490594
203	0xbc43a2e1	-0.011940689
204	0xbe9c8f2b	-0.30577978
205	0x3eb34536	0.3501374
206	0x3d783ee2	0.060606845
207	0x3dcca6b1	0.09992731
208	0xbc85fa4d	-0.016354704
209	0xbce39710	-0.027781993
210	0x3e4a73b3	0.19770698
211	0xbe381cad	-0.17979689
212	0xbe5893bc	-0.21150106
213	0x3e04ba06	0.12961587
214	0x3dd3181c	0.10307333
215	0xbe172071	-0.14758469
216	0x3e7a4196	0.24439082
217	0xbea2dbe9	-0.31808403
218	0x3e973ce9	0.29538658
219	0x3e98c72f	0.29839465
220	0xbeacd78b	-0.33758196
221	0x3e9dff66	0.30858916
222	0xbeb68ab8	-0.3565271
223	0xbdfe6ba4	-0.124228746
224	0xbe87dd0b	-0.2653583
225	0xbe2c6283	-0.16834454
226	0x3d689f4c	0.056792542
227	0x3dc4c1e5	0.09607295
228	0x3b593298	0.0033141728
229	0x3e7376e9	0.2377583
230	0xbe66185c	-0.2247023
231	0xbe835858	-0.25653338
232	0x3e783388	0.24238408
233	0xbe71df35	-0.23620303
234	0xbeb9fec6	-0.3632719
235	0x3e235de9	0.15953793
236	0xbe367802	-0.17819217
237	0x3e47a051	0.1949475
238	0xbd3acfe0	-0.0456084
239	0xbd3b1838	-0.045677394
240	0x3d11fb8d	0.03564029
241	0x3dd9b575	0.10630313
242	0x3e110e20	0.14165545
243	0xbe8d27c9	-0.27569416
244	0xbea7aee0	-0.32750607
245	0x3d15de39	0.03658888
246	0xbe2018e9	-0.15634502
247	0xbe2f0ffc	-0.17095941
248	0x3b5b0b48	0.0033423472
249	0xbe350886	-0.17679033
250	0xbe6fbbee	-0.23411533
251	0xbc904a80	-0.01761365
252	0xbe09633c	-0.13416761
253	0x3e1e3c28	0.15452635
254	0x3eac2fc0	0.3363018
255	0x3d1877e6	0.03722372

cells.0.x2h.bias f4 [256]
0	0x3c3a23b7	0.011361054
1	0x3e89ca1b	0.26912007
2	0x3dc51ce7	0.09624653
3	0x3e11987a	0.14218321
4	0x3e9bd29f	0.3043413
5	0x3dd502d1	0.10400928
6	0x3e09e646	0.13466749
7	0x3d7360f3	0.05941863
8	0x3e4be67e	0.19912145
9	0xbe01caa1	-0.12674953
10	0x3da8abfa	0.08235927
11	0xbc00a41c	-0.007851627
12	0x3dae1084	0.08499244
13	0x3dd9be98	0.10632056
14	0x3e26409f	0.16235588
15	0xbcd5ad00	-0.02608347
16	0xbe2ace8a	-0.16680351
17	0x3e33419e	0.175055
18	0x3e49a9dc	0.19693702
19	0xbce3c7ff	-0.027805327
20	0xbc9b8908	-0.01898624
21	0xbdb73082	-0.08944799
22	0xbe0a14ab	-0.13484447
23	0xbe1db1b6	-0.15399823
24	0x3e22c68e	0.15896055
25	0xbcbecbfb	-0.023290625
26	0x3e87ea87	0.26546118
27	0xbe0a47f1	-0.13504006
28	0xbe2ca6f8	-0.16860569
29	0x3db3fa2e	0.08787952
30	0x3ea189eb	0.31550536
31	0x3e9c0185	0.3046991
32	0xbdbda683	-0.09260275
33	0x3eba37c8	0.36370683
34	0xbe7e491b	-0.24832575
35	0xbe43451d	-0.19069333
36	0xbcda6014	-0.026657142
37	0x3dab25ac	0.08356795
38	0xbe7f92fa	-0.24958411
39	0x3de0f526	0.10984258
40	0x3e1859f3	0.14878063
41	0x3e2086a7	0.15676366
42	0x3e806f11	0.25084737
43	0x3e8a6b83	0.2703515
44	0xbe0542af	-0.13013719
45	0x3e74c560	0.23903418
46	0xbe2b4c2b	-0.16728275
47	0xbd6820b7	-0.056671824
48	0x3e3f4c61	0.1868148
49	0x3eaca51f	0.33719727
50	0x3d9f32ac	0.07773337
51	0xbe4663b9	-0.19373979
52	0x3e054698	0.1301521
53	0xbe15ad75	-0.1461695
54	0xbc9b5fe8	-0.01896663
55	0x3e937625	0.28801075
56	0x3d6db38e	0.058032565
57	0xbe8868a7	-0.26642343
58	0xbdd62a74	-0.10457316
59	0x3df34081	0.118775375
60	0xbcbf560d	-0.023356462
61	0xbb8a4da2	-0.0042206803
62	0x3eb60bea	0.35555965
63	0xbcd24226	-0.025666308
64	0x3cb00f78	0.021491751
65	0x3e7056e2	0.23470643
66	0xbe9ebfc8	-0.31005692
67	0x3d7a81b3	0.061158847
68	0xbe54dbb2	-0.20786932
69	0xbe7c54c8	-0.24641716
70	0x3e16c30a	0.14722839
71	0xbd185d5b	-0.037198406
72	0xbe3f3e3d	-0.18676086
73	0xbde6ba62	-0.112660185
74	0x3b7600f4	0.003753719
75	0xbe508549	-0.20363344
76	0x3eb37b8d	0.350552
77	0xbe79c1ab	-0.24390285
78	0x3ea6d967	0.3258774
79	0x3a8563b6	0.0010176811
80	0xbdf67ae9	-0.12035162
81	0x3e4df625	0.20113428
82	0x3dba63ce	0.091010675
83	0x3e53f30f	0.20698188
84	0x3eae9b6a	0.34102947
85	0xbe8a3bd1	-0.2699876
86	0xbe62f594	-0.22163993
87	0x3e4ef66f	0.20211194
88	0x3e62775b	0.22115843
89	0x3dcb463f	0.09925508
90	0x3eab4ad2	0.3345552
91	0x3e94e550	0.29081202
92	0xbe376629	-0.17910065
93	0xbe8d16de	-0.2755651
94	0x3e8e2ab5	0.27766958
95	0xbe37a751	-0.1793492
96	0xbdd871b4	-0.10568562
97	0xbe233abf	-0.15940379
98	0xbe4a7560	-0.19771338
99	0x3e96f172	0.29481083
100	0xbe4cb638	-0.19991386
101	0x3c884df3	0.016638732
102	0x3d9ce5ef	0.07661044
103	0x3cb7f410	0.022455245
104	0x3e446ba5	0.19181688
105	0xbdab720c	-0.08371362
106	0x3e9efdff	0.3105316
107	0x3b794d09	0.0038040301
108	0x3e48f97f	0.19626425
109	0x3e823e20	0.25438023
110	0xbe082943	-0.1329699
111	0x3e682a25	0.22672327
112	0xbe43c851	-0.19119383
113	0x3e4a05da	0.19728795
114	0x3ed786ee	0.4209513
115	0x3e1c4f97	0.15264736
116	0x3e34bc6d	0.17650004
117	0x3e5b378f	0.21407913
118	0x3e7f756f	0.24947141
119	0xbe61f64a	-0.22066608
120	0x3e864783	0.26226434
121	0xba972d7f	-0.0011533945
122	0xbce0e0c1	-0.027450921
123	0x3d57ee1b	0.05271731
124	0x3e9a19cf	0.30097815
125	0x3d492bcb	0.04911403
126	0x3da12aac	0.07869467
127	0xbe24aa01	-0.16080476
128	0x3e8d332e	0.2757811
129	0x3e593b95	0.21214135
130	0x3cb0266d	0.021502698
131	0xbe4e992b	-0.20175616
132	0xbe220b70	-0.15824676
133	0xbe9b9c88	-0.3039286
134	0xbe93202e	-0.2873549
135	0xbdbfa7f6	-0.09358208
136	0x3db7745c	0.08957741
137	0x3e6e2da5	0.232596
138	0xbea5305e	-0.32263464
139	0xbe767c90	-0.24070954
140	0x3eaadb67	0.33370516
141	0x3de6e9f0	0.11275089
142	0x3dfa83b4	0.12232152
143	0xbe2c5163	-0.16827922
144	0xbe128fb2	-0.14312628
145	0xbeaa9ab0	-0.33321142
146	0xbde23842	-0.110458866
147	0xbe8be6f6	-0.27324647
148	0x3e5a923f	0.21344851
149	0x3e77eb3b	0.24210827
150	0x3e0f6bed	0.14006014
151	0x3da57375	0.08078662
152	0x3dfe608b	0.12420758
153	0x3e658184	0.22412688
154	0x3e9156b9	0.28386477
155	0xbe9c98ab	-0.30585226
156	0xbe623333	-0.22089843
157	0x3e1df98d	0.15427227
158	0x3e1c5622	0.15267232
159	0xbe2d5035	-0.16925128
160	0xbe86b06e	-0.2630648
161	0x3c3c0854	0.011476595
162	0x3d33f637	0.04393598
163	0x3c07976f	0.008275851
164	0x3ea46b43	0.32113084
165	0xbc87246d	-0.016496861
166	0x3c9f3aa8	0.01943715
167	0xbdfa255e	-0.122141585
168	0x3eab1457	0.33413956
169	0x3df41e04	0.119197875
170	0x3e899184	0.26868832
171	0x3d703e2c	0.05865304
172	0xbe738dd5	-0.23784573
173	0xbe08f847	-0.1337596
174	0x3d5f205b	0.054474216
175	0x3e5e1e15	0.21691163
176	0x3eb894cf	0.36051032
177	0xbe44398e	-0.1916258
178	0xbea2f16e	-0.3182482
179	0x3e13ea9e	0.14444968
180	0x3ea869ab	0.32893118
181	0xbe91f64e	-0.28508228
182	0xbe34f283	-0.17670636
183	0xbcde55dc	-0.02714055
184	0x3e056959	0.13028468
185	0xbcd98065	-0.026550481
186	0x3a88a393	0.0010424725
187	0x3adf8934	0.001705444
188	0xbe9c0a9b	-0.3047684
189	0x3e98edc3	0.29868898
190	0x3e8d16e9	0.27556542
191	0x3d0dc7eb	0.034614485
192	0x3db8b42d	0.09018741
193	0x3e8e0fcf	0.27746436
194	0x3ec32fcf	0.38122413
195	0xbe75045f	-0.23927449
196	0xbe84fc39	-0.2597368
197	0x3e561bf9	0.20909108
198	0xbe1614f4	-0.1465643
199	0xbb7fde6e	-0.003904249
200	0xbe82e31b	-0.25563893
201	0x3e4bd279	0.19904508
202	0xbe53158a	-0.20613685
203	0x3d0019b1	0.0312745
204	0xbe2fc8a0	-0.17166376
205	0x3e9f2a94	0.31087172
206	0x3d30cf9f	0.043166753
207	0x3e018fb3	0.12652473
208	0xbdc7fa9d	-0.097645976
209	0x3dbaf69a	0.09129067
210	0xbd083be1	-0.03326023
211	0x3d9737b2	0.0738367
212	0x3ea2e312	0.31813866
213	0xbe511c7b	-0.2042102
214	0x3eb315a3	0.34977445
215	0xbe0a2a58	-0.13492715
216	0x3e9e0fb0	0.30871344
217	0x3e7cc2aa	0.24683633
218	0x3e8474b0	0.25870275
219	0xbcbb9c2d	-0.022901619
220	0x3dd04b11	0.10170568
221	0x3e775644	0.24154001
222	0xbd0e456e	-0.034734182
223	0xbe093390	-0.13398576
224	0xbd09b999	-0.033624265
225	0xbd08633c	-0.033297762
226	0x3d9deafe	0.07710837
227	0xbe5cb9e8	-0.21555293
228	0xbd144d5a	-0.03620658
229	0x3eaeddb0	0.3415351
230	0xbdd68dd0	-0.10476267
231	0x3e9d30b7	0.3070123
232	0xbe85b677	-0.26115772
233	0xbe90184d	-0.2814354
234	0x3eab9c86	0.33517855
235	0xbdb1bd32	-0.08678664
236	0x3e15220b	0.14563768
237	0xbe61241a	-0.21986428
238	0x3d38850e	0.045048766
239	0xbdea7996	-0.11448972
240	0x3e80f703	0.25188455
241	0xbe9a6f3f	-0.30163
242	0xbe0af678	-0.13570583
243	0x3e48d4ed	0.19612475
244	0xbe71f0db	-0.23627035
245	0x3ce3704d	0.02776351
246	0xbe888dd9	-0.2667072
247	0xbdd0b4a5	-0.10190705
248	0x3d0a4cf3	0.03376479
249	0x3e9d7ab6	0.30757684
250	0x3ebfe3ec	0.37478578
251	0x3e4444b7	0.19166838
252	0xbd61478b	-0.05499987
253	0x3de15ec7	0.110044055
254	0x3e212c0b	0.15739457
255	0xbd262317	-0.040560808

cells.0.h2h.weight f4 [256, 64]
0	0x3e03da78	0.12876308
1	0xbc2c8c14	-0.010531444
2	0xbc6aaa21	-0.014322788
3	0xbdec3d03	-0.115350746
4	0x3e09b23c	0.13446897
5	0x3d7d3b04	0.06182386
6	0x3c24b51f	0.010052948
7	0x3e2ced88	0.16887486
8	0x3da745b7	0.08167594
9	0x3dc70436	0.097176
10	0xbe420a95	-0.18949349
11	0x3da134cb	0.078713976
12	0x3e48f15c	0.19623321
13	0x3e00a6b3	0.1256359
14	0xbdec763b	-0.11545988
15	0x3dd8090f	0.10548603
16	0xbc1f8f61	-0.009738774
17	0xbe23d85a	-0.160005
18	0x3ccfc888	0.025364175
19	0xbdb40c22	-0.08791377
20	0xbb2c557b	-0.0026296068
21	0x3dc8b1ee	0.097995624
22	0x3df21bf1	0.11821736
23	0xbd478b8d	-0.04871707
24	0x3e02e0a5	0.12781008
25	0x3d1318bb	0.035912257
26	0x3e044593	0.12917165
27	0x3d6e2477	0.058140244
28	0xbd0fc67e	-0.035101406
29	0x3dc5b965	0.09654502
30	0xbca8d619	-0.020609902
31	0xbd4246c4	-0.04743077
32	0x3bcf2749	0.006321822
33	0x3e25c359	0.161878
34	0xbca716ec	-0.020396672
35	0x3d934dc2	0.071925655
36	0x3dbc9491	0.09208024
37	0x3d2145be	0.039373152
38	0xbd5c533a	-0.05379031
39	0xbde1a3d2	-0.11017574
40	0x3d530718	0.051520437
41	0x3e0dcfe8	0.13848841
42	0xbce013ea	-0.027353246
43	0x3c8e3ff2	0.017364476
44	0xbdb2ae21	-0.08724619
45	0xbe011035	-0.12603839
46	0x3e103ed2	0.14086464
47	0x3e47ca19	0.19510688
48	0x3d78e933	0.06076927
49	0x3caa73f0	0.020807236
50	0xbe15dfad	-0.14636107
51	0xbd94ef96	-0.0727226
52	0x3d3ba8b1	0.045815174
53	0x3dc0fb5c	0.09422943
54	0xbd9e547a	-0.077309564
55	0xbe21bb13	-0.1579402
56	0xbe0b9304	-0.13630301
57	0x3db6c09a	0.089234546
58	0x3d0c9712	0.03432376
59	0xbe2f761e	-0.17134902
60	0xbd6a43c6	-0.05719354
61	0x3e05d02b	0.13067691
62	0x3d970e97	0.0737583
63	0xbe0075f9	-0.12545003
64	0x3d8ea454	0.06964937
65	0x3de59d4a	0.11211641
66	0x3d6f6e3a	0.05845473
67	0xbda85f0f	-0.08221256
68	0xbd922ec9	-0.0713783
69	0x3d35b2ea	0.04436008
70	0xbd64e737	-0.055884566
71	0xbdcbf99a	-0.09959717
72	0x3d82016f	0.0634793
73	0xbdb41cda	-0.087945655
74	0xbdb38519	-0.08765621
75	0xbdb3fb0b	-0.08788117
76	0x3d8d5932	0.06901778
77	0xbcfe4482	-0.031038526
78	0xbe31db63	-0.17368846
79	0xbdf9ae34	-0.1219143
80	0xbe042e5a	-0.12908307
81	0xbd673b94	-0.056453303
82	0x3cb17505	0.021662245
83	0xbe0c5dc7	-0.13707648
84	0xbd06f416	-0.032947622
85	0xbd9a94c7	-0.07547908
86	0xbd9788aa	-0.073991135
87	0x3d2d6132	0.04232902
88	0x3d79699a	0.060891725
89	0x3ca29b62	0.019849483
90	0xbc7a7c4c	-0.015288424
91	0x3dc5f4de	0.09665845
92	0x3d537a81	0.0516305
93	0xbcb30abd	-0.021855706
94	0x3d03393c	0.032037005
95	0xbe0a33de	-0.13496348
96	0x3dbd5750	0.09245169
97	0xbdd27b94	-0.10277477
98	0xbd9237db	-0.0713956
99	0x3d241d9f	0.04006731
100	0xbdbc3950	-0.09190619
101	0xbb73534b	-0.0037128504
102	0x3c79ac27	0.015238798
103	0x3c2b1273	0.01044141
104	0x3cf916f5	0.030406455
105	0x3a8cb5c8	0.0010735327
106	0x3dc9cc42	0.09853412
107	0x3df6e6cd	0.120557405
108	0x3d588c73	0.052868318
109	0xbddbe85f	-0.10737681
110	0xbca637f3	-0.02029035
111	0x3d30ef25	0.043196816
112	0x3e286e74	0.16448385
113	0xbc11b215	-0.008892556
114	0xbdedadb9	-0.116054006
115	0x3db35eff	0.087583534
116	0x3da929d5	0.08259932
117	0xbe4240c2	-0.18970016
118	0x3ded4ba4	0.11586693
119	0x3d966295	0.07343022
120	0x3e06afd0	0.13153005
121	0xbdb2864d	-0.08717022
122	0x3d5175ff	0.05113792
123	0xbd1cd274	-0.03828664
124	0xbd25ff1a	-0.040526487
125	0xbd70c367	-0.0587801
126	0x3d8b0603	0.06788256
127	0x3c1b5820	0.00948146
128	0x3cadc9ed	0.02121445
129	0xbd880709	-0.06641967
130	0xbd98ea60	-0.074665785
131	0xbd78e09f	-0.06076109
132	0x3c2307d7	0.0099506
133	0xbe1e98a1	-0.15487911
134	0x3d3ac23c	0.045595393
135	0xbdb90c39	-0.090355344
136	0xbd2d95f8	-0.04237935
137	0x3e361863	0.1778274
138	0xbe049d4e	-0.12950632
139	0xbd63219e	-0.05545198
140	0x3cdf84b2	0.027284954
141	0xbd602494	-0.054722384
142	0xbde4284a	-0.11140497
143	0xbd2b6b00	-0.04185009
144	0xbe1be4dc	-0.15224022
145	0xbd7cbb5d	-0.06170212
146	0xbd6a2792	-0.057166643
147	0xbdd7f095	-0.10543934
148	0xbd37006d	-0.04467814
149	0x3d70e1a4	0.058808938
150	0xbdba2255	-0.090885796
151	0x3876d9a0	5.885365e-05
152	0xbd534d3d	-0.051587332
153	0x3e0d005f	0.13769673
154	0xbd098d77	-0.033582177
155	0xbd989563	-0.07450368
156	0x3dfcb96f	0.12340056
157	0x3e0008d1	0.12503363
158	0x3d0327f2	0.032020517
159	0xbda61d33	-0.08111038
160	0xbe1aea77	-0.15128504
161	0x3d7a1bc0	0.06106162
162	0x3d750dc0	0.059827566
163	0xbd468987	-0.048471
164	0x3e033044	0.1281138
165	0xbe20e9a5	-0.15714128
166	0x3e114fc6	0.14190587
167	0x3d179628	0.037008435
168	0x3cd3e1e8	0.025864556
169	0x3dcb28bf	0.09919881
170	0x3d46105a	0.048355438
171	0x3e0dba25	0.1384054
172	0xbcfe4098	-0.03103666
173	0xbd895473	-0.067055605
174	0xbd4ced3c	-0.05003093
175	0xbd0a8559	-0.033818576
176	0x3e2a5c79	0.16636838
177	0xbd58e279	-0.052950356
178	0x3d847677	0.06467908
179	0xbd107c16	-0.035274588
180	0xbcb6adcf	-0.022299675
181	0x3def3bd0	0.1168133
182	0xbbc95f8a	-0.0061454223
183	0xbc32e83e	-0.010919629
184	0x3d8d8aba	0.069112256
185	0xbcb8f366	-0.022576999
186	0xbd28bba9	-0.04119459
187	0xbdac6a5f	-0.08418726
188	0xbdaf2162	-0.08551289
189	0x3dc536c3	0.096295856
190	0xbbadb0d1	-0.005300619
191	0x3da4eae9	0.08052618
192	0xbbc8d13f	-0.0061284597
193	0x3e016273	0.12635212
194	0x3dc36621	0.09540964
195	0x3db65d73	0.08904543
196	0xbb61d2e2	-0.0034457971
197	0xbe3d7be0	-0.18504286
198	0xbae2964f	-0.0017287227
199	0x3d90399e	0.070422396
200	0x3d839018	0.06423968
201	0xbd834241	-0.06409121
202	0x3ba0114a	0.0048848735
203	0x3c57febc	0.013183292
204	0xbc515396	-0.012776276
205	0xbd22a01e	-0.03970348
206	0xbe149309	-0.14509214
207	0xbd90bffa	-0.070678666
208	0xbd1e4ffb	-0.038650494
209	0xbd9f4964	-0.0777767
210	0xbd6210e8	-0.055191904
211	0xbd99d826	-0.0751193
212	0x3d2c6fcb	0.0420988
213	0x3c45eebc	0.0120808445
214	0x3da331eb	0.079685055
215	0xbcc38851	-0.023868712
216	0x3df2f674	0.118634135
217	0xbbc1eef7	-0.0059183794
218	0x3e0a27e8	0.13491786
219	0x3dc94401	0.09827424
220	0xbdffde95	-0.12493626
221	0xbc73ee8b	-0.014888416
222	0x3e2de01a	0.16980019
223	0x3d2c0ce8	0.042004496
224	0x3e05b54e	0.13057443
225	0xbda286dc	-0.07935879
226	0xbe009ef7	-0.1256064
227	0xbde75fdd	-0.11297581
228	0xbe05e569	-0.13075794
229	0xbdfd5597	-0.123698406
230	0xbc61138d	-0.013737571
231	0x3da04444	0.07825521
232	0x3d794610	0.060857832
233	0xbde00de7	-0.10940152
234	0x3dfa6ce1	0.12227798
235	0x3e2864d7	0.16444717
236	0x3cf9600c	0.030441307
237	0xbd7e2979	-0.06205127
238	0xb98382b0	-0.00025083637
239	0xbd1e556e	-0.03865569
240	0x3cf7f9c1	0.03027046
241	0xbcdf4eb8	-0.027259216
242	0xbb1b4dbf	-0.0023697463
243	0x3d411298	0.047136873
244	0x3dbc044b	0.09180506
245	0xbd4563e5	-0.04819097
246	0x3d8a46b3	0.06751766
247	0xbbc5a6a8	-0.00603183
248	0x3dd46782	0.10371305
249	0x3c094144	0.008377377
250	0xbd6257b3	-0.055259418
251	0x3dd39765	0.103316106
252	0x3d0bfe4f	0.034178074
253	0x3e1b5c3b	0.15171902
254	0x3de31e03	0.11089709
255	0xbcfa198f	-0.030529765

cells.0.h2h.bias f4 [256]
0	0x3e09881a	0.13430825
1	0xbd59e170	-0.05319351
2	0x3d991bc1	0.07475997
3	0x3e08b5b5	0.13350566
4	0x3e0fcc7c	0.14042848
5	0x3d27ed46	0.040997766
6	0xbd1fdcb9	-0.039028857
7	0xbd4e026a	-0.05029527
8	0xbdfc64cc	-0.12323913
9	0xbc0fa107	-0.008766419
10	0xbcbc2602	-0.022967342
11	0x3d2c61ea	0.042085566
12	0xbd8daa0b	-0.06917199
13	0xbd5dc437	-0.054142203
14	0xbd34b84d	-0.044121075
15	0x3ca1c6d3	0.019748127
16	0x3d52ba55	0.05144723
17	0x3dcf4cbf	0.1012206
18	0x3d3b6039	0.045746062
19	0x3dc4c19b	0.0960724
20	0x3dd919f6	0.10600655
21	0xbbcc1426	-0.006227988
22	0xbca40f5f	-0.02002686
23	0x3dff04f6	0.12452118
24	0xbd947f44	-0.072508365
25	0x3d5482be	0.051882498
26	0xbdb5feda	-0.088865
27	0x3da2ffba	0.07958932
28	0x3d8437b4	0.06455937
29	0x3d989904	0.074510604
30	0x3e0d5ae3	0.13804202
31	0x3bbe90a6	0.0058155833
32	0x3c623b79	0.013808125
33	0x3d359b84	0.044337764
34	0xbd99da40	-0.07512331
35	0xba1f49b9	-0.0006076354
36	0x3c6d4a7c	0.0144830905
37	0xbdb430dc	-0.08798382
38	0x3d9ec24b	0.07751902
39	0x3d8000e2	0.062501684
40	0x3df57ce4	0.119867116
41	0xbe06c99a	-0.13162842
42	0x3b111786	0.0022139265
43	0x3d46f8a9	0.048576985
44	0x3da11faf	0.07867371
45	0x3d9d6d7a	0.076868966
46	0x3d6e88f5	0.05823608
47	0x3d55d03e	0.05220055
48	0x3e0417f8	0.12899768
49	0x3e0799c9	0.13242258
50	0x3d582185	0.05276634
51	0xbce1c8a6	-0.027561497
52	0x3dbd83b9	0.0925364
53	0x3d999927	0.074999146
54	0xbd874297	-0.06604498
55	0x3bd49fc0	0.0064887702
56	0x3e1b4a17	0.15164982
57	0x3c93f3c3	0.01806057
58	0x3e1e2e31	0.15447308
59	0xbd89a835	-0.06721536
60	0x3bba0998	0.005677413
61	0xbd3e52cc	-0.04646568
62	0xbcd3b838	-0.025844678
63	0xbc17a79f	-0.009256273
64	0x3db7bc7d	0.08971498
65	0xb789f28c	-1.6444617e-05
66	0x3d4622ee	0.048373155
67	0x3e25328a	0.1613256
68	0x3dd09a75	0.1018571
69	0x3d621f6b	0.055205744
70	0x3d7bb3be	0.061450712
71	0xbd76751c	-0.060170278
72	0x3bde7607	0.0067889723
73	0xbca80750	-0.0205113
74	0xbd85a21c	-0.065250605
75	0x3d59c2a8	0.053164154
76	0xbd9ee0a0	-0.077576876
77	0x3da15440	0.078773975
78	0x3b2236bb	0.002475186
79	0xbc817449	-0.01580252
80	0xbdb96145	-0.09051756
81	0x3b6f7863	0.0036540262
82	0xbdc11124	-0.094270974
83	0x3d9d741e	0.07688163
84	0x3d3c9595	0.04604109
85	0xbcebc255	-0.028779188
86	0x3e4e606d	0.20153971
87	0xbbd26698	-0.0064209215
88	0xbde6b0eb	-0.11264213
89	0x3d2bd152	0.04194767
90	0xbda30c55	-0.079613365
91	0xbd31eacb	-0.043436807
92	0x3c48a2d2	0.012245851
93	0x3d9fee0a	0.07809074
94	0x3dc64435	0.09680978
95	0xbd2c5829	-0.042076264
96	0xbbf50045	-0.007476839
97	0xbdbc39fe	-0.09190749
98	0xbd026f36	-0.03184434
99	0x3dfc8036	0.12329142
100	0xbe0f1d64	-0.13976055
101	0xbdac89a7	-0.084246926
102	0x3dd64591	0.104624875
103	0xbdebbcf1	-0.11510647
104	0xbc8ad81f	-0.016948758
105	0x3cc5be44	0.024138577
106	0x3e0761e0	0.1322093
107	0x3df5adb8	0.11996025
108	0x3d1e3e4c	0.03863363
109	0xbd9c9fc7	-0.076476626
110	0xbe0816b7	-0.13289915
111	0xbd6d97b7	-0.058006015
112	0x3e1da677	0.15395533
113	0xba98ab4b	-0.0011647729
114	0x3d967489	0.07346446
115	0x3d46a0d8	0.048493236
116	0x3d0ef145	0.03489806
117	0x3df32ee6	0.118741795
118	0xbd95a721	-0.07307268
119	0x3d42f7f1	0.047599737
120	0xbd90402b	-0.07043489
121	0xbdb6dabb	-0.08928438
122	0xbcab4025	-0.02090461
123	0xbd847616	-0.064678356
124	0xbdb131b1	-0.08652056
125	0xbd9c18e7	-0.07621937
126	0x3df40c21	0.11916376
127	0x3db1b86e	0.08677755
128	0xbbb5f3d3	-0.0055527478
129	0xbcf70206	-0.030152332
130	0x3c7c815f	0.015411704
131	0x3d01335a	0.031543113
132	0x3de3bdcd	0.11120186
133	0xbde16629	-0.11005814
134	0x3d5d49d8	0.0540255
135	0x3e0aa338	0.13538826
136	0xbd0d2f81	-0.03446913
137	0xbc9d84d9	-0.019228386
138	0xbdcbd4ba	-0.09952684
139	0xbde2ef5a	-0.11080809
140	0xbc1ba748	-0.009500332
141	0x3cd17a9f	0.025571166
142	0xbdc9e906	-0.09858899
143	0xbd3811c7	-0.04493883
144	0xbd528f55	-0.051406223
145	0x3b335a1b	0.002736694
146	0x3dc1bb62	0.094595686
147	0x3d71fab5	0.059076983
148	0xbddf979c	-0.10917589
149	0x3d5a6b5a	0.053325035
150	0x3e0caaf6	0.13737091
151	0x3dbfd247	0.09366279
152	0x3dd48787	0.10377412
153	0xbb0c62fe	-0.0021421309
154	0x3d1f9679	0.03896186
155	0x3d8fbee7	0.070188336
156	0x3dc3d73a	0.095625356
157	0x3e0d42c8	0.13795006
158	0xbd79dd90	-0.061002314
159	0x3da78f9d	0.08181689
160	0x3beea975	0.0072833844
161	0x3d6d02bf	0.057863947
162	0xbd20ed85	-0.039289016
163	0x3d494680	0.0491395
164	0x3db395f1	0.087688334
165	0xbda65e0b	-0.08123406
166	0xbdb4cb93	-0.08827891
167	0x3cb88dfe	0.022528645
168	0x3d9c5f9f	0.07635426
169	0xbc2d78a2	-0.010587843
170	0x3d392508	0.04520133
171	0x3d6e05ae	0.058110885
172	0x3cd726f7	0.026263697
173	0xbd92f2c9	-0.07175214
174	0xbd639147	-0.05555847
175	0x3d51ac90	0.05118996
176	0xbda9db2b	-0.08293756
177	0x3d2b9806	0.041893028
178	0x3ca62b97	0.020284457
179	0xbd067d40	-0.03283429
180	0x3e0ba7c9	0.13638224
181	0x3d7dea28	0.061990887
182	0xbc2a8433	-0.010407495
183	0xbd5e9a9e	-0.054346673
184	0xbc88b8cf	-0.016689686
185	0xbdb934ea	-0.09043296
186	0x3d63fa24	0.055658475
187	0x3dd284e2	0.10279252
188	0x3db024d6	0.08600776
189	0xbdda000b	-0.106445394
190	0x3d4cacca	0.049969472
191	0x3dd82e0b	0.10555657
192	0xbc3bc010	-0.0114593655
193	0x3ac4fe0f	0.0015029329
194	0x3c910be2	0.017705861
195	0x3de44a1c	0.11146948
196	0xbd8c22b9	-0.0684256
197	0xbdb67a32	-0.08910026
198	0xbd90c810	-0.07069409
199	0x3dd9966b	0.10624393
200	0xbdc05ccd	-0.093927
201	0xbd178562	-0.03699244
202	0x3c2be834	0.010492373
203	0xbd7869d3	-0.060647797
204	0x3adbe85f	0.0016777626
205	0x3da4867d	0.08033464
206	0x3d893114	0.06698814
207	0x3d9bb2d6	0.076024696
208	0xbd5b5dc1	-0.053556208
209	0xbd5fd2fa	-0.054644562
210	0x3d8b4f60	0.06802249
211	0x3ac53369	0.0015045229
212	0xbd6a3080	-0.05717516
213	0x3b506d0c	0.0031803278
214	0x3cd6e014	0.026229896
215	0xbd9dc771	-0.07704056
216	0xbda26cd5	-0.07930914
217	0xbd876d85	-0.06612686
218	0x3d53b1a5	0.051683087
219	0xbdbfceaf	-0.09365594
220	0x3d8ce195	0.06878964
221	0x3c988860	0.018619716
222	0xbdb5d5bc	-0.08878657
223	0x3deb7ab0	0.1149801
224	0x3d76882b	0.060188454
225	0xbd554461	-0.052067164
226	0xbcf07cba	-0.02935635
227	0x3d826f54	0.063688904
228	0xbcd38da4	-0.025824375
229	0x3d978dc9	0.0740009
230	0x3d39ec80	0.04539156
231	0x3ca52f40	0.020164132
232	0x3da9bdf4	0.08288184
233	0xbd8493ef	-0.064735286
234	0x3da0c546	0.07850127
235	0xbd18f867	-0.03734627
236	0xba765fc3	-0.0009398425
237	0xbd5094a4	-0.050923005
238	0x3dc3462c	0.095348686
239	0x3d1213bf	0.035663363
240	0xbd9c2555	-0.07624308
241	0x3d986db4	0.07442799
242	0x3d07bac8	0.033137113
243	0xbd4018c6	-0.046898626
244	0x3d015e22	0.031583913
245	0x3da620b9	0.0811171
246	0x3de2fe58	0.110836685
247	0xbd64afeb	-0.05583183
248	0xbd5918f8	-0.053002328
249	0x3d695fa5	0.05697598
250	0xbc9b9b32	-0.018994901
251	0xbd89c1cf	-0.06726419
252	0x3d4e63ac	0.050388023
253	0xbd62096c	-0.055184767
254	0x3e02c262	0.12769464
255	0x3e12228c	0.14270991

cells.1.x2h.weight f4 [256, 64]
0	0x3e04b9e1	0.12961532
1	0x3bfcf003	0.0077190413
2	0xbd3a08ad	-0.04541843
3	0x3cbdd5bf	0.023173211
4	0xbcb68cac	-0.022283874
5	0x3d40b25e	0.047045104
6	0xbd1d1d15	-0.038357813
7	0x3da57312	0.080785885
8	0xbd39206f	-0.045196947
9	0xbe0dc301	-0.1384392
10	0x3d63027e	0.0554223
11	0x3dc538da	0.09629984
12	0xbda79c4c	-0.08184108
13	0xbbee49a8	-0.007271964
14	0xbe1112dd	-0.14167352
15	0xbd05c1bd	-0.032655466
16	0xbdd83830	-0.10557592
17	0x3c8eaed6	0.017417353
18	0xbcb8bc23	-0.022550648
19	0x3c283098	0.010265492
20	0x3d6f9248	0.058489114
21	0xbd5c04ed	-0.053715635
22	0x3d5803d1	0.052738015
23	0xbe1aff8c	-0.15136546
24	0x3d63779c	0.05553399
25	0x3aafdca8	0.0013417201
26	0x3e22d87a	0.15902892
27	0x3e01e934	0.12686616
28	0x3dfe4d73	0.12417116
29	0xbcc59b70	-0.02412197
30	0x3e46a4e8	0.19398844
31	0xbd8a6008	-0.06756598
32	0x3d7b2bbb	0.061321
33	0xbc2ea7bb	-0.010660107
34	0x3e2a7c9e	0.166491
35	0x3de3c0ac	0.111207336
36	0x3d93422b	0.07190355
37	0xbe47efd6	-0.19525084
38	0x3df5db47	0.120047145
39	0x3c1ea79e	0.009683518
40	0xbd542800	-0.05179596
41	0xbd1999ec	-0.037500307
42	0x3be139fe	0.0068733683
43	0x3d4cfc53	0.050045323
44	0x3dbf0fe4	0.09329203
45	0xbe033061	-0.12811424
46	0x3e041798	0.12899625
47	0xbd54d494	-0.051960543
48	0x3d9739ce	0.07384072
49	0x3d0be832	0.034156986
50	0xbca70d2c	-0.020392023
51	0x3e0187cb	0.12649457
52	0x3da71310	0.08157933
53	0x3dc9551a	0.09830685
54	0x3df7d907	0.121019416
55	0x3c6fefb0	0.014644548
56	0x3c6f2f9c	0.014598753
57	0x3c372a2b	0.011179487
58	0xbd344e64	-0.04402007
59	0x3db76ecc	0.0895668
60	0xbd50ac3f	-0.050945517
61	0x3da5facb	0.081044756
62	0x3d678c16	0.05653008
63	0x3d70479e	0.05866205
64	0x3abcef25	0.0014414532
65	0x3dd08828	0.1018222
66	0xbd2d9907	-0.042382266
67	0xbbe5b968	-0.0070106275
68	0xbd3c0884	-0.04590656
69	0x3df13f12	0.11779608
70	0x3daec0b9	0.08532853
71	0x3af835a2	0.0018936882
72	0xbd1673e4	-0.036731616
73	0xbdcf8cc5	-0.101342715
74	0x3dc9d996	0.09855954
75	0xbcf8554c	-0.03031411
76	0xbce7ff6e	-0.02832004
77	0xbdd1c63a	-0.10242887
78	0xb9ed437a	-0.00045254437
79	0xbd83d046	-0.064362094
80	0xbdd3f6a0	-0.10349774
81	0x3c7a87e4	0.015291188
82	0x3dbf4082	0.09338476
83	0x3dfc9dcc	0.12334785
84	0xbdff5225	-0.1246684
85	0xbde5e7a4	-0.112258226
86	0x3cad9174	0.021187522
87	0xbdf784bc	-0.12085864
88	0xbe2069b2	-0.1566532
89	0xbe011cd4	-0.12608653
90	0x3d3c2891	0.045937125
91	0xbd9fd4d7	-0.07804268
92	0xbe01e2ce	-0.12684175
93	0x3dd407f9	0.10353083
94	0x3db5905d	0.08865426
95	0x3d546ec8	0.05186346
96	0xbd3d30ce	-0.046189122
97	0xbe108250	-0.1411221
98	0xbb86da86	-0.0041154055
99	0xbdfe838a	-0.12427433
100	0xbe0ba010	-0.13635278
101	0x3df36773	0.11884966
102	0xbd2662d7	-0.040621605
103	0x3c312eda	0.010814393
104	0xbe032cf2	-0.12810114
105	0x3cab8283	0.020936256
106	0x3d93d39c	0.07218096
107	0x3ca8fa91	0.020627292
108	0x3d349db6	0.044095717
109	0xbd399308	-0.045306236
110	0x3d442560	0.047887206
111	0xbdfb87a4	-0.12281731
112	0xbd4b3c83	-0.049618255
113	0xbd0c29b6	-0.034219466
114	0x3d714559	0.058904026
115	0xbce1ccf1	-0.027563544
116	0x3da2695c	0.07930252
117	0xbd83c7d2	-0.06434597
118	0xbce4d858	-0.027935192
119	0x3d7d0741	0.061774496
120	0xbd4489dd	-0.04798304
121	0xbe0abfba	-0.135497
122	0x3d07955a	0.033101417
123	0xbdb40f24	-0.0879195
124	0xbd63b5b7	-0.05559322
125	0x3c1521a8	0.009102263
126	0x3e1b05f4	0.1513899
127	0xbdf2424c	-0.118290514
128	0x3c7dadc0	0.01548332
129	0x3c84d70a	0.01621582
130	0xbdeae7bd	-0.11469982
131	0x3d7c66d3	0.0616215
132	0x3e329b57	0.1744207
133	0x3da166b0	0.07880914
134	0x3c14acc6	0.0090743955
135	0xbda2f1a9	-0.07956249
136	0x3d2ca930	0.042153537
137	0x3afae0ca	0.0019140479
138	0x3d04f8e7	0.032463934
139	0xbcd78b0d	-0.026311422
140	0xbd6e0d97	-0.05811843
141	0x3e331aaa	0.1749064
142	0x3dc017ae	0.093795165
143	0xbd5802f4	-0.05273719
144	0x3b861526	0.0040918766
145	0xbe26fb3c	-0.16306776
146	0x3db86ef0	0.09005535
147	0xbe17165e	-0.14754626
148	0x3de41e2c	0.11138567
149	0x3b6ae797	0.0035843605
150	0xbc9500bd	-0.018188829
151	0x3dfa8e0c	0.122341245
152	0x3d96025e	0.0732467
153	0x3dad2158	0.084536254
154	0xbd3a8c70	-0.045544088
155	0xbd8fedbd	-0.07027767
156	0x3d7e297d	0.062051285
157	0x3d03947d	0.03212403
158	0xbe0107db	-0.12600653
159	0xbde5d2b9	-0.11221833
160	0xbdc0ef71	-0.0942067
161	0xbcb4b892	-0.022060666
162	0x3e0a850d	0.13527317
163	0x3d1e3570	0.03862518
164	0x3b40b750	0.0029406138
165	0xbcc390a0	-0.023872674
166	0x3e09c36c	0.13453454
167	0xbc3a509a	-0.011371756
168	0x3de824d1	0.11335147
169	0xbd838518	-0.0642187
170	0x3d808f3c	0.0627732
171	0xbdecc1ea	-0.11560424
172	0xbc099b51	-0.008398847
173	0xbd22ab94	-0.03971441
174	0x3d813ee9	0.06310827
175	0x3de6574f	0.112471215
176	0xbb7effa8	-0.0038909707
177	0xbd841bdf	-0.064506285
178	0x3d31bbc1	0.043391947
179	0x3dc51326	0.09622793
180	0x3dc2f210	0.09518826
181	0xbcd5e0fe	-0.026108261
182	0xbe056193	-0.13025503
183	0x3d666d8b	0.056256812
184	0x3d99a85c	0.07502815
185	0xbc9b005a	-0.018921066
186	0x3e14c829	0.1452948
187	0xbdd9dea1	-0.10638166
188	0x3c9624f0	0.01832816
189	0x3d135161	0.03596628
190	0x3cb58caf	0.02216181
191	0x3cf01482	0.029306654
192	0x3d136634	0.03598614
193	0x3e514b22	0.20438817
194	0xbc823f58	-0.015899345
195	0xbde5d5ca	-0.11222418
196	0x3df9d100	0.12198067
197	0xbe3427a3	-0.17593245
198	0xbe378b09	-0.17924131
199	0xbcadc0b8	-0.02121006
200	0xbbdee2b4	-0.0068019275
201	0x3df55e47	0.119808726
202	0xbde9f235	-0.114231504
203	0xbb131a70	-0.0022446178
204	0x3e0faa59	0.14029826
205	0x3d1c6ead	0.038191486
206	0xbdb7315e	-0.08944963
207	0xbd5cdaa0	-0.053919435
208	0xbd047e0d	-0.032346774
209	0xbda37bf0	-0.079826236
210	0xbc492653	-0.012277204
211	0xbe015803	-0.1263123
212	0xbc3f00a8	-0.011657871
213	0x3d8c3aac	0.06847128
214	0x3ccf49ab	0.025303682
215	0xbdad2017	-0.08453386
216	0xbd886626	-0.06660108
217	0x3e185756	0.14877066
218	0x3dd44aba	0.103658155
219	0x3d6dd15b	0.058060985
220	0x3897022d	7.200646e-05
221	0x3dfed478	0.12442869
222	0x3e02800e	0.12744161
223	0xbda35f64	-0.07977179
224	0x3c099c58	0.008399092
225	0xbd605eea	-0.054778017
226	0x3bdb558a	0.0066935467
227	0xbe1a8210	-0.15088677
228	0xbda9b6a8	-0.08286792
229	0x3de2f20b	0.11081322
230	0xbdc9649e	-0.09833644
231	0x3bbcb5d1	0.005758979
232	0x3d834e0b	0.0641137
233	0x3baf68f0	0.0053530857
234	0x3e2c85ee	0.16847965
235	0x3e190598	0.1494354
236	0x3d9aeb4e	0.07564412
237	0xbde85994	-0.11345211
238	0x3dc86368	0.09784585
239	0x3dc3e870	0.09565818
240	0x3e1c6967	0.15274583
241	0xbda41cdd	-0.08013318
242	0x3e04a4a8	0.12953436
243	0x3d2f488d	0.0427938
244	0xbc4b451b	-0.012406613
245	0xbd6ed55f	-0.058308955
246	0xbe441663	-0.19149165
247	0x3da0f6e8	0.07859594
248	0x3d13dfcd	0.036102105
249	0xbc956f6d	-0.018241609
250	0xbc45115d	-0.0120280655
251	0xbd875eef	-0.06609904
252	0xbe6c9de0	-0.231071
253	0xbdbb333d	-0.09140632
254	0x3b8db59d	0.0043246285
255	0x3e2589f1	0.16165902

cells.1.x2h.bias f4 [256]
0	0x3e096d00	0.13420486
1	0x3c8b56a0	0.01700908
2	0x3e0a5802	0.13510135
3	0x3d958b90	0.0730201
4	0x3b8b4965	0.0042506927
5	0x3e6e7721	0.23287632
6	0xbc1221e1	-0.00891921
7	0x3e14acf9	0.14519109
8	0x3def2c2d	0.11678348
9	0x3da9448a	0.08265026
10	0xbdc1f03b	-0.094696485
11	0xbca90f4a	-0.020637173
12	0x3d67c1a0	0.05658114
13	0x3c95c70d	0.018283391
14	0xbd5f2d2d	-0.054486442
15	0x3c51cf19	0.012805724
16	0x3db5a99c	0.08870241
17	0x3df2c834	0.11854592
18	0x3d8d3f05	0.06896786
19	0xbd3ddaaf	-0.04635113
20	0x3cdef79f	0.027217684
21	0x3dfb01f4	0.12256232
22	0x3d17d4ea	0.037068285
23	0x3e0da34c	0.13831824
24	0xbda7867f	-0.0817995
25	0x3da8763e	0.08225678
26	0xbbbd795e	-0.0057822904
27	0x3d12aacb	0.035807412
28	0x3dfdd406	0.12393956
29	0x3dbcc38f	0.09216987
30	0x3e19b5b0	0.15010715
31	0x3df84bf8	0.12123865
32	0x3d6e8a6d	0.05823748
33	0x3cea78c9	0.028622048
34	0x3dcb310b	0.099214636
35	0xbdcc40bb	-0.09973284
36	0x3b8869e4	0.004163014
37	0x3d37c778	0.044867963
38	0x3e13ef08	0.14446652
39	0xbd9f661e	-0.07783149
40	0xbd9278d6	-0.07151954
41	0x3d2bb38b	0.041919272
42	0x3da91b3f	0.0825715
43	0x3d7e19a5	0.062036175
44	0x3c983177	0.018578274
45	0xbc6df7f1	-0.014524446
46	0x3d74e806	0.059791587
47	0x3bcdffc0	0.0062865913
48	0x3d8998a6	0.067185685
49	0x3d5ee033	0.05441303
50	0x3e41d949	0.18930544
51	0x3e12946d	0.14314432
52	0xbd30c268	-0.04315415
53	0xbd2eb141	-0.04264951
54	0xbdba4e24	-0.090969354
55	0xbdcef585	-0.10105423
56	0x3da217b5	0.07914678
57	0xbc561410	-0.013066307
58	0xbdbde9e5	-0.092731275
59	0x3dec45ee	0.115367755
60	0xbdcdcd0b	-0.100488745
61	0xbd170c7b	-0.036877137
62	0xbd728fa6	-0.059219025
63	0x3c9c330d	0.019067312
64	0x3d255ccb	0.040371697
65	0xbcf2d37b	-0.029641857
66	0xbc82453b	-0.015902152
67	0x3e4451db	0.1917185
68	0xba9f9f1c	-0.0012178156
69	0x3e37c94b	0.17947881
70	0x3e029789	0.12753119
71	0x3d16be36	0.036802493
72	0xbbfa6afe	-0.007642149
73	0xbd5f2fed	-0.054489065
74	0xbe14fd00	-0.14549637
75	0xbd32e673	-0.043676805
76	0xbd84485b	-0.06459113
77	0x3cb8728c	0.022515558
78	0x3dbf4211	0.09338773
79	0x3df5322f	0.119724624
80	0x3d829647	0.063763194
81	0x3cfa713b	0.03057157
82	0x3da4b999	0.080432124
83	0x3e05730a	0.13032165
84	0xbcf8e2f0	-0.03038165
85	0xbcb500a5	-0.022095034
86	0xbda5f054	-0.081024796
87	0xbc97f6ca	-0.018550295
88	0x3d009af8	0.03139779
89	0xbd9385ed	-0.07203279
90	0x3cded84f	0.027202753
91	0x3dcb8b63	0.09938695
92	0xbca8fdb0	-0.02062878
93	0xbd3af268	-0.045641333
94	0x3d1354db	0.035969596
95	0xbd3785ba	-0.044805266
96	0xbdd3cf9e	-0.10342334
97	0xbd3cd128	-0.046097904
98	0x3cff7a5f	0.03118628
99	0x3d8119f6	0.0630378
100	0x3dead586	0.114665076
101	0x3dd34b77	0.10317128
102	0x3c29e25d	0.010368911
103	0xbd7f2f2e	-0.062300853
104	0x3c98393c	0.018581979
105	0x3c0b0aea	0.008486489
106	0x3de27735	0.11057893
107	0x3dd23a9d	0.10265086
108	0xbdb7a639	-0.08967251
109	0xbd459bb3	-0.04824419
110	0x3d26b5c8	0.040700704
111	0x3d82da75	0.063893236
112	0x3d1478f7	0.036248174
113	0xbb9ad421	-0.004724995
114	0x3dec24ca	0.115304545
115	0x3d04a528	0.032384068
116	0xbd874709	-0.06605346
117	0x3dbbf126	0.09176855
118	0xbc7fb571	-0.015607224
119	0x3df68140	0.12036371
120	0x3d89092a	0.06691201
121	0x3d861aea	0.06548102
122	0x3d834f5a	0.064116195
123	0x3d1d0eb9	0.03834412
124	0xbda57f9a	-0.08080979
125	0x3db9dad9	0.09074945
126	0x3dbddc45	0.09270529
127	0xbd828681	-0.06373311
128	0xbd87b152	-0.06625618
129	0xbcccf51d	-0.025019223
130	0xbd76f52c	-0.060292408
131	0x3ddccaa8	0.10780841
132	0xbc6e600d	-0.0145492675
133	0xbd93e0c2	-0.072206035
134	0xbc8c62b7	-0.017136915
135	0xbc2a12b5	-0.010380437
136	0x3ddbcabb	0.10732027
137	0xbc85d8a2	-0.01633865
138	0x3dea9251	0.11453689
139	0xbd229d13	-0.03970058
140	0x3ce7392c	0.028225504
141	0x3c5a56fd	0.013326404
142	0xbdf3e4a6	-0.119088456
143	0xbbd2b582	-0.006430329
144	0x3cd196b3	0.025584554
145	0xbddfe32f	-0.10932004
146	0xbd5347ca	-0.051582135
147	0x3ca54ed7	0.020179195
148	0x3d869c60	0.06572795
149	0xbcb5ec8a	-0.022207517
150	0x3c19a70d	0.009378207
151	0xbde8b0ee	-0.11361872
152	0xbd5a8b11	-0.05335528
153	0x3d65de0a	0.056119956
154	0x3dabb89c	0.08384821
155	0xbd96569e	-0.0734074
156	0xbdc89e67	-0.09795838
157	0x3dd2b117	0.102876835
158	0x3b819170	0.003954105
159	0xbdbe3a04	-0.09288409
160	0xbdd8e230	-0.10590017
161	0xbdcc1f10	-0.09966862
162	0x3d01ee7e	0.031721584
163	0xbd67eb89	-0.05662111
164	0x3d92d216	0.07168977
165	0xbd8b2d4f	-0.06795751
166	0x3de10e62	0.109890714
167	0x3838ae8a	4.403157e-05
168	0x3d39f223	0.045396935
169	0xbdf04d3c	-0.11733481
170	0xbdedfcdb	-0.11620494
171	0x3c5b49db	0.013384308
172	0x3dbfd98c	0.09367666
173	0x3cf16e74	0.029471613
174	0x3dda58fb	0.10661503
175	0x3dfba292	0.12286867
176	0x3db84c88	0.08998972
177	0x3dbde236	0.09271662
178	0xbb7209ca	-0.0036932104
179	0x3db87d93	0.090083264
180	0x3dd3164f	0.103069894
181	0xbcbe6474	-0.02324126
182	0xbd0b2ec7	-0.033980157
183	0xbd678839	-0.056526396
184	0x3dcd5b1c	0.10027143
185	0xbe007de6	-0.12548026
186	0x3db17db8	0.08666557
187	0x3defdd25	0.11712102
188	0xbcb1304a	-0.021629471
189	0x3bb4351e	0.005499496
190	0xbdd5028b	-0.10400876
191	0xbd6b156d	-0.05739348
192	0xbd64ed7e	-0.055890553
193	0xbc3cb64b	-0.011518071
194	0x3dbc60e5	0.09198169
195	0x3e394635	0.18093188
196	0xbd61fc2b	-0.055172127
197	0x3e45aba5	0.19303758
198	0x3cd76a8f	0.026295928
199	0x3d9a3652	0.07529892
200	0x3ce28c45	0.027654776
201	0xbd241f57	-0.04006895
202	0x3d79aabd	0.060953844
203	0xbd2faa43	-0.042886984
204	0xbbc6c559	-0.006066006
205	0x3b8fa014	0.0043830965
206	0x3e07bb68	0.13255084
207	0xbda0942f	-0.07840764
208	0x3dc794a9	0.097451515
209	0x3e10e586	0.14150056
210	0x3e1f4aad	0.1555583
211	0x3c870df7	0.016486151
212	0x3db38203	0.08765032
213	0x3d9c935b	0.07645293
214	0x3cbe04cf	0.023195652
215	0x3d894faf	0.067046516
216	0x3d61b572	0.05510468
217	0xbc1642c1	-0.009171189
218	0xbd3257d8	-0.043540806
219	0x3c1afae0	0.009459227
220	0x3d82d9d8	0.06389207
221	0x3e260e56	0.16216406
222	0x397de8d3	0.00024214694
223	0x3e1e64ff	0.15468214
224	0xbddc0ef3	-0.10745039
225	0xbd60b3b5	-0.054858882
226	0x3dfd060f	0.12354671
227	0x3e16fd22	0.14745
228	0x3d4aedd7	0.049543228
229	0x3d8156d5	0.0631539
230	0xbcb784bd	-0.022402162
231	0x3db7f82d	0.08982883
232	0xbc06a7e3	-0.008218738
233	0x3e0f6741	0.14004232
234	0xbdd2b0c7	-0.10287624
235	0xbcdf508d	-0.02726009
236	0xbdc27374	-0.09494677
237	0x3c82f5b4	0.015986301
238	0x3e26e36d	0.16297694
239	0x3c75f6be	0.015012441
240	0x3d889142	0.06668331
241	0x3c8fb519	0.017542409
242	0xbb8aee07	-0.004239801
243	0x3bdaf620	0.0066821724
244	0xbbafce32	-0.0053651566
245	0x3e07ceab	0.13262431
246	0xbda0db15	-0.078542866
247	0xbd42a36b	-0.04751913
248	0xbd8105a8	-0.06299907
249	0x3dd75608	0.10514456
250	0x3deb65cb	0.11494025
251	0x3d7d10f9	0.061783765
252	0xbd6cffac	-0.057861015
253	0x3cd879cb	0.026425263
254	0xbd78b2ce	-0.060717396
255	0xb9f61c93	-0.00046942066

cells.1.h2h.weight f4 [256, 64]
0	0x3df7dbb3	0.12102451
1	0xbb2ccf4b	-0.0026368673
2	0xbdceb322	-0.100927606
3	0xbdf7bfb7	-0.120971136
4	0x3daca453	0.0842978
5	0x3dd5a9fe	0.10432814
6	0x3dda6c6b	0.1066521
7	0x3e292450	0.16517758
8	0xbdc41cc2	-0.095757976
9	0x3da40875	0.080094256
10	0x3d651f12	0.055937834
11	0x3db66388	0.08905703
12	0x3de9bb5a	0.114126876
13	0xbe19531a	-0.14973107
14	0xbd6e7387	-0.058215644
15	0xbd88932b	-0.06668695
16	0x3cc85afc	0.024457447
17	0xbc9eb07b	-0.019371262
18	0x3df420b4	0.119203
19	0xbd5c2196	-0.053742968
20	0x3d3fea5a	0.046854354
21	0xbe0977ad	-0.13424559
22	0x3d6c11a1	0.057634
23	0xbe0bfff1	-0.13671853
24	0x3e075706	0.1321679
25	0x3da875fd	0.082256295
26	0xbd758644	-0.0599425
27	0xbdb0ea46	-0.08638434
28	0x3c99526d	0.018716061
29	0x3d37c14c	0.044862077
30	0x3e6eceec	0.23321122
31	0xbd7ef62d	-0.06224649
32	0xbdb70b7e	-0.08937739
33	0xbd76c50b	-0.06024651
34	0xbdbe7747	-0.09300094
35	0x3c1ddca1	0.009635122
36	0xbd5c8f16	-0.053847395
37	0x3d9f4af9	0.07777972
38	0xbdd32e93	-0.10311618
39	0xbd3f0ed8	-0.046645015
40	0xbd680b1e	-0.056651227
41	0x3d62505d	0.05525242
42	0x3e17e229	0.14832367
43	0xbdac6121	-0.08416963
44	0x3d0f5d65	0.035001177
45	0xbd89f86b	-0.06736835
46	0x3d02465c	0.03180538
47	0x3d5ac7bf	0.05341315
48	0x3e220c6d	0.15825053
49	0x3cd33efb	0.025786867
50	0xbe05614f	-0.13025402
51	0x3dd55690	0.10416901
52	0xbe029a90	-0.12754273
53	0xbe04c02c	-0.12963933
54	0x3d2e0e88	0.042494327
55	0x3d39a19a	0.04532013
56	0xbcb8c2af	-0.02255377
57	0x3d0689cb	0.032846253
58	0x3c8af90d	0.01696446
59	0xbda527c5	-0.08064226
60	0xbd589dd4	-0.05288489
61	0x3e0188d0	0.12649846
62	0x3d81e25f	0.06342005
63	0xbdd27e51	-0.10277999
64	0xbe0cad43	-0.13737969
65	0xbe2d1919	-0.16904105
66	0xbdfdab7b	-0.12386223
67	0xbc7cb604	-0.015424255
68	0xbc9ec2a8	-0.019379929
69	0x3d48d9dc	0.049035892
70	0xbd8a27bc	-0.0674586
71	0xbe10f565	-0.1415611
72	0xbdb688b8	-0.08912796
73	0x3b9fa339	0.0048717526
74	0x3d63a168	0.05557385
75	0x3d7c36d3	0.061575722
76	0x3dc76e62	0.09737851
77	0xbc9e35f6	-0.01931284
78	0x3e171cb7	0.14757048
79	0x3cd3b52e	0.02584323
80	0x3d1d681b	0.03842936
81	0x3d912b45	0.07088331
82	0x3d603f55	0.054747898
83	0x3c784705	0.015153651
84	0xbdb87871	-0.090073474
85	0x3d0e5213	0.03474624
86	0x3d302d08	0.043011695
87	0x3d4ece6a	0.05048982
88	0xbdc94744	-0.09828046
89	0x3e062005	0.13098152
90	0x3d9b900f	0.07595836
91	0x3d749c4a	0.05971936
92	0x3d165b71	0.0367083
93	0xbd5fe343	-0.054660093
94	0x3de537ca	0.111922815
95	0x3dc6c99b	0.09706422
96	0xbd818676	-0.063244745
97	0x3dc748a2	0.097306505
98	0xbd8d82e3	-0.0690973
99	0x3b621756	0.0034498773
100	0xbe082cb3	-0.13298301
101	0x3b04e032	0.0020275232
102	0xbd9587f7	-0.07301324
103	0xbbb0cc6f	-0.005395464
104	0xbd65bc92	-0.056088038
105	0x3debe59a	0.115184024
106	0xbcc88d6f	-0.024481503
107	0x3c978eae	0.018500652
108	0x3dc4315b	0.09579726
109	0x3dc91145	0.09817747
110	0xbde9dfac	-0.11419615
111	0xbe025a4c	-0.12729758
112	0x3d7e8025	0.062133927
113	0xbe2cbf2b	-0.168698
114	0x3c141b0f	0.009039654
115	0x3d961387	0.07327943
116	0xbdd30252	-0.10303177
117	0xba02e47e	-0.00049931544
118	0x3ca41a5e	0.020032104
119	0xbd10f8ab	-0.0353934
120	0x3d643fdb	0.05572496
121	0xbe2eae30	-0.17058635
122	0xbdac4c22	-0.08412959
123	0xbd5fac79	-0.054607842
124	0x3df91ffb	0.12164303
125	0xbe2097af	-0.15682863
126	0x3e0aca50	0.13553739
127	0xbe0518f5	-0.12997802
128	0x3d8a3f62	0.067503706
129	0xbd8e6cab	-0.069543205
130	0x3ce2e240	0.027695775
131	0xbcbc3594	-0.022974767
132	0xbd9573d8	-0.07297486
133	0x3cb56273	0.02214167
134	0xbd46f46c	-0.048572943
135	0x3df7553c	0.12076804
136	0x3e23e6da	0.16006032
137	0x3d86b077	0.06576627
138	0xbddc36f0	-0.10752666
139	0xbc8a456d	-0.016878808
140	0x3db9fd1f	0.09081482
141	0x3d9843e9	0.07434828
142	0x3d707207	0.058702495
143	0x3d24969c	0.040182695
144	0x3caa4e4e	0.020789292
145	0x3d39e128	0.04538074
146	0xbd6a1162	-0.057145484
147	0xbd84ada3	-0.06478431
148	0x3dd8c969	0.10585291
149	0x3d67339b	0.0564457
150	0x3d9b2b96	0.07576673
151	0xbd9841ed	-0.07434449
152	0x3d2c0c6c	0.042004034
153	0xbd3a826c	-0.045534536
154	0x3c4431e6	0.011974787
155	0xbe0e485c	-0.1389479
156	0xbe141633	-0.14461593
157	0x3bd68be7	0.0065474394
158	0xbd27542f	-0.040851768
159	0x3d1ef2be	0.038805716
160	0xbdcdb7a9	-0.10044796
161	0xbc89a414	-0.016801871
162	0x3dd88f57	0.10574215
163	0x3df4cdbe	0.11953305
164	0x3d46cdc2	0.04853607
165	0xbdaf62c8	-0.08563763
166	0x3ded6cf0	0.11593044
167	0xbdc60a77	-0.09669965
168	0x3d824e88	0.06362635
169	0x3d8ec56d	0.0697125
170	0x3d8aadb8	0.067714155
171	0x3e0756ea	0.13216749
172	0xbd60149c	-0.054707155
173	0x3cabca13	0.02097038
174	0xbde1211c	-0.10992643
175	0x3e0021e0	0.12512922
176	0x3dde38c9	0.10850675
177	0x3c33937c	0.010960456
178	0x3cb9bd04	0.022673137
179	0xbd445fe3	-0.047943007
180	0xbd6ec7b3	-0.058295917
181	0xbd276cd6	-0.04087528
182	0xbd9c347f	-0.076272
183	0x3c827a4a	0.015927453
184	0xbcd2ec49	-0.025747435
185	0x3d8a761c	0.06760809
186	0xbd9a94dc	-0.07547924
187	0x3d0cf8bc	0.0344169
188	0x3da17522	0.078836694
189	0x3d41abcf	0.04728299
190	0xbc63bd61	-0.013900132
191	0xbd7458a9	-0.059654865
192	0xbe3dd4e3	-0.18538241
193	0xbdb9575b	-0.09049865
194	0x3d00b7c6	0.03142526
195	0x3dd637de	0.104598746
196	0xbcb29f0a	-0.021804351
197	0x3d5010c4	0.05079724
198	0xbc9c9fc8	-0.019119158
199	0x3de61546	0.11234526
200	0xbd949bea	-0.07256301
201	0xbd95dafd	-0.07317159
202	0x3d9a0e36	0.07522242
203	0xbe150305	-0.14551933
204	0x3c8e25d9	0.017352032
205	0xbd03b8bd	-0.032158602
206	0xbb35b69c	-0.0027727252
207	0xbe49b0a9	-0.19696297
208	0xbdcaaf08	-0.09896666
209	0x3da1e12b	0.079042755
210	0x3d50a80c	0.050941512
211	0xbd67f1b0	-0.056626976
212	0x3d8b24e2	0.06794144
213	0x3e2d09b8	0.16898239
214	0x3d650747	0.055915143
215	0xbbf29e2b	-0.007404109
216	0xbd8c1905	-0.068407096
217	0xbe0ab273	-0.13544635
218	0x3e330e4a	0.1748592
219	0xbd56d3b4	-0.05244799
220	0x3c8712ba	0.016488422
221	0xbd88dac1	-0.06682349
222	0x3de99eaf	0.114072196
223	0xbe187232	-0.14887312
224	0xbe0abf61	-0.13549568
225	0xbe5ba420	-0.21449327
226	0x3cca1a7d	0.024670834
227	0xbe153e2a	-0.14574495
228	0x3e5d3442	0.21601966
229	0xbe413f39	-0.18871774
230	0x3e1d2d99	0.15349425
231	0xbd2468c1	-0.040138964
232	0x3e45cc5b	0.19316237
233	0x3de60202	0.11230852
234	0x3e3ce865	0.18448026
235	0x3c73d9a3	0.014883432
236	0x3e069db5	0.13146098
237	0x3e0ff879	0.14059629
238	0x3c76d060	0.015064329
239	0x3e44fbd7	0.19236694
240	0x3dff4d27	0.124658875
241	0x3c3266a2	0.010888727
242	0x3d390806	0.045173667
243	0x3e2e3a69	0.17014469
244	0xbe4fb8fa	-0.20285407
245	0x3d958fb4	0.073028
246	0xbe00371e	-0.12521026
247	0xbcce6498	-0.025194451
248	0x3e20ebce	0.15714952
249	0xbe34a8b3	-0.17642479
250	0xbde99bfa	-0.11406703
251	0x3e546146	0.20740232
252	0x3d347456	0.04405626
253	0xbdb4ab34	-0.08821717
254	0xbdc01cef	-0.09380519
255	0x3dc09980	0.09404278
