model_street/models_street_historical/LSTM_model_LIBERTY AVENUE.pth (torch, 350892 bytes, 17 tensors)

input_projection.weight f4 [2, 2]
000000 07 af e8 be a6 13 85 be 40 92 45 3f 03 e2 c5 be
       -0.45446035 -0.25991553 0.77176285 -0.38648996

input_projection.bias f4 [2]
000000 43 68 0e bf 8a 66 16 bd
       -0.5562784 -0.036718883

cells.0.x2h.weight f4 [256, 2]
000000 ac 46 1a 3e 45 cc 38 3f 45 18 3c bf c0 65 23 bf
       0.15066022 0.7218669 -0.7347453 -0.63827133
000010 31 31 f9 be 7c 51 ca bd b7 e0 65 bd b7 be f4 3e
       -0.48670343 -0.09878823 -0.056122508 0.47801754
000020 1e 4f 39 be 07 4f 27 3f fd a7 8e be 35 78 d3 3e
       -0.18096587 0.6535496 -0.2786254 0.41302648
000030 39 b4 da 3d 74 b6 33 bf 46 73 a0 3e 9f 9b 21 3f
       0.10678906 -0.70200276 0.31337947 0.63128084
000040 cc ea 67 3e 6e 92 d8 3e 9b 74 a5 3e 6a cc de 3e
       0.22648162 0.42299217 0.32315525 0.4351533
000050 94 a4 b5 bd 73 7a 3f bf a1 16 0d bc 83 3f 57 be
       -0.088692814 -0.7479622 -0.008611352 -0.21020322
000060 c1 98 3a 3f 5f 72 32 bf 42 1d ce bd fb eb c5 3e
       0.72889334 -0.69705766 -0.10064174 0.386566
000070 79 a5 9d be 1e f2 cf 3d c0 e3 da 3e 17 56 22 3f
       -0.30790308 0.10153602 0.42751884 0.6341261
000080 75 16 ad 3d 2d 7e e4 be 4d 5e 92 bd 2b 1f ea bc
       0.08451549 -0.44627514 -0.07146893 -0.028579315
000090 8c 45 27 be 3b 61 b8 be e1 e0 fe 3e 8e b0 4f 3e
       -0.16335124 -0.3601168 0.49780944 0.20282194
0000a0 92 53 9a be d6 fe 72 be 54 b7 2c bf 5d 8f c8 be
       -0.30141884 -0.23730025 -0.67467237 -0.39171878
0000b0 79 94 f2 3e e2 46 08 be a9 fc 86 bd cb 6c 12 bf
       0.473789 -0.1330829 -0.0659116 -0.57197255
0000c0 e6 d0 4a be 1f df c8 3e 39 e4 ad be 8e 8a 30 bf
       -0.19806251 0.39232728 -0.33963183 -0.6896142
0000d0 b5 74 38 3f fe e8 7d 3e c2 ad d6 be 87 8c f6 3e
       0.7205308 0.2479591 -0.41929442 0.4815409
0000e0 74 e9 ab 3e 43 e5 ed 3e fc 9c 11 3f 55 ed af be
       0.33576548 0.46463975 0.56880164 -0.34360757
0000f0 8b ca 0e 3e 89 75 29 be 98 98 10 3f d3 81 43 3f
       0.13944452 -0.16548742 0.5648284 0.7636997
000100 6d a6 db bd aa a1 ba 3e e5 a9 6c be f9 c2 13 bf
       -0.107251026 0.36451465 -0.23111685 -0.5771938
000110 80 4f f3 3e 61 87 ed 3e c1 e7 1c bf 4b 60 2d bf
       0.4752159 0.46392348 -0.6129113 -0.67725056
000120 ac f9 14 bf a5 11 81 be 2e 22 02 be 44 3b 32 3f
       -0.5819347 -0.25208774 -0.12708351 0.6962168
000130 06 48 ca be 13 dc ea 3d 60 4f d0 3e d7 d1 75 3e
       -0.39508075 0.11467757 0.40685558 0.24005829
000140 88 0d c2 bd db 8d e5 3e 54 c4 9a 3e 51 33 be 3e
       -0.09475237 0.4483479 0.3022791 0.37148526
000150 8a 26 3d 3d 68 ac a4 be da 2e 2e be 5a df e4 3e
       0.04617933 -0.32162786 -0.1701006 0.44701654
000160 e5 86 92 3c 3b 8f 2e be 15 3d f8 3d 5a fc 81 be
       0.017886588 -0.17046826 0.121210255 -0.2538784
000170 c0 b7 a5 3e 75 ae 02 bf 84 ef fd 3e 8a 24 8f bd
       0.32366753 -0.5104745 0.49596798 -0.06989391
000180 1d 5b bf be 70 d2 11 3f 02 84 85 be 08 0a e8 be
       -0.373742 0.5696173 -0.26077276 -0.45320153
000190 33 7e 0e 3f 09 3c 21 bf e1 3c 25 bf 35 e8 29 3f
       0.55661315 -0.6298223 -0.6454602 0.66369945
0001a0 56 64 1c be 4e 27 3d be 8d b4 b6 be ed 2a a1 be
       -0.1527265 -0.18472025 -0.35684624 -0.31478062
0001b0 82 64 b4 be 5d 92 ac be 3b 25 12 3f f4 0a 32 3e
       -0.3523293 -0.33705416 0.5708806 0.17386991
0001c0 d3 e5 64 bd 1c db 1e bf 23 33 c5 3e a6 00 04 3f
       -0.05588324 -0.62053084 0.38515577 0.5156349
0001d0 be 2d b3 be f0 ed 24 3f 55 8c a4 be 15 85 f2 be
       -0.34995836 0.64425564 -0.32138315 -0.4736716
0001e0 7d b1 89 be 18 45 5f be 5e 56 fa 3e a0 18 12 bf
       -0.26893225 -0.21803701 0.48894018 -0.57068825
0001f0 c3 11 02 bf 49 83 af 3b 92 3d 3a 3e 84 cc be 3e
       -0.5080835 0.0053562266 0.1818755 0.37265408
000200 e5 b1 dc be 1a f3 93 be 90 0e 74 be d9 79 c4 be
       -0.43104473 -0.2889641 -0.2383368 -0.38374212
000210 44 3c 17 3f 57 9d 04 3f 28 0f ea be fb 2e 80 3e
       0.59076333 0.5180258 -0.45714688 0.25035843
000220 e2 61 1a bf ed 8d 97 be e7 62 ba bd 69 f4 9d be
       -0.6030561 -0.29600468 -0.091008954 -0.30850533
000230 60 b3 bd 3e ce 9e b7 3e c2 a3 16 3d 8a ff 0c 3f
       0.37050915 0.35863346 0.036777265 0.5507742
000240 79 fa 99 be 46 97 11 3e 85 8b 8b 3e 6b 1d 33 3f
       -0.30073908 0.14217862 0.27254882 0.69966763
000250 1f 5b d3 be 29 cd 2a bf 3e ee 0c bf 9b f8 f2 be
       -0.41280457 -0.667193 -0.5505103 -0.47455296
000260 ff 23 f0 bd 7a 84 1e 3e d3 a8 e1 bd 06 dd 24 bd
       -0.11725616 0.15480223 -0.11018529 -0.040249847
000270 43 0a cf be 39 35 e9 be 67 48 d4 3d de 7d 39 bf
       -0.40437517 -0.45548418 0.10365372 -0.72457683
000280 3d f3 15 3f 9c 7c 6a be 6f c4 17 3f 90 01 63 be
       0.5857428 -0.22899097 0.5928411 -0.22168565
000290 8a 3b 2e 3f 0d 24 01 3f 23 c8 41 3e 8e 34 02 3d
       0.680596 0.50445634 0.18924002 0.0317884
0002a0 44 5e 0b 3f 12 2b 20 bf 07 19 1e 3f 96 22 10 3f
       0.5444071 -0.6256572 0.6175694 0.56302774
0002b0 75 51 32 3f a3 08 13 bf 15 6b fd 3e 6a 14 fc be
       0.69655544 -0.57435054 0.4949576 -0.49234325
0002c0 d7 96 3e bf 0c 46 11 3f f7 a7 25 be bf 63 1a bf
       -0.74448913 0.5674751 -0.16177355 -0.6030845
0002d0 b1 46 57 3e 91 d6 36 bf f2 5c c7 bc e0 dd a9 3e
       0.2102306 -0.7142115 -0.024336312 0.3317709
0002e0 77 aa c5 3e 6b 2b 19 bf b1 86 ab 3e 18 84 ab 3e
       0.38606617 -0.59831876 0.335012 0.33499217
0002f0 7b 27 9c bd 9d 61 93 3e f2 d1 c8 3e bc f5 18 3f
       -0.07624718 0.2878541 0.39222676 0.5974996
000300 d8 2e 94 be c8 e4 31 bf 84 1c 45 be ab 49 17 3f
       -0.2894199 -0.6948972 -0.19249159 0.59096783
000310 a2 89 41 3f 6c cf 22 3f c4 38 63 3e b0 50 c5 bd
       0.75600636 0.6359775 0.22189623 -0.096345305
000320 18 a2 14 bf 5c 10 24 3f 65 72 0f be 83 3c 0e 3e
       -0.58059835 0.6408746 -0.14008482 0.13890271
000330 c7 15 01 3e a7 34 28 3f 0b bf 2c be 20 31 95 be
       0.12605964 0.6570534 -0.16869752 -0.29139042
000340 db db 43 3f de 19 ef be 3f c5 49 bd d3 46 e1 bd
       0.7650735 -0.46699423 -0.049260374 -0.10999837
000350 85 2b 11 bf 3e 57 bd be f9 2c 71 be 73 8d bb be
       -0.5670703 -0.36980623 -0.23552312 -0.36631355
000360 aa f3 17 bf 38 0f f9 be 06 f5 d9 bd 30 c3 60 bd
       -0.59356177 -0.48644423 -0.10642438 -0.054873645
000370 83 fd 1c 3f 7e aa 83 3c 48 b8 15 3e 51 b2 8b be
       0.6132433 0.016072508 0.14621079 -0.27284482
000380 d2 ae d6 be 73 1d 0f be 07 1c 25 3f 2b 8d fd 3e
       -0.41930252 -0.13976078 0.6449589 0.49521765
000390 9f bd 0d bf 9a 1f 0f 3f db 90 27 bf 40 e8 86 3e
       -0.55367464 0.55907595 -0.65455407 0.26349068
0003a0 b3 67 10 3d 0f 07 19 bf 1c 31 57 be 20 5b d8 3e
       0.035255145 -0.59776396 -0.21014827 0.42257023
0003b0 39 ad 4c 3f ec 93 b7 3e 15 93 80 be f6 f4 fa 3e
       0.79951817 0.35855043 -0.25112215 0.49015015
0003c0 17 36 a9 3e 9e f8 5c bd 16 b3 9c 3e 46 35 c9 be
       0.3304908 -0.053948037 0.30605382 -0.39298457
0003d0 61 82 cf bd 8e 84 a3 be 40 77 b5 be 74 17 a2 3e
       -0.1013229 -0.3193707 -0.35442543 0.31658518
0003e0 04 a4 bf 3c 7f e8 72 be b8 de cf 3e cb ac b9 be
       0.023393638 -0.23721503 0.40599608 -0.36264643
0003f0 4c 6a b6 3e 53 e2 07 3f 33 12 a8 bd 44 cd 88 3e
       0.35627973 0.5307972 -0.08206596 0.26719105

cells.0.x2h.bias f4 [256]
000000 db 78 b6 3e 80 ef 83 3d aa 0b 00 3e 2a 65 ff bd
       0.3563908 0.064421654 0.1250445 -0.124704674
000010 e4 c4 03 bf 12 07 0c bf a5 e9 51 3e 14 40 cf 3e
       -0.51472306 -0.5469829 0.20499285 0.40478575
000020 68 3c 40 3f f3 15 1f 3f fe eb 0a 3f bd 40 13 3d
       0.7509217 0.62142867 0.54266346 0.03595041
000030 1c d5 1c bf 6d 3e 87 3d a3 e6 91 be 73 ee 5e 3e
       -0.6126268 0.06603704 -0.28496274 0.21770649
000040 f4 51 d3 3e 20 a7 11 3f 82 7b 17 be 7f da 14 3f
       0.41273463 0.5689564 -0.14793208 0.581459
000050 44 85 92 be 42 b2 ce 3e f9 d2 0f 3f 81 29 cc 3e
       -0.286173 0.40370375 0.56181294 0.39875415
000060 86 40 b1 3e c8 f6 19 bf f0 d2 d2 be fe 8c ff 3d
       0.3461954 -0.60142183 -0.41176558 0.12478064
000070 3f 96 f6 3e df 0d f0 be 5e 79 10 3b ef eb 18 bf
       0.48161504 -0.46885583 0.0022044997 -0.59735006
000080 2d 1a 3c bf 00 19 26 3e 67 46 a7 be 35 55 ea bd
       -0.7347744 0.16220474 -0.326709 -0.11442033
000090 58 53 ab 3d 24 48 07 be 1f 6b 1c 3f 8c 16 81 bc
       0.08365506 -0.13211113 0.61100954 -0.015757822
0000a0 11 8a 07 3f 3c 21 e9 3d 2a 5d f5 bd 7d 23 45 3f
       0.5294505 0.11383292 -0.1198066 0.77007276
0000b0 3b 79 32 bf 92 a3 c0 3e f6 b7 90 3a 95 eb 13 bf
       -0.69716233 0.37624794 0.0011041153 -0.57781345
0000c0 d8 c0 d1 3e 45 00 16 3f fe 41 ef be b0 7f c5 3e
       0.4096744 0.5859416 -0.46730036 0.3857398
0000d0 29 64 00 3f b3 07 f5 be b4 04 ea be 19 3d 6b 3d
       0.5015283 -0.47857437 -0.45706713 0.057431314
0000e0 79 a3 1a bf 02 d0 2e 3f 42 d7 c8 be b5 29 ca be
       -0.6040569 0.68286145 -0.3922673 -0.39484945
0000f0 56 aa 95 3e b8 10 a7 3e 5b 3a d7 bd e4 21 66 3c
       0.29231519 0.32629943 -0.10509177 0.014046166
000100 ef bc 28 bf 54 99 27 3f 7c 8a 64 3e f7 71 54 be
       -0.6591329 0.65468335 0.22318453 -0.20746599
000110 36 e6 e9 bd 6c 76 04 bf 68 ce da be 06 a2 9b 3c
       -0.114208624 -0.517432 -0.427356 0.018998157
000120 7c ba b9 be 5c ba c0 3e b7 be 75 3e f3 9c d2 3d
       -0.3627509 0.3764218 0.23998533 0.10283842
000130 4f f9 5c 3e 82 92 e6 bd 90 fc 29 3f 20 2c 13 be
       0.21579479 -0.11258413 0.66401005 -0.14372301
000140 3c af 20 3e 8c b9 f9 3d 67 a5 c4 be b7 77 e3 bd
       0.15691847 0.121935934 -0.38407442 -0.11106818
000150 ad c2 fd be c3 eb fe 3b 0f 25 dd bd 9c 05 6b 3e
       -0.49562588 0.00777957 -0.10798084 0.22951359
000160 99 41 df 3e aa a0 fe be c8 b3 e9 be 23 fb c6 bd
       0.43604735 -0.49731952 -0.45644975 -0.09715869
000170 9f 33 04 bf 16 fb 14 bf 3f 4d 99 bd 31 c1 70 be
       -0.5164127 -0.58195627 -0.07485437 -0.23511197
000180 d4 5c 36 3d 5a 60 24 3f 48 92 9c 3e cf f4 2f bf
       0.04452212 0.6420952 0.30580354 -0.68732923
000190 6f 2d 93 be 25 61 82 be ec 82 1a bf 88 dd 38 b9
       -0.287456 -0.2546474 -0.6035602 -0.00017630134
0001a0 c6 62 d1 3e e3 2f be be 3a 40 fb be 73 29 09 3d
       0.4089567 -0.3714591 -0.49072438 0.033486795
0001b0 15 03 63 be f4 4d 18 3f 40 7e 82 be e0 56 db be
       -0.22169144 0.5949395 -0.25486946 -0.42839718
0001c0 6a 13 41 3f 53 76 ae 3e 44 92 61 be 90 e4 8d 3d
       0.7542025 0.3407465 -0.22028452 0.069283605
0001d0 07 b4 df be 00 14 2a bf 10 95 9a be 07 b8 3c bd
       -0.43692037 -0.6643677 -0.3019185 -0.04607394
0001e0 a9 d9 1d bf 04 60 17 3f 9d 4d 00 bf f1 27 22 bf
       -0.6166025 0.59130883 -0.5011843 -0.63342196
0001f0 f9 ff 70 be 34 06 84 be d4 61 b2 3e 3e b2 b7 bc
       -0.23535146 -0.25785983 0.34840262 -0.02242386
000200 16 67 ce be 14 91 41 3e 22 a5 88 3d 5d 12 87 3e
       -0.40313023 0.18902999 0.066721216 0.26381198
000210 1c fd eb 3e da 9a 15 3f e3 42 a4 be f6 0a c5 3d
       0.46091545 0.5843941 -0.3208228 0.09621231
000220 c2 43 29 3e 07 b6 10 bf 8f 5e bb 3e 4a 66 3a 3f
       0.16529754 -0.5652775 0.3659558 0.7281233
000230 4d fb 2f bf 79 fc d8 bd 54 a9 1d 3f ac 83 1e be
       -0.6874283 -0.1059503 0.615865 -0.15479916
000240 bc 5f c5 3e 17 d7 a7 3c 9b e7 f2 be e5 46 a6 be
       0.38549602 0.020488305 -0.47442326 -0.32475963
000250 85 c6 21 3f 4a 55 b2 be 56 43 a5 be cf 5b 11 3f
       0.6319354 -0.34830695 -0.32277936 0.56780714
000260 03 78 42 3e 30 df 12 bf 09 c5 fc be 88 99 2f bc
       0.18991093 -0.5737181 -0.49369076 -0.010717757
000270 37 1b 14 3f 8a 43 2d 3f 16 ab 16 bf bc 0e c6 3e
       0.57854027 0.6768118 -0.58854806 0.38683116
000280 48 e0 a2 bd 66 dd c8 be 49 ca 95 be a3 5e f2 3e
       -0.079529345 -0.39231414 -0.29255894 0.47337827
000290 2b 6f b0 bc 6d f7 7e be e8 56 88 3e f2 a9 0f bf
       -0.021537384 -0.24899073 0.26628804 -0.5611869
0002a0 63 07 92 be 3b 47 f0 3e 60 ff ed 3e 80 55 2a bf
       -0.2852126 0.46929345 0.46483898 -0.6653671
0002b0 42 c1 c5 3e 8b f1 17 3f a3 a3 63 be 8c c9 11 3f
       0.38624007 0.5935294 -0.22230391 0.5694816
0002c0 02 39 ad 3d b5 e0 08 3f 59 45 a0 3e b1 a6 3f 3e
       0.08458139 0.53467876 0.31302908 0.18715931
0002d0 f2 d3 12 be 63 74 12 bf 97 3b bb 3e 2f f7 fd 3d
       -0.14338663 -0.5720884 0.365689 0.12400662
0002e0 d8 92 95 be 54 6d fb bd 58 20 0d 3f 39 56 6a be
       -0.29213595 -0.12276712 0.5512748 -0.22884454
0002f0 f1 8e 1b 3f 30 80 03 3f f4 aa bb 3e 6e 77 fe 3c
       0.60764986 0.51367474 0.36653864 0.031062808
000300 71 52 5b be 70 1a 07 3f 8e 31 b8 3d 1b 9d 7f be
       -0.21418168 0.52774715 0.08993827 -0.24962275
000310 f5 df 94 be 14 fc f4 3d 6f d1 b8 3e 95 5a 52 bd
       -0.29077116 0.119621426 0.36097285 -0.051355917
000320 85 79 ce be c4 aa 20 be 40 1e 1d 3f 1e 3f 28 3f
       -0.40327087 -0.15690142 0.6137428 0.6572131
000330 06 f8 68 3c 1d e5 43 3b 4c c8 ce 3d 94 bc a1 3e
       0.01421929 0.00298912 0.10096797 0.31589186
000340 86 ae b1 be bc 19 40 be 25 e3 4f be 21 d8 eb 3e
       -0.34703463 -0.18759817 -0.20301493 0.4606333
000350 0e 72 b3 3e ca a5 57 be 18 b3 f5 3e d5 04 19 be
       0.35047954 -0.21059337 0.479882 -0.1494325
000360 9a b6 03 3f d1 28 f6 3d f1 0f 6a be 56 e2 0f bf
       0.514505 0.12019504 -0.22857644 -0.56204736
000370 2e 62 b1 be 70 21 6b 3e b7 61 59 3e f8 4d d1 be
       -0.34645218 0.22961974 0.21228682 -0.40879798
000380 c8 53 ad bd b8 95 15 be 68 0b 30 be ba 7b 1a bf
       -0.08463246 -0.14607894 -0.17191851 -0.6034504
000390 75 7b 7e 3d 5d 19 70 3e 52 b6 27 3e c2 7e a0 be
       0.062129457 0.23447175 0.16378143 -0.3134671
0003a0 f3 4b c6 be ba 58 2b bf 19 fd 49 be d3 e2 70 3e
       -0.3872982 -0.6693226 -0.19725455 0.23524027
0003b0 69 18 1d 3f 7a dd 31 be 40 d7 c5 bd ed 76 78 be
       0.6136537 -0.17369643 -0.09660196 -0.24264117
0003c0 5d b3 e7 3d ed e6 07 be bc 28 a3 3e 8a b7 50 be
       0.11313508 -0.13271685 0.31867015 -0.20382515
0003d0 93 0d 85 be a9 79 15 3e d9 ad 18 bf bc c4 06 3f
       -0.2598692 0.14597191 -0.5964027 0.5264394
0003e0 46 9b 18 bf f1 81 8a 3e 37 db e1 be 37 f0 8d be
       -0.5961193 0.27052262 -0.4411256 -0.27722332
0003f0 aa a4 3d be 60 a7 3b be f3 59 01 bd dc 94 2b bf
       -0.18519846 -0.18325567 -0.031579923 -0.67024016

cells.0.h2h.weight f4 [256, 64]
000000 8a 02 8a 3c 5a 30 99 3c 1b ad ab bd 75 0a e4 bd
       0.016846914 0.018699814 -0.083826266 -0.11134807
000010 71 3e 95 3d 54 34 72 bd 8d 8a 14 3e 99 a1 eb bd
       0.072873004 -0.059131935 0.14505978 -0.11505432
000020 bd 39 ac 3c 90 f6 f0 3d 8f c1 19 3e 52 72 96 3d
       0.021023626 0.11765778 0.15015243 0.073460236
000030 ab c0 c4 3d 23 9c b0 3a b3 17 e9 bd 6e de 69 3b
       0.09607061 0.0013474267 -0.113814734 0.0035685557
000040 df 4a 92 3d fd 33 ed 3c 2c b3 9e bd d4 b8 c0 3d
       0.07143187 0.028955454 -0.07749018 0.09410253
000050 dc f0 04 bd ac 77 06 bd 85 aa 38 bc c8 af 0e 3d
       -0.032456264 -0.03282897 -0.011271124 0.034835607
000060 80 d0 30 bd a1 0e 3f 3d a1 98 e0 bd ee 5b 91 bd
       -0.04316759 0.04664481 -0.10966612 -0.07097612
000070 d4 37 07 3e 57 44 bc 3d a1 ea 2d 3d da 29 01 be
       0.1320489 0.09192722 0.042460088 -0.12613621
000080 e1 c2 20 3d d5 b9 07 bd 22 6d c4 3d 28 56 8f bd
       0.03924835 -0.033136208 0.09591128 -0.06998855
000090 11 43 f4 bc 54 6f 50 bc 61 7d 45 3d a2 b6 fc bb
       -0.029817136 -0.012721855 0.048215274 -0.007712201
0000a0 5e 2c 62 3d 7f da aa bc de 78 89 bc 71 e5 e7 bb
       0.055218093 -0.02085614 -0.016781267 -0.007076912
0000b0 1c f9 30 3c 0f c9 ad bd b3 3b 0a 3d 2b e5 bd 3c
       0.01080158 -0.084856145 0.03374834 0.023180565
0000c0 e8 dd b5 3c 49 d4 ed 3d f3 7e 70 bc 6a ca d9 bd
       0.02220054 0.11612756 -0.014678705 -0.106343105
0000d0 02 2e d3 bd 60 00 3b 3d 83 da 51 bc b1 ac b0 bd
       -0.1031151 0.045654655 -0.012808445 -0.08626688
0000e0 99 a2 9a bc b8 78 ac bc ee 2f 75 bd 92 3c eb 3d
       -0.01887636 -0.021053657 -0.059860162 0.11486162
0000f0 e6 ba 2d bd 83 ab 50 bc 77 43 aa 3d 19 5c e6 bc
       -0.04241457 -0.012736204 0.08313649 -0.028120087
000100 44 0d 08 be b1 fa 6e 3e df 9d 8b 3d 7b 74 86 3e
       -0.1328631 0.23337819 0.06817221 0.26260743
000110 6b 32 de 3d b6 2e 8d 3d 68 d3 ac bd 9a a7 15 be
       0.1084946 0.06893675 -0.0843876 -0.14614716
000120 8b 53 36 3e 1d 36 4c bd 5b c0 f0 3d b3 f5 85 3e
       0.17805307 -0.049856294 0.11755439 0.26164016
000130 f9 20 88 be 96 3b 5c bd 79 ff 2e 3e 97 8a 6a be
       -0.26587656 -0.053767763 0.17089643 -0.2290443
000140 ee 6b 96 3e e9 8d 16 3d 30 ea 8f be 57 52 24 be
       0.2937922 0.03675643 -0.28108358 -0.16047035
000150 2d da 83 3e 9c d5 41 be 6a 0d cd bd 31 ec 8d 3e
       0.25752392 -0.18929142 -0.10012324 0.27719262
000160 c4 c9 01 3e a8 57 e4 bc e8 38 e0 bd 32 3d 64 be
       0.12674624 -0.027873829 -0.10948354 -0.22288969
000170 78 83 60 3e c7 6c 43 3e 99 e6 7a bd b0 c8 4a 3e
       0.21925151 0.19084464 -0.06125507 0.19803119
000180 1a 98 ed bd b2 0f 9c bd 62 b9 7a be fa b9 14 3e
       -0.11601277 -0.07620181 -0.2448478 0.1452407
000190 42 44 04 3e 90 1b 4c be 3c dd 08 3e 7e c1 be bd
       0.12916663 -0.1993239 0.13365644 -0.093142495
0001a0 42 49 d5 bd 55 66 76 3e d1 ec 9e 3e d6 9f f9 bd
       -0.104143634 0.24062474 0.31040052 -0.121886894
0001b0 01 2b 0f 3e 1c 8c 80 3e ec ef 31 be ec 47 2b 3e
       0.13981248 0.25106895 -0.17376679 0.16726655
0001c0 f9 16 01 3d 29 bd 6f 3e 58 b1 74 3e db 1c 22 3c
       0.03151605 0.23412003 0.23895776 0.009894575
0001d0 95 5b 31 bd 2b f6 8d be c3 ee 64 3e 9c 8c 7f 3e
       -0.04330023 -0.27726874 0.22356705 0.24955982
0001e0 ca 29 e9 3b b4 10 af bd 57 a8 e9 3d 50 05 3d be
       0.0071155773 -0.08548108 0.114090614 -0.18459058
0001f0 30 e3 16 3e ce 0b 53 3e ca db 15 3e 87 5d 84 bd
       0.14735103 0.20609972 0.14634624 -0.064631514
000200 33 99 93 3d 86 5b 35 3d e0 05 36 be a9 63 11 3c
       0.07206955 0.044276737 -0.17775679 0.0088738585
000210 86 a0 4c 3d 85 d5 01 3d 9f 3c 06 3e ac 9a 45 3d
       0.049957775 0.03169777 0.13109063 0.04824321
000220 55 98 54 3c 55 4c 36 3d 35 a7 ab 3d 6e 55 dc bc
       0.012975772 0.04450639 0.083815016 -0.026896205
000230 a8 d5 02 3c 40 8c 02 bd 21 49 48 bd 08 37 d4 bc
       0.00798551 -0.031872034 -0.048897866 -0.025905147
000240 70 a2 4a be 7b de 5b 3d 6d ce 1d 3c 67 af c5 3d
       -0.19788527 0.05367897 0.009631735 0.09652596
000250 0e 17 42 be cc 67 ae 3d 61 fd 35 3e 97 8a 3b bd
       -0.18954107 0.085158914 0.17772438 -0.045786466
000260 d1 63 50 bd 62 80 1b 3d 28 92 96 3d b6 68 08 3d
       -0.050876442 0.037964232 0.07352096 0.033302985
000270 74 14 30 be c8 f7 04 3d a5 6a 19 3e c8 52 b2 bc
       -0.17195302 0.032462865 0.14982088 -0.021767989
000280 b9 b0 7b 3d e8 b9 86 3d a8 c7 a3 3c b5 ad 01 3d
       0.061447833 0.065784276 0.019992664 0.0316598
000290 dc 45 77 bd 78 d7 3e 3e 51 f2 71 3d c5 f0 2e 3e
       -0.060369357 0.18636882 0.05906898 0.17084034
0002a0 f5 ba 40 bd 9a 35 ab 3c d4 7c e9 3c be 19 41 3e
       -0.047053296 0.020899583 0.028501906 0.18857476
0002b0 5e 9c 97 bd 89 db 3f be a8 f6 b5 3d 20 3e 1a 3d
       -0.074028715 -0.1873609 0.088849366 0.037656903
0002c0 ee b4 8b 3d 1f d1 10 be 96 0b 12 bc fe ab 23 3d
       0.06821619 -0.14142273 -0.008913895 0.039958946
0002d0 7a 12 42 bd 7f d8 e2 bc cc ca 41 bd 18 79 3c 3c
       -0.047380902 -0.027691124 -0.047312543 0.01150348
0002e0 af 77 0c be 16 7f 1a 3e 08 ad 42 3d 4c 1a 83 bd
       -0.1371753 0.15087542 0.047528297 -0.064015
0002f0 c7 2f 53 3c 20 e5 9e 3c b5 02 10 be 38 76 40 3d
       0.012889809 0.019396365 -0.14063533 0.046987742
000300 ea 20 d8 3d 03 ba 02 3e 1f 73 9c 3b bf a6 98 bd
       0.10553153 0.1276627 0.0047744657 -0.07453679
000310 97 bc 04 3e 3e d5 f2 3c 21 ac 6d 3e 35 cc fa 3d
       0.12962566 0.029642697 0.23210193 0.12245981
000320 f6 d5 2b 3e 93 95 60 3c ef 0b 01 3d 03 de 1a bd
       0.16780838 0.013707536 0.03150552 -0.037809383
000330 33 6e df 3c 0d c4 04 3c be c5 65 bc 32 0a 50 be
       0.027274227 0.008103383 -0.014024196 -0.20316389
000340 0c d4 cd bd bb 91 45 be 15 17 d0 3c bf 81 b7 3d
       -0.1005021 -0.19293873 0.025401631 0.08960294
000350 13 12 74 3d aa 8a f0 bd c4 e0 25 3d 33 1b ad bd
       0.05958755 -0.11745198 0.040497556 -0.084524535
000360 aa eb 92 3d 7a 00 81 bd ac c9 e2 bc a2 d0 3c bd
       0.071738556 -0.06298919 -0.027684055 -0.046097405
000370 a5 04 8f 3c 04 18 8f 3d 42 59 c8 bd a5 80 aa bd
       0.01745827 0.069870025 -0.097826496 -0.08325318
000380 ce 29 a8 bd fc 9a 60 bd 00 39 a0 bd 11 53 19 bd
       -0.082110986 -0.054835305 -0.07823372 -0.037432734
000390 51 ff 50 bd b3 21 f0 3c 44 9b 21 39 e6 74 47 bd
       -0.05102474 0.029312944 0.00015411997 -0.048695467
0003a0 a1 1f 9c bc ea e4 2b bd ac c5 7a 3c 5f 6e 6f 3d
       -0.01905805 -0.041966356 0.015305918 0.058454867
0003b0 a3 34 00 be 48 ac bf bd 60 0a bb bd 27 9c 33 3e
       -0.1252008 -0.09359032 -0.09132838 0.17540036
0003c0 2d ba d9 3d 80 c9 97 bd 94 cc 17 be f9 7a 7a 3d
       0.10631213 -0.0741148 -0.14824134 0.061152432
0003d0 48 55 77 bd ad f3 34 3d 35 2b d3 3d 73 ed ea bd
       -0.060384065 0.0441777 0.103109755 -0.11471071
0003e0 9a e8 0a bc 78 bf e7 bd bd 27 6c 3d cd 3f 63 bd
       -0.008478308 -0.11315817 0.057655085 -0.055480767
0003f0 c7 fe a9 bd 79 69 e9 bd a3 d8 80 bd 8e 64 06 3e
       -0.08300548 -0.113970704 -0.0629132 0.13124296

cells.0.h2h.bias f4 [256]
000000 aa 49 00 3e fe 4c bc 3c d8 45 b3 bd 47 32 23 3d
       0.125281 0.022985931 -0.08753556 0.03984287
000010 f8 02 1a 3c 8d cd 91 bd 55 be 63 3d 92 5b 6e 3e
       0.009400122 -0.07119284 0.055601437 0.23277119
000020 8f 83 9e 3d 20 f0 86 3d 8c b2 f7 3d 35 9d d6 3d
       0.077399366 0.06588769 0.12094602 0.104792036
000030 bf 16 86 3d a0 f1 6a 3d 3f 8c 23 3e cc 1c 18 3d
       0.06547307 0.057359338 0.15971468 0.037136838
000040 04 c5 e9 bc f1 9a 95 bc 07 1b f4 3d 5c 79 f3 3d
       -0.028536327 -0.018262358 0.119192176 0.11888382
000050 eb 41 cd 3c 4e 18 f1 bc bd d7 d4 3d 0b 5b 64 3d
       0.025055846 -0.029430535 0.10392711 0.055750888
000060 f7 9e 56 3d 54 cf c4 bd 13 34 6f 3d 0f 7e bd 3d
       0.052397694 -0.09609857 0.05839927 0.092525594
000070 39 a5 30 bd 02 4b 09 3b f2 f8 42 bd 4f 72 14 bd
       -0.04312632 0.002094925 -0.047600694 -0.036241826
000080 f5 1f 26 be 96 74 46 3d 99 11 13 3e 63 d9 3f bd
       -0.16223128 0.04845103 0.14362182 -0.046838176
000090 01 e8 2f bd 2d 61 da 3d b4 2e f1 3d ec e5 9b 3d
       -0.042945866 0.10663066 0.11776486 0.076122135
0000a0 a4 ff af bd c7 35 86 bd c2 b5 c6 bd f4 af 5c 3d
       -0.085936815 -0.06553226 -0.09702636 0.05387874
0000b0 fa da e4 3d 53 3b b4 bd 66 f8 f9 3c f5 32 87 bd
       0.11174579 -0.08800378 0.030513953 -0.06601516
0000c0 8f 18 aa 3d bc 93 29 3d 3b 90 9c bd 1a 80 b7 3c
       0.083054654 0.041400656 -0.07644697 0.02239995
0000d0 f0 2b d5 bd f6 a0 a6 3d f7 bc 5d 3c 72 bd 80 bd
       -0.10408771 0.081361696 0.013533822 -0.06286134
0000e0 03 16 55 3d 6a 6a b4 3d 1b 01 b3 3d 3d 5f 80 3d
       0.052022945 0.08809359 0.08740445 0.06268165
0000f0 28 a7 0a bd c7 60 87 3d 6b 11 63 3d a3 3a 2d 3c
       -0.03385082 0.06610256 0.055436533 0.010573062
000100 df 2b c8 bd ad f2 dc 3d 3f 3a d4 bc 30 02 16 bd
       -0.09773993 0.10788474 -0.02590668 -0.03662318
000110 6c 9d 79 3d 4a fc 2d 3e 11 a9 67 3d c0 47 0d 3e
       0.060941145 0.16990772 0.05655772 0.13796902
000120 1a bf 43 3c 4e 57 18 3e ea 33 eb bd b9 fc 76 3e
       0.011947418 0.14877054 -0.11484511 0.24119844
000130 ff db 09 3e 21 d4 72 3d 0d 76 b0 3d f6 a7 61 bd
       0.13462828 0.059284333 0.086162664 -0.05509182
000140 86 83 14 3c 85 e3 04 3c fb c1 ba ba 5c 52 45 3d
       0.009064561 0.0081108855 -0.0014248485 0.048174247
000150 70 62 97 39 b6 94 97 bd fd 80 af bd 2e 39 79 3d
       0.00028874306 -0.07401411 -0.085695244 0.060845546
000160 45 f7 79 3e fd e2 9e 3d f4 c0 a7 3d 0f c0 8d 3c
       0.24410732 0.07758138 0.081911 0.017303495
000170 8a df ee 3d 11 4d 07 3e ff 79 c0 3d 59 df 26 3d
       0.116637304 0.13212992 0.09398269 0.040740345
000180 8e ed c2 bd 4d 05 83 bd 81 55 83 bd 61 3c cb bc
       -0.09517966 -0.063974954 -0.06412793 -0.024809064
000190 5b 03 f6 bd 4e 97 14 be 31 bf 8e bd 14 28 09 be
       -0.12012359 -0.14510843 -0.069700606 -0.13394195
0001a0 c7 d7 1b 3d 77 ba 12 be 92 72 7d bb a5 71 8c 3d
       0.03804758 -0.14328943 -0.0038673026 0.068576135
0001b0 4a 8b 8b 3d 0d 46 80 bd 90 e0 8f 3d d2 34 08 3e
       0.06813677 -0.06263361 0.07025254 0.133014
0001c0 9d 7f 45 3e 1c 40 d5 3b c0 57 99 3d d2 65 da bd
       0.19286962 0.0065078866 0.0748744 -0.10663952
0001d0 4a 4e 8d bb 99 cd 64 bc d3 54 e9 bd a0 ce c4 bd
       -0.0043123113 -0.013965034 -0.11393132 -0.09609723
0001e0 64 7b dd 3d d9 5f bc 3d bd 9e 89 bd 6a 62 89 bc
       0.108145505 0.09197969 -0.0671973 -0.01677056
0001f0 6e 2f 8e 3d 6b 87 f1 bd 7d 18 fb 3c 9a 62 05 3e
       0.0694264 -0.11793407 0.030651325 0.13025895
000200 10 50 04 be 55 36 0a 3d a2 16 a4 3d f3 89 0a 3d
       -0.12921166 0.03374322 0.08012129 0.033822965
000210 64 da 2c bc 24 2a 03 bc 3d bc c5 3d 12 26 86 bd
       -0.010550115 -0.008005653 0.09655044 -0.0655023
000220 03 54 60 3c 35 30 78 3d 09 6a a1 bd 76 4a 19 3d
       0.013691905 0.06059285 -0.07881553 0.037424527
000230 3b f6 2b bd 05 9a 37 bd 2b aa 1f bd c7 46 5c bd
       -0.04198287 -0.04482462 -0.038980644 -0.053778436
000240 ca dc 19 bd 26 94 eb bd e4 1b 91 bd fe 19 0b 3e
       -0.037564076 -0.115028664 -0.07085398 0.13584134
000250 f1 8f db 3b 2b d3 ee bd 92 09 e1 bd be 17 21 bd
       0.0067005088 -0.11661371 -0.109881535 -0.039329283
000260 78 ca 0f 3a 5b 8d 0c bd d4 19 ea bc f9 45 0a 3d
       0.0005485187 -0.034314495 -0.028576769 0.033758137
000270 f3 b4 ef bc b3 09 30 3d 31 e1 96 3d cd 2c 5f 3d
       -0.029261088 0.042978 0.073671706 0.054486085
000280 e9 c7 9f 3c 81 3f 54 3d 46 d5 d4 3d ab 01 02 be
       0.019504504 0.051818375 0.10392241 -0.12695949
000290 3d 7d 59 3c ce 3a 95 3d 7d c4 d4 bd 34 1c 1c 3e
       0.013274488 0.07286607 -0.1038904 0.15245134
0002a0 94 23 a3 bd 3d b3 22 3d 3b 6a 99 bd d3 c7 9f bd
       -0.0796577 0.039721716 -0.07490965 -0.07801785
0002b0 aa 07 cd bd d9 f8 ff 3d 40 e8 34 3d 73 78 7a bc
       -0.100112274 0.12498636 0.044166803 -0.015287506
0002c0 62 da 93 bd d8 24 8b bd 1b c5 04 3d d6 44 ef 3c
       -0.072193876 -0.06794137 0.032414537 0.029207628
0002d0 e4 30 41 bc 74 f9 f6 3d fa b0 14 3d 8b 51 13 bd
       -0.011791442 0.12059298 0.03630159 -0.035966437
0002e0 08 77 9e 3c 48 e4 37 3d 38 3e 1e be e6 74 ab bd
       0.019343868 0.04489544 -0.15453422 -0.08371906
0002f0 08 76 7e 3d 36 79 c6 3d c9 80 fb bc 8f 63 74 bb
       0.062124282 0.09691088 -0.030701058 -0.0037290787
000300 b8 e1 23 bd 93 3d 68 3e 82 c9 9c bd 30 07 ee 3d
       -0.040010184 0.22679739 -0.07655622 0.11622465
000310 de 81 eb 3d 86 24 02 3e ae 11 46 bd 25 fd c1 3d
       0.114993796 0.12709245 -0.048356704 0.094721116
000320 6a 0e e2 bc ec 8c b0 bd c2 28 48 bd a4 9f 4b 3e
       -0.027594764 -0.08620629 -0.048866995 0.19885117
000330 80 c8 8c 3d df c5 ae 3c f4 b7 0d bd cc 19 d7 3d
       0.0687418 0.021334587 -0.03459926 0.10502967
000340 16 54 61 3d 26 6c 50 3e 9b f3 7d 3d 16 5c 45 3e
       0.05501183 0.20353755 0.0619999 0.19273409
000350 d5 ef 84 3d 8a 03 56 bd 27 8a d6 3c 6a 01 c1 3c
       0.06491057 -0.05224947 0.026188923 0.023560245
000360 94 67 90 3d 7b 53 7e 3d 2d f5 00 3e 1b 9c 05 bd
       0.07051006 0.062091332 0.12593527 -0.032619577
000370 cd 1d 65 3e 2a 75 11 3e bc 96 85 3d 46 86 f2 3d
       0.2237465 0.14204851 0.06522891 0.11842017
000380 bf 8d 58 3d d3 f2 2b bd 18 4b 4a 3e 03 18 fb bb
       0.052869555 -0.041979622 0.19755208 -0.0076627745
000390 7e 13 44 bd 75 7a 98 bd 8f 6c 85 bd 63 96 da bd
       -0.04787015 -0.07445232 -0.065148465 -0.10673215
0003a0 0b 42 00 3e fe 57 b0 3d 8f 7d 60 bd ce 60 bf 3d
       0.12525193 0.08610533 -0.054807242 0.09344636
0003b0 4e ec 88 bd 51 f4 96 bd e2 db 95 3d 35 cc 0c 3c
       -0.066856965 -0.073708184 0.0731733 0.008593609
0003c0 3f 6a 47 3e 11 dc 62 bd aa 2d c0 3c 9e 85 69 3d
       0.19474123 -0.055385653 0.023459274 0.057012193
0003d0 f8 de ce 3d 9e ac fd bd dd cc 18 3e cb 3f f6 3b
       0.10101122 -0.1238644 0.14921899 0.007514929
0003e0 98 c1 00 3c ec 0c df 3d 3c 4c 86 bd c3 c7 6e bd
       0.007858656 0.108911365 -0.06557509 -0.058295976
0003f0 63 2c e3 3b 1e 81 c4 3d 33 38 88 bd 04 85 a1 3c
       0.0069327815 0.0959494 -0.06651344 0.019716747

cells.1.x2h.weight f4 [256, 64]
000000 ab d6 a6 3d 8e c4 4d 3d 0c a2 e1 3d 50 e9 11 3e
       0.081464134 0.050236277 0.11017236 0.14249158
000010 27 93 4a bd 83 8c 96 3d db 07 f6 3c 8c cb 2b 3e
       -0.04945674 0.07351019 0.030033043 0.16776866
000020 89 14 d6 ba 06 0b 90 bc 5f b8 20 be c4 13 f2 bd
       -0.0016333024 -0.017583381 -0.15695332 -0.11820176
000030 b6 86 ba 3c 4d 00 ee 3d 90 3a 11 bd 71 cb ab 3d
       0.022769313 0.11621151 -0.03545624 0.08388413
000040 18 09 57 3d c0 3d 3c bd 71 a8 7e 3c e7 83 41 3d
       0.052498907 -0.045957327 0.015543089 0.047244933
000050 f1 46 fb bc 3f af 03 be 5b 1c d6 bd 03 48 83 3c
       -0.030673476 -0.1285982 -0.10454627 0.016025549
000060 e6 35 e7 bd 18 ab ac bb 54 25 2d 3e 32 1a 72 3d
       -0.11289577 -0.0052694194 0.16908771 0.059107013
000070 8e f8 f6 3d 44 d1 99 3d d4 79 1f 3c 21 4d ee 3c
       0.12059127 0.075106174 0.009733636 0.029089512
000080 4d cb 22 be a7 27 25 3e 1d 03 7a 3c af 4e 18 bd
       -0.15897866 0.16128407 0.015259531 -0.037184414
000090 1f 7c 4d 3d 3b 12 a1 bd 12 ec ea bd 3d ac 19 be
       0.0501672 -0.07864805 -0.11470808 -0.1500711
0000a0 2e 02 fb bc 9a 85 4d bc 4a b3 a3 bd bc e9 19 3c
       -0.030640688 -0.01254406 -0.07993181 0.0093941055
0000b0 ce 75 93 bd 18 3e 5e 3c 3d bc 29 be a4 d1 b5 bd
       -0.07200204 0.013564609 -0.16575713 -0.088778764
0000c0 43 35 1b 3d 37 7e 18 3d 48 dc f6 bd 4c eb 07 3e
       0.03789259 0.037229743 -0.12053734 0.13273352
0000d0 90 2d 74 3d bd 0a ad bd 19 48 15 be 6b aa c3 3d
       0.059613764 -0.08449314 -0.14578284 0.09553989
0000e0 a1 7e 88 3d 22 b5 89 3d be 91 e1 3d f0 fc a2 3d
       0.066647775 0.067240015 0.11014126 0.079584
0000f0 83 37 0f 3e 9b c2 b7 3d 13 90 47 3d 20 eb 4b bb
       0.1398602 0.08972665 0.048721384 -0.0031115487
000100 e6 e1 05 bd 3e 42 47 3d 44 1c fb bd 64 8a 16 be
       -0.032686137 0.048647158 -0.122612506 -0.1470123
000110 5a 19 a1 3c 8e f1 06 3d 83 bb 23 be 00 66 2f be
       0.019665409 0.03294521 -0.15989499 -0.17128754
000120 8a 8b b4 bd 37 fb 82 3d 6c 55 d8 bd 47 ed 13 3e
       -0.088156775 0.06395572 -0.10563168 0.14445983
000130 a5 68 97 3d 97 37 95 bd e2 08 25 3b 98 68 13 3e
       0.07393006 -0.072859935 0.0025182297 0.14395368
000140 10 e3 12 3e 37 55 99 bd a1 fd d3 bc 71 99 3d be
       0.1434443 -0.074869566 -0.025877776 -0.18515565
000150 99 b8 d2 bd 7b ec 08 3d 66 e9 5b bc 64 28 0c 3e
       -0.102891155 0.03342865 -0.013422346 0.13687283
000160 83 05 da 3b 63 f7 ad bd 1d 9a 53 3d 02 39 6a bc
       0.006653489 -0.08494451 0.051660646 -0.014295818
000170 ce 77 15 be af 0a 18 3e 35 aa 14 3e 21 ff db 3d
       -0.14596483 0.14847825 0.14518054 0.10742021
000180 7c ca 00 3e 56 3f 89 bd ee 27 b0 3d b0 b3 85 bd
       0.12577242 -0.067015335 0.08601366 -0.06528413
000190 9f ea 08 be 11 13 ba bd 45 3f 55 3d dd 5f 55 bd
       -0.13370751 -0.09085668 0.05206229 -0.052093375
0001a0 a6 fa a1 bd 13 1a dc 3c e1 1d 85 bd 73 40 9e bd
       -0.079091355 0.026867902 -0.064998396 -0.077271365
0001b0 5f 6f a3 bd 59 8b cb bd 9c c1 eb 3d 03 a0 5c 3d
       -0.07980227 -0.09938688 0.115115374 0.053863537
0001c0 24 e5 db bc 78 36 74 bd 05 c0 af 3d 48 85 9f bc
       -0.026842661 -0.059622258 0.08581547 -0.019472733
0001d0 52 b7 f4 bd b2 d6 9a bd 61 28 cc bd 26 b0 13 bc
       -0.11949028 -0.07560481 -0.09968639 -0.009014165
0001e0 53 89 7a bd a2 3e 03 3e 69 a4 20 3d 9c a7 e1 bd
       -0.06116612 0.12816861 0.039219294 -0.11018297
0001f0 ab 00 a1 bd 97 f2 a5 3d 98 f1 9a 3d f4 d4 56 bd
       -0.078614555 0.08102911 0.075656116 -0.05244918
000200 c8 f7 c3 3d f4 66 d3 3c 52 b0 21 bd b0 f4 cc ba
       0.09568745 0.025805928 -0.039474793 -0.0015636887
000210 c1 49 82 3d 1c 67 91 bd 68 33 35 bb cd df a4 3d
       0.06361724 -0.07099745 -0.0027649049 0.08050499
000220 fe 2b 2e 3c f5 16 eb bd 26 e3 19 3d 4f 9f 79 bd
       0.010630606 -0.11478988 0.03757014 -0.060942944
000230 7b 29 5b bd 10 f2 f5 3d 7b 82 68 bc 82 53 6a 3d
       -0.053506356 0.120090604 -0.014191265 0.057208546
000240 68 f8 74 bc 44 41 72 3c 53 80 3f bd 56 ee 83 3d
       -0.014951803 0.014786068 -0.04675324 0.06441943
000250 b3 e9 89 bd 96 85 43 3b fe 7a 52 3d ab ea 52 bd
       -0.06734028 0.0029834262 0.051386826 -0.051493328
000260 ae cc 5d bd a1 2c 0a bc 71 d7 fe 3b 5d 07 e6 bd
       -0.054150276 -0.008433492 0.0077771475 -0.11231873
000270 7f 22 c8 bc 7f ef de 3d 7d 8e 13 be aa cc ec 3d
       -0.024430512 0.10885524 -0.14409824 0.11562474
000280 20 33 f9 bd 84 c6 97 bd 4a 56 5b bd b0 16 c5 3d
       -0.121679544 -0.07410911 -0.05354909 0.09623468
000290 b1 d2 aa 3c 42 de ad bd 9c 0d b1 3b 4f 81 f1 bd
       0.020852419 -0.08489658 0.0054032337 -0.11792242
0002a0 89 3b ef bd 5d 48 51 3d a5 46 20 3e 2c 23 77 bd
       -0.11681277 0.0510944 0.15651949 -0.060336277
0002b0 14 28 fb 3d ce f7 dc 3d 76 36 96 3d 10 18 10 bd
       0.12263504 0.107894525 0.07334606 -0.035179198
0002c0 f4 4c 84 3c 7a 62 48 3d b5 7b 2c 3d 91 47 5d bd
       0.016149975 0.04892204 0.042110164 -0.05402333
0002d0 19 85 0c 3c f1 a8 8e bd 78 3f 05 bc e8 92 5f 3d
       0.008576655 -0.06965817 -0.008132808 0.05458346
0002e0 44 6b f7 bd 58 59 71 bd f0 b9 a2 bd 76 8d 01 bd
       -0.12081006 -0.058923095 -0.07945621 -0.03162905
0002f0 f1 17 0a 3e cb 0a 0f 3e 5b f6 58 bd 23 70 61 39
       0.13485695 0.13968961 -0.052969318 0.00021499446
000300 7f d9 98 3c 8d df 2f 3c 12 84 87 bd 92 72 da 3d
       0.018658398 0.010734451 -0.06616987 0.10666384
000310 35 0b b6 3d 6b 10 08 bc b3 87 1c 3e 37 2c d5 bc
       0.08888856 -0.008304696 0.1528614 -0.02602206
000320 ef f4 10 3e b1 9a 86 bc 94 3e 67 3d 93 44 c6 3d
       0.14155935 -0.016431184 0.056456164 0.09681048
000330 6d d3 a1 bd 83 17 89 3d d4 eb 4a bc 33 b0 6e be
       -0.079016544 0.06693938 -0.012385327 -0.23309402
000340 6c 40 71 3d 54 8c 21 be 61 76 07 bd ab f5 50 3d
       0.058899328 -0.15776187 -0.03307188 0.051015537
000350 b5 fd 86 bd b4 b8 27 bd cc fa ab 3d 90 ff 02 3e
       -0.065913595 -0.04094763 0.08397445 0.12792802
000360 18 f4 66 bd 61 6d 21 bd 05 88 87 bd 0c 84 4d 3d
       -0.05638513 -0.039410952 -0.066177405 0.050174758
000370 4f e2 0e 3e bb 64 1e 3d e7 c2 fd 3c 75 1c 35 3d
       0.13953517 0.038670283 0.030976726 0.044216592
000380 3a 9c f1 bd 0a 6b 2e bb aa d3 95 bd f7 2e ef 3d
       -0.11797376 -0.0026614093 -0.07315762 0.1167888
000390 aa 8e 3e 3b e6 16 e9 bd 6e dc 1c bc 5f 26 14 3d
       0.0029076734 -0.11381321 -0.009574039 0.036169406
0003a0 8e 80 0a 3d 62 3a 31 3e 77 3b 82 3d 74 67 22 bd
       0.033814006 0.17307428 0.06358998 -0.03964944
0003b0 20 49 c5 3b 1b f7 8d bd 67 b3 b1 bd 87 70 f6 bc
       0.00602068 -0.06931897 -0.086767964 -0.030082954
0003c0 11 55 d8 3c 53 71 0e 3e 72 6d 20 bd a2 7d 2b 3c
       0.02640775 0.13910417 -0.039166875 0.010466965
0003d0 1e 4e c4 bb 12 5b 94 bd f4 93 e2 3d db 45 3a bd
       -0.0059907576 -0.07243933 0.11063376 -0.045476776
0003e0 56 b4 15 be 4e 71 22 bd b0 d7 0d 3d 68 f0 82 bd
       -0.14619574 -0.039658837 0.034629524 -0.0639351
0003f0 5a bb 90 3d b7 68 4b bd a3 99 15 bd e5 7f 85 bd
       0.070669845 -0.04966041 -0.036523473 -0.065185346

cells.1.x2h.bias f4 [256]
000000 f2 41 b5 3c 31 6c 72 bd 29 c4 8e bd 7e 42 a5 3c
       0.022126172 -0.05918521 -0.06971008 0.020173308
000010 b7 8a 9a bd 24 12 fe 3c 3b aa 4c bd 7a 75 52 3d
       -0.07545989 0.03101451 -0.049967032 0.051381566
000020 56 03 f8 3d 6d 53 69 3d a9 33 5f bc 57 b0 99 bb
       0.12110011 0.056964327 -0.013623157 -0.004690211
000030 83 c5 12 3e b1 a3 c3 bd 40 bb 17 3e d7 7e e8 3c
       0.14333157 -0.09552706 0.14817524 0.028380794
000040 dd ca 15 3e 0e 54 b0 3d cc 5b fa 3c 34 81 1a bd
       0.14628167 0.08609782 0.03056135 -0.037720874
000050 9a 71 95 3d 78 72 d2 3d c5 c2 a3 bd a1 05 db 3d
       0.072970584 0.102757394 -0.07996134 0.10694433
000060 60 c6 46 3d 05 61 91 3d 9c e2 d5 3d 9c 89 0d be
       0.04852903 0.07098583 0.10443613 -0.13822025
000070 cd 55 9b 3d 80 6a ca bd ed cd 18 3e 42 4c 0e bd
       0.075847246 -0.098835945 0.14922304 -0.034740694
000080 d2 0d 0b 3e 16 d6 ad 3d b1 b9 0f 3c 1f ba 9b bd
       0.13579491 0.08488099 0.0087723 -0.07603859
000090 22 78 e4 3d f2 6b e2 bb 4b bf 86 bd 06 1b e5 3d
       0.11155726 -0.0069098407 -0.06579455 0.11186795
0000a0 cf fc d3 bd 4e 71 5a bd 52 9a 01 3c ce 90 a1 3d
       -0.10350954 -0.053330712 0.007910328 0.078889474
0000b0 b0 9c 0c 3d ed 59 8d ba 65 2a 47 bd 65 63 0d bd
       0.034329116 -0.0010784246 -0.048624415 -0.034518618
0000c0 78 74 35 bd 53 9b c3 3c 47 a5 fe bb 1a 33 d1 3c
       -0.044300526 0.023877775 -0.0077711674 0.025537062
0000d0 61 4b 8e 3d 2c de b9 3d 93 f3 ca 3d f5 d2 0a 3e
       0.06947971 0.09075579 0.09909739 0.13557036
0000e0 d9 ef 94 bc 4f 1b 57 bd 7c c2 57 3e 62 56 3a 3d
       -0.018180775 -0.052516278 0.21070284 0.045492537
0000f0 ac 77 9a 3d a3 54 51 bd 67 61 c7 3d fb 4e 71 bd
       0.07542357 -0.051106106 0.09735375 -0.058913212
000100 b5 22 60 3d 07 27 18 be 1e bd 16 3b 4c 68 d9 bd
       0.0547206 -0.14858638 0.0023000906 -0.10615596
000110 11 8d b3 bd 89 7e b3 bd 69 f9 62 3c 63 ad a0 bd
       -0.08767141 -0.08764369 0.013853409 -0.07845571
000120 38 a6 c6 bd 29 25 15 3d fa 8e 40 bc 69 4a 3a 3d
       -0.096996725 0.03641239 -0.011752838 0.04548112
000130 74 2d 87 bc 3a 7a b2 bd f1 52 e4 bd c5 90 e3 3d
       -0.016501166 -0.08714719 -0.11148632 0.11111597
000140 20 c0 98 3d d4 f2 f5 3d ce ae f0 bd 74 fb ce 3c
       0.0745852 0.120092064 -0.11752091 0.025266387
000150 61 36 61 3b ee 2d 85 3d 69 fc fa bd c2 3a 03 3b
       0.0034364688 0.06502901 -0.12255175 0.0020024036
000160 65 77 3b 3d e5 46 f4 bb a8 e1 01 3e cb 43 11 3d
       0.04576816 -0.0074547403 0.12683737 0.035465043
000170 ef a9 c0 3d 91 c7 ea 3d 04 41 e3 3d f6 b8 67 39
       0.09407412 0.114638455 0.11096385 0.0002209878
000180 24 18 ca bd 6f 22 d5 bd 9f 77 87 bc 96 a8 0f be
       -0.09867886 -0.10406958 -0.016536532 -0.14029154
000190 d8 e2 87 bd 2e 06 14 bd fa 45 f8 3d 7d 73 bb bd
       -0.06635064 -0.036138706 0.12122722 -0.09152887
0001a0 b0 f0 e6 3d fd 15 08 3d 1a 5f 77 bd 98 17 0b 3d
       0.11276376 0.033224095 -0.06039343 0.033958048
0001b0 aa ce 84 bd b6 df cf 3d 45 c1 7f bd b3 a5 c7 3d
       -0.064847305 0.10150091 -0.062440176 0.097484015
0001c0 87 4c 41 bd f5 b9 bb bd 98 b2 b1 bd c9 ea bd 3d
       -0.047192123 -0.09166328 -0.08676642 0.09273297
0001d0 f3 ce 14 3e 99 67 92 3c b6 34 a2 3c f2 0f e5 bc
       0.1453207 0.017871665 0.019800525 -0.027961705
0001e0 81 1a c2 3d cf fc 71 bd 59 53 00 be 2c eb db 3c
       0.094777115 -0.059078988 -0.12531795 0.026845537
0001f0 ae 2c 4e bd f2 ba 81 bd a6 8d 1a bd c5 be e6 3d
       -0.05033558 -0.06334485 -0.037732743 0.11266855
000200 72 13 45 bd 48 09 aa 3d b4 23 a5 bd 5b eb 8d bb
       -0.048114248 0.083025515 -0.080634505 -0.004331035
000210 2f c8 c8 bd 31 9c c3 3d c9 2e bb bd c2 52 d1 bd
       -0.09803807 0.095512755 -0.09139783 -0.10220863
000220 34 eb 78 3d dc 0a 9f 3d b5 81 8c 3b 70 2e f8 3d
       0.060771182 0.07765743 0.004287923 0.12118232
000230 35 bd 93 bd ff 73 0e 3d e0 05 5a bd a3 b3 ca 3d
       -0.07213823 0.03477859 -0.05322826 0.09897544
000240 77 e3 8a bd bc bf 09 3d aa f4 ba 3d 4c 75 d6 bd
       -0.06781667 0.033630118 0.09128697 -0.10471591
000250 90 d1 95 3d 3d e2 4e 3c e9 28 62 3d f4 75 af bd
       0.073153615 0.012627182 0.055214796 -0.0856742
000260 6f 5a d4 bd b3 12 06 3e 40 f4 b0 3d 37 ae 6b bd
       -0.10368811 0.1309307 0.08640337 -0.05753919
000270 1f 78 01 bd 80 92 54 3d 40 b5 25 3d 54 0f 68 3c
       -0.031608697 0.051897526 0.040456057 0.014163811
000280 aa a7 36 39 d5 bb 89 3b 9e 36 5c bb dc 77 dd bd
       0.00017419332 0.0042032995 -0.003360189 -0.10813877
000290 95 e7 07 3e dc 23 9f 39 e2 74 1a bd b1 3b fc 3d
       0.13271935 0.0003035356 -0.037709124 0.12316073
0002a0 dd ee 8d 3d f3 cc f1 bd 5d 3e 02 be a1 3c ea 3d
       0.06930325 -0.11806669 -0.12719102 0.11437345
0002b0 af 2d e4 3d 06 fb d4 3d 83 98 7c bd 22 83 86 3d
       0.11141526 0.103994414 -0.061668884 0.0656798
0002c0 2d 80 6d 3c 50 91 15 3d b7 c9 05 3e 9c d0 a4 3d
       0.0144958915 0.036515534 0.1306523 0.080476016
0002d0 34 ae c1 bd 1e 80 e9 3c 69 95 84 bd 7b 50 c3 3d
       -0.09457055 0.028503474 -0.0647381 0.09536835
0002e0 a7 9a 65 bd cf 56 a7 3d 18 3d 60 3d b4 02 74 bd
       -0.05605569 0.08170854 0.054745764 -0.05957289
0002f0 1c 74 06 be 32 c2 b8 bd 39 0d 0e 3c 3d 83 a9 3d
       -0.1313023 -0.09021415 0.008670145 0.08276985
000300 02 a6 17 bc 21 27 da 3d d3 c5 d0 bd be f1 f6 3b
       -0.009255888 0.106519945 -0.10193982 0.007536142
000310 c4 78 0a be 20 c7 33 36 13 df 35 bd 4a c6 b9 3d
       -0.13522631 2.6788985e-06 -0.044402193 0.09071024
000320 d3 05 d6 3c b4 f7 2b 3a 19 2a 0e bd d4 a2 cc bd
       0.026125824 0.0006560043 -0.034708116 -0.099919945
000330 41 02 9f bd 47 23 c7 3d 6c bb 82 bd 48 4b 89 3d
       -0.07764102 0.097235255 -0.06383404 0.06703812
000340 f4 b5 66 bd 23 6b b2 3c 69 78 c5 bd 84 08 a1 bd
       -0.056325868 0.021779602 -0.09642107 -0.07862952
000350 a7 9b 93 3d 9c 28 3d bd 01 1d d3 3d 84 24 5b 3d
       0.07207423 -0.046181306 0.103082664 0.05350162
000360 be 7e 26 3e 66 80 36 3d 3a 54 d7 3b c0 e7 f3 3c
       0.16259286 0.044556044 0.00657132 0.029773593
000370 82 ca 84 3d 28 cd 60 bd 7b db 9f 3d 8a 2a 0c 3e
       0.06483938 -0.054883152 0.078055345 0.13688102
000380 d9 64 69 3d 1d cf 7b 3d 4b ab be bd 81 78 87 bd
       0.05698094 0.061476815 -0.09310015 -0.06614781
000390 63 78 88 3d 5d 9b 81 bd d3 20 c5 bc 6a 92 9a 3d
       0.06663587 -0.06328461 -0.024063503 0.075474575
0003a0 e7 64 e7 3d 6e 8c dd 3d d1 25 ba 3d 23 ca cd 3d
       0.112985425 0.108178005 0.09089244 0.1004832
0003b0 a8 58 84 3d a5 27 57 bd 8d 15 8c bd 6f 5c ba bb
       0.06462222 -0.052528042 -0.06840048 -0.0056872885
0003c0 ea 76 dc 3d 7d c3 c6 3d 62 1c ed 3d 6d 2e 2b 3d
       0.107648686 0.09705255 0.11577679 0.041792322
0003d0 65 4b 29 3d 49 aa 2c bc ff 21 c8 3c 2d 74 11 3d
       0.041331667 -0.010538646 0.024430273 0.035511184
0003e0 5e 90 b6 bd 6d 55 40 bd 95 8b 4a 3e 93 08 96 bb
       -0.089142546 -0.04695647 0.19779809 -0.004578659
0003f0 38 1c b6 bd 2c e7 eb 3c 70 d8 ef 3c a1 ca 82 3d
       -0.08892101 0.028796755 0.02927801 0.06386305

cells.1.h2h.weight f4 [256, 64]
000000 b3 1f 54 bd 02 4b 8d bd d1 52 05 bd 85 c4 aa bd
       -0.051788043 -0.06899072 -0.032549683 -0.083382644
000010 ea 9e 70 bc 3e 6b 8e bd ad cb 8d bd 39 a6 5d bc
       -0.014686326 -0.069540486 -0.06923614 -0.0135284
000020 8b 31 12 bd 99 86 b1 bd 49 d7 28 3d 5b 85 c8 bd
       -0.03569178 -0.086682506 0.041220937 -0.097910605
000030 06 fe 85 bd 1c 88 d7 3d 18 aa b6 3d 6f 75 1d be
       -0.06542592 0.10524008 0.089191616 -0.15376829
000040 38 e2 ee 3c 5c d5 25 3d d6 33 b3 3d 03 ab d9 3b
       0.029160604 0.04048668 0.08750121 0.0066427006
000050 8e 82 d5 bd 70 0c 99 3d 15 79 50 bb e6 fc 7f 3d
       -0.10425292 0.074730754 -0.0031810452 0.062497042
000060 d4 0d ab 3d 83 5a 6f bd 15 dc 0a bc 2e 1d d5 3d
       0.08352247 -0.058435928 -0.008475323 0.10405956
000070 9c 0e 4a bd 7d 2f 44 3d 6c f7 a9 3d 37 13 df bc
       -0.04933034 0.04789685 0.08299145 -0.027230842
000080 d0 af e7 3b 89 15 c3 3d bf 92 91 bd c8 17 13 bd
       0.007070519 0.09525592 -0.07108068 -0.03591135
000090 84 9c 99 bd b0 e8 b7 3d 05 7b 25 be 2b fa bd 3d
       -0.07500556 0.089799285 -0.1616021 0.092762314
0000a0 72 32 62 bc 2c 2d c1 3b 06 9f 52 3d 5b 04 ac bc
       -0.013805972 0.0058952775 0.051421188 -0.02099817
0000b0 98 1c 6e 3d 67 be a6 bd ef 72 11 3e c1 a2 88 bd
       0.058132738 -0.08141785 0.14204 -0.06671668
0000c0 8e 00 9e 3b 43 df 3c bd e5 93 8d 3d b2 76 be bc
       0.0048218435 -0.046111356 0.06912974 -0.023249958
0000d0 de 51 b3 3d 83 45 11 3e 28 c2 87 3d f8 1a d2 bc
       0.08755849 0.14186673 0.06628829 -0.025647625
0000e0 d7 15 d8 bc fd ef 5f bd 15 80 00 bd 41 1f c1 bd
       -0.026377602 -0.05467223 -0.03137215 -0.09429789
0000f0 14 d4 bd bd 2c ac 31 bd 86 cd 88 3d 59 c3 88 3c
       -0.09268966 -0.043377087 0.066798255 0.016694712
000100 be fb 24 3e c0 39 22 3e 44 7a 2b bb 71 fe 09 bd
       0.16111657 0.15842342 -0.0026165405 -0.03368992
000110 20 41 a7 bc 60 5d a3 3d dc e2 09 be 49 1d 98 3d
       -0.020416796 0.07976794 -0.13465446 0.07427461
000120 e1 e9 c2 3c af a7 88 3c 1f 48 0e 3d 56 fa 43 bc
       0.023793163 0.01668152 0.03473675 -0.01196154
000130 e5 5d 18 be fe 09 23 3d 68 b0 d3 3d b9 19 2f 3e
       -0.14879568 0.03980445 0.10336381 0.17099656
000140 c1 61 1e 3e be ed fa bd 3c ca 01 3d f1 1f 1f 3e
       0.15466978 -0.12252377 0.031687006 0.15539528
000150 4b 5d ff bd cd 14 65 3d ad f4 08 3e 02 85 ef bd
       -0.12468966 0.05592804 0.13374586 -0.11695291
000160 82 25 c0 bd 89 7a eb bc c2 b1 31 3d e8 a9 a7 3d
       -0.09382154 -0.028744953 0.043382414 0.08186704
000170 31 8a e2 bc 75 2b 84 bd 8b 24 63 3d 08 b8 f8 bd
       -0.027653785 -0.06453601 0.055454772 -0.12144476
000180 4a bc 85 3e 2f 78 23 be f5 fa c4 3d f9 61 15 3d
       0.26120216 -0.15963815 0.09618179 0.036470387
000190 86 7f 47 3e 59 31 12 3d a2 65 42 3d 7a f1 9f 3c
       0.1948224 0.035691593 0.047460206 0.019524325
0001a0 6c 68 0c 3e 62 f9 1c 3d 16 b5 ce 3d 76 32 b4 b9
       0.13711709 0.038323767 0.10093133 -0.00034369872
0001b0 2b 66 c2 bc d9 52 32 3e 90 b9 04 bb a3 c9 5d 3e
       -0.023730358 0.17414416 -0.0020252205 0.2165895
0001c0 46 15 5b be dc 69 b6 3d e4 d2 25 3e d5 24 22 be
       -0.21394834 0.0890691 0.1619373 -0.15834363
0001d0 a0 6d 7e 3e a0 f6 0c be 9d e9 eb bd 01 92 96 bc
       0.24846506 -0.13765955 -0.115191676 -0.018380167
0001e0 f0 69 36 3e d8 07 3e bd 61 ab 2d 3e 1d 51 b6 bd
       0.1781385 -0.0463942 0.16959907 -0.0890219
0001f0 88 66 ed 3c 22 ba 4f 3d 16 a3 56 be d9 57 8d bd
       0.028979555 0.05071462 -0.2096065 -0.06901521
000200 e0 43 0d 3c b3 ec 82 3d 04 06 65 3d ed fb 04 3e
       0.00862214 0.06392803 0.05591394 0.12986727
000210 dd 82 08 bb 6b 7e 58 3d 39 83 42 bd 6b fe 6a 3d
       -0.0020829954 0.052854937 -0.047488425 0.057371538
000220 88 90 56 3d a2 d6 b0 3d d6 63 ad bd 2d 05 c1 3c
       0.05238393 0.08634688 -0.08466308 0.023562038
000230 5f 5f bd bc 44 d9 1c 3a c1 d0 1f 3e a5 d5 f2 3d
       -0.023116766 0.0005983303 0.15606977 0.11857156
000240 0e 67 79 bd e2 f1 58 3d 35 ee 8a 3d 50 96 27 3e
       -0.060889296 0.052965052 0.06783716 0.16365933
000250 a8 c4 b4 3d 25 2b 07 3e d4 07 14 3e d2 ac c8 ba
       0.08826572 0.13200052 0.14456111 -0.0015310294
000260 4e 33 81 3d da d1 06 3e a2 8e b5 bd 8f 31 c1 3d
       0.06308614 0.1316599 -0.08865096 0.09433281
000270 09 56 9f ba ed 64 71 3d 3c 4d 21 be f0 87 f2 bc
       -0.0012156378 0.05893414 -0.15752119 -0.029605836
000280 00 60 c6 3c d0 c7 19 be 95 81 a0 3b c9 cc ce 3d
       0.024215698 -0.15017629 0.00489826 0.100976534
000290 c1 13 b7 3d d4 1e 72 bd af dd 92 bd ec 27 c3 bc
       0.08939315 -0.05911143 -0.07171189 -0.023822747
0002a0 c2 81 22 3e f8 a1 25 bc a7 98 00 3e 87 3d 36 3d
       0.15869811 -0.010109417 0.12558232 0.04449227
0002b0 06 b8 c0 3d 98 4a f2 3d 28 20 f4 bd e4 ee c3 bd
       0.094101 0.11830634 -0.11920196 -0.09567049
0002c0 4b f8 27 3d 05 4b 10 3d f6 3c 68 bd af 6d 33 bd
       0.041008275 0.035227794 -0.056698762 -0.043805774
0002d0 37 43 6f bc ec 1a 31 3d 5c 98 d7 3c d7 c8 87 bd
       -0.014603428 0.043238565 0.026317768 -0.06630104
0002e0 ba 98 50 3d 2c f7 bf 3d 43 d9 88 bc 14 4b 1f bd
       0.0509269 0.09373316 -0.016705161 -0.03888996
0002f0 27 78 60 bd eb ae 97 3c ac 76 9f ba 8f e3 5a bd
       -0.054802086 0.018516025 -0.0012166104 -0.053439673
000300 7d 0f a0 bd e7 b3 02 be 48 3b ff bc ac 6b 18 3d
       -0.07815454 -0.1276394 -0.031156197 0.03721206
000310 e1 f8 fc bc e8 2c 06 bd d8 0f 61 3d 8a 20 cc bb
       -0.030880393 -0.03275767 0.05494675 -0.006229465
000320 7b 73 86 3c c4 05 25 3d ae c3 21 3e 5c 4e d1 3b
       0.016412487 0.0402887 0.15797302 0.006387515
000330 d3 f4 50 3d a4 5e af bd 78 39 d4 bc 12 cc 54 bd
       0.051014733 -0.08562973 -0.02590631 -0.05195243
000340 d3 20 71 3d 02 e1 59 bd 99 68 18 3d 0d 40 f7 3c
       0.058869194 -0.0531931 0.037209127 0.030181909
000350 be 0c 99 3d f9 22 11 3e b5 28 9a 3d ab 7c f2 bd
       0.074731335 0.14173497 0.075272955 -0.11840185
000360 e8 8c 45 bd 21 89 94 bd 3f 92 35 bd 79 2b ca bd
       -0.04823008 -0.07252718 -0.044328924 -0.09871573
000370 e4 68 9f 3c b8 93 ee bd 97 9a e3 bd 32 93 9e bd
       0.019459195 -0.11649269 -0.1111347 -0.07742919
000380 d8 60 74 bc ba 04 ad bd 62 eb f4 bd fa fd b2 3d
       -0.0149156675 -0.08448167 -0.11958958 0.087398484
000390 a3 c8 32 3e 97 31 8f 3d 45 04 79 bd fb 7c 01 be
       0.1745935 0.069918804 -0.060795087 -0.12645333
0003a0 2b 6c b6 bb ff d5 e3 bb 25 ee b0 bc f1 a7 a6 3d
       -0.005567094 -0.0069530006 -0.021597931 0.08137501
0003b0 98 c4 dc bc 06 c9 f7 bc bb fc d4 bd 4e 26 bb bd
       -0.026949212 -0.030247223 -0.10399767 -0.091381654
0003c0 a4 4e 1d bd 00 d9 6a bd 4c 48 88 3d 4a ba 90 3c
       -0.038405076 -0.057335854 0.066544145 0.017666955
0003d0 1e af 17 be e2 40 e9 3d c6 16 e0 3d d9 7c 23 bc
       -0.14812896 0.113893285 0.10941844 -0.0099784965
0003e0 22 ef ba 3d c9 5b f2 3d 50 4e 1d bd 84 48 65 bd
       0.09127642 0.11833913 -0.038404763 -0.05597736
0003f0 02 62 a0 bd 0b 53 39 be 81 90 db bc 52 b3 78 bd
       -0.078311935 -0.18098085 -0.026802303 -0.06071789
