model_group/models_group_weather/LSTM_model_BRONX_PELHAM PARKWAY SOUTH.pth (torch, 356532 bytes, 17 tensors)

input_projection.weight f4 [7, 7]
-0.1307341 0.076265246 -0.23543862 -0.07862044 -0.085298195 -0.4118422 0.023389965 -0.428329
-0.24692619 -0.24391021 0.20532565 0.10000207 -0.2435197 0.08081872 -0.048493024 -0.26733333
0.25554073 0.06883958 -0.3455416 -0.018323632 -0.31227276 0.3891666 -0.2375943 -0.06726996
-0.12331507 -0.03499924 -0.259988 0.13453384 -0.066692844 0.36921608 0.15932424 -0.053448375
0.14846826 -0.17121044 -0.11412436 0.4499326 0.2976122 0.20919344 -0.12426044 0.076473534
-0.278636 -0.38456053 0.37065977 -0.36391902 0.34334984 -0.20564713 0.2490186 -0.009610357
0.37143946
00000000: 29df 05be f430 9c3d d216 71be c103 a1bd
00000010: d2b0 aebd fbdc d2be 509c bf3c f04d dbbe
00000020: 38da 7cbe 99c3 79be e340 523e e3cd cc3d
00000030: 3a5d 79be 4984 a53d 9fa0 46bd eadf 88be
00000040: 3cd6 823e c4fb 8c3d d4ea b0be 711b 96bc
00000050: 37e2 9fbe d840 c73e ec4b 73be d5c4 89bd
00000060: 9d8c fcbd 5d5b 0fbd 261d 85be 3dc3 093e
00000070: 4296 88bd e409 bd3e e525 233e afec 5abd
00000080: 1008 183e ca51 2fbe 08ba e9bd 915d e63e
00000090: a060 983e ce36 563e 427c febd 289e 9c3d
000000a0: 61a9 8ebe 1ee5 c4be 1ec7 bd3e 9853 babe
000000b0: 8dcb af3e 2995 52be bbfe 7e3e c274 1dbc
000000c0: 502d be3e

input_projection.bias f4 [7]
-0.098900184 -0.0499405 0.18760945 -0.35107872 -0.28127816 -0.14438306 0.15240803
00000000: 2e8c cabd 698e 4cbd b11c 403e 97c0 b3be
00000010: b103 90be 27d9 13be da10 1c3e

cells.0.x2h.weight f4 [256, 7]
-0.3071608 0.29436037 -0.1640695 -0.24180537 0.19739267 0.33563134 -0.14759736 0.2893648
-0.21332112 -0.2837254 -0.3955557 -0.36116534 -0.05209657 -0.36939302 -0.27340442 -0.23097819
0.46680018 -0.09134354 0.15775356 -0.21023665 0.44339666 0.29661575 -0.22101359 -0.13458206
0.06180143 -0.0012917812 -0.27645734 -0.053162955 -0.29480508 0.21509959 0.34264454 -0.0036025117
0.27611613 -0.10509892 -0.16166353 -0.22568369 0.24373315 0.29998648 0.30510944 0.31516567
0.0048669963 -0.0371418 0.115754336 -0.22310933 0.29045883 0.07833507 -0.17668201 -0.076787084
0.0029100082 -0.3374089 -0.45310122 0.0894906 0.38267726 -0.026043326 0.44672534 0.0654635
-0.35670176 0.043740034 -0.13847134 -0.24399027 0.2173969 -0.2138823 -0.03924764 0.0086191045
0.17560959 0.14201759 -0.12609884 -0.048367236 0.14861867 0.32883888 0.26834598 0.28018335
0.32688487 -0.16529483 -0.25924763 -0.32891548 0.28138083 -0.006448738 -0.23696725 0.106131144
-0.17450806 0.05802144 0.44144088 0.23256114 0.06359162 -0.22843732 0.2471502 -0.25247824
-0.33063543 0.33351207 0.030481052 0.010224581 0.11845964 0.38996202 0.15234384 0.34191176
0.12106775 0.22232522 0.1105157 -0.035761587 0.1587271 -0.14967808 -0.08450131 -0.03441266
-0.082803994 -0.30364692 -0.29015332 -0.11965337 -0.101900235 -0.24379976 0.050439715 -0.13568462
-0.40979287 -0.31129292 -0.014636507 -0.24240951 -0.12265104 0.45146477 0.47514215 0.01258248
0.45043778 0.3183796 -0.07298631 -0.24478671 -0.029452605 -0.25028536 0.12191462 -0.28452465
-0.07312548 0.1829257 0.0069227833 -0.07913471 -0.12537031 0.16627191 0.26495457 -0.08251061
0.17476168 -0.10433288 0.33218983 -0.06393669 0.38280928 -0.05296496 -0.18831979 -0.21544911
-0.29548252 -0.35068077 -0.005471039 -0.39922705 0.24005693 0.035220098 0.14475422 0.181933
-0.32282138 -0.030386547 0.04007084 -0.032613136 0.18423975 -0.1400106 -0.047560226 -0.34104487
-0.39890933 -0.1432032 -0.27127695 -0.3653534 -0.32114404 -0.32669303 0.44748682 0.23196642
0.2870548 -0.18211627 -0.17557673 0.04050876 0.056660395 0.37842858 -0.3199108 -0.039864123
0.28809148 0.31449863 0.5049043 -0.24404703 -0.30047533 0.38211378 0.43780777 0.41503492
0.18159926 0.16392487 -0.21119165 -0.41372335 -0.54309434 -0.24068928 0.08522134 0.25302967
0.17648084 0.32648402 -0.34001634 0.37497106 0.40654212 0.27152768 0.029929673 -0.18998821
-0.28381395 -0.15284432 -0.13529819 0.15967682 0.0056394846 0.37111777 0.088515975 0.14476372
0.11904616 -0.2242875 0.36692563 -0.14655848 0.07317293 0.048613023 -0.12378013 0.42250198
0.122208096 0.07574954 -0.061878026 0.25605267 0.096375294 0.26026762 0.14112742 -0.36814502
0.20228404 0.42690396 0.09812858 -0.31680048 0.05107194 -0.29193392 0.06660716 -0.20636687
-0.27790856 -0.37202993 0.06485365 0.17228018 0.3799135 0.16922875 0.28084674 -0.21640411
0.10170961 -0.30223656 -0.15750118 0.16341093 0.43336093 0.16916457 0.32745257 -0.17071386
-0.1225616 -0.058527317 0.20819432 0.4306337 -0.060251944 -0.08564578 0.3296922 -0.22385043
00000000: 2e44 9dbe 67b6 963e d601 28be d49b 77be
00000010: 4e21 4a3e dfd7 ab3e c323 17be a027 943e
00000020: da70 5abe 7544 91be 4786 cabe aaea b8be
00000030: 3763 55bd 1521 bdbe aafb 8bbe 8c85 6cbe
00000040: 6f00 ef3e 5212 bbbd 268a 213e 4748 57be
00000050: e304 e33e 05de 973e 6351 62be e1cf 09be
00000060: 7f23 7d3d fc50 a9ba d18b 8dbe 66c1 59bd
00000070: b1f0 96be 1143 5c3e 1b6f af3e 1e18 6cbb
00000080: 185f 8d3e 1a3e d7bd 208b 25be a019 67be
00000090: 2f95 793e d497 993e 4e37 9c3e 655d a13e
000000a0: 537b 9f3b 0022 18bd 9c10 ed3d c676 64be
000000b0: 05b7 943e 236e a03d 21ec 34be 8c42 9dbd
000000c0: d6b5 3e3b dcc0 acbe e2fc e7be d946 b73d
000000d0: 46ee c33e d058 d5bc 2fb9 e43e ba11 863d
000000e0: 9da1 b6be c028 333d 6ecb 0dbe 96d8 79be
000000f0: 4b9d 5e3e f603 5bbe 22c2 20bd 2537 0d3c
00000100: 00d3 333e 0f6d 113e 0e20 01be b91c 46bd
00000110: 7e2f 183e 925d a83e a564 893e 3174 8f3e
00000120: 745d a73e 0c43 29be 1bbc 84be 9c67 a8be
00000130: 2611 903e ef4f d3bb 8ba7 72be 495b d93d
00000140: 3eb2 32be e4a7 6d3d 8a04 e23e 8224 6e3e
00000150: 533c 823d 79eb 69be f114 7d3e d444 81be
00000160: 0c49 a9be 18c2 aa3e 66b3 f93c 0085 273c
00000170: f89a f23d 1aa9 c73e 0600 1c3e 0f0f af3e
00000180: 5ef2 f73d 39a9 633e 0e56 e23d be7a 12bd
00000190: 5b89 223e 3645 19be 060f adbd 4af4 0cbd
000001a0: 2495 a9bd 9c77 9bbe fa8e 94be d30c f5bd
000001b0: 12b1 d0bd a5a6 79be e099 4e3d e9f0 0abe
000001c0: 5fd0 d1be c961 9fbe f6cd 6fbc 333a 78be
000001d0: 7830 fbbd 6426 e73e d545 f33e bf26 4e3c
000001e0: c89f e63e a702 a33e d979 95bd 5ea9 7abe
000001f0: 9746 f1bc 6725 80be 5fae f93d 37ad 91be
00000200: d0c2 95bd e050 3b3e 84d8 e23b 6111 a2bd
00000210: 1361 00be 2f43 2a3e 20a8 873e 53fb a8bd
00000220: baf4 323e 7aac d5bd c914 aa3e 3df1 82bd
00000230: 94ff c33e c9f1 58bd e7d6 40be b19e 5cbe
00000240: 7c49 97be 6e8c b3be 6746 b3bb 7d67 ccbe
00000250: 7cd1 753e f342 103d 733a 143e a54c 3a3e
00000260: d848 a5be 35ed f8bc 5221 243d 5a95 05bd
00000270: 58a9 3c3e f05e 0fbe 83ce 42bd 6f9d aebe
00000280: d83d ccbe dca3 12be d0e4 8abe 9a0f bbbe
00000290: fe6c a4be 4f44 a7be fe1c e53e 9b88 6d3e
000002a0: d9f8 923e b07c 3abe 63ca 33be 83ec 253d
000002b0: bb14 683d 64c1 c13e 59cb a3be 9048 23bd
000002c0: ba80 933e f705 a13e 6941 013f 77e7 79be
000002d0: e7d7 99be 6ba4 c33e 5728 e03e 757f d43e
000002e0: 28f5 393e ecdb 273e a042 58be 8cd3 d3be
000002f0: 3b08 0bbf 4077 76be 8788 ae3d 1b8d 813e
00000300: 65b7 343e ea28 a73e 9f16 aebe 35fc bf3e
00000310: 4a26 d03e ad05 8b3e 132f f53c 458c 42be
00000320: 1050 91be 3983 1cbe 9c8b 0abe 5282 233e
00000330: 6dcb b83b 2603 be3e dd47 b53d f13c 143e
00000340: 79ce f33d 9fab 65be addd bb3e 6d13 16be
00000350: b0db 953d 731e 473d 7080 fdbd 2e52 d83e
00000360: 3d48 fa3d 9322 9b3d d073 7dbd 5619 833e
00000370: 6960 c53d cc41 853e b583 103e 817d bcbe
00000380: 8c23 4f3e 2893 da3e a3f7 c83d ac33 a2be
00000390: d030 513d 5d78 95be 5669 883d d651 53be
000003a0: 084a 8ebe b57a bebe fed1 843d 376a 303e
000003b0: 0684 c23e 4d4a 2d3e 25cb 8f3e 0a99 5dbe
000003c0: 214d d03d c0be 9abe fd47 21be 3255 273e
000003d0: 7ce1 dd3e 7a39 2d3e dda7 a73e 9dcf 2ebe
000003e0: 9301 fbbd 57ba 6fbd e430 553e 057c dc3e
000003f0: beca 76bd 0e67 afbd 6bcd a83e 0c39 65be

cells.0.x2h.bias f4 [256]
0.36919975 0.35681218 -0.119919166 0.3377282 0.18016635 -0.14735188 0.3707266 -0.07223459
0.090941995 -0.022854116 -0.102840394 -0.0838357 0.31196716 0.06142949 -0.21112701 -0.046155185
-0.2282882 0.052485354 0.29905072 0.1261281 0.21601751 -0.09044052 -0.260587 0.07164456
0.06720957 -0.1663406 -0.010302116 -0.24332426 0.23137332 -0.26911852 -0.09722905 0.12697256
0.14017276 0.024019005 -0.18616128 0.38578928 0.290732 -0.3570973 -0.2840518 0.3076402
-0.2059363 0.28621808 -0.0033220593 -0.21433163 -0.25076538 0.12274666 -0.24205886 -0.23542231
-0.08886161 0.17773812 0.29846287 -0.19571386 -0.13169698 -0.1946431 -0.30311835 0.25485182
0.057178613 0.16957773 -0.17425601 -0.15049699 -0.15738107 -0.31934172 0.16049732 -0.11621124
-0.032685805 0.115615 0.35906178 -0.22625919 -0.20069894 -0.2248487 -0.0026775214 0.12595183
-0.2988937 -0.039441206 0.20117512 0.17801571 0.1703725 -0.024123501 -0.18854362 0.005097192
0.45705104 0.14818792 0.059969768 -0.23699771 -0.12481744 -0.07007642 0.029111102 0.45537642
-0.09018758 -0.2948791 0.1406974 0.26543525 0.27930102 -0.21964039 0.21256037 0.33886102
-0.3029518 -0.17296296 0.1415841 0.38721 -0.1282228 0.07617906 0.25696623 -0.37546763
-0.22197081 0.37955454 -0.20808034 0.11265416 0.37243238 -0.35720313 -0.17920507 0.22213058
0.35096598 0.018474096 -0.11828372 0.19914651 0.27971506 0.32908106 0.07125052 0.21827744
0.3891136 0.16315013 0.09700428 0.2777603 0.3077924 -0.30538067 -0.18385966 0.10579744
0.037415132 -0.07693902 0.37046278 -0.21209267 -0.3439168 0.03226787 0.27381423 0.06789497
-0.2955451 -0.22700866 -0.290935 0.11895919 0.17588314 0.3708957 -0.069510214 -0.02327386
-0.1258739 0.35012537 0.1468993 -0.039331544 -0.28856692 -0.08370104 0.12901057 -0.0071113
-0.11075535 0.09512468 -0.27669826 -0.22587457 0.016162058 0.35303113 0.040489774 -0.071059555
0.0136497235 0.15579906 0.26225933 -0.10618171 -0.2345815 0.046834953 0.035579935 0.0703261
0.22640401 -0.30632627 0.00037927745 0.24605799 -0.13018931 -0.19613096 -0.33548638 0.12259511
0.1285495 -0.12253452 0.04562809 -0.19453143 -0.13833667 0.22144744 0.19225375 0.16260546
-0.09140763 -0.19605236 0.17171425 0.19155353 -0.0540941 -0.1902165 0.124491476 -0.33529747
-0.3141115 0.17287715 -0.18508376 -0.26082546 0.29738697 0.22502357 0.101454906 -0.021988943
-0.26686928 -0.24046047 -0.2841845 0.061510984 -0.13772117 0.32392848 -0.3420116 0.29655692
0.2276894 0.023871582 0.14062998 -0.11488076 -0.14656028 0.20526528 -0.10606702 0.39874566
0.3077207 -0.2526025 -0.250435 0.30719936 0.36800542 -0.29542246 -0.1738752 -0.13457488
-0.21790947 -0.05626343 0.11290883 0.158001 0.3741587 0.12297083 -0.3264786 0.11300153
-0.009123623 -0.18466549 -0.03218071 0.35632592 -0.2194928 0.22587025 -0.16710308 0.21840233
-0.30360386 -0.25561386 0.15685858 0.2770704 0.16832615 -0.10627091 -0.32919785 0.20303316
0.19215287 -0.15105316 0.28137863 -0.16339536 0.16818547 0.1304663 -0.24669218 0.2381135
00000000: c007 bd3e 16b0 b63e 2e98 f5bd b6ea ac3e
00000010: 877d 383e 69e3 16be e0cf bd3e bbef 93bd
00000020: cc3f ba3d 8e38 bbbc fc9d d2bd 0db2 abbd
00000030: 29ba 9f3e 7d9d 7b3d ae31 58be 380d 3dbd
00000040: 62c4 69be e2fa 563d 2d1d 993e ba27 013e
00000050: b233 5d3e e138 b9bd a96b 85be 62ba 923d
00000060: 2ca5 893d 3155 2abe 35ca 28bc ff29 79be
00000070: 21ed 6c3e e7c9 89be 0620 c7bd 1805 023e
00000080: 7389 0f3e 81c3 c43c 10a1 3ebe 2c86 c53e
00000090: d3da 943e 75d5 b6be 3d6f 91be 0483 9d3e
000000a0: f7e0 52be 2d8b 923e e8b6 59bb c079 5bbe
000000b0: 5264 80be 9a62 fb3d 47de 77be 8c12 71be
000000c0: 13fd b5bd fb00 363e 20d0 983e 3769 48be
000000d0: 93db 06be 8550 47be 5432 9bbe f07b 823e
000000e0: 1f34 6a3d c9a5 2d3e 2b70 32be e21b 1abe
000000f0: 8128 21be c280 a3be 6959 243e 2900 eebd
00000100: 8de1 05bd 8fc7 ec3d f2d6 b73e 7db0 67be
00000110: 0684 4dbe bd3e 66be 5b79 2fbb 84f9 003e
00000120: 9808 99be 1a8d 21bd da00 4e3e c049 363e
00000130: 2176 2e3e a69e c5bc 9411 41be 5806 a73b
00000140: 9802 ea3e 93be 173e dca2 753d 87af 72be
00000150: 49a0 ffbd 3a84 8fbd 687a ee3c 1927 e93e
00000160: 44b4 b8bd 65fa 96be fb12 103e 21e7 873e
00000170: 8b00 8f3e 69e9 60be 6da9 593e 317f ad3e
00000180: 801c 9bbe 341d 31be 6cfb 103e 6440 c63e
00000190: d64c 03be c403 9c3d 1491 833e 4b3d c0be
000001a0: 514c 63be f954 c23e 0313 55be 39b7 e63d
000001b0: 75af be3e 54e3 b6be 8981 37be 3376 633e
000001c0: d0b1 b33e fd56 973c bc3e f2bd 10ed 4b3e
000001d0: d036 8f3e 507d a83e cbeb 913d 1f84 5f3e
000001e0: e639 c73e d410 273e 2eaa c63d 9936 8e3e
000001f0: f796 9d3e db5a 9cbe b545 3cbe 54ac d83d
00000200: 9c40 193d 3492 9dbd 4cad bd3e d22e 59be
00000210: dd15 b0be 502b 043d 6131 8c3e 850c 8b3d
00000220: b051 97be f574 68be 6ff5 94be e0a0 f33d
00000230: b61a 343e 0be6 bd3e 5f5b 8ebd d2a8 bebc
00000240: 16e5 00be a243 b33e c56c 163e 1d1a 21bd
00000250: 0bbf 93be 736b abbd 591b 043e e805 e9bb
00000260: b3d3 e2bd bad0 c23d 65ab 8dbe aa4b 67be
00000270: 4b66 843c 7fc0 b43e 9bd8 253d ac87 91bd
00000280: 17a3 5f3c ca89 1f3e db46 863e cc75 d9bd
00000290: 2236 70be 02d6 3f3d 44bc 113d 2107 903d
000002a0: 74d6 673e ccd6 9cbe c2d9 c639 a0f6 7b3e
000002b0: 5950 05be 8ed6 48be dfc4 abbe 2513 fb3d
000002c0: 7ba2 033e 61f3 fabd 85e4 3a3d 3f33 47be
000002d0: 21a8 0dbe 1ec3 623e 2bde 443e 0c82 263e
000002e0: ec33 bbbd f3c1 48be dcd5 2f3e 9c26 443e
000002f0: c691 5dbd 1dc8 42be 63f5 fe3d 1cac abbe
00000300: 39d3 a0be b506 313e 9986 3dbe ea8a 85be
00000310: 1b43 983e 946c 663e 97c7 cf3d 2822 b4bc
00000320: 17a3 88be 453b 76be a180 91be f1f2 7b3d
00000330: c706 0dbe f4d9 a53e 251c afbe 4fd6 973e
00000340: 6927 693e 568e c33c 4e01 103e 9b46 ebbd
00000350: e613 16be 1031 523e aa39 d9bd 6428 cc3e
00000360: 918d 9d3e 1d55 81be 0439 80be 3c49 9d3e
00000370: 356b bc3e 9d41 97be 570c 32be ffcd 09be
00000380: a923 5fbe 7b74 66bd bf3c e73d 04cb 213e
00000390: bb91 bf3e 21d8 fb3d 3428 a7be 596d e73d
000003a0: 407b 15bc f318 3dbe eccf 03bd 5a70 b63e
000003b0: b8c2 60be 884a 673e 121d 2bbe dca4 5f3e
000003c0: f771 9bbe d2df 82be 899f 203e 2cdc 8d3e
000003d0: b15d 2c3e 90a4 d9bd 9f8c a8be ede7 4f3e
000003e0: b9c3 443e aead 1abe dc10 903e 1d51 27be
000003f0: d038 2c3e f598 053e e09c 7cbe 06d4 733e

cells.0.h2h.weight f4 [256, 64]
0.062486697 -0.02282127 -0.04573165 0.08064363 -0.11810719 0.05306641 -0.0034999116 0.031180186
-0.033320583 0.07550005 -0.026043156 0.0043244916 -0.036142986 0.014902928 -0.08784145 0.06933653
-0.10631919 -0.05197204 -0.10660581 0.09209671 -0.077248745 0.11484189 -0.08970081 0.14760283
-0.123650976 0.01608646 0.04659056 -0.070942424 0.11045564 0.06999839 -0.048663158 0.07005961
0.06468934 0.11399662 0.102577046 -0.06267442 -0.02510165 0.11287083 -0.10911418 -0.09055993
0.08083415 -0.14836165 0.014433874 -0.010864624 0.052153364 0.034164134 0.084370084 0.0768828
-0.03811482 -0.13195254 0.036919322 -0.044364188 -0.05884279 0.11293963 0.09392053 -0.10528071
0.0807519 -0.046393123 0.09530903 -0.04152757 0.034401305 0.088232264 0.009495599 0.033649594
0.05180871 -0.02861864 0.053065147 -0.06621236 -0.14835829 -0.07932107 0.143684 0.0034849313
-0.08229516 -0.15107289 0.030408334 -0.13991643 0.08789203 -0.044061873 -0.008954475 -0.057766046
0.08928327 0.097881846 -0.02569728 0.035435703 -0.0044430792 0.059767235 -0.0100118825 0.18202357
-0.007786897 0.035018105 -0.0074560307 0.06857812 -0.02309346 -0.04086452 -0.1653464 0.06144674
-0.07259779 -0.12965804 -0.049977332 0.100186765 -0.06646323 -0.14949922 -0.057266712 0.07826188
-0.09841257 0.024930906 -0.051071722 0.08885267 -0.04264769 -0.08590172 -0.012465798 0.072755605
0.119709775 -0.05621392 0.0069941413 -0.066179015 0.09235306 0.14791176 0.039056968 0.0969371
-0.034576073 0.10990301 -0.079064265 0.09109137 -0.0765135 0.08899353 -0.023172367 -0.014975824
0.011661402 0.16445562 -0.0375911 0.102891676 0.0024256222 -0.057573806 -0.004641018 0.013362795
-0.06934484 -0.2636775 -0.045820482 -0.050855096 0.12119194 -0.118344106 -0.02844143 -0.0042630816
-0.17839718 0.18641745 0.12653734 0.060706243 0.10594543 -0.13107507 0.0682437 0.03958729
-0.15144701 -0.25559804 0.19267988 0.015573136 -0.28164276 0.1187877 -0.10666787 0.14635088
0.018203279 0.21054143 0.16464518 0.09428684 0.19450118 0.03324208 0.018235799 0.04261393
-0.23481831 -0.09702876 0.21304148 -0.06289845 0.24664421 -0.081732586 -0.19253667 -0.099934034
0.2614277 -0.06701182 0.15324438 -0.1406043 0.22804996 0.23600627 -0.18056774 0.20247363
0.25522897 -0.024447938 0.08837387 0.02092797 0.018236754 0.0018246929 0.13132243 -0.20362069
0.054289766 -0.06569688 0.05374083 0.007476694 -0.035818577 0.010060731 0.14390875 -0.21463117
0.10338651 -0.08795143 0.068566255 0.18315837 0.013919967 0.12726603 -0.031834673 0.088094786
0.0797284 -0.012539733 0.056175802 0.011394129 -0.16255632 0.03985451 -0.0466873 0.044116046
-0.10583301 0.054199245 -0.022582417 0.062037367 0.012630053 0.043608315 0.0688951 0.013323587
0.092263274 0.124282956 0.0793588 0.02774084 0.0079448195 -0.12277431 -0.010835103 -0.014085162
0.14079754 -0.073189035 0.015565873 -0.05260396 -0.13081342 -0.045589514 -0.060073886 0.08856566
-0.04009345 -0.07556309 -0.14694592 -0.04165146 -0.05316292 -0.08024505 -0.07086187 -0.011483543
-0.18137708 -0.009980451 0.042813182 0.0044282614 0.018355165 -0.1736975 -0.03711141 0.12217361
00000000: 0df2 7f3d acf3 babc 1c51 3bbd 7d28 a53d
00000010: 2fe2 f1bd 2a5c 593d c65e 65bb 976d ff3c
00000020: 2a7b 08bd c59f 9a3d 7558 d5bc 77b4 8d3b
00000030: ab0a 14bd 692b 743c 38e6 b3bd 5000 8e3d
00000040: e0bd d9bd a2e0 54bd 2654 dabd 339d bc3d
00000050: 9734 9ebd 3a32 eb3d 0fb5 b7bd 3225 173e
00000060: b93c fdbd c0c7 833c bed5 3e3d 434a 91bd
00000070: 9136 e23d 515b 8f3d 0553 47bd 6a7b 8f3d
00000080: d87b 843d 0f77 e93d ea13 d23d 725b 80bd
00000090: faa1 cdbc d228 e73d 4177 dfbd 7c77 b9bd
000000a0: 608c a53d 1eec 17be 0e7c 6c3c 8901 32bc
000000b0: c49e 553d b1ef 0b3d 39ca ac3d bb74 9d3d
000000c0: 491e 1cbd 911e 07be b738 173d 39b7 35bd
000000d0: 2305 71bd e54c e73d 6859 c03d 6a9d d7bd
000000e0: 4161 a53d b706 3ebd 6131 c33d d018 2abd
000000f0: 62e8 0c3d 1eb3 b43d 6e93 1b3c 28d4 093d
00000100: 5f35 543d a371 eabc d75a 593d 599a 87bd
00000110: 3ceb 17be 1673 a2bd e621 133e 7263 643b
00000120: 5d8a a8bd dab2 1abe e61a f93c 4146 0fbe
00000130: bd00 b43d 397a 34bd cab5 12bc 179c 6cbd
00000140: 26da b63d 4776 c83d 1a83 d2bc 0725 113d
00000150: 4097 91bb 7dce 743d e108 24bc 6364 3a3e
00000160: 3a29 ffbb 256f 0f3d b851 f4bb af72 8c3d
00000170: 7f2e bdbc 8e61 27bd 9150 29be 94af 7b3d
00000180: 26ae 94bd 14c5 04be 08b5 4cbd b82e cd3d
00000190: e01d 88bd 5316 19be 8090 6abd c447 a03d
000001a0: 888c c9bd e63b cc3c 9530 51bd 63f8 b53d
000001b0: 58af 2ebd 3eed afbd 593d 4cbc e400 953d
000001c0: 662a f53d 9140 66bd 1c2f e53b dd88 87bd
000001d0: 9a23 bd3d 2e76 173e 33fa 1f3d f586 c63d
000001e0: a49f 0dbd d414 e13d 72ec a1bd 1d8e ba3d
000001f0: 1cb3 9cbd 3d42 b63d fad3 bdbc 295d 75bc
00000200: 770f 3f3c 0e67 283e 20f9 19bd dfb8 d23d
00000210: 30f7 1e3b 83d2 6bbd ae13 98bb a0ef 5a3c
00000220: ab04 8ebd bd00 87be 42ae 3bbd 6f4d 50bd
00000230: 7b33 f83d 655e f2bd 00fe e8bc 52b1 8bbb
00000240: c0ad 36be 37e4 3e3e 0193 013e 1ca7 783d
00000250: ebf9 d83d 8b38 06be 5ac3 8b3d 4826 223d
00000260: ed14 1bbe bfdd 82be e04d 453e 7726 7f3c
00000270: 7b33 90be f746 f33d af74 dabd 01dd 153e
00000280: 0b1f 953c 2c98 573e bf98 283e 7519 c13d
00000290: 512b 473e d928 083d 3e63 953c f28b 2e3d
000002a0: 3674 70be 04b7 c6bd 8c27 5a3e e7d0 80bd
000002b0: 4d90 7c3e 6a63 a7bd 5528 45be 37aa ccbd
000002c0: dad9 853e 7e3d 89bd 18ec 1c3e 93fa 0fbe
000002d0: ee85 693e a1ab 713e c0e6 38be 3f55 4f3e
000002e0: 5fad 823e 0b47 c8bc 5cfd b43d 2271 ab3c
000002f0: 3f65 953c 892a ef3a 6379 063e f181 50be
00000300: f25e 5e3d 168c 86bd 581f 5c3d 0eff f43b
00000310: 80b6 12bd c4d5 243c d15c 133e 46c8 5bbe
00000320: 4ebc d33d e11f b4bd 776c 8c3d de8d 3b3e
00000330: 9310 643c 0752 023e 1365 02bd 0a6b b43d
00000340: a548 a33d 7473 4dbc 9918 663d 71ae 3a3c
00000350: 2a75 26be 7c3e 233d 2f3b 3fbd 07b3 343d
00000360: fabe d8bd 0700 5e3d c3fe b8bc e51a 7e3d
00000370: 48ee 4e3c a29e 323d e018 8d3d 2d4b 5a3c
00000380: 87f4 bc3d 1088 fe3d de86 a23d c240 e33c
00000390: fd2a 023c 1971 fbbd b785 31bc 74c5 66bc
000003a0: 3b2d 103e 22e4 95bd 0108 7f3c 4077 57bd
000003b0: f4f3 05be 12bc 3abd 0910 76bd ea61 b53d
000003c0: 0839 24bd d2c0 9abd fe78 16be b99a 2abd
000003d0: 5dc1 59bd 8457 a4bd 0720 91bd 7825 3cbc
000003e0: eaba 39be 0c85 23bc e05c 2f3d f31a 913b
000003f0: 925d 963c c2dd 31be 2202 18bd 2836 fa3d

cells.0.h2h.bias f4 [256]
-0.08390252 -0.026513092 0.1247459 0.050236207 0.084085524 -0.038196594 -0.0070177778 -0.06994735
0.10235821 0.10646608 0.032803155 -0.0039037608 -0.0078085004 0.1328334 -0.103462346 0.10685131
0.021172475 -0.06997449 0.031084858 0.06336177 -0.022459194 -0.06845258 0.0579135 -0.05359552
-0.102228075 0.012915378 -0.07535971 0.10021492 0.06606826 -0.02952158 0.1049654 0.030654894
0.08834666 0.030051699 -0.083012275 0.18348464 0.105867416 0.09351922 0.10461689 0.10287694
0.0850983 0.11206828 0.12124067 -0.009183486 -0.03780002 0.096658856 -0.025534336 -0.047905345
0.09903278 0.036611505 0.1495259 -0.039901078 -0.040448137 0.061367713 0.031253714 -0.099609435
0.19717471 0.10361009 0.10901139 -0.044779453 0.1637352 -0.0930271 0.09229248 0.07933338
0.12775198 0.10033844 0.15687302 -0.07924952 0.13246273 0.021462534 0.020035286 0.057695776
-0.079046205 0.13079825 0.11886175 0.13114339 0.027653538 -0.025460517 0.091262594 0.12277313
0.19258308 -0.044072956 0.06604906 0.045659494 0.07880911 -0.058377698 0.1314535 0.06657489
0.055308435 -0.013330274 0.06252327 -0.033889502 0.061317734 0.061618984 -0.06808549 0.054799467
0.05678097 0.11743249 0.111068696 0.18050314 0.092160776 -0.06347581 0.100659676 0.013522775
0.038032595 -0.061828505 0.11117996 0.05707599 0.037103903 0.0041758376 -0.07491571 0.108161055
0.089079 -0.109902315 -0.033673767 0.03319193 0.10855813 0.120263584 -0.1101703 -0.012076264
0.13047779 0.09692218 0.074065454 -0.07654615 -0.0036056368 -0.084458314 0.10080538 -0.024250548
0.16079947 0.13453847 0.0100392895 -0.121740125 -0.133994 -0.06853679 -0.050635964 0.09193566
-0.05971367 -0.07725653 0.07963351 0.062010508 -0.029686404 -0.07884774 -0.108592466 -0.05879095
0.012320136 -0.050691556 -0.012340233 0.12194211 -0.0041157473 0.09035637 -0.047008652 0.03885093
-0.07451943 0.06522664 0.11008289 -0.10720366 0.11280688 0.038398743 0.068343796 -0.0066477824
0.114388935 0.022883615 0.12584154 0.13739766 -0.032884747 -0.029463751 0.084442385 0.058753025
-0.055850964 -0.10276388 0.09323738 0.00153932 0.07928699 -0.14034477 0.13251673 0.12346549
0.05246488 -0.07476336 -0.13678165 -0.09144168 0.097666286 -0.01321217 -0.036610316 -0.034838766
0.12690856 0.059493802 0.12300444 -0.044606745 0.038964722 -0.09634225 0.093291156 -0.08596091
0.11139255 0.058501348 -0.06105209 0.019964488 0.11114497 0.04300289 -0.04666626 0.031817082
0.06066025 0.09041223 0.053820953 -0.07346786 -0.06560982 -0.037511013 0.06923125 -0.012022701
-0.014097506 -0.045037635 0.058252506 -0.12775294 0.11050477 0.09321979 0.027144916 -0.031998485
0.09443744 0.075138524 0.018008566 0.08462785 -0.06400786 0.0961828 -0.106422275 0.08298031
0.12824443 -0.08103981 -0.06767238 0.0057075405 0.022042938 0.121574976 0.06635724 0.026521586
-0.07067513 -0.03417663 -0.028931325 -0.017443946 0.08423852 -0.029983206 0.14578609 -0.060934585
-0.08614526 0.12210506 -0.012964557 0.10917047 -0.03192249 0.024427105 -0.07697987 0.121374905
0.11299412 0.014380702 -0.020241914 -0.08720884 0.14277482 -0.10708061 -0.06831629 0.088775985
00000000: 16d5 abbd fc31 d9bc c77a ff3d 7bc4 4d3d
00000010: 0835 ac3d 0874 1cbd 63f5 e5bb 8e40 8fbd
00000020: 2ea1 d13d e30a da3d 9a5c 063d 3dd6 7fbb
00000030: 73de ffbb 7b05 083e 11e4 d3bd dcd4 da3d
00000040: e671 ad3c c94e 8fbd aca5 fe3c d1c3 813d
00000050: 58fc b7bc de30 8cbd b536 6d3d fa86 5bbd
00000060: f45c d1bd 069b 533c 3156 9abd 7b3d cd3d
00000070: cc4e 873d 3ed7 f1bc 1af8 d63d f91f fb3c
00000080: 18ef b43d fb2e f63c 5702 aabd 66e3 3b3e
00000090: 04d1 d83d 0187 bf3d 6141 d63d 25b1 d23d
000000a0: 0448 ae3d 0e84 e53d 074d f83d 5576 16bc
000000b0: 32d4 1abd 14f5 c53d 622d d1bc 6538 44bd
000000c0: b3d1 ca3d f2f5 153d 511d 193e 506f 23bd
000000d0: f2ac 25bd b65c 7b3d e503 003d 0800 ccbd
000000e0: 2be8 493e 8731 d43d 5d41 df3d a96a 37bd
000000f0: 33aa 273e fe84 bebd d703 bd3d 8a79 a23d
00000100: 6ad1 023e 3d7e cd3d 52a3 203e 934d a2bd
00000110: 4fa4 073e 32d2 af3c 0a21 a43c 6852 6c3d
00000120: fae2 a1bd faef 053e ca6d f33d 744a 063e
00000130: ac89 e23c 9392 d0bc e2e7 ba3d 7b70 fb3d
00000140: 8034 453e d885 34bd bb44 873d 7305 3b3d
00000150: ac66 a13d 741d 6fbd bf9b 063e 6a58 883d
00000160: 198b 623d 3967 5abc 330c 803d b8cf 0abd
00000170: 4e28 7b3d 3064 7c3d 6870 8bbd 6875 603d
00000180: 2a93 683d 7280 f03d fc77 e33d d1d5 383e
00000190: cabe bc3d 9bff 81bd a926 ce3d a18e 5d3c
000001a0: 11c8 1b3d e33f 7dbd 52b2 e33d 83c8 693d
000001b0: 43fa 173d 77d5 883b 686d 99bd 8b83 dd3d
000001c0: 0d6f b63d 7714 e1bd 81ed 09bd 43f4 073d
000001d0: ba53 de3d c14c f63d f7a0 e1bd 86db 45bc
000001e0: f89b 053e 237f c63d a1af 973d 3ac4 9cbd
000001f0: 8c4c 6cbb 7bf8 acbd 0d73 ce3d 16a9 c6bc
00000200: 9ea8 243e 74c4 093e d57b 243c e352 f9bd
00000210: b935 09be 045d 8cbd a867 4fbd c348 bc3d
00000220: 5296 74bd ac38 9ebd e516 a33d bbfe 7d3d
00000230: e730 f3bc ed7a a1bd ba65 debd c7ce 70bd
00000240: 65da 493c f3a1 4fbd b02e 4abc c9bc f93d
00000250: 64dd 86bb c30c b93d 258c 40bd 2722 1f3d
00000260: a59d 98bd 8b95 853d 2373 e13d 988d dbbd
00000270: 4b07 e73d 0048 1d3d d5f7 8b3d a4d5 d9bb
00000280: bf44 ea3d 6b76 bb3c 9bdc 003e f9b1 0c3e
00000290: 28b2 06bd f75d f1bc 21f0 ac3d 03a7 703d
000002a0: fbc3 64bd de75 d2bd 3df3 be3d 02c3 c93a
000002b0: 3861 a23d 8ab6 0fbe 77b2 073e 7adb fc3d
000002c0: 6ae5 563d 881d 99bd 7d10 0cbe c745 bbbd
000002d0: 4305 c83d dc77 58bc b3f4 15bd 18b3 0ebd
000002e0: 51f4 013e c6af 733d c0e9 fb3d 90b5 36bd
000002f0: 7999 1f3d 164f c5bd 6f0f bf3d 460c b0bd
00000300: c721 e43d 1c9f 6f3d c211 7abd 918c a33c
00000310: f99f e33d cc23 303d 1f25 3fbd a152 023d
00000320: e276 783d 0c2a b93d 5c73 5c3d 5176 96bd
00000330: 715e 86bd 26a5 19bd 1dc9 8d3d ddfa 44bc
00000340: 3af9 66bc 6279 38bd 2e9a 6e3d abd1 02be
00000350: 5350 e23d 04ea be3d 045f de3c d810 03bd
00000360: 6b68 c13d 3ae2 993d b386 933c 5e51 ad3d
00000370: 8e16 83bd 7dfb c43d ecf3 d9bd 95f1 a93d
00000380: 8252 033e 33f8 a5bd d197 8abd 5206 bb3b
00000390: 6493 b43c 4dfc f83d 4ee6 873d cc43 d93c
000003a0: 1fbe 90bd cbfc 0bbd 6301 edbc 9be6 8ebc
000003b0: 3f85 ac3d 579f f5bc f348 153e 8b96 79bd
000003c0: ed6c b0bd 3812 fa3d 4b69 54bc c494 df3d
000003d0: 28c1 02bd 5a1b c83c 9fa7 9dbd 6893 f83d
000003e0: 7669 e73d 099d 6b3c 5fd2 a5bc 8c9a b2bd
000003f0: 9033 123e 144d dbbd 69e9 8bbd 2fd0 b53d

cells.1.x2h.weight f4 [256, 64]
0.0013215952 0.087782845 -0.07163407 -0.090828694 -0.040785506 -0.03448552 0.032987416 -0.09469969
-0.026089426 0.066135526 0.050869305 0.13089938 0.040740922 0.12315886 -0.056485537 -0.029521458
-0.08115723 -0.004300318 -0.046587445 -0.07209454 0.05674588 -0.07476942 -0.07499469 0.0066591995
-0.07516852 -0.15479597 -0.026741613 -0.029018356 -0.021457499 -0.09258285 -0.083004996 0.01770259
-0.060364272 -0.018503936 -0.05101324 0.1369045 -0.13748111 -0.09681106 0.096525155 0.12467336
-0.067182474 0.07363631 0.042395953 0.057378028 0.049388688 0.057373423 -0.026990592 -0.079020046
0.12577802 0.027105916 0.21483032 -0.029623907 -0.08544082 0.00068656227 0.028099682 -0.08180496
-0.05024356 -0.04817628 -0.04475844 -0.021461021 0.0884253 -0.06811386 -0.092057526 -0.079204656
0.07911152 0.12403521 -0.11904511 -0.03143891 0.052748982 0.12300828 -0.019242756 -0.03324908
-0.001989071 0.047585648 -0.066665 -0.05472006 0.04649266 0.09345575 -0.07994026 -0.035393998
-0.06723054 0.09979298 -0.073038146 0.083366215 -0.037524816 -0.029482845 0.061020616 -0.031761788
0.0043408144 -0.039762013 0.1729567 -0.07695609 0.12177653 0.053037316 0.05208079 -0.019721258
0.097228564 -0.03689028 0.020781696 0.08811701 0.09277036 0.1018053 -0.055072505 0.105543464
-0.09699824 -0.03123422 0.08952776 0.09084262 0.08920396 0.12678939 0.13668679 0.07041533
0.039746504 0.010450202 -0.008987821 0.1018 -0.058515668 -0.03947228 -0.10693853 0.044214528
0.027275303 0.07670732 -0.09179403 -0.028375689 0.118278846 0.041068554 0.06124482 0.13205883
0.08271584 0.024819193 0.09245922 -0.09306355 -0.08303062 -0.0447927 -0.041971903 -0.101309784
-0.041398667 -0.11053046 0.014057149 0.0701999 -0.053204827 0.12198957 -0.041387178 0.109252855
-0.13475917 0.036558725 0.08483244 -0.10348988 0.055538367 0.12855732 0.01283792 0.08785561
-0.1084064 0.008491744 -0.0126158055 0.062150083 -0.03461212 -0.055525973 0.0932599 -0.049207862
-0.0957864 -0.07277113 0.042083114 0.04382118 0.0033938808 0.02178651 -0.010027193 0.09473264
-0.102108866 0.095944405 0.04745307 0.08293802 0.0887352 -0.006558212 0.0018075659 -0.029214326
-0.010976843 -0.016738864 0.01676769 0.082434356 -0.1079083 0.0006273191 -0.02279065 -0.049607962
-0.15721636 0.07967998 0.04634363 0.07045286 0.047669113 -0.0473857 -0.10786378 0.09278252
0.00034823586 -0.04622675 0.02267321 0.14199717 -0.08095374 -0.08136777 -0.03323007 -0.011313508
-0.0014763955 -0.014416343 -0.018476767 0.13432062 0.057168175 -0.041075215 -0.06917482 0.09917406
-0.08177726 -0.05863769 -0.042339798 -0.10176491 0.015975744 -0.07492943 0.061326444 -0.08887415
0.10253307 0.08713392 -0.06385912 0.052560396 -0.07520888 0.10002064 -0.04703377 -0.08260491
-0.16253002 0.06802127 -0.10890606 -0.020767825 0.055114076 0.12540986 -0.023331149 0.036268607
-0.12052431 0.102289245 0.029174509 -0.10983325 0.073190466 0.09936158 -0.057498995 0.11768408
-0.061878707 0.06724001 0.015384891 0.0134696765 -0.07783152 0.11278682 0.10723755 0.03466922
0.12444549 0.07908037 -0.109536275 0.11021516 0.015818425 -0.13543196 -0.059929077 -0.11548266
00000000: 6039 ad3a 7ec7 b33d e2b4 92bd 6504 babd
00000010: b40e 27bd b040 0dbd d01d 073d e9f1 c1bd
00000020: 7eb9 d5bc 1072 873d 555c 503d 7d0a 063e
00000030: f4df 263d b63a fc3d 615d 67bd fcd6 f1bc
00000040: c335 a6bd afe9 8cbb 7ad2 3ebd 4da6 93bd
00000050: 5e6e 683d b620 99bd d196 99bd 6a35 da3b
00000060: f4f1 99bd d682 1ebe 3a11 dbbc e7b7 edbc
00000070: a3c7 afbc 149c bdbd 86fe a9bd 0605 913c
00000080: 8740 77bd 9195 97bc 42f3 50bd b130 0c3e
00000090: d9c7 0cbe e144 c6bd fbae c53d bf54 ff3d
000000a0: f796 89bd a2ce 963d 61a7 2d3d 3905 6b3d
000000b0: cb4b 4a3d 6500 6b3d 601b ddbc 43d5 a1bd
000000c0: f4cb 003e 3a0d de3c 7bfc 5b3e d6ad f2bc
000000d0: 99fb aebd 6afa 333a 4e31 e63c 5c89 a7bd
000000e0: 31cc 4dbd 7e54 45bd a054 37bd 06cf afbc
000000f0: 5318 b53d 487f 8bbd a888 bcbd 0d36 a2bd
00000100: 3805 a23d 2c06 fe3d eccd f3bd 16c6 00bd
00000110: 510f 583d c4eb fb3d fca2 9dbc 3030 08bd
00000120: 135b 02bb 2be9 423d a987 88bd 2422 60bd
00000130: 166f 3e3d ba65 bf3d b8b7 a3bd 4cf9 10bd
00000140: 2ab0 89bd 4360 cc3d 0695 95bd e8bb aa3d
00000150: 9fb3 19bd 0286 f1bc c1f0 793d a618 02bd
00000160: 643d 8e3b 7edd 22bd 901b 313e 289b 9dbd
00000170: f965 f93d a83d 593d ab52 553d 7a8e a1bc
00000180: c51f c73d 431a 17bd 603e aa3c b176 b43d
00000190: 63fe bd3d 4c7f d03d b593 61bd 2c27 d83d
000001a0: 03a7 c6bd e8de ffbc 555a b73d b20b ba3d
000001b0: 91b0 b63d 14d5 013e 9ff7 0b3e ea35 903d
000001c0: 3bcd 223d 5337 2b3c a741 13bc 857c d03d
000001d0: 20ae 6fbd afad 21bd 9702 dbbd 4b1a 353d
000001e0: 7570 df3c ba18 9d3d 82fe bbbd 2274 e8bc
000001f0: 2e3c f23d 8037 283d d9db 7a3d 6e3a 073e
00000200: ec66 a93d 9f51 cb3c 425b bd3d 1a98 bebd
00000210: f50b aabd 8d78 37bd bbea 2bbd 817b cfbd
00000220: a691 29bd cb5d e2bd f54f 663c f7c4 8f3d
00000230: 4eed 59bd abd5 f93d 9a85 29bd f6bf df3d
00000240: 4ffe 09be 9abe 153d a1bc ad3d 81f2 d3bd
00000250: 337c 633d 88a4 033e 2456 523c a4ed b33d
00000260: 2d04 debd f520 0b3c 86b2 4ebc 1691 7e3d
00000270: 70c5 0dbd 346f 63bd 0cff be3d 2f8e 49bd
00000280: a92b c4bd 0809 95bd 585f 2c3d d67d 333d
00000290: df6b 5e3b 9f79 b23c 1949 24bc 3003 c23d
000002a0: 741e d1bd 807e c43d 265e 423d 69db a93d
000002b0: cdba b53d 45e6 d6bb d9eb ec3a e252 efbc
000002c0: 37d8 33bc f11f 89bc 655c 893c 58d3 a83d
000002d0: 07ff dcbd ac72 243a 75b3 babc b831 4bbd
000002e0: 53fd 20be 422f a33d d1d2 3d3d 9749 903d
000002f0: b040 433d 8217 42bd afe7 dcbd c304 be3d
00000300: 6d93 b639 4358 3dbd 2bbd b93c b567 113e
00000310: 13cb a5bd 25a4 a6bd 411c 08bd 4b5c 39bc
00000320: 9d83 c1ba 8632 6cbc 975c 97bc 588b 093e
00000330: 2d29 6a3d 7c3e 28bd 87ab 8dbd c51b cb3d
00000340: d67a a7bd 132e 70bd 7f6c 2dbd 1f6a d0bd
00000350: 90df 823c 9a74 99bd 7031 7b3d a603 b6bd
00000360: dcfc d13d 4573 b23d 92c8 82bd 9249 573d
00000370: 1d07 9abd 9fd7 cc3d 7ba6 40bd c32c a9bd
00000380: 456e 26be bc4e 8b3d 240a dfbd 4921 aabc
00000390: 4cbf 613d 716b 003e f720 bfbc 648e 143d
000003a0: 73d5 f6bd 067d d13d 61ff ee3c 41f0 e0bd
000003b0: e2e4 953d 167e cb3d 1184 6bbd 5a04 f13d
000003c0: 8774 7dbd 21b5 893d e910 7c3c ebaf 5c3c
000003d0: 2266 9fbd c7fc e63d 5c9f db3d 5001 0e3d
000003e0: 47dd fe3d e4f4 a13d 8e54 e0bd 7cb8 e13d
000003f0: a495 813c adae 0abe 3178 75bd 2c82 ecbd

cells.1.x2h.bias f4 [256]
-0.014787528 0.067278184 0.08587774 0.057931203 -0.100987956 -0.013085714 0.02620567 -0.09625594
-0.06204943 0.01831521 -0.06404242 0.09994182 0.0008012623 0.042111557 -0.0044637253 0.14452662
-0.09836597 0.048940416 0.011957027 0.05551768 0.062445357 0.10580486 -0.023384793 -0.080235824
0.087057814 -0.019318525 0.07467816 -0.010476239 0.10204309 0.06631418 -0.009687355 -0.08096522
0.12287881 0.0006646703 -0.092047356 0.06446742 0.03508557 0.053818647 -0.09784555 -0.0882131
0.12784183 -0.079359576 0.0024587016 -0.089980334 0.0791181 0.12910526 -0.050756577 2.3366374e-05
-0.06431007 0.033773575 -0.037619527 0.017831685 0.0012279339 0.090937845 -0.12862132 0.047202934
0.0044106077 0.056407604 0.117909774 0.10636885 -0.005647625 0.13101418 -0.086493924 -0.064946234
-0.07457855 -0.014313527 -0.03492085 -0.004603235 -0.14603393 0.11465061 -0.09100015 0.13623174
0.014634656 0.11737254 -0.03475867 -0.060911205 0.122653484 -0.099789985 -0.058636535 0.02970966
-0.06770996 0.06910695 0.09687575 0.098991275 0.016394584 -0.092217565 -0.11436084 -0.021679562
-0.052082494 -0.05579525 -0.012456478 0.12241967 -0.08843773 -0.04247669 -0.020966139 -0.04806329
0.0683568 0.05516894 0.06501095 -0.009146716 -0.064957075 -0.043114495 -0.085302494 0.10567702
0.07619172 0.03674106 0.10097224 0.065418035 -0.04499659 0.096571796 0.12588619 0.1047975
0.08833547 -0.039109744 0.11290898 -0.05227209 -0.03490394 0.07868172 -0.06934993 -0.10682314
0.05028219 -0.08604801 0.121384874 0.09612073 0.08316123 0.105650656 -0.0343899 -0.00417929
-0.058795013 0.05869601 -0.036338877 -0.10101117 -0.04795497 0.08185902 0.0023818358 -0.03857233
0.0037457657 -0.011144047 -0.00027696404 -0.034440447 -0.019933963 -0.059562363 -0.05767414 0.11596874
0.015443897 0.038350455 0.063190736 -0.057789277 0.11665371 0.05253574 -0.10317105 -0.04190133
0.047356214 -0.0061947494 -0.044116654 -0.054028623 -0.057626292 -0.043760408 -0.10146102 0.011639022
0.09793388 -0.046572097 1.8601684e-05 0.115345016 -0.07815703 -0.050687756 0.08702061 0.0994074
-0.13204205 -0.10027979 -0.021251695 -0.087493345 0.101128966 -0.10156797 -0.033362947 -0.06499032
-0.05046961 -0.06850669 0.024262447 0.003088735 -0.07851897 -0.10846309 -0.07160481 -0.06419418
0.07619783 0.10054731 -0.0898478 0.12452073 -0.097625785 0.10124995 0.0027936895 0.053871416
0.050529398 -0.069810405 0.105242595 0.11200416 0.014425079 -0.021051487 -0.04230455 -0.09115682
0.07344942 -0.031073926 0.095743574 -0.0860222 -0.040431056 -0.026321817 -0.08707951 -0.047532298
0.031562492 0.040617056 -0.082274236 -0.097610496 -0.011201218 -0.031205293 0.018149633 0.09724828
-0.0032398712 0.13879015 0.1314697 0.056051556 -0.09773354 -0.06979696 0.00085436174 -0.06210647
0.011936622 -0.02465305 0.11145403 -0.0072406684 0.05933389 0.12140073 -0.07682029 -0.04857777
0.1356243 -0.08670711 0.07796916 -0.11140512 -0.008691786 0.031387664 0.012042216 0.07892589
-0.05673749 -0.009697667 -0.10536209 -0.02430626 -0.056068294 0.10560765 0.08421145 0.089898385
0.057857595 -0.025475033 -0.048051216 0.13529898 0.12285705 -0.07391819 0.14100474 -0.04544136
00000000: 6347 72bc 25c9 893d abe0 af3d 4549 6d3d
00000010: c6d2 cebd 7665 56bc 46ad d63c d621 c5bd
00000020: 8b27 7ebd c709 963c ac28 83bd 4cae cc3d
00000030: cd0b 523a 2b7d 2c3d 7144 92bb c9fe 133e
00000040: 1974 c9bd bf75 483d 68e7 433c 8266 633d
00000050: b4c6 7f3d 38b0 d83d 7791 bfbc ae52 a4bd
00000060: 5e4b b23d e241 9ebc ddf0 983d 88a4 2bbc
00000070: f8fb d03d bbcf 873d b6b7 1ebc 18d1 a5bd
00000080: e3a7 fb3d 453d 2e3a 5383 bcbd 7f07 843d
00000090: e3b5 0f3d f170 5c3d 3f63 c8bd 12a9 b4bd
000000a0: f8e8 023e 4687 a2bd 2b22 213b 9c47 b8bd
000000b0: ac08 a23d 2b34 043e 21e6 4fbd e802 c437
000000c0: ffb4 83bd 2956 0a3d ef16 1abd c113 923c
000000d0: a0f2 a03a 9f3d ba3d 4fb5 03be dd57 413d
000000e0: dc86 903b a90b 673d ae7a f13d e9d7 d93d
000000f0: b60f b9bb 9528 063e ba23 b1bd 8802 85bd
00000100: a4bc 98bd 4983 6abc 2a09 0fbd bcd6 96bb
00000110: eb89 15be f0cd ea3d 495e babd 5580 0b3e
00000120: 32c6 6f3c 0461 f03d 1b5f 0ebd 077e 79bd
00000130: c031 fb3d b15e ccbd dd2c 70bd ac61 f33c
00000140: 85ab 8abd f287 8d3d cb66 c63d f0bb ca3d
00000150: ef4d 863c 90dc bcbd 0436 eabd 5699 b1bc
00000160: 7454 55bd 8f89 64bd 4116 4cbc 2ab7 fa3d
00000170: d71e b5bd 0afc 2dbd 2ec1 abbc 03de 44bd
00000180: a6fe 8b3d d4f8 613d 7624 853d 1cdc 15bc
00000190: 3708 85bd d398 30bd 13b3 aebd 326d d83d
000001a0: 680a 9c3d cb7d 163d 89ca ce3d e4f9 853d
000001b0: 584e 38bd 6fc7 c53d 4fe8 003e 12a0 d63d
000001c0: 3ae9 b43d 8a31 20bd d33c e73d 421b 56bd
000001d0: 6ff7 0ebd e223 a13d 5607 8ebd 17c6 dabd
000001e0: b3f4 4d3d f039 b0bd a298 f83d f2da c43d
000001f0: 6f50 aa3d 5f5f d83d 6cdc 0cbd 6df2 88bb
00000200: 0ad3 70bd 3a6b 703d 13d8 14bd f2de cebd
00000210: 6e6c 44bd b4a5 a73d 9318 1c3b 05fe 1dbd
00000220: 857b 753b 8595 36bc 7c35 91b9 6d11 0dbd
00000230: 8d4c a3bc aaf7 73bd b83b 6cbd 0581 ed3d
00000240: 6608 7d3c 5e15 1d3d 256a 813d 73b4 6cbd
00000250: 24e8 ee3d b72f 573d 584b d3bd bba0 2bbd
00000260: 97f8 413d 53fd cabb aab3 34bd 1e4d 5dbd
00000270: 8c09 6cbd 1d3e 33bd ccca cfbd 99b1 3e3c
00000280: 8f91 c83d 62c2 3ebd d00a 9c37 023a ec3d
00000290: cb10 a0bd f79d 4fbd dd37 b23d 1b96 cb3d
000002a0: 0836 07be 7e5f cdbd 0918 aebc b62f b3bd
000002b0: b41c cf3d de02 d0bd 96a7 08bd a519 85bd
000002c0: 39b9 4ebd 3c4d 8cbd 0ac2 c63c 606c 4a3b
000002d0: 8ece a0bd e621 debd 8ba5 92bd 3d78 83bd
000002e0: 9c0d 9c3d c0eb cd3d 2002 b8bd b904 ff3d
000002f0: 07f0 c7bd 225c cf3d 5516 373b 46a8 5c3d
00000300: eaf7 4e3d c2f8 8ebd 6e89 d73d 7062 e53d
00000310: 2b57 6c3c 2b74 acbc 8947 2dbd 6db0 babd
00000320: a66c 963d bf8e febc 3515 c43d 682c b0bd
00000330: 099b 25bd daa0 d7bc be56 b2bd 3ab1 42bd
00000340: ac47 013d 125e 263d 657f a8bd 03e8 c7bd
00000350: 5085 37bc 3ea2 ffbc 8aae 943c 1b2a c73d
00000360: 0554 54bb 011f 0e3e fe9f 063e 5196 653d
00000370: 8628 c8bd b5f1 8ebd 3ff7 5f3a 5b63 7ebd
00000380: d291 433c 31f5 c9bc 0342 e43d 2143 edbb
00000390: 1808 733d f2a0 f83d f553 9dbd 7cf9 46bd
000003a0: 19e1 0a3e 7f93 b1bd 4cae 9f3d 5e28 e4bd
000003b0: fe67 0ebc 5a90 003d b74c 453c e6a3 a13d
000003c0: 9265 68bd f7e2 1ebc 14c8 d7bd ec1d c7bc
000003d0: dea7 65bd d348 d83d 0d77 ac3d a51c b83d
000003e0: 16fc 6c3d 04b1 d0bc 5ad1 44bd d18b 0a3e
000003f0: 7a9c fb3d 6c62 97bd 8c63 103e b820 3abd

cells.1.h2h.weight f4 [256, 64]
0.018119887 -0.06764258 0.10188249 -0.017433412 -0.07179509 -0.056932658 0.042746518 0.13201956
0.0077814762 0.10002849 0.06377589 -0.03899805 -0.038524576 0.08525142 -0.02578359 -0.08282724
0.05656139 0.045585148 -0.008926405 -0.029634707 0.046174802 -0.05286526 -0.033639833 0.061934073
0.03467487 -0.056931753 0.026719261 -0.026116787 0.044211563 -0.10728324 -0.06833442 -0.0046983315
0.033771846 0.016535496 -0.021988772 -0.04067892 -0.15882319 -0.034227762 0.012528246 0.093667485
-0.06469372 -0.09277164 -0.068042055 -0.12821391 0.12923695 -0.08430027 -0.095002085 0.09762112
-0.15028597 -0.02607131 -0.0118898805 -0.13904814 -0.09795086 0.08898338 0.102889925 0.020657817
-0.04677467 -0.10204829 -0.0009984329 0.06451055 -0.08741147 0.08432545 0.0822883 0.052928228
-0.1088621 -0.09754226 -0.08827154 -0.029173622 -0.103401385 0.007871291 -0.027497273 0.022744017
0.043810543 0.05352391 -0.09068349 -0.07103401 0.11271986 -0.038754076 0.02046997 0.03001923
-0.05851568 0.08521312 0.12190068 -0.00865834 0.05962208 0.08074865 -0.086443886 0.015077249
0.108643256 -0.09351968 -0.08208244 0.14773406 -0.0435382 0.0047747614 -0.10508656 -0.035233658
0.019270008 -0.005864238 0.051177766 -0.09371485 -0.028534885 -0.10604044 -0.06502416 -0.013082173
0.057808727 0.068056084 -0.050919294 0.06636851 -0.09690893 0.044537302 0.039983455 0.05964544
-0.062859 0.048010148 -0.07709048 0.03482041 -0.105579585 0.07508539 0.1399039 0.062089246
-0.021200312 0.09287322 -0.05906831 -0.08554881 0.03012548 0.019875418 0.090522066 -0.0057173287
0.070797026 0.12064204 0.062024456 0.008707875 -0.063338056 -0.00767004 -0.028606832 -0.03570868
0.06961565 0.041075647 -0.038270205 0.019600846 -0.03656148 0.051264968 0.009176213 -0.041960724
0.03230695 -0.015733676 0.11014278 0.04357668 -0.082174994 0.057243824 -0.05728479 0.021522528
0.11385101 0.0033342126 -0.10414999 0.11716563 -0.097833514 0.042778004 0.08658715 0.10907449
0.067192696 -0.0117010195 0.082373135 0.12143632 0.038541846 0.030205347 0.055352844 0.12108502
-0.108418815 0.037883986 -0.033177838 0.028018596 0.1399708 0.030208772 0.058283716 -0.00022704352
-0.11000762 0.07476343 0.1153915 -0.081985116 -0.0054761525 -0.049896352 -0.12583375 -0.1307597
-0.06750477 0.07318494 0.12831897 -0.026051596 0.063017055 -0.05669199 0.06767899 0.019861616
-0.029436257 -0.06220083 -0.090094544 0.029796809 -0.12074696 0.053991023 -0.03740751 -0.10189246
-0.007266179 -0.044781066 -0.11898119 -0.13434373 -0.07274271 0.00061855343 0.107851185 0.10450685
-0.113091655 0.074321985 0.11814917 -0.10491754 -0.10468745 0.11316334 -0.09921465 -0.11946361
-0.11236906 -0.12024921 -0.056182276 -0.016146004 0.10158376 -0.06522484 -0.05417351 0.031691764
0.12163834 -0.060702443 -0.0661435 -0.1060965 0.103915244 0.13103959 0.09662598 0.006320724
-0.08181981 -0.093540125 -0.09285933 -0.096691355 -0.017372172 0.010676249 0.13067806 -0.023937637
0.06402629 -0.10548932 -0.11017456 -0.04650093 0.09228605 -0.02259122 0.00032966794 0.1082828
-0.054230914 0.071242124 0.034383092 0.01059351 0.03153565 -0.004075102 -0.041842602 -0.07334957
00000000: 2870 943c 3188 8abd c4a7 d03d 84d0 8ebc
00000010: 4e09 93bd 3832 69bd f916 2f3d 2330 073e
00000020: c1fb fe3b bddb cc3d ef9c 823d 6bbc 1fbd
00000030: f2cb 1dbd 4c98 ae3d 1b38 d3bc 54a1 a9bd
00000040: ebac 673d 7eb7 3a3d 0e40 12bc 7cc4 f2bc
00000050: ca21 3d3d 3e89 58bd ecc9 09bd 95ae 7d3d
00000060: 3d07 0e3d 4531 69bd 5ae2 da3c dff2 d5bc
00000070: 2f17 353d 51b7 dbbd ebf2 8bbd 76f4 99bb
00000080: 5954 0a3d 7375 873c cc21 b4bc f09e 26bd
00000090: 8ca2 22be 6932 0cbd 4643 4d3c bdd4 bf3d
000000a0: 247e 84bd 0fff bdbd a259 8bbd 824a 03be
000000b0: b156 043e 9fa5 acbd 7490 c2bd 95ed c73d
000000c0: 91e4 19be 8093 d5bc c6cd 42bc a362 0ebe
000000d0: 769a c8bd eb3c b63d f4b7 d23d 953a a93c
000000e0: cc96 3fbd b2fe d0bd d9dd 82ba 1b1e 843d
000000f0: c904 b3bd d2b2 ac3d c586 a83d 45cb 583d
00000100: 18f3 debd 3dc4 c7bd b6c7 b4bd 85fd eebc
00000110: 1bc4 d3bd 96f6 003c f641 e1bc a951 ba3c
00000120: af72 333d e33b 5b3d 44b8 b9bd 477a 91bd
00000130: acd9 e63d 98bc 1ebd a3b0 a73c e3ea f53c
00000140: 23ae 6fbd 3784 ae3d 10a7 f93d b6db 0dbc
00000150: 4836 743d 8c5f a53d 7e09 b1bd 9106 773c
00000160: 5b80 de3d 3f87 bfbd d71a a8bd 9947 173e
00000170: 1d55 32bd 9a75 9c3b 9f37 d7bd 2b51 10bd
00000180: 23dc 9d3c cb28 c0bb c79f 513d 92ed bfbd
00000190: fec1 e9bc bb2b d9bd 632b 85bd 9c56 56bc
000001a0: d8c8 6c3d fd60 8b3d c090 50bd 37ec 873d
000001b0: 3078 c6bd bf6c 363d b1c5 233d c74e 743d
000001c0: 38bc 80bd 4aa6 443d 9de1 9dbd d99f 0e3d
000001d0: 1c3a d8bd 5ec6 993d f842 0f3e 4b51 7e3d
000001e0: 47ac adbc 5134 be3d 9df1 71bd 3734 afbd
000001f0: b6c9 f63c c6d1 a23c a263 b93d 6e58 bbbb
00000200: 08fe 903d 2d13 f73d 5b0d 7e3d 7aab 0e3c
00000210: 62b7 81bd f554 fbbb e058 eabc 4443 12bd
00000220: a692 8e3d f03e 283d 38c1 1cbd f491 a03c
00000230: 7ec1 15bd 37fb 513d d457 163c 02df 2bbd
00000240: 4b54 043d e9e3 80bc 8a92 e13d 767d 323d
00000250: 5d4b a8bd 8078 6a3d 75a3 6abd 0350 b03c
00000260: b82a e93d ce82 5a3b 974c d5bd 89f4 ef3d
00000270: f05c c8bd fd37 2f3d 9b54 b13d 7262 df3d
00000280: 539c 893d a2b5 3fbc 3fb3 a83d 9bb3 f83d
00000290: 0ede 1d3d 3471 f73c aab9 623d 6cfb f73d
000002a0: af0a debd 3d2c 1b3d 7ce5 07bd 4187 e53c
000002b0: 8154 0f3e 6378 f73c e8ba 6e3d 8812 6eb9
000002c0: ad4b e1bd 921d 993d 6152 ec3d d0e7 a7bd
000002d0: 4c71 b3bb 1e60 4cbd 90da 00be dfe5 05be
000002e0: f13f 8abd fce1 953d 0c66 033e 286a d5bc
000002f0: 160f 813d dc35 68bd 489b 8a3d d4b4 a23c
00000300: 4e24 f1bc 4cc6 7ebd 7d83 b8bd 7018 f43c
00000310: 2f4a f7bd b125 5d3d 9e38 19bd feac d0bd
00000320: 2119 eebb 5a6c 37bd 69ac f3bd 6791 09be
00000330: 21fa 94bd 6b26 223a 15e1 dc3d b007 d63d
00000340: 999c e7bd 2036 983d 31f8 f13d 02df d6bd
00000350: 6066 d6bd 2ec2 e73d 0d31 cbbd 56a9 f4bd
00000360: c021 e6bd 3845 f6bd 631f 66bd a044 84bc
00000370: 250b d03d 9a94 85bd 0be5 5dbd 39cf 013d
00000380: 861d f93d 20a3 78bd 3e76 87bd 1f49 d9bd
00000390: 84d1 d43d 3e2f 063e d8e3 c53d 131e cf3b
000003a0: 2591 a7bd f791 bfbd 082d bebd 1e06 c6bd
000003b0: 1650 8ebc 6feb 2e3c 78d0 053e dd18 c4bc
000003c0: 3720 833d c90a d8bd 33a3 e1bd c277 3ebd
000003d0: 7800 bd3d 3911 b9bc 48d7 ac39 5fc3 dd3d
000003e0: 3c21 5ebd 64e7 913d 49d5 0c3d 6790 2d3c
000003f0: 872b 013d 6f88 85bb 2663 2bbd 4d38 96bd
