model_group/models_group_weather/LSTM_model_STATEN ISLAND_TODT HILL ROAD.pth (torch, 356576 bytes, 17 tensors)

input_projection.weight f4 [7, 7]
0	0x3d981bb1	0.07427157
1	0xbebec300	-0.37258148
2	0xbdbeb2dd	-0.09311459
3	0x3df64a3a	0.12025876
4	0xbe8e20d7	-0.2775943
5	0xbe771eb9	-0.24132814
6	0x3e2c61e9	0.16834225
7	0x3e947768	0.2899735
8	0xbdd1cc93	-0.102440976
9	0x3e83cf8b	0.2574428
10	0x3e74780d	0.2387392
11	0x3da3123c	0.07962462
12	0x3e07771d	0.13229032
13	0xbe4e8428	-0.20167601
14	0x3d74ce5c	0.059767112
15	0xbebf24e9	-0.37332848
16	0x3de72015	0.11285416
17	0x3e2c8b08	0.16849911
18	0x3d787e17	0.060667124
19	0xbdad75ca	-0.08469732
20	0x3eb0180f	0.34393355
21	0x3e8e902d	0.27844372
22	0x3e621d04	0.22081381
23	0xbe9d5af8	-0.30733466
24	0x3d59069a	0.05298481
25	0x3e288b10	0.16459298
26	0x3e0900bc	0.13379186
27	0x3e7eb0ea	0.24872175
28	0x3e8535bf	0.26017568
29	0x3e2094fd	0.15681835
30	0x3eba85c2	0.36430174
31	0x3caaa51a	0.02083068
32	0x3e766135	0.24060519
33	0xbd74304c	-0.059616372
34	0xbe052ffe	-0.13006589
35	0x3ead9e96	0.33910054
36	0x3dc84962	0.09779622
37	0xbebed8ae	-0.37274688
38	0xbdcb3610	-0.09922421
39	0xbe80ed1d	-0.25180903
40	0x3e7ac9f9	0.24491109
41	0x3e9496e9	0.29021385
42	0xbecad5bf	-0.396162
43	0x3e8cec04	0.27523816
44	0xbb831562	-0.0040003518
45	0x3d4a8c7d	0.049450386
46	0xbea646d4	-0.32475913
47	0xbe40daf7	-0.18833528
48	0xbe335979	-0.175146

input_projection.bias f4 [7]
0	0x3cc2c606	0.023776066
1	0x3c6c93cb	0.014439533
2	0xbe14a7b4	-0.14517099
3	0x3e46d171	0.19415833
4	0x3ea654a3	0.32486448
5	0x3e9f3f05	0.31102768
6	0xbe3bb518	-0.183308

cells.0.x2h.weight f4 [256, 7]
0	0xbe837f8a	-0.25683242
1	0x3d551eee	0.05203145
2	0xbe1497b8	-0.14511001
3	0x3cd8af7f	0.02645087
4	0x3e49008e	0.19629118
5	0xbd659fca	-0.05606059
6	0xbe378ae1	-0.17924072
7	0xbda6a71e	-0.08137344
8	0xbc042b2c	-0.008066934
9	0xbea6326b	-0.3246034
10	0x3e7f4760	0.24929571
11	0xbe22daf2	-0.15903834
12	0xbe8d244c	-0.27566755
13	0x3eae128f	0.33998534
14	0xbe873131	-0.26404718
15	0xbe27b347	-0.16376983
16	0xbe2089bd	-0.15677543
17	0xbdd7edc1	-0.10543395
18	0xbeb9b00c	-0.36267126
19	0x3dd7f93a	0.10545583
20	0x3dc24576	0.09485905
21	0x3eaab48b	0.33340868
22	0x3da977cd	0.08274803
23	0xbe887953	-0.26655063
24	0x3e07a510	0.1324656
25	0x3daae13a	0.0834374
26	0x3d84aef3	0.064786814
27	0x3e2e858a	0.17043129
28	0x3ab47951	0.0013769065
29	0xbdd2f627	-0.10300856
30	0x3d5292e1	0.051409606
31	0xbe860b66	-0.2618057
32	0x3cead29a	0.028664876
33	0xbed68604	-0.4189912
34	0x3cf1e300	0.029527187
35	0xbe7b9103	-0.24567036
36	0x3e672d21	0.22575809
37	0x3b36dce6	0.0027902662
38	0x3ecf1f02	0.40453345
39	0x3e8238e6	0.25434035
40	0xbd596978	-0.0530791
41	0xbea92ada	-0.33040506
42	0xbe8f8c6e	-0.28036827
43	0x3d9696ee	0.07353006
44	0xbcea93a3	-0.028634852
45	0xbcf83e51	-0.030303152
46	0xbe92d254	-0.28676093
47	0x3e69ccd6	0.22832045
48	0x3d4050d0	0.04695207
49	0x3ebb7ca4	0.3661853
50	0x3e4c96f7	0.19979464
51	0xbec59431	-0.38589624
52	0x3e373d9e	0.17894599
53	0xbd594fed	-0.05305474
54	0x3dbf944d	0.09354458
55	0xbd70ac5d	-0.05875813
56	0xbee74745	-0.45171562
57	0x3e86d8e7	0.26337358
58	0xbeb7876b	-0.35845503
59	0x3e8cdc84	0.2751199
60	0x3e6590ff	0.22418593
61	0xbe6eb80a	-0.23312393
62	0x3c7d075c	0.015443649
63	0xbdac8444	-0.08423665
64	0x3e0ca882	0.13736156
65	0x3a56d2d7	0.000819487
66	0x3c40491e	0.0117361825
67	0x3e139c5d	0.14415117
68	0xbedf233d	-0.43581572
69	0x3e85dcff	0.2614517
70	0xbed90fec	-0.4239496
71	0xbe74b042	-0.23895362
72	0x3e8ee411	0.27908376
73	0x3e34cc2b	0.17656009
74	0x3eb44f1c	0.35216606
75	0xbc80b041	-0.015709044
76	0xbe034838	-0.12820518
77	0x3deff67c	0.11716935
78	0x3e89c05c	0.2690457
79	0xbee7cc13	-0.45272884
80	0xbdd1409a	-0.102174
81	0xbe0ff912	-0.14059857
82	0x3eda8e87	0.42686865
83	0x3e811fae	0.25219482
84	0x3e92881a	0.28619462
85	0x3eb23bae	0.34811157
86	0xbedcd9c3	-0.4313489
87	0xbe1f0ab2	-0.15531424
88	0x3e5b2241	0.21399786
89	0xbe3ddfe1	-0.18542434
90	0xbe570c80	-0.21000862
91	0xbe9509e9	-0.29109123
92	0x3cc2687a	0.023731459
93	0xbd35dccc	-0.04440002
94	0x3e67d44f	0.22639583
95	0xbea9629f	-0.33083054
96	0xbe10f248	-0.14154923
97	0xbd034384	-0.03204681
98	0x3c717be5	0.014739011
99	0xbe411f5d	-0.1885962
100	0x3e5bc578	0.21462047
101	0x3ec9f141	0.39441875
102	0x3ecea242	0.40358168
103	0x3e0dd868	0.13852084
104	0x3e02b1d9	0.12763156
105	0x3ec2d417	0.38052437
106	0xbe8670be	-0.2625789
107	0x3e50923d	0.20368285
108	0xbec2019a	-0.37891847
109	0xbe96b878	-0.29437613
110	0x3ea40772	0.3203693
111	0x3ec06d64	0.37583458
112	0xbe2147a6	-0.15749988
113	0x3e215994	0.15756828
114	0xbca3304b	-0.019920489
115	0x3e061cb1	0.13096882
116	0xbdc28076	-0.09497158
117	0x3c99c197	0.018769069
118	0xbe16a91c	-0.14712948
119	0x3eaac258	0.33351398
120	0xbe0bc2b1	-0.13648488
121	0x3e23b759	0.1598791
122	0xbe6abf18	-0.22924459
123	0x3d7a42f9	0.061099026
124	0x3e603032	0.21893385
125	0xbe5fe3a8	-0.21864188
126	0xbe46a6cb	-0.19399564
127	0xbe808dd7	-0.25108215
128	0x3d994075	0.07482997
129	0xbec10882	-0.37701803
130	0xbe86d0e4	-0.26331246
131	0xbeb406a6	-0.35161322
132	0x3d194328	0.03741756
133	0xbdfc6973	-0.123248
134	0x3ea646ae	0.324758
135	0x3ca1849b	0.019716552
136	0xbe46be8f	-0.1940863
137	0x3edeff81	0.4355431
138	0xbe655b5d	-0.22398134
139	0x3e4d6c9b	0.20060961
140	0xbea2716e	-0.31727165
141	0x3da7f1e5	0.082004346
142	0xbed0ce9e	-0.40782636
143	0x3e8c1852	0.27362305
144	0xbdb87226	-0.09006147
145	0xbedb780a	-0.4286502
146	0x3e730502	0.23732379
147	0x3e55397f	0.20822714
148	0xbbc10f75	-0.005891735
149	0x3dd1d536	0.10245745
150	0x3dd91256	0.105992004
151	0x3e7a9902	0.2447243
152	0xbd7b30b8	-0.06132576
153	0xbe9bc5dc	-0.30424392
154	0x3c401936	0.011724761
155	0xbe5991cb	-0.21247022
156	0xbe8304a8	-0.2558949
157	0xbd026d02	-0.03184224
158	0xbe4e77c7	-0.20162879
159	0xbe084293	-0.13306646
160	0x3e25b7ca	0.16183391
161	0x3e796a0e	0.24356863
162	0x3e30e758	0.1727575
163	0x3d8f4056	0.06994693
164	0xbd71ba41	-0.059015516
165	0xbe45eddd	-0.19329019
166	0x3e2ce79e	0.1688523
167	0xb9d76f64	-0.00041090988
168	0xbdf7f7af	-0.12107789
169	0x3e8a6e1a	0.27037126
170	0xbe95bbb9	-0.29244784
171	0xbe79acf7	-0.24382387
172	0xbebded2a	-0.37095004
173	0x3d82da78	0.06389326
174	0xbdb6f0ee	-0.089326724
175	0xbeaed5b7	-0.34147426
176	0xbe7fd19f	-0.24982308
177	0xbe8088b0	-0.25104284
178	0x3b74ebcd	0.0037371994
179	0xbebb7031	-0.36609033
180	0x3dfe0760	0.124037504
181	0xbdbf9b7b	-0.093558274
182	0x3efa99f2	0.48945576
183	0xbe8666c7	-0.26250288
184	0xbcacd3bc	-0.021097057
185	0xbd1b634c	-0.037936494
186	0x3e249d9b	0.16075747
187	0xbe699374	-0.22810155
188	0x3dd9d0a2	0.10635497
189	0xbdb45584	-0.08805373
190	0xbe632014	-0.22180206
191	0xbeae5a5a	-0.34053308
192	0x3e38b19e	0.18036506
193	0x3e311eb3	0.17296867
194	0xbd7cb078	-0.06169173
195	0xbc8727de	-0.016498502
196	0x3e0ebead	0.13939925
197	0x3e82e73a	0.25567037
198	0x3e276190	0.16345811
199	0xbda6a815	-0.08137528
200	0xbe5f1754	-0.21786243
201	0xbe28870f	-0.16457771
202	0x3e3f2056	0.18664679
203	0x3e915ebb	0.28392586
204	0xbcb9fae5	-0.022702644
205	0x3e11fa80	0.14255714
206	0xbe193975	-0.14963324
207	0x3e484691	0.19558169
208	0xbf06d3cd	-0.5266693
209	0x3ec8e739	0.3923891
210	0xbe0ce8f1	-0.13760735
211	0xbe629e02	-0.22130588
212	0x3e8b6232	0.27223355
213	0x3e640a90	0.22269654
214	0xbe06e2fb	-0.13172524
215	0x3e06e0ac	0.13171643
216	0x3ebe5cd2	0.3718019
217	0x3d86523c	0.06558654
218	0x3e042d12	0.12907818
219	0x3e319d20	0.17345095
220	0x3e3de415	0.18544038
221	0x3e8574b0	0.26065588
222	0x3e8a8322	0.2705317
223	0xbe794f18	-0.24346578
224	0x3ea50271	0.32228425
225	0xbdf10ab7	-0.11769622
226	0x3cd63f4a	0.026153225
227	0x3e90062d	0.28129712
228	0xbe41794d	-0.18893929
229	0xbde5e83b	-0.11225935
230	0xbe794464	-0.24342495
231	0x3db0f2c7	0.08640056
232	0xbeb51887	-0.35370275
233	0xbe711d5b	-0.23546354
234	0xbe4016df	-0.18758725
235	0x3e16636e	0.14686367
236	0x3b20d92b	0.0024543505
237	0xbdaf9b7c	-0.08574578
238	0x3e093dbc	0.13402456
239	0xbdafd2db	-0.08585139
240	0xbe7312e5	-0.23737676
241	0xbe5dbb1c	-0.21653408
242	0x3e941e70	0.28929472
243	0x3b503069	0.0031767136
244	0x3df94a28	0.12172347
245	0xbe965d48	-0.29368043
246	0xbdab9165	-0.08377341
247	0xbd76caf2	-0.060252137
248	0xbe362c36	-0.17790303
249	0xbee70e29	-0.4512799
250	0x3ca05af4	0.01957462
251	0x3eaf50cc	0.3424133
252	0x3cd48deb	0.025946578
253	0x3ebc39ce	0.3676285
254	0xbdcf1f38	-0.101133764
255	0x3cc01cce	0.023451235

cells.0.x2h.bias f4 [256]
0	0x3eb94782	0.3618737
1	0x3d753941	0.059869055
2	0x3d295242	0.041338213
3	0x3e7fa09b	0.2496361
4	0x3e96cebe	0.29454607
5	0x3e9e2bef	0.30892894
6	0x3db39934	0.087694556
7	0x3e8335f7	0.2562711
8	0x3e794fc3	0.24346833
9	0xbea6dc2f	-0.32589862
10	0xbc888d95	-0.016669074
11	0xbd0268fc	-0.031838402
12	0xbddbbde6	-0.1072958
13	0x3e19e271	0.15027787
14	0xbd1f75e1	-0.038930777
15	0x3eaed781	0.3414879
16	0x3e870735	0.26372686
17	0xbb894ac6	-0.004189822
18	0x3e6af06a	0.22943273
19	0x3d7e224d	0.06204443
20	0x3e5668c7	0.20938407
21	0xbd196d87	-0.03745797
22	0x3e9c961d	0.30583277
23	0x3dfad960	0.12248492
24	0x3e65d612	0.22444943
25	0xbe589e42	-0.2115412
26	0x3b445782	0.0029959385
27	0xbdc5fde8	-0.096675694
28	0xbd1494ac	-0.036274597
29	0xbe2cdfd5	-0.1688226
30	0xbe9054ff	-0.28189847
31	0xbcde7e62	-0.027159873
32	0xbe8d179b	-0.27557072
33	0x3e94a721	0.2903376
34	0x3ea16e0a	0.31529266
35	0xbe2d899e	-0.16947028
36	0xbe3bc55f	-0.1833701
37	0xbe7d3a46	-0.24729261
38	0x3d201077	0.039078202
39	0xbe5e1f11	-0.21691538
40	0xbe0372ee	-0.12836811
41	0x3e95205a	0.29126245
42	0x3ebf2eed	0.3734049
43	0x3e85bb00	0.26119232
44	0xbd25477e	-0.040351383
45	0x3ed0b74c	0.40764844
46	0xbe978da0	-0.2960024
47	0x3e3d6685	0.1849614
48	0x3da0d808	0.07853705
49	0x3dc4f25d	0.096165396
50	0x3e7882e7	0.24268685
51	0x3edac46f	0.42727992
52	0xbe2cac92	-0.16862705
53	0x3ec1c307	0.37844107
54	0xbe0afd98	-0.13573301
55	0x3da45ef2	0.08025922
56	0x3e0872ea	0.13325086
57	0xbd278b75	-0.04090448
58	0x3eb72689	0.35771587
59	0xbe4cf056	-0.20013556
60	0x3ed0828e	0.40724605
61	0xbe48e6d0	-0.19619298
62	0xbde2d512	-0.11075796
63	0x3ecbba12	0.39790398
64	0xbe479869	-0.19491734
65	0x3e27f547	0.1640216
66	0xbeab0870	-0.33404875
67	0x3eaa0cfd	0.33213034
68	0xbd6c1542	-0.05763746
69	0xbe29269e	-0.16518638
70	0x3dfa2234	0.12213555
71	0x3dd7ac8f	0.1053096
72	0xbdb02c5c	-0.08602211
73	0xbe64c741	-0.22341634
74	0x3caa9271	0.020821782
75	0x3ee3f42e	0.44522232
76	0x3e4d7849	0.20065416
77	0x3bd1f112	0.0064069116
78	0xbdf584d5	-0.11988226
79	0xbe50711b	-0.20355646
80	0x3c0fc087	0.008773929
81	0xbddf0122	-0.10888888
82	0xbe1186e9	-0.1421162
83	0x3e09cbb2	0.1345661
84	0xbd761a2e	-0.06008356
85	0xbeaf6b2d	-0.34261456
86	0x3ea215c9	0.31657246
87	0x3e31b21b	0.17353098
88	0xbd9e13d5	-0.077186264
89	0x3ecb20fd	0.39673606
90	0x3dd49aa0	0.10381055
91	0x3dac60a3	0.084168695
92	0x3eb44fae	0.3521704
93	0x3eb2b215	0.3490149
94	0x3ca61d6f	0.020277707
95	0x3e1ad5ce	0.15120623
96	0x3d86d779	0.06584067
97	0xbe9c5e02	-0.30540472
98	0x3ed621d4	0.41822684
99	0x3ebeda6b	0.37276015
100	0x3e96d986	0.29462832
101	0x3dbca812	0.09211744
102	0x3ea04f0e	0.31310314
103	0x3e808723	0.251031
104	0xbeb3ce92	-0.35118538
105	0xbe97e986	-0.29670352
106	0xbe87e8ba	-0.26544744
107	0x3d1fa76c	0.038978025
108	0xbd30b9ac	-0.04314582
109	0x3d83975b	0.06425353
110	0x3e0628e1	0.13101532
111	0x3d578e9e	0.052626245
112	0xbc9ec932	-0.019383047
113	0xbe834491	-0.2563825
114	0xbcf0790d	-0.029354597
115	0xbe20c98c	-0.15701884
116	0x3e86faf8	0.2636335
117	0xbe868c60	-0.26278973
118	0x3e936ec2	0.2879544
119	0xbe84c97a	-0.25934964
120	0xbeb01263	-0.34389028
121	0x3eb92f3b	0.36168846
122	0xbdca9636	-0.09891932
123	0xbe8ea4ee	-0.27860206
124	0x3db6a9f2	0.08919133
125	0xbe434c90	-0.19072175
126	0xbd0ce61e	-0.034399144
127	0xbe93b2d0	-0.2884736
128	0xbd6f7c8b	-0.058468383
129	0x3d987724	0.07444599
130	0x3d5741b7	0.052552905
131	0x3ea3b638	0.3197496
132	0xbe930cb9	-0.28720644
133	0x3e0dd11e	0.13849303
134	0xbe063f8b	-0.13110177
135	0xbe4b746d	-0.19868632
136	0xbe6ecd03	-0.23320393
137	0x3e261b90	0.16221452
138	0xbdf1e50c	-0.11811265
139	0xbe607185	-0.21918304
140	0xbc71ba97	-0.014753959
141	0x3def5c94	0.1168758
142	0xbd24b6c8	-0.040213376
143	0x3e882563	0.26591024
144	0xbe99fcd8	-0.30075717
145	0x3d6e8885	0.058235664
146	0x3d2ac44b	0.041691106
147	0xbe9288c4	-0.2861997
148	0xbe2e1091	-0.16998507
149	0xbeb38cfe	-0.35068506
150	0x3eb10711	0.34575704
151	0xbd93b29b	-0.07211801
152	0x3e6aefae	0.22942993
153	0xbc923264	-0.017846294
154	0x3ae22300	0.0017252862
155	0x3e015ab6	0.1263226
156	0x3e7ed937	0.24887548
157	0xbdc9cdcb	-0.09853705
158	0xbc5ed787	-0.01360119
159	0x3eb7d7b5	0.3590676
160	0xbeaae86b	-0.33380446
161	0x3e9592a8	0.29213452
162	0xbd926564	-0.07148245
163	0xbdad56bf	-0.08463811
164	0x3d01d81b	0.031700235
165	0x3e76e57f	0.24110983
166	0x3ec82065	0.39087215
167	0x3e9ad910	0.3024373
168	0xbe1c8159	-0.15283717
169	0xbe75c0f9	-0.23999394
170	0xbe10f8b8	-0.14157379
171	0x3e291f1f	0.16515778
172	0x3e22c9f5	0.15897353
173	0xbdd115de	-0.10209249
174	0x3e20d202	0.15705112
175	0xbe5e4398	-0.21705472
176	0x3eba65d7	0.36405823
177	0xbea662be	-0.3249721
178	0xbe0e9014	-0.13922149
179	0xbe5c0a20	-0.21488237
180	0xbe3bb7c8	-0.18331826
181	0x3d8883a8	0.066657364
182	0xbe63a456	-0.22230658
183	0x3e125c6b	0.14293067
184	0x3db87c8b	0.0900813
185	0x3b21fab6	0.0024716086
186	0x3ea2130e	0.31655163
187	0x3dedad1f	0.11605286
188	0xbe06fca6	-0.13182315
189	0xbdacaf11	-0.08431829
190	0x3ead1720	0.33806705
191	0x3b71f7f3	0.003692147
192	0x3d35f47e	0.04442262
193	0xbe876945	-0.26447502
194	0x3eb3d407	0.35122702
195	0x3dcbf2de	0.099584326
196	0x3eb3b2fe	0.35097498
197	0x3eb66bd0	0.3562913
198	0xbdcee658	-0.10102528
199	0x3eb36e3f	0.3504505
200	0x3e027489	0.12739767
201	0xbd88e7d0	-0.0668484
202	0x3e33c72f	0.17556451
203	0x3e7b709d	0.24554677
204	0xbd9eaa37	-0.0774731
205	0x3e36592e	0.17807457
206	0x3ec68277	0.38771412
207	0xbe30530b	-0.17219178
208	0x3b89e71b	0.004208458
209	0x3dfe4090	0.12414658
210	0xbe3cbf5a	-0.1843237
211	0xbda02934	-0.07820359
212	0x3eda7e28	0.42674375
213	0x3e6d8ce8	0.23198283
214	0x3d3ef1dd	0.046617378
215	0xbe92dabf	-0.28682515
216	0xbe5c8130	-0.21533656
217	0xbd8b421c	-0.06799719
218	0x3ca92c9b	0.020651152
219	0xbe2db38b	-0.16963021
220	0x3e0c92cd	0.13727875
221	0xbdbaa2e6	-0.09113102
222	0x3e03ebf8	0.12882984
223	0x3d81543d	0.06314895
224	0x3e0d8c34	0.13823014
225	0xbddd0ef7	-0.1079387
226	0x3e423031	0.18963696
227	0x3ec34fcf	0.38146827
228	0x3e8b163c	0.271654
229	0xbea38b91	-0.31942418
230	0x3e95d01b	0.29260334
231	0x3e62b5ba	0.22139636
232	0xbe8602a8	-0.26173902
233	0x3e89ae26	0.26890677
234	0xbdae1a70	-0.08501136
235	0xbdc9ba87	-0.098500304
236	0x3d2b91e6	0.041887186
237	0xbe3e4399	-0.18580474
238	0x3e9c3a6c	0.30513322
239	0xbd7ed327	-0.06221309
240	0xbe915324	-0.28383744
241	0x3e7a046b	0.24415748
242	0x3ed38d93	0.4131895
243	0x3ea8a53a	0.32938558
244	0x3e4e5193	0.20148306
245	0xbd22b67b	-0.03972481
246	0x3d359b35	0.04433747
247	0xbd3c58a6	-0.04598298
248	0xbea0c8e4	-0.31403267
249	0xbe4cc243	-0.1999598
250	0xbdbd499e	-0.09242557
251	0xbe58bf5f	-0.21166752
252	0xbe26f383	-0.1630383
253	0x3e1e3295	0.15448983
254	0x3ed0096e	0.40632194
255	0xbe912328	-0.28347135

cells.0.h2h.weight f4 [256, 64]
0	0xbd9be437	-0.07611888
1	0x3d0e32d2	0.034716435
2	0x3e23f8fc	0.16012949
3	0x3c8406ed	0.016116584
4	0x3d32042c	0.04346101
5	0xbe07fe74	-0.1328066
6	0xbd42510d	-0.047440577
7	0x3d2b0695	0.041754324
8	0x3e02874b	0.12746923
9	0x3dabb2e6	0.083837315
10	0x3e0d3a4b	0.13791768
11	0xbd79dbd0	-0.061000645
12	0x3e4a6b90	0.19767594
13	0x3d8a385a	0.067490295
14	0xbe10b259	-0.14130534
15	0x3d85ac45	0.065269984
16	0xbc2de214	-0.010612983
17	0x3baa1de2	0.0051915506
18	0xbdcb8d0a	-0.099390104
19	0xbe297ab7	-0.16550718
20	0xbcdf7b52	-0.027280483
21	0x3d1ca495	0.038242895
22	0x3a852406	0.001015783
23	0x3aa4ffe8	0.0012588473
24	0x3d018463	0.031620394
25	0x3bbf30c4	0.0058346707
26	0xbd997a90	-0.0749408
27	0x3d589e74	0.052885488
28	0xbd504255	-0.05084451
29	0xbdd5546c	-0.10416493
30	0xbcf2d621	-0.02964312
31	0x3d855bcc	0.065116495
32	0xbddddad5	-0.108327545
33	0x3dcc66de	0.09980558
34	0x3d94757e	0.07248972
35	0xbd62b082	-0.055344112
36	0x3dcc47b2	0.09974612
37	0x3d511a37	0.05105039
38	0x3bca08f1	0.0061656167
39	0xbbfe4ca2	-0.0077606
40	0x3e0d5350	0.13801312
41	0x3d113d94	0.035459116
42	0xbe13c885	-0.14431961
43	0xbe18ffba	-0.14941302
44	0x3cb92c54	0.022604145
45	0x3e15ab62	0.14616159
46	0x3d1dd8d4	0.03853686
47	0xb9e5e1d5	-0.00043846542
48	0x3c0453b6	0.008076599
49	0x3d913b83	0.07091429
50	0x3e46b599	0.19405212
51	0x3e26d322	0.16291478
52	0xbd7877ad	-0.060661007
53	0xbd86a811	-0.06575025
54	0xbd0e3460	-0.034717917
55	0x3a6a512c	0.0008938487
56	0x3c2ff017	0.010738394
57	0x3e12b3ce	0.14326403
58	0xbda7e057	-0.08197086
59	0xbdc3e175	-0.09564487
60	0x3d89212b	0.066957794
61	0xbe1eac4d	-0.15495415
62	0xbd44fbea	-0.048091806
63	0xbdf75a3b	-0.12077757
64	0xbd44ea30	-0.0480749
65	0xbd6a480f	-0.057197627
66	0x3c66e2ae	0.014092131
67	0x3dc55ba8	0.09636623
68	0xbcfa0c31	-0.030523391
69	0x3dcae8b7	0.09907668
70	0xbddb48de	-0.10707258
71	0x3c05b662	0.008161159
72	0xbdf58bfb	-0.1198959
73	0xbd2bebcf	-0.04197293
74	0x3d40915d	0.04701363
75	0x3d1b4398	0.03790626
76	0xbe388471	-0.18019272
77	0xbe2550a6	-0.16144046
78	0x3d8d5b4d	0.0690218
79	0x3d93027b	0.071782075
80	0x3d6632b0	0.056200683
81	0x3cc9f095	0.024650851
82	0xbc94a83e	-0.01814663
83	0x3c2af400	0.010434151
84	0x3d2cd766	0.042197607
85	0x3d66cc20	0.056347013
86	0x3dd7e9f0	0.10542667
87	0xbd7ad025	-0.06123366
88	0xbdc7fda5	-0.09765176
89	0x3e0b72e8	0.13618052
90	0x3b77adc2	0.0037792777
91	0x3e117bbd	0.14207359
92	0x3dde95dc	0.10868427
93	0x3e109db4	0.14122659
94	0x3ce10d5c	0.02747219
95	0x3dee4c47	0.116356425
96	0xbdd0c929	-0.10194618
97	0x3d7dd647	0.06197193
98	0x3d8edf23	0.06976154
99	0x3e3e2eb3	0.18572502
100	0xbd1bd41b	-0.038044076
101	0x3e0e110e	0.13873693
102	0xbd5a47d1	-0.053291146
103	0xbdfde4a5	-0.12397126
104	0xbcb0ea9b	-0.021596244
105	0xbd3d6a04	-0.046243683
106	0x3cfe7c5f	0.031065164
107	0x3dec4107	0.115358405
108	0x3d7923ca	0.060825147
109	0x3e3ce90b	0.18448274
110	0x3ddd2099	0.10797233
111	0x3d9ea39b	0.07746049
112	0xbd663a5a	-0.056207992
113	0x3cc82947	0.024433745
114	0x3d4fc5f1	0.05072588
115	0xbd58b793	-0.052909445
116	0x3c84cbbc	0.01621043
117	0x3d9b756b	0.07590755
118	0x3da9abdd	0.082847334
119	0xbd3b36ea	-0.045706667
120	0xbc131892	-0.008978026
121	0xbd8d0b70	-0.06886947
122	0x3dbfb8d5	0.09361426
123	0x3dcd320c	0.10019311
124	0x3cfa418b	0.030548831
125	0x3c3c41b0	0.0114902705
126	0x3e013ce9	0.12620892
127	0x3d2e680e	0.042579703
128	0x3c05ffab	0.008178632
129	0xbe464e63	-0.1936584
130	0x3d905cdb	0.07048961
131	0x3d28d592	0.0412193
132	0xbd489f30	-0.048979938
133	0x3d918d60	0.07107043
134	0x3d0b5ef3	0.034026098
135	0xbd0ee687	-0.034887817
136	0xbdc0e9b6	-0.09419577
137	0x3ca7076e	0.020389285
138	0x3c9eb445	0.019373069
139	0x3e0a6651	0.13515593
140	0xbd90b16e	-0.07065092
141	0xbe00e935	-0.12588961
142	0x3e35da49	0.1775905
143	0x3d2ea0d9	0.042633865
144	0xbdd05aa4	-0.10173538
145	0x3cd756d6	0.026286524
146	0x3e3c39e0	0.18381453
147	0x3cc77e9b	0.024352362
148	0xbae16066	-0.0017194867
149	0xbdab0725	-0.08350972
150	0xbd7dd3a6	-0.06196942
151	0xbd69dd6f	-0.05709594
152	0xbbc6feeb	-0.006072869
153	0xbcbe67a5	-0.023242781
154	0x3dc04136	0.09387438
155	0xbd0a4c08	-0.033763915
156	0x3d0feb3a	0.03513644
157	0xbd5565a2	-0.052098878
158	0x3ca4691e	0.020069655
159	0xbcf953cb	-0.030435463
160	0xbe0d1240	-0.13776493
161	0xbd5ea743	-0.054358732
162	0xb79942cd	-1.8270128e-05
163	0x3daf0bde	0.08547185
164	0x3e0bc6e9	0.13650097
165	0x3d587e53	0.052854847
166	0x3df0186f	0.1172341
167	0xbdc33914	-0.09532371
168	0xbd33e416	-0.04391869
169	0x3cab4e0e	0.020911243
170	0xbe22463a	-0.15847102
171	0x3dff9a77	0.12480634
172	0x3e236b81	0.15958978
173	0xbd493fd1	-0.049133126
174	0x3d46dce1	0.04855049
175	0xbcf1162b	-0.029429516
176	0xbd1d96de	-0.038473956
177	0x3de07291	0.10959352
178	0xbdb358df	-0.08757185
179	0xbd314148	-0.043275148
180	0xbdf8f620	-0.121563196
181	0x3e1a6e32	0.15081099
182	0xbdb5f774	-0.088850886
183	0x3da73626	0.08164625
184	0x3d05500f	0.032547053
185	0x3dacebe4	0.0844343
186	0x3dbb60e7	0.09149342
187	0x3e012f17	0.1261562
188	0xbc9c63fb	-0.019090643
189	0xbbc877e9	-0.00611781
190	0x3dd8390f	0.10557758
191	0xbdaec980	-0.08534527
192	0xbdd2bdbb	-0.102900945
193	0x3d508582	0.050908573
194	0x3e532eb8	0.2062329
195	0xbdd1db81	-0.10246945
196	0x3dca49b5	0.0987734
197	0xbdec58e9	-0.11540396
198	0xbd81bfa0	-0.06335378
199	0x3c9f6969	0.019459443
200	0x3d89268f	0.066968076
201	0x3def2010	0.11676037
202	0x3d55ebbe	0.052226774
203	0xbd8554fb	-0.06510349
204	0xbd95cb7b	-0.073142014
205	0xbe14be75	-0.14525779
206	0x3b17a2e2	0.0023137857
207	0xbdd4af2f	-0.10384976
208	0xbdc3b55e	-0.095560774
209	0x3e223e06	0.15843973
210	0xbd0d5c47	-0.03451183
211	0xbd06db2a	-0.032923855
212	0x3d6ac472	0.05731625
213	0x3d771da4	0.060331002
214	0xbda78c25	-0.08181027
215	0xbcf132d1	-0.029443176
216	0xbd90d0b7	-0.07071059
217	0x3c9332fc	0.017968647
218	0xbdc755d6	-0.09733169
219	0xbe0632b5	-0.1310528
220	0x3dd78a45	0.1052442
221	0x3d020568	0.031743437
222	0xbd9e4964	-0.07728842
223	0xbcea9e78	-0.028640017
224	0x3d7fc9f7	0.062448468
225	0x3e3dd041	0.18536474
226	0xbc719777	-0.014745585
227	0xbcbdd30c	-0.023171924
228	0xbcf34268	-0.02969475
229	0xbcfbb8fe	-0.03072786
230	0xbcefd3d0	-0.029275805
231	0xbd769b04	-0.06020643
232	0x3d1102b7	0.03540298
233	0xbda12f6f	-0.07870375
234	0xbdece176	-0.11566441
235	0xbd7cd89c	-0.061730012
236	0x3d5922d9	0.05301175
237	0xbbefad4c	-0.00731436
238	0x3ca5e6b9	0.020251619
239	0xbc21b00a	-0.009868631
240	0xbd4341f3	-0.047670316
241	0x3d527224	0.051378384
242	0x3e08e1ad	0.13367338
243	0xbd079012	-0.03309638
244	0xbda6154a	-0.08109529
245	0x3d510653	0.051031422
246	0x3cbfbb94	0.023404874
247	0x3e298e40	0.1655817
248	0xbdcd4f96	-0.100249454
249	0x3d6682a5	0.056276936
250	0xbd6d5a5d	-0.057947505
251	0x3cd10df1	0.025519343
252	0x3d8d519d	0.06900332
253	0xbdb173a7	-0.08664637
254	0xbd8550d8	-0.0650956
255	0x3dd0d540	0.10196924

cells.0.h2h.bias f4 [256]
0	0x3e229d1b	0.15880243
1	0x3df54340	0.119757175
2	0x3de13944	0.10997251
3	0x3dc4dc83	0.09612372
4	0x3e0b83f3	0.13624553
5	0x3db7c7d2	0.089736596
6	0x3cb89d61	0.022535982
7	0x3dc4d1e7	0.09610348
8	0xbd91bf45	-0.0711656
9	0x3dca9e38	0.09893459
10	0x3db9f0c3	0.09079125
11	0x3dc1a7e8	0.09455854
12	0xbd47c65b	-0.04877315
13	0x3e1a4e15	0.15068848
14	0x3ccfc7dd	0.025363857
15	0x3d6b4b31	0.057444755
16	0xbde49133	-0.11160507
17	0x3dd71dbe	0.1050372
18	0x3e17750a	0.1479074
19	0x3db9e376	0.09076588
20	0x3e0edf6f	0.1395242
21	0xbdcb6630	-0.099316
22	0xbdbb4b68	-0.09145242
23	0x3c4db2b3	0.012554812
24	0x3dd58645	0.104260005
25	0x3d891db8	0.066951215
26	0x3e167f21	0.14696933
27	0x3e3ab980	0.18234825
28	0xbc4eca53	-0.01262148
29	0x3d40ad75	0.04704042
30	0x3dea7dd5	0.11449782
31	0x3d7db765	0.061942477
32	0x3d29ebdd	0.041484702
33	0xbc9cc755	-0.019138018
34	0x3e078be7	0.13236962
35	0xbd53ef9c	-0.05174218
36	0x3d8260f1	0.06366146
37	0x3dded2d1	0.10880054
38	0x3c850ed5	0.016242424
39	0x3e12235c	0.14271301
40	0xbdc69338	-0.096960485
41	0x3def9b59	0.11699552
42	0xbba0771d	-0.004897012
43	0x3e395dbc	0.18102163
44	0xbd1c2c34	-0.038128093
45	0x3d010003	0.03149415
46	0x3e08234c	0.13294715
47	0xbc135bf4	-0.008994091
48	0x3dfe2824	0.1241
49	0xbdb4a2d1	-0.08820117
50	0x3df29df4	0.118465334
51	0x3cdf1f54	0.027236618
52	0xbca5c81f	-0.020237027
53	0x3e3b147c	0.18269533
54	0xbcfffb51	-0.031247767
55	0x3da4591b	0.08024808
56	0x3d8a1b60	0.067435026
57	0xbda44400	-0.080207825
58	0x3dc445ab	0.095836006
59	0x3cf5fdda	0.030028272
60	0x3e11aa86	0.14225206
61	0xbd9c1685	-0.07621483
62	0xbbb0e663	-0.005398558
63	0x3e08b96b	0.13351981
64	0xbd24de94	-0.04025133
65	0xbd490c44	-0.049083963
66	0xbb20929e	-0.0024501453
67	0x3c0af942	0.008482279
68	0x3ce91c62	0.028455917
69	0xbacb9eb6	-0.001553497
70	0x3ca10d42	0.019659642
71	0xbb90ba02	-0.004416705
72	0xbccfeecd	-0.025382424
73	0xbc6d13f6	-0.014470091
74	0x3d674f59	0.056472156
75	0x3e0ed579	0.13948621
76	0x3e0f7ab6	0.14011654
77	0x3c2af9f6	0.010435572
78	0x3d616162	0.055024512
79	0x3db37977	0.08763402
80	0xbdb50de2	-0.088405386
81	0x3dd45f50	0.10369742
82	0xbdb36fdb	-0.08761569
83	0xbcc7702a	-0.024345476
84	0xbd92937d	-0.071570374
85	0x3d9d828a	0.07690914
86	0xbda391f9	-0.079868264
87	0xbcd65d80	-0.026167631
88	0x3af1953c	0.0018431316
89	0x3bd7f285	0.00659019
90	0xbcb2c41c	-0.021822028
91	0x3e4faff5	0.20281966
92	0x3cdea101	0.027176382
93	0xbce54376	-0.02798627
94	0xbd6bb783	-0.057548057
95	0xbdbbdac3	-0.09172585
96	0x3e06904d	0.13140984
97	0xbdd1bc24	-0.10240963
98	0xbd1e6705	-0.038672466
99	0x3dc3c4b2	0.09559001
100	0x3dfc9f83	0.12335112
101	0xbd202719	-0.039099786
102	0x3ddd719b	0.10812684
103	0x3d93f8a5	0.072251596
104	0xbcce93ed	-0.02521702
105	0x3da703bd	0.0815501
106	0x3d395a8a	0.04525236
107	0x3e0cc3c0	0.13746548
108	0x3e452fb5	0.1925648
109	0x3bb74f57	0.005594175
110	0xbd6d37ac	-0.05791442
111	0x3ca4ecf0	0.020132512
112	0x3db752e8	0.0895136
113	0x3a733040	0.0009276904
114	0x3e1e350e	0.15449926
115	0x3d8b9968	0.06816369
116	0xbd9143a2	-0.07092978
117	0xbcd78217	-0.026307149
118	0x3d52e011	0.051483218
119	0x3bdfe3c7	0.006832573
120	0x3c66536d	0.014057976
121	0xbd4e62ab	-0.050387066
122	0xbdab8980	-0.083758354
123	0x3d17202d	0.03689592
124	0xbd0634d6	-0.032765232
125	0xbd6b7f9e	-0.057494752
126	0x3d88091c	0.066423625
127	0xbdd6f478	-0.104958475
128	0xbd9bdba3	-0.07610252
129	0xbd331afe	-0.043726914
130	0x3cfeea7b	0.031117668
131	0xbdfc7ff8	-0.123290956
132	0xbde73a6d	-0.11290441
133	0x3dc31a79	0.09526534
134	0xbd65e14f	-0.056123074
135	0x3e0b07a1	0.13577129
136	0xbe0067f6	-0.12539658
137	0xbd60c9a1	-0.05487979
138	0xbcc164bb	-0.023607602
139	0x3d03d3fe	0.032184593
140	0xbd34efbb	-0.044173937
141	0xbdc95649	-0.09830911
142	0xbde6105e	-0.112335905
143	0x3dfa2057	0.122131996
144	0xbd400165	-0.04687633
145	0xbdc71fe6	-0.09722881
146	0xbd561aae	-0.052271537
147	0x3d4b9479	0.04970214
148	0x3a10f76a	0.00055300316
149	0x3b3e6980	0.0029054582
150	0x3dd59204	0.10428241
151	0x3d95d9c5	0.07316927
152	0x3d837fc1	0.064208515
153	0xbdc67d1d	-0.09691832
154	0x3d08f0af	0.03343266
155	0xbe09c1cd	-0.13452835
156	0xbde5369c	-0.111920565
157	0x3d6e8fa1	0.058242444
158	0x3d8fc55c	0.07020065
159	0xbddf17eb	-0.10893234
160	0xbd865706	-0.06559567
161	0x3c58f7e7	0.013242698
162	0xbd9af738	-0.075666845
163	0x3d9630a4	0.07333496
164	0x3b0d0ec6	0.0021523698
165	0x3c876e06	0.016531955
166	0x3e04bf91	0.12963702
167	0xbd147aee	-0.036250047
168	0xbdce8be5	-0.100852765
169	0xbd00f310	-0.031481802
170	0xbdcdeb12	-0.10054602
171	0x3d567c78	0.052364796
172	0x3de26806	0.11054997
173	0xbd363873	-0.044487428
174	0x3c242716	0.010019084
175	0x3d66c427	0.05633941
176	0x3d8a3642	0.0674863
177	0x3be4f51d	0.0069872276
178	0x3d748b19	0.059702966
179	0xbdc4f2cf	-0.096166246
180	0xbdf65930	-0.1202873
181	0x3dbb6b6f	0.09151351
182	0x3dc95718	0.09831065
183	0xbd83fd1c	-0.06444761
184	0x3c281152	0.010258036
185	0x3d356ee1	0.044295195
186	0xbd7cbea8	-0.06170526
187	0xbd275840	-0.040855646
188	0x3cc2cbf5	0.023778895
189	0xbda94537	-0.08265155
190	0xbdb068e2	-0.08613755
191	0x3d8b5eec	0.06805214
192	0x3d46b4ce	0.048512273
193	0x3deca232	0.11554374
194	0x3dc8585e	0.0978248
195	0xbd32c945	-0.043648977
196	0xbb5f7bda	-0.003410092
197	0xbcc37e0c	-0.023863815
198	0x3d6c365b	0.057669025
199	0x3e444eea	0.19170728
200	0x3de31957	0.110888176
201	0xbda3ef58	-0.080046356
202	0x3d36e0fb	0.04464815
203	0x3bb69ae3	0.005572663
204	0x3d867673	0.06565561
205	0x3e1e70e2	0.15472749
206	0x3e12e62a	0.14345613
207	0x3d2c4780	0.042060375
208	0xbe027e23	-0.1274343
209	0x3e0fd6d6	0.14046797
210	0x3de2f504	0.11081889
211	0x3e0bc3d2	0.13648918
212	0x3d920775	0.071303286
213	0xbd3c5f2a	-0.045989193
214	0xbdaaeb07	-0.08345609
215	0x3bc4efa9	0.006010015
216	0x3c157f87	0.009124643
217	0x3c6cfee8	0.014465071
218	0x3c7c3c82	0.015395286
219	0x3dbd0535	0.09229509
220	0xbc68c8ab	-0.014207999
221	0x3e307c5c	0.1723494
222	0x3dad9e4d	0.08477459
223	0xbdcaf945	-0.09910826
224	0xbca0ef72	-0.019645426
225	0x3d71d380	0.059039593
226	0x3ad9d116	0.0016618099
227	0xbaabcb1b	-0.0013106795
228	0xbda17e95	-0.07885472
229	0x3c305220	0.010761768
230	0x3e0d3afc	0.13792032
231	0x3e04d2e6	0.12971076
232	0xbb618644	-0.0034412304
233	0x3def1f5b	0.116759025
234	0x3dd07991	0.10179437
235	0xbbd0ee60	-0.0063760728
236	0xbd5634fa	-0.052296616
237	0x3daa4372	0.083136454
238	0x3ccfab58	0.025350258
239	0x3cbb0fd7	0.022834701
240	0xbda64833	-0.0811924
241	0xbcefc20c	-0.029267333
242	0x3e0f482c	0.13992375
243	0x3d8a041f	0.06739067
244	0x3dc442d7	0.09583061
245	0x3d45e85f	0.04831731
246	0x3c59e53a	0.013299281
247	0xbda7cde1	-0.08193565
248	0x3d5d8677	0.054083314
249	0x3d93e84c	0.072220415
250	0xbcc5ee5d	-0.024161512
251	0x3c065b05	0.008200412
252	0xbda501b0	-0.080569625
253	0x3d2f1ce2	0.042752154
254	0x3e199e6d	0.15001841
255	0xbc5d6397	-0.013512514

cells.1.x2h.weight f4 [256, 64]
0	0x3d98bb14	0.07457557
1	0xbbb7d56f	-0.00561016
2	0xba0028d5	-0.0004888897
3	0x3de07323	0.109594606
4	0xbe2e16e0	-0.17000914
5	0x3ce1e525	0.027575085
6	0x3dbd2b7c	0.092368096
7	0x3d1f5495	0.038899023
8	0x3d421fc8	0.04739359
9	0x3e06199c	0.13095707
10	0xbdda3240	-0.10654116
11	0x3cde9193	0.027169025
12	0xbe1024b6	-0.14076504
13	0xbc88d5d3	-0.016703522
14	0x3da242b0	0.07922876
15	0xbdcfbc8c	-0.10143384
16	0x3da6e307	0.08148771
17	0xbd6da665	-0.058020014
18	0x3e14fb3a	0.1454896
19	0x3982e936	0.00024969288
20	0x3cd824e9	0.026384788
21	0xbda70d8b	-0.0815688
22	0xbdd732b7	-0.1050772
23	0xbd228227	-0.039674904
24	0x3d98a72e	0.07453762
25	0x3e0b2eb2	0.13592032
26	0x3e2b4daa	0.16728845
27	0x3d52378d	0.05132251
28	0x3da0f418	0.07859057
29	0x3de1d8c0	0.1102767
30	0x3e2edad2	0.17075661
31	0xbc917a83	-0.017758613
32	0x3d29914c	0.04139833
33	0x3dae7cf6	0.08519928
34	0xbd8d1c58	-0.06890172
35	0xbc145af1	-0.009054885
36	0x3d5f170e	0.054465346
37	0x3e10c1cd	0.14136429
38	0x3e0730b1	0.13202168
39	0xbd5dec61	-0.054180507
40	0x3c88e6a7	0.016711546
41	0x3bc600b7	0.0060425657
42	0xbded64ea	-0.115915135
43	0x3e340fab	0.17584102
44	0xbd7abe33	-0.061216544
45	0xbd22a528	-0.039708287
46	0xbd497553	-0.049184155
47	0x3d9ee24f	0.07758009
48	0xbd3170eb	-0.043320578
49	0x3d9ad36b	0.07559856
50	0xbdac641d	-0.084175326
51	0xbe0f3253	-0.13984041
52	0x3d789e82	0.06069804
53	0x3ddbf70f	0.10740482
54	0xbd91c03d	-0.07116745
55	0xbd6b9b23	-0.057520997
56	0xbbdeb808	-0.0067968406
57	0xbd05b767	-0.03264561
58	0xbc30a5d7	-0.010781727
59	0xbd366745	-0.04453208
60	0xbd5b9e84	-0.05361797
61	0x3d53a7f3	0.05167384
62	0x3e21d0b6	0.15802273
63	0xbd85d964	-0.065356046
64	0x3d165fdc	0.036712512
65	0x3bf3e7d6	0.0074434085
66	0x3c9bca6e	0.019017424
67	0xba9b9bcd	-0.0011871994
68	0x3d3cc8d2	0.046089955
69	0xbdbf6425	-0.09345273
70	0x3db6b016	0.089203045
71	0xbdec4dc8	-0.11538273
72	0xbdd0c4d7	-0.10193794
73	0x3d104cfe	0.035229675
74	0xbde3efbc	-0.1112971
75	0x3d1cc810	0.038276732
76	0x3d8d379b	0.068953715
77	0xbe016085	-0.12634476
78	0xbc7fb2d9	-0.015606605
79	0xbb3ff0d8	-0.0029287841
80	0x3da157cb	0.07878073
81	0x3d48af36	0.04899522
82	0x3db2e922	0.08735873
83	0x3dca4282	0.098759666
84	0x3e10cf54	0.1414159
85	0x3dc92489	0.09821422
86	0xbd64e4c2	-0.055882223
87	0xbe1c84f9	-0.152851
88	0xbd8f976d	-0.07011304
89	0x3d9d9f92	0.07696451
90	0x3d604e8f	0.05476242
91	0x3cef0108	0.029175296
92	0x3cad210e	0.021133926
93	0x3c97ef94	0.018546857
94	0x3dbdb0e6	0.09262256
95	0xbda179d2	-0.078845635
96	0x3cd1ccb0	0.025610298
97	0xbd8e7fed	-0.06957994
98	0x3daabe6b	0.083371006
99	0xbda1905a	-0.07888861
100	0xbc255981	-0.01009214
101	0xbd7b6784	-0.061378017
102	0x3db90c9f	0.090356104
103	0x3d720faa	0.05909697
104	0xbdc4f1d6	-0.09616439
105	0xbdf7269b	-0.1206791
106	0x3d951037	0.07278483
107	0x3e15a241	0.14612676
108	0x3ddde672	0.108349696
109	0x3d6e54f0	0.05818647
110	0xbb4665ee	-0.0030273157
111	0x3d7d97e7	0.061912443
112	0xbd662d1c	-0.056195363
113	0xbd8d00b9	-0.068849035
114	0x3ce33b30	0.027738184
115	0x3d65b70c	0.05608277
116	0xbd438d28	-0.04774204
117	0xbd060757	-0.032721844
118	0xbdccf0bc	-0.10006854
119	0x3ddb8a6a	0.1071976
120	0xbce77453	-0.02825371
121	0x3dd1435d	0.10217927
122	0xbd02002e	-0.031738453
123	0x3d7e34a7	0.062061932
124	0x3db44fcc	0.088042825
125	0x3d3d2ee5	0.0461873
126	0x3dcd4ffd	0.10025022
127	0xbd9870dc	-0.07443401
128	0xbd72fb0f	-0.05932146
129	0x3cdb4562	0.026766483
130	0x3e1a03b5	0.15040477
131	0x3dbfbe25	0.09362439
132	0x3ce07db8	0.027403697
133	0x3cc5b877	0.024135811
134	0xbc8031ca	-0.015648741
135	0x3c962b2d	0.018331135
136	0x3d3abb3f	0.045588728
137	0xbd515b8c	-0.051112697
138	0xbc52a8d0	-0.012857631
139	0x3de6b708	0.11265379
140	0x3e00791a	0.12546197
141	0xbd9263f0	-0.07147968
142	0x38b7308a	8.735161e-05
143	0xbdef3378	-0.11679739
144	0x3dc570fe	0.09640692
145	0x3de77224	0.113010675
146	0x3e1ba019	0.15197791
147	0xbc92ac79	-0.017904507
148	0x3d89ba10	0.06724942
149	0x3da08ca4	0.07839325
150	0x3dac13ab	0.08402189
151	0xbc6b1e38	-0.014350466
152	0xbddc17b9	-0.10746712
153	0xbda4bcbd	-0.080438115
154	0x3dd6c488	0.10486704
155	0x3d7953d3	0.060870957
156	0x3d7a7a58	0.061151832
157	0xbd28a5c3	-0.041173708
158	0x3df98f6f	0.12185561
159	0x3e01e061	0.1268325
160	0xbdc74d76	-0.097315714
161	0x3cad9f04	0.021193989
162	0x3dc154ed	0.094400264
163	0xbde43c9d	-0.111443736
164	0xbd9502a6	-0.07275896
165	0x3d081ba1	0.033229474
166	0xbd3d4a13	-0.04621322
167	0xbc214549	-0.009843179
168	0x3d2d66e1	0.04233444
169	0xbe022591	-0.12709643
170	0xbdd8bc5c	-0.10582802
171	0xbd651082	-0.055923946
172	0xbcf8d9bf	-0.030377267
173	0x3b9f109d	0.0048542754
174	0xbc68a172	-0.014198648
175	0x3c1a0d75	0.0094026225
176	0xbdb1cff3	-0.08682241
177	0x3d926ee5	0.07150058
178	0x3d95a2ba	0.07306428
179	0x3e122349	0.14271273
180	0x3d82e8d4	0.06392065
181	0x3dac4112	0.08410849
182	0x3b9caf72	0.004781657
183	0x3db865e1	0.09003807
184	0xbde44f58	-0.11147946
185	0x3dca5122	0.09878756
186	0x3db19bb5	0.08672277
187	0x3cd8a929	0.02644785
188	0x3d86bbe8	0.06578809
189	0x3dd27dd1	0.10277904
190	0x3da8af17	0.08236521
191	0xbd82b068	-0.06381303
192	0x3dba50d6	0.090974495
193	0xbceb8952	-0.028752003
194	0x3dbc47a8	0.09193355
195	0xbdaf5f98	-0.08563155
196	0xbce6e02f	-0.028183071
197	0xbd2b180d	-0.041770983
198	0xbd03707e	-0.032089703
199	0xbe3537dc	-0.1769709
200	0xbd4c8613	-0.04993255
201	0xbcd5fd95	-0.026121894
202	0x3e143d56	0.14476523
203	0x3dbbc4a7	0.09168368
204	0xbcfce8a1	-0.030872645
205	0xbda218b7	-0.0791487
206	0xbdbf99c6	-0.09355502
207	0xbcdabc0d	-0.026700998
208	0x3dac8c6d	0.084252216
209	0x3dbedbc8	0.09319264
210	0xbd36a241	-0.04458833
211	0xbd96992e	-0.073534355
212	0x3e2428d1	0.16031195
213	0xbbee5a26	-0.00727393
214	0x3d81c325	0.06336049
215	0xbde8141a	-0.11331959
216	0x3c3501c2	0.011047782
217	0xbd7fa4af	-0.062412914
218	0xbc5837da	-0.01319691
219	0xbe0f590d	-0.13998814
220	0x3da3d7fd	0.08000181
221	0x3d28609b	0.041107755
222	0x3d8d6942	0.06904842
223	0x3da4f77d	0.08055017
224	0xbde6b84f	-0.11265623
225	0x3d80383c	0.06260726
226	0x3bf67edd	0.0075224475
227	0x3deacd4a	0.11464937
228	0x3d0bab4e	0.034098916
229	0xbd078547	-0.033086088
230	0x3d66cb9a	0.056346513
231	0xbdde028a	-0.10840328
232	0xbc713b39	-0.014723592
233	0xbde6fb2f	-0.11278378
234	0x3d4ef003	0.05052186
235	0xbdb0aacb	-0.08626326
236	0xbcf28db6	-0.029608589
237	0x3dc5ee48	0.09664589
238	0xbcb7e96c	-0.022450171
239	0xbc9ebb1d	-0.019376332
240	0xbdb6e6b5	-0.089307226
241	0xbdc50a37	-0.09621089
242	0x3d42322b	0.047411125
243	0xbdf21db8	-0.11822075
244	0xbdc34b17	-0.095358066
245	0x3e13a8b8	0.1441983
246	0xba091059	-0.0005228571
247	0x389be1b4	7.4330164e-05
248	0x3d6097b8	0.05483219
249	0xbd81d2d3	-0.0633904
250	0x3cdebcc3	0.027189618
251	0x3dbd7a50	0.09251845
252	0x3d949fd8	0.0725705
253	0x3abb8a6d	0.0014308222
254	0x3cd2fc15	0.025754968
255	0xbda12b37	-0.07869571

cells.1.x2h.bias f4 [256]
0	0x3db06cc0	0.086144924
1	0x3d9b2d32	0.0757698
2	0xbd04a4c9	-0.032383714
3	0xbdb1c6f2	-0.08680524
4	0xbdb2c9ff	-0.08729934
5	0x3c74095f	0.014894812
6	0xbd5d22db	-0.05398832
7	0xbd152ceb	-0.03641979
8	0xbdc2b71c	-0.095075816
9	0x3d026649	0.031835828
10	0xbd674de1	-0.056470755
11	0x3e0a8cf6	0.13530335
12	0x3e139f5d	0.14416261
13	0x3ccfb240	0.02535355
14	0xbd6dc6fe	-0.058051102
15	0x3b97d452	0.004633465
16	0x3dd1f770	0.10252273
17	0xbc852272	-0.016251776
18	0xbde53e47	-0.11193519
19	0xbd8b9cbd	-0.06817005
20	0xbbfa64cf	-0.007641412
21	0x3d4ded6f	0.050275262
22	0xbdc845c3	-0.09778931
23	0x3e1b28a7	0.15152226
24	0x3dc24d58	0.094874084
25	0x3ddaacdb	0.10677501
26	0xbd8c4918	-0.06849879
27	0xbd27a884	-0.040932193
28	0xbdcc2300	-0.09967613
29	0xbcb11e29	-0.021620827
30	0xbc9b87a5	-0.018985579
31	0x3dceda60	0.101002455
32	0x3ca1881e	0.019718226
33	0x3d12be4f	0.035826024
34	0xbda074d3	-0.078347825
35	0x3dc80e6f	0.09768378
36	0xbde03812	-0.109481946
37	0xbc651682	-0.013982417
38	0x3d8cde9a	0.068783954
39	0x3da52ed3	0.08065572
40	0x3dc6b3b7	0.09702247
41	0x3d9bf66b	0.0761536
42	0xbd9014fe	-0.07035254
43	0x3db83246	0.08993964
44	0x3cc3aaf8	0.023885235
45	0xbd8ee564	-0.069773465
46	0x3e1fd764	0.15609509
47	0x3c383278	0.011242501
48	0xbcc58766	-0.024112415
49	0x3ce2cc6a	0.027685363
50	0x3d60cf82	0.054885395
51	0xbd4fb6a2	-0.05071128
52	0x3e19f81b	0.15036051
53	0xbc8e8321	-0.017396512
54	0xbce73d18	-0.028227374
55	0xbd3cdec7	-0.046110895
56	0xbd853439	-0.06504101
57	0x3e07bd5e	0.13255832
58	0x3dc24477	0.09485715
59	0xbd10609c	-0.035248384
60	0x3a7c9b3e	0.000963617
61	0x3d4f7fc8	0.05065897
62	0x3d9ffe67	0.07812195
63	0xbd7e7ac1	-0.062128786
64	0xbcbf8f87	-0.023383869
65	0x3dbf9312	0.09354223
66	0xbd46cff0	-0.04853815
67	0xbdbd0595	-0.0922958
68	0x3de29738	0.11063999
69	0xbcd93ca6	-0.026518177
70	0x3db3fe1b	0.08788701
71	0xbdf6c65d	-0.120495535
72	0xbd80b36c	-0.06284222
73	0xbd8d32af	-0.06894433
74	0xbd8ab15c	-0.0677211
75	0x3db79e5f	0.08965754
76	0xbdbad8c1	-0.09123374
77	0xbdda7109	-0.10666091
78	0xbcc88969	-0.024479585
79	0x3df51a2b	0.11967882
80	0x3cce8d49	0.025213854
81	0xbd20001e	-0.03906261
82	0x3dfb075a	0.122572616
83	0x3dd88932	0.10573043
84	0x3da1f126	0.079073235
85	0x3c37cbf8	0.0112180635
86	0xbcf41574	-0.029795386
87	0x3c76ad8f	0.015056028
88	0xbdde27a7	-0.10847407
89	0xbd6ecab5	-0.058298785
90	0x3daae274	0.08343974
91	0x3dbb5aae	0.09148155
92	0x3da7ee8a	0.081997946
93	0xbd9becd0	-0.07613528
94	0x3da8fea2	0.08251692
95	0x3e00ace6	0.12565956
96	0x3dab6223	0.083683275
97	0x3d392fae	0.045211487
98	0x3e2d2fe9	0.16912808
99	0x3c96ae74	0.018393733
100	0x3de8640e	0.11347209
101	0xbd9621c0	-0.07330656
102	0x3dea85d1	0.11451305
103	0xbdd2d120	-0.10293794
104	0x3cbc4f5a	0.022987057
105	0xbddf6331	-0.10907591
106	0x3dfb842d	0.1228107
107	0xbd7f43b6	-0.062320434
108	0x3e0774d3	0.13228159
109	0x3ce2958a	0.027659196
110	0x3d2eb27f	0.042650696
111	0xbc80cff3	-0.015724158
112	0xbd4c3361	-0.049853686
113	0x3e6e50a0	0.23272943
114	0xbc9db5b5	-0.019251684
115	0x3db19e2c	0.08672747
116	0xbd852c80	-0.06502628
117	0xbcf062e6	-0.029344033
118	0x39dad044	0.0004173537
119	0x3d1bbbe3	0.03802098
120	0xbd9dbaf1	-0.07701672
121	0xbd9e2abe	-0.07722996
122	0xbd5a8aca	-0.053355016
123	0x3cb07adf	0.021542965
124	0x3c3ed54b	0.011647533
125	0xbbba78ea	-0.0056906836
126	0xbd6e7c10	-0.058223784
127	0x3dddfcff	0.10839271
128	0xbe188410	-0.14894128
129	0xbdd6a102	-0.104799286
130	0x3db50c2f	0.088402145
131	0x3e07bc9f	0.13255547
132	0xbdb0bc29	-0.08629639
133	0xbcea7b0a	-0.028623123
134	0xbdf9502f	-0.12173497
135	0x3d825234	0.06363335
136	0xbdb36926	-0.0876029
137	0x3d9fb874	0.077988535
138	0x3e02d7e2	0.12777665
139	0x3d36db86	0.044642948
140	0x3cc03f1b	0.023467591
141	0x3d34989b	0.04409085
142	0x3e02cbb2	0.12773016
143	0x3d91753b	0.07102438
144	0x3d9580d4	0.07299963
145	0xbb8e03b0	-0.0043339357
146	0xbc8b9d89	-0.017042892
147	0xbd312eb1	-0.04325742
148	0x3dead47d	0.1146631
149	0xbde5d859	-0.11222906
150	0xbc80c800	-0.015720367
151	0x3d761719	0.06008062
152	0x3de98569	0.11402399
153	0x3c4c3ea0	0.012466103
154	0xbd4fd882	-0.050743587
155	0x3dcd0fcf	0.10012781
156	0x3d1febea	0.039043345
157	0xbd0b3616	-0.033987127
158	0xbdf2b4d7	-0.11850899
159	0x3defe284	0.11713126
160	0xbd5f9cba	-0.054592825
161	0xbd1cb216	-0.038255773
162	0xbcb8201f	-0.022476254
163	0xbdacb65c	-0.0843322
164	0x3d534a22	0.05158437
165	0xbcf98c4a	-0.030462403
166	0xbdb4de27	-0.08831435
167	0xbe0405f6	-0.12892899
168	0x3b4a384b	0.0030856307
169	0x3dfaffd8	0.122558296
170	0x3e005ccc	0.12535399
171	0xbc6e4f4c	-0.014545273
172	0xbdaabb16	-0.08336465
173	0xbdb422df	-0.08795714
174	0xbafde838	-0.0019371575
175	0x3a40fef8	0.0007362212
176	0xbdf64ecb	-0.12026747
177	0x3dd8b06d	0.105805255
178	0xbd95a8a4	-0.07307556
179	0x3d339b83	0.04384948
180	0x3d570976	0.052499257
181	0xbd21754a	-0.039418496
182	0xbda38649	-0.07984597
183	0xbd45819e	-0.048219316
184	0xbd542d61	-0.05180109
185	0x3d94b94a	0.072619036
186	0xbcee1d66	-0.029066753
187	0xbb60403e	-0.0034217979
188	0x3d697eab	0.057005566
189	0x3e13aef1	0.14422204
190	0xbddad7d7	-0.106856994
191	0x3d1dfc69	0.038570795
192	0x3c687057	0.01418694
193	0x3d02bd69	0.031918917
194	0xbd8ad9c6	-0.06779818
195	0x3e008cb0	0.12553668
196	0x3de55e9b	0.11199685
197	0x3d72500b	0.059158366
198	0x3d8e9069	0.06961138
199	0x3d91a03e	0.07110642
200	0xbcd41dce	-0.025893118
201	0xbde5fa4f	-0.11229383
202	0x3da9d4d1	0.08292545
203	0x3d78d7f8	0.06075284
204	0xbc8b68d1	-0.017017754
205	0xbdcb26c7	-0.099195056
206	0xbd594a89	-0.053049598
207	0x3dfffd79	0.12499518
208	0x3d034c4f	0.032055195
209	0xbbe565e1	-0.0070006703
210	0x3db538bd	0.088487126
211	0x3d365a1c	0.04451953
212	0x3da9850e	0.08277331
213	0xbdbb4255	-0.09143511
214	0xbdb37a22	-0.08763529
215	0x3cd59d3c	0.026075952
216	0x3dba577d	0.09098718
217	0xbbb36e10	-0.005475767
218	0x3d347146	0.04405334
219	0xbd746b28	-0.059672505
220	0x3dcf01d8	0.101077735
221	0xbd9eb693	-0.07749667
222	0x3b6620f9	0.0035114868
223	0xbdce2540	-0.100656986
224	0x3d9db960	0.07701373
225	0x3df3af0c	0.11898622
226	0x3d2272fe	0.039660446
227	0xbd41c8f8	-0.0473108
228	0xbdba47ca	-0.09095724
229	0xbd5bb891	-0.053642813
230	0x3dbac98d	0.09120474
231	0x3c64da81	0.013968111
232	0x3e00c591	0.12575366
233	0x3da50c5c	0.08058998
234	0xbdb9c016	-0.090698406
235	0x3d095a87	0.0335336
236	0x3deb0c9a	0.11477013
237	0x3dde111c	0.10843107
238	0x3d0cd557	0.034383144
239	0xbd0c90ec	-0.034317896
240	0x3da9d530	0.082926154
241	0x3d67d1c2	0.056596525
242	0x3d9a80f2	0.075441256
243	0x3e03025c	0.12793869
244	0x3d41363f	0.047170874
245	0x3d4dc0e9	0.0502328
246	0x3c8b2394	0.016984738
247	0xbd4b5a19	-0.04964647
248	0xbd9dfc94	-0.07714191
249	0xbda17115	-0.07882897
250	0xbdbd9e65	-0.09258727
251	0xbd1133f9	-0.035449956
252	0xbdaaf1c0	-0.083468914
253	0x3e0b5e97	0.13610302
254	0x3dcf6974	0.101275355
255	0x3c5d2185	0.013496761

cells.1.h2h.weight f4 [256, 64]
0	0xbcb4e171	-0.022080155
1	0xbe0409b8	-0.12894332
2	0x3dd892d2	0.10574879
3	0x3d4feec8	0.05076483
4	0x3d965c40	0.07341814
5	0xbdd82b8b	-0.1055518
6	0x3da208ee	0.079118595
7	0xba1d2834	-0.00059950654
8	0xbd8502b5	-0.06494657
9	0xbce42092	-0.027847562
10	0xbd5b6c15	-0.053569872
11	0x3d4efb69	0.050532732
12	0xbce5bcb9	-0.028044092
13	0x3dbdfd2f	0.092768066
14	0x3da06029	0.07830841
15	0x3cd64157	0.026154203
16	0xbca30096	-0.01989774
17	0xbdb2b119	-0.08725185
18	0x3c56483f	0.013078748
19	0x3da9d76f	0.08293044
20	0xbd4101d0	-0.04712087
21	0x3c4c9ece	0.012489034
22	0xbe160049	-0.14648546
23	0xbbcdbb24	-0.0062784124
24	0x3d91e765	0.07124213
25	0xbca0d36a	-0.01963206
26	0x3daccb3f	0.084372036
27	0x3dd3f2c6	0.1034904
28	0x3daaaf67	0.083342366
29	0x3c0e5fcf	0.008689835
30	0x3d35526e	0.044268064
31	0xbd83a81e	-0.0642855
32	0xbd15ae70	-0.03654331
33	0x3e301138	0.17194068
34	0x3d8e7471	0.06955803
35	0xbde06bae	-0.10958038
36	0x3d00bd4b	0.031430524
37	0x3d87cb19	0.06630535
38	0xbd9aa7f4	-0.07551566
39	0xbd0554bf	-0.032551523
40	0x3c49a19d	0.012306598
41	0xbd3a555e	-0.04549157
42	0x3e0baa2b	0.13639133
43	0xbdcc7dce	-0.09984933
44	0xbcd39d5e	-0.025831874
45	0xbd49820d	-0.04919629
46	0xbc2de408	-0.010613449
47	0xbdba4bd4	-0.09096494
48	0x3e064fa2	0.13116315
49	0xbd6449c7	-0.055734422
50	0x3df043fa	0.117317155
51	0x3d2f10a0	0.042740464
52	0xbdbd24cf	-0.09235536
53	0xbe07eb2f	-0.13273309
54	0x3dc05d2e	0.093927726
55	0xbdc8f98d	-0.09813223
56	0xbd3a8d12	-0.04554469
57	0xbd5c32c2	-0.053759344
58	0xbd823aa7	-0.06358843
59	0xbd989a18	-0.07451266
60	0xbb21db67	-0.0024697424
61	0xbd716641	-0.058935408
62	0xbde9641c	-0.113960475
63	0x3d6e30aa	0.05815188
64	0x3c77909f	0.015110164
65	0x3d2f4060	0.042786002
66	0xbd33e4e6	-0.043919466
67	0x3d3192fb	0.043353062
68	0x3d5e367d	0.054251183
69	0xbcf45d07	-0.029829515
70	0xbcc5794d	-0.024105692
71	0x3d9ff1e7	0.07809811
72	0xbd173db8	-0.036924094
73	0x3dfd2c99	0.12362022
74	0x3df3b9a0	0.119006395
75	0xbc504648	-0.012712069
76	0x3db2dd00	0.08733559
77	0x3c1bb6d9	0.0095040435
78	0x3de94000	0.1138916
79	0x3d8bdaa5	0.068288125
80	0xbbe09f4a	-0.0068549262
81	0x3dcaece2	0.09908463
82	0x3d299cc7	0.04140928
83	0x3d795724	0.06087412
84	0x3cdc044c	0.026857518
85	0xbe08dcc1	-0.13365461
86	0xbd01a3fa	-0.03165052
87	0x3e1dc047	0.15405379
88	0x3e0a41f0	0.13501716
89	0x3e18c885	0.14920242
90	0x3da172a3	0.07883193
91	0xbbad39bd	-0.005286424
92	0x3d824d30	0.063623786
93	0xbdad6464	-0.084664136
94	0x3dd60a4b	0.10451182
95	0x3a04e310	0.00050692353
96	0xbd6c4a70	-0.057688177
97	0x3db3ff7b	0.087889634
98	0xbd213685	-0.039358635
99	0xbdb1b12b	-0.0867637
100	0xbd8a01a1	-0.06738592
101	0x3c37db83	0.011221769
102	0x3dd00211	0.10156644
103	0xbd8eec00	-0.06978607
104	0xbcd9f70b	-0.026607057
105	0x3d30443e	0.04303383
106	0xbd000c6c	-0.031261846
107	0x3d623d99	0.055234525
108	0x3d9aef46	0.07565169
109	0x3c960cf7	0.018316729
110	0xbac062e4	-0.0014677909
111	0x3d8209ec	0.06349549
112	0x3d51b215	0.051195223
113	0xbb0f9802	-0.0021910672
114	0x3e29fd83	0.16600613
115	0x3df69ea1	0.12041975
116	0x3d276d68	0.040875822
117	0xbdf8dd87	-0.12151628
118	0x3d66e6c1	0.056372408
119	0xbe113b2d	-0.1418273
120	0xbd790241	-0.060793165
121	0xbdba0ea9	-0.090848275
122	0xbda3c073	-0.07995691
123	0xbe02442c	-0.12721318
124	0xbd4d12dd	-0.050066818
125	0x3babcd6c	0.005242994
126	0xbce0637d	-0.02739119
127	0x3d3f47db	0.046699386
128	0x3d49e3c6	0.049289487
129	0xbc61bec3	-0.013778391
130	0x3d94babc	0.07262179
131	0xbcc1e146	-0.023666989
132	0x3df621ed	0.120181896
133	0xbd5617bd	-0.052268732
134	0xbdf933c8	-0.121680796
135	0x3c94e66c	0.01817628
136	0xbdbc5809	-0.09196479
137	0x3dea8e0c	0.114528745
138	0xbd6673b8	-0.0562627
139	0x3e17b921	0.14816715
140	0x3d53bc58	0.05169329
141	0xbdd0caee	-0.10194956
142	0x3de5c040	0.112183094
143	0xbd9f3e3f	-0.077755444
144	0x3ddd51d2	0.108066216
145	0x3d136549	0.035985265
146	0x3a017077	0.0004937718
147	0x3c48fb94	0.012267012
148	0x3dc2362e	0.0948299
149	0x3dceba71	0.100941546
150	0xbaa3dfa7	-0.0012502567
151	0xbd488583	-0.04895545
152	0xbd0d0153	-0.03442509
153	0xbdbae6d4	-0.09126058
154	0xbe197897	-0.14987408
155	0x3e03817e	0.12842366
156	0xbd4a2bca	-0.049358167
157	0xbd90b06f	-0.07064902
158	0xbc8ff4a7	-0.017572714
159	0x3bc08b2d	0.005875966
160	0xbd8d7681	-0.069073685
161	0x3ce5acb4	0.028036453
162	0xbdcecb9b	-0.100974284
163	0x3a4405ab	0.0007477651
164	0xbdd2bddb	-0.10290118
165	0x3c2940aa	0.0103303585
166	0x3ccd989a	0.02509718
167	0xbcef670b	-0.02922394
168	0x3daada2a	0.08342393
169	0xbdc6afff	-0.09701537
170	0xbcacd2b9	-0.021096574
171	0xbd8429bf	-0.06453275
172	0x3cf0f4f5	0.02941368
173	0xbde20f3d	-0.11038063
174	0x3d90bded	0.070674755
175	0xbde908f7	-0.11378663
176	0x3d34d460	0.04414785
177	0x3e006b13	0.12540846
178	0x3e05b1df	0.13056134
179	0xbde14501	-0.109994896
180	0x3d2e89d6	0.04261192
181	0x3c561e36	0.013068726
182	0x3dbbbc46	0.0916677
183	0x3dc311ec	0.09524903
184	0x3d918db4	0.07107106
185	0xbccfbaf0	-0.025357693
186	0x3d220f9b	0.039565664
187	0xbd12da21	-0.035852555
188	0xbd82bd9c	-0.06383821
189	0xbdae6287	-0.08514886
190	0xbd71715a	-0.05894599
191	0x3ce3f322	0.027825896
192	0xbdbce269	-0.09222872
193	0x3dcc8fd8	0.099883735
194	0x3b5b9327	0.0033504458
195	0xbd69453d	-0.056950796
196	0x3dbf4a1b	0.09340306
197	0xbd808188	-0.06274706
198	0xbe06f2f5	-0.13178618
199	0x3de0dc1e	0.10979484
200	0x3aaf374f	0.0013367924
201	0x3e11a9b7	0.14224897
202	0xbc8db1a1	-0.017296614
203	0xbd43fb4b	-0.047847074
204	0x3bec1428	0.0072045512
205	0xbd66dc97	-0.056362715
206	0xbdcf276e	-0.101149425
207	0xbdbbeaaa	-0.09175618
208	0x3d48398e	0.048883013
209	0xbc47d664	-0.012197111
210	0x3ac77a71	0.0015218985
211	0xbd48c2da	-0.04901395
212	0x3dd551fc	0.10416028
213	0xbdad5fbf	-0.08465528
214	0xbca32a8d	-0.01991775
215	0xbb5b8215	-0.0033494283
216	0x3c15d721	0.009145529
217	0xbd844591	-0.06458581
218	0x3d9cd620	0.076580286
219	0x3df26371	0.11835373
220	0x3d1979e2	0.037469752
221	0x3dc71039	0.09719891
222	0xbcd2b006	-0.0257187
223	0xbd96649d	-0.07343409
224	0xbd03c2ea	-0.032168306
225	0xbde1eef1	-0.110319026
226	0xbd324dd3	-0.04353125
227	0xbc032fc8	-0.008006997
228	0xbe029a3d	-0.1275415
229	0x3dba0a8c	0.09084043
230	0xbcdf04c0	-0.027223945
231	0xbd9f4e5b	-0.07778617
232	0xbdd43265	-0.103611745
233	0xbafef47d	-0.0019451525
234	0x3e02f5b0	0.12789035
235	0x3a03161f	0.000500055
236	0x3dce2515	0.100656666
237	0xbc724b69	-0.014788487
238	0xbd5a386e	-0.05327647
239	0xbdece03e	-0.11566208
240	0xbd832332	-0.06403197
241	0xbd38105a	-0.04493747
242	0x3db980dc	0.09057781
243	0xbd056118	-0.0325633
244	0xbd6b09a4	-0.05738224
245	0xbdfff9e0	-0.12498832
246	0xbcd1f984	-0.025631674
247	0xbc8207bb	-0.015872827
248	0xbc93ea9d	-0.018056208
249	0x3e11eb5e	0.14249942
250	0x3cb83c74	0.022489764
251	0x3cba0367	0.0227067
252	0x3dbaaed1	0.09115375
253	0x3df0cc7b	0.117577516
254	0x3ced0f24	0.028937884
255	0xbd00ce3a	-0.031446673
