model_group/models_group_weather/LSTM_model_MANHATTAN_YORK AVENUE.pth (torch, 356422 bytes, 17 tensors)

input_projection.weight f4 [7, 7]
0	0xbe2f6916	-0.17129931
1	0xbd825d83	-0.06365492
2	0xbe684640	-0.22683048
3	0x3e75af32	0.23992613
4	0x3e7ffcb8	0.24998748
5	0x3e715012	0.235657
6	0x3a252983	0.0006300436
7	0x3edf672b	0.43633398
8	0x3e0905ac	0.1338107
9	0xbc49f0dd	-0.012325493
10	0xbe20361d	-0.15645643
11	0x3e65b220	0.2243123
12	0x3e8da4a1	0.27664664
13	0x3e276991	0.16348864
14	0xbe30ed0c	-0.17277926
15	0xbea50d44	-0.32236683
16	0x3e76e4a3	0.24110655
17	0xbe7d6734	-0.247464
18	0xbe01adce	-0.12663957
19	0x3e9f7aa2	0.3114825
20	0xbe9aecab	-0.30258688
21	0x3e6d3d19	0.23167838
22	0xbecba04d	-0.39770737
23	0xbcc0d4c6	-0.023538958
24	0xbdb94326	-0.09046011
25	0xbdf88499	-0.12134666
26	0xbe83bffc	-0.2573241
27	0x3e72badf	0.23704098
28	0x3ec94109	0.3930743
29	0xbe3d2286	-0.18470201
30	0x3e56a950	0.20963025
31	0xbe80ae7f	-0.2513313
32	0xbde6446a	-0.11243518
33	0xbe86f1ba	-0.26356298
34	0xbe7c38f1	-0.24631096
35	0xbed4d80a	-0.41571075
36	0x3e869478	0.26285148
37	0xbe4dc10b	-0.20093171
38	0xbdd655e3	-0.104656
39	0xbd1fbccc	-0.03899841
40	0xbbed55d1	-0.007242896
41	0x3cabc030	0.020965666
42	0x3e9aec8d	0.302586
43	0x3e8a1ed8	0.26976657
44	0x3de727f3	0.112869166
45	0xbe2c61ee	-0.16834232
46	0xbe6f3aa9	-0.23362221
47	0x3e82d57f	0.2555351
48	0xbeaa7bdb	-0.3329762

input_projection.bias f4 [7]
0	0xbeaa561a	-0.33268815
1	0xbe5fdf69	-0.21862568
2	0xbe8ac195	-0.27100816
3	0x3e841876	0.25799912
4	0x3c530472	0.012879478
5	0x3e75c1d3	0.2399972
6	0x3e8d4641	0.27592662

cells.0.x2h.weight f4 [256, 7]
0	0xbed2ea7a	-0.41194516
1	0x3ec28681	0.37993243
2	0x3e4e55b0	0.20149875
3	0x3e1ab377	0.15107523
4	0x3ed6363f	0.4183826
5	0x3ec60170	0.38672972
6	0xbe67effd	-0.22650142
7	0x3ee8b9f2	0.45454365
8	0xbe6bbfc3	-0.2302237
9	0x3e7a267b	0.24428742
10	0xbcc6f67c	-0.024287455
11	0xbe477896	-0.19479594
12	0xbe3a01d5	-0.18164761
13	0xbe83fe18	-0.25779796
14	0xbe71fde9	-0.23632015
15	0xbe8a8222	-0.27052408
16	0xbe05d738	-0.1307038
17	0xbeb5dd04	-0.35520184
18	0x3e65e29a	0.22449723
19	0xbdea2c5d	-0.11434243
20	0x3e475dd5	0.19469388
21	0xbda1ad92	-0.07894434
22	0xbda0393a	-0.07823415
23	0xbded8a2c	-0.1159862
24	0x3e8e030e	0.27736706
25	0x3e06aec9	0.13152613
26	0xbec00884	-0.37506497
27	0xbbcdc61d	-0.0062797205
28	0x3ec52e33	0.3851181
29	0x3d68265d	0.05667721
30	0x3e1cf1dd	0.15326639
31	0xbe7bacf5	-0.24577697
32	0xbf070a54	-0.52750134
33	0xbe8878d9	-0.266547
34	0x3dd2209c	0.10260126
35	0xbe835ddc	-0.25657547
36	0x3e9ad7aa	0.30242664
37	0xbec9aa86	-0.39387912
38	0xbe84fe4a	-0.25975257
39	0xbec9eba5	-0.39437595
40	0x3e0382a9	0.12842812
41	0x3dd5c725	0.104383744
42	0xbca63719	-0.020289944
43	0x3d596f04	0.05308439
44	0xbe3ad340	-0.18244648
45	0x3bd96d84	0.0066353697
46	0xbee06467	-0.438266
47	0xbda52b92	-0.08064951
48	0xbebc3d42	-0.36765486
49	0xbe135373	-0.14387302
50	0xbea02fa2	-0.3128634
51	0x3d7fba61	0.062433604
52	0xbe285b35	-0.16441043
53	0xbe1ada64	-0.15122372
54	0x3ccd11f6	0.025032979
55	0xbdeb63b9	-0.1149363
56	0xbe399aa7	-0.18125401
57	0xbe971867	-0.29510805
58	0x3e661f48	0.2247287
59	0xbe952913	-0.291329
60	0xbd7bf2a1	-0.061510686
61	0xbe903e01	-0.28172305
62	0x3e5c8fe3	0.21539263
63	0x3ea77daa	0.32713062
64	0xbe764fa2	-0.24053815
65	0xbe9ebb3b	-0.3100222
66	0x3e89c97f	0.26911542
67	0x3eb14373	0.34621772
68	0xbea39cc1	-0.3195553
69	0x3eb4b2b8	0.35292602
70	0x3e1d349e	0.15352103
71	0xbe411183	-0.18854336
72	0xbed3e134	-0.41382754
73	0xbe5639d8	-0.20920503
74	0x3e269db1	0.16271092
75	0xbdbac9eb	-0.09120544
76	0x3e28d9ea	0.16489378
77	0xbdaabdc9	-0.0833698
78	0xbe1bac7e	-0.1520252
79	0xbe8b3464	-0.27188408
80	0xbe82cf48	-0.25548768
81	0xbdd46e39	-0.10372586
82	0xbec77b78	-0.38961387
83	0x3ea034fc	0.31290424
84	0x3e737708	0.23775876
85	0x3e6e4ae3	0.23270755
86	0x3d85d55c	0.06534836
87	0xbec7dea4	-0.3903705
88	0x3ea2c30d	0.31789437
89	0xbe50fbdc	-0.20408577
90	0x3e8e6497	0.2781112
91	0x3e96c8e3	0.2945014
92	0x3e3be1fb	0.18347923
93	0x3eb900ff	0.36133572
94	0xbe731e32	-0.23741987
95	0x3e465456	0.19368109
96	0xbd2dbc5c	-0.04241596
97	0x3e2a1149	0.16608156
98	0xbe1bcab0	-0.15214038
99	0xbea2cd32	-0.31797177
100	0xbdb41aff	-0.087942116
101	0x3e176fe7	0.14788781
102	0xbd973934	-0.073839575
103	0x3eb21b01	0.34786227
104	0xbeb59530	-0.35465384
105	0x3ea7d43f	0.32779118
106	0xbe871700	-0.26384735
107	0x3d0c7742	0.03429342
108	0x3e279b9f	0.16367958
109	0xbedd2dd8	-0.43199039
110	0x3eceb869	0.4037507
111	0xbed3b6d6	-0.4135043
112	0x3ceb23e7	0.028703643
113	0xbec973fc	-0.39346302
114	0x3e1efa70	0.15525222
115	0x3d1c55eb	0.038167875
116	0xbe0e7403	-0.13911442
117	0x3eb8fb07	0.3612902
118	0xbe054c8e	-0.13017485
119	0xbd9bf638	-0.07615322
120	0x3e8fb27e	0.28065866
121	0x3bb16a6c	0.005414298
122	0x3e9853e9	0.29751518
123	0x3e952892	0.29132515
124	0x3ed7e2d9	0.4216526
125	0xbdd49bf5	-0.10381309
126	0x3d5feeb5	0.05467101
127	0xbeb63681	-0.35588458
128	0x3e38e857	0.1805738
129	0x3eacb87f	0.3373451
130	0xbeb53f2f	-0.35399768
131	0x3e8268df	0.25470635
132	0x3c95e432	0.018297289
133	0x3e9b8d6c	0.30381334
134	0x3cea5b26	0.028607916
135	0xbdb84830	-0.08998144
136	0x3e416df4	0.188896
137	0x3cdc39e1	0.026883068
138	0xbcc48bed	-0.023992503
139	0x3e39066d	0.18068857
140	0x3eb4550f	0.35221145
141	0xbed6b077	-0.41931507
142	0xbdf0d761	-0.1175983
143	0xbde93c4a	-0.11388452
144	0xbe44c705	-0.19216545
145	0xbe472680	-0.1944828
146	0x3da36475	0.07978145
147	0x3d6625e9	0.056188498
148	0x3ee23335	0.44179693
149	0xbe49e16c	-0.19714898
150	0xbc3e9001	-0.011631013
151	0x3ee4af2b	0.44664893
152	0xbe7450f8	-0.23859012
153	0xbd623783	-0.05522872
154	0x3e935a96	0.2878005
155	0x3e9eaabd	0.30989638
156	0xbde08f89	-0.10964877
157	0xbe93997a	-0.2882803
158	0xbe25da79	-0.16196622
159	0xbcbe5622	-0.02323443
160	0x3e0bb47c	0.13643068
161	0x3e74a9a3	0.23892836
162	0xbd48b91a	-0.04900465
163	0x3e684d19	0.2268566
164	0x3e2226fc	0.15835184
165	0x3e01127e	0.1260471
166	0xbde790af	-0.11306893
167	0xbe929b07	-0.286339
168	0x3d98a7ed	0.07453904
169	0x3e8518d3	0.25995502
170	0x3ea164a3	0.31522092
171	0x3ed7f7e7	0.42181322
172	0xbd0ca0b4	-0.034332946
173	0x3d57b20f	0.052660044
174	0x3e2fe20a	0.17176071
175	0x3e570c5b	0.21000807
176	0x3c43017c	0.011902209
177	0xbde47770	-0.111555934
178	0x3e67917e	0.22614095
179	0xbe152372	-0.14564303
180	0x3dd3b133	0.103365324
181	0xbd936806	-0.07197575
182	0xbdf65943	-0.12028744
183	0xbeb80f1a	-0.35949022
184	0x3e1c7f83	0.15283017
185	0xbc439bc7	-0.011938996
186	0xbdabf50b	-0.083963476
187	0x3ed287ea	0.4111932
188	0x3e56c031	0.20971753
189	0x3e47c888	0.1951009
190	0x3df4453f	0.1192727
191	0x3e95307a	0.29138547
192	0xbd3b2419	-0.045688722
193	0x3e3ba74e	0.1832554
194	0x3e8a3fa1	0.2700167
195	0x3dbcd7f2	0.09220876
196	0x3e445ccf	0.19176029
197	0x3e9f7428	0.31143308
198	0x3eb3a954	0.35090125
199	0x3eb0b047	0.3450949
200	0xbe25b415	-0.16181977
201	0xbebdff7d	-0.37108985
202	0xbecb2219	-0.39674452
203	0x3e7fc40c	0.2497713
204	0x3d743f2e	0.059630565
205	0x3d9d8174	0.07690707
206	0x3eb625d8	0.35575747
207	0xbe93da89	-0.28877667
208	0x3eddeb5c	0.43343627
209	0xbd8d709b	-0.069062434
210	0x3d3cabb7	0.046062198
211	0xbe320636	-0.17385182
212	0xbe8f7754	-0.28020728
213	0xbe3a7b57	-0.18211113
214	0xbe34cae6	-0.17655525
215	0x3ee741ac	0.4516729
216	0xbdd7b933	-0.10533371
217	0x3ed09d72	0.4074512
218	0x3cb37742	0.021907452
219	0xbe1b919f	-0.15192269
220	0x3deb9f8a	0.11505039
221	0xbe234c84	-0.15947157
222	0x3e0283f4	0.12745649
223	0x3e10d0b8	0.1414212
224	0x3eb9d16c	0.3629259
225	0xbd6cb5b3	-0.05779047
226	0xbe22f841	-0.15915014
227	0xbeca04d8	-0.3945682
228	0xbe92a2d1	-0.28639844
229	0xbea8129d	-0.328267
230	0x3e31c9fc	0.17362207
231	0xbe779179	-0.24176587
232	0x3e5aea0b	0.21378343
233	0xbed65c71	-0.41867402
234	0x3e8c2d99	0.27378538
235	0x3e84c814	0.25933897
236	0x3e662308	0.22474301
237	0x3e36677a	0.1781291
238	0x3e197605	0.14986427
239	0x3def50c5	0.116853274
240	0x3acce42a	0.0015631963
241	0x3e9a5c7c	0.30148685
242	0xbdf6cbe9	-0.120506115
243	0x3e4c7fef	0.19970678
244	0x3e873c41	0.26413158
245	0x3de9e5b9	0.11420769
246	0x3e8f21b7	0.2795541
247	0x3e5a3497	0.21309124
248	0x3df55537	0.11979144
249	0x3ea4f514	0.3221823
250	0x3e0dd4e0	0.13850737
251	0xbe96fc38	-0.29489303
252	0x3e0c8c61	0.13725425
253	0xbebe35e5	-0.37150493
254	0x3dc166a3	0.094434045
255	0xbe16d5d4	-0.14730006

cells.0.x2h.bias f4 [256]
0	0xbe86e961	-0.2634993
1	0x3e45dfed	0.19323702
2	0xbe953fbb	-0.29150185
3	0x3e89624f	0.26832816
4	0x3e30d5fd	0.1726913
5	0x3dc66933	0.09688034
6	0x3e4fcb99	0.2029251
7	0x3e9a1788	0.30096078
8	0xbea501fb	-0.32228073
9	0xbe007673	-0.12545185
10	0x3eabc944	0.3355199
11	0xbe80197d	-0.25019446
12	0xbdab9787	-0.08378511
13	0x3ddd4470	0.10804069
14	0x3ea79301	0.32729343
15	0xbeba3cbc	-0.36374462
16	0xbe206785	-0.1566449
17	0xbea21d56	-0.31663007
18	0x3d4dc1a6	0.050233506
19	0x3ea6b9c8	0.32563615
20	0x3e3fdb3a	0.18735972
21	0x3dd3e0f4	0.10345641
22	0x3e3c1b3d	0.18369766
23	0x3e52552d	0.20540304
24	0x3d18a420	0.037265897
25	0x3ed22d5c	0.4105023
26	0xbea0da7b	-0.31416687
27	0xbd746208	-0.059663802
28	0xbe98f3fe	-0.2987365
29	0x3e0bb214	0.1364215
30	0x3d6f387b	0.058403473
31	0xbe636ad9	-0.22208728
32	0x3e366277	0.17810999
33	0x3d46392d	0.04839437
34	0xbe761d0d	-0.2403452
35	0xbeaae9a4	-0.3338138
36	0xbe0ca59c	-0.1373505
37	0x3d822a84	0.063557655
38	0x3ecbe4be	0.39822954
39	0x3d85dc52	0.065361634
40	0xbe1c23b3	-0.15247993
41	0x3cfd9f4c	0.030959748
42	0x3e657775	0.2240885
43	0x3da02918	0.07820338
44	0xbe6942ed	-0.22779436
45	0xbe37e209	-0.1795732
46	0xbe2d31f6	-0.1691359
47	0x3eb83265	0.35975948
48	0xbe9160f8	-0.28394294
49	0x3ceb732b	0.02874144
50	0x3d19f758	0.0375894
51	0x3e87767f	0.26457593
52	0xbe0b2f7e	-0.13592336
53	0x3e1f4156	0.15552267
54	0x3e48fcd9	0.19627704
55	0xbe04ffb2	-0.12988165
56	0x3dbffca3	0.093743585
57	0xbd5a7609	-0.053335223
58	0x3e98ced4	0.29845297
59	0xbd9387c9	-0.07203633
60	0x3d0855c9	0.033284936
61	0xbd858a37	-0.06520503
62	0xbd54fa6b	-0.05199663
63	0xbd9350f0	-0.07193172
64	0xbd2c8637	-0.042120185
65	0xbe8ea6b3	-0.27861556
66	0x3e1f4fa9	0.15557732
67	0x3e9a3333	0.30117187
68	0x3b8fb899	0.0043860194
69	0xbe867908	-0.26264215
70	0xbe803f79	-0.25048426
71	0xbcad0b9b	-0.021123698
72	0xbeb36b23	-0.35042676
73	0x3ea5716d	0.323131
74	0x3e7bafb3	0.24578743
75	0xbea0feed	-0.31444493
76	0x3eb0b6da	0.34514505
77	0xbeab4d7e	-0.3345756
78	0xbdcf7bb1	-0.10131014
79	0x3e50854c	0.20363349
80	0x3eb78b39	0.35848406
81	0x3cb6c876	0.022312384
82	0x3e963d53	0.29343662
83	0x3d3abcd3	0.045590233
84	0x3ea7a41c	0.32742393
85	0x3ec23bce	0.37936252
86	0x3ebae6a6	0.36504096
87	0x3df7e3a1	0.12103964
88	0x3e34834d	0.17628212
89	0xbe76b8f2	-0.24093989
90	0xbe780dd0	-0.24224019
91	0xbe1a52f2	-0.15070704
92	0x3e444a79	0.19169034
93	0xbd987b35	-0.07445375
94	0x3e804eed	0.25060216
95	0xbe4a37f1	-0.19747902
96	0xbcdd9748	-0.027049676
97	0x3eb4489d	0.3521165
98	0x3e1a0a74	0.1504305
99	0xbd9da8cb	-0.0769821
100	0x3e5bcede	0.21465632
101	0xbaac3e08	-0.0013141045
102	0x3d89a4fb	0.06720921
103	0x3e924d49	0.2857459
104	0x3e2cdeb2	0.16881827
105	0x3eb65055	0.35608163
106	0xbeadb9f7	-0.33930942
107	0x3e854290	0.26027346
108	0x3e16b4c8	0.147174
109	0x3df75479	0.12076659
110	0x3d780e37	0.06056043
111	0xbe9f9a4d	-0.3117241
112	0xbe5c84af	-0.2153499
113	0x3e95f2ed	0.292869
114	0xbe2a357a	-0.16621962
115	0x3e73410a	0.23755279
116	0x3e5847e6	0.21121177
117	0xbdf5a11b	-0.11993619
118	0x3e82e9c1	0.25568965
119	0x3ea4c9fa	0.32185346
120	0x3e3d1d52	0.18468216
121	0x3e251815	0.16122468
122	0xbe44e75d	-0.19228883
123	0xbbbef859	-0.005827945
124	0x3ea7c7c8	0.32769608
125	0xbd017eb2	-0.031614967
126	0xbe1547d8	-0.14578187
127	0x3d3f71c3	0.04673935
128	0x3da17626	0.07883863
129	0x3d799d37	0.060940947
130	0x3ea69db6	0.325422
131	0xbd0425b1	-0.032262508
132	0x3d05631f	0.032565232
133	0x3e6b1f6f	0.2296121
134	0x3e8bd8f7	0.2731397
135	0x3e654534	0.2238968
136	0x3e865eca	0.26244193
137	0xbe614fff	-0.22003172
138	0xbe073212	-0.13202694
139	0x3e04fd3b	0.12987225
140	0xbe0c5267	-0.13703309
141	0xbe69a0a4	-0.22815186
142	0x3ec5f2c9	0.38661793
143	0x3e82f26a	0.25575572
144	0x3eae7d95	0.34080186
145	0xbe524886	-0.20535478
146	0x3ddf9f16	0.10919015
147	0x3e8ca511	0.27469686
148	0xbe25d24a	-0.161935
149	0x3ea94ae1	0.3306494
150	0xbe033df5	-0.12816603
151	0x3e24c704	0.16091543
152	0xbe150963	-0.14554362
153	0x3e50b4b1	0.20381428
154	0x3e22fc59	0.15916575
155	0x3e92a859	0.28644064
156	0x3dd4763e	0.103741154
157	0xbe292735	-0.16518863
158	0x3e850411	0.25979665
159	0x3dce4484	0.10071662
160	0xbeb3cdca	-0.35117942
161	0x3e8e560e	0.2780003
162	0xbe217c5f	-0.157701
163	0x3e376acf	0.17911838
164	0x3e3e24dd	0.1856875
165	0x3dad4728	0.084608376
166	0xbe9eb921	-0.31000617
167	0x3e1c2662	0.15249017
168	0x3ec3d6f2	0.38249928
169	0x3e47b160	0.19501257
170	0xbd4ffe7a	-0.050779797
171	0x3e8a28c2	0.2698422
172	0x3e3ccbf0	0.18437171
173	0x3ea26aa6	0.3172199
174	0xbeb28ffc	-0.34875476
175	0x3d4ff19a	0.05076752
176	0x3e033426	0.12812862
177	0x3aeceba8	0.0018075602
178	0xbe95da76	-0.29268235
179	0xbdb9b368	-0.09067422
180	0xbe87591a	-0.26435167
181	0xbeab8114	-0.33496916
182	0x3da2f649	0.079571314
183	0x3e094917	0.13406788
184	0x3e440073	0.19140796
185	0x3e729f07	0.23693477
186	0xbdda61dd	-0.10663197
187	0xbe308981	-0.17239954
188	0xbe8dea2d	-0.27717724
189	0xbe4108b4	-0.18850976
190	0xbd0400d2	-0.032227345
191	0x3d8b8036	0.06811564
192	0xbe8154b7	-0.25259945
193	0xbe01e8de	-0.12686488
194	0x3e33d29e	0.17560813
195	0x3ec2e180	0.38062668
196	0xbe1dad22	-0.15398076
197	0x3e787c17	0.24266087
198	0xbdb75709	-0.089521475
199	0xbe2af854	-0.16696292
200	0x3de46037	0.11151164
201	0x3e22a60b	0.15883653
202	0xbe4f8906	-0.20267114
203	0x3ea68ba6	0.32528418
204	0x3dbaa6e7	0.09113865
205	0xbda0b5f5	-0.078472055
206	0xbd06623f	-0.03280854
207	0x3e1ba967	0.1520134
208	0xbe8ecd40	-0.27890968
209	0xbe248a9b	-0.16068499
210	0x3e086edd	0.13323541
211	0x3de4cd1d	0.11171935
212	0xbd570cd2	-0.05250246
213	0x3dbd7931	0.09251631
214	0x3e247802	0.16061404
215	0xbd609c48	-0.05483654
216	0x3df491d1	0.11941875
217	0xbe4fd761	-0.20297004
218	0xbdaec5dd	-0.08533833
219	0x3eba79f0	0.36421156
220	0x3d85de6c	0.06536564
221	0x3dd658c3	0.10466149
222	0xbe964d4d	-0.2935585
223	0xbd19e28e	-0.037569575
224	0xbe7feb6f	-0.24992155
225	0x3de40b7b	0.11135002
226	0xbe83b1c3	-0.2572156
227	0xbea98c6e	-0.33114952
228	0x3d15ca0f	0.03656965
229	0x3c44321e	0.0119748395
230	0x3eb3d300	0.35121918
231	0xbe242adb	-0.16031973
232	0x3e97bfef	0.2963862
233	0xbe8a8e59	-0.27061728
234	0x3c3bb091	0.011455671
235	0x3c761392	0.015019314
236	0xbdd93709	-0.106062
237	0x3ed0efae	0.4080786
238	0xbe646119	-0.22302665
239	0xbe8450bc	-0.25842845
240	0xbea629ec	-0.3245386
241	0x3e849949	0.25898197
242	0xbdb49e66	-0.088192746
243	0x3e1d5c35	0.15367205
244	0xbeb6c3d3	-0.35696277
245	0x3c3e0ab2	0.01159923
246	0xbdcd314a	-0.10019167
247	0xbdb7dd07	-0.089777045
248	0xbea6b7ed	-0.325622
249	0x3ddef989	0.10887439
250	0x3e73e8ce	0.23819277
251	0x3d112a8e	0.035440974
252	0x3deca685	0.115551986
253	0x3eb926d9	0.3616245
254	0xbcf38c0b	-0.029729864
255	0xbcf97705	-0.03045226

cells.0.h2h.weight f4 [256, 64]
0	0xbe07ce3e	-0.13262269
1	0x3e279cd0	0.16368413
2	0x3cf22c17	0.02956204
3	0x3de25de0	0.110530615
4	0x3e05ae59	0.1305479
5	0xbd120010	-0.03564459
6	0xbbdcb41f	-0.0067353393
7	0x3de09320	0.10965562
8	0xbd089ca5	-0.033352513
9	0xbc359f22	-0.0110853035
10	0xbe111a23	-0.14170127
11	0xbe0393c8	-0.12849343
12	0x3dda2d71	0.106531985
13	0xbd13b839	-0.03606436
14	0x3dcf2cc4	0.1011596
15	0x3dc8ff51	0.09814323
16	0x3e35b663	0.17745356
17	0xbd831310	-0.0640012
18	0xbe25dcfe	-0.16197583
19	0x3d1ee028	0.03878799
20	0xbc1421fe	-0.0090413075
21	0x3dea748a	0.11448009
22	0x3e129d00	0.14317703
23	0xbd9bbf48	-0.076048434
24	0xbd147f6f	-0.036254343
25	0xbc6cf7ed	-0.014463407
26	0x3e8580fa	0.26074964
27	0xbdd75805	-0.10514835
28	0xbcf1e32a	-0.029527266
29	0x3e11912e	0.14215538
30	0xbb9f3114	-0.0048581455
31	0x3d72e2f4	0.05929847
32	0xbdd413f2	-0.10355367
33	0x3c8c8c28	0.017156675
34	0xbd0ae001	-0.033905033
35	0xbc1b4b56	-0.009478411
36	0xbd3bf240	-0.045885324
37	0xbd6d8d7f	-0.05799627
38	0x3db7f34f	0.08981954
39	0x3d8742e0	0.06604552
40	0x3e514970	0.2043817
41	0x3dc6dad1	0.09709705
42	0xbc722634	-0.014779616
43	0xbdacc069	-0.08435137
44	0xbd983ae2	-0.07433106
45	0xbd8801da	-0.06640978
46	0x3ddf97ec	0.10917649
47	0xbd2e6b5b	-0.04258285
48	0x3c6021aa	0.013679901
49	0xbd2c94d8	-0.042134136
50	0x3d089bf5	0.033351857
51	0xbd6d3d4f	-0.057919797
52	0xbd5b0c1a	-0.053478338
53	0x3d8006b6	0.0625128
54	0x3ddb6676	0.10712902
55	0x3dc3c41c	0.09558889
56	0x3d9df9d5	0.07713667
57	0x3d4b56c0	0.049643278
58	0x3d5a9e78	0.053373784
59	0x3d9bf9b3	0.07615986
60	0x3cc75e04	0.024336822
61	0xbe272741	-0.16323568
62	0xbd2eb958	-0.042657226
63	0xbddcf5d5	-0.10789076
64	0x3e81c907	0.25348684
65	0xbdb97b95	-0.090567745
66	0x3e03eb36	0.12882695
67	0x3df08b24	0.11745289
68	0xbe2352df	-0.15949582
69	0x3d856299	0.06512947
70	0xbd6ad333	-0.05733032
71	0x3d0c0275	0.03418203
72	0x3e42fefa	0.19042578
73	0xbd59f5c0	-0.05321288
74	0xbd1f737d	-0.038928498
75	0x3caa788d	0.020809436
76	0x3c6c1b64	0.014410827
77	0xbe13193b	-0.14365093
78	0x3e18f43e	0.14936921
79	0x3e1530e4	0.14569432
80	0x3d680b63	0.056651484
81	0xbdf4cff1	-0.11953724
82	0x3e0b9a95	0.13633187
83	0x3e0da921	0.13834049
84	0xbe812263	-0.25221547
85	0x3e63b7d2	0.2223809
86	0xbdd8d91e	-0.10588287
87	0x3e2fe8e3	0.17178683
88	0x3da9a6b9	0.08283753
89	0x3d3f6f8e	0.046737246
90	0xbd03f980	-0.032220364
91	0x3e04ce35	0.12969287
92	0x3df82a09	0.121173926
93	0xbd1c25a4	-0.038121834
94	0x3db7525c	0.08951256
95	0xbc41280f	-0.011789336
96	0xbde44c5e	-0.111473784
97	0x3e1f90cf	0.15582584
98	0x3da30d73	0.079615496
99	0xbcf687bb	-0.030094018
100	0xbda7f676	-0.082013056
101	0x3ccb68ab	0.024830183
102	0xbe0d00f5	-0.13769896
103	0x3d31a4a3	0.0433699
104	0x3e103cfd	0.14085765
105	0xbd5aeff1	-0.053451482
106	0xbd833864	-0.0640724
107	0xbd41cd29	-0.047314797
108	0x3cfff18d	0.03124311
109	0x3cce7626	0.025202822
110	0x3b8ba0dc	0.0042611193
111	0xbdd2bbbf	-0.10289716
112	0xbddf0651	-0.10889877
113	0xbdcf64ff	-0.10126685
114	0xbde932a8	-0.11386615
115	0xbe035d10	-0.1282847
116	0xbd2fe57b	-0.04294346
117	0xbe31dc16	-0.17369112
118	0xbc625a56	-0.013815483
119	0x3da12005	0.07867435
120	0x3a5dc77d	0.0008460207
121	0x3e414ff0	0.1887815
122	0xbd4c7fe9	-0.049926672
123	0xbdc5d693	-0.096600674
124	0xbea2a268	-0.3176453
125	0xbc35b6bb	-0.01109093
126	0xbd2f4346	-0.042788766
127	0x3de52e84	0.11190513
128	0x3d181993	0.037133764
129	0x3da14b5f	0.07875704
130	0x3d353e28	0.04424873
131	0x3d9abdbd	0.07555721
132	0xbd9daaa2	-0.07698561
133	0xbd97ffc6	-0.07421832
134	0x3d3eb2f7	0.046557393
135	0xbda9c833	-0.08290138
136	0x3d79eacf	0.061014947
137	0x3df913bf	0.121619694
138	0x3c21d867	0.0098782545
139	0x3d393e2f	0.04522532
140	0x3de04157	0.109499626
141	0x3aa62ebb	0.0012678722
142	0x3df3da34	0.11906853
143	0x3e18ace0	0.14909697
144	0x3e17f18d	0.14838238
145	0xbd32d897	-0.043663587
146	0x3cc3115d	0.02381199
147	0x3e0f286f	0.13980268
148	0x3d275788	0.04085496
149	0x3dcd3915	0.10020653
150	0x3d13d641	0.036093
151	0x3d650be2	0.055919535
152	0xbd492984	-0.049111858
153	0xbbee375b	-0.0072697825
154	0xbc0f117f	-0.008732199
155	0x3e1498fd	0.14511485
156	0x3e11c1ce	0.14234087
157	0xbde4685f	-0.1115272
158	0x3e164250	0.14673734
159	0xbc9d3154	-0.01918856
160	0xbca3dd3a	-0.02000295
161	0x3dcdf821	0.100570925
162	0xbdd794c9	-0.105264254
163	0xbda432af	-0.0801748
164	0xbd9e3f96	-0.07726972
165	0x3dad3278	0.08456892
166	0xbdcfb0ac	-0.10141119
167	0x3c15697d	0.009119389
168	0x3ad97611	0.0016590973
169	0x3e18dbe1	0.14927627
170	0xbd4555a9	-0.048177395
171	0x3e047755	0.12936147
172	0x3e1c3285	0.15253647
173	0xbd46ddb5	-0.04855128
174	0xbdcc488b	-0.09974774
175	0xbd9952d7	-0.074865036
176	0xbcbac9d3	-0.022801315
177	0xbb8dc76b	-0.004326751
178	0xbd83cdff	-0.06435775
179	0x3d391d82	0.045194156
180	0xbc582fdb	-0.013195003
181	0xbdeafa5c	-0.114735335
182	0xbde941e7	-0.11389523
183	0xbb10894c	-0.0022054492
184	0xbda801c9	-0.082034655
185	0xbd3448dc	-0.044014797
186	0x3d8dc493	0.06922259
187	0x3c5fddbb	0.0136637045
188	0xbddcab67	-0.1077488
189	0x3d5866d8	0.052832454
190	0x3d0b7241	0.034044508
191	0xbd3875a9	-0.045034084
192	0x3e0893da	0.13337651
193	0x3df8cc06	0.121482894
194	0xbb78dc66	-0.0037973165
195	0x3df62ac7	0.12019878
196	0xbd334b53	-0.043773007
197	0xbd2b729e	-0.041857354
198	0x3dd27778	0.10276693
199	0xbd03055a	-0.031987526
200	0x3e53c30e	0.20679876
201	0xbde84ee8	-0.11343175
202	0x3e02043a	0.12696925
203	0xbdd0fc41	-0.102043636
204	0xbd92dd85	-0.07171158
205	0xbe1a0d4b	-0.15044133
206	0x3de42d74	0.11141482
207	0x3dae0f57	0.084990196
208	0xbb5f3cae	-0.0034063268
209	0x3d1be33b	0.0380585
210	0xbe00e4e4	-0.12587315
211	0xbda18128	-0.07885963
212	0x3c0722a7	0.008248008
213	0x3cfd8549	0.030947344
214	0x3cc91061	0.024543943
215	0x3e1d1b45	0.15342434
216	0xbe09976c	-0.13436669
217	0xbe15a2c9	-0.14612879
218	0x3df1bb78	0.11803335
219	0x3df645da	0.12025042
220	0x3dde75c5	0.108623065
221	0xbdadab66	-0.08479957
222	0x3d035913	0.03206737
223	0x3d4ba10e	0.04971414
224	0x3c60be10	0.013717189
225	0x3dec2c8d	0.11531935
226	0xbdf7303f	-0.12069749
227	0x3d96b1c3	0.07358124
228	0x3d00f7fe	0.031486504
229	0x3d6c97e1	0.05776203
230	0x3d1a16d5	0.03761943
231	0xbc117f7b	-0.008880491
232	0x3d8bc644	0.068249255
233	0xbdb0d1aa	-0.0863374
234	0xbd217303	-0.039416324
235	0xbd6865e9	-0.056737814
236	0x3ccd2ad4	0.025044836
237	0x3d8826c9	0.06648023
238	0xbd03c421	-0.032169465
239	0x3d533b7b	0.051570397
240	0x3c983627	0.01858051
241	0xbce73bd9	-0.02822678
242	0x3d9bd234	0.076084524
243	0xbe14f7e6	-0.14547691
244	0xbd5e9a7b	-0.054346543
245	0xbe23e2bc	-0.16004461
246	0x3e071bfc	0.13194269
247	0x3e0bdd49	0.13658632
248	0xbdc0abb2	-0.09407748
249	0xbc0753cf	-0.008259728
250	0x3dee5d1a	0.116388515
251	0xbda64bf6	-0.08119957
252	0xbe19e813	-0.15029936
253	0xbdaa9425	-0.083290376
254	0x3e143aff	0.1447563
255	0xbd0d49af	-0.0344941

cells.0.h2h.bias f4 [256]
0	0x3e03f39f	0.12885903
1	0x3dbff0d5	0.09372107
2	0x3d549cd8	0.05190739
3	0xbda44cc8	-0.08022457
4	0x3d15a302	0.03653241
5	0x3cb6c3ab	0.022310099
6	0xbde40a02	-0.11134721
7	0x3c9d3729	0.019191341
8	0x3d30f362	0.043200858
9	0xbde8b464	-0.11362532
10	0xbda3ad21	-0.07992006
11	0x3c912915	0.017719785
12	0xbd87b7f7	-0.066268854
13	0xbdfb1fb2	-0.12261905
14	0x3cc7a278	0.024369463
15	0xbcfbebf2	-0.030752156
16	0x3d5bdbbb	0.05367635
17	0x3cd591a9	0.026070433
18	0xbd91fbe7	-0.07128125
19	0x3d7396f5	0.059470136
20	0xbcf3db93	-0.029767787
21	0x3dfde70e	0.12397586
22	0x3d9f8442	0.07788898
23	0xbda607f2	-0.08106984
24	0x3d900d6b	0.07033809
25	0x3c60759f	0.013699918
26	0x3e25f76c	0.16207665
27	0x3d8a61b4	0.06756917
28	0x3dc65a15	0.096851505
29	0xbd417238	-0.047228068
30	0xbca144ff	-0.01968622
31	0xbbfc3090	-0.007696219
32	0xbd89c0fa	-0.067262605
33	0x3dc00b69	0.09377176
34	0xbdbf4631	-0.0933956
35	0x3c99b515	0.018763104
36	0x3e36d7b2	0.17855719
37	0x3d094064	0.033508673
38	0xbd83c9f6	-0.06435005
39	0x3da6ef18	0.08151072
40	0xbcae6f45	-0.021293292
41	0x3dc12379	0.09430594
42	0xbcd34b10	-0.025792629
43	0x3d85e9da	0.06538744
44	0xbcb2b010	-0.021812469
45	0x3a6ffc11	0.0009154687
46	0x3d3d1458	0.04616198
47	0x3dacf2cd	0.08444748
48	0x3d8b571d	0.06803725
49	0x3bb1b41f	0.0054230834
50	0x3dc9d4ab	0.09855016
51	0x3db7b973	0.089709185
52	0xbda77a43	-0.081776164
53	0xbde35be1	-0.11101509
54	0x3e002bfd	0.1251678
55	0xbdddf062	-0.10836865
56	0x3d890aa9	0.066914864
57	0x3da44b31	0.08022154
58	0xbb5b515f	-0.003346525
59	0x3d487a56	0.048944794
60	0x3e028045	0.12744243
61	0x3cd1b633	0.025599575
62	0x3dede058	0.11615056
63	0x3dc46f2c	0.09591517
64	0xbca9dd80	-0.020735502
65	0x3e1995c0	0.14998531
66	0x3d23492a	0.039864697
67	0x3d558a70	0.052133977
68	0x3cf68890	0.030094415
69	0xbdc0d22d	-0.09415088
70	0x3d07db81	0.03316832
71	0x3c88153d	0.01661169
72	0xbcce2ea0	-0.025168717
73	0xbdee7e24	-0.11645153
74	0x3d81de9a	0.06341286
75	0x3e0e2937	0.1388291
76	0x3de0eb9e	0.109824404
77	0xbe020e5c	-0.1270079
78	0xbc6dc21d	-0.014511612
79	0x3d8f7848	0.07005364
80	0x3d9456c8	0.07243115
81	0x3d4dd326	0.050250195
82	0xbe10a5d8	-0.14125764
83	0x3df07f8a	0.11743076
84	0xbd9e6c2b	-0.07735475
85	0x3e246306	0.160534
86	0xbdb89c32	-0.09014167
87	0x3cc0123b	0.023446193
88	0x3da8e54b	0.08246859
89	0x3d9d7b7f	0.07689571
90	0xbcca39ab	-0.024685701
91	0x3daa6ffe	0.08322142
92	0x3cb72dda	0.02236073
93	0xbd549ca8	-0.05190721
94	0xbdca2a23	-0.09871318
95	0xbdb6bf26	-0.089231774
96	0x3c7df367	0.015499926
97	0x3d0f88d2	0.03504259
98	0xbc8b1ab3	-0.016980505
99	0xbc9adc72	-0.018903945
100	0x3d45646d	0.048191477
101	0xbd5ac6de	-0.05341231
102	0x3dcfa2c4	0.10138467
103	0x3dbaae63	0.09115293
104	0x3e3edae5	0.18638189
105	0x3db0c2f6	0.08630936
106	0x3dc23504	0.09482768
107	0xbdd166cf	-0.10224687
108	0xbcc9cb9b	-0.02463322
109	0xbd14f23b	-0.03636382
110	0xbdbae0c6	-0.091249034
111	0x3d1a6662	0.037695296
112	0x3db65abd	0.08904026
113	0xbdbf9f6b	-0.093565784
114	0x3dd8aab7	0.10579436
115	0xbd8c516d	-0.06851468
116	0x3d070311	0.03296191
117	0x3dea0789	0.114272185
118	0xbe05cbe5	-0.13066061
119	0xbd1a14d4	-0.03761752
120	0x3d6568d2	0.056008168
121	0xbca8d118	-0.020607516
122	0x3cd4e219	0.025986718
123	0xbc9fbd69	-0.019499497
124	0x3dc353bd	0.09537456
125	0xbdab26c7	-0.083570056
126	0xbcfff99f	-0.031246958
127	0x3d1d1ea7	0.03835931
128	0x3da7ee78	0.08199781
129	0xbd08a4a7	-0.03336015
130	0x3d5d76ae	0.05406826
131	0x3e1093a5	0.14118822
132	0xbd6f6592	-0.058446474
133	0x3cb17258	0.021660969
134	0x3dd85838	0.105637014
135	0x3d40cdbd	0.047071207
136	0xbd9d59ef	-0.07683169
137	0x3dcfe136	0.101503775
138	0xbd333ae4	-0.043757334
139	0xbcba1b2d	-0.022718037
140	0x3db568ac	0.08857855
141	0x3d7f7fb4	0.062377647
142	0xbd0812ab	-0.03322093
143	0xbdce716d	-0.10080228
144	0xbdd01398	-0.10159987
145	0x3e08dae8	0.13364756
146	0xbd969250	-0.07352126
147	0x3dc1b563	0.09458425
148	0xbd625138	-0.055253237
149	0x3d401f51	0.046904866
150	0x3c5b6e47	0.013392991
151	0x3cb1daa0	0.021710694
152	0x3e001118	0.12506521
153	0xbd145b87	-0.0362201
154	0xbda36362	-0.0797794
155	0xbdaff581	-0.08591748
156	0xbbc3ec1f	-0.0059790756
157	0x3db7ba57	0.089710884
158	0x3dc37a34	0.09544793
159	0xbdeb4b62	-0.114889875
160	0x3d8932ff	0.0669918
161	0xbdb2af5a	-0.08724852
162	0xbda6e0c7	-0.081483416
163	0xbd80e706	-0.06294064
164	0xbd6c3a5f	-0.057672855
165	0x3dcd03e2	0.10010506
166	0xbdc4ef53	-0.0961596
167	0xbda4681e	-0.08027671
168	0x3d504928	0.050851017
169	0x3c92b299	0.017907428
170	0xbdb360ba	-0.087586835
171	0xbdba4b9d	-0.09096453
172	0xbda26d05	-0.0793095
173	0xbdd25c01	-0.102714546
174	0x3e0b82e2	0.13624147
175	0x3d7bf278	0.061510533
176	0xbe19a47c	-0.15004152
177	0x3dbd1bf6	0.09233849
178	0x3d4739a5	0.04863896
179	0xbd0be872	-0.034157224
180	0x3de25609	0.11051566
181	0xbbafeddc	-0.005368931
182	0xbdb231e5	-0.08700923
183	0x3dbe98df	0.093065016
184	0xbdf88d6a	-0.121363476
185	0xbda43661	-0.080181845
186	0x3db43827	0.08799773
187	0xbdd98204	-0.10620502
188	0xbde0e499	-0.109811015
189	0x3c9ecc8e	0.019384649
190	0x3d7d301d	0.061813463
191	0x3bfc6d5f	0.0077034677
192	0xbcfac17b	-0.030609837
193	0x3def6092	0.11688341
194	0x3cc1a57c	0.02363848
195	0xbd4f9fbd	-0.050689448
196	0x3e0ca9b6	0.13736615
197	0x3d527953	0.051385235
198	0x3d924e21	0.07143808
199	0x3dbfe430	0.09369695
200	0x3d6f8b1f	0.058482286
201	0xbd86c7a2	-0.06581046
202	0x3dde4189	0.108523436
203	0x3b6b367e	0.0035890634
204	0x3de197f9	0.110153146
205	0x3d5104f9	0.051030133
206	0x3a1a098b	0.0005876056
207	0xbd94af97	-0.072600536
208	0x3d318d43	0.04334761
209	0x3c975478	0.018472895
210	0xbd32e59e	-0.04367601
211	0x3c7f46c6	0.015580839
212	0xbdba69d6	-0.09102218
213	0x3e441893	0.1915
214	0x3db436b2	0.08799495
215	0x3d4ea322	0.050448544
216	0xbd52b272	-0.05143971
217	0xbabc9cf6	-0.001439004
218	0x3dfb48af	0.12269723
219	0x3d1e9322	0.038714536
220	0xbcfe9602	-0.031077389
221	0xbd8c7625	-0.06858472
222	0xbdd111ba	-0.10208459
223	0x3d577922	0.052605756
224	0xb96259b4	-0.00021586457
225	0x3abe9c22	0.0014542381
226	0xbdb73867	-0.08946305
227	0xbd0678e7	-0.032830145
228	0xba85b6ba	-0.0010201551
229	0xbd74efce	-0.059799008
230	0x3df5cd83	0.12002089
231	0xba4f05a2	-0.00078972627
232	0x3e17ef64	0.14837414
233	0xbd51f5f3	-0.051259946
234	0x3e0ffa04	0.14060217
235	0x3d7990d4	0.060929134
236	0xbd9cbcf5	-0.07653228
237	0x3dcb3b45	0.09923414
238	0x3e0f9647	0.1402217
239	0x3de48ea0	0.11160016
240	0xbd61bb81	-0.05511046
241	0x3d1b194d	0.037865926
242	0x3d297b41	0.04137731
243	0xbd18a63a	-0.0372679
244	0x3da0d058	0.078522384
245	0xbb6c1729	-0.0036024547
246	0xbd84c076	-0.064820215
247	0x3da5d8d7	0.080979995
248	0xbd1f18d2	-0.03884203
249	0x3e204bcc	0.15653914
250	0x3d4fbf12	0.05071933
251	0x3e35a61f	0.17739151
252	0x3d9aa761	0.07551456
253	0x3e285136	0.1643723
254	0x3dd3c21d	0.103397585
255	0x3ddda9a9	0.10823376

cells.1.x2h.weight f4 [256, 64]
0	0x3d8fa0bf	0.07013082
1	0xbd824718	-0.06361216
2	0xbdc8d286	-0.09805779
3	0x3d6ac797	0.05731925
4	0xbdad5e68	-0.08465272
5	0x3e06bf4e	0.13158914
6	0xbd1ac4b3	-0.037785243
7	0x3e2205b6	0.15822491
8	0xbd7f5d08	-0.06234458
9	0x3e0b2921	0.13589908
10	0xbd8cb024	-0.06869534
11	0xbe111fc2	-0.14172271
12	0x3e6229d2	0.22086266
13	0x3ccd076c	0.025027953
14	0x3d7c0bc5	0.06153466
15	0x3d529a6b	0.051416796
16	0xbafb2214	-0.0019159936
17	0x3dfbf667	0.12302857
18	0x3ce6d36a	0.028176982
19	0x3d9cc61f	0.07654976
20	0xbd337207	-0.043809917
21	0x3e0b5d5a	0.1360983
22	0x3e1e4a84	0.15458113
23	0x3e142241	0.14466192
24	0xbe0f2f57	-0.13982902
25	0xbe535688	-0.20638478
26	0x3e1c7869	0.15280308
27	0x3d86ed04	0.06588176
28	0xbda1bbf5	-0.07897178
29	0xbdb47ac2	-0.08812477
30	0x3dcd8c02	0.1003647
31	0xbd2cf4d3	-0.04222567
32	0x3c1e82bf	0.009674727
33	0xbd1e68cc	-0.03867416
34	0xbe12d805	-0.14340217
35	0x3d3c3158	0.045945495
36	0x3e46d201	0.19416048
37	0xbc704cf0	-0.014666781
38	0x3dca941b	0.0989153
39	0x3dab379d	0.08360217
40	0x3df88e7a	0.1213655
41	0x3dfb36de	0.122663245
42	0x3dab76c0	0.08372259
43	0x3e1ffaa2	0.15622953
44	0x3df57b1c	0.11986372
45	0xbde94979	-0.11390967
46	0xbc64ca6c	-0.013964277
47	0x3e026de5	0.12737234
48	0xbdba048d	-0.09082899
49	0x3c0367cc	0.008020353
50	0xbd8c5946	-0.06852965
51	0x3d5c00ed	0.05371182
52	0xbcac5538	-0.02103673
53	0xbd98639b	-0.07440873
54	0xbc31464a	-0.010819981
55	0xbdd3650b	-0.10322007
56	0x3bffd8e4	0.007807838
57	0x3d6d0f88	0.05787614
58	0x3d99ba00	0.0750618
59	0xbe166d9d	-0.14690252
60	0xbdfa4db9	-0.12221856
61	0xbd1cbb4f	-0.03826457
62	0x3d2518ab	0.04030673
63	0x3d8c469d	0.06849406
64	0x3dd9e33c	0.10639045
65	0x3cb878e2	0.022518579
66	0x3d4f1a55	0.05056222
67	0x3d7094af	0.058735546
68	0x3d1b4b3b	0.037913542
69	0xbdbaa67d	-0.09113786
70	0xbd70741e	-0.058704488
71	0x3d12c19d	0.035829175
72	0xbcf08003	-0.029357916
73	0xbdd095bf	-0.10184812
74	0x3da9430c	0.08264741
75	0xbe3893c8	-0.18025124
76	0x3d886fbf	0.06661939
77	0x3debc1c4	0.11511567
78	0xbd38fc79	-0.04516265
79	0xbde96206	-0.113956496
80	0xbd71c8c5	-0.05902936
81	0x3dfa35b6	0.12217276
82	0x3e19124d	0.14948387
83	0x3d3affd6	0.04565414
84	0x3dec390b	0.115343176
85	0xbd2482e2	-0.040163882
86	0x3c1e533a	0.009663397
87	0x3dd11982	0.10209943
88	0xbd0b8a5e	-0.034067504
89	0xbddc3215	-0.1075174
90	0x3aa84ce2	0.0012840296
91	0x3e0911bd	0.13385673
92	0xbd1380dd	-0.036011565
93	0x3c5cc3e3	0.013474437
94	0xbd32264d	-0.043493558
95	0xbd625d4b	-0.055264752
96	0xbd7c7f01	-0.061644558
97	0xbc97c6c7	-0.018527402
98	0x3d91cdef	0.07119357
99	0xbdb9b1f7	-0.09067147
100	0x3dbacc31	0.09120978
101	0xbc42c95b	-0.011888827
102	0xbdad4858	-0.08461064
103	0x3dfff1bc	0.12497279
104	0x3dcbf188	0.09958178
105	0xbdaefb34	-0.08544007
106	0x3c5e3a84	0.013563756
107	0x3bf476e5	0.0074604624
108	0x3cd563c1	0.026048543
109	0xbdc0fc36	-0.094231054
110	0x3cbfc696	0.023410123
111	0xbd2b8b0e	-0.04188066
112	0xbe23fcfa	-0.16014472
113	0xbc17856a	-0.009248117
114	0x3e07f9b0	0.13278842
115	0xbd380ada	-0.044932224
116	0x3cc51ff7	0.024063094
117	0xbbafe977	-0.0053684074
118	0x3e2c0ef0	0.16802573
119	0xbd69ba57	-0.057062473
120	0xbc8a91de	-0.016915258
121	0xbe00ed47	-0.12590514
122	0xbda82e3e	-0.08211945
123	0xbdf56cdc	-0.11983654
124	0x3d26f3e2	0.04075993
125	0xbd3df392	-0.046374865
126	0x3e0d8b6b	0.13822715
127	0xbc8834b8	-0.0166267
128	0x3dd37115	0.10324303
129	0x3ac174d5	0.001475955
130	0xbc8078ed	-0.015682662
131	0xbda9355e	-0.08262132
132	0xbda0abf7	-0.078453
133	0xbccc037b	-0.024904003
134	0xbd43401d	-0.047668565
135	0xbddd118b	-0.10794362
136	0xbd6dcb58	-0.05805525
137	0x3e32be9c	0.17455524
138	0xbc03d6f4	-0.008046854
139	0xbe3c25dc	-0.18373817
140	0xbd244496	-0.04010447
141	0x3db93cca	0.09044798
142	0xbdd98e9b	-0.10622903
143	0xbcd4f661	-0.025996389
144	0x3da6461e	0.081188425
145	0xbd6f9ab9	-0.058497164
146	0xbd0e3736	-0.034720622
147	0xbe24fc8c	-0.16111964
148	0xbdcda8a7	-0.100419335
149	0xbdc0ce21	-0.09414316
150	0x3d2e89c7	0.042611863
151	0xbdca13ee	-0.098670825
152	0x3db34447	0.08753257
153	0xbd0be915	-0.03415783
154	0x3e0c943d	0.13728423
155	0xbc402df3	-0.011729705
156	0xbcaaa7b7	-0.020831926
157	0x3c5f283d	0.013620433
158	0x3dd0f764	0.10203436
159	0x3dee611d	0.11639617
160	0xbc4bc8d4	-0.012438018
161	0xbdd33003	-0.10311892
162	0xbcd447a3	-0.025913065
163	0x3daedb9b	0.0853798
164	0x3e413796	0.1886886
165	0x3d91dd52	0.071222916
166	0x3cfa9147	0.030586852
167	0x3d066f4d	0.03282099
168	0x3e444fea	0.1917111
169	0x3d3559d8	0.044275135
170	0x3e0b385a	0.13595715
171	0x3da76951	0.081743844
172	0x3d895785	0.06706146
173	0xbd1c50ad	-0.038162876
174	0xbd06b6ff	-0.032889362
175	0xbd2efd38	-0.042721957
176	0xbe0b4667	-0.13601075
177	0x3e17c289	0.14820303
178	0xbdc6e7bd	-0.09712169
179	0xbdf3a9ee	-0.11897646
180	0x3da11736	0.07865755
181	0xbdb204d7	-0.086923294
182	0x3de0f84d	0.109848596
183	0xbd12a765	-0.03580417
184	0xbdef2432	-0.116768256
185	0xbcb0ff28	-0.021606043
186	0xbacf73d7	-0.001582737
187	0x3dba7070	0.09103477
188	0x3e036b29	0.12833847
189	0x3dc2072d	0.09474025
190	0x3dc6412c	0.09680399
191	0x3d665fd2	0.056243725
192	0x3dcd50a1	0.10025144
193	0x3dc827ad	0.097731926
194	0x3dbc1223	0.09183147
195	0x3d0e32f9	0.03471658
196	0xbd1b61a2	-0.037934907
197	0x3d898732	0.067152396
198	0xbdc1e4a1	-0.09467436
199	0xbe072168	-0.13196337
200	0xbda58250	-0.08081496
201	0xbd40c768	-0.04706517
202	0xbc8c2a66	-0.01711006
203	0x3dd1e854	0.10249391
204	0xbd0ae8d7	-0.03391346
205	0xbcf86c19	-0.030324982
206	0xbddb457d	-0.10706613
207	0xbda2c0d9	-0.07946939
208	0xbbfba07c	-0.0076790433
209	0x3d71c5c2	0.059026487
210	0x3d8dd93f	0.06926202
211	0xbb7dae33	-0.0038708567
212	0x3d9f2be6	0.07772045
213	0x3d12c5a9	0.035833035
214	0x3df5699a	0.119830325
215	0xbabba42e	-0.0014315897
216	0x3d1ebc99	0.03875408
217	0xbd89d0b4	-0.0672926
218	0x3d9f2304	0.077703506
219	0xbdafb791	-0.085799344
220	0xbcaa6abb	-0.020802846
221	0xbcecd8c9	-0.028911965
222	0x3b894c8d	0.004190034
223	0x3b9fad85	0.00487298
224	0x3d986408	0.074409544
225	0xbaa2888f	-0.0012400317
226	0x3dcf9b5a	0.10137053
227	0x3d0d8680	0.034552097
228	0xbd2982e3	-0.04138459
229	0xbd0a5199	-0.033769224
230	0x3d1ca2bc	0.038241133
231	0x3d45a13e	0.048249476
232	0x3cfa795f	0.030575452
233	0x3cd216a0	0.025645554
234	0x3da572f9	0.0807857
235	0x3d2869c6	0.0411165
236	0x3c1500ca	0.009094426
237	0x3d2c8d11	0.04212672
238	0x3d79ad43	0.06095625
239	0xbd098e06	-0.03358271
240	0x3dd45444	0.10367635
241	0xbc5d7ce8	-0.0135185495
242	0x3e1b82a6	0.15186557
243	0xbd344ca6	-0.04401841
244	0xbdd9903f	-0.10623216
245	0xbdadd723	-0.084883
246	0xbcc9ff93	-0.024658
247	0xbdba46de	-0.09095548
248	0x3d885100	0.066560745
249	0xbddc0de3	-0.10744836
250	0xbdbf208d	-0.093323804
251	0xbc9d204a	-0.019180436
252	0x3e1c56d7	0.15267502
253	0xbb4a6c55	-0.0030887325
254	0x3da62486	0.08112435
255	0x3c91ff6c	0.01782199

cells.1.x2h.bias f4 [256]
0	0x3c02e65b	0.007989491
1	0xbda359e9	-0.079761334
2	0x3d0852e0	0.03328216
3	0x3cf286e8	0.029605344
4	0xba94b672	-0.0011345877
5	0x3d78e47e	0.060764782
6	0x3cf1a318	0.029496714
7	0x3da3f319	0.080053516
8	0xbdd0d4aa	-0.101968125
9	0x3d232740	0.039832354
10	0x3d369f2a	0.044585384
11	0x3b0dba03	0.0021625764
12	0xbd6975ae	-0.056996994
13	0xbd88cca5	-0.06679658
14	0xbcb8561a	-0.022501994
15	0xbdae51ab	-0.08511671
16	0x3b26c8fd	0.0025449388
17	0xbdb969a8	-0.090533555
18	0x3d2875a3	0.041127812
19	0x3b2738c1	0.0025516006
20	0x3d7cf368	0.061755568
21	0x3db7e5ac	0.08979353
22	0x3debcd00	0.1151371
23	0x3da2fc64	0.07958296
24	0xbd8fe71b	-0.07026502
25	0x3cc37c23	0.023862904
26	0xba116982	-0.0005547033
27	0xbd7737d5	-0.06035598
28	0x3caaf46e	0.020868506
29	0x3c847774	0.016170241
30	0xbdbd66a3	-0.09248092
31	0xbd02bda0	-0.03191912
32	0x3dce0640	0.10059786
33	0x3d82c0f8	0.06384462
34	0x3daa9038	0.08328289
35	0x3d2ee5b8	0.042699546
36	0x3cd4da4b	0.025982996
37	0xbb958f13	-0.004564175
38	0xbd93a90a	-0.07209976
39	0x3ccb4aab	0.024815878
40	0x3d886831	0.06660498
41	0x3decea08	0.115680754
42	0xbc71231b	-0.014717842
43	0xbbc2c57d	-0.0059439526
44	0x3da336d7	0.07969444
45	0xbde82d6a	-0.11336787
46	0xbd34e7e3	-0.044166457
47	0x3e34855e	0.17629
48	0xbd59fb2d	-0.053218056
49	0xbc261b53	-0.010138351
50	0x3d4ae7ba	0.049537398
51	0x3cc3e0cb	0.0239109
52	0xbd0ba9f3	-0.034097623
53	0xbe14b721	-0.14522983
54	0xba804650	-0.000978658
55	0x3d9a6ff7	0.07540887
56	0x3d827638	0.06370205
57	0xbd377262	-0.04478682
58	0x3d7e69e5	0.062112708
59	0xbd15d4f7	-0.036580052
60	0xbc4c964d	-0.012487006
61	0x3e032bcc	0.12809676
62	0x3c6da19f	0.0145038655
63	0xbcb4d0e5	-0.022072265
64	0xbd2fd7dd	-0.042930473
65	0xbe224745	-0.158475
66	0xbd8aed85	-0.067835845
67	0xbdcb0ace	-0.0991417
68	0xbde70bea	-0.11281569
69	0x3d4f75a3	0.050649296
70	0xbb275670	-0.0025533698
71	0x3d756b10	0.059916556
72	0x3db48f34	0.08816376
73	0x3d93e19c	0.07220766
74	0x3d8d6ff3	0.06906118
75	0xbd94acdb	-0.07259532
76	0x3cc42258	0.023942158
77	0x3de98cfc	0.11403844
78	0x3de1c432	0.110237494
79	0xbd55f4c3	-0.052235376
80	0xbda4a298	-0.08038825
81	0x3d78d7fe	0.06075286
82	0xbd0e9380	-0.034808636
83	0xbdd14b63	-0.10219457
84	0x3dc225cc	0.094798654
85	0x3d81c4b7	0.063363485
86	0xbd06a060	-0.03286779
87	0xbd6d055f	-0.05786645
88	0xbdbf3ce9	-0.093377896
89	0x3d4f3f5b	0.05059753
90	0x3d855de1	0.065120466
91	0x3c1b8da3	0.009494218
92	0x3d294146	0.041322015
93	0xbdae9e09	-0.085262366
94	0x3c946728	0.018115595
95	0x3c8b77e1	0.017024936
96	0x3d438547	0.047734525
97	0xbdc02ef0	-0.093839526
98	0xbdd4d955	-0.10393015
99	0xbdd545d5	-0.1041371
100	0x3d598929	0.05310932
101	0x3e18e111	0.14929606
102	0x3dd3225e	0.103092894
103	0x3d822499	0.06354637
104	0x3db94ee1	0.09048248
105	0x3dfb250e	0.12262927
106	0x3ddcc971	0.107806094
107	0xbd92296c	-0.07136807
108	0xbd87d25e	-0.06631921
109	0x3d8f8808	0.07008368
110	0xbd57eeed	-0.05271809
111	0x3d88f0ad	0.0668653
112	0x3d7fe714	0.062476233
113	0x3d9463c8	0.07245594
114	0xbe0dfbe3	-0.13865618
115	0x3ceca6a2	0.02888805
116	0x3d2e0460	0.04248464
117	0x3be97535	0.007124568
118	0xbddb755d	-0.10715745
119	0xbda9d38a	-0.08292301
120	0x3d0f9bd5	0.035060722
121	0xbdcd828f	-0.10034668
122	0x3d67eaa7	0.056620266
123	0x3c8c3983	0.017117267
124	0xbd1ba2dd	-0.037997115
125	0x3d3fc583	0.04681922
126	0xbd14a90e	-0.036294036
127	0xbe016886	-0.12637529
128	0xbc57376e	-0.013135774
129	0xbb2d3f44	-0.0026435414
130	0xbdc4e29a	-0.09613533
131	0xbd8b9cc8	-0.06817013
132	0x3d292cbd	0.04130243
133	0xbd34faa0	-0.044184327
134	0x3dc77d50	0.09740698
135	0x3beec311	0.0072864373
136	0x3cd7086f	0.026249139
137	0x3e08b21d	0.13349195
138	0x3df901a4	0.12158516
139	0xbc8f4200	-0.017487526
140	0xbd27bb30	-0.04095
141	0xbdbe34b1	-0.09287394
142	0xbd9ffbe1	-0.07811714
143	0xbdc9768a	-0.09837063
144	0x3d6ac683	0.05731822
145	0x3d4b50f3	0.049637746
146	0xbbea7d76	-0.0071560694
147	0x3d4a2d7e	0.04935979
148	0xbd1dbcea	-0.03851024
149	0xbd5f281d	-0.054481614
150	0xbda48dbd	-0.08034847
151	0x3db47456	0.08811252
152	0x3dd85006	0.10562138
153	0xbd5197de	-0.051170222
154	0xbe05639c	-0.13026279
155	0xbdadba70	-0.08482826
156	0x3a4f6161	0.0007910934
157	0xbd81b2f3	-0.0633296
158	0x3d2435ba	0.0400903
159	0x3d950e9e	0.07278179
160	0x3d1175da	0.035512783
161	0xbdb252f9	-0.08707232
162	0x3da3a7c2	0.07990982
163	0xbd33dd67	-0.043912318
164	0xbd90e395	-0.07074658
165	0xbb6c9a76	-0.0036102808
166	0x3d1407b9	0.036140177
167	0xbd00774b	-0.031363767
168	0x3c45688a	0.01204885
169	0x3da2db11	0.0795194
170	0x3d4e6f1d	0.050398935
171	0xbd8a3534	-0.06748429
172	0x3c9364c9	0.017992394
173	0x3c9f49e2	0.01944441
174	0xbe0a51ae	-0.13507721
175	0x3d5c1305	0.053729076
176	0xbd044bbf	-0.0322988
177	0xbde6af9c	-0.112639636
178	0xbd211b9e	-0.03933298
179	0xbdec8e76	-0.1155061
180	0xbd20afcb	-0.03923015
181	0xbdcb096e	-0.09913908
182	0xbb2bb169	-0.0026198274
183	0xbdbe18fe	-0.09282111
184	0x3d31a0ef	0.04336637
185	0x3db5bccd	0.088739015
186	0x3d8f5b39	0.06999821
187	0x3c5bad1b	0.013407971
188	0x3d2a0c15	0.04151543
189	0xbdf20e32	-0.11819114
190	0x3d5dc281	0.05414057
191	0x3d83d24a	0.06436594
192	0x3db3b423	0.08774593
193	0xbdb054b9	-0.086099096
194	0xbce0550e	-0.027384307
195	0x3d8f66aa	0.070020035
196	0xbd777f9f	-0.060424443
197	0x3ddf1cfa	0.10894199
198	0x3d9d4d0a	0.0768071
199	0x3cc13897	0.023586554
200	0xbd83302e	-0.06405674
201	0x3d21674c	0.039405152
202	0x3dbb69de	0.09151052
203	0xbd8ee9f4	-0.06978217
204	0x3c8d471b	0.01724582
205	0x3d886aab	0.0666097
206	0x3e210c99	0.15727462
207	0x3df28078	0.1184091
208	0xbbca5455	-0.006174604
209	0xbd88b02e	-0.066742286
210	0x3ca02201	0.019547464
211	0xbd51b866	-0.051201247
212	0x3e222d19	0.15837516
213	0xbcfa15cf	-0.030527977
214	0x3cde5008	0.027137771
215	0xbdec2246	-0.11529975
216	0xbd875d23	-0.06609561
217	0x3cd0629f	0.025437651
218	0xbdb50fb2	-0.08840884
219	0x3de016ec	0.10941872
220	0x3d769786	0.060203098
221	0x3cb66c27	0.022268368
222	0x3db18737	0.08668368
223	0xbb6596e9	-0.0035032576
224	0x3be70c40	0.007051021
225	0x3d943c32	0.07238044
226	0xbd6f74b9	-0.058460925
227	0xbdab9362	-0.083777204
228	0x3e11a289	0.14222158
229	0x3d5f8a1f	0.054575082
230	0xbd078f96	-0.03309592
231	0x3dd6b1a8	0.10483104
232	0x3d17f993	0.037103247
233	0x3df4d3a7	0.11954432
234	0x3da685d9	0.08130998
235	0x3e1834c3	0.14863877
236	0x3da1394a	0.07872255
237	0xbde34ba8	-0.11098415
238	0xbd254849	-0.04035214
239	0x3d587ac3	0.05285145
240	0x3d353594	0.04424055
241	0x3d542098	0.051788896
242	0xbd2527b6	-0.040321074
243	0x3b9e2bd2	0.004827001
244	0x3beeacfe	0.007283806
245	0xbccaf80f	-0.024776487
246	0xbdb65525	-0.08902959
247	0x3d92dea7	0.07171374
248	0x3c99eed2	0.018790636
249	0x3cc0763d	0.02349388
250	0xbda05fbf	-0.07830762
251	0x3e0bc395	0.13648827
252	0xbd54a176	-0.051911794
253	0x3dd267b2	0.102736846
254	0xbdef94c5	-0.116982974
255	0x3e0983bd	0.1342916

cells.1.h2h.weight f4 [256, 64]
0	0xbd51573d	-0.051108588
1	0xbc829d98	-0.015944287
2	0xbc0e2810	-0.008676544
3	0xbd8543a5	-0.06507043
4	0x3e43c10c	0.1911661
5	0xbcd6f840	-0.026241422
6	0x3cbca0e7	0.023025943
7	0x3c1fa14d	0.009743047
8	0xbdbd8a1f	-0.0925486
9	0x3d13f9ec	0.036127016
10	0xbbffecc0	-0.007810205
11	0x3d242e1e	0.040083043
12	0xbda42aa2	-0.08015944
13	0xbcacedbb	-0.021109452
14	0xbe06de8b	-0.13170831
15	0xbc28d339	-0.010304266
16	0x3e07b97d	0.13254352
17	0x3d071e18	0.032987684
18	0xbe51eb22	-0.20499852
19	0xbe0801ce	-0.13281938
20	0xbcfd04d6	-0.030886095
21	0x3d64532b	0.055743378
22	0x3e288131	0.16455533
23	0xbcfb8db3	-0.030707216
24	0x3de4d458	0.11173314
25	0x3d15059f	0.036382314
26	0xbdf60cca	-0.12014158
27	0x3d0457b1	0.03231019
28	0xbe3686cc	-0.17824858
29	0xbdcbba31	-0.099476226
30	0xbdd0b8d2	-0.10191502
31	0x3dae96d7	0.08524864
32	0x3dc4707f	0.095917694
33	0xbdffd118	-0.12491053
34	0xbdd2abb0	-0.10286653
35	0xbe16f184	-0.14740568
36	0x3e147702	0.14498523
37	0xbe29b23e	-0.165719
38	0x3d3a8657	0.045538273
39	0x3dfca23c	0.12335631
40	0x3d067457	0.032825794
41	0x3e061a41	0.13095953
42	0x3d123161	0.035691623
43	0xbe0dacc9	-0.13835444
44	0x3e306f99	0.17230071
45	0xbd3d0d59	-0.046155307
46	0xbe3dd98d	-0.1854002
47	0xbc18ecc6	-0.009333795
48	0x3e17b418	0.14814794
49	0xbdc622e7	-0.09674626
50	0x3e022a17	0.12711369
51	0xbdd75841	-0.1051488
52	0xbe220efc	-0.15826029
53	0x3bcbac60	0.006215617
54	0xbe27a980	-0.16373253
55	0xbd6a813d	-0.057252157
56	0x3cae2e39	0.021262275
57	0xbe29c86e	-0.16580364
58	0x3cbbbbc0	0.022916675
59	0x3d3f079d	0.04663812
60	0x3c257450	0.010098532
61	0xbe1faf4b	-0.15594213
62	0x3c997197	0.018730922
63	0xbdbfd997	-0.09367674
64	0x3dabe5a7	0.08393412
65	0xbd2f5d77	-0.042813744
66	0x3df42fac	0.11923155
67	0x3c2a61ce	0.010399295
68	0x3df3d465	0.119057454
69	0x3d9d3c06	0.07677464
70	0x3c91a72d	0.017779911
71	0xbcdd02f7	-0.026978953
72	0x3c1eeef7	0.009700528
73	0x3dc76350	0.09735739
74	0x3e117101	0.14203264
75	0xbc240ab9	-0.010012322
76	0xbd73be45	-0.059507627
77	0x3ce8a2ba	0.028397907
78	0xbd8a2230	-0.06744802
79	0x3d6006b5	0.054693896
80	0x3de800b5	0.1132826
81	0xbaf68296	-0.0018807228
82	0x3de590f1	0.11209286
83	0x3cfcf438	0.030878171
84	0x3dc39474	0.095497996
85	0x3cbf6d26	0.023367476
86	0x3dec4a1d	0.115375735
87	0x3c33df05	0.010978465
88	0x3d5b04bf	0.053471323
89	0xbd931582	-0.07181837
90	0x3dec9aad	0.115529396
91	0xbd0401bd	-0.03222822
92	0x3dc68124	0.096926
93	0xbd777981	-0.06041861
94	0x3d8c1eb0	0.06841791
95	0x3c68ce9c	0.014209416
96	0x3df90aac	0.121602386
97	0xbd1a6477	-0.037693467
98	0xbde413ec	-0.11136612
99	0xbe0419cc	-0.12900466
100	0xbae528a0	-0.0017483421
101	0xbdbc4382	-0.091925636
102	0x3ccf1d63	0.025282567
103	0x3d7957db	0.0608748
104	0xbbac3583	-0.0052554025
105	0x3dc710b8	0.09719986
106	0xbd314df9	-0.04328725
107	0xbdbc1376	-0.091833994
108	0x3d44dc7b	0.04806183
109	0xbde7f700	-0.113264084
110	0x3d50eac3	0.051005136
111	0x3c753678	0.0149666
112	0x3da11903	0.07866099
113	0x3d5608a2	0.052254327
114	0x3d5a5b3b	0.05330966
115	0x3d153ae1	0.036433104
116	0xbe5422e8	-0.2071644
117	0x3d18c3e4	0.03729619
118	0x3d7698bd	0.060204256
119	0xbe063595	-0.13106377
120	0xbc946e3c	-0.01811897
121	0xbdbb6aae	-0.09151207
122	0xbdd4b272	-0.10385598
123	0x3bc40f4b	0.0059832684
124	0x3d4f7f55	0.050658543
125	0xbe0f2b54	-0.13981372
126	0x3de6e32d	0.11273799
127	0xbd22b0a2	-0.03971923
128	0xbe0ccc7d	-0.13749881
129	0x3d391f4f	0.045195874
130	0x3ddf051c	0.108896464
131	0x3dfc8119	0.12329311
132	0xbe099fe2	-0.13439897
133	0x3e27e70a	0.16396728
134	0xbd51c246	-0.051210664
135	0x3c5e77d4	0.013578374
136	0xbda79f7f	-0.08184718
137	0xbcb09aaa	-0.021558125
138	0xbd6a902b	-0.057266396
139	0x3dc94212	0.09827055
140	0xbd59d205	-0.053178806
141	0x3d721010	0.05909735
142	0xbd52973d	-0.051413763
143	0xbd4f6cf6	-0.050641023
144	0xbc436f04	-0.011928324
145	0xbd0fe7f6	-0.035133325
146	0x3e22f69f	0.15914391
147	0xbdb26651	-0.087109216
148	0x3c73a8a2	0.014871748
149	0xbd19a844	-0.037513986
150	0x3d2e34d0	0.042530835
151	0x3de79673	0.11307993
152	0x3d53fad2	0.051752873
153	0xbdc05eef	-0.09393107
154	0x3df2341a	0.11826344
155	0x3c47aac1	0.012186707
156	0x3da6770c	0.08128175
157	0xbdb46041	-0.088074215
158	0x3e146edb	0.14495413
159	0x3bbf0903	0.0058299317
160	0xbdaf6f8c	-0.08566198
161	0xbde399f5	-0.11113349
162	0x3d43da72	0.047815748
163	0xbcf69999	-0.030102538
164	0xbe08576c	-0.13314599
165	0x3d948135	0.07251207
166	0x3daadda5	0.083430566
167	0xbc2b5787	-0.01045788
168	0x3d7100a5	0.058838505
169	0xbd01181e	-0.03151714
170	0x3d8b82b7	0.06812041
171	0xbd8b998a	-0.068163946
172	0x3a1e1d27	0.0006031566
173	0xbc2bdb42	-0.010489287
174	0x3c4244c1	0.0118572125
175	0xbd5be61f	-0.053686257
176	0x3dafcea2	0.08584334
177	0xbd874ac0	-0.06606054
178	0xbce5a24a	-0.028031487
179	0xbd11dd1a	-0.03561125
180	0xbc8ebb8b	-0.017423412
181	0x3df1207a	0.117737725
182	0x3d8743e1	0.06604744
183	0xbcaba898	-0.020954415
184	0x3dcce882	0.10005285
185	0x3df0613d	0.11737297
186	0xbb1dd393	-0.0024082407
187	0xbd191db7	-0.037381854
188	0x3b4649b8	0.0030256342
189	0xbe056650	-0.1302731
190	0x3d8e1a69	0.06938631
191	0x3dd85ada	0.105642036
192	0xbdafd10b	-0.08584794
193	0x3db7777b	0.08958336
194	0xbdd945c5	-0.106090106
195	0xbd847843	-0.064682506
196	0xbb553060	-0.0032530054
197	0x3d46bdd3	0.048520874
198	0x3e3a0323	0.18165259
199	0x3c1f6348	0.00972826
200	0x3d717c51	0.058956448
201	0xbc400577	-0.011720053
202	0xbb8824b7	-0.0041547674
203	0xbc923be0	-0.017850816
204	0x3d8888af	0.06666695
205	0x3ce65833	0.028118229
206	0x3dba41b5	0.09094564
207	0xbd03b08f	-0.0321508
208	0x3b8be91f	0.0042697336
209	0xbe1be534	-0.15224153
210	0xbcbd7963	-0.02312917
211	0xbde47fa4	-0.11157158
212	0xbd9fe8d6	-0.07808082
213	0x3ddd88a9	0.108170815
214	0xbdfe9cb4	-0.124322325
215	0x3d0bc225	0.034120698
216	0x3da650c0	0.081208706
217	0xbd2ec472	-0.042667814
218	0x3d3dfcd6	0.0463837
219	0x3e2d4beb	0.16923492
220	0x3e051116	0.12994799
221	0xbcb26e47	-0.0217811
222	0x3db041e3	0.08606317
223	0x3c847562	0.016169254
224	0xbc1c06bd	-0.009523091
225	0xbc50131d	-0.012699869
226	0xbe11bbb9	-0.14231767
227	0xbd213f8e	-0.03936725
228	0xbd9c7c18	-0.076408565
229	0xbe159b72	-0.14610079
230	0xbe0c7184	-0.13715178
231	0x3d9a5c6a	0.07537158
232	0xbe2cf3c7	-0.16889869
233	0xbd0f3a8c	-0.034967944
234	0x3d993fdd	0.07482884
235	0xbbe72c2c	-0.0070548262
236	0xbdb46652	-0.088085786
237	0xbc8082de	-0.015687402
238	0xbd09f754	-0.033683136
239	0xbbce3290	-0.0062926486
240	0x3e3eeaff	0.18644331
241	0x3d002349	0.03128365
242	0xbce13e40	-0.027495503
243	0x3c1cd69c	0.009572651
244	0xbe1d046c	-0.15333718
245	0x3cbbfd4e	0.022947934
246	0x3e014ca7	0.12626897
247	0x3d29ac2e	0.04142397
248	0xbcdf24a3	-0.02723915
249	0x3cc5a85a	0.024128128
250	0xbe1d0915	-0.15335496
251	0xbbd56d05	-0.0065132403
252	0xbd720f22	-0.059096463
253	0xbe1ac14c	-0.151128
254	0x3c2c3361	0.010510297
255	0xbc03d55b	-0.008046473
