model_group/models_group_weather/LSTM_model_BROOKLYN_WASHINGTON AVENUE.pth (torch, 356532 bytes, 17 tensors)

input_projection.weight f4 [7, 7]
000000 4a 00 7d be 2e af 7e be 70 7d 13 be 63 60 8d 3e
       -0.24707142 -0.24871513 -0.1440332 0.276126
000010 7b 6d 15 3d b0 80 a9 be 82 4d 92 be 79 a8 8c 3e
       0.03648136 -0.33105993 -0.2857476 0.27472284
000020 41 b1 8a 3d 1c 4b 49 3e 44 0f 90 be 02 0a 35 3e
       0.0677209 0.19657558 -0.28136647 0.17679599
000030 ea bb cc be b0 b9 60 be 1a 67 03 3e 91 bb d4 bd
       -0.39987117 -0.21945834 0.12832299 -0.10387338
000040 c8 35 9e 3c 35 32 02 bd 65 52 a3 3e b4 9c de 3d
       0.019312754 -0.031786162 0.318988 0.108697325
000050 51 0c 95 be c1 55 47 be c1 83 b0 3e 70 3d 76 3e
       -0.2911096 -0.19466306 0.3447552 0.24046874
000060 1b a3 19 be 96 d4 99 3e 24 01 c0 3e 44 38 3a 3e
       -0.15003626 0.30045003 0.3750087 0.18185526
000070 3e b5 ac 3e d7 a6 92 bd 89 7a 87 3e fd 78 65 be
       0.33732027 -0.071607284 0.26460674 -0.22409435
000080 26 5a 31 be 89 74 e8 bd e1 81 6a 3e cd 46 d1 be
       -0.17319545 -0.11350352 0.22901107 -0.4087433
000090 82 60 89 bc 19 d2 9a be f4 a8 3a be 04 27 8c 3e
       -0.016769651 -0.30238417 -0.18228513 0.27373517
0000a0 a2 bb 69 3e 35 03 a5 3d 3d af 93 be 42 44 2b be
       0.22825482 0.08057252 -0.28844634 -0.16725257
0000b0 1f 01 ad 3d 54 3a 62 be d1 f5 39 3d 66 2a 9d be
       0.084474795 -0.22092563 0.045400444 -0.3069641
0000c0 81 58 6b 3e
       0.2298298

input_projection.bias f4 [7]
000000 21 96 3a 3e 13 3b 02 3e 33 1f 1c be 4e f9 a4 be
       0.18221332 0.12717848 -0.15246277 -0.32221454
000010 de a0 dd bd 6b 36 9c 3e 76 e9 4c 3e
       -0.108216986 0.30510268 0.20010933

cells.0.x2h.weight f4 [256, 7]
000000 80 94 d9 3e bc c3 ca 3e 1e 54 0e bc 2b a1 d9 3e
       0.4249611 0.39602458 -0.008687047 0.42505774
000010 f4 ef 53 3e 3a fa c1 bd 1d 39 79 3e 6a 77 33 be
       0.20697004 -0.09471555 0.24338193 -0.17526022
000020 30 01 e5 bd 29 6f 57 be 73 56 a1 3e 11 f9 2f 3e
       -0.11181867 -0.21038498 0.31511268 0.17184855
000030 aa 2a 11 3e 2e a2 cf 3e 33 b7 99 3d 4d 16 81 be
       0.14176431 0.4055342 0.075056456 -0.25212327
000040 4b 2a 38 be 1e 1e 68 3e c4 75 ce bb 0b bb 8e be
       -0.17984883 0.22667739 -0.00630066 -0.27877077
000050 b1 37 23 3e c9 04 79 be a3 27 a4 bd bd 7e 68 bc
       0.15939213 -0.24318232 -0.080153726 -0.014190373
000060 09 03 6c 3e 08 5c 9b bc 60 06 8c 3e 52 03 95 3d
       0.23048033 -0.018964782 0.27348614 0.07276024
000070 fa f5 9f 3e f1 99 aa 3d 23 69 cf 3e e3 82 9a 3e
       0.31242353 0.08330143 0.405099 0.30177984
000080 ea 1e fb 3c c7 7c af 3d 75 cb 70 3e 0d d6 3b 3e
       0.03065439 0.08568721 0.23515113 0.18343373
000090 19 95 d8 be 3e ea 95 3e 20 55 b6 3e c8 4d a6 3e
       -0.42301252 0.29280275 0.3561182 0.32481217
0000a0 71 16 62 bb 3c 2e a1 be 0f e1 2d 3e d8 26 42 be
       -0.003449824 -0.31480587 0.16980384 -0.1896013
0000b0 1f ff 36 be af 71 9b 3e 07 e6 8a be bc a9 54 3d
       -0.17870758 0.3036017 -0.27128622 0.051919684
0000c0 14 63 ab 3e 69 e0 b1 be 7f 4a 10 be da f5 b0 be
       0.33474028 -0.34741524 -0.14090918 -0.3456257
0000d0 9f 1d a1 3e 4d ce 91 be 9c c0 c9 3e 59 78 84 3e
       0.31467912 -0.28477708 0.39404762 0.25873068
0000e0 fe 45 28 be b1 33 d9 3d a2 96 e4 bd c6 09 9f bd
       -0.1643295 0.106055625 -0.111615434 -0.07765536
0000f0 89 bb 91 3e da bc f3 bd eb f9 12 3e 7f 62 09 3e
       0.2846339 -0.11901255 0.14353149 0.1341648
000100 60 4d b9 bd 89 f0 b9 bd 6d 04 93 be 63 81 e5 bd
       -0.09047961 -0.090790816 -0.28714314 -0.11206319
000110 d7 a4 2f bd e4 f2 a7 3e 19 da 9e 3e d0 c7 4d 3e
       -0.042881813 0.32802498 0.3102577 0.20095754
000120 48 9b 66 3e c1 bf 1c be 82 15 98 be 15 fc a4 bd
       0.22520173 -0.15307523 -0.2970391 -0.08055893
000130 50 50 2c 3d 42 b3 96 3d 46 14 65 3e 2f ea 8a be
       0.04206878 0.073584095 0.22371015 -0.27131793
000140 b1 f2 8f 3e 32 66 99 be ca bc 83 bd a0 e3 04 3e
       0.28114846 -0.2996078 -0.06432493 0.12977457
000150 2a ed 9c 3e 18 a1 66 3d 6e d8 47 be 34 28 07 be
       0.30649692 0.056305975 -0.19516155 -0.1319893
000160 ab db 2b be 4b 1d 96 3e ce b2 9b be 21 14 b2 3e
       -0.16783015 0.29319224 -0.30409855 0.34780982
000170 0e b6 65 bd 8f 41 99 be 0e 22 ae bd c6 5d 0b 3e
       -0.056081824 -0.2993283 -0.08502589 0.1360999
000180 b3 50 c6 3d 85 c2 95 be 57 0f 80 3e 54 93 3e be
       0.09683361 -0.2924997 0.25011703 -0.18610889
000190 78 09 a8 3e a2 dd 8d 3e 23 8e 1d 3e e4 48 fd 3d
       0.32819724 0.27708155 0.15386252 0.123674184
0001a0 13 40 27 be 21 5e c6 be 7d 24 14 be c9 32 8e 3e
       -0.16333036 -0.3874369 -0.14467044 0.2777312
0001b0 d2 fe cd be 39 38 cf 3e 9a 31 81 be 25 74 59 3e
       -0.40233475 0.40472582 -0.25233155 0.21235712
0001c0 1b fb 9a 3e 6e 54 8a 3e 60 a7 87 3e b3 fc a6 be
       0.30269703 0.2701754 0.26494884 -0.3261467
0001d0 3c fb 0a be 86 70 60 bd 63 85 93 3e e6 7d 6d be
       -0.13572401 -0.05479481 0.28812703 -0.23192558
0001e0 9c 96 a1 3e 8b da a1 be 86 0b 08 3e ad 66 d8 be
       0.31560218 -0.31612048 0.13285646 -0.42265835
0001f0 5f 23 85 3d 70 cb 52 be bb 7c 3b be b3 d4 a6 be
       0.06500887 -0.20585418 -0.183093 -0.32584152
000200 f3 59 91 3e 31 f1 49 3e bf 84 5f be 43 c9 88 be
       0.28388938 0.19720913 -0.21827982 -0.2671605
000210 d9 bc 0b be 69 1e a9 3e e0 10 58 3e a5 b8 ed 3d
       -0.13646258 0.33031014 0.21100187 0.11607484
000220 be f9 92 3e 30 3e 23 be aa 74 89 be 68 76 eb bd
       0.28706163 -0.15941691 -0.2684682 -0.114971936
000230 3a 23 54 3e 36 28 27 3d 5a 45 c0 be 6e eb 8f 3e
       0.20716563 0.040809833 -0.3755291 0.28109306
000240 40 91 9e 3d 12 cb 5b 3d 47 82 fb bd 14 2f c1 be
       0.07742548 0.05366046 -0.12280708 -0.3773123
000250 c4 8e a4 be 36 37 96 3e c9 bb ba be 0c 99 3e 3e
       -0.32140172 0.29338998 -0.36471394 0.1861307
000260 5d bc a9 be 51 fd 1a be 62 20 78 3e c3 f6 c8 bc
       -0.33151522 -0.15135695 0.24231103 -0.024531728
000270 93 3d e1 be 5c 56 8d bd e2 67 f9 3e 31 6a e1 3d
       -0.4399229 -0.06901237 0.4871207 0.110065825
000280 fe e0 43 be 68 c4 d8 bd e3 6f ca 3e f4 54 91 be
       -0.19128796 -0.105843365 0.39538488 -0.28385127
000290 ac 7d 1b bc 0e 05 98 3e 33 0e 72 be 01 38 1d 3d
       -0.009490412 0.29691356 -0.23638229 0.038383488
0002a0 76 f1 bd 3d 18 ee 4f 3e ef 50 55 3e c5 e3 2f be
       0.09274571 0.2030567 0.20831655 -0.17176731
0002b0 2f b2 be 3e 95 8f 5f 3e 1b f0 bb bd 31 de d4 3d
       0.37245318 0.21832116 -0.09176656 0.10393942
0002c0 44 83 cc be f6 9e db bd 04 b6 61 3e 3f 48 97 3e
       -0.39943898 -0.10723679 0.2204209 0.29547307
0002d0 5c 31 6d 3d 8a d3 a3 bd 31 ff 72 be 22 d1 30 be
       0.0579084 -0.07999332 -0.2373016 -0.17267278
0002e0 c6 b9 44 3d 5e ea 0d be dc 40 5f be f8 88 74 be
       0.04802873 -0.13858935 -0.21802086 -0.23880374
0002f0 8d 59 59 be 03 71 67 3e 25 14 61 be 3f 04 94 bc
       -0.21225567 0.22601704 -0.21980341 -0.018068431
000300 69 12 8f 3e 04 c0 97 be 59 01 1f bd 8d c0 64 bd
       0.27943733 -0.29638684 -0.038819645 -0.055847693
000310 e6 e0 98 3d 52 bb 70 be b1 20 53 be fc 0e 9a 3e
       0.07464771 -0.23508957 -0.2061794 0.30089557
000320 38 a4 bc be 74 c1 a6 3e 9b 8f 36 be 20 32 84 be
       -0.3684404 0.32569468 -0.17828219 -0.25819492
000330 fb 6b d8 be bb df ca be c2 57 8a 3e 93 38 cd 3d
       -0.42269883 -0.39623818 0.2702008 0.10020556
000340 54 2b b2 3e 11 5d 12 be 53 fb fc bc ac 26 14 3c
       0.34798682 -0.14293315 -0.03088156 0.009042423
000350 78 31 94 3e 4b f6 f5 3e 90 94 44 3e dd 08 d8 3e
       0.28943992 0.4803947 0.19197297 0.42194262
000360 f7 23 20 3e eb 85 a7 bd d5 b3 12 3e dc 2c a2 bb
       0.1563872 -0.0817984 0.14326413 -0.0049491953
000370 be 95 4a be dd 0e 6b 3e af c3 a7 3e 9d 04 9b 3d
       -0.19783685 0.22954889 0.32766482 0.07569239
000380 c6 6d b8 be 44 8d bb 3e 7c 43 71 be 62 8e 21 3e
       -0.3602125 0.36631215 -0.235609 0.15776971
000390 1c 4c 82 3e 69 4f 29 be 90 d1 22 3d 6f 36 a9 be
       0.25448692 -0.16534199 0.039750636 -0.33049342
0003a0 32 dc aa bc 2f ed af 3e 7f 4e fa 3d bb b8 b0 be
       -0.02085695 0.34360644 0.12222003 -0.34515938
0003b0 f2 50 84 bd 55 a3 76 be e1 4c d5 be ad a9 b3 3e
       -0.064607516 -0.24085744 -0.41660216 0.3509039
0003c0 d4 04 2e 3e cf 62 9a 3e 97 79 b6 3e d6 c3 dc bd
       0.1699403 0.3015351 0.3563964 -0.1077954
0003d0 5d e0 4e be c3 38 9d be ea 02 bc 3d 9f 57 0b be
       -0.20202775 -0.30707368 0.09180243 -0.13607644
0003e0 d6 a0 a9 3e 45 d7 49 be 00 e8 ac be 9a 34 79 3e
       0.3313052 -0.19711025 -0.33770752 0.24336472
0003f0 23 1c 06 be d3 76 a6 3e d1 ee 43 3e 5f 71 9f be
       -0.13096671 0.3251253 0.1913407 -0.31141183

cells.0.x2h.bias f4 [256]
000000 bf a1 6f be 31 71 98 bc 5b 84 b6 3e f6 6b 71 3d
       -0.23401545 -0.018608661 0.35647854 0.05894085
000010 78 34 8e 3e 32 e6 a8 be f6 2c c2 3e a8 0e 06 3e
       0.27774405 -0.32988125 0.37924927 0.13091528
000020 69 5a ca 3e 84 e8 a5 be a4 7a 5a be 69 dc 55 be
       0.39522102 -0.32403958 -0.21335846 -0.20884861
000030 76 63 f4 bd 39 eb 1b 3e d8 e7 38 3e a2 30 58 be
       -0.11933033 0.15226449 0.18057191 -0.21112302
000040 fb f7 ab bd e1 5b 46 3d 40 fa a7 be a1 f6 8c be
       -0.08396908 0.048427466 -0.32808113 -0.27531913
000050 c9 5b bd 3e 44 42 b3 bd a4 f6 0b bd f4 c2 3c be
       0.3698409 -0.087528735 -0.03417076 -0.18433744
000060 92 11 b9 bc d9 0a f3 3c 94 d7 98 3e 31 22 3a 3c
       -0.022591386 0.029668259 0.29851973 0.011360691
000070 bd a2 b6 3e 15 49 1f 3e ac 63 56 3e 5c 1c a1 be
       0.35671034 0.15555222 0.2093646 -0.3146695
000080 79 5f c8 3e 1a 9b 99 be e5 b6 69 be a2 99 c6 bd
       0.3913534 -0.30001146 -0.22823675 -0.09697272
000090 58 9a 0f be 61 48 53 3e 0d a9 b3 3e 77 01 0f 3e
       -0.14023721 0.20633079 0.35089913 0.13965403
0000a0 dd ae b9 3e cb ce 82 3e 9d 95 aa be cf 53 59 3e
       0.36266223 0.25548396 -0.3331727 0.21223377
0000b0 fc ae 8b be 18 d7 a4 be 90 08 56 bd 09 c0 a3 3e
       -0.2728194 -0.32195354 -0.05225426 0.3198245
0000c0 29 60 aa 3d b6 47 d8 bd 5b 76 2b ba 85 59 86 ba
       0.08319122 -0.10560553 -0.00065407687 -0.0010250068
0000d0 a3 bf fd 3d 0e f8 05 3e 7b c7 06 be d0 6b 5c bd
       0.123900674 0.13082907 -0.13162033 -0.053813756
0000e0 6e 52 c2 3e 3c a5 76 3e ff 1b 8b 3e 2e 62 9a be
       0.37953514 0.2408647 0.27169797 -0.3015303
0000f0 72 e2 1d bd 17 7c 8a be 67 54 c6 3d e6 89 07 3e
       -0.038546033 -0.27047798 0.09684067 0.13236198
000100 5c 94 47 3e ae 6f e0 bd 5a 1d a0 3e e2 a4 00 be
       0.19490188 -0.10958801 0.31272393 -0.12562898
000110 66 b6 95 3e 3d d7 5b 3e 33 16 11 be 74 e9 3a 3e
       0.2924072 0.21468826 -0.14168625 0.18253118
000120 a7 ca 8a be 0f c2 18 be b7 a4 37 3e fd a1 b2 be
       -0.27107736 -0.14917777 0.17933927 -0.34889212
000130 43 70 bb be 8b 56 8a be f5 36 23 3e c7 08 57 bd
       -0.36609086 -0.27019152 0.15938933 -0.052498605
000140 5b 2b 0f be 4b ab 86 3e 83 51 af 3e ea 3d 8d 3e
       -0.13981383 0.2630256 0.34241876 0.275863
000150 3e a2 2b bd 18 4f a6 be 32 51 e2 3e f3 ca 93 3e
       -0.041902773 -0.3248222 0.44202572 0.28865775
000160 a1 0a d7 bd ae 5c 0a bd 31 47 8a bd 9f e7 2c 3e
       -0.10500074 -0.033779792 -0.0675186 0.16885231
000170 56 a1 b0 3e 16 92 8d be 70 60 8a 3e e2 36 88 be
       0.3449809 -0.27650517 0.270267 -0.26604372
000180 c3 4d 37 be 0b ad dd 3d 09 53 8a be f7 f7 44 3e
       -0.17900757 0.10824021 -0.27016476 0.19235216
000190 45 e3 2f bd 1a e5 b4 be ab be 66 3e dc b7 8f be
       -0.04294135 -0.3533104 0.22533672 -0.2806996
0001a0 73 b8 78 3e 2a 3d 2a 3e 3d 6f b2 be 07 51 f7 3d
       0.24289112 0.16624895 -0.34850493 0.120760016
0001b0 22 1c 28 be 5b ca 42 be 45 9c 3d 3e 36 bf 8f 3e
       -0.16416982 -0.19022505 0.18516643 0.2807557
0001c0 2b 55 20 be 43 bb 38 3e 78 10 d6 3c f7 89 96 3e
       -0.15657489 0.18040185 0.0261309 0.29402134
0001d0 e7 89 9d be 32 34 b8 3e 18 ce 34 3e 15 af ae 3e
       -0.30769274 0.35977322 0.17656744 0.34117952
0001e0 8d 6f a0 3d 02 9a 90 bd cd 1e 7d 3e 40 23 b6 be
       0.078337766 -0.07060625 0.24718781 -0.3557377
0001f0 23 73 b4 3e cb ff 39 3c fa 87 96 3e af 69 d7 3d
       0.35244092 0.01135249 0.29400617 0.105182044
000200 55 84 86 3d f4 55 b7 be 3e ea 9e 3d c8 36 8d 3e
       0.06568209 -0.35807765 0.07759522 0.27580857
000210 76 b2 7a 3e d3 a2 1d be 57 a7 1b be 0d b7 66 be
       0.2448214 -0.15394144 -0.15200554 -0.22530766
000220 f0 44 99 be df 1a 87 bd ef ec 71 be 32 0d 99 bd
       -0.29935408 -0.06596922 -0.23625539 -0.0747322
000230 c9 2c b8 be 62 98 45 3e 30 39 e0 3d 48 9c ac be
       -0.35971668 0.1929641 0.10948408 -0.33712983
000240 cb 35 6f 3e 82 3f 4b 3e d9 24 c1 3e bc a9 a6 be
       0.23360364 0.19848445 0.37723425 -0.32551372
000250 27 f3 cf bd d9 9b 14 bb 87 8c 37 be e8 ed 63 be
       -0.101537995 -0.00226759 -0.179247 -0.22258723
000260 32 6c 49 3d e5 c4 17 be b8 cb 96 be 20 63 6d 3e
       0.04917545 -0.14821203 -0.294523 0.23182344
000270 b0 26 7c bd ca c1 27 3e 9b cb 48 be 2a 5a a5 3e
       -0.061560333 0.16382518 -0.1960892 0.32295352
000280 85 3f 97 be df d2 1f be 6c a5 9b b9 d2 1f 71 3e
       -0.2954065 -0.15607785 -0.00029687153 0.23547295
000290 71 07 1d bd d0 6f 86 bd 78 c5 e7 bd 2a 75 59 be
       -0.038337175 -0.06564295 -0.11316961 -0.21236101
0002a0 5a 55 81 bc 95 11 af be f2 6a b3 3e e6 b6 6e 3e
       -0.01578777 -0.34193102 0.3504253 0.23311958
0002b0 0e d3 94 3e 5c f6 9d 3e 2d 38 58 bd c1 6b 04 3e
       0.29067272 0.3085202 -0.05278795 0.1293173
0002c0 5d cf c1 bc aa 69 fe bd a4 1c 1d be 13 69 81 3d
       -0.023658449 -0.124224976 -0.15342957 0.063188694
0002d0 41 51 36 be f5 d7 ac 3e f9 f8 7d be 93 8e 73 bc
       -0.17804433 0.33758512 -0.24802007 -0.014865535
0002e0 98 4e 20 bd 64 f4 25 be bf 5d 47 3d 7f 30 98 be
       -0.039137453 -0.16206509 0.048673388 -0.297245
0002f0 1a 64 ad be ae 13 f5 bc 42 5f 6c 3e 80 15 24 3e
       -0.33865434 -0.02991661 0.23083213 0.16023827
000300 54 be 9b 3e ec d1 af 3d 06 bf 76 3e ff 16 1a 3e
       0.30418646 0.08584961 0.24096307 0.15047835
000310 c1 56 f0 bd c5 b3 3a 3e 99 f6 20 3e 4d 03 2a 3e
       -0.11735297 0.18232639 0.1571907 0.16602822
000320 a5 88 f7 bd 23 60 ea bd 47 45 81 be 3d a4 a5 be
       -0.1208661 -0.11444118 -0.25248167 -0.32351866
000330 d1 22 9e be ea a1 d9 3d f1 50 d5 bd bb e8 95 be
       -0.30885938 0.10626586 -0.10415829 -0.29279122
000340 20 53 fc 3d 54 b7 9c be 87 b5 92 3e 14 dd 32 3e
       0.12320542 -0.30608618 0.2865412 0.17467147
000350 ab 9e 87 3d 68 2e 48 3e 3c 21 c4 bd 02 a0 43 be
       0.066220604 0.19548953 -0.095766515 -0.19104007
000360 97 d9 d9 bd 64 39 a1 3e d6 9b 1b 3e fd 58 b1 3e
       -0.10637205 0.31489098 0.15196165 0.34638205
000370 00 67 70 be ff 7a a4 3e 9d 96 9d bd b5 50 1f 3e
       -0.23476791 0.3212509 -0.07694743 0.15558131
000380 42 9c 84 3d e0 8d 6d 3e 95 32 a8 bd d8 ff 97 be
       0.06475116 0.23198652 -0.08212773 -0.2968738
000390 50 86 8e be c4 86 55 3d b5 b9 9c 3e c2 7e 2f be
       -0.27836847 0.052130476 0.30610433 -0.17138198
0003a0 37 76 ca 3e 86 68 31 3d c7 44 c6 3d c9 a4 68 be
       0.39543316 0.043312572 0.09681087 -0.2271911
0003b0 db 27 3c bd c3 5b c3 3e c1 33 7f 3e ec e6 c4 3e
       -0.045936447 0.38155946 0.24922086 0.3845743
0003c0 ae b1 27 3e f0 df 57 bd 70 34 9c be bb 1d f4 3d
       0.16376373 -0.052703798 -0.30508757 0.11919733
0003d0 88 08 7d 3e d7 85 2a 3e e9 e0 91 be 93 16 cd 3d
       0.24710286 0.16652618 -0.28491905 0.10014071
0003e0 dc 8f c8 3e 42 da 99 bd da 65 1a 3e 5d e6 8b 3e
       0.39172256 -0.075123325 0.15077916 0.2732419
0003f0 76 f1 65 3e 45 b5 d5 3c aa 09 87 be ee 56 8f be
       0.22455391 0.026087413 -0.2637456 -0.2799601

cells.0.h2h.weight f4 [256, 64]
000000 f4 ba c0 3d 5b 6c c8 3b a4 86 c4 bd a1 33 15 3e
       0.094106585 0.0061164326 -0.09595993 0.14570476
000010 61 58 8c bc b9 e1 f5 bd 7b c8 67 bd 2d c7 70 bc
       -0.017131986 -0.12005944 -0.056587677 -0.014695925
000020 c0 f6 1d bd 58 68 2f be 32 40 3f be 73 b4 51 bd
       -0.038565397 -0.17129648 -0.18676832 -0.05119748
000030 ff 95 80 bc 02 2c 89 bd ac a3 84 bd 3c 10 9d bd
       -0.015696524 -0.06697847 -0.064765304 -0.07669112
000040 1b 34 ce 3c 15 88 b0 bd a1 f0 89 3d 98 c5 eb bc
       0.02517133 -0.086197056 0.067353494 -0.028780743
000050 42 b4 3a bd 9c ea c6 bd 92 45 de 3d 95 19 c0 bc
       -0.045582063 -0.09712717 0.10853113 -0.023449698
000060 34 07 d2 bc b3 c4 aa bd c9 3e 16 be 65 d2 24 bd
       -0.0256382 -0.08338299 -0.14672388 -0.04023971
000070 18 d7 ea 3c 6c 4d 32 3e 44 25 3e 3e 39 3a 61 be
       0.028667018 0.17412347 0.18568903 -0.21994866
000080 b9 a8 b1 3d e0 e3 63 3d 0e 59 3b 3d ad 42 a9 3d
       0.086747594 0.05563724 0.045739226 0.082646705
000090 9b 5a 88 3d b5 42 fa 3b 62 3b c5 bc f3 bd fc 3d
       0.066579066 0.0076373466 -0.024076167 0.123409174
0000a0 56 e3 c9 bd ce be b0 3d 79 d7 bc 3d 3b 31 8a 3b
       -0.09857814 0.08630143 0.09220786 0.0042172945
0000b0 f5 18 bf 3d 67 ce e0 3c 3c 51 a8 3d de 05 16 bd
       0.09330932 0.02744217 0.08218619 -0.03662669
0000c0 37 ec 1f bd a4 04 12 be 86 00 7b bb b3 57 cb bd
       -0.03904363 -0.14259583 -0.0038299873 -0.09928837
0000d0 15 1e a3 bd af 17 07 3d 77 f2 1e be 7a 4e 38 bc
       -0.07964722 0.03298157 -0.1552218 -0.011249179
0000e0 22 aa 87 39 3b 75 bd bb 50 1b 0c be 7f ad 05 be
       0.00025875965 -0.005781797 -0.13682294 -0.13054465
0000f0 60 25 2c be 38 73 82 3c ef dc 38 3a 75 53 fa bc
       -0.16811132 0.015924081 0.00070519646 -0.030557374
000100 65 33 dd 3d b8 6d 08 be a3 b9 96 3c 90 fc 20 bd
       0.10800818 -0.13323104 0.018399065 -0.039303362
000110 d8 32 f7 3d df 79 80 bb 4b 91 3c bd 85 0e d3 bd
       0.120702446 -0.003920778 -0.046037 -0.10305504
000120 6a 09 34 bc 4d 4f d2 3c 9d 31 db 3d 17 b9 05 bd
       -0.010988573 0.02567258 0.10702822 -0.03264722
000130 4c 39 6b bd f3 98 e8 3d 7a 7b d0 bd 2b d6 ae 3d
       -0.05742769 0.11357298 -0.10179801 0.08536943
000140 b8 e0 72 3c 03 7f 13 be df a2 86 bd 9d e3 4d 3c
       0.014824085 -0.1440392 -0.06574034 0.012566474
000150 19 b9 62 3c 2a ce 0d bd 50 32 df 3a bb 58 7a 3d
       0.013838076 -0.03462044 0.0017028544 0.061119776
000160 ab 03 98 bd 7c 20 30 bd 12 1c 57 bd c8 a3 18 be
       -0.074225746 -0.04299973 -0.052517004 -0.14906228
000170 73 1d 06 be d4 50 0d 3e 5f 08 17 bd 56 14 34 3d
       -0.13097171 0.13800365 -0.036873218 0.043964706
000180 e6 38 a6 3d 28 fb e8 3d c9 80 3d bd 1b 3f a7 bd
       0.08116321 0.11376029 -0.046265397 -0.08166333
000190 20 60 5f bb 9a 2f f8 bd 1d ac e6 bc c0 7f d3 3d
       -0.0034084395 -0.12118454 -0.028158242 0.10327101
0001a0 c6 d5 6e 3d 7f f2 de 3d ed 24 c8 3d 22 51 68 bd
       0.05830934 0.10886096 0.09772668 -0.056718
0001b0 4f be 0c 3c c8 4f 25 3d c1 e1 ec 3d f6 86 c6 bb
       0.008590295 0.04035929 0.11566497 -0.006058569
0001c0 52 12 12 3e 55 c7 d0 3d 3a 03 d0 3a bd 86 e1 bc
       0.14264801 0.101942696 0.0015870102 -0.027530069
0001d0 38 d7 60 3d 12 dd 98 bd f3 11 97 3d 13 65 ba 3d
       0.05489275 -0.07464041 0.073764704 0.091013096
0001e0 67 1f 87 3d e0 68 9c 3d 80 81 b8 3b 6b 91 8c 3d
       0.065977864 0.07637191 0.005630672 0.06863674
0001f0 ad 1a 55 bd 98 02 08 bd d4 c1 ea 3d b0 9d 2f bc
       -0.052027393 -0.0332056 0.11462751 -0.010718748
000200 dd 11 b8 3d 9c 26 1a bd 2c f2 fe bc af e9 f7 3d
       0.08987782 -0.037634477 -0.031121336 0.121051185
000210 fc 2b 1b bd d7 20 dc 3d db f8 28 3d f1 4c 95 bd
       -0.037883744 0.10748451 0.041252952 -0.07290066
000220 10 8c ff 3d 27 0d a6 3c b8 ca bc 3d 63 75 53 bc
       0.12477887 0.020269943 0.09218353 -0.012906405
000230 08 3f a7 3c be f7 d8 3b da 34 4a 3d 68 db 01 be
       0.020415798 0.00662133 0.04936681 -0.12681353
000240 9f ec eb bc d3 5d 46 3d 13 59 71 3d 70 51 d3 3d
       -0.028799353 0.04842932 0.05892284 0.10318267
000250 fb 05 bc 3b 03 83 98 3d 84 1a 86 bd 21 75 a7 bd
       0.0057380176 0.074468635 -0.06548026 -0.081766374
000260 31 f9 18 be ca 39 0f bd ed ef 09 bd e3 f8 b9 bd
       -0.14938809 -0.03496722 -0.033676077 -0.090806745
000270 6c b0 2a 3d cc ad 0b 3c f8 f5 a7 3d cc ef bc 3c
       0.041672155 0.008525323 0.08201212 0.023063563
000280 c9 fe b5 bd 8a 74 cb bd 14 fb 22 3e 74 0e 25 3e
       -0.08886487 -0.099343374 0.15916091 0.16118795
000290 e1 ad 29 3d 85 51 a2 bd b2 3c 8a bd f8 83 77 3d
       0.04142559 -0.07925705 -0.06749858 0.06042859
0002a0 d6 6b 9a 3c e6 84 ad 3d c2 8a 57 3d a0 91 67 3d
       0.018850248 0.08472614 0.052622564 0.056535363
0002b0 4c b1 4f bc a5 84 ea bd c6 61 4a 3d ff 7f 18 bd
       -0.012676548 -0.11451081 0.04940965 -0.03723144
0002c0 65 e1 a2 3c ce ff d9 bd 57 83 11 3e b9 a8 3d 3d
       0.019882867 -0.10644494 0.14210258 0.046303485
0002d0 8c 3d 0c 3e f4 28 7c 3c bf f7 a9 bd a0 ce 9a 3a
       0.13695353 0.015390623 -0.08299207 0.0011810847
0002e0 a4 84 e8 bd 20 fa fd bd 28 66 6a 3d c0 35 21 bd
       -0.11353424 -0.12401223 0.05722633 -0.0393579
0002f0 9c 2b a1 bd 3b ba 1a 3e b2 17 e4 3c 9c 01 62 ba
       -0.07869646 0.15110104 0.02784333 -0.00086214556
000300 a1 20 38 bd e0 44 8d bd ec c2 80 bc cd 51 1b ba
       -0.044952992 -0.068979025 -0.015717946 -0.000592497
000310 18 73 c5 3d cf 02 8e 3d 22 3d 93 3d 1e cf 46 3d
       0.09641093 0.069341294 0.071893945 0.048537366
000320 c9 c0 0c 3e fd a0 64 bd 9f 67 4f 3d 36 7d 38 3d
       0.13745417 -0.055817593 0.05063593 0.045041285
000330 51 f5 83 3d 08 d9 43 bd bf 03 a4 bd 6e a6 fe bc
       0.06443275 -0.0478144 -0.08008527 -0.03108522
000340 63 96 d4 bd f8 d3 f3 bd 7e c1 10 bd f9 db d7 3d
       -0.103802465 -0.11905664 -0.03534078 0.10540003
000350 a9 cb ef 3b fc e5 9f 3d 0f 00 18 3d f2 f6 87 bd
       0.0073179794 0.07807538 0.03710943 -0.06638898
000360 a8 c9 81 3d 79 4a 37 bd 3f 00 3c bd 46 22 02 bd
       0.06337291 -0.044748757 -0.045898672 -0.031770967
000370 92 3d eb 3d 6b d4 68 bd 8a 62 ee 3d 31 bf a9 bd
       0.11486353 -0.056843203 0.116398886 -0.0828842
000380 d2 25 9a 3c ba f7 39 bc 70 ae fe 3d 2a fd e7 bd
       0.018816862 -0.0113505665 0.12435615 -0.11327584
000390 27 1b 3c bd b4 5d 6f 3d e7 80 bd 3c 41 5d 08 3b
       -0.045924332 0.05843897 0.023132754 0.0020807537
0003a0 cf 12 04 3e 5c 05 bb 3d a0 3c bd b9 56 0b 1d 3b
       0.128978 0.091318816 -0.00036094058 0.0023963056
0003b0 2b 1c 1c 3e 31 03 54 bd 34 9b 39 bd 65 7a 50 3d
       0.1524512 -0.051760856 -0.04531403 0.050897975
0003c0 62 5b d9 3d 1c 38 87 3d a1 33 6f 3d d7 1f 0a be
       0.10613133 0.06602499 0.058398847 -0.13488708
0003d0 77 83 ad 3c d2 1e cc 3d 24 99 d3 3c b4 42 e3 3d
       0.021180851 0.09966816 0.02582986 0.11096707
0003e0 c5 5d 55 3c 96 61 0f 3d 9e 8f e5 3d 41 d4 c4 3d
       0.013022845 0.035005175 0.112090334 0.09610797
0003f0 e6 05 67 bd 6e 01 e7 3d 7c c6 83 bd 59 0e 02 3b
       -0.05640211 0.112795696 -0.06434342 0.0019844978

cells.0.h2h.bias f4 [256]
000000 57 cf e8 3d 00 10 6c bd a9 ee 25 3c dc cc c4 3c
       0.11367672 -0.057632446 0.010127702 0.024023466
000010 45 71 95 bd 15 42 83 3d 45 28 58 bd e4 c0 c9 3d
       -0.07296995 0.064090885 -0.05277278 0.09851244
000020 47 b1 0e bd 98 d1 6c 3d e7 0d 1f 3d 3d 55 d8 bc
       -0.034837034 0.05781707 0.038831618 -0.026407832
000030 e8 a7 17 3e f3 ee b9 bd 81 6a f7 3d 1c 33 14 3d
       0.14810145 -0.09078779 0.12080861 0.036181554
000040 94 fa 93 3d a1 1c 28 3e 13 1b fa 3c 48 e0 13 3e
       0.07225528 0.16417171 0.030530488 0.14441025
000050 9e 61 c7 3a 41 a2 9c 3d 58 b1 48 3d 29 df 00 3d
       0.0015211587 0.07648135 0.048997253 0.031462822
000060 62 ae 15 3e 6e 81 69 bd ee aa cf 3d c7 1f 2f 3c
       0.14617303 -0.0570082 0.10140024 0.010688729
000070 2c 11 05 bd a2 58 ee bc 64 00 96 3d d0 f4 d9 3d
       -0.03248708 -0.029094998 0.07324293 0.106423974
000080 63 76 bc 3d 8d c4 d2 bd 54 5d 3a 3d b5 a2 85 bd
       0.09202268 -0.10291395 0.04549916 -0.065251745
000090 09 96 fc 3b 23 b5 d0 3d b0 9a 8a 3d 4d 63 8d 3d
       0.0077083153 0.10190799 0.067677855 0.06903706
0000a0 41 02 64 3d fd 86 ac bd 32 18 9d bd 1c fc 4d 3d
       0.055666212 -0.084241845 -0.076706305 0.05028926
0000b0 c8 86 94 3d fd 3d 0c 3d da 1b d8 3d 2e 39 89 bc
       0.0725227 0.034238804 0.10552187 -0.016750898
0000c0 e8 71 d2 bc 40 c3 c7 3d 1f 33 be 3b 51 ef 18 bd
       -0.02568908 0.09754038 0.005804434 -0.037337605
0000d0 a4 df 67 3a 66 a7 32 3d 2c 24 11 bd 06 5e d4 bd
       0.0008845276 0.043616675 -0.035434887 -0.10369496
0000e0 37 8b a3 bd de 48 01 bd c3 3b 86 bd d6 63 2a 3d
       -0.079855375 -0.031563632 -0.065543674 0.041599117
0000f0 4d ed 87 3d fb 2a 27 3c 03 66 71 bd 7f 17 e7 bd
       0.066370584 0.010203118 -0.058935177 -0.112837784
000100 de 99 00 3e b5 16 f0 bc 29 c4 d0 3c 4d 60 f4 bd
       0.12558696 -0.029307703 0.025484161 -0.119324304
000110 80 79 93 bc 93 26 15 bd b4 a5 bc bd ac 30 82 3c
       -0.018002272 -0.03641374 -0.09211293 0.01589235
000120 3d 37 71 bb 55 67 50 3d f5 2c 83 bd d3 76 e8 bc
       -0.0036806606 0.050879795 -0.06405059 -0.028376972
000130 a9 49 df bd af 86 1d 3d 02 af 1f 3d 0b e7 b7 3d
       -0.109027214 0.038458522 0.03898526 0.08979615
000140 2f 05 43 bd 14 47 88 bd 0d f2 71 3d c2 5c b7 3d
       -0.047612365 -0.06654182 0.05906873 0.08953239
000150 fb 00 ba bd a5 72 1a 3d e3 48 33 3e 16 e0 5b 3d
       -0.09082218 0.03770699 0.17508273 0.053680502
000160 40 5a 0c 3e 90 47 38 3d d8 86 0d 3d ce 4d c5 bc
       0.13706303 0.044990122 0.034552425 -0.024084952
000170 64 73 76 bd 26 b1 3c bd 41 97 b4 bd 87 3d 40 bd
       -0.06016864 -0.04606738 -0.08817912 -0.046933677
000180 73 89 ec 3d 28 8c bb bd cb 0a b4 3d 5b 9d 0e 3e
       0.11549654 -0.09157592 0.08791121 0.13927214
000190 27 12 51 3d e5 3e a1 bd 1f 8d b7 bd 96 fe 04 3e
       0.051042702 -0.07873324 -0.089624636 0.12987742
0001a0 1c 56 0b 3e 0f dd fb 3d df dd d4 bd b9 ec 49 bd
       0.13607067 0.12298023 -0.10393881 -0.049298022
0001b0 5f ea 88 bc fc de bd 3d 0f 10 c6 3b 7d ba ba bd
       -0.01671332 0.092710465 0.006044395 -0.09117601
0001c0 ed d9 03 3e 20 34 1b 3c 91 e9 3d bd 95 12 a2 3d
       0.12876101 0.009472877 -0.046365324 0.079137005
0001d0 60 03 81 3d 22 16 ca bd f5 0c 1b bc a8 1b bd bd
       0.06299472 -0.09867503 -0.009463538 -0.09233791
0001e0 0f b6 6f bd b7 82 7d bd c2 f0 9a bd 7f 60 6b bd
       -0.058523234 -0.061892238 -0.07565452 -0.057465073
0001f0 5f 06 8f bd 23 53 a6 3c d0 b2 70 bc 95 38 f0 3d
       -0.06983637 0.020303315 -0.01469107 0.11729542
000200 c5 d0 09 3e 40 91 ee bd b4 57 8c 3d 2c 9d c6 3d
       0.13458546 -0.11648798 0.068526655 0.09697947
000210 1b 3a 0e be f8 d4 a2 bd dd d0 de 3d 9b 83 10 3e
       -0.13889353 -0.07950777 0.10879681 0.14112704
000220 db 04 fc 3d 80 f1 9a 3c 87 2c 77 bd 17 eb ba 3d
       0.123056136 0.018913984 -0.0603452 0.09126871
000230 c2 51 a2 3c d0 80 01 be b6 b2 ed 3d b6 b6 bc bd
       0.019814376 -0.12646794 0.11606352 -0.09214537
000240 d3 c8 ba bd 66 74 9f bd 91 44 70 3d 80 9f b3 3c
       -0.091203354 -0.07785873 0.05865914 0.021926641
000250 c7 9f 65 bd 5d 02 37 bd f8 a4 35 bb 54 a7 07 3d
       -0.05606058 -0.04467999 -0.0027716737 0.03311856
000260 0d 5b da 3b 1d cf 01 bd f0 37 2e bd a7 2d ce bd
       0.006663686 -0.03169166 -0.042533815 -0.10067301
000270 77 74 03 3e fb 94 99 bd bf 6a a5 3c 6d 24 a7 bc
       0.12837397 -0.07499119 0.020192502 -0.020403111
000280 a9 49 a3 bc 91 1c 6d 3d 8a 10 b6 3d 10 95 ab 3d
       -0.019932585 0.05788857 0.08889873 0.08378041
000290 46 8f e7 3d c6 33 9a bd de 59 e4 3c e4 69 51 3d
       0.11306624 -0.07529406 0.027874883 0.051126376
0002a0 7d 81 7e bc 6f 52 92 bd 38 53 67 bd ee 4f 75 bc
       -0.015533802 -0.07144629 -0.056475848 -0.01497267
0002b0 6c ec ff bd 6b 96 70 bd 20 c4 ca bd 36 d1 8f bd
       -0.12496266 -0.0587372 -0.09900689 -0.07022326
0002c0 fd 13 9b 3d a6 f2 c9 bd 29 79 df bd 6f 25 4e 3d
       0.07572172 -0.09860735 -0.10911781 0.05032867
0002d0 a3 69 d7 bc ba ed 31 bd 3a f1 e7 3c 30 77 eb bc
       -0.026295489 -0.043439604 0.028313268 -0.028743356
0002e0 99 7d fa 3b 68 c1 de bd e7 85 45 bd 56 0a 11 bd
       0.007644367 -0.10876733 -0.048223402 -0.035410248
0002f0 39 00 a8 3d 31 85 a4 3d 1a bc 01 bd b7 e1 b2 3c
       0.082031675 0.08033217 -0.03167353 0.021836145
000300 0a 7a 3a 3e bc af c1 3d 80 6e 95 3c 9c 3c 33 3d
       0.18210617 0.09457347 0.018241167 0.043758973
000310 09 0c 1e 3d e8 a6 d1 3d 6f 96 dc 3c 37 e0 b6 3d
       0.038585696 0.10236913 0.026927201 0.08929484
000320 f3 3e cc 3a 27 8e 84 3c 70 fd 60 bc 45 2c e8 bb
       0.0015582725 0.016181065 -0.013732299 -0.0070853555
000330 4e f4 9d 3d 86 58 45 bd 3f 5d e3 3d 7e 4c ba 3d
       0.07712613 -0.048180126 0.1110177 0.09096621
000340 32 a9 fb 3d 7b 66 61 3d 2d df c6 3d 46 20 32 3d
       0.12288131 0.055029374 0.09710536 0.04348781
000350 3b 80 ef bd 44 c2 20 3e 0a d1 eb 3b fe de 2c bb
       -0.1169438 0.15699106 0.0071965503 -0.002637803
000360 78 bf 2e 3d af 11 eb 3c 20 4d 94 3d 2d 6a 37 3d
       0.042663068 0.028694956 0.07241273 0.04477899
000370 4b 07 48 3d f9 bd c7 bd bb 89 b2 bc 19 cc fb 3d
       0.04883508 -0.09753031 -0.02179419 0.12294788
000380 42 31 e2 3d 14 86 aa bd 64 1e 47 bd 00 d0 01 3d
       0.110445514 -0.083263546 -0.048612967 0.031692505
000390 8c 49 73 3d d4 cc b0 bd e8 a2 e7 3d 9c 9e c6 3d
       0.05939631 -0.08632818 0.11310369 0.09698221
0003a0 02 63 0c 3e ce 2e f2 bb aa 00 d3 3c 74 d8 cc 3c
       0.13709643 -0.0073908335 0.025757153 0.025005557
0003b0 96 35 25 3e a6 43 0a 3e 88 1f 5a 3d 21 08 0e bd
       0.16133723 0.13502368 0.053252727 -0.03467572
0003c0 14 96 b0 3d 94 3e 01 3e 6a 00 bc 3d b6 44 09 3e
       0.08622375 0.12621528 0.091797665 0.13405117
0003d0 e4 89 6e 3c 10 86 b4 3d ae f8 ed 3d 85 85 f1 3d
       0.014559243 0.08814633 0.116196975 0.11793045
0003e0 0c 47 5a bd 18 27 9b bd 6b d7 b8 3c a4 04 3a 3d
       -0.05329041 -0.07575816 0.022563657 0.045414582
0003f0 52 7b c3 3d eb 2d 84 bd 38 b8 28 3d a5 d3 13 bc
       0.09545006 -0.06454071 0.04119131 -0.009022628

cells.1.x2h.weight f4 [256, 64]
000000 28 f5 ce 3d cc 60 ef bd 16 ca 6b bc 23 f7 87 bd
       0.101053536 -0.116883844 -0.014391443 -0.066389345
000010 be b5 2e 3d 85 73 f6 bd 71 81 10 be 12 57 e6 3c
       0.04265379 -0.12033752 -0.14111878 0.02811769
000020 49 27 b0 3d 44 4c 65 bd de a9 08 be c9 1f e2 bd
       0.08601243 -0.055980936 -0.13346049 -0.11041219
000030 8a 1f 24 3d c2 f8 00 3b b8 f2 7d bb 81 e8 f5 bd
       0.04006914 0.0019679521 -0.0038749408 -0.12007237
000040 c6 cb aa bc 6f 55 bc bd 35 74 b5 3d 83 c6 8f 3d
       -0.02084912 -0.09195983 0.08860055 0.07020285
000050 17 5f 1b be 97 fa ba bd f3 57 ad 3c 56 e0 86 3d
       -0.15172993 -0.091298275 0.021160102 0.065857574
000060 49 29 db 3d 90 d4 5c 3d 8f f2 3b bd 94 5d 3f bb
       0.10701234 0.053913653 -0.04588562 -0.0029200064
000070 40 b5 aa bc 9c ff 05 bd 7d 80 40 3e c7 95 4f 3d
       -0.02083838 -0.03271447 0.18799014 0.05067995
000080 b9 e1 77 bd 14 b5 92 bd cd 3f 47 bc e1 89 9c 3d
       -0.060518 -0.07163444 -0.012161207 0.07643486
000090 91 60 d9 3d 4b 80 ae bd cb dc c9 3d 05 f5 f9 bc
       0.10614122 -0.08520564 0.09856566 -0.030512342
0000a0 14 20 dd bc c7 2e 51 3d b2 7a 9a 3d 14 0c bd bd
       -0.026992835 0.05107 0.075429335 -0.09230819
0000b0 36 9b 5f 3d 80 1c e7 bd 36 76 05 3d 13 4c 08 be
       0.05459138 -0.11284733 0.032583438 -0.1331027
0000c0 17 47 f4 bc 8d 2b 8b 3d 32 f7 bd 3b dc 59 a9 bd
       -0.029819055 0.06795416 0.0057972902 -0.082690924
0000d0 eb fe 18 bd 41 ca 7e bc f9 66 b4 bd bb 59 2f 3a
       -0.037352484 -0.015551151 -0.08808703 0.0006689091
0000e0 c4 ae dc bd 8c bf 12 be 78 f2 40 3d 84 9f b1 3d
       -0.107755214 -0.14330882 0.047106236 0.08673003
0000f0 7b 68 da 3c 20 c7 79 3d 48 94 8e 3d e0 d2 c5 3d
       0.026661148 0.060980916 0.06961876 0.09659362
000100 76 92 84 3d ab 19 ab bd 07 e1 cb ba 19 6a eb 3c
       0.06473248 -0.08354505 -0.0015554734 0.028737115
000110 f6 cc 90 3c be 13 c8 3d dd 7b 82 3b 22 a5 eb bd
       0.017675858 0.097693905 0.003982051 -0.11506106
000120 85 af 95 3d 38 05 3b bb fa 22 fc ba 48 c5 65 3d
       0.07308868 -0.0028537046 -0.0019236498 0.056096345
000130 c7 b8 9b bd 5e 42 b4 bd 91 57 29 3c 19 c2 91 3d
       -0.07603603 -0.08801721 0.010335819 0.07117099
000140 3d a8 18 bd 53 39 ca bc 8b 12 b4 ba 69 9d b7 bc
       -0.03726982 -0.024685537 -0.0013738436 -0.022413926
000150 eb 79 f3 3d a4 13 23 3e da 69 17 3e 43 bb 2f bd
       0.118884884 0.15925461 0.14786473 -0.042903196
000160 8c 66 15 3e 7b 89 ac 3d 76 97 db 3a f2 4e 03 bd
       0.145899 0.0842466 0.0016753513 -0.03205771
000170 07 cd 18 bc 11 d5 78 bd f4 c7 c3 bc 50 2c 64 3c
       -0.009326226 -0.06075007 -0.023899056 0.013926581
000180 ee b5 0f be 4c ec b0 3c a2 69 cd bd 6b 01 b3 bb
       -0.14034244 0.02159705 -0.100299135 -0.0054628155
000190 fe 22 92 bd 56 ed e1 3c 37 13 32 bd aa 1b cb 3d
       -0.071355805 0.02757899 -0.043475356 0.09917386
0001a0 12 8a 97 3d 66 d0 2b bd 51 d8 0a 3e a5 ca 99 3d
       0.07399382 -0.04194679 0.1355908 0.075093545
0001b0 0d 02 75 3d b1 1d 92 3d 86 75 60 bb 63 0f cc bd
       0.05981641 0.071345694 -0.0034249737 -0.09963872
0001c0 3f 86 3b 3e 22 40 d2 bd cd d4 79 bd c3 9d 90 3d
       0.1831293 -0.102661386 -0.06099396 0.07061341
0001d0 04 f0 a0 bc 3d cb 4c 3e 9f 5b e8 3d a6 a9 ab bc
       -0.019645698 0.19999404 0.113456 -0.020954918
0001e0 c4 e0 11 be 08 89 10 be 2d 59 84 3d 6b 40 54 bd
       -0.14245898 -0.14114773 0.064623214 -0.051819246
0001f0 46 0e fc bd 62 21 5c bd c7 88 49 bc 7c 97 47 3d
       -0.1230741 -0.053742774 -0.012300677 0.04872845
000200 7e a1 5a bd 7b 4f d2 bd b9 4f 16 3e 44 86 21 3e
       -0.053376667 -0.10269066 0.1467885 0.15773875
000210 ca 70 d5 3d a5 b7 19 be 6c c4 13 be 31 a9 d8 bd
       0.104219034 -0.15011461 -0.14430398 -0.10579146
000220 d3 eb a9 3c 72 ad 4f 3d 1e 3c 35 bd f1 eb 18 be
       0.020742333 0.05070252 -0.044246785 -0.14933755
000230 30 8c d2 3d 79 6f 36 3d 69 64 7e bd 75 25 92 3d
       0.10280645 0.044539902 -0.062107477 0.071360506
000240 f2 ee 03 bd 14 cc 8c bc eb 28 fa 3d 99 80 b5 3a
       -0.032210298 -0.017187156 0.12214836 0.0013847529
000250 e7 79 17 3d 8a 4f 84 3d 89 da 73 3d 8d 33 85 bd
       0.03698149 0.06460483 0.059534583 -0.06503973
000260 6a 03 bb 3d bb a7 28 be 79 d7 c6 bd 40 29 01 3d
       0.091315106 -0.16470234 -0.09709067 0.03153348
000270 8d b1 d1 bd 78 cb 6f 3c e6 14 3b 3e f9 70 33 be
       -0.10238943 0.014635913 0.18269691 -0.17523564
000280 fb cf a9 3d a5 aa b4 bd b1 ba 73 bd e3 8f eb 3c
       0.08291622 -0.0882161 -0.059504215 0.028755134
000290 62 1a c5 3d 39 b8 bf bd c9 79 77 bd 1f 67 50 3d
       0.09624173 -0.093613096 -0.060418878 0.050879594
0002a0 93 23 0f bc a7 89 0a 3c f0 6e 32 3e 2d ab 14 3e
       -0.008736509 0.00845567 0.17425132 0.14518423
0002b0 6a 79 10 3e 13 0d 7f 3d db 42 44 bc f5 32 ba bd
       0.14108816 0.062268328 -0.01197883 -0.090917505
0002c0 15 2f 89 bc 21 ee 65 bd 9c 4b 31 bd 39 39 d5 bd
       -0.016746083 -0.0561353 -0.043284997 -0.10411305
0002d0 dd c5 b4 bd a8 9e 93 3d 92 80 cc bd c5 b8 9d bd
       -0.08826802 0.07207996 -0.0998546 -0.077012576
0002e0 a2 8c c0 3d b0 3c 1e be 68 bc 80 bd b9 70 11 bd
       0.094018236 -0.15452838 -0.06285936 -0.03550789
0002f0 84 21 9e bd bb 0a 72 3d 98 04 1f bd ce eb 38 3d
       -0.07721236 0.059092265 -0.03882274 0.045146756
000300 db d4 ee 3d 7e fa 96 3b d8 ff 68 bd 93 e5 39 bc
       0.11661693 0.0046074977 -0.056884617 -0.011346239
000310 8d 23 1f 3d e4 a2 d5 3b 83 a6 9e bd ac 6c 13 3e
       0.038852263 0.006519662 -0.07746603 0.14396924
000320 f3 68 b6 3d 84 88 96 3d 94 d0 ef bd 30 93 6f bd
       0.08906736 0.07350257 -0.11709705 -0.05848998
000330 4b 93 c0 3d b7 08 3e bc 8f 82 85 3d ff 39 d0 bd
       0.09403094 -0.0115987575 0.06519043 -0.10167312
000340 a4 08 8b bc 9a db 9a bd 28 a8 17 3e 67 0e 01 bc
       -0.016971894 -0.07561417 0.1481024 -0.007876969
000350 94 5e 75 bd 11 9e d8 bd 56 db e9 bc ee d5 a1 bd
       -0.05990465 -0.10577024 -0.02854697 -0.07902132
000360 3d 9a 8d bd e5 4b 8b 3d 6c 2e 3f bd b5 8c 87 3d
       -0.06914184 0.06801585 -0.04667513 0.066186346
000370 e8 85 06 be ce 35 41 bd 93 c8 e0 bc 0a 88 57 bd
       -0.13137019 -0.047170453 -0.027439391 -0.05261997
000380 56 2e 8b bd 1c d0 f6 bd dd 45 04 be 64 dc 45 bd
       -0.06795947 -0.120514125 -0.12917276 -0.048305884
000390 fb 0c 88 3d 30 33 cd bd 4c f5 a6 3d 71 48 07 3e
       0.06643101 -0.10019529 0.081522554 0.13211228
0003a0 60 3e a2 3d 2a 5f 8e 3b 9f eb 97 bd 3e d0 0d 3e
       0.07922053 0.0043448405 -0.07417988 0.1384897
0003b0 7f d1 8c bc 0c d5 4d 3d 5f c1 b7 3d 3c 1c db bd
       -0.01718974 0.050252005 0.089724295 -0.10698745
0003c0 17 bc d1 bd c9 41 bc 3d 2a f3 36 3d 4c 37 43 bd
       -0.102409534 0.09192235 0.044665493 -0.047660157
0003d0 de b6 18 3d 17 eb b9 3d 0c 11 27 be 34 d6 10 bc
       0.03728377 0.09078043 -0.16315097 -0.0088401325
0003e0 21 74 d1 3b e2 5e 9d bd 9d 58 bc bd 0e 92 3b bd
       0.0063920175 -0.07684113 -0.09196589 -0.045793585
0003f0 23 ad ea 3c 5a d0 ca 3b 8b 50 fa bb 4e 88 f9 3c
       0.028647011 0.006189388 -0.007638996 0.030460503

cells.1.x2h.bias f4 [256]
000000 1c 2a 49 bd 21 3a 97 3d 48 32 6b 3d 8f 59 8e bc
       -0.049112424 0.07384134 0.057421 -0.01737669
000010 1b 69 cd 3d cd 29 9d 3d 19 4b a2 bd 8e d7 3e bb
       0.10029813 0.076739885 -0.0792448 -0.002912018
000020 50 6c d7 bd 5b ba 3f 3d 90 1c d7 bd 1a 3d 2e 3d
       -0.10518706 0.04680858 -0.10503495 0.04253874
000030 aa ad 9d bd 70 a3 83 bd eb 1c 0a 3e 68 8a a2 3d
       -0.076991394 -0.064276576 0.13487594 0.07936555
000040 c9 8e d8 3d c5 81 01 3e 4d 84 d0 3d 82 5d e9 3d
       0.10574109 0.1264716 0.10181484 0.11394788
000050 30 89 9b 3d 7b 84 05 3e 38 33 5d 3c b6 9c 97 3d
       0.07594526 0.13038819 0.013500981 0.07402937
000060 56 72 c5 bc c7 79 8a bd bf 07 55 bc e0 53 6b 3d
       -0.024102371 -0.067615084 -0.013002335 0.057453036
000070 45 80 2b bd 73 58 1d bd 2c d0 e2 bc ba f0 a0 bd
       -0.041870374 -0.03841443 -0.027687155 -0.07858415
000080 1a 24 e2 3d 79 fc ca 3d 5e 23 4a bd de 9e e6 3d
       0.11042042 0.099114366 -0.049350135 0.1126077
000090 a8 5d 01 3e 08 16 22 3e 38 2f e5 3c d4 bf a9 3d
       0.12633383 0.15828717 0.027976617 0.082885414
0000a0 16 48 2e 3d 86 10 8f bc 6c 7f 58 3d 3c e4 a0 3c
       0.042549215 -0.017463934 0.052855894 0.01964008
0000b0 f5 fe b2 bd 9e 25 e9 3d 5d 71 b7 bd ce 5a 91 bc
       -0.087400354 0.11384128 -0.08957169 -0.017743494
0000c0 67 06 ce 3d 0c ca 9a bd b7 3d 63 3d ef cd a1 3c
       0.10059815 -0.07558069 0.055478778 0.019751517
0000d0 ab 30 c1 3c 0e 06 98 bc 8a b8 c7 3c 20 bd 9e bc
       0.023582777 -0.018557575 0.024379987 -0.019377291
0000e0 c8 c6 83 3d eb f3 80 3c 6f c5 73 3d f8 9d c7 bd
       0.06434399 0.01574131 0.05951446 -0.09746927
0000f0 33 53 16 3e ab b4 9e bc d2 e7 19 3b 8d 58 25 3e
       0.14680175 -0.019373259 0.0023484123 0.1614706
000100 85 3f e7 bc c9 9e de bc 24 a9 a1 bd c6 df d1 bd
       -0.02822853 -0.027175324 -0.07893589 -0.102477595
000110 fe b0 2e 3e 9e 0a c3 bd 0f ac 68 3d 48 58 d5 bd
       0.17059705 -0.095235094 0.056804713 -0.10417229
000120 82 ad e9 bd 8c b5 aa bd e4 f1 86 3c 82 29 a9 bb
       -0.11410047 -0.083354086 0.016472764 -0.005162419
000130 72 11 7b 3d 7e 0f 35 3d 4a 30 8f bd 07 31 17 bc
       0.061295934 0.044204228 -0.06991632 -0.009227998
000140 96 4d ed 3d 4e 10 18 3d 99 1b 7a bd af f8 b6 3c
       0.11587064 0.037124924 -0.061061475 0.022335378
000150 fd 3a aa bd 54 35 52 ba cc 93 31 bd 5f c0 ea 3d
       -0.08312032 -0.0008018811 -0.04335384 0.11462473
000160 44 f6 e7 bc 34 35 3c 3c d6 c0 94 bc b6 60 c0 3d
       -0.02831567 0.011487294 -0.018158358 0.09393446
000170 4a c8 c8 3d fd 6f 37 3d b5 cb 8d bd 41 f3 a0 bd
       0.09803827 0.044784535 -0.0692362 -0.07858897
000180 54 d1 04 be 01 fe 58 bd 58 19 c0 bd bd 58 6a bd
       -0.12970477 -0.052976612 -0.09379834 -0.057213534
000190 ba 08 9e 3d 79 70 fd 3d 23 36 a2 3d 72 f8 8d bd
       0.07716508 0.12374968 0.07920482 -0.06932153
0001a0 8e db b5 3c 6d eb 89 3d 65 c5 e6 3b 51 6e e0 3d
       0.022199418 0.06734357 0.007042574 0.10958541
0001b0 38 4b eb 3d e6 93 82 3d 7f d1 5e 3c b4 48 d5 3d
       0.11488956 0.06375866 0.013599752 0.10414258
0001c0 60 a4 23 bd 62 c9 80 bd 83 bb b1 bd b6 c4 a5 3d
       -0.039951682 -0.06288411 -0.08678343 0.0809416
0001d0 3f e1 1e 3d f2 54 1c 3d 97 4f 69 bd 03 cc ea 3d
       0.03878903 0.038166948 -0.05696067 0.114646934
0001e0 5e 76 cf bc 42 93 9f bd 85 f8 d9 bd aa b2 d0 3d
       -0.025324997 -0.07791759 -0.106431045 0.101903275
0001f0 50 23 09 3e 7f ff 7b bd 98 1a f9 bd df 5c 75 3d
       0.13392377 -0.061522957 -0.121632755 0.059903022
000200 c0 d5 4b 3d cb 92 e3 3b 2d 88 89 3d 1c 75 7b bd
       0.049764395 0.0069449893 0.067154266 -0.06139098
000210 65 ba 4c bd 00 b4 06 bd b8 b6 4b bd 57 a7 96 3d
       -0.049982447 -0.032886505 -0.0497348 0.07356136
000220 5b 69 73 bc 3d a0 e6 3d 47 82 da 3d 80 16 17 bc
       -0.014856662 0.11261032 0.1066938 -0.009221673
000230 6e 4a 8e 3d 1c 6e 00 3d 67 f3 e9 bc 6d 37 76 3c
       0.0694779 0.03135501 -0.028558446 0.015027863
000240 f0 10 b2 3d 5b 19 b7 3d 21 4b 51 3d 3a 81 f5 3d
       0.08694637 0.08940383 0.05109704 0.11987539
000250 32 e4 19 3c 2f 96 b5 bd b4 58 96 bd d8 9e 3c 3d
       0.009392785 -0.08866536 -0.073411375 0.046049923
000260 2c 42 5a 3d e2 f7 d4 bd 9c 14 73 3d 80 30 89 bc
       0.053285763 -0.103988424 0.059345827 -0.01674676
000270 2d 2e 54 bc f5 b1 67 3d 5e e9 db 3d bc 1c 20 bd
       -0.012950462 0.056566197 0.10737871 -0.039089903
000280 37 87 bd bd ff 61 80 bc 11 7b bc bd cb 26 2b bd
       -0.09254306 -0.015671728 -0.092031606 -0.041785043
000290 18 50 ac bd be af 50 3c b6 29 a8 bd 53 89 5a bb
       -0.08413714 0.012737213 -0.08211081 -0.0033346012
0002a0 00 5c 9a 3d 9b e2 e8 bd 48 cb 88 bb 8e e8 ba bc
       0.07537079 -0.113713466 -0.0041746236 -0.022815969
0002b0 70 21 a7 bc 88 96 cb 3d 80 3f 62 bd 7b dd ce bd
       -0.020401686 0.09940821 -0.05523634 -0.10100838
0002c0 08 fc cd bd 55 00 9e bd 67 0d 07 3d 3f 52 b6 3d
       -0.10057837 -0.07714907 0.032971766 0.08902406
0002d0 49 77 fd 3d 2a b1 2d bc dc f3 e7 bd 93 6e 76 bd
       0.123762675 -0.010601321 -0.11325809 -0.060164046
0002e0 44 fb c1 3d 87 4c 9b 3c ce ac a4 bd 94 ca 04 bd
       0.09471753 0.01895739 -0.080407724 -0.032419756
0002f0 b2 52 1e 3c b6 3b 38 3c e2 10 3a 3d a6 89 cf 3d
       0.009663271 0.011244705 0.045426257 0.10133676
000300 19 68 95 3d 86 dd a2 3d 6f e9 77 bd b7 ce 03 bd
       0.07295246 0.079524085 -0.060525354 -0.03217956
000310 85 b1 28 3e 14 95 60 bd 51 02 a1 bd e2 d8 bd 3c
       0.16473968 -0.054829672 -0.0786177 0.023174707
000320 1a 67 f4 3d 32 fa 9f bd d5 af f5 3d a2 03 76 bd
       0.119337276 -0.07811393 0.11996428 -0.06006206
000330 2f 20 77 bd 6f 42 e9 bc 07 52 ff 3d 28 98 43 bd
       -0.060333427 -0.02847406 0.12466817 -0.04775253
000340 ef 0a 80 3d b4 8d 94 bd c6 3f 9f bd 33 30 c0 bd
       0.062520854 -0.0725359 -0.07775836 -0.09384193
000350 e8 5c e1 bc 7c 74 82 3a fe 95 7c bd ba ac 08 3e
       -0.027510121 0.0009952928 -0.06166648 0.1334714
000360 92 35 8c bc c5 fd a8 bc 03 1a 9a bd 50 36 ac bc
       -0.017115388 -0.02062882 -0.075244926 -0.021021992
000370 7c 2d c3 bd 60 d2 80 bb aa 14 73 3d 72 d2 5a 3d
       -0.0953016 -0.0039313287 0.05934588 0.053423353
000380 57 ac d5 bd 1e bc ff 3b 55 fa a4 3d 07 c1 0f 3e
       -0.10433262 0.0078044077 0.080555595 0.14038478
000390 29 02 d7 bd 52 7a e3 3c e4 47 ab 3d a2 1c 75 3d
       -0.10498459 0.027768288 0.083633214 0.05984176
0003a0 59 9f 5e bd 7b 6b a2 bd e8 18 d2 3c 79 60 ec 3a
       -0.054351185 -0.079306565 0.025646642 0.0018034122
0003b0 0c f6 dc bc 7c 32 a8 3c 47 07 b1 bd f3 72 2c 3d
       -0.026972793 0.020531885 -0.08643966 0.04210181
0003c0 93 de 11 3d d5 ee 9c 3d b0 63 e2 3d ee 9d 06 3e
       0.035612654 0.07662741 0.1105417 0.13146183
0003d0 39 b0 eb bd 86 3f 9f 3d c4 62 06 3a 3d ce 64 bd
       -0.11508221 0.07775788 0.00051264116 -0.055860747
0003e0 f0 18 7b ba 7c ef 5a bc 47 12 f0 3c da c7 4d bd
       -0.0009578606 -0.013362762 0.02930559 -0.05023942
0003f0 27 d4 bf 3c 34 1a b4 bd 76 10 aa 3d 22 2b cc 3d
       0.023416592 -0.0879406 0.08303921 0.099691644
