model_group/models_group_weather/LSTM_model_BRONX_BROADWAY.pth (torch, 356204 bytes, 17 tensors)

input_projection.weight f4 [7, 7]
0.19539422 0.25186497 0.029108861 0.24225618 0.3610816 0.01081104 -0.2276513 0.15060759
0.31617185 -0.24593382 -0.1277919 0.10668454 -0.29177228 -0.20701891 0.033621866 0.085209176
0.16822751 0.28129962 0.358043 -0.041816022 0.09475744 -0.31579185 0.040503427 0.23773894
-0.35701573 0.24248798 0.018007131 -0.36648637 0.34722957 -0.17175506 -0.29579312 0.115417175
0.04436422 0.27102414 -0.34413463 -0.118239045 -0.03568158 -0.3988818 0.16738829 0.24562037
0.005887748 -0.123713024 -0.41015378 0.24424894 0.048329826 -0.321001 -0.27900553 0.040288042
0.3963865
00000000: 6c15 483e 72f4 803e b575 ee3c 0112 783e
00000010: b0df b83e ca20 313c 6c1d 69be e038 1a3e
00000020: 47e1 a13e 13d6 7bbe e1db 02be 6d7d da3d
00000030: 2d63 95be c4fc 53be 15b7 093d 2682 ae3d
00000040: d543 2c3e 8106 903e 6951 b73e 4747 2bbd
00000050: 3010 c23d 78af a1be ece6 253d d671 733e
00000060: c4ca b6be c54e 783e b183 933c 1aa4 bbbe
00000070: 13c8 b13e 8fe0 2fbe 3272 97be d75f ec3d
00000080: 42b7 353d adc3 8a3e 6a32 b0be 5027 f2bd
00000090: d926 12bd 3c3a ccbe d667 2b3e e883 7b3e
000000a0: 03ee c03b 415d fdbd adff d1be 651c 7a3e
000000b0: 7ff5 453d 3e5a a4be d0d9 8ebe 1305 253d
000000c0: 2cf3 ca3e

input_projection.bias f4 [7]
-0.014354964 0.023362365 -0.23673019 0.14041641 0.15864345 0.2755752 -0.039621487
00000000: 1531 6bbc 6e62 bf3c 6669 72be 52c9 0f3e
00000010: 6e73 223e 3118 8d3e 244a 22bd

cells.0.x2h.weight f4 [256, 7]
-0.1394367 -0.16848919 -0.379659 -0.17829344 0.31633657 0.03962568 -0.06648605 0.2687142
0.023348348 -0.20154779 0.20005298 0.05067033 -0.16716716 -0.22431765 0.036651928 0.27836075
-0.19281262 -0.30564067 -0.054149203 -0.29023287 -0.3850262 0.0024570022 0.062445678 -0.25742936
-0.22005774 0.29855692 -0.097626984 0.19762044 -0.14828077 -0.064429864 -0.03806096 0.13377611
-0.02235958 -0.13583818 -0.12368673 -0.34775499 0.40286845 -0.14253014 -0.35803276 0.06356099
-0.038911615 -0.034103394 -0.08417674 0.08365422 -0.07148486 -0.09742709 0.3119577 -0.0341586
-0.14318366 0.026246883 0.25394237 0.1389337 0.103912346 -0.049393207 0.2919631 0.3259767
-0.3010556 -0.16517574 0.0010281731 0.050195005 -0.08747748 -0.32581177 0.3398369 -0.09580194
0.117916964 0.25428578 0.04023374 0.14857598 0.16826242 -0.22693868 -0.15256952 0.18800883
0.006581427 -0.19709039 0.17838432 0.3511229 0.14065519 0.23777336 0.10018592 -0.17846279
0.19158675 0.40049285 -0.16474694 -0.2966131 -0.014265131 0.43302715 0.33138856 0.23781955
0.29003516 0.019226484 0.0023733731 0.010986642 0.36406553 0.023346465 -0.25698632 0.116969876
0.20759557 -0.30008104 0.39323497 0.033823986 -0.32987934 -0.2436389 -0.23639733 -0.0546417
-0.35591188 -0.21432182 0.08119923 -0.20137459 -0.33689758 0.34053195 0.08327551 -0.07092525
0.20981821 -0.36424714 -0.24479946 -0.08344765 0.30351272 0.3038858 -0.15561885 -0.20675696
-0.23378898 0.40849072 0.27057374 0.15662834 0.3716862 0.15816063 0.010208059 -0.38720524
-0.057983153 0.2111067 -0.13400376 0.20508932 0.14122473 0.15767677 -0.19902651 0.3218577
-0.1602595 0.06091011 -0.23913957 0.317107 -0.17031963 -0.2479163 -0.22199449 0.3513988
0.05319361 0.34562993 0.08347174 -0.18522307 -0.25102216 -0.21087319 -0.0010868214 0.18859498
0.020245094 -0.11938449 -0.19533853 0.22070673 0.19411407 -0.16250348 0.2368476 0.20042145
0.19460517 -0.32077813 0.2937623 0.21327367 0.14506365 -0.39557543 -0.12831813 -0.22917864
-0.116871625 -0.059603114 0.37315384 -0.06792214 0.26299995 0.3823726 0.046242893 0.089252226
0.15779227 -0.34120542 0.14956446 0.2710611 0.36403984 -0.12978378 -0.1538371 0.3143609
-0.31282395 0.25781697 -0.058479406 0.18544798 0.0023442346 0.0034996518 -0.12532815 0.15366021
0.3393147 0.35419545 0.22145094 0.03366087 0.22037753 -0.3337171 -0.28854412 0.25703874
-0.30512777 0.38260958 0.03466304 -0.026479293 0.2503638 -0.011287473 0.15470348 -0.10793989
-0.35368496 -0.19024652 0.24531738 0.19842091 0.3680902 0.3714056 0.06351618 -0.34800327
0.067354776 -0.15639159 0.07489434 0.33918485 0.1192777 0.042685434 0.25590494 -0.18940975
0.22632354 -0.35229713 -0.13033475 0.323786 0.39627492 0.3482272 0.1560504 -0.34183443
0.38531494 0.0824031 -0.394294 -0.2325198 0.039854985 -0.17508858 -0.14737833 -0.04047657
-0.32033348 0.046083085 0.019009909 0.17376563 -0.29186678 0.3379561 -0.14084734 -0.26842538
0.040058527 0.03972862 0.38657138 0.17868887 -0.09999897 0.13880643 0.23599216 -0.05789754
00000000: 7fc8 0ebe 6e88 2cbe aa62 c2be 8e92 36be
00000010: def6 a13e 894e 223d d729 88bd e894 893e
00000020: 0945 bf3c 8b62 4ebe b0da 4c3e b18b 4f3d
00000030: de2d 2bbe 87b3 65be 5520 163d 4d85 8e3e
00000040: ac70 45be ef7c 9cbe 8ecb 5dbd 6799 94be
00000050: 2722 c5be a805 213b 0ac7 7f3d c8cd 83be
00000060: d156 61be 74dc 983e a8f0 c7bd 035d 4a3e
00000070: ead6 17be cef3 83bd cfe5 1bbd 9bfc 083e
00000080: 702b b7bc 2a19 0bbe 784f fdbd f10c b2be
00000090: c644 ce3e 6cf3 11be 1250 b7be 442c 823d
000000a0: c961 1fbd 00b0 0bbd db64 acbd e752 ab3d
000000b0: a766 92bd db87 c7bd ebb8 9f3e e3e9 0bbd
000000c0: bd9e 12be b403 d73c bc04 823e a344 0e3e
000000d0: ffcf d43d 8850 4abd 307c 953e 6be6 a63e
000000e0: f623 9abe d423 29be c4c3 863a 4799 4d3d
000000f0: 6527 b3bd cdd0 a6be 1aff ad3e cf33 c4bd
00000100: 737e f13d bf31 823e 22cc 243d 4d24 183e
00000110: fc4c 2c3e 9d62 68be 2f3b 1cbe 6385 403e
00000120: 03a9 d73b 10d2 49be 61aa 363e 61c6 b33e
00000130: ea07 103e dc7a 733e 472e cd3d f3be 36be
00000140: 512f 443e 660d cd3e 6cb3 28be acdd 97be
00000150: 4cb8 69bc bcb5 dd3e c3ab a93e f886 733e
00000160: 7d7f 943e dc80 9d3c 988a 1b3b 5101 343c
00000170: cc66 ba3e 1641 bf3c b693 83be e78d ef3d
00000180: ef93 543e 39a4 99be 1856 c93e 058b 0a3d
00000190: f2e5 a8be 7a7c 79be 2412 72be facf 5fbd
000001a0: 153a b6be 2e77 5bbe c84b a63d 2435 4ebe
000001b0: d77d acbe 345a ae3e 5a8c aa3d 4241 91bd
000001c0: 96da 563e 9a7e babe b6ac 7abe 9ae6 aabd
000001d0: 0566 9b3e eb96 9b3e 8c5a 1fbe 19b8 53be
000001e0: 6166 6fbe b225 d13e a488 8a3e 2e63 203e
000001f0: a74d be3e dcf4 213e b43f 273c c43f c6be
00000200: be7f 6dbd 5b2c 583e 4838 09be ef02 523e
00000210: 379d 103e 0576 213e 9bcd 4bbe 88ca a43e
00000220: 111b 24be e17c 793d 01e1 74be d95b a23e
00000230: 4568 2ebe c5dd 7dbe 8652 63be 8bea b33e
00000240: 8be1 593d 68f6 b03e 3bf3 aa3d 1eab 3dbe
00000250: fa85 80be 24ef 57be ad73 8eba 0b1f 413e
00000260: 0ad9 a53c db7f f4bd d306 48be f200 623e
00000270: d7c5 463e 5067 26be 2d88 723e 483b 4d3e
00000280: 9446 473e 083d a4be 0368 963e 6a64 5a3e
00000290: 918b 143e dd88 cabe d465 03be cead 6abe
000002a0: 645a efbd 6522 74bd 050e bf3e c31a 8bbd
000002b0: eea7 863e 57c6 c33e 3069 3d3d dfc9 b63d
000002c0: 4c94 213e 7ab2 aebe 6d27 193e 85c8 8a3e
000002d0: 6e63 ba3e 0ae6 04be 7987 1dbe e9f3 a03e
000002e0: 762a a0be 9600 843e 1a88 6fbd 13e6 3d3e
000002f0: bba1 193b 6a5a 653b 0656 00be 1a59 1d3e
00000300: a8ba ad3e 1b59 b53e 09c4 623e fbdf 093d
00000310: a6aa 613e f8dc aabe 0ebc 93be 959a 833e
00000320: b539 9cbe 67e5 c33e d5fa 0d3d 1aeb d8bc
00000330: af2f 803e 18ef 38bc 976a 1e3e 970f ddbd
00000340: 3216 b5be fccf 42be 7b34 7b3e da2e 4b3e
00000350: 5276 bc3e e028 be3e c514 823d 7c2d b2be
00000360: 4df1 893d 1e25 20be 3462 993d a3a9 ad3e
00000370: de47 f43d ecd6 2e3d f905 833e a1f4 41be
00000380: 5cc1 673e 4a60 b4be 7976 05be 47c7 a53e
00000390: 8ce4 ca3e d64a b23e adcb 1f3e ec04 afbe
000003a0: 0048 c53e f5c2 a83d e7e0 c9be ac19 6ebe
000003b0: fb3e 233d 6c4a 33be 58ea 16be c3ca 25bd
000003c0: c002 a4be 9ec1 3c3d abba 9b3c 9eef 313e
000003d0: 906f 95be 9508 ad3e 493a 10be 0d6f 89be
000003e0: 6914 243d 7aba 223d afec c53e 37fa 363e
000003f0: 43cc ccbd 4623 0e3e eea7 713e f925 6dbd

cells.0.x2h.bias f4 [256]
-0.2890139 0.1381857 -0.33252284 -0.30073106 0.20481168 0.06278632 -0.006251096 0.07121379
-0.13788776 -0.28473997 -0.26196975 0.27766636 0.058243517 -0.24479027 -0.038681474 0.06467467
0.1935002 0.24027355 0.16188367 0.38228434 0.3590408 -0.06387516 -0.20015284 0.24762774
0.3307459 0.15872583 0.2059639 0.40563026 0.4078034 0.1926704 -0.34635887 0.007834118
-0.0012051021 0.010097731 -0.23525181 -0.1597829 -0.32045728 -0.27055338 -0.24838258 0.039950553
-0.09033786 0.25837684 0.22729972 0.2129667 0.14075898 0.057361502 0.2394512 0.27366614
0.05549409 0.08353957 -0.24369778 -0.28352702 -0.3738914 0.35349545 -0.22853711 -0.20413522
0.18876612 0.01855114 0.34177566 -0.029589929 0.32331598 0.23996566 0.007950099 -0.3086215
0.3680415 0.33620313 0.36299038 -0.15653758 0.30035836 -0.05629688 -0.33201203 0.3132874
0.25376606 0.098634005 0.31002524 -0.16982159 0.032235783 0.004419379 -0.26182956 -0.026145091
0.3324837 -0.3653366 0.26238346 0.08957004 -0.16402328 -0.15208499 0.053512257 -0.11737882
0.034574836 0.12157545 0.03500895 -0.11075245 -0.25826713 -0.15335563 0.22389923 0.30815488
-0.2474233 0.2997413 0.24530137 0.065599635 0.15852694 -0.37015334 0.31770784 -0.19111411
-0.28724068 -0.27282757 0.3910705 0.26504427 0.12608202 -0.028981144 -0.30475435 -0.33163467
0.11176014 0.112720445 0.2178853 -0.0149799315 0.014475402 0.24368379 -0.25839683 -0.19168738
-0.14256355 -0.12964286 -0.19810253 0.05364844 -0.376627 -0.12735981 0.020275 0.17961842
0.18564625 -0.1823156 0.33177814 -0.09396626 0.107950605 0.24632609 0.204915 0.0067052403
0.19112884 0.33041805 0.01351932 0.14917438 -0.16921222 0.14410679 -0.3113681 -0.2535049
0.030602725 0.043319397 -0.06309636 0.0045091407 0.008614405 0.15847765 -0.12966296 -0.12653357
-0.26294225 0.054012444 -0.020328112 -0.3104966 0.334786 -0.36610982 -0.2008075 0.20555982
-0.07236751 -0.29660428 0.21730028 0.09517459 0.25729758 0.17750815 0.24009782 0.12041738
0.2955705 -0.3165443 -0.017726878 0.06265719 0.015297495 -0.169168 -0.19147348 -0.018547043
-0.066879466 0.37664318 0.04581519 0.29075396 0.28947324 0.18425536 -0.24645877 0.27671784
0.35523885 0.04179869 0.35474655 0.019455371 0.264681 0.07620144 0.35449362 -0.19664583
0.25177836 0.3567121 0.14126942 0.19964083 -0.09470504 0.26197568 0.10911577 0.25074136
-0.14436215 0.2675724 0.29054278 0.055661306 0.19071956 0.095757015 -0.24688812 -0.055678923
0.12334688 -0.040215302 -0.32372153 0.14509244 -0.036703322 -0.123581134 -0.041515 0.41475287
0.3219276 0.054408547 0.36323613 0.13905315 -0.29959318 0.36457768 0.12683421 -0.023205034
0.06726828 0.06121449 -0.18376178 0.18808722 -0.124993235 -0.18126279 -0.34883237 0.14008226
-0.22729442 0.13183345 0.22931379 0.0015525552 0.087904915 0.020761106 -0.061502617 0.28966495
-0.10106557 0.05518536 -0.31586295 -0.024702206 -0.16897736 -0.20347326 0.18788926 0.26659766
0.38745713 0.11700118 0.076233 -0.2578859 -0.18102248 0.15817676 0.27696607 -0.19158486
00000000: a1f9 93be 8d80 0d3e 6f40 aabe 6cf9 99be
00000010: 27ba 513e 1d96 803d fed5 ccbb 89d8 913d
00000020: 7332 0dbe 70c9 91be e620 86be 492a 8e3e
00000030: c190 6e3d 4daa 7abe 7770 1ebd 2774 843d
00000040: eb24 463e 450a 763e d5c4 253e c6ba c33e
00000050: 32d4 b73e fbd0 82bd def4 4cbe 2092 7d3e
00000060: 8757 a93e 0689 223e 33e8 523e c5ae cf3e
00000070: 9bcb d03e 644b 453e f355 b1be ac5a 003c
00000080: 84f4 9dba f470 253c dae5 70be 219e 23be
00000090: fa12 a4be f985 8abe 0158 7ebe 31a3 233d
000000a0: 0e03 b9bd f849 843e 42c1 683e f113 5a3e
000000b0: 1f23 103e e5f3 6a3d b232 753e f81d 8c3e
000000c0: c54d 633d cb16 ab3d e98b 79be 742a 91be
000000d0: b26e bfbe 5bfd b43e a205 6abe d308 51be
000000e0: e84b 413e 8ff8 973c 38fd ae3e 9466 f2bc
000000f0: ac89 a53e 8fb9 753e 2241 023c a303 9ebe
00000100: ef6f bc3e d122 ac3e e0d9 b93e 634b 20be
00000110: 92c8 993e 8f97 66bd 7bfd a9be 3567 a03e
00000120: a0ed 813e a000 ca3d a1bb 9e3e b6e5 2dbe
00000130: ab09 043d 70d0 903b 860e 86be 3b2e d6bc
00000140: 4e3b aa3e 660d bbbe 2057 863e 7f70 b73d
00000150: b8f5 27be 2bbc 1bbe ab2f 5b3d 4f64 f0bd
00000160: 589e 0d3d 8dfc f83d 8b65 0f3d 2ed2 e2bd
00000170: 973b 84be 4209 1dbe d745 653e 7ac6 9d3e
00000180: 895c 7dbe b177 993e 4830 7b3e 1a59 863d
00000190: e354 223e bd84 bdbe 9aaa a23e 6bb3 43be
000001a0: 3611 93be 0eb0 8bbe 643a c83e e2b3 873e
000001b0: a51b 013e dd69 edbc c308 9cbe 05cc a9be
000001c0: 80e2 e43d fad9 e63d 531d 5f3e 636e 75bc
000001d0: 3d2a 6d3c 3e88 793e 974c 84be b249 44be
000001e0: 2efc 11be 19c1 04be 64db 4abe 77be 5b3d
000001f0: 41d5 c0be 9c6a 02be c217 a63c e4ed 373e
00000200: 0d1a 3e3e f1b0 3abe d3de a93e 6271 c0bd
00000210: 3515 dd3d e83c 7c3e 3dd5 513e a2b7 db3b
00000220: 47b7 433e 8e2c a93e 2380 5d3c 2bc1 183e
00000230: f845 2dbe bb90 133e a46b 9fbe 65cb 81be
00000240: 91b2 fa3c ae6f 313d aa38 81bd 6ac1 933b
00000250: 6f23 0d3c f747 223e 5ec6 04be 0492 01be
00000260: 5ea0 86be 273c 5d3d 2487 a6bc 69f9 9ebe
00000270: 1269 ab3e bf72 bbbe 7ba0 4dbe 467e 523e
00000280: 6b35 94bd 84dc 97be f783 5e3e e5ea c23d
00000290: 82bc 833e b2c4 353e 34dc 753e 639d f63d
000002a0: 0455 973e 1812 a2be f537 91bc 6a52 803d
000002b0: 58a2 7a3c 603a 2dbe a011 44be f8ef 97bc
000002c0: 1af8 88bd 60d7 c03e b5a8 3b3d b4dd 943e
000002d0: d635 943e 70ad 3c3e b05f 7cbe f6ad 8d3e
000002e0: dee1 b53e 1a35 2b3d 57a1 b53e df60 9f3c
000002f0: 4584 873e 800f 9c3d 3080 b53e 865d 49be
00000300: 18e9 803e f8a2 b63e eea8 103e a56e 4c3e
00000310: b7f4 c1bd ad21 863e 1778 df3d 2c61 803e
00000320: acd3 13be 40ff 883e 06c2 943e 1cfd 633d
00000330: fd4b 433e 411c c43d 3dd0 7cbe 950f 64bd
00000340: 4a9d fc3d cdb8 24bd d4be a5be 1d93 143e
00000350: 3956 16bd 1b18 fdbd a20b 2abd 7d5a d43e
00000360: b2d3 a43e 7fdb 5e3d 16fa b93e f363 0e3e
00000370: 4764 99be eda9 ba3e d4e0 013e 7c18 bebc
00000380: f4c3 893d 0cbc 7a3d 0c2c 3cbe f099 403e
00000390: 74fc ffbd f49c 39be 289a b2be b971 0f3e
000003a0: debf 68be 59ff 063e 3cd1 6a3e 1c7f cb3a
000003b0: 7e07 b43d 3213 aa3c 2bea 7bbd f74e 943e
000003c0: 77fb cebd 0b0a 623d cab8 a1be 485c cabc
000003d0: 6708 2dbe 4b5b 50be 0b66 403e 7d7f 883e
000003e0: c860 c63e 519e ef3d 0c20 9c3d 9f09 84be
000003f0: f55d 39be 17f9 213e 7fce 8d3e d22e 44be

cells.0.h2h.weight f4 [256, 64]
0.06067834 0.053359732 -0.040611286 -0.03780995 -0.08041768 0.009534926 -0.09644278 0.08022307
-0.06673225 0.13023116 -0.10539591 0.102241136 0.041020982 0.000691867 -0.046308786 -0.1060646
-0.0071882447 -0.053011782 0.10181482 -0.09107698 0.08133807 -0.03650547 0.03250275 -0.046528164
-0.12153654 -0.08493441 0.0069819475 0.07189466 0.021738954 -0.12340269 -0.044984423 -0.09516841
0.0405982 0.039670616 -0.100490466 0.07200232 0.11586847 0.022671008 0.079767466 -0.06943131
-0.12146551 0.06939855 0.10267594 0.032024555 -0.10261246 -0.057882935 0.0089878645 0.08221602
0.015444781 0.026058767 0.054403406 -0.1335013 -0.12063385 -0.062265765 0.14268804 0.0026961653
-0.055147354 -0.057104334 0.04105209 -0.10839862 -0.09965615 0.07875557 0.083584204 0.022811307
0.05603612 -0.03031935 -0.046080124 -0.009782409 0.013407183 -0.10426101 -0.0021206206 0.15466136
-0.02340803 -0.016430534 -0.081659034 -0.026976401 0.053242385 0.0033566984 -0.0169987 0.012425052
-0.04880561 -0.033721413 0.08929281 0.111137725 0.06883653 -0.048151847 -0.027214775 0.00050987
0.10421487 -0.039275967 -0.15102106 0.0006256225 -0.07574332 -0.06297798 -0.05451935 0.05601836
0.11854063 -0.13867672 0.08852421 0.09753235 -0.07469826 0.010666532 0.112782024 0.1166973
-0.020711396 0.0038583924 -0.02837603 -0.08602253 -0.020984968 -0.03207693 0.09252493 -0.12910292
-0.10834977 0.11232566 -0.051547866 -0.10258866 0.11532511 0.077307455 -0.03978827 0.0779297
0.1454893 0.04565059 0.124328546 0.08835655 -0.09451683 0.009628745 0.05049311 0.06848948
-0.050310362 0.0484842 -0.08342409 -0.10721323 -0.10597032 0.05114013 0.008272371 -0.017157385
-0.05838662 -0.08990408 -0.05597097 -0.06190659 -0.09206043 -0.11998322 -0.09386022 -0.084695734
-0.10179985 0.015824037 -0.042322416 0.1207625 -0.009305103 -0.033033427 0.0007646199 0.039086062
-0.013717225 -0.081190005 0.042967293 0.05664125 0.11612959 0.059693743 0.043826967 0.08974401
0.010993422 0.039900474 -0.034000732 0.043732394 0.036220048 -0.0003299166 0.039390966 0.1636559
0.13108711 -0.032607775 0.12291282 -0.048776202 -0.05065655 0.009512467 0.02826584 -0.06600214
0.10647728 -0.070213616 -0.098799236 -0.116465464 -0.001217904 -0.14663531 -0.011860638 -0.049874417
0.091075316 0.0046490137 0.13435775 -0.029157378 -0.057002302 -0.095367655 0.04821789 -0.008477028
0.042148396 -0.07956434 0.029521288 -0.0470609 0.0005764527 0.050668236 0.08901741 0.051700626
-0.088161275 -0.027535288 0.042722594 -0.047543846 0.074733265 0.0014107387 -0.10642302 -0.12527275
-0.12359163 -0.014214492 0.0800359 -0.026188612 0.07244463 -0.0039491747 -0.13731408 0.020198178
-0.11694931 0.09981 0.08115045 -0.066495046 -0.08909786 0.057962507 0.062965974 -0.020360269
0.115015395 0.02613943 0.0305279 0.016136214 0.055810776 -0.09622135 0.13695416 0.06001147
0.08607662 -0.087505795 0.05204672 0.08645125 0.028944956 0.0033862544 -0.03174297 -0.057165038
0.035946295 0.0367136 -0.10563599 -0.057883717 0.032948866 -0.1262735 0.07910013 0.09960282
-0.03203565 0.08375389 -0.1005286 0.068369955 0.040515613 -0.08956535 0.0693331 0.01676308
00000000: da89 783d bc8f 5a3d 0558 26bd 9bde 1abd
00000010: 06b2 a4bd 6138 1c3c cb83 c5bd fe4b a43d
00000020: ebaa 88bd 515b 053e d0d9 d7bd cd63 d13d
00000030: 9e05 283d 695e 353a 48ae 3dbd 6638 d9bd
00000040: 5e8b ebbb e222 59bd 4a84 d03d 9186 babd
00000050: 9394 a63d c286 15bd 9b21 053d 5194 3ebd
00000060: 26e8 f8bd 18f2 adbd d2c8 e43b 823d 933d
00000070: e415 b23c 8dba fcbd 9641 38bd a8e7 c2bd
00000080: 4c4a 263d a87d 223d f2cd cdbd f475 933d
00000090: 734c ed3d 8db8 b93c 205d a33d 0132 8ebd
000000a0: e9c2 f8bd d420 8e3d c347 d23d 2e2c 033d
000000b0: 7b26 d2bd a816 6dbd d641 133c df60 a83d
000000c0: 1b0c 7d3c 3279 d53c 1bd6 5e3d 91b4 08be
000000d0: e10e f7bd 630a 7fbd d01c 123e 26b2 303b
000000e0: 31e2 61bd 3ce6 69bd 3c26 283d 1800 debd
000000f0: 8618 ccbd 9a4a a13d 322e ab3d c7de ba3c
00000100: 2186 653d 4960 f8bc 83be 3cbd 6646 20bc
00000110: cda9 5b3c cc86 d5bd 1cfa 0abb 8c5f 1e3e
00000120: 32c2 bfbc 5499 86bc da3c a7bd 9dfd dcbc
00000130: b014 5a3d 0efc 5b3b dc40 8bbc 7292 4b3c
00000140: 64e8 47bd 771f 0abd 26df b63d 2d9c e33d
00000150: 2bfa 8c3d df3a 45bd 85f1 debc cca8 053a
00000160: 9b6e d53d d6df 20bd 44a5 1abe d100 243a
00000170: 501f 9bbd 99fa 80bd af4f 5fbd 8273 653d
00000180: 6ec5 f23d 4501 0ebe 2e4c b53d 0abf c73d
00000190: 67fb 98bd aec2 2e3c 43fa e63d fefe ee3d
000001a0: f2aa a9bc 15dd 7c3b d974 e8bc 952c b0bd
000001b0: abe8 abbc 1963 03bd b67d bd3d 8e33 04be
000001c0: 7ce6 ddbd ff0a e63d db23 53bd 011a d2bd
000001d0: 922f ec3d 5f53 9e3d 06f9 22bd 9b99 9f3d
000001e0: 26fb 143e 1dfc 3a3d f79f fe3d 47f4 b43d
000001f0: 0a92 c1bd e2c1 1d3c ddd1 4e3d 3644 8c3d
00000200: 3d12 4ebd 5e97 463d 40da aabd 9c92 dbbd
00000210: f806 d9bd 5078 513d d788 073c a58d 8cbc
00000220: cf26 6fbd a11f b8bd d141 65bd c491 7dbd
00000230: 2e8a bcbd c3b9 f5bd c939 c0bd f574 adbd
00000240: 717c d0bd 69a1 813c 455a 2dbd 5452 f73d
00000250: 6e74 18bc 0f4e 07bd c670 483a b518 203d
00000260: 36be 60bc f246 a6bd 79fe 2f3d a800 683d
00000270: 5ad5 ed3d 6d81 743d e883 333d b5cb b73d
00000280: c11d 343c ae6e 233d 5a44 0bbd bd20 333d
00000290: 795b 143d a8f8 acb9 6c58 213d 6a95 273e
000002a0: b33b 063e bb8f 05bd b7b9 fb3d 8ec9 47bd
000002b0: 3e7d 4fbd 2eda 1b3c c38d e73c 212c 87bd
000002c0: c310 da3d 28cc 8fbd 4157 cabd 7285 eebd
000002d0: 14a2 9fba 9127 16be 1f53 42bc 1e49 4cbd
000002e0: b285 ba3d c156 983b 1495 093e 74db eebc
000002f0: 3f7b 69bd 1e50 c3bd 1f80 453d 3ce3 0abc
00000300: cca3 2c3d a1f2 a2bd a1d6 f13c eec2 40bd
00000310: 161d 173a 7f89 4f3d c34e b63d 09c4 533d
00000320: e68d b4bd af91 e1bc e3fd 2e3d 56bd 42bd
00000330: c10d 993d 89e8 b83a 50f4 d9bd 8047 00be
00000340: 9c1d fdbd e7e3 68bc dde9 a33d 8089 d6bc
00000350: da5d 943d 1468 81bb 109c 0cbe a676 a53c
00000360: 1f83 efbd 2f69 cc3d 3532 a63d 8e2e 88bd
00000370: f078 b6bd 186a 6d3d 4ef4 803d 94ca a6bc
00000380: 318d eb3d 5c22 d63c a615 fa3c 1830 843c
00000390: d799 643d b30f c5bd b63d 0c3e 96ce 753d
000003a0: f048 b03d 3d36 b3bd f12e 553d 5a0d b13d
000003b0: f91d ed3c eceb 5d3b eb04 02bd e325 6abd
000003c0: 6c3c 133d 0061 163d af57 d8bd 7a17 6dbd
000003d0: 64f5 063d d74d 01be 40ff a13d 90fc cb3d
000003e0: d037 03bd 2987 ab3d f0e1 cdbd 8c05 8c3d
000003f0: b3f3 253d 0a6e b7bd 83fe 8d3d ba52 893c

cells.0.h2h.bias f4 [256]
-0.0055599962 0.076345734 -0.024758028 0.01325318 -0.020474467 0.14274508 -0.0012964183 -0.029826123
0.15101576 0.12754016 -0.09205782 0.042704616 0.17733046 0.022707885 0.072834395 0.037943512
-0.030367794 0.104877725 -0.010319855 -0.049209826 0.15674424 0.11786446 0.08251552 0.19243297
0.09883891 -0.03328625 0.10674816 0.06005188 -0.004747746 0.019914946 -0.105620176 0.022960294
-0.071149565 -0.08021812 0.12215754 -0.01550826 0.022304272 0.03457524 0.08347439 0.023738604
-0.07217045 0.07514242 0.08384193 -0.091133565 -0.12485648 0.1080115 0.041257296 0.007558518
-0.033840876 -0.043258928 -0.0402084 -0.023145644 -0.03458779 -0.023048872 0.11541234 0.105653636
0.13576786 0.13881178 -0.09950213 0.100736886 -0.09188813 0.03683759 0.0044932663 -0.08818332
-0.02071008 0.056204762 -0.017565677 -0.086411275 0.07405357 0.05057278 -0.019943375 0.10544564
-0.008780791 0.048335217 0.09373307 0.096536845 -0.050445475 -0.063893035 0.14155006 -0.016508374
0.015571229 0.07773499 -0.029299242 0.11752351 0.093447186 0.08543663 -0.087195024 0.07081353
0.073482014 0.10414368 0.099395156 0.1378424 -0.056159418 -0.056101684 -0.053954974 -0.02062794
0.035916723 -0.0065610106 0.123935916 0.018537829 0.0565835 0.08316923 0.08706982 0.09170475
0.08986917 0.0076814867 0.018452449 0.09783102 -0.021163989 0.030434778 -0.019293562 -0.0019508308
-0.0071291225 0.01434223 0.042616025 -0.072520174 -0.06961326 0.09384404 0.07793393 0.009576416
0.11431053 0.10007629 -0.09693473 0.029763 -0.0072598704 0.058453187 -0.040374458 -0.08112698
-0.036955107 0.072539344 0.07428764 -0.12202612 -0.090889856 0.09033058 0.092230305 0.017982922
-0.059590798 0.033193335 -0.0061489525 0.054904256 0.02068372 -0.017034337 0.11722741 -0.092548184
0.008679879 0.043520294 0.11183742 -0.034084313 0.09369847 -0.089435376 -0.015914084 0.08328221
-0.15243319 0.044121332 -0.06369861 -0.11448428 0.025227481 -0.09855379 -0.049022853 0.11827487
-0.03609324 -0.058222637 -0.09022009 0.0008741825 -0.05566099 0.042770274 -0.07594502 0.064739704
0.0697225 0.059033353 0.077536315 0.103095815 -0.11122166 0.024336522 0.08388419 -0.08778619
0.050009497 0.020825189 -0.06727804 -0.07025932 0.03708782 0.038402125 0.034133926 -0.024280546
0.10294401 -0.08963264 0.08092145 -0.12847732 -0.06311646 0.031919446 -0.030577796 -0.05103626
0.020061525 0.11850532 0.020842096 0.099202245 0.036835883 0.14168566 -0.042719863 0.004619385
0.017850984 -0.01620201 0.0024805418 0.05258635 -0.032949474 0.022071378 0.00023657054 -0.058036987
-0.030978475 0.08190579 -0.054119002 0.08127219 0.051577404 -0.0020760118 -0.084042616 0.03489147
0.02957455 0.0015367193 0.107913025 -0.057432353 0.009352147 0.10181824 -0.0879943 0.07673437
0.050060146 0.024281917 0.12569374 -0.072872475 0.021642867 -0.09517264 0.04362777 0.08784198
0.056488317 0.08194898 -0.012153663 -0.029874418 0.09773874 0.08307349 0.11374078 -0.0010451993
-0.09124885 -0.057432275 0.12431208 0.05582559 0.021960603 0.08180592 -0.087580234 0.035823107
0.07808504 -0.071195915 -0.022905746 -0.11047147 -0.060786195 0.09437105 0.0812667 0.006842324
00000000: a130 b6bb 275b 9c3d 59d1 cabc de23 593c
00000010: 12ba a7bc c42b 123e 94ec a9ba ea55 f4bc
00000020: e0a3 1a3e e399 023e cf88 bcbd 09eb 2e3d
00000030: 1e96 353e e305 ba3c 332a 953d a86a 1b3d
00000040: e1c5 f8bc 22ca d63d 9c14 29bc 3e90 49bd
00000050: 9081 203e ec62 f13d e6fd a83d 260d 453e
00000060: 0e6c ca3d 2a57 08bd c89e da3d f6f8 753d
00000070: fb92 9bbb ab24 a33c 644f d8bd 3a17 bc3c
00000080: ddb6 91bd 6649 a4bd bb2d fa3d 5b16 7ebc
00000090: 73b7 b63c c49e 0d3d 9ff4 aa3d 7677 c23c
000000a0: 1ace 93bd 45e4 993d 51b5 ab3d 3ca4 babd
000000b0: c1b4 ffbd 2235 dd3d 69fd 283d 72ad f73b
000000c0: bb9c 0abd 4630 31bd 90b1 24bd ef9b bdbc
000000d0: edab 0dbd fdd0 bcbc 4e5d ec3d ef60 d83d
000000e0: bb06 0b3e ad24 0e3e c6c7 cbbd 244f ce3d
000000f0: d82f bcbd 03e3 163d 403c 933b 7599 b4bd
00000100: 30a8 a9bc f736 663d e5e5 8fbc 65f8 b0bd
00000110: 66a9 973d 6725 4f3d 4a60 a3bc e2f3 d73d
00000120: 4fdd 0fbc 26fb 453d 20f7 bf3d 1cb5 c53d
00000130: ea9f 4ebd 5ada 82bd 80f2 103e 923c 87bc
00000140: 781e 7f3c 8633 9f3d f704 f0bc 2ab0 f03d
00000150: 3d61 bf3d 66f9 ae3d 4e93 b2bd af06 913d
00000160: bd7d 963d 4849 d53d b08f cb3d 8f26 0d3e
00000170: 6b07 66bd e1ca 65bd e4ff 5cbd edfb a8bc
00000180: 6a1d 133d bffd d6bb 1dd2 fd3d a5dc 973c
00000190: 1ac4 673d a154 aa3d a951 b23d b3cf bb3d
000001a0: 540d b83d fbb4 fb3b 9729 973c a15b c83d
000001b0: 1a60 adbc 5b52 f93c 880d 9ebc 05b3 ffba
000001c0: 6a9b e9bb acfb 6a3c 248e 2e3d 7585 94bd
000001d0: 6691 8ebd 4e31 c03d d39b 9f3d 66e6 1c3c
000001e0: a41b ea3d ccf4 cc3d b785 c6bd 89d1 f33c
000001f0: 35e4 edbb 9c6c 6f3d b05f 25bd e725 a6bd
00000200: 3d5e 17bd 828f 943d 1e24 983d d5e8 f9bd
00000210: 7624 babd 3dff b83d 3ee3 bc3d ec50 933c
00000220: 7b15 74bd bcf5 073d 277d c9bb 49e3 603d
00000230: e870 a93c 988b 8bbc ed14 f03d e789 bdbd
00000240: 0d36 0e3c 5642 323d 040b e53d fe9b 0bbd
00000250: fce4 bf3d e529 b7bd 415e 82bc dd8f aa3d
00000260: 7217 1cbe 92b8 343d 6b74 82bd bc76 eabd
00000270: dda9 ce3c 92d6 c9bd 30cc 48bd 183a f23d
00000280: 81d6 13bd dc7a 6ebd 4fc5 b8bd 6529 653a
00000290: c7fc 63bd e22f 2f3d 1089 9bbd 4096 843d
000002a0: acca 8e3d f5cc 713d 5ccb 9e3d e623 d33d
000002b0: 2fc8 e3bd 635d c73c 79cb ab3d 3fc9 b3bd
000002c0: c2d6 4c3d 9699 aa3c 12c9 89bd 1ee4 8fbd
000002d0: 66e9 173d 8c4b 1d3d 04d0 0b3d ffe7 c6bc
000002e0: 4fd4 d23d 5191 b7bd 25ba a53d 8f8f 03be
000002f0: 3443 81bd f7bd 023d 497e fabc 660b 51bd
00000300: 1158 a43c ebb2 f23d 0bbd aa3c 8c2a cb3d
00000310: 39e1 163d 0c16 113e 06fb 2ebd 365e 973b
00000320: 3a3c 923c 14ba 84bc 9690 223b c964 573d
00000330: 07f6 06bd 09cf b43c ec0f 7839 31b8 6dbd
00000340: 92c6 fdbc 39be a73d e3ab 5dbd 0972 a63d
00000350: d442 533d b30d 08bb 891e acbd 5cea 0e3d
00000360: 5446 f23c be6b c93a 8101 dd3d 303e 6bbd
00000370: bf39 193c 1586 d03d 5b36 b4bd e926 9d3d
00000380: de0b 4d3d dfea c63c dcb5 003e 2a3e 95bd
00000390: 624c b13c e0e9 c2bd 08b3 323d 7fe6 b33d
000003a0: 4b60 673d ded4 a73d 2820 47bc 32bb f4bc
000003b0: 402b c83d 6f22 aa3d edf0 e83d 12ff 88ba
000003c0: ade0 babd 1b3e 6bbd 5597 fe3d 60a9 643d
000003d0: b9e6 b33c dd89 a73d 445d b3bd 40bb 123d
000003e0: 0deb 9f3d 2acf 91bd d5a4 bbbc de3e e2bd
000003f0: f2fa 78bd 9c45 c13d 286f a63d 9335 e03b

cells.1.x2h.weight f4 [256, 64]
-0.110504664 -0.012638358 -0.066830225 0.101973444 0.01613225 -0.041246716 -0.09287703 0.046292614
0.08431641 -0.12460762 0.14699614 -0.011888274 0.050385796 -0.09592898 0.1345148 -0.021370431
-0.011835263 -0.030248897 -0.1111204 -0.020010035 -0.026532365 -0.02754552 0.07684622 0.13315983
0.00017248013 0.04348437 0.05202259 0.071829446 -0.049260776 -0.03353058 -0.07567196 -0.05964105
-0.06997306 -0.078762844 0.025377246 -0.03682965 0.053015262 0.124054745 0.06870784 0.07535107
-0.02555897 -0.08920865 0.110528685 -0.15064424 0.057277657 -0.023870856 0.060075045 -0.04451252
0.044506997 -0.055111665 -0.049128007 0.11575646 -0.044341754 0.056849625 0.061009496 0.14467922
-0.017328568 -0.09332674 0.030399429 -0.02080813 -0.032617263 0.056111638 0.028955664 -0.14495458
-0.09042607 0.033641264 -0.040035002 0.08231733 0.029188797 -0.104882516 0.096442655 0.040919542
-0.026831731 0.082387865 -0.0589 0.08680929 0.06883676 -0.084901564 -0.01933818 -0.08261063
-0.020055685 0.12183928 0.06321797 0.09263202 0.0052583097 0.13903525 -0.037637565 -0.12903437
-0.11779952 0.11727309 0.012468177 -0.06347745 0.13843329 0.09984419 -0.028375788 0.055187482
0.003922816 0.053492412 -0.12146014 -0.07672273 -0.0341813 0.0040478143 0.08454607 -0.070345506
0.1026 -0.037642565 -0.0056805876 0.001790452 0.10672706 0.054882724 -0.010972437 0.029276973
0.078923434 -0.07179363 0.051228635 -0.055507075 0.12944166 0.16050555 -0.12882534 -0.025196496
-0.018572204 -0.08145538 -0.06411368 0.03580564 -0.02575626 0.0061728377 0.0043550692 -0.075468674
-0.005074348 0.080840334 -0.098864526 0.018407444 0.078049466 -0.087522924 -0.0423316 -0.03857034
-0.12075699 -0.1683555 -0.08962494 -0.0815326 -0.032640133 -0.0034952676 0.06356491 -0.009694588
-0.12342999 0.0034192745 -0.01783002 -0.0135413045 0.083352886 0.031162264 0.09830958 -0.049443424
0.069872126 0.012930191 -0.002957201 0.173682 0.05225488 -0.031011058 -0.07746974 -0.11934308
0.058661412 0.059710074 0.04851715 0.021094114 0.02872562 0.103163004 0.100233994 -0.03133979
0.13071401 -0.047446962 0.0756784 -0.0066784965 -0.051658202 0.14120877 -0.10215362 0.06458874
-0.09047995 0.038328394 0.035254065 0.008322851 -0.015151918 0.07706647 0.08846402 0.00943084
0.10275211 -0.0499883 -0.08186332 0.0907589 -0.103845984 0.0041865464 -0.041989356 -0.019977866
0.076587245 0.10413532 -0.045176405 -0.06801204 -0.004379424 -0.018788321 0.14117646 0.010850943
0.084688574 -0.0009893948 -0.090920836 -0.036009498 -0.017662004 0.08151404 0.11935354 -0.10029663
0.04698132 0.0332768 0.08158839 0.01980576 0.17490192 -0.01739211 0.018344622 -0.1265239
0.026465636 -0.042136576 -0.0025101136 -0.0056426735 0.074592456 -0.08562436 -0.028642362 -0.030629069
-0.051535014 0.0049524186 0.123114 -0.117002115 -0.10176656 -0.08940185 -0.093224145 0.09586923
0.005794476 -0.09194055 -0.054777227 -0.12756297 0.09020355 -0.012597166 0.033661906 0.10668655
0.0962316 -0.07772307 -0.094464645 0.1554713 -0.03100569 0.013032887 -0.14605159 -0.033348568
0.042449392 -0.040821023 0.0944662 -0.047181424 0.050585058 0.025153961 0.08202954 0.022932103
00000000: 4550 e2bd 1e11 4fbc 49de 88bd 74d7 d03d
00000010: c827 843c 51f2 28bd 5036 bebd 539d 3d3d
00000020: 15ae ac3d 4832 ffbd 2886 163e 09c7 42bc
00000030: 5661 4e3d 6a76 c4bd 3fbe 093e 0b11 afbc
00000040: b1e8 41bc 89cc f7bc 1893 e3bd 16ec a3bc
00000050: 675a d9bc 24a7 e1bc 8d61 9d3d 0d5b 083e
00000060: c8db 3439 ab1c 323d a415 553d 511b 933d
00000070: abc5 49bd 5d57 09bd e7f9 9abd 2c4a 74bd
00000080: 094e 8fbd 6a4e a1bd f1e3 cf3c b0da 16bd
00000090: 8826 593d 6a10 fe3d b2b6 8c3d a951 9a3d
000000a0: 0c61 d1bc 06b3 b6bd dd5c e23d 7c42 1abe
000000b0: fa9b 6a3d d08c c3bc 4011 763d c352 36bd
000000c0: f84c 363d c5bc 61bd 733a 49bd b911 ed3d
000000d0: b39f 35bd 27db 683d 18e5 793d ca26 143e
000000e0: a4f4 8dbc 1722 bfbd 3908 f93c d075 aabc
000000f0: ae99 05bd 51d5 653d 6e34 ed3c f96e 14be
00000100: 4e31 b9bd 6ccb 093d befb 23bd fd95 a83d
00000110: 581d ef3c a5cc d6bd ba83 c53d 409b 273d
00000120: 38ce dbbc f8ba a83d 2041 71bd 12c9 b13d
00000130: 4afa 8c3d dfe0 adbd 1a6b 9ebc c32f a9bd
00000140: d24b a4bc df86 f93d 6c78 813d dbb5 bd3d
00000150: e64d ac3b 425f 0e3e d929 1abd 9621 04be
00000160: e040 f1bd e02c f03d 5347 4c3c 7700 82bd
00000170: 75c1 0d3e 1c7b cc3d 5774 e8bc 450c 623d
00000180: f78a 803b dc1a 5b3d 18c0 f8bd cf20 9dbd
00000190: b101 0cbd 87a3 843b 7d26 ad3d 4e11 90bd
000001a0: f31f d23d 172f 1abd 3924 babb 9aad ea3a
000001b0: b893 da3d b5cc 603d bdc5 33bc 43d6 ef3c
000001c0: 9ca2 a13d 8a08 93bd 1ed5 513d 635b 63bd
000001d0: 5b8c 043e 915b 243e caea 03be e268 cebc
000001e0: bc24 98bc 14d2 a6bd 084e 83bd efa8 123d
000001f0: cbfe d2bc 8445 ca3b f8b4 8e3b 528f 9abd
00000200: b746 a6bb 9e8f a53d 7c79 cabd 35cb 963c
00000210: 66d8 9f3d 383f b3bd e663 2dbd effb 1dbd
00000220: 714f f7bd 6265 2cbe 488d b7bd 90fa a6bd
00000230: a9b1 05bd dc10 65bb 522e 823d 0dd6 1ebc
00000240: ddc8 fcbd e815 603b 4310 92bc 59dc 5dbc
00000250: ebb4 aa3d 0148 ff3c 8856 c93d 3085 4abd
00000260: 1e19 8f3d 27d9 533c 9acd 41bb b2d9 313e
00000270: 3709 563d e70a febc 74a8 9ebd 256a f4bd
00000280: f346 703d 8d92 743d ebb9 463d 90cd ac3c
00000290: fe51 eb3c 2047 d33d 7b47 cd3d 275e 00bd
000002a0: e5d9 053e bf57 42bd 47fd 9a3d 4ad7 dabb
000002b0: 8d97 53bd 0899 103e eb35 d1bd 1a47 843d
000002c0: 8d4d b9bd 3cfe 1c3d 9166 103d 915c 083c
000002d0: c03f 78bc 07d5 9d3d a02c b53d cf83 1a3c
000002e0: b36f d23d 88c0 4cbd f5a7 a7bd cddf b93d
000002f0: 34ad d4bd 4c2f 893b 08fd 2bbd 9fa8 a3bc
00000300: c6d9 9c3d e644 d53d e50a 39bd e549 8bbd
00000310: 4581 8fbb f7e9 99bc 9090 103e 27c8 313c
00000320: 3471 ad3d 95ae 81ba b434 babd b27e 13bd
00000330: e8af 90bc d5f0 a63d a16f f43d 5268 cdbd
00000340: 7c6f 403d 414d 083d d017 a73d b03f a23c
00000350: 7d19 333e e679 8ebc 7647 963c 7b8f 01be
00000360: 76ce d83c 6797 2cbd b880 24bb 2de6 b8bb
00000370: eec3 983d d35b afbd 63a3 eabc d0e9 fabc
00000380: 6116 53bd e647 a23b 3123 fc3d ce9e efbd
00000390: fc6a d0bd 5118 b7bd 4dec bebd 1657 c43d
000003a0: 96df bd3b 544b bcbd 165e 60bd de9f 02be
000003b0: a4bc b83d 5864 4ebc 11e1 093d 7a7e da3d
000003c0: 1315 c53d 462d 9fbd ae76 c1bd de33 1f3e
000003d0: a5ff fdbc e487 553c 8c8e 15be 8298 08bd
000003e0: 6adf 2d3d f233 27bd 7f77 c13d 4f41 41bd
000003f0: 4732 4f3d ae0f ce3c 1aff a73d 1bdc bb3c

cells.1.x2h.bias f4 [256]
0.072225444 0.013413643 0.11995251 -0.09296398 0.015869616 0.04650846 0.013660647 -0.049986616
0.10248447 -0.05646095 0.02029599 0.1172763 0.09029837 0.12548786 0.052788533 -0.10584834
-0.019982524 -0.030199884 -0.053427845 0.033665065 0.0457447 0.14485613 0.026414309 -0.022470849
0.07244491 0.07118396 0.08746908 0.024425738 0.06543821 0.14321052 -0.104207546 0.03235242
0.018380927 0.09281033 -0.096062794 0.07793077 0.10692781 0.016725106 0.109252594 -0.038195606
-0.078204155 0.04811519 0.066027306 0.11544315 0.120015256 0.03400497 -0.07004814 -0.035607953
0.04151834 -0.036722757 0.13137276 0.04366511 0.08465436 0.11669473 -0.039288145 0.05644756
0.06643515 -0.014657492 -0.08463458 -0.06790222 0.014835391 0.07743547 0.087525815 0.1072167
0.041151457 0.10229467 -0.007301615 -0.033547603 -0.08523664 0.15089862 0.04940009 0.12659866
-0.032651756 0.0151388785 -0.050329678 0.05487593 0.024362355 -0.05670309 -0.12569627 -0.11371573
0.08444991 0.00038408386 -0.09627282 0.048323367 0.08488011 0.13855585 0.05515417 -0.0089688
-0.03838479 -0.087628126 0.121728234 -0.07218524 -0.069789454 0.03471533 -0.10536694 -0.08701207
0.022971261 -0.124018185 -0.03391779 0.011586425 0.031231 0.04356094 -0.03943509 -0.14515176
0.10980806 0.06933493 -0.03412392 0.09165587 0.013699492 0.07725107 0.02075812 -0.040789828
0.09856786 -0.031794533 0.018672198 0.028251093 0.01524749 0.07698245 0.0688097 -0.0024766587
0.031478774 -0.062363844 0.02557264 0.11532492 -0.099971235 0.017819375 0.12031727 -0.065232016
0.033303097 -0.02726122 -0.1058016 -0.0667094 0.040442053 -0.014168984 0.065963805 0.017199498
0.0036895946 0.07648595 -0.0495729 -0.080595344 -0.033382885 0.031458765 0.05615499 0.12545128
0.084780805 0.12128402 -0.103494555 0.042674698 -0.03344289 -0.068280205 0.10229553 0.025007328
-0.03830372 0.0716575 0.073450506 -0.09943815 -0.07968869 -0.1029233 -0.08263659 -0.08363939
-0.04993866 -0.031245459 0.11248763 0.094357796 -0.082224555 0.087467805 0.070805945 0.022541624
0.0067475494 0.043717973 -0.12616406 -0.08374854 -0.08889849 -0.10709651 -0.09664909 0.06388706
0.079333596 -0.114631474 0.1248359 0.11302375 0.028940516 -0.10062711 -0.12876756 0.0057637566
-0.1277299 0.1109398 -0.123383775 0.105482 -0.10537599 0.13060604 -0.09107651 -0.061853576
-0.07185906 0.088551246 -0.026675232 0.04169496 0.035613332 -0.030142583 0.0030922056 0.038390808
0.11724443 0.02666323 -0.008956822 -0.020208018 0.003540688 -0.10680305 0.12508583 -0.002962914
0.050250694 0.11963938 0.14425212 -0.052903518 -0.004270199 -0.09363349 0.000113913266 -0.058736105
-0.039401334 0.07052301 0.10662557 0.060097747 -0.08817827 0.010767451 -0.04911176 -0.0075380886
-0.044256594 -0.087158605 0.12587565 -0.087552264 -0.1116384 0.14965796 0.07298462 -0.11208751
0.05297565 0.07913426 -0.063371174 0.07578177 0.06512364 0.09956598 -0.07044494 0.1279642
-0.06476195 0.12874077 0.10607248 0.088757195 0.05691534 0.051008105 0.10540509 0.0161797
0.08977389 0.063017495 -0.0020493579 -0.056384977 0.064226866 -0.019368652 -0.022966852 -0.02447628
00000000: efea 933d e6c4 5b3c a9a9 f53d e663 bebd
00000010: ff00 823c a87f 3e3d e8d0 5f3c c4be 4cbd
00000020: 61e3 d13d 9943 67bd c743 a63c 8f2e f03d
00000030: 5aee b83d e47f 003e ca38 583d 04c7 d8bd
00000040: 64b2 a3bc bf65 f7bc 28d7 5abd 61e4 093d
00000050: cb5e 3b3d 2a55 143e d262 d83c c914 b8bc
00000060: ff5d 943d e5c8 913d fd22 b33d 7c18 c83c
00000070: 7804 863d c7a5 123e c46a d5bd f983 043d
00000080: 9993 963c 5813 be3d 92bc c4bd 2b9a 9f3d
00000090: f8fc da3d 1703 893c d3bf df3d ff72 1cbd
000000a0: 8029 a0bd 6f14 453d 5339 873d 756d ec3d
000000b0: 8fca f53d cc48 0b3d 6675 8fbd a5d9 11bd
000000c0: 230f 2a3d 9a6a 16bd 9586 063e 30da 323d
000000d0: 445f ad3d a6fd ee3d 9bec 20bd 8f35 673d
000000e0: 270f 883d fa25 70bc e554 adbd 5210 8bbd
000000f0: 2410 733c 7d96 9e3d bc40 b33d 6e94 db3d
00000100: 6e8e 283d de7f d13d 6342 efbb 3669 09bd
00000110: 8c90 aebd 2b85 1a3e c057 4a3d 14a3 013e
00000120: d9bd 05bd 0f09 783c 7e26 4ebd 95c5 603d
00000130: 9093 c73c 8041 68bd 86b6 00be cbe3 e8bd
00000140: 13f4 ac3d dd5e c939 af2a c5bd b9ee 453d
00000150: a0d5 ad3d 96e1 0d3e 57e9 613d e0f1 12bc
00000160: 5f39 1dbd 6076 b3bd a74c f93d dbd5 93bd
00000170: c6ed 8ebd a931 0e3d 9fca d7bd 6233 b2bd
00000180: 3a2e bc3c 3ffd fdbd 61ed 0abd fdd4 3d3c
00000190: 27d8 ff3c f56c 323d b086 21bd aaa2 14be
000001a0: 0ce3 e03d 79ff 8d3d 86c5 0bbd 13b6 bb3d
000001b0: d673 603c cf35 9e3d ef0c aa3c 3c13 27bd
000001c0: f2dd c93d fc3a 02bd 70f6 983c d66e e73c
000001d0: 9cd0 793c faa8 9d3d 1aec 8c3d 704f 22bb
000001e0: e3ef 003d 3b71 7fbd b77d d13c 792f ec3d
000001f0: b8bd ccbd f0f9 913c e768 f63d 5d98 85bd
00000200: d468 083d ec52 dfbc 82ae d8bd f09e 88bd
00000210: 91a6 253d 0725 68bc 0818 873d f6e5 8c3c
00000220: 20cd 713b aaa4 9c3d f40c 4bbd 2c0f a5bd
00000230: 7ebc 08bd e8da 003d c602 663d 4d76 003e
00000240: 8fa1 ad3d c263 f83d f4f4 d3bd aacb 2e3d
00000250: 69fb 08bd 7ed6 8bbd 5280 d13d 2bdc cc3c
00000260: 5de4 1cbd 2bc1 923d 386d 963d 3ba6 cbbd
00000270: d333 a3bd 73c9 d2bd 5f3d a9bd 214b abbd
00000280: 7b8c 4cbd 7af6 ffbc ea5f e63d a93e c13d
00000290: 5965 a8bd 5222 b33d b502 913d 36a9 b83c
000002a0: 8c1a dd3b 9e11 333d 2731 01be 5b84 abbd
000002b0: 6910 b6bd 6a55 dbbd f5ef c5bd 38d7 823d
000002c0: a779 a23d e8c3 eabd f7a9 ff3d ff78 e73d
000002d0: a914 ed3c 9615 cebd a5db 03be e5dd bc3b
000002e0: a0cb 02be 6834 e33d a2b0 fcbd f206 d83d
000002f0: 5ecf d7bd 97bd 053e 5286 babd 2d5a 7dbd
00000300: d82a 93bd 5b5a b53d 0486 dabc 56c8 2a3d
00000310: 49df 113d 94ed f6bc 9aa6 4a3b ae3f 1d3d
00000320: d91d f03d d96c da3c a2bf 12bc 498b a5bc
00000330: e30a 683b 8fbb dabd 8016 003e 732d 42bb
00000340: acd3 4d3d 7e05 f53d d4b6 133e 5cb1 58bd
00000350: 07ed 8bbb eac2 bfbd b8e4 ee38 4595 70bd
00000360: 4b63 21bd 5e6e 903d 825e da3d 0e29 763d
00000370: cf96 b4bd f669 303c 6a29 49bd 1202 f7bb
00000380: 6746 35bd 3680 b2bd 8ce5 003e 9a4e b3bd
00000390: aca2 e4bd f03f 193e f678 953d 238e e5bd
000003a0: fffc 583d 2511 a23d bfc8 81bd 7933 9b3d
000003b0: 8b5f 853d 40e9 cb3d 7045 90bd 0c09 033e
000003c0: eaa1 84bd 9fd4 033e 873c d93d 55c6 b53d
000003d0: 0f20 693d e0ed 503d a0de d73d 4a8b 843c
000003e0: 60db b73d 510f 813d 854e 06bb eff3 66bd
000003f0: 6089 833d 02ab 9ebc fb24 bcbc 7b82 c8bc

cells.1.h2h.weight f4 [256, 64]
-0.016779345 -0.05852576 0.050320543 -0.122259 0.04029965 0.06384363 0.13745463 0.06466727
-0.038161423 0.12543483 -0.107705146 0.08991851 -0.06558234 0.059464764 -0.1086487 0.1115866
-0.04606137 -0.07132837 0.031749535 0.049101375 -0.1076212 0.09332671 0.059220456 -0.08911032
-0.09728259 0.07529161 -0.08547552 -0.02790047 0.03750151 0.009428629 -0.10518321 0.103110574
-0.04225737 0.009411091 0.09086768 0.03030192 0.048597716 0.053610303 0.016367653 -0.006533379
-0.076266274 -0.00252626 0.04130839 0.001729401 -0.13830984 -0.030027263 0.095690586 -0.053655088
0.057152726 -0.06794242 -0.10094085 -0.070197105 0.08054196 0.03840503 -0.008303237 -0.026736725
0.035544768 -0.07775288 -0.091220565 -0.07171076 -0.06867697 -0.040586703 0.07625845 -0.03381613
0.1564167 0.06957947 0.0060822954 -0.07945834 -0.018421225 -0.052011065 0.06238729 -0.044810303
0.08316472 -0.12528294 0.03980427 -0.08754093 -0.08972874 -0.12969968 0.048811436 -0.08549861
-0.05875254 0.010472325 0.011983466 -0.08850074 -0.003935313 0.078033224 0.09175407 -0.015124499
0.00040097514 0.058673624 0.0942417 -0.0063904254 0.1313242 -0.022269826 -0.060178034 0.08508049
-0.07999378 -0.03884538 -0.010965112 0.044021614 -0.0250888 -0.08961324 -0.070683576 -0.015476399
0.105596706 0.049304865 0.0285484 0.068825014 0.07661407 0.028185267 -0.0016951114 0.011495997
0.063992746 -0.11413281 -0.06542826 -0.034256663 -0.035855614 -0.0576325 -0.05056942 -0.11445578
-0.11541225 0.14275292 -0.09102878 0.029400392 -0.03904952 0.08582954 -0.05317116 0.06591027
0.14804292 0.05082966 -0.03980031 0.070644535 0.033554412 0.12842974 -0.04974587 -0.080318704
-0.023433104 0.050241016 -0.025849793 0.0103427535 0.006912502 -0.0064318785 -0.052789763 0.08859925
-0.06564599 -0.0868524 0.075571805 0.08982313 -0.13239998 -0.034055606 0.022392143 0.05603472
0.12127673 -0.06762101 0.0057790675 0.07763599 -0.08059498 -0.14114784 0.041491505 0.058597453
-0.04919645 0.0710089 0.009881699 -0.035668746 -0.09186835 0.06585362 0.077263705 -0.0894213
-0.05621722 0.09763433 0.026940167 -0.053115327 0.03134836 -0.04999401 0.10237349 0.021022836
-0.056793194 0.09899034 -0.11072463 0.054089475 -0.06361189 0.05597007 -0.10397929 -0.03806492
-0.11389611 0.010269805 -0.06665665 -0.13139866 -0.15218715 0.0020963815 -0.014774019 0.09465234
0.014913607 -0.11402895 -0.075072445 0.08545371 -0.06335958 0.10069778 0.011553733 -0.03708812
0.09204653 -0.100791045 0.04089957 -0.103826426 -0.046647966 -0.13206728 -0.054900225 0.09487567
-0.068386644 -0.07318713 -0.104404196 -0.12525998 0.02410668 0.054080613 0.09640768 -0.062626176
0.0055660265 0.08962648 0.01984624 -0.08573501 0.053705715 -0.08570917 -0.13106735 0.1289456
-0.07076764 -0.0025843787 0.14069591 0.041783225 0.07449875 0.0722067 0.020826891 0.01211113
-0.11942186 -0.08551782 0.005199085 -0.04530274 -0.09054698 -0.11614075 -0.07082183 -0.11037978
-0.049692012 0.06391992 -0.09476453 0.13460308 -0.109454595 0.07207642 0.04673115 0.12600525
-0.12263529 0.115166396 -0.049903993 -0.08427267 0.0021944672 -0.052289832 0.090150565 0.028542692
00000000: d674 89bc b5b8 6fbd ea1c 4e3d ed62 fabd
00000010: 3f11 253d 73c0 823d e8c0 0c3e 4670 843d
00000020: 274f 1cbd fd71 003e 8494 dcbd 3227 b83d
00000030: 0950 86bd 5391 733d 3683 debd 8487 e43d
00000040: d9aa 3cbd 9c14 92bd cd0b 023d 861e 493d
00000050: 8168 dcbd 1322 bf3d 2691 723d 797f b6bd
00000060: 183c c7bd 7d32 9a3d ca0d afbd 878f e4bc
00000070: 2f9b 193d 897a 1a3c 4b6a d7bd a32b d33d
00000080: 1016 2dbd fa30 1a3c d618 ba3d bb3b f83c
00000090: 660e 473d 7a96 5b3d 7515 863c f515 d6bb
000000a0: 7e31 9cbd 9c8f 25bb fd32 293d 11ad e23a
000000b0: 18a1 0dbe bcfb f5bc 6df9 c33d 70c5 5bbd
000000c0: fa18 6a3d 6525 8bbd 14ba cebd 80c3 8fbd
000000d0: 2ff3 a43d 984e 1d3d 4d0a 08bc fa06 dbbc
000000e0: 6497 113d e73c 9fbd d9d1 babd 17dd 92bd
000000f0: 83a6 8cbd 3e3e 26bd 642d 9c3d c882 0abd
00000100: b32b 203e ae7f 8e3d fe4d c73b 0ebb a2bd
00000110: 1ce8 96bc 8e09 55bd d189 7f3d 028b 37bd
00000120: 4452 aa3d 2c4a 00be cd09 233d a948 b3bd
00000130: b4c3 b7bd fecf 04be 80ee 473d e519 afbd
00000140: 81a6 70bd 1d94 2b3c 4d56 443c e03f b5bd
00000150: ccf3 80bb e2cf 9f3d 8fe9 bb3d bfcc 77bc
00000160: f939 d239 c153 703d cb01 c13d c666 d1bb
00000170: da79 063e 366f b6bc 3e7d 76bd ae3e ae3d
00000180: c7d3 a3bd 551c 1fbd 03a7 33bc 0250 343d
00000190: 0787 cdbc 2587 b7bd 8dc2 90bd b990 7dbc
000001a0: 1643 d83d e6f3 493d 56de e93c 21f4 8c3d
000001b0: d6e7 9c3d cae4 e63c 802e deba b559 3c3c
000001c0: a10e 833d 76be e9bd 40ff 85bd b750 0cbd
000001d0: 56dd 12bd 0e10 6cbd e121 4fbd cb67 eabd
000001e0: 425d ecbd d22d 123e 4c6d babd 17d9 f03c
000001f0: 64f2 1fbd 66c7 af3d 01ca 59bd f7fb 863d
00000200: 9098 173e c332 503d a605 23bd 15ae 903d
00000210: 5a70 093d 1683 033e 53c2 4bbd 227e a4bd
00000220: c8f6 bfbc 86c9 4d3d f2c2 d3bc a774 293c
00000230: 4582 e23b 82c2 d2bb 143a 58bd 8673 b53d
00000240: 6871 86bd acdf b1bd 64c5 9a3d 30f5 b73d
00000250: dc93 07be e47d 0bbd ba6f b73c aa84 653d
00000260: ef5f f83d e27c 8abd 555e bd3b 9eff 9e3d
00000270: fb0e a5bd 0f89 10be fff2 293d e203 703d
00000280: 3782 49bd 1d6d 913d dae6 213c 6419 12bd
00000290: 7925 bcbd 43de 863d 6f3c 9e3d 8422 b7bd
000002a0: 0744 66bd 82f4 c73d a0b1 dc3c 758f 59bd
000002b0: 2367 003d 85c6 4cbd 31a9 d13d 1538 ac3c
000002c0: fb9f 68bd 73bb ca3d 98c3 e2bd ed8c 5d3d
000002d0: f346 82bd df40 653d 18f3 d4bd f6e9 1bbd
000002e0: 5d42 e9bd af42 283c 4883 88bd 5f8d 06be
000002f0: f3d6 1bbe 7263 093b ba0e 72bc 16d9 c13d
00000300: 3458 743c 0388 e9bd 95bf 99bd 5b02 af3d
00000310: abc2 81bd a33a ce3d de4b 3d3c b6e9 17bd
00000320: e482 bc3d 896b cebd 4f86 273d f3a2 d4bd
00000330: f011 3fbd a53c 07be 0fdf 60bd 2d4e c23d
00000340: 4c0e 8cbd 22e3 95bd ded1 d5bd 2744 00be
00000350: 5f7b c53c a283 5d3d 6471 c53d 2742 80bd
00000360: 3763 b63b 178e b73d 9594 a23c d695 afbd
00000370: 86fa 5b3d 4a88 afbd 8536 06be 510a 043e
00000380: a0ee 90bd ae5e 29bb 9712 103e e324 2b3d
00000390: cd92 983d 1be1 933d 289d aa3c c36d 463c
000003a0: 7393 f4bd f823 afbd 165d aa3b 5e8f 39bd
000003b0: b270 b9bd 34db edbd 090b 91bd cb0e e2bd
000003c0: da89 4bbd 72e8 823d e813 c2bd 64d5 093e
000003d0: bb29 e0bd cd9c 933d 2a69 3f3d 8507 013e
000003e0: 3628 fbbd 5cdc eb3d 2168 4cbd 2697 acbd
000003f0: 0dd1 0f3b dd2d 56bd dca0 b83d 5dd2 e93c
