model_street/models_street_all/LSTM_model_F D R DRIVE.pth (torch, 358314 bytes, 17 tensors)

input_projection.weight f4 [9, 9]
000000 bc 47 bc 3e 25 63 85 bc b4 67 aa be 5f 1f c7 3d
       0.3677348 -0.016282627 -0.33282244 0.097227804
000010 f2 84 6d be 6a 4f 8f 3e 9f 75 04 be d7 7b 99 be
       -0.23195246 0.27990276 -0.12935494 -0.29977295
000020 b4 25 87 be fc c4 f5 3d 25 e2 f8 bd dd 72 d6 bd
       -0.26395953 0.120004624 -0.12152509 -0.10471127
000030 f5 37 94 be 1e 53 e8 bd 7a d3 37 be ef ef e8 bd
       -0.28948942 -0.11343978 -0.17951766 -0.11373889
000040 0e 63 da 3d dc 73 90 bd a6 06 34 be 0f de b8 bc
       0.106634244 -0.070533484 -0.17580661 -0.022566823
000050 ee ce 00 3c d2 9a 52 be 51 b1 68 bd 76 c1 1d 3e
       0.007861836 -0.20566872 -0.056809727 0.1540583
000060 a8 69 30 bd ec 9c 38 be 3d 89 b2 be df 67 33 be
       -0.04306951 -0.18028611 -0.3487033 -0.17520092
000070 e0 82 3f bd 6e 6e cb 3e 29 86 b0 be 61 3a cd 3c
       -0.04675567 0.3973269 -0.34477356 0.025052251
000080 d9 0e 2a be 4a 77 8d be 51 cb 49 be 29 ed 15 be
       -0.16607226 -0.27630073 -0.19706465 -0.1464125
000090 61 46 cd 3d ec 68 52 be 7f e9 8e 3e 4b 30 91 3e
       0.10023189 -0.20547837 0.27912518 0.28357157
0000a0 42 ef 9c 3d 1d e5 78 bd 41 bf 38 3d 8d a5 7c 3e
       0.07662822 -0.060765374 0.04510427 0.24672528
0000b0 23 16 85 be ef 74 e6 be b4 25 f3 bd e6 ca 20 be
       -0.2599345 -0.45011088 -0.11872426 -0.157024
0000c0 cd 77 3f 3e d6 59 c9 3d b4 1d 97 bd 3d 0a 80 be
       0.18698044 0.09831588 -0.07378712 -0.2500781
0000d0 1b 87 50 be 1e bc 88 be cc cc e0 bc f5 ab 9e be
       -0.20364039 -0.26706022 -0.027441405 -0.30990568
0000e0 e8 9a 36 3e 66 eb 81 bd 0d 91 2f be a3 09 b8 bd
       0.1783253 -0.06343727 -0.17145176 -0.08986213
0000f0 5b df 90 3e 36 75 68 3e c4 20 96 be 2f 38 c0 3e
       0.28295407 0.22700962 -0.29321873 0.37542865
000100 d8 00 3c 3e e1 33 a1 be f5 a5 8e 3e 1f bd 80 be
       0.18359697 -0.31484893 0.2786099 -0.25144288
000110 fd 2b 91 be 8a 88 52 3e 17 3e 95 bd 8b 63 97 be
       -0.28353873 0.20559898 -0.07287233 -0.29568133
000120 51 6f b4 3e 3d 50 da bd 17 da 33 3d 0c 44 1f 3e
       0.35241178 -0.106598355 0.04390916 0.15553302
000130 29 ab ea 3c 8d bd 80 3d e2 cc 75 be fb cb 2b 3b
       0.028646069 0.06286154 -0.24003938 0.002621411
000140 31 59 54 3e
       0.20737149

input_projection.bias f4 [9]
000000 a8 8c 99 bd cb ae 5d 3d e2 04 33 3e d0 d0 a4 bc
       -0.07497531 0.054121774 0.17482331 -0.0201191
000010 1d 44 da bd 11 1b 07 be 70 ec b2 be d2 53 04 be
       -0.10657523 -0.13193919 -0.34946012 -0.129226
000020 b9 ec 0f 3e
       0.14055146

cells.0.x2h.weight f4 [256, 9]
000000 40 56 6b be 39 40 0b 3e 7d ae 47 be 2b ef 91 3c
       -0.2298212 0.13598718 -0.19500156 0.01781424
000010 c1 a3 9e be 6b 4f 30 3e b7 30 3a 3e 26 9b ad bd
       -0.3098431 0.17217796 0.18182646 -0.08476858
000020 ab 90 87 3d bf dc 1d bd 62 fd 8f be 6e ed 20 3e
       0.0661939 -0.038540598 -0.28123003 0.15715572
000030 d0 b2 ac bd ac 34 1f 3d d7 d3 d9 3b d6 a6 a0 be
       -0.08432543 0.03886859 0.0066475677 -0.31377286
000040 1f af aa bd 98 8b 95 3e 79 59 96 be c4 fd 61 3e
       -0.08334183 0.29208064 -0.29365137 0.2206946
000050 6c 45 bc be a5 89 06 3d 62 ac 80 3e ab 22 46 be
       -0.36771715 0.03284611 0.25131518 -0.19349162
000060 4c b4 81 3e e8 d1 9b be 5d e8 0e 3d ab 64 17 3e
       0.25332868 -0.30433583 0.034889568 0.14784496
000070 a3 5f af be 89 2c 14 3d 52 15 38 3e 0b 0f f2 3c
       -0.34252653 0.036175285 0.17976883 0.029548189
000080 44 25 eb bd 44 db 7a be 60 8e 1c bd 90 ce 50 3e
       -0.11481717 -0.24497706 -0.038221717 0.20391297
000090 8e 2b 43 3d 49 a8 5d be df 29 85 3d a0 90 d7 3e
       0.04764896 -0.21646227 0.06502127 0.42102528
0000a0 80 d4 98 be 27 c5 a8 3e e4 da 54 ba 8a b1 05 3e
       -0.29849625 0.32962915 -0.00081197754 0.13056007
0000b0 48 7e c8 be 58 8c f3 3d 61 ae c6 3d 1e 2d de bd
       -0.39158845 0.11892003 0.09701229 -0.10848449
0000c0 ee 05 90 3d 1b fc 80 3e 35 93 82 be ec 18 8f be
       0.07032381 0.2519234 -0.25502935 -0.279487
0000d0 e9 eb f8 3b 89 18 d9 bd 46 de 19 3e 2c bc b1 bd
       0.007596482 -0.10600383 0.15026197 -0.08678469
0000e0 e5 57 99 3c 04 a5 7f be 80 91 85 3d 8d e7 dd 3d
       0.01871867 -0.24965292 0.065218925 0.108351804
0000f0 fc 8b a3 be e6 24 ab bd 67 50 b9 3e 19 d9 8f be
       -0.31942737 -0.08356647 0.36194155 -0.2809532
000100 7c c3 75 be a7 41 e7 bc c6 5d 27 3e 99 8d c7 be
       -0.24000353 -0.028229548 0.16344365 -0.38975218
000110 ea a6 e6 3c 1d 72 21 be 84 12 7f bd b2 dc 48 3e
       0.028155763 -0.15766187 -0.062273517 0.19615439
000120 ff da ef 3d 11 22 85 3e 8a 98 4f be c0 6e 51 3e
       0.11711692 0.26002553 -0.20273033 0.20452404
000130 40 66 5a be 7f 76 aa be d4 a1 92 3d 70 73 76 be
       -0.21328068 -0.3329353 0.071597725 -0.24067473
000140 17 f8 a4 3e ed cd 6a 3e 35 5b 89 3e 16 ab 29 3d
       0.32220528 0.22930117 0.26827398 0.041422926
000150 ab fe a1 3d 88 c7 29 3e 3d 6d 9a be 4d 48 8f 3e
       0.07909902 0.16580021 -0.30161467 0.2798485
000160 8a 3c b5 3e e5 62 96 ba db ff 1c 3e 33 9a 49 be
       0.3539775 -0.0011473565 0.15331976 -0.19687729
000170 fd 12 17 be 7c d2 40 be 42 c3 47 be 2d 2d 1e 3e
       -0.14753337 -0.18830293 -0.19508079 0.1544692
000180 eb 99 98 be 9f ba dd 3d ab 90 4f 3e 97 ce 4e 3e
       -0.2980493 0.10826611 0.2027003 0.20195995
000190 f7 51 4c bd c3 11 b3 bd 08 5c b1 3e 48 0b 7b 3e
       -0.049882855 -0.08743622 0.34640527 0.24516022
0001a0 42 21 7b be c5 e6 e2 3b 9d fc f5 3d e6 e1 53 be
       -0.24524406 0.0069244825 0.12011073 -0.20691642
0001b0 f2 df 07 be d2 60 44 be a0 1e 11 3d 71 43 4b 3d
       -0.13269022 -0.19177559 0.035429597 0.049624864
0001c0 00 10 30 be 0c af 38 be 19 1e ba 3c 48 15 a7 be
       -0.17193604 -0.18035525 0.02271943 -0.32633424
0001d0 92 e1 be bc 6a ee 12 3e a6 71 59 3e be b9 cc bc
       -0.02330092 0.1434876 0.2123476 -0.024990913
0001e0 c2 93 a1 3e c5 93 62 bd 33 13 3c be 0d dd 2b be
       0.31558043 -0.055316705 -0.18366699 -0.16783543
0001f0 0c 8f 31 3e 4b d1 83 be ea 54 a8 3e 7c d8 b0 be
       0.17339724 -0.25745615 0.32877284 -0.34540164
000200 32 7c 79 be 78 47 8a 3d cd 82 82 3d 2d c1 9a be
       -0.24363783 0.06751913 0.063726045 -0.30225506
000210 c4 9d 54 3e 39 16 00 3d 3a 57 ae 3e d1 9c d0 3e
       0.20763308 0.031271193 0.34050924 0.4074464
000220 54 be 97 bd b8 a7 e2 bb 16 d1 93 3e 84 a5 8c be
       -0.07409349 -0.0069169663 0.28870457 -0.27470028
000230 5d c1 03 be 35 cb 73 3e 98 6e 93 be d2 15 57 3e
       -0.12866731 0.23807986 -0.28795314 0.21004418
000240 d6 90 8c be ff 0e f7 3c d2 30 94 3e 64 2f e6 3d
       -0.2745425 0.030158518 0.28943497 0.11239508
000250 c7 78 89 bd b0 42 90 3e d8 d4 3b be d4 ce f8 bd
       -0.067124896 0.2817588 -0.18342912 -0.12148824
000260 e7 d4 80 3a df b0 5d 3e 04 a3 b8 bd ef dc 08 3e
       0.0009829075 0.21649502 -0.09015468 0.1336553
000270 5c 77 9b be f3 5f b3 bd e0 7e 72 be c0 cb 36 be
       -0.303645 -0.08758535 -0.23681211 -0.17851162
000280 85 84 84 bd 80 ba 9a 3e 57 dd b7 bd d2 4e 91 39
       -0.064705886 0.30220413 -0.08977764 0.0002771528
000290 e8 f0 f3 3d 95 28 17 be 44 7a e4 3c 40 ae 71 be
       0.119111836 -0.14761575 0.027890332 -0.23601627
0002a0 09 19 89 3e 5f cc 6a be 18 aa b5 3e 3e f4 51 3e
       0.26776913 -0.22929524 0.35481334 0.20503327
0002b0 11 60 a7 bd f6 46 71 3d 62 4b 97 3d 64 36 92 be
       -0.0817262 0.058905564 0.07387425 -0.28557122
0002c0 0e 94 01 be 48 12 97 be 0e 18 96 be c7 22 dd 3d
       -0.12654135 -0.29506135 -0.29315227 0.10797649
0002d0 de 8a 81 be 66 1e 21 be fa 66 05 be db 95 a7 3d
       -0.2530126 -0.15734252 -0.13027564 0.081828795
0002e0 53 14 d0 3c 30 f3 a8 be c4 ca 96 bd fe 9e fe 3d
       0.025400316 -0.32998037 -0.07362893 0.12432669
0002f0 c2 23 a5 bc 4f 48 dc be bd ee 75 be 26 0a 07 3e
       -0.020158652 -0.43023917 -0.24016853 0.13187465
000300 b6 0c 8e 3e 2f ec fd 3b af b1 26 3d 88 ee db bd
       0.27744073 0.0077491025 0.040696796 -0.107388556
000310 f3 ed 77 be aa 00 9a be 25 c3 9d 3e f6 28 1e 3d
       -0.24211864 -0.30078632 0.30812946 0.038613282
000320 20 c6 6b 3d 09 ea 77 be b7 c1 4c be 93 05 5b be
       0.057561994 -0.24210371 -0.19995771 -0.21388845
000330 bf b1 ae bc 1e 07 95 3e be ba f5 bd 07 21 35 be
       -0.02132499 0.29106992 -0.11998509 -0.1768838
000340 57 c3 91 3d 41 4c 17 3e e5 ef b1 be ee ed 6d 3e
       0.07117336 0.14775182 -0.34753338 0.23235294
000350 f8 0e b2 bd 3b 85 dc bd 8b d3 98 3d 97 ba 6b 3e
       -0.08694261 -0.10767599 0.074622236 0.23020397
000360 3e 60 db bc 08 66 54 be f5 2f 11 be 55 17 73 3e
       -0.02677929 -0.20742047 -0.1417845 0.23739369
000370 1a cc 77 3e 88 51 e6 3d 1b a6 b4 3d 2d 23 42 3e
       0.24198952 0.112460196 0.088207446 0.18958731
000380 86 a9 80 3e c1 26 6d 3e 61 6b 2e be dd 23 13 3e
       0.25129336 0.23159315 -0.1703315 0.1436915
000390 e4 dd 24 3d d1 1c 9c 3e e1 df 86 3e dd 0f 12 be
       0.040250674 0.30490735 0.2634268 -0.14263864
0003a0 9b c2 87 be 8e 79 5b bc 70 cf 42 be e1 ea 8f be
       -0.2651566 -0.01339568 -0.19024444 -0.28108886
0003b0 bb 8b 42 be 3c 4a 11 3e 9f 05 81 bd 4b 59 85 3e
       -0.18998615 0.14188474 -0.062999 0.26044688
0003c0 d9 e1 7e 3e c1 3c b5 bd fb ea 49 be 5b a6 b0 3c
       0.24890842 -0.088494785 -0.19718544 0.0215637
0003d0 92 64 8e be 1f 8e 02 3e d5 6b 58 bc 77 f4 83 be
       -0.27811104 0.12749527 -0.013209303 -0.2577245
0003e0 eb 9d aa be eb 7f 85 be 60 12 a3 3d 6f 91 f7 bd
       -0.33323607 -0.26074156 0.07962489 -0.12088286
0003f0 68 12 85 3e 44 7d a3 3e 69 3a 82 be b0 5f 85 bd
       0.25990605 0.31931508 -0.25435188 -0.065123916

cells.0.x2h.bias f4 [256]
000000 06 ac 26 3e 58 b7 fe bd d2 53 4b be 98 8c 21 3e
       0.16276559 -0.12437314 -0.19856194 0.15776289
000010 1a 62 82 bd c7 b6 3d 3e 4f 9b be bc 9d 2c 78 bd
       -0.06366368 0.18526755 -0.023267416 -0.06058942
000020 6a ba a0 3e 17 53 41 3e b2 5f 5b 3e f7 3a b2 bd
       0.31392223 0.18879353 0.21423224 -0.08702653
000030 9c 21 b2 3e 38 62 76 3e c2 9d 18 be f0 ac 37 3e
       0.34791267 0.24060905 -0.1490393 0.17937064
000040 a4 7c 07 bd 4c 36 06 3e f5 63 19 3e 4c c7 ad bc
       -0.03307785 0.1310665 0.14979537 -0.021213196
000050 8e 5d 55 be 00 8b 76 bd 15 d5 38 3e 0d 77 9c be
       -0.2083647 -0.060191154 0.18050034 -0.3055958
000060 0d 98 8c 3d a5 7d b4 3c e6 79 b7 bd 74 6d 9b be
       0.06864939 0.022032568 -0.08958797 -0.30356944
000070 e1 5e 85 bd 28 89 49 bd ed 22 ad bd 59 a2 74 bb
       -0.06512237 -0.049203068 -0.08453927 -0.0037328212
000080 53 ce 70 3e 6d 90 8d 3e 98 e5 6b bb db c6 59 bd
       0.23516206 0.2764925 -0.0035995003 -0.05316816
000090 07 9d 51 3e ec 18 55 3e 51 f4 5a 3e 27 e5 65 3e
       0.20470057 0.20810288 0.21382262 0.22450696
0000a0 2f 98 7b be a8 db 23 be db 0d f3 3c 01 9f 1e be
       -0.24569772 -0.16001761 0.029669693 -0.15490343
0000b0 8f 64 51 be e6 9c b0 3e 14 e8 3b be 85 6e 50 be
       -0.20448516 0.34494704 -0.1835025 -0.2035466
0000c0 f0 8d c5 3e 15 96 c7 bd 48 71 43 be f3 bd 99 bd
       0.38584852 -0.09745423 -0.19086182 -0.07506933
0000d0 4d 0b 11 bc 50 f7 dd 3c e7 24 ae bd 24 bb 9f bc
       -0.008852792 0.027095467 -0.08503132 -0.019498415
0000e0 aa ee 7e be ec 68 7b 3e ec 07 1f 3d fa 03 b8 bb
       -0.2489573 0.24551743 0.038825914 -0.0056157084
0000f0 84 6a 03 3e f1 35 95 bc 97 60 95 3e c1 01 68 be
       0.12833601 -0.018214198 0.29175255 -0.22656919
000100 4c b6 8b be 43 51 d6 bc 86 71 36 be 4b cf 9a bd
       -0.2728752 -0.026161795 -0.17816743 -0.07559069
000110 6f 7d 8c 3d 4f 4f 70 3e 1a 21 92 be 30 f3 ad 3e
       0.06859862 0.23467754 -0.2854088 0.339746
000120 68 52 80 3e 0f 83 80 be 1a 2a a5 3e 2d 7b 72 3e
       0.2506287 -0.2509999 0.32258683 0.236798
000130 fb da 94 3e 27 0f 1a be 65 7d c9 3d 1f 0b 4d 3d
       0.2907332 -0.15044843 0.0983837 0.050059434
000140 62 87 40 3d 81 19 62 be 90 de 94 bd 8d af cb 3d
       0.04700411 -0.22080041 -0.07269013 0.09945593
000150 df ce 97 3e e7 63 23 bd 09 3c 1d be 1c c5 a3 bd
       0.29650018 -0.039890196 -0.15354933 -0.0799658
000160 10 da b5 bb b9 f8 cc bd 68 92 0e 3e d9 d6 8f 3c
       -0.0055496767 -0.100083776 0.13923037 0.017558502
000170 c1 d4 55 be 4c a5 f7 bd 15 79 64 3d 60 c6 9a be
       -0.2088194 -0.12092075 0.055779535 -0.30229473
000180 e4 67 f9 3d 53 90 8b be 64 44 28 bc c0 6c cf 3b
       0.12178019 -0.27258548 -0.010270212 0.0063301027
000190 f6 ac 86 3e 4f 6b 8f be fd 38 3f be 66 f7 05 3d
       0.26303834 -0.28011557 -0.18674083 0.03270664
0001a0 fd 40 c2 3e bb 02 7d 3d a2 f4 85 3e 99 37 1d be
       0.37940207 0.061770182 0.26163203 -0.1535324
0001b0 60 84 8f be f9 19 ab 3e b2 a9 b0 bd 4e 73 aa 3e
       -0.28030682 0.33418253 -0.08626117 0.33291095
0001c0 c8 a3 88 bb e3 13 f6 bd c1 75 f5 bd 11 ca 9e bd
       -0.004169915 -0.12015512 -0.119853504 -0.07753385
0001d0 bc 12 a1 3e bc 35 8a 3d 19 ac 2b be ac bd 80 be
       0.31459606 0.0674853 -0.16764869 -0.25144708
0001e0 34 c4 90 bc 7a 72 5c 3e 01 28 7c 3d 4a 56 eb 3d
       -0.017671682 0.21528044 0.06156159 0.11491068
0001f0 4b 56 93 3d 36 bd a6 bd ad b9 85 3e 28 06 16 3d
       0.071941935 -0.08141558 0.26118222 0.036626965
000200 42 4f 6b bd b2 f2 01 be 8a 57 8d be 65 3e b2 3e
       -0.057448633 -0.12690237 -0.2760585 0.34813228
000210 b6 21 4a be 1a db d0 bd 24 09 95 3e 78 c0 95 3d
       -0.19739422 -0.1019804 0.29108536 0.07312101
000220 df 1f c5 bc 08 17 9d 3e ad c2 4d 3e a1 60 81 bc
       -0.024063049 0.30681634 0.20093794 -0.015793147
000230 c9 79 98 bd ec 46 9d 3d 8d fc 5c bd bf f2 bf 3c
       -0.07445104 0.07679543 -0.05395179 0.02343118
000240 44 f4 64 be 70 08 9b 3e 0c 14 59 3e 9b 8c 87 3e
       -0.22358805 0.30279875 0.21199054 0.2647446
000250 59 e9 f5 bd 19 ff 85 be 10 ab 46 be 26 6b 51 3d
       -0.12007398 -0.26171187 -0.19401193 0.051127575
000260 73 e8 88 3e d9 c9 b0 3e 5a 2e 88 be 9e 01 2f 3e
       0.26739845 0.34528998 -0.26597863 0.1709046
000270 23 fb 05 be c0 c6 23 bc 06 84 ad bd a6 5c 72 3e
       -0.13084082 -0.009996116 -0.08472447 0.23668155
000280 1f d7 39 3c 5a 72 a6 bd 0f 92 09 3c 1c b6 82 3e
       0.011342793 -0.081272796 0.0083966395 0.25529563
000290 21 92 24 be ab 2c 7b 3c 50 09 a0 3e 55 28 78 3e
       -0.16071369 0.015330474 0.31257105 0.24234135
0002a0 88 87 26 be 2b b3 e4 3d 8e 85 9d bd 71 d1 65 be
       -0.16262639 0.11166986 -0.07691489 -0.22443177
0002b0 52 97 88 3e 1b 5b 64 3e 03 4e a0 3e b4 83 55 3d
       0.26677948 0.22300379 0.31309518 0.052127555
0002c0 e9 4d 56 3e 99 76 83 be 70 0a 9f 3e a3 a5 2e bc
       0.20928158 -0.2567642 0.3106265 -0.010659608
0002d0 f6 8c ef 3d 87 21 9a be 66 2e a9 bd 81 f3 9d 3e
       0.11696808 -0.30103704 -0.08260803 0.3084984
0002e0 ae 59 0f 3d 27 ed 1a be 17 0f 75 3e a3 7c 21 3e
       0.034997635 -0.15129529 0.23931538 0.15770201
0002f0 17 80 82 be ac 68 3f be 15 2f a9 be 1a 59 a6 be
       -0.2548835 -0.18692273 -0.33043733 -0.32489854
000300 6c d5 72 3e d5 23 87 be 65 0b ba 3d 6b 19 ac 3e
       0.23714226 -0.26394525 0.090842046 0.33613142
000310 24 ff e5 3d 46 5b 69 3d 58 10 db 3d 79 10 42 bd
       0.11230305 0.05697181 0.10696477 -0.04737899
000320 c4 2b 92 3e a1 f2 dd 3d 15 7b 58 be a1 2a 14 3b
       0.28549016 0.108372934 -0.21140702 0.0022608417
000330 fd 3a 93 3d e5 56 56 3e a3 2c 01 be 02 dc 77 3e
       0.071889855 0.20931585 -0.12614684 0.2420502
000340 f8 b4 d4 bd 83 13 90 be 5c 72 1b 3e 5f b7 0f be
       -0.103860795 -0.28139886 0.15180343 -0.14034794
000350 07 b2 58 be dd 80 a4 bd 37 74 36 3e 42 67 a8 bb
       -0.21161662 -0.08032391 0.1781777 -0.0051392624
000360 42 23 92 3c 28 57 e8 3b 4d ea b9 3e f6 35 09 be
       0.017839078 0.007090468 0.3631157 -0.1339949
000370 0b e2 8b 3e 68 6b 49 3e fd cd 75 3e 70 67 1e 3e
       0.27320895 0.19669878 0.2400436 0.15469146
000380 9e 5c 35 be 8d 36 c8 bd 8e 2f 27 be ff a0 4f 3e
       -0.17711112 -0.0977603 -0.16326734 0.20276259
000390 0c 0a 3e bd 8e 47 9a 3e 8f 83 8e 3e fd b9 3d be
       -0.0463963 0.30132717 0.27834746 -0.1852798
0003a0 13 8b 16 3e 73 08 96 be 0e 05 e5 bc ab 65 9a 3e
       0.1470149 -0.2930332 -0.027956512 0.30155692
0003b0 61 bb 50 3d 65 3e f6 3d 8c e4 93 3d 70 a9 31 3e
       0.05095995 0.120236196 0.07221326 0.17349792
0003c0 f2 79 dd 3e 69 ec 9e 3d 6d 1b b2 3e 21 ac 91 3e
       0.432571 0.077599354 0.3478655 0.28451636
0003d0 57 be ff bd fe 23 ab bd 9d 9c 94 3e 10 98 90 3e
       -0.12487476 -0.08356474 0.29025736 0.28241014
0003e0 3c ea 5b 3e a7 37 51 3e 2c 58 9c 3e 59 4b f1 bc
       0.21476072 0.20431386 0.3053602 -0.029454874
0003f0 a6 c8 7b 3d 9d f0 a5 3e 06 f4 d1 3d da 32 91 3e
       0.06147065 0.32410136 0.10251622 0.2835911

cells.0.h2h.weight f4 [256, 64]
000000 2b 5d 81 bd 6d 9e 58 3d 08 97 5d 3d a4 a3 77 3c
       -0.063165985 0.05288546 0.054099113 0.015114699
000010 64 a5 ef 3d 44 f8 00 3e 40 e7 08 bd 8d 05 37 be
       0.11701468 0.12594706 -0.033423662 -0.17873211
000020 37 84 ae 3b 0c d0 51 3d e1 a9 5d ba 30 31 ae 3b
       0.00532582 0.0512238 -0.0008455795 0.005315922
000030 19 73 5d bd 06 48 8d bd 35 73 e6 bd 27 eb 44 bd
       -0.054064844 -0.06898503 -0.11252443 -0.04807582
000040 32 9e e9 3d e7 1a b2 3d de 48 7d 3d 1d 58 ff 3d
       0.114071265 0.086965375 0.06183707 0.12467978
000050 d5 db af bd 6d b9 dc bc 7f 94 dd ba 99 40 49 bd
       -0.085868515 -0.026943887 -0.0016905217 -0.04913387
000060 c3 82 2c bc 9a 40 a8 bd 14 4e 19 ba 38 3d 1f be
       -0.010529223 -0.08215447 -0.00058481214 -0.15550697
000070 03 d5 19 be 9f 45 79 bd ce 40 30 bc d6 db 51 3d
       -0.15022664 -0.06085741 -0.010757638 0.051235043
000080 65 e5 07 3d 74 77 64 3b dd f5 d5 3d 97 41 0b 3d
       0.033177752 0.0034861239 0.10447285 0.0339981
000090 10 1f 14 be f8 ba 94 3d 36 cd 68 3d c5 2c f3 bd
       -0.14464974 0.07262224 0.05683633 -0.118737735
0000a0 fe d1 3f 3c 36 03 8b 3d fb ef d9 3d 67 84 05 be
       0.011707781 0.06787722 0.10641476 -0.13038789
0000b0 24 96 c0 bc 93 75 16 bd 5e a4 16 bd cb 9d 6c bc
       -0.023509093 -0.03673322 -0.036777847 -0.014441918
0000c0 95 72 a5 3d 19 b2 10 be 78 d8 04 3e b7 0a 01 be
       0.080784954 -0.14130439 0.12973201 -0.12601744
0000d0 c6 da dc 3d e0 4e 0c be db 49 eb bd 71 94 7c bd
       0.10783915 -0.13701963 -0.11488696 -0.061665002
0000e0 3d 2c b3 3b ae 3a a7 3b 17 9e ed 3d 08 7d 07 ba
       0.00546792 0.0051034307 0.11602419 -0.00051684724
0000f0 74 ae 1d 3e 68 cb 3b bc 20 66 f9 3c bf 10 ad bd
       0.1539858 -0.01146207 0.030444205 -0.0845046
000100 2e 18 b9 bc 88 98 13 3d cc c4 59 3d a0 ff c7 3d
       -0.022594538 0.036034137 0.053166196 0.097655535
000110 26 fe 0e 3e 3c d2 30 3d cf 54 59 3d 38 5e 3f 3c
       0.13964137 0.043169245 0.053059395 0.011680178
000120 80 6c 9e 3d 1c b1 57 bc 9f bc a2 bd 78 b2 b6 bd
       0.077355385 -0.013164785 -0.07946133 -0.08920759
000130 b9 f3 94 3c 01 a7 35 3d be 81 a2 3b ea 45 8c 3c
       0.018182622 0.04434872 0.004959314 0.017123181
000140 29 97 99 bc cc 79 c2 bd c9 6b 81 bd aa 89 a0 3c
       -0.018748837 -0.09495887 -0.063193865 0.019596893
000150 61 11 da bd af 60 43 be c8 08 4e bd e4 10 c7 3d
       -0.10647846 -0.1907985 -0.050301343 0.097200185
000160 53 0c 1e bc 2f 08 cf bd 16 bb 04 be 0f c1 8a 3d
       -0.009646493 -0.10108983 -0.12961993 0.06775104
000170 9f 44 e7 3b e1 4b d7 3d d6 c2 a8 3c 4a b3 dd 3d
       0.007057741 0.1051252 0.020600718 0.10825212
000180 39 d1 43 3e 69 76 c7 bc 26 e8 09 bd b6 aa ca 3c
       0.19122781 -0.024348455 -0.03366866 0.024739604
000190 ae 8f b7 bd 6e 1e 8f 3d 80 cd 03 3e c9 a1 2b 3d
       -0.089629516 0.06988226 0.12871361 0.041902337
0001a0 18 de ad bc f7 ca fd bc 94 cf c6 bc 30 05 eb bd
       -0.021224067 -0.03098057 -0.024268903 -0.11475599
0001b0 18 d5 ba bd bf 09 a4 bd c2 9f 09 3d 59 99 cd 3c
       -0.09122676 -0.080096714 0.033599623 0.025097536
0001c0 ba 2e ae 3d fe 40 b2 bd 7b 2d cd 3c ef 33 2c bd
       0.08505006 -0.087038025 0.0250461 -0.042041715
0001d0 46 6a c5 3c 45 fd fb bd ef 4e c9 bc 1a 98 48 bd
       0.024098527 -0.12304167 -0.024573771 -0.04897318
0001e0 eb 1c 9b 3d 6c a9 a0 3d 59 63 73 3c 3a fd ef 3b
       0.07573875 0.07844815 0.014855229 0.007323888
0001f0 ac e0 56 3e 88 62 d5 bd 65 61 2f 3c ed aa 95 bd
       0.20984143 -0.10419184 0.010704373 -0.07307992
000200 d9 8f 61 3d 04 c8 bd 3d b6 6b 0a be 9f 58 c3 bd
       0.055068824 0.092666656 -0.13517651 -0.095383875
000210 35 8d 03 3e 19 13 38 bd d4 cd 25 bb 0b 8b c0 bd
       0.12846835 -0.044940088 -0.0025299685 -0.0940152
000220 9f 7b 08 be 6b 83 16 bd 1d 14 6f bd 72 d1 97 3d
       -0.13328408 -0.036746424 -0.05836879 0.074129954
000230 c7 f6 2c bd 30 e4 84 bd c6 48 8b bd 0a 89 ec bd
       -0.042227533 -0.06488836 -0.0680099 -0.115495756
000240 83 47 98 bd 72 44 98 bc ac d2 9b bd 96 de c0 3d
       -0.07435515 -0.018587325 -0.07608542 0.09417455
000250 c8 b9 3f 3d 37 05 78 bd 48 3e 2b 3e 76 75 dd bd
       0.046808034 -0.06055185 0.16722977 -0.108134195
000260 51 05 d4 3d 49 ac e5 3d c5 b2 b8 3d fe 15 2a 3d
       0.103525765 0.112145014 0.090184726 0.04152488
000270 75 91 07 be 33 d3 de 3c 7e 84 07 be 40 90 fb 3c
       -0.13239081 0.027200317 -0.13234136 0.030708432
000280 6a 3d 27 bd 34 06 c6 bd c1 41 b9 bd 49 89 45 bd
       -0.040830053 -0.09669152 -0.09045745 -0.04822663
000290 8a c3 b8 bb 50 65 89 3d 9a 83 eb 3d 1f c0 ca 3d
       -0.0056385444 0.06708777 0.114997104 0.098999254
0002a0 87 dd fc 3c 73 2a e6 3b 52 77 b4 bd 7e 1a b2 bd
       0.030867351 0.0070241033 -0.08811821 -0.08696459
0002b0 79 91 85 bc f2 96 1e 3e d7 05 fe 3c f6 3f b6 3d
       -0.016304718 0.15487269 0.031008644 0.08898918
0002c0 fd 14 3d 3e 7a 6e c8 3d 0e b0 61 3d fa 5c 0f bd
       0.18465038 0.09786697 0.05509954 -0.03500078
0002d0 c3 70 13 3e 48 e8 22 be fa fa 52 3b 69 29 9a 3d
       0.14398484 -0.15908921 0.003219305 0.075274296
0002e0 f0 29 b0 3d ea b8 0e 3e 1c f0 d9 bc fd 35 b1 3d
       0.08601749 0.13937727 -0.02660375 0.086528756
0002f0 75 56 54 3e be 87 17 3c 2c ac c2 3d ea d8 b8 bd
       0.20736106 0.009248672 0.095054954 -0.09025748
000300 06 80 86 bd 53 91 c5 bb 40 5c 33 3d 94 47 82 3d
       -0.06567387 -0.006029287 0.04378915 0.06361309
000310 75 af 4e 3e 25 89 75 3d b3 63 00 3e ea 7e 3d be
       0.20184119 0.059945244 0.12538032 -0.18505445
000320 21 ab 9c 3c d9 7a a7 3b c4 6f 22 3e 79 ba af 3d
       0.01912457 0.00511108 0.15862948 0.08580489
000330 ba e5 de 3d 2b d7 1a 3c 16 71 cf 3d 1a ab 93 bd
       0.108836606 0.009450714 0.10128991 -0.072103694
000340 37 35 f7 3b a8 93 b1 3d 72 84 da 3d 51 1e b6 3d
       0.0075441855 0.08670741 0.10669793 0.08892501
000350 34 30 75 bd 86 79 10 3d 7d 96 19 3e 4b 76 ef bd
       -0.059860423 0.035272144 0.14998813 -0.116924845
000360 2d 38 6f 3c c1 6a 2e 3d cf c6 31 bc c3 9b 39 3d
       0.014600796 0.042582277 -0.010850622 0.04531456
000370 c3 d6 fa bc ce 0e c4 3d e2 d6 c8 3c bb 91 82 bc
       -0.030619984 0.09573136 0.024516527 -0.01593863
000380 f2 f7 f2 3d d2 55 97 bd 32 3b ae bd ba 28 58 bc
       0.11863698 -0.07389416 -0.08507384 -0.013193304
000390 62 25 b2 3c 0f 5e bb bc c6 6a 48 bd 06 8d aa 3c
       0.021746341 -0.022872 -0.048929952 0.020819198
0003a0 0b 08 7e bd 46 b3 b5 3c 61 9e f3 3d 24 ce b7 3d
       -0.06201939 0.02218021 0.11895443 0.08974865
0003b0 c4 e1 04 3e 66 c5 be 3d 77 5c 96 3d e2 36 2e bc
       0.12976748 0.093149945 0.07341855 -0.010633202
0003c0 7b 55 4a 3e 32 f1 a1 bd 94 27 88 3c 28 1b 59 bd
       0.1975917 -0.079073325 0.016620435 -0.053004414
0003d0 22 29 44 3d 39 00 52 3d 2e d9 ca bc 6f be c7 bd
       0.04789079 0.051269744 -0.024761762 -0.09753119
0003e0 42 bc 17 3d c6 dd 14 3e 24 ec 5c 3d 64 34 dc 3d
       0.03704477 0.14537725 0.05393614 0.1075218
0003f0 05 45 9b 3c f6 a4 42 bc c5 7d 85 bd 6c 46 3b 3d
       0.01895381 -0.01188015 -0.06518129 0.045721456

cells.0.h2h.bias f4 [256]
000000 96 88 03 bb d5 f2 67 3b f8 3b 20 3d 7f 54 83 bd
       -0.0020070425 0.0035392542 0.03911969 -0.06412601
000010 92 75 3b bd 1c d5 09 bd ce 7d a8 bc f4 69 0a bc
       -0.04576642 -0.033650503 -0.0205678 -0.008448113
000020 17 8e dc 3d 8a 2d a7 3a 93 77 ba 3d 8f 3f 2d 3c
       0.10769289 0.001275466 0.09104838 0.010574236
000030 55 3c bb 3d d0 7f fd 3c 33 a1 de bd bd f4 80 bd
       0.09142367 0.030944735 -0.1087059 -0.0629668
000040 ee 81 3c bd f1 c4 01 3e 84 cc 31 3c e7 e4 ad bd
       -0.046022348 0.12672783 0.010851983 -0.08490925
000050 16 78 a1 3c bf 04 13 3e 04 04 86 bc 74 a4 b7 bd
       0.019710582 0.14357279 -0.016359337 -0.08966914
000060 35 f3 c4 3c 5f 78 f1 bc 1c 36 94 bd 3e 40 f0 3d
       0.024041751 -0.029476343 -0.07236883 0.11731003
000070 ac 05 02 3c 1d d1 0f 3e 0d 3b 01 bc 1d dc 3b 3c
       0.007935923 0.14044614 -0.007887614 0.011466053
000080 58 02 aa 3d 85 e4 fa bc ae 37 5d 3d 47 18 f8 3d
       0.08301228 -0.030626545 0.05400818 0.121140055
000090 a9 f6 7e bd 3e 70 0c 3e 87 93 95 bd ce f9 5c bd
       -0.062246952 0.13714692 -0.07303529 -0.05394917
0000a0 c7 fa 34 3b e7 6d cf 3d 14 80 9a 3d 8c 7b a2 3d
       0.0027615295 0.10128384 0.0754396 0.07933721
0000b0 4b 64 27 bd c9 19 83 bd 21 9c e4 3d d2 2b c8 bd
       -0.04086713 -0.064014025 0.11162592 -0.09773983
0000c0 0a 01 64 3d ee 53 42 3d 07 9f 17 3d 13 a4 88 bd
       0.055665053 0.047443323 0.037016895 -0.0667192
0000d0 c7 62 57 3d 8b eb 2e 3e 4b fa 14 bd cd e0 67 bd
       0.052584436 0.1708204 -0.03637151 -0.05661087
0000e0 99 34 a9 bc cd 9e 4f 3c 19 6f 15 3e 14 08 12 3d
       -0.020654963 0.012672138 0.14593162 0.035652235
0000f0 2c 44 ce 3d 03 ef 06 3e cd f4 35 bd ca 4c 39 3e
       0.100715965 0.13177113 -0.044422913 0.18095699
000100 91 5a e9 3d b1 63 65 bc 50 76 51 3d cc 0c 40 bd
       0.11394227 -0.014000819 0.051138222 -0.046887204
000110 8e b9 22 3e 20 ea 0e 3d 08 d7 d8 bd 07 17 ec bc
       0.15891096 0.034891248 -0.10587889 -0.028819574
000120 57 05 eb 3d a2 3d 43 bd 0d c6 51 bc f1 d1 ad 3d
       0.11475628 -0.0476662 -0.012803567 0.08487309
000130 cf c4 e8 3d e5 f3 53 3e f7 a5 3d 3d f8 13 c1 bd
       0.11365663 0.20698507 0.046300855 -0.09427637
000140 61 5a 21 bd 3c e9 8f 3c d8 37 9a 3d 25 c5 77 3d
       -0.039392833 0.01756727 0.075301826 0.060490746
000150 78 c1 a8 bd 6a 2e ed bc 2f 18 d2 3d 36 44 f9 3d
       -0.08240026 -0.028952796 0.10258519 0.12171213
000160 e8 38 de 3d ff 23 13 bb ca c4 0c 3e 60 db d0 bb
       0.10850698 -0.0022451875 0.13746944 -0.006373808
000170 a6 a2 2c 3d e8 9d 14 3e cd 52 82 3c dc 66 60 bd
       0.0421473 0.14513361 0.015908623 -0.054785594
000180 93 ec 80 3d 30 89 8a bd 8c 6b fa bc c7 f5 f5 3d
       0.06295123 -0.06764448 -0.03056886 0.12009769
000190 24 e2 17 3d 6e e6 89 3d 67 eb 18 be dd 2d bf 3d
       0.0370809 0.06733404 -0.14933549 0.093349196
0001a0 63 d4 36 3e ac 94 6f 3d ec e8 8d bd 25 b1 80 3d
       0.17854457 0.058491394 -0.06929192 0.06283788
0001b0 c4 98 b5 3d 93 ae d6 3d 5a 6c b8 3c c3 a0 8f bd
       0.08867028 0.10482516 0.022512604 -0.07013085
0001c0 0c 10 00 3e 86 a1 9f bc 8c 21 77 3d 00 cb 19 3d
       0.12506121 -0.0194862 0.060334727 0.03754711
0001d0 21 21 d7 3d 1a 08 9a 3d 0e 33 3d 3d e5 ef 62 3c
       0.10504366 0.075210765 0.046191268 0.013851141
0001e0 b9 2f a7 bd 14 d4 4e bc 6e d0 73 3d ad b7 a6 bd
       -0.08163399 -0.012623806 0.059524946 -0.08140502
0001f0 5c 3d d7 3d 3c 6f ca 3c fe e8 e2 bc e7 55 3c bd
       0.1050975 0.024711244 -0.02769899 -0.04598036
000200 eb ac 10 3b b5 5d 11 be 1f 03 c6 bd e7 8e e8 3c
       0.0022075723 -0.14195903 -0.09668564 0.028388454
000210 ba ec cf 3c bd f1 49 3d fa 8d 7b 3d f0 fb 36 be
       0.025381435 0.049302805 0.061414696 -0.17869544
000220 58 63 aa 3d 76 2d 71 bd 07 ee d1 3d 16 74 63 bc
       0.083197296 -0.058881246 0.10250478 -0.0138826575
000230 8d a2 0e 3d be 31 be bd ae c0 f7 3d 59 0f 29 3d
       0.03482299 -0.09286831 0.120972976 0.041274402
000240 4b 15 00 be 39 d6 fc 3d 83 ad 57 3d b0 46 a3 3d
       -0.12508123 0.12345547 0.052655708 0.07972467
000250 08 86 01 3c c1 a7 88 3d f8 62 00 3e cb 09 27 3c
       0.007905491 0.066726215 0.12537754 0.010195206
000260 c3 bd c1 3d b4 a6 36 3d c3 3a 41 bd 75 52 ce bd
       0.09460022 0.044592574 -0.04717518 -0.10074321
000270 4d 59 2b bd 5c 14 43 bd 22 37 bb bd 6a 18 ac bd
       -0.04183321 -0.047626838 -0.09141375 -0.08403094
000280 62 fc 13 bd 7a 70 84 3d b7 fd b0 bd 39 0b 26 be
       -0.036129363 0.06466766 -0.08642142 -0.16215219
000290 54 39 9f 3c 32 ba 90 3d ca b0 43 3d f0 94 65 bc
       0.019436516 0.07066764 0.04777602 -0.01401256
0002a0 ed 55 86 3d 5a f4 19 be 81 24 c5 3d db 6e 51 ba
       0.06559358 -0.15034619 0.09626103 -0.0007989236
0002b0 6c 14 0f bd cf 05 a2 bd 05 06 0f 3e 8a 85 0f 3d
       -0.034931585 -0.07911264 0.1396714 0.035039462
0002c0 b4 f6 81 bd 5d da 9c 3d e2 e4 67 3d c4 9a f1 bd
       -0.06345883 0.07658837 0.056614764 -0.11797097
0002d0 32 45 a4 bc 42 7d c6 bc 50 be 99 bd 87 9f 4c bc
       -0.020052526 -0.02422965 -0.07507002 -0.012489206
0002e0 cf 05 b7 3d 2f 04 d1 3d ec 0d f1 3d 59 86 0b bd
       0.08936655 0.10205876 0.117702335 -0.03406367
0002f0 26 8f ea 3d b2 86 d9 bd 63 be 98 bd e8 d9 53 3d
       0.11453085 -0.10621394 -0.074581884 0.051721483
000300 6f e3 f0 3d 66 6f c5 3c 55 73 da 3d 23 a6 50 ba
       0.117621295 0.02410097 0.10666529 -0.00079593266
000310 b1 0f 3e 3e 33 d9 7a bd 9d 23 1d bd 63 e8 08 3d
       0.18560673 -0.061242294 -0.03836404 0.033424746
000320 91 84 b3 bc 99 fe 92 bd d4 b2 b4 3d c8 b8 89 bd
       -0.021913799 -0.07177467 0.08823171 -0.06724697
000330 e9 d1 bd 3d b2 c8 a9 3d 37 1c bb 3d d6 0d 03 3d
       0.09268553 0.08290233 0.09136241 0.031995617
000340 2c 12 0d 3e ea 87 91 3c 76 d3 8d 3c 55 7b 44 3d
       0.13776463 0.017765004 0.017312746 0.04796918
000350 79 67 a1 bd 48 79 65 3e 5c 98 40 3e 20 a1 9c bc
       -0.07881064 0.22409546 0.1880812 -0.0191198
000360 a8 56 51 bd 02 57 00 3e ed ad 95 3d 0e 06 46 bd
       -0.051108032 0.12533191 0.07308564 -0.048345618
000370 47 d0 08 3d 9a 14 9f ba 6c 49 f1 3c 10 ea a5 bb
       0.033401754 -0.0012136877 0.029453956 -0.005063303
000380 70 11 66 3d da c7 83 bd ec b8 1e bd 99 90 c4 bc
       0.056168973 -0.06434603 -0.038750574 -0.02399473
000390 68 45 28 3d 93 b4 57 bd 28 35 18 bc f9 ed 04 3e
       0.041081816 -0.052662443 -0.009290017 0.12981404
0003a0 a8 e9 34 3e 78 d6 e2 3d 70 9b 84 bd 67 27 22 3e
       0.17667258 0.11076063 -0.0647496 0.15835343
0003b0 49 b1 ee 3d fb f2 aa bd 6e 19 05 3e 01 63 25 bd
       0.11654908 -0.08347126 0.12997982 -0.04037762
0003c0 18 9d 48 3d 2a fe 05 3e a0 f8 a6 bd ca 85 ac bd
       0.04897794 0.13085237 -0.0815289 -0.08423956
0003d0 2e d6 5b bd ea 41 f2 3d 85 b8 d7 3d 99 57 54 3d
       -0.053671055 0.11828978 0.10533241 0.051841352
0003e0 7f cf 09 3e bf de 71 bd 89 24 51 3d 6e 25 8c bc
       0.1345806 -0.059050318 0.051060233 -0.017107692
0003f0 f3 b6 0b bc 57 6e ef bc 84 04 85 bd 3b 28 14 3c
       -0.008527505 -0.029227419 -0.06495002 0.009042795

cells.1.x2h.weight f4 [256, 64]
000000 f6 5f f9 3d 5b 9e c0 3d f5 b1 88 bd f1 1e b9 3d
       0.12176506 0.09405204 -0.066745676 0.09039105
000010 4e a3 32 3e 80 2a 10 3d 17 a4 f9 3d 0e 50 07 be
       0.17445108 0.03519678 0.12189501 -0.13214132
000020 82 74 17 bd d4 fd af 3d 8e 43 53 3c 96 20 d7 bd
       -0.036976345 0.08593336 0.012894524 -0.10504262
000030 ec 52 90 bd 28 6c 03 bd fe 34 ce 3d c4 5d 0d be
       -0.07047066 -0.032085568 0.10068701 -0.138053
000040 57 65 c6 3d dd fd 14 3e a3 17 0f 3e 37 21 c8 bb
       0.09687298 0.14549966 0.1397386 -0.006107475
000050 6d 9f 9c 3d f3 e1 b2 bd 48 64 29 bd 4c af db bb
       0.076475956 -0.08734503 -0.0413554 -0.0067042466
000060 54 b1 d6 3d 50 11 b7 3d 26 b7 3a 3b 11 ab 00 be
       0.104830414 0.08938849 0.0028490513 -0.12565257
000070 bc 71 89 bd 6c 6e a5 bd 7a 34 ce bd 81 a4 10 bd
       -0.06711146 -0.08077702 -0.10068603 -0.035313133
000080 1f 43 6d bd 85 9c d7 3c e8 ef 0b 3e 57 b0 72 3b
       -0.05792534 0.026319752 0.13665736 0.0037031376
000090 03 a1 0d 3d 85 6b 03 3e 0c 81 c4 3d 03 a9 24 3e
       0.03457738 0.12833984 0.09594926 0.16080098
0000a0 e6 63 f0 3d 40 89 0c be 2f 22 bc 3d a2 19 a2 3d
       0.11737804 -0.13724232 0.091862075 0.07915045
0000b0 0f 84 71 3d ee 64 69 3c 67 14 62 bd 12 e9 15 3e
       0.05896383 0.014245255 -0.05519524 0.1463969
0000c0 b2 e2 54 3e 27 65 e2 3c 2c 84 1b 3e ef 44 85 3d
       0.20789602 0.027636124 0.15187138 0.06507289
0000d0 5f ef 99 bd 54 4b 8c 3d 58 08 84 bb 40 de 0e 3e
       -0.075163595 0.06850305 -0.004029315 0.13951969
0000e0 0b 03 90 bd 28 d7 cc 3d a5 da a9 3d f8 c9 d2 bd
       -0.070318304 0.10001975 0.08293656 -0.10292429
0000f0 c9 d6 3c 3e a6 b6 c4 bc ef f8 86 bc e7 47 c5 bd
       0.18441309 -0.024012875 -0.016476123 -0.09632855
000100 98 b0 6c 3d 7e ee d4 3d a3 38 32 3d 91 ae 35 3d
       0.0577856 0.10397051 0.043511044 0.044355933
000110 d5 09 80 3d 3d bf 3c 3d a5 71 a9 bd 0a 8c 88 bd
       0.06251875 0.046080817 -0.08273629 -0.06667335
000120 f7 03 0f bd 4f 21 b1 3d e8 71 24 bc 0c 0f 81 bd
       -0.03491589 0.08648931 -0.010036923 -0.06301698
000130 83 92 fa 3c 7c 39 90 bd f4 d2 58 bd bb ce e5 bd
       0.03058744 -0.07042214 -0.052935556 -0.11221071
000140 83 d5 8b 3c dc 46 f4 3d 16 9c 9b 3d c2 0a 05 3e
       0.017069584 0.11927578 0.075981304 0.12992385
000150 ea fc 81 bb 81 8d ee bd 64 93 86 bc b2 0a ea bd
       -0.0039669173 -0.116480835 -0.016427703 -0.11427821
000160 09 2e d0 3c 7e 94 07 3e e4 de 16 3c da 75 35 bd
       0.025412576 0.13240239 0.009208415 -0.044301845
000170 14 a9 6b 3d 86 cc 81 bd 26 4b 33 3d 01 f9 07 3e
       0.057534292 -0.06337838 0.04377284 0.13278581
000180 bc 58 0f 3e cd a8 0f be 64 16 20 3d a4 2a d0 bd
       0.13998693 -0.14029236 0.039083853 -0.10164383
000190 f2 b7 08 be 7e 94 7f bd 80 a3 4a bd 0a cd f4 bc
       -0.1335142 -0.062397473 -0.049472332 -0.029882926
0001a0 18 8d 28 3e 11 a9 5e 3d 43 12 ca 3d 4f e0 be 3d
       0.16460073 0.054360453 0.098667644 0.09320127
0001b0 9c b5 33 3d 14 11 ca 3d 6f 30 d7 3d 52 ab 2f 3d
       0.043874368 0.09866539 0.10507285 0.042887993
0001c0 72 b2 36 3e c1 ab 56 bd 50 74 9f bc c1 36 92 3d
       0.17841509 -0.05240989 -0.019464642 0.0713935
0001d0 19 95 52 bc bd 00 66 3b 3e bb 9c 3b 8b 56 cf 3d
       -0.01285293 0.0035095655 0.004783063 0.10123929
0001e0 bd 59 0e be 1c 7f 1d 3e d6 35 f8 3d b7 26 11 be
       -0.1390142 0.1538052 0.121196434 -0.14174925
0001f0 92 b9 48 3e 42 35 06 be 62 9f c8 bd d9 51 9e 3b
       0.1960204 -0.13106254 -0.09796025 0.0048315343
000200 87 eb 36 bc da 1f e4 bc 67 cc bf 3d b8 07 a1 bd
       -0.0111645525 -0.02784722 0.093651585 -0.078628
000210 03 8c f2 3d 00 bd 5d bd 30 0d 71 bd 91 3f b9 3c
       0.11843111 -0.054135323 -0.058850467 0.022613319
000220 f6 ed 06 be 1e bb c0 bd 96 e9 7e bc 4c 52 0e be
       -0.13176712 -0.0941069 -0.015558621 -0.13898581
000230 fe cd c8 bc 43 82 28 be 5a 31 92 3d fa 0d 0a bd
       -0.024512287 -0.16455941 0.07138319 -0.033704735
000240 8b 5f 85 bd 5c a0 ca 3d 3a 40 1b 3e 76 94 1e bd
       -0.06512364 0.098938674 0.15161219 -0.038715802
000250 09 5c b6 bd c7 3d b1 bd b4 a4 25 3e 8e ef f6 3d
       -0.08904273 -0.08654361 0.1617611 0.1205741
000260 c2 9c c8 bc a1 91 af 3c fa c0 0b bd 46 e4 84 bd
       -0.02448881 0.021431746 -0.034119584 -0.06488852
000270 c8 5a be bb 8a 49 3f bd bb df 64 3c 40 d4 e5 39
       -0.005809162 -0.04670099 0.013969357 0.00043836422
000280 bb 68 09 3e 6f 34 e1 bd 8a 94 c1 3d 05 e7 c3 bd
       0.13418858 -0.10996329 0.0945216 -0.09565548
000290 f4 29 f0 bd 6c 4f a3 bd 5a a3 02 bd 29 6e 5d bd
       -0.11726752 -0.07974133 -0.031894065 -0.054060135
0002a0 69 ba 69 3d 2f 8d d7 bd 86 17 81 3c 83 1e 1e 3c
       0.05706254 -0.105249755 0.015758287 0.009650829
0002b0 68 e9 96 bd 89 51 ad bd 62 2d 1b bd 58 a2 e9 3d
       -0.073687375 -0.08462817 -0.037885077 0.11407918
0002c0 66 87 37 3e 0d 92 0c be a9 ac 0c bd f9 89 20 be
       0.17922744 -0.13727589 -0.03434435 -0.15677632
0002d0 42 6a 1f bd af 4e e9 bb b0 8c 37 3d 20 b7 bc 3d
       -0.038919695 -0.0071199755 0.044811904 0.09214616
0002e0 30 56 81 bd b7 94 17 3e 6d 5d f6 3d 05 25 2c bd
       -0.06315267 0.14802824 0.12029538 -0.042027492
0002f0 8a 73 19 bd 2a c0 33 3d 87 d2 81 3d 38 8e d6 3c
       -0.037463702 0.043884434 0.06338983 0.026190862
000300 bd 5a e3 bc a7 f7 06 bd 28 75 6a bd 80 58 e1 3d
       -0.027753228 -0.032951023 -0.057240635 0.11003208
000310 e7 ae a6 3c 34 7c 38 3d 86 9a 29 3c 33 4e 25 bd
       0.020347072 0.045040324 0.010351783 -0.04035778
000320 4d 02 41 bd f8 fd c3 3d 55 ae b4 bc cb 0b 02 be
       -0.047121335 0.09569925 -0.022055784 -0.12699811
000330 e1 99 8d 3d 41 2c d1 bd 13 fc dd 3d b3 70 99 bc
       0.06914116 -0.10213519 0.10839095 -0.018730497
000340 aa 59 ce bb 45 aa 53 bc 94 f3 87 3d 11 d5 0e 3e
       -0.00629731 -0.012919013 0.06638256 0.13948466
000350 e0 d9 de 3c 61 da 93 bd c4 80 69 bd 44 f4 c0 3d
       0.0272035 -0.07219387 -0.057007566 0.0942159
000360 3b 46 aa 3d 8b 79 1e 3e 57 9d 18 3e c8 49 89 bd
       0.08314177 0.15476052 0.1490377 -0.06703526
000370 11 00 51 3c b0 d2 8a 3c b1 b6 a8 bc da c2 ae 3d
       0.0127563635 0.016946167 -0.020594927 0.08533259
000380 a9 cf 95 bd 80 a1 ce 3d 45 68 68 bd 23 34 42 bc
       -0.07314999 0.100893974 -0.056740064 -0.011853251
000390 96 db 8c bb 7d e2 f0 3d 56 0f 3a 3c 12 46 95 bb
       -0.0042986376 0.11761949 0.011356195 -0.004555472
0003a0 1f 7b 9b 3d 3b 6f d1 bc ba 02 fb 3d 47 17 05 be
       0.07591843 -0.025565734 0.122563794 -0.12997161
0003b0 88 13 32 bd 3c 6d 68 3d 52 4d 0b 3e 99 c0 86 3d
       -0.043475658 0.0567448 0.13603714 0.06579704
0003c0 23 10 51 bd 08 a8 d9 bc b5 7e 31 3d ba 77 20 3c
       -0.05104078 -0.026569381 0.043333728 0.00979417
0003d0 65 40 1b 3e 06 43 c4 3b 9b 7b ed bd a2 32 11 3e
       0.15161283 0.005989435 -0.115958415 0.14179471
0003e0 8c fd 73 bd 06 63 50 bd f5 cf 11 3e 54 40 68 3c
       -0.059567973 -0.050875686 0.14239486 0.014175493
0003f0 71 a6 e2 bc 40 cb 6c 3c d2 fa 2d bc 0b d1 04 3e
       -0.027667256 0.014452755 -0.010618882 0.12970369

cells.1.x2h.bias f4 [256]
000000 74 1b 7a 3b fa 11 00 3e cf ec a2 3d 2a c0 e9 3c
       0.0038163336 0.12506858 0.07955324 0.028534014
000010 0f c1 04 3d ec 88 a0 bd ea f1 67 bc b4 0f 95 bd
       0.032410678 -0.07838616 -0.014156798 -0.07278386
000020 b6 ff d5 bd 58 b3 90 bd b6 27 ab 3d be ba 85 bd
       -0.104491636 -0.07065457 0.08357184 -0.06529759
000030 e0 71 db bc 7b 88 53 bd af 99 52 bd e1 24 aa 3d
       -0.026787698 -0.05164383 -0.051416095 0.08307815
000040 45 eb 4f bb 3e c0 6c 3d 65 c4 ca 3d 32 d8 84 bd
       -0.0031725925 0.057800524 0.099007405 -0.064865485
000050 b6 e8 5a bd 61 b1 3d bd 27 7d a2 3d 53 9f c1 bd
       -0.053444587 -0.04631174 0.07934027 -0.09454217
000060 3e 0b 70 3a 75 bc b0 3b 74 5c 63 3d 08 58 9c 3d
       0.00091569487 0.0053935596 0.055508092 0.07633978
000070 4f a8 82 3d 84 44 33 3d ad 26 01 bd 9f 39 49 3c
       0.063797586 0.043766513 -0.031531025 0.012281804
000080 3e 39 b2 bd 1b c9 8b bd 37 f8 ec 3d ac cd db 3d
       -0.08702324 -0.06825467 0.11570781 0.10732588
000090 85 f3 0d bd 91 42 10 3d 50 4d ee 3d b6 61 47 3d
       -0.034656066 0.035219733 0.1163584 0.04867717
0000a0 a9 30 d7 bc 6d 52 0f bd e1 34 cd 3d 3f 6e 61 bc
       -0.02626832 -0.034990717 0.100198515 -0.013759195
0000b0 3c 2c c9 b9 cd 99 e3 bc 92 3f 38 3d 17 65 a8 bd
       -0.00038370665 -0.027783299 0.0449825 -0.08222406
0000c0 9c d0 16 3e 30 46 f4 3d 21 33 37 bd cb 9f ba bd
       0.14728016 0.1192745 -0.044726495 -0.09112509
0000d0 19 0a 2d 3d 00 23 db 39 ed dc c1 3c 8c 16 2c 3d
       0.042245958 0.00041797012 0.023664916 0.04201369
0000e0 eb a0 e1 bd 15 47 ca 3d dc 85 b4 3d 26 20 c0 bd
       -0.11017021 0.09876839 0.08814594 -0.09381132
0000f0 73 eb 9a 3d d0 c1 ba bc 08 56 b2 bd 47 64 9a bd
       0.075644396 -0.022797495 -0.087078154 -0.07538658
000100 2f 5b 9a 3d 6c af 05 3d 79 e2 bd bd 55 51 b1 3d
       0.07536923 0.032638 -0.09271712 0.08658091
000110 16 9e 25 3d 92 15 a3 3c 92 19 e6 3d 85 7b dc 3d
       0.040433966 0.019907746 0.11235346 0.10765747
000120 5c 3a 40 bd 55 23 95 3d 37 10 89 bd 2c 9c 06 3d
       -0.046930656 0.0728213 -0.06692546 0.03286378
000130 46 e8 e6 3c bd 47 21 3d 87 a7 44 bd 63 cf b5 bc
       0.028186928 0.039375056 -0.04801133 -0.022193616
000140 5b 08 c7 bc b8 ff 66 3d 9f b5 97 bd 3a b9 65 bd
       -0.024295976 0.056396216 -0.07407688 -0.05608485
000150 4c 33 cb 3d 09 e8 24 bd 5d d1 78 3d 69 d5 c6 3d
       0.099218935 -0.04026035 0.06074654 0.097086735
000160 92 56 a5 3d 4d 8b cf bd a4 ac 98 bb 65 e7 c8 bd
       0.080731526 -0.101339914 -0.0046592522 -0.0980976
000170 20 55 05 3e 4c 6e 1c bd 5a c5 82 3d 43 fa 07 bd
       0.13020754 -0.038191125 0.06385298 -0.033197653
000180 cc f5 cf 3d 31 4b 16 3e 19 d7 c5 3b 62 d5 f4 3c
       0.10154304 0.14677121 0.0060376045 0.029886905
000190 6f 7d b1 bd 97 66 ee bd 02 b8 b8 bd 19 30 22 bd
       -0.08666503 -0.11640661 -0.09019472 -0.03959665
0001a0 1d be 88 3d a9 69 90 3c e4 1a c4 bc 36 f9 da 3d
       0.06676886 0.017628508 -0.023938604 0.106920645
0001b0 46 c4 da bc 14 f4 ae bd 23 55 01 3d 0a b7 cd bd
       -0.026704919 -0.08542648 0.031575333 -0.100446776
0001c0 32 2a a9 bd e6 f6 29 3d ac 75 2c bd bb 50 61 bc
       -0.08260001 0.041495226 -0.04210441 -0.013752158
0001d0 4c da b8 bc e4 4f 3a bd e5 b2 b7 bd 45 1e 06 3d
       -0.02256503 -0.045486346 -0.08969668 0.03274371
0001e0 1c f9 ed 3c 3e c8 01 3d 5c f5 f6 3d 98 7e 8f bc
       0.029049449 0.031685106 0.12058517 -0.01751642
0001f0 54 52 64 3c 07 48 12 3e b1 19 05 3c b1 33 a4 bd
       0.013935644 0.14285289 0.008123801 -0.08017672
000200 63 92 11 bd 23 71 f0 3c 5b 57 e7 3c f3 64 fc 3d
       -0.035539996 0.029350823 0.028239897 0.12323942
000210 ac d8 97 3d 83 64 ac bc ce de 94 3d a0 b4 11 3e
       0.07414374 -0.021044021 0.07269059 0.14229059
000220 72 61 ee bd 7b 13 27 3d a7 ba 0a 3d 6b 04 1f bc
       -0.1163968 0.040790062 0.03386941 -0.009705643
000230 3b 7a c2 bc f3 a0 05 3e 0e c5 70 3d aa 0c c3 bc
       -0.023739925 0.13049679 0.058781676 -0.02380975
000240 d0 1c 89 3d ce 71 1e bb 39 9e 56 3d 65 6f 5e 3d
       0.06694949 -0.002417672 0.052396987 0.054305453
000250 7f f4 ea 3d f4 74 c0 bd 42 ba f7 bc 0f f2 e3 3d
       0.11472415 -0.09397307 -0.030240182 0.111301534
000260 b9 01 fa bb 92 32 38 bd 4d 48 10 bc e3 77 ad bd
       -0.0076296 -0.044970103 -0.0088063 -0.08470132
000270 bf cb 94 3d 42 18 20 3e d2 f7 04 3b d5 0b 14 3e
       0.07265424 0.15634254 0.0020289314 0.14457639
000280 6c 58 f1 3d a6 c6 46 3d 8d 48 f3 3d 1e ed 97 3b
       0.11784443 0.04852929 0.11879072 0.004636421
000290 d1 ee f7 bd fc 60 6d bd 3f a5 8d bd c6 68 dc bd
       -0.121060975 -0.05795382 -0.06916284 -0.107621714
0002a0 c0 62 91 3d 8f 6c 1e be 99 c8 9e bc 4c 8c a1 bc
       0.07098913 -0.154711 -0.019382762 -0.01972022
0002b0 89 1b f9 3d e8 1b 06 be e4 a1 d8 3d 24 6a 7e 3d
       0.12163455 -0.13096583 0.10577753 0.062112942
0002c0 db 0f da bd 68 67 13 bc ed 71 c6 bc 23 9b 89 bd
       -0.106475554 -0.008996822 -0.024224246 -0.06719043
0002d0 d1 60 4a 3d b0 97 7d bd 54 5c 9f 3b e2 6b 91 bd
       0.049408738 -0.06191224 0.0048633013 -0.07100655
0002e0 1b e9 8d bd ea 4f b8 3d d3 a0 fb bc 3f fd 8f 3d
       -0.06929227 0.089996174 -0.030716335 0.07030725
0002f0 0f 4b bb bd 3c 2d ef 3d 74 18 39 3d cc b0 08 be
       -0.09145176 0.1167855 0.045189336 -0.13348693
000300 f1 73 6f 3d be 70 7a 3d a2 42 19 bc 9a de 0b bc
       0.05846018 0.061142676 -0.009354265 -0.008536959
000310 cd 32 74 3b 0f 1f 40 3d 6c 0f 88 3d 38 d7 74 bd
       0.0037261725 0.04690462 0.066435665 -0.05977556
000320 e7 ec a6 bd 57 c0 c7 bd d4 27 53 bb 46 00 af bd
       -0.08150654 -0.09753483 -0.0032219784 -0.08544974
000330 31 6b ab bc 6e 36 47 bd f5 5c 8e bc 75 b9 ad 3d
       -0.020925136 -0.048635893 -0.01737831 0.08482639
000340 c1 32 ac bd e3 bc f2 3d 1d fc e4 3d b7 77 17 3c
       -0.08408118 0.118524335 0.11180899 0.009244851
000350 62 16 b1 bd 08 52 6a 3d 2a ed cb 3b a2 c6 a0 3d
       -0.08646847 0.057207137 0.0062233405 0.07850386
000360 1b 22 ef bd 3b 2d 0c 3e 6c 1e 98 bd 48 15 b0 bd
       -0.11676427 0.13689129 -0.074276775 -0.08597809
000370 37 04 04 3e f2 dc 04 3e 79 80 52 bd dd 53 13 bc
       0.12892233 0.12974909 -0.051392052 -0.0089921625
000380 dd 5e 9e 3d a2 6b 33 bd 28 bb 91 bd 5a 96 b8 bc
       0.077329375 -0.04380382 -0.07115775 -0.02253263
000390 49 5f 88 3d 4f c9 98 3d 23 78 a6 bd d4 b3 c8 bd
       0.06658799 0.074602716 -0.08128383 -0.097999245
0003a0 a9 24 0b 3e 96 24 bb 3d 70 b9 0a 3d 6a 6f c5 bd
       0.13588203 0.091378376 0.033868253 -0.09640391
0003b0 7c 5f e5 bd cb 91 0c bd 0d 59 02 bd 83 27 27 3c
       -0.11199853 -0.034318727 -0.031823207 0.010202291
0003c0 37 31 89 3d 0c a9 0f 3e a6 d0 03 3e 09 4b a3 3b
       0.0669884 0.1402933 0.12872562 0.00498331
0003d0 dd 04 3b bd 19 6e bf 3d 59 12 b5 bd d5 f3 24 3d
       -0.045658935 0.09347171 -0.0884139 0.0402716
0003e0 e6 54 15 bd 5f 15 aa bd ab 4a e0 3c b8 33 90 bd
       -0.03645792 -0.083048575 0.027379354 -0.070411146
0003f0 72 ec 99 3b d2 aa a8 3c 59 69 13 3e 07 73 59 bd
       0.004697376 0.020589266 0.14395656 -0.053088214
