model_street/models_street_all/LSTM_model_GREENPOINT AVENUE.pth (torch, 358510 bytes, 17 tensors)

input_projection.weight f4 [9, 9]
0	0x3eba65a6	0.36405677
1	0x3e2cbfb0	0.16869998
2	0xbdf9dc76	-0.12200253
3	0xbe07bbe4	-0.13255268
4	0x3ec83c9a	0.39108735
5	0xbe12acd1	-0.14323737
6	0x3ea100b5	0.31445852
7	0x3aa95346	0.0012918494
8	0xbe2faabb	-0.17154972
9	0x3deff0f1	0.11715878
10	0xbe1c9881	-0.1529255
11	0x3d939fbe	0.07208203
12	0xbe7871d3	-0.2426217
13	0xbea5e267	-0.32399294
14	0x3e096404	0.13417059
15	0x3e7cc943	0.2468615
16	0x3d93950b	0.07206162
17	0x3e2d4a76	0.16922936
18	0x3c1cfd03	0.009581807
19	0xbe5cf9f2	-0.21579722
20	0x3e638c7e	0.22221562
21	0x3e6670b0	0.22503924
22	0x3e32fae5	0.17478521
23	0xbe4d25a2	-0.20033887
24	0x3e537788	0.20651066
25	0x3c023c63	0.007948968
26	0x3deb30eb	0.1148394
27	0x3e3ae12c	0.18249959
28	0x3e04d272	0.12970904
29	0xbe32c693	-0.17458563
30	0xbe2eedc8	-0.17082894
31	0x3e815c05	0.25265518
32	0x3d6e1315	0.058123667
33	0xbe250c28	-0.16117918
34	0xbd0515fa	-0.03249166
35	0x3e4fda03	0.20298009
36	0x3ea97d54	0.3310343
37	0xbe249164	-0.16071087
38	0xbc976b1e	-0.018483695
39	0x3e615374	0.22004491
40	0x3d49068c	0.04907851
41	0x3d20be9a	0.03924427
42	0xbe55fb25	-0.20896585
43	0x3ecd61f9	0.4011381
44	0xbe95a466	-0.2922699
45	0x3e29976f	0.16561674
46	0x3cc6c157	0.024262113
47	0x3c16364c	0.009168219
48	0xbea05b49	-0.31319645
49	0x3e3e0958	0.18558252
50	0x3e26725e	0.16254565
51	0x3dd5738f	0.10422432
52	0x3e608d2c	0.21928853
53	0xbea842db	-0.32863507
54	0xbdcda511	-0.100412495
55	0x3dd5669b	0.10419961
56	0x3ea1a09e	0.31567854
57	0x3dfd3b91	0.12364877
58	0x3e2f984f	0.17147945
59	0xbe5573a7	-0.20844899
60	0xbbb1f065	-0.0054302686
61	0xbd881611	-0.06644834
62	0xbe8c8fee	-0.2745356
63	0xbe870647	-0.26371977
64	0xbe2d0fd0	-0.16900563
65	0x3d9cf299	0.07663459
66	0xbebc5d4c	-0.3678993
67	0xbede8a4f	-0.43464896
68	0xbe812f2a	-0.25231296
69	0x3e380b62	0.17973092
70	0x3e6b70e9	0.2299229
71	0xbc765b00	-0.0150363445
72	0xbd3d33ba	-0.04619191
73	0x3c434275	0.0119177
74	0xbdd7455b	-0.105112754
75	0x3ea3243d	0.31863585
76	0xbe776d2f	-0.24162744
77	0x3d9664cb	0.073434435
78	0x3e2cb717	0.16866718
79	0x3e3bc538	0.18336952
80	0x3e7c4b8b	0.24638192

input_projection.bias f4 [9]
0	0xbdc378d6	-0.09544532
1	0x3e809539	0.25113848
2	0xbd936635	-0.07197229
3	0x3db570f3	0.08859434
4	0xbd869292	-0.06570925
5	0xbe4cb853	-0.19992189
6	0x3e4b2c06	0.19841012
7	0xbdef8c55	-0.11696688
8	0x3e2f4be9	0.17118801

cells.0.x2h.weight f4 [256, 9]
0	0xbe8d17ae	-0.2755713
1	0xbe2033f4	-0.15644819
2	0x3a8b0321	0.0010605791
3	0xbc006867	-0.007837391
4	0x3e4f48d8	0.20242631
5	0xbddad2a4	-0.10684708
6	0xbe61c087	-0.220461
7	0xbe297e17	-0.16552006
8	0xbd8f763b	-0.070049725
9	0x3de153da	0.110023215
10	0xbd30e527	-0.043187287
11	0xbdbc5656	-0.09196155
12	0x3e090384	0.13380247
13	0xbddc37f6	-0.10752861
14	0x3d7db3d2	0.06193907
15	0xbe3f0d93	-0.18657522
16	0xbe8aa29a	-0.2707718
17	0xbe7807ff	-0.242218
18	0x3e8a173a	0.26970845
19	0x3e7ec915	0.24881394
20	0xbea8fe41	-0.3300648
21	0x3ea39cf6	0.3195569
22	0xbdf0e00b	-0.11761483
23	0xbe52c717	-0.20583759
24	0x3e840131	0.2578216
25	0xbd8b01ed	-0.06787477
26	0x3d124f42	0.035720117
27	0x3dc43b60	0.095816374
28	0x3ba9b80e	0.0051794117
29	0xbd31a14a	-0.043366708
30	0x3e3e414d	0.18579598
31	0xbd01a725	-0.031653542
32	0xbd3c81fe	-0.046022408
33	0x3e1af389	0.15131964
34	0x3cda7cca	0.026670832
35	0xbeaf71e8	-0.3426659
36	0xbc886a78	-0.01665233
37	0xbe91bd27	-0.28464624
38	0xbe60d1a5	-0.21954973
39	0x3e71ec13	0.23625211
40	0xbe4b5bea	-0.19859281
41	0x3e3fef96	0.18743739
42	0xbe956e54	-0.29185736
43	0xbe9850ed	-0.2974924
44	0x3de2a87b	0.11067291
45	0xbdcd99bc	-0.10039088
46	0xbe4c61c8	-0.19959176
47	0xbd39d344	-0.045367494
48	0xbe4e8019	-0.20166053
49	0x3d390434	0.045170024
50	0xbde8380c	-0.11338815
51	0xbec23534	-0.37931216
52	0xbe40d0ad	-0.18829603
53	0x3dea7509	0.11448104
54	0x3df8eff4	0.121551424
55	0xbe35e740	-0.17763996
56	0xbe7157bd	-0.23568626
57	0x3e9c1bdd	0.30490008
58	0xbdb1efe7	-0.08688336
59	0xbe4ef02d	-0.20208807
60	0x3ea75c21	0.32687476
61	0xbe0f0e42	-0.13970283
62	0x3e0089c7	0.12552558
63	0x3e999f6f	0.3000445
64	0xbe6aadd3	-0.22917871
65	0xbc950f0e	-0.018195655
66	0xbde09296	-0.10965459
67	0xbaa6fea0	-0.0012740679
68	0xbea302af	-0.31837985
69	0xbe26b81e	-0.16281173
70	0x3e0db4c1	0.13838483
71	0x3e8bfc96	0.27341145
72	0xbeb85c8c	-0.36008108
73	0xbd83d097	-0.0643627
74	0x3df3e9e1	0.11909843
75	0xbe9de009	-0.30834988
76	0x3e1fae57	0.15593849
77	0x3e8b1fc4	0.27172673
78	0x3df1ffae	0.11816345
79	0x3ceae9c9	0.02867593
80	0x3e525b97	0.20542751
81	0x3e0c0e79	0.13677396
82	0xbe0c58f4	-0.13705808
83	0x3e82ddcd	0.25559846
84	0xbcd402e1	-0.025880279
85	0xbe4bf9ce	-0.19919512
86	0xbd973323	-0.073828004
87	0xbece2d1e	-0.40268797
88	0xbe06eb8e	-0.13175794
89	0xbe113bd4	-0.14182979
90	0x3d59253f	0.053014036
91	0xbe37c0f0	-0.17944694
92	0xbe8c786f	-0.27435634
93	0x3eaa947d	0.33316413
94	0x3d073274	0.0330071
95	0xbe06ceb5	-0.1316479
96	0xbdd825c7	-0.105540805
97	0x3d20302c	0.03910844
98	0xbeb7512d	-0.3580412
99	0xbe3caf17	-0.18426166
100	0x3e3aa672	0.18227556
101	0xbe65d90d	-0.2244608
102	0xbe8389fb	-0.25691208
103	0x3e86b5c1	0.26310542
104	0xbe3a9a35	-0.18222888
105	0xbe3fbd0e	-0.18724462
106	0x3e14dbbc	0.14536947
107	0xbca0b3ec	-0.019617043
108	0x3e033af8	0.12815464
109	0xbe9b5a0f	-0.30342147
110	0x3e9bdf58	0.30443835
111	0xbe88a4ce	-0.26688236
112	0xbe7bf1a5	-0.24603899
113	0xbe29560d	-0.16536732
114	0xbe16bcaf	-0.14720415
115	0xbe6237cf	-0.22091602
116	0xbbd9cd38	-0.0066467784
117	0xbe89eafc	-0.2693709
118	0x3e023c40	0.12718296
119	0x3df41e75	0.11919872
120	0xbe2d5167	-0.16925584
121	0xbe480205	-0.1953202
122	0xbe1a51d4	-0.15070277
123	0x3e62e257	0.22156654
124	0xbce05604	-0.027384765
125	0x3db90a2a	0.09035142
126	0x3ea3c1f5	0.31983915
127	0xbd84e264	-0.06488493
128	0xbe915080	-0.2838173
129	0xbe7905ae	-0.24318573
130	0x3d5bd07b	0.05366562
131	0xbab604ee	-0.0013886967
132	0xbed1968e	-0.40935177
133	0x3e20bbdf	0.15696667
134	0x3dc53a94	0.096303135
135	0x3e20b8c9	0.1569549
136	0xbe8c6661	-0.2742186
137	0x3e11a9cb	0.14224927
138	0xbe169d54	-0.14708453
139	0xbe86eb83	-0.26351556
140	0xbeb72d0b	-0.35776553
141	0x3caf4e1a	0.021399546
142	0xbde859f7	-0.113452844
143	0xbda223cc	-0.07916984
144	0xbdbc8814	-0.09205642
145	0xbe468995	-0.19388421
146	0x3e3b3146	0.18280515
147	0x3e9adc99	0.30246428
148	0xbe2041ba	-0.15650073
149	0x3e00ae5d	0.12566514
150	0x3e81aaad	0.25325528
151	0x3d23bc9a	0.039974786
152	0x3c3cdd13	0.011527318
153	0x3d4bb34c	0.049731538
154	0xbc33c36c	-0.010971885
155	0x3d496021	0.04916394
156	0xbe83cee4	-0.25743783
157	0xbed05c80	-0.40695572
158	0xbe09ae35	-0.13445361
159	0xbde5fee9	-0.11230261
160	0x3eedbfbd	0.46435347
161	0xbe0f9bdb	-0.14024298
162	0xbdb080c0	-0.08618307
163	0x3e2d9faa	0.16955438
164	0x3cde1e97	0.027114196
165	0x3e85595a	0.26044732
166	0x3e86d95e	0.26337713
167	0xbdcaa676	-0.09895031
168	0x3dd6cc93	0.10488238
169	0xbe9be220	-0.30445957
170	0xbd44ae50	-0.0480178
171	0x3e5e6c92	0.21721104
172	0xbe3443a3	-0.17603926
173	0x3e474ece	0.19463655
174	0x3c0ef64b	0.008725713
175	0x3e511285	0.20417221
176	0x3dcfbd68	0.10143548
177	0x3e2ceb71	0.16886689
178	0xbe6e9b92	-0.23301533
179	0xbc00d073	-0.007862198
180	0x3c5ab337	0.013348392
181	0xbe26f7e7	-0.16305505
182	0xbe07d25a	-0.13263837
183	0x3ec9e7db	0.39434704
184	0xbd978f8c	-0.07400426
185	0xbeb3a884	-0.35089505
186	0x3ea41c5e	0.32052892
187	0xbea79f58	-0.32738757
188	0x3e876d6a	0.26450664
189	0x3e2d0c10	0.16899133
190	0x3e8d87db	0.27642712
191	0x3e6ca421	0.23109485
192	0x3e20057c	0.15627092
193	0xbe865c65	-0.26242366
194	0xbe2c3629	-0.16817535
195	0x3e0a222c	0.13489598
196	0x3ee6a10f	0.45044753
197	0x3e19b91c	0.1501202
198	0x3e521e1a	0.20519295
199	0xbe53f826	-0.2070013
200	0xbc996df5	-0.01872919
201	0x3dfaa431	0.12238348
202	0xbc126ad2	-0.008936601
203	0xbebb75ed	-0.36613408
204	0x3e8faf97	0.28063652
205	0xbd1c7718	-0.038199514
206	0xbdd431fd	-0.10361097
207	0xbd63ec4c	-0.055645272
208	0x3e21b705	0.15792473
209	0xbd81c002	-0.06335451
210	0x3e92a969	0.28644875
211	0xbd9b88d4	-0.07594457
212	0x3e532d24	0.20622689
213	0xbe2f609a	-0.17126694
214	0xbec7718f	-0.38953826
215	0x3d1d42cf	0.03839379
216	0xbe8f7302	-0.28017431
217	0x3d3b5a17	0.045740213
218	0xbdaea5ec	-0.08527741
219	0x3e89515d	0.26819888
220	0x3e6eb26b	0.23310249
221	0x3c9b272e	0.01893958
222	0x3d7ab7ab	0.061210316
223	0x3e925ad2	0.28584915
224	0xbddaa504	-0.106760055
225	0xbd05762f	-0.03258341
226	0x3e9dcb04	0.3081895
227	0x3e55eb50	0.20890546
228	0xbe84273d	-0.25811186
229	0x3e10a5bc	0.14125723
230	0xbe1fe1f0	-0.15613532
231	0xbe838a7d	-0.25691596
232	0x3b6d635f	0.003622256
233	0x3e81231b	0.25222096
234	0xbd04626f	-0.032320436
235	0xbe8a99b9	-0.27070406
236	0xbe822436	-0.25418252
237	0xbeb2008c	-0.34766042
238	0xbe0fa6a2	-0.14028409
239	0xbe926660	-0.2859373
240	0x3e20f185	0.15717132
241	0x3d4fa97e	0.05069875
242	0xbe70280d	-0.23452778
243	0x3dca6b8d	0.09883795
244	0x3e6b75d2	0.22994164
245	0x3e628deb	0.2212445
246	0x3e669c55	0.22520573
247	0x3e3b5ade	0.18296382
248	0x3e86b0c2	0.2630673
249	0x3eae8640	0.340868
250	0x3e3cf842	0.18454078
251	0xbd2afd05	-0.041745204
252	0xbe717d47	-0.23582946
253	0x3e8a88b0	0.2705741
254	0xbe125106	-0.1428872
255	0x3dbe7ca0	0.09301114

cells.0.x2h.bias f4 [256]
0	0x3e2d905f	0.16949604
1	0xbec06191	-0.37574437
2	0xbe4f5665	-0.202478
3	0x3e56227a	0.2091159
4	0xbe2c6bba	-0.1683797
5	0x3e818ba6	0.25301856
6	0x3e72e946	0.23721799
7	0x3e8f1f24	0.27953446
8	0x3d499d3e	0.049222223
9	0xbea15fe6	-0.31518477
10	0x3d13bc39	0.036068175
11	0xbd87f424	-0.06638363
12	0xbe8a0326	-0.26955527
13	0x3e1cdfca	0.15319744
14	0xbe3364aa	-0.17518869
15	0xbe12c358	-0.1433233
16	0x3e32b3dc	0.17451423
17	0xbe07c7a3	-0.13259749
18	0xbe9d9b01	-0.3078232
19	0xbd4f463c	-0.05060409
20	0xbea49c18	-0.3215034
21	0x3df41ae0	0.119191885
22	0xbebc73ec	-0.3680719
23	0xbe15cdcf	-0.14629291
24	0x3dd76b92	0.10518564
25	0xbe926d0f	-0.2859883
26	0xbe910a9e	-0.28328413
27	0xbd9a3195	-0.07528988
28	0x3e339377	0.17536722
29	0x3ddf0ef4	0.10891524
30	0xbdea802b	-0.11450227
31	0x3e480686	0.19533738
32	0x3e3f1100	0.18658829
33	0xbed428aa	-0.41437274
34	0xbda6e9d4	-0.08150068
35	0xbe8258bd	-0.25458327
36	0x3c1773c9	0.009243914
37	0xbe09ce02	-0.13457492
38	0xbd1f88df	-0.03894889
39	0x3dd1d621	0.1024592
40	0xbe6e23f8	-0.23255908
41	0xbd930d6d	-0.07180295
42	0x3e20b9dd	0.15695901
43	0x3e7b359f	0.24532174
44	0xbe86f359	-0.26357535
45	0x3dd0ed1d	0.10201476
46	0x3e99654e	0.29960102
47	0x3e77dc5d	0.24205156
48	0xbcd5d1dd	-0.026101047
49	0xbd55534a	-0.052081384
50	0xbe528e4b	-0.20562093
51	0xbba25cf3	-0.004954928
52	0x3e5f51be	0.21808526
53	0x3ce10b77	0.027471287
54	0x3eb2a77b	0.34893402
55	0xbc8648ec	-0.016392194
56	0xbe9d55c9	-0.3072951
57	0x3e1dfd07	0.15428554
58	0x3e728e57	0.23687111
59	0xbebfdfc9	-0.37475422
60	0xbe2fba47	-0.17160903
61	0x3e1d701b	0.15374796
62	0x3de0f83d	0.10984848
63	0xbe131544	-0.14363581
64	0xbe6fb292	-0.23407963
65	0xbdfa4c17	-0.12221544
66	0xbeac3d02	-0.33640295
67	0xbea34ab4	-0.3189293
68	0xbe952c27	-0.29135248
69	0x3e54072a	0.20705858
70	0xbc8fa24d	-0.017533446
71	0xbe7319a6	-0.23740253
72	0x3e1a07ce	0.1504204
73	0x3e8debc1	0.27718928
74	0x3e3dbb6c	0.18528527
75	0x3d07a6f1	0.033118192
76	0xbe955b58	-0.29171252
77	0x3e92c827	0.2866833
78	0x3e26c809	0.16287245
79	0xbe385573	-0.18001346
80	0xbe1bb3f6	-0.15205368
81	0x3e7e3d0f	0.2482798
82	0x3e2ea5d8	0.17055452
83	0xbe69e903	-0.22842793
84	0xbe006dfe	-0.12541959
85	0xbd543914	-0.051812246
86	0xbe2ca698	-0.16860425
87	0xbd484b85	-0.048900146
88	0xbe89393b	-0.26801476
89	0x3daa36a5	0.08311204
90	0x3e80de23	0.25169477
91	0x3e69ea60	0.22843313
92	0x3d22797c	0.039666638
93	0x3daf635a	0.08563872
94	0xbdc4226f	-0.0957688
95	0x3cd5ffd8	0.026122972
96	0x3d548e84	0.051893726
97	0xbeaaaabc	-0.33333385
98	0x3e7f4bf6	0.2493132
99	0xbe81be08	-0.25340295
100	0xbe48cc19	-0.19609107
101	0xbe1ade9d	-0.15123983
102	0x3de35dfc	0.111019105
103	0x3db21232	0.08694877
104	0x3d0bbb64	0.034114257
105	0x3dc0fe5d	0.09423516
106	0xbe8419f8	-0.25801063
107	0x3e34a5ab	0.17641322
108	0x3e2aee55	0.16692479
109	0xbe713cf7	-0.23558412
110	0xbdf6b635	-0.12046472
111	0x3daf91a6	0.08572702
112	0xbeaa8ed4	-0.33312094
113	0x3d8c8903	0.068620704
114	0x3dc6e20f	0.09711086
115	0xbc477116	-0.012172958
116	0xbe79be60	-0.24389029
117	0x3e50bf01	0.20385362
118	0xbe2263ec	-0.1585843
119	0x3e04faa8	0.12986243
120	0xbe46ce1f	-0.19414566
121	0x3c405791	0.011739627
122	0xbe93a62f	-0.28837726
123	0xbec73913	-0.38910732
124	0x3ddf0e55	0.108914055
125	0xbe8129a2	-0.25227076
126	0x3df9da90	0.121998906
127	0xbe0cb09e	-0.13739249
128	0xbdcf0615	-0.10108582
129	0xbe333416	-0.17500338
130	0x3e6b8a72	0.23002031
131	0xbe52efea	-0.20599332
132	0x3ce3fddd	0.027831012
133	0xbe7a6ae0	-0.24454832
134	0x3e6424c2	0.22279647
135	0x3d22cc45	0.039745588
136	0xbea9dd42	-0.3317662
137	0x3dc618c3	0.09672692
138	0x3daac598	0.08338469
139	0x3c122ccf	0.008921816
140	0xbe96872a	-0.29399997
141	0x3ddee006	0.10882573
142	0xbd702d30	-0.058636844
143	0x3da378cb	0.07982024
144	0xbaea27dd	-0.0017864663
145	0x3ea6faf3	0.32613334
146	0xbe129b9c	-0.14317173
147	0x3e3b1ae1	0.18271972
148	0xbdd3dae3	-0.10344484
149	0x3de29bd0	0.11064875
150	0xbd0220e4	-0.03176965
151	0xbc92afb8	-0.017906055
152	0xbe583922	-0.21115544
153	0x3e069fb4	0.1314686
154	0x3ca693b6	0.020334106
155	0x3d002731	0.031287376
156	0x3e46ba66	0.19407043
157	0x3e5aca8d	0.2136633
158	0x3eae470e	0.34038585
159	0x3e03f307	0.12885676
160	0x3dd42d30	0.10360181
161	0xbd9d08fe	-0.07667731
162	0x3e7c2f3a	0.2462739
163	0xbe59f322	-0.21284154
164	0x3db87eed	0.09008584
165	0xbe792263	-0.24329524
166	0x3dd290d1	0.10281528
167	0x3db76e6f	0.089566104
168	0x3ddcbfb9	0.10778756
169	0xbea0c775	-0.31402174
170	0xbdb3747d	-0.08762453
171	0x3e3bb132	0.18329313
172	0xbd384008	-0.04498294
173	0xbd2c1e08	-0.042020828
174	0xbe80d1f3	-0.2516018
175	0xbda8cd93	-0.08242335
176	0xbb86265f	-0.0040939297
177	0xbe5da2e6	-0.21644172
178	0x3dbcbf1d	0.092161395
179	0xbe6619ea	-0.22470823
180	0x3cee58ab	0.029095015
181	0x3e612af9	0.21989049
182	0x3d86837a	0.06568046
183	0x3ea997b9	0.33123568
184	0x3e403af4	0.18772489
185	0x3e4bff9e	0.19921729
186	0xbd8c2459	-0.0684287
187	0xbe14bfde	-0.14526317
188	0xbe1e6ba6	-0.15470752
189	0x3ea00e74	0.31261027
190	0xbe05a345	-0.13050564
191	0xbe287ecd	-0.1645462
192	0x3e300294	0.17188483
193	0xbde22fda	-0.11044283
194	0xba474858	-0.00076020276
195	0x3c126f31	0.008937643
196	0xbe5dab66	-0.21647415
197	0xbde49496	-0.11161153
198	0xbeb9d452	-0.362948
199	0xbe546729	-0.20742477
200	0xbe0c9f85	-0.13732727
201	0xbdb78678	-0.08961195
202	0xbd93feb5	-0.07226316
203	0xbe8a7c78	-0.27048087
204	0x3e3eaceb	0.1862065
205	0x3e2a33e6	0.1662136
206	0x3e23d85d	0.16000505
207	0xbb55ac28	-0.0032603834
208	0xbda85966	-0.082201764
209	0x3e9419fa	0.2892607
210	0xbde6697a	-0.11250587
211	0xbd848511	-0.06470693
212	0x3e019390	0.12653947
213	0xbe59323f	-0.21210574
214	0xbdff9c4d	-0.12480984
215	0xbec4b840	-0.38421822
216	0x3e534b5d	0.20634218
217	0x3e2abf73	0.16674595
218	0x3e976cf9	0.29575327
219	0xbd59bdef	-0.05315965
220	0xbe7fb8be	-0.24972817
221	0x3e93e06a	0.28882152
222	0x3e735b01	0.23765184
223	0xbddfc55a	-0.10926314
224	0xbd2a80d6	-0.041626774
225	0xbe6d0372	-0.23145846
226	0xbe8cf660	-0.2753172
227	0x3e46ec66	0.19426116
228	0x3df2ec64	0.11861494
229	0x3d5c0c17	0.053722467
230	0x3ddc97b2	0.10771121
231	0xbe1593bc	-0.14607137
232	0xbd734f0f	-0.059401568
233	0xbddb14f1	-0.10697354
234	0x3d4fa47c	0.050693974
235	0xbd6c04e5	-0.057621855
236	0xbe8e1d80	-0.27756882
237	0x3cc7e822	0.024402682
238	0x3db137aa	0.08653195
239	0x3e4ba4ca	0.19887081
240	0xbec17588	-0.37784982
241	0xbddcbe6e	-0.10778509
242	0x3e4c03d7	0.1992334
243	0x3e9e55b3	0.30924758
244	0x3e0fdbe2	0.14048722
245	0x3dda889b	0.10670587
246	0xbd83dc0c	-0.06438455
247	0x3e33e49f	0.17567681
248	0x3e31e613	0.17372923
249	0x3e613883	0.21994214
250	0x3d6b76ff	0.05748653
251	0x3e6d4942	0.23172477
252	0xbd0490b6	-0.03236457
253	0x3e953b30	0.2914672
254	0x3da0e4cc	0.078561395
255	0xbdfd59fa	-0.12370677

cells.0.h2h.weight f4 [256, 64]
0	0xbc43e0c1	-0.011955441
1	0x3be88b83	0.007096709
2	0xbd87e196	-0.06634824
3	0x3daec56c	0.08533749
4	0xbd72e840	-0.059303522
5	0xbadba438	-0.0016757315
6	0xbdf7e123	-0.12103488
7	0x3e140e03	0.1445847
8	0x3e20e32b	0.15711658
9	0xbb33d722	-0.0027441462
10	0x3cd43443	0.025903827
11	0xbd34b24d	-0.044115353
12	0x3e57a4a3	0.21058898
13	0x3e3912c8	0.1807357
14	0x3cfec016	0.031097453
15	0xbe329f35	-0.17443545
16	0xbe0583e3	-0.13038592
17	0xbd3be7a7	-0.045875218
18	0x3e3935e7	0.18086968
19	0x3d2e76e1	0.04259384
20	0x3e3be3e3	0.1834865
21	0x3dd72c10	0.10506451
22	0x3d98a47c	0.07453248
23	0x3dc51575	0.09623233
24	0x3c85a392	0.016313348
25	0x3c843010	0.0161362
26	0xbde37a81	-0.1110735
27	0x3bf4fa81	0.0074761515
28	0xbdc110ce	-0.09427033
29	0xbbe7a725	-0.0070694857
30	0x3df91d3e	0.12163781
31	0xbe17ca51	-0.14823271
32	0xbe3ec834	-0.18631059
33	0x3d7877d6	0.06066116
34	0x3df27845	0.11839346
35	0x3d7db237	0.061937537
36	0xbdc7e50a	-0.097604826
37	0x3cc35f5d	0.023849184
38	0xbd0332a9	-0.032030735
39	0x3e0f01c4	0.13965517
40	0xbcd211f4	-0.025643326
41	0xbd95ef9a	-0.07321091
42	0x3d1f0df5	0.03883167
43	0xbc578bcc	-0.013155889
44	0xbcf08fd3	-0.029365456
45	0x3e11a65f	0.14223622
46	0x3e4d36f0	0.20040488
47	0x3cab60e0	0.020920217
48	0xbbf2951c	-0.007403029
49	0x3d8febb2	0.07027377
50	0xbc9bfb2f	-0.019040672
51	0x3e036b5c	0.12833923
52	0xbd37b24c	-0.04484777
53	0x3e1f24a8	0.15541327
54	0x3dac6f7c	0.084197015
55	0x3ae7e4f3	0.0017692134
56	0xbda9fe51	-0.0830046
57	0x3dbd1e95	0.09234349
58	0xbdf391a9	-0.11893017
59	0x3e0edd0e	0.13951513
60	0x3c7eaaf6	0.01554369
61	0xbe13ab08	-0.14420712
62	0xbc23ec85	-0.010005121
63	0x3c68366c	0.014173131
64	0x3dadf2ce	0.08493577
65	0x3de2c6e4	0.110730916
66	0xbd9678e2	-0.07347275
67	0xbd376025	-0.044769425
68	0x3d7cde33	0.061735343
69	0x3da357a6	0.07975702
70	0xbdd2fe1f	-0.10302376
71	0xbb0a68e1	-0.0021119642
72	0x3e113922	0.1418195
73	0xbdf656d1	-0.12028278
74	0x3ca1e2a3	0.01976139
75	0xbd61cf20	-0.05512917
76	0xbd9a3b03	-0.07530787
77	0x3dc4b2bd	0.09604404
78	0xbdd3cd11	-0.10341848
79	0x3bbfa4e1	0.0058485125
80	0xbdc17c64	-0.09447554
81	0xbdcad858	-0.099045455
82	0x3df8fef5	0.12158004
83	0x3de3da9e	0.11125682
84	0xbc8f8ff1	-0.017524691
85	0xbd1fd799	-0.03902397
86	0x3d6804b0	0.056645095
87	0x3e127b98	0.1430496
88	0xbd0171a5	-0.03160252
89	0xbdbbabc2	-0.091636196
90	0x3c31716d	0.0108302655
91	0x3d17e347	0.037081983
92	0x3d0b772a	0.03404919
93	0x3bbbb66f	0.005728535
94	0x3dbb41a8	0.09143382
95	0x3d194ecc	0.037428662
96	0xbc2e2e82	-0.0106312055
97	0xbc6a2a10	-0.014292255
98	0x3e02e611	0.12783076
99	0xbd8cdae7	-0.0687769
100	0xbe27ef77	-0.16399942
101	0x3c7e861f	0.015534907
102	0xbd32ee71	-0.043684427
103	0xbb8ac880	-0.0042353272
104	0x3dd24bf8	0.10268396
105	0x3e01168d	0.12606259
106	0xbd7277c8	-0.059196264
107	0xbd03c779	-0.032172654
108	0xbca1d21c	-0.019753508
109	0x3d5173a3	0.05113567
110	0x3b786e0c	0.003790739
111	0xbcf93009	-0.030418413
112	0xbda98377	-0.08277028
113	0xbb8c22f1	-0.0042766263
114	0xbdfe6292	-0.124211445
115	0x3c89c8ff	0.016819475
116	0xbd86ff67	-0.06591683
117	0xbcbdc112	-0.023163352
118	0xbd086bdb	-0.033305984
119	0xbe173317	-0.14765583
120	0x3e302632	0.1720207
121	0x3db2c1e4	0.08728388
122	0x3cd8c0f1	0.02645919
123	0x3e1faf16	0.15594134
124	0xbd036e67	-0.03208771
125	0xbcf2019c	-0.029541783
126	0xbd8d622b	-0.0690349
127	0x3c8ff6c4	0.017573722
128	0x3cecdd2f	0.028914062
129	0x3e0868a4	0.13321167
130	0x3d98f006	0.07467656
131	0xbd0dcdf8	-0.034620255
132	0xbe1a6444	-0.15077311
133	0xbd924880	-0.071427345
134	0x3d993fee	0.07482897
135	0x3e269c4c	0.1627056
136	0x3db19163	0.086703084
137	0xbce8483a	-0.028354753
138	0xbc1abba0	-0.009444147
139	0x3d0a8a24	0.033823147
140	0x3e4db88e	0.20089933
141	0x3d94b2f0	0.07260692
142	0xbdc82d46	-0.0977426
143	0xbe07f704	-0.13277823
144	0xbe26935e	-0.16267154
145	0x3d0fc2fa	0.035098054
146	0x3d9ebcea	0.07750876
147	0xbc9f218c	-0.019425176
148	0xbd05f6c7	-0.03270605
149	0x3e00d0d2	0.12579659
150	0x3d334216	0.043764196
151	0x3d81aace	0.063314065
152	0x3d62d1fe	0.055376045
153	0xbe1706f8	-0.14748752
154	0xbe14cefd	-0.14532085
155	0x3dc857db	0.09782382
156	0x3da05ffd	0.07830808
157	0xbdcf8b66	-0.1013401
158	0x3dff191f	0.12455963
159	0xbc985f66	-0.018600177
160	0xbdd6f2f1	-0.10495556
161	0x3cf2c070	0.029632777
162	0x3dacbb94	0.08434215
163	0x3de92a93	0.113850735
164	0x3bac5845	0.005259546
165	0x3e14a8e3	0.1451755
166	0xbd4c9cc9	-0.04995421
167	0x3e24c221	0.1608968
168	0x3d935894	0.07194629
169	0xbe36955d	-0.17830415
170	0x3dd4605d	0.10369942
171	0xbe3018f1	-0.17197014
172	0xbd26e9ad	-0.040750194
173	0x3db6f09a	0.0893261
174	0x3e4b8901	0.19876482
175	0x3cca55a6	0.024699043
176	0x3cb0fcc9	0.021604912
177	0x3cf6ed89	0.030142562
178	0x3d9d9361	0.07694126
179	0x3de30897	0.11085623
180	0xbdaa3a4d	-0.08311901
181	0x3e26617a	0.16248122
182	0x3df4c018	0.119507015
183	0xbe09f2bc	-0.13471502
184	0x3d8dd8be	0.06926106
185	0xbcd7889b	-0.026310256
186	0x3c014e46	0.007892197
187	0x3d83e0bd	0.0643935
188	0x3e2307d3	0.15920953
189	0xbdb39782	-0.08769132
190	0x3ddcd8a4	0.107835084
191	0x3d56ee02	0.052473076
192	0x3c7132b9	0.014721566
193	0x3e2735b0	0.16329074
194	0xbd22a299	-0.039705846
195	0x3d6c9ac1	0.057764772
196	0xbc99a7e2	-0.01875681
197	0x3c625035	0.013813068
198	0x3c9fb4bb	0.019495359
199	0x3dd6133e	0.10452889
200	0xbd2347b0	-0.03986329
201	0xbc4c250e	-0.012460006
202	0xbce56249	-0.028000968
203	0x3df9b82e	0.121933326
204	0x3e87a03a	0.2648943
205	0x3e2b3229	0.16718353
206	0xbc5fca83	-0.013659122
207	0xbd6f4946	-0.05841949
208	0xbce9c025	-0.028534004
209	0xbd88b384	-0.06674865
210	0x3dacb7db	0.08433505
211	0x3da1889f	0.078873865
212	0xbb1c4c54	-0.0023849206
213	0x3e36b5b4	0.17842752
214	0xbd0dde95	-0.0346361
215	0x3dc61eb6	0.096738264
216	0x3dbccace	0.092183694
217	0xbe64e9c6	-0.22354802
218	0xbcf69825	-0.030101845
219	0x3e281701	0.16415025
220	0x3c33d3e1	0.010975809
221	0xbdddeb2a	-0.108358696
222	0x3d8fc39e	0.07019733
223	0xbdf92b11	-0.121664174
224	0x3d37f3b0	0.044910133
225	0x3dc280a3	0.09497192
226	0x3da57e68	0.08080751
227	0xbd3b9ded	-0.045804907
228	0xbe26356a	-0.16231313
229	0x3db815a0	0.089885
230	0x3e216a81	0.15763284
231	0xbd5b6d59	-0.05357108
232	0x3e1c4852	0.15261963
233	0x3d56de17	0.052457895
234	0x3d743df1	0.059629384
235	0xbe7282c4	-0.23682696
236	0x3dfe3d59	0.12414045
237	0x3d2ad0ca	0.041703023
238	0x3d55da8d	0.05221038
239	0x3d7928a6	0.06082978
240	0x3c1342f4	0.008988131
241	0x3ba433ff	0.005011081
242	0xbde96c2d	-0.11397586
243	0x3e68aae3	0.22721438
244	0xbd97f3b1	-0.07419527
245	0xbd3c2367	-0.0459322
246	0x3e392c87	0.18083392
247	0xbe63a570	-0.22231078
248	0xbda79bff	-0.08184051
249	0x3cb3a8e5	0.021931121
250	0x3a76068b	0.000938513
251	0x3dffca7f	0.12489795
252	0x3d3f3d1e	0.046689145
253	0xbd70366b	-0.058645647
254	0x3de34726	0.11097555
255	0x3d7be014	0.061492994

cells.0.h2h.bias f4 [256]
0	0x3d83ab25	0.064291276
1	0xbd8959c5	-0.06706575
2	0x3d47360c	0.048635527
3	0x3ca1d33c	0.019754045
4	0xbe2c7d22	-0.1684461
5	0xbbdbec67	-0.006711531
6	0xbd5faacd	-0.054606248
7	0x3d37066a	0.04468385
8	0xbdd1ffe3	-0.10253885
9	0xbe2947b3	-0.16531257
10	0x3c5804ad	0.013184709
11	0xbe475781	-0.19466974
12	0x3d89cf7f	0.0672903
13	0x3d8c73b8	0.06858009
14	0x3c59b90f	0.01328875
15	0x3d8c176a	0.068404034
16	0x3c685bf7	0.014182082
17	0x3e145100	0.14484024
18	0xbc7acf39	-0.015308195
19	0xbc097e21	-0.008391888
20	0xbd15218b	-0.036408942
21	0x3d9fd186	0.07803635
22	0x3c949c2d	0.018140877
23	0xbe36bdca	-0.17845836
24	0xbdaed994	-0.085375935
25	0x3e0e708a	0.13910118
26	0x3dca0317	0.098638706
27	0xbdb6a219	-0.089176364
28	0xbcebebf7	-0.02879904
29	0x3d0d8277	0.03454825
30	0xbdd50417	-0.10401171
31	0xbe018f26	-0.12652263
32	0xbe5f8674	-0.21828634
33	0xbddfd050	-0.10928404
34	0xbe174700	-0.14773178
35	0xbc2e739f	-0.010647683
36	0x3de2a8b5	0.110673346
37	0xbe0fad89	-0.14031042
38	0xbe11b557	-0.14229332
39	0xbd854271	-0.06506813
40	0x3cefd9db	0.029278686
41	0xbe481b8b	-0.19541757
42	0xbc978062	-0.018493835
43	0x3cf00fec	0.029304467
44	0xbe07a0d8	-0.13244951
45	0xbc73fd58	-0.014891945
46	0xbda40626	-0.08008985
47	0xbdc0f3da	-0.09421511
48	0x3d2cd3d3	0.0421942
49	0x3cc65ef7	0.024215205
50	0xbe18b0c1	-0.14911176
51	0xbcb42047	-0.021988047
52	0xbdcf488f	-0.10121261
53	0xbd3c59de	-0.04598414
54	0x3e21fbcc	0.15818709
55	0x3d516d8c	0.051129863
56	0xbe229e2f	-0.15880655
57	0xbe339e2a	-0.17540804
58	0xbdb6d99b	-0.08928224
59	0xbe339a58	-0.17539346
60	0x3cbce185	0.023056755
61	0xbd727073	-0.05918927
62	0xbe64acaa	-0.22331491
63	0xbe26dcbf	-0.16295145
64	0xbb75a901	-0.0037484767
65	0x3d370a8f	0.044687804
66	0x3d93672a	0.07197411
67	0x3ca564ba	0.020189632
68	0xbd5d7170	-0.05406326
69	0xbe170348	-0.14747345
70	0xbd5e49c5	-0.05426957
71	0xbbc07f7c	-0.0058745723
72	0x3d07584a	0.033043183
73	0xbdee59d6	-0.116382286
74	0x3d635723	0.055503022
75	0x3d0fb89d	0.03508817
76	0xbdbeb7bd	-0.09312389
77	0xbdcd67ff	-0.10029601
78	0xbdcb3a28	-0.09923202
79	0x3d069f7f	0.03286695
80	0xbc3bc8dd	-0.011461464
81	0xbc30b720	-0.010785848
82	0xbd354d0e	-0.04426294
83	0x3cc12f9f	0.023582278
84	0xbdcbffc7	-0.09960895
85	0xbdc95554	-0.09830728
86	0xbcce5384	-0.025186308
87	0xbd7099f3	-0.058740567
88	0xbdd8fb02	-0.10594751
89	0xbdcb5c9d	-0.09929774
90	0xbd00c68e	-0.031439357
91	0xbd244dbe	-0.040113203
92	0xbdc035e4	-0.09385279
93	0xbdb0ab6e	-0.086264476
94	0xbe05d852	-0.13070801
95	0xbdad231a	-0.08453961
96	0xbd22e768	-0.039771467
97	0xbd806c5e	-0.062706694
98	0xbd9d997a	-0.07695289
99	0xbe0c4808	-0.13699353
100	0xbdb329e1	-0.08748222
101	0xbe5010ca	-0.20318905
102	0xbdb14651	-0.0865599
103	0xbd71e25d	-0.059053767
104	0xbe4ec03d	-0.2019052
105	0xbe39846b	-0.1811692
106	0xbc858f73	-0.016303753
107	0x3d81f532	0.063455954
108	0xbe54410d	-0.2072794
109	0xbd860cde	-0.06545423
110	0x3d2afc93	0.04174478
111	0xbe16fb4a	-0.14744297
112	0xbda9f78e	-0.082991704
113	0xbe46e168	-0.19421923
114	0xbd8087b0	-0.0627588
115	0xba77e273	-0.0009456046
116	0xbcbb406a	-0.022857863
117	0x3d67cde6	0.056592844
118	0x3cc4cb3e	0.024022695
119	0xbde9cf78	-0.11416525
120	0xbd749ebd	-0.059721697
121	0xbe23bddb	-0.15990393
122	0xbe1b1825	-0.15145929
123	0x3c8d599c	0.017254643
124	0x3d7b92a0	0.06141913
125	0x3d525216	0.051347815
126	0xbde90b01	-0.11379052
127	0xbdb44bcd	-0.0880352
128	0x3d931a61	0.07182766
129	0x3cd65f76	0.026168566
130	0xbdcb35d5	-0.09922377
131	0xbca56394	-0.020189084
132	0xbe2420bc	-0.16028112
133	0xbd3e0d6d	-0.046399523
134	0xbda4fcc4	-0.08056024
135	0x3e2f900e	0.17144796
136	0x3dcd2300	0.10016441
137	0xbd384e96	-0.04499682
138	0xbe4305f0	-0.19045234
139	0x3db6e708	0.089307845
140	0xbc69c609	-0.014268407
141	0xbd83e914	-0.064409405
142	0xbe1945cf	-0.14968036
143	0xbdc75666	-0.09733276
144	0xbc44eadb	-0.0120188845
145	0x3aa423fd	0.0012522932
146	0x3bdc60d3	0.0067254095
147	0x3e1364f0	0.14393973
148	0x3dfd91df	0.12381338
149	0xbe48ecd4	-0.19621593
150	0xbc8e1cc8	-0.017347708
151	0x3d63a149	0.055573735
152	0x3bab915f	0.0052358354
153	0x3e4829ec	0.19547242
154	0x3e577da3	0.2104402
155	0xbc96296a	-0.018330295
156	0xbe234686	-0.15944871
157	0xbdcadf85	-0.09905914
158	0xbd97a89d	-0.07405207
159	0xbd695613	-0.056966852
160	0xbe3b814a	-0.18311039
161	0x3cbcb995	0.023037711
162	0x3caee3bf	0.021348832
163	0x3d7e4251	0.062074963
164	0x3d6afe8b	0.057371657
165	0x3d0337bc	0.032035574
166	0x3d980378	0.074225366
167	0xbb062001	-0.0020465853
168	0x3dcf8211	0.1013223
169	0xbd566041	-0.05233789
170	0x3cd7d9d6	0.02634899
171	0x3df5cd73	0.12002077
172	0x3df69b09	0.12041289
173	0xbc74c861	-0.014940352
174	0xbc129bbf	-0.008948266
175	0xbd371894	-0.044701174
176	0x3ddfdc3f	0.109306805
177	0xbdc90aec	-0.09816536
178	0xbae0dca4	-0.00171556
179	0xbdec823e	-0.11548279
180	0x3dbe2f6a	0.09286387
181	0xbc2baf74	-0.010478843
182	0x3d9a383c	0.07530257
183	0x3c992e5f	0.01869887
184	0xbd4ead96	-0.050458513
185	0x3d6be215	0.057588656
186	0xbdc3c0ee	-0.09558283
187	0x3db2dc40	0.087334156
188	0xbce82d16	-0.028341811
189	0xbd774744	-0.0603707
190	0x3d9501e7	0.072757535
191	0x3e101f8c	0.14074534
192	0x3c8b982f	0.01704034
193	0xbe2a69ca	-0.16641918
194	0xbc32603e	-0.010887204
195	0xbd1592fb	-0.036517125
196	0x3d0e695a	0.03476844
197	0xbca1d50f	-0.019754915
198	0xbe3f745b	-0.1869673
199	0xbc8e37c6	-0.01736058
200	0x3deb5ec6	0.11492686
201	0x3cc090f4	0.023506619
202	0xbc85d003	-0.01633454
203	0x3c8bd7d7	0.017070694
204	0xbd911545	-0.07084135
205	0x3b9643c2	0.004585714
206	0x3d826412	0.06366743
207	0xbe34a9d7	-0.17642914
208	0xbe2505cf	-0.16115497
209	0x3e17fa48	0.14841568
210	0xbdc2eb93	-0.095175885
211	0xbd1fbe14	-0.038999632
212	0x3bbc1ffe	0.0057411185
213	0xbe0f3db3	-0.1398838
214	0xbe02d996	-0.12778315
215	0xbe12af9c	-0.14324802
216	0xbd1f93ba	-0.038959242
217	0xbdae47ee	-0.08509813
218	0xbceacfbd	-0.02866351
219	0x3ce71f7b	0.028213253
220	0xbe43827d	-0.19092746
221	0x3d826723	0.06367328
222	0xbdd3e94a	-0.10347231
223	0x3d41a714	0.04727848
224	0xbe17b940	-0.14816761
225	0x3cae6ae9	0.021291213
226	0xbe2ce651	-0.16884734
227	0xbe2b5810	-0.16732812
228	0xbd066b24	-0.03281702
229	0xbd2a5fbc	-0.041595206
230	0xbe5f1893	-0.21786718
231	0x3d106acb	0.035258096
232	0xbe080eee	-0.13286945
233	0x3ba68037	0.0050812024
234	0x3a6f6ea4	0.0009133613
235	0xbcfec865	-0.031101415
236	0x3d163dfd	0.03668021
237	0xbda43a86	-0.08018975
238	0xbda1dd42	-0.0790353
239	0xbdbd7901	-0.09251595
240	0xbd7d3a0d	-0.06182294
241	0xbe05e692	-0.13076237
242	0xbccea741	-0.025226237
243	0x3cfa15da	0.030527998
244	0x3d729876	0.05922743
245	0xbd84f95a	-0.064928725
246	0x3d053889	0.03252462
247	0xbdab5ca5	-0.0836728
248	0xbda1f954	-0.07908884
249	0xbcc636ba	-0.024196018
250	0xbe32756d	-0.17427607
251	0xbe22816d	-0.15869685
252	0xbc63a61a	-0.013894582
253	0xbd5d39ce	-0.054010205
254	0xbe016251	-0.12635161
255	0x3c379f34	0.011207391

cells.1.x2h.weight f4 [256, 64]
0	0xbd8189a3	-0.0632508
1	0xbcdb99c9	-0.026806729
2	0xbd93819a	-0.07202454
3	0xbcf0f211	-0.029412301
4	0x3d08d4ca	0.033406056
5	0x3e1b4bce	0.15165636
6	0xbe2f7274	-0.17133504
7	0xbcb3555d	-0.02189129
8	0xbd1c720f	-0.038194712
9	0xbdd1646a	-0.102242306
10	0x3c947b81	0.018125298
11	0x3da119ab	0.07866224
12	0x3dd66e1c	0.104702204
13	0x3e1fe936	0.15616307
14	0xbdc497ef	-0.095992915
15	0xbe09b73d	-0.13448806
16	0x3d999e83	0.07500937
17	0x3c70b220	0.014690906
18	0x3e1f4c7f	0.15556525
19	0xbd5aa180	-0.053376675
20	0xbcc5ffb3	-0.024169778
21	0x3dc38c14	0.09548202
22	0xbe02d7f4	-0.12777692
23	0x3dc3b25d	0.095555045
24	0xbcf8f96d	-0.030392373
25	0x3c4afe36	0.01238971
26	0xbe07835a	-0.132337
27	0x3c46618f	0.012108221
28	0xbb59d679	-0.0033239408
29	0xbde8e388	-0.11371523
30	0xbb1d546b	-0.0024006616
31	0x3da8f731	0.08250273
32	0xbd2d582a	-0.042320408
33	0x3da13f32	0.07873382
34	0x3c802821	0.015644135
35	0xbdaf1c52	-0.085503235
36	0xbe02c3a2	-0.1276994
37	0x3c868056	0.016418617
38	0x3d96ae3f	0.073574536
39	0x3e0dd5c8	0.13851082
40	0xbd87fa79	-0.06639571
41	0x3d891748	0.06693894
42	0x3d41c4ae	0.04730671
43	0xbd02321d	-0.031786073
44	0xbc49328f	-0.0122801205
45	0xbd014601	-0.0315609
46	0xbc580bd8	-0.0131864175
47	0x3d321c30	0.043483913
48	0x3e18b912	0.14914349
49	0x3d89586f	0.067063205
50	0x3d927ab9	0.07152314
51	0x3ddc5c54	0.10759798
52	0x3c639940	0.013891518
53	0x3c8734c6	0.016504657
54	0xbc6356aa	-0.013875643
55	0xbe1cb001	-0.15301515
56	0xbd28d841	-0.04122186
57	0x3cb3bc10	0.021940261
58	0xbdce8045	-0.10083059
59	0x3dd29d99	0.102839656
60	0x3de6a1a4	0.11261299
61	0x3d412059	0.04714999
62	0xbbb82780	-0.005619943
63	0xbd6efb47	-0.058345105
64	0xbd46b409	-0.04851154
65	0x3e2f58e4	0.17123753
66	0xbd6c330c	-0.05766587
67	0x3dc841d0	0.09778178
68	0xbe1423e3	-0.14466815
69	0x3d1bf4f3	0.0380754
70	0xbdab663c	-0.08369109
71	0x3d2cf7a7	0.042228367
72	0x3cf4511a	0.029823828
73	0xbbdd97f9	-0.0067625013
74	0xbbf59756	-0.0074948473
75	0xbd92a85e	-0.0716102
76	0x3dea9528	0.114542305
77	0x3da41e6e	0.080136165
78	0xbe22d901	-0.15903093
79	0xbe21a804	-0.15786749
80	0xbd6cadc3	-0.0577829
81	0xbe256336	-0.16151127
82	0xbd554f7d	-0.05207776
83	0xba1902e6	-0.0005836919
84	0xbd4872e5	-0.048937697
85	0x3df1bd45	0.118036784
86	0x3e087127	0.13324414
87	0x3cbf9b13	0.023389375
88	0x3e0bd75a	0.13656369
89	0xbdb41a92	-0.087941304
90	0xbdcf5ca7	-0.10125094
91	0xbd88c915	-0.06678978
92	0xbdf3f61a	-0.119121745
93	0xbde0d3bb	-0.109778844
94	0x3db579b7	0.08861106
95	0xbd9b5606	-0.07584767
96	0xbd9d0e6b	-0.07668766
97	0xbd5fa7de	-0.05460345
98	0x3e21d306	0.15803155
99	0x3d9708a7	0.07374697
100	0xbe39880a	-0.18118301
101	0x3de344d4	0.11097112
102	0x3d08f9d3	0.033441376
103	0x3dd991fb	0.10623547
104	0x3dfeb0db	0.12436076
105	0xbe28964b	-0.16463582
106	0xbbb634ee	-0.005560509
107	0xbe4a91d1	-0.19782187
108	0xbc434c6c	-0.011920076
109	0x3dd4526c	0.10367283
110	0x3d99e84e	0.07515012
111	0xbd785a80	-0.060633183
112	0x3cf1d45b	0.029520204
113	0x3c5fc00b	0.013656626
114	0xbe0e3537	-0.13887487
115	0xbcdafb4f	-0.026731161
116	0xbe2f05d4	-0.17092067
117	0xbd729e3d	-0.05923294
118	0x3d3aa068	0.04556313
119	0x3c3076d2	0.0107705165
120	0xbdf1262c	-0.11774859
121	0x3da7c08e	0.08191024
122	0xbdf24229	-0.11829025
123	0xbc628b9f	-0.013827234
124	0x3d93d6bb	0.07218691
125	0xbd56c325	-0.052432198
126	0x3df96c59	0.12178869
127	0x3ce4d52e	0.027933683
128	0xbdf1071c	-0.11768934
129	0x3d967bcc	0.07347831
130	0x3dbd541d	0.09244559
131	0x3d675749	0.056479726
132	0x3d8897e3	0.06669595
133	0xbdd118b1	-0.10209788
134	0x3dfe5fb0	0.12420595
135	0xbc282478	-0.010262601
136	0xbc40f29e	-0.011776594
137	0x3d9008c4	0.07032922
138	0xbdb352ae	-0.08756004
139	0x3d56cfcb	0.05244426
140	0x3e3a852c	0.18214864
141	0x3d69a458	0.057041496
142	0x3c2aed5e	0.010432569
143	0x3e0e8f14	0.13921767
144	0xbd1bd245	-0.038042326
145	0x3c7a1ceb	0.015265684
146	0x3d3ee5d3	0.046605896
147	0xbdb1a9c4	-0.08674958
148	0x3d9c705a	0.07638617
149	0x3d6a3f16	0.05718907
150	0x3cb10f53	0.021613752
151	0xbe05af10	-0.13055062
152	0x3d0421a4	0.032258645
153	0xbdd30475	-0.103035845
154	0x3d7b81a5	0.061402936
155	0xbdf28b58	-0.11842984
156	0x3e15f06e	0.14642498
157	0x3daa8e8b	0.08327969
158	0xbd6493a8	-0.05580488
159	0xbd52952b	-0.05141179
160	0xbdd4dc82	-0.10393621
161	0xbc72d509	-0.014821299
162	0xbce12234	-0.02748213
163	0x3d2b2fbc	0.04179357
164	0x3c2963b2	0.010338711
165	0x3d823862	0.063584104
166	0xbdfb9252	-0.12283768
167	0xbd3324e6	-0.04373636
168	0xbc1f7240	-0.009731829
169	0x3d20dd9e	0.03927385
170	0x3cbbd65c	0.022929363
171	0x3dedeb7d	0.116171815
172	0xbd90128e	-0.07034789
173	0x3d01fcb2	0.03173513
174	0xbd971eb9	-0.07378907
175	0x3d4ca886	0.049965404
176	0xbddae643	-0.1068845
177	0x3e02d238	0.12775505
178	0x3d931359	0.07181425
179	0x3d346e7a	0.04405067
180	0xbdd6eaed	-0.10494027
181	0xbd8e041a	-0.06934376
182	0x3c0b2cce	0.008494569
183	0xbdc0ab2f	-0.09407651
184	0x3dcbb6e8	0.09946996
185	0x3b85970d	0.0040768445
186	0x3ddb6c24	0.107139856
187	0x3d1c37e3	0.038139235
188	0x3dc73c61	0.09728313
189	0xbdc62669	-0.09675295
190	0xbdf4ea8c	-0.11958799
191	0x3c7bd255	0.015369971
192	0xbc726827	-0.01479534
193	0xbd91bdf6	-0.0711631
194	0x3e18ff7a	0.14941207
195	0x3ce2f93d	0.027706737
196	0x3df151ef	0.11783206
197	0x3b05dc9a	0.0020425678
198	0x3d84cc70	0.06484306
199	0xbdea5617	-0.114422016
200	0x3da3c731	0.07996977
201	0x3c9f8460	0.019472301
202	0xbd45682b	-0.048195045
203	0x3d09cc6a	0.03364221
204	0x39eeb101	0.00045526776
205	0x3d65f828	0.056144863
206	0x3d198dcb	0.03748874
207	0x3dc8591a	0.0978262
208	0x3df2b39c	0.11850664
209	0x3cf65b50	0.030072838
210	0x3d350ccf	0.04420167
211	0xbda04e76	-0.07827465
212	0xbc088361	-0.008332104
213	0x3d6b9896	0.057518564
214	0xbdca9cd6	-0.09893195
215	0xbe0d171c	-0.13778347
216	0x3c6bcb7f	0.014391779
217	0xbcbae2ef	-0.022813288
218	0xbdd18fbe	-0.10232495
219	0xbc846285	-0.016160259
220	0xbc5a7a22	-0.013334783
221	0xbdb0d1be	-0.08633755
222	0xbd17c31e	-0.037051313
223	0xbd9d9681	-0.07694722
224	0x3df93a9a	0.121693805
225	0x3c8c1868	0.017101482
226	0x3c9dcf89	0.019264
227	0x3d5385bf	0.051641222
228	0xbc9e31cf	-0.01931086
229	0xbe01d54e	-0.12679026
230	0x3d0ad778	0.033896893
231	0x3d9153aa	0.07096036
232	0xbd0274e6	-0.031849764
233	0x3d118095	0.035523016
234	0x3d451b25	0.04812159
235	0xbdf5d1fd	-0.12002943
236	0x3da0af84	0.07845977
237	0xbdcfb6c8	-0.10142285
238	0xbdc5454b	-0.09632357
239	0x3c62a794	0.013833899
240	0x3cad9bf2	0.021192525
241	0x3e158bda	0.1460413
242	0x3e193e8a	0.14965263
243	0x3e258aea	0.16166273
244	0xbd672a81	-0.05643702
245	0xbe02025c	-0.12696213
246	0xbc9be82a	-0.019031603
247	0xbe212798	-0.1573776
248	0x3da22aa1	0.07918287
249	0x3d8ef530	0.069803596
250	0xbd4e0fbf	-0.050307985
251	0x3d39b9d3	0.04534323
252	0xbd4e8510	-0.050419867
253	0x3a1edb8c	0.0006059937
254	0xbc4a729c	-0.012356427
255	0xbc44e29d	-0.012016919

cells.1.x2h.bias f4 [256]
0	0xbd4af632	-0.049551196
1	0x3d892f49	0.06698472
2	0x3d70a5c8	0.05875185
3	0xbd33ee5b	-0.043928485
4	0xbd3f86b1	-0.04675931
5	0xbd993d4f	-0.07482397
6	0xbdb3ef24	-0.08785847
7	0xbd130d31	-0.035901252
8	0xbd0cced5	-0.034376938
9	0x3d79af30	0.060958087
10	0xbdc1c833	-0.09462013
11	0xbd0f6fff	-0.035018917
12	0x3dabd172	0.08389558
13	0x3d499b1d	0.049220193
14	0xbdeb23a6	-0.11481409
15	0xbce1c304	-0.027558811
16	0xbd3d416f	-0.04620498
17	0x3ce7b354	0.028283753
18	0x3d091ad4	0.03347285
19	0xbdd53872	-0.10411157
20	0xbdb8061f	-0.089855425
21	0xbd63a132	-0.05557365
22	0xbddef722	-0.108869806
23	0x3dc2de6c	0.0951508
24	0x3d4a54be	0.049397223
25	0x3db8bd67	0.09020501
26	0xbdd1a58e	-0.10236655
27	0xbde5756c	-0.11204037
28	0xbe36bda1	-0.17845775
29	0x3d8584a8	0.06519443
30	0xbdcd9938	-0.1003899
31	0x3caa3308	0.020776287
32	0x3d5f9540	0.054585695
33	0xbddfbc12	-0.109245434
34	0xbdbcaf63	-0.0921314
35	0xbe134e45	-0.14385326
36	0x3c1c009f	0.009521632
37	0x3d37cbab	0.044871967
38	0xbe0443e2	-0.1291652
39	0xbccff5a2	-0.025385682
40	0x3d110eb0	0.035414398
41	0x3ddb3ebd	0.10705326
42	0xbcf4c8e2	-0.029880945
43	0xbce7c698	-0.028292939
44	0xbe1de144	-0.15417963
45	0xbdebc1d0	-0.11511576
46	0xbd8ad727	-0.06779318
47	0x3d26a5c2	0.040685423
48	0xbd121a8c	-0.03566985
49	0xbdc1e84c	-0.09468135
50	0x3b80b8fd	0.0039283023
51	0xbdffc49e	-0.124886736
52	0xbd89ba5b	-0.067249976
53	0xbd9bfc70	-0.07616508
54	0x3cd42765	0.025897691
55	0xbe398d8e	-0.18120405
56	0xbe213779	-0.15743817
57	0x3d099f6b	0.0335993
58	0x3caa7c43	0.020811206
59	0xbd46f22a	-0.04857079
60	0xbe3b9ab8	-0.1832074
61	0xbcb7f0b0	-0.022453636
62	0xbce7d1da	-0.028298307
63	0xbbb3dfe0	-0.0054893345
64	0x3d85e6a8	0.06538135
65	0xbd91ddd4	-0.071223885
66	0x3dc86b86	0.097861335
67	0x3da61dd3	0.08111157
68	0x3d3f8d9c	0.04676591
69	0xbdb22578	-0.08698553
70	0x3d6ab6b8	0.05730316
71	0xbd7a7c8d	-0.061153937
72	0x3db13373	0.08652391
73	0xbe0a88ef	-0.13528799
74	0xbe1a565b	-0.15072004
75	0xbc48e1db	-0.012260879
76	0xbdeede11	-0.116634496
77	0x3d8c312e	0.06845318
78	0xbd019797	-0.031638708
79	0xbc0e0435	-0.008667995
80	0xbc9e63c0	-0.019334674
81	0xbe044d85	-0.12920196
82	0x3d449590	0.047994196
83	0xbd082b41	-0.033244375
84	0xbdf34dd2	-0.118800774
85	0xbe26b6ca	-0.16280666
86	0xbdca4afe	-0.09877585
87	0x3cfb81ce	0.030701544
88	0xbda78931	-0.08180464
89	0x3c785155	0.01515611
90	0xbdf5aef0	-0.11996257
91	0x3cb69f3e	0.02229273
92	0x3d431ba2	0.047633775
93	0xbdcb6d3e	-0.09932946
94	0x3c63057c	0.013856288
95	0x3d84dc4d	0.064873315
96	0x3d4aa1ee	0.049470834
97	0xbe2b5a70	-0.16733718
98	0x3e11a1ea	0.14221922
99	0xbdaa6ee3	-0.08321931
100	0x3d6d174c	0.057883546
101	0xbe1095a9	-0.14119591
102	0x3b99f4aa	0.0046983557
103	0xbae699e8	-0.0017593475
104	0xbdcfab32	-0.10140075
105	0xbd8e5b53	-0.069510125
106	0x3dee1255	0.1162459
107	0x3cd92757	0.026508017
108	0x3d928806	0.07154851
109	0xbcc00b10	-0.023442775
110	0xbe50837b	-0.20362656
111	0x3c387ad7	0.011259756
112	0x3d3773d2	0.04478819
113	0x3c1d4c02	0.009600641
114	0xbdd9ec6c	-0.10640797
115	0xbe64ee0a	-0.2235643
116	0xbc42c430	-0.011887595
117	0xbda8d7f9	-0.082443185
118	0x3d0273a0	0.03184855
119	0xbe66e529	-0.22548355
120	0xbdf36e10	-0.11886227
121	0x3cb97db4	0.022642948
122	0x3c858a29	0.016301231
123	0x3cf03cda	0.029325891
124	0xbe2bb7e5	-0.16769369
125	0xbda9a98e	-0.08284293
126	0x3d877655	0.06614367
127	0xbe058462	-0.13038781
128	0xbd9e5d82	-0.07732679
129	0x3d207b47	0.039180066
130	0xbd765c27	-0.060146477
131	0xbd536090	-0.05160576
132	0xbd9537b3	-0.072860144
133	0xbd89fecb	-0.06738051
134	0xbd6fcd34	-0.058545306
135	0xbd8a4fdb	-0.067535125
136	0xbd61c83f	-0.05512261
137	0xbc7f326a	-0.0155759845
138	0xbd14a6c9	-0.03629187
139	0x3d829696	0.06376378
140	0x3da51b15	0.08061806
141	0xbe14e1a1	-0.14539196
142	0x3c0e62b2	0.008690523
143	0x3d3729ef	0.044717725
144	0xbc07d8ea	-0.008291462
145	0x3c480d46	0.012210196
146	0xbca6c28a	-0.020356435
147	0xbd8d0516	-0.06885736
148	0xbc844660	-0.016146839
149	0xbcebd617	-0.02878861
150	0x3d34b74b	0.044120114
151	0xbcb6cf01	-0.022315504
152	0x3cf59d5c	0.029982261
153	0xbca347a1	-0.019931616
154	0xbc88940e	-0.01667216
155	0xbd66a662	-0.05631102
156	0x3ce23ff6	0.02761839
157	0x3de6b1e2	0.11264397
158	0x3e184ab4	0.14872247
159	0xbd9c8efb	-0.07644459
160	0x3c3f7039	0.011684471
161	0x3d21b649	0.03948048
162	0xbd9d2f7b	-0.07675072
163	0xbde97845	-0.11399893
164	0xbd9b8408	-0.07593542
165	0x3e087204	0.13324744
166	0x3d014e73	0.031568956
167	0xbcdb9b8d	-0.02680757
168	0x3a8452fa	0.001009553
169	0x3cdb34f4	0.026758648
170	0x3d2ebaec	0.04265873
171	0xbc270a7d	-0.010195372
172	0xbd92e1e6	-0.07171993
173	0xbc730deb	-0.014834861
174	0xbd2dbe34	-0.04241772
175	0xbddc058f	-0.10743248
176	0xbc31fbd1	-0.01086326
177	0x3dc231e9	0.09482176
178	0x3dd7c28f	0.10535156
179	0xbdb4e2fe	-0.08832358
180	0x3d8be459	0.06830663
181	0x3c99c3d6	0.01877014
182	0xbd73a23e	-0.059480898
183	0x3d3abc38	0.045589656
184	0x3d65ef17	0.056136217
185	0xbdb8f03e	-0.090301976
186	0xbcd7cf92	-0.026344094
187	0x3c151c3c	0.00910097
188	0xbe0a023b	-0.13477413
189	0x3d13bd6f	0.03606933
190	0xbd54ad9b	-0.051923376
191	0xbd89f928	-0.06736976
192	0xbe0407c5	-0.12893589
193	0xbd9c3358	-0.076269805
194	0xbddbeb0b	-0.1073819
195	0x3ca48290	0.020081788
196	0xbd41a377	-0.047275033
197	0x3cb1d868	0.021709636
198	0xbdf0699d	-0.11738894
199	0xbd982ff0	-0.07431018
200	0x3d87f5d9	0.066386886
201	0xbd0cfa3e	-0.034418337
202	0xbd14a808	-0.03629306
203	0xbda44ee7	-0.08022862
204	0xbd0e89ab	-0.03479926
205	0xbd9b9bb1	-0.07598055
206	0xbd02c0df	-0.031922217
207	0xbdf9cca6	-0.12197237
208	0x3d100f6b	0.035170954
209	0xbe2faee6	-0.17156562
210	0x3d210844	0.039314523
211	0xbb3022dd	-0.002687625
212	0xbc39c17d	-0.011337635
213	0xbd170bdf	-0.036876556
214	0xbd79a09e	-0.060944192
215	0xbbbb5f1d	-0.0057181255
216	0xbe3b8f7a	-0.1831645
217	0xbde2cd8d	-0.11074362
218	0xbd96b146	-0.07358031
219	0xbdbec088	-0.09314066
220	0xbdbacdf9	-0.091213174
221	0xbdb0eea8	-0.0863927
222	0xbb0fbcd0	-0.002193261
223	0xbe048632	-0.12941816
224	0xbd0bbcf3	-0.034115743
225	0x3d6020a8	0.054718643
226	0x3e1200f9	0.14258184
227	0xbdf046cf	-0.11732256
228	0xbe267e5e	-0.16259143
229	0x3bc124e0	0.0058942884
230	0xbdeac83e	-0.114639744
231	0xba82ac7a	-0.0009969615
232	0x3d4f011d	0.05053817
233	0xbd8c2266	-0.068424985
234	0xbda33a25	-0.079700746
235	0xbdcf75dc	-0.10129902
236	0xbc6faa1f	-0.014627962
237	0xbe299d0b	-0.16563813
238	0xbe45caae	-0.19315597
239	0x3db955cd	0.09049568
240	0xbdaa77e2	-0.08323647
241	0xbde3eb9a	-0.11128922
242	0xbe390a9b	-0.18070452
243	0xbdfbf6db	-0.12302943
244	0xbd856098	-0.065125644
245	0x3c9a73cf	0.01885405
246	0xbdbcf60a	-0.09226616
247	0xbdc82e44	-0.097744495
248	0x3c159c28	0.009131469
249	0xbdc003ca	-0.09375723
250	0xbd2e2976	-0.04252001
251	0xbd49918e	-0.049211077
252	0xbe2f1712	-0.17098644
253	0xbb544e3f	-0.003239527
254	0x3d0e88fb	0.034798604
255	0xbe201924	-0.1563459

cells.1.h2h.weight f4 [256, 64]
0	0x3e1d5ba1	0.15366985
1	0x3d053fb9	0.032531474
2	0x3d83d849	0.064377375
3	0xbc776b78	-0.015101306
4	0xbdaa09cb	-0.08302649
5	0x3d27c6a2	0.040960915
6	0x3d818c63	0.06325605
7	0x3ddf83f5	0.10913841
8	0x3db15063	0.08657911
9	0x3dd4aa38	0.10384029
10	0x3e028b10	0.1274836
11	0x3c48def1	0.012260185
12	0xbd44fea8	-0.04809442
13	0xbc7daeb5	-0.015483548
14	0xbd8f94df	-0.07010817
15	0xbd8745eb	-0.06605133
16	0xbd2034dd	-0.039112914
17	0x3c9e99df	0.01936048
18	0x3c930012	0.01794437
19	0xb95b29af	-0.00020900996
20	0x3c24a9cb	0.010050247
21	0x3c2509b7	0.010073117
22	0x3e092f8b	0.13397042
23	0x3cf547d1	0.029941471
24	0xbbf88848	-0.0075846054
25	0x3d2610fe	0.04054355
26	0x3ccbe6a3	0.02489025
27	0x3d0dd191	0.034623686
28	0xbb6cd946	-0.0036140247
29	0xbdc0c108	-0.09411818
30	0xbe029bfc	-0.12754816
31	0x3ce72887	0.028217567
32	0x3dabddb5	0.08391897
33	0xbd8a192c	-0.067430824
34	0xbd32c1bd	-0.043641794
35	0x3c760ddd	0.015017954
36	0xbc117a1d	-0.008879212
37	0xbc2cbbbe	-0.010542808
38	0x3c83d006	0.016090404
39	0xbd622049	-0.05520657
40	0x3b95e59c	0.0045744907
41	0xbda4bd64	-0.08043936
42	0xbe177c59	-0.14793529
43	0x3dfa0ca5	0.12209443
44	0xbdb17fe6	-0.08666973
45	0xbb3f1ec0	-0.0029162616
46	0x3d4a35f1	0.04936785
47	0x3d1d02c3	0.038332712
48	0x3d145680	0.036215305
49	0x3d54a6d7	0.051916923
50	0x3c602266	0.013680076
51	0x3ca5ada1	0.020224394
52	0x3ba95adf	0.0051683034
53	0xbcf1fac3	-0.029538518
54	0x3d597df5	0.053098638
55	0x3d114d83	0.03547431
56	0x3d5a4634	0.053289607
57	0x3e12a256	0.14319739
58	0x3e151cac	0.14561719
59	0xbcb26181	-0.02177501
60	0x3e276ff4	0.163513
61	0x3c89f067	0.016838266
62	0x3d10e4e0	0.035374522
63	0xbddb2918	-0.107011974
64	0x3daf8b4f	0.08571493
65	0x3e113ae7	0.14182626
66	0xbda9483a	-0.08265729
67	0x3b3164a2	0.0027068038
68	0xbda5b798	-0.08091658
69	0x3d34a4fb	0.04410265
70	0x3d2d606d	0.042328287
71	0x3e1624cc	0.14662474
72	0x3db138fb	0.08653446
73	0xbd150fcb	-0.036392014
74	0xbde5172f	-0.111860625
75	0xbc99ae88	-0.01875998
76	0xbe22a736	-0.15884098
77	0x3e0de700	0.13857651
78	0xbd98a2f3	-0.07452955
79	0x3d80970a	0.062788084
80	0x3e221be6	0.15830955
81	0xbde09fc3	-0.10967972
82	0xbe05e683	-0.13076214
83	0xbdaf7fda	-0.085693076
84	0x3d8a8051	0.06762756
85	0xbe095b3e	-0.13413712
86	0x3d84f54e	0.06492101
87	0xbd035ef5	-0.03207298
88	0xbdbd0f9d	-0.092314936
89	0xbc37a3c7	-0.011208481
90	0xbe030d93	-0.12798147
91	0xbe1c9de6	-0.15294608
92	0xbe055119	-0.13019218
93	0x3ddb9dd2	0.10723461
94	0x3bec81fa	0.007217643
95	0xbdeba008	-0.11505133
96	0xbd290649	-0.04126576
97	0x3c6bea44	0.014399115
98	0xbc83fae5	-0.016110847
99	0x3d046079	0.032318566
100	0xbe1fc1f4	-0.15601331
101	0x3e014a47	0.12625991
102	0xbdb632c5	-0.08896402
103	0xbb7dc73b	-0.0038723487
104	0xbdf4e04a	-0.11956842
105	0xbde01c5f	-0.10942911
106	0xbe3a72f8	-0.1820792
107	0x3e2db897	0.16964947
108	0xbb9b7851	-0.0047445674
109	0x3c757811	0.014982239
110	0x3d42eff8	0.047592133
111	0xbd5477b5	-0.051871974
112	0xbdb6098d	-0.088885404
113	0xbd99269b	-0.074780665
114	0xbd0595a3	-0.032613408
115	0xbd9c53ab	-0.07633146
116	0xbc0f4adc	-0.008745875
117	0xbd98a6b9	-0.07453675
118	0xbc5cb439	-0.013470703
119	0xbd343c90	-0.04400307
120	0xbb31a5c9	-0.0027106872
121	0xbde3e24b	-0.11127146
122	0xbd6868d9	-0.056740616
123	0x3d9cbbc1	0.07652999
124	0xbdcada44	-0.09904912
125	0x3e1666ec	0.14687699
126	0x3dc5c95e	0.09657548
127	0xbdb4be85	-0.08825401
128	0xbd075786	-0.033042453
129	0xbe09ac54	-0.13444644
130	0xbbab4220	-0.0052263886
131	0xbd0e95f4	-0.034810975
132	0x3e04aefe	0.12957379
133	0xbbf6da82	-0.0075333724
134	0x3baba1db	0.0052378005
135	0x3d60eff3	0.054916333
136	0x3e12d591	0.14339282
137	0xbd88f9b1	-0.0668825
138	0x3c8be387	0.017076267
139	0xbd9643cd	-0.07337151
140	0x3dbf0548	0.09327179
141	0xbc5c5aa8	-0.0134493485
142	0x3d927248	0.07150704
143	0xbd7a4557	-0.061101284
144	0xbdf31c28	-0.11870605
145	0x3cd929da	0.026509214
146	0x3d0cec13	0.034404825
147	0x3d90ed50	0.07076514
148	0xba74e8a7	-0.0009342529
149	0x3e56ecfb	0.20988838
150	0x3deb1847	0.1147924
151	0x3cd44592	0.02591208
152	0x3ca39398	0.01996784
153	0xbd1a569f	-0.037680265
154	0x3d3f84e3	0.04675759
155	0x3d90813a	0.07055898
156	0x3ddaa438	0.106758535
157	0xbd8deab6	-0.06929533
158	0xbd990088	-0.074708045
159	0x3dd8d472	0.10587396
160	0x3d0e5a05	0.034753818
161	0xbc1cdfdf	-0.009574859
162	0x3ceed786	0.029155504
163	0x3e0e3828	0.1388861
164	0x3d4c504b	0.04988126
165	0xbe2e97a7	-0.17050038
166	0x3d69e83e	0.05710625
167	0xbe255f83	-0.16149716
168	0xbdaf8362	-0.08569981
169	0xbc916609	-0.01774885
170	0x3c9d1075	0.019172886
171	0x3dd94809	0.10609443
172	0xbd5785a8	-0.0526177
173	0x3de21e5c	0.11040947
174	0x3d870d87	0.06594377
175	0x3b921a85	0.004458728
176	0x3dbd82d7	0.09253471
177	0x3dd3e61a	0.10346623
178	0x3cf2516c	0.02957984
179	0x3e3ec2f1	0.18629052
180	0x3de7a0c2	0.11309959
181	0x3d607fe4	0.054809466
182	0x3e0bab6d	0.13639612
183	0xbdbad521	-0.09122682
184	0xbe2148b3	-0.15750389
185	0x3e0d346e	0.13789532
186	0xbd6541db	-0.055971008
187	0x3d52a909	0.051430736
188	0x3df24e97	0.11831396
189	0x3c696d5a	0.014247263
190	0xbdbbdbed	-0.09172807
191	0x3dd053aa	0.10172208
192	0xbd12073f	-0.03565144
193	0xbd2adedf	-0.041716453
194	0xbd87d06c	-0.0663155
195	0xbb58fb7a	-0.0033108876
196	0xbcd8175d	-0.026378328
197	0x3dc721dd	0.09723256
198	0xbdd516a5	-0.1040471
199	0xbd869b5f	-0.065726034
200	0x3db83e1b	0.08996221
201	0x3df97edf	0.12182402
202	0x3de1f554	0.11033121
203	0xbde5d541	-0.112223156
204	0xbc31dff9	-0.010856622
205	0xbc9a2514	-0.018816508
206	0xbb67e1c9	-0.0035382381
207	0x3df8671a	0.1212904
208	0x3db791e5	0.08963374
209	0xbbda5df8	-0.006664034
210	0xbd3a37bd	-0.045463312
211	0xbdc8a7c6	-0.09797625
212	0xbc8fe8c2	-0.017567042
213	0x3e2be615	0.16786988
214	0xbd771626	-0.060323857
215	0x3e28a88a	0.16470543
216	0x3d95846c	0.07300648
217	0xbdb04fdc	-0.08608982
218	0xbd3eb2d4	-0.046557263
219	0x3dfb7c7e	0.122796044
220	0xbbfd801b	-0.0077362186
221	0xbde51d8a	-0.11187275
222	0xbdf568fa	-0.11982913
223	0x3d9e7823	0.07737758
224	0xbc40313d	-0.011730489
225	0xbe332bd9	-0.17497195
226	0x3d3e697a	0.04648731
227	0x3dbe45a6	0.09290628
228	0x3d435d52	0.04769642
229	0xbe1af861	-0.15133812
230	0x3e0755f1	0.13216378
231	0x3d1ab353	0.037768673
232	0xbcd7b08e	-0.026329305
233	0xbbb1e461	-0.005428836
234	0x3dd2d637	0.102947645
235	0x3daa19d6	0.08305709
236	0xbdf0c71b	-0.11756726
237	0x3d24b033	0.0402071
238	0x3e15cc52	0.14628723
239	0x3d670cd6	0.056408726
240	0x3dd24e73	0.10268869
241	0x3d82c680	0.06385517
242	0xbe2c362d	-0.16817541
243	0x3e389e50	0.18029141
244	0x3e16f113	0.147404
245	0x3e2112e5	0.15729864
246	0x3e1210c6	0.14264211
247	0xbd9ec1f1	-0.07751835
248	0xbdb81cf1	-0.08989895
249	0x3d4a4e58	0.04939112
250	0xbd026442	-0.031833895
251	0xbe156a09	-0.1459123
252	0x3d1aa93b	0.037759047
253	0xbde432cc	-0.11142501
254	0xbe1bea18	-0.15226018
255	0x3e18fccf	0.14940189
