model_street/models_street_all/LSTM_model_EAST GUN HILL ROAD.pth (torch, 358532 bytes, 17 tensors)

input_projection.weight f4 [9, 9]
000000 92 31 32 bd 0d 75 47 3e 43 10 2e bb 89 73 0d be
       -0.043504305 0.19478245 -0.0026559986 -0.13813604
000010 aa b9 3e 3e e7 50 61 bd 8f 80 89 3e bc bc e4 3d
       0.18625513 -0.055008795 0.26855895 0.11168811
000020 86 83 b3 3e 12 43 eb be e5 28 8d be 54 68 af be
       0.35061282 -0.45949608 -0.27570263 -0.34259284
000030 4b 35 52 3e 47 d9 c7 be 78 e0 7e 3e 45 95 9e be
       0.20528142 -0.39032957 0.24890316 -0.3097326
000040 d2 d0 c1 bc ee 68 3e 3e e8 67 1e 3e 8f ad 9f 3d
       -0.023659144 0.18594715 0.15469325 0.077967755
000050 ee 2e 0d 3c f0 55 43 be d2 30 9d 3d 66 a9 39 3e
       0.008617146 -0.19075751 0.07675327 0.18131027
000060 22 f7 68 be 37 00 75 3d 20 0b 87 3e 01 dd 16 3e
       -0.22750524 0.059814658 0.26375675 0.14732744
000070 d7 e4 46 be 26 fc 61 be 60 c0 72 be 87 ea 9e bd
       -0.19423233 -0.22068843 -0.23706198 -0.07759576
000080 c8 dd 0d be b1 c1 16 be c2 2c 23 be 7a 29 90 3e
       -0.13854134 -0.14722325 -0.15935043 0.28156644
000090 75 a4 04 3e a4 6a 81 3e 3e 0d 47 be 13 1e 9e be
       0.1295336 0.25276673 -0.19438645 -0.3088232
0000a0 fb 77 9c bd 27 27 5c 3e 97 68 04 3e 6b f1 04 3e
       -0.07640072 0.2149931 0.12930523 0.12982719
0000b0 da 1d fb be 2e b7 af 3c 7f eb 98 be 85 58 51 be
       -0.49046212 0.021449652 -0.2986717 -0.20443924
0000c0 ba c3 98 3e ae 9a 93 be 07 c1 39 be ce 05 1e bc
       0.29836828 -0.2882895 -0.1814004 -0.009644939
0000d0 af e5 5a ba 72 e5 e0 be d7 2a b7 be 9e de da 3d
       -0.00083502656 -0.43925053 -0.35774872 0.10686992
0000e0 06 19 2b be 44 b7 50 3e c7 19 88 3e 65 6f 67 3e
       -0.16708764 0.2038241 0.26582167 0.22601087
0000f0 5a 8b bf 3d 03 6a d1 3d a2 a6 db be 9f 1d 9c 3e
       0.09352751 0.10225298 -0.42900568 0.3049135
000100 99 74 7d 3d 6c 7b 94 be 94 46 93 3e 1b 8a f8 bd
       0.061878774 -0.29000413 0.28764784 -0.121357165
000110 d9 56 6d 3e 47 b4 7e 3e 18 67 59 3e 84 4c 83 3e
       0.23177661 0.24873458 0.21230733 0.25644314
000120 df 07 2d 3e 9a 27 09 3d 7a c6 4a be c4 e6 c8 3d
       0.16897534 0.033485033 -0.19802275 0.0980964
000130 4a 7d 73 3e 99 66 98 3e 8e 80 23 be 17 97 96 bd
       0.23778263 0.29765776 -0.15967008 -0.07353037
000140 f2 fb 47 be
       -0.19529703

input_projection.bias f4 [9]
000000 2d 52 a0 3e 1f 19 10 bd a3 a5 05 3e 20 7e aa 3e
       0.31312695 -0.035180207 0.13051467 0.3329935
000010 de 4b 83 be 9c be 84 3e f4 ea 62 3d 7c 18 06 be
       -0.2564382 0.25926673 0.05539985 -0.13095278
000020 a2 79 39 3d
       0.045282014

cells.0.x2h.weight f4 [256, 9]
000000 04 cd 13 3e 8d 2e 42 3e c0 d9 08 be 48 29 c6 bd
       0.14433676 0.1896307 -0.13364315 -0.096758425
000010 30 c5 a2 be 2e 69 5e 3e f8 a0 9c be 57 57 a8 be
       -0.31791067 0.2171981 -0.3059156 -0.32879135
000020 72 ee 84 be 8c 19 2c 3d 3a 73 ff bb fe fa 71 3e
       -0.2596317 0.04201655 -0.0077957185 0.23630902
000030 26 95 5d bd b2 47 6f be 15 5e 82 be 6c 2d a4 be
       -0.054097317 -0.23367193 -0.25462404 -0.32065904
000040 6e 63 af 3e a9 18 72 bc b5 75 ea 3d ea d2 9c 3e
       0.34255546 -0.014776387 0.11448232 0.30629665
000050 66 c9 2f be 82 26 86 bd 62 a9 ba be b6 9f 82 3e
       -0.17166671 -0.065503135 -0.36457354 0.25512475
000060 a7 7f a3 3e a9 ec 2d bd 4a 76 98 3e f9 2b 93 bd
       0.31933329 -0.042462025 0.29777747 -0.071861215
000070 cb 0f f2 3d 22 83 74 be 20 8e 19 bd 16 b4 12 3d
       0.118194185 -0.23878148 -0.037489057 0.035816275
000080 43 30 32 be 56 9f 85 bd 02 86 0a be 64 70 51 3e
       -0.17401223 -0.065245315 -0.13527682 0.2045303
000090 5a ec 46 be 6e aa 80 3d dc 0a 35 3d c9 21 ad 3e
       -0.19426098 0.06282507 0.04419981 0.3381484
0000a0 8a 95 8b be b8 69 2c 3d 4b c4 ee bd 73 0e 62 bd
       -0.27262527 0.04209301 -0.11658534 -0.05518956
0000b0 15 9e 7c be 67 14 9e bd ee 24 74 bd 30 38 a6 3e
       -0.24669679 -0.07718735 -0.05960553 0.32464743
0000c0 4a 35 b9 bd 19 ac 46 be e6 8f 91 3c f3 37 2a bd
       -0.09043367 -0.19401588 0.017768811 -0.041557264
0000d0 67 99 32 3e 1c f4 ae 3d 23 ba 8c 3e b5 1c 8d be
       0.17441331 0.08542654 0.2748576 -0.27560964
0000e0 83 0e 13 bc 2b d3 4a 3e f3 d9 e7 3b 87 c4 27 be
       -0.008975628 0.19807117 0.007075542 -0.16383563
0000f0 8f 26 cd 3d dc 1a b3 3e af 4d cd 3e ed ba c5 3e
       0.1001712 0.3498143 0.4009833 0.38619176
000100 dd e4 2d 3d cd 96 99 bd de 0d a3 bd 90 2c 23 bd
       0.04245459 -0.07499466 -0.07961629 -0.03983742
000110 33 d1 10 3e 71 e0 88 be b8 3a 16 3e d0 3d 6c be
       0.14142303 -0.26733735 0.14670837 -0.23070455
000120 d3 bd ed bd 4b 78 4b 3e 00 6f 96 3e de a7 90 be
       -0.11608472 0.19870107 0.2938156 -0.28253073
000130 41 0a 62 3d a5 89 1e 3d 2e df 54 be 00 c1 9a 3e
       0.05518556 0.038705487 -0.20788261 0.30225372
000140 48 f4 3e bb 9a c4 46 be 07 a2 78 be 10 7d bd 3d
       -0.0029137302 -0.19410935 -0.24280559 0.092523694
000150 bd 75 65 3e 04 c1 c8 3d 6d ce ae 3d c8 1d 30 3e
       0.22408195 0.0980244 0.08535466 0.1719886
000160 e8 2d 81 3b fa be 8a 3e cc d2 08 be e4 7f 0f be
       0.00394224 0.2709883 -0.13361663 -0.1401363
000170 59 6e 21 be de 40 4d 3e f1 1b fe 3c 70 fb 87 3e
       -0.1576475 0.20044276 0.031019183 0.2655902
000180 5d bb 73 3e 61 24 e8 bd a1 bd b9 3e 19 7d 16 3c
       0.23801942 -0.11335064 0.36277488 0.009185099
000190 1c 6d 52 3e c7 ce ee bd 50 fe ec 3d c2 01 54 bd
       0.20549434 -0.116605334 0.11571944 -0.05175949
0001a0 3f 5c 2b be 6b 00 b1 bd ed 29 7d 3e 0f 78 99 3e
       -0.16734408 -0.08642658 0.24723025 0.2997441
0001b0 c1 4c f6 bd 33 02 4b be 0f 07 a2 3e fb 16 fe bd
       -0.120263584 -0.19825058 0.3164601 -0.12406727
0001c0 7b 52 53 bd 4f 07 57 3e 45 24 71 3e 88 0a 85 bd
       -0.05159233 0.20998882 0.23548992 -0.06496149
0001d0 4c d1 7b be 43 39 b9 3c fb ef ef bd 00 7a 70 3e
       -0.24591559 0.022610312 -0.117156945 0.2348404
0001e0 41 d7 aa 3d 0f 1a 5d 3d 6d 65 72 3e 6d a2 22 3e
       0.08341838 0.05397993 0.23671503 0.15882273
0001f0 c0 a9 05 be b2 33 75 3e de 96 25 3d 21 7a 06 be
       -0.13053036 0.23945501 0.04042708 -0.13132526
000200 65 d4 52 bd 38 04 98 3e a3 dd 54 be 63 db 99 3d
       -0.051472086 0.2969072 -0.20787673 0.07512548
000210 9d fd 80 3e 06 da 67 3e 71 74 63 be 4d 81 68 be
       0.25193492 0.22641763 -0.22212388 -0.22705574
000220 b4 54 c4 3e 88 62 92 be 3e 61 04 3d 91 dc ca be
       0.38345873 -0.28590798 0.0323193 -0.39621404
000230 ce 5e ad bd fa 45 54 be b8 80 2c be 55 d2 69 3e
       -0.08465348 -0.20729819 -0.16845977 0.22834142
000240 f2 57 44 3e 6d 29 5c 3e fe 7e 31 be a8 0e a7 3c
       0.19174173 0.21500178 -0.173336 0.02039273
000250 66 70 7f 3d 0a 81 a7 3b 6e f1 0f 3d e6 11 07 be
       0.06236305 0.005111818 0.035142355 -0.13190421
000260 2e 04 4d 3e 6e 45 9c 3d 63 18 ea 3d 03 a1 8c be
       0.20021126 0.0763043 0.11430433 -0.27466592
000270 fd 50 1c 3e fd fe 33 bc bf 97 f6 3d 24 d9 b2 3b
       0.1526527 -0.010986087 0.12040662 0.005458014
000280 78 90 a1 3d 47 f8 ca bd 4e c8 44 be 00 2a 9e 3e
       0.07888883 -0.099106364 -0.19217035 0.30891418
000290 24 d5 7d 3e 7a a3 84 be 90 ef c7 3c c2 f0 82 be
       0.24788338 -0.25905973 0.024406224 -0.2557431
0002a0 07 3b 13 be dd 43 81 be fd 00 a8 be 2d ab 7e 3e
       -0.14377986 -0.25247088 -0.32813254 0.24869986
0002b0 de 68 3c bd e0 1a 80 be aa 78 17 3e c4 c7 15 be
       -0.045998447 -0.25020504 0.14792123 -0.14626986
0002c0 23 0f 44 be 32 39 83 be fb c2 3a 3e bf e4 6a be
       -0.19146399 -0.25629574 0.18238442 -0.22938822
0002d0 55 66 ae 3e 88 af 76 3e d3 7a 1f 3e 71 47 10 3e
       0.34062448 0.24090397 0.15574197 0.14089753
0002e0 77 33 bd bc 63 8d 37 be c7 92 b0 3e 6c 14 7d be
       -0.02309583 -0.17925029 0.34486982 -0.24714822
0002f0 13 d4 f5 bd d6 5e 19 be 75 7e 2b be 1a 90 90 3e
       -0.120033406 -0.14977583 -0.16747458 0.2823494
000300 78 8f 8b bc f3 91 a0 be 41 6e 88 be 8f 0c 57 3e
       -0.017036185 -0.3136135 -0.26646617 0.21000884
000310 81 2f 65 3e a4 b3 ca be 6f cf 45 be fe b4 19 bd
       0.22381403 -0.3959018 -0.19317411 -0.037526123
000320 b9 d3 a4 be 9e 1a a2 be 93 bd a7 be e9 eb 7e 3e
       -0.32192782 -0.31660932 -0.3276182 0.2489468
000330 75 26 5c 3e cf 78 b9 be 05 5f ad be 5e ba dc 3c
       0.21499045 -0.36224982 -0.33861557 0.026944336
000340 09 63 5d 3e 33 c6 9f 3e 70 9d 68 3d 29 42 ce be
       0.2161981 0.31205902 0.05679077 -0.4028485
000350 d3 1c ad be 04 14 8c be fa f5 85 be 52 a8 97 bd
       -0.33811054 -0.2735902 -0.26164228 -0.074051514
000360 a1 05 93 3e 55 eb 07 3e b6 50 73 3e a2 04 81 be
       0.28715232 0.13273366 0.23761258 -0.25198847
000370 05 51 3a bd 9a 09 f3 3b cd 5f 33 bc cf b6 c7 bd
       -0.045487422 0.007416916 -0.010948134 -0.09751665
000380 7d e4 43 3b b3 0b 58 bd 8f dc 59 be 53 f7 e8 3d
       0.0029890828 -0.052745532 -0.21275543 0.11375298
000390 5c ec 36 3e 56 f0 49 3c 93 ae a2 be f9 fb d1 3a
       0.17863601 0.012325367 -0.31773815 0.0016020528
0003a0 ff f6 97 bd da 37 10 3e 38 16 61 be 82 6e b9 3e
       -0.07420158 0.14083806 -0.21981132 0.36217123
0003b0 27 39 aa be 38 28 d9 3d 21 1e 6d 3e b3 ab 81 3e
       -0.3324673 0.10603374 0.23156025 0.2532631
0003c0 b1 80 4d be 25 c9 96 be 07 7d 86 be c5 1b 2a 3e
       -0.20068623 -0.29450336 -0.26267263 0.16612156
0003d0 e5 45 52 bc 24 f7 e2 39 ed 69 1c bd 6e b6 0c 3e
       -0.012834047 0.00043290213 -0.038186956 0.13741466
0003e0 fa ba 0d 3e 1d 4f 95 3e 4f b3 1f be 1a 4e 14 bd
       0.13840857 0.2916192 -0.15595745 -0.036207296
0003f0 57 ed 83 3d 89 9f 01 3d 0e 94 95 3e ef e8 ca bd
       0.06441753 0.031646285 0.2921452 -0.0990771

cells.0.x2h.bias f4 [256]
000000 f2 38 95 3e c7 14 0a 3e 79 f4 08 bd 19 20 31 bd
       0.29145008 0.13484488 -0.033436272 -0.0432435
000010 24 95 9e 3e d8 f6 fc bd 52 7b e1 3c a4 dc 00 3e
       0.3097316 -0.12351769 0.027524624 0.12584168
000020 8e ba 2e bd 2f c9 34 3e 16 9f df 3e dd 30 42 3d
       -0.04265838 0.1765487 0.4367606 0.04740988
000030 ca 50 a9 3e ae 36 c1 3e 66 1f 02 3e 48 42 2d be
       0.3306945 0.3773703 0.1270729 -0.16919816
000040 1d 35 34 3e 9d cf 99 be 6b c1 0a 3d ea 08 f1 bd
       0.17598386 -0.3004121 0.033875864 -0.11769278
000050 cf 20 e0 bc 1a 4f 3f be 3f 2c e2 3d 47 2c 8b be
       -0.027359394 -0.18682519 0.110435955 -0.27182218
000060 2b a6 28 3e 2a 69 7d 3e c6 3d e3 bd 1c aa f8 bd
       0.16469638 0.24747148 -0.11095767 -0.12141821
000070 55 07 e6 3d 8c 85 1f be 05 bf 04 3e 69 ed 3a 3e
       0.11231867 -0.15578288 0.12963493 0.18254627
000080 03 f3 6f 3e c0 a4 cd 3e 08 ca 18 3e 27 b8 ae 3d
       0.23432545 0.40164757 0.14920819 0.08531218
000090 2f 62 5f be 4e e8 22 3d 00 15 27 3e b7 7e 93 3d
       -0.21814798 0.039772324 0.16316605 0.07201903
0000a0 bb ef e6 bd a3 7b 49 3e 7c ba 97 be 8d fb c8 3e
       -0.11276194 0.1967607 -0.29634464 0.39254418
0000b0 7f 2f 0c 3e ec 71 f4 bc 0d 01 ba 3e 5f 4c 0b be
       0.13689993 -0.029839478 0.36328927 -0.13603352
0000c0 3c f4 9a 3d 3b 74 e1 3d b8 0f 3f bd 90 bb 3f 3e
       0.07566115 0.11008497 -0.04664585 0.18723893
0000d0 09 b5 78 be 51 31 94 3e e2 21 96 3e 83 ea 88 bc
       -0.2428781 0.28943875 0.29322726 -0.016713386
0000e0 f3 a9 17 be 72 8a 32 be 78 4d 06 be d2 72 02 be
       -0.14810924 -0.17435625 -0.1311549 -0.12739113
0000f0 42 d8 a6 3e da 83 41 be d6 4f 8a bd f6 f8 46 be
       0.32586867 -0.18897954 -0.06753509 -0.19430909
000100 e2 f6 b3 3d 34 e4 01 3e 4b 11 83 be 7c a7 8d 3e
       0.087873235 0.12684709 -0.2559913 0.27666843
000110 01 94 89 be b0 95 76 3e f3 df 3d be c2 d4 93 3e
       -0.2687073 0.24080539 -0.18542461 0.2887326
000120 63 4c fb 3d 67 f0 1e 3c 8d 95 a3 3e ef 3d 96 be
       0.12270429 0.009700871 0.31950036 -0.29344127
000130 72 47 1f 3e b9 a6 8c be bd 59 e2 3e 7d 48 ac 3e
       0.15554598 -0.2747095 0.4420909 0.33649054
000140 e7 5f d5 bd 2b a8 5a 3e 2d 23 60 3e 8d bf 55 be
       -0.104186825 0.21353213 0.21888418 -0.20873852
000150 c2 dd fc bb d1 f2 6a 3e f8 ab cb 3d 04 14 b6 3d
       -0.0077168653 0.2294419 0.0994491 0.088905364
000160 fa d1 4e be c2 34 ab bd 35 c2 b4 3d 69 e6 2a bd
       -0.20197287 -0.08359672 0.088261046 -0.041723642
000170 51 63 30 bc 5d d4 83 3e 2b 9b 5e 3e 81 4c 92 be
       -0.010765866 0.25747958 0.2173888 -0.28573993
000180 41 26 97 3d 43 66 b2 3d b6 5f 81 3e fa ea e8 bc
       0.07380343 0.08710911 0.25268334 -0.028432358
000190 99 1b 32 be dc b6 3d 3d f4 ae 87 3d 0c 9a 82 3e
       -0.1739334 0.046316966 0.066251665 0.25508153
0001a0 ca 00 81 bd 66 72 99 be e7 bd 69 3d ff 05 c5 3e
       -0.062989786 -0.29970092 0.05706587 0.38481137
0001b0 36 de 9b be 90 58 dd 3c 62 ba f0 bd 20 a6 29 3e
       -0.3044297 0.027019769 -0.117543 0.16567278
0001c0 6a 36 a1 be 92 c6 36 3e d9 82 82 be 23 8d 16 3e
       -0.31486827 0.17849186 -0.25490454 0.14702277
0001d0 f8 54 2b bd b0 08 99 be cf 3c 5f be 1f c7 a7 be
       -0.04182908 -0.2988944 -0.2180054 -0.32769105
0001e0 9d 87 64 3e b4 9e 82 3e 36 df 97 3e 96 92 64 be
       0.22317357 0.25511706 0.29662484 -0.22321543
0001f0 20 90 97 3e bf 47 90 be 6b c9 23 bd ab 09 ad 3e
       0.29602146 -0.28179738 -0.03998701 0.3379644
000200 b2 a0 64 be 9a 30 02 be 25 f9 ff bc 8d 73 1c 3c
       -0.22326925 -0.12713853 -0.031246731 0.009549034
000210 a9 10 67 be 4d 83 74 be dd a9 02 be fb 1b 09 bd
       -0.22564949 -0.23878212 -0.1276011 -0.03347395
000220 ef 09 5f 3e cd f9 1f be 41 b9 81 bd 17 16 f1 3d
       0.21781133 -0.15622635 -0.063341625 0.117717914
000230 f3 3d 2a be fd f0 3c 3e 5f 71 c5 3d 18 97 37 3d
       -0.16625194 0.18451305 0.096407644 0.04482183
000240 16 9f d5 bd eb ff d7 bd 56 77 94 3d 44 c6 7a 3e
       -0.10430734 -0.10546859 0.07249324 0.24489695
000250 eb eb 92 be 4f ab d4 bc 88 00 0a bc 94 04 83 be
       -0.28695616 -0.025960593 -0.008422978 -0.2558943
000260 e0 21 02 3e 00 7f ec 3d 3a 2d f7 3d ed d7 b2 be
       0.12708235 0.11547661 0.12069173 -0.34930363
000270 72 3c 3f be 2d a5 72 3b 4c 10 2b 3d d5 d0 2a 3a
       -0.18675402 0.0037024722 0.04176359 0.0006516104
000280 05 29 f6 bd 0a 8f 45 3e f3 03 3e be 4b af 44 be
       -0.120195426 0.19292846 -0.18556194 -0.19207494
000290 11 a6 33 3e 60 20 f3 3d e6 c6 3e be 5c 43 16 be
       0.17543818 0.118714094 -0.18630561 -0.14674133
0002a0 a5 09 93 be a2 41 7c 3e 50 32 33 3d a3 61 81 be
       -0.28718296 0.24634412 0.043749154 -0.25269803
0002b0 6a 89 d2 bd da de fe bd 71 17 9b 3d 14 7e 3a be
       -0.10280116 -0.12444849 0.075728305 -0.18212157
0002c0 a8 42 95 be 9c 40 96 be 25 70 5d 3e 40 89 1a be
       -0.29152417 -0.29346168 0.21624811 -0.15091419
0002d0 8a 7c a7 3e e2 b5 2c 3e 9e 3f 85 3e fa 28 a9 3a
       0.32712203 0.16866258 0.260251 0.0012905889
0002e0 a3 98 4a 3d dd f2 71 3c 88 1c 54 be 0e 52 37 bd
       0.049461972 0.014767376 -0.20714009 -0.044755988
0002f0 d2 3a a0 3e 15 21 ae be 3e 43 9d 3d ea ac 22 bd
       0.31294876 -0.34009615 0.07678841 -0.039715685
000300 be 4c 9f 3e 01 99 1f 3e 29 e5 06 3e 18 03 31 bd
       0.31113237 0.1558571 0.13173355 -0.04321584
000310 ff 05 60 bd 3c 92 35 be 0e 65 32 3d bb 1e 5d be
       -0.05469322 -0.17731565 0.043553405 -0.21593754
000320 10 65 76 bd 12 3c b6 3d 35 9f 11 3e 3a 7f af 3e
       -0.060154974 0.08898176 0.14220889 0.34276754
000330 7d 11 d6 3c e8 3c 02 be 28 06 8b bd e8 e5 38 be
       0.026131386 -0.12718546 -0.067882836 -0.18056452
000340 6d 86 24 3d 0c bf b0 3e a0 63 25 3e 68 3c 0a be
       0.04016726 0.34520757 0.16151285 -0.13499606
000350 b7 1d 6a be 7a 33 b0 bd 5f 93 3a be a9 53 31 bd
       -0.22862898 -0.086035684 -0.1822028 -0.043292675
000360 ac 8b 66 be 8b 55 71 3e 49 e1 93 3e 90 41 23 3e
       -0.22514218 0.23567788 0.28882816 0.15942979
000370 46 d1 5e 3e 93 bf c0 3d b9 03 75 3e 67 88 bf 3e
       0.21759519 0.0941154 0.23927201 0.37408754
000380 cd da 38 3d c3 70 40 3d d8 13 17 3d 79 49 1d 3e
       0.04513054 0.046982538 0.03688416 0.15360059
000390 c1 18 d6 3d 7e 23 ab 3d 39 f7 94 3e b2 f2 9f 3e
       0.1045394 0.08356379 0.29094866 0.3123985
0003a0 91 15 07 bc fc fd 9e be 47 35 9c 3d 22 66 57 3e
       -0.008244888 -0.3105315 0.07627349 0.21035054
0003b0 64 56 46 3e 8c 45 56 3e 94 bd 80 be 37 bb 94 3d
       0.19368893 0.20924968 -0.25144637 0.07262271
0003c0 de f5 01 3e 25 06 6b bd 71 03 45 3e 31 5f 80 3e
       0.12691447 -0.057378907 0.19239594 0.25072625
0003d0 f4 2c 52 3e 91 a0 7e 3d 53 c9 a2 bd 84 9b ec 3d
       0.20524961 0.062164847 -0.07948556 0.115531
0003e0 e8 96 86 3e 86 ae 55 be c4 41 8b 3e 59 97 01 be
       0.26287007 -0.20867357 0.27198613 -0.12655391
0003f0 03 3d 22 be d6 73 af 3d 80 86 75 be b0 86 3f 3e
       -0.15843587 0.08567016 -0.23977089 0.18703723

cells.0.h2h.weight f4 [256, 64]
000000 df 8c a5 bd 5d cf 4b be 87 cf 29 3c 2f 83 b2 3d
       -0.0808351 -0.19903322 0.01036442 0.087164275
000010 d2 9f f4 3c 4a 04 60 be 35 22 bc bc cb e5 11 3c
       0.029861365 -0.21876636 -0.02296553 0.008904885
000020 36 99 f1 bd e8 7d 56 3e 49 3b ea 3c 95 ea 13 bd
       -0.11796801 0.20946467 0.028592722 -0.036112387
000030 6e 92 89 bd fa e1 88 be 47 c5 d3 bd 89 90 05 be
       -0.06717382 -0.26734906 -0.10340362 -0.13043417
000040 9d 13 98 3d 29 f7 33 bd d8 22 3a 3d f4 9a 27 3e
       0.07425616 -0.043936882 0.045443386 0.16367704
000050 0d a0 5a be ff 75 f1 bd fe 2a 98 bc 0b 95 79 bd
       -0.21350117 -0.11790084 -0.018575188 -0.060933154
000060 71 99 ca 3d c6 e9 13 bd fa b6 3c 3e 98 b3 a7 bc
       0.09892548 -0.036111616 0.18429175 -0.02047138
000070 b2 5f 17 be 34 68 b4 3d 44 81 7d bd c1 80 54 3d
       -0.14782599 0.08808938 -0.061890855 0.0518806
000080 15 cf a7 3d 15 b9 9e 3d ed 99 ed 3d 24 61 76 bd
       0.08193795 0.07750145 0.11601625 -0.060151234
000090 cc ce ac be 5b d6 c2 3d 45 36 cd 3b 54 45 b9 bc
       -0.33751523 0.09513541 0.006262573 -0.022616066
0000a0 95 f5 20 bb d4 65 e9 3d 36 e1 4f 3d 7a 97 78 3d
       -0.002456044 0.11396375 0.050751887 0.060691334
0000b0 b6 7d 7c bd 54 a7 4b be 43 3c 83 bd 23 86 05 be
       -0.061643325 -0.1988805 -0.064079784 -0.1303945
0000c0 61 69 08 be 19 19 38 3e 63 f6 f0 3d 8b 1b 90 3e
       -0.13321449 0.17978324 0.117657445 0.28146014
0000d0 ac 51 89 3d 69 2d ab bc 4d 01 ba bd 31 d3 8b 3d
       0.06705031 -0.020895677 -0.09082279 0.06827391
0000e0 d5 31 c8 bd d2 4b 7e bd ea 1e 37 be a2 ab 8c 3d
       -0.0977513 -0.062084027 -0.17882887 0.06868674
0000f0 49 71 40 3d 33 98 2a bd 88 bd 8e 3c ee e2 47 3e
       0.046983037 -0.041649055 0.01742436 0.1952016
000100 f0 04 d7 bd 5b 4c f3 bc b8 01 bb bc c9 36 e2 bd
       -0.10498989 -0.029699495 -0.022827968 -0.11045606
000110 0a c1 ce bd 3a d6 ce bb 7a f3 e2 3d ce 92 3a bd
       -0.10095413 -0.006312159 0.11081596 -0.04555016
000120 61 e8 73 bd 7a ba 02 3d d3 d5 08 be 84 9e 04 3e
       -0.059547786 0.03191612 -0.13362817 0.12951094
000130 0a 30 28 be 44 fb 9b 3d 62 5b 98 3d 90 9d 0b 3e
       -0.16424575 0.076162845 0.07439305 0.13634324
000140 c9 0c b9 bc 9a eb a3 3d c6 3e e3 3d 3b 88 51 bc
       -0.022589104 0.08003922 0.110959575 -0.0127888275
000150 4c 47 14 bd 35 7e c5 3d b5 7b 68 bd ec d0 66 bd
       -0.036200806 0.09643213 -0.0567586 -0.056351587
000160 e0 82 67 3d 0f b7 7f 3d 4d 8d c0 bd b8 63 28 3c
       0.056521297 0.062430438 -0.09401951 0.010277681
000170 74 06 b7 bd 8c 3b fb bc e6 33 0b be 4a 0d 55 be
       -0.08936778 -0.030668043 -0.13594016 -0.2080585
000180 37 ed bb 3c 0e 12 74 3d cb 76 26 bd 83 33 dc bd
       0.022940261 0.05958753 -0.040640634 -0.107520126
000190 9e 65 08 3e 78 69 28 3d f4 52 7b bd 2d 5c b4 bc
       0.13320014 0.041116208 -0.061358407 -0.02201661
0001a0 4c d3 07 3c a5 38 14 3e 15 3e 1b bd 8c c4 d4 ba
       0.008290123 0.14474733 -0.037901003 -0.0016232892
0001b0 d0 4d d2 bd 4a 62 cc bd d0 a2 9f 3d 42 76 a3 ba
       -0.10268748 -0.09979685 0.07794726 -0.0012471157
0001c0 1b 05 2c bd f1 78 ec bd 4b b6 80 bc 69 02 18 3e
       -0.041997056 -0.11546505 -0.015711924 0.1484467
0001d0 c2 87 29 3e c2 42 ce 3c c0 5e c4 3d 14 12 48 3d
       0.16555694 0.025178317 0.09588385 0.048845366
0001e0 1e a6 36 bd 51 66 ec 3d 5d 46 ed 3c ee 02 48 be
       -0.044592015 0.11542953 0.028964216 -0.19532368
0001f0 59 98 46 be 89 f9 f9 bd 40 19 9d bd d1 e4 1f be
       -0.19394054 -0.12205798 -0.07670832 -0.1561463
000200 e8 ce 9d 3d b6 af 78 bd b6 73 a1 3d 77 df f6 bc
       0.0770548 -0.060714446 0.07883398 -0.030135853
000210 b8 05 1f 3b 72 32 05 3c 65 69 5f bd 15 b9 83 bd
       0.0024264883 0.008129703 -0.05454387 -0.06431786
000220 27 ad 9c bd 05 9e 5b 3c a2 0f b9 3c 0d c0 98 bd
       -0.07650214 0.013404374 0.022590462 -0.07458506
000230 1f 6b f9 3b ef 29 f1 bc ce 08 e2 3d 01 1e 2b be
       0.007611647 -0.02943894 0.110368356 -0.16710664
000240 72 40 4e 3d f4 d1 eb bd bf 18 f6 bd d2 3d a9 3c
       0.05035443 -0.11514655 -0.12016439 0.020659361
000250 1b b7 96 bd 2d c5 12 3e ee 0d e7 bb b8 18 3b be
       -0.07359143 0.14333029 -0.007051221 -0.18271148
000260 0d 3b cd bc d6 40 02 be 91 ea 1e bd 1d 76 bb 3d
       -0.025052572 -0.12720045 -0.03879792 0.09153388
000270 1a ee 44 be 1c e8 b2 3d 58 9b bb 3d 15 da ee bc
       -0.19231454 0.087356776 0.09160489 -0.029156724
000280 94 ed e2 bd 4f 29 c3 3d 21 08 cb 3d 83 00 a3 bc
       -0.11080471 0.09529363 0.0991366 -0.019897705
000290 4c 37 21 be 7b a6 fb 3d e0 a5 fb bd 36 fc a7 ba
       -0.1574375 0.12287613 -0.122874975 -0.0012816254
0002a0 13 79 a1 3d fc 20 eb bb 98 46 cb 3d f4 c9 e5 bd
       0.07884421 -0.007175563 0.09925574 -0.1122016
0002b0 3c 3f 7f bd bd a2 81 bc 30 5d ac bd 91 8b 19 bd
       -0.062316164 -0.01582467 -0.084162116 -0.037486617
0002c0 0a 70 ff bd a9 c1 2e bd 4e 87 d7 3d d3 e1 81 3d
       -0.12472542 -0.042665157 0.10523854 0.06341901
0002d0 98 0c 4c 3c 9b 81 2e bc 66 98 3f bd b2 65 62 bc
       0.012454174 -0.010651018 -0.046776198 -0.013818191
0002e0 3a 4f 98 bd b2 f6 f1 3d 1c 6b 06 be 80 38 04 be
       -0.07436986 0.118146315 -0.13126796 -0.12912178
0002f0 7f ab 44 bd 16 8a 0b be 5c ce b7 bd 36 21 7a 3e
       -0.048015114 -0.13626894 -0.08974907 0.24426731
000300 95 67 f9 3d e7 5b 82 be b7 2c 31 3e d5 72 a3 bd
       0.1217796 -0.2546074 0.17302214 -0.07980887
000310 9f a6 e2 3c 5d ca 8e 3c b3 7d fb bd 23 3e 91 3c
       0.027667342 0.017430479 -0.122798346 0.017729824
000320 d5 a1 55 3c af 84 8e 3d 7b d5 2e be ca 0b d9 3d
       0.013039072 0.06958901 -0.17073624 0.10597952
000330 b1 20 38 bd b4 24 e8 bd 86 fd 56 3e db df 79 be
       -0.044953052 -0.113351256 0.20995149 -0.244018
000340 27 f2 00 3e 46 95 ce bb a7 09 60 bd 00 1d bd 3c
       0.12592374 -0.006304416 -0.054696705 0.023085117
000350 84 dd b3 bd ff e5 08 3c d4 32 31 3d 9b 5a d8 bd
       -0.08782485 0.008355617 0.043261364 -0.105641566
000360 fa 46 8c bc 84 bc 10 be cb 81 13 3e 17 b2 2e bd
       -0.017123688 -0.14134413 0.14404981 -0.04265031
000370 62 ee 65 3c 14 d2 42 3d de b9 7f bd 08 51 17 3e
       0.014033886 0.047563627 -0.062433116 0.14777005
000380 4f c8 50 3e 61 bb f0 3d 13 bd 02 3d 5c 20 77 be
       0.20388912 0.1175449 0.031918596 -0.24133438
000390 34 31 60 be 4e d0 06 3e 56 cb d5 bd ce b6 78 bd
       -0.2189377 0.131654 -0.10439174 -0.06072121
0003a0 4f 82 d2 3d 62 e7 b4 3c cf 92 f1 3d 14 57 00 3e
       0.10278761 0.022082988 0.1179558 0.12533218
0003b0 05 ff 87 3c 24 ad e9 bc ec ed b8 bc c4 a4 85 bd
       0.016601095 -0.028524943 -0.022574387 -0.06525567
0003c0 95 ce 24 bd ac 5d c4 bb 6e e9 a4 3d 49 22 0c 3e
       -0.040236074 -0.005992612 0.08052336 0.13684954
0003d0 e6 4c 8b 3d 9a 3c 9f 3d dd 7c 02 bd 36 7c ba bd
       0.068017766 0.07775231 -0.03185736 -0.091057226
0003e0 17 a3 50 bc ed 4d c8 bb 18 64 1d be 45 9a 8a bd
       -0.012734196 -0.006112805 -0.15370214 -0.06767706
0003f0 04 99 9e 3c ae 07 60 be e6 ca 38 3d e6 7d 3c 3e
       0.019360073 -0.2187793 0.045115374 0.18407401

cells.0.h2h.bias f4 [256]
000000 bc d9 2b 3e 5b 98 68 bd 35 37 96 bd 26 0d d3 3d
       0.16782278 -0.056785922 -0.07334749 0.10305242
000010 36 d1 7e 3d 8b 70 10 bd e8 b5 d6 bc 9e 09 27 3e
       0.062211238 -0.03526358 -0.026209787 0.16312262
000020 9f dc cd 3d 5d ab 15 3e ea e1 f4 3d 77 22 33 bc
       0.10051846 0.14616151 0.11957152 -0.01093351
000030 8f 48 a9 bd dd 69 e6 3d 49 aa 8a 3d 64 51 2b 3e
       -0.082657926 0.112506606 0.067707606 0.16730267
000040 cd 4b 10 3e 2a a3 f3 3d 22 c8 d9 bd 8a 26 79 3d
       0.14091416 0.118963555 -0.106338754 0.06082777
000050 f0 85 0c 3e 69 67 94 bd f8 d0 ab 3d 31 fb b5 3d
       0.13722968 -0.072462864 0.08389467 0.088858016
000060 15 60 ec 3d 92 17 15 3d ba 1e 17 3e 9b af 27 3e
       0.11541764 0.03639943 0.14757815 0.16375582
000070 55 42 c7 bc 0f 6a 3b 3d 9f 37 a8 3d 62 ab 19 3e
       -0.024323622 0.045755442 0.08213734 0.15006784
000080 67 c7 7f 3b 7a 8a ae 3d 14 45 8d 3d 0f 1c ac 3d
       0.0039028765 0.08522506 0.06897941 0.08403789
000090 54 f1 17 3e 4b 39 44 3e a3 fe 87 3d 34 9f 3e 3d
       0.14838153 0.1916248 0.06640365 0.046538547
0000a0 23 cd 13 3e f0 1f 3d 3d 23 60 2a 3d 38 73 45 3e
       0.14433722 0.046173036 0.04159559 0.19282234
0000b0 3c 7a f5 3d dc 8a 97 bd 5c a2 b6 bb f7 5b fe 3c
       0.11986205 -0.07399532 -0.005573554 0.031049712
0000c0 80 6a 84 3d d2 d5 2a 3e 7a 48 01 3e 20 f1 d8 3d
       0.06465626 0.16683128 0.12625304 0.10592866
0000d0 f1 06 1f 3e bd 59 b7 3d 66 f2 f7 3d 0b 12 a6 bd
       0.15529992 0.08952663 0.12106781 -0.0810891
0000e0 d6 86 a9 3d bd 99 89 bd f6 b6 9f 3d 6a c2 15 3e
       0.08277671 -0.067187764 0.07798569 0.14624944
0000f0 9e 36 61 3e 2c 9f ce bc 02 6e a2 3b dc 7e 28 3e
       0.21993491 -0.025222383 0.0049569616 0.16454643
000100 f0 62 6b bd ae 71 6c bc 99 9e 74 bd d0 bc 81 3c
       -0.0574674 -0.0144314 -0.059721563 0.015837103
000110 e2 b5 2e bd c3 28 f1 3d 10 7c ac 3d 5a dc 24 bd
       -0.042653926 0.11775353 0.084221005 -0.040249206
000120 b3 18 84 bd 7e 3b 2a 3d 0a b0 11 3e 96 58 99 bd
       -0.064500235 0.041560642 0.1422731 -0.074875996
000130 37 c5 a4 bd 9e bb 0a 3e 88 b8 4e 3e e0 6a 1a 3e
       -0.08045428 0.13548133 0.2018758 0.15079832
000140 9e 7b 7a 3d ec 1a 89 bd 84 4d f7 bc 8d 4d e0 bc
       0.061153047 -0.06694588 -0.03018833 -0.02738073
000150 8b ab 56 3d fe 64 fc bd 23 3c f8 3c 0f 4a ef 3c
       0.05240969 -0.1232395 0.030302113 0.029210119
000160 f3 d9 93 bd 86 5e 9f 3d 18 93 e9 3d 74 09 45 bc
       -0.07219305 0.07781701 0.11405009 -0.01202618
000170 7b 5a 18 3e 2a f6 69 3d 8b 09 1b 3d b7 cb 8b 3b
       0.14878266 0.057119526 0.037850898 0.004266228
000180 53 d3 80 3d bd 0b 66 bd e9 2d 91 3d a2 34 9a bd
       0.06290307 -0.05616354 0.07088835 -0.0752957
000190 d6 fd 12 3e 06 4d 9e 3d 8a 51 e3 bc af e4 4a 39
       0.14354643 0.07729535 -0.027748842 0.00019349412
0001a0 65 9f a9 bd 93 5a a5 3d 9a e7 a2 bd 9c d5 dc 3d
       -0.08282355 0.08073916 -0.07954331 0.1078293
0001b0 4d 89 a2 bd dd 71 f0 3d bd d2 4a bc 20 14 73 bd
       -0.07936344 0.11740468 -0.0123793455 -0.059345365
0001c0 c3 c1 dc 3d 5c 4a 0c bd f1 a4 d5 bc a1 1c 2f bd
       0.107791446 -0.034250602 -0.026079627 -0.042751912
0001d0 68 82 1a bd 1d 7e 8a 3b f0 57 a5 bd 21 2a 27 bd
       -0.03772202 0.0042264597 -0.08073413 -0.04081166
0001e0 fa 0b cf bc d7 9e 14 3d c7 02 09 be fd 3c c5 3d
       -0.025274266 0.036284294 -0.13379966 0.09630773
0001f0 ad d3 2a bd f6 ef e1 3d cd d3 a9 3d 08 dc b5 3d
       -0.041705776 0.11032097 0.08292351 0.08879858
000200 1d 6a e3 3d f1 09 cb 3d 7f 43 a0 3d 49 19 03 be
       0.11104224 0.099140055 0.07825374 -0.12802614
000210 44 e1 00 be 90 6f db bd 96 d7 c5 3d 39 3c c6 bb
       -0.12585932 -0.10714638 0.096602604 -0.0060496596
000220 ea 08 ab 3d f6 03 af bd c2 39 11 bd da b8 0c 3e
       0.083513096 -0.08545677 -0.035455473 0.1374239
000230 f0 b2 ab bd 6d f3 fb 3d f5 50 f4 3d c7 ae 8f bd
       -0.08383739 0.12302289 0.11929504 -0.07015758
000240 3f 7b 28 bd 9d 2d 9e bd e9 99 7f 3d 83 e0 3a bc
       -0.04113316 -0.07723544 0.06240264 -0.011406067
000250 e1 aa 80 bd 54 c0 b5 3d d1 c8 6d 3d 2a 3c e2 3d
       -0.062825926 0.08874574 0.05805284 0.11046632
000260 21 2b ff 3d 26 f3 fc bd 7f c4 14 3d c5 9c fe bd
       0.12459398 -0.123510644 0.036320206 -0.12432245
000270 3e aa 80 bd 78 02 0b 3d 2c 4f 53 bd 3f 13 a7 3d
       -0.06282471 0.0339379 -0.051589176 0.08157968
000280 45 f2 00 3d c1 1a b7 bd 55 3f 44 bc e1 06 8b 3c
       0.031481046 -0.0894065 -0.01197799 0.016971054
000290 da d4 a8 bc 79 64 a5 bd 3d a5 c3 bb 1d be a8 bd
       -0.020609308 -0.08075804 -0.0059706257 -0.08239386
0002a0 0c 5b db 3d bb de 49 bd f0 e2 92 3d 98 06 d2 3d
       0.10710725 -0.049284678 0.07172191 0.10255164
0002b0 98 2e d0 bd d4 42 a9 bd 6d f2 58 bd 2f 61 6f bd
       -0.10165137 -0.082646996 -0.05296557 -0.05844229
0002c0 bf 9c 39 3d 3e 83 19 3d 48 ef 69 3d 92 45 e9 bd
       0.0453155 0.037478678 0.057112962 -0.113902226
0002d0 84 02 75 3c 11 87 b0 3d 25 4f bf 3d 28 18 b9 bd
       0.014954213 0.08619512 0.093412675 -0.090378106
0002e0 3d 7a f6 bd 87 6b 13 3d 9a 0c a7 bb 40 6e 00 be
       -0.12035034 0.035991218 -0.005097938 -0.12542057
0002f0 f3 d5 aa 3c a9 9f 54 3c f0 8d a8 bd 46 f6 f4 3d
       0.020853972 0.012977519 -0.082301974 0.119610354
000300 28 d5 35 3e b0 01 cf 3d 17 5a 9c 3d b7 45 a8 3d
       0.17757094 0.10107744 0.07634371 0.08216422
000310 b6 64 a6 bd 55 ca 35 bd 69 af b2 3c 6a 32 48 3d
       -0.08124678 -0.044382412 0.021812158 0.048876204
000320 29 c7 7e 3d 06 cd 82 3d b7 94 97 3e ef ad a6 bd
       0.062201653 0.06386761 0.29605648 -0.08138644
000330 54 04 c7 bd aa 64 80 3e 93 40 3a 3c 38 dc c5 3a
       -0.097176224 0.250768 0.011367935 0.0015095538
000340 ec 7a e0 3d 0a b8 5b 3d 7e 99 7d 3d 18 b7 09 3e
       0.109609455 0.05364231 0.06191396 0.13448751
000350 10 78 89 3d 12 29 9e 3d 3e 22 03 bd ef 2e dc bc
       0.06712353 0.07722677 -0.032015078 -0.026877848
000360 7d 08 05 3e dc 2d 26 3e cb 3d 06 3e 99 db 91 3c
       0.1299152 0.16228431 0.1310951 0.017804908
000370 55 f5 1a bd f5 36 87 3d 73 e8 1f 3b c3 d4 f7 3d
       -0.037831623 0.06602279 0.0024400025 0.12101128
000380 f8 50 7e bd 14 41 35 3e d9 82 01 3d 89 a5 10 bd
       -0.062088937 0.17700607 0.031618927 -0.035314117
000390 57 b1 16 3d 88 1b e6 3d 93 53 cd 3b e1 61 77 bc
       0.03679022 0.1123572 0.0062660663 -0.01509902
0003a0 87 6b 4f bd 00 01 27 bd 4c da ba bd 52 5a e6 bc
       -0.050639655 -0.040772438 -0.09123668 -0.02811924
0003b0 cc f9 1f bc 1f 7e 1b 3e ad 40 b2 3d 7f 63 15 3e
       -0.009764146 0.1518483 0.08703742 0.14588736
0003c0 3b cb 24 3c aa 5a 5e 3c 4a 5d 3b 3e 4e 6e 94 bc
       0.01005822 0.013571421 0.18297306 -0.018119004
0003d0 03 6d a0 bd b1 7a 15 3d b9 d3 a9 3d c0 d9 c5 3d
       -0.07833292 0.03649396 0.08292336 0.09660673
0003e0 57 92 b4 ba 5c 5e ee bd db ac b1 bd 29 5c 71 bb
       -0.0013776523 -0.11639091 -0.08675548 -0.0036828613
0003f0 8a d0 ff 3d dc 90 e5 3d b8 55 21 3e a8 96 20 3e
       0.124909475 0.1120927 0.15755355 0.15682471

cells.1.x2h.weight f4 [256, 64]
000000 f7 64 ae 3d e5 a4 b0 3c 9c 7d 33 3d d4 c0 15 be
       0.08515351 0.021563003 0.043820962 -0.1462434
000010 93 23 6b bc 09 37 b2 bd cb 45 34 3c 68 fe 9c 3d
       -0.014351743 -0.087019034 0.011002968 0.07665712
000020 d2 3a 24 bd 10 18 9f bd 10 f1 56 3d 63 15 05 3e
       -0.040095158 -0.077682614 0.05247599 0.1299644
000030 b9 e0 d3 3b 5d 68 b6 3d 7d 5f 8c 3d 45 64 9c bd
       0.006465998 0.089066245 0.068541504 -0.076363124
000040 bf 80 30 bd e3 42 0b be 4d 00 7e 3d 8a ff 40 bb
       -0.04309153 -0.13599734 0.062012006 -0.0029449188
000050 35 af 12 be 2c e9 47 bb 8c e0 d3 3d 35 11 1a be
       -0.14324649 -0.0030503972 0.10345563 -0.15045626
000060 07 67 5f bd c4 29 bb 3b 70 02 eb 3d 32 98 c0 3c
       -0.054541614 0.005711766 0.11475074 0.023510072
000070 e5 96 92 3d 06 8d d3 bd 72 88 97 bd 64 65 28 3d
       0.07157687 -0.103296325 -0.07399072 0.04111232
000080 67 9c 93 3c 3d 0f 8a bd 0b e3 b6 3d a1 0c 94 bd
       0.018018914 -0.06741188 0.08930024 -0.07228971
000090 c8 ce 39 be 08 b9 e3 3b 39 c3 83 bb c6 06 bf bd
       -0.18145287 0.0069495477 -0.004021075 -0.09327464
0000a0 05 51 00 3e 7d 06 c1 bc b9 dd 32 3d 58 78 95 3d
       0.12530906 -0.023562664 0.043668482 0.072983444
0000b0 3a db 20 bd c5 04 a6 3d 45 44 bf bd 1c 62 ab bd
       -0.03927157 0.081063785 -0.09339193 -0.08368322
0000c0 84 b6 da bd da c4 a2 bd 9d 86 a2 3c 36 68 2f 3d
       -0.10679343 -0.07947703 0.01983958 0.042823993
0000d0 13 a0 4a 3d 95 2d 0d 3e 56 f8 fe 3c 7f 82 ac bd
       0.049469065 0.1378692 0.031124275 -0.08423328
0000e0 10 56 d9 bc 1b 84 9f bb a2 84 00 be 65 bf d9 bc
       -0.026530296 -0.004868043 -0.12550595 -0.026580522
0000f0 76 2b f0 3d 5f a2 1d be f3 67 a3 3d 4e 7b 0c 3d
       0.117270395 -0.15393971 0.07978811 0.03429728
000100 f3 a6 19 3d d9 2e 1b 3d e1 9a bd 3c 7f f5 2f 3c
       0.03751273 0.037886474 0.023145141 0.010739683
000110 16 93 af 3c e7 66 4e be f0 6e 18 3d e1 58 93 3d
       0.02143244 -0.20156442 0.037215173 0.07194687
000120 19 b4 1e 3e ba 48 d3 bc d4 c2 98 bd d1 90 a1 bd
       0.1549839 -0.025791515 -0.074590355 -0.0788895
000130 49 c9 c2 3d 34 06 68 3d 37 08 52 3c aa 29 40 bc
       0.09511048 0.05664654 0.012819341 -0.0117286835
000140 f9 19 59 3d 05 a6 60 bb bd 09 15 bd 3a c2 df bd
       0.053003285 -0.0034278643 -0.03638624 -0.10925718
000150 3d 7c 86 bd b3 ad a7 3d fa 40 03 3e 36 67 36 3e
       -0.06566665 0.08187427 0.12817755 0.1781281
000160 d2 d1 8d 3d c1 74 ef bd 79 d6 23 3e 37 fe ae bd
       0.06924786 -0.11692191 0.15999784 -0.085445814
000170 fd e9 b2 bd 15 31 07 3e ac 5d 13 3c 10 ec d0 bd
       -0.08736036 0.13202317 0.008994501 -0.10201275
000180 77 07 dd bd 6c fa 25 3d d2 53 31 3d 52 13 3f 3d
       -0.107924394 0.040522024 0.043292828 0.046649285
000190 84 95 c8 bd ef 23 1c bd 5d 26 80 3d ed 08 7f bd
       -0.09794143 -0.038120206 0.06257317 -0.06226437
0001a0 d1 cc 55 bd b0 f9 b1 3d 37 5c 49 bd ff 23 a3 3d
       -0.05219728 0.08690202 -0.04916021 0.0796585
0001b0 45 89 e1 3b a5 41 4e be b8 54 ac bd 64 fe 99 bd
       0.006882819 -0.20142229 -0.08414596 -0.07519224
0001c0 cf 08 f2 bc af 43 fb 3b b7 8b 0c 3e 78 9f 92 b9
       -0.029545216 0.0076679806 0.13725172 -0.00027966104
0001d0 e6 91 b5 bc ad 81 c4 3d fb 53 b7 bd 24 2a a6 bd
       -0.022164296 0.09595046 -0.08951565 -0.081135064
0001e0 a6 81 1e 3d db 02 a4 bc 36 9c 92 3d f8 01 24 3e
       0.03869786 -0.020020893 0.07158701 0.16016376
0001f0 ca df 23 3c 70 a0 f3 3d 6e 80 30 3e d4 ad 33 3e
       0.010002086 0.118958354 0.17236492 0.17546779
000200 fd b0 3c 3d db bb 47 bd 27 76 56 bd 5a d2 64 3d
       0.046067227 -0.048763137 -0.052358773 0.05586467
000210 ce 74 3f bd cd e7 a0 bd 4c 81 1b bd 9d 07 26 3c
       -0.046742253 -0.078567125 -0.037965104 0.010133651
000220 ba 24 f2 b9 83 30 0b be 24 74 67 bd 7d b7 00 3e
       -0.000461852 -0.13592725 -0.056507245 0.12569995
000230 9d d7 ce bd 7e bb 0a 3e 20 28 88 3d 18 5c cf bd
       -0.10099719 0.13548085 0.06648278 -0.10124987
000240 06 ef 7b 3d 3a 32 00 be d1 33 78 3d 25 28 8f bc
       0.061507247 -0.1251916 0.06059629 -0.017475197
000250 cf f7 0e 3d 51 e0 05 3d 2c e1 96 3d cf bc ed 3d
       0.034904297 0.032684628 0.07367167 0.11608278
000260 5b f4 a3 bc 88 9a e4 3d 64 f0 e2 bc 37 52 02 3d
       -0.020013979 0.11162287 -0.027702518 0.031816687
000270 d3 48 3a bc ef ac 03 bd af 52 ca bb 95 7d 95 3d
       -0.011369902 -0.032147344 -0.0061744074 0.072993435
000280 78 29 5f bd 54 3a 9b bd 45 07 17 3d 7b 49 17 3d
       -0.054482907 -0.075794846 0.036872167 0.03693531
000290 03 2e 01 3c 76 31 02 bd ba 3c d8 bd 8d b8 0e ba
       0.007884505 -0.03178545 -0.10558458 -0.00054443703
0002a0 fb 9a b1 bc 00 96 eb 3c 5b dd 6e bc 45 a1 a1 3d
       -0.021680346 0.028758049 -0.014579142 0.07892088
0002b0 d4 e6 b0 bd 7b 60 c3 bd b3 b5 ff bc 55 35 89 3d
       -0.08637777 -0.095398866 -0.03121457 0.066996254
0002c0 50 65 53 bc d2 3d a9 3c a5 30 01 3e 11 65 36 3d
       -0.012902573 0.020659361 0.12616213 0.04452998
0002d0 02 9f 16 3d ad c5 b6 bc f1 80 a4 3d 33 7c de bd
       0.036772735 -0.022311056 0.08032406 -0.10863533
0002e0 39 25 01 be c8 22 73 bd 12 f3 c0 bd b0 70 a4 3a
       -0.12611856 -0.05935934 -0.09421362 0.001254579
0002f0 57 39 11 bd 2e 7f a0 3d 3d 8d fd bc c5 ce 2a 3e
       -0.035455074 0.078367576 -0.030951137 0.16680439
000300 1d 91 a8 bc 47 d1 11 3c 9a 7d 0d 3e 66 bd d3 bc
       -0.020577008 0.008899993 0.13817444 -0.025847148
000310 75 7f 7c 3c 66 f9 9a 3c 3b 75 84 3c f5 ca 70 3c
       0.0154112475 0.01891775 0.016169181 0.014696826
000320 33 69 22 3c 20 a5 cc 3d 89 a0 63 3c c0 7b 99 bc
       0.009912777 0.099924326 0.013893255 -0.018735766
000330 f8 11 a0 bc 4d 70 fd bd da b6 68 3d d5 61 8f bd
       -0.019539818 -0.12374935 0.056815006 -0.07001082
000340 a7 23 a6 3d 36 26 37 bd 98 40 bf 3c 38 d6 20 3d
       0.08112269 -0.044714175 0.02334623 0.039266795
000350 b2 13 c1 bd 88 51 9c 3c bb f8 c7 3d 37 04 c5 bd
       -0.09427585 0.019081846 0.097642384 -0.096199445
000360 3b 65 b0 3d 1e 87 61 bd 6d 71 93 3d 81 12 d2 bd
       0.08613058 -0.0550605 0.071993686 -0.102574356
000370 5a 2d 23 be ad 99 b3 3d 56 29 28 3d 90 b5 b1 ba
       -0.15935269 0.08769546 0.041055046 -0.0013558138
000380 83 d5 04 be 9b 83 9d 3d 01 31 97 bd bc d2 18 be
       -0.12972073 0.076911174 -0.07382394 -0.14924139
000390 1f 7b 1c 3d 19 c7 f3 3c 0b d3 04 be 80 08 f0 bd
       0.038203355 0.029758023 -0.12971132 -0.11720371
0003a0 66 49 09 3e 77 a0 3f bd c8 fb e3 3d 37 9e 81 bd
       0.13406906 -0.04678389 0.11132008 -0.06329005
0003b0 54 63 e2 bd 97 b2 aa 3d 63 5f 9f bd 27 60 ac bd
       -0.110541016 0.083348446 -0.077818654 -0.08416777
0003c0 b4 9b b0 bd ac 74 c4 bd ab a7 45 3d 33 d2 05 3e
       -0.08623448 -0.09592566 0.048255604 0.13068466
0003d0 41 5e 88 bd 9d 54 18 3e aa 83 c3 3c 5b 14 db 3c
       -0.066586025 0.14876027 0.023866493 0.026743105
0003e0 17 3e 8a bb 8b ca 0f bb e8 c5 bf bd f3 b1 12 be
       -0.0042188275 -0.0021940793 -0.093639195 -0.14325695
0003f0 88 04 c8 3d 85 ea 86 bc 89 35 28 3e 78 93 c8 3d
       0.09766489 -0.01646925 0.16426672 0.097937524

cells.1.x2h.bias f4 [256]
000000 9b 6b 86 bd 73 fa 38 3d db 44 7b 3d ca 59 83 3d
       -0.06563493 0.045160722 0.061344963 0.0641361
000010 ab f9 ee bb 03 16 bf 3d b3 97 98 3d de 73 9c 3d
       -0.0072929463 0.0933037 0.07450809 0.076392874
000020 5b b7 e2 3d 12 ec be bc ce 38 7f 3c aa fc 09 3e
       0.110701285 -0.023305926 0.015577508 0.1347529
000030 0f 9b d1 bc 09 29 38 3d a4 d3 97 bd d9 6f b1 3d
       -0.025586633 0.04496101 -0.07413414 0.08663911
000040 56 08 d3 3d 07 15 12 bc ab 1e 0d 3e b6 b6 bf 3d
       0.10304324 -0.008916146 0.1378123 0.09361021
000050 fd 42 06 3e 4f 36 b8 bd c7 a9 37 3e 14 82 ae 3d
       0.13111492 -0.089947335 0.17935859 0.08520904
000060 41 68 27 ba eb df aa 3d a8 83 4b bd 0b de 2f 3d
       -0.00063860795 0.0834349 -0.049686104 0.042936366
000070 38 57 e6 3d 7b 04 2d 3e 23 78 0d 3d a7 44 ae bd
       0.112471044 0.1689624 0.0345384 -0.08509188
000080 c2 a1 44 3d a6 91 aa bd 48 ba 68 bc 55 5f ab 3d
       0.048005827 -0.083285615 -0.014204569 0.083677925
000090 de ea 76 bd 5b de 02 3e fe 9e 9a bd 9b 27 96 bd
       -0.06028258 0.12780134 -0.075498566 -0.07331773
0000a0 28 ea 92 3d 1a fa ca bc 04 d0 f7 3d 9a e0 90 bd
       0.07173568 -0.02477746 0.12100223 -0.07074089
0000b0 fc 35 53 3e f9 e4 91 bd 23 4f 8f 3d 93 48 a8 3d
       0.20626062 -0.07123751 0.06997516 0.082169674
0000c0 e0 04 29 3d 3a 54 72 3e 48 2b 25 3d b2 d3 af ba
       0.041264415 0.23664942 0.04032448 -0.001341453
0000d0 27 19 3d 3d 54 ee 80 bd 26 a9 a7 3d 01 e9 92 3d
       0.046166565 -0.062954575 0.081865594 0.07173348
0000e0 14 3e 92 3d a5 f2 b8 bd 37 04 41 3e b8 ed c1 3d
       0.07140747 -0.09030656 0.18849264 0.094691694
0000f0 35 f4 0d 3e 15 7a 31 3d 69 5d 1b bc d5 dd b5 bd
       0.13862689 0.043329317 -0.00948272 -0.08880202
000100 f5 da f8 3d ef 77 30 bd 0a 81 de 3b 36 3a 19 bb
       0.12151138 -0.043083128 0.006790285 -0.0023380644
000110 35 92 cc 3b de 91 19 ba c9 cb b0 3d df e5 91 3d
       0.006243015 -0.0005858223 0.08632619 0.071239226
000120 3c d9 a7 3b a4 33 ef 3d df 80 45 bd 21 71 0f 3e
       0.005122332 0.116797715 -0.048218604 0.14007999
000130 4b d3 c4 3d 72 2f 96 3d bf e4 4d bb fd 99 4d 3d
       0.096106134 0.07333268 -0.003141686 0.050195683
000140 62 13 0d 3e 32 82 97 3d 2a 69 9b 3d 03 46 23 bd
       0.13776925 0.0739788 0.07588418 -0.03986169
000150 bb 76 b6 3d 3e 4c ad 3d 0f b3 d4 3d 07 aa a9 bd
       0.08909365 0.08461808 0.10385715 -0.08284383
000160 ac 10 9f bd 71 56 e8 bd 12 bd 1a 3d fc 45 1c 3b
       -0.07766852 -0.113446124 0.037777968 0.0023845425
000170 0d d1 66 3d 57 0c bd bd d5 9d 19 bd 0a 11 8e 3c
       0.05635171 -0.09230869 -0.037504036 0.01734211
000180 19 d4 1a 3d e2 3b 49 3b 19 da bd bd fc a2 5d 3c
       0.03779993 0.003070586 -0.092701145 0.013527628
000190 0a 51 7c bd 8b 70 ba 3d b1 d5 e3 3d a5 db d8 bd
       -0.061600722 0.09103497 0.11124743 -0.10588769
0001a0 2c d2 c1 bd 1e 29 ba 3c 46 ba de bb ae 2d 6b 3d
       -0.09463915 0.022724684 -0.006797108 0.05741661
0001b0 ba c1 95 3d 21 b7 e7 3c bc bb 89 bd 17 d4 c2 bd
       0.07312341 0.028285565 -0.067252606 -0.09513109
0001c0 ab 2a 79 bd 64 f9 93 3d 31 b3 25 bd 92 85 e6 3d
       -0.060831707 0.07225302 -0.040454093 0.11255945
0001d0 c4 2b a0 3c f0 bb 2f bc 4b 20 96 3d ef 0f 73 3d
       0.01955212 -0.01072596 0.07330378 0.059341367
0001e0 42 4d e1 bd 18 2d d6 3d 2a 3d 92 3a 44 5a 04 bd
       -0.11001064 0.1045782 0.0011157144 -0.032312647
0001f0 70 7b 49 bd ac 19 0f 3b 09 4f a7 bc 9c 00 1d 3c
       -0.049189985 0.002183537 -0.02042343 0.009582665
000200 38 59 ed bd b5 58 8f bd ad cd a6 3d 42 57 82 bd
       -0.11589283 -0.069993414 0.08144698 -0.06364299
000210 49 0c 0d bb 3a bf c8 bd de c6 d1 bc ab f7 58 3d
       -0.0021522215 -0.098020986 -0.025607523 0.05297057
000220 8a 60 79 3d 32 8b a2 3d f7 2d ed bd f8 16 bb 3b
       0.060883082 0.07936706 -0.11581033 0.005709525
000230 b1 c3 bc bd 69 54 ee 3d 9f 08 af bd 29 67 c0 bd
       -0.09217013 0.11637194 -0.08546566 -0.09394676
000240 9b c0 8a 3c 81 38 a5 3d c9 59 a3 bd 0e 73 d9 bd
       0.016937545 0.08067418 -0.079761095 -0.10617648
000250 fc f4 e8 3d f5 e1 04 3e 14 e6 e3 3d 52 01 4a 3d
       0.11374852 0.12976821 0.11127868 0.049317665
000260 bf fa b9 bd d1 03 81 3d 99 9a 23 bd 4c d2 b9 bd
       -0.09081029 0.06299556 -0.039942358 -0.09073314
000270 a6 9c ee bd cb d3 18 3c a0 75 07 3e 39 b6 4e 3c
       -0.11650972 0.009327839 0.13228464 0.012616687
000280 59 6c 23 bd 4d b6 46 bd e6 1a ed bd 4e 37 60 bd
       -0.03989825 -0.0485137 -0.11577396 -0.054740243
000290 9f 84 97 3d cb 80 06 3e 4c 22 a0 bd 05 a3 f2 3d
       0.07398342 0.13135068 -0.078190416 0.118475
0002a0 5d 44 1c 3d e6 b3 d3 bd 96 fa c6 3d d2 97 d9 3d
       0.038151134 -0.10337047 0.09715764 0.106246606
0002b0 a6 e3 83 bd dd 18 a0 bd e5 c2 dd bd d7 72 7d bd
       -0.06439905 -0.07817242 -0.10828189 -0.061877098
0002c0 46 c4 16 3d 1a f5 e2 bc 17 c9 1f bd f8 ff c4 bc
       0.036808275 -0.027704764 -0.039010134 -0.024047837
0002d0 a2 06 21 bd 45 be d9 3d ec 43 a8 3d 8b 11 af 3d
       -0.039312966 0.10631994 0.0821608 0.08548268
0002e0 2f 3f aa 3d 46 89 a3 bd ed fa ad 3d 07 64 af bd
       0.083128326 -0.07985167 0.08495126 -0.085640006
0002f0 56 a4 30 3d 0c e7 3a bb 2c 42 bb 3b 92 5a 90 3d
       0.043125473 -0.0028519062 0.0057146754 0.07048525
000300 9c d1 10 3e 04 f8 9d 3d 00 19 ad 3d af b6 87 3c
       0.1414246 0.07713321 0.08452034 0.016566603
000310 ef 41 59 3d a9 db 72 bc 61 fb 33 3d 69 78 05 3c
       0.053041395 -0.014822879 0.043940905 0.008146384
000320 23 69 24 3d 57 14 3f 3d 58 c7 16 bb 49 4a 19 3e
       0.04013933 0.046650257 -0.0023007002 0.14969744
000330 fd 8a 50 3c 27 75 47 3c 4e 76 05 3e 40 2b 73 3d
       0.01272845 0.012173927 0.13033411 0.05936742
000340 99 d9 0b bd 97 6a b0 3c 09 35 4c 3d 5b 4e 58 bd
       -0.034143064 0.021535201 0.049855266 -0.0528091
000350 b1 2e 69 bc 62 5f cc bd e5 c4 2e 3e 5c 14 68 3d
       -0.0142323235 -0.0997913 0.17067297 0.05666004
000360 58 9b e6 bd 2c 0f 01 bd 81 a1 0b bd ea c3 04 3e
       -0.11260098 -0.03150861 -0.03408957 0.1296536
000370 d0 5d 26 3d 40 50 7a 3d 85 ec 4d 3d 66 1b ba bc
       0.04061681 0.06111169 0.05027439 -0.022718143
000380 48 43 65 3c 43 4d 4f 3c ff c6 ff 3d 0a 6a a8 3d
       0.013993092 0.012652698 0.12489127 0.0822335
000390 3b bc 36 bd ca 0b 0f 3e 4c e3 f4 38 83 61 35 bd
       -0.044613104 0.13969341 0.00011677164 -0.044282448
0003a0 5c b1 2a 3d 72 2a b1 3d 97 22 a5 bd ce 27 ae bc
       0.04167305 0.08650674 -0.08063238 -0.021259215
0003b0 80 8e af 3c 89 5a 9a 3d aa af ac 3d a4 4b da 3d
       0.021430254 0.075367995 0.08431943 0.106589586
0003c0 e6 23 cb 3c 7e 8d 0a 3e 52 58 f0 3d 88 84 5b bd
       0.024797391 0.13530537 0.11735596 -0.05359319
0003d0 6a 28 a9 3c 51 a6 74 bc 81 26 c1 3c e8 61 33 3c
       0.020649154 -0.014932231 0.02357793 0.010948636
0003e0 55 4d c1 bd 63 ac ce bd 11 2d 45 3e 86 de 95 bd
       -0.09438578 -0.10091474 0.19255473 -0.073178336
0003f0 b5 d2 2c 3d db 2f d3 3d 3e 01 ad 3b a8 4b cc bd
       0.042193133 0.10311862 0.005279689 -0.09975368
