model_street/models_street_all/LSTM_model_4 AVENUE.pth (torch, 358184 bytes, 17 tensors)

input_projection.weight f4 [9, 9]
0	0xbe9957e1	-0.2994986
1	0x3e131a88	0.1436559
2	0x3db9f3e1	0.09079719
3	0xbdee7f94	-0.11645427
4	0x3ea0eef3	0.31432304
5	0xbd8e5bb2	-0.06951083
6	0xbe7331ed	-0.23749514
7	0x3deaaf97	0.11459272
8	0xbea61e3f	-0.3244495
9	0x3c4c618d	0.01247443
10	0xbd7d0c2a	-0.06177918
11	0xbe855ba7	-0.26046488
12	0xbebfabfd	-0.37435904
13	0xbe9a5af9	-0.30147532
14	0xbe6bafe1	-0.23016311
15	0x3dac7088	0.08419901
16	0xbeb0214a	-0.34400398
17	0x3e2a8cd3	0.16655283
18	0xbe4a894b	-0.19778936
19	0xbe0a5232	-0.13507918
20	0x3e2bef34	0.16790468
21	0xbc795779	-0.015218609
22	0xbe6e978d	-0.233
23	0x3e1ee584	0.15517241
24	0xbc3f006e	-0.011657817
25	0x3d7403d2	0.059573956
26	0x3e6ca0b0	0.23108172
27	0xbecb5185	-0.39710632
28	0x3cf109de	0.02942365
29	0x3cef115b	0.02918308
30	0xbe8cff30	-0.27538443
31	0x3e8124c9	0.25223377
32	0xbe01c685	-0.12673385
33	0xbe91de6e	-0.28490013
34	0x3e46eb75	0.19425757
35	0x3da271c6	0.07931857
36	0x3d86bdd6	0.06579177
37	0x3de8c5a3	0.11365821
38	0x3eafe8d3	0.34357318
39	0x3e96450a	0.29349548
40	0xbd0bce39	-0.034132216
41	0x3e289201	0.16461946
42	0xbd8ced08	-0.068811476
43	0xbe6bab39	-0.23014535
44	0x3e7e8c98	0.2485832
45	0x3db4d219	0.088291354
46	0xbcf8f815	-0.030391732
47	0x3e819850	0.25311518
48	0xbe051358	-0.1299566
49	0xbd3ab9bc	-0.045587286
50	0xbd8ad475	-0.06778804
51	0x3e15d090	0.14630342
52	0xbba39ce6	-0.004993069
53	0x3e07f1f6	0.13275895
54	0x3e85d07d	0.26135626
55	0x3d57a440	0.052646875
56	0x3ca8f10e	0.020622756
57	0xbd214bc2	-0.03937889
58	0x3e8086bb	0.2510279
59	0xbb4aebc3	-0.003096328
60	0xbd728d91	-0.05921704
61	0xbd7e73f3	-0.062122297
62	0xbe43986e	-0.19101116
63	0xbea220a5	-0.3166553
64	0xbec460d7	-0.38355133
65	0x3e85ff63	0.26171407
66	0xbe3cef8f	-0.1845076
67	0x3e607cb3	0.21922569
68	0x3da1d103	0.07901194
69	0xbe9f0e41	-0.31065562
70	0xbe7b3317	-0.24531208
71	0x3de7d020	0.113189936
72	0xbc8c708f	-0.017143516
73	0x3e03ea47	0.12882338
74	0x3cb0d107	0.021584047
75	0x3d4a24d2	0.04935152
76	0x3db63faf	0.088988654
77	0xbe6e80a6	-0.23291263
78	0x3c97d14a	0.018532414
79	0xbe9507cd	-0.29107514
80	0xbe67d42b	-0.2263953

input_projection.bias f4 [9]
0	0xbe3f20cf	-0.18664859
1	0x3e1aa342	0.1510134
2	0x3ea4bac8	0.32173753
3	0x3e638766	0.22219619
4	0xbe7c4bf4	-0.24638349
5	0xbdba376a	-0.09092601
6	0xbdc383e5	-0.09546641
7	0x3d054c47	0.032543447
8	0x3e7e94d5	0.24861462

cells.0.x2h.weight f4 [256, 9]
0	0xbe3c4c84	-0.18388563
1	0xbe98f021	-0.29870704
2	0xbe692e83	-0.22771649
3	0xbea259c1	-0.31709102
4	0xbe1d5f21	-0.1536832
5	0xbe6c8205	-0.23096474
6	0x3deb45f8	0.11487955
7	0xbe6cae17	-0.23113285
8	0x3e23c026	0.15991268
9	0x3ddd9951	0.108202584
10	0xbe05de4e	-0.13073084
11	0xbe6f5ba4	-0.23374802
12	0x3db249ab	0.08705457
13	0xbd8ce327	-0.06879263
14	0xbc5d18ed	-0.013494712
15	0xbe398cdb	-0.18120138
16	0xbe2e1d4c	-0.17003363
17	0xbea0b358	-0.31386828
18	0x3e38336c	0.17988366
19	0x3d493aae	0.049128227
20	0x3e1ccef4	0.15313321
21	0x3e88b1f7	0.26698276
22	0x3d2ff0ba	0.042954184
23	0xbdeade66	-0.114682004
24	0x3e18a57f	0.14906882
25	0x3e95a8a9	0.2923024
26	0xbe8718a2	-0.2638598
27	0x3e823ca7	0.254369
28	0x3e85fabc	0.26167858
29	0x3dc877b4	0.097884566
30	0xbe61f917	-0.22067676
31	0xbd896c57	-0.06710117
32	0x3d2afb84	0.04174377
33	0x3e2b62ef	0.16736959
34	0xbca174ef	-0.019709079
35	0x3e398aa4	0.18119293
36	0xbc8ef597	-0.01745109
37	0xbd031edd	-0.032011855
38	0xbccd7761	-0.025081338
39	0xbeabaa86	-0.33528537
40	0x3e6f99b5	0.23398478
41	0xbe84baa3	-0.25923643
42	0x3e074a3b	0.1321191
43	0x3cf53af9	0.029935347
44	0x3e1a9fbe	0.151
45	0x3dbfb6cc	0.093610376
46	0x3e45f1ec	0.19330567
47	0x3e3391d5	0.175361
48	0x3e02210f	0.12707923
49	0x3e4bb6a8	0.19893897
50	0x3e878896	0.26471394
51	0x3da2f2c7	0.07956462
52	0x3d24fa67	0.040277865
53	0x3dba6e22	0.091030374
54	0xbe8758f1	-0.26435044
55	0xbe019716	-0.12655291
56	0xbe57e6b7	-0.21084104
57	0x3cd40828	0.025882795
58	0xbe055f3d	-0.13024612
59	0xbe600a92	-0.21879032
60	0x3d45b227	0.048265602
61	0x3e4f7dfe	0.20262906
62	0xbde271d0	-0.11056864
63	0x3ab830fc	0.0014052684
64	0xbdfc0a4d	-0.12306652
65	0x3e9c64df	0.3054571
66	0xbd1cd42b	-0.038288277
67	0xb86d1507	-5.6524786e-05
68	0xbeab0ee9	-0.33409813
69	0x3e0ec6e2	0.13943055
70	0x3eb05c7b	0.34445557
71	0xbe5218d7	-0.20517288
72	0xbe4447bb	-0.19167988
73	0x3da0c457	0.07849949
74	0x3e0a07cb	0.13479535
75	0xbe5e7414	-0.21723968
76	0xbe6b9435	-0.23005755
77	0x3e8ad0d9	0.27112463
78	0x3e88cd54	0.26719153
79	0x3e883bb8	0.26608062
80	0xbd4370f4	-0.047715142
81	0xbe86d76e	-0.26336235
82	0x3c8e8db0	0.017401546
83	0xbeb4b7f5	-0.35296598
84	0xbe2b764e	-0.16744348
85	0x3ea9aaaf	0.33138034
86	0x3cfc7950	0.030819565
87	0x3e75c974	0.2400263
88	0xbdd39f63	-0.10333135
89	0x3d950fd2	0.07278408
90	0x3e6845ae	0.2268283
91	0x3e2792f6	0.16364655
92	0x3e5bad0e	0.21452734
93	0xbeb017b3	-0.3439308
94	0xbe398d2e	-0.18120262
95	0x3e427131	0.18988492
96	0x3e9bc27d	0.3042182
97	0x3e51ffae	0.2050769
98	0x3c841b11	0.016126188
99	0x3e862329	0.261987
100	0xbdcd73c1	-0.10031844
101	0xbe0bf765	-0.13668592
102	0x3e6117cb	0.21981733
103	0xbd3d8d98	-0.046277612
104	0xbead7a3a	-0.33882314
105	0xbcda99b7	-0.026684625
106	0x3e8db277	0.2767522
107	0xbe13a811	-0.14419581
108	0xbe518f70	-0.20464873
109	0x3c9d2ab4	0.019185401
110	0x3e3ee1cb	0.1864082
111	0xbe6a902f	-0.22906564
112	0xbdb9b512	-0.090677395
113	0xbe16b72b	-0.1471831
114	0xbdc908fa	-0.09816165
115	0x3ca8edf6	0.020621281
116	0x3ddb5e6a	0.107113674
117	0xbdd51f38	-0.10406345
118	0x3c7fdab3	0.015616107
119	0x3bd14a0b	0.0063870004
120	0x3db065e9	0.08613188
121	0x3e1b09f3	0.15140514
122	0xbe9d85fa	-0.30766279
123	0x3e924861	0.28570846
124	0xbe59bc5c	-0.2126326
125	0xbe5e80c8	-0.21728814
126	0x3d5d8c75	0.05408903
127	0x3d8bff34	0.068357855
128	0xbe651a3c	-0.22373289
129	0x3ddf6586	0.10908036
130	0xbde7bf8d	-0.11315832
131	0x3e5163e6	0.20448264
132	0xbd0f3135	-0.034959037
133	0x3e0401c3	0.12891297
134	0xbe3ac95b	-0.18240874
135	0xbe322f3c	-0.17400831
136	0xbe7effac	-0.24902219
137	0x3e900ff6	0.28137177
138	0x3e8d71ed	0.2762598
139	0xbd2ed1ae	-0.042680435
140	0xbe21fb34	-0.15818483
141	0x3e62c7d2	0.22146538
142	0x3dac0470	0.08399284
143	0x3e63a303	0.22230153
144	0x3d6d70f1	0.057969037
145	0x3e8a5d29	0.270242
146	0xbe17f148	-0.14838135
147	0x3e097d9e	0.13426825
148	0xbe91eab4	-0.28499377
149	0x3e5413bd	0.20710655
150	0x3e3c67d3	0.18398981
151	0x3dd0c782	0.10194303
152	0xbe51ba78	-0.20481288
153	0x3e83799d	0.2567872
154	0x3ea3aecc	0.31969297
155	0xbea8e923	-0.3299037
156	0xbeac8d7d	-0.33701697
157	0x3e945815	0.2897345
158	0x3e4d4f37	0.2004975
159	0xbdcfaaa6	-0.101399705
160	0x3c868fe4	0.016426034
161	0xbe63dddb	-0.222526
162	0x3e8ddbe4	0.27706826
163	0x3d8abf6b	0.06774791
164	0xbd287660	-0.041128516
165	0x3e44e400	0.192276
166	0xbe289e36	-0.16466603
167	0xbdd3c962	-0.10341145
168	0x3e839cc6	0.25705546
169	0xbd1362af	-0.035982784
170	0x3e5ec6d1	0.2175553
171	0x3dd9a782	0.10627653
172	0xbe144108	-0.14477932
173	0xbd321083	-0.043472778
174	0x3dd7737e	0.10520075
175	0x3e920a13	0.2852331
176	0x3e10fa02	0.1415787
177	0x3eb1047c	0.34573734
178	0x3e8b097b	0.2715567
179	0xbebe4966	-0.37165374
180	0x3e2b0aec	0.16703385
181	0x3db571fa	0.0885963
182	0xbe42e6b9	-0.19033326
183	0x3dde60e3	0.108583234
184	0xbe8ee44f	-0.2790856
185	0x3df75dae	0.12078415
186	0x3eb09d6f	0.34495112
187	0x3e06f254	0.13178378
188	0xbe4eb466	-0.20186004
189	0x3e439fc6	0.19103917
190	0xbe5ed7b9	-0.21761979
191	0x3d954cec	0.07290062
192	0xbe94143e	-0.28921694
193	0x3e822a2b	0.25422797
194	0xbe538f98	-0.20660245
195	0xbdb77bb2	-0.0895914
196	0x3e5ef007	0.2177125
197	0xbe6671c2	-0.22504333
198	0x3d5455e4	0.051839724
199	0xbe38e6db	-0.18056814
200	0xbea5843c	-0.3232745
201	0x3e1280f5	0.14307006
202	0x3d3d2695	0.046179373
203	0xbee622fc	-0.44948566
204	0x3d9321d7	0.07184189
205	0x3cf7df68	0.030257896
206	0x3de7b3d5	0.11313597
207	0xbd4105db	-0.047124725
208	0x3eafb6d2	0.34319168
209	0x3ce80461	0.0283224
210	0xbe86afdc	-0.26306045
211	0x3da3d3a6	0.07999353
212	0xbe8c3a8d	-0.2738842
213	0x3e024eff	0.12725447
214	0x3e1d2179	0.153448
215	0x3dbd65a7	0.09247904
216	0xbd96b474	-0.073586375
217	0xbe11575c	-0.14193481
218	0x3e7641ca	0.24048534
219	0xbd85b5ec	-0.065288395
220	0x3e8bb2b6	0.27284783
221	0xbdc6d4d6	-0.09708564
222	0x3eb3eee1	0.35143188
223	0x3daafab7	0.08348601
224	0x3dfb1662	0.122601286
225	0x3e16194b	0.14658086
226	0x3e4deb49	0.20109285
227	0x3e694fe0	0.22784376
228	0xbe26fbc7	-0.16306983
229	0x3ea1e873	0.31622657
230	0x3cdbd353	0.026834166
231	0xbd98aa94	-0.0745441
232	0xbe23c4a2	-0.15992978
233	0xbe162eb7	-0.14666258
234	0xbdb74608	-0.08948904
235	0x3e29e6da	0.16591969
236	0xbed30bca	-0.41219932
237	0xbe8859fd	-0.26631156
238	0x3bfc5cda	0.0077014985
239	0x3e5e3d4e	0.21703073
240	0xbd68b69c	-0.056814775
241	0x3e330cc8	0.17485344
242	0xbec49786	-0.38396853
243	0xbe2e57fb	-0.1702575
244	0xbe72d2ec	-0.23713273
245	0x3dd91958	0.10600537
246	0xbe59d6e9	-0.21273388
247	0xbe814c3a	-0.2525347
248	0x3d554077	0.05206343
249	0xbe84c809	-0.25933865
250	0x3d811642	0.063030735
251	0x3e14c36d	0.14527674
252	0x3e027a83	0.12742047
253	0xbc9bc33c	-0.019013993
254	0xbe251c17	-0.16123997
255	0xbe97ebeb	-0.2967218

cells.0.x2h.bias f4 [256]
0	0x3e8d2602	0.2756806
1	0xbe29d9c9	-0.16586985
2	0x3d9aaf18	0.07552928
3	0xbd4be874	-0.04978223
4	0x3e81ca98	0.2534988
5	0xbde67f7e	-0.11254786
6	0xbea83129	-0.32850006
7	0x3b2064c8	0.0024474133
8	0xbe8da083	-0.27661523
9	0xbda285a5	-0.07935647
10	0xbe6a1d89	-0.2286283
11	0x3e93cde0	0.28868008
12	0xbd397193	-0.04527433
13	0xbd38228f	-0.044954833
14	0x3dcb89ff	0.0993843
15	0xbdfc3d0e	-0.12316333
16	0x3d76248e	0.060093455
17	0x3dff3780	0.12461758
18	0x3d473fad	0.04864471
19	0xbec000f7	-0.37500736
20	0x3e1508a3	0.14554076
21	0xbd9cb186	-0.076510474
22	0xbd0a5d58	-0.033780426
23	0xbe46acb2	-0.19401816
24	0x3e77cf2e	0.24200127
25	0xbeb860bc	-0.36011302
26	0xbe95952a	-0.29215366
27	0x3d259ebe	0.04043459
28	0xbd2fe6af	-0.042944606
29	0xbeac7708	-0.33684564
30	0x3cf813d6	0.030282896
31	0xbd1525a6	-0.036412857
32	0xbe8fdf57	-0.28100082
33	0x3e12f98c	0.14353007
34	0x3e245cb9	0.16050996
35	0x3d293f74	0.04132028
36	0x3e639e93	0.2222846
37	0xbe816e79	-0.25279596
38	0x3d1bbc55	0.038021404
39	0x3d2398cd	0.039940644
40	0x3e4cb411	0.19990565
41	0xbe29c81c	-0.16580242
42	0xbc6a0b4d	-0.014284921
43	0x3da96b13	0.08272376
44	0xbe8d822f	-0.27638385
45	0xbe7f3a01	-0.2492447
46	0xbdff5104	-0.124666244
47	0xbd306109	-0.04306129
48	0x3ce6e447	0.028185023
49	0x3d012e1b	0.03153811
50	0x3e391d44	0.1807757
51	0xbe07230f	-0.13196968
52	0xbd0d0a23	-0.034433495
53	0xbda15c99	-0.0787899
54	0x3d441d5a	0.047879554
55	0xbebfb4de	-0.37442678
56	0x3e8ab2d6	0.27089566
57	0x3e1bc195	0.15210564
58	0xbeb4be38	-0.35301375
59	0xbdd77248	-0.10519844
60	0x3d86aeea	0.06576331
61	0xbdf599c4	-0.11992219
62	0x3d62b5e3	0.055349242
63	0xbe8587e6	-0.26080245
64	0x3e5406d1	0.20705725
65	0xbe817695	-0.25285783
66	0x3e396e1b	0.18108408
67	0xbe0d5b49	-0.13804354
68	0xbe668797	-0.22512661
69	0x3daa56fd	0.08317373
70	0xbec78261	-0.3896666
71	0x3e6c5200	0.23078156
72	0xbd2a1f5c	-0.041533813
73	0x3d658de6	0.056043528
74	0xbe950133	-0.29102477
75	0x3dcbfce9	0.09960348
76	0xbe8360f0	-0.25659895
77	0x3d8d9d74	0.069147974
78	0xbebe61a5	-0.37183872
79	0xbdd689eb	-0.104755245
80	0x3d06c538	0.032902926
81	0x3df00db4	0.11721364
82	0x3e6f6014	0.23376495
83	0x3e936c70	0.2879367
84	0xbe94c056	-0.2905299
85	0x3c04fe5b	0.008117284
86	0xbd2cc042	-0.04217554
87	0xbeb1e6e2	-0.34746462
88	0x3e595827	0.21225034
89	0xbe7513a2	-0.2393327
90	0x3bb5d6a5	0.0055492693
91	0xbe429c7a	-0.19005004
92	0x3e07bc9e	0.13255545
93	0x3e13ee38	0.14446342
94	0xbde5e569	-0.11225397
95	0xbe9b6cb5	-0.30356374
96	0x3e227a05	0.1586686
97	0xbe58be06	-0.21166238
98	0xbe065ac1	-0.13120557
99	0x3e2ae485	0.16688736
100	0x3e5114d6	0.20418105
101	0xbd27c754	-0.04096158
102	0x3c128dac	0.00894491
103	0xbe03d060	-0.12872458
104	0x3e804f00	0.25060272
105	0xbe377255	-0.17914708
106	0xbe888e47	-0.2667105
107	0x3e86ad0e	0.26303905
108	0xbc6486c3	-0.013948145
109	0xbe5a4aa2	-0.21317533
110	0x3e5f89e8	0.21829951
111	0x3dc2da56	0.095143005
112	0x3e89909a	0.26868135
113	0x3e1833f3	0.14863567
114	0xbe4b64f6	-0.19862732
115	0xbea6008c	-0.32422292
116	0xbe6ed740	-0.23324299
117	0xbea5bbc1	-0.32369807
118	0x3ccd5f26	0.025069784
119	0xbe235967	-0.15952073
120	0x3e70783d	0.23483367
121	0xbea69c17	-0.32540962
122	0x3e7a0d61	0.24419166
123	0xbe5ad0f0	-0.21368766
124	0xbe8b7856	-0.27240247
125	0xbd67580b	-0.05648045
126	0xbebca790	-0.3684659
127	0x3e726cfd	0.23674388
128	0xbe00d5dd	-0.12581582
129	0x3e2d468f	0.16921447
130	0xbd0c4e1a	-0.03425417
131	0xbc8d1c51	-0.017225416
132	0x3df8ca1c	0.12147924
133	0x3e103f09	0.14086546
134	0x3e2798ad	0.16366835
135	0x3e6e81ae	0.23291656
136	0x3e578a49	0.21048845
137	0xbdc20d36	-0.09475176
138	0x3e1ddf94	0.1541732
139	0xbdbba400	-0.0916214
140	0x3e4ff5d4	0.2030862
141	0x3de5daef	0.11223399
142	0xbca4d8ea	-0.020122964
143	0xbec1a216	-0.37818974
144	0x3e999ed6	0.30003995
145	0xbe203cb1	-0.15648152
146	0xbe458af4	-0.19291288
147	0xbe5d51f6	-0.21613297
148	0xbd0e280d	-0.034706164
149	0xbe4dccc5	-0.20097645
150	0x3d33b6d5	0.043875534
151	0xbcb9c41a	-0.022676516
152	0xbe050fa8	-0.12994254
153	0xbd46b8cc	-0.04851608
154	0x3e3dcb13	0.18534498
155	0x3e2475c5	0.1606055
156	0x3e480e86	0.1953679
157	0xbe7f2284	-0.2491551
158	0x3e94cd4f	0.29062888
159	0x3e50ccee	0.20390674
160	0x3d9ebd42	0.07750942
161	0xbd85289c	-0.06501886
162	0xbe6c161e	-0.23055312
163	0x3d91b111	0.07113851
164	0x3e38cf4f	0.18047832
165	0x3e629f7a	0.22131148
166	0xbd6a4cb8	-0.05720207
167	0x3c70479c	0.0146655105
168	0xbea74892	-0.32672554
169	0xbe45e5a2	-0.19325879
170	0xbd3a5fc3	-0.04550148
171	0xbba32d7b	-0.004979787
172	0xbd965da1	-0.07342077
173	0xbe86f00e	-0.26355022
174	0xbd81270e	-0.06306277
175	0x3e3bf54a	0.18355289
176	0x3e5c3b30	0.21506953
177	0x3d36a245	0.044588346
178	0x3c3c018d	0.011474979
179	0x3e0cab07	0.13737117
180	0x3e328b42	0.17435935
181	0xbe537211	-0.20648982
182	0x3da4cb02	0.08046533
183	0x3e333526	0.17500743
184	0x3e3d4640	0.1848383
185	0x3e8b37a3	0.27190885
186	0xbe84f568	-0.2596848
187	0x3d905e34	0.07049218
188	0xbe4103d7	-0.18849121
189	0xbd5e6df1	-0.054304067
190	0x3bce2511	0.0062910398
191	0x3e53965f	0.20662831
192	0xbe610bc6	-0.21977147
193	0xbd7018be	-0.058617346
194	0xbe2a2642	-0.16616157
195	0x3e5ab7c7	0.21359168
196	0xbde51f0b	-0.111875616
197	0x3dd002bf	0.10156774
198	0x3e4b2298	0.19837415
199	0x3e915408	0.28384423
200	0x3e6fe2b3	0.23426323
201	0x3ce2c212	0.02768043
202	0x3d889362	0.06668736
203	0x3e0932ee	0.13398334
204	0x3dfd5f89	0.123717375
205	0x3e839f75	0.25707594
206	0xbebbc021	-0.3667002
207	0xbe56d772	-0.20980623
208	0x3d1e070b	0.038580935
209	0xbe8d16ea	-0.27556545
210	0xbd3882a5	-0.045046467
211	0xbd427f0f	-0.047484454
212	0x3d95134b	0.072790705
213	0xbea7d1f7	-0.32777378
214	0xbeaba45c	-0.33523834
215	0x3e192cdc	0.14958519
216	0xbe7b2c2a	-0.24528566
217	0xbe498e9a	-0.19683304
218	0x3e4db8b1	0.20089985
219	0x3e8320b0	0.25610876
220	0xbe120ec2	-0.14263442
221	0xbe15937c	-0.14607042
222	0x3c346ac9	0.011011788
223	0xbe1f5043	-0.15557961
224	0x3e3aefca	0.18255535
225	0xbe915058	-0.2838161
226	0x3dd5e183	0.104434036
227	0x3e5031f2	0.20331553
228	0x3e87b369	0.26504067
229	0x3dc9302f	0.098236434
230	0x3e16d4e7	0.14729653
231	0xbd9ca379	-0.076483674
232	0x3db12462	0.086495176
233	0xbe186009	-0.14880385
234	0xbd131f05	-0.035918254
235	0xbe7a5acf	-0.24448703
236	0x3e59d144	0.21271235
237	0x3b13f442	0.002257601
238	0x3e944f6b	0.2896684
239	0xbeb77ec9	-0.35838917
240	0x3e62ef4b	0.22161596
241	0x3da244de	0.079232916
242	0xbdf84564	-0.1212261
243	0xbc9cb8e5	-0.019131133
244	0xbe803903	-0.25043496
245	0x3e218cbe	0.15776345
246	0xbe364cde	-0.1780276
247	0x3e811478	0.2521093
248	0xbe5984bd	-0.21242042
249	0xbd91c873	-0.07118311
250	0xbe364a12	-0.17801693
251	0x3d8e14a4	0.06937531
252	0xbe626c06	-0.2211152
253	0x3de7bf4c	0.11315784
254	0x3ce07974	0.027401663
255	0x3e292c28	0.1652075

cells.0.h2h.weight f4 [256, 64]
0	0xbd4d330f	-0.05009752
1	0x3d5c4b10	0.053782523
2	0xbe56ab5e	-0.20963809
3	0x3e094d40	0.13408375
4	0x3dcef2d3	0.10104909
5	0x3d3d3c35	0.046199996
6	0xbd0ff8e3	-0.035149466
7	0x3da960c3	0.08270409
8	0xbde8ba7a	-0.113636926
9	0xbc9d2eec	-0.019187413
10	0xbe0d3cc7	-0.13792716
11	0x3d0fdd43	0.03512312
12	0xbda6df95	-0.08148114
13	0x3d3a9a99	0.045557592
14	0x3c96b96f	0.018398969
15	0x3df7ba72	0.120961085
16	0x3d869439	0.0657124
17	0xbc5fb215	-0.013653298
18	0x3ddc0a5d	0.10744164
19	0xbc400b67	-0.0117214685
20	0xbe2e0669	-0.16994633
21	0xbdbf18da	-0.09330912
22	0x3c08fc61	0.008360953
23	0x3d1e4fb6	0.038650237
24	0xbb2ec302	-0.0026666527
25	0xbc88ab10	-0.016683131
26	0x3e1d2fb8	0.15350235
27	0xbc9ff0b6	-0.01952396
28	0xbc89dd70	-0.016829222
29	0x3de31209	0.11087424
30	0xbd969261	-0.07352138
31	0x3ce8dc50	0.028425366
32	0x3c1df17f	0.009640097
33	0x3db1c7d9	0.08680696
34	0xbb552d76	-0.0032528318
35	0xbd9b233f	-0.07575082
36	0xbc1a31a5	-0.00941125
37	0x3ca5dbd5	0.020246426
38	0xbd31408b	-0.043274444
39	0x3bac1507	0.00525153
40	0x3b68d2ed	0.0035526112
41	0xbd7ed007	-0.06221011
42	0x3dc1fec3	0.0947242
43	0x3d8bdd7e	0.06829356
44	0x3d6f445f	0.058414813
45	0x3dce730a	0.10080536
46	0xbd9fc4d4	-0.07801214
47	0xbd4e49bc	-0.050363287
48	0x3caf87ab	0.021426996
49	0x3c1bdba5	0.009512817
50	0x3e2e129b	0.16999285
51	0xbd9d76ae	-0.07688652
52	0xbd8d8958	-0.06910962
53	0x3d987acd	0.074452974
54	0xbd37ae45	-0.04484393
55	0x3dc971d3	0.09836163
56	0xbd31af8e	-0.043380313
57	0xbe10ba17	-0.14133488
58	0x3d998e54	0.0749785
59	0xbc050b41	-0.008120359
60	0x3de08a92	0.1096393
61	0x3e05e220	0.13074541
62	0xbdd7faeb	-0.10545906
63	0xbdc0e2cc	-0.09418258
64	0x3d25ddf9	0.040494893
65	0xbbdf8c14	-0.0068221185
66	0x3d8cb330	0.06870115
67	0xbdb3c2fb	-0.08777424
68	0xbdfc8c70	-0.12331474
69	0xbdff0293	-0.12451663
70	0x3cf1e0d3	0.02952615
71	0xbdc8c272	-0.098027125
72	0x3d253739	0.040335868
73	0xbd33d55b	-0.043904644
74	0xbd0822bd	-0.033236254
75	0xbc3d660f	-0.011559977
76	0x3c237aba	0.009977991
77	0x3c296624	0.010339294
78	0x3df96de2	0.121791616
79	0xbcd25138	-0.025673494
80	0x39064b59	0.00012807305
81	0xbdb07060	-0.08615184
82	0xbdfda93f	-0.12385797
83	0xbd260b25	-0.040537972
84	0x3d8b07f1	0.06788624
85	0x3cae026c	0.02124139
86	0xbd523d61	-0.051328067
87	0xbd13b66a	-0.036062635
88	0x3e0ebd5d	0.13939424
89	0x3e3ce148	0.18445313
90	0x3cdbc049	0.026825087
91	0xbe1c04c9	-0.152362
92	0xbdbe6c88	-0.092980444
93	0x3c8a5556	0.016886394
94	0x3dafb82d	0.085800506
95	0xbdcce6f0	-0.10004985
96	0xbdb28819	-0.08717365
97	0x3d41347d	0.047169197
98	0xbcf935b6	-0.03042112
99	0xbde29f6b	-0.11065563
100	0xbcd480f2	-0.025940392
101	0xbe1cc79e	-0.15310523
102	0x3dbd4c56	0.092430755
103	0xbda8a78a	-0.082350805
104	0xbd883518	-0.06650752
105	0xbd9cceab	-0.07656606
106	0x3dbf0c42	0.0932851
107	0x3db18c51	0.08669341
108	0xbdb4cdae	-0.08828293
109	0xbd7e9fcc	-0.062164113
110	0xbdb0b051	-0.0862738
111	0xbd297a4b	-0.041376393
112	0xbb0a531c	-0.0021106666
113	0x3d08d966	0.033410452
114	0xbd010b13	-0.0315047
115	0xbe0c870f	-0.13723396
116	0xbd1b6a56	-0.037943207
117	0x3cb06c79	0.021536099
118	0x3d3b850d	0.045781184
119	0x3cb89213	0.022530591
120	0xbcf77628	-0.030207708
121	0xbdaea7fa	-0.08528133
122	0x3e1bb038	0.15203941
123	0xbd84caee	-0.06484018
124	0x3d9bc69d	0.07606242
125	0x3dd7db43	0.10539868
126	0xbd5fcba9	-0.054637585
127	0x3bd05b7f	0.0063585634
128	0x3a1a2c2f	0.00058812177
129	0xbda04b6d	-0.07826886
130	0x3e167a8b	0.14695184
131	0xbbc2e13c	-0.00594726
132	0xbc207c29	-0.009795227
133	0x3d2e070e	0.042487197
134	0x3d5532c5	0.05205037
135	0xbe10207b	-0.1407489
136	0xbcc0e9de	-0.023549017
137	0x3e2145b9	0.15749253
138	0xbd0a3a95	-0.033747274
139	0x3b99e4c6	0.0046964614
140	0xbc3f50b9	-0.011676961
141	0xbd065f7d	-0.03280591
142	0xbc839e32	-0.016066644
143	0xbd09893f	-0.033578154
144	0xbcccf116	-0.025017302
145	0xbd95f177	-0.073214464
146	0x3daabc7a	0.0833673
147	0x3e07aac6	0.13248739
148	0xbd9fc4c3	-0.07801201
149	0x3da97b1d	0.08275435
150	0x3d3ca735	0.0460579
151	0x3da21b53	0.07915368
152	0xbb4848be	-0.0030560936
153	0xbd3630ab	-0.044480007
154	0x3d05c1a7	0.032655384
155	0xbd2b26be	-0.041784994
156	0xbd813b71	-0.06310166
157	0xbcf22a7b	-0.029561272
158	0xbdeb799f	-0.11497807
159	0xbde3516b	-0.110995136
160	0x3ca8a16e	0.020584788
161	0xbd1a216f	-0.03762954
162	0xbe033c40	-0.12815952
163	0xbc22fa8f	-0.009947433
164	0xbcfb5de9	-0.030684428
165	0x3d6deed6	0.0580891
166	0x3d5fbbaa	0.05462233
167	0xbdb91da2	-0.09038855
168	0x3c884feb	0.01663967
169	0xbe066881	-0.13125803
170	0xbd70f2c2	-0.058825262
171	0x3e02d10b	0.12775056
172	0x3e27e96e	0.1639764
173	0x3db55971	0.0885495
174	0xbde622f2	-0.11237134
175	0xbdc2911e	-0.09500335
176	0xbc0d8017	-0.008636496
177	0xbd0328ff	-0.03202152
178	0x3b5726af	0.0032829454
179	0x3ddfc0ac	0.10925421
180	0x3d83368c	0.06406888
181	0xbd75b264	-0.05998458
182	0xbd0aa1fd	-0.03384589
183	0x3d79848c	0.060917422
184	0xbdb30830	-0.08741796
185	0xbd34f8bb	-0.04418252
186	0x3d250ef1	0.040297452
187	0xbe26a323	-0.16273169
188	0x3e1e393d	0.15451522
189	0xbc4dd558	-0.012563072
190	0x3cffa2ff	0.031205652
191	0x3d99f2f2	0.07517041
192	0x3e13de4f	0.14440273
193	0x3b5ff4f4	0.0034173103
194	0xbd12f23c	-0.035875544
195	0x3d8f2d3e	0.06991051
196	0xbde76cfc	-0.11300084
197	0xbe214fd2	-0.15753105
198	0xbe42e560	-0.19032812
199	0xbd716765	-0.058936495
200	0xbd2740f7	-0.04083344
201	0x3e0929f6	0.13394913
202	0xbdaf6e25	-0.0856593
203	0x3e31b2ad	0.17353316
204	0xbca844aa	-0.020540554
205	0xbd7054f8	-0.058674783
206	0x3def6287	0.116887145
207	0x3c7257ac	0.01479141
208	0x3add7d1e	0.001689825
209	0x3e32265e	0.17397448
210	0x3d9dab1c	0.07698652
211	0x3e3e6362	0.18592599
212	0xb9a95fe5	-0.0003230564
213	0x3e2494b9	0.16072358
214	0x3d16524a	0.03669957
215	0x3d910b54	0.07082239
216	0x3dbb5ff4	0.09149161
217	0x3e155af2	0.14585474
218	0xbdf4d98f	-0.119555585
219	0xbce77a2e	-0.028256502
220	0x3a4c5258	0.00077942526
221	0x3cffca80	0.03122449
222	0x3cc5a2fc	0.024125569
223	0xbc309a0c	-0.010778915
224	0xbe40e4db	-0.18837301
225	0x3daa924e	0.08328687
226	0xbde387a2	-0.11109854
227	0xbdbe8a06	-0.0930367
228	0xbe2e9d05	-0.17052086
229	0xbd7e0a3c	-0.06202148
230	0x3dfb46dd	0.122693755
231	0x3d652ea3	0.05595268
232	0xbcce79f3	-0.025204634
233	0x3dc0c7a8	0.094130814
234	0x3d00ba2d	0.03142755
235	0x3e3e7d9c	0.18602604
236	0x3e41c3bf	0.18922327
237	0x3dbbe223	0.091739915
238	0x3d94a743	0.07258465
239	0xbe2246d4	-0.15847331
240	0x3c748531	0.014924333
241	0xbe1c074d	-0.1523716
242	0xbc8ca294	-0.017167367
243	0x3c7d4603	0.015458587
244	0xbd47cc59	-0.048778865
245	0x3d9b3ecc	0.07580337
246	0xbd9caf93	-0.076506756
247	0xbe32c31a	-0.17457238
248	0xbdeac576	-0.11463444
249	0xbd9d870f	-0.07691776
250	0xbc7ea1a2	-0.015541466
251	0x3d63ff2d	0.055663276
252	0x3df7f413	0.121071
253	0x3c8e4d6e	0.017370906
254	0x3d88fafc	0.066884965
255	0xbd1dea0b	-0.03855328

cells.0.h2h.bias f4 [256]
0	0x3bccba64	0.0062478054
1	0x3d900124	0.070314676
2	0xbe3250fd	-0.17413707
3	0xbd64f23d	-0.05589508
4	0xbe0a3c42	-0.13499549
5	0xbd1857c6	-0.037193082
6	0x3d15bac2	0.03655506
7	0xbcbd174e	-0.023082402
8	0xbd888ef4	-0.06667891
9	0x3d31ea8b	0.04343657
10	0x3c87ed96	0.016592782
11	0xbdbea6fd	-0.09309194
12	0xbe0daf03	-0.13836293
13	0x3d42bf0d	0.04754548
14	0xbe427934	-0.18991548
15	0xbdcfdfd5	-0.101501144
16	0x3c8d05d1	0.017214688
17	0xbc93d6e6	-0.018046807
18	0x3cba5389	0.02274491
19	0x3c047b8e	0.008086098
20	0x3c8ec4c9	0.017427819
21	0xbd00c49c	-0.0314375
22	0xbe557384	-0.20844847
23	0xbe300ce1	-0.17192413
24	0xbe178738	-0.14797676
25	0x3baa7e8c	0.005203074
26	0xbdf2bac8	-0.11852032
27	0xbd139619	-0.036031816
28	0xbdbe41da	-0.09289904
29	0x3c2f71ca	0.010708282
30	0xbd09961b	-0.033590417
31	0x3d7b4d3f	0.061352964
32	0xbd86bb55	-0.065786995
33	0x3d05552e	0.032551937
34	0xbd6a587e	-0.0572133
35	0xbdabdf4f	-0.08392202
36	0x3dae7f8f	0.085204236
37	0xbdb4694c	-0.08809146
38	0x3d9f454b	0.077768885
39	0xbe1e3775	-0.15450843
40	0x3db56d2f	0.08858716
41	0xbe4d0da2	-0.20024732
42	0xbe237082	-0.15960887
43	0x3d758df5	0.059949834
44	0x3c12c942	0.008959116
45	0xbd950136	-0.072756216
46	0xbddfb082	-0.10922338
47	0xbc969c0c	-0.018384956
48	0xbd4bb345	-0.04973151
49	0xbddc1424	-0.10746029
50	0xbe167f57	-0.14697014
51	0xbe0514a3	-0.12996154
52	0xbdd26859	-0.10273809
53	0xbce5a582	-0.028033022
54	0x3d245634	0.040121272
55	0xbd09e845	-0.033668775
56	0xbe1a14b5	-0.15046962
57	0x3cc62f55	0.024192492
58	0x3d4acf6b	0.049514215
59	0x3c844329	0.016145306
60	0xbdc7c3f3	-0.09754171
61	0xbcb1ad0b	-0.021688959
62	0xbe051651	-0.12996794
63	0x3c51cd53	0.012805301
64	0x3d5821c4	0.052766576
65	0x3d59d490	0.05318123
66	0xbe218d4b	-0.15776555
67	0xbcf185b7	-0.029482706
68	0xbc9be0bc	-0.01902806
69	0xbd6a10e2	-0.057145007
70	0xbbebac87	-0.0071921977
71	0x3d93c6c7	0.07215648
72	0x3d79e2d3	0.061007332
73	0xbde905cd	-0.113780595
74	0x3d844292	0.0645801
75	0x3d100bc6	0.035167478
76	0x3d08d104	0.033402458
77	0xbdc72081	-0.097229965
78	0xbe60a87b	-0.2193927
79	0xbc4adf3b	-0.012382324
80	0x3d9a786a	0.075424984
81	0x3bc20260	0.0059206933
82	0xbdf3dfb5	-0.11907903
83	0xbd8493f8	-0.06473535
84	0xbe189db1	-0.14903904
85	0xbe25f2a0	-0.16205835
86	0xbdc26ee8	-0.0949381
87	0xbccf1eb2	-0.025283191
88	0xbe051d2e	-0.12999412
89	0xbe1203c4	-0.14259249
90	0xbe250668	-0.16115725
91	0x3d1a342e	0.03764742
92	0xbe303beb	-0.17210357
93	0xbd49f698	-0.049307436
94	0x3da22915	0.07917992
95	0xbe1257d5	-0.14291318
96	0xbe58337e	-0.21113393
97	0xbe2a866e	-0.16652843
98	0x3d0cc0b9	0.034363482
99	0xbd96b1d3	-0.07358136
100	0xbb477052	-0.0030431938
101	0xbc5ea577	-0.013589255
102	0xbd88dad7	-0.066823654
103	0xbe376a7a	-0.17911711
104	0xbc9c6eb2	-0.019095752
105	0xbe10b307	-0.14130794
106	0x3c6852ba	0.01417988
107	0xbdf5c2aa	-0.1200002
108	0xbdc003c0	-0.09375715
109	0xbce9c01c	-0.028533988
110	0x3d7f561f	0.06233799
111	0x3be4eac1	0.0069859927
112	0x3cb008f1	0.021488639
113	0x3a96c44f	0.0011502596
114	0xbd44afde	-0.048019283
115	0xbe175d3d	-0.14781661
116	0xbda9865c	-0.0827758
117	0xbd24cf7a	-0.040236928
118	0x3cf7ecb5	0.030264238
119	0xbe10b066	-0.1412979
120	0x3d0535df	0.03252208
121	0x3db48765	0.08814887
122	0xbca70d7a	-0.020392168
123	0x3d0dc502	0.03461171
124	0xbdc82304	-0.09772304
125	0xbe159264	-0.14606625
126	0xbe37ceea	-0.17950025
127	0xbdb0c1c1	-0.086307056
128	0xbc898f3f	-0.016791938
129	0xbca7e787	-0.020496143
130	0xbc1b0746	-0.009462183
131	0xbcc246af	-0.023715345
132	0xbc6aaf5d	-0.014324036
133	0xbdc80076	-0.09765713
134	0xbe3a319d	-0.18182988
135	0xbd9a08fe	-0.075212464
136	0xbddd7837	-0.10813945
137	0x3d35d583	0.044393074
138	0x3d33a5fc	0.043859467
139	0x3c9ea857	0.01936738
140	0x3c892248	0.01673998
141	0xbd2d4df8	-0.042310685
142	0x3ce5cd24	0.02805192
143	0x3c6f9000	0.014621735
144	0xbd958d53	-0.07302346
145	0xbddba82e	-0.10725437
146	0x3c2050d1	0.009784893
147	0x3d1752c6	0.036944173
148	0xbd19997c	-0.03749989
149	0x3d1ebb0a	0.038752593
150	0xbdd7dda6	-0.10540323
151	0xbdb5c0b4	-0.08874646
152	0xbd08b0c7	-0.033371713
153	0x3c8b63c8	0.017015353
154	0xbe31c7e5	-0.1736141
155	0x3db754b7	0.08951705
156	0xbd0342dd	-0.032046188
157	0x3e0f0239	0.13965692
158	0x3dd7b09c	0.105317324
159	0xbdb25000	-0.08706665
160	0xbd37f99f	-0.04491579
161	0x3e1ffee8	0.15624583
162	0xbca70a2e	-0.020390596
163	0xbd26c23c	-0.04071258
164	0xbd66e954	-0.056374863
165	0x3c293e2e	0.010329766
166	0xbd35f52e	-0.044423275
167	0x3ce2d0f3	0.027687525
168	0x3d928c9b	0.071557246
169	0xbd7f56de	-0.062338702
170	0x3d3c926d	0.04603808
171	0x3db8e00b	0.09027108
172	0x3d3cbabf	0.046076532
173	0x3d457978	0.048211545
174	0x3c9e55c3	0.019328004
175	0xbe339862	-0.17538598
176	0x3c2c9a21	0.010534794
177	0x3c7936ce	0.01521082
178	0xbe5aaf37	-0.21355902
179	0xbc8a9108	-0.01691486
180	0xbd179cf3	-0.037014913
181	0xbdc28b5c	-0.09499237
182	0xbd89dab4	-0.067311674
183	0xbd814942	-0.06312801
184	0x3c44b2ef	0.012005552
185	0xba1226d0	-0.00055752415
186	0xba33a842	-0.00068533805
187	0x3d94c904	0.07264903
188	0x3cf22249	0.029557364
189	0x3dc1c678	0.09461683
190	0xbd278086	-0.040894054
191	0x3da4283b	0.08015486
192	0xbe09b54e	-0.13448068
193	0xbd1a25ea	-0.037633814
194	0xbcfd9946	-0.030956876
195	0xbdaa108e	-0.08303939
196	0xbc89df48	-0.016830102
197	0xbdc287c4	-0.094985515
198	0xbdaf431b	-0.08557721
199	0xbd537121	-0.05162156
200	0x3d9b6490	0.0758754
201	0x3d8babe6	0.068198964
202	0x3bd4aa72	0.006490045
203	0xbd78905b	-0.060684543
204	0x3d6ffc7f	0.05859041
205	0xbda2a23d	-0.07941101
206	0xbe4c3509	-0.19942106
207	0xbda68835	-0.08131448
208	0x3d96528e	0.07339965
209	0x3cf39f3d	0.029739017
210	0x3c985d7a	0.01859926
211	0xbd1c485d	-0.03815495
212	0xbdf2d09b	-0.118561946
213	0xbe4477a7	-0.19186269
214	0xbe18a2a2	-0.1490579
215	0xbe4ea312	-0.20179394
216	0x3db23b54	0.08702722
217	0xbd3035ff	-0.043020245
218	0xbe3ee1ef	-0.18640874
219	0xbdcff759	-0.101546
220	0x3d0ba158	0.034089416
221	0xbe01863a	-0.1264886
222	0xbd812076	-0.063050196
223	0xbe0d3557	-0.13789879
224	0xbba0535d	-0.00489275
225	0x3d22a9bd	0.039712656
226	0xbd50f225	-0.051012177
227	0xbdbec2bc	-0.093144864
228	0xb928e7f5	-0.00016108139
229	0xbe4e94e9	-0.20173992
230	0xbdf7413f	-0.120729916
231	0x3bdc221a	0.0067179324
232	0xbd12c0ad	-0.03582828
233	0xbe2cfd00	-0.16893387
234	0xbe22e545	-0.15907772
235	0xbd08e50a	-0.033421554
236	0x3c6b2c1b	0.014353777
237	0xbd85d718	-0.065351665
238	0xbb5e2cd2	-0.0033901227
239	0xbd8ce8a9	-0.06880314
240	0x3d659ac8	0.056055814
241	0xbe12ff3b	-0.14355175
242	0x3cce2648	0.025164738
243	0xbd3a8e9d	-0.045546163
244	0xbceba375	-0.028764466
245	0xbd9a8edb	-0.07546779
246	0xbdce4b69	-0.10072977
247	0xbe0822ac	-0.13294476
248	0x3d65b5f0	0.056081712
249	0x3d26ece6	0.040753268
250	0x3b52b03a	0.0032148496
251	0x3c71d86f	0.014761074
252	0xbd8eedb4	-0.06978932
253	0xbe416c91	-0.18889071
254	0xbdaef19f	-0.08542179
255	0xbcf4324e	-0.029809143

cells.1.x2h.weight f4 [256, 64]
0	0x3d624cbb	0.055248957
1	0xbde5fb52	-0.11229576
2	0xbcc87e8b	-0.024474403
3	0xbd69758b	-0.056996863
4	0x3d1d0a3c	0.03833984
5	0xbd87c739	-0.066297956
6	0xbddb3666	-0.10703735
7	0xbd6d5d00	-0.05795002
8	0xbced47d3	-0.028964913
9	0x3b6509ad	0.0034948394
10	0xbd3730b9	-0.0447242
11	0xbd1256bd	-0.03572725
12	0x3db5c2fd	0.08875082
13	0xbcbd2830	-0.023090452
14	0xbdbd737f	-0.09250545
15	0xbd4967f8	-0.049171418
16	0x3d830b3a	0.06398626
17	0x3d15f75d	0.036612857
18	0x3da925b9	0.08259148
19	0x3d573e05	0.05254938
20	0x3d9856bd	0.07438419
21	0x3d43d201	0.047807697
22	0xbdf3854a	-0.11890657
23	0x3d67f68d	0.056631614
24	0xbd9882df	-0.07446837
25	0x3b955163	0.004556821
26	0x3d2a8ee4	0.041640177
27	0xbdecaf45	-0.115568675
28	0x3b978229	0.0046236706
29	0x3e0fd908	0.14047635
30	0x3d9916c8	0.07475048
31	0x3dac8dc4	0.08425477
32	0x3d45e35a	0.048312522
33	0x3e1754b6	0.14778408
34	0xbe1ad0eb	-0.15118758
35	0x3da9ab7e	0.08284663
36	0xbc2bcb09	-0.010485419
37	0x39863c38	0.00025603338
38	0xbd0956dc	-0.0335301
39	0x3dcbb6c5	0.0994697
40	0x3c84db2e	0.016217794
41	0xbd5789c6	-0.052621625
42	0x3d489d56	0.048978172
43	0x3dc31f27	0.09527426
44	0x3d989f20	0.07452226
45	0xbd1460f6	-0.03622528
46	0xbcd0db0f	-0.02549508
47	0xbd6db320	-0.058032155
48	0xbd8a0a73	-0.06740274
49	0xbd8be8d9	-0.068315215
50	0xbd987632	-0.07444419
51	0xbded28ea	-0.11580069
52	0x3d8bf072	0.06832971
53	0xbdb98a93	-0.09059634
54	0xbddd9974	-0.108202845
55	0x3dc03433	0.09384956
56	0x3b96e3ad	0.004604778
57	0xbd899ff3	-0.06719961
58	0x3d8cc5e8	0.06873685
59	0xbdfe874f	-0.12428152
60	0xbc01f6be	-0.007932363
61	0x3d886d20	0.06661439
62	0x3dc91ecd	0.09820328
63	0x3cc93493	0.024561202
64	0x3dddaee0	0.108243704
65	0xbe2d7211	-0.16938044
66	0x3da4bf33	0.08044281
67	0x3c6e6286	0.014549857
68	0xbe067306	-0.13129815
69	0xbbfacca8	-0.0076537915
70	0x3b3c3df6	0.0028723455
71	0xbe18c88e	-0.14920256
72	0xbd08e38d	-0.033420134
73	0x3d8ee08c	0.06976423
74	0x3cb388d5	0.021915833
75	0xbd513688	-0.051077396
76	0xbe2820c5	-0.1641875
77	0x3dd13b75	0.10216419
78	0x3b95c91c	0.0045710932
79	0x3dadd1d1	0.08487285
80	0xbdd0dbf8	-0.10198206
81	0xbc549f39	-0.012977415
82	0xbd5a25e6	-0.0532588
83	0x3c5d94e5	0.013524269
84	0xbd98ec9d	-0.074670054
85	0x3c74fad6	0.014952382
86	0xbe21c292	-0.15796879
87	0x3b8daa0a	0.0043232488
88	0x3e41d91a	0.18930474
89	0x3df9d0d4	0.12198034
90	0x3d11b5be	0.035573713
91	0xbe04a5d1	-0.12953879
92	0xbda61b73	-0.08110704
93	0x3d323cae	0.0435149
94	0xbe03c436	-0.12867817
95	0xbd775438	-0.06038305
96	0xbd837181	-0.064181335
97	0xbc529b56	-0.012854418
98	0xbe062fee	-0.13104221
99	0xbe1c1c05	-0.15245064
100	0xbc88e06d	-0.016708577
101	0xbe2161f5	-0.15760024
102	0x3d264e75	0.040602166
103	0xbdfdac05	-0.12386326
104	0x3dacea5f	0.0844314
105	0xbd64bb95	-0.055842955
106	0xbe2d1a9f	-0.16904686
107	0x3e1ca5d3	0.15297632
108	0x3ccf968b	0.02534034
109	0xbd4ee358	-0.05050978
110	0x3e1cdc95	0.1531852
111	0xbd973d7c	-0.07384774
112	0x3bdc71b6	0.0067274226
113	0xbd9cde02	-0.07659532
114	0xbe1cc3aa	-0.15309015
115	0xbc3d5a33	-0.01155715
116	0xbdacfe90	-0.084469914
117	0x3b98d949	0.0046645743
118	0x3d41fb3f	0.047358748
119	0xbdf4caef	-0.11952769
120	0xbe4a5ebc	-0.19762701
121	0x3ce91f63	0.02845735
122	0xbd4a016f	-0.049317773
123	0xbd643c34	-0.055721477
124	0x3c7ae99e	0.015314488
125	0x3c08cbd6	0.0083493795
126	0x3d8a8b98	0.06764907
127	0xbd38ba21	-0.04509938
128	0xbda1ef59	-0.0790698
129	0xbde71710	-0.11283696
130	0xbd8c606f	-0.06854331
131	0x3cc6f027	0.024284435
132	0x3d4703f7	0.048587766
133	0xbdb9d4b3	-0.09073772
134	0xba8e8845	-0.0010874352
135	0x3d933eb4	0.07189694
136	0x3cc566aa	0.024096806
137	0x3dd49eff	0.103818886
138	0x3ce6e94c	0.028187416
139	0x3dc0c89c	0.09413263
140	0x3d8fa5d3	0.0701405
141	0x3ab4ae30	0.0013784822
142	0xbd5305c4	-0.05151917
143	0x3da0a950	0.07844794
144	0xb9b47cc1	-0.00034425224
145	0x3d974c87	0.07387643
146	0x3d58c73a	0.052924372
147	0x3e048c8f	0.12944244
148	0xbe49deea	-0.19713941
149	0xbd4c007c	-0.04980515
150	0x3e24546c	0.1604783
151	0xbc43a8e6	-0.011942124
152	0x3daaf84d	0.08348141
153	0x3d8befee	0.06832872
154	0x3e08bdfa	0.1335372
155	0x3dc6ffe4	0.09716776
156	0x3e019224	0.12653404
157	0x3dd1fc61	0.102532156
158	0xbd3fed06	-0.046856903
159	0xbe07e3fb	-0.13270561
160	0x3de94136	0.11389391
161	0xbd851eb1	-0.064999945
162	0xbdb4bd29	-0.08825142
163	0xbd91ec4a	-0.07125147
164	0x3d4822df	0.04886138
165	0xbc031298	-0.008000039
166	0xbc9d2742	-0.019183759
167	0x3e30cee4	0.17266423
168	0xbd7c66d7	-0.061621513
169	0x3e04cb23	0.12968116
170	0x3e324467	0.17408906
171	0x3d894369	0.067023106
172	0xbdf6df66	-0.120543286
173	0x3cab4df9	0.020911204
174	0xbd96bfdc	-0.07360813
175	0x3d8602a1	0.0654347
176	0x3c4c8f51	0.012485341
177	0xbdf6359f	-0.12021946
178	0x3da3dd19	0.080011554
179	0xbe1a825d	-0.15088792
180	0xbcc547e1	-0.024082126
181	0xbd8384cc	-0.06421813
182	0x3d8f001b	0.06982442
183	0x3d8f5533	0.06998672
184	0xbcb46130	-0.022018999
185	0xbe349cc5	-0.17637928
186	0x3d6d33c0	0.05791068
187	0x3d637e20	0.055540204
188	0x3d44c820	0.048042417
189	0xbda2a98e	-0.07942496
190	0x3c9bcad1	0.019017609
191	0xbc44924d	-0.011997771
192	0x3dc5b93b	0.096544705
193	0xbe4c63d0	-0.1995995
194	0x3dbcc397	0.09216993
195	0xbc3d1622	-0.011540921
196	0x3c69e9ad	0.014276904
197	0x3c6a6750	0.014306858
198	0xbdb84695	-0.089978375
199	0xbcbedc7e	-0.023298498
200	0xbdb07136	-0.08615343
201	0x3dfdddbc	0.12395808
202	0xbe3ad4f6	-0.182453
203	0x3d88c857	0.06678837
204	0xbcfbb1f4	-0.030724503
205	0x3e0f9ba1	0.14024211
206	0x3ca65d79	0.020308243
207	0x3c19b322	0.0093810875
208	0xbe2c63a2	-0.16834882
209	0x3dca36d1	0.09873737
210	0xbbb75693	-0.0055950372
211	0x3e0a2693	0.13491277
212	0xbe0b9860	-0.13632345
213	0x3dcd9e24	0.100399286
214	0x3d0b0159	0.033936832
215	0xbe329ffb	-0.1744384
216	0xbd4837b2	-0.04888124
217	0x3d3074b2	0.04308004
218	0xbc8bb97f	-0.017056225
219	0x3d1675ad	0.036733318
220	0xbe17f06d	-0.14837809
221	0x3df85967	0.12126427
222	0xbd32a6f9	-0.04361627
223	0xbe003b66	-0.12522659
224	0xbdcbbcec	-0.09948143
225	0xbd819300	-0.06326866
226	0x3d8ca38e	0.06867133
227	0xbcecc608	-0.028903022
228	0xbdde2ea0	-0.10848737
229	0xbc94672f	-0.018115608
230	0x3e0980cd	0.1342804
231	0xbdca8757	-0.09889095
232	0x3d92d0e1	0.07168747
233	0xbd0af729	-0.033927117
234	0xbe121ead	-0.14269514
235	0x3e28d284	0.16486555
236	0x3dabe0e7	0.08392506
237	0x3e1b12ac	0.15143842
238	0xbc0de6c7	-0.008660979
239	0x3d674911	0.056466166
240	0xbcee90fb	-0.029121866
241	0xbe34b260	-0.1764617
242	0x3d6c9181	0.05775595
243	0xbd9b4737	-0.075819425
244	0xbd65e19b	-0.056123357
245	0x3d9667ea	0.07344039
246	0x3bbc079a	0.005738211
247	0xbe35c50e	-0.17750952
248	0xbdb10c11	-0.086448796
249	0xbdf52859	-0.11970586
250	0x3e0ce4f8	0.1375922
251	0xbdb46734	-0.08808747
252	0x3bf2b93b	0.007407335
253	0x3dd1f89a	0.10252495
254	0x3d1432a9	0.036181126
255	0xbe1a8a5c	-0.15091842

cells.1.x2h.bias f4 [256]
0	0x3dc8d014	0.09805313
1	0xbd6c22b4	-0.057650283
2	0xbd92b257	-0.07162922
3	0xbe45c640	-0.19313908
4	0xbe3aec83	-0.18254285
5	0xbe41ae38	-0.18914115
6	0x3da52ff3	0.08065786
7	0xbc2d3f39	-0.0105741555
8	0xbe0b7cee	-0.13621876
9	0xbd5d955d	-0.054097522
10	0xbd4812b9	-0.04884598
11	0xbe136ab4	-0.14396173
12	0xbcf2b1de	-0.02962583
13	0xbe26a8bc	-0.16275305
14	0x3c68d8fb	0.014211888
15	0x3c247bd6	0.01003929
16	0xbe10494c	-0.1409046
17	0xbcaba05b	-0.020950487
18	0x3cb9e28d	0.022691036
19	0x3d5bcfb2	0.05366487
20	0xbce401f9	-0.027832972
21	0xbe453401	-0.19258119
22	0xbc6864ed	-0.014184219
23	0xbdb7eae9	-0.089803524
24	0xbe0ab8e8	-0.13547099
25	0xbe296c88	-0.16545308
26	0xbc01bbb9	-0.007918292
27	0xbe413d7b	-0.18871109
28	0x3d98c503	0.07459452
29	0xbdc9a874	-0.09846583
30	0xbd1492ca	-0.0362728
31	0xbcbd5d4d	-0.023115778
32	0x3cbaf3cf	0.022821335
33	0xbcb6a9f3	-0.022297835
34	0xbd72f4d8	-0.059315532
35	0x3d858540	0.06519556
36	0xbdddbd9a	-0.10827179
37	0xbdd75e3e	-0.10516022
38	0xbd87d8be	-0.06633137
39	0x3d9e84a3	0.07740142
40	0xbe09c485	-0.13453873
41	0xbdc218f9	-0.094774194
42	0xbca2bc8f	-0.019865302
43	0xbd256728	-0.04038158
44	0xbd84bea7	-0.064816765
45	0x3c90876f	0.017642705
46	0xbd4d095d	-0.050057758
47	0xbdc358e3	-0.09538438
48	0xbe29c01e	-0.16577193
49	0xbce24ac4	-0.027623542
50	0xbe3cb3eb	-0.18428008
51	0x3deb5e44	0.11492589
52	0xbd217295	-0.039415915
53	0x3d21d19b	0.039506536
54	0xbd576f3d	-0.05259632
55	0xbddb6f48	-0.107145846
56	0xbc4bb4dc	-0.012433257
57	0xbe198ecd	-0.1499588
58	0xbe3e59ac	-0.18588895
59	0xbdb03092	-0.08603014
60	0xbd15738d	-0.03648715
61	0xbcb94820	-0.0226174
62	0xbe0da5c4	-0.13832766
63	0xbdc76073	-0.09735193
64	0x3c2f7a7c	0.010710355
65	0x3cb8c34f	0.022554068
66	0x3d169e46	0.036772035
67	0x3d06e7dd	0.032935966
68	0xbd5fc206	-0.054628395
69	0xbe71123a	-0.23542109
70	0xbd1e325d	-0.03862225
71	0x3d850512	0.06495108
72	0xbdc1ca76	-0.094624445
73	0xbe0ad7bb	-0.13558857
74	0xbc53795a	-0.01290735
75	0xbda2a6e1	-0.07941986
76	0xbddd14d2	-0.10794987
77	0xbe12fe9f	-0.14354943
78	0x3c86ff2c	0.016479097
79	0xbdfebb5c	-0.1243808
80	0x3da1e53b	0.0790505
81	0xbe199195	-0.14996941
82	0xbdc4167b	-0.095746
83	0x3d5f8983	0.0545745
84	0x3cdb6852	0.026783142
85	0xbd4cfccc	-0.050045773
86	0x3cfc208d	0.03077724
87	0xbdc263e9	-0.094917126
88	0xbd337690	-0.043814242
89	0xbd2406bc	-0.040045485
90	0x3d420ba5	0.047374386
91	0x3c90c05c	0.01766985
92	0xbde1f3ef	-0.11032855
93	0xbb803cb4	-0.0039134864
94	0xbc99d8b3	-0.018780088
95	0x3d5d90e0	0.05409324
96	0x3d375d2e	0.044766597
97	0xbdb8778d	-0.090071775
98	0xbdcc6acf	-0.099813096
99	0x3d208f64	0.039199248
100	0x3d5014d0	0.0508011
101	0x3c8e3587	0.017359508
102	0xbe0733a7	-0.13203298
103	0x3d87e381	0.0663519
104	0xbe0f3983	-0.13986783
105	0xbd9476fe	-0.072492585
106	0xbd8e5fe2	-0.06951882
107	0xbd0e0ef1	-0.034682218
108	0xbe18cb52	-0.1492131
109	0x3d6f31af	0.05839699
110	0xb9919440	-0.0002776701
111	0x3d988e61	0.074490316
112	0xbd6f4fd9	-0.058425758
113	0xbdd833f0	-0.10556781
114	0xbdaf65d4	-0.08564344
115	0xbdcb14b7	-0.099160604
116	0xbcbdf7e4	-0.023189493
117	0xbda106f4	-0.07862654
118	0xbd0c25a2	-0.034215577
119	0xbdf962ab	-0.121770225
120	0xbdb6f894	-0.08934131
121	0xbe1fa4ff	-0.15590285
122	0xbe3de037	-0.18542562
123	0xbdd4eb8e	-0.10396491
124	0x3d4abfdf	0.04949939
125	0xbe0d2a82	-0.13785747
126	0xbe137f7f	-0.14404105
127	0xbe176951	-0.14786269
128	0x3d59a5a7	0.053136494
129	0xbc518584	-0.01278818
130	0x3d8f80fd	0.070070244
131	0x3cc076a3	0.02349407
132	0x3ced5907	0.028973116
133	0x3d051d2d	0.032498527
134	0xbd1d9f14	-0.038481787
135	0x3cce2c56	0.025167625
136	0x3d3439ee	0.04400056
137	0xbdb212bf	-0.08694982
138	0x3d6b71e0	0.057481647
139	0x3d45d233	0.048296165
140	0xbd70786b	-0.05870859
141	0xbcddddf5	-0.027083376
142	0x3d860ed6	0.065457985
143	0xbd89e1c0	-0.067325115
144	0x3d93af8b	0.072112165
145	0xbd0fd4e8	-0.035115153
146	0x3d6a8ace	0.05726128
147	0x3d53a4a9	0.051670704
148	0x3d0db2e8	0.034594446
149	0x3baa3522	0.005194322
150	0x3da33970	0.0796994
151	0x3d26fbbe	0.040767424
152	0xbc925316	-0.017861884
153	0x3b9e135d	0.0048240856
154	0x3d124ac9	0.035715852
155	0x3d150774	0.03638406
156	0xbd3f0230	-0.046632946
157	0x3ce00444	0.027345784
158	0xbafceb86	-0.0019296266
159	0x3beef5f8	0.0072925054
160	0xbc367f75	-0.011138787
161	0x3c2bb34f	0.010479762
162	0xbd29ed2c	-0.04148595
163	0xbd999fba	-0.075011685
164	0xbddfba57	-0.109242134
165	0xbd56c371	-0.05243248
166	0xbcc442a4	-0.023957558
167	0xbd5e6d75	-0.054303605
168	0xbd0c3423	-0.03422941
169	0x3d357ffb	0.044311505
170	0xbc0dee4e	-0.008662773
171	0xbca5416d	-0.020172799
172	0x3db52be4	0.08846262
173	0x3d0ea44c	0.034824654
174	0xbdc3f0c8	-0.0956741
175	0x3e028e5e	0.12749621
176	0x3e293234	0.16523057
177	0xbd8f1f30	-0.069883704
178	0xbca89c19	-0.020582246
179	0xbcf71db6	-0.030165534
180	0xbc66403b	-0.0140534
181	0xbda5072d	-0.08058009
182	0x3d3a03fc	0.045413956
183	0x3d6a2ac6	0.0571697
184	0x3d81312a	0.063082054
185	0x3cc290b0	0.023750633
186	0xba6a297e	-0.00089325744
187	0x3d9fa927	0.07795935
188	0xbd2d17cd	-0.042259026
189	0xbd127227	-0.035753395
190	0x3dfe2d13	0.12410941
191	0x3da1a421	0.07892633
192	0x3d504063	0.050842654
193	0xbe29566b	-0.16536872
194	0x3d60caa4	0.054880753
195	0xbe34d929	-0.17660965
196	0xbd0f346e	-0.03496211
197	0xbe6c9412	-0.2310336
198	0xbd7c9f8b	-0.06167559
199	0xbde54442	-0.1119466
200	0x3d477b1a	0.048701383
201	0x3b292982	0.0025812094
202	0xbdd6b0b9	-0.10482926
203	0x3ce778b4	0.028255798
204	0xbd496680	-0.049170017
205	0xbd25913e	-0.040421717
206	0xbe061f56	-0.13097891
207	0xbde22d9f	-0.11043858
208	0x3c697be6	0.014250731
209	0x3db18003	0.086669944
210	0xbdaf9ae4	-0.08574465
211	0xbdfb7050	-0.12277281
212	0x3dc63aca	0.09679182
213	0xbd61c884	-0.055122867
214	0x3d2dae5c	0.04240261
215	0xbdfda4f1	-0.12384976
216	0xbdb4dc58	-0.0883109
217	0x3cace80e	0.021106746
218	0xbcc2828b	-0.023743888
219	0xbc697b7c	-0.014250632
220	0xbcc937cc	-0.024562739
221	0xbda49f7e	-0.08038233
222	0x3dc9dd48	0.09856659
223	0xbda34220	-0.07971597
224	0x3d768ed8	0.06019482
225	0xbd15e57a	-0.0365958
226	0xbcbbcd42	-0.022925023
227	0xbc59e693	-0.013299602
228	0x3da06cbb	0.07833239
229	0x3d4f43eb	0.05060188
230	0xbdc42a79	-0.095784135
231	0xbda1aa1c	-0.07893774
232	0xbd301643	-0.04298998
233	0xbdadc602	-0.084850326
234	0xbdfad444	-0.12247518
235	0xbd0f543a	-0.034992434
236	0xbe2cf005	-0.16888435
237	0xbb96f7ef	-0.0046071927
238	0xbdb5db62	-0.088797346
239	0x3d50094b	0.050790112
240	0xbddc58fc	-0.1075916
241	0xbdd38f38	-0.10330051
242	0xbd6aa2bd	-0.057284106
243	0xbe0aff04	-0.13573843
244	0xbd77b8ec	-0.06047909
245	0xbda79681	-0.08183003
246	0xbdb99c61	-0.0906303
247	0xbd163799	-0.036674116
248	0xbdaf5093	-0.0856029
249	0xbe2a713f	-0.16644762
250	0xbe3c9a57	-0.18418251
251	0x3ccbb601	0.02486706
252	0xbde8bee0	-0.113645315
253	0xbdabe1c6	-0.08392672
254	0xbe3660aa	-0.17810312
255	0xbe2e1c0d	-0.17002888

cells.1.h2h.weight f4 [256, 64]
0	0xbd44a646	-0.048010133
1	0xbda32ca9	-0.079675026
2	0x3bb7a221	0.005604044
3	0xbcacc64a	-0.021090645
4	0xbe273268	-0.16327822
5	0xbdc98edb	-0.09841701
6	0x3db3b376	0.08774464
7	0xbd02d25b	-0.03193889
8	0xbcc9fe4b	-0.02465739
9	0xbd9f9c84	-0.07793525
10	0xbd8f4c48	-0.06996971
11	0x3d994643	0.074841045
12	0x3b1884e0	0.002327256
13	0x3bda987f	0.006671011
14	0xbdb3c866	-0.08778457
15	0x3d050ec1	0.032484774
16	0x3d8f2076	0.06988613
17	0x3db2b838	0.08726543
18	0x3dada7d0	0.08479273
19	0xbe1ece81	-0.15508462
20	0xbd7fdb6e	-0.062465124
21	0x3defb29b	0.11703988
22	0xbda46c35	-0.08028451
23	0xbd9026ed	-0.070386745
24	0xbdb4b149	-0.08822877
25	0x3e160f16	0.14654192
26	0xbe1935a3	-0.14961867
27	0x3d3ecd24	0.046582356
28	0x3d857fee	0.06518541
29	0xbd224730	-0.03961867
30	0x3d9ce9e3	0.07661798
31	0x3dd1b50c	0.1023961
32	0xbd56380a	-0.052299537
33	0xbc85c8a9	-0.016331034
34	0xbe101713	-0.14071302
35	0xbc1e9cfd	-0.009680984
36	0xbdbd259c	-0.09235689
37	0x3d83ba3a	0.06432004
38	0xbd5995ab	-0.05312125
39	0xbd91ddd2	-0.07122387
40	0xbd8e7cc4	-0.06957391
41	0x3dbc4114	0.091921
42	0xbdc08f04	-0.09402278
43	0xbb97ab02	-0.00462854
44	0x3da07134	0.07834092
45	0x3d4a9b9a	0.0494648
46	0xbe05e548	-0.13075745
47	0xbe0a8885	-0.1352864
48	0xbde72ab4	-0.11287442
49	0xbd366283	-0.04452754
50	0xbe23f621	-0.1601186
51	0xbba57cf8	-0.005050298
52	0xbdf3ea79	-0.119099565
53	0x3ca61b9c	0.020276837
54	0x3c18b5aa	0.009320656
55	0x3d447efa	0.047972657
56	0x3ccef7aa	0.02526458
57	0x3dcadfb3	0.099059485
58	0x3cdd3e08	0.027007118
59	0x3d998b0e	0.07497226
60	0xbbf43934	-0.007453108
61	0x3d9efcd4	0.07763067
62	0x3d9d8a22	0.07692362
63	0x3da5b045	0.08090261
64	0x3e2ba016	0.16760287
65	0xbda0a115	-0.07843224
66	0xbe2f3c20	-0.1711278
67	0x3be5f295	0.0070174434
68	0x3c5daec9	0.013530442
69	0x3dd75d80	0.105158806
70	0xbdc05d96	-0.0939285
71	0x3b2bb855	0.00262024
72	0xbaee8a7b	-0.0018199229
73	0xbdffc978	-0.12489599
74	0xbd96fb05	-0.07372097
75	0xbe3b1e68	-0.18273318
76	0xbc460ece	-0.012088491
77	0x3d9816a5	0.07426194
78	0xbc27b2b9	-0.010235482
79	0xbe3146e9	-0.17312206
80	0x3cb1e23e	0.021714326
81	0xba445853	-0.0007489968
82	0x3cd480a8	0.025940254
83	0xbdcc9640	-0.099895954
84	0x3d24a5ce	0.040197186
85	0x3d0d323b	0.03447173
86	0xbdc80fd2	-0.097686425
87	0xbe0ca8e9	-0.13736309
88	0x3ca5044c	0.02014365
89	0xbe36d61e	-0.17855117
90	0x3cbe073c	0.023196809
91	0x3e18e1a6	0.14929828
92	0xbdf81893	-0.12114062
93	0x3de4169d	0.11137126
94	0x3e317adf	0.17332028
95	0xbd001117	-0.0312663
96	0x3e061bbd	0.13096519
97	0xbcd1edc4	-0.02562607
98	0x3d3d19b0	0.046167076
99	0xbc592a25	-0.013254677
100	0xbd444f7b	-0.04792736
101	0x3cdf8fa2	0.02729017
102	0x3d2a449a	0.04156933
103	0x3e0c1d8c	0.13683146
104	0x3c4e7f43	0.012603584
105	0xbd5036f5	-0.05083366
106	0xbd18732b	-0.037219208
107	0x3de09389	0.1096564
108	0x3c2670f1	0.010158763
109	0xbd883012	-0.06649794
110	0xbe004d2b	-0.12529437
111	0xbcc990de	-0.02460521
112	0xbdb26c6d	-0.08712087
113	0xbb6a9959	-0.0035796969
114	0x3d274fbd	0.04084753
115	0x3e428c8a	0.18998924
116	0xbe2af9fb	-0.16696922
117	0x3d8f7cab	0.070062004
118	0xbdbba5f8	-0.091625154
119	0x3e0e395f	0.13889073
120	0x3ddbb0eb	0.10727104
121	0x3d4b5863	0.04964484
122	0x3d7329c0	0.059365988
123	0xbe2ba1d4	-0.16760951
124	0x3c1df522	0.009640964
125	0x3c36a6e7	0.011148191
126	0xbe1f0a04	-0.15531164
127	0x3cd1ed3f	0.025625823
128	0xbc8176d0	-0.015803725
129	0xbd5adc39	-0.053432677
130	0x3d3501ab	0.044191044
131	0x3e2bc108	0.16772854
132	0xbcdcf2d5	-0.02697126
133	0xbdd157f9	-0.102218576
134	0xbd706176	-0.058686696
135	0x3dadcabc	0.08485934
136	0x3dbbe609	0.09174735
137	0x3cddca07	0.027073873
138	0x3bb84838	0.0056238435
139	0x3e0e196d	0.13876887
140	0x3c6fd4cd	0.014638138
141	0xbd0719c5	-0.03298356
142	0x3da53921	0.08067537
143	0xbda21777	-0.07914632
144	0x3bcabb4b	0.006186878
145	0x3bb09bc4	0.0053896625
146	0xbdc7bc80	-0.097527504
147	0xbd3049b7	-0.04303905
148	0xbcb193c3	-0.021676904
149	0xbe4f7508	-0.20259488
150	0x3db5e1e8	0.08880979
151	0x3d319276	0.043352567
152	0xbdaeb92f	-0.08531415
153	0x3c170c9a	0.009219313
154	0xbcfba828	-0.030719832
155	0xbd6759fe	-0.056482308
156	0xbd9887d9	-0.07447786
157	0xbdab8a10	-0.08375943
158	0xbd8442dd	-0.06458066
159	0xbd842295	-0.064519085
160	0xbd047908	-0.032341987
161	0xbe05a9ad	-0.13053007
162	0xbc617423	-0.013760599
163	0x3dcdc4ad	0.100472786
164	0xbc890d3a	-0.01672994
165	0x3da68e54	0.08132616
166	0x3dd8c16f	0.105837695
167	0xbdb562e8	-0.088567555
168	0x3df4bbd8	0.11949891
169	0xbe2cad95	-0.16863091
170	0x3e1bf0a5	0.15228517
171	0xbd546552	-0.05185444
172	0xbe2ea671	-0.1705568
173	0x3cd799ad	0.026318396
174	0x3c8b68e3	0.017017787
175	0xbd68d7d4	-0.056846455
176	0xbd876fbc	-0.066131085
177	0xbda469a8	-0.08027965
178	0xbc5f712e	-0.013637824
179	0x3d5874db	0.052845817
180	0x3d1b6ac8	0.03794363
181	0x3e0e7a3d	0.13913818
182	0x3d9e50c8	0.077302516
183	0xbc8394bd	-0.016062135
184	0xbda1df1d	-0.079038836
185	0x3d9fd448	0.07804161
186	0xbdefb361	-0.11704136
187	0x3db24647	0.087048106
188	0xbd764759	-0.060126636
189	0xbd10731c	-0.035266027
190	0xbc5657cb	-0.013082455
191	0x3db4361b	0.08799382
192	0xbd5dae59	-0.05412135
193	0x382656cd	3.9658324e-05
194	0xbd82e82a	-0.06391938
195	0xbb1d1bb1	-0.0023972804
196	0x3db0c8bb	0.08632036
197	0x3b43264e	0.002977747
198	0x3d004854	0.031318977
199	0xbd4783ca	-0.04870967
200	0x3cb575ad	0.022150839
201	0xbdc7497c	-0.09730813
202	0x3dbbdf3d	0.09173439
203	0xbdf56297	-0.11981695
204	0x3cb0dcc3	0.021589642
205	0x3e263475	0.16230948
206	0x3d8cf5a9	0.068827935
207	0xb9ac6fd9	-0.0003288973
208	0xbd8fabaf	-0.07015168
209	0x3d2fedee	0.042951517
210	0x3cda69d4	0.02666179
211	0x3db772d2	0.08957447
212	0xbdaa4878	-0.083146036
213	0xbd8b11d1	-0.067905076
214	0xbd4162d7	-0.0472134
215	0x3ddbdb9d	0.10735247
216	0x3de667f6	0.11250298
217	0x3d84b125	0.064791
218	0xbd9f3a07	-0.0777474
219	0x3dfdd8f9	0.123949
220	0xbd658fa8	-0.056045204
221	0x3dd4ee12	0.10396971
222	0xbd5fb82e	-0.054619007
223	0x3c69b01a	0.014263177
224	0x3dc01ce7	0.09380513
225	0xbd3e14df	-0.046406623
226	0xbdaeb15d	-0.08529923
227	0x3df2b96f	0.11851775
228	0xbc817a12	-0.015805278
229	0x3d8c88d3	0.06862035
230	0xbd79725e	-0.060900085
231	0x3db4e451	0.088326104
232	0x3df4bd7b	0.11950203
233	0xbd5c8a45	-0.0538428
234	0xbe0032c5	-0.12519367
235	0x3c660b22	0.01404074
236	0xbe1020a7	-0.14074956
237	0xbbe1a6bd	-0.006886332
238	0xbd4b3318	-0.049609274
239	0x3d554ff9	0.05207822
240	0xbe176561	-0.14784767
241	0x3d0f4af9	0.03498361
242	0x3c2854ed	0.010274154
243	0x3c88a327	0.01667936
244	0xbe14bfa3	-0.14526229
245	0x3e0df2ce	0.13862154
246	0xbc33a8fc	-0.010965582
247	0xbda12017	-0.07867449
248	0x3df11d5a	0.117731765
249	0x3def13ab	0.11673673
250	0x3e044105	0.12915428
251	0xbded3718	-0.11582774
252	0x3e0f4263	0.13990168
253	0x3d99a6a7	0.075024895
254	0xbc55c3cf	-0.013047173
255	0x3dac2b6a	0.08406718
