model_street/models_street_all/LSTM_model_65 STREET.pth (torch, 358206 bytes, 17 tensors)

input_projection.weight f4 [9, 9]
00000000: 2b9d 07be cfa2 b53d fcf7 aebe e1c4 53bd
00000010: e94c e7bd 355c 213e 905e a83d 0a5c 5dbe
00000020: 60e6 4e3d 1a4e 2b3e 0c2b 7bbd f754 13be
00000030: d833 913d e164 73be 2267 403e 8703 a23e
00000040: 2001 c83e 8b54 4ebd 9a27 393d f63d 13bc
00000050: c51a 863e 203d 1ebe 25db 83be bad2 4e3e
00000060: 9184 5b3e 2fee abbc 563f df3d b568 743e
00000070: 50cb 9cbe 86db e7bb 2b4b a2bd 8a10 45be
00000080: 5e5d 8a3d f583 003e 6192 693e 27b2 933e
00000090: 5a32 903d ce1a a03e 000d acbd 9b16 7abe
000000a0: a2cf 293e b30e 8abe 9440 6abc dfb6 103e
000000b0: 2f27 9fbe 68fc 703e e8ef e83d 520b 9c3d
000000c0: 902e f53d a2e2 2abe 0f9c 513e 5d59 91be
000000d0: 38b6 f23d 204b 25bd fa50 cf3c d98d c1bd
000000e0: d489 27be fafa d23d 9194 513d 7553 013d
000000f0: 209a c93d 8ca3 6ebe f615 da3d 0b4c ee3d
00000100: 3a93 993e ca28 023e bc01 66be f17c bcbd
00000110: bc2e ac3e 18e9 353d 7e77 c6bd dcab a0be
00000120: 49bd 12be 2d52 98bd 71ab a13e e898 383d
00000130: 5dce 88be a012 21be b2cb 5a3e 8f58 eabd
00000140: 0e94 29be
-0.13243549 0.08868944 -0.34173572 -0.05170143 -0.11293966 0.1575783 0.08221161 -0.21617141
0.05051267 0.16729012 -0.06132035 -0.1438788 0.070899665 -0.23768951 0.18789342 0.31643316
0.39063358 -0.050373595 0.045203783 -0.008986941 0.261923 -0.15453005 -0.25753132 0.20197573
0.21437289 -0.020987598 0.10900752 0.23868068 -0.30623865 -0.00707573 -0.079244934 -0.1924459
0.0675609 0.12550338 0.22809745 0.28846857 0.07040854 0.3127045 -0.08400917 -0.24422686
0.16583112 -0.2696434 -0.014297623 0.1413226 -0.31084582 0.23533785 0.113738835 0.07619347
0.11971772 -0.16688016 0.20469688 -0.2838849 0.11851162 -0.040354848 0.025307167 -0.094508834
-0.16361171 0.10301776 0.051167075 0.03157373 0.0984385 -0.23304576 0.1064872 0.11635598
0.29995137 0.12710872 -0.22461599 -0.09203518 0.33629405 0.04441175 -0.0969076 -0.31381118
-0.14330019 -0.07437549 0.31576112 0.045067698 -0.26719943 -0.15729761 0.21366766 -0.114426725
-0.16560385

input_projection.bias f4 [9]
00000000: ce5d 1e3e a568 ebbd 8073 40be 0e52 1dbe
00000010: 616c 99bc 11e6 10be ee06 793d 9158 6dbe
00000020: 8017 783e
0.15465471 -0.11494569 -0.1879406 -0.15363333 -0.018728437 -0.14150263 0.060797624 -0.23178317
0.24227715

cells.0.x2h.weight f4 [256, 9]
00000000: bac5 81be 04d4 ac3e 3f0c eebd 843a 3dbe
00000010: 2759 b4bd 34d8 98be 288d 44bd 6088 a8bb
00000020: 6f19 5dbe ebf1 b53d 4278 af3e 2ce3 9fbe
00000030: ccca 5fbc 2ea1 2a3e 2635 343e 1751 523e
00000040: b4b7 033e 2a7b 5c3e 982d 213e 76bc 61be
00000050: 3bc7 9bbe 1bc5 0abd 18cd b23e 417f 1c3e
00000060: de9b 0bbe 731f 79be ba5d c3bd 3416 30be
00000070: a23b 943e 5d15 8e3e d0f0 1fbe 1216 12be
00000080: 1ba1 c0bd 4282 9cbe 04b2 53bc d4fb 71be
00000090: eff2 b8be 8ffa 84be 0882 363e c13c abbd
000000a0: ce50 24be 563d 5b3e b044 0bbd 3e61 0cbe
000000b0: f9e1 ae3d c8aa 94bc 57eb 0fbe 8a6e 73be
000000c0: 6466 bbbe 2b8b 4e3e 342f 183e 0f7c 9cbe
000000d0: 0d43 39be e7a7 47bd 9b94 6e3e ef8c f3bd
000000e0: f9e9 903e 831d 093e fcc7 c53d ef49 6dbe
000000f0: 1901 06be 46d0 0ebe f761 ea3d 1877 12be
00000100: 1029 ad3d cc62 1e3d c3d5 9ebe 8563 3cbe
00000110: b4a6 283e 3126 143e ab12 d3bd 2753 4c3d
00000120: dbab 1cbe 16bb 33be 91fb 85be e396 5f3e
00000130: 6552 a7be 9f4c 993e c649 9a3e dafd 91be
00000140: 5323 8d3e 12e5 723e 85a0 4ebe 8e85 833c
00000150: 7454 74be d202 a2bc f285 933e 3674 89be
00000160: b11a b6be 5459 a7bd 7cf9 973e 29a5 5d3e
00000170: 807b 103e be4c 6b3c 6a15 babe e4d6 2e3e
00000180: e171 95ba 4450 a1bc dd67 e8bd 4502 3ebe
00000190: bde3 42bd 07b7 a5bd a6c0 c1be 4626 ae3d
000001a0: 71e1 a4be fee1 e4bd 73bc 193e 2b8d a7be
000001b0: d070 803d a8d6 c8bd 8fd1 66bc 1af4 5f3e
000001c0: 073a 333e dd04 ec3d 34b5 c3bd c31d e53d
000001d0: 08ad 90bc 4ea7 413e 4a8c adbc 7018 023e
000001e0: 4423 59be f6e2 f83d 32b9 a23c b4f6 bcbd
000001f0: 4452 b4be 434f 053d 707f b33e d4a8 52be
00000200: 70f9 813e aa7b 15be ff7c b23d 8cd8 27be
00000210: e2ed 2cbd e925 44be 7b87 97be d8c1 c0be
00000220: 3019 eabd 0e4d 893d 9973 f63d bca9 cebe
00000230: 62a8 723d 54c5 90be 84ab d4bd b5c0 1d3e
00000240: 7545 b23e 3051 8dbd 7db1 a23d cfa3 82be
00000250: 4db2 c3bd 7867 e83d 9157 89be daa9 e0bd
00000260: 518f ac3d 6752 acbe 7d36 9cbc 001b 103e
00000270: e342 153e 786c 93be 199c 5bbe 59b4 9e3d
00000280: 625a c8bd 4ffc bbbe e88e 3c3e e657 0cbe
00000290: 98d3 8c3e 5260 90be 5cb7 55be 692a 4f3e
000002a0: d06d 363e 97af 833e 1318 ed3d d43e f23d
000002b0: 3614 403e edf9 70be 2034 2d3e 0e20 96be
000002c0: 00cf c23d 3cbc 93be c1ca c5bd 09b8 853c
000002d0: b89d 85be aa5d 563e 73da 743e 54f5 683e
000002e0: 903b 0ebe 85ab dabd d429 bcbd 6eed 5cbe
000002f0: dbbf b5be 0e1a 79bd a079 11bd b3d4 94be
00000300: 6417 1e3e bcbd 39be 0ea4 aabd cf2b 783b
00000310: e867 5cbe 58be 9e3c af40 0cbe f8f0 3b3d
00000320: 8c47 c8be ee48 a4bd 8240 01be 8e27 bcbe
00000330: 80b1 853d 6171 5cbe 0f97 db3d 5c57 753e
00000340: 0625 db3d 2507 9cbe 8a68 563e 4819 7e3e
00000350: 7533 9abe 2f5e a7be da55 efbc b131 873e
00000360: bb69 9b3e 753c 9ebe 4f8a 9fbd 12ff da3d
00000370: 2b8a 0c3e d711 993e f590 d2bd bfc6 e33d
00000380: de1b a9be b655 783e f283 98be 14e1 803e
00000390: 3021 46be 1925 a5be f9bf 48be 47b9 673e
000003a0: 30db 51bd da4b 753d 56c3 a63e 23f0 f2bd
000003b0: 06f1 1dbd df5d 123d 5431 35be 6a76 9d3e
000003c0: 7187 d93d b1b9 963e 22e7 64be d42f 36be
000003d0: c621 99bd 5a7b 0bbe f488 b8bd e10f ae3c
000003e0: 5030 b9be 623a 39be 7570 283e b557 b7be
000003f0: b2a4 9f3e f80c cd3e 8d22 91bd 95e0 d63d
-0.25346166 0.33755505 -0.116234295 -0.18479353 -0.08806067 -0.2985245 -0.04798618 -0.0051432103
-0.21591733 0.08884033 0.34271437 -0.31228006 -0.01365919 0.16663048 0.175984 0.20538746
0.12863046 0.21531358 0.15740049 -0.22044548 -0.30425438 -0.03387938 0.349221 0.15282919
-0.13633677 -0.24328403 -0.09539361 -0.1719597 0.28951746 0.27750674 -0.15619206 -0.14266232
-0.094057284 -0.3056813 -0.01292086 -0.23631221 -0.36122844 -0.2597241 0.1782304 -0.08361197
-0.1604645 0.21410117 -0.034001052 -0.1370897 0.085391946 -0.018147841 -0.14054619 -0.23772636
-0.36601555 0.20170276 0.14861757 -0.305634 -0.18091984 -0.04874411 0.23298876 -0.11892115
0.28303507 0.13390164 0.096572846 -0.23172735 -0.13086356 -0.13946638 0.114444666 -0.14303243
0.08455098 0.03866844 -0.31022462 -0.18397339 0.16469842 0.14467694 -0.10306295 0.049883988
-0.15299933 -0.17551836 -0.26168492 0.21834902 -0.3268005 0.2994127 0.3013441 -0.28513986
0.27566013 0.23720196 -0.20178421 0.016054895 -0.23860341 -0.019776735 0.2881313 -0.26846474
-0.3556724 -0.08171335 0.2968253 0.21645035 0.14109612 0.0143615585 -0.36344463 0.17074162
-0.0011401736 -0.019691594 -0.11347935 -0.18555553 -0.04758047 -0.0809155 -0.37842292 0.08503394
-0.32203248 -0.11175917 0.15013294 -0.3272489 0.06271517 -0.098065674 -0.014088049 0.21870461
0.17502604 0.11524365 -0.09556046 0.11187317 -0.017660633 0.18911478 -0.02118506 0.12704635
-0.21204859 0.12152664 0.019863699 -0.092267424 -0.35219014 0.032546293 0.35058165 -0.20572215
0.25385618 -0.14597955 0.08715247 -0.163912 -0.04221905 -0.19155087 -0.2959555 -0.3764789
-0.114305854 0.0670415 0.12033767 -0.40363872 0.059242614 -0.2827555 -0.103842765 0.15405543
0.34818617 -0.06900251 0.079440095 -0.255156 -0.095554926 0.1134786 -0.2682462 -0.109698966
0.08425773 -0.33656618 -0.01906895 0.140728 0.14576297 -0.28793693 -0.21446265 0.07749242
-0.09782864 -0.36715934 0.1841389 -0.13705406 0.27505183 -0.28198487 -0.20870727 0.20231022
0.17815328 0.25719902 0.115768574 0.1182839 0.1875771 -0.23532839 0.16914415 -0.2932133
0.09512138 -0.2885455 -0.09657813 0.016323106 -0.26096892 0.20934168 0.23911457 0.22749835
-0.13889909 -0.10677246 -0.091876656 -0.21574947 -0.35497937 -0.060815863 -0.03551638 -0.29068527
0.1543861 -0.18138784 -0.08332072 0.0037867909 -0.21524012 0.019377872 -0.1369655 0.045884103
-0.39117086 -0.08021723 -0.12622264 -0.36748928 0.06527996 -0.21527626 0.107221715 0.23959106
0.10700421 -0.304742 0.20938316 0.24814332 -0.30117384 -0.32689044 -0.029215742 0.264051
0.30354103 -0.309055 -0.07790052 0.10693182 0.13724582 0.29896423 -0.102815546 0.11121892
-0.33029073 0.24251446 -0.29788166 0.2517172 -0.19348598 -0.32254866 -0.19604482 0.22629271
-0.051234424 0.05988679 0.32570904 -0.11862209 -0.038559936 0.035734054 -0.17694598 0.30754405
0.106215365 0.29438546 -0.22353795 -0.17791682 -0.07477145 -0.13621274 -0.09010497 0.021247806
-0.36169672 -0.18088678 0.16449149 -0.35809103 0.3118034 0.40048957 -0.07086668 0.104920544

cells.0.x2h.bias f4 [256]
00000000: fcc1 f4bc a53d cfbd 2b68 c8be 3f2f 39be
00000010: 9210 72be 97ad 573e 2d92 8a3e 9eac 53be
00000020: 2e16 043c a2bf f2bc 85d8 ff3d a568 bbbe
00000030: 720f 203e 65d7 89bc 6c3b 803d 8a36 a0be
00000040: acfb debd 3d8b 05be 848f 193d 1b37 98be
00000050: f9d4 8dbe 7e7c 89be 8ab9 753e e36a 4b3e
00000060: e8d4 a2be b9cd 883e ff06 1f3e 1885 88be
00000070: 7d28 053c 5ded 11be b6ed 2d3e ee08 b7bd
00000080: 386a 663e f19f b93d 989e 1ebd 53f2 8ebe
00000090: 74b2 0cbe 2c58 453e b7a0 cdbe e014 9dbe
000000a0: fbbf a7be 3daa 81be a7aa a8bd 2eec 343e
000000b0: 864b 943c cac8 42be f4a7 58be 1b82 b5be
000000c0: 6142 8c3e 0924 c4be a4bc 1ebe f529 2cbe
000000d0: e57f 03bd 25a0 29be 15f3 283e f3f7 b6be
000000e0: efc5 efbc 65b6 203b 9ac5 45be 5612 633e
000000f0: a5b1 0c3e 6790 e43c 2469 a7be 5e8a 90bd
00000100: 6738 e1bd 9b50 e4bd fdd9 91be d1a2 913e
00000110: 8135 2cbe 6a85 29bd a9c0 81be 31e5 c5be
00000120: 870b 51be bf71 5a3e b018 3a3e e70e 1fbe
00000130: fd02 7bbe 9446 88bd 2445 cf3d d795 07be
00000140: a69e cebd 6969 b9be 33fa 81bd 3ce1 3abe
00000150: 8dea 453e f6e1 76be 5f89 e8bc 495f c4bc
00000160: 7971 cbbe d834 9bbd 8694 f7bd b813 32be
00000170: 29e2 bebc 7119 54be 17b4 4f3c 6545 9c3a
00000180: 829f 40be c329 843d 59c8 393e c69c 56be
00000190: f98e c2be c4a8 8abe 8db1 0b3e a949 b0bd
000001a0: 1af0 3dbd 0750 55be 088e 72be f873 aebe
000001b0: 76e1 3b3e fad9 58bd 2a93 5e3e d328 5abe
000001c0: 85b2 263d 1b75 19be 95ac aebe df5c 7bbe
000001d0: 9cd0 51be e554 22be 71fb 85be 1f21 23bd
000001e0: 849a 94be cd76 25be bb3f 8d3e 5168 58be
000001f0: c893 2e3e a477 803c 11bc fa3c 6a8b 473e
00000200: 989d a03c d854 c13d 5266 b23d 442d 49be
00000210: a0a6 6cbe 8c96 12bd 84c0 d13d b609 0d3d
00000220: bbca 39be bdd7 90be 6d7b 31be cfdb f7bd
00000230: a637 403e 3779 a63c 3c9a 0c3e 2b92 ff3d
00000240: 2328 a03c 5be9 513e 64ad 77be 76e4 8bbe
00000250: 6ce6 65be 16f4 3b3e d288 3dbe b43f 6f3e
00000260: 22d0 b9bd 54cc 523e c73f 5b3e 1516 393e
00000270: 30bf a13d 7223 34bd 0834 4e3e dcf1 7fbe
00000280: bc36 a43e c78d e43c 7319 753d a58e c9bd
00000290: 5f31 b93d 9c3f 253d f577 653e fe6a 203d
000002a0: 5ebb bdbd e83f 10be 7cf3 69bd 5da2 883e
000002b0: 0865 ebbd cf3c af3d 76bb e8bd 2b10 7f3e
000002c0: 7d01 503e 0f2d 593d b0d0 af3d 8dc7 07be
000002d0: 7d96 7abe a70d 99be 3aa6 093e 8307 023e
000002e0: fc6e 4dbe ec26 46be d53c 6bbe 9220 763d
000002f0: dac4 323e 61d3 373d a70a 22bd 5b63 8e3d
00000300: e349 143b ea02 02be b862 2c3e 50ee 9abd
00000310: 3bd6 82bd 80e1 573d bab4 78be cb5d 79be
00000320: 06ff a0be a3dc 59be 3496 883e 3914 89be
00000330: c776 3c3d 2ce6 e3bd 4442 34be 39ae b2bb
00000340: e583 dcbc 655a 2dbd 5814 573d 5bf9 82be
00000350: 073a d8bd f956 753e 185c 29be 78df 3a3b
00000360: 621e 9ebe 297c 4e3e 70be c8bd 2096 b8be
00000370: 8a0f 1dbd a538 94be c4f4 dc3b 18bb 883e
00000380: 14bd 96be 1cf8 5c3e 0a84 78be 6a3d 40be
00000390: b5e6 133e f368 313e eab5 e1bd 8174 9d3d
000003a0: f76a 16bb e622 4fbe d18d 033e 11e0 2a3e
000003b0: 02d0 88be 29df 73be b8c8 42be a35b b9be
000003c0: 5e7c 753e a61e 3b3e 3d29 82be 1363 33bd
000003d0: 3d18 eebd d95f 6cbe 5cfc 14be 61e5 36be
000003e0: 6827 06be 2b4d cfbd 61ca 53bd 0acf c7be
000003f0: 8ac0 e53d 5344 08be 1736 4a3e c465 d43d
-0.029877655 -0.1011918 -0.39141974 -0.18084429 -0.23639134 0.21062313 0.27064648 -0.20671317
0.008061929 -0.029632393 0.1249247 -0.36603275 0.15630892 -0.01682634 0.06261334 -0.3129161
-0.10887846 -0.13041396 0.037490383 -0.29729542 -0.27701548 -0.26852793 0.23996559 0.19864993
-0.3180306 0.26719454 0.15530013 -0.26664042 0.008127329 -0.14250703 0.16985211 -0.0893725
0.22501457 0.090637095 -0.038725466 -0.27919254 -0.1373995 0.19271916 -0.40161678 -0.3067999
-0.32763657 -0.25325194 -0.08235674 0.1766822 0.018102419 -0.19021907 -0.21157819 -0.35450825
0.27394393 -0.38308743 -0.15501648 -0.1681288 -0.03210439 -0.16564997 0.16498978 -0.35736045
-0.029269187 0.0024522778 -0.1931366 0.22174963 0.13739641 0.027900888 -0.32697403 -0.070576414
-0.10997086 -0.11148187 -0.28486624 0.28444532 -0.16817285 -0.041387 -0.253423 -0.38651422
-0.20414554 0.21332453 0.1817348 -0.15533029 -0.24512859 -0.06654087 0.101206094 -0.13240753
-0.100888535 -0.36213234 -0.0634655 -0.18249983 0.19327755 -0.24109635 -0.028385816 -0.023971217
-0.3973501 -0.075784385 -0.120888755 -0.17390335 -0.023301201 -0.2071283 0.012677214 0.0011922537
-0.18810847 0.06453278 0.18142833 -0.20958242 -0.37999704 -0.27081883 0.13641949 -0.086077996
-0.046371557 -0.2083131 -0.23686993 -0.34072852 0.18347725 -0.052942254 0.21735826 -0.21304636
0.040697593 -0.14986078 -0.34116045 -0.24547146 -0.20489734 -0.15852697 -0.26168397 -0.03982651
-0.29024136 -0.161586 0.27587685 -0.21133544 0.17048562 0.01568205 0.030607255 0.19486776
0.019606397 0.09440011 0.08710922 -0.19646174 -0.23110437 -0.035788104 0.102417976 0.03443309
-0.18143742 -0.28289595 -0.1733224 -0.12102472 0.18771228 0.020321472 0.1373071 0.12479051
0.019550389 0.20499174 -0.24187237 -0.2732274 -0.2245118 0.1835483 -0.18509224 0.23364145
-0.09072901 0.20585757 0.21411048 0.1807483 0.07897794 -0.043979116 0.20137036 -0.24994606
0.3207301 0.027899636 0.059838723 -0.098416604 0.0904262 0.040343866 0.22409041 0.039164536
-0.09264253 -0.14086878 -0.05711697 0.26686373 -0.114938796 0.0855652 -0.1136388 0.24908511
0.20313068 0.053021487 0.08584726 -0.13259716 -0.24471469 -0.29893228 0.13442317 0.12698178
-0.20061868 -0.19350785 -0.22972424 0.060089655 0.17457905 0.04487932 -0.03956094 0.06952544
0.0022627048 -0.12696424 0.16834533 -0.07564986 -0.063885175 0.052705288 -0.24287692 -0.24352185
-0.31444567 -0.21275572 0.26677096 -0.2677324 0.046011712 -0.11127886 -0.17603403 -0.005452898
-0.026918361 -0.042322535 0.052509636 -0.25580868 -0.10557943 0.23958959 -0.16539037 0.0028514545
-0.30882555 0.20164551 -0.09801948 -0.36052036 -0.038344897 -0.28949466 0.0067430455 0.2670524
-0.2944113 0.21579021 -0.24269119 -0.18773428 0.14443476 0.17325191 -0.110210255 0.07688237
-0.002295194 -0.20228156 0.12847067 0.16687037 -0.26721197 -0.23815598 -0.1902188 -0.36202726
0.23973224 0.1827341 -0.25422087 -0.043795656 -0.11625717 -0.23083438 -0.14549392 -0.17860939
-0.1310097 -0.101221405 -0.051706675 -0.39025146 0.112183645 -0.13307314 0.19747196 0.10370973

cells.0.h2h.weight f4 [256, 64]
00000000: 8be4 3dbc 2938 14bd a437 4ebd 338c 233d
00000010: d327 11be e62c 723d 13b0 aabd 9641 443d
00000020: ccd1 7f3d 05a8 59bc d327 62bb bf20 163e
00000030: a75b 0abe 2adb 2abe 8b7b 16be 5b5c 0f3e
00000040: b9df 243e 4a1c 0fbe 8a86 b33d 02c8 893d
00000050: fd85 e03c 008b 223d 843f 5f3c f3c5 d1bd
00000060: cfd3 f83d f119 f3bd 84e0 babd e822 ae3c
00000070: 06a5 06be 2488 123e 012d 08bd 4073 e73d
00000080: 213b 7f3d 3c60 8abd a158 223e 3caf 00bd
00000090: aaa4 0ebe c98c 8d3d 5d08 5b3d dcc5 963d
000000a0: 0233 1abc 156d f0bd 9678 e83c 3edb a4bd
000000b0: 2c61 a23d 9aa7 1cbe 6d73 763d a7bb a6bd
000000c0: cbc3 11bd 7a0f b6bd b487 7e3d 8ccb 273e
000000d0: 5c92 2b3d 7889 713c b06d f03c 5964 dbbd
000000e0: 273a 1d3e 7dfb 4cbb 0916 b3bc c2e5 2ebe
000000f0: 4509 39be bf0a f6bc 7d10 cf3d f8f8 e5bd
00000100: b0a9 2cbe 8a47 86bd c41b a9bc dfdc 7ebd
00000110: 5b96 9fbd 9c36 133e caed 3abd 8c3d 83bd
00000120: 97ea 0a3e 9648 083e 3667 96bc 25b9 343e
00000130: 2bfe 39be 0d43 9bbd e290 a33c 1a2e e63d
00000140: af83 3fbd 95be efbd 75fe 8a3c 051f 763d
00000150: 520b 113e 3786 2cbe 886e 063d a3a6 0fbe
00000160: dd60 2c3e 2c23 13be 0feb 9c3c 2b1a 02be
00000170: 130a 87bd de42 323e 1390 25bc 2a95 293e
00000180: 768d 8039 ce1d ce3d f456 f5b8 c2fa 80bd
00000190: 2374 d23c 7ada bfbd da61 c9bd 15a9 8d3d
000001a0: 6920 c23d c742 4dbd 592e bf3c 380b 31be
000001b0: e83b 473c 14ac 3cbd 1afa 1b3e aac4 fc3b
000001c0: 91d6 58bd c3f9 11bd ea44 f1bc 03e4 e93c
000001d0: da48 8f3c 20e4 093e 4c10 f3bc 2d05 273d
000001e0: 6dbb 203e b2a1 3e3d c48d 89bd c099 81bd
000001f0: dffc 143d 16f3 cebd 72ff c23d 4d05 863b
00000200: 9e3d a9bd a5e8 43be 5a2a 9fbd 8b30 c33d
00000210: dfca 91bd afb4 30bd bf9a 4b3b 6ba0 6b3d
00000220: ee4d a8bb 7a29 363e 3452 773d 98a8 a0bd
00000230: b83c 753c f061 48be c6d8 3abe 4f24 bf3d
00000240: c5a4 abbd e821 4bbe e396 8fba 5340 b83d
00000250: dcc2 21be 9979 25be d2dc 603e f74c ddbd
00000260: 6594 3ebd c0ef efbd ae5a 16bd 9b3f debd
00000270: b5aa acbd 06fe 5b3e 6cd9 53bd 4827 583e
00000280: a0fc b5bc 4c81 d3bd bcd3 2c3e aa78 1d3d
00000290: 1368 2fbe 1025 543d 0d4f aabd fd02 cc3d
000002a0: e743 da3c 1121 10bd 3f13 033e 28ea 58bd
000002b0: 4a25 093e 6157 33bd 102a 003e e328 1cbe
000002c0: ed32 d93c dd4f 46bb b353 4a3d 5e07 0a3e
000002d0: f807 da3d e1a7 e03d 2cb9 49bd 3765 09be
000002e0: b19e 3f3e 0606 123e 2a06 a73a a434 21be
000002f0: 7053 c63b e6db b23c 6215 483e 6d52 c8bc
00000300: 6acd 583d 9d99 0e3e ae68 4c3d 405d bb3d
00000310: 3519 543d dac0 f7bc 231d 9c3d b0f6 3a3e
00000320: 7e2a 54bd d905 eb3d ad6d 8abd 3373 1e3d
00000330: 05aa 953d 3b4d bbbc a048 4d3d 965e aabd
00000340: e7a0 81bd 5e0b 803d effa b6bd 52a0 c63d
00000350: 2649 05bd 6ccf e2bd 8ea4 7a3c dddc eabd
00000360: 08ea f3bb 46a1 e23d 307c c63c 8173 f03d
00000370: f9c9 89bc 76e5 ac3c b874 e93c 9123 7c3d
00000380: b709 d73c f859 babb 46af 8ebd 1c74 083e
00000390: a3de eb3d bfae 0a3e e108 08be 46b8 d73d
000003a0: e694 843c 2dae 863b 096f 063e 043d 88bd
000003b0: ebb3 71bd c142 d93d 8bfb 413d 7577 74bd
000003c0: 9081 da3d cda3 fabc 1b0b 33be 34c1 27bd
000003d0: 70af 643d b04d bd3d 414f 6abc 8c2e a5bb
000003e0: c29d 20be 1329 d2bd 839d b03d 37bd ff3d
000003f0: dd8a 363d d5b3 233d 6192 7d3d a677 3d3d
-0.011590133 -0.03618637 -0.05034603 0.039928626 -0.14175348 0.05912485 -0.08334365 0.04791411
0.062455937 -0.013284688 -0.00345086 0.14660929 -0.13511525 -0.16685167 -0.14695565 0.14000075
0.16100968 -0.13975635 0.08765896 0.067276016 0.02740764 0.039683342 0.013625983 -0.10242834
0.12149774 -0.11870182 -0.09124854 0.021256879 -0.13148889 0.14309746 -0.033246044 0.11301279
0.06231225 -0.067566365 0.15854122 -0.031417117 -0.13930002 0.06911618 0.053474773 0.073619574
-0.009411575 -0.11739556 0.028377812 -0.0804963 0.0792869 -0.1529831 0.060168672 -0.081412606
-0.035587113 -0.08889671 0.062141135 0.1638624 0.041887626 0.014742248 0.029349178 -0.10712499
0.15354215 -0.0031277828 -0.021861093 -0.17079833 -0.18069942 -0.030034421 0.10110567 -0.11229128
-0.16861606 -0.06556614 -0.020643122 -0.062222358 -0.0779235 0.143763 -0.04563693 -0.064082235
0.13566051 0.1330894 -0.018359762 0.17648752 -0.18163364 -0.07581148 0.019966546 0.11239262
-0.046756443 -0.117062725 0.016967038 0.060088176 0.14164475 -0.16848074 0.032820255 -0.1402841
0.16833825 -0.14368886 0.019155053 -0.12705295 -0.065937184 0.1740832 -0.010105151 0.16560808
0.0002451946 0.100642785 -0.00011698707 -0.06297828 0.025690144 -0.09367843 -0.09833117 0.069170155
0.09478838 -0.050112512 0.02333753 -0.17289436 0.012160279 -0.046062544 0.15232125 0.007713874
-0.052939 -0.035638582 -0.029451806 0.028551107 0.017490793 0.13465929 -0.029670857 0.04077642
0.15696497 0.046540923 -0.06716493 -0.063281536 0.03637397 -0.10104959 0.095213786 0.0040899874
-0.08263706 -0.19131716 -0.0777175 0.09530743 -0.07118773 -0.043141063 0.0031067578 0.057526033
-0.005136243 0.1778926 0.06038113 -0.07844657 0.01496809 -0.1956861 -0.18246755 0.09333097
-0.08381037 -0.19837153 -0.0010955002 0.08996644 -0.15796989 -0.16159667 0.21959236 -0.108056955
-0.04652824 -0.117156506 -0.036707573 -0.108519755 -0.08430997 0.21483621 -0.05172102 0.21108735
-0.022215188 -0.10327396 0.16877645 0.038445152 -0.17129545 0.051793158 -0.08315859 0.099615075
0.026643706 -0.035187785 0.1280031 -0.052957684 0.13393131 -0.043784503 0.12516046 -0.15249972
0.026513541 -0.0030260005 0.049396228 0.13479373 0.10646051 0.1096952 -0.04924886 -0.13417517
0.1871288 0.1426011 0.0012742926 -0.15742737 0.006052427 0.021833371 0.19539407 -0.024453366
0.052930273 0.13925786 0.049904518 0.091486454 0.05178185 -0.030243326 0.07622745 0.18258166
-0.051798336 0.11475725 -0.067592 0.03868408 0.07307819 -0.022863975 0.05011809 -0.08318822
-0.06329518 0.06252168 -0.089345805 0.096985474 -0.032540463 -0.11074719 0.015298022 -0.114679076
-0.00744367 0.11065917 0.02422914 0.117407806 -0.01681994 0.02110551 0.028498039 0.061557356
0.02624975 -0.0056869946 -0.069670245 0.13325542 0.11517074 0.13543223 -0.13284637 0.10533194
0.016184282 0.004110119 0.13128294 -0.06652263 -0.059009474 0.106084354 0.04735903 -0.059684236
0.10669243 -0.030595684 -0.17484705 -0.040955737 0.055831373 0.09243333 -0.014301122 -0.005040949
-0.1568518 -0.102617405 0.08623793 0.12487262 0.044566024 0.039966423 0.061907176 0.046256684

cells.0.h2h.bias f4 [256]
00000000: e45f b9ba 7a22 363d 9fa8 383c 82bf 753d
00000010: c6b0 b0bd b54a 1f3d ec8b 34be 8775 fd3b
00000020: 65fb 4b3c b673 d33b 809e 18bd bb25 9ebd
00000030: b05b 0e3d d424 a5bd 51fe 56bc 4d6c 13be
00000040: 8be3 44be df81 2bbc 52ba 59bc 46e7 a2bd
00000050: 4db8 10be 1753 00bd 1de4 1cbe b34c d1bd
00000060: b2d5 bfbd d410 0d3c 33bc 4f3d 4093 fdbb
00000070: da6f 223d 2daf ec3c d426 3dbd 6866 fbbc
00000080: ee78 02be de70 d5bd da39 1bbe 2d46 abbd
00000090: 462c 30be 8c57 4a3c 217f 4cbe 14eb 05be
000000a0: f7f5 adbb d8f7 1ebe 6c0f 8ebd 4f1a c5bd
000000b0: a1c8 aebd 5566 823c e887 95bc 7757 25be
000000c0: 44b9 a63c 9b81 46be 0181 913c b06d d03c
000000d0: 86f8 d9bd 3ecc 2fbd 069d e2bc 74af a1bd
000000e0: 5f03 a3bc a1ea a73c 911a fa3b 93a1 39be
000000f0: 14d0 e9bc 11f0 b03d 7311 1bbc b249 d1bd
00000100: da63 083d b6e7 023d 9c4e bebc 65c1 35bd
00000110: b030 c5bd 12c7 cdbd 6f34 01be c492 573d
00000120: f63b f4bd 2d56 7abd deb6 163d 7dba 28be
00000130: c49b 33be b01c 21be fc2d 33be 022f 4abe
00000140: 96c6 10be fb5c 183d 38e5 cd3c 1ee8 3bbd
00000150: 23b0 1fbe e7e3 3c3d f6cc 83bc a3c2 1eba
00000160: b68f 7ebd 165a cf3d 74f5 0dbe 91bb 1c3d
00000170: 5127 11be b5a8 b3bd 5cd2 06be 0633 e0bd
00000180: 6778 f2bd 6ffa aa3d d1f6 e33b f209 7ebd
00000190: 91fb fbbd ce56 4bbe 59c6 17be 9676 c7bd
000001a0: c067 d13c 891e 3abe 6fea 123e fa94 523d
000001b0: de67 14bd 62d5 09be 6041 fb3d 3cbb a5b9
000001c0: 1509 523d 4d7e cdbb a70f 123d 5a95 0bbd
000001d0: 2db2 35bd 522b 20bd c1f2 36be 546e 173c
000001e0: 79ee 473c a918 1fbd fa3d aa3d 6d56 3f3d
000001f0: 88a7 3dbe 8f50 bfbd 9cec 99bd 33b6 6a3d
00000200: 3563 503c 9950 32bd e9c2 d33c e9bc 41bd
00000210: c215 c2bd c73b 3e3e 4336 623c 6bf4 8ebd
00000220: 864b 9d3d dc53 8a3d b3fb b9bd c697 5b3d
00000230: 0929 98bd c8b6 023c 9b96 6cbc 29f5 3b3e
00000240: 5dc5 1e3e e5d3 29be 65f6 01be ed42 5e3d
00000250: 3ca7 0a3e e3ff b03d 2768 d43c 416f 093c
00000260: 9c09 073e 5c17 053e c9c3 bfbd ab39 e9bb
00000270: c0a6 cbb8 eaf2 18be c141 313c 8018 a4bd
00000280: 51d5 68bd 741f d93d 8917 8b3c 3992 a23c
00000290: 56cc 22be 7b26 d1bd 619a 93bc 0bd2 94bd
000002a0: 723a ba3d ce53 08be a54c f0bb a358 a1bd
000002b0: eda3 26bd 35a1 a7bd 3632 f1bd cde5 2dbe
000002c0: f40c 933c 000e b13d 868a 07bd f0e8 aa3b
000002d0: d3b1 ee3c eb2b 64bd 18de 783c 5021 42be
000002e0: 49a2 3f3e 226a 063e 7648 fbbd a07a e33b
000002f0: 2383 9bbd 4837 18bd 4a06 87bc e869 02be
00000300: e486 44bd 15e5 713d 0eab 29bc 94e9 75bd
00000310: 305b 30be ed59 e3bd 370d 94bd 8606 143d
00000320: 8945 80bd 3a6c 10bd 1d55 b23d e656 94bd
00000330: de15 01be 7b46 5abb 5537 90bd aae0 77bd
00000340: d925 f5bd fd66 3bbe 8147 f1bd 8303 4bbd
00000350: 138b 333d 045a 7d3c ff0c 1ebe ad98 e5bd
00000360: 1c6c cabd 5a84 88bd 754a 363d 6935 87bc
00000370: f287 3c3c c78a 87bd dfde f9bd 59e2 d1bd
00000380: e1ed fcbc 9f62 4d3b ba74 cabd 2ed4 4ebd
00000390: d2c6 88bd 9d52 48bc 855e 77be 3c08 05be
000003a0: 1216 20bd 7a9a 1fbe d0c0 88bc 1519 dd3c
000003b0: 9969 5f3d 15ce 36be 0899 afbc b285 cebd
000003c0: 5e26 953d fde6 1bbe fa10 37be cc89 2cbe
000003d0: c29b 683b 18ca d93d 225d cdbd f12d 39be
000003e0: 7b22 ef3c f9ab fcbd 6345 98bd 83aa 40be
000003f0: e647 3cbe bcb1 f93b e531 98bd 8c62 e43c
-0.0014142958 0.044466473 0.011270671 0.05999709 -0.08627467 0.038889606 -0.17631501 0.0077349576
0.012450074 0.006453003 -0.037260532 -0.0772204 0.03475541 -0.08063665 -0.013122157 -0.14396782
-0.19227426 -0.010467975 -0.013289051 -0.07954268 -0.14132805 -0.03132924 -0.15321393 -0.10219707
-0.09366931 0.008609969 0.05071659 -0.007738501 0.03965745 0.028892124 -0.046179608 -0.03068848
-0.12741444 -0.10421918 -0.15158787 -0.08362994 -0.17204389 0.012349974 -0.19970371 -0.13077956
-0.0053088623 -0.15524232 -0.06936535 -0.096241586 -0.08534361 0.015917936 -0.018253282 -0.16146646
0.020352013 -0.19385378 0.01776171 0.025442928 -0.10643105 -0.04291939 -0.027662765 -0.07894793
-0.019899068 0.020497622 0.0076325615 -0.18128042 -0.028541602 0.08639539 -0.009464609 -0.102191344
0.03329835 0.031959258 -0.023230843 -0.04437389 -0.09628427 -0.10047735 -0.12617658 0.0526302
-0.11925499 -0.06111734 0.03679549 -0.1647739 -0.17539889 -0.157336 -0.1749801 -0.19744495
-0.14138255 0.037198048 0.025133714 -0.04587566 -0.15594535 0.046115782 -0.016088944 -0.0006056225
-0.062148772 0.101246044 -0.13863164 0.038264815 -0.14175154 -0.08772413 -0.13166183 -0.10947232
-0.11839371 0.08348548 0.006956913 -0.062021203 -0.12303842 -0.19857332 -0.14821757 -0.09739415
0.025562167 -0.1817571 0.14347242 0.051411606 -0.036231868 -0.13460305 0.12268329 -0.00031610753
0.051278193 -0.0062711597 0.03565946 -0.03407798 -0.044359375 -0.039103813 -0.17866041 0.009242613
0.012202852 -0.038841877 0.08312602 0.04671328 -0.1852094 -0.09341537 -0.07515833 0.057302665
0.012718965 -0.043533895 0.025849776 -0.0472993 -0.09476806 0.18577491 0.013806882 -0.06980213
0.076804206 0.06754276 -0.09081211 0.05361154 -0.07429702 0.007978149 -0.014440204 0.1835524
0.15504976 -0.16584738 -0.12691648 0.054263044 0.13540357 0.086425565 0.02592857 0.008388341
0.1318726 0.12997192 -0.09363515 -0.0071174703 -9.710854e-05 -0.14936414 0.0108189 -0.080124855
-0.05684406 0.10601702 0.016978996 0.019845115 -0.1589826 -0.10212418 -0.01801795 -0.07266625
0.09093179 -0.13313219 -0.0073333555 -0.07878234 -0.040683676 -0.08185045 -0.11777155 -0.16982193
0.017950512 0.086452484 -0.03309109 0.0052157566 0.029137528 -0.055705946 0.01518967 -0.1895802
0.1871425 0.13126424 -0.1226968 0.0069421083 -0.07593372 -0.037162095 -0.016482491 -0.12735713
-0.047980204 0.05905636 -0.010355724 -0.06003721 -0.17222285 -0.11101136 -0.07229083 0.036139034
-0.06263263 -0.035259463 0.0870764 -0.07243137 -0.12605998 -0.003330617 -0.07041804 -0.06051699
-0.119701095 -0.18301006 -0.117812164 -0.049563896 0.043833803 0.015463356 -0.15434645 -0.11210761
-0.098839015 -0.06665869 0.0445046 -0.01650496 0.011507021 -0.066182666 -0.122007124 -0.102482505
-0.030875148 0.00313393 -0.09885545 -0.05049532 -0.06678547 -0.012226728 -0.2415715 -0.12991422
-0.039083548 -0.15586272 -0.016693503 0.0269895 0.054544065 -0.17852052 -0.021435276 -0.10084094
0.072827086 -0.15224834 -0.1787757 -0.1684944 0.003549323 0.106342494 -0.10027529 -0.18083932
0.029191246 -0.12337489 -0.074351095 -0.18815045 -0.18386802 0.0076200645 -0.074313916 0.027879022

cells.1.x2h.weight f4 [256, 64]
00000000: d8af 25bd 28d2 d53c bbf8 00be ab82 cf3d
00000010: a542 0fbe 620d 45bc ad70 40be 7225 523d
00000020: 760e 873c 735a 083c 815b c03c 3015 0f3e
00000030: e748 cabd 8956 b6bc 8a13 98bd a662 b53d
00000040: 142b f8bc a66d dabd e113 0a3e 7071 3b3e
00000050: 1719 f43d 7026 42bd 6239 813d f132 f3bd
00000060: d959 04bd 1aa9 b1bd d312 5a3c 2e5c 953c
00000070: 676b 1cbe 46b4 e53d a7b1 ef3b 7c63 383c
00000080: 65a1 81bc caa6 1d3d 5f51 d03c 9daf f5bb
00000090: 12d1 62bd bab3 313d d6d1 d3bb 3e28 c33d
000000a0: 133e 4cbb ae1f 983d e0ef a13d 844d 92bd
000000b0: 1fec 77bd 4005 78bd b595 973c b63d a3bd
000000c0: 4391 2abd 998b f0bd e482 0b3e a0ec 9a3c
000000d0: f7b8 fd3d ab47 fabc f19b 293c 044a ccbd
000000e0: 20d2 793d 3ccb a13d d3c5 6e3c 2522 3abe
000000f0: 1777 d0bd 3cd6 06be b524 f93d c3ca 59bd
00000100: 5abc 8d3d 1a0a 94bd 0677 b43d d4c2 0c3e
00000110: 11cd a23d d69e 26be f073 bb3d 66b1 513d
00000120: 5cf3 263d 376d 85bc a05d d03d d287 ff3c
00000130: 6b38 e33d 4050 783d 03b0 d63c 3a73 ffbd
00000140: 4dc2 f9bd b68f f6bc 6cee f53c 1fa9 c8bc
00000150: cd40 65be 0623 88bd b28d a6bd 2c17 5dbd
00000160: c5c2 febc 3a6e 893c 32e1 dbb9 6d43 f13d
00000170: 1037 d93c 5354 3b3e 7cff fcbd 9de3 1d3c
00000180: 4475 43bd 98fc e4bd d6dc 49bd 2918 4b3d
00000190: 0d1a 233d fbaf cf3b bf4b 83bd 87f3 af3d
000001a0: dfb1 2ebd 8ba1 2d3e 7417 36bd f919 c1bc
000001b0: 3e4f 1bbe a9e3 40bc d38f 71bc 78e5 f3bd
000001c0: d63f 9c3c 84c2 82bc c51f 1cbd 51f7 93bd
000001d0: f3fb 033d 246d d13d 9a2f 593c 95e8 ef3b
000001e0: fe77 8f3a 9e7f fdbd bf85 eb3d f952 6d3d
000001f0: e026 9f3d d133 053b c824 85bd d1cf 733e
00000200: 1dd5 73bd 31b9 3f3d 1276 82bd 51f3 86bc
00000210: bf3f 953c b7d8 a6bd 5823 e93d 8cd2 e03c
00000220: 9a57 96bd 61dd 05bc 69e6 943d 43e5 a13c
00000230: ba16 523c 2721 8f3d 791b 7fbd 3240 82bd
00000240: db4c bdbd fc31 223d 85ea acbd 8735 b23d
00000250: 6bd7 633c 3a9d a73d 6f2d 933d 42fd 56bd
00000260: 0f93 623c 586e 8d3d f251 ab3b 03be 073e
00000270: 8d8c 963d f521 9ebd 853b 513d 7ea6 96bd
00000280: c4b8 c8bd 1ab3 30be 07ca 543c 0e41 703d
00000290: dd93 933d cfac 7d3c ffc7 be3d 841e aa3c
000002a0: 871a db3b 51da c53c 7323 8c3d fe42 01be
000002b0: 5c7f 43be 445c 2e3e df3a f93d 261e a23d
000002c0: d20d 973b ffec 64bc 4c3b 2bbe 89f2 37bd
000002d0: 1c6f 893d 179f f93d ae34 673b e547 8a3d
000002e0: 85dc 6ebc c812 94bb abf5 9d3d 8294 cabc
000002f0: 7fbc 073c 6e0e b63c 06bf 0abe c0c1 1d3e
00000300: 0e81 21bd 1aa3 38bd f83d 25be 8dd3 a53d
00000310: 6425 05be 628f 003e ce03 4a3d 7ea2 473c
00000320: 4b35 293e 9acd 403e 418d 043e b619 e13d
00000330: 42bc bebd a858 6e3d b987 3fbe 8b06 febb
00000340: 7c66 c33d ddaf 2abe 33dc 5ebd 9f00 be3d
00000350: 8099 5d3d 3113 e9bd 7ceb 333d 8b4b 3dbc
00000360: 772f 183c bc04 013b c80a 72bd dff6 223d
00000370: f8b4 70bd 5c70 633d 2ef0 ecbd 3ca0 7f3d
00000380: c065 c53c 6dbe 9f3c 817b babc 10fd 13be
00000390: b9d1 3fbd fb7a 27be 5c14 49bd 1cf6 4e3d
000003a0: c0a6 bc3d a312 a6bd 8db6 b8bc 33bb 7ebb
000003b0: eeaf 973c 4d5c 173c b667 273e 5254 dd3b
000003c0: eaa9 2bbe 1394 52bd 4e96 7e3d f3b2 373e
000003d0: e058 193e d968 063e 6d92 3a3c 43e0 fcbc
000003e0: 5595 383e bb37 64bd 792d 293e 93e8 03be
000003f0: d042 d2bc ac81 2e3d c1fa 01bd fb61 cbbc
-0.0404509 0.026101187 -0.12594883 0.10132345 -0.13990267 -0.0120271165 -0.18792982 0.051305242
0.016486388 0.008322346 0.023481132 0.13972926 -0.09877186 -0.02225806 -0.07425602 0.08856706
-0.030293979 -0.10665445 0.13484146 0.18304992 0.11918848 -0.047399938 0.06309773 -0.11874951
-0.032312248 -0.08674832 0.013310152 0.018232431 -0.15275346 0.11216025 0.007314879 0.011254188
-0.01582403 0.03848914 0.025429426 -0.0074977414 -0.055375166 0.04338429 -0.0064642234 0.0952916
-0.0031164929 0.074279174 0.07907081 -0.07143691 -0.060527917 -0.06055188 0.018504003 -0.07970755
-0.04164244 -0.11745376 0.1362415 0.01891166 0.12388795 -0.030551752 0.010352121 -0.09975055
0.060991406 0.07900092 0.014573532 -0.18177088 -0.101789646 -0.13167661 0.121652044 -0.053171884
0.06920691 -0.07228489 0.088117644 0.13746196 0.079492696 -0.16271529 0.09152973 0.05119457
0.04075943 -0.01628743 0.101741076 0.031192694 0.11094745 0.060623407 0.026206976 -0.124731496
-0.12195263 -0.030097824 0.030020915 -0.024494706 -0.22388001 -0.06647305 -0.08132495 -0.053977177
-0.031098733 0.016776193 -0.0004193872 0.117804386 0.026515514 0.18293886 -0.12353417 0.009636787
-0.047719255 -0.11180991 -0.04928287 0.049583588 0.039819766 0.006338117 -0.06410932 0.08591371
-0.0426501 0.16956155 -0.04445596 -0.023571955 -0.15166947 -0.011773028 -0.014743763 -0.11909002
0.019073408 -0.015961893 -0.038116235 -0.07224906 0.0322227 0.10225895 0.013255978 0.007321427
0.0010945795 -0.12377857 0.115001194 0.057940457 0.07771087 0.0020325074 -0.06501156 0.23809744
-0.059529413 0.04680747 -0.063701764 -0.016473444 0.018218873 -0.08146804 0.113836944 0.027444147
-0.073409274 -0.008170457 0.0727051 0.01976264 0.012822801 0.06988745 -0.06228206 -0.063599005
-0.09243175 0.03959845 -0.084431686 0.08701616 0.01390634 0.081842855 0.071864 -0.05248762
0.013829007 0.06905812 0.0052282745 0.13256077 0.07351027 -0.077213205 0.051082153 -0.073559746
-0.09800866 -0.17255822 0.01298762 0.05865579 0.07205937 0.015483095 0.0931549 0.020766504
0.006686512 0.024151953 0.06842699 -0.12623212 -0.19091552 0.17027384 0.12169432 0.079159066
0.004609802 -0.01397252 -0.16721839 -0.044909034 0.067106456 0.12188547 0.0035279202 0.06751994
-0.014578943 -0.0045188405 0.07712873 -0.024729017 0.008284687 0.022223677 -0.13549432 0.15405941
-0.039429717 -0.04507742 -0.1613692 0.08096991 -0.13002545 0.12554696 0.049320035 0.012184737
0.16524236 0.18828431 0.12944509 0.10991232 -0.09313251 0.058190018 -0.18704118 -0.007752245
0.09541032 -0.16668649 -0.054409217 0.09277462 0.054101467 -0.113806136 0.043925747 -0.011553655
0.00928866 0.001968666 -0.059092313 0.039786216 -0.058766335 0.055527076 -0.11569248 0.06240867
0.02409637 0.019499982 -0.02276397 -0.14452004 -0.046830866 -0.16355507 -0.04909168 0.050527677
0.092114925 -0.081090234 -0.022547984 -0.0038868904 0.018516507 0.009238315 0.16348156 0.0067544365
-0.16764036 -0.051410746 0.06215506 0.17939357 0.1497531 0.13125934 0.01138745 -0.030868655
0.18025716 -0.05571721 0.16521253 -0.12881689 -0.025666624 0.042604133 -0.03173328 -0.024826994

cells.1.x2h.bias f4 [256]
00000000: 801f 11bd 2439 0dbe 5096 c7bd 9657 35be
00000010: 43fe e5bd 60b4 2fbe 3fb5 07be aac7 b2bd
00000020: e217 97bc ce23 5abe e7d0 f5bd 1096 03be
00000030: 2899 89bc 264f 123d 2b6f b6bd d407 283d
00000040: be43 2cbe d5b1 5b3c aee4 35bd 45eb 2dbd
00000050: c46f 28be 41a7 9ebd d24b 89bd 2b8c 15be
00000060: 2902 29bd d762 f2bd bcd0 573d d9e4 123d
00000070: 371b 4e3c ec7a b8bd 49cb 35bd 941e 8b3c
00000080: 8159 04be e3e7 d93c 95f2 46bd a299 683d
00000090: 01a5 ce3b 7a12 74bd f0aa 4b3c ecbb 47be
000000a0: a818 07be 8b00 8c3c ffbc d3bd f60b e5bd
000000b0: 9a05 b3bd 2d6f 00bc 0771 0dbe b283 69bd
000000c0: d92a 14bc 65b5 d8bd 11a8 bb3d 14fa 9c3c
000000d0: de21 71bd e86a d8bc 1021 4ebd 64e7 e5bd
000000e0: cd4a 0cbd c91b 1cbe b4c6 5ebe 44fa dabc
000000f0: e649 1cbe d4a5 df3d 54d4 27be 7e0b f539
00000100: ddde de3b 1d02 643d 2ce9 453d 72ec 10be
00000110: 2750 61bd d0f7 c43b 67fa 63bb 37f7 55bd
00000120: f1ab 0e3d bf39 e2bd 2986 0abe 5a3d 0abe
00000130: 7d5c 19bd 0910 8b3d 0342 313d b0f0 fdbd
00000140: 4f28 d23c 1f40 bdbd 3412 8cbd 89c2 81bc
00000150: df76 9f3d 45a2 c4bd b1cc 4ebd d7d1 473d
00000160: 8f4e 48be 472b 2bbe 8547 fabc 8f98 a13c
00000170: f082 433d 391e 9ebd e888 d33b 092e f0bd
00000180: bb16 2ebe 3e4d f0bd 5969 d13c 5c21 fbbd
00000190: 0b41 223b f337 2cbe 3fe4 e2bd 7cdf f8bd
000001a0: 9afe 38bd 6985 b7bc 8e6c 98bd c31e 123d
000001b0: a9a9 05bd c279 823d 97cd 043c 0dc2 d9bd
000001c0: 474e 9fbd 27aa 26be 6381 013d 377c 5a3d
000001d0: 034d 143d 4e5d d53c 1aa3 e3bd 245f 98bd
000001e0: 9dc7 b8bd 4c8c 1ebe b41a 7bbc 82e8 2abe
000001f0: 15ab 10be 4c4a 8d3b 1859 6abd c168 443d
00000200: 5bec 5bbd 28ce fa3b 99c7 963d e25e 383c
00000210: ec69 1dbd 5d1f efbd 654e 0abe da55 a7bd
00000220: d7bb 55bd c376 b3bc 1b37 333c 46f8 c9bd
00000230: 9815 c53d b98f df3c c8d0 febd 61de 0d3d
00000240: 5e83 f2bc d239 0cbd 3beb 2a3e bd5e a93d
00000250: fdaa e4bc 94fb 07be e6a5 7dbd f7de c63c
00000260: bc80 033e 545f 22bc fd42 afbc a6eb 023d
00000270: 590a 53bd e40a ac3d f625 e4bd 3359 913d
00000280: 7fdb 77bd 0f4b f13c b3da f13c 2650 d5bb
00000290: 9514 573d a583 933d 1f13 bbbd 12a0 83bd
000002a0: 0c33 9b3d 7ceb 9abd 3043 d0bc 2fc0 b53d
000002b0: 0790 c9bd 2af0 923d 0142 48ba 6ef2 f9bc
000002c0: ba3e 5bbd b7d4 6a3d f225 b0bd aec2 28bc
000002d0: e623 edbb 255f 013d 0f65 5ebd eb92 7fbd
000002e0: bc66 323d 85b1 b53b d191 d5bc a364 9dbc
000002f0: a0e7 293d e0b7 113e 4f86 ecbb 0f10 883c
00000300: 9b2d 04be 2b25 02be 7d04 053d 5d3e c8bb
00000310: 1305 febd 4005 d2bd 88d9 c9bd daeb 56bb
00000320: 8057 523c 83d1 43bd 02dc 9fbd 1cc8 4b3d
00000330: b346 15be c5a8 30be 4594 9f3d ece0 3fbe
00000340: 9c21 56bd a523 ddbd aa20 7d3d 478a 9f3c
00000350: cafd babc 9f5b f33c bff4 58be 7953 31be
00000360: cd39 03be b857 02bc 61f6 2dbe 0d05 dd3d
00000370: 8633 8c3c ccbb 1cbc 0730 cdbd 1bc5 863d
00000380: f097 59bd a8a1 a9bd 8a36 f2bd de1b 02be
00000390: 281c 7f3d 2c94 cdbb 2c12 9cbd 3b2c 06be
000003a0: 68d6 813d c09c fcbd c3a3 363c 07ae 223d
000003b0: a322 64bc 636c d6bd 7524 1dbe ab43 8dbd
000003c0: 2d40 d73d d89c 803c 1f66 503d b09f 873b
000003d0: 7a07 19bd 5b10 0fbe 6130 14be f1b1 cabc
000003e0: ccae 2cbe 6ed4 e9bd 5736 14bd af38 813c
000003f0: ef2e 143d e9f6 d23c b4df 193d a73f 673d
-0.03543043 -0.13791329 -0.09745467 -0.17709193 -0.11230137 -0.17158651 -0.13252734 -0.08729489
-0.018444005 -0.21302721 -0.120027356 -0.12850213 -0.016796663 0.035720013 -0.08907922 0.04102309
-0.16822717 0.013409098 -0.04440754 -0.0424607 -0.16448885 -0.07746745 -0.06703915 -0.14604251
-0.041261826 -0.118352585 0.0526893 0.035862777 0.012579731 -0.090078205 -0.04438332 0.016982354
-0.12924768 0.02659983 -0.048571188 0.05678714 0.006306291 -0.059587933 0.012430891 -0.1950528
-0.13193 0.017090103 -0.103387825 -0.11183922 -0.08741303 -0.007839006 -0.13812648 -0.05701036
-0.009043419 -0.10581473 0.091629155 0.019162215 -0.05887019 -0.026418164 -0.0503245 -0.11225775
-0.034251023 -0.15244974 -0.21755487 -0.026730664 -0.15262565 0.10920301 -0.1638959 0.00046738604
0.0068014697 0.055666078 0.048318073 -0.14152697 -0.05500808 0.006010987 -0.0034786703 -0.052237716
0.034831945 -0.110461704 -0.1352774 -0.13499966 -0.03744172 0.06790168 0.043275844 -0.12399423
0.025653986 -0.09240746 -0.068394095 -0.015839832 0.07786345 -0.09601263 -0.050488178 0.048784103
-0.19561218 -0.16715728 -0.030551681 0.019726066 0.047732294 -0.07720608 0.0064555295 -0.117275305
-0.17000858 -0.11733483 0.025562929 -0.12262222 0.0024758007 -0.16818218 -0.11078691 -0.12152001
-0.045164682 -0.022402482 -0.0744258 0.035673868 -0.032632504 0.0637088 0.008105657 -0.106327154
-0.07778602 -0.16275845 0.031617533 0.053341117 0.036206257 0.026045468 -0.111150935 -0.07440022
-0.09022448 -0.15483207 -0.015326191 -0.16690257 -0.14127763 0.0043118354 -0.057213873 0.047951464
-0.053692203 0.0076539703 0.07362289 0.011253091 -0.038431093 -0.11675904 -0.13506468 -0.08170672
-0.05218109 -0.021907216 0.010938431 -0.098618075 0.09623259 0.027290212 -0.124421656 0.034635905
-0.029603656 -0.03423483 0.16691296 0.08270023 -0.027913565 -0.13279563 -0.06192579 0.02427624
0.12842077 -0.009910423 -0.021394247 0.031963013 -0.05152354 0.08400515 -0.11140053 0.070970915
-0.060512062 0.029454736 0.02952323 -0.0065097986 0.052509863 0.072028436 -0.091345064 -0.06427015
0.07578096 -0.07564446 -0.025422662 0.08874547 -0.09841924 0.07174714 -0.000763923 -0.030511107
-0.053526618 0.057331767 -0.086009875 -0.0103003215 -0.0072369454 0.031584878 -0.054295596 -0.06239597
0.043555006 0.0055448436 -0.026070507 -0.019213026 0.04148066 0.14230299 -0.0072181593 0.01660922
-0.12908022 -0.12709491 0.032474983 -0.00611095 -0.124033116 -0.102549076 -0.09855944 -0.0032794387
0.012838244 -0.047807228 -0.07805635 0.049751386 -0.14577751 -0.1725188 0.07791952 -0.18738145
-0.052278146 -0.10797814 0.06179873 0.019475115 -0.022826094 0.029706774 -0.21187113 -0.17316999
-0.12815018 -0.007955484 -0.16988517 0.10791979 0.017114412 -0.009566259 -0.10018926 0.06580564
-0.053123415 -0.082827866 -0.11826809 -0.12705943 0.06228271 -0.006273767 -0.076206535 -0.1310281
0.06339723 -0.12334585 0.011147442 0.039716747 -0.013924274 -0.10469892 -0.15345939 -0.06897672
0.105102874 0.015699789 0.05087864 0.0041389093 -0.037360646 -0.13971083 -0.1447158 -0.024743052
-0.16863555 -0.11417471 -0.036184635 0.0157741 0.036177572 0.025752502 0.037566856 0.056457188

cells.1.h2h.weight f4 [256, 64]
00000000: 5996 003b 3a74 3cbd 7d14 013d 78eb 82bd
00000010: 6fcb 9d3c 2aa7 cfbd 4549 573d 7672 b43c
00000020: f35d 22be 8d0e ca3c 97ed ae3b 112a 42be
00000030: 87d5 50bb bff0 f9bd b7e3 04bd 1bc2 16be
00000040: 1ff8 cabd 2514 23be e232 bb3d b705 3ebc
00000050: e34f 313d 4e99 c83c 95ec 44bd 694e a7bc
00000060: d2b9 033e 592d 04be 4b27 b3bd 6fdc 52be
00000070: 23ef 59bd bacb 0fbe 726c 06be 2e74 f9bd
00000080: fe9b 42be cb12 98bd 0241 273e 18fb 88bd
00000090: f778 3c3d d109 8e3b 9399 473e 6862 adbc
000000a0: f98b 9d3c cf29 80bd 2ff2 f43c dd4d e3bd
000000b0: 8781 05be a7ca 31bd 56ed 2ebe 1f45 143e
000000c0: 7008 ae3d f72a 13bd 3549 453e 17dc 8cbd
000000d0: d5d8 293e 06d9 f93d 8abb 1a3d 9098 5abb
000000e0: d3c6 5f3d a56c 5abe e22c 463e 0ba2 22be
000000f0: 956a 94bd c896 e3bd 83b6 8fbd 4612 49bd
00000100: 4c96 d23c f99e 613a aef1 343a 21ce 173c
00000110: 7a37 ccbd bd3f 3f3e 446f 453b d66d 1abd
00000120: 26ad 0b3e 17bc 103e c0d7 1e3d 9700 dabd
00000130: bd1d 8a3d f13e 703c 7272 1a3e 6f8f e73d
00000140: d197 29bd 790a 293e 8290 fbbd 7e0d a33d
00000150: 0394 7e3c 3cff 513e 79ad b73d 488b 3e3d
00000160: 81d4 46be 82fb e83c 6aa1 893b 7fbf 38bd
00000170: a560 033e cd2f 313d ce75 893c c3e5 f43d
00000180: 06a5 0ebe 4377 88bd 7d14 1f3e 44a2 843b
00000190: 27fe 173e c92e 62bd 982f b9bd 1706 15be
000001a0: 2980 51bd 5504 8e3d fb99 16be f612 ccbc
000001b0: 83d1 dc3c 92dc c43c 0461 c6bd c595 8ebd
000001c0: 9e16 003e faa3 113e c62b b1bc 492c 6d3e
000001d0: e98c 9fbc 7ebf 56be b636 c03d 94c2 bfbc
000001e0: 593e c83d 5524 d83d 93da 893d 7c19 b93d
000001f0: d4ea 053e 8b00 abbc b85e 083d e9cc 413d
00000200: c45c 98bc 1429 d53d 0eed 4f3d b93c 21be
00000210: f4de 1abd 7b77 b63d a54b 953d d5bc 9a3d
00000220: 1c61 be3d 2c49 91bd 8f8c 073d d1a7 a43d
00000230: 2a0a afbd 5a44 233d bd19 283e 4fbf 943d
00000240: d836 02bc e6ea 583d aec3 b0bd 82da 07be
00000250: 0a4f ae3d def0 4b3e 19b6 1ebc 664d 2cbe
00000260: 8a47 3abd 0e78 31be 2c0d 1ebe eedd b03c
00000270: 8a08 993d 953d 583d 773f 113e a807 36bd
00000280: d251 d43c 5a1b 003e 4804 083e adcf 473e
00000290: fc8d a13d 7861 eebc 3303 143e d82f c7bd
000002a0: 46f6 5f3b 67c7 ae3d d04b f0bd a154 7a3d
000002b0: 1dc0 b9bc a731 16be d032 d03d dc66 8f3c
000002c0: 2ce0 703c 0942 a03d e082 0b3d bd4e 2d3d
000002d0: 9e42 b1bc 0c20 1ebe 5c4f 56bd 5e53 a63d
000002e0: f94e 313d 5289 3d3d 6e72 083d 6549 16bb
000002f0: facd 2e3e d087 de3b aa04 1abc b939 12be
00000300: 74a2 eabd 57f1 393e a343 d83d b6c9 1ebd
00000310: 1359 083e 5e1b ff3c d20e bc3c c671 c3bd
00000320: 615b 2bbe d60e 2ebe e1ed f8bd 4225 d6bd
00000330: f637 56bd 0c5d 50bd b591 c83c b3e0 21bc
00000340: 89d1 ba3d 0fc7 aabd 7ecf 853c aa8f a4bd
00000350: 577a 393e 66fc 82bd 34b2 093d 88bc 743d
00000360: 1194 a23d 002c 85bd 13cb bc3d 7a99 fabd
00000370: 9154 173d 779d 85bd f9ee a93c f86b 05be
00000380: b56e 3abd 0b2f 26be 2591 e03d e47d 77bd
00000390: 5d75 3bbd 4c08 763d a7ca 2cbd 47fa 0b3e
000003a0: fcca 203c 7449 0fbc 17f6 d5bd a09c 35be
000003b0: cf7d e4bd 91a6 aabd c414 20be 6bc7 023e
000003c0: 5feb 0e3e 88d1 7fbd aee7 3f3d a22a 09be
000003d0: aca7 0fbb 1388 d9bc dbf2 ffbd cf5d c13c
000003e0: 7fce 25bd b236 edbd ee8b 253d 9726 e8bd
000003f0: 1014 1cbe 1812 253c ecc7 e4bd f9d9 e13d
0.0019620864 -0.04600928 0.03151368 -0.06392568 0.019262044 -0.10139306 0.05256011 0.022027235
-0.15856151 0.024665141 0.0053383815 -0.1896136 -0.0031865553 -0.12204122 -0.03244373 -0.14722483
-0.099106066 -0.15925653 0.091405645 -0.011598042 0.043289077 0.024487164 -0.048077185 -0.020423131
0.12863854 -0.12907924 -0.08747729 -0.20591901 -0.053206574 -0.1404256 -0.13127306 -0.12180363
-0.19004819 -0.074254595 0.16333392 -0.06688517 0.0460138 0.0043346663 0.19492178 -0.021165088
0.019231783 -0.06257974 0.029900638 -0.110988356 -0.13037692 -0.043406155 -0.17082724 0.14479493
0.08497703 -0.035929646 0.19266208 -0.06877916 0.16586621 0.12199597 0.037776507 -0.0033355094
0.054632973 -0.21330507 0.19353059 -0.15882127 -0.072468914 -0.111127436 -0.07017233 -0.049089693
0.025706433 0.00086067576 0.0006902468 0.009265454 -0.09971519 0.18676658 0.0030126134 -0.037702404
0.1364027 0.1413425 0.038779974 -0.10644644 0.067439534 0.014663444 0.1508272 0.11306655
-0.04140455 0.16507901 -0.12283422 0.07961558 0.015538218 0.2050752 0.08968634 0.046519548
-0.19417001 0.02844024 0.0042001503 -0.0451045 0.12829836 0.043258477 0.016779806 0.11957886
-0.13930139 -0.06663372 0.1553516 0.004047664 0.14843045 -0.0552204 -0.09042281 -0.14553104
-0.051147614 0.0693442 -0.14707176 -0.024911385 0.026955372 0.024030957 -0.09686473 -0.0696216
0.12508628 0.14222708 -0.021627318 0.23161425 -0.01947637 -0.20971486 0.09385435 -0.023408212
0.09777517 0.10553805 0.06731143 0.09038064 0.13077861 -0.020874282 0.033293456 0.04731456
-0.018598922 0.10408226 0.050763182 -0.1574582 -0.03781028 0.08909508 0.07289819 0.07555548
0.09295866 -0.070940346 0.03309303 0.08039821 -0.085468605 0.039860107 0.16416068 0.07263052
-0.007947646 0.05295839 -0.08631073 -0.13266948 0.08511169 0.19916102 -0.00968697 -0.168264
-0.04547838 -0.17330953 -0.15434712 0.0215902 0.07472332 0.052793104 0.14184366 -0.044440895
0.025917921 0.12510434 0.13282883 0.19512816 0.078884095 -0.029099211 0.14454345 -0.09725922
0.003417389 0.08534127 -0.1173321 0.061115865 -0.022674615 -0.14667378 0.10165942 0.017505102
0.014701884 0.07825095 0.03406036 0.04231142 -0.02163821 -0.15441912 -0.052321777 0.0812137
0.043288205 0.046273537 0.033312254 -0.002293193 0.17070761 0.0067910925 -0.009400526 -0.14279832
-0.11456767 0.1815847 0.10559776 -0.038766585 0.13315229 0.03114098 0.022956286 -0.09543185
-0.16734077 -0.16997847 -0.12154747 -0.10456325 -0.052299462 -0.050869986 0.024483541 -0.009880233
0.09121997 -0.08338749 0.016334292 -0.08035214 0.18113075 -0.063957974 0.033617213 0.05975011
0.07938398 -0.06502533 0.09218421 -0.122363046 0.036945883 -0.06524175 0.020743834 -0.13029468
-0.045515735 -0.16228883 0.10965184 -0.060422793 -0.045766223 0.060066506 -0.04218545 0.13669692
0.00981402 -0.00874554 -0.104473285 -0.17735529 -0.111568086 -0.08332551 -0.15632921 0.12771384
0.13956974 -0.062455684 0.046851806 -0.1339517 -0.0021920009 -0.026554143 -0.12497493 0.023604302
-0.040480133 -0.11582698 0.04041665 -0.113354854 -0.15242028 0.010075115 -0.111709446 0.11027903
