model_street/models_street_all/LSTM_model_JACKIE ROBINSON PARKWAY.pth (torch, 358642 bytes, 17 tensors)

input_projection.weight f4 [9, 9]
000000 9b f2 32 be 2f 91 3b bd 45 10 2b 3e 5e 3a 4e 3e
       -0.17475359 -0.045792755 0.16705425 0.20139453
000010 8f f5 97 be 4b 39 4b 3d 1d e9 34 be e0 6a bf 3c
       -0.29679534 0.049615186 -0.1766705 0.023366392
000020 30 fa 5a 3e 34 fc f3 be 97 44 7a be 49 72 bf 3e
       0.21384501 -0.47653353 -0.24440227 0.3739188
000030 2e 1e 90 bd db 7d 66 3c 82 22 43 3e 2e 66 af bd
       -0.07037006 0.014068092 0.19056132 -0.08564411
000040 01 34 9a be e0 ae 31 bd f9 9b e4 be 72 4b 60 be
       -0.301178 -0.043379664 -0.44650248 -0.2190378
000050 7a d0 1c bd ba 66 ef bd c8 8a 64 3e 12 6d 79 bd
       -0.038284756 -0.116895154 0.22318566 -0.060895033
000060 20 74 1c be 40 69 b4 bd e2 54 69 be cf 94 c2 bd
       -0.15278673 -0.08809137 -0.22786286 -0.09501039
000070 ce 62 99 be 69 a4 bc be 63 ae 58 be 3f 96 d0 bd
       -0.29958194 -0.36844185 -0.21160273 -0.10184907
000080 f1 64 3d be 5e 7b f7 bc 70 63 b1 3e 36 e0 80 3d
       -0.18495537 -0.030210193 0.34646177 0.06292765
000090 2f b3 84 3c c1 8f 8b 3e 6b 0c 7c 3e e3 dd 9f 3e
       0.016198723 0.27258113 0.24614112 0.31223974
0000a0 f3 65 82 3c 1c ad 48 bd e1 c8 97 3e dd df 90 3e
       0.015917754 -0.048993215 0.29645446 0.28295794
0000b0 28 78 1a 3e 1e ed 37 3e 85 67 72 bd ed c8 ec bc
       0.15084898 0.17961547 -0.059180755 -0.028904403
0000c0 d6 19 6b bc aa a6 28 be 19 f9 6d be 4c f5 7e bd
       -0.0143494215 -0.16469827 -0.23239554 -0.062245652
0000d0 0f 0d a5 bd 9a a8 aa be 85 83 e3 3d dc 1e 82 3d
       -0.08059131 -0.33331758 0.1110907 0.06353542
0000e0 71 bb 8c 3e 04 56 74 3c e9 54 37 be d3 3e d0 bd
       0.27486756 0.014913086 -0.17903484 -0.10168233
0000f0 59 50 5b bd c7 e1 0c 3e b9 a8 0f be e0 11 74 3e
       -0.053543422 0.13758002 -0.14029206 0.23834944
000100 0c d6 ad be ae 23 0d 3d 02 eb 8c be 29 6e b3 bc
       -0.33952367 0.034457855 -0.27523047 -0.021903114
000110 15 65 67 3d 7a f5 49 3e 13 56 c3 3c 18 5a 81 bd
       0.056492884 0.19722548 0.023844754 -0.06316012
000120 12 6d 33 3e fc 09 1e be 8b 30 b0 3d e6 fa 00 3e
       0.17522076 -0.15433496 0.08603009 0.1259571
000130 0d 91 44 3e a5 56 71 3e 6e b9 80 be 39 dc 52 be
       0.19195957 0.23568209 -0.25141472 -0.20591821
000140 35 40 3d be
       -0.18481524

input_projection.bias f4 [9]
000000 be 24 62 be 4c 75 35 bc 0e fd 62 bd 4d fc 81 3e
       -0.22084329 -0.011075329 -0.055417113 0.25387803
000010 d2 68 53 3e fc a0 9a be c2 cd 91 be f8 7d 61 be
       0.20645455 -0.30200946 -0.28477293 -0.2202071
000020 76 6f 68 be
       -0.22698769

cells.0.x2h.weight f4 [256, 9]
000000 d7 b8 f8 ba 3a ce 83 3e 92 9e d2 3d 0a 97 89 be
       -0.0018975985 0.25743276 0.10284151 -0.26873046
000010 6e ff 98 3e df 35 44 3e 70 44 7b be f0 1f 04 be
       0.29882377 0.19161175 -0.24537826 -0.12902808
000020 d2 6b a3 be bb b3 30 be f6 89 a5 be 45 05 54 3e
       -0.31918198 -0.17256062 -0.32331818 0.20705135
000030 86 1f 94 be 8d bb d4 3d a7 db 31 be e5 2a 85 be
       -0.289303 0.10387335 -0.17368947 -0.26009288
000040 ad e8 69 be 65 8c 94 bc a5 37 87 3e 2c 0a 99 3e
       -0.22842665 -0.018133352 0.2640964 0.29890573
000050 86 ef 79 be ad a3 63 be 0b dc c4 3e 06 ce 1a 3e
       -0.24407777 -0.22230406 0.3844913 0.15117654
000060 a7 f0 1f be a9 44 f1 3d b4 7d af 3d 0c 43 be 3d
       -0.15619145 0.11780674 0.08568898 0.09290132
000070 bd 40 7b be 02 27 0e be b7 49 82 3e 5f 34 87 3e
       -0.24536414 -0.13882068 0.25446865 0.26407143
000080 bb 87 fa bd 63 40 bb 3c 5a c8 76 be 86 07 11 3e
       -0.1223292 0.02285785 -0.24099866 0.14163026
000090 8f 9a 94 be 56 bc 1f be 0e 59 db 3c 39 7f 88 3e
       -0.2902417 -0.15599188 0.026775863 0.26659563
0000a0 54 c2 eb bd cd 03 98 3e 3c ea 48 3c e5 f8 f2 3d
       -0.115116745 0.296904 0.012262877 0.11863879
0000b0 36 6b 99 3e 55 7e 9f 3e 6b 40 17 3e 62 7c 1b bb
       0.29964608 0.3115107 0.14770667 -0.002372526
0000c0 e4 1c db bd 48 30 98 be f1 7b f6 bd ea 0b e0 bd
       -0.1069887 -0.29724336 -0.12035359 -0.109397724
0000d0 46 6c a3 bd ea 86 fc 3d 70 19 03 be 14 63 68 bd
       -0.07979636 0.1233042 -0.12802672 -0.056735113
0000e0 00 a4 f8 bc dc b4 6b bd dc 30 84 3e 57 38 39 be
       -0.030351639 -0.057545528 0.25818527 -0.18087898
0000f0 1e af 97 3e 4a 21 a5 3e 1f b3 fa bd e9 4e 9d 3e
       0.2962579 0.3225196 -0.12241196 0.30724266
000100 de 49 a4 be 52 c4 28 be ca 8e 49 bc cd 98 2d be
       -0.32087606 -0.1648114 -0.01230211 -0.1695282
000110 84 5f 06 be 44 d2 90 3e 03 66 0b 3d 8d a3 4d be
       -0.13122374 0.2828542 0.034032833 -0.20081921
000120 22 1c 32 3e 80 14 86 3e 37 32 08 be 2d ec 85 3e
       0.17393544 0.26187515 -0.13300405 0.2615675
000130 5b 7f 2a 3e 31 b6 f3 bb 19 fd a6 be e6 64 48 3e
       0.16650145 -0.0074374904 -0.32614973 0.1956974
000140 30 fa fa bd 04 f6 9a 3d 48 a3 a9 bd fd 3d a7 3d
       -0.12254751 0.07566455 -0.082830966 0.0816612
000150 63 36 8e be b3 fe 46 be e2 45 35 3e 49 41 a9 bd
       -0.2777587 -0.19433098 0.1770244 -0.08264405
000160 5a 5e 2f be a8 97 89 3e 19 31 b8 bc 52 22 7f be
       -0.17125836 0.26873517 -0.02248435 -0.24915436
000170 2c 88 1f be af eb 97 3d f5 96 a4 3e 9e 10 81 3d
       -0.15579289 0.07418 0.3214642 0.063019976
000180 52 93 11 3e 8e 64 c5 be b9 88 eb be d2 6d 9d 3e
       0.14216354 -0.3855328 -0.4600275 0.3074785
000190 35 d1 6c be 2f 2c 3b 3e 94 75 fc 3d e2 42 24 be
       -0.23126681 0.18278573 0.12327114 -0.16041139
0001a0 9e 31 a4 bd 70 4b 38 be 9a 3d fc bc 65 1d a5 be
       -0.08017276 -0.17997527 -0.030791093 -0.3224899
0001b0 e2 d3 0e be fe 53 45 3e df 6e fc bc 07 91 a8 be
       -0.13948014 0.19270322 -0.030814586 -0.32923147
0001c0 d4 0b 5a 3e 2a 1e 28 3e 78 f9 dd bd 22 00 87 be
       0.21293575 0.16417757 -0.10838598 -0.2636729
0001d0 38 02 a9 3e 34 d3 c6 3d b4 55 64 3e b6 ad 16 3e
       0.33009505 0.097082525 0.22298318 0.14714703
0001e0 3f ce 2e bc c4 7a ab be 1e db a3 3e df b5 fc bd
       -0.01066929 -0.334921 0.3200311 -0.12339377
0001f0 06 00 62 3d e9 f5 83 be d3 66 4b bd 79 7f e6 bd
       0.055175804 -0.25773552 -0.049658608 -0.11254782
000200 79 a0 dc bd 91 15 4b 3e 31 b8 bb 3e 71 69 86 be
       -0.10772795 0.19832446 0.36663964 -0.2625232
000210 48 9d af be 99 f8 99 3a 31 4d 57 3e fd b1 34 3e
       -0.34299684 0.0011747062 0.2102554 0.17646022
000220 ec 2f 5e 3e 1e 26 9b 3e c5 70 b0 3e e6 40 1c be
       0.21697968 0.3030252 0.34461036 -0.15259132
000230 fb 74 d5 3d d0 1c a7 be f3 be ec bd bd b0 f6 3d
       0.10422703 -0.3263917 -0.11559858 0.12045429
000240 4e 58 ca 3d 28 85 cf 3e 46 36 55 bc 7a 6e b2 3e
       0.09880124 0.40531278 -0.013013428 0.34849912
000250 cf 6e 9b 3e 8c 69 7a 3c ec 7a 5a 3e 82 6d ae be
       0.30357978 0.015283953 0.21335953 -0.34067923
000260 d2 0e 90 be f3 20 06 be dd 8a 9e be c7 e6 67 3c
       -0.28136307 -0.13098507 -0.3096532 0.014154143
000270 8c c4 56 3e 10 11 25 bd bd 5c 24 3e ff 6d 45 be
       0.20973414 -0.040299475 0.16051002 -0.19280241
000280 b6 8b 9a 3d 0f 81 e0 bc 7a d2 b9 be dc 98 bb 3d
       0.07546179 -0.02740529 -0.36293393 0.09160015
000290 1f 41 3a be 5a ff ba 3d ce be 87 be 34 40 4a be
       -0.18188904 0.09130736 -0.2651276 -0.19751054
0002a0 bc 6c 9f be 97 49 25 be 12 fb a5 bd 0f 35 61 3e
       -0.31137645 -0.16141354 -0.081045285 0.21992896
0002b0 21 55 e0 3d 59 bd ab 3c 54 56 93 3e 31 18 8a 3e
       0.10953737 0.020964311 0.287768 0.26971582
0002c0 2f 4c 5f be a8 1a 9c be 5d d0 7f 3e 70 ab e2 bb
       -0.21806405 -0.30489087 0.24981828 -0.0069174096
0002d0 31 fa b9 be 98 ad 7a bd 03 da 02 bf e9 0f 03 be
       -0.36323693 -0.06120071 -0.5111391 -0.12799038
0002e0 45 ed 79 bd 31 2a b5 3e 9e bf 8d bd 53 c1 fd bd
       -0.061017293 0.35383752 -0.06921314 -0.12390389
0002f0 15 81 fd 3d 7a 17 90 3e f5 5c 67 3e c1 43 7e 3e
       0.12378136 0.2814291 0.22594054 0.24830534
000300 6d 81 96 3e fd ad ea 3d 4d 92 64 bd 3e b8 51 be
       0.2939562 0.11458967 -0.055803586 -0.20480439
000310 3b 4e 04 3d e5 31 52 3e 68 17 7f 3e 49 38 c9 be
       0.03230117 0.20526846 0.24911273 -0.39300755
000320 60 3a 20 bd fc c0 35 3e 94 3d 75 be 59 df d0 bd
       -0.03911817 0.17749399 -0.23949271 -0.1019885
000330 a0 7b 77 3e 75 7a b2 3d c5 02 a9 3e 90 a5 81 be
       0.24168253 0.08714763 0.33009925 -0.25321627
000340 0b 98 6b 3d cc 20 0a be 2a cc 2f 3e 65 4c aa 3e
       0.057518046 -0.13489074 0.17167726 0.3326141
000350 8c 5d 10 be 04 e7 36 3e c5 42 81 bd 94 70 74 be
       -0.14098185 0.17861563 -0.063115634 -0.2387107
000360 57 74 81 3e e6 63 90 3e bf 45 9a 3e 2d 59 a5 3d
       0.25284073 0.28201216 0.30131337 0.080736496
000370 ce 81 7c 3e 0a 1e 09 3e 02 3a 5e 3e 23 ea ce be
       0.24658892 0.13390365 0.21701816 -0.40413007
000380 3e c1 f0 3d 81 49 b7 be 41 ba d0 3d f4 9c 2e be
       0.11755608 -0.35798267 0.10191775 -0.1705206
000390 f5 53 62 bd 67 c4 7b be b7 57 69 bd 2c 8e 1c be
       -0.05525585 -0.2458664 -0.056968417 -0.1528861
0003a0 d9 df e3 bd 11 7e d8 bd 54 37 38 bd 9a 99 84 3d
       -0.1112668 -0.1057092 -0.04497464 0.0647461
0003b0 b7 ed 06 be 37 0f 2f 3e 0c 2f 3a 3e 54 2a 94 be
       -0.13176619 0.17095648 0.1818201 -0.28938544
0003c0 55 65 60 3e e6 3e 1c bd b9 bf 3b 3e 5e 60 91 3e
       0.21913655 -0.038145922 0.18334855 0.28393835
0003d0 c2 b5 8b 3e cb 75 a5 be e4 fa a5 3e 80 65 72 3e
       0.27287108 -0.3231643 0.32417977 0.23671532
0003e0 74 10 86 3e d0 32 41 3e 14 90 e1 bd 4b f9 8b be
       0.26184428 0.1886704 -0.11013809 -0.27338633
0003f0 cb ec 0c be b7 77 07 be 5c ef 11 be 0f 4f 43 3c
       -0.13762204 -0.13229261 -0.14251465 0.0119207045

cells.0.x2h.bias f4 [256]
000000 a8 63 2f be 2d e9 94 bc 4a d8 65 be e0 34 15 be
       -0.1712786 -0.018177593 -0.22445789 -0.14570951
000010 45 5a 28 3d 7d 81 0b bd 92 fe 06 be 62 7e 4b 3e
       0.041101713 -0.034059037 -0.13183048 0.1987243
000020 22 5c 21 3d a4 d3 c7 bc 01 50 f9 3c ed df a1 bc
       0.039394505 -0.02439291 0.030433657 -0.019760096
000030 91 1f 9a 3c 92 02 72 3e 0b a9 46 be d8 e7 a3 3e
       0.01881388 0.23633793 -0.19400422 0.3201282
000040 64 fa 68 bd 72 ea 4c 3e 40 a4 3d 3e 2d 85 41 3e
       -0.056879416 0.20011309 0.18519688 0.18898459
000050 5a 3b 22 be 14 70 af 3e 29 ca 70 3e d3 19 95 bd
       -0.15842953 0.34265196 0.23514618 -0.07280316
000060 37 38 1c 3d 9c 2f b3 bc 9b 14 9b 3d 1c 1a 0b 3e
       0.03813955 -0.021873288 0.075722896 0.13584179
000070 e0 65 87 bd c0 fd ad 3e 5a 52 f5 bd e0 ea 3d be
       -0.06611228 0.33982658 -0.11978598 -0.18546629
000080 2d b5 79 3c 90 58 1b 3e d4 da 39 3e f2 bd c1 bd
       0.01524095 0.15170503 0.18149883 -0.09460057
000090 c2 cf 79 3e 7a a6 ca 3d 34 88 2f be 4e 61 19 be
       0.2439566 0.09895034 -0.17141801 -0.14978525
0000a0 2a 25 84 3d 80 b9 cb bd 34 78 1c 3d cc a4 d9 3d
       0.06452401 -0.09947491 0.038200572 0.10627136
0000b0 76 17 41 be 18 fd 63 be a3 dc 7b be 6f 93 8d bd
       -0.18856606 -0.22264516 -0.24595885 -0.06912886
0000c0 b5 a6 36 bd e2 a5 86 3e 01 96 7a be 3d 00 8e be
       -0.044592578 0.26298434 -0.24471284 -0.27734557
0000d0 76 0e 8b 3e 82 f2 6b 3e db f1 d2 3d 6b b1 25 be
       0.2715947 0.23041728 0.103000365 -0.16180961
0000e0 01 c1 f4 bd c8 1a 0a bd 52 a0 5c be 31 46 87 3e
       -0.11950875 -0.033716947 -0.21545532 0.2642074
0000f0 f3 fd b9 bc b9 b3 fb bd cf ce 9a 3d dc 22 be 3d
       -0.0227041 -0.12290139 0.07558977 0.09283993
000100 cd b0 ec bd bf 8c 95 be a6 ea ab be ff 78 91 be
       -0.115571596 -0.29208943 -0.3357746 -0.28412625
000110 a2 b7 5a 3e 8a 10 65 be 6e f2 8a be 85 c2 f9 bd
       0.21359113 -0.2236959 -0.27138084 -0.12195305
000120 e1 c0 ba 3e d7 98 38 be 0d 6d bb 3e 79 6d 49 3e
       0.3647528 -0.18027054 0.36606637 0.19670667
000130 9e e0 f3 bb 00 47 15 3e 5e cb c6 3c cd 91 7f 3e
       -0.007442548 0.14577866 0.024266895 0.24957962
000140 d3 34 e4 bd 9a 74 85 3e e6 c1 2e 3e be 2d 82 be
       -0.11142888 0.26065522 0.17066154 -0.25425524
000150 57 af 45 3e f5 4a 8d 3e 5b 6f 56 be cf b2 11 be
       0.19305168 0.2759625 -0.20940916 -0.14228366
000160 ce a2 53 be d6 8b 8e 3d fa 7e d7 3d 71 fa 33 3e
       -0.20667574 0.06960265 0.10522266 0.17576005
000170 47 59 3a be dc c1 01 be 7d 5b 05 3e 65 58 a5 3e
       -0.18198119 -0.12671608 0.13023181 0.32294002
000180 cb 58 bb bd 33 78 a3 bc a3 30 8d 3e e8 70 69 be
       -0.09147795 -0.019954776 0.2757617 -0.22796977
000190 53 43 b5 bc 90 c3 a8 3e da b5 81 be 0a 11 a2 3e
       -0.02212683 0.32961702 -0.25334054 0.31653625
0001a0 c0 02 66 be 13 3a 9b 3e c9 a4 b4 3e c5 17 89 be
       -0.22461987 0.30317745 0.3528197 -0.26775947
0001b0 dc bd 8d 3e 56 45 95 be a7 5d a3 3e 81 54 b8 bc
       0.27683914 -0.29154462 0.3190739 -0.022501232
0001c0 c6 30 3b bc 98 a1 39 3d 0e d7 4c 3d 7a d9 6e be
       -0.011425203 0.045320123 0.05000978 -0.23325148
0001d0 66 d7 22 be a7 5f 14 be dc a4 aa 3d 54 59 80 3e
       -0.1590248 -0.14489613 0.08332226 0.25068152
0001e0 55 65 92 3e 87 70 a1 3e 60 5c 7e be 72 6b 1c 3d
       0.28592935 0.31531164 -0.24839926 0.038188405
0001f0 d7 0b 6a bd 77 39 6f 3c 5e 5d fa bd be 1f 01 be
       -0.057140198 0.014601103 -0.1222484 -0.12609765
000200 30 c4 b1 be c4 d0 98 bc 37 11 ae 3d c2 c2 3f be
       -0.34719992 -0.018654235 0.08499377 -0.18726638
000210 fd e2 9d 3b 56 38 ab 3c a2 50 1b be 62 3d 49 3e
       0.004818319 0.020900887 -0.15167478 0.19652322
000220 05 d9 83 3e 32 69 65 3c 01 63 6e 3e 3e b0 a7 3e
       0.2575151 0.014002131 0.23279954 0.3275165
000230 8e e7 ba bd ce f1 8b 3d c1 d5 9e 3e 35 4c 61 be
       -0.09126197 0.0683323 0.31022456 -0.22001727
000240 fc 64 b8 bb 74 7b 6d be c4 0c ae 3e 5c 72 99 be
       -0.0056272727 -0.23191625 0.33994114 -0.29970062
000250 9d c3 0c be c3 8f 1c 3e 38 22 a8 3e aa 36 87 be
       -0.13746496 0.15289216 0.32838607 -0.26408893
000260 6e f2 bf bd da 66 89 bc 26 c9 29 be 59 4a bf bd
       -0.09372412 -0.016772676 -0.16580638 -0.093403526
000270 7c 7d 18 3e ec a2 59 3e e3 3d d6 bd 34 d7 8e 3d
       0.14891618 0.21253556 -0.10461023 0.069746405
000280 e8 f1 38 bd 12 1c 65 3e 57 39 23 3d 42 db 46 3e
       -0.045152575 0.22373989 0.039849605 0.19419578
000290 5a b5 54 be 10 38 6b 3d f3 e8 7f bd a2 19 ad 3d
       -0.20772305 0.057426512 -0.062478017 0.08452155
0002a0 96 23 dd 3c a1 c9 30 be f6 6b 30 3e cb bd b1 be
       0.026994508 -0.17264415 0.17228684 -0.34715113
0002b0 76 b5 4d be 8a 18 8b be f2 7b c0 bd a8 22 98 bd
       -0.20088753 -0.2716716 -0.09398641 -0.07428485
0002c0 9e 59 91 3e 86 7c 57 3e f8 45 2e be 01 ff 6d 3c
       0.28388685 0.21043596 -0.17018878 0.01452613
0002d0 fd 2f 88 bd bb 4c c0 3c 62 8a 9d be 7a 36 32 be
       -0.06649778 0.023474088 -0.3076964 -0.17403594
0002e0 7d 0a 30 be 3e ae 77 3e 2b 04 1d 3a 9a 70 b3 bd
       -0.17191501 0.24187562 0.0005989696 -0.087617114
0002f0 6b 7f cf 3d 50 36 8a 3d 65 db d8 3d 03 da 52 3e
       0.10131725 0.067486405 0.10588721 0.20590977
000300 a5 bb 4e 3e ac cf c4 bc cf b4 81 bc 7b 88 4b 3e
       0.20188768 -0.024024807 -0.015833287 0.19876282
000310 24 fe 6f bd 87 39 1b 3e 92 88 61 3e d0 85 91 bd
       -0.058591977 0.15158664 0.22024754 -0.07105601
000320 bf da 42 3d 56 bd 2e be 87 55 12 be 3b 67 06 be
       0.047571894 -0.17064413 -0.14290439 -0.13125317
000330 67 58 99 be 1e e8 82 3d e2 17 28 be f1 1d 37 3c
       -0.29950258 0.06391929 -0.1641536 0.011176572
000340 85 0b 36 3e 1c ce 05 3e d1 8e b3 3e 08 f8 86 3c
       0.17777832 0.13066906 0.35069898 0.016475692
000350 5d 16 c6 3c a0 4c 21 be 7e 52 38 3a 6a 77 85 3d
       0.024180586 -0.15751886 0.0007031335 0.06516917
000360 e7 73 b6 3c 31 90 05 be 63 10 a9 3e 82 e9 8b 3e
       0.022272063 -0.13043286 0.33020315 0.2732659
000370 d5 72 5f 3e 24 ac 82 3e 6a 54 e2 3d 12 97 24 3e
       0.21821149 0.25521958 0.11051257 0.16073254
000380 07 c5 85 3e bc 41 fc 3d 3e b0 e3 3d bc 5f 35 3d
       0.26126882 0.12317225 0.111176 0.044280753
000390 dc e1 41 be c8 32 ee 3d ae c1 62 3d a3 05 49 be
       -0.18933815 0.116307795 0.05536049 -0.19631056
0003a0 10 54 0c 3e c0 28 52 3e c2 05 b6 3e 5f 67 67 3d
       0.13703942 0.20523357 0.35551268 0.056495067
0003b0 f7 2a cc bb 6c 80 1e 3e 3e 2b ac 3e 1e de 16 3c
       -0.0062307077 0.15478677 0.3362674 0.00920823
0003c0 4c 54 0c bd 03 9b 89 be 11 cf 0d 3e 74 ad 73 bd
       -0.03426008 -0.26876077 0.13848521 -0.05949159
0003d0 21 5c 8f 3e 4a 0d 60 bd d5 fb c8 bd 39 f1 9b be
       0.27999976 -0.054700173 -0.09813658 -0.30457476
0003e0 c3 85 0d bd 6c cc 18 3d 88 2a 3b be 21 09 58 be
       -0.034551393 0.037304327 -0.18277943 -0.21097232
0003f0 18 a1 55 bd 24 e6 65 be 88 25 20 3e ef 7f c9 3e
       -0.052155584 -0.22451073 0.15639317 0.39355418

cells.0.h2h.weight f4 [256, 64]
000000 d5 66 c7 3d a5 1f 59 3d b9 c3 10 be 3a 7f 9f 3d
       0.097364105 0.053008694 -0.14137162 0.077879384
000010 4e a4 88 bd aa 47 aa 3d 43 f3 e1 bd 86 91 fb 3b
       -0.06671964 0.0831445 -0.110327266 0.00767726
000020 25 15 e6 3d de fe 6a bd 60 c9 5b 3d b2 a6 9f 3d
       0.11234502 -0.057371967 0.053658843 0.077954665
000030 f9 2c 23 bd b1 42 81 bc 72 84 ac 3c b3 65 24 bd
       -0.03983781 -0.015778871 0.021059249 -0.04013605
000040 02 58 17 bd a0 a0 63 3c 24 e5 4c 3d a5 de 52 3c
       -0.036949165 0.013893276 0.050023213 0.012870465
000050 56 68 a7 bd a2 74 3c bc 11 57 29 bd 1d 21 9d 3c
       -0.081741974 -0.011502417 -0.0413428 0.019180829
000060 ec 17 c2 3c 46 06 28 be 23 40 5f 3e 7d ae f3 3c
       0.023693047 -0.16408643 0.2180181 0.029746288
000070 65 c5 e0 3d 05 e0 85 3b f3 20 29 3d 5f 8a 07 3e
       0.1097515 0.004085543 0.04129119 0.13236378
000080 d5 79 85 3d da 94 51 bd 73 de 50 bd 18 f5 35 3d
       0.06517378 -0.051167347 -0.050993394 0.044423193
000090 28 ec ab 3d ba 45 22 3e 3f be c8 bd b9 49 98 bd
       0.083946526 0.15846911 -0.098019116 -0.074359365
0000a0 ef 10 4d bd cc f4 51 bd 39 7f 91 3c b3 27 95 3d
       -0.050064977 -0.051258847 0.01776086 0.07282963
0000b0 cc 1e 0f 3c a4 aa 0d 3e d6 92 18 bd 6a aa 6e bd
       0.00873537 0.13834625 -0.03724941 -0.05826799
0000c0 04 85 0d bd f2 63 d2 bd 53 da 05 3e 8d 16 ae 3d
       -0.03455068 -0.10272969 0.13071565 0.08500395
0000d0 32 81 81 3d ec e8 92 3d dd f3 cd bd a0 92 89 b9
       0.0632347 0.071733326 -0.10056279 -0.0002623992
0000e0 d5 8c be bd 09 42 c1 3b fd 82 0b 3c 34 6f a7 bd
       -0.09304205 0.0058977646 0.008515117 -0.08175507
0000f0 57 c0 64 bb 99 ff a1 3d 6a ce 37 3c b6 42 e7 3c
       -0.0034904683 0.079100795 0.011218647 0.028230052
000100 32 ed f2 3d a6 5d a3 3d f4 3d 17 3e 85 69 07 3d
       0.11861648 0.079768464 0.14769727 0.033059616
000110 02 58 f0 3b 5b 65 f6 3d 8d a4 0b bd d8 bc 26 3c
       0.00733471 0.12031051 -0.034092475 0.01017686
000120 45 0d c3 3b bc a9 11 bc 46 43 a5 3d 2d 75 58 3d
       0.0059525096 -0.0088905655 0.08069472 0.052846123
000130 86 37 9a bd 4d 2f 4d 3d 27 da 8c 3d 6f 56 0f bd
       -0.075301215 0.050093938 0.06877547 -0.03499454
000140 0e a2 5a 3e 3b 4f d8 bd 56 87 50 3c cc 93 79 3d
       0.21350881 -0.10561987 0.012727579 0.060931966
000150 fe 73 ea bd 09 9b f0 3c e3 7b 8e bd 00 17 af bd
       -0.11447905 0.029370802 -0.06957223 -0.08549309
000160 3c c9 a4 bd ec f0 60 3d 9f 97 32 bd 89 69 bc bd
       -0.08046195 0.05491726 -0.04360163 -0.09199817
000170 84 65 7f 3d 68 2a 29 3e b1 00 c0 bd 55 27 b8 bd
       0.062352672 0.16520083 -0.09375132 -0.08991877
000180 5b c5 be bd 62 6a 84 bd 54 4b 14 3e ac 58 ef bd
       -0.09314986 -0.064656034 0.1448186 -0.11686835
000190 b1 49 94 bc 5c 3f 00 3e e7 f5 20 3d 38 44 9d bd
       -0.018101545 0.1252417 0.03929701 -0.07679027
0001a0 02 56 d3 bd 6d 0e 82 bd 05 2a a8 3d eb 95 52 bc
       -0.10319139 -0.06350408 0.082111396 -0.012853126
0001b0 07 1e c7 bd ff f2 16 3c 72 91 0f 3d e6 83 ec bd
       -0.09722524 0.009213208 0.035050817 -0.11548595
0001c0 08 ba 81 3d 9e ef b9 3c 8c e9 73 bd 63 fb 83 3d
       0.06334311 0.022697266 -0.0595489 0.064444326
0001d0 f1 03 11 3d fc 7b 8b bd c5 eb 7a 3d 74 d7 c6 bd
       0.03540415 -0.068107575 0.061260004 -0.09709063
0001e0 14 3b 59 bd 51 9d 00 3d 2a fe 06 be e8 28 98 3d
       -0.053034857 0.03140003 -0.13182893 0.07429677
0001f0 2f 73 12 be eb e6 c6 bd 9c 9d 04 be 3c aa 22 38
       -0.14301752 -0.09712013 -0.12950748 3.8782353e-05
000200 70 84 1b be a5 ce a6 bd 90 a0 3c bb 98 bd 49 3d
       -0.1518724 -0.08144883 -0.0028782226 0.049253076
000210 46 1c b7 bd a0 97 6b bd da 7b 06 bc 90 33 cd bd
       -0.089409396 -0.057517648 -0.008208239 -0.100196004
000220 ee 0e db bc 6c bb 18 bc 24 a8 48 3c 5d cf 70 bd
       -0.026740517 -0.009322029 0.012247119 -0.058791507
000230 18 1f d8 bd 7c 3e f0 bc 29 26 cb 3d 45 6e f1 bc
       -0.10552806 -0.02932667 0.09919388 -0.029471526
000240 be cc b7 3d f9 6d 1e be a9 e9 a2 bd 42 58 0d 3c
       0.08974598 -0.15471639 -0.079547234 0.008626999
000250 b9 87 f2 3c fe df 8f bd f9 a9 ac bd 62 80 94 bc
       0.029605733 -0.07025145 -0.08430857 -0.018127624
000260 50 58 b3 3d 77 83 71 3c 70 89 dc bd 02 0b 5b bc
       0.08757079 0.014740816 -0.107684016 -0.013369324
000270 b8 4a 05 bd 76 45 0e 3d 33 9a a3 bd 00 c1 81 bc
       -0.03254196 0.03473421 -0.079883955 -0.0158391
000280 94 8a ec bd 7a 86 7c 3a 60 e6 8d bc 32 a3 08 bd
       -0.11549869 0.00096330757 -0.017321765 -0.03335876
000290 ec dd a2 3d 59 91 cf 3d c8 3b 7f bd fd 07 f2 bd
       0.079524845 0.10135145 -0.06231287 -0.1181793
0002a0 44 6f 0d bd 3d 85 dd bd 8a 3c ba bc 9b 1a a5 3d
       -0.03452994 -0.10816429 -0.022733945 0.08061715
0002b0 68 c7 a3 bd 0a cf 98 bb 84 81 25 3c f4 e6 a2 bc
       -0.07997018 -0.004663353 0.01010168 -0.019885518
0002c0 8b 8b 38 3d 74 26 0f be 07 06 0a 3d 47 af 0b bd
       0.045054954 -0.13979512 0.033697154 -0.034102704
0002d0 af 1d fc bd 8c 27 a5 bd 02 b2 dd 3d 7a e0 1f 3e
       -0.12310349 -0.080641836 0.10824968 0.15612975
0002e0 de cb 4b 3d c4 0f 5a 3d af c3 88 bb aa 61 28 3d
       0.04975497 0.05323769 -0.004173718 0.041108765
0002f0 4a 65 18 3d fe 3e dd 3c c7 d4 6e 3c 21 2c c7 3d
       0.03720597 0.027007576 0.014577097 0.09725214
000300 40 51 47 3d a2 3a 5d 3d f0 e1 47 3c 4c b3 50 3d
       0.04866147 0.054010995 0.012199864 0.05095224
000310 b3 e5 5a bc d9 43 92 bc 84 04 8e 3d 27 57 11 bc
       -0.013360429 -0.017854618 0.06934455 -0.008870876
000320 52 8a 74 3b 9b ec 3e 3d a2 59 06 bc e2 e6 e5 3d
       0.003731389 0.046612363 -0.008200081 0.11225678
000330 03 b5 55 3d e4 cc b0 3d 24 fe 07 bd 6c b4 15 be
       0.05217458 0.0863283 -0.03320135 -0.14619607
000340 b1 ee 76 3b a0 2a 3d bd bf 8a f0 3d 34 65 a5 bd
       0.0037678892 -0.04618323 0.11745214 -0.080759436
000350 85 e6 af 3d bf b5 c4 3d c7 50 69 3d b9 95 8e 3d
       0.0858889 0.09604978 0.0569618 0.06962151
000360 71 7a 82 3d 53 de 3e 3d 5a 4b 38 3d 2c 24 5c 3e
       0.0637101 0.046598744 0.044993736 0.21498173
000370 a3 90 19 be c8 ea 43 3e e5 a3 37 3d 0c b2 81 bd
       -0.14996581 0.1913253 0.044834036 -0.06332788
000380 f2 fe e3 bd 7b cb b7 3d bf 06 2a 3e 68 ca 33 3d
       -0.11132611 0.08974358 0.16604136 0.0438942
000390 6f 92 86 bc c0 0c 68 3d 38 1c 22 be 2f c8 09 bd
       -0.016427247 0.056652784 -0.15831077 -0.033638176
0003a0 00 6a 2a 3d 2b c8 47 3c 9f c3 a6 3c f9 ca 17 3d
       0.041604996 0.01219372 0.020356951 0.037058804
0003b0 00 5e 41 3e 15 e2 ba 3d ff 39 dc bd 55 3a 23 bd
       0.18883514 0.09125153 -0.107532494 -0.03985055
0003c0 41 02 12 3e 59 be 5a be ec 07 4d 3e 0f 35 e3 bc
       0.14258672 -0.21361674 0.20022553 -0.027735261
0003d0 84 11 1f 3e 2e 39 58 bd 07 87 8a 3d b6 64 6b 3d
       0.15534025 -0.052788906 0.06764036 0.057469092
0003e0 a1 26 47 bd 9b 9c ed 3d 14 1f 15 bd 42 72 14 be
       -0.048620824 0.11602136 -0.03640659 -0.14496711
0003f0 7c 57 85 bc cc b0 5a bd cf 79 3c be 66 82 f4 bd
       -0.016277067 -0.053391263 -0.18405841 -0.11938934

cells.0.h2h.bias f4 [256]
000000 5e f5 8d bd 33 1f bb 3c 3b 9e c7 3b e5 09 8c 3d
       -0.06931566 0.022842025 0.0060918606 0.06837825
000010 a5 0c ed 3d 90 83 2d bd 90 5d 20 3d 3a 17 b6 3d
       0.115746774 -0.042361796 0.03915173 0.08891149
000020 34 cc 69 3d 41 9e 4c 3d 31 bf 17 3e 93 1d dd 3d
       0.05707951 0.04995561 0.14819027 0.107966565
000030 9d 95 54 bd 3b 29 ed 3d d9 58 2d 3e 11 a9 c7 bd
       -0.051900495 0.1158013 0.16928424 -0.09749044
000040 ce a4 00 3c d6 4f e6 3c 02 52 c5 bd aa be 93 bc
       0.0078517925 0.02811424 -0.096347824 -0.018035252
000050 2d 34 82 3c 7e d6 01 3e 94 dd fa 3d d7 7c bf 3d
       0.01589402 0.12679479 0.12249294 0.09349983
000060 6b c6 34 3d cd 41 67 bc bc f0 4a bd 53 af 38 bc
       0.04413454 -0.014114809 -0.04954599 -0.011272269
000070 08 78 03 3e 75 7a d1 3d 73 48 cb bd 20 53 21 bd
       0.12838757 0.10228435 -0.09925928 -0.039385915
000080 27 a1 31 3c 40 e2 07 3e bd 21 96 bc 94 92 8a 3d
       0.010841644 0.13269901 -0.018326635 0.06766239
000090 c8 22 04 bd ac f2 ac bd 79 74 6a 3d 67 9d 9d bd
       -0.032259732 -0.084447235 0.057239983 -0.07696038
0000a0 1a 84 97 3d 34 45 0f 3e 7a cc 50 3d 24 e6 f8 3d
       0.07398243 0.13991243 0.050976254 0.12153271
0000b0 6e 1a c7 3d d9 1b 5f 3c 95 cc 6c bd 06 47 af 3d
       0.09721838 0.013617479 -0.057812292 0.085584685
0000c0 34 27 86 bd 3d a2 30 3d 78 ca b7 3c 4a 93 39 3d
       -0.06550446 0.043123472 0.022435412 0.04530648
0000d0 68 d5 d2 3d 78 ab 3d bd cb 51 36 bc 56 df 3b bc
       0.1029461 -0.046306103 -0.011127899 -0.011466822
0000e0 5e 24 46 3d 64 c3 39 bd e8 b3 cd bc 37 a5 6b 3d
       0.048374526 -0.045352355 -0.0251102 0.057530608
0000f0 03 ed e9 3d e0 d6 0d bc e6 9a 98 3d 87 fe b2 3d
       0.114221595 -0.008657187 0.074514195 0.087399535
000100 cb 58 a9 3d 5c e3 a8 3d 24 bb cd 3d c3 4c cb 3c
       0.08268889 0.0824649 0.1004546 0.024816876
000110 bc f6 ef 3d 98 f9 46 bd 3d 60 88 bc 11 c3 d6 3c
       0.11716983 -0.048577875 -0.016647452 0.026216062
000120 79 b9 84 bd 37 17 96 3c a7 82 9d 3d e0 ef 40 bd
       -0.064806886 0.018321617 0.076909356 -0.047103763
000130 d8 2c 3a 3d 57 8a 93 3d f4 57 17 3e 6e 38 31 3d
       0.045452923 0.072041206 0.14779645 0.043266706
000140 e7 d9 88 bd 14 9b e7 3d dd 0e d1 bd e3 db cf bc
       -0.066821866 0.11308876 -0.10207913 -0.025373405
000150 d9 10 b2 bc b2 9e b9 3d 8d b0 58 bc 86 c9 e6 3d
       -0.02173655 0.09063472 -0.013225687 0.11268906
000160 98 20 40 bc 5c 43 b0 bd 68 ac 19 3d ab ef bf 3c
       -0.011726521 -0.08606598 0.037517935 0.023429712
000170 96 b0 05 bd 21 f3 68 bd a8 f3 16 3e 2f 97 a9 bd
       -0.03263911 -0.05687249 0.14741385 -0.08280789
000180 70 24 ee bb 28 43 0b bc c4 11 56 3c 3d e6 04 be
       -0.0072675273 -0.008499898 0.013065759 -0.12978454
000190 ee 10 e1 3d 88 e9 a0 bc 72 7a bb bd 9e fb 60 3c
       0.10989557 -0.019642606 -0.09154214 0.013731865
0001a0 ee 5c 0e 3e 62 78 1b 3e fd a1 e8 bc 67 e8 22 3c
       0.13902637 0.15182641 -0.028397555 0.009943104
0001b0 5d 4e 5c 3c 59 a8 a6 bd cf 05 af bc 7e 28 1c 3d
       0.013446418 -0.081375785 -0.021365074 0.038124554
0001c0 6f 8e 9b bc 9c 5e 0b bd 14 3b 1a 3e 71 29 4e 3d
       -0.018988816 -0.034025773 0.15061599 0.05033249
0001d0 a0 16 1c 3e 79 41 e4 3d 95 dd 8a b9 ec 72 8c bd
       0.15243006 0.111453004 -0.00026486503 -0.06857857
0001e0 62 39 f7 3c 3a 93 12 bd 33 50 1a 3e fc 83 ee 3d
       0.03017873 -0.035784937 0.15069656 0.11646268
0001f0 fe 7f 9b 3d a0 f4 24 3e 50 a8 00 3e db 16 9c 3d
       0.07592772 0.16108942 0.12564206 0.07621547
000200 c0 c5 0e 3c db 53 c7 3d aa 01 db 3d 59 5e cb 3d
       0.008714139 0.09732791 0.10693677 0.09930105
000210 13 00 59 bd 3a 7f b7 3c 10 37 ce bd 67 1a 5d bd
       -0.052978586 0.022399534 -0.10069096 -0.053980257
000220 e4 4c af bd 34 e8 f2 3d 0e ab 34 3d 50 43 d1 bd
       -0.085595876 0.118606955 0.044108443 -0.10217917
000230 ec fd bf bd 39 74 08 3e 28 9e b9 3d 0e 99 ee bc
       -0.09374604 0.13325585 0.09063369 -0.029125717
000240 a0 f6 40 3c c0 09 48 3c bc fa 19 3c 20 ef b3 bd
       0.01177755 0.012209356 0.009398159 -0.08785844
000250 0d f3 08 3d f8 ed 31 3d b8 79 91 bb 62 a0 11 be
       0.033434916 0.043439835 -0.004439559 -0.14221337
000260 3a 4b 93 3c dc 27 c1 3d ab 6c e6 bd db 1b eb bd
       0.017980207 0.09431431 -0.112511955 -0.114799224
000270 40 e1 e7 bd 88 45 88 3d 00 6d a2 bd 9c 56 e4 3d
       -0.1132226 0.06653887 -0.07930946 0.11149332
000280 32 25 5f bd 54 8c ca 3d 72 64 b7 bc 42 9d c6 3d
       -0.05447883 0.09890047 -0.022386763 0.09697963
000290 6e 63 4e 3d 00 ab fb bc 45 bd 14 3d 04 2a 96 3d
       0.050387792 -0.030721188 0.036313314 0.073322326
0002a0 70 28 9d bd 86 7e 20 bb 72 1f 93 bc 4f d3 97 bd
       -0.076737285 -0.0024489476 -0.01795933 -0.07413351
0002b0 e0 eb da 3d cc f9 95 bb ac 9f b4 3d e3 65 a6 3d
       0.10689521 -0.0045768972 0.088195175 0.08124902
0002c0 43 15 23 3e cd cc ce bd 9b 42 a9 bd e3 84 ca 3c
       0.1592608 -0.100976564 -0.08264657 0.024721568
0002d0 6a f5 5b 3d 10 e2 5c bc 6c 0d 04 be 87 04 46 bd
       0.053700842 -0.013481632 -0.12895745 -0.04834416
0002e0 0e 6c a6 3d 09 52 1a 3d 87 c3 b1 bd 65 e9 1c be
       0.081260785 0.03767589 -0.08679872 -0.15323408
0002f0 c7 c9 c4 bd 27 d1 b1 bc 99 9f 56 bd 6d 33 72 bb
       -0.096087985 -0.021706177 -0.052398298 -0.0036956922
000300 1d bd cc bc 10 5f 01 be 56 e9 a0 bb a4 e1 84 3d
       -0.02499252 -0.1263392 -0.0049106283 0.0648835
000310 51 17 b9 bd a1 a6 11 3e e6 f8 b2 bd 7e f1 22 bd
       -0.090376504 0.1422372 -0.0873888 -0.039781086
000320 a2 81 8e 3d 19 36 7f 3d 2d 2c 9e 3c fd 9a 3b bd
       0.06958319 0.06230745 0.019308174 -0.045802105
000330 62 d7 92 3d 06 32 39 bd 26 b0 63 bd ad 28 26 3c
       0.07169987 -0.04521372 -0.05558791 0.010141534
000340 d8 97 43 3e 85 6a 71 3d 3a 3c ed 3c 9f ab 2d bc
       0.19100893 0.058939476 0.028959382 -0.0106
000350 b0 83 af 3d 60 3e a6 3d 27 95 76 3d 23 8e c0 3c
       0.08570039 0.08117366 0.060200837 0.023505276
000360 67 ef 8b 3d 11 5d ef 3d e8 d0 23 3e 46 56 47 3c
       0.06832772 0.11687673 0.1599766 0.012166565
000370 f6 35 93 bd ce 38 b3 3d f1 63 55 3d e1 74 55 3d
       -0.071880266 0.08751069 0.052097265 0.052113418
000380 c7 f0 f2 3c dd b7 3a 3e 68 15 43 3d 67 61 ab bd
       0.029655827 0.18234201 0.047627836 -0.083681874
000390 f0 13 c0 bd 60 40 64 bc fd 2c d4 3d 50 03 a8 3d
       -0.09378803 -0.013931364 0.10360143 0.08203757
0003a0 7d 82 22 3d 9a 67 6a bd bf ab d4 3d 90 65 a8 3d
       0.039675225 -0.05722771 0.103843205 0.082224965
0003b0 c1 da b0 bd ca 5b a2 bc a6 1d ac 3d 6e 05 27 bd
       -0.08635474 -0.019819159 0.084040925 -0.040776663
0003c0 fc c2 81 bd 56 51 00 3e 7c 40 2b 3e bf c1 9a bd
       -0.063360184 0.12531027 0.16723818 -0.075564854
0003d0 04 53 1b 3e ff 65 0a 3e b1 96 07 3e 10 d8 cd bd
       0.15168387 0.13515471 0.13241078 -0.10050976
0003e0 fe 04 c0 3d af 5d 30 bc 69 75 34 bd fc 10 24 3d
       0.09375952 -0.010764523 -0.044057284 0.04005526
0003f0 58 a6 1a bd 64 b0 d7 3c ad 92 e9 3d 80 c7 4b bc
       -0.037756294 0.026329227 0.11404929 -0.012437701

cells.1.x2h.weight f4 [256, 64]
000000 06 6b d7 bd 97 5a be 3d 04 e9 0b bd df 00 0f 3d
       -0.1051846 0.092946224 -0.034157768 0.03491294
000010 86 83 f7 bd c9 9a 68 3d b2 8c cb 3d a4 7e 14 3e
       -0.12085633 0.05678824 0.09938945 0.14501435
000020 58 45 d8 3d 90 99 50 bd d5 c1 78 3d 1a 28 91 bc
       0.10560101 -0.0509277 0.060731728 -0.017719317
000030 38 58 dc 3c 78 d4 25 3d 73 27 b1 3c 71 b1 8b 3b
       0.026897535 0.04048583 0.021625256 0.004263096
000040 44 42 15 3e da 06 d4 bd 36 2d aa 3c 14 c1 b4 3d
       0.1457606 -0.10352869 0.020773511 0.08825889
000050 7e 41 d4 bb b0 b1 c5 3d 35 fb 9f 3c e4 71 d0 bd
       -0.006477534 0.09653032 0.019528965 -0.10177973
000060 92 32 98 3b 19 c4 09 be 44 ba 8d bd 08 cf d1 bd
       0.0046447003 -0.13453712 -0.06920293 -0.10244566
000070 a9 9e 0d bd ba 7e ac 3d 44 38 5b bd 5a af cd bd
       -0.03457514 0.08422609 -0.053520456 -0.10043211
000080 5e 5f bd bd 98 3c 24 3e 43 ac 03 3e 38 23 53 bd
       -0.092467055 0.1603874 0.12858681 -0.05154726
000090 2d 90 84 bc 0d 13 4d bd c1 96 be bd 12 d7 28 3d
       -0.01618203 -0.050066996 -0.09306098 0.041220732
0000a0 be 85 5a 3d e9 44 fa bc ea d5 94 bc a2 18 8d 3b
       0.053350203 -0.030550437 -0.018168408 0.004305915
0000b0 52 d2 b2 3d 96 4b f2 bd b6 55 00 bd 84 0a a4 bd
       0.08731522 -0.11830823 -0.03133174 -0.08009818
0000c0 cb 89 a2 bd b5 39 ff bc ac e4 8b bd eb 32 76 3d
       -0.07936438 -0.031155447 -0.06830725 0.060107153
0000d0 9c 76 09 3d f5 37 ff bd aa ae 10 be 88 fc 15 be
       0.03356038 -0.12461845 -0.14129129 -0.14647114
0000e0 63 00 d1 bc 2d 2d ee bc f0 3f cf 3d fe 3b 84 3d
       -0.02551288 -0.029074276 0.10119617 0.06456755
0000f0 9a a9 fe bd 76 68 52 bd 21 ae ec bb 83 1b 0f 3c
       -0.12434693 -0.051369153 -0.007222906 0.008734587
000100 ee d8 03 be e4 4c d9 bb c1 c0 8c bc 0a 12 4e b9
       -0.12875721 -0.0066314805 -0.017181756 -0.00019652411
000110 c0 e4 9b 3d f1 ad a8 bd 3b ec f7 bd 9a 7d 3f bd
       0.0761199 -0.08236302 -0.12105604 -0.046750642
000120 7d 41 fe 3d 47 e7 ae 3d a3 b1 d5 bd cb dd 26 bd
       0.12414835 0.085402064 -0.10434272 -0.040738862
000130 e3 36 b3 bc f4 0e d2 bd 6b 91 81 3c 15 2a 20 3c
       -0.021876758 -0.10256758 0.015816411 0.009775658
000140 cd 0e a9 bd a7 f0 80 3c 1e 32 57 3a cb fb 0f be
       -0.08254776 0.015739752 0.0008209067 -0.14060895
000150 0c f1 82 bb a8 3b 52 3c c9 30 51 3d a4 12 d6 bd
       -0.00399602 0.012831606 0.051071916 -0.10452774
000160 79 85 af 3d ea f4 a5 bd 09 07 9a bd 82 a1 39 bd
       0.0857038 -0.08103354 -0.07520873 -0.04532004
000170 f0 70 9f 3c f6 de 32 3d ec 3e 3e be 10 89 56 bd
       0.019463032 0.043669663 -0.1857869 -0.052376807
000180 b9 6f 9c 3d 85 ff 06 bd df a7 db 3d de 32 16 bd
       0.07638497 -0.032958526 0.10725378 -0.036669604
000190 15 d7 3e 3d bc 78 a6 3d b2 34 71 bc fc 78 04 3e
       0.046591837 0.08128497 -0.014722036 0.12936777
0001a0 d6 6a de 3d 5e 99 02 bd 03 26 a5 3d 24 2c 41 3c
       0.10860221 -0.031884544 0.08063891 0.011790309
0001b0 0a 15 d6 bd 0b 9f 4a bd e8 00 0d 3d b6 95 8f bd
       -0.10453232 -0.04946808 0.034424692 -0.07010977
0001c0 e2 9a 08 3e fa 48 e3 bd f1 34 2a 3e 10 be 6b 3d
       0.13340333 -0.110979035 0.16621758 0.057554305
0001d0 a7 cf 92 bd ab ea 10 3e 31 88 d4 3c 4a 2b 77 3d
       -0.07168513 0.14152019 0.025943847 0.060344018
0001e0 f7 95 58 bc 71 6c 5a be 03 12 12 3e a7 2c bc 3d
       -0.013219348 -0.2133043 0.14264683 0.09188204
0001f0 a5 e4 2c b9 3a ff 37 bd 14 5d db 3d 6f 4b eb 3b
       -0.00016488375 -0.044921137 0.107111126 0.0071806232
000200 47 0f c8 bc 29 40 c2 3c 4f bd b8 3c 6d fd 89 3d
       -0.024421347 0.023712235 0.022551207 0.0673779
000210 f7 8e f2 bd 70 93 01 3d a4 6e 0f 3d 26 e4 9a 3d
       -0.11843675 0.031634748 0.035017624 0.07563047
000220 f6 55 66 3c fd d2 dd 3d ec 50 06 3e 6c 3d eb 3c
       0.014058581 0.108312584 0.13116807 0.028715812
000230 34 08 ab 3d a2 b2 97 3d 20 cc da bc 03 57 fe bd
       0.08351174 0.074071184 -0.026708663 -0.1241894
000240 7e e1 28 3e ed 9c cf bd 5d 00 c8 ba 5f d4 f3 3c
       0.16492268 -0.10137353 -0.0015258897 0.029764352
000250 e4 12 fc 3d 20 28 aa 3d 05 bb 22 3e 18 1c 0f be
       0.123082906 0.083084345 0.15891655 -0.1397556
000260 a3 c0 22 3e f7 26 6d bb 14 82 5e 3d 5f 07 16 3e
       0.15893798 -0.0036186555 0.05432327 0.1465125
000270 80 ae 97 bd 29 97 a5 bc 38 c0 ed bd 9c da bd 3c
       -0.0740633 -0.02021368 -0.116089284 0.02317553
000280 03 ee 2e 3d 57 9c 3d bc 68 bf e2 ba 13 01 9c bd
       0.042707454 -0.011572919 -0.0017299475 -0.076173924
000290 2e 59 1d 3b c4 ee be 3d df 94 df 3d 7a 04 e5 3d
       0.0024009454 0.09322885 0.10917067 0.111824945
0002a0 ca 90 26 bc 9b a6 03 bd 6b 63 a8 3d f6 0b 72 3b
       -0.010166356 -0.03214131 0.082220875 0.0036933399
0002b0 a5 30 c8 bd 26 d1 bd bc 96 cd 3d 3d 13 3b c1 bd
       -0.09774903 -0.023171019 0.04633864 -0.09435096
0002c0 4d c8 b3 3d 58 45 af 3d 25 1a e1 3c 7e e9 cc 3d
       0.08778439 0.08558148 0.027478287 0.100054726
0002d0 c0 a5 36 3e cc 02 26 bc dd 65 77 3d d4 c1 ac bd
       0.17836666 -0.010132503 0.06039988 -0.08435407
0002e0 5c af 99 ba 18 c6 32 bd db 7c d2 3c 9d de 71 be
       -0.0011725235 -0.04364595 0.025694301 -0.23620076
0002f0 30 fd c5 bd e8 c7 92 bd 13 78 1d 3d 5e 0f a6 3d
       -0.09667432 -0.07167035 0.03844459 0.081084
000300 99 1d 11 3d fc 7c cb 3d 4d 4b 2d 3d 0e 8c 85 3d
       0.035428617 0.09935948 0.04230814 0.06520854
000310 6f 5e 45 3d e2 0a cf bc 66 48 8b 3b 75 5d 1c 3d
       0.048185762 -0.025273744 0.004250574 0.038175065
000320 44 35 94 bd 2f 69 bf 3b c4 a1 c9 3d 7f a9 63 bd
       -0.07236722 0.0058413963 0.098453075 -0.055581566
000330 52 91 bb 3d c0 a7 a8 bd 36 ba f8 3d f8 8a d0 bc
       0.09158577 -0.08235121 0.12144892 -0.02545689
000340 32 4c 5b 3d 23 77 ac 3d 2c 42 ad bd f5 87 dd 3d
       0.053539462 0.08421161 -0.08459887 0.10816947
000350 12 50 a1 bc f3 0d 02 bd 6b 8a c9 bd 06 bd a4 bd
       -0.0196915 -0.031751584 -0.09840854 -0.08043866
000360 5c 69 b1 3d ed 23 1f bd 39 4d 10 3d c7 0d f0 bc
       0.08662674 -0.03885262 0.035229895 -0.029303445
000370 1d 4e 83 bd 37 c7 30 3e 8c e5 05 be 4f a7 6e bd
       -0.06411383 0.17263494 -0.13075846 -0.058265027
000380 b0 20 5e 3d 30 d1 f1 3d ff 82 73 3d aa 92 63 bb
       0.054230392 0.118074775 0.0594511 -0.003472487
000390 e0 95 44 bd 34 c9 68 3d 74 56 14 3d e8 5e 13 bd
       -0.047994494 0.056832507 0.03621526 -0.03597918
0003a0 df f3 70 3d f4 f2 96 3d 36 8a bd bd 23 cc a7 bd
       0.058826324 0.073705584 -0.09254877 -0.08193233
0003b0 57 76 d4 3d 33 51 d7 3d e6 aa 8c 3d f6 38 04 be
       0.10374134 0.105135344 0.06868534 -0.12912354
0003c0 cc 03 07 3e 74 22 87 3d 51 0e a5 bd db 09 9f bd
       0.13185042 0.06598368 -0.08059371 -0.07765552
0003d0 4b c1 c4 3d 62 a9 48 3d a3 26 dc bd eb dc c6 3d
       0.0960718 0.04898966 -0.10749557 0.097101055
0003e0 e9 0a 3b bc 1e 22 a9 3d f7 8e b3 bd 0d 1a 94 bd
       -0.011416175 0.082584605 -0.08767503 -0.07231531
0003f0 9b ff aa bd 35 d1 6f bd e4 35 cd 3c c1 52 1d 3e
       -0.08349534 -0.058549125 0.025050111 0.153636

cells.1.x2h.bias f4 [256]
000000 44 09 58 bd b9 09 76 bd 0b 2c 00 3e 5b ed 0a 3e
       -0.05274321 -0.060067866 0.12516801 0.13567106
000010 4c 0c 73 bd 87 34 aa bb cb 48 0f 3d 8c 11 a4 bd
       -0.0593379 -0.00519425 0.03498153 -0.08011159
000020 bf aa 8b bd da a1 f1 3c 64 3a 13 3e f7 b9 f6 3d
       -0.068196766 0.029496122 0.14377743 0.12047189
000030 0a 81 86 bd 9d 4c ed 3b 84 7d de bd d0 39 45 3d
       -0.06567581 0.007241799 -0.10863784 0.048150837
000040 86 71 bb 3d ed 3a fe bd 04 4c 79 bd 3a 9e fd 3d
       0.09152512 -0.12413583 -0.06086351 0.12383695
000050 d2 8c 93 bd 0e 7f 52 3d cc e0 99 bd c5 dd 98 bb
       -0.07204594 0.0513907 -0.0751358 -0.004665109
000060 e4 61 0a 3e 7d 53 bd 3d 75 24 43 3d 3f 04 64 3d
       0.13513905 0.0924444 0.04764219 0.055668112
000070 5c 1d 34 3d 32 b8 66 3d 1b d0 39 bc 79 5a 17 3e
       0.04397331 0.056328006 -0.01134112 0.14780606
000080 de 06 3a bd 30 95 24 3e bc e3 50 bd c4 53 d2 3d
       -0.045416705 0.16072536 -0.050998434 0.10269883
000090 c1 1d 02 3d f3 2c e4 3c 54 77 04 bd ac fa 3f bd
       0.031766657 0.027853465 -0.032340363 -0.04686992
0000a0 51 ba 47 3b 84 55 11 3d a7 8c ea bd 2f ac 50 3d
       0.0030476043 0.035481945 -0.114526086 0.050945457
0000b0 60 b5 37 3d 9d f7 a0 3d 91 44 57 bc cf b3 a2 bd
       0.044850707 0.078597285 -0.013138906 -0.07944452
0000c0 b0 f6 84 ba 4e bb 8e 3d ef d0 e8 3d 82 97 16 3e
       -0.0010144319 0.06969319 0.11367976 0.14706233
0000d0 85 3d 27 bd 41 75 d6 3d a3 94 f5 3d c1 c8 1a 3e
       -0.040830154 0.10471583 0.11991241 0.15115644
0000e0 3a 63 fa 3d 22 e6 30 3d 87 7d 77 bd b6 92 0f bc
       0.12225957 0.04318822 -0.060422447 -0.008763006
0000f0 25 93 0c 3e 2d 77 a0 3b b2 0a 4f bd cb 6a 15 3c
       0.13728006 0.0048970194 -0.05054731 0.0091197
000100 74 4e f7 3c c0 09 00 3d 34 4b 5e 3d 3b 9c 6d bd
       0.030188777 0.0312593 0.054270938 -0.05801032
000110 8a 7a 02 3d 3d a5 43 3d 3a 37 c3 bd 4e b8 de 3d
       0.031855144 0.047765005 -0.09532018 0.10874997
000120 ed 0d a0 39 9a b6 71 bd 24 43 e9 bd ce 0d a7 bc
       0.00030527954 -0.059012033 -0.11389759 -0.020392325
000130 e5 64 d5 bd e7 81 e2 3d d4 a8 52 bd 4b 08 87 3d
       -0.10419635 0.11059933 -0.05143054 0.06593379
000140 fd 8b 52 3d 2b fd a7 bd be a1 89 bb 50 f8 74 3d
       0.051403034 -0.08202585 -0.0042001894 0.05980712
000150 4c b3 c3 bd a0 fb a8 3b e5 05 98 bd 95 8b c0 3d
       -0.095556825 0.005156949 -0.07422999 0.09401623
000160 cf 4b 89 bc 15 cf 18 bd 9e de fc 3d 30 7a 0c 3d
       -0.016759781 -0.037306864 0.12347148 0.034296215
000170 af 35 88 3d 29 11 f3 3d 97 a0 74 3d d2 11 8a bd
       0.06650864 0.118685074 0.059723463 -0.0674168
000180 e4 75 a9 bc b3 d9 47 3d 6c df f3 bd 67 bb cc bd
       -0.020686097 0.0487916 -0.11907849 -0.09996682
000190 43 8f 23 bd 8c 1f cb 39 65 ae 5d 3c 07 d1 57 bc
       -0.039931547 0.00038742681 0.013530348 -0.013172395
0001a0 f5 a6 1e 3d 86 4f 60 3c 99 a8 2e bc f0 94 ff 3c
       0.03873344 0.013690835 -0.010660314 0.031198949
0001b0 0f ba e9 3d 4b b0 c9 bd ba 70 75 bc d6 02 a9 3d
       0.11412441 -0.09848078 -0.014980489 0.08252494
0001c0 c0 7c 17 3e bc ee 16 3e 96 92 0b bd 09 5a c2 3d
       0.14793682 0.14739507 -0.034075342 0.09489829
0001d0 c4 0b 81 bd c7 1c 0a be 58 89 a7 bd b7 5e ad 3d
       -0.06301072 -0.1348754 -0.08180493 0.08465331
0001e0 a4 db 4a 3b 76 f4 ae 39 2a 80 7c 3c 5e 6a a3 3d
       0.003095367 0.00033370004 0.015411416 0.07979272
0001f0 3a 19 0a 3e 18 e7 25 3d 77 21 88 bd 09 0b 8a 3d
       0.13486186 0.04050359 -0.06647008 0.06740386
000200 b7 a5 db bc 0d 22 1f bd 2e e5 1f bd 5b b5 01 3e
       -0.026812417 -0.038850833 -0.039036922 0.12666838
000210 84 2c c0 3d c5 fb bd bd b3 5f 78 bc 45 7e 65 3d
       0.09383491 -0.09276537 -0.015159535 0.056028623
000220 35 d8 51 3d 0b b0 e3 3d 3d 72 48 bd d2 64 58 bd
       0.05123158 0.11117562 -0.04893707 -0.052830525
000230 ee 2b 4f bb 29 4e 43 3c cb 36 bd 3d 06 3b b4 3d
       -0.0031611877 0.01192049 0.092389666 0.0880032
000240 ab f4 9b bd f4 c8 7b 3d 53 69 b6 3d 36 a5 86 3d
       -0.07615026 0.06147094 0.08906808 0.0657448
000250 72 e4 bd bd 83 89 09 3e a8 26 85 bd de 75 07 be
       -0.09272088 0.13431363 -0.06501514 -0.13228557
000260 3e 17 a0 3d 8f 90 e8 3d 5d 67 c8 3d 41 ce 1a be
       0.07816933 0.11355697 0.0978534 -0.15117742
000270 96 16 ab bb 8e b5 44 3d da 42 91 3d 5d 42 3c bd
       -0.0052211983 0.048024707 0.07092829 -0.045961726
000280 d7 b5 13 bc 74 f1 9b bd d0 f3 26 3d 53 58 61 3b
       -0.009015522 -0.07614413 0.04075986 0.003438492
000290 d1 e4 bf bc a3 aa 82 bd a5 bb ac 3d 38 10 b6 3a
       -0.023424538 -0.063802026 0.08434228 0.0013890332
0002a0 b4 d8 ae bd 83 d0 1a bd df 6a d6 3d b4 94 11 3e
       -0.085374266 -0.03779651 0.10469603 0.14216882
0002b0 c4 04 f4 bc 13 ef dc bd 8e bc 7c bd c4 00 2e 3d
       -0.029787429 -0.10787787 -0.061703257 0.0424812
0002c0 e6 d9 46 3d d9 0a fa bd 13 0e dc bd 1f 0b ac 3d
       0.048547648 -0.122091 -0.10744872 0.08400559
0002d0 f3 b2 17 bb 81 10 bf 3d cf 86 98 bd e0 75 81 bc
       -0.0023147434 0.0932932 -0.07447588 -0.015803277
0002e0 de 8a ef 3d fa 7f b9 3d 3c 08 ce bd 6b a3 fb 3d
       0.11696409 0.09057613 -0.10060164 0.12287029
0002f0 0d b0 07 3e 79 70 08 3c d6 44 be bd 17 7d 8d 3d
       0.13250752 0.008327597 -0.09290473 0.069086246
000300 42 fc c4 3c 22 20 a7 3c 98 d1 ff bb 75 33 e9 3d
       0.024046067 0.020401064 -0.007806968 0.11386768
000310 b4 fd c9 bb 2e aa 0c 3e fc 17 00 3e 32 2e 59 bc
       -0.006164277 0.13736793 0.1250915 -0.013255643
000320 3a c1 2e 3d a9 83 10 3d 21 23 1b 3d 94 9a 85 3d
       0.042664744 0.03528181 0.0378753 0.06523624
000330 3d 0a dc 3c 9e 8e 01 3e dc 04 86 bc e9 fd 8b bd
       0.02686035 0.1265206 -0.016359739 -0.06835539
000340 0a e3 1e 3d 18 a0 22 bd b2 8a c3 bd 74 40 17 3e
       0.03879074 -0.03970346 -0.095479384 0.1477068
000350 5b ce 78 3d 1a 6b 08 3d 21 8b f4 3d 12 90 fd 3d
       0.06074367 0.033305265 0.11940599 0.12380995
000360 fc 3e bd bd 5f 9a 76 3d fe 4f 08 3e af db 42 bc
       -0.09240529 0.060205813 0.13311765 -0.011893197
000370 50 50 50 bd cc 81 ae bd f0 70 c9 3b cd 2b 0a 3e
       -0.050857842 -0.085208505 0.0061474964 0.13493271
000380 8e 74 c7 3d cc 3a 8f 3d 6f 44 fb 3d 3a bd 12 3e
       0.09739028 0.069936365 0.12268912 0.14329997
000390 5c 2f ec 3d fa 41 5c 3b 87 de 54 bd 7a 50 aa 3d
       0.115324706 0.003360866 -0.05197003 0.08316131
0003a0 f4 6f 9c 3d dc b9 ce bc 45 bd cc bd 79 ff ba bc
       0.07638541 -0.025235109 -0.09997038 -0.022826897
0003b0 e4 f8 2d 3d cc 38 be 3c bb 22 0c 3e 5a 47 0c be
       0.04247369 0.023220442 0.13685124 -0.13699093
0003c0 a5 37 13 bd ca a0 a5 3d bd 3d 07 bd d0 e1 9c bd
       -0.03594174 0.08087309 -0.033017863 -0.07660258
0003d0 40 67 d1 3d 6b d7 6d 3c 8f 3d 30 3c f6 08 c9 3d
       0.102247715 0.014516692 0.010756864 0.09816162
0003e0 e4 e1 e7 3d e5 e0 dd bd 8e 6d f0 bc 1e 2e 4c bd
       0.11322382 -0.10833911 -0.029349115 -0.04984867
0003f0 08 7a 07 3c 54 6b 81 3d 82 98 2d 3d 69 a6 d1 bc
       0.008268841 0.06319299 0.04238177 -0.025592046
