model_street/models_street_all/LSTM_model_MAJOR DEEGAN EXPRESSWAY.pth (torch, 358642 bytes, 17 tensors)

input_projection.weight f4 [9, 9]
0	0xbeb2ed35	-0.349466
1	0xbe07ee32	-0.13274458
2	0x3dea3687	0.114361815
3	0xbebeab66	-0.37240142
4	0x3d4fcc0a	0.050731696
5	0xbe97301c	-0.29528892
6	0xbd8ffdcb	-0.07030829
7	0xbe70e327	-0.23524152
8	0xbda869c6	-0.082233
9	0xbe6f19d6	-0.233497
10	0xbe02d4d4	-0.127765
11	0x3e80c77b	0.25152192
12	0xbeaea9f5	-0.34114042
13	0x3a65201c	0.00087404414
14	0x3db810bc	0.08987567
15	0x3e331697	0.17489086
16	0x3d3c036f	0.045901712
17	0x3e096914	0.1341899
18	0x3e3057cc	0.17220992
19	0x3c86b84a	0.016445298
20	0xbe40adae	-0.18816254
21	0x3e84b7c6	0.25921458
22	0xbdb6f482	-0.08933355
23	0xbdf8972c	-0.12138209
24	0x3e634446	0.22194013
25	0xbc85a3be	-0.01631343
26	0x3e85a3f7	0.26101658
27	0x3e356406	0.17713937
28	0x3db3975a	0.087691024
29	0x3df62c16	0.120201275
30	0xbcb779d9	-0.022396969
31	0xbe7d9e95	-0.24767525
32	0x3e3918e7	0.18075906
33	0xbd66e810	-0.056373656
34	0xbe1764e6	-0.14784583
35	0x3cd34e30	0.025794119
36	0x3de7d757	0.1132037
37	0x3e06a54e	0.13148996
38	0x3d05bf52	0.03265316
39	0xbd73cbde	-0.059520595
40	0xbd319e4b	-0.04336385
41	0x3de7cb73	0.11318102
42	0xbc29b4e3	-0.010358068
43	0x3dac83ee	0.08423601
44	0xbd876e86	-0.066128775
45	0xbd46c9ed	-0.048532415
46	0xbe134a93	-0.14383917
47	0xbd60ddcd	-0.054899026
48	0x3d86fa67	0.06590729
49	0xbe8a2340	-0.2698002
50	0x3d70e981	0.058816437
51	0x3e7c202b	0.24621646
52	0x3dfba780	0.122878075
53	0x3e347b8c	0.17625254
54	0xbe5f4e46	-0.21807203
55	0x3debc17b	0.11511513
56	0x3d6b5ada	0.05745969
57	0x3e857aae	0.2607016
58	0xbe9f4a9f	-0.3111162
59	0xbe58b1f4	-0.21161634
60	0x3ea0685b	0.31329617
61	0x3e288e89	0.16460623
62	0x3dd79598	0.105265796
63	0xbe3b2c3a	-0.1827859
64	0xbe4eae57	-0.20183693
65	0x3e0545a6	0.1301485
66	0xbe96b89c	-0.2943772
67	0xbd7474f6	-0.059681855
68	0xbe15ccfd	-0.14628978
69	0xbe032fa2	-0.12811139
70	0x3c18eb60	0.0093334615
71	0x3eaf51af	0.34242007
72	0xbca0983d	-0.019603843
73	0x3d0d36c6	0.034476064
74	0x3e6d9871	0.23202683
75	0x3e3599c7	0.17734443
76	0xbe3be9b4	-0.1835087
77	0xbd032def	-0.032026228
78	0xbec93198	-0.3929565
79	0x3e37d944	0.17953974
80	0x3dff9311	0.124792226

input_projection.bias f4 [9]
0	0xbd6006d5	-0.054694016
1	0xbe3cbc61	-0.18431236
2	0x3e83a7d9	0.25713995
3	0xbe8a0ae9	-0.2696145
4	0x3eb9e80d	0.36309853
5	0x3d21adad	0.03947227
6	0x3e96d1d3	0.29456958
7	0x3c9d95c6	0.019236457
8	0xbdae06ad	-0.08497367

cells.0.x2h.weight f4 [256, 9]
0	0xbda71494	-0.08158222
1	0xbd98fc93	-0.0747005
2	0xbe8063b3	-0.25076064
3	0xbe23a691	-0.15981509
4	0x3e8f6fba	0.28014928
5	0x3e8fec96	0.28110188
6	0xbe89b343	-0.26894578
7	0xbdde961f	-0.10868477
8	0x3eb2929d	0.34877482
9	0x3e5ee628	0.21767485
10	0xbe6d1531	-0.23152615
11	0xbbb00768	-0.0053719766
12	0x3df4893d	0.119402386
13	0x3bb4ac64	0.0055137146
14	0xbe0e12a5	-0.138743
15	0xbd56c1ba	-0.052430846
16	0xbde820b3	-0.11334362
17	0xbd1c2ecf	-0.038130578
18	0xbe1b8561	-0.15187599
19	0x3e2816c9	0.16414942
20	0x3dd8a860	0.1057899
21	0xbd5b524a	-0.053545274
22	0xbdf9b9cc	-0.12193641
23	0xbe27778d	-0.16354199
24	0x3e37cfc6	0.17950353
25	0xbe73aa72	-0.23795488
26	0xbbf563a4	-0.0074886847
27	0x3e06a81e	0.13150069
28	0x3e12f15d	0.14349885
29	0x3e917176	0.28406876
30	0xbcd3d1da	-0.025856901
31	0x3e9e8b79	0.30965784
32	0xbe4f9121	-0.20270206
33	0xbe16f4bd	-0.14741798
34	0xbe8ac33f	-0.27102086
35	0x3df8b494	0.121438175
36	0xbd900137	-0.07031482
37	0x3d9126eb	0.07087501
38	0x3e84e351	0.2595468
39	0xbd606fa7	-0.05479398
40	0x3d7faf4c	0.062423036
41	0x3e45d081	0.19317819
42	0x3d89d628	0.067303
43	0x3e21167f	0.15731238
44	0xbebc1823	-0.36737165
45	0xbe1e934d	-0.15485878
46	0x3c23c55d	0.009995786
47	0x3e9e3962	0.30903155
48	0xbe935095	-0.28772417
49	0x3eb56ee8	0.35436177
50	0xbc949a3d	-0.018139953
51	0x3c8db6d2	0.01729909
52	0x3d80df64	0.062926084
53	0x3e994fa8	0.29943585
54	0x3e4765c5	0.19472416
55	0x3ea75b17	0.32686684
56	0xbd207dfb	-0.039182644
57	0x3ca0a352	0.019609127
58	0xbc533f92	-0.012893574
59	0x3e833954	0.25629675
60	0xbe21b041	-0.15789892
61	0x3eb2db03	0.34932718
62	0xbe9683a2	-0.29397303
63	0x3d2ebba8	0.04265943
64	0x3e0aced5	0.13555463
65	0x3e8f358c	0.2797054
66	0xbebb11d0	-0.36537027
67	0x3ecb9d8c	0.39768636
68	0x3ead2a79	0.33821467
69	0x3e7c5c0a	0.24644485
70	0xbdb1768d	-0.0866519
71	0xbd8c91c1	-0.06863738
72	0xbd3822a5	-0.044954915
73	0xbe41d2f7	-0.18928133
74	0x3e8b985e	0.27264684
75	0x3e6b91f1	0.23004891
76	0xbe47cc75	-0.19511588
77	0xbdc576f8	-0.09641832
78	0x3e365279	0.17804898
79	0xbdc157db	-0.09440585
80	0x3e24d964	0.16098553
81	0xbe2738e1	-0.16330291
82	0xbd4a3c14	-0.0493737
83	0x3d52515a	0.051347114
84	0xbeb4dbdc	-0.3532399
85	0xbdd64d0f	-0.104639165
86	0x3b9cdfa4	0.004787402
87	0xbdcf6529	-0.10126717
88	0x3ea797e3	0.32733068
89	0x3ec38286	0.3818552
90	0x3c221e8e	0.00989498
91	0x3e4119d9	0.18857516
92	0xbe88ba27	-0.26704523
93	0x3e6bbd33	0.23021393
94	0x3b817702	0.0039509544
95	0xbe4a5587	-0.19759189
96	0x3e07d352	0.13264206
97	0x3e222a78	0.15836513
98	0xbd3ab1f2	-0.045579858
99	0x3bfbd58a	0.007685368
100	0xbea462c1	-0.32106593
101	0xbd6e15fc	-0.058126435
102	0x3e587c62	0.21141198
103	0xbd5fc7a6	-0.05463376
104	0x3e4b7f1e	0.1987271
105	0xbe976079	-0.2956579
106	0x3eb24de3	0.34825048
107	0x3e913e6c	0.28367937
108	0x3e773e08	0.24144757
109	0x3d821254	0.06351152
110	0x3ea1c609	0.315964
111	0xbe06bb94	-0.13157493
112	0xbe200d96	-0.15630183
113	0xbe836e7d	-0.25670233
114	0x3ea7b052	0.3275171
115	0x3e2d3554	0.16914874
116	0xbc7c20e0	-0.015388697
117	0xbe3a59d4	-0.18198329
118	0xbe4aebc7	-0.19816504
119	0xbe96dd13	-0.2946554
120	0x3d19b6c8	0.03752783
121	0xbe8c6aaa	-0.27425128
122	0x3b598c45	0.003319518
123	0xbd357aee	-0.044306688
124	0xbc7846bf	-0.015153586
125	0xbd920fc5	-0.07131914
126	0xbebb398f	-0.3656735
127	0xbe42d8be	-0.19027993
128	0x3e67aaeb	0.22623794
129	0xbda6f95a	-0.08153029
130	0x3eb4a05e	0.352786
131	0x3e099b46	0.13438138
132	0x3d6f8c6b	0.058483522
133	0xbe08880b	-0.13333146
134	0xbe69378e	-0.22775099
135	0xbe309d3b	-0.17247479
136	0xbdaacf33	-0.08340301
137	0x3e78266d	0.24233408
138	0x3dd89700	0.10575676
139	0xbe181ef2	-0.14855555
140	0x3e6c01ca	0.23047557
141	0x3e216c6c	0.15764016
142	0x3e35aede	0.17742488
143	0x3e893447	0.26797697
144	0xbd86fb1c	-0.06590864
145	0x3e8ad29d	0.2711381
146	0x3e55cf9d	0.2087998
147	0x3e153fcf	0.14575122
148	0xbd356885	-0.04428913
149	0x3eab6ded	0.33482304
150	0xbdf35a76	-0.118824884
151	0x3de7f51d	0.113260485
152	0xbdd12300	-0.10211754
153	0x3e6c30a7	0.23065434
154	0x3e2a17f3	0.16610698
155	0x3d913315	0.07089821
156	0x3ddcfb04	0.10790065
157	0xbe13b670	-0.14425063
158	0x3ea29cca	0.31760246
159	0xbe85c556	-0.26127118
160	0x3e8af47b	0.2713965
161	0x3ec9679d	0.39336863
162	0xbe9c6102	-0.3054276
163	0xbd66ef9a	-0.056380846
164	0x3e03b80b	0.12863176
165	0xbe20a88e	-0.15689299
166	0xbd285517	-0.041096773
167	0xbe4b9d7d	-0.19884296
168	0xbdf0e9c7	-0.117633395
169	0x3d98dfde	0.07464574
170	0x3e0b55a0	0.13606882
171	0xbd179393	-0.037005972
172	0x3e996df1	0.2996669
173	0x3debf8ec	0.115220875
174	0xbdd1ad97	-0.10238188
175	0x3e446f4d	0.19183083
176	0x3e872fbf	0.26403615
177	0x3eb9ec29	0.36312988
178	0xbe603917	-0.21896778
179	0xbe9af168	-0.30262303
180	0xbe07c022	-0.13256887
181	0xbda26815	-0.07930008
182	0xbe6e9e75	-0.23302634
183	0xbe9f5ba9	-0.3112462
184	0xbe6d8469	-0.23195042
185	0x3d746a17	0.059671488
186	0x3e66c76c	0.22537011
187	0xbd2f9a23	-0.042871606
188	0x3e36c9a2	0.17850354
189	0xbe761feb	-0.24035613
190	0xbe00baff	-0.12571333
191	0xbe1c4f7e	-0.15264699
192	0x3dd64b49	0.10463578
193	0x3eaa45b6	0.3325631
194	0x3b36699a	0.002783394
195	0x3eaa36fc	0.33245075
196	0xbe0214ec	-0.12703294
197	0xbe79b58c	-0.24385661
198	0x3d8d3f70	0.06896865
199	0x3d14f9c5	0.03637101
200	0x3d817eea	0.06323035
201	0xbdce02f4	-0.10059157
202	0x3ed49fee	0.41528267
203	0xbbde16c0	-0.0067776144
204	0xbe1de3f6	-0.15418991
205	0xbe1f4081	-0.1555195
206	0xbd5262a8	-0.051363617
207	0xbd8120c3	-0.06305077
208	0xbc90103e	-0.01758587
209	0x3e550b60	0.2080512
210	0xbe3f31ac	-0.18671292
211	0xbe05d1bb	-0.13068287
212	0x3e9ddd5e	0.30832952
213	0xbe029476	-0.12751946
214	0xbe62d9b6	-0.22153363
215	0x3e7c5acc	0.24644011
216	0xbea4620b	-0.3210605
217	0xbd208e7d	-0.039198387
218	0xbda1db67	-0.07903176
219	0xbeb54ada	-0.3540867
220	0x3dee667f	0.11640643
221	0x3e1aae79	0.15105619
222	0x3c9c2738	0.01906167
223	0x3d5f96da	0.054587223
224	0xbe08e01d	-0.13366742
225	0x3d4e725a	0.050402023
226	0x3b91899c	0.004441453
227	0x3e1c88e4	0.15286595
228	0x3de8b322	0.11362292
229	0x3e9744d7	0.29544708
230	0x3d9f8075	0.07788173
231	0x3ea77cab	0.32712302
232	0x3e2db809	0.16964735
233	0x3e227930	0.15866542
234	0x3e11664a	0.14199176
235	0x3ec805da	0.39066964
236	0x3e24ed0b	0.1610605
237	0xbe77c787	-0.24197207
238	0xbe2a73ab	-0.16645686
239	0x3ea363fe	0.31912225
240	0x3dab93f6	0.08377831
241	0x3eaba61c	0.3352517
242	0x3e9ac27b	0.30226502
243	0xbdb43456	-0.08799045
244	0xbeb7c9de	-0.358962
245	0x3e39c0e1	0.18139984
246	0xbe7ff2f1	-0.24995019
247	0xbc843200	-0.016137123
248	0x3e1402fa	0.1445426
249	0xbe51389b	-0.2043175
250	0xbe1d5db0	-0.1536777
251	0x3eab341d	0.33438197
252	0x3e5e2874	0.21695119
253	0xbe87c05e	-0.26513952
254	0x3e399232	0.18122175
255	0xbe095029	-0.13409485

cells.0.x2h.bias f4 [256]
0	0x3caf5a1d	0.021405274
1	0xbda11780	-0.078658104
2	0xbe1a334d	-0.15058632
3	0x3dea8118	0.11450404
4	0x3cf9042f	0.030397503
5	0xbe24b322	-0.16083959
6	0xbdfda5c1	-0.12385131
7	0x3d5cc3b9	0.053897593
8	0x3ea5e4e2	0.32401186
9	0x3e548d11	0.20756938
10	0xbe275e9a	-0.16344681
11	0xbda9c7c9	-0.08290059
12	0x3e305c2e	0.17222664
13	0x3dac37e2	0.08409096
14	0x3d3625a7	0.0444695
15	0x3e81d238	0.25355697
16	0x3e506637	0.20351492
17	0xbe85d921	-0.2614222
18	0x3e56d253	0.2097867
19	0x3d942dc8	0.072352946
20	0x3e5cbf2a	0.21557298
21	0x3e865fd7	0.26244995
22	0x3ed520a2	0.4162646
23	0x3eab5560	0.33463573
24	0x3e4ed957	0.20200096
25	0x3ea7e4aa	0.32791644
26	0xbe8ba17c	-0.2727164
27	0xbe7804de	-0.24220607
28	0xbe4bcb9a	-0.19901887
29	0xbe3c2fe4	-0.18377644
30	0x3e13468f	0.14382385
31	0xbe3db693	-0.18526678
32	0xbe4ec23b	-0.2019128
33	0x3e1d278f	0.15347122
34	0x3eaa8b4b	0.33309397
35	0xbe7c8f3f	-0.24664019
36	0x3e2a6b1a	0.16642419
37	0x3e480e7b	0.19536774
38	0xbc026249	-0.007958003
39	0x38d5d0c8	0.0001019552
40	0x3e4ef398	0.20210111
41	0x3e57a755	0.21059926
42	0x3e27f492	0.1640189
43	0xbe437b43	-0.1908999
44	0xbdf35e1e	-0.11883186
45	0x3d870991	0.065936215
46	0xbc34f29f	-0.0110441735
47	0x3c619e8d	0.013770712
48	0x3e8b09bd	0.27155867
49	0x3ea4f3ef	0.32217357
50	0x3e793190	0.24335313
51	0xbea326b0	-0.31865454
52	0xbd31c685	-0.043402214
53	0xbc9ef8e0	-0.019405782
54	0x3e35f273	0.17768268
55	0x3ea57f1e	0.32323545
56	0xbe74f524	-0.23921639
57	0xbe4c913a	-0.19977275
58	0x3e5ee3cd	0.21766587
59	0x3e159de4	0.14611012
60	0xbd9eeaf5	-0.07759658
61	0x3e01bf95	0.12670739
62	0xbe96b366	-0.29433745
63	0xbe3ce190	-0.1844542
64	0x3ebb3fc1	0.36572078
65	0x3ea94d4f	0.33066794
66	0x3df3d80e	0.119064435
67	0x3e2a3eb0	0.16625476
68	0x3d53525a	0.05159221
69	0x3de22dd5	0.11043898
70	0xbbc3b2c8	-0.00597224
71	0x3e81afa7	0.25329325
72	0x3e85f490	0.2616315
73	0xbe376e30	-0.17913127
74	0xbe20b94d	-0.15695687
75	0x3e0767b4	0.13223153
76	0xbd768552	-0.060185738
77	0x3e3a9186	0.18219575
78	0xbddf0827	-0.10890227
79	0x3e6e046f	0.23243879
80	0x3dbd1dfb	0.09234234
81	0x3dac94db	0.084268294
82	0x3e31dc73	0.17369251
83	0x3e6ec292	0.2331641
84	0xbe41f941	-0.18942739
85	0x3ea6044b	0.3242515
86	0xbd253c66	-0.040340804
87	0x3eaf18cc	0.34198606
88	0x3dd2da2a	0.10295518
89	0x3da1512c	0.078768104
90	0x3d8a7af3	0.06761732
91	0x3ec01342	0.37514693
92	0x3e9d2714	0.30693877
93	0x3dd86545	0.10566191
94	0x3e8832e9	0.2660134
95	0x3e908503	0.2822648
96	0xbd6f5b76	-0.058436833
97	0x3e792fbf	0.2433462
98	0x3eb363e8	0.3503716
99	0x3dc19396	0.09451978
100	0x3e9a94ae	0.3019156
101	0xbdbaf6cc	-0.09129104
102	0xbdaae4e7	-0.08344441
103	0x3eb2eae3	0.3494483
104	0x3ea997f1	0.33123735
105	0xbd8c8664	-0.068615705
106	0x3e48b7aa	0.19601312
107	0x3d500839	0.05078909
108	0x3dd2e169	0.102969
109	0x3e978446	0.29593104
110	0xbe0be5c4	-0.13661867
111	0xbe36e0f6	-0.17859253
112	0x3e1b769c	0.15181965
113	0xbe6a5626	-0.22884426
114	0x3e1848bb	0.14871494
115	0xbe7938c6	-0.24338064
116	0x3e1d833b	0.15382092
117	0x3d809012	0.06277479
118	0xbdddd0e1	-0.10830856
119	0x3e95a3a0	0.29226398
120	0x3df4dc84	0.119561225
121	0xbe65f79f	-0.22457741
122	0x3cb6add9	0.022299694
123	0xbcc72452	-0.024309311
124	0x3e709500	0.23494339
125	0x3eb7c633	0.35893402
126	0xbdc8364e	-0.09775983
127	0x3e229f4b	0.15881078
128	0x3e1e95f0	0.15486884
129	0xbd443257	-0.04789957
130	0xbea13750	-0.31487513
131	0xbda03ff1	-0.07824696
132	0xbd1d5455	-0.038410503
133	0x3e649477	0.2232226
134	0x3e4ccb74	0.19999486
135	0x3dbc09e2	0.091815725
136	0x3def98a6	0.11699037
137	0x3e4441c5	0.19165714
138	0x3dfcab35	0.12337343
139	0xbe702f16	-0.23455462
140	0xbde42216	-0.11139314
141	0x3d8d48f9	0.06898684
142	0xbdff658e	-0.12470542
143	0x3dff7ac1	0.12474585
144	0x3d87d42a	0.06632264
145	0x3c3ea4b6	0.01163595
146	0x3daca8a4	0.08430603
147	0xbe84074c	-0.25786817
148	0x3d691152	0.056901284
149	0x3d4f167f	0.050558563
150	0x3e8bc57e	0.27299112
151	0x3e9a6a50	0.30159235
152	0x3be6d541	0.007044465
153	0xbe96408f	-0.2934613
154	0xbea6e002	-0.3259278
155	0x3e80a1dc	0.2512349
156	0x3e5f4402	0.21803287
157	0x3e834aaf	0.25642917
158	0xbe084d08	-0.13310635
159	0x3e7da2ae	0.24769089
160	0x3e956899	0.29181364
161	0xbe476842	-0.19473365
162	0x3dbe8ebb	0.093045674
163	0x3e88523d	0.26625243
164	0x3e44ead5	0.19230206
165	0xbe428062	-0.18994287
166	0xbeaf8359	-0.34279898
167	0x3e184ce9	0.14873089
168	0xbd4ae4fc	-0.049534783
169	0x3e974b1c	0.2954949
170	0x3bd8b0bb	0.006612865
171	0x3a4f3500	0.0007904321
172	0x3e47e0a3	0.19519286
173	0xbe28f617	-0.16500126
174	0xbe701c45	-0.23448284
175	0xbd0865c3	-0.033300173
176	0xbe89c4ee	-0.26908058
177	0x3e75dcfc	0.2401008
178	0x3c2ca1e1	0.010536642
179	0x3e95e9c8	0.29279923
180	0x3e8ae4d2	0.271277
181	0xbe6bce53	-0.23027925
182	0x3d167e42	0.036741503
183	0x3e8f2544	0.2795812
184	0x3dba26da	0.090894416
185	0xbdf6fdd7	-0.12060135
186	0x3cf7c0b9	0.030243265
187	0x3e8b7143	0.2723485
188	0x3ea9e52c	0.33182657
189	0xbd68adc3	-0.056806337
190	0xbe0ea856	-0.13931403
191	0x3de20858	0.11036748
192	0x3e89552b	0.2682279
193	0x3e37c9fd	0.17948146
194	0xbd8072ce	-0.06271897
195	0xbd99555e	-0.074869856
196	0x3e1b2ffd	0.15155025
197	0xbe33be9a	-0.17553177
198	0x3e8cbd02	0.27487952
199	0xbccfe9d8	-0.02538006
200	0x3e842f36	0.2581727
201	0xbe5c2bd8	-0.215011
202	0x3c4286f0	0.011872992
203	0x3e1398d1	0.14413764
204	0xbe0ae31e	-0.13563201
205	0xbe088548	-0.13332093
206	0x3d56b230	0.052416027
207	0xbe98343d	-0.29727355
208	0x3da81a4f	0.08208143
209	0x3e647756	0.22311148
210	0x3e555802	0.20834354
211	0xbe191723	-0.14950232
212	0xbe7a8be2	-0.24467424
213	0x3de2a7e7	0.11067181
214	0xbe2b33c8	-0.16718972
215	0xbdea6aa8	-0.11446124
216	0xbd63627c	-0.055513844
217	0x3eb67f76	0.3564412
218	0xbcc8147b	-0.024423828
219	0x3e68f3e8	0.22749293
220	0x3e66a77f	0.22524832
221	0xbe236eba	-0.15960208
222	0xbe7ec85c	-0.24881119
223	0x3eac5173	0.3365589
224	0xbd00bd0f	-0.0314303
225	0xbde1fc0e	-0.11034404
226	0x3eb36f49	0.3504584
227	0xbe2388d6	-0.15970168
228	0x3d8bac5f	0.068199866
229	0x3e4db293	0.20087652
230	0xbe6c5548	-0.23079407
231	0xbd0e8533	-0.034794997
232	0x3eb63936	0.35590523
233	0x3d850125	0.06494359
234	0xbe6a9c8e	-0.22911283
235	0xbcef799c	-0.029232793
236	0x3d83ad1a	0.06429501
237	0x3e626538	0.22108924
238	0xbe01b811	-0.12667872
239	0xbd8a951d	-0.06766722
240	0x3d484fb5	0.04890414
241	0x3e9ea984	0.30988705
242	0x3e38e9b0	0.18057895
243	0xbe885ee9	-0.2663491
244	0x3de695d3	0.112590455
245	0xbe0cf501	-0.13765337
246	0x3e9e008f	0.308598
247	0x3eab087f	0.3340492
248	0x3e8abce5	0.2709724
249	0xbe64f6a0	-0.22359705
250	0x3da723e3	0.08161142
251	0xbda8f1f5	-0.08249275
252	0xbe9cbb95	-0.30611864
253	0xbe45d29b	-0.19318621
254	0xbe10e565	-0.14150007
255	0xbe7e4302	-0.24830249

cells.0.h2h.weight f4 [256, 64]
0	0xbe05d8d5	-0.13070996
1	0x3d368119	0.04455671
2	0xbe068738	-0.1313752
3	0xbcbe1fd9	-0.023208546
4	0xbbeca4de	-0.007221802
5	0x3dca7f19	0.09887523
6	0x3c75b685	0.014997129
7	0xbd7f0645	-0.06226184
8	0x3d842d22	0.06453921
9	0x3d65cc14	0.056102827
10	0xbbaf670a	-0.0053528594
11	0xbde7b042	-0.113129154
12	0xbc7d3831	-0.015455292
13	0x3d3f06bc	0.04663728
14	0xbdd87b2b	-0.105703674
15	0x3e159a70	0.14609694
16	0x3dca4e55	0.09878222
17	0xbdaa6894	-0.08320728
18	0x3c8fd787	0.017558826
19	0x3d07c813	0.03314979
20	0xbb202cc5	-0.0024440747
21	0xbcb9bbb6	-0.022672515
22	0x3d4762f0	0.04867834
23	0x3c96d6d7	0.01841299
24	0x3d500141	0.050782446
25	0xbdf9302b	-0.121673904
26	0xbdd02208	-0.10162741
27	0xbc891094	-0.016731538
28	0x3d937476	0.071999475
29	0xbdb5e629	-0.0888179
30	0xbdd3529c	-0.10318491
31	0xbd2d4031	-0.042297546
32	0x3db1d92f	0.086840026
33	0xbe08167d	-0.13289829
34	0xbca24b79	-0.019811379
35	0x3dd3284d	0.10310421
36	0x3c88bf54	0.016692795
37	0xbde62c05	-0.11238865
38	0x3d1333c0	0.035938025
39	0x3d2a7053	0.041611027
40	0xbe1f175b	-0.15536253
41	0x3ddf72f1	0.10910595
42	0x3ce260dc	0.027634077
43	0x3e01b2d3	0.12665872
44	0x3c4e8c36	0.012606671
45	0xbdecb650	-0.11558211
46	0xbdb9088a	-0.09034832
47	0x3d8ea065	0.069641866
48	0x3d8d689e	0.0690472
49	0x3d2c0b0d	0.042002726
50	0x3d469222	0.048479207
51	0xbd905c3b	-0.070488416
52	0x3de1410b	0.10998734
53	0xbd7f8740	-0.062384844
54	0x3d4144a0	0.047184587
55	0x3ddb61f6	0.10712044
56	0x3cdd3878	0.027004465
57	0xbd2844d5	-0.04108127
58	0xbe0bff9e	-0.13671729
59	0x3d7d172a	0.06178967
60	0x3d474ee8	0.048659235
61	0x3d5b23d7	0.053500976
62	0xbd1d67b7	-0.03842899
63	0x3de71645	0.112835445
64	0xbe01d9a0	-0.12680674
65	0x3d840aa6	0.064473435
66	0xbe3db02d	-0.18524237
67	0x3cfb5cd0	0.030683905
68	0xbe5bf695	-0.21480782
69	0x3e484464	0.19557339
70	0x3df65aff	0.12029075
71	0x3d267e90	0.040648043
72	0xbd0d99a3	-0.034570348
73	0x3daa0ca4	0.08303192
74	0x3db33096	0.087495014
75	0xbe38d6d6	-0.18050703
76	0xbadec05c	-0.0016994583
77	0x3d4ce856	0.05002626
78	0xbe02c3ae	-0.12769958
79	0x3dab9c9f	0.083794825
80	0x3dd6005c	0.10449287
81	0x3d96a6a9	0.07356007
82	0x3e73b3fb	0.23799126
83	0xbd9ce9d6	-0.07661788
84	0xbe1c9477	-0.1529101
85	0xbe21e837	-0.15811239
86	0x3d92e548	0.07172638
87	0x3dc51745	0.09623579
88	0x3d808915	0.06276146
89	0xbdf78f3b	-0.12087866
90	0xbe1e6009	-0.15466322
91	0x3d9d8055	0.07690493
92	0xbc66bd83	-0.014083269
93	0xbccc45b1	-0.024935575
94	0x3c53e88e	0.012933863
95	0x3d0e3fad	0.034728695
96	0x3e0b2893	0.13589697
97	0xbe3849d5	-0.17996915
98	0x3e00c450	0.12574887
99	0x3e80a3f1	0.25125077
100	0x3d6ea92a	0.058266796
101	0xbbdb3324	-0.006689446
102	0x3dfa996b	0.122362934
103	0x3e25273c	0.16128248
104	0x3a6dac78	0.00090665324
105	0x3de2aa58	0.11067647
106	0xbcf8a7e9	-0.030353503
107	0x3d793356	0.060839973
108	0xbcb38fa5	-0.021919081
109	0x3da0efb5	0.078582205
110	0xbd95b506	-0.07309918
111	0xbdbe3f13	-0.09289374
112	0xbe63b8c6	-0.22238454
113	0x3e0bcbe9	0.13652004
114	0x3da6d504	0.08146098
115	0x3df9c961	0.12196613
116	0x3d8dfff5	0.069335856
117	0xbdbdd7e7	-0.09269696
118	0xbe05b02a	-0.13055483
119	0x3db2c75f	0.08729433
120	0xbe525745	-0.20541103
121	0x3d241d4b	0.040067
122	0xbda6429b	-0.08118173
123	0x3e20d2b4	0.15705377
124	0x3e0ac7a2	0.13552716
125	0x3cb3b309	0.021935957
126	0xbe2f5a54	-0.17124301
127	0x3dc0ee13	0.09420409
128	0xbda256eb	-0.079267345
129	0xbc7d9fce	-0.015479995
130	0xbd420da3	-0.047376286
131	0x3d7c1b50	0.061549485
132	0xbdbe99a8	-0.09306651
133	0xbd1d8b21	-0.03846276
134	0x3d16f834	0.0368578
135	0x3d400510	0.046879828
136	0xbbe65e12	-0.007030257
137	0xbd501a5b	-0.050806385
138	0xbd89791f	-0.06712555
139	0x3da64232	0.081180945
140	0xbe393bb1	-0.18089177
141	0x3e3a8e53	0.18218355
142	0xbccfe888	-0.025379434
143	0x3e1cf292	0.15326908
144	0x3e0453ad	0.12922545
145	0xbbd32f4d	-0.0064448477
146	0xbcf1d387	-0.02951981
147	0x3d941392	0.07230295
148	0xbce3de94	-0.027816094
149	0xbc8edb03	-0.017438417
150	0x3c2688d8	0.010164462
151	0x3d3e3a46	0.046442293
152	0x3cf28594	0.02960471
153	0xbdf292e1	-0.11844421
154	0xbdd6881d	-0.1047518
155	0x3defeac2	0.117146984
156	0x3e04aac2	0.12955764
157	0x3d99d008	0.07510382
158	0xbcc43141	-0.023949267
159	0xbc9180d2	-0.017761622
160	0x3dcfadad	0.10140548
161	0xbd72972a	-0.059226193
162	0x3d5971a7	0.053086903
163	0x3d174ae8	0.03693667
164	0x3dd82c34	0.10555306
165	0xbdfd9b9e	-0.12383197
166	0x3d358362	0.04431475
167	0x3e083bcb	0.13304059
168	0xbd8a18f5	-0.067430414
169	0xbd03a0eb	-0.032135885
170	0xbdf21c9e	-0.118218645
171	0x3d603441	0.054737333
172	0x3d6d72af	0.0579707
173	0xbe0e1b12	-0.13877514
174	0x3d483715	0.048880655
175	0x3c4a73a3	0.0123566715
176	0xbe1565f6	-0.14589676
177	0x3cc0c4e3	0.023531383
178	0xbda8ccfd	-0.082422234
179	0x3d72e2de	0.05929839
180	0x3e0643a9	0.13111748
181	0xbbe39028	-0.006944675
182	0xbe169cde	-0.14708278
183	0x3d822a05	0.06355671
184	0xbe17dc4a	-0.14830127
185	0xbd882ef3	-0.0664958
186	0xbd6c5d10	-0.05770594
187	0x3c3dce22	0.01158479
188	0x3deea20f	0.11652004
189	0x3da8ee9e	0.082486376
190	0x3da5d80e	0.0809785
191	0x3ca1b2e8	0.01973863
192	0x3d6714a0	0.056416154
193	0xbd9e45da	-0.07728167
194	0x3d3094bc	0.043110594
195	0xbc95f8af	-0.018307058
196	0xbd232c17	-0.03983697
197	0xbc3dde86	-0.011588698
198	0x3d6ef782	0.05834151
199	0x3d7cefba	0.06175206
200	0x3b1ff2a8	0.002440611
201	0xbd20a1fe	-0.039216988
202	0xbd940b9d	-0.072287776
203	0xbdd6d408	-0.104896605
204	0x3d13f8dc	0.036126003
205	0x3e18cee0	0.14922667
206	0x3dc340f2	0.09533872
207	0x3d3a5ab9	0.045496676
208	0x3d3a7f55	0.04553159
209	0x3dca7806	0.09886174
210	0x3d865509	0.06559188
211	0xbd7fa51a	-0.062413312
212	0x3d8a8c02	0.067649856
213	0x3d7fb2da	0.062426426
214	0xbd8cc9e3	-0.06874444
215	0xbbaf0e79	-0.0053423014
216	0x3dd1789e	0.10228084
217	0xbdcd1d5d	-0.10015366
218	0xbe0252b3	-0.1272686
219	0xbd037180	-0.032090664
220	0x3d4c9744	0.049948946
221	0x3e319955	0.17343648
222	0xbe29b67f	-0.16573523
223	0xbd916335	-0.07099
224	0xbd49ca61	-0.04926527
225	0x3d862290	0.06549561
226	0x3daeab8e	0.08528815
227	0x3dad04ff	0.084482186
228	0xbe06ebc1	-0.1317587
229	0xbe1a436a	-0.15064779
230	0x3d94f7cb	0.07273825
231	0xbd3df573	-0.046376657
232	0xbb687b94	-0.003547405
233	0x3e042629	0.12905182
234	0x3d6b696d	0.05747359
235	0x3dad902c	0.08474764
236	0x3d43d93a	0.047814585
237	0xbd231dfe	-0.039823525
238	0xbab57060	-0.0013842694
239	0x3d6fdf11	0.058562342
240	0xbe048eb2	-0.12945059
241	0x3dd04ac8	0.101705134
242	0x3d96311f	0.07333588
243	0x3ddec0ad	0.10876594
244	0x3de95673	0.11393442
245	0xbe2f3ba0	-0.17112589
246	0xbd41552f	-0.047200378
247	0xbd52409e	-0.051331155
248	0xbdaa4153	-0.08313241
249	0x3de44043	0.111450695
250	0xbdc5c12e	-0.09655987
251	0xbd7e0cf8	-0.062024087
252	0x3caa8b00	0.020818233
253	0xbdc62d6c	-0.09676632
254	0xbdd38ad7	-0.10329216
255	0x3c876ab6	0.016530376

cells.0.h2h.bias f4 [256]
0	0x3e0ac023	0.13549857
1	0xbd87d83e	-0.06633042
2	0x3e1e3781	0.1545086
3	0x3de3f4b1	0.111306556
4	0x3d116aec	0.03550236
5	0x3dec36b8	0.11533874
6	0x3dc30901	0.09523202
7	0x3d1f1ada	0.038843967
8	0xbd1674ac	-0.03673236
9	0x3d07708e	0.033066325
10	0xbb38d9dc	-0.0028206026
11	0x3d95d7da	0.07316561
12	0xbd226118	-0.039643377
13	0xbd83cef2	-0.06435956
14	0x3e0db87b	0.13839905
15	0x3d6a9013	0.057266306
16	0x3e029793	0.12753133
17	0x3d84c3cf	0.0648266
18	0x3d2e4e40	0.042555094
19	0xba915b24	-0.0011089784
20	0x3d582d45	0.052777547
21	0x3e2a17fb	0.1661071
22	0x3cc16e0e	0.023612048
23	0xbdb20c32	-0.08693732
24	0x3e14f189	0.14545263
25	0x3d76df56	0.060271583
26	0x3db14a52	0.086567536
27	0x3d10ffda	0.03540025
28	0xbdd26446	-0.10273032
29	0x3d924196	0.07141416
30	0xbc799eee	-0.015235646
31	0xbc02023d	-0.007935104
32	0x3d4be951	0.049783055
33	0x3d3fda1a	0.046838857
34	0xbd81d577	-0.06339543
35	0xbbb07700	-0.0053852797
36	0x3d8bb1d5	0.06821028
37	0xbd0ad7e7	-0.033897307
38	0x3c0094b1	0.007847951
39	0x3e225236	0.15851673
40	0x3dd139ba	0.102160886
41	0x3dd92606	0.106029555
42	0xbd30fbd5	-0.043208916
43	0x3d77a579	0.06046054
44	0x3d9dd58f	0.07706749
45	0x3e216a47	0.15763198
46	0x3d9f703f	0.07785081
47	0x3d0ded93	0.034650397
48	0xbceff2f4	-0.029290654
49	0x3e04e23a	0.12976924
50	0x3bb15d32	0.005412721
51	0xbc9b08a0	-0.018925011
52	0xbd81d2cb	-0.06339034
53	0xbe258ff0	-0.16168189
54	0xbde9032c	-0.11377558
55	0xbb7dee1a	-0.0038746656
56	0x3d29f4ce	0.04149323
57	0xbd87759b	-0.06614228
58	0x3dabf4c1	0.083962925
59	0xbcf0d456	-0.029398125
60	0x3d8e0229	0.06934006
61	0x3deeef07	0.116666846
62	0x3dce1e3a	0.10064359
63	0xbdc20b30	-0.0947479
64	0x3dda5eb9	0.10662598
65	0x3d8fbc6a	0.07018359
66	0x3cc5272a	0.024066526
67	0x3c4a0f2c	0.012332719
68	0x3c884ac8	0.016637221
69	0xbc951ac5	-0.018201241
70	0xbd0b5aad	-0.034022022
71	0x3dded697	0.108807735
72	0x3d88b2b5	0.06674711
73	0x3da08911	0.07838643
74	0xba8100c2	-0.0009842145
75	0x3d0af1f8	0.033922166
76	0xbdacfcef	-0.08446681
77	0xbd9ea024	-0.07745388
78	0xbd7a4ff7	-0.061111417
79	0x3ded1808	0.11576849
80	0xbd9b13aa	-0.0757211
81	0xbcd1f9fa	-0.025631893
82	0xbca8437e	-0.020539995
83	0x3d4312f1	0.047625486
84	0x3e0cea82	0.13761333
85	0xbd74b495	-0.05974253
86	0xbce874b2	-0.028375957
87	0x3dfb2c85	0.12264351
88	0x3d8f7673	0.07005014
89	0x3ca1f122	0.019768301
90	0xbd8dd632	-0.0692562
91	0x3d37a6e0	0.04483688
92	0x3dd054a5	0.10172395
93	0xbd87af85	-0.066252746
94	0x3c96ea84	0.018422373
95	0xbd2aaf95	-0.041671354
96	0xb8b84040	-8.785771e-05
97	0x3c8e3711	0.017360242
98	0xbca35393	-0.019937312
99	0xbd680b4d	-0.056651402
100	0x3dbeb9b0	0.09312761
101	0xbbae79a5	-0.0053245598
102	0xbb71416c	-0.0036812676
103	0xbbbc6ebe	-0.005750506
104	0x3e17a4e8	0.14809
105	0x3e0916ef	0.13387655
106	0x3d5d0379	0.05395839
107	0x3c8c1afc	0.01710271
108	0x3e1ac660	0.15114737
109	0x3e2ebfdf	0.1706538
110	0x3cef2976	0.029194575
111	0xbc7c8eea	-0.015414933
112	0x3c0c8576	0.008576741
113	0xbd5b8082	-0.05358935
114	0x3cbb60cb	0.022873303
115	0xbd272db7	-0.04081508
116	0xbdaf790f	-0.08568012
117	0x3baa774e	0.0052022105
118	0xbdaeb3d5	-0.08530394
119	0x3e1a81e7	0.15088616
120	0x3da6ad35	0.08138505
121	0x3e0d9e48	0.13829911
122	0x3df68ecd	0.12038956
123	0xbda18b65	-0.078879155
124	0x3d1e71f4	0.038682893
125	0x3d729687	0.059225585
126	0xbd771695	-0.06032427
127	0x3dbc3c62	0.091912046
128	0xbd66ece9	-0.05637828
129	0xbb3aacf2	-0.002848443
130	0x3d9aab4f	0.07552206
131	0x3dce96d6	0.100873634
132	0xbc3416cd	-0.010991764
133	0x3d1f831b	0.03894339
134	0x3d50092d	0.05079
135	0x3e00bb18	0.1257137
136	0xbdff3442	-0.12461139
137	0x3d7f1e1f	0.062284585
138	0x3d5ad2f0	0.053423822
139	0x3dcfb065	0.101410665
140	0xbcc2e321	-0.023789944
141	0xbd6b7e4f	-0.057493504
142	0x3dc10a2d	0.09425769
143	0xbcc871c5	-0.024468312
144	0xbcba9571	-0.022776337
145	0xbda4f44a	-0.08054407
146	0x3cf09f61	0.029372873
147	0xbdb122d8	-0.08649224
148	0xbe1eed1c	-0.15520138
149	0xbde3c18e	-0.11120902
150	0xbd5120ef	-0.0510568
151	0xbc511020	-0.012760192
152	0xbb997f2f	-0.004684351
153	0x3aff559a	0.0019480467
154	0xbdfb9d6b	-0.122858845
155	0x3d8a46c4	0.06751779
156	0x3d39e15e	0.045380943
157	0x3d2eba08	0.042657882
158	0xbe18baa0	-0.14914942
159	0xbd0cc43b	-0.034366827
160	0xbd89f5db	-0.06736346
161	0xbd9b95cc	-0.07596931
162	0xbd514459	-0.051090572
163	0xbbf12705	-0.007359388
164	0xbccd2e54	-0.025046505
165	0xbdb575e0	-0.088603735
166	0x3d0bacbb	0.034100275
167	0xbd93b098	-0.07211417
168	0xbcda7420	-0.0266667
169	0x3e0ce156	0.13757834
170	0xbdb091dc	-0.086215705
171	0x3dca30aa	0.09872563
172	0x3df31908	0.11870009
173	0x3ccd78cb	0.025082013
174	0xbe0ec2d3	-0.13941507
175	0xbdef3d8d	-0.11681662
176	0xbdf25696	-0.11832921
177	0x3db079f6	0.08617012
178	0x3df5aac7	0.11995464
179	0x3d96fea5	0.07372788
180	0x3d47647b	0.04867981
181	0x3cec2063	0.028824037
182	0xbdc2505d	-0.09487984
183	0x3d6fb7dc	0.05852495
184	0xbddbda46	-0.10734992
185	0xbd067653	-0.032827687
186	0x3d9b4799	0.075820155
187	0x3da5b499	0.08091087
188	0x3db43fe2	0.08801247
189	0xbd0d18f1	-0.034447614
190	0x3c0fe992	0.008783715
191	0xbbe635db	-0.007025463
192	0x3d98a5bf	0.074534886
193	0x3e0e1b49	0.13877596
194	0x3e43d7d2	0.19125298
195	0x3e3419a1	0.17587902
196	0x3dc8fb6c	0.0981358
197	0x3df125f3	0.11774816
198	0x3d8294f6	0.06376068
199	0xbd575e72	-0.052580304
200	0x3a8cd267	0.0010743857
201	0xbd4d1c67	-0.050075915
202	0xbcc9f8df	-0.024654804
203	0x3dcb1f10	0.09918034
204	0xbd3a264b	-0.045446675
205	0xbdf4cac5	-0.11952738
206	0xbd530811	-0.051521365
207	0x3b923416	0.0044617755
208	0x3e152218	0.14563787
209	0x3d2b6c36	0.041851245
210	0xbd71bda1	-0.059018735
211	0x3d6d1daa	0.057889618
212	0x3de79781	0.11308194
213	0xbb9e7e4b	-0.0048368326
214	0xbc713df3	-0.0147242425
215	0xbcadf60f	-0.021235494
216	0x3d8dddc9	0.06927068
217	0x3d338de9	0.043836508
218	0x3d562356	0.052279793
219	0x3e2afdf5	0.1669844
220	0x3d17f8d2	0.037102528
221	0xbdac6732	-0.084181204
222	0x3d90aafb	0.07063862
223	0x3df54de3	0.11977746
224	0x3df454c9	0.11930234
225	0xbd2bf26c	-0.04197924
226	0x3d8deca6	0.06929903
227	0x3de52908	0.11189467
228	0x3ddde637	0.108349256
229	0xbd4e4976	-0.050363027
230	0x3dff2278	0.12457746
231	0x3d1ba561	0.037999514
232	0x3d0294d2	0.031880207
233	0x3a6b9a6c	0.0008987549
234	0x3e191be5	0.14952047
235	0x3cffbf00	0.031219006
236	0xbd8a3856	-0.067490265
237	0xbd7a6162	-0.061128028
238	0xbc141338	-0.009037785
239	0x3b93036a	0.004486491
240	0x3dfaea25	0.12251691
241	0xbcd3927b	-0.025826683
242	0x3cd35b74	0.025800444
243	0xbcaade14	-0.020857848
244	0x3e14172a	0.14461961
245	0x3b873f07	0.0041273865
246	0x3bff6c72	0.00779491
247	0xbc63c521	-0.01390198
248	0x3d03c2ec	0.032168314
249	0xbd5074a9	-0.050892506
250	0xbdd88038	-0.10571331
251	0x3e065218	0.13117254
252	0xbdc9c0d7	-0.098512344
253	0x3e19daf1	0.15024926
254	0xbc9293c9	-0.017892735
255	0x3d23c7c3	0.03998543

cells.1.x2h.weight f4 [256, 64]
0	0xbdbb9ccc	-0.09160766
1	0xbda9a75e	-0.08283876
2	0xbc81ce15	-0.015845338
3	0x3e0c9033	0.13726883
4	0xbe1767b6	-0.14785656
5	0xbd160296	-0.03662356
6	0xbd2150c0	-0.03938365
7	0xb91480e9	-0.00014162403
8	0x3d84fe2e	0.064937934
9	0x3e0238b8	0.12716949
10	0x3c727c07	0.014800078
11	0x3d3b21d2	0.04568655
12	0xbdfb75f0	-0.12278354
13	0xbba7ba4a	-0.005118643
14	0x3d9aece7	0.07564717
15	0x3e0ae6a8	0.13564551
16	0xbd21f314	-0.039538458
17	0x3d77d801	0.06050873
18	0xbd559876	-0.05214735
19	0x3c28c3f3	0.010300624
20	0x3b88b40a	0.004171853
21	0xbbc78fd5	-0.006090144
22	0xbc2964db	-0.010338987
23	0x3d9f100a	0.07766731
24	0xbc393e31	-0.0113063315
25	0xbe176903	-0.14786153
26	0xbdcc4771	-0.09974564
27	0x3dba15ba	0.09086175
28	0xbc8b68f7	-0.017017825
29	0x3e021398	0.12702787
30	0xbe0b2005	-0.13586433
31	0xbc984e5a	-0.018592048
32	0x3d2dc233	0.04242153
33	0x3dac0ac8	0.08400494
34	0xbcaddbf3	-0.021223044
35	0xbdb3093c	-0.08741996
36	0xbd0c8708	-0.034308463
37	0xbd0b784d	-0.034050275
38	0x3e34d3d5	0.17658933
39	0xbc3b4370	-0.011429653
40	0x3c0d6ff3	0.008632648
41	0x3d62c6cc	0.05536537
42	0x3ce8ae80	0.02840352
43	0x3e0fc4bb	0.1403989
44	0x3e1da6a0	0.15395594
45	0xbae0a3b0	-0.0017138626
46	0xbd272900	-0.040810585
47	0xbde96ada	-0.113973334
48	0x3d900a03	0.070331596
49	0x3c922a72	0.017842505
50	0x3d33e40d	0.043918658
51	0x3d2a1e7f	0.04153299
52	0xbc2fabaa	-0.01072208
53	0x3d90e7fa	0.07075496
54	0xbdaf4546	-0.08558135
55	0x3d3b3105	0.045701046
56	0x3d270032	0.04077167
57	0xbd927ef4	-0.07153121
58	0xbdf5ab8b	-0.1199561
59	0xbc625c04	-0.013815884
60	0x3e03b022	0.12860158
61	0xbe22f7d1	-0.15914847
62	0xbe0658a0	-0.13119745
63	0xbce690f3	-0.028145289
64	0x3c9e88fe	0.019352432
65	0x3d28b07a	0.041183926
66	0xba3549fe	-0.0006915628
67	0xbd312d35	-0.043256003
68	0xbcae3640	-0.021266103
69	0x3d895f6e	0.06707655
70	0x3ccadb37	0.024762733
71	0xbcb1a75c	-0.021686248
72	0x3c66baba	0.014082605
73	0xbc3fbc2d	-0.011702579
74	0x3d898504	0.06714824
75	0xbd81430b	-0.063116156
76	0xbe15059b	-0.1455292
77	0x3dad00c5	0.084474124
78	0xbe136eb5	-0.143977
79	0x3defa176	0.11700718
80	0x3d8eb2f2	0.06967725
81	0x3afd42c1	0.0019322262
82	0x3c34b3cb	0.011029194
83	0x3967e924	0.00022116728
84	0xbe00a4f4	-0.12562925
85	0xbe1ddcea	-0.15416303
86	0x3e0cd125	0.13751657
87	0x3d2627e9	0.040565405
88	0x3e1a5b2c	0.15073842
89	0xbdf16a17	-0.11787813
90	0xbdee6c46	-0.11641745
91	0x3c8a4857	0.016880197
92	0x3d155d1b	0.036465745
93	0xbdbaf154	-0.09128061
94	0x3ce4c033	0.027923679
95	0xbd86dc99	-0.065850444
96	0x3d227a6c	0.03966753
97	0x3d014940	0.031563997
98	0x3da7eead	0.08199821
99	0xbda0b0b8	-0.078462064
100	0xbc029702	-0.007970573
101	0xbdbd783e	-0.0925145
102	0x3e1cd014	0.1531375
103	0xbd7a4e11	-0.061109606
104	0x3d8eac27	0.06966429
105	0xbdaf9224	-0.08572796
106	0xbdea69b7	-0.11445945
107	0xbd791732	-0.060813136
108	0xbd23be22	-0.039976247
109	0xbca4d4d4	-0.020121016
110	0x3d6c04d1	0.05762178
111	0x3d053bf0	0.032527864
112	0xbd910407	-0.07080846
113	0x3d83ecb5	0.06441633
114	0x3d0bb2e8	0.034106165
115	0xbbad8197	-0.0052949893
116	0x3d9845d8	0.07435197
117	0x3d830ff6	0.06399529
118	0x3dce138e	0.100623235
119	0xbd1865eb	-0.03720657
120	0xbdd90c19	-0.105980106
121	0x3e15304d	0.14569207
122	0x3bd64a1c	0.0065395962
123	0x3de5e0d7	0.112245254
124	0x3e064879	0.13113584
125	0xbd2a3b9c	-0.041560754
126	0xbe05d793	-0.13070516
127	0x3cd99101	0.026558401
128	0xbe0a2b6e	-0.1349313
129	0xbd83e2c7	-0.06439739
130	0xbe20c166	-0.15698776
131	0x3e141a50	0.14463162
132	0xbdb0d615	-0.08634583
133	0x3c6739ef	0.014112934
134	0x3dc5d7ea	0.09660323
135	0x3d27719c	0.04087983
136	0xbd10b0e2	-0.03532494
137	0xbd54dff1	-0.05197138
138	0x3d896258	0.06708211
139	0xbe122a83	-0.1427403
140	0xbd09854f	-0.0335744
141	0x3a8c61ba	0.0010710277
142	0xbe03e144	-0.12878901
143	0xbcaa37a8	-0.020778492
144	0xbcd7fdcd	-0.026366139
145	0x39c091b6	0.00036729657
146	0xbccb941d	-0.0248509
147	0xbd7b3172	-0.06132645
148	0xbde8deaa	-0.11370595
149	0xbe037d62	-0.12840798
150	0x3d261555	0.040547688
151	0x3d4b0ad8	0.04957089
152	0x3df08e2a	0.11745866
153	0xbe0250bd	-0.12726112
154	0xbc8e06df	-0.01733726
155	0x3d911d4b	0.07085665
156	0x3e2ad5d8	0.16683137
157	0xbc834117	-0.016022248
158	0x3d7173d1	0.05894834
159	0xbd9aea77	-0.07564252
160	0xbd5c85fb	-0.05383871
161	0xbd4ae3ee	-0.049533777
162	0x3bf7e18d	0.0075647295
163	0x3d465417	0.048420038
164	0x3dc6ab25	0.09700612
165	0xbda12575	-0.078684725
166	0xbd3408da	-0.043953754
167	0x3dbc116f	0.09183013
168	0xbd3773f4	-0.044788316
169	0xbd7da489	-0.06192449
170	0xbe33171f	-0.17489289
171	0xbd0f3474	-0.034962133
172	0x3e00eca2	0.12590268
173	0xbe180eb5	-0.1484936
174	0x3da69d02	0.081354156
175	0x3c8d8020	0.017273009
176	0x3d8bfad7	0.06834953
177	0xbdfb0a05	-0.122577704
178	0xbb91f716	-0.004454504
179	0x3da476ef	0.08030497
180	0x3deafb22	0.11473681
181	0xbdbe7f2f	-0.09301602
182	0xbd94c4a7	-0.07264071
183	0x3de63106	0.11239819
184	0xbb7a0347	-0.0038148926
185	0x3e2bc300	0.16773605
186	0xbdea98bf	-0.11454915
187	0x3e144fa7	0.1448351
188	0x3e1b5bc7	0.15171729
189	0xbda5ed85	-0.08101944
190	0x3d144815	0.036201555
191	0x3e162b74	0.14665014
192	0xbc829a2e	-0.01594266
193	0x3dc15a45	0.09441046
194	0xbd18d609	-0.037313495
195	0xbd3cc3a4	-0.046085015
196	0xbe1abf47	-0.15112029
197	0x3d494595	0.049138624
198	0x3d29dc57	0.041469898
199	0x3e22b708	0.15890133
200	0x3dbc9534	0.09208146
201	0xbda9f0bb	-0.08297869
202	0x3dad0b7e	0.084494576
203	0xbdbe4dd0	-0.09292185
204	0xbd5486e7	-0.051886465
205	0xbd51a55f	-0.0511831
206	0x3d9f51c2	0.07779266
207	0x3d127142	0.035752542
208	0x3bae0abb	0.0053113378
209	0x3e18dfa0	0.14929056
210	0x3c9d9115	0.01923422
211	0xbd6d5f1e	-0.05795204
212	0xbe13c22a	-0.14429536
213	0xbd5f4a0a	-0.05451397
214	0x3e1a04a8	0.15040839
215	0xbb76e6af	-0.003767412
216	0x3d8eaa39	0.06966061
217	0xbdfe0f74	-0.12405291
218	0xbde2653b	-0.110544644
219	0x3e126b58	0.14298761
220	0xbd48d784	-0.049033657
221	0x3dc4d293	0.09610476
222	0xbd2e4320	-0.042544484
223	0x3c564f08	0.013080366
224	0x3d92b329	0.07163078
225	0x3c33a942	0.010965647
226	0xbd9d2078	-0.076722085
227	0x3ddff433	0.10935249
228	0xbdf802b7	-0.12109893
229	0x3cc36c15	0.023855248
230	0x3e079984	0.13242155
231	0xbda735ac	-0.08164534
232	0xbc81a53c	-0.01582586
233	0xbd869222	-0.06570841
234	0xbe16eb85	-0.14738281
235	0x3e06f41f	0.13179062
236	0x3db5f58c	0.08884725
237	0x3d5d6f8a	0.05406145
238	0xbda15efe	-0.078794464
239	0x3d712258	0.058870643
240	0xbb190f1e	-0.0023354958
241	0x3d9b3b0c	0.07579622
242	0x3a18d4af	0.0005830032
243	0x3dfd96a9	0.12382252
244	0x3d5fa512	0.054600783
245	0x3d69d92d	0.05709188
246	0x3d2632f2	0.04057593
247	0xba734784	-0.0009280371
248	0xbd83d570	-0.06437194
249	0x3e033f9b	0.12817232
250	0x3c1a61fe	0.009422777
251	0x3dcbb6a0	0.09946942
252	0xbc68fb7c	-0.014220115
253	0xbd26c0f7	-0.04071137
254	0xbdf2ecc8	-0.11861569
255	0x3d8c1fb5	0.06841985

cells.1.x2h.bias f4 [256]
0	0x3db3c34f	0.087774865
1	0x3dcacfdd	0.09902928
2	0x3d3819e6	0.044946574
3	0x3e1d5129	0.15362991
4	0x3cb165b2	0.021654937
5	0xbdca551c	-0.098795146
6	0xbd92575b	-0.07145568
7	0xbdaf5f52	-0.08563103
8	0xbde9a51e	-0.11408447
9	0x3e090699	0.13381423
10	0x3e064c14	0.13114959
11	0x3cfa5870	0.030559748
12	0x3ddb0476	0.1069421
13	0x3d7ddcb1	0.061978046
14	0x3ddaad28	0.10677558
15	0x3dd00d96	0.10158841
16	0xbd93b320	-0.072119
17	0xbdb5fcfe	-0.08886145
18	0x3d8af9de	0.0678594
19	0xbd206d10	-0.03916651
20	0xbd7dcf4b	-0.061965268
21	0x3da2df0e	0.079527006
22	0xba3d123e	-0.0007212496
23	0xbd943451	-0.07236541
24	0x3e0932db	0.13398306
25	0x3d8df7e7	0.06932049
26	0xbd71e009	-0.059051547
27	0x3df284a5	0.11841706
28	0x3dfc2dc2	0.12313415
29	0xbdf276e1	-0.118390806
30	0x3e12ba54	0.14328891
31	0xbdf52d0e	-0.11971484
32	0xbe0334c3	-0.12813096
33	0xbc90a556	-0.017656963
34	0xbd9918b4	-0.07475415
35	0xbbedb16b	-0.007253816
36	0x3dc008f8	0.09376711
37	0x3daf0116	0.08545129
38	0x3e05bb5c	0.13059753
39	0x3c68c4bb	0.01420706
40	0xbd2a3a0c	-0.041559264
41	0xbdb18d66	-0.08669548
42	0xbd5c0786	-0.053718112
43	0xbd949286	-0.0725451
44	0xbd901797	-0.070357494
45	0xbd9e4a46	-0.0772901
46	0xbceffd1f	-0.029295502
47	0x3de7e485	0.113228835
48	0xbd46632a	-0.048434414
49	0xba5a1acf	-0.0008320035
50	0x3e1ff1bb	0.15619557
51	0xbd8fd58e	-0.07023154
52	0x3d9c2f38	0.07626194
53	0x3de67e78	0.11254591
54	0x3e012fba	0.12615862
55	0x3dd38fe2	0.10330178
56	0x3db2f184	0.08737472
57	0x3e08e1f1	0.1336744
58	0xbdaa4ef6	-0.08315842
59	0xbc6bb168	-0.014385559
60	0x3df7e8f5	0.1210498
61	0xbca023a0	-0.019548237
62	0xbdae4a2d	-0.08510242
63	0x3df055e2	0.11735131
64	0x3db4644e	0.08808194
65	0x3dbc82ae	0.09204613
66	0xbd28a8fc	-0.04117678
67	0x3df80850	0.121109605
68	0xbdca194b	-0.098681055
69	0xbd98986b	-0.074509464
70	0xbd5b9509	-0.053608928
71	0x3d28804b	0.041137975
72	0xbc470cdc	-0.012149062
73	0xbd0637b5	-0.03276797
74	0x3c82baf5	0.015958289
75	0x3dee7e2c	0.11645159
76	0xbd4405db	-0.047857147
77	0x3dcb304b	0.099213205
78	0xbc30bd0a	-0.010787258
79	0xbdc36b6e	-0.09541975
80	0xbccdb666	-0.025111388
81	0x3deb508b	0.11489972
82	0x3d678397	0.05652198
83	0x3df15c7e	0.117852196
84	0xbc4b60d8	-0.012413226
85	0xbcfd2323	-0.030900544
86	0x3ca7ed67	0.020498944
87	0x3d16ce82	0.036818035
88	0xbcfe4ebc	-0.031043403
89	0x3da23ca4	0.079217225
90	0x3e15785a	0.14596692
91	0x3cf9f541	0.030512454
92	0xbc92fd1b	-0.017942956
93	0xbd90b2d5	-0.070653595
94	0x3df92bb5	0.121665396
95	0x3d2d08ef	0.042244848
96	0x3dd7b546	0.10532622
97	0xbdd015f4	-0.10160437
98	0x3db96548	0.09052521
99	0x3de7ad31	0.113123305
100	0xbc8d9fc5	-0.017288098
101	0xbc944601	-0.018099787
102	0x3e0adb2f	0.13560174
103	0x3dd7e343	0.105413936
104	0x3d4a15b1	0.049337093
105	0x3d016228	0.03158775
106	0xbdb66a50	-0.08906996
107	0xbde5d69e	-0.112225756
108	0x3dbd782b	0.09251436
109	0xbd407fef	-0.046997007
110	0xbc2ae29d	-0.010430005
111	0x3da08056	0.07836978
112	0x3e0e2601	0.13881685
113	0x3d6f65e7	0.05844679
114	0xbd62f0d4	-0.055405453
115	0xbb51b214	-0.0031997012
116	0x3d94c5a8	0.072642624
117	0x3dbb768d	0.09153471
118	0x3dcd22aa	0.10016377
119	0xbd16cb75	-0.036815125
120	0xbe0a2d3e	-0.13493821
121	0x3d7c4e87	0.061598327
122	0x3c5cb07c	0.0134698115
123	0x3bfb0a13	0.007661113
124	0xbd7f0df6	-0.062269174
125	0xbd37c305	-0.04486372
126	0x3d147236	0.036241733
127	0xbda9d629	-0.08292801
128	0x3c96003d	0.01831066
129	0x3c7268a2	0.014795454
130	0x3d6c0676	0.05762335
131	0xbdb7aa92	-0.089680806
132	0xbdcf4789	-0.10121066
133	0x3d87f0eb	0.06637748
134	0x3db5397b	0.08848854
135	0x3db7b19e	0.08969425
136	0xbd3e08a5	-0.046394963
137	0x3d636f5e	0.05552613
138	0xbcaea568	-0.021319106
139	0xbd8a9550	-0.0676676
140	0x3d26e341	0.04074407
141	0xbcaee7d5	-0.02135078
142	0x3d834fd7	0.064117126
143	0x3d117fcf	0.03552228
144	0x3c80f22a	0.015740473
145	0xbc4525a7	-0.012032903
146	0x3c5ea2c0	0.013588607
147	0xbd4aff02	-0.0495596
148	0xbe0bea82	-0.13663676
149	0xbd962c7d	-0.07332704
150	0xbdd828b7	-0.10554641
151	0xbdd80139	-0.10547108
152	0x3d5faac5	0.054606218
153	0xbe0da07f	-0.13830756
154	0xbdc1f6cd	-0.09470902
155	0xbd401d17	-0.046902742
156	0x3d7cf04e	0.06175261
157	0x3dd81997	0.10551756
158	0xbc5c19c3	-0.013433876
159	0xbddf45a4	-0.10901955
160	0x3df588cc	0.119889826
161	0x3d988a13	0.074482106
162	0xbd866fb6	-0.06564276
163	0xbc9011ca	-0.017586607
164	0x3c687022	0.014186891
165	0x3d755992	0.059899874
166	0x3e12852f	0.14308618
167	0x3cedfb6f	0.029050557
168	0xbd456e87	-0.04820111
169	0x3dcd7ea8	0.100339234
170	0xbd65808d	-0.0560308
171	0x3ba2d86a	0.004969646
172	0xbd329042	-0.043594606
173	0x3d059af3	0.032618474
174	0xbd3760a7	-0.04476991
175	0xbd2ad4e4	-0.041706935
176	0xbdb2efff	-0.08737182
177	0x3b1e3e63	0.0024146072
178	0x3e099e56	0.13439307
179	0x3e16838f	0.14698623
180	0xbd644821	-0.05573285
181	0x3e0b3820	0.13595629
182	0x3d65457c	0.05597447
183	0x3d02c85e	0.031929366
184	0xbd48881f	-0.04895794
185	0x3bf48d64	0.007463144
186	0x3e0e3777	0.13888346
187	0x3d6fed1b	0.05857573
188	0xbdafb647	-0.085796885
189	0x3de80bef	0.11330401
190	0x3da47f32	0.08032073
191	0x3d684775	0.05670877
192	0xbc3017e3	-0.010747883
193	0x3d870046	0.06591849
194	0xbd075ff5	-0.033050496
195	0xbd99080b	-0.07472237
196	0x3dc373f8	0.09543604
197	0x3d99bf77	0.07507222
198	0x3d9e7cb9	0.07738633
199	0x3db46d87	0.08809953
200	0x3decd13b	0.11563345
201	0x3b3a60d2	0.0028439057
202	0xbc299b0a	-0.010351906
203	0xbd3a26e1	-0.045447234
204	0x3d089b95	0.0333515
205	0x3d7a422c	0.061098263
206	0x3d19e4b2	0.037571616
207	0x3b4a6fcb	0.0030889388
208	0xbdbd73fd	-0.09250639
209	0xbda7932a	-0.08182366
210	0x3cb9a8b7	0.022663457
211	0x3e0cfc7e	0.13768193
212	0xbd6919c8	-0.056909353
213	0x3df7d6b3	0.121014975
214	0x3deaa7fc	0.11457822
215	0x3da0ea63	0.07857206
216	0x3e04c0c6	0.12964162
217	0x3da3c5af	0.079966895
218	0xbd961810	-0.07328808
219	0xbd2b76e9	-0.04186145
220	0xbd9a589a	-0.07536431
221	0xbdb9191c	-0.09037992
222	0x3d2bc033	0.041931342
223	0xbcc0b3d9	-0.023523258
224	0x3ae7e056	0.0017690759
225	0xbcc17313	-0.023614442
226	0x3df30bab	0.1186746
227	0x3d9eae21	0.07748056
228	0xbdc67d71	-0.09691895
229	0x3cbcb4a7	0.02303536
230	0x3da468ad	0.08027778
231	0xbbb4c111	-0.0055161794
232	0x3c8171b6	0.015801292
233	0x3cafdb17	0.021466775
234	0x3dcc8bc2	0.09987594
235	0xbd0c6377	-0.034274545
236	0xbdd58a50	-0.10426772
237	0xbdb4c507	-0.088266425
238	0x3d96f312	0.07370581
239	0x3d33bf06	0.043883346
240	0xbc93b12c	-0.018028818
241	0x3c584cd4	0.013201911
242	0x3dab3425	0.08359555
243	0x3e1eff28	0.15527022
244	0x3c78fd06	0.015197044
245	0x3e116332	0.14197996
246	0x3d81adf5	0.06332008
247	0x3cb622a2	0.022233311
248	0xbcb2dc23	-0.021833485
249	0xbd8077b5	-0.06272832
250	0x3df5629b	0.11981698
251	0x3d80865e	0.062756285
252	0xbd3d2d23	-0.046185624
253	0x3cc14514	0.02359251
254	0xbd5734e3	-0.05254067
255	0x3d61c6ba	0.05512116

cells.1.h2h.weight f4 [256, 64]
0	0x3d913666	0.07090454
1	0x3b0215eb	0.001984949
2	0xbb2a2e7a	-0.0025967644
3	0xbe128632	-0.14309004
4	0xbe1b25e1	-0.15151168
5	0x3997e0c1	0.0002896842
6	0x3b103e10	0.0022009648
7	0xbdc1752e	-0.094461784
8	0x3d3ae93e	0.045632593
9	0xbc0ddfa9	-0.008659282
10	0xbd102914	-0.035195425
11	0xbd9f4d70	-0.07778442
12	0x3da4ae2e	0.08041035
13	0xbd84ddff	-0.06487655
14	0x3d29a73f	0.041419264
15	0x3ced3a75	0.028958539
16	0x3d8f9a61	0.07011867
17	0x3b7d66ca	0.0038666003
18	0x3ca7f05f	0.02050036
19	0xbcd59d5c	-0.026076011
20	0x3d2dd14a	0.04243592
21	0x3e074c83	0.1321278
22	0xbd136383	-0.035983574
23	0xbe0d36e0	-0.13790464
24	0xbd90b470	-0.07065666
25	0x3dc0d9ee	0.09416567
26	0x3d8b9076	0.06814663
27	0x3c1118c7	0.008856005
28	0x3d763276	0.060106717
29	0x3c09b19a	0.00840416
30	0xbc9bf418	-0.019037291
31	0x3e05c3c6	0.13062963
32	0xbd44b0b6	-0.048020087
33	0x3b233d13	0.002490823
34	0xbd220e91	-0.039564673
35	0xbddb7958	-0.10716504
36	0xbd8edea4	-0.06976059
37	0xbd664871	-0.05622143
38	0xbd648719	-0.0557929
39	0x3da1f7ce	0.07908593
40	0xbb8c9387	-0.0042900476
41	0xbb793df9	-0.0038031323
42	0x3d3b08d0	0.0456627
43	0x3d1e7b39	0.038691733
44	0x3d8a6d46	0.067591235
45	0xbc36cb9f	-0.0111569455
46	0x3c95dc54	0.018293537
47	0xbc14f307	-0.009091145
48	0xbd1f8317	-0.038943376
49	0xbd925a9c	-0.071461886
50	0xbd0d635b	-0.03451858
51	0x3d94ce6e	0.07265936
52	0xbd413100	-0.04716587
53	0x3e188a56	0.14896521
54	0x3e1c53c1	0.15266325
55	0xbd4aa91e	-0.04947769
56	0xbcdce220	-0.026963294
57	0x3cf62e8c	0.030051492
58	0x3d19de5c	0.037565574
59	0x3ddaac61	0.1067741
60	0xbdaeb0cf	-0.08529817
61	0xbd50e7f5	-0.05100246
62	0xbd443ee4	-0.04791154
63	0x3db0b7ac	0.08628783
64	0x3d8f6d9c	0.07003328
65	0xbd8de668	-0.06928712
66	0x3d0d4fe6	0.034500025
67	0x3d66e489	0.05637029
68	0xbc996cd5	-0.018728653
69	0xbdfa0bf4	-0.12209311
70	0xbc1b6dca	-0.009486625
71	0x3d9b0130	0.07568586
72	0xbe1a33e3	-0.15058856
73	0x3ceba77e	0.02876639
74	0xbdb7dc6f	-0.08977591
75	0x3dd1ad01	0.10238076
76	0x3d735bf9	0.059413884
77	0xbdd3ee1a	-0.10348149
78	0xbd8057f2	-0.06266774
79	0xbca26ea1	-0.019828143
80	0x3d8c5095	0.06851307
81	0xbddd77ee	-0.108138904
82	0x3e12276a	0.14272848
83	0x3c594184	0.013260249
84	0xbcd2a392	-0.025712762
85	0xbd78a74f	-0.060706433
86	0xbdd2dff3	-0.10296621
87	0xbde1acdd	-0.11019299
88	0xbe044e15	-0.12920411
89	0xbe112137	-0.14172827
90	0x3d455eca	0.0481861
91	0xbccf91aa	-0.025338013
92	0x3d31b0a4	0.04338135
93	0x3b54cd96	0.0032471172
94	0x3d5cb671	0.053884927
95	0xbd190225	-0.03735556
96	0x3e19bea5	0.15014131
97	0xbc981c85	-0.018568287
98	0xbe131533	-0.14363556
99	0xbe08a8a1	-0.13345577
100	0xbdd91d82	-0.10601331
101	0x3c9c87e7	0.019107772
102	0xbcfa70cf	-0.03057137
103	0xbd89d20c	-0.067295164
104	0xbc6937bb	-0.014234479
105	0xbd8f133e	-0.06986092
106	0x3d8986f8	0.06715196
107	0x3dccf568	0.10007745
108	0x3df181b9	0.11792321
109	0x3cbef3fd	0.023309702
110	0xbdb6aad6	-0.08919303
111	0xbe042e8f	-0.12908386
112	0x3d29b891	0.041435782
113	0xbd932599	-0.071849056
114	0x3e127b9c	0.14304966
115	0x3cd00ef7	0.02539776
116	0xbda4cbf7	-0.08046716
117	0x3cc63b5b	0.024198225
118	0xbdb30629	-0.08741409
119	0xbd808adb	-0.062764846
120	0xbcc1c785	-0.023654709
121	0x3c0806f1	0.008302436
122	0x3e0367f9	0.12832631
123	0xbd925884	-0.07145789
124	0xbce1998d	-0.027539039
125	0x3d39e584	0.0453849
126	0x3d75c2c8	0.06000021
127	0xbdce44f5	-0.10071746
128	0xbd88100f	-0.06643688
129	0xbc938ed6	-0.018012445
130	0x3d8b048e	0.06787978
131	0x3caabe7d	0.020842785
132	0x3d6919b0	0.056909263
133	0xbdbe0f85	-0.09280304
134	0xbdb99c8a	-0.090630606
135	0xbc85d80b	-0.016338369
136	0xbd85dcb6	-0.06536238
137	0x3da8a0de	0.08233808
138	0xbe13eeb0	-0.14446521
139	0xbda493c6	-0.08035998
140	0xbbb35ab2	-0.005473458
141	0xbd54fa41	-0.051996473
142	0xbd1e27f6	-0.03861233
143	0x3da81588	0.08207232
144	0xbe260049	-0.16211046
145	0x3d0d382d	0.0344774
146	0xbcd840de	-0.026398119
147	0xbc157618	-0.009122394
148	0xbe1e26ea	-0.15444532
149	0xbd3f37fe	-0.046684258
150	0xbdd5f0a5	-0.1044629
151	0x3db0a439	0.08625073
152	0xbe00aa80	-0.1256504
153	0xbc69b791	-0.014264957
154	0xbc8f120f	-0.017464666
155	0x3d5fcc09	0.054637942
156	0x3dec5780	0.11540127
157	0x3da2ee67	0.07955628
158	0xbe108ac9	-0.14115442
159	0x3c2ef9f8	0.010679714
160	0xbd3da15e	-0.04629647
161	0x3ded7780	0.115950584
162	0xbd728d56	-0.05921682
163	0xb98012ae	-0.0002442798
164	0xbe235acc	-0.15952605
165	0x3d8f4488	0.06995493
166	0x3dbcc4b3	0.09217205
167	0x3c3657d6	0.01112934
168	0xbe1640b7	-0.14673124
169	0x3d302829	0.04300705
170	0xbbe3807e	-0.0069428077
171	0xbd7c269c	-0.06156026
172	0xbdcf21d1	-0.10113872
173	0x3d1899e0	0.03725612
174	0x3dad8a53	0.08473649
175	0xbd83b9d4	-0.06431928
176	0xbc50fc86	-0.012755519
177	0x3dda5ef3	0.106626414
178	0xbd872424	-0.0659869
179	0x3d1b1f05	0.03787138
180	0x3dba42b3	0.09094753
181	0xbda5aa2f	-0.080891006
182	0xbd486845	-0.048927564
183	0xbe0c172b	-0.13680713
184	0xbdb71930	-0.08940351
185	0x3de41726	0.11137228
186	0xbdbe9f29	-0.09307701
187	0x3ddf699b	0.109088145
188	0x3cd37995	0.02581481
189	0x39ba7078	0.0003556048
190	0x3d7f4d05	0.06232931
191	0x3db58201	0.08862687
192	0x3dec3ff6	0.11535637
193	0x3dd36a6c	0.10323033
194	0xbe1c3ea6	-0.15258273
195	0x3d3c7411	0.046009127
196	0xbd581dc9	-0.05276278
197	0xbd24df48	-0.040252
198	0x3d07ce6b	0.03315584
199	0xbd6b773b	-0.057486754
200	0x3d67afca	0.05656413
201	0x3dbb8980	0.091570854
202	0xbd4716fc	-0.048605904
203	0xbdcc31af	-0.09970414
204	0xbc9f2382	-0.019426111
205	0x3d8c909b	0.06863519
206	0x3e05863d	0.13039489
207	0x3d39e6d3	0.045386147
208	0x3cf39fd9	0.029739307
209	0xbd926f15	-0.071500935
210	0x3d78ba30	0.060724437
211	0xbdc4915b	-0.09598037
212	0x3b3b8b0a	0.002861681
213	0x3e004c59	0.12529124
214	0xbd5873e0	-0.052844882
215	0x3db83db9	0.08996148
216	0x3cfcf1e8	0.030877069
217	0xbd46e565	-0.04855861
218	0x3d118c83	0.035534393
219	0xbdd3ca31	-0.10341299
220	0x3bbb6161	0.0057183956
221	0x3d06a502	0.032872207
222	0xbdea1218	-0.11429232
223	0xbdf2cfb3	-0.11856022
224	0x3e0d04bb	0.13771336
225	0xbcf91f9a	-0.030410577
226	0xbd5ed3b4	-0.054401115
227	0xbd942754	-0.07234064
228	0xbd958d48	-0.07302338
229	0x3dc4bc1e	0.09606193
230	0x3e004569	0.12526478
231	0xbda82af5	-0.082113184
232	0xbe1738a8	-0.14767706
233	0xbd97e9e8	-0.07417661
234	0xbe049abb	-0.1294965
235	0xbdcfdb7c	-0.10149285
236	0x3c968d31	0.018377872
237	0xbdf33b78	-0.11876577
238	0xbdca0313	-0.098638676
239	0xbcab439d	-0.020906264
240	0x3dd35434	0.10318795
241	0xbab6c782	-0.0013944956
242	0x3cc940e8	0.024567083
243	0x3c283206	0.010265833
244	0x3c2dadb2	0.010600494
245	0x3c82ac53	0.015951311
246	0xbb4913c5	-0.003068195
247	0xbe1794d5	-0.14802869
248	0x3cca6af8	0.02470921
249	0xbdac3957	-0.08409374
250	0xbdc2a287	-0.09503656
251	0x3dedbd8b	0.11608418
252	0xba15a262	-0.0005708096
253	0xbd02f012	-0.03196723
254	0x3c558f30	0.013034627
255	0xbe0df8bf	-0.1386442
