model_group/models_group_demand/LSTM_model_QUEENS_GRAND STREET BRIDGE.pth (torch, 351220 bytes, 17 tensors)

input_projection.weight f4 [2, 2]
0.629075 -0.1841409 0.013211638 -0.22313078
00000000: 0f0b 213f 6f8f 3cbe a075 583c 657c 64be

input_projection.bias f4 [2]
0.0071042515 -0.35098678
00000000: c8ca e83b 8ab4 b3be

cells.0.x2h.weight f4 [256, 2]
-0.5758448 -0.46580157 -0.457667 0.49070212 -0.46694946 0.5864205 0.33545378 -0.27739137
-0.62551343 0.38411832 -0.50872725 0.3984568 0.44375294 -0.72539985 -0.42940432 0.49941698
-0.31397027 -0.41567886 0.2597282 -0.17201485 0.060987454 0.10985604 0.17642644 0.6134053
0.290738 0.12103427 -0.48580763 0.5728709 0.29643184 0.4541997 -0.56809205 -0.19978136
-0.22698261 0.0058584935 0.6293196 -0.46783325 -0.64830196 0.3279919 0.27710646 0.5652622
-0.5023452 0.42144617 0.08466278 0.61393964 0.38529524 -0.047575787 -0.56206846 0.19518292
-0.71366256 -0.17509666 -0.5037893 0.49858108 -0.46024755 -0.50692165 0.028228248 0.15680774
0.62345576 0.2790906 -0.22564243 0.6145737 -0.07804477 0.17932606 0.5107966 -0.23470236
-0.5921331 -0.18009649 0.36650985 -0.26991132 -0.7166044 0.1691956 0.35881585 -0.21777679
0.28688836 0.12530185 -0.73671937 0.6002555 -0.1118431 0.06829773 0.64691573 0.38055378
-0.18117167 0.19084252 -0.57859117 0.38618872 -0.0876163 -0.57863635 -0.16483413 0.22564778
0.11669342 -0.18782139 -0.052163288 -0.37855518 0.46254018 -0.60360694 0.21093638 -0.14102778
0.5245009 -0.24354538 0.0066272286 -0.37049717 0.09696364 -0.45182395 0.5264838 0.51965165
0.24908045 -0.42657226 -0.6490841 -0.49078894 -0.39279172 0.38045764 0.5963618 0.24103254
-0.44046968 -0.24376167 -0.41839635 0.3204849 0.26922867 -0.5072231 0.5091424 -0.25966087
-0.36798605 0.0921853 -0.05697492 0.2914104 0.27578282 0.41800407 -0.12772171 0.44010141
-0.060750917 0.09224729 0.58632624 -0.024654161 0.035987303 -0.6005328 0.1091278 -0.13251172
-0.60683966 0.45981786 0.6861567 0.18823321 0.3767985 0.58978456 0.042611524 0.35543063
-0.51101744 -0.44153187 -0.49586457 0.40000123 0.38827932 0.25859264 -0.33087432 -0.19958831
0.39611167 -0.08701729 0.1739691 0.4148843 -0.5111869 -0.26654166 0.3246885 0.55274904
-0.42765084 0.678484 0.022540089 -0.72321755 0.39326218 -0.27696225 -0.11479816 0.48092398
0.057107247 0.62669367 -0.4843099 -0.056993548 -0.19605045 -0.528691 -0.41794497 0.4592625
0.6190269 -0.54556626 0.56179774 -0.38306692 0.5560442 -0.21790066 0.31791857 -0.28595573
0.45309478 0.010897453 0.11861627 -0.67739093 0.16183531 -0.3276047 -0.23929758 -0.48890245
-0.52336526 0.2024998 0.35499105 0.26095152 0.10666513 0.04803619 -0.033976108 0.44674543
-0.4368409 0.28029135 0.011863448 -0.5453502 0.4393272 0.5582361 -0.64001477 -0.60223734
-0.02033869 0.47016776 -0.15155846 -0.104557514 0.17781429 -0.15832712 0.16152507 0.3526486
0.7216233 -0.49177888 0.35595223 -0.45503432 0.34119102 0.0460983 0.3753105 -0.5295051
0.34999993 0.377206 -0.18419018 0.55490816 -0.15433809 -0.40153077 -0.39066353 0.18327233
-0.31584325 0.56369805 -0.6884259 -0.2989065 0.23497392 -0.68067974 0.03311272 0.34103477
0.66565245 0.19780977 -0.02933186 0.3833748 0.5594855 -0.5065928 0.13495094 0.46633276
0.07735317 -0.3596499 0.21998274 0.19803907 0.3452225 0.6975631 -0.28466666 -0.5758999
00000000: 916a 13bf 8b7d eebe 5453 eabe 4f3d fb3e
00000010: 0014 efbe a71f 163f 99c0 ab3e 3e06 8ebe
00000020: a621 20bf 28ab c43e f33b 02bf 8802 cc3e
00000030: 9633 e33e ceb3 39bf e2da dbbe 95b3 ff3e
00000040: b6c0 a0be dcd3 d4be 18fb 843e a924 30be
00000050: fbcd 793d 34fc e03d 22a9 343e 2108 1d3f
00000060: 9cdb 943e d1e0 f73d c7bb f8be aba7 123f
00000070: eac5 973e dd8c e83e 7b6e 11bf 7c93 4cbe
00000080: 216e 68be 9bf8 bf3b 171b 213f d787 efbe
00000090: 1ef7 25bf 8eee a73e e6e0 8d3e 06b5 103f
000000a0: b299 00bf cbc7 d73e ae63 ad3d 262b 1d3f
000000b0: 6b45 c53e d4de 42bd b8e3 0fbf 08de 473e
000000c0: 97b2 36bf 8a4c 33be 56f8 00bf 0546 ff3e
000000d0: 91a5 ebbe 9ec5 01bf ed3e e73c 3592 203e
000000e0: cc9a 1f3f f7e4 8e3e cf0e 67be b454 1d3f
000000f0: f0d5 9fbd 40a1 373e 91c3 023f d155 70be
00000100: 0996 17bf 376b 38be 2ea7 bb3e d131 8abe
00000110: 6373 37bf 9d41 2d3e b6b6 b73e e100 5fbe
00000120: 08e3 923e 214f 003e a499 3cbf 58aa 193f
00000130: ff0d e5bd aedf 8b3d 459c 253f f2d7 c23e
00000140: 1185 39be 396c 433e 8d1e 14bf 87ba c53e
00000150: 2d70 b3bd 8321 14bf 47ca 28be 3610 673e
00000160: f6fc ee3d 4054 40be 2ca9 55bd fcd1 c1be
00000170: 11d2 ec3e fc85 1abf b5ff 573e 9669 10be
00000180: b145 063f f663 79be 3929 d93b ceb1 bdbe
00000190: df94 c63d 7855 e7be a4c7 063f e407 053f
000001a0: f20e 7f3e ae67 dabe 602a 26bf b048 fbbe
000001b0: ff1b c9be 58cb c23e 2bab 183f 3cd1 763e
000001c0: 3e85 e1be a99c 79be 0c38 d6be 9916 a43e
000001d0: 57d8 893e 60d9 01bf 2857 023f 45f2 84be
000001e0: ab68 bcbe a6cb bc3d 895e 69bd be33 953e
000001f0: 6833 8d3e a104 d63e 7bc9 02be f954 e13e
00000200: f4d5 78bd 26ec bc3d 7a19 163f 86f7 c9bc
00000210: 6c67 133d 85bc 19bf 657e df3d 27b1 07be
00000220: d859 1bbf 3f6d eb3e f7a7 2f3f 35c0 403e
00000230: bceb c03e 1ffc 163f 6c89 2e3d 01fb b53e
00000240: 0ad2 02bf 7710 e2be f6e1 fdbe f6cc cc3e
00000250: 8ccc c63e 4166 843e 5c68 a9be e160 4cbe
00000260: 26cf ca3e 1f36 b2bd f524 323e b76b d43e
00000270: 25dd 02bf 2678 88be 923d a63e f680 0d3f
00000280: 0df5 dabe 21b1 2d3f fea5 b83c c924 39bf
00000290: a959 c93e ffcd 8dbe 4c1b ebbd ab3b f63e
000002a0: 4ae9 693d ff6e 203f 78f7 f7be 1172 69bd
000002b0: 73c1 48be 4b58 07bf e2fc d5be 7424 eb3e
000002c0: 8c78 1e3f 3baa 0bbf fad1 0f3f 5921 c4be
000002d0: ea58 0e3f 5a21 5fbe 39c6 a23e ca68 92be
000002e0: 0afc e73e 3b8b 323c 16ed f23d 7e69 2dbf
000002f0: 28b8 253e cebb a7be 6d0a 75be 6c51 fabe
00000300: 44fb 05bf 1c5c 4f3e 63c1 b53e 709b 853e
00000310: 3f73 da3d 99c1 443d 882a 0bbd d1bb e43e
00000320: 9ca9 dfbe 5982 8f3e e85e 423c 129c 0bbf
00000330: 7fef e03e 90e8 0e3f 02d8 23bf 3a2c 1abf
00000340: 539d a6bc d4b9 f03e 2432 1bbe 4022 d6bd
00000350: f314 363e 8120 22be d466 253e 5b8e b43e
00000360: 4ebc 383f 71ca fbbe 5f3f b63e 42fa e8be
00000370: 97b0 ae3e 92d1 3c3d b328 c03e a58d 07bf
00000380: 3133 b33e 2521 c13e 5a9c 3cbe 760e 0e3f
00000390: ce0a 1ebe 7195 cdbe 0d05 c8be beab 3b3e
000003a0: 35b6 a1be 844e 103f ae3c 30bf 460a 99be
000003b0: 019d 703e 0741 2ebf 34a1 073d 1c9c ae3e
000003c0: 3368 2a3f a58e 4a3e 5e49 f0bc b449 c43e
000003d0: 713a 0f3f 11b0 01bf 9430 0a3e 2bc3 ee3e
000003e0: 576b 9e3d 0824 b8be 2843 613e c1ca 4a3e
000003f0: 01c1 b03e 7f93 323f d4bf 91be 2d6e 13bf

cells.0.x2h.bias f4 [256]
-0.10895994 0.12236517 -0.35364214 0.16153795 -0.45846486 0.2909023 0.57887447 0.5337794
0.592793 -0.27729538 0.3404016 0.12478506 -0.545661 0.027424728 -0.6333007 -0.47347903
0.48378593 -0.13673025 0.68267435 -0.24647015 -0.48039877 0.656306 0.5536298 0.013854404
0.26703703 -0.081490695 0.4597625 -0.52142876 -0.42559946 -0.302165 -0.46673533 0.2999993
0.69123995 -0.53128195 0.5147742 -0.55886954 -0.5373347 0.29830682 0.21748117 -0.3272492
-0.5149662 -0.6932731 0.22692744 -0.055613115 0.014265178 0.123644374 -0.47725117 0.4695001
0.04580635 0.101724796 0.2455167 -0.07061493 0.42055818 -0.46906674 -0.59454095 0.075198434
-0.09046065 0.34366673 0.6672535 0.4799512 0.7207659 -0.32921904 -0.38826892 0.57829636
-0.2278794 0.38470498 -0.14386415 0.4013284 0.5518811 0.273644 0.11638474 0.23140036
-0.60357994 -0.0057380106 0.74289376 -0.44465807 -0.35199487 -0.012854804 0.04652125 -0.58756727
0.47417334 0.41084146 -0.31462893 -0.46550608 0.40825117 -0.13385299 0.28524306 -0.6043752
0.21507303 -0.40634158 0.021330977 -0.038511723 -0.115654476 -0.078521356 0.70663655 0.5851949
-0.38427582 0.529465 -0.48703074 0.21489154 0.46860024 -0.562557 -0.31136927 0.05014575
0.6920406 0.5280727 0.49479344 -0.3881596 0.40516663 0.28010172 -0.41642904 -0.196966
-0.43834615 0.016845295 0.7076023 0.21548961 -0.35173935 -0.21653903 -0.012103474 -0.5387587
0.21767952 0.23606445 0.1864516 -0.5731505 0.058979604 -0.57530457 -0.503547 0.58049756
0.40819302 0.14315344 0.4164382 -0.44891694 0.0149912285 -0.4722351 -0.41937232 -0.25300947
0.0372603 -0.02544774 -0.24148016 -0.6157606 0.12414679 -0.23778112 -0.10149798 -0.044231035
0.42444605 -0.30647144 0.32630852 0.6760261 -0.1692406 0.4846129 0.59247816 0.4222097
-0.39275512 -0.06208384 0.16257744 0.09334002 -0.062465396 -0.18563387 -0.17113324 0.20530936
0.26458636 -0.70192677 0.50236106 0.18960227 0.071768716 -0.08877859 -0.11009252 0.63660926
-0.531115 -0.5735579 0.538429 -0.06156679 -0.37119088 0.22489609 -0.38177797 0.6289366
0.4731836 0.30786425 0.33438304 0.2989802 0.52609646 -0.37626266 0.48803562 -0.059343472
0.29653585 -0.429652 -0.0031080367 -0.26754645 -0.41226414 -0.25771937 -0.062426306 0.37542948
0.34755692 0.03104355 -0.3975408 0.17426787 0.07826939 0.4766307 0.42223617 -0.15891726
-0.056004435 0.37296236 -0.47225097 -0.14661445 -0.50631565 -0.5064799 0.40765414 0.5195815
-0.2707568 0.4389665 0.46400613 0.06558407 0.26780716 -0.49401113 -0.6101824 0.50201035
0.08035345 -0.498413 -0.056982253 0.43516588 -0.61710745 -0.16569802 -0.5665538 0.48481274
-0.122355945 -0.5661598 -0.5786332 0.62677085 -0.6476749 0.47327644 -0.6018067 0.5753669
-0.16225065 -0.16671604 0.7613469 -0.118411265 -0.28050593 0.4481805 0.4608352 0.23578882
-0.42993322 -0.039657835 0.5866547 -0.23908423 0.61201984 -0.041352354 -0.42830467 0.1842333
0.27969497 -0.43824685 0.18994823 0.29922733 -0.37372056 -0.2718744 0.38060126 0.14013799
00000000: 6426 dfbd 979a fa3d 9510 b5be 346a 253e
00000010: e8bb eabe 25f1 943e 1e31 143f c4a5 083f
00000020: 48c1 173f a9f9 8dbe 1e49 ae3e 4f8f ff3d
00000030: 70b0 0bbf d3a9 e03c ff1f 22bf d86b f2be
00000040: cab2 f73e 0403 0cbe bfc3 2e3f ac62 7cbe
00000050: d4f6 f5be ac03 283f afba 0d3f 95fd 623c
00000060: 14b9 883e 98e4 a6bd fe65 eb3e 5b7c 05bf
00000070: 2ce8 d9be 5fb5 9abe eff7 eebe 8299 993e
00000080: 1af5 303f 1802 08bf 3ec8 033f 1312 0fbf
00000090: c48e 09bf acbb 983e 62b3 5e3e 358d a7be
000000a0: d3d4 03bf 597a 31bf ab5f 683e 94ca 63bd
000000b0: 7eb8 693c 4339 fd3d 445a f4be 5162 f03e
000000c0: 709f 3b3d 1755 d03d bb68 7b3e 8f9e 90bd
000000d0: 6753 d73e 8429 f0be d633 18bf a301 9a3d
000000e0: 6f43 b9bd 16f5 af3e 20d1 2a3f 2abc f53e
000000f0: 1d84 383f 668f a8be 2fcb c6be 3b0b 143f
00000100: 3859 69be 0df8 c43e 2051 13be eb7a cd3e
00000110: 1448 0d3f 111b 8c3e 1f5b ee3d 37f4 6c3e
00000120: 3784 1abf ec05 bcbb 492e 3e3f 39aa e3be
00000130: ac38 b4be f59c 52bc 118d 3e3d cf6a 16bf
00000140: d9c6 f23e d059 d23e 0b17 a1be d056 eebe
00000150: 4c06 d13e c210 09be 610b 923e 55b8 1abf
00000160: 1b3c 5c3e 010c d0be 4dbe ae3c 78be 1dbd
00000170: 41dc ecbd cecf a0bd 22e6 343f 55cf 153f
00000180: cdbf c4be 058b 073f 185c f9be 870c 5c3e
00000190: 5fec ef3e bc03 10bf cb6b 9fbe a165 4d3d
000001a0: 9329 313f c62f 073f 9155 fd3e dbbc c6be
000001b0: 0072 cf3e 7e69 8f3e 3036 d5be 75b1 49be
000001c0: e86e e0be 25ff 893c 6d25 353f 4fa9 5c3e
000001d0: 2e17 b4be 68bc 5dbe a64d 46bc 17ec 09bf
000001e0: 61e7 5e3e e1ba 713e 2bed 3e3e feb9 12bf
000001f0: 9994 713d 2947 13bf 75e8 00bf 7d9b 143f
00000200: adfe d03e d196 123e 6337 d53e 71d8 e5be
00000210: c59d 753c cdc8 f1be f8b7 d6be 758a 81be
00000220: 429e 183d c777 d0bc 9346 77be 7da2 1dbf
00000230: ac40 fe3d e57c 73be 2cde cfbd 9a2b 35bd
00000240: fe50 d93e d3e9 9cbe e911 a73e 0c10 2d3f
00000250: 684d 2dbe 2f1f f83e a6ac 173f df2b d83e
00000260: 3317 c9be a04b 7ebd b37a 263e 0d29 bf3d
00000270: b7db 7fbd ce16 3ebe 8d3d 2fbe 9e3c 523e
00000280: dd77 873e 79b1 33bf bc9a 003f 1927 423e
00000290: 7afb 923d 8dd1 b5bd 3078 e1bd d3f8 223f
000002a0: 27f7 07bf b1d4 12bf 7cd6 093f 752d 7cbd
000002b0: bb0c bebe 294b 663e 6778 c3be fd01 213f
000002c0: 1f45 f23e 62a0 9d3e 4134 ab3e ef13 993e
000002d0: 42ae 063f 80a5 c0be cedf f93e 2412 73bd
000002e0: 8cd3 973e 59fb dbbe 34b0 4bbb d9fb 88be
000002f0: 4914 d3be cbf3 83be bab2 7fbd 4b38 c03e
00000300: fbf2 b13e 0b4f fe3c 788a cbbe 4773 323e
00000310: b44b a03d f008 f43e 572f d83e 35bb 22be
00000320: e864 65bd ecf4 be3e e1ca f1be 1922 16be
00000330: e79d 01bf aba8 01bf 0bb8 d03e 4b03 053f
00000340: a3a0 8abe 38c0 e03e 3692 ed3e f150 863d
00000350: 051e 893e 07ef fcbe ea34 1cbf c083 003f
00000360: 5990 a43d fd2f ffbe 3966 69bd 10ce de3e
00000370: c1fa 1dbf beac 29be ab09 11bf 6039 f83e
00000380: c195 fabd d9ef 10bf 4e21 14bf 0e74 203f
00000390: 06ce 25bf 4a51 f23e 0110 1abf 3f4b 133f
000003a0: 0925 26be 9cb7 2abe a1e7 423f 9b81 f2bd
000003b0: 799e 8fbe ea77 e53e 97f2 eb3e a072 713e
000003c0: 3520 dcbe 4170 22bd 012f 163f 7fd2 74be
000003d0: 55ad 1c3f 1661 29bd c04a dbbe a7a7 3c3e
000003e0: 2e34 8f3e e461 e0be ca81 423e 5334 993e
000003f0: 4d58 bfbe 1f33 8bbe 2bde c23e 5580 0f3e

cells.0.h2h.weight f4 [256, 64]
-0.08838523 -0.09520971 0.10728258 0.10712933 -0.07869023 0.061829537 -0.05454528 0.095348
0.009792128 0.07945847 0.07631538 0.095872924 -0.08052248 -0.055050127 -0.12880747 0.111084945
0.13861851 0.10967273 -0.009025886 -0.022575947 0.10731599 -0.09302166 -0.096584104 0.05238011
0.016236125 -0.11649927 0.1268852 -0.04400269 -0.03936304 0.10142821 0.039231595 -0.054880377
-0.049810216 -0.10098077 0.0032205882 0.051775243 -0.036416918 -0.12269941 0.022368567 0.11227736
-0.026688052 -0.09310824 0.089667186 0.053659763 -0.061048917 -0.05538423 -0.01884144 0.07461664
-0.01741612 0.08989725 0.1213638 0.075826816 0.098707914 -0.13979897 0.07112601 -0.11760237
0.08530994 0.059201114 0.004507815 -0.06336451 0.04137933 -0.09528879 -0.12990738 0.03286631
-0.07540889 -0.045468666 -0.0602625 0.0026700583 -0.014649201 0.039023075 -0.08306643 -0.117084
-0.055913776 -0.1495225 0.050673433 0.061630417 0.100687444 0.037417885 0.12424057 0.108570956
-0.0069573056 -0.043752316 0.080301546 0.110175245 -0.039899 0.07571084 0.05312329 0.027853679
0.106863074 0.0055449107 -0.13555872 -0.0007020387 -0.022306401 -0.061368763 -0.024823641 -0.037530765
-0.097826205 0.07240851 -0.036834646 0.018661898 0.08355011 -0.11198257 0.0069746347 -0.07903295
0.059148386 0.07852364 -0.070237264 -0.11768773 0.05732088 0.0029128175 0.050770506 -0.076661214
0.066380955 0.069736354 0.13433631 0.033288997 0.012380223 -0.11950288 -0.04096577 -0.0708429
-0.095854506 0.081347786 0.09214178 0.06342867 -0.0424804 -0.08207099 0.06495632 -0.02646967
0.109681524 0.15329927 0.07498499 0.018793162 -0.15371278 0.009153931 -0.085939065 0.09212726
-0.0638849 -0.04411894 0.12105753 -0.12884232 0.027263515 0.09743382 0.025253301 0.09770856
0.15012692 -0.11907552 -0.10223817 0.021726498 -0.11375472 0.14018306 -0.06180877 0.04490299
0.115693636 -0.023668876 0.1089882 -0.06462916 -0.0597455 0.07739625 0.042602994 -0.14127548
-0.083613485 -0.1217505 0.02025909 0.030652553 0.12251029 -0.150705 -0.06753101 -0.06453395
-0.13094093 -0.06019602 -0.099893935 0.0966508 0.13391486 0.13344145 -0.01423391 0.024679014
0.05235981 0.14366312 0.12030131 -0.032301646 0.011832598 0.009906659 0.1541535 0.0688896
0.046492647 -0.09823405 -0.10318497 -0.08378768 0.08970324 0.07303316 0.008479429 -0.018022377
0.12014687 0.10739153 0.09432093 0.0023208845 0.084799714 -0.13640079 -0.1331243 0.16415583
0.09735367 0.0856083 -0.050544422 0.07794195 -0.08008415 0.0058303764 0.06776529 -0.09072648
0.019186521 -0.062067114 -0.02478412 -0.0907092 0.05721798 0.027366595 0.06963822 -0.009309062
-0.1238424 -0.01870504 0.1150154 -0.04764845 0.002137973 0.042057488 -0.099857286 0.2611563
0.036079988 -0.11168959 -0.05140964 0.026523044 0.13346717 -0.07997276 0.14523086 0.0800033
-0.052048128 -0.05802154 0.025857732 -0.025536329 -0.05859864 -0.06866745 -0.08776784 0.00825844
-0.08878117 0.054323595 -0.0640489 0.22754693 -0.08768849 0.047972556 -0.07141172 0.104989626
-0.011825261 0.106006816 0.037487112 0.1710044 0.021265214 0.04217493 -0.040136445 -0.033693686
00000000: 5103 b5bd 4ffd c2bd f8b6 db3d 9f66 db3d
00000010: 5828 a1bd f840 7d3d df6a 5fbd d045 c33d
00000020: 296f 203c 1fbb a23d 3d4b 9c3d 0659 c43d
00000030: f8e8 a4bd 3e7c 61bd 1be6 03be 8180 e33d
00000040: 03f2 0d3e 199c e03d 4fe1 13bc 31f1 b8bc
00000050: 7cc8 db3d 2482 bebd e3cd c5bd 878c 563d
00000060: 9f01 853c 2b97 eebd 32ee 013e 2a3c 34bd
00000070: 243b 21bd 98b9 cf3d 4fb1 203d 3fca 60bd
00000080: cc05 4cbd 02cf cebd 8110 533b 4712 543d
00000090: e829 15bd d449 fbbd 493e b73c acf1 e53d
000000a0: e7a0 dabc 88af bebd 6ea3 b73d 57ca 5b3d
000000b0: 6e0e 7abd 93da 62bd 5d59 9abc 9cd0 983d
000000c0: 40ac 8ebc 0d1c b83d 958d f83d 174b 9b3d
000000d0: 6027 ca3d 7627 0fbe 83aa 913d 83d9 f0bd
000000e0: fab6 ae3d de7c 723d 4bb6 933b 41c5 81bd
000000f0: 5f7d 293d c526 c3bd 7106 05be d39e 063d
00000100: fa6f 9abd 5a3d 3abd d0d5 76bd 25fc 2e3b
00000110: 3403 70bc a9d6 1f3d bc1e aabd bcc9 efbd
00000120: d805 65bd 6d1c 19be f28e 4f3d 2d70 7c3d
00000130: 3835 ce3d 7f43 193d d771 fe3d 735a de3d
00000140: 1cfa e3bb a135 33bd 2375 a43d 8fa3 e13d
00000150: 226d 23bd 490e 9b3d cf97 593d 662d e43c
00000160: 07db da3d 15b2 b53b e8cf 0abe 0509 38ba
00000170: eabb b6bc d05d 7bbd f35a cbbc dcb9 19bd
00000180: 1b59 c8bd ea4a 943d eddf 16bd d6e0 983c
00000190: 521c ab3d 1e57 e5bd 7a8b e43b 07dc a1bd
000001a0: 9445 723d 01d1 a03d 8ed8 8fbd 4406 f1bd
000001b0: 4dc9 6a3d f8e4 3e3b bcf4 4f3d 8e00 9dbd
000001c0: bdf2 873d efd1 8e3d 758f 093e 0b5a 083d
000001d0: 6bd6 4a3c edbd f4bd b9cb 27bd 1516 91bd
000001e0: 5e4f c4bd ab99 a63d d4b4 bc3d e4e6 813d
000001f0: eeff 2dbd d614 a8bd d207 853d ecd6 d8bc
00000200: b5a0 e03d 7cfa 1c3e bb91 993d 1ef4 993c
00000210: e266 1dbe 5ffa 153c d200 b0bd 38ad bc3d
00000220: 16d6 82bd 10b6 34bd 03ed f73d 3eef 03be
00000230: bc57 df3c 628b c73d 03e0 ce3c 6d1b c83d
00000240: dfba 193e dedd f3bd 3f62 d1bd c5fb b13c
00000250: 3cf8 e8bd 268c 0f3e 312b 7dbd 33ec 373d
00000260: c9f0 ec3d 3be5 c1bc 3535 df3d 4b5c 84bd
00000270: b3b7 74bd ed81 9e3d 7a80 2e3d 85aa 10be
00000280: 8c3d abbd 5358 f9bd 64f6 a53c 101b fb3c
00000290: ade6 fa3d 6952 1abe b34d 8abd 602a 84bd
000002a0: 6115 06be 1a90 76bd 3195 ccbd dbf0 c53d
000002b0: fa20 093e e0a4 083e 5835 69bc a52b ca3c
000002c0: 3d77 563d 6d1c 133e 8960 f63d bb4e 04bd
000002d0: 83dd 413c 8a4f 223c 6ada 1d3e fe15 8d3d
000002e0: 136f 3e3d ef2e c9bd a452 d3bd e098 abbd
000002f0: 55b6 b73d 6992 953d 4eed 0a3c aaa3 93bc
00000300: 900f f63d 17f0 db3d 552b c13d fb19 183b
00000310: 79ab ad3d a6ac 0bbe bd51 08be 7718 283e
00000320: 5c61 c73d 6853 af3d ab07 4fbd 07a0 9f3d
00000330: 2903 a4bd be0c bf3b 87c8 8a3d cece b9bd
00000340: 0d2d 9d3c 163a 7ebd 1108 cbbc bfc5 b9bd
00000350: 675d 6a3d e92f e03c 7c9e 8e3d 0985 18bc
00000360: 16a1 fdbd 503b 99bc 328d eb3d 052b 43bd
00000370: 3c1d 0c3b 7944 2c3d fa81 ccbd 47b6 853e
00000380: 9cc8 133d 83bd e4bd ea92 52bd db46 d93c
00000390: 9eab 083e c2c8 a3bd 66b7 143e c5d8 a33d
000003a0: 6b30 55bd ffa7 6dbd 98d3 d33c 9031 d1bc
000003b0: 2105 70bd 85a1 8cbd a0bf b3bd 684e 073c
000003c0: e7d2 b5bd 6b82 5e3d 122c 83bd 1002 693e
000003d0: 0696 b3bd df7e 443d 4f40 92bd cd04 d73d
000003e0: bdbe 41bc 1a1a d93d 168c 193d c71b 2f3e
000003f0: 6334 ae3c 9fbf 2c3d 1d66 24bd 6402 0abd

cells.0.h2h.bias f4 [256]
-0.031999175 0.09355728 0.100023516 -0.0032645345 0.051023394 -0.024464145 -0.09075056 0.17657544
-0.054043043 -0.044417124 0.059591256 -0.03665217 -0.03031258 0.052245103 -0.04879078 -0.010518587
0.007338719 -0.09079445 0.06575753 0.1271042 0.08188685 0.042797584 -0.115202725 0.11602841
0.07888475 0.110292196 0.065766215 -0.052302133 0.04180231 0.104253985 0.064377 -0.019090151
0.04993191 0.058470424 0.0092341 0.045614257 -0.058078423 0.039816596 0.1292196 0.0692249
0.09809155 0.09028238 -0.0055624517 0.043889225 0.20039098 -0.027945159 0.015221468 0.0008799303
-0.0867346 -0.024894904 0.24762759 0.041935403 0.02789359 0.11603503 -0.05316243 0.15229109
-0.06531453 0.065938845 0.0877091 0.07017614 -0.09877388 -0.016006568 0.059994843 -0.06674458
-0.08270117 0.029045599 -0.0056236014 0.12645122 0.04962197 -0.104494765 -0.070318304 0.23751406
0.0009945235 0.10988813 0.11194562 0.08801567 0.08981715 0.013409678 -0.019424459 0.0024030707
0.13494053 -0.0071572457 0.10958465 0.12403047 0.106285416 0.09212788 0.10746257 0.012590651
0.12000914 0.123440005 -0.015485833 -0.08503935 0.10852125 -0.079431206 -0.059088953 0.22196014
0.06424054 0.093982495 -0.08560025 -0.101386815 0.024967756 -0.050375346 0.07977251 -0.026785938
0.12432214 0.020323483 0.087696016 -0.032672632 0.1741932 -0.021647798 -0.07420613 0.049066838
0.119222276 -0.0774177 0.025117412 0.19612767 0.028594011 0.12598722 0.122427255 0.045779638
-0.038009744 -0.061091088 0.14937504 0.0011551226 -0.061140805 0.02859413 0.09109385 0.06958956
0.032852463 0.08192322 0.034112304 0.07265995 -0.036765564 -0.12668747 0.036014993 -0.07966544
0.050018467 0.07668583 -0.035102647 -0.00940437 0.043465696 0.02511766 -0.05690359 0.049325004
-0.09569096 -0.12122418 0.11885919 0.120632045 -0.11160246 -0.05946619 -0.07952952 -0.06981254
-0.04786198 -0.037059877 -0.011562595 0.059865177 0.09137006 0.05449108 -0.11029446 -0.04416489
-0.01003744 0.07740616 0.06878939 -0.06377738 0.05750795 0.062366273 -0.10096145 -0.05747828
0.02433128 0.040374324 0.034726094 0.13459057 -0.037116732 -0.036500458 -0.06840234 0.121806696
0.045037832 0.119514115 0.003001386 0.061630115 -0.035878688 0.080335334 0.012805106 0.06257763
-0.06740134 -0.07822802 0.109243296 0.02567355 0.0066516595 -0.12031476 -0.0062169717 0.12739953
0.1047213 0.034845565 0.06526792 0.11363962 0.05424024 0.12364736 -0.08638178 -0.023915255
0.09664254 0.08979591 0.17394917 -0.0022021537 -0.03187827 -0.0017696024 0.096706234 0.040847022
-0.026670828 -0.08189307 -0.028575415 -0.031100495 -0.090312384 -0.0045598135 -0.00025289776 -0.03850675
-0.05051991 0.07889163 0.10173883 -0.048964284 0.06745437 -0.090914465 -0.030423755 -0.018631125
0.09631041 0.046146706 0.13421117 0.10618236 0.0059842844 0.009159082 -0.009942837 -0.10554078
-0.05155176 0.10608807 -0.00093059236 0.09400745 0.086759254 0.093329936 0.10013434 0.12831345
-0.041549888 0.0108065875 0.13034797 0.059626002 0.09257504 0.036440328 0.112942316 0.06187222
-0.09060234 0.015923165 0.03461273 0.10237699 -0.05799689 0.14710097 0.010345303 0.005617021
00000000: 9111 03bd f69a bf3d 21d9 cc3d cdf1 55bb
00000010: e8fd 503d 0869 c8bc 6edb b9bd 31d0 343e
00000020: 3d5c 5dbd bbee 35bd f615 743d 9620 16bd
00000030: 1652 f8bc f6fe 553d d7d8 47bd 2756 2cbc
00000040: a379 f03b 71f2 b9bd e2ab 863d 9a27 023e
00000050: 4bb4 a73d 854c 2f3d 68ef ebbd 4ea0 ed3d
00000060: 548e a13d e0e0 e13d 70b0 863d c33a 56bd
00000070: e638 2b3d 1d83 d53d 17d8 833d f362 9cbc
00000080: 6785 4c3d af7e 6f3d 9f4a 173c 04d6 3a3d
00000090: a4e3 6dbd ba16 233d 2552 043e c9c5 8d3d
000000a0: 39e4 c83d f8e5 b83d 3a45 b6bb 30c5 333d
000000b0: 4b33 4d3e 3fed e4bc 7763 793c 1fab 663a
000000c0: e9a1 b1bd 66f0 cbbc 1692 7d3e 75c4 2b3d
000000d0: 1981 e43c c6a3 ed3d d9c0 59bd 32f2 1b3e
000000e0: a0c3 85bd f20a 873d d4a0 b33d 82b8 8f3d
000000f0: f649 cabd 3520 83bc 27bd 753d 62b1 88bd
00000100: 3b5f a9bd 09f1 ed3c 3046 b8bb 6e7c 013e
00000110: 6840 4b3d 5a01 d6bd 0b03 90bd e336 733e
00000120: ac5a 823a 070d e13d bf43 e53d 8f41 b43d
00000130: 0ef2 b73d 44b4 5b3c 0b20 9fbc d67c 1d3b
00000140: da2d 0a3e 5487 eabb eb6d e03d b003 fe3d
00000150: 2bac d93d 8bad bc3d 5615 dc3d 0549 4e3c
00000160: 5ac7 f53d 1dce fc3d 4bb8 7dbc 1c29 aebd
00000170: 6440 de3d d4ac a2bd 4207 72bd 8549 633e
00000180: 8b90 833d e579 c03d 2f4f afbd e4a3 cfbd
00000190: 2e89 cc3c 6156 4ebd c55f a33d 2f6e dbbc
000001a0: 9b9c fe3d 6f7d a63c f899 b33d bdd3 05bd
000001b0: b45f 323e b956 b1bc 62f9 97bd 4ffa 483d
000001c0: cf2a f43d 2c8d 9ebd 08c3 cd3c b1d5 483e
000001d0: fd3d ea3c cb02 013e 24bb fa3d 6e83 3b3d
000001e0: 1bb0 1bbd a63a 7abd c5f5 183e 7c67 973a
000001f0: c86e 7abd 3d3e ea3c 6a8f ba3d f984 8e3d
00000200: 4e90 063d 5cc7 a73d 58b9 0b3d bdce 943d
00000210: 7d97 16bd 5cba 01be 7584 133d a227 a3bd
00000220: 2ae0 4c3d 760d 9d3d cbc7 0fbd c914 1abc
00000230: 1609 323d 8dc3 cd3c bd13 69bd 0409 4a3d
00000240: 9ff9 c3bd 6244 f8bd 726c f33d ef0d f73d
00000250: d58f e4bd d292 73bd 5fe0 a2bd e1f9 8ebd
00000260: ec0a 44bd 19cc 17bd 0a71 3dbc 3035 753d
00000270: 3a20 bb3d 0a32 5f3d 10e2 e1bd 3ee6 34bd
00000280: 1374 24bc 1f87 9e3d 74e1 8c3d b79d 82bd
00000290: 758d 6b3d c773 7f3d e0c4 cebd 586e 6bbd
000002a0: 6452 c73c 8c5f 253d f33c 0e3d 1cd2 093e
000002b0: b707 18bd 8181 15bd 8716 8cbd ca75 f93d
000002c0: 9779 383d d1c3 f43d e7b2 443b dc6f 7c3d
000002d0: 88f5 12bd da86 a43d 82cc 513c b328 803d
000002e0: b709 8abd 0336 a0bd f3ba df3d 5651 d23c
000002f0: 2af6 d93b 9667 f6bd bdb7 cbbb 0675 023e
00000300: 1f78 d63d 39ba 0e3d 30ab 853d e4bb e83d
00000310: 042b 5e3d d43a fd3d eee8 b0bd ede9 c3bc
00000320: 86ec c53d ebe6 b73d bb1f 323e 0252 10bb
00000330: ca92 02bd 01f2 e7ba eb0d c63d 354f 273d
00000340: c87c dabc 8eb7 a7bd fd16 eabc 77c6 febc
00000350: b3f5 b8bd 7d6a 95bb 5d97 84b9 41b9 1dbd
00000360: f7ed 4ebd ef91 a13d 735c d03d c68e 48bd
00000370: 8425 8a3d 5d31 babd 3d3b f9bc 4da0 98bc
00000380: 643e c53d 5404 3d3d a76e 093e 2376 d93d
00000390: d117 c43b f90f 163c 48e7 22bc c425 d8bd
000003a0: f027 53bd b444 d93d fff2 73ba fa86 c03d
000003b0: d6ae b13d c423 bf3d 3c13 cd3d 9a64 033e
000003c0: 3730 2abd 1d0e 313c f079 053e 653a 743d
000003d0: fc97 bd3d 7442 153d 4d4e e73d ba6d 7d3d
000003e0: b88d b9bd 4c71 823c 14c6 0d3d 07ab d13d
000003f0: 268e 6dbd a3a1 163e 597f 293c fd0e b83b

cells.1.x2h.weight f4 [256, 64]
0.005608992 -0.019986978 0.0055121235 -0.11712392 -0.008269928 0.08598063 0.09266695 0.066935495
-0.013652011 -0.04685721 -0.117624655 -0.092832156 0.10206014 -0.029712211 -0.07923343 0.07729208
-0.006530422 0.11411317 0.03243017 -0.064474314 -0.015888667 -0.06841608 -0.07502436 0.115762934
0.0035870462 -0.018117737 0.07754506 0.085345596 0.070429176 0.057445005 0.041120835 -0.109139785
-0.05726417 0.0021829163 -0.08236494 0.019898377 -0.09696576 0.15683344 0.10686809 0.1117056
-0.04970655 -0.09371112 0.046587814 0.08113785 0.042202 0.011342409 -0.124465436 0.078850515
0.085381225 -0.023774587 -0.072660595 0.08727053 0.068882905 0.09099771 -0.067221 -0.0912327
0.12314447 -0.0815375 0.06700799 -0.119604975 -0.067440756 -0.054737937 -0.021854034 -0.109893315
-0.07074689 0.01070175 -0.010455513 0.053357966 -0.04989555 0.06957954 -0.052122932 -0.057521373
0.058610708 -0.059816204 -0.026227484 0.042135727 0.16746937 0.1670047 -0.011371521 -0.019174878
0.10108088 0.035763714 0.04856022 -0.06403046 -0.10205698 0.047061127 -0.035771053 -0.0833724
0.04682275 -0.1056483 -0.020641292 -0.13906492 0.021682432 -0.11680718 -0.05578295 -0.1361647
-0.06968852 0.09051511 0.10537954 -0.05479005 0.08205788 -0.011625745 -0.09329516 0.052038528
-0.06656653 0.092945084 -0.12741223 0.05963793 -0.0066366447 0.12371468 -0.05465974 -0.08864046
0.104274794 0.060334958 0.21047829 -0.121196195 0.10028329 -0.08684678 0.05948987 -0.18640888
0.031776357 -0.08415819 -0.14618005 -0.18786457 0.10500984 -0.11994551 0.008647096 0.03735799
-0.012554666 0.0213546 0.056474984 -0.007283194 -0.03808303 -0.10548719 -0.045273572 0.04043926
0.05123548 -0.038262654 0.0060344487 0.020181835 0.17463271 -0.11172586 0.00036520802 -0.1097152
0.04819105 0.024175543 0.096357666 0.11213154 -0.10986157 -0.027653253 -0.018233327 -0.047244005
-0.052394945 -0.06455613 0.082249664 0.07759969 0.022540834 -0.0412478 0.09969229 -0.14185677
0.11642742 -0.035771184 0.08502832 0.11096029 -0.008181897 -0.115367904 -0.092320725 0.029708259
-0.0007292267 -0.10319124 -0.008464305 -0.101943284 0.09256235 0.049190324 -0.059006907 0.07992724
-0.067356944 0.016836407 0.18317725 0.03731979 0.016790438 -0.028277636 0.03527115 -0.19338213
0.082602315 -0.0779772 -0.045122858 -0.08735241 -0.041643154 0.02104733 -0.033937115 -0.06997271
0.016849525 0.031223591 -0.124077775 -0.10197958 0.031537488 -0.024883805 -0.034762904 0.12896073
-0.034847375 0.03761003 -0.08699562 0.063636295 -0.04905747 -0.034863632 0.08682889 -0.11258554
-0.029895412 -0.09729516 0.13320541 -0.05243321 0.08412693 0.017877223 -0.05719004 -0.05301623
0.035915725 0.1736724 0.10028927 -0.065069556 -0.023279857 0.020144489 -0.1313211 -0.008688776
-0.012592128 -0.07609292 -0.06887534 0.08270598 -0.11421864 -0.16285828 0.04668524 0.10157009
-0.009337166 -0.008743528 -0.050171822 -0.09567588 -0.06343122 0.110909365 -0.0070840847 0.08350859
0.0032950835 -0.048806027 0.013909402 -0.0816431 0.03259577 0.03762726 0.14861366 0.084879376
-0.043946747 -0.14035831 -0.10450732 0.05914492 0.077075124 0.100543134 -0.10014031 -0.02776912
00000000: a3cb b73b bbbb a3bc 0b9f b43b aade efbd
00000010: 987e 07bc 9d16 b03d 2bc8 bd3d 7a15 893d
00000020: afac 5fbc 59ed 3fbd 32e5 f0bd c91e bebd
00000030: e804 d13d 0667 f3bc 2345 a2bd 4f4b 9e3d
00000040: 26fd d5bb 2ab4 e93d 7fd5 043d 1c0b 84bd
00000050: f328 82bc bb1d 8cbd 5fa6 99bd 1e15 ed3d
00000060: a614 6b3b a66b 94bc f2cf 9e3d acc9 ae3d
00000070: 2c3d 903d 744b 6b3d 526e 283d ae84 dfbd
00000080: d68d 6abd 420f 0f3b f3ae a8bd ec01 a33c
00000090: fc95 c6bd f298 203e a8dd da3d e8c5 e43d
000000a0: 1899 4bbd 9eeb bfbd ddd2 3e3d 9a2b a63d
000000b0: 01dc 2c3d 83d5 393c bce7 febd 617c a13d
000000c0: 5adc ae3d ecc2 c2bc 14cf 94bd e4ba b23d
000000d0: 7b12 8d3d 025d ba3d 2aab 89bd 36d8 babd
000000e0: 2b33 fc3d 22fd a6bd 7c3b 893d 74f3 f4bd
000000f0: 611e 8abd e334 60bd 3b07 b3bc bf0f e1bd
00000100: bfe3 90bd 6556 2f3c 9a4d 2bbc e28d 5a3d
00000110: 475f 4cbd b87f 8e3d db7e 55bd 889b 6bbd
00000120: c811 703d d601 75bd 05db d6bc 8396 2c3d
00000130: 177d 2b3e 4803 2b3e 9e4f 3abc a214 9dbc
00000140: 7e03 cf3d f97c 123d 15e7 463d 6722 83bd
00000150: 4003 d1bd 2bc3 403d ab84 12bd 26bf aabd
00000160: 36c9 3f3d 235e d8bd ed17 a9bc 0967 0ebe
00000170: 5b9f b13c 9a38 efbd aa7c 64bd c26e 0bbe
00000180: dbb8 8ebd fc5f b93d 3ad1 d73d 886b 60bd
00000190: f60d a83d e979 3ebc 8811 bfbd 5a26 553d
000001a0: 0854 88bd fe59 be3d 5a78 02be e746 743d
000001b0: 3678 d9bb 1f5e fd3d e4e2 5fbd 2189 b5bd
000001c0: 068e d53d ca21 773d 9f87 573e b635 f8bd
000001d0: 5361 cd3d b9dc b1bd a6ab 733d f8e1 3ebe
000001e0: ed27 023d 215b acbd 39b0 15be 925f 40be
000001f0: 660f d73d fea5 f5bd 8dac 0d3c b104 193d
00000200: 16b2 4dbc d8ef ae3c 5052 673d dca7 eebb
00000210: f4fc 1bbd ab09 d8bd c870 39bd a3a3 253d
00000220: 4bdc 513d 4db9 1cbd a0bc c53b 6054 a53c
00000230: ebd2 323e 87d0 e4bd 6479 bf39 5db2 e0bd
00000240: fa63 453d ca0b c63c 2b57 c53d 39a5 e53d
00000250: 1aff e0bd 1389 e2bc 0f5e 95bc ee82 41bd
00000260: 159c 56bd 0136 84bd 8372 a83d 96ec 9e3d
00000270: 8ea7 b83c 74f3 28bd 792b cc3d e742 11be
00000280: 8071 ee3d ce84 12bd 5423 ae3d 263f e33d
00000290: 5d0d 06bc 0246 ecbd a612 bdbd bc5e f33c
000002a0: 9329 3fba ee55 d3bd dead 0abc a4c7 d0bd
000002b0: 5491 bd3d cb7b 493d 3ab1 71bd e5b0 a33d
000002c0: 70f2 89bd 81ec 893c d192 3b3e a3dc 183d
000002d0: 1a8c 893c 80a6 e7bc 7b78 103d f705 46be
000002e0: 672b a93d 83b2 9fbd bfd2 38bd d2e5 b2bd
000002f0: 0392 2abd 736b ac3c a501 0bbd da4d 8fbd
00000300: 0408 8a3c 9ec8 ff3c 7d1c febd acda d0bd
00000310: 742d 013d 1fd9 cbbc 8c63 0ebd 480e 043e
00000320: 1fbc 0ebd fa0c 1a3d c22a b2bd bf53 823d
00000330: 7cf0 48bd 2bcd 0ebd 58d3 b13d 3f93 e6bd
00000340: 39e7 f4bc af42 c7bd 0067 083e 35c4 56bd
00000350: bd4a ac3d 4173 923c 1a40 6abd 8c27 59bd
00000360: 5e1c 133d 2dd7 313e 7664 cd3d 3043 85bd
00000370: 66b5 bebc 0e06 a53c 0a79 06be 5e5b 0ebc
00000380: 364f 4ebc 9bd6 9bbd 840e 8dbd c161 a93d
00000390: 76eb e9bd 52c4 26be 0639 3f3d fb03 d03d
000003a0: eafa 18bc 0441 0fbc f880 4dbd b7f1 c3bd
000003b0: 3ae8 81bd 7324 e33d 9c21 e8bb 8d06 ab3d
000003c0: 54f2 573b d4e8 47bd 43e4 633c 7f34 a7bd
000003d0: 2483 053d 0b1f 1a3d 2e2e 183e 3dd5 ad3d
000003e0: 8101 34bd 17ba 0fbe ef07 d6bd f241 723d
000003f0: 90d9 9d3d 8fe9 cd3d 5d16 cdbd 117c e3bc

cells.1.x2h.bias f4 [256]
0.010288279 -0.031056002 0.07365062 -0.011061509 -0.020634206 0.08005793 -0.06137433 0.1127277
0.10357915 0.022207623 0.089712664 0.036567792 -0.10274976 -0.0052027693 0.014643891 0.031512
0.06810825 -0.10314134 0.009346801 -0.0016928929 0.081498526 0.10498482 -0.10383243 -0.062122434
0.041890197 0.13827176 -0.0939671 -0.08666879 -0.07296462 0.13030247 -0.103997804 0.066290565
0.07457261 -0.10346379 0.020879814 -0.051235564 -0.05577224 -0.06951061 0.012285667 0.01811471
-0.014891018 -0.037670728 0.05014371 0.055998486 -0.026443586 -0.08886 0.009548103 0.10578205
-0.08968124 -0.092990935 -0.0796471 -0.010409937 -0.077213846 -0.043700665 0.13517043 -0.023965532
0.09057251 0.0018707466 0.14165457 -0.03972131 -0.04845121 0.073911585 0.094736785 -0.08061032
-0.05332624 0.13297325 -0.09899881 0.04255334 -0.025164595 -0.047641248 0.027783755 0.0740762
0.046200883 0.09066201 -0.050771303 0.0035914178 0.12302586 -0.048549365 -0.113198996 0.11885926
0.08931056 0.103347205 0.00015756208 0.028460843 -0.05071796 -0.053803854 -0.1113415 0.05634693
-0.086908825 0.0292179 -0.0071843374 -0.08427434 0.109965555 -0.0741185 -0.116317004 -0.020312127
0.043403763 0.10101192 0.028762741 0.0007088859 -0.017948251 -0.121307775 -0.07219885 0.065167636
0.050906926 0.1051424 0.082183935 0.009291924 -0.039570842 0.06417986 0.13122074 0.062894605
-0.0048431545 -0.08349914 0.10359006 0.016794812 -0.03121484 0.09906539 0.103607565 -0.021226745
0.12651564 0.005386517 0.06532838 -0.027922662 -0.08384224 0.116059266 -0.12607603 0.058812123
-0.09239616 0.083678715 0.12759781 0.009163825 0.06898542 0.07582 -0.080002904 -0.055415273
0.042506423 0.027799288 -0.09964922 0.009484757 -0.052764624 0.107554406 -0.024292586 -0.12419
0.1020122 0.08805386 -0.047407124 0.05599044 0.0980911 -0.10453271 -0.09379825 -0.05092333
-0.005620404 -0.041142765 0.0827 -0.1022014 -0.0661597 -0.03587321 -0.07501945 0.023061983
-0.026162712 0.025710415 0.024674071 -0.12877771 -0.09967527 0.06274188 0.081550546 -0.06082027
-0.045651402 0.12746514 0.003781735 0.080413096 0.058344938 -0.14115675 0.08676242 -0.090097435
0.053190254 0.009377153 0.038001943 -0.073427446 -0.055741426 0.042857666 0.022658838 0.046639364
-0.07480236 -0.057224452 0.023471572 0.06822942 0.04620058 0.059307333 0.07062647 0.115287185
0.09102674 -0.012457812 -0.09695339 -0.02199939 0.04850413 -0.083242066 0.12634178 0.059550133
-0.068947874 -0.0032601457 0.025925733 0.00017153466 0.13813505 0.011709359 -0.0630108 0.10358653
0.052226607 0.078764476 0.035762597 -0.018231973 0.08117921 0.12840542 -0.1288456 0.07313581
0.010156731 0.14116904 0.02382785 0.08428579 0.042194284 -0.09865412 0.038311116 0.12507129
0.11532797 0.035372548 0.01512526 0.027115662 0.08236593 0.007260728 0.11288019 0.040257704
-0.018515525 0.08275992 -0.008078664 0.12705721 0.13944286 -0.058984533 -0.003061202 -0.051957265
0.10058816 -0.03059071 -0.13287017 0.07776665 0.09832199 -0.12067276 0.11335356 0.050401475
-0.06700454 0.046281792 0.14181237 -0.05244662 -0.024694003 0.10173896 0.09957416 0.060936257
00000000: 2b90 283c 2869 febc 23d6 963d 553b 35bc
00000010: 1109 a9bc 69f5 a33d a663 7bbd c8dd e63d
00000020: 4e21 d43d c3ec b53c 46bb b73d 1cc8 153d
00000030: 776e d2bd fe7b aabb eeec 6f3c ba12 013d
00000040: 577c 8b3d c43b d3bd 5323 193c 0fe4 ddba
00000050: b3e8 a63d 4802 d73d 19a6 d4bd 1874 7ebd
00000060: 0e95 2b3d 1d97 0d3e d371 c0bd 687f b1bd
00000070: 7a6e 95bd 036e 053e cdfc d4bd 59c3 873d
00000080: 86b9 983d d3e4 d3bd 250c ab3c 62dc 51bd
00000090: 6f71 64bd 945b 8ebd d249 493c 4d65 943c
000000a0: 75f9 73bc 9f4c 1abd 7e63 4d3d ab5e 653d
000000b0: 38a0 d8bc 3bfc b5bd a66f 1c3c 42a4 d83d
000000c0: ccaa b7bd 0872 bebd 051e a3bd 718e 2abc
000000d0: 4b22 9ebd 78ff 32bd 1e6a 0a3e 5d53 c4bc
000000e0: 157e b93d d733 f53a e50d 113e d0b2 22bd
000000f0: c774 46bd f55e 973d 5c05 c23d 0617 a5bd
00000100: 9e6c 5abd 242a 083e e3bf cabd 694c 2e3d
00000110: fb25 cebc 7823 43bd c29a e33c 43b5 973d
00000120: 233d 3d3d 01ad b93d 92f5 4fbd fe5d 6b3b
00000130: fbf4 fb3d b3db 46bd e0d4 e7bd 7c6c f33d
00000140: 74e8 b63d b3a7 d33d 4037 2539 b726 e93c
00000150: a3bd 4fbd 6e61 5cbd 0307 e4bd 0acc 663d
00000160: 41fd b1bd 615a ef3c 976a ebbb 0698 acbd
00000170: 9f35 e13d 71cb 97bd 9c37 eebd 9e65 a6bc
00000180: 25c8 313d 56df ce3d d79f eb3c 87d4 393a
00000190: 3608 93bc 3670 f8bd fedc 93bd 9c76 853d
000001a0: c883 503d e654 d73d 0d50 a83d 273d 183c
000001b0: 0915 22bd bb70 833d bb5e 063e e3ce 803d
000001c0: 53b3 9ebb 9901 abbd 0627 d43d 4695 893c
000001d0: 44b6 ffbc cce2 ca3d 3430 d43d b6e3 adbc
000001e0: 518d 013e 6181 b03b e3ca 853d 11be e4bc
000001f0: 7bb5 abbd 7bb0 ed3d 131a 01be fbe4 703d
00000200: 333a bdbd bf5f ab3d 00a9 023e de23 163c
00000210: 3a48 8d3d 8447 9b3d 90d8 a3bd 20fb 62bd
00000220: 371b 2e3d 55bb e33c e414 ccbd f465 1b3c
00000230: b81f 58bd 7c45 dc3d 3f01 c7bc 5457 febd
00000240: c6eb d03d 9555 b43d f92d 42bd 3b56 653d
00000250: fde3 c83d 3f15 d6bd 4c19 c0bd fb94 50bd
00000260: 5e2b b8bb 5185 28bd 9e5e a93d f84e d1bd
00000270: bd7e 87bd c9ef 12bd cca3 99bd 7cec bc3c
00000280: 2f53 d6bc a69e d23c 4721 ca3c 4ede 03be
00000290: 8c22 ccbd d17e 803d f903 a73d ad1e 79bd
000002a0: f7fc 3abd 3986 023e fcd6 773b 9faf a43d
000002b0: 1afb 6e3d 658b 10be 7fb0 b13d 0185 b8bd
000002c0: 06de 593d a1a2 193c eda7 1b3d 2161 96bd
000002d0: 1f51 64bd 858b 2f3d 079f b93c eb08 3f3d
000002e0: fb31 99bd 3064 6abd 7447 c03c debb 8b3d
000002f0: d23c 3d3d 3fec 723d 9ca4 903d b01b ec3d
00000300: 3a6c ba3d da1b 4cbc 808f c6bd 1138 b4bc
00000310: 44ac 463d d17a aabd bd5f 013e d7ea 733d
00000320: 8b34 8dbd 2ba8 55bb 3462 d43c fcdd 3339
00000330: 4673 0d3e 9cd8 3f3c ce0b 81bd 2d25 d43d
00000340: 91eb 553d 454f a13d cd7b 123d 385b 95bc
00000350: 4941 a63d b67c 033e 1af0 03be 3ac8 953d
00000360: 6b68 263c 9e8e 103e a032 c33c 079e ac3d
00000370: ead3 2c3d 2c0b cabd 1eec 1c3d b012 003e
00000380: 1231 ec3d cee2 103d f0cf 773c aa21 de3c
00000390: 78af a83d 67eb ed3b bb2d e73d 43e5 243d
000003a0: dfad 97bc 087e a93d 5f5c 04bc 491b 023e
000003b0: 1cca 0e3e c499 71bd 729e 48bb 24d1 54bd
000003c0: 2a01 ce3d 5e99 fabc 1e0f 08be 1f44 9f3d
000003d0: 0a5d c93d 4823 f7bd e925 e83d c771 4e3d
000003e0: ad39 89bd fa91 3d3d 4337 113e 44d2 56bd
000003f0: 144b cabc 845c d03d 8aed cb3d 4c98 793d

cells.1.h2h.weight f4 [256, 64]
0.07317178 -0.08733592 0.03399818 -0.0053496906 0.08803395 0.11199461 0.06260677 0.034189448
0.01709469 -0.035784215 -0.042308416 0.080853224 -0.031650793 0.08060485 0.09701967 -0.062453173
-0.10746655 -0.069395944 -0.111317605 0.1018982 -0.044115815 -0.041671265 0.06479195 0.086152956
0.026415404 0.047378205 0.016913448 -0.101398826 0.1050944 0.025620757 0.10360705 -0.10967456
-0.019793808 -0.06979619 -0.039541006 -0.046669845 -0.12284174 0.021612253 0.077547565 0.0048873695
-0.11943541 -0.0049974797 0.09277854 0.112518154 -0.061484393 0.025790775 -0.02785234 0.063172095
-0.044917434 -0.11911302 0.02814185 0.020288987 0.054340325 0.13135926 -0.07587499 -0.11673538
0.031218642 -0.07913374 -0.026164426 -0.05821505 -0.0022331825 0.08066934 -0.030127496 0.05063963
0.18050206 -0.083366744 -0.04327069 -0.06545758 0.032110658 0.03731465 0.085050106 0.08928043
0.056678303 0.061448675 0.069389425 -0.074088834 0.092552416 0.09202925 -0.09900437 -0.07112228
-0.061714824 -0.019056689 -0.015301756 0.048773017 0.016872354 -0.10224273 0.11158694 -0.005077175
0.07479193 0.10722352 0.06125851 0.00095022505 -0.089051664 0.056738835 0.0023825672 -0.088170044
-0.078828186 -0.14320244 -0.05072123 0.010834421 0.07226866 -0.054615226 -0.025828945 -0.05340426
-0.064440474 0.062411305 0.06760934 0.10964801 0.13138933 -0.075101756 -0.08816425 -0.03388023
0.04639074 0.04222781 0.060981654 0.06073312 0.04143761 0.053371556 -0.016868569 0.09913059
-0.05923956 0.09511995 -0.11902255 -0.09065734 -0.0027319642 -0.021834001 -0.046315465 -0.10359609
-0.031362623 -0.035157792 0.13070963 -0.023166269 -0.0701135 -0.106226884 0.049007602 0.12331757
0.061275087 -0.09474357 0.11628651 -0.0904425 -0.008692732 -0.106008045 -0.08762607 -0.08195227
-0.015170903 0.08647474 -0.08673357 -0.08051143 0.06754115 -0.11021353 0.12755455 0.099510595
0.10233017 0.074114464 -0.102198996 0.0048149005 0.025789512 0.10349177 0.08062494 -0.017552715
0.030482639 -0.05922081 -0.080374 -0.10723118 0.0867653 0.06011784 0.06251612 0.016781915
0.08290117 -0.03382894 0.04639741 0.1345808 0.19142963 -0.092593715 -0.07926391 0.018481122
-0.07595504 0.04708159 0.06143125 -0.056677688 -0.054432362 0.038150206 -0.15821064 0.11148679
-0.07534197 0.124258384 -0.065214515 -0.012443743 -0.082121074 0.09240244 -0.06013626 0.037968066
-0.0111256065 0.00963974 -0.013595409 -0.05064616 0.06830259 -0.100898854 0.06375314 -0.010066713
0.033336397 -0.10172501 0.096952416 -0.059737556 0.017820682 -0.045246914 -0.012853403 0.027790496
0.08862943 -0.075690426 0.016058667 0.039936464 0.10204028 -0.11001023 0.08737481 0.09409174
0.09039479 -0.0446973 -0.07414394 0.107267976 -0.006314735 0.063756846 0.08985225 0.073672555
-0.009311412 -0.0047605745 0.0055775014 0.035584167 0.060735893 -0.083878934 -0.07211211 0.08407827
0.012109158 0.061893143 -0.014873597 -0.031707007 0.101198584 0.03384947 -0.001945074 0.059332527
-0.048903745 0.12511256 -0.0008189349 0.035476595 -0.10029177 -0.018174967 -0.08410815 0.04143657
-0.055429157 0.10489955 -0.1118579 -0.038002096 0.04885488 -0.023364756 0.0045577865 -0.0068497797
00000000: 16db 953d 2ddd b2bd ad41 0b3d 754c afbb
00000010: 254b b43d 6e5d e53d fa37 803d 3c0a 0c3d
00000020: 2a0a 8c3c 7892 12bd 974b 2dbd 6096 a53d
00000030: 43a4 01bd 2814 a53d 40b2 c63d e6ce 7fbd
00000040: 6c17 dcbd 761f 8ebd 7cfa e3bd 01b0 d03d
00000050: c9b2 34bd 7daf 2abd a4b1 843d f670 b03d
00000060: 1e65 d83c a60f 423d 128e 8a3c 30aa cfbd
00000070: bc3b d73d 9fe2 d13c ef2f d43d 0e9d e0bd
00000080: a026 a2bc 4ef1 8ebd c0f5 21bd e128 3fbd
00000090: 7394 fbbd 2e0c b13c 42d1 9e3d 3a26 a03b
000000a0: 8d9a f4bd e6c1 a3bb ad02 be3d eb6f e63d
000000b0: 0fd7 7bbd 2d47 d33c 972a e4bc 5f60 813d
000000c0: 58fb 37bd 87f1 f3bd bd89 e63c 1735 a63c
000000d0: f693 5e3d 0b83 063e 5964 9bbd f512 efbd
000000e0: 3dbe ff3c df10 a2bd c756 d6bc e772 6ebd
000000f0: 965a 12bb f835 a53d f0cd f6bc 806b 4f3d
00000100: 88d5 383e 2fbc aabd 9b3c 31bd a00e 86bd
00000110: 7786 033d 3fd7 183d c02e ae3d a8d8 b63d
00000120: 8227 683d 9bb1 7b3d 0b1c 8e3d e3bb 97bd
00000130: 1f8c bd3d d579 bc3d cec2 cabd 8fa8 91bd
00000140: afc8 7cbd c61c 9cbc 37b4 7abc 37c6 473d
00000150: e437 8a3c a364 d1bd b287 e43d 6e5e a6bb
00000160: 832c 993d 0198 db3d 34ea 7a3d 8618 793a
00000170: b860 b6bd fb66 683d d824 1c3b 7f92 b4bd
00000180: ac70 a1bd a9a3 12be 11c1 4fbd db82 313c
00000190: 9701 943d 37b4 5fbd 3997 d3bc 6dbe 5abd
000001a0: 5ef9 83bd ffa2 7f3d c476 8a3d 238f e03d
000001b0: ed8a 063e f3ce 99bd 758f b4bd ffc5 0abd
000001c0: 3704 3e3d 11f7 2c3d e6c7 793d 4bc3 783d
000001d0: 7cba 293d 229c 5a3d f42f 8abc fb04 cb3d
000001e0: 2ea5 72bd 40ce c23d 18c2 f3bd 8eaa b9bd
000001f0: c10a 33bb 38dd b2bc 49b5 3dbd 302a d4bd
00000200: 1876 00bd 9e01 10bd bfd8 053e 30c7 bdbc
00000210: ab97 8fbd 7b8d d9bd 32bc 483d ec8d fc3d
00000220: 96fb 7a3d eb08 c2bd 9f27 ee3d eb39 b9bd
00000230: f66b 0ebc bf1a d9bd 4c75 b3bd 97d6 a7bd
00000240: 618f 78bc ab19 b13d 5fa1 b1bd 2de3 a4bd
00000250: 0453 8a3d a2b7 e1bd a99d 023e 36cc cb3d
00000260: 7b92 d13d 53c9 973d b54d d1bd 50c6 9d3b
00000270: 8744 d33c 7ef3 d33d b01e a53d b6ca 8fbc
00000280: bab6 f93c 8591 72bd 209b a4bd 059c dbbd
00000290: 01b2 b13d 203e 763d 7408 803d 3a7a 893c
000002a0: 17c8 a93d 3790 0abd 360b 3e3d 8dcf 093e
000002b0: 2106 443e c6a1 bdbd 1e55 a2bd b965 973c
000002c0: 518e 9bbd a0d8 403d 569f 7b3d dd26 68bd
000002d0: 78f4 5ebd 6443 1c3d f801 22be 3053 e43d
000002e0: e44c 9abd 2e7b fe3d 308f 85bd d7e0 4bbc
000002f0: 182f a8bd 7e3d bd3d 7051 76bd 6784 1b3d
00000300: 2d48 36bc 00f0 1d3c 47bf 5ebc 5972 4fbd
00000310: 3ae2 8b3d 0fa4 cebd 0291 823d dbee 24bc
00000320: bf8b 083d 3455 d0bd fd8e c63d 5eaf 74bd
00000330: aefc 913c d454 39bd 1497 52bc e5a8 e33c
00000340: 5983 b53d 9503 9bbd 778d 833c 6b94 233d
00000350: 7ffa d03d 0b4d e1bd 90f1 b23d 2cb3 c03d
00000360: e720 b93d 8414 37bd c7d8 97bd 50af db3d
00000370: d6eb cebb f392 823d 7504 b83d a3e1 963d
00000380: e58e 18bc 98fe 9bbb 79c3 b63b b4c0 113d
00000390: 33c6 783d b8c8 abbd 84af 93bd 3a31 ac3d
000003a0: 7d65 463c aa83 7d3d 63b0 73bc 35df 01bd
000003b0: 3441 cf3d bea5 0a3d daf1 feba aa06 733d
000003c0: 4b4f 48bd 821d 003e caad 56ba e84f 113d
000003d0: c665 cdbd abe3 94bc e540 acbd 65b9 293d
000003e0: af09 63bd 93d5 d63d c115 e5bd 16a8 1bbd
000003f0: 0e1c 483d 7267 bfbc 7c59 953b 1e74 e0bb

cells.1.h2h.bias f4 [256]
-0.050555237 0.030474192 0.123662315 -0.08168288 -0.10291714 -0.004676551 0.08976014 0.065186895
-0.06741209 0.023165278 -0.06272941 0.12598303 0.08135789 0.093158826 0.11457565 -0.09974879
0.04217426 -0.01041346 0.10095066 0.022236692 0.03547053 0.04910413 0.030345712 0.048953835
0.076471545 -0.04630231 -0.07853512 -0.054901313 -0.080562904 0.108652115 0.12513569 0.032425683
0.052427374 -0.10987244 -0.044280782 -0.08060954 -0.05864161 -0.11350934 0.10313857 0.077018715
0.02178423 -0.090386726 0.05823403 0.0956146 0.045656115 -0.06892095 0.116345756 0.02377559
0.08968367 -0.021923665 -0.05053564 -0.098684445 0.069663905 0.034979116 0.09076282 0.058630325
-0.07222595 0.09089406 -0.00879046 0.04702863 0.09703462 0.11425475 -0.052945897 -0.029723708
0.12211653 0.012459368 -0.09672067 0.016201502 0.12227566 0.07788848 0.04311761 -0.034908984
0.12838505 -0.0049758125 0.099965036 0.059931904 0.13773763 -0.090029255 0.13206437 0.11076939
0.07116215 0.13951574 0.13831222 -0.11267202 -0.0281144 -0.021786299 0.12471213 -0.0030160106
0.13137908 0.054015093 0.08958526 0.015990945 0.092722915 0.0015852564 -0.08380622 -0.05290669
0.023374364 0.11665751 -0.036945786 0.08023766 -0.059714515 -0.12822634 -0.05211103 -0.030862529
0.13336267 -0.037702166 -0.021536965 -0.05445994 -0.017771104 0.02666003 0.06958557 -0.07134935
0.017867122 0.082897894 0.09327912 0.07257355 -0.07359797 0.11079767 0.13089792 -0.0658681
-0.05010137 0.0323666 0.062904716 0.07277201 0.01845384 0.047885615 0.06399313 -0.10778002
-0.046844825 0.04894728 -0.018739156 -0.06048835 0.009763541 0.029455386 -0.12627986 0.0006139616
-0.07205813 -0.1058633 -0.00020701997 -0.08983061 -0.100319296 -0.0035931496 0.051871132 -0.044608075
-0.10672265 -0.070923604 0.13627616 -0.06291007 0.027645016 -0.12676735 -0.073474064 0.0012299086
-0.004816648 -0.14547093 0.039372087 0.021141535 -0.008310003 0.06393588 0.0716808 -0.11930163
0.08113855 -0.07356829 0.057316355 0.03689347 0.01184004 0.09327388 0.09922003 0.083049096
0.043239113 0.066817366 0.043014895 -0.08673421 0.029218914 -0.07297328 0.123558186 0.11085457
-0.045622833 0.009656132 0.075821176 -0.016651683 0.062573366 0.054728437 0.112645626 0.10157685
-0.024379555 0.008606237 -0.06290522 -0.05602744 -0.02566373 0.089151874 -0.082636885 -0.08056356
0.105039716 -0.10527747 -0.043702994 0.046430804 0.0150106335 -0.016783183 0.08776479 0.1267162
-0.050912008 -0.040890023 0.04042513 -0.10005075 -0.030851098 -0.07208987 0.0046236394 0.07566654
0.025500692 -0.08275338 0.013703292 -0.024553811 -0.08795322 -0.047832225 -0.018735617 0.0066893524
0.058120143 0.095684804 -0.055872034 0.021164678 0.11362628 0.08956444 -0.103890896 0.044061612
0.0039412635 -0.10036084 -0.111038305 -0.03847419 0.10587314 -0.041027464 0.11656553 0.10647508
-0.09286596 -0.08644232 -0.01313288 0.06807126 -0.09104032 0.09477167 0.03315782 -0.019126104
-0.011334499 -0.09554977 -0.13627668 0.10952339 -0.116676584 0.021170499 -0.07958216 -0.06681156
0.013946651 0.03287172 0.06566982 -0.09099408 -0.08600966 -0.045389384 -0.01497994 0.051460974
00000000: 0213 4fbd 03a5 f93c ab42 fd3d 5b49 a7bd
00000010: 39c6 d2bd c13d 99bb 2ad4 b73d b580 853d
00000020: 5a0f 8abd 1cc5 bd3c 4778 80bd b201 013e
00000030: f79e a63d 0eca be3d a3a6 ea3d 1849 ccbd
00000040: ebbe 2c3d 389d 2abc 38bf ce3d b929 b63c
00000050: 8c49 113d 6a21 493d 9297 f83c d183 483d
00000060: 1d9d 9c3d 7ea7 3dbd 05d7 a0bd 33e0 60bd
00000070: 2afe a4bd 0085 de3d 9223 003e cbd0 043d
00000080: 16be 563d cd04 e1bd c45f 35bd 9d16 a5bd
00000090: 2f32 70bd 9677 e8bd 513a d33d fdbb 9d3d
000000a0: d774 b23c ad1c b9bd ce86 6e3d 96d1 c33d
000000b0: e801 3b3d 6d26 8dbd af46 ee3d 07c5 c23c
000000c0: 12ac b73d 4299 b3bc 76fe 4ebd 121b cabd
000000d0: f3ab 8e3d 4346 0f3d dbe1 b93d 5a26 703d
000000e0: 33eb 93bd aa26 ba3d dd05 10bc 18a1 403d
000000f0: 16ba c63d 65fe e93d ccdd 58bd 227f f3bc
00000100: 3b18 fa3d 6122 4c3c 7d15 c6bd 03b9 843c
00000110: a96b fa3d ff83 9f3d 179c 303d b9fc 0ebd
00000120: 5f77 033e 240c a3bb 78ba cc3d 287b 753d
00000130: 180b 0d3e 4261 b8bd e23b 073e 10db e23d
00000140: 76bd 913d 37dd 0e3e b8a1 0d3e 97c0 e6bd
00000150: 2c50 e6bc 2e79 b2bc 1369 ff3d 43a8 45bb
00000160: 3d88 063e ee3e 5d3d 7a78 b73d 71ff 823c
00000170: 83e5 bd3d 61c8 cf3a 98a2 abbd afb4 58bd
00000180: 987b bf3c 22ea ee3d 7754 17bd a453 a43d
00000190: 3597 74bd c44d 03be 6072 55bd 6ad3 fcbc
000001a0: 3990 083e 966d 1abd 4a6e b0bc 6311 5fbd
000001b0: b594 91bc 2366 da3c e182 8e3d 9c1f 92bd
000001c0: 125e 923c 5fc6 a93d 2009 bf3d 71a1 943d
000001d0: 88ba 96bd e4e9 e23d 1b0a 063e dbe5 86bd
000001e0: 1837 4dbd d792 043d 30d4 803d 7e09 953d
000001f0: 822c 973c b523 443d d50e 833d c5bb dcbd
00000200: 5ce0 3fbd f17c 483d dc82 99bc a2c2 77bd
00000210: 42f7 1f3c 6c4c f13c 824f 01be 44f2 203a
00000220: 3693 93bd dcce d8bd 8013 59b9 1cf9 b7bd
00000230: 3474 cdbd 0c7b 6bbb d376 543d f5b6 36bd
00000240: 6891 dabd 6540 91bd fa8b 0b3e ffd6 80bd
00000250: cd77 e23c 4dcf 01be 9279 96bd e234 a13a
00000260: f9d4 9dbb 55f6 14be a044 213d 0331 ad3c
00000270: ae26 08bc d1f0 823d 62cd 923d 6a54 f4bd
00000280: f82b a63d f9aa 96bd 8ec4 6a3d 9b1d 173d
00000290: bafc 413c 6006 bf3d df33 cb3d a515 aa3d
000002a0: 7f1b 313d 8bd7 883d 6330 303d b5a1 b1bd
000002b0: 815c ef3c 0473 95bd 130c fd3d b907 e33d
000002c0: 02df 3abd c134 1e3c 2248 9b3d 1c69 88bc
000002d0: 7726 803d ed2a 603d c0b2 e63d 8607 d03d
000002e0: a2b7 c7bc 2d01 0d3c 74d4 80bd 077d 65bd
000002f0: be3c d2bc 4295 b63d 873d a9bd 82fe a4bd
00000300: 101f d73d b79b d7bd e901 33bd 3a2e 3e3d
00000310: 29ef 753c e37c 89bc 07be b33d e4c1 013e
00000320: 1c89 50bd 4c7c 27bd d294 253d 68e7 ccbd
00000330: 71bb fcbc dba3 93bd e681 973b 0ff7 9a3d
00000340: d4e6 d03c 9b7a a9bd c683 603c 1325 c9bc
00000350: d120 b4bd b9eb 43bd 707b 99bc 5b32 db3b
00000360: 630f 6e3d 65f6 c33d 13da 64bd 8c61 ad3c
00000370: e5b4 e83d 906d b73d c0c4 d4bd f379 343d
00000380: b725 813b fc89 cdbd 0d68 e3bd 1d97 1dbd
00000390: 04d4 d83d 6a0c 28bd e9b9 ee3d 9b0f da3d
000003a0: 8230 bebd ac08 b1bd 4b2b 57bc f268 8b3d
000003b0: 5973 babd a617 c23d 7fd0 073d 59ae 9cbc
000003c0: 56b4 39bc 99af c3bd 1d8c 0bbe cd4d e03d
000003d0: 22f4 eebd c16d ad3c f9fb a2bd 80d4 88bd
000003e0: 7e80 643c 7fa4 063d e67d 863d 1b5b babd
000003f0: d525 b0bd 38ea 39bd 6c6e 75bc bec8 523d
