model_group/models_group_demand/LSTM_model_MANHATTAN_WEST END AVENUE.pth (torch, 351198 bytes, 17 tensors)

input_projection.weight f4 [2, 2]
0.5767242 0.16675156 0.54765224 -0.28477818
00000000: 32a4 133f ecc0 2a3e f032 0c3f 72ce 91be

input_projection.bias f4 [2]
-0.6987378 0.2126088
00000000: 7be0 32bf 1fb6 593e

cells.0.x2h.weight f4 [256, 2]
0.03308643 0.032255743 0.42233902 -0.56431085 -0.31143424 0.07895173 -0.5958655 -0.37109485
-0.6839444 -0.59399486 -0.7660334 -0.47848684 -0.7277542 -0.5525368 0.73021364 0.7637826
0.45614448 0.64482117 -0.37009495 -0.32506478 -0.09165085 -0.33362472 0.094299816 -0.047353797
0.2561834 -0.47324148 -0.5150797 0.3927423 0.46341267 -0.06066165 0.10175094 0.32304028
-0.11088623 0.2978475 0.25350192 0.2775466 0.3738999 0.21435861 -0.35437056 -0.02682725
0.67264533 -0.5590168 -0.019739982 -0.35257274 0.5238525 0.67159945 0.3141028 0.17388354
-0.16514502 0.4411759 -0.24987428 -0.11891441 0.36228213 -0.6048195 -0.44735304 0.02846969
-0.6601906 -0.35463274 0.51871705 -0.2584587 -0.69994485 -0.10064795 0.0018136944 -0.638127
0.6215887 -0.5477667 -0.010329298 -0.3863984 0.04860479 0.476481 -0.19630359 -0.40840816
0.1348674 0.4949544 0.019743042 0.26708102 -0.4862581 0.59058785 0.0939392 0.8236133
0.6499192 -0.68494284 0.7151418 0.23467506 0.71461946 -0.16882816 0.48339805 -0.15441118
0.024147488 -0.6377496 0.56946474 -0.6726255 0.35471463 -0.008759747 0.11447331 0.30509672
0.24627373 0.7217701 0.513173 0.57213694 0.39480644 0.2729067 0.5381201 0.6580282
0.060486656 -0.32829344 0.2822231 -0.5668806 0.04591896 -0.18341324 -0.8890866 -0.30989507
0.16487688 -0.19325392 -0.3826796 0.4099943 -0.0022709423 0.4334958 -0.31893778 -0.5914723
-0.19372347 -0.59665936 0.5303202 0.2581139 -0.08271176 -0.2275721 -0.6717782 -0.44653863
-0.3277193 -0.3194551 0.4466334 -0.57866544 0.664025 0.07811216 -0.5920457 0.12981698
0.061999585 -0.1889491 0.059065837 -0.5429878 0.6159528 0.5207018 -0.47061098 0.24109855
0.42411682 -0.17389572 -0.48154333 -0.3920847 -0.365935 -0.5014005 -0.6049673 -0.375385
-0.41426834 0.45144624 -0.29965764 -0.41103408 0.57172614 -0.3823824 -0.4848619 0.4354525
0.36466905 0.23340169 -0.46385342 -0.20934042 -0.53641284 -0.010480551 -0.3113781 0.37374234
0.4685379 -0.3793423 0.17711419 0.048513282 0.20460634 0.46275547 0.6343594 0.56786615
0.13041084 0.047199517 -0.3347095 0.2652624 0.67014796 0.14428143 -0.4618556 0.48029622
0.07623729 -0.37282467 -0.56619984 -0.20961261 0.5387377 0.23447287 0.18464492 0.5086391
0.015944347 -0.24548665 -0.22613178 0.3735687 0.6451623 -0.012400592 -0.07654651 -0.44809315
-0.24610619 -0.011187726 -0.6116848 -0.45458907 0.72349036 -0.59508777 0.10386237 0.2681778
-0.5531744 0.6642295 0.68470037 0.38064602 0.44872504 -0.51877725 -0.27660042 -0.4282879
0.15602966 -0.30232614 -0.32113454 0.6411949 0.43235433 0.6369514 -0.76694953 -0.32303637
-0.27225327 0.48030332 0.13003692 -0.23105195 -0.46809232 -0.25730345 0.19003841 0.4855834
0.69446653 -0.24426453 0.5001058 -0.33006203 -0.15195738 0.32378533 -0.9057317 0.18446276
-0.205037 0.0573992 -0.5270562 0.26390493 -0.6189397 0.6220778 0.09279306 -0.7710538
-0.660176 -0.41364765 0.2684418 0.055896968 -0.12818024 0.30973932 -0.54174525 -0.4778282
00000000: a385 073d 991e 043d d23c d83e ad76 10bf
00000010: 4f74 9fbe 72b1 a13d a48a 18bf 2500 bebe
00000020: fb16 2fbf 0c10 18bf c41a 44bf 3afc f4be
00000030: 194e 3abf 0d73 0dbf 48ef 3a3f 4287 433f
00000040: c58b e93e 0013 253f 167d bdbe e46e a6be
00000050: 71b3 bbbd dcd0 aabe 4320 c13d 0ef6 41bd
00000060: 782a 833e b54c f2be 43dc 03bf 8515 c93e
00000070: 6d44 ed3e 5a78 78bd cc62 d03d 8965 a53e
00000080: 5218 e3bd 787f 983e 01cb 813e 971a 8e3e
00000090: cf6f bf3e d380 5b3e 0f70 b5be d2c4 dbbc
000000a0: 7c32 2c3f ba1b 0fbf beb5 a1bc 6a84 b4be
000000b0: 331b 063f f1ed 2b3f 15d2 a03e 870e 323e
000000c0: c71b 29be cfe1 e13e 0bdf 7fbe 6689 f3bd
000000d0: 0b7d b93e 73d5 1abf 750b e5be 4439 e93c
000000e0: 4002 29bf 6c92 b5be a4ca 043f b354 84be
000000f0: 962f 33bf 8320 cebd 7cb9 ed3a 4b5c 23bf
00000100: 7020 1f3f 703a 0cbf 373c 29bc 03d6 c5be
00000110: d115 473d 51f5 f33e cf03 49be e01a d1be
00000120: ae1a 0a3e aa6a fd3e 29bc a13c d8be 883e
00000130: d2f6 f8be c430 173f 3263 c03d 52d8 523f
00000140: 1b61 263f 6a58 2fbf 8813 373f a94e 703e
00000150: 4df1 363f 4ae1 2cbe f37f f73e f71d 1ebe
00000160: f4d0 c53c 8f43 23bf 71c8 113f 2f31 2cbf
00000170: 289d b53e 0b85 0fbc fc70 ea3d a335 9c3e
00000180: 2e2f 7c3e edc5 383f 4e5f 033f 9177 123f
00000190: 1224 ca3e 6dba 8b3e 3dc2 093f 8974 283f
000001a0: dbc0 773d 1416 a8be 8c7f 903e 161f 11bf
000001b0: 8515 3c3d aed0 3bbe 2e9b 63bf 91aa 9ebe
000001c0: 7cd5 283e 5be4 45be 95ee c3be c6ea d13e
000001d0: 17d4 14bb 29f3 dd3e d04b a3be bb6a 17bf
000001e0: 725f 46be abbe 18bf 11c3 073f 8127 843e
000001f0: c964 a9bd a908 69be a8f9 2bbf b6a0 e4be
00000200: d3ca a7be 9e8f a3be 22ad e43e 6b23 14bf
00000210: 8bfd 293f 45f9 9f3d 4f90 17bf beee 043e
00000220: 47f3 7d3d df7b 41be 05ef 713d 4001 0bbf
00000230: 15af 1d3f b74c 053f ecf3 f0be 8ae2 763e
00000240: d725 d93e b811 32be d98c f6be 53bf c8be
00000250: d55b bbbe c85b 00bf 23df 1abf 7632 c0be
00000260: fb1a d4be f623 e73e ba6c 99be 0f73 d2be
00000270: a55c 123f a0c7 c3be d23f f8be a1f3 de3e
00000280: e7b5 ba3e da00 6f3e 327e edbe 565d 56be
00000290: 5a52 09bf 9eb6 2bbc f36c 9fbe 285b bf3e
000002a0: 33e4 ef3e 2739 c2be 6c5d 353e ddb5 463d
000002b0: 5384 513e 49ee ec3e 6165 223f ad5f 113f
000002c0: 6b8a 053e 4854 413d 0b5f abbe 79d0 873e
000002d0: d18e 2b3f 83be 133e 5678 ecbe 63e9 f53e
000002e0: 4c22 9c3d e0e2 bebe 79f2 10bf b0a4 56be
000002f0: b7ea 093f a819 703e 8f13 3d3e 2c36 023f
00000300: b89d 823c da60 7bbe 178f 67be 6644 bf3e
00000310: 5b29 253f da2b 4bbc 6bc4 9cbd 776c e5be
00000320: 4303 7cbe b94c 37bc 6097 1cbf e6bf e8be
00000330: aa36 393f ac57 18bf cbb5 d43d 9a4e 893e
00000340: d69c 0dbf f20a 2a3f 8648 2f3f 09e4 c23e
00000350: 4abf e53e 96ce 04bf 929e 8dbe 8d48 dbbe
00000360: 3dc6 1f3e 7eca 9abe bf6b a4be 5925 243f
00000370: 8c5d dd3e 3f0f 233f ce56 44bf 0665 a5be
00000380: c864 8bbe 51ea f53e 6628 053e e298 6cbe
00000390: cca9 efbe 47bd 83be 6e99 423e 639e f83e
000003a0: 8fc8 313f 7b20 7abe ef06 003f e4fd a8be
000003b0: b79a 1bbe 31c7 a53e 08de 67bf cee3 3c3e
000003c0: 38f5 51be 6c1b 6b3d 28ed 06bf 8c1e 873e
000003d0: d572 1ebf 7e40 1f3f 4a0a be3d c863 45bf
000003e0: 4b01 29bf a0c9 d3be 3471 893e 38f4 643d
000003f0: ae41 03be 2796 9e3e d1af 0abf e6a5 f4be

cells.0.x2h.bias f4 [256]
-0.21410523 0.07530617 0.005398304 -0.3350007 0.25223434 0.4580677 -0.557599 0.031020802
0.43937966 0.66239333 -0.4342587 -0.47507143 0.6553165 0.12779845 0.20464155 0.33364597
0.5215551 -0.27877146 0.6945918 0.65482116 -0.28220642 -0.43040827 -0.17034845 -0.2233124
-0.375543 0.7175695 0.41456145 0.38250473 0.411407 -0.092003986 0.59534734 0.36934212
0.44685027 0.15979236 0.24709463 -0.63707376 -0.435842 0.49586275 -0.0833575 -0.4708988
0.2870719 0.5274271 0.029611202 0.7547321 -0.04084273 0.39218146 -0.52184564 -0.23113127
0.19596669 -0.21041694 0.614406 0.33048347 0.11675825 -0.62543726 0.23292163 0.2037683
-0.092499174 -0.029846262 -0.6466857 0.44008428 0.44157392 -0.5863613 0.23016146 0.43256533
0.53277016 -0.012617592 0.32020977 -0.67132586 -0.052013703 0.24425252 0.6480587 -0.21782973
0.4618282 -0.24890044 0.15459521 -0.10288847 -0.3630543 -0.1840204 -0.2666103 0.37542334
-0.5350632 -0.09533439 0.06051401 -0.11273043 0.6007802 0.3241155 -0.18259571 -0.4452394
0.07270802 0.68962735 0.48413917 0.24182148 0.25657073 -0.37833634 -0.47276834 0.4513194
0.1885417 0.24286051 -0.42285237 -0.004161281 0.36851844 0.4139167 -0.58014005 -0.017436607
-0.28197396 0.09136419 -0.36580905 0.66809124 0.11014574 0.50004685 0.41097635 0.33998394
0.69400346 -0.32647288 -0.5593814 0.06663692 0.6588606 -0.21620536 0.005203937 0.23097588
0.5221142 0.56188244 -0.20898527 0.014521812 0.22550558 -0.06398406 0.45341632 -0.7130916
0.38718867 0.55094004 -0.08092504 0.09768097 -0.47329146 0.54677206 -0.24270543 -0.49217314
-0.22064385 0.4038646 -0.3848666 -0.56542826 -0.70001346 -0.30931222 0.07933394 0.15452155
-0.031282414 0.15820622 0.17771615 0.27600202 0.3906992 -0.4195603 0.46139795 -0.65868074
0.4490483 -0.08499911 0.20554614 0.24617991 -0.3865926 0.54255843 0.20162638 -0.2819687
-0.2516606 0.058475785 0.6409211 0.37505466 0.28543094 0.68628174 -0.25455457 -0.20144732
0.12556212 -0.50926113 -0.20482978 -0.32731968 -0.19722375 0.038646292 -0.5085703 0.28796175
0.30078578 -0.17169583 -0.05508546 -0.32803968 -0.21737185 -0.43051085 0.34919482 -0.5863483
-0.6199361 0.1984835 -0.0077298037 -0.33176675 -0.23865087 0.00787688 -0.5341773 -0.5281503
-0.44342163 0.6073133 0.60804564 -0.08413206 -0.5890852 -0.057252478 0.258821 -0.16586934
0.24646889 -0.18490052 -0.3522129 0.16439636 -0.5647236 0.011327293 -0.67998236 -0.346488
0.60278285 0.2611906 0.2398323 -0.15230988 0.24809286 -0.088473506 -0.5799993 0.55405325
-0.01103219 -0.50539714 -0.67779356 -0.6433202 0.4288257 -0.4055185 0.67900723 -0.16239679
-0.4135635 0.26845616 -0.14084595 0.31702855 -0.59403634 0.569963 0.08261053 -0.27930722
0.18990691 0.6358737 0.676267 -0.10064648 0.4690361 -0.2674519 0.06455077 0.13735795
0.018754538 -0.45354685 -0.42161825 -0.019360214 -0.101670235 -0.002462233 0.49019226 -0.43935537
0.52061486 -0.021024488 -0.5639898 0.5543093 0.37354615 0.37548298 -0.5235803 -0.503015
00000000: 673e 5bbe 1f3a 9a3d 42e4 b03b 3685 abbe
00000010: dc24 813e d987 ea3e cfbe 0ebf 561f fe3c
00000020: 5ff6 e03e 9c92 293f 2857 debe 903c f3be
00000030: d2c2 273f 99dd 023e 8e8d 513e a5d3 aa3e
00000040: a384 053f 22bb 8ebe c5d0 313f 5ca2 273f
00000050: 5c7d 90be 795e dcbe d36f 2ebe 01ac 64be
00000060: 2c47 c0be a2b2 373f 6641 d43e a9d7 c33e
00000070: f0a3 d23e 966c bcbd af68 183f 691a bd3e
00000080: 8fc9 e43e 9ca0 233e 6006 7d3e 4417 23bf
00000090: af26 dfbe b9e1 fd3e 56b7 aabd a619 f1be
000000a0: 17fb 923e 7605 073f 3193 f23c 1f36 413f
000000b0: b54a 27bd 02cc c83e ad97 05bf adad 6cbe
000000c0: 7eab 483e 8a77 57be b649 1d3f 2135 a93e
000000d0: f31e ef3d a81c 20bf 0283 6e3e a3a8 503e
000000e0: 3570 bdbd 2680 f4bc 328d 25bf ba52 e13e
000000f0: fa15 e23e c61b 16bf 72af 6b3e 3479 dd3e
00000100: a063 083f 04ba 4ebc 89f2 a33e 03dc 2bbf
00000110: 520c 55bd 551d 7a3e 2de7 253f c20e 5fbe
00000120: bf74 ec3e c2df 7ebe 354e 1e3e 31b7 d2bd
00000130: 41e2 b9be d86f 3cbe 2581 88be 7d37 c03e
00000140: e7f9 08bf ad3e c3bd 8add 773d 36df e6bd
00000150: bbcc 193f 78f2 a53e 5ffa 3abe 6bf6 e3be
00000160: f1e7 943d 6b8b 303f 17e1 f73e 0da0 773e
00000170: 3d5d 833e 4db5 c1be b10e f2be 5613 e73e
00000180: 1311 413e 6db0 783e 1b80 d8be 5b5b 88bb
00000190: 73ae bc3e e4ec d33e 0f84 14bf 37d7 8ebc
000001a0: e45e 90be 261d bb3d 534b bbbe 0708 2b3f
000001b0: 1794 e13d 1203 003f 7e6b d23e 6012 ae3e
000001c0: 36aa 313f 7427 a7be 9f33 0fbf f078 883d
000001d0: 17ab 283f f064 5dbe ca85 aa3b f184 6c3e
000001e0: 47a9 053f 87d7 0f3f 3c00 56be e5ec 6d3c
000001f0: efea 663e 130a 83bd 2f26 e83e 2c8d 36bf
00000200: 983d c63e 680a 0d3f 07bc a5bd f60c c83d
00000210: 4253 f2be 41f9 0b3f c687 78be 1efe fbbe
00000220: 76f0 61be 57c7 ce3e 3c0d c5be e8bf 10bf
00000230: 1534 33bf 2c5e 9ebe d579 a23d e63a 1e3e
00000240: fd21 00bd d000 223e 39fb 353e 2350 8d3e
00000250: ba09 c83e 9cd0 d6be 5a3c ec3e 4d9f 28bf
00000260: a9e9 e53e 0314 aebd b07a 523e 9616 7c3e
00000270: 77ef c5be 1ce5 0a3f 2577 4e3e 345e 90be
00000280: a8d9 80be 4e84 6f3d 6813 243f 2a07 c03e
00000290: 0124 923e 29b0 2f3f fa54 82be 3548 4ebe
000002a0: 5b93 003e f05e 02bf e6be 51be 7296 a7be
000002b0: 06f5 49be 934b 1e3d aa31 02bf b96f 933e
000002c0: 9800 9a3e 08d1 2fbe 4ba1 61bd d1f4 a7be
000002d0: ba96 5ebe eb6b dcbe aac9 b23e ec1a 16bf
000002e0: 22b4 1ebf 423f 4b3e 4b4a fdbb 55dd a9be
000002f0: e560 74be 070e 013c d8bf 08bf dc34 07bf
00000300: 2908 e3be e278 1b3f e1a8 1b3f 6e4d acbd
00000310: 4ace 16bf 9381 6abd 3084 843e a7d9 29be
00000320: 5762 7c3e 9056 3dbe 4055 b4be 8557 283e
00000330: ba91 10bf 1c96 393c 5313 2ebf e066 b1be
00000340: fa4f 1a3f c6ba 853e 9996 753e 1ff7 1bbe
00000350: 0e0c 7e3e 9931 b5bd d67a 14bf 6fd6 0d3f
00000360: 5cc0 34bc b561 01bf e183 2dbf a2b0 24bf
00000370: 0b8f db3e 1fa0 cfbe 6bd3 2d3f 584b 26be
00000380: 98be d3be 1673 893e ec39 10be 9151 a23e
00000390: c412 18bf 18e9 113f b62f a93d 5b01 8fbe
000003a0: f576 423e 9ec8 223f d61f 2d3f be1f cebd
000003b0: 8025 f03e 75ef 88be 3233 843d 90a7 0c3e
000003c0: 1ea3 993c 4b37 e8be 59de d7be 5099 9ebc
000003d0: 7c38 d0bd 6a5d 21bb 7bfa fa3e 30f3 e0be
000003e0: 0447 053f 8c3b acbc a361 10bf 37e7 0d3f
000003f0: 7141 bf3e 4e3f c03e 5c09 06bf 97c5 00bf

cells.0.h2h.weight f4 [256, 64]
-0.0456836 0.08329847 0.034626573 0.07695348 -0.03710221 0.10028961 0.006636496 -0.0054827794
0.088859 -0.07899769 0.007052777 0.1095998 -0.06706724 0.05211609 0.12578662 -0.05857905
0.0064677945 0.15816818 -0.0654572 -0.042546082 -0.08643271 0.09389184 -0.004672249 0.05774577
0.05364703 0.05802326 -0.10633507 0.019855378 0.026721708 -0.04787386 0.06623941 -0.07401842
-0.054702543 -0.10611525 0.036557995 -0.07056164 -0.07487463 -0.022885533 -0.025825923 0.15813372
0.009276541 0.088170744 0.1351952 -0.037061732 0.1569526 -0.10714804 0.011132898 0.043816168
-0.030391926 -0.007955855 0.0006665252 -0.07655437 0.039521635 0.06602511 -0.020833757 0.07236178
0.021009166 0.09465394 -0.07447442 -0.027961511 -0.09796119 0.032510974 -0.09192302 0.10938529
0.07238952 0.020202728 -0.016340267 -0.008096661 0.09930794 0.115658455 0.16070081 0.08648589
0.053198587 0.03175977 0.043355968 0.14337274 -0.04311311 -0.060308177 0.042589024 -0.054507248
0.12563677 0.15600605 -0.003382117 -0.034350798 0.07075792 -0.12062384 -0.010093848 0.13380025
-0.15790443 0.14649057 -0.031086845 -0.047582988 0.011406677 -0.06371242 -0.021947032 0.071303494
-0.06577075 0.098495625 0.01207318 0.006330588 -0.1886838 -0.09717155 0.004951248 0.06385868
-0.066815436 0.12992077 0.057626277 0.11555705 0.08700874 0.0529598 -0.041045047 0.058721166
-0.06757241 -0.08420032 0.05632212 -0.07813572 -0.11029275 0.014648178 -0.12777558 0.27355134
-0.09956088 0.016696407 0.0513275 0.058560044 -0.024581341 -0.11285512 0.1254044 0.049240347
0.100129195 -0.028637368 0.008454656 -0.014075872 -0.08937919 -0.07911698 -0.04017168 0.06475288
-0.07047798 -0.060291015 -0.1517705 0.10368959 0.062075548 -0.14794514 -0.025075844 -0.055144694
0.01631288 -0.09600762 0.053029362 0.08619809 -0.09099291 0.074551664 -0.014546654 -0.11054824
-0.020593768 0.07662267 0.045481395 0.039289452 0.118422665 0.05889523 0.07250347 -0.005294466
-0.060062993 0.08604821 -0.08479378 -0.17183493 0.009963077 0.07879959 -0.01022781 -0.013410259
0.0737882 -0.10803136 -0.13079982 0.045123853 0.12685125 0.046133336 0.007868867 0.030624332
0.023842804 0.08664742 0.03395638 0.048815664 0.05006902 -0.1454245 0.13243711 -0.1791352
-0.08094207 0.03404343 0.049186405 -0.06383434 0.005660882 -0.014400799 0.077698596 0.09715292
0.07460558 0.12346014 0.07526244 -0.07672998 -0.10735713 -0.02007967 -0.027299382 -0.19580115
-0.09819803 -0.029899051 0.01815468 -0.023491673 -0.008885736 0.033678953 0.1024777 -0.06250311
0.08020987 -0.10932801 -0.007190856 -0.105255425 0.1205438 -0.04350428 -0.032628343 -0.08367331
0.05818359 -0.09334376 0.037996016 0.120268956 -0.07201129 0.12044515 0.055317882 0.14036438
0.059732523 0.05251023 -0.04062184 -0.107751794 0.09422097 0.07123655 -0.12563248 -0.14649105
-0.008975441 -0.0035276008 -0.013137486 0.06900425 -0.046800807 0.04942435 0.10794093 0.109580144
0.026743943 0.13335072 -0.099534616 0.004088303 -0.03644778 -0.018730583 -0.05174181 -0.059438676
-0.058715515 -0.07700628 -0.13425867 0.06767949 -0.08435639 0.13192312 0.109706506 -0.04658464
00000000: ba1e 3bbd 6398 aa3d 98d4 0d3d c999 9d3d
00000010: 7df8 17bd a464 cd3d f776 d93b e3a8 b3bb
00000020: b5fb b53d 8ac9 a1bd fb1a e73b dc75 e03d
00000030: 8d5a 89bd ae77 553d 35ce 003e 96f0 6fbd
00000040: cbef d33b d7f6 213e 6d0e 86bd cd44 2ebd
00000050: a203 b1bd 5d4a c03d aa19 99bb d486 6c3d
00000060: fdbc 5b3d cca9 6d3d 34c6 d9bd bfa7 a23c
00000070: 7ce7 da3c 6117 44bd 87a8 873d f896 97bd
00000080: c60f 60bd f452 d9bd d6bd 153d 9f82 90bd
00000090: df57 99bd 717a bbbc e390 d3bc ceed 213e
000000a0: a2fc 173c dd92 b43d 9c70 0a3e 0bce 17bd
000000b0: 2fb8 203e 6e70 dbbd c266 363c 9578 333d
000000c0: 7df8 f8bc 4659 02bc c0b9 2e3a 8ac8 9cbd
000000d0: 70e1 213d 2c38 873d 8eab aabc 6a32 943d
000000e0: 6a1b ac3c edd9 c13d 0b86 98bd 8a0f e5bc
000000f0: e09f c8bd 3a2a 053d 2342 bcbd 6505 e03d
00000100: f540 943d 3180 a53c 06dc 85bc dca7 04bc
00000110: f661 cb3d 57de ec3d c18e 243e 841f b13d
00000120: c3e6 593d 8816 023d 0796 313d 4ed0 123e
00000130: 5f97 30bd b505 77bd d471 2e3d fe42 5fbd
00000140: eda6 003e 0dc0 1f3e 82a6 5dbb 6cb3 0cbd
00000150: 87e9 903d a209 f7bd ab60 25bc ef02 093e
00000160: b3b1 21be a001 163e d7a9 febc 61e6 42bd
00000170: 12e3 3a3c a87b 82bd 43ca b3bc 9107 923d
00000180: d1b2 86bd 13b8 c93d 96ce 453c d270 cf3b
00000190: 5336 41be e101 c7bd 143e a23b 57c8 823d
000001a0: 88d6 88bd f309 053e 8809 6c3d 2da9 ec3d
000001b0: a331 b23d 60ec 583d da1e 28bd 9b85 703d
000001c0: 6763 8abd 3871 acbd 06b2 663d 9f05 a0bd
000001d0: 2ae1 e1bd e9fe 6f3c 9ad7 02be ec0e 8c3e
000001e0: 93e6 cbbd e7c6 883c c93c 523d a8dc 6f3d
000001f0: cf5e c9bc 9620 e7bd 036a 003e 3fb0 493d
00000200: 8910 cd3d ea98 eabc 6685 0a3c 7c9e 66bc
00000210: 700c b7bd 1508 a2bd 0f8b 24bd 289d 843d
00000220: c256 90bd b6f3 76bd ba69 1bbe 355b d43d
00000230: ee42 7e3d ee7e 17be db6b cdbc 67df 61bd
00000240: 97a2 853c a59f c4bd 5135 593d a088 b03d
00000250: 7e5a babd 8bae 983d 1755 6ebc 1e67 e2bd
00000260: 43b4 a8bc 59ec 9c3d b34a 3a3d faed 203d
00000270: 9587 f23d 203c 713d b37c 943d 337d adbb
00000280: 9d04 76bd 0b3a b03d 5da8 adbd 7ff5 2fbe
00000290: 2c3c 233c ae61 a13d 8b92 27bc b4b6 5bbc
000002a0: 451e 973d 8c3f ddbd 63f0 05be cad3 383d
000002b0: 4be5 013e 4ff6 3c3d 6cec 003c e1df fa3c
000002c0: fc51 c33c 3474 b13d d815 0b3d eff2 473d
000002d0: 2c15 4d3d 29ea 14be 989d 073e 386f 37be
000002e0: f5c4 a5bd 2071 0b3d af77 493d 94bb 82bd
000002f0: ec7e b93b 54f1 6bbc 7120 9f3d 1cf8 c63d
00000300: cfca 983d abd8 fc3d 3223 9a3d 9c24 9dbd
00000310: 0ede dbbd 1f7e a4bc f4a2 dfbc 1980 48be
00000320: 0c1c c9bd dbee f4bc 20b9 943c 9c71 c0bc
00000330: 7a95 11bc f1f2 093d d4df d13d a101 80bd
00000340: 1345 a43d 5de7 dfbd 46a1 ebbb 2890 d7bd
00000350: abdf f63d 8b31 32bd 4ca5 05bd ea5c abbd
00000360: eb51 6e3d 032b bfbd b6a1 1b3d 924f f63d
00000370: a87a 93bd f2ab f63d 0195 623d aebb 0f3e
00000380: 17aa 743d f814 573d 1663 26bd f9ac dcbd
00000390: edf6 c03d 78e4 913d cda5 00be c001 16be
000003a0: ba0d 13bc 522f 67bb 9c3e 57bc 1a52 8d3d
000003b0: 34b2 3fbd 3071 4a3d 2210 dd3d 8e6b e03d
000003c0: 1d16 db3c 178d 083e ced8 cbbd 2cf7 853b
000003d0: 444a 15bd e170 99bc 38ef 53bd f875 73bd
000003e0: ae7f 70bd 78b5 9dbd 1b7b 09be 8b9b 8a3d
000003f0: 0bc3 acbd db16 073e cead e03d 89cf 3ebd

cells.0.h2h.bias f4 [256]
-0.021048015 0.012993679 -0.020573404 -0.045810968 -0.0041297167 0.025226932 0.024550056 -0.13521057
-0.11713197 -0.09834146 0.040851567 -0.024287721 0.13628405 -0.11669048 -0.06482402 -0.04479041
0.07848479 0.12251881 0.11029584 -0.035478704 -0.14515786 0.110381104 -0.06713159 0.07243243
0.0125921955 0.017432561 0.13187188 0.01748264 -0.047683146 0.07910033 -0.05493645 -0.020143041
0.02006892 0.0030578356 -0.02747987 -0.016583497 -0.03527693 -0.0035658274 -0.042758215 0.06783669
-0.091509245 -0.07701192 -0.08579171 0.16241357 0.047496654 -0.007847559 0.0015841173 0.108737245
-0.10564861 -0.053358883 -0.08232897 -0.07626815 0.130288 -0.1403489 0.06422341 0.09774532
0.088406734 0.12844937 0.0487153 -0.08194005 -0.105009064 -0.04330699 0.0039388267 0.09667627
0.09126966 -0.09037634 -0.12898035 0.06380863 -0.088622406 -0.11170485 0.16707459 -0.015463555
-0.07165536 -0.06815557 0.018216876 0.07100133 -0.013671688 0.11159305 0.090217024 -0.016937869
-0.0469178 0.08204902 0.044541944 0.10898006 -0.14116333 0.029778803 -0.000909958 0.10574581
0.048774548 -0.10560867 0.042432185 0.04656824 -0.06473323 -0.057657503 -0.16589977 0.14197329
0.08292042 -0.17081492 -0.029810302 -0.08972156 -0.013346025 -0.090142354 0.0329393 0.061520316
-0.10394594 -0.055624533 -0.01652078 -0.059151642 -0.018797427 0.0881989 0.03529099 0.034952495
0.092644624 -0.043099463 -0.07246896 0.052225232 0.008354259 0.011335317 0.006511782 0.042991363
-0.07853684 0.021600107 -0.05184391 0.08181696 -0.07440416 0.08482688 -0.08506846 0.019448778
-0.025254682 0.016907796 0.1336276 0.012004315 -0.018958688 -0.108764306 -0.040658075 0.14465122
-0.0016424238 -0.026821788 0.0128264325 0.09115735 -0.08310843 -0.11668584 -0.054988425 -0.057516742
0.08205714 0.01271405 0.025604317 -0.017805979 -0.041220047 -0.05370677 -0.06286413 -0.110330574
-0.08103224 0.04831322 0.12167696 -0.025214458 0.026857166 -0.071891345 -0.02206128 0.0069295187
0.030663477 -0.031547565 -0.13346714 0.11622468 0.1533516 0.12587826 -0.10650715 0.16807608
0.013220319 0.10558662 -0.049383238 0.03649839 -0.118998915 -0.1691306 -0.029014291 -0.113605686
-0.027189545 -0.080542564 -0.07644887 0.031870365 -0.07809366 0.19385502 -0.08181029 -0.0133641865
-0.01198699 -0.098479785 0.015674451 -0.09146563 0.045366097 -0.08337536 -0.0054805544 0.061365236
0.07759401 -0.03520015 -0.14338276 -0.02770589 -0.09508969 0.090388075 -0.007934347 -0.03857915
-0.14959437 -0.048008412 0.05720416 0.04967301 -0.07160718 -0.014798425 -0.11042424 -0.089968756
0.19377734 -0.08055031 -0.018266108 -0.12227131 0.032729637 -0.0656732 0.009158268 0.08732435
-0.08957625 -0.025522143 0.09856164 0.0629001 -0.032183725 -0.044174336 0.028874254 0.056827173
0.014648301 0.042987153 0.10715142 0.0024602232 0.1044378 0.09543348 0.057227965 0.16550621
-0.10717036 -0.022155318 -0.04030688 0.030828722 0.13723996 -0.022153012 0.005281628 0.10652021
-0.061960258 -0.068971604 -0.08024523 0.007518853 0.1649169 0.06214439 -0.047077164 0.049961925
0.09778325 -0.06497313 0.08940614 -0.09052309 0.090768 -0.019203732 0.0033183105 0.13318571
00000000: e36c acbc 71e3 543c 8e89 a8bc 48a4 3bbd
00000010: 9352 87bb b6a8 ce3c 331d c93c a474 0abe
00000020: e3e2 efbd 3f67 c9bd f953 273d 0bf7 c6bc
00000030: 0c8e 0b3e 6bfb eebd 75c2 84bd 2676 37bd
00000040: a2bc a03d 24eb fa3d c9e2 e13d 1e52 11bd
00000050: 43a4 14be 7d0f e23d 497c 89bd 7457 943d
00000060: 7f4f 4e3c bbce 8e3c 6c09 073e c137 8f3c
00000070: 674f 43bd 5bff a13d 0b05 61bd 0503 a5bc
00000080: 9367 a43c f865 483b 771d e1bc 1dda 87bc
00000090: 8b7e 10bd a8b0 69bb 3d23 2fbd f6ed 8a3d
000000a0: 3369 bbbd 6db8 9dbd 90b3 afbd be4f 263e
000000b0: da8b 423d 0c93 00bc 28a2 cf3a a2b1 de3d
000000c0: 4c5e d8bd d88e 5abd 179c a8bd 7a32 9cbd
000000d0: 386a 053e 9fb7 0fbe 9087 833d b32e c83d
000000e0: 970e b53d 3b88 033e b289 473d 2fd0 a7bd
000000f0: fe0e d7bd ac62 31bd 4611 813b 35fe c53d
00000100: 96eb ba3d 3b17 b9bd 6d13 04be 19ae 823d
00000110: aa7f b5bd 83c5 e4bd 9a15 2b3e da5a 7dbc
00000120: 0cc0 92bd 2695 8bbd 8f3b 953c 2569 913d
00000130: 37ff 5fbc e68a e43d b4c3 b83d 49c1 8abc
00000140: e12c 40bd 5109 a83d 9d71 363d f030 df3d
00000150: 1f8d 10be adf2 f33c 3f8a 6eba 4291 d83d
00000160: d2c7 473d 5c49 d8bd 5fcd 2d3d 57be 3e3d
00000170: db92 84bd 462a 6cbd a1e1 29be 7261 113e
00000180: 2ed2 a93d 1bea 2ebe bc34 f4bc f0bf b7bd
00000190: 49a9 5abc 8e9c b8bd 5ceb 063d bafc 7b3d
000001a0: 9ce1 d4bd 8dd6 63bd 9656 87bc fe48 72bd
000001b0: 10fd 99bc a0a1 b43d 498d 103d 592a 0f3d
000001c0: 77bc bd3d 1089 30bd 9b6a 94bd 20ea 553d
000001d0: 4de0 083c c4b7 393c c960 d53b b617 303d
000001e0: ecd7 a0bd b5f2 b03c 485a 54bd a68f a73d
000001f0: 3561 98bd b7b9 ad3d 5f38 aebd 0b53 9f3c
00000200: e8e2 cebc 3882 8a3c acd5 083e bfad 443c
00000210: 404f 9bbc d2bf debd 1589 26bd 731f 143e
00000220: 9946 d7ba 5eb9 dbbc f525 523c b4b0 ba3d
00000230: c134 aabd fcf8 eebd 8b3b 61bd ad96 6bbd
00000240: 930d a83d 974e 503c 25c0 d13c d8dd 91bc
00000250: 5ad6 28bd a1fb 5bbd e9be 80bd fff4 e1bd
00000260: 3bf4 a5bd 15e4 453d c531 f93d 8d8e cebc
00000270: 8f03 dc3c c53b 93bd dcb9 b4bc 0411 e33b
00000280: f931 fb3c 0538 01bd 9cab 08be 3407 ee3d
00000290: 3408 1d3e 3be6 003e 6c20 dabd 231c 2c3e
000002a0: 099a 583c cc3d d83d 1446 4abd 567f 153d
000002b0: b4b5 f3bd 9230 2dbe 61af edbc 19aa e8bd
000002c0: 9cbc debc 80f3 a4bd 3a91 9cbd 808a 023d
000002d0: 92ef 9fbd ee81 463e 278c a7bd 76f5 5abc
000002e0: 1565 44bc c5af c9bd b567 803c 5552 bbbd
000002f0: cdd1 393d b3c0 aabd 3996 b3bb 1d5a 7b3d
00000300: 9ce9 9e3d 082e 10bd eed2 12be 76f7 e2bc
00000310: 62be c2bd 621d b93d 10ff 01bc 2c05 1ebd
00000320: 442f 19be 78a4 44bd e94e 6a3d ed75 4b3d
00000330: c9a6 92bd 1875 72bc 1b26 e2bd 8a41 b8bd
00000340: 916d 463e 90f7 a4bd cea2 95bc 6169 fabd
00000350: 830f 063d ac7f 86bd 8f0c 163c 1cd7 b23d
00000360: c173 b7bd d013 d1bc afda c93d c5d1 803d
00000370: 15d3 03bd 26f0 34bd b389 ec3c 9cc3 683d
00000380: 6dff 6f3c 4c13 303d 3472 db3d b23b 213b
00000390: 7ce3 d53d a172 c33d df67 6a3d 767a 293e
000003a0: 227c dbbd 127f b5bc d418 25bd 848c fc3c
000003b0: a288 0c3e 3c7a b5bc 8211 ad3b 4527 da3d
000003c0: 0aca 7dbd fc40 8dbd 9c57 a4bd b660 f63b
000003d0: fadf 283e 1e8b 7e3d fcd3 40bd e0a4 4c3d
000003e0: 9642 c83d a210 85bd 911a b73d 2b64 b9bd
000003f0: 93e4 b93d 2551 9dbc 0378 593b d661 083e

cells.1.x2h.weight f4 [256, 64]
-0.1475611 0.12278732 0.041935205 -0.014450422 -0.0096540535 -0.10092278 -0.023404855 -0.060988847
0.031164566 0.1355271 -0.0058328235 -0.040183555 -0.0045613255 -0.034703832 -0.14451367 -0.017304227
0.15868825 -0.20319052 0.038688313 -0.072140746 0.001896206 0.014858238 -0.16988969 0.017844023
0.031182988 -0.04219075 0.110567205 0.08540186 -0.08903469 -0.08803029 -0.07059145 0.1254127
0.09132147 0.19833072 -0.16464931 0.14462805 0.062279347 0.08381863 -0.153887 -0.11633277
-0.043976407 0.09262858 -0.023448685 -0.12584153 -0.10125749 -0.09647683 0.19563247 -0.03647931
0.18892804 0.09350766 0.093736425 0.04899247 0.006403807 -0.05581233 -0.025744561 0.27667856
-0.027824987 -0.116226025 -0.03348872 -0.0510944 -0.055401053 0.062682346 0.0013660087 -0.12822525
-0.031783104 -0.09215908 -0.17128435 0.022107251 -0.16187036 -0.11449965 0.13650563 0.043657865
0.051473487 0.076431476 -0.15860166 0.12488714 -0.009347068 -0.07272847 0.020701386 0.15536542
-0.063135386 0.02509833 0.009839655 0.17386608 -0.06474796 3.9745326e-05 0.03949985 -0.15263107
0.044128135 0.013489952 -0.08016795 -0.04677118 -0.044534855 0.05865809 0.0544763 0.13194633
0.11017034 -0.018258203 -0.059234295 -0.040950548 -0.064882204 0.09127824 -0.034244124 0.11923092
0.046327572 -0.05775272 0.12816808 0.12065612 -0.035990186 0.06166503 0.026072042 -0.1920667
-0.03934016 -0.008763758 -0.024801116 0.06272363 -0.13399106 -0.08793558 0.12396835 0.120131195
-0.10839533 0.049727008 -0.09791371 -0.11395786 0.10842004 -0.1227806 -0.16519526 0.12285566
-0.0739978 0.09004196 0.012049822 -0.032951117 0.028680196 -0.14371985 0.13835539 -0.039584946
-0.06971148 -0.09990723 0.0651057 0.20813945 -0.0787778 -0.064593054 0.12087421 0.13481314
0.03310624 -0.06250319 -0.07506301 -0.030095845 0.006393527 -0.055737693 -0.031123152 -0.13738966
-0.1142032 0.09801593 -0.048275627 -0.0014344085 0.15333009 -0.03442855 0.14258829 0.06575143
0.073928215 -0.08431916 -0.028517742 0.062061124 -0.14414373 -0.054287918 -0.14548859 0.1256337
0.06373626 -0.0786808 -0.05178778 0.05030702 0.12800495 0.05820343 0.029182741 -0.14513928
0.046658043 0.06948115 0.08375312 -0.08508821 0.011624441 -0.09200935 0.121231325 -0.07389102
-0.02065705 0.039424162 -0.02174066 0.008182132 -0.051760312 -0.038939636 -0.15311357 0.03866174
0.05625156 0.08878066 -0.04118843 0.015240953 -0.14989915 -0.11925247 0.011565973 0.027221028
0.13021058 -0.03941151 -0.17665462 0.020884754 -0.06571507 -0.14497705 0.084397666 0.0031280292
-0.035959568 0.018751053 0.14396226 0.059463985 0.050292917 0.06564343 0.018535817 -0.1366095
0.010271856 -0.15004972 -0.1072919 -0.19052526 0.0019545015 -0.060767602 0.14598203 0.087269075
-0.0078005823 0.041965652 -0.015988309 -0.21606381 -0.021899965 -0.03634311 -0.08391018 -0.024470737
0.0034454626 -0.08348824 0.09737946 0.015325206 0.15268317 0.065286666 -0.14977197 -0.15344264
-0.037483644 -0.07436069 -0.08936135 -0.019749338 0.03931262 -0.124736555 -0.017013248 0.09298267
0.017597532 -0.07922005 -0.10251587 -0.0444933 -0.0033142285 -0.022891542 -0.002353184 0.20436637
00000000: 421a 17be eb77 fb3d 40c4 2b3d 76c1 6cbc
00000010: 092c 1ebc 9ab0 cebd 8abb bfbc 71cf 79bd
00000020: d54c ff3c 9ec7 0a3e 4521 bfbb 8397 24bd
00000030: 2c77 95bb 9b25 0ebd 64fb 13be 98c1 8dbc
00000040: 2c7f 223e 2d11 50be a377 1e3d 87be 93bd
00000050: 1e8a f83a f86f 733c 90f7 2dbe a12d 923c
00000060: 7773 ff3c 35d0 2cbd 0f71 e23d 2ce7 ae3d
00000070: d257 b6bd 3a49 b4bd 4092 90bd 306c 003e
00000080: c006 bb3d 3517 4b3e d499 28be 6019 143e
00000090: a118 7f3d 1aa9 ab3d 8e94 1dbe e03f eebd
000000a0: 9b20 34bd 0eb4 bd3d 7517 c0bc 9adc 00be
000000b0: 1660 cfbd a595 c5bd e153 483e 546b 15bd
000000c0: 5a76 413e f280 bf3d e2f8 bf3d 54ac 483d
000000d0: 07d7 d13b 789b 64bd 42e6 d2bc d0a8 8d3e
000000e0: 3af1 e3bc e907 eebd 782b 09bd 5d48 51bd
000000f0: 37ec 62bd 9a5f 803d a50b b33a 7b4d 03be
00000100: 002f 02bd e6bd bcbd 2a65 2fbe 441a b53c
00000110: 58c1 25be cb7e eabd 22c8 0b3e 97d2 323d
00000120: ddd5 523d 1b88 9c3d 7968 22be d4c4 ff3d
00000130: 7224 19bc aaf2 94bd f495 a93c 1d18 1f3e
00000140: 204d 81bd 039b cd3c 8136 213c f309 323e
00000150: 949a 84bd 38b4 2638 98ca 213d 524b 1cbe
00000160: b4bf 343d f604 5d3c 182f a4bd 2393 3fbd
00000170: 2e6a 36bd 7743 703d 8a22 5f3d f01c 073e
00000180: fda0 e13d 3a92 95bc a99f 72bd c3bb 27bd
00000190: f6e0 84bd 16f0 ba3d 9143 0cbd 572f f43d
000001a0: fbc1 3d3d 1e8e 6cbd 7e3e 033e 8e1a f73d
000001b0: 726a 13bd 7894 7c3d 0995 d53c 22ad 44be
000001c0: 2623 21bd de95 0fbc b62b cbbc 3f75 803d
000001d0: f434 09be 9217 b4bd 1ee3 fd3d 5807 f63d
000001e0: 5ffe ddbd 8cae 4b3d fc86 c8bd bd62 e9bd
000001f0: 530b de3d 6574 fbbd f228 29be c09b fb3d
00000200: 298c 97bd eb67 b83d 9e6c 453c c0f7 06bd
00000210: bbf2 ea3c 4c2b 13be 09ad 0d3e d323 22bd
00000220: e4c4 8ebd 299c ccbd 2356 853d 8222 553e
00000230: 4156 a1bd 5d49 84bd e68c f73d 750c 0a3e
00000240: 699a 073d ac01 80bd a3ba 99bd 908b f6bc
00000250: cb80 d13b 354d 64bd fbf5 febc e0af 0cbe
00000260: 5ee3 e9bd 93bc c83d aabc 45bd c302 bcba
00000270: 9002 1d3e f404 0dbd aa02 123e b0a8 863d
00000280: ad67 973d 86af acbd 0a9e e9bc ce33 7e3d
00000290: 6a9a 13be 025d 5ebd f6fa 14be 1fa6 003e
000002a0: 2888 823d 6623 a1bd 6c1f 54bd bc0e 4e3d
000002b0: bb13 033e b866 6e3d a510 ef3c 649f 14be
000002c0: 811c 3f3d 224c 8e3d c186 ab3d ba42 aebd
000002d0: 7074 3e3c 666f bcbd 2148 f83d 2d54 97bd
000002e0: f938 a9bc 3b7b 213d 7819 b2bc 590e 063c
000002f0: 9f02 54bd 2b7f 1fbd cec9 1cbe c65b 1e3d
00000300: 0968 663d a2d2 b53d 33b5 28bd 31b5 793c
00000310: 2a7f 19be a43a f4bd 357f 3d3c a2fe de3c
00000320: ec55 053e f76d 21bd f3e4 34be 8116 ab3c
00000330: 9f95 86bd dd74 14be afd8 ac3d 9fff 4c3b
00000340: 574a 13bd cf9b 993c d86a 133e 8290 733d
00000350: f2ff 4d3d 1070 863d 6dd8 973c 5ce3 0bbe
00000360: 494b 283c a2a6 19be dbbb dbbd 0e19 43be
00000370: 1817 003b 73e7 78bd 507c 153e 21ba b23d
00000380: 079c ffbb 2de4 2b3d eaf9 82bc d53f 5dbe
00000390: 8e67 b3bc 83dc 14bd 1ad9 abbd db76 c8bc
000003a0: 45cd 613b e2fb aabd e26e c73d 9316 7b3c
000003b0: fa58 1c3e 04b5 853d d35d 19be 1120 1dbe
000003c0: 7388 19bd 6b4a 98bd 1503 b7bd 5dc9 a1bc
000003d0: 4506 213d e175 ffbd 5e5f 8bbc b36d be3d
000003e0: b328 903c 1f3e a2bd d7f3 d1bd 9b3e 36bd
000003f0: 8733 59bb 0b87 bbbc e037 1abb 6b45 513e

cells.1.x2h.bias f4 [256]
-0.13636918 0.006556174 0.033880614 -0.009529145 0.01444766 -0.0066135586 -0.12363193 -0.0034185199
-0.007880624 0.072654866 -0.021411736 -0.045087993 0.070083216 0.17404449 0.0010035009 -0.020102486
-0.049375147 0.100551076 -0.102192715 -0.07825594 0.1348272 0.05034124 0.10298955 0.014929401
-0.05270232 0.08207902 -0.009178711 0.0011837672 0.06917442 -0.05826628 -0.06058704 0.091544785
0.15855753 0.0390908 -0.09824335 0.053851716 0.042052034 0.018189924 0.030109847 0.031170314
0.11105384 -0.052136198 0.04880948 0.08724225 0.13636774 0.08220558 -0.0031799593 0.04459782
-0.108742744 0.08124143 -0.1096426 -0.032355707 -0.080926105 0.00047209204 0.040798616 -0.010359355
0.14076254 -0.083785646 0.13804741 0.09570547 0.0135974875 -0.007386648 0.10672551 -0.05389104
0.0012594287 -0.09008396 0.09936771 0.05756339 -0.10896202 -0.109672286 -0.06876884 0.04656211
-0.11692355 -0.07429417 -0.014756072 -0.06781243 -0.061449226 0.06796745 -0.05129289 0.08026076
0.07183593 -0.01290659 0.1256423 0.001136915 0.058710027 -0.028790284 0.057775103 0.039695103
0.029816337 -0.101132795 -0.1166015 0.04167481 -0.100725316 -0.07007557 0.0018747712 0.11627457
-0.08928745 -0.05546149 -0.04332703 -0.0025451481 -0.081478044 0.06035966 -0.0697719 0.02127348
-0.11183086 -0.08021505 -0.09556268 0.040067155 0.040188886 -0.048192758 -0.093951344 -0.03711633
0.0388745 -0.11840593 -0.13962321 -0.07379774 0.04336049 -0.06630078 0.018713525 -0.120212264
-0.11365469 -0.1201365 0.0074687144 0.006914643 0.002960314 0.11338624 0.09682003 -0.04883315
0.0113821905 0.011999627 0.1129346 -0.02026015 -0.044435497 0.07944284 -0.0978877 0.11826603
-0.009586023 -0.115813695 -0.045492798 0.03319341 -0.0064331046 0.10758031 0.05036621 -0.06703591
0.01858223 0.09924621 0.07355095 -0.061979964 -0.06135158 -0.019512758 -0.09535985 -0.08999001
0.04251311 0.09970295 -0.05742936 0.08222466 0.058486942 0.0016565578 0.0784781 -0.026171776
0.048045203 0.04536923 0.04582721 0.13304497 0.08110106 0.11238059 0.05661878 0.041603293
0.11807817 -0.026223611 0.030771924 -0.11709532 0.079115495 0.007808295 -0.120599 -0.08740034
-0.110089585 -0.12585455 -0.055419665 0.018183306 -0.1317529 -0.056165874 0.13150556 -0.0045741266
0.050190322 0.05646349 0.06380294 -0.13246419 -0.06196041 -0.10778176 0.041259635 -0.035399508
0.069588564 -0.049362604 -0.071044445 -0.015474328 0.08767952 -0.05876368 0.0052091624 -0.08647937
-0.02678234 0.08051407 0.030062359 -0.024733469 -0.07165326 0.09929007 0.053424466 -0.12023017
0.02747283 0.08043628 0.08713513 -0.03583254 0.077449545 0.015033861 -0.10001917 -0.041353308
0.09996206 -0.02813863 0.05956614 -0.07894855 -0.083578944 0.041698214 -0.08759206 0.025851468
0.05058786 0.14583647 0.06431245 0.08057659 0.023189778 -0.14367409 0.10006507 -0.035599418
-0.03995018 0.049035117 0.089998305 -0.054401413 0.0671807 -0.03561913 -0.054546304 0.12156978
0.0019170863 -0.041246757 -0.109099425 0.07086333 -0.028165156 0.057307146 0.11778525 -0.044997964
0.00034520187 -0.043509632 5.736621e-05 -0.09078409 0.16032428 -0.0964122 0.024640497 -0.08236146
00000000: 5da4 0bbe 2cd5 d63b 66c6 0a3d 2220 1cbc
00000010: e1b5 6c3c 8db6 d8bb bd32 fdbd 3f09 60bb
00000020: bc1d 01bc 13cc 943d aa67 afbc 30ae 38bd
00000030: ca87 8f3d b838 323e e787 833a f8ad a4bc
00000040: 983d 4abd b9ed cd3d 6a4a d1bd a644 a0bd
00000050: 2410 0a3e 9e32 4e3d 2fec d23d 729a 743c
00000060: 63de 57bd 0c19 a83d 4e62 16bc a328 9b3a
00000070: 51ab 8d3d 9fa8 6ebd 1e2a 78bd d57b bb3d
00000080: e85c 223e ad1d 203d cf33 c9bd 9e93 5c3d
00000090: c13e 2c3d 0903 953c eda8 f63c e358 ff3c
000000a0: 3270 e33d c48c 55bd 73ec 473d 11ac b23d
000000b0: fca3 0b3e 665b a83d dd66 50bb 34ac 363d
000000c0: 84b4 debd e861 a63d 4d8c e0bd 6b87 04bd
000000d0: 96bc a5bd 1f83 f739 731c 273d 49ba 29bc
000000e0: 0e24 103e cf97 abbd 4d5c 0d3e 3b01 c43d
000000f0: ffc7 5e3c b20b f2bb e792 da3d dabc 5cbd
00000100: 6a13 a53a f07d b8bd 4c81 cb3d 97c7 6b3d
00000110: 7b27 dfbd dd9b e0bd add6 8cbd e9b7 3e3d
00000120: 9d75 efbd 8b27 98bd 74c3 71bc 3ee1 8abd
00000130: 2fb2 7bbd 8532 8b3d 7e18 52bd c15f a43d
00000140: b71e 933d 2976 53bc 60a8 003e 8904 953a
00000150: ed79 703d 9ad9 ebbc 96a5 6c3d 5597 223d
00000160: 6441 f43c b61e cfbd c4cc eebd 35b3 2a3d
00000170: 1349 cebd c883 8fbd e2ba f53a 5d21 ee3d
00000180: 57dc b6bd 962b 63bd af77 31bd 80cc 26bb
00000190: f6dd a6bd b13b 773d 92e4 8ebd b945 ae3c
000001a0: 9407 e5bd ca47 a4bd 5eb6 c3bd 751d 243d
000001b0: 1a9d 243d c565 45bd 9069 c0bd 4b07 18bd
000001c0: de3a 1f3d cf7e f2bd 63f9 0ebe 4523 97bd
000001d0: c59a 313d b4c8 87bd 1b4d 993c d931 f6bd
000001e0: cac3 e8bd 200a f6bd 1ebc f43b 3b94 e23b
000001f0: d401 423b 0c37 e83d 9449 c63d 4505 48bd
00000200: 5e7c 3a3c 159a 443c 414a e73d 9df8 a5bc
00000210: ff01 36bd edb2 a23d 5979 c8bd 7635 f23d
00000220: b20e 1dbc bb2f edbd a856 3abd d0f5 073d
00000230: cbcc d2bb 1153 dc3d cd4c 4e3d 204a 89bd
00000240: c339 983c 9941 cb3d e1a1 963d b4de 7dbd
00000250: cb4b 7bbd 38d9 9fbc 064c c3bd af4c b8bd
00000260: 3a22 2e3d 0f31 cc3d 0c3b 6bbd 6765 a83d
00000270: 0190 6f3d db20 d93a 20b9 a03d 3166 d6bc
00000280: 0ccb 443d 16d5 393d 50b5 3b3d f13c 083e
00000290: 5018 a63d cb27 e63d 18e9 673d 3768 2a3d
000002a0: f8d2 f13d e6d2 d6bc 6715 fc3c accf efbd
000002b0: 4e07 a23d badc ff3b 9cfc f6bd f3fe b2bd
000002c0: a676 e1bd 04e0 00be bbff 62bd 28f5 943c
000002d0: 3bea 06be 300e 66bd 65a9 063e 8ee2 95bb
000002e0: 5e94 4d3d 4346 673d 1eab 823d b1a4 07be
000002f0: 33ca 7dbd afbc dcbd ddff 283d 13ff 10bd
00000300: 7384 8e3d 7130 4abd c07f 91bd 0988 7dbc
00000310: 5291 b33d 2fb2 70bd 9fb1 aa3b 191c b1bd
00000320: a366 dbbc 90e4 a43d 5645 f63c d89d cabc
00000330: f2be 92bd 9858 cb3d 9dd3 5a3d 3c3b f6bd
00000340: b30e e13c c7bb a43d e773 b23d 24c5 12bd
00000350: de9d 9e3d 9550 763c dad6 ccbd 1662 29bd
00000360: e9b8 cc3d fc82 e6bc a0fb 733d c7af a1bd
00000370: 702b abbd bfcb 2a3d 7763 b3bd 75c6 d33c
00000380: 3735 4f3d 2856 153e 3fb6 833d 5705 a53d
00000390: 7df8 bd3c 4d1f 13be eaee cc3d b2d0 11bd
000003a0: cda2 23bd 0cd9 483d 0851 b83d 04d4 5ebd
000003b0: 0996 893d 5de5 11bd f26b 5fbd 94f9 f83d
000003c0: be46 fb3a 5cf2 28bd 856f dfbd cb20 913d
000003d0: 9dba e6bc e6ba 6a3d 6539 f13d c94f 38bd
000003e0: 36fc b439 2837 32bd 809c 7038 02ed b9bd
000003f0: 0c2c 243e c273 c5bd deda c93c 20ad a8bd

cells.1.h2h.weight f4 [256, 64]
0.14675723 -0.068387836 0.04633037 -0.076153204 -0.097957954 -0.030823786 -0.01832811 -0.06614088
-0.046427395 0.04038748 -0.010048151 0.004290259 -0.12552027 0.025465144 0.0113088535 0.08329569
-0.039150722 -0.08953485 0.032767843 0.12269237 -0.09405684 -0.031444833 0.030998064 0.03639964
0.052210145 -0.049539782 -0.0013311004 0.07438256 0.081304364 -0.05751607 0.033845883 0.051741242
-0.10668771 -0.017197456 -0.04603184 -0.11851286 -0.06360473 0.02741466 0.15946834 -0.12847647
0.10168894 0.03726489 -0.10031548 -0.04575853 0.062310923 -0.01071074 -0.049075186 0.039360784
-0.051764775 0.030035554 0.0903476 0.07549733 0.12434366 -0.10952933 0.020841202 0.004746542
-0.049915913 0.019896982 0.05207737 -0.08537832 -0.058434147 -0.091912545 -0.07217206 -0.106775805
-0.13592462 -0.022553582 -0.014449974 0.19982456 0.0454291 0.04531766 -0.11420509 0.12148127
0.23986976 0.24233727 -0.043503955 0.17540534 -0.15099394 -0.020511582 -0.1267018 -0.08327002
0.048113387 0.07760199 -0.05206883 -0.08772525 -0.017669588 -0.019140596 -0.008655163 0.175591
0.16795774 -0.15282334 0.00915978 0.05861999 0.14308697 -0.099195674 0.049361754 0.024258837
0.007157546 0.13210429 0.06063824 0.048108626 -0.06430766 -0.039194867 -0.028104752 0.0059211324
0.023919811 0.029557187 -0.063091666 -0.06966438 -0.03264269 0.013795354 0.042175587 -0.04697997
0.033884637 -0.055992145 0.0968665 0.06303265 -0.01532236 0.17147516 -0.040214762 0.04886699
0.032797318 -0.056026567 0.014044034 0.056227412 -0.05681383 0.028264351 -0.0097617265 0.108747624
-0.095708854 0.040903907 0.0018358497 0.010202287 -0.04127104 0.12534185 0.1995416 0.012842774
0.015817994 0.14853577 0.05703442 0.0730733 -0.1115549 0.05605188 -0.15702464 -0.107187495
-0.16141929 -0.013314599 0.1647923 0.12950857 -0.13321115 0.12943825 -0.069185585 0.08793671
-0.039441377 -0.14001967 0.052069172 -0.05256758 -0.024009561 -0.13682066 -0.04622757 0.08697167
-0.09471732 0.021112084 0.008031375 0.064723015 -0.12072011 -0.09768983 0.16201657 0.046000212
0.11863952 -0.114717215 0.0823309 0.024546528 -0.09074284 0.13640617 -0.097000256 -0.0037328005
-0.0454075 -0.18481553 -0.008139952 0.13299163 -0.18446313 0.14456414 0.10491872 0.010576832
0.023268426 -0.15006803 0.026368437 -0.037111267 0.124878585 -0.1383255 -0.10458987 0.045931265
0.059195943 0.061003987 0.020661931 0.017375447 0.04433998 -0.059637338 0.11302077 0.1417515
0.034068514 0.012825067 -0.0688759 0.09975673 0.032315128 -0.13911857 -0.013976424 0.0967801
0.13236101 -0.15647204 -0.05608251 -0.038800646 -0.037490413 -0.019245127 0.08932775 -0.028757643
0.1050731 -0.06638141 -0.08982286 -0.011868742 0.050391853 -0.15491837 -0.077087805 -0.09531818
-0.14413859 0.1164935 0.01919566 -0.055576388 -0.08095822 -0.053652067 -0.009184147 -0.08921094
-0.054929875 0.07150605 -0.094242714 0.019120589 -0.06627507 0.10790629 -0.096532434 -0.028715333
0.14354885 -0.043523002 -0.0997727 -0.06876282 -0.1707809 0.123268515 -0.0455418 -0.08906908
-0.0038009407 0.019103244 -0.0037090906 0.038879946 0.1121546 0.028833406 0.04313098 -0.08422124
00000000: 8747 163e ec0e 8cbd eac4 3d3d 36f6 9bbd
00000010: 2e9e c8bd 2a82 fcbc d524 96bc df74 87bd
00000020: a72a 3ebd 586d 253d 00a1 24bc 4d95 8c3b
00000030: 6388 00be 479c d03c c548 393c ee96 aa3d
00000040: 825c 20bd 0c5e b7bd 9337 063d 2346 fb3d
00000050: dfa0 c0bd 4ccc 00bd a7ef fd3c ca17 153d
00000060: 4eda 553d 3aea 4abd 5178 aeba e255 983d
00000070: e782 a63d f895 6bbd fba1 0a3d a0ee 533d
00000080: 167f dabd aee1 8cbc e28b 3cbd dfb6 f2bd
00000090: 3243 82bd b694 e03c ab4b 233e 568f 03be
000000a0: 4a42 d03d 12a3 183d 3472 cdbd 4c6d 3bbd
000000b0: bd39 7f3d 1a7c 2fbc 1003 49bd c638 213d
000000c0: 4d07 54bd 1f0d f63c 2a08 b93d 589e 9a3d
000000d0: e4a7 fe3d ea50 e0bd 2bbb aa3c e188 9b3b
000000e0: a174 4cbd fffe a23c 154f 553d d4da aebd
000000f0: a558 6fbd a53c bcbd f2ce 93bd 46ad dabd
00000100: d32f 0bbe 4ac2 b8bc 95bf 6cbc cf9e 4c3e
00000110: dd13 3a3d 039f 393d 5ce4 e9bd 2ccb f83d
00000120: 6ba0 753e 4327 783e 3431 32bd 759d 333e
00000130: 289e 1abe e807 a8bc 1ebe 01be 7989 aabd
00000140: 8b12 453d cbed 9e3d 2046 55bd 4ca9 b3bd
00000150: d0bf 90bc bdcc 9cbc 63ce 0dbc 21ce 333e
00000160: 1dfd 2b3e b97d 1cbe e712 163c 841b 703d
00000170: 6485 123e 1a27 cbbd 8d2f 4a3d 78ba c63c
00000180: d989 ea3b 5946 073e ce5f 783d 8d0d 453d
00000190: bcb3 83bd cc8a 20bd f03b e6bc 0f06 c23b
000001a0: 7bf3 c33c ea21 f23c 3436 81bd 33ac 8ebd
000001b0: 57b4 05bd e905 623c 4fc0 2c3d 126e 40bd
000001c0: 9eca 0a3d 0558 65bd f261 c63d 4317 813d
000001d0: a30a 7bbc 2f97 2f3e 3cb8 24bd c128 483d
000001e0: 7b56 063d 1d7c 65bd f318 663c b74e 663d
000001f0: 9eb5 68bd a48a e73c a6ef 1fbc 13b7 de3d
00000200: 0103 c4bd db8a 273d e5a0 f03a 7e27 273c
00000210: d20b 29bd 9d59 003e a254 4c3e 806a 523c
00000220: bd94 813c c319 183e ed9c 693d 74a7 953d
00000230: e576 e4bd a896 653d 11cb 20be 1e85 dbbd
00000240: 194b 25be 7a25 5abc 50bf 283e e59d 043e
00000250: 8168 08be 768b 043e 2cb1 8dbd 2918 b43d
00000260: 488d 21bd 5161 0fbe 7c46 553d 1a51 57bd
00000270: b3af c4bc b71a 0cbe 1f59 3dbd 341e b23d
00000280: 27fb c1bd 40f3 ac3c 0796 033c 808d 843d
00000290: 1b3c f7bd 9b11 c8bd ace7 253e b86a 3c3d
000002a0: 47f9 f23d dcf0 eabd 1a9d a83d cd15 c93c
000002b0: 62d7 b9bd 0fae 0b3e 12a8 c6bd 00a2 74bb
000002c0: 37fd 39bd 4840 3dbe 6f5d 05bc f52e 083e
000002d0: e7e3 3cbe 9f08 143e a0df d63d 734a 2d3c
000002e0: 6d9d be3c 6fab 19be 9f02 d83c fc01 18bd
000002f0: 58c0 ff3d 33a5 0dbe 3733 d6bd 6c22 3c3d
00000300: 7277 723d 51df 793d 3643 a93c f456 8e3c
00000310: d79d 353d 4846 74bd 6f77 e73d 4e27 113e
00000320: 6d8b 0b3d 3b20 523c cf0e 8dbd 424d cc3d
00000330: de5c 043d 1975 0ebe 5ffd 64bc a534 c63d
00000340: a589 073e 353a 20be c6b6 65bd 6ded 1ebd
00000350: 8c8f 19bd f5a7 9dbc 78f1 b63d 2695 ebbc
00000360: 9130 d73d faf2 87bd 0cf5 b7bd 1d75 42bc
00000370: b067 4e3d eca2 1ebe 36e0 9dbd 2e36 c3bd
00000380: 1199 13be 2594 ee3d 3740 9d3c 11a4 63bd
00000390: 6ccd a5bd 45c2 5bbd 1b79 16bc 3ab4 b6bd
000003a0: 26fe 60bd c471 923d 5302 c1bd c8a2 9c3c
000003b0: 39bb 87bd f9fd dc3d ccb2 c5bd 6b3c ebbc
000003c0: 78fe 123e 2d45 32bd a155 ccbd 85d3 8cbd
000003d0: 30e1 2ebe 3474 fc3d 0a8a 3abd da69 b6bd
000003e0: 3419 79bb 687e 9c3c 3714 73bb 9440 1f3d
000003f0: 50b1 e53d 0934 ec3c 1caa 303d 2f7c acbd

cells.1.h2h.bias f4 [256]
0.06458874 -0.07853522 0.091789864 -0.069344655 0.07645622 0.008058093 -0.08197841 0.02256854
0.00013400748 0.11845971 0.060827114 0.0921184 -0.06595596 0.06882575 0.07521101 0.07421605
0.019573934 0.07164461 -0.023561362 -0.15114377 0.0015574204 -0.0055484558 -0.048102845 0.13380596
0.10194936 -0.044532426 -0.0027665533 0.1047058 0.08072456 0.09834763 0.039876446 -0.020014858
0.057467725 0.009581785 -0.09064674 0.0862669 0.04347587 -0.06945556 0.062152583 0.027414387
0.008836512 -0.05109662 0.082039416 0.062921256 0.12271577 0.052349713 0.043037087 0.08646604
-0.08200884 -0.06349922 0.001419604 -0.13719256 0.04336836 0.11803597 -0.025185168 0.07253543
-0.010571185 0.10899637 0.076300815 0.028964441 0.034054816 -0.0023928739 -0.016561117 0.050861508
-0.029746482 -0.01882684 -0.008482171 -0.124435976 0.08686558 0.06862452 -0.086924516 -0.008330093
-0.061887797 -0.110565804 -0.081050746 -0.021289023 -0.026337154 0.045999102 -0.024157159 0.10869851
0.051191796 -0.1274434 0.11341374 -0.13390397 -0.12210785 -0.047913704 0.011942012 0.08128871
0.038672347 -0.08592217 0.033589236 -0.080180675 -0.10343089 -0.09937036 -0.05601978 0.079071686
-0.1522541 -0.053787112 -0.11188047 0.089668155 -0.00014649704 0.08036666 -0.040953737 -0.09014355
0.109866515 -0.12296285 0.053153183 0.093760006 -0.04050716 0.07357691 -0.074971616 -0.093074106
-0.011684608 -0.0042717364 -0.08731505 -0.12517162 0.021614464 -0.08643008 -0.033006147 -0.050958425
0.005334963 -0.14437853 0.074349836 0.08665633 0.05112709 -0.036727913 -0.113333285 -0.014112931
0.09738041 -0.03575765 0.027159657 -0.020838307 -0.009272132 -0.022981167 0.13312007 0.082567304
-0.085475646 0.07416258 -0.0831238 0.10182866 -0.07749697 -0.13776417 0.015361624 -0.04453889
-0.066501126 -0.030377049 0.027002648 0.079081595 -0.025479551 0.083119445 0.057583213 0.106945254
0.08289333 -0.104900815 0.032469455 -0.08644844 0.049395684 -0.11279069 -0.09608552 0.025361808
-0.03571138 -0.020932477 0.07518932 0.06636043 0.07211587 -0.11568578 -0.09341473 0.12437291
0.04797863 -0.102595426 -0.11555565 -0.046020184 -0.0063142222 0.106942564 0.020136354 0.01833357
0.06220018 0.0174374 0.006396069 0.05455547 -0.08701809 -0.08983341 -0.03992732 0.05492389
-0.07632337 0.032532025 -0.10395502 0.0026485974 0.114097655 -0.09478227 -0.05952007 0.057495043
-0.05983144 0.10318035 -0.024952946 0.110721566 0.051643748 0.12695049 -0.114074595 0.09467334
-0.056106772 0.029171225 0.08494874 0.10525114 0.123873115 0.013354187 0.08864152 -0.11063202
-0.12950848 0.15047908 -0.080161236 -0.04176458 -0.028609205 -0.10946092 -0.042100616 0.12609334
0.021518167 0.03327659 0.081566736 0.014022112 0.08052747 -0.022292985 0.14838703 0.0021893468
0.09180941 -0.033540014 -0.0617646 0.08867585 0.0028597016 -0.096716195 0.16976807 0.091990836
-0.08215614 0.012001696 0.10341115 -0.02949152 0.11618983 -0.08235143 -0.08273469 0.014862424
-0.08743806 -0.011324182 -0.011714442 -0.030693533 0.041829154 -0.010695353 0.037982468 -0.05542292
0.0074299383 -0.12060011 -0.034598753 -0.0033321325 0.10922499 -0.033925097 -0.099805266 0.0024185723
00000000: 1a47 843d 13d7 a0bd 53fc bb3d 9204 8ebd
00000010: 1495 9c3d 1706 043c 4ce4 a7bd a9e1 b83c
00000020: 5c84 0c39 019b f23d da25 793d 92a8 bc3d
00000030: eb13 87bd 84f4 8c3d 3b08 9a3d 96fe 973d
00000040: 8459 a03c 69ba 923d c203 c1bc 6fc5 1abe
00000050: 5b22 cc3a d2cf b5bb 7d07 45bd 6e04 093e
00000060: d3ca d03d a267 36bd 104f 35bb ff6f d63d
00000070: eb52 a53d 7b6a c93d 7c55 233d 33f6 a3bc
00000080: 4763 6b3d ebfc 1c3c ffa4 b9bd b3ac b03d
00000090: c113 323d b73e 8ebd b593 7e3d 2394 e03c
000000a0: 05c7 103c b04a 51bd 4804 a83d dcdc 803d
000000b0: 6852 fb3d a76c 563d a847 303d 1b15 b13d
000000c0: 40f4 a7bd e10b 82bd 0212 ba3a 357c 0cbe
000000d0: 05a3 313d d8bc f13d 2051 cebc 758d 943d
000000e0: c332 2dbc 7d39 df3d 9a43 9c3d d646 ed3c
000000f0: 107d 0b3d c3d1 1cbb 2eab 87bc 2854 503d
00000100: e5ae f3bc bf3a 9abc cef8 0abc 4ad8 febd
00000110: 95e6 b13d 038b 8c3d 7b05 b2bd f17a 08bc
00000120: 0f7e 7dbd 5370 e2bd effd a5bd 5166 aebc
00000130: 04c1 d7bc 8e69 3c3d 3ce5 c5bc 539d de3d
00000140: 7dae 513d 8680 02be 7745 e83d 1f1e 09be
00000150: ae13 fabd 2941 44bd 6ea8 433c b27a a63d
00000160: e566 1e3d f6f7 afbd de94 093d c435 a4bd
00000170: 93d3 d3bd b082 cbbd ff74 65bd 56f0 a13d
00000180: 80e8 1bbe e04f 5cbd 9621 e5bd f0a3 b73d
00000190: 009d 19b9 4797 a43d 1bbf 27bd 2e9d b8bd
000001a0: b201 e13d f2d3 fbbd 27b7 593d 3f05 c03d
000001b0: d6ea 25bd 7eaf 963d b88a 99bd a39d bebd
000001c0: cc70 3fbc ecf9 8bbb 3cd2 b2bd fd2c 00be
000001d0: d110 b13c 4102 b1bd 7431 07bd c8b9 50bd
000001e0: ead0 ae3b f7d7 13be ba44 983d e078 b13d
000001f0: a46a 513d 0270 16bd 481b e8bd ec39 67bc
00000200: 616f c73d 9d76 12bd ee7d de3c 19b5 aabc
00000210: 24ea 17bc 0043 bcbc a150 083e 0c19 a93d
00000220: db0d afbd 8de2 973d d03c aabd 8b8b d03d
00000230: bbb6 9ebd 0d12 0dbe 52af 7b3c 696e 36bd
00000240: be31 88bd 4ad9 f8bc a834 dd3c 88f5 a13d
00000250: 7eba d0bc 873a aa3d 60dc 6b3d 1d06 db3d
00000260: fac3 a93d 3dd6 d6bd b1fe 043d e10b b1bd
00000270: 2153 4a3d cefe e6bd 7cc8 c4bd 91c3 cf3c
00000280: 1946 12bd 967a abbc dcfc 993d fae7 873d
00000290: 7cb1 933d abec ecbd 3950 bfbd 39b7 fe3d
000002a0: 3d85 443d 8d1d d2bd 71a8 ecbd a97f 3cbd
000002b0: 89e7 cebb b404 db3d fff4 a43c 4830 963c
000002c0: 9ec5 7e3d e1d8 8e3c 1e96 d13b 8e75 5f3d
000002d0: 8a36 b2bd 94fa b7bd d48a 23bd dff7 603d
000002e0: 6d4f 9cbd 4d40 053d 5fe6 d4bd 1794 2d3b
000002f0: 08ac e93d 351d c2bd 51cb 73bd ec7f 6b3d
00000300: d011 75bd 3850 d33d 1f6a ccbc fdc1 e23d
00000310: 6588 533d 4fff 013e f19f e9bd 19e4 c13d
00000320: 37d0 65bd 7ef8 ee3c 9bf9 ad3d e98d d73d
00000330: 30b1 fd3d 85cb 5a3c af89 b53d 0a93 e2bd
00000340: df9d 04be 3017 1a3e 932b a4bd 5611 2bbd
00000350: da5d eabc 0c2d e0bd b271 2cbd 9d1e 013e
00000360: de46 b03c 094d 083d 760c a73d 00bd 653c
00000370: 96eb a43d c79f b6bc c5f2 173e 257b 0f3b
00000380: 9206 bc3d 4161 09bd e1fc 7cbd af9b b53d
00000390: d569 3b3b 2413 c6bd aed7 2d3e b165 bc3d
000003a0: 7a41 a8bd c3a2 443c 3ac9 d33d 3398 f1bc
000003b0: eff4 ed3d dea7 a8bd ce70 a9bd 8681 733c
000003c0: ba12 b3bd 1089 39bc eeed 3fbc 0171 fbbc
000003d0: 0c55 2b3d 903b 2fbc 8193 1b3d 2503 63bd
000003e0: d776 f33b 31fd f6bd 6cb7 0dbd e85f 5abb
000003f0: 5ab1 df3d 0bf5 0abd b466 ccbd e980 1e3b
