model_group/models_group_demand/LSTM_model_BRONX_PELHAM PARKWAY.pth (torch, 351088 bytes, 17 tensors)

input_projection.weight f4 [2, 2]
0.57838744 0.62853503 -0.5081034 -0.6452492
00000000: 3311 143f ace7 203f 1013 02bf 0d2f 25bf

input_projection.bias f4 [2]
-0.70699185 -0.674937
00000000: 6bfd 34bf acc8 2cbf

cells.0.x2h.weight f4 [256, 2]
-0.7554744 0.61881447 0.6085651 -0.1746507 0.49809092 -0.12668209 -0.11240735 -0.47526717
-0.48033792 0.6041969 -0.5337479 -0.3554382 0.21500799 -0.3094857 -0.09004959 -0.018153695
-0.46118107 0.48438424 0.4319156 0.31140655 -0.3945877 -0.13861617 0.57633907 -0.015301736
0.25453788 -0.23116621 -0.31769425 -0.12344551 -0.4914861 0.44940817 0.11707044 0.6237064
-0.54944897 -0.5077687 0.4673098 -0.40011668 0.5708623 0.4734702 0.27292022 0.6080149
0.31625596 -0.47133052 0.15250821 -0.67590195 0.44993058 0.31928858 0.23734842 0.42854658
-0.8049143 -0.37714136 0.5047249 -0.10804416 -0.15041628 -0.34456545 -0.583015 0.72089946
0.20393705 0.67679626 0.7147377 -0.46101704 -0.1074871 -0.041023847 -0.53701425 0.773155
0.5880185 0.2697015 -0.060593084 0.41099557 0.7231061 -0.28287384 0.18611903 -0.7064741
-0.65998876 -0.42058027 0.31659603 0.43311802 -0.56774217 -0.24305193 0.068983816 -0.08150954
-0.04097807 0.46260756 -0.23611102 0.16506094 0.33918157 -0.72899985 -0.39543056 0.4487387
0.053834535 0.66893137 -0.8018439 -0.29677826 -0.104937755 0.14258526 0.13735016 -0.20260532
0.49552616 0.66381365 -0.6761444 -0.20784947 -0.5696331 0.4467282 0.111535095 -0.1192569
-0.23109373 -0.4233815 -0.012483286 0.09417904 0.0012761956 -0.3384235 -0.05931557 0.44184425
-0.52536815 0.41312 -0.037874866 0.7363222 0.5929197 0.2504435 -0.5758385 0.11231027
0.46900582 0.42020726 -0.41543064 -0.6799132 -0.67935055 -0.4335016 0.6416838 -0.04991167
0.18668209 -0.6757722 -0.63132113 -0.08668082 -0.28162035 0.020648818 -0.40095645 -0.34900048
0.29254436 -0.71114165 -0.10479427 0.056320623 0.37586764 0.5119269 0.61261 -0.68764263
-0.11316545 -0.09647402 -0.117517546 0.19934386 0.09931725 -0.65120137 0.17213942 0.3979914
-0.4398071 0.57013047 0.33096856 0.3649347 -0.04308696 0.063233584 -0.35021356 0.6868887
0.22911726 -0.50395787 -0.7173695 -0.10888411 -0.688723 -0.021200513 -0.105809435 -0.43546906
-0.012000232 -0.69668907 0.6749376 -0.023698093 -0.10460267 0.17230691 -0.3120144 -0.28709164
-0.5022169 0.37848264 -0.59327173 -0.18152545 -0.7206415 0.64830095 0.25916278 -0.63832426
0.65488803 -0.41321173 0.34117103 -0.35417998 -0.26231313 -0.17571045 0.27257073 -0.52756584
-0.45718387 0.06864795 -0.57435095 -0.46909413 -0.1847783 -0.56799924 0.41366845 0.28355914
0.20994158 0.2906551 0.62050086 -0.3434215 0.09717978 -0.21517114 0.63007283 -0.106169745
0.14955802 -0.040197507 0.65188617 0.10568996 0.24953954 0.2876576 -0.70025444 -0.37575218
-0.06613085 -0.2934587 0.007906355 0.51657385 0.38418648 0.58200866 -0.09036094 -0.1807854
-0.23676468 -0.29726604 -0.008254742 -0.6850983 0.3258771 0.1600312 -0.09722409 0.29737967
0.24458832 -0.51667804 -0.3965709 -0.045079596 0.7112896 0.41117337 0.35518697 0.06603331
-0.36174348 0.47343132 -0.6867847 0.62652296 0.5639669 0.23603734 0.49703845 -0.07045053
0.3252924 0.65838164 0.61274683 -0.35789007 -0.31765467 -0.2675995 -0.04256277 0.07901874
00000000: c566 41bf a06a 1e3f ecca 1b3f a2d7 32be
00000010: c605 ff3e f3b8 01be d335 e6bd 3856 f3be
00000020: daee f5be a6ac 1a3f b4a3 08bf fffb b5be
00000030: 0e2b 5c3e e974 9ebe eb6b b8bd 0fb7 94bc
00000040: ed1f ecbe 3601 f83e 0b24 dd3e ae70 9f3e
00000050: 6607 cabe 66f1 0dbe f58a 133f 22b4 7abc
00000060: ca52 823e d6b6 6cbe d2a8 a2be 00d1 fcbd
00000070: 11a4 fbbe d418 e63e a0c2 ef3d 39ab 1f3f
00000080: b0a8 0cbf 21fd 01bf 3b43 ef3e 18dc ccbe
00000090: 0824 123f b06a f23e 33bc 8b3e dda6 1b3f
000000a0: 4dec a13e 3c52 f1be 1d2b 1c3e e907 2dbf
000000b0: 4d5d e63e cb79 a33e 770b 733e 756a db3e
000000c0: dd0e 4ebf ac18 c1be a735 013f 4246 ddbd
000000d0: ba06 1abe e26a b0be 7940 15bf de8c 383f
000000e0: e0d4 503e 8542 2d3f 0df9 363f 6d0a ecbe
000000f0: 3222 dcbd 9f08 28bd c479 09bf 7ced 453f
00000100: 6188 163f 5116 8a3e 7430 78bd 036e d23e
00000110: 7b1d 393f d7d4 90be fd95 3e3e 7ddb 34bf
00000120: 06f5 28bf 4c56 d7be e018 a23e a5c1 dd3e
00000130: 8d57 11bf 9be2 78be 6347 8d3d 79ee a6bd
00000140: 9fd8 27bd e6da ec3e 16c7 71be bc05 293e
00000150: 35a9 ad3e bc9f 3abf e075 cabe 14c1 e53e
00000160: 9a81 5c3d 163f 2b3f a445 4dbf 52f3 97be
00000170: 9be9 d6bd df01 123e 85a5 0c3e c577 4fbe
00000180: 9bb5 fd3e b1ef 293f cd17 2dbf 7ed6 54be
00000190: 7ad3 11bf 8fb9 e43e 836c e43d f63c f4bd
000001a0: d6a3 6cbe 76c5 d8be b286 4cbc f1e0 c03d
000001b0: 0546 a73a d845 adbe e2f4 72bd 6939 e23e
000001c0: 877e 06bf 7784 d33e ad22 1bbd 9d7f 3c3f
000001d0: 96c9 173f 213a 803e 276a 13bf ed02 e63d
000001e0: 8821 f03e 6825 d73e 53b3 d4be cb0e 2ebf
000001f0: ebe9 2dbf ecf3 ddbe 6445 243f 2e70 4cbd
00000200: 9729 3f3e 68ff 2cbf 439e 21bf b785 b1bd
00000210: 8b30 90be b627 a93c 2a4a cdbe 31b0 b2be
00000220: 60c8 953e 610d 36bf 619e d6bd 74b0 663d
00000230: b971 c03e a40d 033f 02d4 1c3f 5909 30bf
00000240: 4ac3 e7bd 2c94 c5bd 0aad f0bd cc20 4c3e
00000250: d866 cb3d 22b5 26bf 5145 303e 87c5 cb3e
00000260: 652e e1be 12f4 113f b674 a93e b9d8 ba3e
00000270: f47b 30bd 9c80 813d 314f b3be f0d7 2f3f
00000280: b79d 6a3e 6203 01bf 87a5 37bf a2fe debd
00000290: 2750 30bf b3ac adbc 9eb2 d8bd cdf5 debe
000002a0: 9f9c 44bc 375a 32bf b6c8 2c3f 8122 c2bc
000002b0: ed39 d6bd 3971 303e 5ac0 9fbe adfd 92be
000002c0: 4991 00bf 7ac8 c13e a8e0 17bf cfe1 39be
000002d0: f67b 38bf 0df7 253f fcb0 843e 3869 23bf
000002e0: bea6 273f 7d90 d3be f8ad ae3e 1457 b5be
000002f0: e84d 86be 71ed 33be 648e 8b3e 8e0e 07bf
00000300: 0114 eabe 4c97 8c3d aa08 13bf 1b2d f0be
00000310: 8636 3dbe 6668 11bf 5acc d33e aa2e 913e
00000320: edfa 563e bfd0 943e 25d9 1e3f f1d4 afbe
00000330: 3106 c73d d355 5cbe 744c 213f 866f d9bd
00000340: bd25 193e 24a6 24bd 03e2 263f fa73 d83d
00000350: 4b87 7f3e db47 933e e043 33bf 9762 c0be
00000360: 9c6f 87bd 3840 96be a889 013c 2f3e 043f
00000370: 17b4 c43e 85fe 143f 280f b9bd cf1f 39be
00000380: 7172 72be 4133 98be e63e 07bc 9a62 2fbf
00000390: 5dd9 a63e 38df 233e 6c1d c7bd 2642 983e
000003a0: 5c75 7a3e 0345 04bf 570b cbbe 62a5 38bd
000003b0: 1317 363f 5185 d23e 11db b53e 793c 873d
000003c0: 7136 b9be 9765 f23e 1fd1 2fbf cf63 203f
000003d0: 2260 103f c6b3 713e d37b fe3e 5e48 90bd
000003e0: ba8c a63e b38b 283f fadc 1c3f 5e3d b7be
000003f0: a2a3 a2be cd02 89be 4d56 2ebd 94d4 a13d

cells.0.x2h.bias f4 [256]
-0.21878918 -0.09277822 -0.22300707 -0.49290946 0.27660793 -0.51022387 0.36775097 -0.14872956
-0.10154228 -0.2965029 0.13781534 0.46027732 -0.30328542 0.32681066 0.39011073 -0.26539972
0.17030168 -0.28967178 0.5918342 0.6384633 -0.15203166 0.33657476 -0.5812039 -0.46463335
0.20245036 -0.64905876 0.53494906 0.22553743 0.6299459 0.47987142 -0.14380911 0.6475528
0.5446277 0.16222906 0.35896775 -0.24931733 0.063977964 -0.35469836 0.4445419 -0.5217158
-0.55838627 0.75073415 -0.13332471 0.35093975 -0.1533 0.63173 -0.47901782 -0.54413843
0.44282347 0.7271861 0.4415082 0.1499517 -0.14371772 0.27856526 0.088299714 -0.49979392
0.6381535 -0.60070753 0.2696271 0.008885788 -0.51330787 -0.36279798 -0.55034584 0.6349985
-0.4107018 0.41778755 0.62543374 -0.24492978 0.48646745 -0.04045217 -0.6572262 -0.25692245
0.11081074 0.104495905 0.07707072 -0.35576683 -0.16861473 -0.28358123 0.07174743 0.6470264
-0.72922677 0.48914644 0.69022787 -0.0057118963 0.43249345 -0.23626375 0.58113235 0.08180835
-0.32855982 0.66169477 0.017268354 -0.5232298 -0.54241925 0.24760361 -0.48611736 0.6910278
-0.4469699 -0.12789 -0.47384515 -0.1553476 0.17085707 -0.11383059 0.09305034 0.64308673
-0.54054034 0.5018814 -0.07967336 0.4260246 0.023267033 -0.5676341 -0.38364863 -0.2579293
0.095259435 -0.60778993 -0.17472339 -0.03416547 -0.31495392 0.6817065 0.1507398 0.5291814
0.010030585 -0.6725033 -0.13411023 -0.5779512 0.5519666 0.13259315 0.13510948 0.55794215
-0.023296101 0.2984818 0.29924244 0.07653446 0.20847699 0.5706305 -0.027416198 -0.46347842
-0.4146068 0.17519343 0.30397797 -0.23796992 0.48167497 0.56893706 -0.38567314 -0.08421585
0.19744681 -0.16124353 0.28688985 -0.13027707 0.55689496 0.21531264 0.68096226 0.21304104
0.18393646 0.37353215 -0.022369616 0.17692763 -0.68256575 0.13952702 -0.5063033 -0.51747715
-0.01386199 0.4306208 0.056938604 0.2293141 -0.4473594 -0.057687905 0.46546975 -0.18718901
-0.011070168 0.5474184 0.09315369 -0.20136154 -0.3967534 -0.17240123 -0.18827793 -0.072318405
-0.5576046 -0.17004725 -0.20791887 -0.21961741 -0.1665166 -0.11651722 -0.49534535 -0.30830675
0.33841804 -0.29635745 -0.23330213 0.1011731 -0.7060426 0.1402085 -0.18211925 0.16575389
0.0030717344 -0.47960052 -0.07562322 -0.16938895 -0.10343189 -0.3094971 -0.008456697 0.07491639
-0.38480565 -0.027398199 0.41697127 0.69508016 0.5472008 0.68607605 -0.3727621 -0.22002217
0.47550088 0.16869462 -0.17772985 0.63514966 0.32212448 -0.63864356 0.5069157 0.17837954
-0.24684893 -0.63525647 0.37462163 0.27667516 0.49100462 0.18950115 0.07369875 -0.068201385
0.17447104 -0.35128212 0.042228222 0.45958814 -0.40726745 -0.6444913 -0.6854352 -0.4311746
0.05961635 -0.5756402 0.56345046 0.67960477 0.57799757 0.14512324 0.45508832 0.39579004
0.18468241 0.6752196 0.4433766 -0.41524094 0.3142764 -0.4403525 -0.21267138 -0.42754912
0.43591666 -0.021016259 0.47326607 0.41458502 0.0661624 0.04915695 0.6710136 0.27467045
00000000: 450a 60be 8202 bebd f75b 64be a15e fcbe
00000010: 8e9f 8d3e 089e 02bf db49 bc3e 904c 18be
00000020: 66f5 cfbd 3acf 97be 771f 0d3e 78a9 eb3e
00000030: 3a48 9bbe ba53 a73e 98bc c73e 79e2 87be
00000040: 9063 2e3e dc4f 94be 7282 173f 5572 233f
00000050: 30ae 1bbe 8753 ac3e c7c9 14bf 6ce4 edbe
00000060: 264f 4f3e b728 26bf 6cf2 083f 49f3 663e
00000070: 2244 213f b5b1 f53e b242 13be 05c6 253f
00000080: b96c 0b3f 601f 263e 9fca b73e 0b4d 7fbe
00000090: e106 833d 069b b5be ff9a e33e 2b8f 05bf
000000a0: 67f2 0ebf 1d30 403f 4686 08be 60ae b33e
000000b0: adfa 1cbe 0fb9 213f d341 f5be a84c 0bbf
000000c0: c2b9 e23e de28 3a3f 5d0d e23e f08c 193e
000000d0: bd2a 13be 1ba0 8e3e 7bd6 b43d fde4 ffbe
000000e0: 075e 233f f8c7 19bf 900c 8a3e b295 113c
000000f0: 2568 03bf a8c0 b9be 77e3 0cbf 438f 223f
00000100: 8247 d2be 40e8 d53e 6d1c 203f dfce 7abe
00000110: 4312 f93e 2db1 25bd fa3f 28bf 578b 83be
00000120: bef0 e23d f301 d63d 41d7 9d3d 1227 b6be
00000130: 57a9 2cbe 8f31 91be 51f0 923d 86a3 253f
00000140: 9bae 3abf 6771 fa3e c6b2 303f dc2a bbbb
00000150: c86f dd3e 20ef 71be 17c5 143f 238b a73d
00000160: fe38 a8be d464 293f 5d76 8d3c 63f2 05bf
00000170: fddb 0abf cd8b 7d3e 60e4 f8be 33e7 303f
00000180: 3dd9 e4be 99f5 02be d59b f2be 7113 1fbe
00000190: 28f5 2e3e 0320 e9bd 2d91 be3d 55a1 243f
000001a0: da60 0abf 4d7b 003f c92b a3bd e51f da3e
000001b0: 819a be3c 7850 11bf 986d c4be 4f0f 84be
000001c0: 6117 c33d 1f98 1bbf b0ea 32be 18f1 0bbd
000001d0: a441 a1be 5184 2e3f 895b 1a3e 6f78 073f
000001e0: 5357 243c 2d29 2cbf 3154 09be 9cf4 13bf
000001f0: af4d 0d3f 80c6 073e 245a 0a3e 4cd5 0e3f
00000200: 77d7 bebc 9bd2 983e 4e36 993e 19be 9c3d
00000210: fe7a 553e d714 123f ef97 e0bc 0b4d edbe
00000220: 5847 d4be e865 333e 00a3 9b3e 63ae 73be
00000230: 1a9e f63e dca5 113f f376 c5be 5c79 acbd
00000240: 7f2f 4a3e 061d 25be 3ae3 923e 5a67 05be
00000250: ab90 0e3f eb7a 5c3e 8b53 2e3f 6e27 5a3e
00000260: d759 3c3e 9b3f bf3e 7c40 b7bc 842c 353e
00000270: a1bc 2ebf 2ce0 0e3e 189d 01bf 6279 04bf
00000280: 661d 63bc 547a dc3e 7438 693d 51d1 6a3e
00000290: 4b0c e5be 274a 6cbd 0d52 ee3e 7aae 3fbe
000002a0: a65f 35bc 9d23 0c3f 5dc7 be3d b831 4ebe
000002b0: 4323 cbbe f389 30be eecb 40be ac1b 94bd
000002c0: 2dbf 0ebf de20 2ebe afe8 54be 63e3 60be
000002d0: 5483 2abe 95a0 eebd e89d fdbe 62da 9dbe
000002e0: 2145 ad3e 2abc 97be c1e6 6ebe d833 cf3d
000002f0: 35bf 34bf d192 0f3e 787d 3abe 63bb 293e
00000300: 274f 493b 338e f5be 59e0 9abd 4c74 2dbe
00000310: 19d4 d3bd 6776 9ebe f58d 0abc c46d 993d
00000320: 3f05 c5be 3072 e0bc 427d d53e c6f0 313f
00000330: 5a15 0c3f aea2 2f3f adda bebe 7e4d 61be
00000340: da74 f33e 48be 2c3e d0fe 35be 2b99 223f
00000350: 80ed a43e 257e 23bf 3ac5 013f 20a9 363e
00000360: f7c5 7cbe 2ba0 22bf 68ce bf3e 5ea8 8d3e
00000370: f564 fb3e 970c 423e 5fef 963d 2bad 8bbd
00000380: 89a8 323e 40db b3be 80f7 2c3d 234f eb3e
00000390: 5c85 d0be 62fd 24bf ae78 2fbf ebc2 dcbe
000003a0: 4630 743d 285d 13bf 4a3e 103f 94fa 2d3f
000003b0: a6f7 133f 309b 143e 5601 e93e fea4 ca3e
000003c0: 631d 3d3e 31db 2c3f 4202 e33e 769a d4be
000003d0: d6e8 a03e e275 e1be 87c6 59be b8e7 dabe
000003e0: 7830 df3e 4a2a acbc ee4f f23e 7d44 d43e
000003f0: 2780 873d cc58 493d 8cc7 2b3f 9ba1 8c3e

cells.0.h2h.weight f4 [256, 64]
-0.059748795 -0.00840988 -0.10456428 0.123097785 0.21170339 -0.04199561 -0.014229623 -0.049385913
-0.028434237 0.13527915 -0.10644987 -0.031001953 0.016414542 0.1363962 -0.15376735 -0.12929
0.07797635 -0.046558138 0.20278797 0.15100244 0.13474144 -0.025555706 0.17002815 -0.20929424
0.034335937 0.17605004 0.205742 -0.038806885 -0.16323408 -0.027411507 -0.08136145 -0.2081637
0.12940294 0.008715437 0.03054864 0.10141802 -0.1034221 -0.12273106 0.11378726 -0.15438339
0.12652138 0.14791833 0.097601786 -0.018532554 -0.18217932 0.11318955 0.06511116 0.1655954
-0.015255551 -0.02080889 0.025056416 0.051157378 -0.03032534 -0.048218932 -0.12709 -0.15906093
0.00089360366 -0.12515086 -0.09206229 0.01998345 -0.07896765 -0.19961964 -0.07930246 0.047091916
0.102139495 -0.04901821 0.07527584 0.07723211 -0.072544225 -0.054807764 -0.015534483 0.03071521
-0.08107995 0.047058627 0.077380635 -0.106320456 -0.07288451 0.11608434 -0.12038009 -0.025787685
0.053528395 -0.0296704 -0.09589173 0.057840932 0.100286625 0.06626735 -0.109475 -0.002603767
-0.026583249 -0.021872371 -0.09072159 0.07713318 -0.023746796 0.13285819 -0.013424814 0.0027276576
0.15408395 -0.03137582 0.0768217 0.07977327 -0.009084259 -0.08738014 -0.06716721 -0.020112133
-0.05558479 -0.13791132 -0.1067302 -0.0023866654 0.093727805 -0.09681374 -0.10874449 0.07319195
-0.022410648 -0.07690644 -0.017058048 -0.02775886 0.11852858 -0.121942975 -0.12038006 0.032998778
-0.10949111 0.058035728 0.17202811 0.027138881 0.056936633 -0.09245428 0.10374638 0.048517384
0.04446464 0.06533339 -0.0073471474 0.05182391 0.049767293 0.09618327 0.042962767 0.021495752
0.023385119 -0.11453656 -0.03650044 -0.060338628 -0.085116595 -0.04239419 0.06579556 -0.05663773
0.08869922 -0.10154381 0.064438164 0.071901895 -0.06983239 0.08421756 0.04308379 -0.105993345
-0.005407941 -0.09400467 0.09270741 -0.04897962 0.09530869 0.07784057 -0.008416731 -0.07207272
0.06214024 -0.08248054 0.1091227 -0.009600773 -0.056412347 0.07989981 -0.080929466 -0.01854649
-0.010376141 0.023490883 0.02231236 0.04630663 0.08938069 0.012724538 0.033916347 -0.07773121
-0.026673518 -0.053250235 0.076290764 0.108626306 -0.08843344 0.13691607 0.08372659 0.032745887
0.02128059 0.08896577 -0.054987192 0.059427835 -0.0009710306 -0.11248598 0.06801232 0.007240865
0.16399585 0.1594144 -0.023534838 0.0282024 0.19496654 0.037938267 0.1408837 -0.15637343
0.10414404 0.20646544 -0.21941048 -0.13522364 0.20512588 0.05332047 -0.10485386 0.19002892
-0.1843288 0.062212072 0.066329286 0.009251031 0.20766416 -0.07721558 -0.07735469 -0.03387066
-0.014123569 0.2642778 0.10358412 0.059215125 -0.052173942 -0.03779186 0.00791377 -0.035880703
-0.05857233 0.1560563 -0.09225946 0.13615482 -0.12366109 -0.1836913 0.055646725 -0.13826852
0.043058526 0.20826001 0.049510226 -0.12573092 -0.10647755 0.0069331904 -0.1312185 0.11585433
-0.023181003 -0.18107478 -0.042952906 0.053744283 0.12811783 -0.22814877 0.0696536 -0.16610672
-0.004565789 -0.15104969 -0.038891073 -0.058916867 -0.08151141 -0.18709797 -0.19868073 0.2392399
00000000: 27bb 74bd 98c9 09bc cc25 d6bd b11a fc3d
00000010: c6c8 583e 9703 2cbd 5d23 69bc e248 4abd
00000020: ebee e8bc 9e86 0a3e 6402 dabd cff7 fdbc
00000030: ca77 863c 72ab 0b3e 3075 1dbe 9964 04be
00000040: 11b2 9f3d bfb3 3ebd a6a7 4f3e 62a0 1a3e
00000050: a9f9 093e 335a d1bc dc1b 2e3e 3b51 56be
00000060: d7a3 0c3d 7646 343e 08ae 523e f8f3 1ebd
00000070: d626 27be 198e e0bc d5a0 a6bd dd28 55be
00000080: 3482 043e 31cb 0e3c 2441 fa3c 40b4 cf3d
00000090: f7ce d3bd 6c5a fbbd 4c09 e93d ae16 1ebe
000000a0: d28e 013e e777 173e 72e3 c73d 95d1 97bc
000000b0: 378d 3abe eccf e73d 0059 853d d791 293e
000000c0: 6bf2 79bc 6877 aabc 1d43 cd3c 668a 513d
000000d0: d96c f8bc 3781 45bd e223 02be dee0 22be
000000e0: ba40 6a3a 8c27 00be 278b bcbd 55b4 a33c
000000f0: cbb9 a1bd 1769 4cbe 5469 a2bd 74e3 403d
00000100: 832e d13d 52c7 48bd 382a 9a3d de2b 9e3d
00000110: 1192 94bd 1b7e 60bd 5884 7ebc 779e fb3c
00000120: 3f0d a6bd 8cc0 403d bd79 9e3d 8abe d9bd
00000130: 7944 95bd a0bd ed3d d689 f6bd b240 d3bc
00000140: 9740 5b3d 570f f3bc e262 c4bd 9dea 6c3d
00000150: 1363 cd3d 2db7 873d 6e34 e0bd f6a3 2abb
00000160: 1dc5 d9bc b02d b3bc 3ecc b9bd 00f8 9d3d
00000170: a488 c2bc fa0b 083e c0f3 5bbc 80c2 323b
00000180: 2fc8 1d3e ef83 00bd b254 9d3d 2b60 a33d
00000190: 25d6 14bc 5cf4 b2bd f68e 89bd 33c2 a4bc
000001a0: e0ac 63bd a038 0dbe 5d95 dabd 9a69 1cbb
000001b0: 5df4 bf3d 4846 c6bd 6eb5 debd a9e5 953d
000001c0: 8996 b7bc 2081 9dbd 52bd 8bbc 8c66 e3bc
000001d0: 1dbf f23d 3dbd f9bd d289 f6bd ba29 073d
000001e0: e03c e0bd dfb6 6d3d 2328 303e 5c52 de3c
000001f0: 6336 693d ab58 bdbd fb78 d43d 2aba 463d
00000200: 8e20 363d 83cd 853d 57c0 f0bb 4f45 543d
00000210: cad8 4b3d bcfb c43d baf9 2f3d dc17 b03c
00000220: 2692 bf3c 2592 eabd 7c81 15bd a325 77bd
00000230: 9c51 aebd 88a5 2dbd d3bf 863d f7fc 67bd
00000240: f0a7 b53d 33f6 cfbd 28f8 833d 4d41 933d
00000250: 4904 8fbd 427a ac3d a178 303d 0a13 d9bd
00000260: 1935 b1bb 8585 c0bd 62dd bd3d db9e 48bd
00000270: 3431 c33d e06a 9f3d 54e6 09bc dd9a 93bd
00000280: c486 7e3d 8feb a8bd b97b df3d 904c 1dbc
00000290: a210 67bd 83a2 a33d 59be a5bd cfee 97bc
000002a0: b100 2abc f46f c03c 69c8 b63c 05ac 3d3d
000002b0: 390d b73d 957a 503c deeb 0a3d 8a31 9fbd
000002c0: 6c82 dabc eb1c 5abd 553e 9c3d 7877 de3d
000002d0: 971c b5bd ba33 0c3e d978 ab3d 8d20 063d
000002e0: a254 ae3c b033 b63d 403a 61bd 9a6a 733d
000002f0: c38c 7eba 0d5f e6bd 0b4a 8b3d c744 ed3b
00000300: 87ee 273e 873d 233e 22cc c0bc b808 e73c
00000310: 4fa5 473e 2865 1b3d d143 103e 5b20 20be
00000320: 7849 d53d ad6b 533e 24ad 60be 1178 0abe
00000330: 850c 523e 9166 5a3d 9fbd d6bd f196 423e
00000340: b0c0 3cbe 16d2 7e3d a6d7 873d a391 173c
00000350: eaa5 543e 3423 9ebd 236c 9ebd f6bb 0abd
00000360: 8b66 67bc 6b4f 873e e923 d43d 8f8b 723d
00000370: 58b4 55bd a3cb 1abd c2a8 013c a5f7 12bd
00000380: 8ae9 6fbd 39cd 1f3e 87f2 bcbd 2b6c 0b3e
00000390: 0742 fdbd 9219 3cbe d2ed 633d 4396 0dbe
000003a0: 235e 303d 1d42 553e 3ccb 4a3d 9bbf 00be
000003b0: e710 dabd d12f e33b 245e 06be 0945 ed3d
000003c0: 16e6 bdbc ab6b 39be 63ef 2fbd f722 5c3d
000003d0: 5231 033e d59f 69be 8ca6 8e3d e117 2abe
000003e0: 9d9c 95bb c5ac 1abe 3f4c 1fbd d052 71bd
000003f0: 74ef a6bd 9c96 3fbe f672 4bbe 4efb 743e

cells.0.h2h.bias f4 [256]
-0.058387846 0.11957982 0.050012056 0.10430438 -0.08375453 0.05317197 0.18346941 -0.10966507
-0.06964418 0.03138035 -0.07195356 0.08065368 0.17608348 0.0014901788 -0.14034843 0.03837003
0.06926072 0.07586411 0.056243025 -0.010520444 0.1413042 0.06469986 -0.06689857 0.060538292
0.034576796 0.009464739 0.047067095 -0.0036316258 0.10198758 0.10699208 0.1719602 0.054834954
0.08978981 -0.09768568 0.062200155 0.14417896 -0.11504151 0.06933725 -0.07955996 0.16518609
0.14580205 -0.034893252 0.11983053 -0.07194994 0.07472755 -0.06146113 0.14981194 0.099815756
0.14979284 0.12184804 0.060274642 -0.044240993 0.08136406 -0.056662284 -0.10052036 0.1627658
-0.09345839 0.13279575 -0.029590368 -0.0521675 0.023882627 -0.011025491 0.022701148 -0.032688472
-0.1325645 -0.086774565 0.12520723 0.068965554 0.06542347 -0.06522913 0.043532748 0.04926969
0.01342692 -0.04760729 -0.025479194 -0.10738708 -0.06770733 -0.12931098 -0.141038 -0.092204906
-0.16163673 0.11161892 -0.08495321 0.07330335 0.007519634 0.071365155 -0.12754402 -0.04043233
0.019727279 -0.05360454 -0.060912304 0.049127057 0.1068523 -0.07837794 0.022702076 -0.099588215
0.10994331 -0.13525072 -0.013511655 0.021378962 -0.104971975 -0.06056496 -0.0043718247 0.11438215
0.09237354 0.0055575757 -0.035364095 -0.09764327 0.0012326019 -0.099066965 0.06871013 0.104293965
-0.04587555 -0.0687508 0.047607653 -0.010219689 -0.03367168 -0.020754416 0.08579274 0.010863488
-0.12553194 0.048528187 -0.04669233 -0.1216496 0.12635994 -0.053243183 -0.14216194 -0.12845741
-0.024328869 0.09400222 0.047889207 0.013392358 0.01988495 0.016093897 -0.09069516 -0.030222423
-0.04815402 -0.11473615 0.033167597 -0.11374881 0.076043464 -0.12540427 -0.021263318 -0.07361604
0.020249266 -0.12640998 -0.07508069 -0.044577237 0.0916569 0.061861463 0.0698849 0.062290713
0.06117359 0.10014397 -0.036909986 -0.11854724 -0.104390174 0.07161999 -0.08624322 0.10214924
0.11989683 -0.10381818 -0.04726675 -0.07338318 -0.09718836 0.11436933 -0.028633943 -0.1173251
0.04249656 -0.11162541 -0.100675955 -0.053177685 0.009811064 0.13293664 -0.024231154 0.06629883
-0.053984206 0.10983354 0.13965692 0.1271811 -0.053742893 -0.12003314 -0.018949669 0.079239644
0.04370978 -0.07781498 0.07753461 -0.11589775 -0.07344455 -0.007062694 0.14132404 0.0063073863
0.058523454 0.011845715 -0.115592785 0.016319886 -0.10612989 0.015332344 0.10087478 -0.047922656
0.050303243 0.13117719 -0.08490285 -0.0062147314 -0.04116004 -0.11666738 -0.0061014425 0.023017012
0.1769396 0.00024961404 0.07619966 0.0051723993 -0.06366286 0.09339918 -0.024687985 -0.07196347
0.043709226 0.11848513 -0.033219002 0.15654457 0.12207614 -0.02311787 0.11536294 -0.036010906
0.034266256 0.101928145 -0.077119514 -0.0455063 -0.0153100705 -0.100233935 -0.028349197 0.012452514
0.01636507 0.11622482 -0.007408298 0.008078219 -0.021120088 -0.027999286 -0.024053192 0.07117864
0.17072724 0.061257955 0.1477091 -0.121979244 0.060478374 0.00011203488 0.016100246 0.08718849
0.12871969 0.16478583 0.033474065 0.08069815 -0.09671404 -0.10431791 0.036647633 0.051593766
00000000: 1828 6fbd 44e6 f43d 71d9 4c3d 899d d53d
00000010: 7f87 abbd daca 593d 68df 3b3e 1598 e0bd
00000020: 9ca1 8ebd af88 003d 635c 93bd c22d a53d
00000030: 3a4f 343e 1a52 c33a 80b7 0fbe e429 1d3d
00000040: 90d8 8d3d a45e 9b3d 165f 663d f15d 2cbc
00000050: 0cb2 103e 5c81 843d 1e02 89bd 00f7 773d
00000060: 66a0 0d3d fe11 1b3c 6dc9 403d 9200 6ebb
00000070: ddde d03d aa1e db3d 5616 303e 9e9a 603d
00000080: b8e3 b73d 6e0f c8bd 97c5 7e3d a6a3 133e
00000090: e29a ebbd b000 8e3d 55f0 a2bd 8b26 293e
000000a0: 224d 153e 3aec 0ebd b569 f53d 7d5a 93bd
000000b0: c20a 993d aabe 7bbd 4d68 193e 346c cc3d
000000c0: 4b63 193e 778b f93d 8be2 763d 0b36 35bd
000000d0: 33a2 a63d b616 68bd 9edd cdbd 14ac 263e
000000e0: 1d67 bfbd 9cfb 073e 8067 f2bc 97ad 55bd
000000f0: 80a5 c33c 43a4 34bc c2f7 b93c 59e4 05bd
00000100: fdbe 07be ddb6 b1bd 5336 003e d03d 8d3d
00000110: befc 853d da96 85bd 654f 323d 04cf 493d
00000120: 96fc 5b3c ddff 42bd beb9 d0bc c2ed dbbd
00000130: 24aa 8abd 196a 04be 446c 10be edd5 bcbd
00000140: 1984 25be 7698 e43d f3fb adbd 1120 963d
00000150: 4367 f63b e527 923d e69a 02be 5f9c 25bd
00000160: 1a9b a13c 6f90 5bbd 2e7f 79bd 7439 493d
00000170: 61d5 da3d 9d84 a0bd b4f9 b93c e8f4 cbbd
00000180: f529 e13d 2a7f 0abe fd5f 5dbc ef22 af3c
00000190: 8cfb d6bd f712 78bd 8641 8fbb 3041 ea3d
000001a0: 572e bd3d 531c b63b f1d9 10bd 32f9 c7bd
000001b0: 428f a13a 9fe3 cabd e6b7 8c3d 1398 d53d
000001c0: 00e8 3bbd 38cd 8cbd 3e00 433d 7c70 27bc
000001d0: 51eb 09bd 2a05 aabc 1bb4 af3d c5fc 313c
000001e0: 728b 00be 7ec5 463d 7540 3fbd 6d23 f9bd
000001f0: 8064 013e 8615 5abd e692 11be 578a 03be
00000200: 564d c7bc 3c84 c03d 7927 443d 9f6b 5b3c
00000210: c3e5 a23c 59d7 833c 62be b9bd 0495 f7bc
00000220: 263d 45bd c9fa eabd bfda 073d 23f5 e8bd
00000230: adbc 9b3d fa69 00be 6930 aebc 02c4 96bd
00000240: cae1 a53c 9e71 01be e8c3 99bd 9f96 36bd
00000250: 9db6 bb3d 7262 7d3d d01f 8f3d 8c24 7f3d
00000260: 2991 7a3d 4818 cd3d ed2e 17bd e5c8 f2bd
00000270: 84ca d5bd 80ad 923d 49a0 b0bd 9f33 d13d
00000280: 788c f53d a09e d4bd c89a 41bd ec49 96bd
00000290: b10a c7bd 783a ea3d bb91 eabc 2448 f0bd
000002a0: df10 2e3d dd9b e4bd 322f cebd d8d0 59bd
000002b0: 96be 203c 8b20 083e 6a80 c6bc aec7 873d
000002c0: 8b1e 5dbd 68f0 e03d 3902 0f3e c33b 023e
000002d0: 8221 5cbd efd3 f5bd 563c 9bbc 6548 a23d
000002e0: 0709 333d 765d 9fbd 77ca 9e3d cd5b edbd
000002f0: 196a 96bd 2c6e e7bb 40b7 103e 31ae ce3b
00000300: 4ab6 6f3d 8814 423c e9bb ecbd 48b1 853c
00000310: a15a d9bd 8334 7b3c 7097 ce3d 8c4a 44bd
00000320: c60a 4e3d 5053 063e 8ce1 adbd f2a4 cbbb
00000330: 6e97 28bd 4fef eebd 9cee c7bb 2c8e bc3c
00000340: a82f 353e a1de 8239 910e 9c3d 3b7d a93b
00000350: ac61 82bd 1248 bf3d 753e cabc 9561 93bd
00000360: 7208 333d 55a8 f23d a610 08bd 384d 203e
00000370: 0e03 fa3d b061 bdbc 6843 ec3d 2c80 13bd
00000380: c65a 0c3d b4bf d03d d6f0 9dbd d064 3abd
00000390: 17d7 7abc 7347 cdbd 933c e8bc a105 4c3c
000003a0: 0a10 863c 4707 ee3d 4fc1 f2bb 825a 043c
000003b0: 0904 adbc c25e e5bc 330b c5bc 1bc6 913d
000003c0: 1fd3 2e3e 9fe9 7a3d 0e41 173e 41d0 f9bd
000003d0: 2cb8 773d 45f4 ea38 aae4 833c e18f b23d
000003e0: 18cf 033e 9ebd 283e 1a1c 093d 1245 a53d
000003f0: 0312 c6bd a1a4 d5bd d41b 163d fc53 533d

cells.1.x2h.weight f4 [256, 64]
-0.016336232 0.16715595 -0.12064904 0.15556009 0.077081904 0.053917766 -0.13813849 -0.12598199
0.06258648 -0.08928969 -0.11493921 0.040551208 0.069139734 0.13636298 0.12379622 0.026366208
0.015207471 -0.045235515 0.034303773 -0.021586526 0.13187899 0.1770127 0.03441919 -0.108742096
0.03941484 -0.012910522 -0.011611042 -0.13806914 -0.03394755 -0.16053145 0.038859203 0.0144177005
0.048538536 -0.060226485 -0.0944587 -0.033737857 0.0033860607 0.010524033 -0.029595708 0.0075355787
0.09753553 -0.028755384 -0.039978947 -0.058233455 -0.12572119 0.17034277 0.069802634 0.13324283
0.10522704 -0.0068050893 0.103581905 0.037993513 0.059915923 0.045635514 0.032970134 0.036819708
0.15231001 -0.005432455 -0.12059256 -0.04875765 0.03740023 -0.115568824 0.05646801 -0.06809865
-0.19018273 0.047072105 0.11030406 0.1404843 -0.017779045 0.08647453 0.049837753 0.098223194
-0.16332975 -0.1063664 -0.037718356 -0.12215527 -0.054119658 -0.031446874 0.046981286 -0.11250287
0.106174216 -0.08321094 -0.058191665 -0.032404236 0.0634495 -0.053216364 -0.09245689 0.090856954
0.17199849 0.08639518 -0.10396952 -0.10158239 0.014797137 -0.13076216 -0.040794984 -0.0025281648
0.0847741 0.07012327 0.11002264 -0.0047465083 -0.0010287289 0.037586946 0.036034055 -0.056862865
0.008414917 0.0102213025 -0.09716643 -0.060317617 -0.12701352 0.052040253 0.05106398 0.06508417
-0.11866527 0.012036535 0.14731579 -0.044355366 0.06603231 -0.020381447 0.005434278 -0.14270067
0.07699758 -0.10352631 -0.030426368 0.05040694 -0.091561496 0.098686114 0.06807685 0.068918735
-0.025027227 0.15162782 -0.0115994 -0.026578201 0.19141409 -0.0443045 0.026399514 -0.20755829
0.028744426 0.16638348 -0.0110213095 -0.067569084 0.10314428 0.1259604 0.006550698 0.0014220985
0.035541587 0.050308913 0.10532329 0.037347175 0.12550028 0.06211302 -0.081264436 -0.013970669
-0.094629146 0.031615075 -0.013658745 -0.07280263 0.01901546 -0.009563277 -0.065194204 -0.0071104188
-0.11163309 0.13345796 -2.1932552e-05 0.12538016 -0.044562615 -0.05170747 0.17696139 -0.04967357
-0.042007633 0.16168977 0.023488795 -0.19222587 -0.1448643 -0.08558276 0.0072539044 0.19156604
-0.11670447 -0.1976929 0.05142828 0.05905483 0.091645055 -0.10829975 -0.022320079 -0.0899371
0.07247897 -0.11956272 -0.21092944 -0.10103418 -0.059459094 -0.11663787 -0.14107582 0.12200822
0.04734738 0.0026862926 0.04035251 0.06151266 -0.005005463 0.09596588 -0.11804841 -0.04120845
-0.014585287 -0.023026278 -0.080973804 0.029249249 0.06338802 0.029324885 0.071369946 -0.039662126
0.014290866 -0.1241321 0.09814812 -0.013244392 0.045565944 0.003582463 0.106079765 0.043263413
-0.05110678 0.18636332 -0.024406968 -0.12704238 0.040645216 -0.013289878 -0.037131052 -0.15412527
0.086250454 0.15766528 0.037555665 0.1681125 -0.030628592 0.06602848 0.18050246 -0.08338813
0.0033770064 0.19328603 0.044861242 -0.06311639 -0.041663535 -0.074308135 0.12547423 0.03933101
-0.016861388 -0.0874317 0.0743467 -0.041419666 -0.062135313 0.033029273 -0.06149299 -0.20557867
-0.026043925 -0.08615513 -0.070145376 -0.060270596 -0.16460708 -0.029792514 0.032672107 0.04270765
00000000: 90d3 85bc ee2a 2b3e d816 f7bd 254b 1f3e
00000010: 1edd 9d3d e0d8 5c3d 2d74 0dbe 6c01 01be
00000020: 572d 803d 83dd b6bd 4065 ebbd 0619 263d
00000030: 2299 8d3d bda2 0b3e df88 fd3d f2fd d73c
00000040: c228 793c e048 39bd 1d82 0c3d 3ad6 b0bc
00000050: 490b 073e d142 353e 23fb 0c3d 2db4 debd
00000060: 7571 213d a786 53bc 3d3c 3ebc ff61 0dbe
00000070: 960c 0bbd 5b62 24be d42a 1f3d 3838 6c3c
00000080: 58d0 463d 0cb0 76bd 9073 c1bd b530 0abd
00000090: ace8 5d3b fe6c 2c3c b372 f2bc 04ed f63b
000000a0: b5c0 c73d 6990 ebbc f7c0 23bd 3486 6ebd
000000b0: 0ebd 00be 566e 2e3e aff4 8e3d cf70 083e
000000c0: 4681 d73d 3afd debb c022 d43d 169f 1b3d
000000d0: 666a 753d 4eec 3a3d b10b 073d 43d0 163d
000000e0: 28f7 1b3e bc02 b2bb 3bf9 f6bd 1ab6 47bd
000000f0: fc30 193d 59af ecbd 004b 673d 4e77 8bbd
00000100: 43bf 42be aece 403d 18e7 e13d 1edb 0f3e
00000110: 5ca5 91bc 8f19 b13d ac22 4c3d 3e29 c93d
00000120: ea3f 27be a1d6 d9bd 907e 1abd 8b2c fabd
00000130: 93ac 5dbd 70ce 00bd 736f 403d e867 e6bd
00000140: de71 d93d 7f6a aabd 625a 6ebd 4eba 04bd
00000150: d0f1 813d 67f9 59bd 0a5a bdbd 3613 ba3d
00000160: 5f20 303e f5ef b03d f9ed d4bd 6e0a d0bd
00000170: b16f 723c 84e6 05be a418 27bd 91af 25bb
00000180: 0b9e ad3d ca9c 8f3d 8d53 e13d 9988 9bbb
00000190: 6ad6 86ba c5f4 193d 7298 133d 09e9 68bd
000001a0: b8de 093c 4077 273c 31ff c6bd 9b0f 77bd
000001b0: d50f 02be 2928 553d 7728 513d d94a 853d
000001c0: c706 f3bd e334 453c f3d9 163e f9ad 35bd
000001d0: f33b 873d fef6 a6bc 0712 b23b 2020 12be
000001e0: e8b0 9d3d 9a05 d4bd b840 f9bc 8277 4e3d
000001f0: 9884 bbbd f21b ca3d e06b 8b3d 4425 8d3d
00000200: e605 cdbc 5344 1b3e 690b 3ebc 87ba d9bc
00000210: 0e02 443e a378 35bd cb43 d83c 298a 54be
00000220: 6e79 eb3c 6e60 2a3e b992 34bc a961 8abd
00000230: 4f3d d33d c3fb 003e 3da7 d63b b565 ba3a
00000240: 0e94 113d b810 4e3d bdb3 d73d 5af9 183d
00000250: 2583 003e 396a 7e3d f86d a6bd 3ce5 64bc
00000260: edcc c1bd cf7e 013d eec8 5fbc 8c19 95bd
00000270: 4fc6 9b3c 4aaf 1cbc 8a84 85bd 84fe e8bb
00000280: e49f e4bd 34a9 083e ccfb b7b7 a863 003e
00000290: 4a87 36bd 36cb 53bd 5e35 353e 8376 4bbd
000002a0: 3210 2cbd 0192 253e 936b c03c dcd6 44be
000002b0: 4f57 14be 0446 afbd 29b2 ed3b e329 443e
000002c0: c102 efbd 0270 4abe 76a6 523d 7ae3 713d
000002d0: 67b0 bb3d 42cc ddbd 99d8 b6bc f130 b8bd
000002e0: db6f 943d 4ddd f4bd e3fd 57be 02eb cebd
000002f0: 618b 73bd d6df eebd 2e76 10be 72df f93d
00000300: 54ef 413d 830c 303b ac48 253d b3f4 7b3d
00000310: de04 a4bb c289 c43d 5dc3 f1bd 31ca 28bd
00000320: 21f7 6ebc 9ba1 bcbc 98d5 a5bd 1f9c ef3c
00000330: 94d1 813d be3a f03c 682a 923d c174 22bd
00000340: 3d24 6a3c f838 febd e201 c93d 02ff 58bc
00000350: 5ba3 3a3d c1c7 6a3b 5940 d93d fa34 313d
00000360: 5855 51bd 07d6 3e3e 1ff1 c7bc 6617 02be
00000370: 997b 263d cabd 59bc bb16 18bd 04d3 1dbe
00000380: 14a4 b03d 0273 213e f8d3 193d af25 2c3e
00000390: d0e8 fabc f139 873d a3d5 383e 65c7 aabd
000003a0: c450 5d3b c6ec 453e 6cc0 373d 2a43 81bd
000003b0: 62a7 2abd dd2e 98bd 517c 003e 8e19 213d
000003c0: e520 8abc 640f b3bd 1543 983d aba7 29bd
000003d0: 9981 7ebd b449 073d 13e0 7bbd 3783 52be
000003e0: 125a d5bc 1a72 b0bd 61a8 8fbd 4dde 76bd
000003f0: c28e 28be 6e0f f4bc 30d3 053d 38ee 2e3d

cells.1.x2h.bias f4 [256]
-0.05295428 0.11294196 -0.036411997 0.10731399 -0.0027544398 0.09697964 -0.046557266 0.03735952
0.07301997 0.009537394 0.06806253 0.0913924 0.14337648 -0.024893219 -0.01224351 -0.053587668
0.03000561 0.08525511 0.043374654 -0.03182665 0.0319031 0.09347666 -0.084135704 0.0906049
-0.042567592 0.029463062 0.06645696 -0.06717337 0.14446379 0.091277115 -0.059119765 -0.047739558
-0.08862318 0.059359882 0.16268522 -0.08398019 -0.07126636 0.076367274 -0.018319398 0.052600767
0.06358983 -0.007492697 0.035002343 -0.04458777 0.14228839 0.013298802 0.035016 0.07093177
0.10913773 -0.051314563 0.129912 0.09170925 -0.104428135 0.040677864 0.09679821 -0.029523615
0.05668897 0.09077266 0.028247496 0.06065047 0.15568224 -0.060619984 0.14258277 0.065550655
-0.023600018 0.051342804 0.039462388 0.00011114609 0.0907845 -0.07214646 0.07895062 0.06398702
-0.07389729 -0.16307706 0.025361681 -0.043148313 0.045357842 0.0486843 -0.073459536 -0.08948168
0.07984038 0.11992218 0.046161775 -0.13725965 0.024686838 -0.111070774 -0.03578957 0.0535558
0.0719647 0.0064068134 0.083540626 0.09219072 -0.098008834 -0.015381751 0.013058072 0.13658673
-0.09528259 0.046801545 0.017115993 -0.053228796 -0.13389823 -0.01642394 -0.090314314 -0.09659396
0.080502935 -0.09127775 0.083316326 -0.07880712 -0.017463075 0.0122622475 0.07446162 0.07304579
-0.013692859 0.048134405 0.09378858 -0.114129685 -0.09308679 -0.016705647 -0.010949547 0.020661825
0.01617981 0.09731849 -0.13565452 -0.10616462 0.033611674 0.08838829 0.089400195 0.0796849
-0.014713096 0.07541821 0.11184665 -0.07059125 -0.010673508 -0.08861032 -0.0007173879 -0.049698453
-0.006327669 0.08608246 0.058003936 -0.037412737 -0.04163989 -0.032691512 0.014965108 0.08463674
0.05916633 -0.016757663 -0.096392915 -0.09080623 0.10557589 -0.09003664 0.050551474 0.09512858
0.0307354 -0.06303196 -0.106651984 0.08532932 0.010634922 0.07397513 0.08358895 0.014789324
-0.090991415 0.1364879 -0.1008424 0.0733753 -0.06250859 -0.1113854 0.10207888 0.016043533
0.06202392 0.03824221 -0.07544081 0.0088925455 0.093523405 -0.04420148 0.10170534 -0.008258053
0.014926943 0.0040367995 -0.010068906 0.022985743 0.008700956 -0.069690526 -0.09949869 0.07996127
0.10365413 -0.014203764 -0.09124152 -0.055120688 0.061002176 -0.017984094 -0.11239615 0.034426652
-0.056746334 -0.0875909 -0.0029741738 0.10037392 0.047096007 0.09996759 0.06719986 -0.03106703
-0.04334015 0.13366592 0.12837997 -0.070851974 0.04139923 -0.018243259 -0.024027545 0.1346384
-0.010369731 0.016236378 0.12004458 0.097105175 0.099503994 0.14458399 -0.021147372 0.15540951
0.15188389 -0.012940535 0.0150388125 0.12759107 0.15201773 0.11559001 -0.12656987 0.043717008
0.07069333 -0.099074006 0.120280966 0.09067219 -0.050895654 -0.0015263405 0.041892424 -0.014529736
0.039227054 -0.06418372 -0.06442775 0.13213654 -0.0704641 -0.04893824 0.059511054 0.12415415
0.05224666 0.04810782 -0.027842868 0.10573483 0.08349657 0.09658092 0.0020342108 0.07162848
-0.052313853 0.043385424 0.1252774 -0.048385356 0.1645544 -0.0073782788 0.09182747 0.059100274
00000000: 96e6 58bd 1d4e e73d bf24 15bd 70c7 db3d
00000010: d583 34bb 439d c63d d5b2 3ebd 4c06 193d
00000020: 7e8b 953d bb42 1c3c 5e64 8b3d f02b bb3d
00000030: 49d1 123e ddec cbbc 0199 48bc be7e 5bbd
00000040: 53ce f53c 3b9a ae3d 9fa9 313d a95c 02bd
00000050: d3ac 023d b170 bf3d 574f acbd 108f b93d
00000060: 5b5b 2ebd 855c f13c 961a 883d 3192 89bd
00000070: 51ee 133e 7fef ba3d 9127 72bd 8e8a 43bd
00000080: 1280 b5bd 5923 733d f496 263e cefd abbd
00000090: 19f4 91bd 7266 9c3d 9012 96bc e773 573d
000000a0: 633b 823d 4c85 f5bb 9e5e 0f3d aaa1 36bd
000000b0: 0cb4 113e 38e3 593c f06c 0f3d ad44 913d
000000c0: 9a83 df3d 382f 52bd a707 053e 0fd2 bb3d
000000d0: 6bde d5bd d59d 263d 243e c63d 82db f1bc
000000e0: b232 683d 04e7 b93d 4b67 e73c a16c 783d
000000f0: 2a6b 1f3e a94c 78bd 3801 123e 6c3f 863d
00000100: d354 c1bc d54c 523d 50a3 213d 1a17 e938
00000110: 39ed b93d 86c1 93bd ddb0 a13d a00b 833d
00000120: 7657 97bd acfd 26be 4dc3 cf3c 49bc 30bd
00000130: 25c9 393d 3069 473d f471 96bd 2c42 b7bd
00000140: 5a83 a33d c399 f53d 2114 3d3d cb8d 0cbe
00000150: 0d3c ca3c 1379 e3bd 1698 12bd 545d 5b3d
00000160: 3b62 933d 3ff0 d13b 5917 ab3d 7dce bc3d
00000170: dbb8 c8bd bd03 7cbc 86f1 553c 64dd 0b3e
00000180: 8523 c3bd fab2 3f3d d736 8c3c 7006 5abd
00000190: 9e1c 09be 808b 86bc b6f6 b8bd 0ed3 c5bd
000001a0: b9de a43d d4ef babd c0a1 aa3d a165 a1bd
000001b0: b90e 8fbc 98e7 483c 557f 983d 0899 953d
000001c0: 0358 60bc 9528 453d 3a14 c03d d3bc e9bd
000001d0: 49a4 bebd 48da 88bc bb65 33bc fd42 a93c
000001e0: 858b 843c eb4e c73d 05e9 0abe d66c d9bd
000001f0: 65ac 093d eb04 b53d 7317 b73d d631 a33d
00000200: 330f 71bc dd74 9a3d db0f e53d 2592 90bd
00000210: f0df 2ebc 5479 b5bd 160f 3cba 9b90 4bbd
00000220: 5658 cfbb 004c b03d 8995 6d3d 193e 19bd
00000230: 978e 2abd 89e7 05bd 3630 753c 0756 ad3d
00000240: 6558 723d 5e47 89bc a669 c5bd 9ef8 b9bd
00000250: 2c38 d83d 2165 b8bd 100f 4f3d c6d2 c23d
00000260: cec8 fb3c e616 81bd 5b6c dabd 23c1 ae3d
00000270: 193e 2e3c 4680 973d af30 ab3d ec4e 723c
00000280: b559 babd 7cc3 0b3e 7686 cebd ca45 963d
00000290: 8104 80bd 071e e4bd bb0e d13d ba6d 833c
000002a0: cb0c 7e3d dda3 1c3d b680 9abd 0ab2 113c
000002b0: 3389 bf3d 9c0c 35bd e44a d03d c94c 07bc
000002c0: 2390 743c 2147 843b 0df8 24bc 994c bc3c
000002d0: 748e 0e3c e8b9 8ebd f8c5 cbbd bcc2 a33d
000002e0: 9e48 d43d e7b6 68bc d6dc babd 3bc6 61bd
000002f0: 6bdd 793d 6153 93bc f42f e6bd f602 0d3d
00000300: d86e 68bd dc62 b3bd 5bea 42bb d790 cd3d
00000310: bee7 403d cfbb cc3d 15a0 893d 4980 febc
00000320: 7185 31bd b8df 083e 0a76 033e d71a 91bd
00000330: 3d92 293d e372 95bc 6ad5 c4bc a6de 093e
00000340: cee5 29bc 2702 853c efd9 f53d 14df c63d
00000350: c0c8 cb3d d30d 143e 413d adbc ac23 1f3e
00000360: 7387 1b3e 8a04 54bc 5a65 763c 3ca7 023e
00000370: 89aa 1b3e 75ba ec3d 889b 01be 9b10 333d
00000380: aac7 903d 50e7 cabd de55 f63d 57b2 b93d
00000390: f677 50bd 7d0f c8ba 6497 2b3d 210e 6ebc
000003a0: 8cac 203d c172 83bd b2f2 83bd cd4e 073e
000003b0: 7b4f 90bd 7773 48bd ddc1 733d 8844 fe3d
000003c0: 9800 563d b50c 453d ba16 e4bc 818b d83d
000003d0: 4000 ab3d 38cc c53d 6550 053b f4b1 923d
000003e0: 0d47 56bd eab4 313d b848 003e b92f 46bd
000003f0: f380 283e 7dc5 f1bb 0a10 bc3d 2113 723d

cells.1.h2h.weight f4 [256, 64]
-0.13938418 0.038825426 -0.029787792 0.05969948 -0.0012281842 0.050974555 -0.02368348 0.064194754
0.09608465 -0.0991923 -0.046883885 -0.14085843 0.03727168 -0.06138849 -0.039491333 0.041899323
-0.11358189 0.07676963 -0.07342381 0.03579523 -0.06517731 -0.123856895 0.0059923534 -0.08492348
0.00262558 0.06637987 -0.13753693 0.080354415 -0.028332243 0.073517375 0.039856758 -0.063879766
-0.07387112 0.12559552 0.11623529 0.15179932 -0.049599536 -0.061488766 0.125905 -0.079888254
0.038309198 -0.09072284 0.05818004 0.07800372 0.10680311 0.108103424 0.012718044 0.026502829
-0.042999133 -0.036945716 -0.0047995993 -0.15163362 -0.0649637 -0.011869438 -0.03159365 0.15310098
-0.092220396 -0.12932716 0.07066455 0.055334583 -0.035967182 -0.059304222 -0.036176987 -0.062456477
0.031703804 -0.11932879 0.05442323 0.06205963 -0.077095434 -0.022147872 0.08788109 0.021599993
0.016162297 -0.05606139 -0.14591262 -0.11281291 0.05623535 -0.096453555 -0.013198535 -0.027836401
-0.084843546 -0.09488536 -0.11443941 -0.068256184 0.022214672 0.013488272 0.09950379 -0.010134723
-0.036527004 0.042936068 -0.076592885 -0.06293031 0.07734747 -0.085019246 -0.0783125 0.051823482
-0.03204403 -0.053194437 -0.120897874 0.10313182 0.07328993 0.0118528055 0.061135452 0.021777935
0.03823894 0.056062788 -0.06869836 0.14772788 0.09623107 -0.05221165 -0.09170111 0.020978283
0.122401275 -0.07624122 0.025057686 -0.123822555 0.05373266 0.114746764 -0.11076109 0.07488808
0.03280668 0.012153855 -0.10192279 -0.09626098 -0.08685734 0.098005556 0.026335545 0.097152635
-0.025135549 0.10423722 -0.08400481 0.0892511 0.067963585 0.0864601 -0.10414175 0.0025326589
0.08158362 0.03882904 0.0035310057 -0.025519684 -0.003719149 0.02318912 0.14104693 0.07783047
0.15586922 -0.14529125 -0.11013531 -0.008618314 0.009365403 -0.15287645 0.09698676 0.065989785
0.060194496 0.05763994 -0.13452566 0.11828617 -0.022175314 0.016724342 -0.009098424 0.03996357
0.060664352 0.093292095 0.02297386 -0.010858102 -0.0049666218 -0.11266852 0.085783795 -0.11835905
-0.031787597 0.1841378 0.089928284 0.05743192 0.01334612 0.07975674 0.08871742 -0.13394529
0.035315294 -0.08070406 0.048081767 -0.063631155 -0.051068086 -0.021307936 0.077300906 -0.01856914
0.14355847 0.018586982 0.10914506 0.057820644 -0.018703494 -0.1243443 -0.003518353 -0.018235989
-0.03963961 0.17494407 0.043183416 0.05719389 -0.025108444 0.040205166 -0.13947049 -0.03217503
0.11738579 0.06106619 0.09192076 -0.05135624 -0.06639183 0.05770515 0.10418955 0.09263583
-0.021950332 0.05248684 -0.05788324 -0.0022697267 0.15698442 -0.16959491 0.15143497 -0.044331178
0.048845567 -0.16557088 -0.08517776 0.0041427617 -0.1069884 -0.0056969095 -0.013957045 0.055307195
0.13489147 0.123226084 0.038202416 0.15758507 0.0045091407 -0.08704027 0.16247602 0.03228874
0.133697 -0.016590439 0.03572285 -0.12183756 0.13433202 0.17457624 -0.0005655509 -0.08314521
0.12425184 -0.11282513 0.16076687 -0.08094843 0.041567497 0.0046269093 -0.022703616 0.12748742
0.0595803 -0.17114635 0.12431411 -0.0053436644 0.05728214 0.024953846 -0.015040424 0.02407277
00000000: baba 0ebe 6907 1f3d 8705 f4bc 7187 743d
00000010: 06fb a0ba b2ca 503d dc03 c2bc 8a78 833d
00000020: 07c8 c43d 5525 cbbd 5109 40bd 313d 10be
00000030: 30aa 183d 7f72 7bbd aac1 21bd a09e 2b3d
00000040: 9f9d e8bd 6539 9d3d 395f 96bd 059e 123d
00000050: ae7b 85bd afa8 fdbd 815b c43b 5dec adbd
00000060: ec11 2c3b 2bf2 873d 7bd6 0cbe db90 a43d
00000070: 0519 e8bc 4790 963d d740 233d 65d3 82bd
00000080: be49 97bd 1d9c 003e c50c ee3d 4871 1b3e
00000090: e228 4bbd a5db 7bbd 3eed 003e 749c a3bd
000000a0: 1bea 1c3d e5cc b9bd 324e 6e3d 6ac0 9f3d
000000b0: 97bb da3d 5465 dd3d 585f 503c 761c d93c
000000c0: dc1f 30bd 6454 17bd f545 9dbb d845 1bbe
000000d0: b00b 85bd 0878 42bc 5868 01bd 81c6 1c3e
000000e0: 0cde bcbd 576e 04be 93b8 903d 84a6 623d
000000f0: 5352 13bd fce8 72bd 522e 14bd 5dd2 7fbd
00000100: d9db 013d a762 f4bd e5ea 5e3d 3d32 7e3d
00000110: 36e4 9dbd 746f b5bc 00fb b33d 78f2 b03c
00000120: cb66 843c a1a0 65bd 1e6a 15be 740a e7bd
00000130: 0a57 663d 7189 c5bd ab3e 58bc 2a09 e4bc
00000140: 74c2 adbd 4153 c2bd 365f eabd e6c9 8bbd
00000150: 8bfb b53c eafd 5c3c a5c8 cb3d 1c0c 26bc
00000160: 579d 15bd bbdd 2f3d bbdc 9cbd 9be1 80bd
00000170: 5a68 9e3d 921e aebd 4e62 a0bd dc44 543d
00000180: 9a40 03bd 69e2 59bd 4e99 f7bd c736 d33d
00000190: 0819 963d 4532 423c 2b69 7a3d a467 b23c
000001a0: 6fa0 1c3d 18a2 653d bab1 8cbd fa45 173e
000001b0: cc14 c53d e2db 55bd cbcd bbbd a6da ab3c
000001c0: 85ad fa3d 5b24 9cbd c745 cd3c ae96 fdbd
000001d0: c716 5c3d 5a00 eb3d b6d6 e2bd ec5e 993d
000001e0: 4c60 063d f620 473c e5bc d0bd 7a24 c5bd
000001f0: 43e2 b1bd 23b7 c83d a4bd d73c f6f7 c63d
00000200: 11e9 cdbc 537a d53d b70a acbd 48c9 b63d
00000210: 7e30 8b3d fe11 b13d 4548 d5bd f7fa 253b
00000220: 5015 a73d 330b 1f3d 7268 673b a80e d1bc
00000230: f7bc 73bb 1cf7 bd3c 9b6e 103e 9565 9f3d
00000240: 2e9c 1f3e 3bc7 14be 9f8e e1bd d433 0dbc
00000250: 5971 193c a58b 1cbe ffa0 c63d a725 873d
00000260: 818e 763d dc17 6c3d 18c1 09be 0540 f23d
00000270: 01a9 b5bc 7d01 893c 8e11 15bc d7b0 233d
00000280: 2f7b 783d ed0f bf3d ad33 bc3c 2ee6 31bc
00000290: 0bbf a2bb c1be e6bd 6aaf af3d 3b66 f2bd
000002a0: b633 02bd 9f8e 3c3e 522c b83d bc3d 6b3d
000002b0: afa9 5a3c 8057 a33d 7bb1 b53d f428 09be
000002c0: c5a6 103d 2c48 a5bd 63f1 443d 0d51 82bd
000002d0: c52c 51bd fb8d aebc f04f 9e3d 4f1e 98bc
000002e0: fe00 133e ba43 983c 7287 df3d 57d5 6c3d
000002f0: 1238 99bc 39a8 febd 2b94 66bb a463 95bc
00000300: 255d 22bd 8a24 333e 18e1 303d 2444 6a3d
00000310: 39b0 cdbc 2cae 243d 5ad1 0ebe f7c9 03bd
00000320: f667 f03d 8b20 7a3d f440 bc3d ec5a 52bd
00000330: 71f8 87bd 3c5c 6c3d 5561 d53d dbb7 bd3d
00000340: 2fd1 b3bc 71fc 563d fa16 6dbd b2bf 14bb
00000350: 86c0 203e 4aaa 2dbe c511 1b3e 9c94 35bd
00000360: 4a12 483d 6a8b 29be ad71 aebd 01c0 873b
00000370: bc1c dbbd 24ad babb 17ac 64bc cc89 623d
00000380: fd20 0a3e f55d fc3d 237a 1c3d fb5d 213e
00000390: 6ac1 933b 2b42 b2bd 1d60 263e 3341 043d
000003a0: dee7 083e ace8 87bc 2052 123d f885 f9bd
000003b0: 558e 093e 1dc4 323e 7a41 14ba 0948 aabd
000003c0: c077 fe3d dd10 e7bd 12a0 243e 4ac8 a5bd
000003d0: ae42 2a3d 549d 973b effc b9bc 108c 023e
000003e0: 790a 743d fd40 2fbe 6598 fe3d e819 afbb
000003f0: ada0 6a3d 026c cc3c 1c6c 76bc 4234 c53c

cells.1.h2h.bias f4 [256]
0.009530764 0.07130834 0.12589635 0.077904016 -0.042544086 0.12554725 -0.058542296 -0.062109906
-0.07144621 0.09863557 0.04350314 0.09103887 0.15652722 0.13904417 -0.033788472 -0.05340525
0.10919575 0.1238536 0.10021436 0.13319641 -0.08869817 -0.021990635 -0.077993505 -0.031635236
-0.03509542 -0.026194533 -0.054028183 -0.05705959 -0.06280472 -0.113635294 0.045970265 0.08123419
0.075844906 -0.04208983 -0.004205759 0.039312158 -0.041205354 -0.04508101 0.057691894 0.08921684
-0.07110505 -0.055459823 0.0029399835 0.16962203 -0.06575503 -0.06006599 -0.03880401 0.0022383996
0.06246269 0.12523921 0.10104925 0.003620579 -0.0640462 -0.072028175 0.07596534 -0.02718661
0.08174531 0.08733702 -0.0243473 0.0043032537 -0.010139719 -0.023399504 -0.041949466 -0.06883181
-0.0005300067 0.058413763 -0.12730703 -0.054601457 -0.06980234 0.01723091 0.02610631 0.10156852
-0.011972091 0.006703697 -0.08877525 -0.104702845 0.0402848 0.090525724 -0.0548778 0.009024829
-0.014701121 -0.067762904 0.13852508 0.04157069 -0.014999691 0.10101884 -0.03050677 -0.10464973
0.009360529 -0.04758293 0.08649091 0.09411697 -0.045215614 -0.093962364 -0.0105219595 0.016991105
-0.10555764 -0.09843611 -0.022124073 0.10281846 0.11113647 -0.026289701 -0.056313567 0.044873245
0.031779364 -0.053366557 0.011715046 -0.11648374 -0.09865117 -0.06372516 -0.09330549 0.0831361
-0.028458707 0.004115737 -0.00792664 0.04749613 -0.0986573 -0.03271818 -0.103650406 -0.08858274
-0.0016057828 -0.029246474 -0.11905841 0.0119498465 0.06379627 -0.07896501 0.044024847 -0.050667938
0.02678184 0.03251792 -0.018185806 0.030384492 -0.11070088 0.09457748 -0.118819565 0.09457437
0.082336865 0.0060146903 0.023999562 -0.059660695 0.022541147 0.011851442 -0.053965215 -0.11657015
0.024723766 -0.08170316 -0.1283942 0.12545729 0.02926048 -0.06946076 -0.012808395 -0.048820805
-0.111877516 0.13168018 -0.05238302 -0.0043882555 0.012835313 -0.053228427 0.011876579 -0.054653313
-0.003463466 -0.0019522364 0.019809332 0.007918649 0.11458465 0.121226385 0.10271899 -0.08923868
0.023595916 -0.057122555 0.036074605 0.066276 0.019406583 -0.0057822987 0.09620172 -0.10544244
-0.004601297 -0.07235358 -0.08229987 -0.0118196625 -0.067806646 -0.024863612 0.06145583 0.0017757181
0.029941028 -0.047223 0.08636698 0.02098374 -0.06678746 -0.022076277 -0.06700376 0.020880675
0.051312014 0.024609601 -0.0032908486 0.03518093 0.0269972 0.09480064 -0.04838605 0.036696855
0.10113221 -0.10358933 -0.01956031 0.042421155 0.11690403 0.07292748 -0.009569956 -0.05870881
0.0015679265 0.028050993 0.14526522 0.08769178 -0.08577281 0.058559664 0.08537082 0.0869705
0.049858566 0.07854419 0.15931956 0.13663945 0.14992453 -0.058486406 0.057205442 0.12420174
0.044338692 0.08665258 -0.062667355 -0.021294368 -0.002190409 -0.04369473 -0.041298497 -0.050334092
0.026345642 0.03513292 -0.091191806 0.08214179 0.12381134 0.02882526 0.06427389 -0.019001562
0.1279924 -0.04304133 0.12565362 0.1258553 0.1044206 0.047039088 0.10318632 0.07835119
0.014321291 -0.0126362275 -0.06887476 0.06776664 0.01902372 0.124720484 0.05307696 -0.09260009
00000000: ec26 1c3c 1b0a 923d f9ea 003e 248c 9f3d
00000010: b542 2ebd 758f 003e 0cca 6fbd f566 7ebd
00000020: 6452 92bd 7201 ca3d 5930 323d 9672 ba3d
00000030: ac48 203e 9861 0e3e c865 0abd 77bf 5abd
00000040: 05a2 df3d f5a6 fd3d 303d cd3d a464 083e
00000050: 63a7 b5bd b425 b4bc 0fbb 9fbd f393 01bd
00000060: 37c0 0fbd eb95 d6bc a84c 5dbd 51b7 69bd
00000070: c39f 80bd 9fb9 e8bd 514b 3c3d 1c5e a63d
00000080: 9354 9b3d 6366 2cbd 77d0 89bb c905 213d
00000090: f2c6 28bd dda6 38bd 564e 6c3d 52b7 b63d
000000a0: 869f 91bd d729 63bd bdac 403b 66b1 2d3e
000000b0: 93aa 86bd c107 76bd f4f0 1ebd 1db2 123b
000000c0: e1d8 7f3d b53e 003e e9f2 ce3d 3c47 6d3b
000000d0: a72a 83bd 8283 93bd b793 9b3d 74b6 debc
000000e0: 166a a73d c0dd b23d fd73 c7bc 4f02 8d3b
000000f0: 1021 26bc 51b0 bfbc 34d3 2bbd b1f7 8cbd
00000100: 26f0 0aba 4543 6f3d c65c 02be c7a5 5fbd
00000110: 87f4 8ebd d627 8d3c e6dc d53c 2803 d03d
00000120: 9726 44bc b0aa db3b cccf b5bd 726e d6bd
00000130: ad01 253d 8d65 b93d 8bc7 60bd e0dc 133c
00000140: f8dc 70bc 47c7 8abd 85d9 0d3e 0746 2a3d
00000150: 44c1 75bc f7e2 ce3d 55e9 f9bc 9952 d6bd
00000160: e75c 193c 52e6 42bd 2522 b13d 66c0 c03d
00000170: 0234 39bd 576f c0bd 4c64 2cbc ee30 8b3c
00000180: 9b2e d8bd df98 c9bd 8b3d b5bc 7c92 d23d
00000190: 859b e33d 805d d7bc 0ea9 66bd 02cd 373d
000001a0: 142b 023d e496 5abd 77f0 3f3c 078f eebd
000001b0: a009 cabd 5682 82bd f316 bfbd 4243 aa3d
000001c0: 3c22 e9bc 4edd 863b bdde 01bc 4d8b 423d
000001d0: d70c cabd 8003 06bd aa46 d4bd de6a b5bd
000001e0: 2179 d2ba 4d96 efbc e5d4 f3bd 4ac9 433c
000001f0: 9ea7 823d 68b8 a1bd 6653 343d 2f89 4fbd
00000200: 9765 db3c 8331 053d 66fa 94bc e6e8 f83c
00000210: 25b7 e2bd d6b1 c13d ac57 f3bd 35b0 c13d
00000220: 3ba0 a83d e116 c53b bb9a c43c c65e 74bd
00000230: 36a8 b83c 8d2c 423c a10a 5dbd 55bc eebd
00000240: 7f89 ca3c fd53 a7bd c579 03be e077 003e
00000250: adb3 ef3c 7141 8ebd 4dda 51bc 53f8 47bd
00000260: 0a20 e5bd 2bd7 063e 948f 56bd 5bcb 8fbb
00000270: 344b 523c 0d06 5abd fc95 423c 27dc 5fbd
00000280: 51fb 62bb 2fe2 ffba 2e47 a23c 39bd 013c
00000290: 5bab ea3d 8a45 f83d 555e d23d c5c2 b6bd
000002a0: 394c c13c 57f9 69bd f7c2 133d b6bb 873d
000002b0: 8efa 9e3c 7079 bdbb 6805 c53d 35f2 d7bd
000002c0: 7ac6 96bb 1d2e 94bd d68c a8bd 42a7 41bc
000002d0: 36de 8abd c6ae cbbc 1cb9 7b3d 36bf e83a
000002e0: e346 f53c e86c 41bd 2ce1 b03d 18e6 ab3c
000002f0: ddc7 88bd 4fd9 b4bc 4439 89bd f30d ab3c
00000300: 8c2c 523d 139a c93c 47ab 57bb e119 103d
00000310: 3b29 dd3c d726 c23d 7330 46bd 714f 163d
00000320: 671e cf3d a526 d4bd f13c a0bc cec1 2d3d
00000330: 616b ef3d 015b 953d 4ecb 1cbc a678 70bd
00000340: e282 cd3a 32cb e53c 68c0 143e bf97 b33d
00000350: a8a9 afbd 42dc 6f3d e5d6 ae3d 971d b23d
00000360: 7f38 4c3d c7db a03d ab24 233e 36eb 0b3e
00000370: d185 193e 718f 6fbd 4150 6a3d 7b5d fe3d
00000380: 7d9c 353d e876 b13d be57 80bd 8771 aebc
00000390: f78c 0fbb 3ff9 32bd 9d28 29bd 1f2b 4ebd
000003a0: d1d2 d73c 89e7 0f3d c5c2 babd f439 a83d
000003b0: cd90 fd3d f422 ec3c 07a2 833d 2aa9 9bbc
000003c0: 7110 033e 1b4c 30bd 58ab 003e 36e0 003e
000003d0: 78da d53d 0fac 403d 5953 d33d 9776 a03d
000003e0: d9a3 6a3c 2e08 4fbc 360e 8dbd 3cc9 8a3d
000003f0: a2d7 9b3c 746d ff3d 3a67 593d 1ea5 bdbd
