model_group/models_group_demand/LSTM_model_BRONX_LAFAYETTE AVENUE.pth (torch, 351132 bytes, 17 tensors)

input_projection.weight f4 [2, 2]
00000000: c47b 143f 54cb 063f bae7 71be 7ec6 253f
0.5800135 0.52654004 -0.23623553 0.64756

input_projection.bias f4 [2]
00000000: b5f3 21be cf23 0b3e
-0.15815623 0.13587879

cells.0.x2h.weight f4 [256, 2]
00000000: ae74 9bbe 7a52 ce3e 4307 113f 7763 febe
00000010: 68e5 343f 27c7 213d 6fc5 dd3e 786d 1c3e
00000020: 778a df3e bccf 3abe 2fbe f73e d939 3a3e
00000030: c407 99be 4eeb 283e 4d50 ccbe 0d91 6fbc
00000040: dec9 a9be ef73 003f 0e27 12bf db5e abbe
00000050: d972 29be 3d4f f2be ba86 023e 36ad 39bf
00000060: d494 313f 9d16 1fbf cf5b 153f 7ab1 b63d
00000070: aeb4 66be 71b4 e63e b648 fd3d 7400 143f
00000080: 3b3a e33c e7f6 44be 16f1 053e 42d8 0dbe
00000090: cdb3 503e 135d 3d3f 46ad 9b3e 24a5 7fbe
000000a0: aaba a23e b120 423e 09d5 9d3e f27a bebe
000000b0: 1fdd 46bf 9fde 55be 79ee 0fbf 8076 1c3f
000000c0: 5b66 803e b55f 6b3e 1902 1d3e ce44 823d
000000d0: 434c 1b3f 132a 04bf 83bb d73d 3a15 10bf
000000e0: 055a 1b3e c770 63be 23f9 3e3e b03e dabd
000000f0: b2d6 0c3f 99d9 d5be 6913 c1be 6cad debe
00000100: 41d0 243f f20f 613e 9e99 433f 5000 2abf
00000110: 5858 21bf 5532 18bf 62a4 05bf 5f6c 9d3e
00000120: 9cbc 2b3e cab8 243f ed5d e4be c060 dfbe
00000130: be9c df3e 2de3 9ebe f630 e93e fa44 44be
00000140: 7268 d03e deb2 0fbf c736 99be 623c 033e
00000150: 24e9 893d 9587 febd fb49 d33e 4065 f83e
00000160: a9a8 01bf aaa3 bfbe a3d9 333f 4c18 91be
00000170: 32da 97be 4ebc 21bf df04 debe 5c98 523e
00000180: a464 08be df50 f3be f5f3 20bd fedc e2be
00000190: bcda 29bf 5d4a b2be ef37 20bf 19c6 d5be
000001a0: 404f 1e3f d316 313e aa6b 223e 1c01 24bf
000001b0: c15f f0be 473e 8dbe 421f 123e cc03 34bf
000001c0: cf53 86be 4552 d9be 79d3 debc b342 6cbe
000001d0: 9cd5 c5bd 65b5 d5be 7dff 11bf 84f0 b5be
000001e0: 5514 35be 0826 1ebf 7eee 0c3f 6390 0abe
000001f0: 641f 1e3f 6d95 523e d29c 0abf 9275 db3e
00000200: 0219 0cbe 1336 92be a52d 2abf a240 2cbf
00000210: cdec ae3e d489 73be f09e 2a3e 8bec 02bf
00000220: 2059 153f 4ea9 0cbf 733a 25be de14 643e
00000230: 9000 e73e 0389 0b3f 4e5a 093f 5b1d ddbe
00000240: e2dd 183e dc57 9fbe 1e9b 33be d5c1 fabe
00000250: 9d15 233f c384 0bbf c26f c93e c5f6 7a3e
00000260: 6e48 b33e 162e d4be 6515 283f 3408 193e
00000270: acb1 033e 7a07 20bf 16ab 953e 5914 b4bd
00000280: 2611 cfbe fb3d 2c3f da39 073e cf87 b3be
00000290: 8534 edbe 2481 ba3d 50a2 903e 05f1 dabd
000002a0: a128 febe 2803 3dbe 65cd 10bf dfc3 933e
000002b0: d538 ea3e a0af 15bf 1a0c ed3d 2371 cb3e
000002c0: 055a 183e 06b1 91be 2eba a03e 9e8c e63e
000002d0: a760 833e a0f2 f3bd d544 17be 4c09 d9bb
000002e0: 2658 75be 809d 16be 253f e33e 96a4 213f
000002f0: 048b 9dbd a36a 27be 8252 333d f9fb 3fbd
00000300: acdf 8f3d d9d6 603e 3b9b 17bf 92ab 9ebe
00000310: 3110 1b3f cb4a 8b3e 47ed d8bd 641c c5be
00000320: 7bf0 06bf 2620 0dbf a6be a8be 1676 9a3e
00000330: daa4 e43e f04c 9f3e 6e4f 2dbf 844b d4be
00000340: 8767 01be 7ea9 2e3f cb9f 103e 4c57 83be
00000350: bfe2 543e c6ac 54be 02bf d2be 201c ff3e
00000360: 4cef a1be 0be3 15be b361 2ebf a5c5 e63e
00000370: 5d17 f63e f08e a33e 8ff3 05bf b9a8 2abf
00000380: b3ec 1fbf 924c 0c3f 272d 833e ddc1 263f
00000390: 463e 963e 5353 753e b982 b7bd c139 f8be
000003a0: 39d4 36bf 90c3 1abf 3280 4c3e 05b1 9fbe
000003b0: fd3e 10be 3ee7 dbbe 5e4e ebbd a3ca 0fbf
000003c0: a8a8 cebe 9867 753e cd47 92be 206b f63e
000003d0: 5b0b 7abe 66ec f2be a41e 4abe beba 8dbe
000003e0: f8c2 4cbe 921c 38bf 9ab3 af3e 9e02 f8be
000003f0: d4bc 8c3e 8a97 aa3e c7a9 0b3f 72bc 12bf
-0.30362457 0.402973 0.56651706 -0.4968526 0.70662546 0.039496567 0.43314692 0.15276134
0.43660328 -0.18243307 0.48387286 0.1818613 -0.29888737 0.16496012 -0.39905015 -0.014621985
-0.33161825 0.501769 -0.5709084 -0.33470806 -0.16547717 -0.4732608 0.12746707 -0.72529924
0.6936772 -0.6214388 0.58343214 0.0892057 -0.22529861 0.4505954 0.12367384 0.5781319
0.027737727 -0.19234811 0.13080248 -0.13852027 0.20381089 0.73970145 0.30405635 -0.2496534
0.31783038 0.18957783 0.30826595 -0.37203175 -0.77681154 -0.20885704 -0.56223255 0.61118317
0.2507809 0.22985728 0.15332831 0.0636078 0.6066324 -0.516267 0.10533812 -0.5628239
0.15171058 -0.2221099 0.18649726 -0.10656488 0.550151 -0.41767576 -0.3771012 -0.43491685
0.6438027 0.21978739 0.76406276 -0.66406727 -0.63025427 -0.594518 -0.52203953 0.30746743
0.16771168 0.64344466 -0.4460291 -0.43628502 0.43674272 -0.31032696 0.45545167 -0.19166937
0.40704685 -0.56132305 -0.29924604 0.12816003 0.06733921 -0.12428204 0.4126738 0.48514748
-0.5064798 -0.37429553 0.7025396 -0.2833885 -0.29658657 -0.63177955 -0.4336309 0.20565933
-0.13319641 -0.47522637 -0.039295156 -0.4430923 -0.6634939 -0.3482236 -0.6258535 -0.417527
0.61839676 0.17293863 0.15861383 -0.6406419 -0.46948054 -0.27586576 0.14269736 -0.70318294
-0.26235816 -0.4244558 -0.027200447 -0.23072319 -0.096598834 -0.41739956 -0.5703047 -0.3553506
-0.17683537 -0.6177678 0.5505141 -0.13531642 0.6176665 0.20564814 -0.5414554 0.42863137
-0.13681415 -0.2855688 -0.664759 -0.6728612 0.3416504 -0.23783046 0.16662192 -0.51142186
0.5833912 -0.5494584 -0.16135578 0.22273585 0.45117617 0.5450594 0.5365342 -0.4318646
0.14928392 -0.3112172 -0.17539641 -0.48976007 0.63704854 -0.54499453 0.39343077 0.24508198
0.35016197 -0.4144141 0.65657645 0.14944535 0.12860745 -0.6251141 0.2923209 -0.087929435
-0.4044277 0.67282075 0.13205662 -0.3506455 -0.46329132 0.09106663 0.28248835 -0.10690502
-0.49640372 -0.18458235 -0.5656341 0.28860375 0.45746484 -0.5847111 0.11574574 0.39734754
0.1487809 -0.2845537 0.31392044 0.45029157 0.25659677 -0.119115114 -0.14772351 -0.0066234227
-0.23959407 -0.14708519 0.44384113 0.63141763 -0.07692531 -0.16349272 0.043779857 -0.04687116
0.07025084 0.21956958 -0.5922124 -0.30990273 0.6057158 0.272055 -0.10592132 -0.38498223
-0.52710694 -0.5512718 -0.32957953 0.30168217 0.44657022 0.31113386 -0.67699325 -0.41463864
-0.12637149 0.68227375 0.14123456 -0.2565254 0.20789622 -0.20769033 -0.41161352 0.49826145
-0.31627882 -0.14637391 -0.6811783 0.45072666 0.480647 0.3194499 -0.52324766 -0.666637
-0.6247055 0.5480434 0.25620386 0.6513956 0.29344386 0.23957567 -0.0896048 -0.48481563
-0.71417576 -0.60454655 0.19970778 -0.31189743 -0.14086528 -0.4294986 -0.11489557 -0.56168574
-0.4036305 0.23965299 -0.28570405 0.48128605 -0.24418394 -0.47445983 -0.19738251 -0.27681535
-0.1999625 -0.71918595 0.34316713 -0.48439497 0.27487814 0.3331874 0.54555935 -0.57318795

cells.0.x2h.bias f4 [256]
00000000: d671 183f b740 aebc 3c8a 59bc b2dd f53e
00000010: 2c3e 6abd abac e63e af02 ff3e 055f 01bf
00000020: dfb5 a03e e5b1 0f3e 9f2e 3f3e 21b3 c63d
00000030: eb6c 993e e311 a2be e250 e6bd caac 2e3f
00000040: a534 fc3e b85e a3bb cc3c 1dbf 83a6 833d
00000050: 8f63 f2be 3745 273f ff2b cabe 6627 70bd
00000060: 083c f1bd 46fd 1d3e c0d1 243f 8008 a43d
00000070: 88cc d93e e0e5 0a3f 9ec6 203f c8a9 81be
00000080: f91f 2cbe 427d aa3e a249 3bbe f737 b03e
00000090: 1b46 0fbe 2b67 ebbe 7ac8 a53e b3c1 f33d
000000a0: e4f4 9b3e 5f96 3f3f 441d 013f 09e4 363f
000000b0: 628d 823d e6f4 1dbf 0e76 debe a219 dfbe
000000c0: 039b 0cbf bc5a a9be 5eb0 26bf 1c27 27bf
000000d0: 14a4 cbbe 88db 2dbf dad0 cfbe 5bdd 943e
000000e0: 6392 193f aba1 5ebe e394 16be 7f4d c73e
000000f0: 740a adbe bf49 aabe d2ca ea3e 5b9f 04bf
00000100: 9f37 363d b530 1d3f f16f 5a3e 5c13 763e
00000110: eda9 c1be 8b57 c03b 94a5 5eba 7be9 7e3e
00000120: 7a95 723e 34d8 203f fe6e ffbe 21f2 ac3c
00000130: 8423 6abe ddf3 05bf 5318 98bd d39e 20bf
00000140: 50af 023f 37ec e33d 6475 a3be 139a c93e
00000150: ba1a 27bf 629c 98be 49e5 02be 784d 18bf
00000160: 21e3 bebe d6a4 95bd ad80 023f 5755 363f
00000170: beff f63e 25ff d3be c26d c9be 65a2 193f
00000180: 3be3 873e 5413 bb3d 9dbc c83d 5d5d 11bf
00000190: da32 69be 6ddd 2e3f 2396 e6bd c9d9 95bc
000001a0: c7af 16bf d850 a9be d81a 283c 3fcd f3be
000001b0: cb66 89bd 4545 943e 7f87 36bf 33a2 593e
000001c0: 4d88 f5be e5e5 a2be ff61 8c3e dcaa 0e3f
000001d0: 1ca9 28be 60cd 8bbe c433 28bf 17b5 a4be
000001e0: 0eb2 1dbf cbdb 2abe a882 b43d 9ac0 22bf
000001f0: 036d 213f b72d e33e 559b 25bf 353e 5ebe
00000200: 9d37 6d3e 2194 2ebe 29a5 57bd c11f b0be
00000210: 334a 0b3f 4f38 c7be e96d 153f a357 2b3d
00000220: e7e0 263e 7fba 0f3f 6b30 cebd 1519 d2be
00000230: 26f2 88bd bc73 183f e03e febe 8fcf 203e
00000240: 2afb 33bf 027a c73e a190 913e b22c 113d
00000250: 2559 963e 666e a43b a971 d03e dc71 11bf
00000260: 29a2 cdbd 5ceb a63e 71d3 343f f203 b43e
00000270: 7f84 08bf 4832 083f e2a1 34be 31e9 28be
00000280: 6798 26bf ed6d e4bd 567a 043f 8df3 e33d
00000290: e36e c1be ef6e 593e 5bee 86be af7c 253f
000002a0: d766 1abf 366f 50be 5b77 31bf a00d 8dbe
000002b0: 07a3 5e3e 9b7d 2c3f 2a99 bf3d 1ca3 373f
000002c0: a4f8 f43d e416 dd3e a2fe 0f3f 83a5 1a3f
000002d0: b638 d3be 5056 2a3f dd8f cd3e e167 a9be
000002e0: e961 b4be 9808 15bf 82c2 493e ceb7 10bf
000002f0: ce4d a63e 7db3 663e 7fd7 25bf 6880 153e
00000300: 88e0 083c dde8 a53e 4b55 ed3e 0cce 2dbf
00000310: c1bb 2b3f c356 153f 6625 893e 819a 05bf
00000320: 519f 35be eeca 46be 7376 10be 9e5f cb3e
00000330: e24b ae3e a948 173f caa5 90be 9669 833e
00000340: 41e0 853e a44d 11bf 526a 20bf c4c2 adbe
00000350: 2b2f fd3e e1fe 0ebf 3afc 14bf d83b ca3e
00000360: 6748 db3e d913 1b3f cc4d 0abf 382c 01bf
00000370: 7da9 bb3e 3dff 1d3f 40f9 ed3e 9798 d53d
00000380: 21d9 663e 7ab1 383f 1f0f e7be 876c 8abe
00000390: 5753 053f cc98 e8be 8f95 b0be 48ba 083f
000003a0: d593 603e fb5a 753e 505d 92be 18b5 623d
000003b0: 8fc5 2c3f 8201 dabe 2a7e 9e3d 5c90 af3e
000003c0: ef5c cabe cb5b 363f 44ba adbe 480e 29be
000003d0: 7c29 31be 475d e2be 1254 29bf 2371 dc3e
000003e0: 1327 4c3e 3a54 2abf 8876 babe d2f1 383f
000003f0: 0fa0 8e3e f8af 913e d1c6 cdbe 0ef2 5bbe
0.595487 -0.021271093 -0.013277587 0.48020703 -0.057188198 0.4505361 0.49806735 -0.50535613
0.31388757 0.14032705 0.18670128 0.09702135 0.2996591 -0.3165427 -0.11245896 0.68232405
0.49258915 -0.0049856566 -0.61420894 0.06428244 -0.47341582 0.6533999 -0.3948669 -0.058631323
-0.11779028 0.15428647 0.64382553 0.08009434 0.42538857 0.5425701 0.62803066 -0.25324845
-0.16809072 0.3329869 -0.18289807 0.34417698 -0.13991587 -0.45977148 0.32379514 0.119021796
0.30460274 0.74838823 0.5043528 0.71441704 0.06374623 -0.6170181 -0.43449444 -0.43574244
-0.5492403 -0.33077037 -0.65112865 -0.6529405 -0.3977362 -0.67913103 -0.4058903 0.2907513
0.59988993 -0.21741359 -0.14705233 0.38926312 -0.33797038 -0.3325939 0.45857865 -0.5180566
0.04448664 0.61402446 0.21331765 0.24030823 -0.37824956 0.005869811 -0.0008493301 0.24893753
0.23689833 0.628299 -0.49889368 0.02111155 -0.2286511 -0.5232523 -0.074265145 -0.62742347
0.51048756 0.11129039 -0.319255 0.39375362 -0.65275156 -0.2980681 -0.12782778 -0.5949321
-0.3728266 -0.073068306 0.50977594 0.7122397 0.4824199 -0.41405597 -0.3934155 0.6001342
0.2654055 0.09134546 0.098016 -0.56783086 -0.22773305 0.6830662 -0.11259105 -0.018292325
-0.58861965 -0.3306949 0.010260306 -0.47617528 -0.06709059 0.28959098 -0.713005 0.2125328
-0.47955552 -0.3181602 0.27418515 0.5572946 -0.1647076 -0.27305126 -0.6570399 -0.3216941
-0.61599815 -0.16685407 0.08813983 -0.63575137 0.63056964 0.44370815 -0.6469014 -0.21703418
0.23165746 -0.17048694 -0.052647743 -0.34399226 0.54410094 -0.38910148 0.58370835 0.041831624
0.16296731 0.56143945 -0.10067829 -0.4103476 -0.06686811 0.59551597 -0.49657345 0.15704177
-0.7030512 0.38960272 0.28430656 0.035443015 0.29364887 0.0050180433 0.40711716 -0.5681436
-0.10040695 0.3260144 0.70635134 0.3515926 -0.53327173 0.53201723 -0.17639878 -0.16495205
-0.650763 -0.11153779 0.5174917 0.11130438 -0.37779912 0.21233724 -0.26353726 0.6464338
-0.6031317 -0.20354924 -0.69322747 -0.27549458 0.21741877 0.6737916 0.093553856 0.7173326
0.11961487 0.43181527 0.56247914 0.604088 -0.41254205 0.6653795 0.4014882 -0.33087066
-0.3523095 -0.5821624 0.19703105 -0.56530464 0.32481235 0.22529407 -0.64781946 0.14599764
0.008354314 0.32404223 0.46354136 -0.6789253 0.67083365 0.5833551 0.26786345 -0.5218888
-0.17736556 -0.19413349 -0.14107685 0.39721388 0.3404227 0.59095246 -0.28251487 0.25666493
0.26147655 -0.56759095 -0.6266223 -0.33937657 0.4945005 -0.55857664 -0.5819737 0.39498782
0.42828676 0.6057716 -0.5402496 -0.504581 0.36652747 0.6171759 0.46479225 0.10429495
0.22543766 0.7214581 -0.45128724 -0.27035925 0.5208029 -0.45429075 -0.34489104 0.5340924
0.21931393 0.23960488 -0.28586817 0.055348486 0.6748895 -0.42579275 0.07738908 0.34289825
-0.39524028 0.71233815 -0.33931172 -0.16509354 -0.17300981 -0.4421179 -0.66143906 0.43055066
0.1993678 -0.6653477 -0.36418557 0.7224399 0.2785649 0.28454566 -0.40190747 -0.21479055

cells.0.h2h.weight f4 [256, 64]
00000000: ec49 243c e690 67bd 6032 4d3d 5470 71bd
00000010: 4287 f3b9 c300 54bd 3e2b 983d fc98 bcbc
00000020: 1efc 8f3d 1f41 9a3d f7ac ccbd df6c 26be
00000030: cd94 1b3e 501f c13d cc15 ecbd ebc3 fb3d
00000040: 43ab a5bd 77c9 143e 4f1d f63d 92e6 f3bc
00000050: 8bb0 dc3d 7e82 0dbe 84be 56bd 677e b9bd
00000060: a0da e4bd e2b3 223e f0d1 e73c d545 3f3b
00000070: 9cf7 31be 7cf3 ed3d 58f5 babd b4d3 fcbd
00000080: 3c55 03bd 072a c03d 80fa 1c3e 5c18 a7bd
00000090: fd66 b8bd 6d93 513d d55e 10bd 27d2 6a3d
000000a0: bbbd 433d d3b3 b53c fbc2 263d 0e8e 403d
000000b0: 7638 c93c cdaf dc3d 8ac7 0f3d 2026 3e3e
000000c0: 8e40 b9bd d238 023b 9075 3cbc 0b76 9e3d
000000d0: d58a b93b e2af 14bd 3cde aa3d 5cd8 4cbd
000000e0: 8c28 09bc c509 1abd fc17 a1bd 6df8 babd
000000f0: 7435 5ebd 1df8 c73d 00cb 14be 899c adbd
00000100: 4d31 1cbd f1e3 99bd 7e5e 903d d37a f5bd
00000110: 12f3 eabd 3129 0abe a69d bcbd 7772 2bbb
00000120: 0940 20bd 35f1 ccbb 87ec 553d 6e0c 1b3e
00000130: 1cab 933d ff5c a9bd 4325 09be a749 8d3d
00000140: 91bd a5bd 81ec 913d 315d ed3d 2772 443d
00000150: bd8b fa3d 3ba0 4f3e 96b7 823d ffd0 a9bd
00000160: 674d 933d 8b34 eabc 9a52 cebd c330 913d
00000170: 1e94 bb3d 3095 4b3d fcb8 70bc b7ba 70bd
00000180: 01b2 a53c 4637 3f3e a68e f1bb cc65 0f3d
00000190: b2cb 3abd ad8e e9bc d886 d83d 9303 ddbb
000001a0: b76d f13d 990e b53c 95ee 0a3d 66f4 e73d
000001b0: b592 4e3b a519 273d dd22 023e 00bf ff3d
000001c0: 5e8e 293e ac0d d9bc 8747 b9bd 439f 6e3c
000001d0: ed2f fdb9 42ca b4bc ec17 b9bd 9a04 a93d
000001e0: b14e 0e3e 871f 3e3d d3a2 fcbd ec4b 9cbd
000001f0: 83e3 71bd 823e 74bd dcff 123e 03b9 00bc
00000200: daa2 223e a403 55bd 32a7 e13b 2db2 093c
00000210: 39f6 21bd e905 c6bb 3eb8 3a3d 27b2 97bd
00000220: 51f3 83bd 545f 0e3e ca7d 263e dbcc 8fbb
00000230: 03b8 f83d 5170 d53b bdf7 84bd af38 9f3c
00000240: 7c3d 40bd 4a74 0f3d ee65 c8bd 5b00 be3d
00000250: c778 99bc 6f96 dbbc b110 ee3d 6ac9 bebd
00000260: d2ba 663c c79c c63d 2802 233c ff15 353d
00000270: 0038 9f3d 354c 59bc 801c d8bd 606d 04be
00000280: 3c36 b5bd b98a 05be e065 32bc acd7 353d
00000290: ae22 67bc f129 afbb 5bcb 1ebe 9d3c ae3c
000002a0: 1511 ecbd c363 debd 4a73 11be 5570 5bbc
000002b0: 2a3e b6bc 69ad 17bd 26db 0bbe 1ce8 bb3d
000002c0: cd9a c9bd 6db8 de3a e895 083e f594 f53d
000002d0: aa6e d43c fb6f 96bd 4675 19bd 4963 e1bd
000002e0: 35ef 3f3d df27 5fbd 3706 69bd 3699 d0bc
000002f0: 5ee6 71bd fb2b 073d 8980 bbbd 47b5 163e
00000300: 7a49 5d3c afb2 87bd 56dd 213d fe6a c0bd
00000310: 27d2 503d 29e2 75bc b3f0 4d3d f3c9 7a3c
00000320: 0e91 383d 67ec 223d 535c e6bc 5813 623d
00000330: 22b9 e43d caf6 1f3e 2bb0 66bc 0334 dbbb
00000340: a2ec ff3b 6df5 223e 20b5 48bd 0ef8 3b3d
00000350: ee55 05bd 752d c43d 20f4 ec3d 4224 9ebd
00000360: c72a 2abd 8b06 f03d 0327 da3b 060d dcbd
00000370: 0b7d 323d ef1b 38bc f00d 87bd 25e1 8bbb
00000380: 89ab 14bd ee02 d4bd c6b6 ab3d 5efa fd39
00000390: 670c f0bd 9680 a63d 00d4 cebd f16c ecbc
000003a0: 6734 82bd 9b01 cfbc 3e40 e2bd a220 14bd
000003b0: d868 2b3d 1754 a5bd 772f eabb a621 7f3d
000003c0: 21ce 923d e722 f73d e294 12bd 88c3 bb3d
000003d0: e056 9f3c c9b2 f63d 609d ffbd 0616 c9bc
000003e0: c23e 13be 75aa efbd a19b 8239 c1ad 99bd
000003f0: 3264 a53d f8d6 1cbd b1a0 88bc 0a3b 06be
0.01002739 -0.05653467 0.05009687 -0.058945015 -0.00046449347 -0.05175854 0.07430123 -0.023022167
0.070305094 0.07531952 -0.09993928 -0.16252469 0.15193482 0.094298005 -0.11527595 0.12293228
-0.08089306 0.14529978 0.12017309 -0.02977303 0.107758604 -0.1381931 -0.052427784 -0.090573125
-0.11174512 0.15888932 0.028298348 0.002918591 -0.17379612 0.116187066 -0.09128827 -0.12345067
-0.032063708 0.09383016 0.15329933 -0.08158943 -0.090040185 0.051165987 -0.03524669 0.057329323
0.047788363 0.022180473 0.04071329 0.047010474 0.024563055 0.10775719 0.035102405 0.18569231
-0.09045516 0.0019870293 -0.011502638 0.07737359 0.005662302 -0.036300547 0.08343169 -0.050011024
-0.008371484 -0.037606973 -0.07865903 -0.09129415 -0.054250196 0.09764121 -0.14530563 -0.08477122
-0.038132954 -0.075141795 0.07049273 -0.119863175 -0.11472143 -0.13492276 -0.092097566 -0.0026160756
-0.03912357 -0.00625434 0.052227523 0.1514146 0.07210371 -0.08269691 -0.1339312 0.06898814
-0.080927975 0.07125188 0.115900405 0.047960427 0.12233684 0.20275967 0.063826725 -0.08291816
0.07192498 -0.028589508 -0.10074349 0.07089379 0.091591105 0.049702823 -0.014692541 -0.058771815
0.02022648 0.18673429 -0.0073717413 0.03500919 -0.045604415 -0.028510416 0.105725944 -0.006744811
0.117885046 0.022101687 0.033918936 0.11325912 0.003152055 0.04079594 0.12708612 0.12487602
0.16558215 -0.026495777 -0.09046846 0.014564338 -0.00048291628 -0.0220691 -0.09037766 0.08252831
0.13897206 0.046416786 -0.12335744 -0.076316684 -0.059054863 -0.059629925 0.14355415 -0.00785661
0.15882435 -0.052005425 0.0068863863 0.008404297 -0.039541457 -0.006043185 0.045585863 -0.07407027
-0.06442893 0.13903552 0.16258922 -0.0043884343 0.121444725 0.0065136333 -0.06492565 0.019436209
-0.046933636 0.03502301 -0.097850665 0.092774116 -0.018734349 -0.02680513 0.116242774 -0.093157604
0.014082627 0.09697872 0.009949245 0.04421043 0.07774353 -0.013262798 -0.10552311 -0.12932348
-0.08848235 -0.130412 -0.010888547 0.044395134 -0.014107389 -0.005345576 -0.15507261 0.021269137
-0.11526696 -0.10858872 -0.14204136 -0.013393481 -0.022246439 -0.03703061 -0.13657817 0.09175131
-0.09843979 0.0016992219 0.13338435 0.11991302 0.025931675 -0.07345577 -0.037465356 -0.11005265
0.046858985 -0.054481383 -0.056890693 -0.025463682 -0.059057586 0.033000927 -0.091553755 0.1471759
0.013506288 -0.06625878 0.039517723 -0.09395407 0.050981667 -0.015007534 0.050278377 0.0153069375
0.04506021 0.039776232 -0.028120195 0.05519423 0.11168124 0.15621486 -0.014080088 -0.00668955
0.0078101913 0.15913935 -0.04900086 0.04589086 -0.032552652 0.09578983 0.11570001 -0.077217594
-0.041544702 0.11719998 0.0066574826 -0.107446715 0.04357628 -0.011237129 -0.06594455 -0.0042687827
-0.0362964 -0.10352121 0.08384471 0.00048442459 -0.117211156 0.081299946 -0.100990295 -0.028860541
-0.06357651 -0.02526932 -0.110474095 -0.036163934 0.041848034 -0.080726795 -0.0071467715 0.06228795
0.07168222 0.12067204 -0.035786517 0.09168154 0.019450605 0.12045819 -0.12481189 -0.024546634
-0.14379409 -0.11702434 0.00024911485 -0.07503844 0.08075751 -0.038290948 -0.016678186 -0.13108459

cells.0.h2h.bias f4 [256]
00000000: e4d7 003e 8df8 79bd b027 e3bc 1f91 863d
00000010: 2d6e 7e3d 9c93 d9bd b574 373b eb4e 473c
00000020: 679f c13d ed0d 9a3d ed22 9d3d 3a47 ed3d
00000030: a5e6 a73d bcd0 d5bc 94cc 413c dfa1 443d
00000040: 750b 1dbd eda2 78bd 5487 513c 755e ae3d
00000050: c58d 793d 0cad bc3c e67e 0f3e 58c9 cdbd
00000060: ead8 c93c e195 713d c398 e4bd 7ab6 013e
00000070: 4eb1 3abd 77b0 8a3d 25d0 7e3d 6e41 a2bd
00000080: acf1 da3d d7cf b1bc 2a4b 043d 88c5 053e
00000090: 2b40 d3bd 5095 f63d dea5 d2bc 070d babd
000000a0: 3b1c 713d f55f fa3b d31b a0bd 72d3 8cbc
000000b0: 3b86 da3d ab7e 3c3d a302 633d db9f 8a3d
000000c0: 2f31 ca3d 2b36 8fbd d622 c33c cd27 b53d
000000d0: fe61 563c d1e1 703b 6982 1a3e 5b69 6fbc
000000e0: bcae 013e daa7 d13d 7985 233e b6f2 373d
000000f0: 252b 393d eee3 0a3d 90bc bbbd e802 473d
00000100: 7150 e5bd cfc3 edbc 95f8 f13c 943b fe3b
00000110: f921 53bd a126 9abd 54f6 303a a724 4a3e
00000120: 5f55 b5bd 69c2 8cbd 989f 9bba e3b1 41bd
00000130: 9dc5 3e3b 5b67 153e c6c0 893d e296 b33d
00000140: 80f8 42bd 1823 5abd f905 3a3e 517b 52bd
00000150: e659 b5bd 61c5 03be 2183 443d 461f 30bc
00000160: 6edf 0f3a ff5a 183e 34b5 c4bd e0d8 193d
00000170: 332b c23d 743e 8b3d 33fd 313e 35df 04bd
00000180: a046 a33d 2449 803d 404c 9a3c 8162 95bd
00000190: dd90 af3d 71a1 fc3c 16e4 b13d 7b09 f93b
000001a0: d51c 493d 19d8 64bd 5ce4 013e 9b52 7a3d
000001b0: fc57 b33d 9304 33bb 5f47 0dbe be67 00bd
000001c0: 6944 e6bd 13f1 06bd 9fe7 ce3d 4d9e 9ebc
000001d0: f4c1 1c3e 5961 3bbd f05f 9bbd 9f81 6abd
000001e0: d3fe 4f3d 6bf3 283d 8179 e43b 7e11 0a3e
000001f0: 54eb b43d 689e eabd f550 483d 3342 6b3e
00000200: 9bc4 b43d 42d3 bd3c 1a6d 0cbd ec50 05be
00000210: 92e2 c53d 9a68 0ebd f60a 243d fbeb 19bd
00000220: f733 afbc ee76 5e3d 9e9f 063e 7766 19bd
00000230: 472a d03d 5c27 943d 9615 053c 3d6e af3c
00000240: 19e3 083d 2598 053e 40b2 c5bc b21a d03d
00000250: 67b2 92bc 603f 5b3d 5a1f afbd f1e2 9a3d
00000260: 13ca de3d 6cc4 293d 08e5 c53b 6fc4 c43c
00000270: 3145 f1bd 73df f4bd e158 983d 5140 01be
00000280: b8b8 13bd 9742 9dbd b976 cbbd b341 25bd
00000290: 8b5e 073d 6f52 d8bd 23d0 07be 04bb ccbd
000002a0: 397e c73b 3ce6 5cbc 46b4 a63d 27f3 eebd
000002b0: e9dc eabd f13e 38bd 1c60 cc3d 7c47 0d3e
000002c0: caed 0ebd 6343 2ebc ac57 533c be87 953c
000002d0: e717 a4bb e1b9 1ebd 93e4 06bd 0005 c33c
000002e0: 6405 753d 2b21 8bbd f9e8 c3bb c298 903d
000002f0: 62fd dd3d 86c0 8e3d f8a9 82bd 4ef9 94bc
00000300: 9d0c bd3c c384 db3d 08e9 033e 1cc7 b5bd
00000310: 7d1d aa3d db88 e73d 6061 a33c 4cae ce3c
00000320: 605e 1f3e f83b 8f3c 1ef8 e83b 5125 593d
00000330: 36b8 383e 083f b33d fe11 eebd 2b21 913d
00000340: ecb6 89bd 9ed1 c3bd 80c2 31bb ca0d bf3d
00000350: e337 da3d cb7e 133e 2efe e13d 4796 f6bd
00000360: 1cc9 66bc e8cb 40bd eca8 e6bd 4156 85bd
00000370: 0c06 afbd 384f d1bd c484 753d 6095 84bd
00000380: e63c 20bb 394c f83c 15ad 5d3c 3abe 80bd
00000390: 1e4d 9cbd 62f7 aabd 1b2d 073e 15a4 b43c
000003a0: 74a9 e1bd 9e58 17bd 3784 4d3c c156 90bc
000003b0: 48f2 033e 7de5 b43d 10a3 d03d 758e 74bc
000003c0: 0398 293e b4f7 6e3d be93 c93c 5ad9 a43c
000003d0: 0551 b9bd a176 5d3d 67dd 9f3d ef29 df3d
000003e0: dbf8 903d b799 d33d 1e87 c83c 5c7f 0a3d
000003f0: 788f abbd ec76 dd3d c5f7 7a3c 0008 52bc
0.12582356 -0.061028052 -0.027728885 0.065706484 0.06211679 -0.106238574 0.0027993147 0.012164812
0.09454232 0.075221874 0.07672677 0.11585851 0.08198289 -0.026100509 0.01182856 0.048005935
-0.038341004 -0.060702253 0.012788612 0.0851411 0.060926218 0.023031734 0.14013252 -0.10048169
0.024639565 0.058980826 -0.111619495 0.12667266 -0.045579247 0.06771939 0.06221022 -0.07922636
0.106906265 -0.021705551 0.032298245 0.13063633 -0.103149734 0.12040198 -0.025713857 -0.09084516
0.058864813 0.0076408335 -0.07817807 -0.017190669 0.10670134 0.046019237 0.055422436 0.06768771
0.09872662 -0.069927536 0.023820322 0.08845482 0.013084887 0.003675569 0.1508881 -0.014612521
0.12664312 0.10237093 0.15968885 0.0449092 0.04520716 0.033908777 -0.09166825 0.048586756
-0.111969836 -0.029024033 0.029537478 0.007758567 -0.05154607 -0.07526899 0.0006750573 0.19740544
-0.08854174 -0.06873018 -0.0011873124 -0.047288787 0.0029109486 0.14590208 0.06726222 0.08769013
-0.04760027 -0.053256124 0.18166341 -0.051387135 -0.088550374 -0.12868263 0.047976617 -0.010749644
0.00054883107 0.14878462 -0.09604874 0.037560344 0.09480896 0.06799021 0.17381744 -0.03243943
0.07972455 0.062639505 0.018835187 -0.07294179 0.08572552 0.0308387 0.08686082 0.007600007
0.049099762 -0.05587015 0.12684768 0.061113935 0.08757016 -0.002731596 -0.13796757 -0.031348936
-0.11243517 -0.03294475 0.10102772 -0.019362593 0.15308362 -0.045747135 -0.07586658 -0.057252523
0.05078013 0.041247766 0.006972492 0.13483235 0.08833948 -0.11455995 0.04890533 0.22974472
0.08826562 0.023172025 -0.034283735 -0.1301915 0.096623555 -0.034767725 0.040049516 -0.037578564
-0.021387083 0.05431264 0.13146827 -0.037451234 0.10164314 0.0723407 0.008122822 0.02141487
0.033419702 0.1304632 -0.024132848 0.10161342 -0.017907334 0.053527236 -0.08550902 0.07562817
0.10878386 0.041447088 0.0060392655 0.024019448 -0.11780775 -0.11956682 0.07438827 -0.12622191
-0.036064833 -0.07678717 -0.09934754 -0.04034586 0.033049148 -0.10562598 -0.13262992 -0.09996608
0.006088045 -0.0134826265 0.08139853 -0.116674714 -0.114679165 -0.0449819 0.09979269 0.137968
-0.034894742 -0.010636183 0.012899321 0.018253203 -0.005007732 -0.038751487 -0.03293283 0.023806095
0.059819594 -0.06793436 -0.0059787002 0.07060386 0.108393446 0.06970315 -0.06380075 -0.018185284
0.023077304 0.10718682 0.12881863 -0.08875868 0.08306406 0.113054 0.019943893 0.025229596
0.15563345 0.01748465 0.007109656 0.053014103 0.18039021 0.08752257 -0.116245255 0.070864044
-0.06724343 -0.09561466 -0.0027123988 0.09328802 0.10655191 0.14403836 0.11034809 -0.12040382
-0.014086034 -0.04706946 -0.11262688 -0.06510592 -0.08546075 -0.10220188 0.05994107 -0.064738035
-0.002445036 0.030309783 0.0135300355 -0.06286283 -0.076318964 -0.08347966 0.132008 0.022050897
-0.11018649 -0.036949746 0.0125437295 -0.017619492 0.12885392 0.08832834 0.10187352 -0.0149265425
0.16561894 0.058341697 0.024606582 0.020123173 -0.090486564 0.05406821 0.07805901 0.1089667
0.070787154 0.10332053 0.024478491 0.033812866 -0.08376974 0.10813698 0.015317862 -0.01281929

cells.1.x2h.weight f4 [256, 64]
00000000: a188 183e a6d0 223b c4f0 94bd a6dd f53d
00000010: 23df 0dbd 9ae0 87bd 6b18 3e3b e048 21bd
00000020: c8e5 69bd 42f9 8d3c 1305 f6bd 4c26 c3bd
00000030: 70bf 00be 0dc3 68bd 7874 083d 7dd5 093d
00000040: f256 16bc 70fa d7bc e6b6 c13a c6d2 b4bd
00000050: 4fe4 03be 72ad 26be 93e1 f6bd f3c7 ae3c
00000060: 54b7 fb3d b9e2 9c3d 9bc8 48bd cb55 ab3d
00000070: b9e5 dc3d 1610 f6bc 2336 0abd 282d 06be
00000080: 6132 bebc 2d3e 9abd cce9 6e3d dd7e 27be
00000090: 3644 cd3c 2607 9d3c f828 59bd 5964 cabc
000000a0: 0c87 ef3d 4a4a 4c3d c8e8 9abd 2d48 01be
000000b0: a214 3e3d 05c2 963d 1285 78be 6662 b2bd
000000c0: bc82 20be 6dff 71bb 2e2c 73bc 5261 473d
000000d0: 9e93 61bd 94c0 a2bd 43cc 0b3e 33f0 1dbe
000000e0: 4724 3ebd a03f e2bd 3341 18bd b625 833d
000000f0: 5a01 793c d486 d33d b1f4 e03d 7cf2 9fbd
00000100: deff a6bb 96e1 93bc 3abd 193e 5db2 0bbe
00000110: 9393 b9bd d2ca e6bd 91a6 743d ed70 b83d
00000120: 68b7 263e 11cf fc3d 9a61 06be 052a b33d
00000130: 6cde 7e3d dfa7 97bd 44c2 9cbd bc39 703d
00000140: 55b9 a73c b88e 14bd 586d c33d b631 393d
00000150: f7c0 ae3d 4823 40be b624 d6bd e756 1cbd
00000160: 5856 71bd bd84 d83c 8f35 8ebc f767 893d
00000170: db53 ffbc c849 76bd 7621 1cbe 49ec b93a
00000180: 9706 6c3d 6709 2e3d 18d9 e8bd 32ad c9bc
00000190: a9ff a23d 0fa0 5fbc 9d6f d53c ec15 ab3d
000001a0: 6372 f23d b029 9c3d b2f8 11be 33e6 4bbe
000001b0: dfc3 0a3e 7447 4fbd cd8c bbbb a0fa e63d
000001c0: 9b05 5abe c90a ce3d 5020 a8bd 9c9b 66bd
000001d0: ec5a 703d c3e0 0c3e cce3 d63d 3766 1a3d
000001e0: 1d5e 8abc 6b5a ad3d d7da 93bc b305 1c3d
000001f0: d91b bc3c 5a85 1dbd c2e8 d2bd 2727 89bd
00000200: b619 91bd 932f b9bc e0fa 92bd fa6d 13bd
00000210: d046 15bd c6ef 1ebe 5173 9f3c 8a08 bd3c
00000220: 526b a8bd dda6 f13d f4a2 fdbc f21d 00bd
00000230: 7856 03be f062 0bbd 0521 713d 4a0b 463d
00000240: 4271 193d 25a6 ef3d eebe aa3d 06bd f13d
00000250: 18ba 6f3d 5808 153e 1f69 7cbd 6dc2 993d
00000260: 5d2c 83ba dd88 493d 8ea2 e1bd f7f2 c23d
00000270: 6b5f 063d c25f 95bd d305 923d 6935 023e
00000280: 8efe d1bc 1496 8dbc c347 ef3b 7f57 61bd
00000290: 5ca6 0fbe cfec 133c 8136 82bd ef3a 073e
000002a0: 4ed4 743d 2995 fb3b 9683 1fbe 7aba b93d
000002b0: 4d7b d9bc 55dd 3cbd 4e55 313e 7b0b e83d
000002c0: 513e 1a3c 9ff4 053e 6fd2 a7bd 9ecb a6bd
000002d0: 4ec8 003d bba3 ce3d 7d57 68bd 811c c53a
000002e0: 4a43 06be a31e b93c 4bb8 84bd db97 ffbd
000002f0: cb3f 9cbd 627a b23d f138 f6bd cadc 07bd
00000300: 4116 7b3e 495f 96bd ce2b f43d bff6 083d
00000310: e4c4 443d 6982 bcbd 10ec 083d bb9e 3dbe
00000320: ec9b 1d3e 5812 4b3d eafc 69bb 5f15 47bb
00000330: a223 423d f3bd fa3d f570 ba3d 2fa7 3c3d
00000340: cb77 c73d 6574 a53c 703d 1c3a 028c 173c
00000350: 02d3 853d 53e2 debd 495a 61bc 66d8 a7bd
00000360: dabf ae3d 53e8 9ebd 8dc1 2dbd 1e79 49bb
00000370: b5e5 2dbd a170 823c 1613 2f3d a2d9 d33b
00000380: 042a a7bc 553a 12bd 7c18 763d f9ca 62bd
00000390: 1a37 b7bd f260 4bbd 490d 47bd 3482 e43d
000003a0: fc1d 2ebd 7548 a43d 1afd a53d 17f0 81be
000003b0: 7179 3fbc 8463 cf3d 790a 5dbe 0ab8 a73d
000003c0: 7243 7fbe f695 fd3d ed84 4bbd 7178 813d
000003d0: e519 06be e0e8 853b 8d92 4b3e dcf4 54bd
000003e0: b179 12be dd14 a63c 324a 153e 62d1 d9bd
000003f0: 31c6 233e 5708 b03d 4341 42bd 3158 4c3d
0.1489587 0.0024843602 -0.07272485 0.12005167 -0.034636628 -0.06634636 0.0029006253 -0.03937614
-0.057103902 0.01733077 -0.120126866 -0.09528789 -0.12573028 -0.05682664 0.0333142 0.033650864
-0.009176003 -0.026364535 0.001477924 -0.08829264 -0.12880062 -0.16277102 -0.120547436 0.021335578
0.122908264 0.076604314 -0.049019437 0.08365973 0.107860036 -0.030036967 -0.033743035 -0.13103163
-0.023217382 -0.0753139 0.058328435 -0.16356988 0.02505694 0.019168448 -0.053017586 -0.024706053
0.1169568 0.049875535 -0.07563931 -0.12625189 0.046406396 0.07361225 -0.24269512 -0.08710174
-0.15674871 -0.0036925927 -0.014842076 0.048676796 -0.05507242 -0.079468876 0.13652138 -0.1542366
-0.046421316 -0.11047292 -0.037171554 0.06403677 0.015198076 0.10328451 0.10984171 -0.07809922
-0.0050964197 -0.018051904 0.1501359 -0.13642259 -0.09061351 -0.11269154 0.059729163 0.09005914
0.16280901 0.12344182 -0.1312317 0.08748249 0.062223837 -0.07405066 -0.07654241 0.05864881
0.020474115 -0.03626892 0.0954234 0.045213424 0.08532899 -0.18763459 -0.10456221 -0.038168814
-0.058920234 0.026430482 -0.017359523 0.06709283 -0.031167915 -0.060128957 -0.1524714 0.0014184798
0.057623472 0.042489436 -0.11369532 -0.024618719 0.079589196 -0.013649001 0.026054198 0.08353791
0.11838224 0.07625139 -0.14255026 -0.19912033 0.13551281 -0.050605252 -0.005723572 0.11278272
-0.21291201 0.10060651 -0.08209288 -0.056300744 0.05868046 0.13757615 0.104926676 0.037695136
-0.01689058 0.084645115 -0.018048687 0.038091373 0.022962498 -0.038457252 -0.10298301 -0.06696921
-0.07084982 -0.022605693 -0.07176757 -0.035993554 -0.036444485 -0.15521154 0.019464167 0.02307536
-0.08223595 0.11799405 -0.030961491 -0.031278558 -0.12825954 -0.0340299 0.05886938 0.04835061
0.037461527 0.117016114 0.08337198 0.118036315 0.058527082 0.14553964 -0.06162369 0.07507787
-0.0010007728 0.04920279 -0.11017333 0.09518998 0.03280584 -0.07293655 0.07130017 0.12715687
-0.025634076 -0.017283477 0.007302256 -0.055015083 -0.14028305 0.009028628 -0.06358052 0.13206075
0.059772782 0.0076776934 -0.1557754 0.09068771 -0.026548052 -0.046109516 0.17317697 0.11330315
0.009414271 0.13081597 -0.08194434 -0.08144306 0.031441025 0.10089823 -0.05672406 0.0015038402
-0.13111606 0.022597617 -0.064804636 -0.12480136 -0.07629355 0.08714749 -0.120225795 -0.033169545
0.24520208 -0.07342393 0.119224176 0.03343844 0.048039332 -0.09204561 0.03342825 -0.18517582
0.1539151 0.04957804 -0.0035703727 -0.0030377728 0.047397263 0.12243261 0.09103576 0.046057876
0.097396456 0.020197103 0.00059600826 0.009249689 0.06534387 -0.10883012 -0.013754436 -0.081955716
0.085326865 -0.07759156 -0.042420913 -0.0030742357 -0.042455394 0.015922846 0.04274281 0.006465153
-0.020405777 -0.03570016 0.060081944 -0.05536935 -0.08946057 -0.049653 -0.048596654 0.11157647
-0.042509064 0.080216326 0.08104916 -0.25378487 -0.011686669 0.10126403 -0.21586026 0.081893995
-0.24928072 0.123821184 -0.049687315 0.063218005 -0.13095815 0.0040865988 0.19880123 -0.05199133
-0.14304234 0.02027362 0.14579085 -0.1063564 0.15993573 0.08595341 -0.04742552 0.049888793

cells.1.x2h.bias f4 [256]
00000000: cbaf b03d 04b1 023d 352c 96bd 33bd 99bd
00000010: 8450 90bd 8bbc d1bd 8477 073e dd8f fe3c
00000020: d985 cabd 1caf acbc c380 b43d 9514 c1bc
00000030: 8fbb 9fbb 8e5b 45bd efff e03d 00d1 a93c
00000040: d5c6 023e e722 d43c 2b47 df3d f86c 9ebd
00000050: fe46 8a3d 06af 82bd 8bc8 f73d 2492 31bd
00000060: 2763 9ebd 85e0 82bd fb2e a6bd 187d cbbd
00000070: 1744 42bd 057a d33d 4ede e5bc 136f e33b
00000080: 8caa 133e f081 49bd d768 e5bb 27d0 95bd
00000090: 5bb5 d73d 3445 c1bd 8214 7bbd c9b9 783c
000000a0: 4b5a a23c 76b3 1f3e a50b 03bd 2247 813b
000000b0: bae4 2e3d 129b 8a3d 5485 0b3e 793c f33d
000000c0: b6c3 a6bd 5690 a13d d3f8 b63d ba79 cebd
000000d0: d0d6 9c3d ad7a c4bd 956f 4b3d 2dbb 403d
000000e0: 57db 613b 55fb 94ba 582c 5dbd f3ff 8bbd
000000f0: e51d 423d 9edf fd3c a512 99bd ce52 d4bd
00000100: b6b7 203d 6411 4c3d a393 ed3d 733a 08bd
00000110: 31ce 65bd c20c 82bd 2922 6f3d 7989 f9bd
00000120: 44ad f2bd 5a58 0ebc e483 75bd aef4 a83d
00000130: e428 21bd 41e4 7f3c 678d a3bd 463c a53d
00000140: 2a26 ca3d 9a26 1f3d 60d6 653d ba3e e5bd
00000150: 41ef a4bd 850c 5c3c daa4 093d 5a5f 613d
00000160: 867b 5e3d e94e 3f3b 7a7e 933d 2b3e 0abd
00000170: 8600 513d 032c acbd 2426 873d aa9f b33d
00000180: 29e4 183c 5afc 9d3d 467d 8cbd f9b0 0b3c
00000190: cf83 c7bc a2b1 b33a d8a2 15bd c94f 103e
000001a0: 5b75 abbd 9b93 d23c 485a 9b3d bd96 f53d
000001b0: 88b4 be3d 5d1b 8abd d714 b6bc 63ca b13d
000001c0: 3dc3 fb3c 74d2 c03d 37bc f03c 6cde cfbd
000001d0: 7263 953d 0613 b63d 6cd8 3c3d 1b6c 41bd
000001e0: 9199 52bd 8bfc 47bd 05ea 313d 4f6f 9a3d
000001f0: c9bd a1bd 73b1 b83c ecb2 a3bc c248 a23d
00000200: b180 82bc aa7c acbd a694 b63d 0251 5bbd
00000210: 8641 5a39 15ab cfbc a986 153d 2007 42bc
00000220: 159b 3e3d 15c8 bbbd 3a56 e5bc 1075 093e
00000230: b93f b5bd dec7 fbbb ac25 95bb 5806 733b
00000240: c409 81bd a5c2 223d 2276 95bc b605 a43c
00000250: 8cd3 c43d f96a 023e 8164 0cbd 065c 9fbd
00000260: c99e 77bd 087d 1dbd a5a0 4abc 2c30 f93c
00000270: 992d 4abd 4d7c 9c3d 17c3 8bbc c7cb a13c
00000280: 834c cc3d a4f6 43bc 73d7 a53c 8b0a 98bc
00000290: 8c06 de3d 13f8 e8bd 3bc7 a8bd ae1e 123c
000002a0: 96f7 af3d bfe5 d9bd 1ed0 f0bc 4c1a 3e3d
000002b0: dc51 ba3d 0b2d 8c3d 00ad fe3d 9f4f bdbc
000002c0: 2de1 06be 7b74 983c e4bb a43d 498b 4fbc
000002d0: 895b 1d3d ca3c e23d cd76 e0bd 1ff0 ff3c
000002e0: 1192 8d3c 840b b53c 9aca 7cbc b773 4fbd
000002f0: a70c b53d 60f1 393c ab71 453d 7f27 563c
00000300: 10f4 98bd ef27 a23d 4789 34bd 5b38 dcbc
00000310: d05f 71bd a807 abbd 89b4 b3bd 8cc7 303c
00000320: dbe2 f5bd 25e4 c83d e3c1 41bd 7d18 5f3d
00000330: 0b81 883d 36e3 eabc 3043 e03c f8e7 e13d
00000340: a3ed c1bd 76e3 ed3c c333 fe3d 0f43 0b3e
00000350: b834 493d 1b1a 013e d242 47bd 0fdf 1f3e
00000360: b684 ea3c 9adb 60bd 8370 cc3d b185 f23d
00000370: f206 28bd 0a3e 8a3d 2fe5 d83c a3ec c93d
00000380: 29e3 cdbd 3abe a23d b6c9 123e 3bba abbc
00000390: 6b07 5d3d 96ca bcbd bb14 333d a3b0 65bd
000003a0: ea21 edbd 4862 063e 9f9d 923d dcd5 b63d
000003b0: bef0 ba3d 21f4 e7bc a0c1 98bd 3e8a c03d
000003c0: 8272 ea3d 0870 a1bd 345a c7bd 7c22 6ebd
000003d0: db61 7ebd 82cd 833d 901e 03be 24b9 653d
000003e0: a41a 423d 91f7 80bd 1328 a5bd afd3 de3d
000003f0: 3994 8bbd 8786 90bd 0e71 c73c e9fa eabd
0.0862728 0.031907097 -0.073326506 -0.0750679 -0.07046607 -0.1024104 0.13229185 0.031074459
-0.09888811 -0.021079592 0.08813622 -0.023569385 -0.0048746536 -0.048183016 0.109863155 0.020729542
0.12771161 0.025895549 0.10902246 -0.07735628 0.06751822 -0.06381039 0.120987974 -0.04335226
-0.077337556 -0.0639048 -0.081144296 -0.09935969 -0.047428217 0.10326008 -0.028060105 0.0069407313
0.14420527 -0.049196184 -0.0070010233 -0.073150925 0.10532638 -0.094370276 -0.061298855 0.015181013
0.019818446 0.15595803 -0.031993527 0.0039452473 0.0426986 0.067678586 0.1362508 0.118767686
-0.08142798 0.07888858 0.08934178 -0.10081811 0.0765816 -0.09593711 0.04966696 0.047053505
0.0034463012 -0.0011366407 -0.053997368 -0.06835928 0.04739179 0.030990418 -0.07474259 -0.10367356
0.0392377 0.049821272 0.11600425 -0.033258867 -0.056104843 -0.063500896 0.058382187 -0.12184424
-0.11849454 -0.008688057 -0.059940234 0.08249794 -0.039345637 0.015618385 -0.07985955 0.08068137
0.098705605 0.038855173 0.056112647 -0.11193605 -0.080534466 0.013430719 0.03360448 0.055022575
0.05431702 0.0029191321 0.07201858 -0.033750694 0.05102589 -0.08406832 0.065990716 0.08770688
0.009331741 0.07714148 -0.068598315 0.00852608 -0.024354843 0.0013709555 -0.036532253 0.14092936
-0.08371993 0.02570515 0.07585579 0.11991642 0.09311777 -0.067435004 -0.022226734 0.0868118
0.030732745 0.09415141 0.029386623 -0.101498455 0.07294358 0.08890347 0.046104833 -0.047222238
-0.051415984 -0.048824828 0.04343607 0.07540762 -0.07897527 0.022545552 -0.019982778 0.07924034
-0.015930505 -0.08422215 0.08915071 -0.053544052 0.0002081451 -0.025350133 0.036505375 -0.011842519
0.046534617 -0.09169022 -0.027995218 0.13423562 -0.08850045 -0.007683738 -0.00455161 0.0037082639
-0.06300691 0.03973641 -0.018244807 0.020022254 0.09610662 0.1273612 -0.034275535 -0.07781224
-0.060454164 -0.038449317 -0.012367402 0.030418478 -0.04935989 0.07640896 -0.0170608 0.019750489
0.09975531 -0.011960659 0.020244336 -0.018559715 0.108410925 -0.113754414 -0.08241125 0.008918447
0.08592145 -0.10639524 -0.029396113 0.046411797 0.09097645 0.06844529 0.12435341 -0.023109255
-0.13171835 0.01861023 0.0804365 -0.0126674855 0.038417373 0.11046751 -0.109601595 0.031242428
0.017281564 0.022100218 -0.015429163 -0.050647464 0.08840304 0.011349052 0.048204105 0.01307094
-0.07468426 0.07917773 -0.04407623 -0.026882341 -0.058929265 -0.0835107 -0.08774669 0.010789763
-0.1200616 0.0980914 -0.047304045 0.054466713 0.06665238 -0.028672796 0.027375787 0.11030573
-0.09469154 0.029039126 0.124122165 0.135998 0.049122542 0.12607615 -0.04864771 0.15612434
0.028627735 -0.05489693 0.099823974 0.11841906 -0.04102225 0.06750114 0.02647647 0.09859588
-0.10053093 0.07946439 0.14334759 -0.020962825 0.053962152 -0.09218328 0.043720942 -0.056076657
-0.11578734 0.13123429 0.0715897 0.08927509 0.09127949 -0.028314652 -0.07458806 0.094013676
0.11447622 -0.078826964 -0.09734002 -0.058138356 -0.06210504 0.06435682 -0.12804627 0.056084767
0.047388688 -0.062972195 -0.08064284 0.10880219 -0.068153806 -0.07056909 0.0243459 -0.114736386

cells.1.h2h.weight f4 [256, 64]
00000000: f04b 1fbd d153 c5bd ac6b 1ebd d3a8 cbbd
00000010: 2dad 20bd fd22 9d3d 2025 b4bd 814c 803d
00000020: 922d cf3d 0b90 b9bc 9602 893c fce1 a3bd
00000030: 4c56 dcbd 936f a33d 2c78 973d 0503 1bba
00000040: 5ba7 d6bd f15a 39bd 423b 053e a471 0f3e
00000050: a70a 0abe e681 893d e9a5 98bd 7872 3bbd
00000060: 54db 1c3c 6a38 f3bd 69d5 dabc 68b5 3fbd
00000070: 406f ba3d e182 4cbd 306e a8bd a9bd 913c
00000080: b920 ec3d f8ca a33d 9c10 a53d 2b7b a4bd
00000090: 399e ad3d 7975 d5bc e1a2 e0bd 7074 03bd
000000a0: ef54 7cbd 7a6e 6fbc 914c 173d 9fe2 083e
000000b0: 205d efbd 2616 5a3d 3b17 253d 8933 a6bd
000000c0: c6b0 01bd 81a0 b3bd 592b e2bd a597 ad3d
000000d0: ec7a 0e3e 7d56 ec3c 0ed4 12bd 13f1 2abd
000000e0: 9219 d33c 25e7 f8bd dc82 febd d16a 003d
000000f0: ca8d c03d dced f2bc b56b 77bd 34e1 993d
00000100: 2ae7 9b3c d294 3fbe 2c7e 343d b8d2 573d
00000110: 05a7 ab3d b437 bd3d d543 15be fd7a 5ebd
00000120: 55a7 323c 2d63 703d c52d 7bbc 417e c53d
00000130: a3bb 1d3d 39a5 a63d 988e 493d ec0f e8bd
00000140: ca13 e5bd 0e5b ff3d f002 30bd 544e d6bc
00000150: c05e 87bc f942 9bbd 972b 6dbd c4c7 363d
00000160: f282 213e 1b15 6abd d4c9 46bc 2913 46bd
00000170: c490 c1bd 2841 293d 94f0 3d3e c9e6 84bd
00000180: 655a eebc 166e e3bd 7507 b03d 22ba 17bd
00000190: 7fc2 ce3d db33 b1bd c41c 1dbe 655e 85bd
000001a0: 2559 163e e958 643e 8cf0 9ebd 5b2e 0e3e
000001b0: 302d ddbd 11d6 013e f7a5 943d 7760 8fbc
000001c0: caf5 a4bc d674 13be 13a6 e4bd 42e6 bcbd
000001d0: 1010 cd3d 3eb9 b43d 387b 9dbd 3686 d83c
000001e0: 4201 9e3d f1a8 2c3d 1ce6 3cbd b394 ecbd
000001f0: b5f1 ee3d d968 42bd f28e 123e 71f5 8c3d
00000200: 1c85 733d ec3d 9cbc a59b a5bc 0f0e 52bd
00000210: e449 ee3d 9b4b a6bd efe6 82bc 91d9 b3bd
00000220: b2d9 e6bd d900 b23b 3910 2dbd 3a45 83bd
00000230: 9c29 bdbd 4fe9 eb3d 6580 083c 39a2 4a3c
00000240: b9ea c8bd ab04 8ebd 3770 863d 0518 eb3d
00000250: 62cd 9cbc 483c b0bd a44d ea3d e676 cbbd
00000260: 5835 1fbd 436e 943d 5d7c d43c 88e3 41bc
00000270: 02eb 633d b8f2 843d 169e 393e 42c4 dc3d
00000280: 3b72 613c 7f4e b13d a765 ecbd 8a46 8dbd
00000290: a9a5 88bd 24fe 2ebd 467e bc3d af74 d53c
000002a0: 27a0 c0bc 7296 febc 700c 83bd 1e53 bbbc
000002b0: 9d69 d53d d907 65bd 7db2 493d 948c 1d3c
000002c0: d3f5 ea3d ee4c 6fbd 41e5 ccbc 72ad bcbd
000002d0: 6653 8b3b 493b 89bd 8b30 b8bd 565c a03b
000002e0: a4e8 9a3d c040 803d 92ce 1f3d 8bfe 70bd
000002f0: 0418 c8bd 44c7 06be 82c1 543c 7e96 243c
00000300: 4043 e83d b03a 863d 53db 323e 648a 313e
00000310: 6b2b 2d3e 4402 153d 3fb2 ef3b c632 1d3d
00000320: bb13 28bd aa68 e63a 24be 7f3d 82e8 a3bb
00000330: 98d3 343d 18d8 d1bc 781b 4dbd 8d8f 6f3d
00000340: f110 25be 3857 ea3d b26d d23d b7da 1e3e
00000350: 0017 d7bd 9db0 69bd ff09 043e 0098 a0bd
00000360: fcf5 f23d 7670 73bd bc62 0bbe 92f9 3bbe
00000370: d2e6 983d 46ab afbd ab2d 52bd 1a7b 1b3e
00000380: abad f3bc 4224 93bd 649d 9dbc c6f6 76bd
00000390: 2507 083d d5f5 523c e457 563a 16d7 ac3b
000003a0: 6f90 0e3e d1fb 1d3c 79d4 8fbd 4500 a6bc
000003b0: 2b84 4dbd a873 e33d 35c9 af3d 6fda 103e
000003c0: 2362 4c3d 4597 903d d315 46be 8c86 d0bd
000003d0: 2d8b da3d fa15 023e b2c1 8dbd 7b34 4dbc
000003e0: 0764 6f3d 150c 863d 9255 11bd 422d e73d
000003f0: a24a 133d a554 913d ea3f a93b 003d 093e
-0.03889078 -0.09635127 -0.038676903 -0.0994431 -0.039227653 0.07672689 -0.087961435 0.06264592
0.10116114 -0.022651693 0.016724866 -0.080020875 -0.10758647 0.079802655 0.07395968 -0.00059132307
-0.10481139 -0.045252744 0.13010886 0.14008194 -0.13480626 0.06714229 -0.0745352 -0.045763463
0.009573776 -0.118759945 -0.02671309 -0.04680386 0.091032505 -0.049929503 -0.082241416 0.017790632
0.11529679 0.079976976 0.080598086 -0.08031305 0.08477444 -0.026056992 -0.10968567 -0.032093465
-0.061604436 -0.014613742 0.036938254 0.13367699 -0.11687684 0.05324378 0.040305357 -0.08115298
-0.031662725 -0.08770848 -0.11043424 0.084761895 0.13914078 0.028849835 -0.035846762 -0.041733813
0.025769029 -0.12153462 -0.12427303 0.031351868 0.09402044 -0.029654436 -0.06040545 0.07513657
0.019031126 -0.18709114 0.04406564 0.05269119 0.08381466 0.0923914 -0.14576657 -0.05431651
0.010904153 0.05868833 -0.0153307365 0.09643222 0.038509022 0.081369825 0.049208254 -0.11331162
-0.11185415 0.12468539 -0.04297155 -0.026160397 -0.016524673 -0.075811334 -0.0579029 0.044624105
0.15772608 -0.057149034 -0.0121330805 -0.048358116 -0.0945144 0.041321903 0.18548805 -0.06489331
-0.029095838 -0.111049816 0.08595172 -0.037042744 0.10095691 -0.08652469 -0.15343004 -0.06512145
0.14682443 0.22299542 -0.077607244 0.1388487 -0.107996345 0.12679316 0.07258218 -0.017502053
-0.020136733 -0.14400038 -0.11164489 -0.09223606 0.10012829 0.08824395 -0.07689518 0.026431184
0.07715084 0.042153303 -0.046117887 -0.115517996 0.11667196 -0.04746327 0.14312342 0.06882752
0.059453115 -0.019072495 -0.020215819 -0.05128294 0.11635187 -0.08119889 -0.015979258 -0.08781732
-0.11271991 0.00543223 -0.0422518 -0.06409688 -0.09236452 0.115191095 0.008331393 0.012367778
-0.09810395 -0.06934484 0.06564372 0.11479191 -0.019140903 -0.08605248 0.1144059 -0.099347875
-0.038869232 0.07247593 0.025938207 -0.011834033 0.055644043 0.064916074 0.18126711 0.10779621
0.013760145 0.0865755 -0.11542826 -0.0689822 -0.06672222 -0.042722836 0.09203772 0.026056616
-0.023513867 -0.031077597 -0.06398857 -0.022866782 0.10420535 -0.055915687 0.049242485 0.009616036
0.114726685 -0.058422975 -0.02501166 -0.092127696 0.004251885 -0.06700761 -0.08993634 0.00489382
0.07563904 0.0626235 0.03901536 -0.0588365 -0.097702056 -0.13161951 0.012985589 0.010045646
0.11340952 0.065541625 0.17466478 0.17337948 0.16911094 0.036379114 0.0073149498 0.0383785
-0.04103444 0.00175788 0.06243719 -0.0050020823 0.044147104 -0.025615737 -0.050075024 0.05848651
-0.16119744 0.11442417 0.10274829 0.1551312 -0.10502434 -0.057053197 0.12894438 -0.07841492
0.11863324 -0.059433423 -0.13611883 -0.18356922 0.074659005 -0.0857759 -0.051313084 0.15183678
-0.029745897 -0.0718465 -0.019240089 -0.060293935 0.03320994 0.012875994 0.0008176549 0.0052746637
0.13922285 0.009642557 -0.07022948 -0.0202638 -0.050174873 0.11106044 0.08583299 0.14145826
0.049898278 0.070601024 -0.19344263 -0.10181913 0.10671077 0.12703696 -0.0692171 -0.012524719
0.058445003 0.06545273 -0.035481997 0.11287929 0.035959847 0.07096223 0.00516509 0.13402176

cells.1.h2h.bias f4 [256]
00000000: 59bb f8bc a2b7 d0bd d593 94bd 34de 1e3d
00000010: de0c dcbd 4d54 f93d 7714 913d 5008 173e
00000020: 9e61 06bd ab2b b23d e2ac 7dbd 139a 593d
00000030: 3f2d 983d f3c8 113d f61e 61bd 4e8d 78bd
00000040: 1aaa bfbc 90c2 033e 297c 943d 6a94 bcbc
00000050: a664 d1bc 302a aa3c 99ae 833d 2988 243e
00000060: e3ef c43d 15c9 053e 804a cdbc 07b4 463d
00000070: 2c11 0a3e 8bc0 dd3d 68e1 1b3c 060c dc3d
00000080: 2775 5bbd 3a02 ccbd b478 743d 87bd be3d
00000090: 2193 b03d 309d 9cbd ff8c 083e 4422 8fbd
000000a0: c2e2 d33d 696d e33c fb80 f73d 7cd3 a13d
000000b0: 96f8 9d3d 008b 643c 74c6 dbbd 5167 afbd
000000c0: 4a4d bcbd 5b08 00bd 4db7 edbc ea54 693d
000000d0: b0ee c7bd fb4d ebbd 1f39 c7bc 2eac 6abc
000000e0: 9b7f a3bb 33ec adbd 19aa c0bd 698d b5bd
000000f0: 9764 42bd cef5 f1ba 8496 b0bd dcbf e9bd
00000100: e609 01bc 46c8 e33d dbca be3d 4e1c c23c
00000110: 8da9 c0bd 767f c03c 46fc c4bd 97b1 b1bd
00000120: 5aa4 273c f920 3f3d 6914 82bd fb52 bd3b
00000130: aa1b e93b 8458 a1bc 87ab 2b3d c4b6 113d
00000140: 399a 86bd 7696 0abc 4764 cabd ce0c 91bd
00000150: 01f3 e9bd c222 a0bd 7d4a 29bd c144 f33b
00000160: 238a 143c 26d6 ce3c f4f2 d93d edaa 663c
00000170: 14e6 94bc b40e 643d d0d8 8ebd 6a42 c8bc
00000180: f1cc 383d e588 f23d a8c8 f73d 99ca d0bd
00000190: 933a 943c 148d e43d 3d8b ec3c 26d0 8bbd
000001a0: bcd7 763d 6db9 d7bd dc3e 9ebd c68b 9fbd
000001b0: 9871 ea3d 3066 e03d 566e 27bd 5785 333d
000001c0: 7a6b 0a3d c48a bbbd 4527 acbd 7e4f 11bd
000001d0: 505f 913c a0ad 3fbd 8070 a03d a5b1 92bd
000001e0: 0e21 b6bd d9b9 e53b 731e 6c3b f6ab 9dba
000001f0: b301 52bd 0348 ba3d ff05 8c3d 400c 2a3c
00000200: c6fe ac3a eecf db3d 8c14 e13c aa45 2cbd
00000210: 3abc 83bd 1dc0 a33d 262d afbd 1e49 723d
00000220: a480 ddbc d356 433d 9604 3d3d 0f7c d73d
00000230: 61bd c2bc 85b6 32bd 7356 a53c bdab 70bd
00000240: 8222 0d3d f5a0 38bc cc8b 463c 5ca2 fd3d
00000250: fa4f e2bd 3124 f43d 2994 3f3d 6cde aabd
00000260: b616 f13d 849a 6bbd d268 f2bd c5ce 1cbd
00000270: b31d 323b 3bad bbbd 3665 8c3a 28ad 523d
00000280: c2a8 00be 38e6 443d 6cca 543d 8139 093e
00000290: d6b4 0e3e 482a a7bc 54b3 82bd 01fe 08be
000002a0: de3a 4abd 7b1f 2e3d b8f9 863d 0739 f13d
000002b0: 276b 1d3d 318c dcba 1162 393d c005 8c3d
000002c0: a1af ac3d 44d9 b23d 769a 92bd 7eee 95bd
000002d0: 7425 23bb 6384 8ebc 8993 e6bd 518f dd3d
000002e0: 3f2f 763d 4f94 d73d 6792 833d cb89 003e
000002f0: 4bad 423c 3e83 33bd 0a90 d53c 46c2 553d
00000300: 8bab 333d c276 993c 1476 b93c d3de fabc
00000310: feb4 08bb b2cf ac3d 6248 663c 10e3 bebd
00000320: 7c6c 78bc 0be4 03bd eb62 0a3e 822e b93d
00000330: 0a88 7ebd 9200 923d 7cb7 fc3c 2abf b4bd
00000340: 0667 b1bc bbc4 1f3d a031 ce3d 4812 e3bc
00000350: a871 483d 6b2e 673d a377 acbd 18d6 563c
00000360: 3920 393d 7054 ae3d 4aab 373d 53f4 f6bc
00000370: 834a a43c 8561 613d 2fb0 403d 9426 ecbc
00000380: fbb2 113e e51e 1d3d 6d2d a3bd f362 8e3c
00000390: d234 85ba 8fd1 c7bb b7fe 993c 1d93 aebb
000003a0: 93de 68bd f89a 1d3e e116 aa3d 0adf 67bd
000003b0: dbdc 723c c3dd 373d b929 203c 203d b23c
000003c0: b145 4bbc 0aa4 c83b 5280 bcbd 2f64 0e3e
000003d0: 091b 083e 2124 573d f5df 7abd 3e0d cbbc
000003e0: a28c 693d 3375 b93d d672 143c a51c 44bb
000003f0: ed39 cabd 6513 a6bd 218e 8c3c 63aa adbb
-0.030362772 -0.10191275 -0.07254759 0.03878613 -0.10744642 0.12174282 0.070839815 0.14749265
-0.03280794 0.08699735 -0.061932452 0.053125452 0.07430505 0.03559203 -0.054961167 -0.060681634
-0.02339654 0.12867188 0.07250244 -0.023019988 -0.025560688 0.02077207 0.06429786 0.16067566
0.09616067 0.13064988 -0.025059938 0.04851153 0.13483113 0.1082774 0.00951419 0.10744481
-0.053578522 -0.09961362 0.059685424 0.09313493 0.086218126 -0.07647169 0.13335036 -0.069889575
0.10345985 0.027762132 0.12085148 0.079016656 0.0771343 0.013949156 -0.10731211 -0.08564628
-0.09194429 -0.03125797 -0.029018069 0.056965746 -0.09762323 -0.11489483 -0.02431923 -0.014323277
-0.004989577 -0.08492317 -0.094074436 -0.088648625 -0.04745921 -0.0018460096 -0.086224586 -0.114135474
-0.007875895 0.111221835 0.09316035 0.023695137 -0.09407339 0.023498278 -0.0961843 -0.08676451
0.010232056 0.046662305 -0.06351549 0.0057777143 0.0071138935 -0.019695528 0.041911628 0.03557469
-0.065723844 -0.008458724 -0.09882408 -0.070825204 -0.114233024 -0.078191295 -0.041330803 0.0074239676
0.0090661375 0.025248598 0.10642043 0.014078838 -0.018176116 0.055678084 -0.069749475 -0.024445731
0.045117322 0.11842517 0.12098819 -0.101948924 0.018094337 0.11159721 0.028874988 -0.068268105
0.060264334 -0.10533414 -0.07726833 -0.077903315 0.114474475 0.10956991 -0.04087671 0.043828335
0.033793904 -0.09157327 -0.084059276 -0.0354762 0.017745644 -0.04679644 0.07833958 -0.07162789
-0.088930234 0.00701068 0.0036028891 -0.0012029398 -0.05127115 0.090957664 0.06837081 0.010378897
0.0013198487 0.10733019 0.027475618 -0.042058624 -0.06432386 0.07995627 -0.08553533 0.05915176
-0.02703888 0.047690224 0.04614695 0.10521709 -0.023771944 -0.043631095 0.020182824 -0.058757532
0.034456737 -0.011268844 0.012118291 0.12384483 -0.110504106 0.119209655 0.046772156 -0.08343205
0.1177191 -0.057520404 -0.11836399 -0.03828313 0.0027178347 -0.091639005 0.0010711316 0.051434666
-0.12564376 0.048071116 0.051950857 0.13400842 0.13936171 -0.020405903 -0.063818604 -0.13378145
-0.049372546 0.04251049 0.06590599 0.11778455 0.038432267 -0.0016826448 0.04525954 0.06837034
0.08431936 0.087328464 -0.07158367 -0.073208794 -0.002489415 -0.017397111 -0.11258609 0.10818351
0.06010365 0.105263345 0.064244084 0.12552564 0.011882137 -0.043826334 0.02606966 0.052187227
0.043864768 0.018733386 0.022639312 -0.030623829 -0.0020859833 0.08438052 0.014055343 -0.093206525
-0.015162583 -0.0321999 0.13514297 0.09042074 -0.062141456 0.07129015 0.03084921 -0.08825524
-0.02165557 0.039005976 0.10068059 -0.027718678 0.048936516 0.056440752 -0.084212564 0.013112567
0.045196746 0.08512199 0.04484109 -0.0301458 0.020055061 0.055024642 0.04704302 -0.02882699
0.14228432 0.03835954 -0.07967649 0.017381167 -0.0010162836 -0.0060979794 0.018798215 -0.005327596
-0.05685289 0.15391147 0.08305145 -0.05660919 0.014823164 0.044889223 0.009775572 0.021757662
-0.012406752 0.0061230706 -0.09204163 0.13905405 0.13291563 0.05252469 -0.06124874 -0.024786588
0.057018884 0.09055557 0.009060582 -0.00299243 -0.0987433 -0.08109168 0.017157616 -0.0052998527
