model_group/models_group_demand/LSTM_model_QUEENS_ROCKAWAY BEACH BOULEVARD.pth (torch, 351797 bytes, 17 tensors)

input_projection.weight f4 [2, 2]
0.42036742 -0.34123823 -0.30790684 -0.49524856
00000000: 663a d73e c7b6 aebe f7a5 9dbe 3891 fdbe

input_projection.bias f4 [2]
-0.08359805 -0.5986859
00000000: 7435 abbd 7b43 19bf

cells.0.x2h.weight f4 [256, 2]
-0.66394806 -0.56535953 0.67045176 -0.105528325 0.2578438 -0.3561875 -0.040647138 -0.26563695
-0.033357892 -0.3732485 0.12757546 -0.08828 0.5415673 0.65136814 -0.19863054 -0.1574952
0.06651074 0.49710557 0.1953657 0.34998846 -0.30417797 0.26152107 0.79009485 -0.29579377
-0.019134669 -0.14188966 -0.64974165 0.24830647 -0.1580159 0.11580414 0.51527274 -0.21241753
0.027199844 0.13530542 0.58077276 -0.267286 0.12128311 -0.3095625 0.7074907 -0.18783998
0.19353957 0.20398435 0.56591815 -0.3885358 0.34026787 -0.56053966 0.09065998 -0.06576686
-0.06488524 0.6285609 0.16988732 0.04976523 0.603417 -0.10344593 -0.44465625 -0.64650965
-0.52736104 0.26610246 0.5613341 -0.62806004 0.082665056 0.45157784 -0.4453365 0.6256845
-0.21256217 -0.14651462 0.37524945 0.06705203 -0.1096509 0.60907036 0.37934774 0.59556055
0.09135108 -0.013661531 -0.38128278 -0.48107117 0.667313 -0.005211962 -0.6820724 -0.22625235
0.56909627 0.43992257 0.5930789 -0.32860246 -0.33674446 0.31738615 -0.25815994 -0.4248065
-0.4188352 -0.5302551 0.5926114 0.29065645 0.012145543 -0.47887328 0.5426722 -0.07304375
0.1995569 -0.49266526 0.5326906 -0.66767216 0.19065824 -0.31862703 0.3692849 -0.63729703
-0.05508257 0.6893555 0.003063968 -0.5855503 0.46902138 -0.39075184 -0.27853188 -0.412417
0.5265637 -0.42058167 0.12779427 0.20111169 -0.22081394 -0.49512324 -0.69856316 0.14585014
-0.34570247 0.17801271 0.17953618 -0.1781436 -0.36251184 0.27516013 -0.41675237 -0.5440515
0.6368835 -0.49349436 -0.622563 -0.6239973 0.5978886 0.2227019 -0.67787933 0.026288431
0.13326886 0.054954853 -0.042327046 0.04273762 0.20135881 0.47801554 0.42901284 -0.52156925
-0.34998807 0.56422895 -0.24176995 -0.19205277 0.45985043 -0.6011756 0.6830594 -0.50761086
0.33525556 -0.6797929 -0.09576559 -0.55259174 -0.51857954 0.43163282 -0.65396535 0.12543368
0.17443132 -0.1884706 0.40076882 -0.56311876 -0.7322267 0.37881285 0.12636542 -0.6067902
0.48215604 0.5760797 -0.5022088 0.6611425 0.31649363 0.50247705 -0.14225513 0.15739092
0.45323947 0.0010143651 -0.65296495 -0.28161767 0.22496302 0.7150497 0.55284727 0.4868965
0.37827057 0.5706051 -0.54635566 -0.20308268 0.57019615 0.4428529 -0.06577711 0.26187557
-0.4402064 0.1354909 -0.21631444 0.052103687 -0.2665271 -0.5151435 0.46283293 -0.3519288
0.21622813 -0.52826464 0.47568753 -0.53017884 0.36804196 0.23086366 0.0016113912 0.482465
-0.69713116 -0.6546181 -0.43442374 -0.33381662 -0.7539903 0.18916774 -0.17499663 0.2560873
-0.45442253 0.63945055 0.6052511 -0.17630464 -0.42588106 -0.71637654 0.49399912 0.66812795
0.41732466 -0.43460375 -0.24838862 0.4490017 0.81676835 0.5778669 0.22938712 0.11718422
0.27585623 0.6653558 -0.6385582 -0.06254217 -0.46518216 -0.093740344 0.025977477 -0.17260931
0.5328672 -0.7060327 0.53758866 -0.67199093 -0.68909967 0.20036396 -0.59447867 -0.58381736
-0.010959601 -0.18953535 0.25146842 -0.03037579 -0.18216535 -0.65462893 0.6195914 -0.3413908
00000000: 80f8 29bf 67bb 10bf baa2 2b3f 3c1f d8bd
00000010: 1a04 843e 355e b6be 9d7d 26bd 9101 88be
00000020: 49a2 08bd 6d1a bfbe 24a3 023e 25cc b4bd
00000030: 28a4 0a3f 10c0 263f ce65 4bbe 6c46 21be
00000040: c836 883d 9f84 fe3e f20d 483e b031 b33e
00000050: 37bd 9bbe 17e6 853e a843 4a3f 4872 97be
00000060: 4fc0 9cbc 864b 11be 7855 26bf 0d44 7e3e
00000070: ecce 21be b92a ed3d eae8 033f fb83 59be
00000080: 35d2 de3c 818d 0a3e 86ad 143f b6d9 88be
00000090: 4763 f83d fa7e 9ebe 1c1e 353f 2059 40be
000000a0: 3d2f 463e 46e1 503e 03e0 103f 2aee c6be
000000b0: 9737 ae3e 877f 0fbf f1ab b93d c7b0 86bd
000000c0: 8de2 84bd 5ee9 203f f1f6 2d3e a0d6 4b3d
000000d0: 8979 1a3f 76db d3bd fca9 e3be a881 25bf
000000e0: 2201 07bf 953e 883e 97b3 0f3f 8bc8 20bf
000000f0: 4c4c a93d 3635 e73e 2503 e4be dc2c 203f
00000100: e6a9 59be ee07 16be b220 c03e 9352 893d
00000110: a790 e0bd 09ec 1b3f de39 c23e a876 183f
00000120: 4616 bb3d 9dd4 5fbc 7f37 c3be f64e f6be
00000130: 06d5 2a3f 1bc9 aabb 4c9c 2ebf b2ae 67be
00000140: 4bb0 113f 883d e13e 05d4 173f 953e a8be
00000150: c569 acbe 7080 a23e 8a2d 84be 3d80 d9be
00000160: 9171 d6be ccbe 07bf 61b5 173f ecd0 943e
00000170: 19fe 463c e12e f5be 91ec 0a3f f697 95bd
00000180: a558 4c3e 9f3e fcbe 695e 083f 90ec 2abf
00000190: ea3b 433e 1523 a3be e912 bd3e e625 23bf
000001a0: 439e 61bd 9a79 303f dacc 483b a0e6 15bf
000001b0: 9223 f03e a010 c8be bb9b 8ebe 5228 d3be
000001c0: e1cc 063f 7b56 d7be 80dc 023e 39f0 4d3e
000001d0: 0d1d 62be cb80 fdbe 09d5 32bf bd59 153e
000001e0: eaff b0be f748 363e 55d8 373e 476b 36be
000001f0: 279b b9be cae1 8c3e 9160 d5be f646 0bbf
00000200: cc0a 233f 4bab fcbe 4a60 1fbf 49be 1fbf
00000210: 3a0f 193f f80b 643e 8089 2dbf d65a d73c
00000220: a277 083e 5718 613d 205f 2dbd a50d 2f3d
00000230: 0131 4e3e 74be f43e 92a7 db3e 9085 05bf
00000240: a331 b3be 4f71 103f 8b92 77be 7ba9 44be
00000250: 8471 eb3e a5e6 19bf fbdc 2e3f c9f2 01bf
00000260: 9ea6 ab3e e806 2ebf c020 c4bd a776 0dbf
00000270: a1c1 04bf fafe dc3e 466a 27bf b071 003e
00000280: 209e 323e 70fe 40be 9231 cd3e 8d28 10bf
00000290: 3673 3bbf c2f3 c13e f065 013e 9a56 1bbf
000002a0: 28dd f63e f679 133f c290 00bf a340 293f
000002b0: 740b a23e 56a2 003f 54ab 11be 162b 213e
000002c0: 010f e83e 72f4 843a b628 27bf 3130 90be
000002d0: b55c 663e 7f0d 373f 6687 0d3f 804a f93e
000002e0: aeac c13e 2d13 123f f7dd 0bbf e8f4 4fbe
000002f0: 60f8 113f 9ebd e23e 26b6 86bd 8e14 863e
00000300: bc62 e1be 20be 0a3e 8881 5dbe ad6a 553d
00000310: 3d76 88be 72e0 03bf 70f8 ec3e 0330 b4be
00000320: e86a 5d3e 5a3c 07bf 518d f33e cdb9 07bf
00000330: ff6f bc3e 8667 6c3e 5135 d33a a705 f73e
00000340: 3077 32bf 0d95 27bf ca6c debe 03ea aabe
00000350: 8205 41bf 30b5 413e 5132 33be e01d 833e
00000360: 12aa e8be 08b3 233f bcf1 1a3f 3489 34be
00000370: 150d dabe 7464 37bf 74ed fc3e 6f0a 2b3f
00000380: 94ab d53e 6284 debe 9659 7ebe 8de3 e53e
00000390: bb17 513f 16ef 133f 75e4 6a3e 48fe ef3d
000003a0: 073d 8d3e c254 2a3f 8d78 23bf 1c16 80bd
000003b0: 5b2c eebe f0fa bfbd b8ce d43c 7fc0 30be
000003c0: fc69 083f 8fbe 34bf 699f 093f 9907 2cbf
000003d0: d668 30bf 362c 4d3e c12f 18bf 0e75 15bf
000003e0: e68f 33bc 8e15 42be 78c0 803e a6d6 f8bc
000003f0: 8e89 3abe c395 27bf 8b9d 1e3f c6ca aebe

cells.0.x2h.bias f4 [256]
0.6701329 0.41591805 0.4062154 0.45229805 0.33328387 -0.23475268 0.4134521 0.6665846
-0.17065546 -0.43958205 0.27179182 -0.46507594 0.42019302 0.034888726 -0.056224573 -0.40650263
-0.4237283 0.6104709 0.6981886 -0.6259698 -0.35096395 -0.48964074 0.33546293 0.43303525
0.1399025 0.5471039 0.3149592 0.5403991 -0.3006225 -0.6074116 -0.7090077 0.6098393
-0.059111945 0.32027176 -0.66183263 -0.6534226 0.34296736 0.65007603 0.68181795 -0.41161117
0.30949706 -0.22177674 -0.14594111 -0.55393755 0.5028282 0.09455722 -0.034562435 -0.08554823
-0.121302605 -0.08250039 -0.54738355 0.113873206 -0.020387597 0.37118858 0.18304333 -0.47058466
-0.17629704 0.5119816 -0.15228607 -0.4661494 -0.4173521 0.15551522 -0.21230592 0.37662342
-0.106828175 -0.0014372789 -0.6042091 -0.20822346 0.43831885 -0.49735188 -0.12933037 -0.4060395
0.15251397 0.4925265 0.62712777 0.30993876 0.21729654 0.07186835 0.46392944 0.090061046
0.047561187 -0.14267112 -0.34321505 0.35605893 0.63505566 0.2979128 0.2710398 -0.67494434
-0.50602615 -0.5923118 -0.021620201 0.60494465 -0.22473972 -0.5867258 0.027483767 0.12142509
-0.44126043 0.70990884 -0.36705366 -0.103471115 -0.52552587 -0.62516624 -0.17802483 -0.17801724
0.5147775 0.46087447 -0.24108338 0.43491843 0.6422558 0.4365351 0.09760869 0.432367
0.44101918 0.19835411 0.32577804 0.5392103 -0.50919664 0.4412566 0.049669426 0.72253937
0.14261669 -0.046537098 0.2403341 -0.0629988 0.19589485 0.6771541 0.2580852 0.4473082
-0.12872122 -0.42548692 -0.59776443 0.37780488 0.13194235 -0.18469104 0.6643062 0.68201524
0.3347967 -0.30674365 0.030318208 -0.36032772 0.15707318 0.080815986 0.48085046 0.16410549
-0.10253712 -0.71061695 0.43352503 0.2984186 0.5511416 -0.30698046 -0.043882575 0.6111828
0.06830957 0.17755939 0.36167145 -0.29619053 -0.54429954 -0.17226255 -0.36366513 -0.589319
0.7062319 -0.587177 -0.5230265 -0.37600166 -0.6709767 0.64069426 0.39470688 -0.23922181
0.15852918 -0.4837507 -0.048449636 -0.63221985 0.65769845 0.7265038 -0.0053949077 0.21606982
0.12844309 -0.084407896 0.3607803 -0.041178152 -0.34693775 0.11504305 0.42654514 0.018481774
-0.0060362653 -0.5045363 -0.65309554 -0.48886937 0.6101443 0.26105773 -0.27084488 0.5675451
-0.5858304 -0.154518 -0.6900249 -0.6188375 -0.43067616 0.28330445 0.4197607 -0.5572888
0.21394378 0.36427653 -0.3627999 -0.34591696 -0.31068912 0.3926223 -0.6667514 0.5838744
-0.2883377 -0.23157005 0.52575856 -0.14827581 -0.5468138 0.12995532 -0.49844405 -0.36399177
-0.02167475 -0.63595116 0.18457164 0.46129894 0.4038906 0.62931436 -0.13546602 -0.28760168
0.34403914 0.36463 0.035854667 0.036127705 0.13235709 -0.15191415 0.56282216 0.43513882
0.16133228 -0.6268119 0.14037086 0.36978263 0.62795895 0.050291847 -0.03360422 0.25430948
-0.60914546 0.31853887 -0.574333 0.2924286 -0.2556504 0.6724668 -0.1178105 -0.15010512
-0.6120473 -0.27304405 -0.0701653 0.04957343 0.18457314 -0.40438092 0.19756113 0.36423331
00000000: d48d 2b3f 36f3 d43e 77fb cf3e 9c93 e73e
00000010: 2fa4 aa3e 0263 70be feaf d33e 4aa5 2a3f
00000020: 4ec0 2ebe e610 e1be 4c28 8b3e 6f1e eebe
00000030: 8a23 d73e 7be7 0e3d bd4b 66bd 1d21 d0be
00000040: eaf2 d8be d247 1c3f 7dbc 323f 8f3f 20bf
00000050: 8cb1 b3be 31b2 fabe ccc1 ab3e ccb6 dd3e
00000060: 9a42 0f3e 000f 0c3f 5542 a13e 9857 0a3f
00000070: 31eb 99be 547f 1bbf 8781 35bf 6e1e 1c3f
00000080: 5e1f 72bd a9fa a33e dd6d 29bf b446 27bf
00000090: 6b99 af3e 626b 263f 9f8b 2e3f b3be d2be
000000a0: 6676 9e3e 7119 63be 9671 15be dace 0dbf
000000b0: 59b9 003f 37a7 c13d 5791 0dbd e933 afbd
000000c0: 806d f8bd f7f5 a8bd 5421 0cbf 5b36 e93d
000000d0: e403 a7bc 6e0c be3e b66f 3b3e 79f0 f0be
000000e0: 3687 34be 3a11 033f e1f0 1bbe 22ab eebe
000000f0: 2daf d5be 623f 1f3e b966 59be c9d4 c03e
00000100: bbc8 dabd 1463 bcba 73ad 1abf 8838 55be
00000110: 546b e03e e8a4 febe 2e6f 04be 69e4 cfbe
00000120: 9f2c 1c3e 6f2c fc3e 728b 203f 4bb0 9e3e
00000130: fc82 5e3e b72f 933d 2988 ed3e ed71 b83d
00000140: 85cf 423d 6118 12be e2b9 afbe 5b4d b63e
00000150: 0293 223f 0788 983e bbc5 8a3e 27c9 2cbf
00000160: ee8a 01bf bfa1 17bf d91c b1bc a7dd 1a3f
00000170: 2b22 66be a933 16bf a325 e13c b8ad f83d
00000180: e3ec e1be 96bc 353f 75ee bbbe aae8 d3bd
00000190: dd88 06bf e50a 20bf 244c 36be 274a 36be
000001a0: 75c8 033f bdf7 eb3e 90de 76be a1ad de3e
000001b0: e06a 243f 8781 df3e 11e7 c73d 355f dd3e
000001c0: 44cd e13e 571d 4b3e 61cc a63e b009 0a3f
000001d0: b65a 02bf 63ec e13e 2b72 4b3d 57f8 383f
000001e0: 1c0a 123e af9d 3ebd 241a 763e 8405 81bd
000001f0: a998 483e f959 2d3f be23 843e 9505 e53e
00000200: 7fcf 03be 6cd9 d9be 1707 19bf a46f c13e
00000210: e51b 073e a61f 3dbe f90f 2a3f 8d98 2e3f
00000220: 796a ab3e 810d 9dbe e45d f83c e07c b8be
00000230: cbd7 203e da82 a53d 0832 f63e 450b 283e
00000240: fbfe d1bd feea 35bf fef6 dd3e 53ca 983e
00000250: 9e17 0d3f 8b2c 9dbe 37be 33bd 7a76 1c3f
00000260: e3e5 8b3d 21d2 353e 002d b93e 49a6 97be
00000270: 3757 0bbf 9865 30be 5132 babe 9cdd 16bf
00000280: 9dcb 343f 3b51 16bf 11e5 05bf 4a83 c0be
00000290: 21c5 2bbf 8a04 243f 0517 ca3e 90f6 74be
000002a0: 7955 223e 2cae f7be 2073 46bd 29d9 21bf
000002b0: ed5e 283f 27fc 393f c4c7 b0bb 6841 5d3e
000002c0: 9686 033e 0cde acbd 32b8 b83e 6caa 28bd
000002d0: d3a1 b1be b19b eb3d 2064 da3e 1767 973c
000002e0: ddcb c5bb 4a29 01bf 4531 27bf 164d fabe
000002f0: 6b32 1c3f 5ca9 853e 2eac 8abe a34a 113f
00000300: fbf8 15bf f739 1ebe 79a5 30bf 226c 1ebf
00000310: 9681 dcbe 480d 913e e0ea d63e 7baa 0ebf
00000320: 1414 5b3e 7482 ba3e e9c0 b9be 071c b1be
00000330: a512 9fbe ca05 c93e 38b0 2abf cb78 153f
00000340: 00a1 93be b320 6dbe 1d98 063f 9dd5 17be
00000350: fdfb 0bbf 0213 053e 0f34 ffbe 215d babe
00000360: 3f8f b1bc b2cd 22bf 5900 3d3e 602f ec3e
00000370: c0ca ce3e bf1a 213f 9bb7 0abe 8740 93be
00000380: e625 b03e c9b0 ba3e 58dc 123d a5fa 133d
00000390: 9e88 073e 628f 1bbe 1d15 103f 84ca de3e
000003a0: 4a34 253e bf76 20bf 61bd 0f3e 2654 bd3e
000003b0: ebc1 203f d3fe 4d3d 94a4 09bd da34 823e
000003c0: f5f0 1bbf 8717 a33e 7d07 13bf 34b9 953e
000003d0: 9ce4 82be c926 2c3f a246 f1bd 28b5 19be
000003e0: 22af 1cbf 6ecc 8bbe d3b2 8fbd 820d 4b3d
000003f0: be00 3d3e 040b cfbe 774d 4a3e ca7c ba3e

cells.0.h2h.weight f4 [256, 64]
-0.03990543 -0.027392788 -0.015592439 -0.085953966 0.010068447 -0.09382941 -0.046499316 -0.018527156
0.10772973 -0.019834314 -0.036893588 -0.04640513 -0.11766124 0.042545293 0.07246713 0.017392326
-0.027322548 -0.14313671 0.12752278 0.03498138 0.028423315 -2.2240201e-05 -0.07197986 -0.04048882
-0.04390393 0.046636906 -0.0044306233 -0.058032677 0.08292624 -0.060554568 0.0017281675 0.098876014
0.07689233 -0.028403953 -0.11139269 -0.10412806 -0.011571678 -0.053880885 0.11164245 0.027611608
-0.06115762 -0.13891046 -0.060993128 -0.052576363 0.08518884 0.09876091 0.11472221 -0.00518105
0.05318394 -0.10391864 -0.056528162 0.0592299 0.032588284 0.008667647 0.12152222 -0.060816146
0.13156448 -0.07788187 -0.08291473 -0.078662455 0.040642783 -0.022177653 0.06466048 0.14910035
-0.004828481 0.08010333 0.042776227 -0.019338926 -0.10760898 0.03809442 -0.12508465 0.073816404
-0.08542686 -0.004320665 -0.023701366 -0.048237335 0.113743976 -0.051938068 0.02259097 0.10088905
0.12660477 0.13001423 -0.06255936 -0.0029269678 -0.114466906 0.09720622 -0.049931362 -0.112557456
-0.025303185 -0.09821806 -0.013425723 -0.04508211 -0.07661962 -0.1042412 0.045248665 0.1088939
0.009189032 -0.06497224 0.033630706 -0.089569904 -0.10749464 0.015672646 0.034590825 0.08224951
0.044392705 0.057719804 -0.022288565 -0.0053890226 -0.054686803 -0.0016923321 -0.09446702 -0.15432239
-0.1319119 -0.16767496 0.033541754 0.0021360256 -0.0420526 0.050467584 -0.075508945 0.08184739
0.00905159 0.07299004 -0.03213871 -0.0033516122 -0.011217879 -0.0934831 0.03847546 -0.07011395
0.06263019 -0.017698009 0.046916034 -0.08681715 0.095597856 -0.010071042 0.010280002 0.12495761
0.06764628 0.0065924665 -0.016590966 -0.04053574 0.09062844 -0.019216789 -0.024803953 0.07312602
0.007444633 -0.06717298 -0.084059335 -0.026794892 0.017930023 -0.06698053 -0.113622785 0.10123011
0.052516825 0.076019794 0.10007399 0.04828331 -0.0036813752 -0.017529609 -0.025881989 -0.077974014
0.011853986 0.074301936 0.024003858 -0.06471752 0.108074985 0.13059269 0.038878392 -0.051495403
-0.13069578 -0.11403797 -0.028591448 -0.10244273 0.076719694 0.016264789 -0.01296011 0.12632088
0.025794044 -0.043981876 0.024418175 0.04496721 -0.042134427 -0.035497643 -0.0654469 -0.08639317
0.11089015 -0.09624069 -0.1182005 -0.0010690838 0.01574981 -0.014703177 0.02294928 -0.08559989
0.02705899 0.01899864 0.0464332 -0.059075974 -0.039593223 0.114290796 0.06780292 0.011550483
-0.0136617655 0.052335367 -0.07932709 0.06582045 0.15283896 -0.034670684 0.021896014 0.117817156
0.018786307 0.03761281 -0.009177485 0.017168341 -0.03514968 0.071642525 -0.04006886 0.042282302
0.0058993218 -0.059584316 -0.10712356 -0.046030678 0.050484944 0.03014746 0.034110658 -0.04978457
-0.11831304 0.043522276 -0.09129662 0.055702664 0.11091641 0.03777833 -0.11271493 0.022499664
0.057875987 -0.066617735 -0.056841522 0.03248372 0.10914561 0.013009024 -0.028175047 -0.09251771
-0.07892578 0.08645137 -0.08289431 0.003516017 0.0060247164 0.061125167 -0.12832057 -0.095066175
-0.08765216 -0.10790537 -0.043759365 0.055874042 -0.024010824 -0.08571119 0.04962741 -0.10641699
00000000: e073 23bd d766 e0bc 6e77 7fbc a208 b0bd
00000010: 21f6 243c a229 c0bd 1176 3ebd 43c6 97bc
00000020: 68a1 dc3d 927b a2bc bb1d 17bd 4e13 3ebd
00000030: 60f8 f0bd f943 2e3d a669 943d 5a7a 8e3c
00000040: 89d3 dfbc 6e92 12be 5595 023e a348 0f3d
00000050: 03d8 e83c 7890 bab7 2d6a 93bd 9bd7 25bd
00000060: 9bd4 33bd 5706 3f3d c32e 91bb acb3 6dbd
00000070: 3cd5 a93d 1108 78bd ae83 e23a 827f ca3d
00000080: ba79 9d3d 68af e8bc da21 e4bd 1841 d5bd
00000090: 2397 3dbc 34b2 5cbd cca4 e43d bd31 e23c
000000a0: 6a80 7abd 8b3e 0ebe eed3 79bd 505a 57bd
000000b0: 7d77 ae3d 2943 ca3d 7af3 ea3d ccc5 a9bb
000000c0: 67d7 593d 4cd3 d4bd 138a 67bd 0d9b 723d
000000d0: 4b7b 053d bf02 0e3c a4e0 f83d 5a1a 79bd
000000e0: d7b8 063e 8880 9fbd 33cf a9bd c819 a1bd
000000f0: 0c79 263d e9ad b5bc b76c 843d c3ad 183e
00000100: 3c38 9ebb 370d a43d 2036 2f3d ab6c 9ebc
00000110: 1962 dcbd e508 1c3d 3116 00be 0e2d 973d
00000120: 47f4 aebd 5d94 8dbb 5e29 c2bc 8394 45bd
00000130: 9af2 e83d 03bd 54bd b310 b93c eb9e ce3d
00000140: aea4 013e 7322 053e 1f1f 80bd 5fd2 3fbb
00000150: a06d eabd 0e14 c73d d484 4cbd 8684 e6bd
00000160: a048 cfbc 8d26 c9bd 90f7 5bbc 05a8 38bd
00000170: bfea 9cbd 697c d5bd aa56 393d c403 df3d
00000180: 988d 163c 2a10 85bd 5ac0 093d 6d70 b7bd
00000190: 2626 dcbd ec63 803c 1caf 0d3d 6e72 a83d
000001a0: 20d5 353d 9a6b 6c3d 8296 b6bc 6696 b0bb
000001b0: 45ff 5fbd 3ed1 ddba ed77 c1bd b006 1ebe
000001c0: ea13 07be fcb2 2bbe 1463 093d 90fc 0b3b
000001d0: 593f 2cbd 19b7 4e3d 6fa4 9abd 9b9f a73d
000001e0: 1f4d 143c cd7b 953d e1a3 03bd b9a6 5bbb
000001f0: 32cb 37bc 1174 bfbd 7298 1d3d e797 8fbd
00000200: 4244 803d 6afb 90bc 072b 403d 31cd b1bd
00000210: cfc8 c33d 0301 25bc 746d 283c c7e9 ff3d
00000220: 228a 8a3d 9e05 d83b c7e9 87bc ce08 26bd
00000230: 679b b93d 876c 9dbc a931 cbbc 18c3 953d
00000240: 1cf2 f33b fd91 89bd 4d27 acbd f680 dbbc
00000250: fce1 923c 172d 89bd 10b3 e8bd bb51 cf3d
00000260: e21b 573d 44b0 9b3d 98f3 cc3d b8c4 453d
00000270: 3a43 71bb 419a 8fbc 7706 d4bc d7b0 9fbd
00000280: 3937 423c 9d2b 983d bda3 c43c 9e8a 84bd
00000290: 6b56 dd3d 17ba 053e f33e 1f3d d8ec 52bd
000002a0: 1dd5 05be bd8c e9bd 9d38 eabc 7ecd d1bd
000002b0: 371f 9d3d bc3d 853c a456 54bc 435a 013e
000002c0: 084e d33c 5726 34bd a008 c83c 8a2f 383d
000002d0: 2695 2cbd fa65 11bd 0609 86bd e7ee b0bd
000002e0: 601a e33d d719 c5bd 1b13 f2bd 8020 8cba
000002f0: bf05 813c 98e5 70bc 2100 bc3c ff4e afbd
00000300: d1aa dd3c 09a3 9b3c bd30 3e3d a6f9 71bd
00000310: 812c 22bd 4b11 ea3d 42dc 8a3d 3d3e 3d3c
00000320: 99d5 5fbc 9c5d 563d 3e76 a2bd dfcc 863d
00000330: d181 1c3e d902 0ebd 455f b33c 1f4a f13d
00000340: bee5 993c e40f 1a3d 295d 16bc 9fa4 8c3c
00000350: 1cf9 0fbd 51b9 923d 3f1f 24bd 3530 2d3d
00000360: 194f c13b af0e 74bd 9963 dbbd aa8a 3cbd
00000370: 4dc9 4e3d cef7 f63c 9eb7 0b3d e8ea 4bbd
00000380: 1b4e f2bd 6a44 323d b9f9 babd 7a28 643d
00000390: 2528 e33d 73bd 1a3d 16d7 e6bd 3751 b83c
000003a0: 5f0f 6d3d e16e 88bd a8d2 68bd a60d 053d
000003b0: bc87 df3d cd23 553c 5bcf e6bc ed79 bdbd
000003c0: d7a3 a1bd 6a0d b13d 7ec4 a9bd fa6c 663b
000003d0: fc6a c53b 625e 7a3d 7866 03be 0eb2 c2bd
000003e0: fa82 b3bd 7efd dcbd 053d 33bd 2edc 643d
000003f0: 59b2 c4bc 5989 afbd 1c46 4b3d 27f1 d9bd

cells.0.h2h.bias f4 [256]
0.005237639 0.048923913 0.08486678 -0.07727571 -0.0036779714 0.13335884 0.10518059 0.10284799
0.10195843 0.0045886193 0.08718919 0.05415617 0.08623146 0.044163536 0.0718017 0.09053922
-0.10663236 -0.083392635 0.19764039 0.09227127 0.018063946 0.0315476 -0.0684947 -0.0014221576
-0.048185717 0.06956984 -0.13000295 -0.07640277 0.030523295 -0.09866105 0.06341908 0.10252008
0.124809906 0.027415346 0.04747531 0.13096593 -0.08282302 0.06532155 0.028097412 0.01201153
-0.019584466 0.10156033 0.14116687 0.053652585 0.010776211 -0.024555046 0.05680057 0.14187889
0.04293476 0.07093524 0.102129005 -0.057888247 0.106502935 0.17362854 -0.0016298263 -0.077375084
-0.049707975 0.0670969 -0.11412861 0.031927995 -0.015180452 0.12609935 -0.076573536 0.064192146
0.019525431 0.1278046 0.035855528 0.020017583 0.21116741 0.005318896 -0.07291072 -0.041316625
-0.079680756 0.032581862 0.077044584 -0.083582036 0.12759146 -0.060920667 -0.06863496 -0.006587991
-0.03990599 -0.07258596 -0.010946859 0.031651516 -0.06733736 -0.09957099 0.030906444 0.079108305
0.09319964 0.009493681 0.08940264 -0.048898354 0.025317062 0.09653444 -0.009209945 -0.080967106
0.116301835 0.10286643 0.04834861 -0.07039115 0.0029906596 0.06794741 0.031887922 0.079958454
0.11637344 -0.07051803 0.102619536 0.027722245 -0.0019658317 0.040831875 0.010798489 0.03511479
-0.11900536 -0.10770222 -0.04490322 0.03990401 -0.005752158 0.054765966 0.17735638 -0.078583546
-0.046460282 -0.0008995836 0.08443688 -0.013148821 -0.05295192 -0.037113283 -0.08693455 0.08801753
0.09817793 -0.09418333 0.10666781 -0.014682669 0.027861513 0.119508915 -0.08887286 0.022118995
-0.021078896 -0.004739015 0.028784096 0.10614284 0.06023775 0.062687054 -0.070674695 0.11375521
-0.001712451 0.04895402 -0.03596488 0.060796373 -0.059800833 0.04959225 -0.07019945 -0.093861155
-0.056409 0.07651409 -0.07317351 0.068820186 -0.038901906 -0.009505772 -0.089824855 -0.018015336
-0.07186047 -0.12778631 0.11642175 -0.01461877 0.012163776 -0.0023796037 -0.0025498231 0.09706558
-0.02145878 0.078785576 0.14042704 -0.035870567 0.09725481 -0.06367866 0.04644487 0.05717575
-0.12386278 0.05745356 -0.013666988 -0.03130576 -0.09085757 -0.11599315 0.08296388 0.10373601
0.0045610373 -0.025809202 0.079506814 -0.04066614 0.04245088 0.06737308 -0.045805965 0.056715816
-0.06474864 0.13483071 0.12116036 -0.062400647 0.073006205 0.10784719 0.01021088 0.06716471
-0.070807524 0.10193487 -0.012797539 0.04631816 0.0982742 0.14796981 -0.101743326 0.06735385
0.08679621 0.027730048 0.12596156 0.11077967 -0.05301707 0.03125072 0.15064795 0.101918854
-0.026628012 0.06885283 -0.034779828 -0.08399561 0.05028411 0.088840224 -0.06939003 0.053365014
0.06309031 -0.10462008 -0.04710289 -0.019132217 -0.09827419 -0.048436794 0.118892215 0.11195923
-0.05846795 0.09399487 -0.06635718 -0.010995066 0.108878024 0.08259858 0.067990705 0.007520002
0.1240456 0.035469808 -0.050246373 -0.07294016 0.03795626 0.076310635 0.094008185 -0.03165046
0.10248584 0.08434337 -0.07019326 -0.09580381 -0.09064061 -0.08222361 0.13070668 -0.12873627
00000000: 80a0 ab3b 7164 483d a2ce ad3d ba42 9ebd
00000010: 1f0a 71bb 388f 083e ec68 d73d f8a1 d23d
00000020: 95cf d03d 215c 963b 3f90 b23d dcd2 5d3d
00000030: 1f9a b03d d3e4 343d c50c 933d a06c b93d
00000040: 1162 dabd c2c9 aabd 3e62 4a3e b8f8 bc3d
00000050: d7fa 933c 0e38 013d f346 8cbd b167 baba
00000060: 635e 45bd a27a 8e3d 7e1f 05be 0e79 9cbd
00000070: fd0b fa3c ce0e cabd dde1 813d 0cf6 d13d
00000080: 569c ff3d 2696 e03c 7875 423d ef1b 063e
00000090: 1e9f a9bd 4ec7 853d 8b2c e63c 02cc 443c
000000a0: 9a6f a0bc ddfe cf3d 0c8e 103e d0c2 5b3d
000000b0: b48e 303c aa27 c9bc b7a7 683d b348 113e
000000c0: 5cdc 2f3d 7f46 913d 0329 d13d 3a1c 6dbd
000000d0: 361e da3d aecb 313e e59f d5ba d476 9ebd
000000e0: 979a 4bbd 196a 893d 43bc e9bd eec6 023d
000000f0: 6eb7 78bc 3020 013e 96d2 9cbd 2c77 833d
00000100: ccf3 9f3c 36df 023e 3fdd 123d eafb a33c
00000110: 453c 583e 224a ae3b 3752 95bd 9f3b 29bd
00000120: aa2f a3bd 8f74 053d 8dc9 9d3d 0f2d abbd
00000130: 56a7 023e f387 79bd 7c90 8cbd 13e0 d7bb
00000140: 7774 23bd f3a7 94bd 745a 33bc 05a5 013d
00000150: 2be8 89bd e0eb cbbd 832f fd3c 8903 a23d
00000160: 74df be3d 628b 1b3c bb18 b73d a449 48bd
00000170: ba65 cf3c d9b3 c53d 4fe5 16bc 15d2 a5bd
00000180: a82f ee3d a3ab d23d 3109 463d 3c29 90bd
00000190: f1fe 433b 0328 8b3d e99c 023d 42c1 a33d
000001a0: 3355 ee3d c26b 90bd 312a d23d c319 e33c
000001b0: 2fd5 00bb 533f 273d 25ec 303c 87d4 0f3d
000001c0: 15b9 f3bd fb92 dcbd 70ec 37bd 6372 233d
000001d0: 997c bcbb 4752 603d e99c 353e 69f0 a0bd
000001e0: 234d 3ebd 09d2 6bba 3eed ac3d 276e 57bc
000001f0: 1de4 58bd 1904 18bd be0a b2bd 8942 b43d
00000200: 8311 c93d 31e3 c0bd a774 da3d 948f 70bc
00000210: d43d e43c 17c1 f43d f902 b6bd e532 b53c
00000220: a6ad acbc bd49 9bbb a0cc eb3c 6b61 d93d
00000230: dcbb 763d 1262 803d e5bd 90bd 7ef8 e83d
00000240: 5274 e0ba 0384 483d e94f 13bd 9e05 793d
00000250: b8f1 74bd 3e21 4b3d bbc4 8fbd 473a c0bd
00000260: 200d 67bd 6bb3 9c3d fedb 95bd 99f1 8c3d
00000270: 9b57 1fbd 19be 1bbc 18f6 b7bd e694 93bc
00000280: 952b 93bd 6ada 02be 876e ee3d 9183 6fbc
00000290: 934a 473c 20f3 1bbb ef1a 27bb 52ca c63d
000002a0: 53ca afbc 555a a13d 1bcc 0f3e 04ed 12bd
000002b0: 882d c73d f569 82bd fa3c 3e3d 1f31 6a3d
000002c0: c5ab fdbd 6d54 6b3d 81eb 5fbc 783a 00bd
000002d0: 8913 babd d18d edbd f7e8 a93d 8c73 d43d
000002e0: c174 953b d26d d3bc 78d4 a23d 8a91 26bd
000002f0: f9e0 2d3d e6fa 893d 099f 3bbd d84e 683d
00000300: ef9a 84bd 1011 0a3e ec22 f83d d297 7fbd
00000310: 4784 953d fdde dc3d 894b 273c a78d 893d
00000320: 8903 91bd 3bc3 d03d c5ac 51bc 1cb8 3d3d
00000330: fc43 c93d 6685 173e ce5e d0bd d1f0 893d
00000340: 36c2 b13d 202a e33c 11fc 003e 74e0 e23d
00000350: 6d28 59bd c100 003d 7543 1a3e d5ba d03d
00000360: fd22 dabc b602 8d3d 4b75 0ebd e405 acbd
00000370: b6f6 4d3d ddf1 b53d 5c1c 8ebd 4695 5a3d
00000380: 7e35 813d 0d43 d6bd f6ee 40bd 2bbb 9cbc
00000390: fb43 c9bd a965 46bd c37d f33d e14a e53d
000003a0: 177c 6fbd 6280 c03d 46e6 87bd a624 34bc
000003b0: 71fb de3d 7229 a93d b63e 8b3d 596a f63b
000003c0: 9f0b fe3d ca48 113d 24cf 4dbd a761 95bd
000003d0: 0678 1b3d c048 9c3d 5d87 c03d eaa3 01bd
000003e0: 19e4 d13d 37bc ac3d 7cc1 8fbd ca34 c4bd
000003f0: c9a1 b9bd da64 a8bd f9d7 053e 71d3 03be

cells.1.x2h.weight f4 [256, 64]
0.007890461 0.071715765 -0.05974301 -0.036532354 0.06680458 0.056539048 0.10373282 0.0013209048
-0.03376483 0.05054317 0.02669307 -0.069878794 -0.05460133 0.12624186 -0.040253013 0.0666996
-0.10080968 -0.0060426597 0.08111881 -0.008922319 0.05360653 -0.007746268 0.037423633 0.095080696
0.10784029 -0.06595508 -0.08878757 -0.04361022 0.00630406 -0.114439294 0.011195261 -0.005598982
0.09551336 0.102493346 0.0383467 -0.07925573 -0.10311876 0.06712116 0.04933295 -0.16939601
-0.09780384 0.005059359 0.09719144 -0.03306104 -0.041070543 -0.08860526 -0.12059848 0.09614476
0.034303203 0.100885466 0.02707215 -0.12529284 0.16040538 0.02882805 -0.13527383 0.08462817
-0.07255792 0.09583919 -0.019795882 0.090294115 0.13766967 0.030610336 -0.095429786 0.12942395
0.07933066 -0.14700353 -0.012331351 -0.032013107 0.043930363 -0.066938855 0.0619651 -0.024970593
0.10518411 0.0047790445 0.051295426 -0.063401006 0.11744936 0.0801165 -0.12313659 -0.07869661
-0.04767661 0.045379557 0.03210408 -0.08363354 -0.0044288295 -0.051449463 0.1054941 -0.025897035
0.07673784 -0.091620155 0.09994472 -0.0145932045 0.0075003738 -0.04604604 0.061660226 -0.14070264
0.04178257 -0.08491201 0.06500434 -0.011317363 -0.09423128 0.0776866 0.14271763 -0.20129466
-0.11183663 -0.10876199 0.13776296 0.001882043 0.051382322 0.13528155 -0.069645904 0.07419863
-0.094044484 0.14098012 0.025346192 -0.027036041 0.14218438 0.06742299 -0.07122049 0.065072745
0.069561556 -0.016002288 -0.09839409 0.01809803 0.034886565 0.13734342 -0.103101954 -0.023731165
-0.037496712 -0.042979702 0.014183184 -0.018388046 -0.10774238 0.0033431733 0.08804437 0.036059596
0.0997381 -0.0024792517 -0.08308877 -0.09791815 0.09822222 -0.029451702 0.05409595 -0.040897697
-0.11688091 0.0937238 0.13267563 0.031283483 -0.058719825 -0.08736433 -0.049051803 0.01047348
-0.110146 0.034227192 0.07383062 -0.0963158 -0.042729683 0.023775658 -0.09551444 -0.09768148
-0.046152998 0.0858278 0.014973124 -0.04389301 0.03230416 -0.11043425 0.053653337 -0.07001628
-0.037935756 -0.040978074 0.09738656 0.09327376 0.054307602 0.06870541 0.05393467 -0.10605595
0.14452596 0.069765635 0.078687 -0.06955653 -0.019830853 -0.08708056 0.023179734 0.086925335
0.047521863 -0.076855026 -0.11005667 0.09047795 -0.1117817 -0.01940845 -0.06304065 -0.053432286
0.041863333 0.045998454 -0.11617534 -0.07739424 -0.07860601 -0.08915813 0.0795493 -0.007140956
0.007257645 -0.0015883413 0.025214832 0.0932677 0.06544702 -0.083656475 0.09922226 0.10742849
-0.07567749 0.044284374 0.07907231 -0.024150366 0.07634741 7.378062e-05 0.078399144 0.12509419
0.10302612 0.052497827 0.13410813 0.06670453 -0.02786071 0.09921737 -0.016024908 0.022525448
-0.09107242 0.10730131 0.06490804 0.03403716 0.07222307 -0.042047784 -0.049974192 -0.1905434
0.025200045 0.09742614 0.062206276 -0.08676772 -0.0011059736 0.07298539 -0.06464874 -0.06019398
-0.07044413 -0.0949329 0.04685468 0.112437084 0.12531987 -0.10686368 -0.12986176 -0.10130986
0.044913597 0.038234837 -0.11172444 -0.04980817 -0.0341025 -0.0897858 -0.044240177 0.06819449
00000000: fe46 013c b7df 923d 16b5 74bd f3a2 15bd
00000010: d7d0 883d 7d95 673d df71 d43d 3622 ad3a
00000020: fe4c 0abd 5b06 4f3d 6dab da3c 9d1c 8fbd
00000030: a5a5 5fbd 8c45 013e 58e0 24bd cd99 883d
00000040: 4e75 cebd 8101 c6bb 9e21 a63d eb2e 12bc
00000050: 8592 5b3d 68d4 fdbb 8649 193d abb9 c23d
00000060: 5fdb dc3d 7513 87bd 42d6 b5bd a1a0 32bd
00000070: 4a92 ce3b 265f eabd 546c 373c aa77 b7bb
00000080: 829c c33d 08e8 d13d 6e11 1d3d d450 a2bd
00000090: ee2f d3bd d276 893d 5911 4a3d 2676 2dbe
000000a0: 614d c8bd fbc8 a53b 4e0c c73d 036b 07bd
000000b0: 9639 28bd ad76 b5bd 56fc f6bd 8be7 c43d
000000c0: 8481 0c3d 0a9d ce3d 6ac6 dd3c c44c 00be
000000d0: 4f41 243e cd28 ec3c 3985 0abe 8951 ad3d
000000e0: 3f99 94bd 5647 c43d f92a a2bc 1fec b83d
000000f0: 47f9 0c3e 87c2 fa3c b170 c3bd b687 043e
00000100: 1d78 a23d 1888 16be 6f09 4abc 2d20 03bd
00000110: 53f0 333d 3d17 89bd 1ecf 7d3d 218f ccbc
00000120: c46a d73d 8899 9c3b 271b 523d 63d8 81bd
00000130: 4a89 f03d 1f14 a43d 092f fcbd b02b a1bd
00000140: 8d48 43bd eadf 393d 917f 033d 1048 abbd
00000150: b71f 91bb acbc 52bd 4a0d d83d 0526 d4bc
00000160: bb28 9d3d 59a3 bbbd d1af cc3d 5618 6fbc
00000170: b2c5 f53b c69a 3cbd 6f8f 7c3d 5a14 10be
00000180: 3324 2b3d 59e6 adbd ff20 853d 766c 39bc
00000190: 54fc c0bd 271a 9f3d 9224 123e 3020 4ebe
000001a0: 9a0a e5bd 9bbe debd bc11 0d3e e2ae f63a
000001b0: 4576 523d 3f87 0a3e 83a2 8ebd 74f5 973d
000001c0: 659a c0bd 185d 103e d1a2 cf3c b07a ddbc
000001d0: c898 113e 1115 8a3d 0cdc 91bd dc44 853d
000001e0: 4a76 8e3d 3b17 83bc d782 c9bd 5242 943c
000001f0: 37e5 0e3d c1a3 0c3e 1e27 d3bd dc67 c2bc
00000200: 2796 19bd 7c0b 30bd 9660 683c 87a2 96bc
00000210: 09a8 dcbd 2419 5b3b 9b50 b43d 3ab3 133d
00000220: 7d43 cc3d f17a 22bb 722a aabd 5089 c8bd
00000230: bb28 c93d b244 f1bc b793 5d3d 5884 27bd
00000240: 425f efbd 43f2 bf3d 1fdc 073e 1c23 003d
00000250: 3384 70bd 12ec b2bd 8bea 48bd f698 2b3c
00000260: 3a94 e1bd d031 0c3d 8234 973d 3841 c5bd
00000270: 5205 2fbd 2bc5 c23c 139d c3bd 3a0d c8bd
00000280: ed0a 3dbd 7cc6 af3d d551 753c 28c9 33bd
00000290: 5e51 043d 5a2b e2bd 9ac3 5b3d b264 8fbd
000002a0: 8662 1bbd a0d8 27bd 9b72 c73d 5006 bf3d
000002b0: a671 5e3d 6cb5 8c3d 9aea 5c3d dd33 d9bd
000002c0: 9dfe 133e 49e1 8e3d a626 a13d a773 8ebd
000002d0: 5074 a2bc 4b57 b2bd 6de3 bd3c e905 b23d
000002e0: 49a6 423d 2b66 9dbd 6465 e1bd 814c b93d
000002f0: ceed e4bd 78fe 9ebc 751b 81bd d0db 5abd
00000300: e378 2b3d e068 3c3d 56ed edbd df80 9ebd
00000310: 30fc a0bd 8a98 b6bd beea a23d aefe e9bb
00000320: 8ad1 ed3b e42f d0ba 568f ce3c 2303 bf3d
00000330: 1609 863d 1654 abbd 0a35 cb3d 7803 dc3d
00000340: cdfc 9abd 8863 353d aaf0 a13d fdd6 c5bc
00000350: 085c 9c3d abba 9a38 bb8f a03d b118 003e
00000360: 5cff d23d f607 573d a453 093e 629c 883d
00000370: 253c e4bc 7a32 cb3d ab46 83bc 4a87 b83c
00000380: 2d84 babd cac0 db3d 82ee 843d 8d6a 0b3d
00000390: b0e9 933d 4c3a 2cbd bdb1 4cbd cf1d 43be
000003a0: 5370 ce3c 5b87 c73d 02cc 7e3d 46b3 b1bd
000003b0: 51f6 90ba 5d79 953d 8f66 84bd f68d 76bd
000003c0: 0345 90bd 2e6c c2bd b1ea 3f3d 6a45 e63d
000003d0: da53 003e 58db dabd 7bfa 04be 8b7b cfbd
000003e0: 52f7 373d 229c 1c3d c8cf e4bd a703 4cbd
000003f0: 10af 0bbd 9ee1 b7bd 3035 35bd 8ea9 8b3d

cells.1.x2h.bias f4 [256]
-0.09260186 0.05014363 -0.102712445 -0.04476162 -0.10219213 0.030546112 -0.0960461 0.068235844
0.023815624 -0.07840896 -0.053117614 -0.09919815 0.020282771 -0.034262378 0.047290392 -0.065698944
-0.062480364 0.070310384 0.02397322 0.09616797 0.020373432 0.12550087 0.07148195 0.0941641
0.030062938 -0.027951347 0.11672297 -0.053938955 -0.0021854227 -0.115216844 -0.057202496 -0.011841944
-0.11942293 0.10352859 -0.003423459 -0.10496757 -0.10034232 0.055842914 0.07202954 -0.08472104
-0.10205454 0.03236921 -0.047420386 0.049832225 0.05242399 0.08397679 0.098023124 0.09745355
0.07602175 -0.041326128 -0.09947802 -0.02498847 -0.057765 -0.005816214 -0.046719637 0.053690508
-0.066730514 -0.09688085 0.072013535 0.06569443 0.10172697 0.10038193 0.035485774 0.12500526
-0.09561838 0.004315941 0.05790153 -0.09179068 -0.052577857 -0.031664204 0.040553376 -0.01592843
0.09720025 0.053532083 -0.012674199 0.042271376 0.01373778 0.037378874 -0.06484816 -0.08251954
0.041828968 0.049448818 0.037591252 -0.07555186 0.114705004 0.12882346 -0.0892819 0.07009502
-0.0052018757 0.010474196 0.051900946 0.015650118 -0.016664086 0.019239742 -0.04156976 0.12356125
-0.09262965 0.1085358 0.050906055 0.05790436 -0.077235915 0.033690516 0.11868502 -0.070075616
0.07186429 -0.014963963 -0.074387506 -0.11552859 0.08466931 0.09833567 -0.07930907 0.10830407
-0.09799874 -0.06323285 0.06670422 -0.076507576 0.041912556 0.048446495 0.13073999 -0.011453937
-0.036983907 -0.020579336 -0.06617268 -0.0361576 -0.095068276 0.032608025 -0.031034326 0.04742742
-0.08671922 -0.019474175 0.024941942 -0.019627016 -0.026157744 -0.030222584 -0.0990798 0.09263297
0.016725445 0.07039346 0.11771553 0.05496136 -0.071429215 0.13563627 0.086205944 -0.06458982
0.008407931 0.034624502 0.05101496 -0.054564733 0.101930745 -0.12036347 0.07143988 -0.068547994
-0.048624545 0.012166081 0.03384259 0.07057478 -0.03213013 0.0868126 0.020571118 0.103998385
0.053074967 0.11529369 0.08865875 0.096308365 -0.029048773 0.06816886 -0.034952153 0.03872045
-0.0020029729 0.06872273 0.051110663 0.08479936 -0.099754825 -0.035672333 -0.05675884 0.025175909
0.035283707 0.024078535 0.115799725 0.112407744 0.008775109 0.055918396 -0.023486769 -0.03455756
-0.084582895 -0.083726585 -0.062286004 -0.009482611 0.047549248 -0.027339764 0.06645561 -0.07046621
0.062154844 0.10800443 0.11998986 0.01730272 -0.027969368 0.080152646 0.07594401 0.06230293
-0.02949992 0.05996185 -0.09962731 -0.07177325 -0.081243746 -0.063388154 0.07448656 -0.023570295
-0.057856023 -0.07188723 -0.012997231 0.013999031 -0.10701842 0.04740302 -0.011593647 -0.08938843
-0.11404956 -0.11058099 0.04325887 0.10711864 0.049471606 -0.07825554 -0.12634908 0.10099826
0.04526656 0.13311656 -0.034513347 -0.05383174 -0.1099128 -0.05064069 0.08263677 -0.0267306
-0.058029346 0.11181413 -0.0068470202 -0.10973618 -0.019115644 -0.030118167 -0.037025593 0.062237103
0.035592895 -0.0912259 0.13433588 0.08624326 0.090738125 -0.034685306 -0.06266408 -0.08783677
-0.094921105 0.056997374 0.0355474 -0.12170064 0.06012112 0.073119484 -0.0797479 0.039131638
00000000: 0ba6 bdbd 6863 4d3d e75a d2bd f657 37bd
00000010: 1c4a d1bd d73b fa3c d1b3 c4bd 3cbf 8b3d
00000020: fc18 c33c e094 a0bd db91 59bd 6628 cbbd
00000030: 0e28 a63c b556 0cbd 92b3 413d 2b8d 86bd
00000040: 69eb 7fbd e4fe 8f3d 7c63 c43c b6f3 c43d
00000050: 2fe6 a63c 4d83 003e 2165 923d 1cd9 c03d
00000060: 8d46 f63c 39fa e4bc 740c ef3d 18ef 5cbd
00000070: 4f39 0fbb cff6 ebbd 2a4d 6abd b704 42bc
00000080: 0294 f4bd cc06 d43d 1c5c 60bb 3df9 d6bd
00000090: 4680 cdbd 8abb 643d 3984 933d 3a82 adbd
000000a0: f801 d1bd 9495 043d e13b 42bd e01c 4c3d
000000b0: 8aba 563d 06fc ab3d 59c0 c83d ba95 c73d
000000c0: 4bb1 9b3d 9645 29bd 22bb cbbd 9fb4 ccbc
000000d0: fe9a 6cbd f095 bebb 175d 3fbd 94ea 5b3d
000000e0: 02aa 88bd 7869 c6bd d57b 933d cd8a 863d
000000f0: 3b56 d03d 0b95 cd3d 8859 113d 6101 003e
00000100: 92d3 c3bd bd6c 8d3b 282a 6d3d c1fc bbbd
00000110: e15b 57bd 53b2 01bd 4c1b 263d 577c 82bc
00000120: ed10 c73d 7544 5b3d 72a7 4fbc c024 2d3d
00000130: 6d14 613c 971a 193d 1dcf 84bd 0100 a9bd
00000140: da54 2b3d d88a 4a3d 49f9 193d efba 9abd
00000150: 75ea ea3d 4cea 033e 6ed9 b6bd fa8d 8f3d
00000160: 7f74 aabb f69b 2b3c 1696 543d ad34 803c
00000170: 1f83 88bc aa9c 9d3c 0d45 2abd ae0d fd3d
00000180: 9db4 bdbd 0448 de3d de82 503d 1f2d 6d3d
00000190: dd2d 9ebd 11ff 093d 2211 f33d ce83 8fbd
000001a0: 962d 933d 692b 75bc 7a58 98bd 419a ecbd
000001b0: 1a67 ad3d 3664 c93d cb6c a2bd 86ce dd3d
000001c0: 90b3 c8bd 3980 81bd 399c 883d 01b0 9cbd
000001d0: 80ac 2b3d d56f 463d b4e0 053e 4ba9 3bbc
000001e0: 707c 17bd ff95 a8bc 8b85 87bd fe19 14bd
000001f0: 28b3 c2bd fe8f 053d b33b febc 4143 423d
00000200: d999 b1bd 4e88 9fbc 0b53 cc3c d6c8 a0bc
00000210: c448 d6bc 5a95 f7bc 5aea cabd 5bb6 bd3d
00000220: cd03 893c 722a 903d d714 f13d 2a1f 613d
00000230: 7b49 92bd 3ce4 0a3e be8c b03d ab47 84bd
00000240: 6bc1 093c 6cd2 0d3d 10f5 503d 457f 5fbd
00000250: 11c1 d03d 1f81 f6bd 124f 923d e462 8cbd
00000260: 882a 47bd 3e54 473c 879e 0a3d 8389 903d
00000270: e29a 03bd ceca b13d c384 a83c 1bfd d43d
00000280: 2365 593d 191f ec3d b892 b53d 523d c53d
00000290: b1f7 edbc 1e9c 8b3d fd29 0fbd 5699 1e3d
000002a0: 4f44 03bb 81be 8c3d 6a59 513d 49ab ad3d
000002b0: 424c ccbd 271d 12bd f57b 68bd b53d ce3c
000002c0: a685 103d 5940 c53c 6828 ed3d 0836 e63d
000002d0: 7ac5 0f3c b00a 653d 5367 c0bc 3a8c 0dbd
000002e0: cc39 adbd d878 abbd 9c1f 7fbd f45c 1bbc
000002f0: 00c3 423d a4f7 dfbc e119 883d 9750 90bd
00000300: 1496 7e3d 6d31 dd3d 3ebd f53d 6fbe 8d3c
00000310: 0420 e5bc 1227 a43d 8888 9b3d 5b31 7f3d
00000320: d1a9 f1bc 8f9a 753d 6709 ccbd dbfd 92bd
00000330: 1f63 a6bd a6d1 81bd 698c 983d 7e16 c1bc
00000340: 70fa 6cbd 9d39 93bd 57f2 54bc 315c 653c
00000350: 792c dbbd ab29 423d 48f3 3dbc 4811 b7bd
00000360: d192 e9bd 4978 e2bd 3630 313d 0461 db3d
00000370: bda2 4a3d 7144 a0bd a761 01be 2dd8 ce3d
00000380: 6e69 393d b54f 083e de5d 0dbd ac7e 5cbd
00000390: f619 e1bd 9d6c 4fbd 783d a93d 22fa dabc
000003a0: 2eb0 6dbd cefe e43d f85c e0bb 5dbd e0bd
000003b0: 6998 9cbc 60ba f6bc 26a8 17bd 55ec 7e3d
000003c0: dbc9 113d a5d4 babd 588f 093e 4ea0 b03d
000003d0: e9d4 b93d 2e12 0ebd 0656 80bd c4e3 b3bd
000003e0: ff65 c2bd 1476 693d 279a 113d 2f3e f9bd
000003f0: 9041 763d abbf 953d de52 a3bd 7f48 203d

cells.1.h2h.weight f4 [256, 64]
0.099128336 -0.106377676 -0.09814317 -0.11062533 -0.037050918 0.008595345 -0.062601395 0.026223395
-0.07159368 0.026248751 -0.09790741 -0.050271403 -0.1305595 -0.09813134 0.055530455 -0.03790251
-0.07121603 -0.041646976 -0.077765115 -0.109890826 -0.1166054 -0.016889974 0.07965855 0.04671698
-0.13132931 -0.13837026 -0.038786676 -0.058993354 0.043848585 0.061545484 -0.028814796 0.13282578
-0.027856342 0.07646404 -0.124264315 -0.058864392 0.06573133 0.05397477 0.02532387 0.11589949
0.004927871 0.050975185 -0.070350304 0.10623844 -0.067104116 -0.0508626 -0.038311787 -0.024766691
-0.075070135 0.055995185 -0.039521046 0.10870229 -0.12525275 -0.007878019 0.005116586 0.058195777
0.05610304 0.08387834 0.013780825 0.01996981 0.09719473 0.045903586 -0.09958957 0.003652812
-0.1269626 0.05167635 -0.042755984 -0.09856332 0.026571224 0.02913827 0.09592761 0.0051714997
-0.045535486 -0.054980893 0.14185748 0.08495219 -0.026332606 0.0644958 0.01478805 -0.004185457
0.05183527 0.036303107 0.0047591166 -0.03661668 0.018197427 -0.10983329 -0.02247124 -0.094502635
-0.1364844 0.0017958017 0.09987519 -0.03297373 -0.070858635 0.06650707 -0.12941943 0.07543744
0.021869633 -0.035899345 0.08433498 0.07379862 0.07198458 -0.006295041 -0.10411016 -0.03905929
0.07671548 0.07991217 -0.061128274 0.11383425 -0.14611444 -0.103480704 -0.057996795 -0.13812554
-0.14107248 -0.13148856 0.05730696 -0.04390212 -0.090969026 0.08764331 -0.021704718 0.08932436
-0.055549826 0.12158663 0.09697663 0.10638646 -0.015855106 -0.15146442 -0.10046486 0.034765743
-0.07609536 -0.0742272 -0.06420537 0.08788632 -0.099964514 -0.12538971 -0.06484601 0.054606657
0.038212594 0.08235739 -0.07252402 0.039889917 -0.11151535 -0.1191354 0.07180203 -0.029972171
-0.030798757 0.08826955 -0.0012606895 -0.08906741 0.108552836 -0.011422732 0.06480211 -0.07115989
0.06518333 0.05902655 -0.027982999 0.064048946 -0.0027419515 0.025299195 0.028093021 0.0869576
-0.113929324 0.023106338 0.040183194 -0.073352 -0.06407713 -0.022536924 -0.015701128 -0.111711815
-0.07279566 0.05249619 -0.059105657 -0.12895648 -0.061807133 0.018612862 0.025057921 -0.032183796
0.03869467 0.11428394 0.016921323 -0.080671124 -0.100439616 -0.11719737 -0.10180661 -0.06661338
0.048648696 -0.029075967 0.025920775 -0.064235814 0.05052414 0.040709164 0.10839735 0.03291875
0.09962737 0.12337782 0.0950009 0.08588518 -0.086212024 0.09514943 0.028003864 0.028410528
-0.0019006104 -0.09239711 0.11186903 0.116107166 -0.09088646 -0.07813268 0.10521675 0.123288564
-0.10154875 0.104841284 0.046226647 -0.03290483 0.021900969 -0.028020926 -0.046222113 0.009396624
-0.01596148 0.09287543 0.03223972 -0.0110483635 0.09635689 -0.074259624 0.09238611 0.022886125
0.045207705 0.06792149 0.025787584 -0.053577464 -0.09856287 0.06959872 -0.076732256 -0.021239089
-0.13527589 0.02614463 0.044119045 0.000606925 0.048498075 -0.053331885 -0.07574844 0.0319593
-0.026431024 -0.13211101 -0.09577527 0.012674524 0.11312692 0.10024144 0.09259265 -0.053298894
0.113679685 -0.09590232 0.0037435594 -0.08503444 -0.05205783 -0.08010221 0.0066542295 0.023322817
00000000: cc03 cb3d 8adc d9bd 49ff c8bd 888f e2bd
00000010: b4c2 17bd 7dd3 0c3c 2935 80bd 72d2 d63c
00000020: b59f 92bd 9f07 d73c ae83 c8bd 63e9 4dbd
00000030: 64b1 05be 16f9 c8bd e773 633d aa3f 1bbd
00000040: b6d9 91bd 0596 2abd 5143 9fbd 710e e1bd
00000050: d0ce eebd d85c 8abc 0624 a33d 4e5a 3f3d
00000060: 317b 06be efb0 0dbe c7de 1ebd 04a3 71bd
00000070: 939a 333d 1e17 7c3d 020d ecbc 7b03 083e
00000080: fc32 e4bc 2e99 9c3d 4a7e febd ca1b 71bd
00000090: 269e 863d a614 5d3d 0174 cf3c b65c ed3d
000000a0: fa79 a13b 5bcb 503d d213 90bd 8a93 d93d
000000b0: e26d 89bd 4d55 50bd d2ec 1cbd 84e3 cabc
000000c0: 5fbe 99bd 355b 653d d2e0 21bd 4e9f de3d
000000d0: 4242 00be ce12 01bc 09a9 a73b b25e 6e3d
000000e0: 4dcc 653d 68c8 ab3d f8c8 613c ba97 a33c
000000f0: 080e c73d 6605 3c3d 9ef5 cbbd 0464 6f3b
00000100: 7c02 02be 95aa 533d e620 2fbd 91db c9bd
00000110: e5ab d93c 62b3 ee3c b275 c43d af75 a93b
00000120: 6b83 3abd a533 61bd 1643 113e 6afb ad3d
00000130: 7ab7 d7bc 6016 843d 9449 723c 2826 89bb
00000140: 3851 543d 91b2 143d 5df2 9b3b 5ffb 15bd
00000150: c512 953c 47f0 e0bd 9b15 b8bc 998a c1bd
00000160: 91c2 0bbe 1b61 eb3a 5d8b cc3d 760f 07bd
00000170: 551e 91bd dc34 883d 8786 04be f27e 9a3d
00000180: f227 b33c 310b 13bd d1b7 ac3d bb23 973d
00000190: a76c 933d a246 cebb b537 d5bd a2fc 1fbd
000001a0: 011d 9d3d fea8 a33d a461 7abd ee21 e93d
000001b0: 069f 15be b1ed d3bd 0c8e 6dbd c870 0dbe
000001c0: 4e75 10be f0a4 06be b4ba 6a3d b6d2 33bd
000001d0: f84d babd 567e b33d 18ce b1bc b1ef b63d
000001e0: 3788 63bd 6902 f93d af9b c63d 25e1 d93d
000001f0: 91e2 81bc 7d19 1bbe 85c0 cdbd 8666 0e3d
00000200: e2d7 9bbd 6e04 98bd 1b7e 83bd befd b33d
00000210: 32ba ccbd 2966 00be fccd 84bd 3bab 5f3d
00000220: cf84 1c3d feaa a83d 7987 94bd 9c63 233d
00000230: 2962 e4bd 43fd f3bd f10c 933d 3388 f5bc
00000240: ad4d fcbc aac6 b43d b83d a5ba f968 b6bd
00000250: f350 de3d 6926 3bbc f8b6 843d 47bc 91bd
00000260: d67e 853d d3c5 713d 9a3c e5bc 182c 833d
00000270: 50b2 33bb 4240 cf3c 5623 e63c d416 b23d
00000280: c753 e9bd 8149 bd3c 2297 243d 9339 96bd
00000290: df3a 83bd 5b9f b8bc a79f 80bc 2ac9 e4bd
000002a0: e415 95bd 3f06 573d c618 72bd 2b0d 04be
000002b0: 7a29 7dbd 007a 983c 4546 cd3c 28d3 03bd
000002c0: 4d7e 1e3d b30d ea3d 969e 8a3c e736 a5bd
000002d0: 49b3 cdbd 2d05 f0bd fc7f d0bd 996c 88bd
000002e0: db43 473d b930 eebc ce57 d43c 118e 83bd
000002f0: 67f2 4e3d a7be 263d 6eff dd3d d0d5 063d
00000300: 6f09 cc3d 83ad fc3d d58f c23d 92e4 af3d
00000310: ee8f b0bd b4dd c23d 5c68 e53c 32bd e83c
00000320: e71d f9ba b23a bdbd 971b e53d 98c9 ed3d
00000330: ae22 babd 0704 a0bd e17b d73d b77e fc3d
00000340: cbf8 cfbd 07b7 d63d 2758 3d3d 37c7 06bd
00000350: a969 b33c 248c e5bc 6653 3dbd 4cf4 193c
00000360: a6c1 82bc 7935 be3d cc0d 043d 3204 35bc
00000370: c356 c53d 6e15 98bd ee34 bd3d af7b bb3c
00000380: b72b 393d 6c1a 8b3d 7c40 d33c 0b74 5bbd
00000390: 54db c9bd c689 8e3d cd25 9dbd 99fd adbc
000003a0: c385 0abe 432d d63c 2cb6 343d 0c1a 1f3a
000003b0: eba5 463d 8972 5abd 0022 9bbd c1e7 023d
000003c0: e085 d8bc 1c48 07be d325 c4bd cfa8 4f3c
000003d0: 16af e73d 624b cd3d 37a1 bd3d f14f 5abd
000003e0: e5d0 e83d 7068 c4bd 8156 753b 8926 aebd
000003f0: 973a 55bd a10c a4bd b90b da3b 7e0f bf3c

cells.1.h2h.bias f4 [256]
-0.034765124 -0.10486566 -0.09568677 -0.029364118 0.13474542 -0.046043716 -0.10890957 0.0017339791
-0.05974187 -0.07954574 -0.028062228 0.012611046 -0.101955324 -0.10391866 -0.0045794244 0.116986774
-0.0025118354 -0.091938704 0.043089982 0.12674572 -0.03962662 -0.09882535 -0.0499914 -0.0871021
0.018727256 0.058689803 -0.04415822 0.061144385 0.061894745 0.052060243 0.09905595 0.038468078
-0.059200436 -0.068861336 -0.023178335 -0.049723454 0.029940266 0.124105364 -0.053518005 0.08770746
0.11400209 0.023166982 -0.0028098181 0.012061935 0.10461112 -0.124961026 -0.0326108 0.09134002
-0.0066209612 -0.10378151 0.06376491 0.088284925 -0.045409203 0.06913676 -0.11002995 0.044613823
0.07495807 -0.122581825 -0.061568595 -0.05215291 -0.06669336 -0.015787777 0.10589553 -0.015315817
0.03328118 -0.070733786 -0.054846168 0.0040581934 0.02655836 0.018623834 -0.03914751 0.021808332
0.024622012 0.032188784 0.026101705 -0.120121814 -0.10578348 -0.0262833 0.034409847 0.025568938
-0.06768747 -0.05111468 0.08465546 0.12249539 0.12420562 0.047668513 -0.02400183 -0.025300482
-0.04087401 -0.028657297 -0.06209781 0.007814406 0.124369346 -0.04562454 0.044158727 -0.023612296
-0.06940865 0.10158001 -0.0009855968 -0.019144716 0.062029723 0.025025599 0.13647784 0.13371538
-0.09278323 0.006512186 -0.090049185 -0.11444048 -0.0016338887 -0.105749056 -0.051653996 -0.029609904
-0.06529697 -0.010565612 -0.1066896 -0.07334212 -0.060343448 -0.06953667 0.07775418 -0.123667486
0.020037705 -0.10226416 -0.0072137774 0.06767988 -0.025351794 -0.09994086 -0.09050033 0.11335129
-0.10021301 0.028505493 -0.0038801413 -0.12940712 -0.10310493 0.08365097 -0.06206568 -0.10660548
0.07835068 0.07287021 0.12402264 0.036255937 0.091103725 -0.058154076 -0.13075878 0.13996248
0.11423888 -0.013827862 0.06394925 -0.09687364 0.035885636 -0.07438387 -0.09619145 -0.108352214
-0.040289596 -0.04826121 -0.034007084 -0.1085095 -0.13719629 -0.0022279734 0.046788074 0.11433869
0.09843288 0.03631928 -0.038459025 0.10555616 0.009945584 0.05828467 -0.13429452 -0.0005263927
-0.105091654 0.002330186 0.06022782 0.019261666 -0.08334176 0.09901313 -0.025773628 -0.041863207
0.06557819 0.025539802 0.07046789 -0.005479507 -0.13254182 -0.09833617 -0.07153652 -0.07902647
-0.07960199 -0.015776101 -0.019020807 0.054584056 0.0068194917 -0.029716041 0.012634972 -0.09736452
0.01692624 -0.05475111 0.05284148 -0.08488426 0.062269483 0.033513594 -0.107425004 0.08963918
0.014106379 -0.07827798 0.085692294 0.07875415 -0.07602096 -0.023429085 -0.035750527 -0.108841024
0.066401765 -0.07811231 0.029927513 -0.021607734 0.049433485 -0.023412958 0.018168218 -0.013194006
-0.0796408 0.1270281 0.013273318 -0.07912378 0.02274913 0.07256176 0.010082541 -0.045628253
-0.08305781 0.11781475 0.09372424 -0.07854332 -0.010799545 0.017012797 -0.07097247 -0.046103574
-0.09959229 0.03788294 -0.11588238 -0.006546451 0.04873745 0.06617417 0.0907561 -0.0025221445
0.06806147 -0.06327126 0.038666908 0.07013929 0.08916754 0.12019687 -0.08388779 0.057868395
-0.021636922 -0.10965273 0.023914576 0.0829352 -0.010600078 0.0026316578 0.09810087 -0.09691296
00000000: e065 0ebd cfc3 d6bd 6df7 c3bd 058d f0bc
00000010: b4fa 093e 5698 3cbd fb0b dfbd af46 e33a
00000020: e4b3 74bd e0e8 a2bd c2e2 e5bc 909e 4e3c
00000030: f4cd d0bd 4ed3 d4bd ff0e 96bb c396 ef3d
00000040: 9b9d 24bb 5c4a bcbd 1f7f 303d a1c9 013e
00000050: 864f 22bd f264 cabd c8c3 4cbd 9662 b2bd
00000060: e769 993c b864 703d 40df 34bd 8972 7a3d
00000070: 5885 7d3d 1f3d 553d d9dd ca3d b490 1d3d
00000080: 287c 72bd 2c07 8dbd 7ee0 bdbc d2aa 4bbd
00000090: 4a45 f53c f42a fe3d b235 5bbd f89f b33d
000000a0: ee79 e93d afc8 bd3c ed24 38bb 6c9f 453c
000000b0: 5b3e d63d 91eb ffbd e792 05bd 7a10 bb3d
000000c0: a6f4 d8bb 668b d4bd 2d97 823d bace b43d
000000d0: 00ff 39bd 9397 8d3d 6257 e1bd fcbc 363d
000000e0: 9e83 993d 2e0c fbbd 5a2f 7cbd 4a9e 55bd
000000f0: 8796 88bd 5e55 81bc c1df d83d 31ef 7abc
00000100: d951 083d e0dc 90bd 60a6 60bd 98fa 843b
00000110: eb90 d93c 0391 983c 2459 20bd 63a7 b23c
00000120: 1ab4 c93c 63d8 033d 3ed3 d53c 6d02 f6bd
00000130: 02a5 d8bd 1350 d7bc 57f1 0c3d f375 d13c
00000140: ba9f 8abd a05d 51bd d85f ad3d ddde fa3d
00000150: 845f fe3d 0f40 433d 7c9f c4bc f542 cfbc
00000160: 826b 27bd b5c2 eabc 465a 7ebd ff07 003c
00000170: 5bb5 fe3d cce0 3abd c8df 343d 936e c1bc
00000180: 1f26 8ebd 2e09 d03d 242f 81ba 61d5 9cbc
00000190: e112 7e3d 7c02 cd3c d9c0 0b3e afec 083e
000001a0: 2205 bebd 2d64 d53b b56b b8bd c55f eabd
000001b0: 3528 d6ba f692 d8bd 2493 53bd 7890 f2bc
000001c0: 6bba 85bd 641b 2dbc 1480 dabd 6534 96bd
000001d0: b12a 77bd 3e69 8ebd 953d 9f3d 6145 fdbd
000001e0: 1d26 a43c df6f d1bd 8d61 ecbb c09b 8a3d
000001f0: 91ae cfbc cbad ccbd 3d58 b9bd b924 e83d
00000200: 7b3c cdbd 5a84 e93c f849 7ebb 4d83 04be
00000210: ad28 d3bd 3351 ab3d 9538 7ebd f953 dabd
00000220: 5276 a03d fa3c 953d 95ff fd3d 1b81 143d
00000230: 9794 ba3d f832 6ebd a1e5 05be 5352 0f3e
00000240: 13f6 e93d 428e 62bc d3f7 823d b065 c6bd
00000250: d1fc 123d 9256 98bd 0600 c5bd c4e7 ddbd
00000260: b406 25bd 8cad 45bd 034b 0bbd 3b3a debd
00000270: 2f7d 0cbe 3103 12bb daa4 3f3d 672a ea3d
00000280: 2e97 c93d 86c3 143d 3687 1dbd d42d d83d
00000290: cef2 223c e8bb 6e3d 8184 09be 9efd 09ba
000002a0: 4b3a d7bd 09b6 183b 72b1 763d a4ca 9d3c
000002b0: 16af aabd 65c7 ca3d 3723 d3bc c178 2bbd
000002c0: dc4d 863d d938 d13c 7851 903d 708d b3bb
000002d0: 0bb9 07be 7964 c9bd bd81 92bd a1d8 a1bd
000002e0: 5e06 a3bd e23c 81bc 86d1 9bbc 8893 5f3d
000002f0: 0b76 df3b 0e6f f3bc ea02 4f3c 0d67 c7bd
00000300: e6a8 8a3c b342 60bd 4f70 583d cdd7 adbd
00000310: 490e 7f3d 8d45 093d a401 dcbd bf94 b73d
00000320: 711e 673c 3550 a0bd 717f af3d db49 a13d
00000330: e1b0 9bbd 5aee bfbc 256f 12bd 0be8 debd
00000340: a6fd 873d 59f9 9fbd 8b2a f53c b402 b1bc
00000350: c47a 4a3d 88cc bfbc 84d5 943c ac2b 58bc
00000360: b71a a3bd a713 023e 5578 593c a60b a2bd
00000370: 625c ba3c 439b 943d 3e31 253c b1e4 3abd
00000380: 371a aabd dc48 f13d 7ff2 bf3d 52db a0bd
00000390: 93f0 30bc 6c5e 8b3c 045a 91bd 1ad7 3cbd
000003a0: 0bf7 cbbd 242b 1b3d be53 edbd 9c83 d6bb
000003b0: eca0 473d 5386 873d 56de b93d 904a 25bb
000003c0: d063 8b3d 5d94 81bd 3161 1e3d 30a5 8f3d
000003d0: 799d b63d c729 f63d 5dcd abbd 6907 6d3d
000003e0: ea3f b1bc 9c91 e0bd 80e8 c33c eed9 a93d
000003f0: f3ab 2dbc e477 2c3b 1ce9 c83d 4d7a c6bd
