model_group/models_group_demand/LSTM_model_BROOKLYN_9 AVENUE.pth (torch, 351022 bytes, 17 tensors)

input_projection.weight f4 [2, 2]
000000 65 09 c1 be df 60 83 3d 2f c8 fe be 4e 99 03 3e
       -0.3770248 0.06414961 -0.49762103 0.1285145

input_projection.bias f4 [2]
000000 80 19 13 be 29 e8 b6 be
       -0.14365196 -0.35724

cells.0.x2h.weight f4 [256, 2]
000000 8f e6 e8 be 43 2d 10 bf a5 4f 4d be 5a d0 00 bf
       -0.45488402 -0.56319064 -0.20049913 -0.5031792
000010 e2 d0 00 bf 5c 68 6f 3e 7d f5 1a 3e f1 57 f4 be
       -0.5031873 0.23379654 0.15132709 -0.47723344
000020 97 f0 43 3d cc ab 3c bf 7f 5e 38 3d 41 88 21 3f
       0.047836866 -0.7369964 0.045011993 0.6309853
000030 24 3f 24 3e 85 ed 2c bf e1 4b 4b be 56 96 aa 3e
       0.16039711 -0.67549926 -0.19853164 0.33317822
000040 59 1b 2c be ce 96 32 3f 44 ae 09 bf dd a6 da be
       -0.16807307 0.6976136 -0.53781533 -0.42705432
000050 1c e0 a3 3d dd c7 6a be 17 b7 25 bf dc 9f 3b 3d
       0.0800173 -0.22927804 -0.647325 0.04580675
000060 ba 59 58 3e da 95 a0 3e 99 b8 23 be e0 96 fc be
       0.21127978 0.31364328 -0.15988387 -0.49333858
000070 db 2b b9 3e 80 fc 48 3d fd 6f ac 3e bf 79 2f 3f
       0.36166272 0.049068928 0.3367919 0.68545145
000080 5f 6c ad 3c fb 6e 34 be 46 e6 79 3b 2f 00 bc be
       0.02116984 -0.1762046 0.0038131638 -0.3671889
000090 ef af 9a be 98 4b d4 be 42 09 ef 3e 49 07 a3 be
       -0.30212352 -0.41463923 0.4668675 -0.31841496
0000a0 43 ac eb 3e 57 43 90 3d eb c3 9d be 3b 4b a0 be
       0.46029863 0.07044094 -0.30813536 -0.31307396
0000b0 b1 99 1c bf 58 66 c7 3e 8c bc 28 3f 5a 60 fb be
       -0.61172014 0.3894527 0.659127 -0.49096948
0000c0 50 2b 69 3e 16 fa 8d be 51 fd 07 bf fb d2 06 bf
       0.22770429 -0.27729863 -0.53120905 -0.5266568
0000d0 2d 89 92 3e 74 5d 55 3e c6 e5 fa 3e 5c 7a 10 3f
       0.28620282 0.20836431 0.49003428 0.56436706
0000e0 de b4 0f bf 64 6c 68 be 0e 4b 94 be fe 76 28 be
       -0.56135356 -0.22697598 -0.28963512 -0.16451642
0000f0 dd 8c 93 bd e7 0b 12 3f 57 0a 01 3f 81 85 05 3d
       -0.07204602 0.5704941 0.504064 0.032598022
000100 e9 4e 83 be a2 47 30 3f b2 d4 22 3e 7a 8c 24 3d
       -0.2564614 0.68859303 0.1590145 0.04017303
000110 96 0c 03 be 47 a4 0c 3f d2 8e 0f 3f cf 6a 4d be
       -0.1279777 0.5493817 0.560773 -0.20060275
000120 72 81 fb bd 10 a2 6a be 21 38 6e 3e 92 04 8a bd
       -0.12280549 -0.22913384 0.23263599 -0.06739153
000130 08 46 2a 3f 2f e2 e4 3c 42 a8 96 bc 70 78 8a 3b
       0.6651311 0.027939884 -0.018390778 0.004225783
000140 31 64 2b 3f 2a 41 9a 3e 2c 0e 8c 3e f4 44 a0 3e
       0.66949755 0.3012784 0.27354562 0.31302607
000150 0c 33 38 3f 8a f7 28 3f 15 29 ca 3d 76 aa 23 3f
       0.7195289 0.66002715 0.09871117 0.6393198
000160 02 c7 1e bd ee 35 ce 3e 0d f4 cd 3e 0a 3b 23 bf
       -0.038764007 0.4027552 0.40225258 -0.6376196
000170 71 30 e6 3c d1 ee 02 be 63 b9 66 be 66 f3 09 bd
       0.02809927 -0.12786414 -0.22531657 -0.03367939
000180 ce ec 1c 3e 91 b4 40 3e 6f e8 e9 3e 95 1c b4 3e
       0.15324709 0.1881888 0.45685145 0.35178056
000190 c1 84 ad 3e 54 c6 e3 3d 2d aa 2d bf 2b b7 9c be
       0.33890346 0.111218125 -0.6783779 -0.30608496
0001a0 62 82 22 bd 73 b9 1e bf 90 74 6b be e0 1b 1d 3f
       -0.039675124 -0.62001723 -0.22993684 0.6137066
0001b0 33 e0 28 bf 14 35 6c be ae 00 0d 3f fe 25 a0 bb
       -0.659671 -0.23067123 0.5507916 -0.0048873415
0001c0 ab a3 c4 3d 51 ad 11 3f be bd 27 3f 3b 4e 00 3f
       0.0960153 0.56905085 0.655239 0.5011937
0001d0 a9 ab 18 3f 05 60 c0 3e 7b bd 17 bf d8 34 f2 3e
       0.5963693 0.37573257 -0.592735 0.47305942
0001e0 3d d8 fd 3e 73 b5 45 3e d5 d5 a3 3e f2 95 e3 be
       0.4957904 0.19307499 0.31999078 -0.44450337
0001f0 f7 ac 0d 3f 37 10 e7 be f3 40 de be 19 f6 58 3e
       0.5534205 -0.45129558 -0.43408927 0.21187629
000200 9c 94 fb 3d ff b1 a0 3e 18 d0 2e 3f 64 60 d1 3e
       0.12284204 0.313858 0.68286276 0.40893853
000210 55 31 44 bf 89 59 06 bf 08 0a 1e bf b9 bb 23 3f
       -0.76637775 -0.5248037 -0.61734056 0.6395832
000220 b8 f0 59 be 1a 49 59 be 76 fc 6b 3e 06 61 16 3f
       -0.21283233 -0.21219292 0.23045525 0.58741796
000230 f6 8c a5 bd 02 c5 95 3d 78 34 cc be b0 0c b4 be
       -0.08083527 0.07312967 -0.3988378 -0.3516593
000240 40 6f db 3e c3 1d 0b 3f 30 e4 12 3d 8e a7 ac 3e
       0.42858315 0.5434229 0.035862148 0.33721584
000250 3d 4d a0 bd 4e 66 6a be f4 b0 b8 be c2 b5 1a 3f
       -0.07827232 -0.22890589 -0.36072505 0.6043359
000260 3d 89 1c bf eb 4f d3 bd 70 31 dc be 91 d3 a0 be
       -0.6114691 -0.103179775 -0.43006468 -0.31411412
000270 20 fb 8a 3e 0e df 10 bf 76 07 d4 3e 1b 78 03 3f
       0.27144718 -0.56590354 0.41411942 0.5135514
000280 5a 12 69 be ae 8d ce 3c 80 bd 10 be 67 f9 e5 3c
       -0.22760907 0.025214043 -0.14134789 0.028073026
000290 81 0f 27 3f db 23 6b 3e cb 5c 29 3e 00 43 bc 3e
       0.6525803 0.22962897 0.16539304 0.36769867
0002a0 86 d9 a9 3c d0 f8 0a 3f 28 55 dc 3d e3 40 e2 3e
       0.020733606 0.5428591 0.1075843 0.4419013
0002b0 7b 0c e7 be 18 7d a7 be 3e 2e f4 3d f6 5a 02 3e
       -0.4512671 -0.32712626 0.119228825 0.12730011
0002c0 ad 9f fb 3e 0e 5d e4 3e 25 4d 09 bf ba 8c 80 be
       0.4914526 0.44602245 -0.5363334 -0.25107366
0002d0 9a 36 a7 be 1a 45 7c 3e 3c 48 1b 3f 26 7f 89 be
       -0.32658845 0.24635735 0.60657096 -0.2685482
0002e0 1d b3 10 3f 5f bb 0e 3f 3d 2f 25 bf 62 41 2d bf
       0.56523305 0.55754656 -0.64525205 -0.6767789
0002f0 94 38 cb be 64 5f 93 3d ed 78 3a 3f 31 29 cc 3e
       -0.39691603 0.07195929 0.7284077 0.39875177
000300 d3 9f c6 be 70 55 c1 3e 8c d4 99 3d ec f5 0e 3e
       -0.3879381 0.37760496 0.07511243 0.13960999
000310 0a 91 07 3d 60 08 02 bf 5f ce 00 3f 8b 5b 92 3d
       0.033097304 -0.5079403 0.503149 0.07146367
000320 9b dd 37 3e 1a 81 80 be 54 ca d3 3e 4f 28 e5 3e
       0.1795563 -0.25098497 0.41365302 0.44757316
000330 34 b2 45 3f 9b c7 d3 be 8c fb b1 3e 35 a9 8a 3e
       0.7722504 -0.41363224 0.34762228 0.2708222
000340 8a c0 f1 be 62 e0 84 be 46 e5 e6 bd 70 81 3c 3e
       -0.47217208 -0.2595244 -0.11274199 0.18408751
000350 2e 1d 94 3c c0 53 8e 3c c2 f9 41 bf 78 f6 12 3f
       0.01808032 0.01737392 -0.75771725 0.5740733
000360 82 c8 2e 3f 1e 47 9f 3e c4 ca 02 bf 2a 90 0c 3f
       0.682747 0.31108946 -0.51090646 0.54907477
000370 54 98 98 bd 60 e1 b2 3d 6c 55 b9 be 5e b0 a1 bd
       -0.07450929 0.08734393 -0.36197984 -0.078949675
000380 6d 9a dd 3e 47 79 12 3f 18 b4 46 3f 32 b8 9f be
       0.4328188 0.57216305 0.7761855 -0.31195217
000390 29 97 0d bf 45 8c d3 3e 27 05 72 be 8e f6 f1 bd
       -0.5530878 0.41317955 -0.23634778 -0.11814605
0003a0 30 5d ce be ad 6f 9e 3c a0 c9 f8 3d 2e 4b bc be
       -0.4030547 0.01934036 0.12147832 -0.36776108
0003b0 8b da 2b bb 89 23 fb 3e b7 07 12 bf 91 bd 09 bf
       -0.002622279 0.4905055 -0.5704302 -0.5380488
0003c0 bd dd 06 bf 3a cc 26 3f 2a 87 e8 be 6e b1 fa bd
       -0.52682096 0.65155375 -0.45415622 -0.12240873
0003d0 22 97 0e 3f 41 a6 1d 3f 56 97 03 bf 1c e5 ae be
       0.5569936 0.6158181 -0.51402795 -0.34159172
0003e0 d0 17 b0 3e 27 36 7b be 36 ae d8 be 6c ac e7 3d
       0.34393167 -0.24532376 -0.42320412 0.11312184
0003f0 36 ef dd be eb 9c f1 3e 38 d2 da 3e 55 09 0a 3f
       -0.43346566 0.4719003 0.4273851 0.5392049

cells.0.x2h.bias f4 [256]
000000 e0 c1 85 be 54 56 0b 3f 69 0c 57 3e b6 b9 9a be
       -0.26124477 0.544286 0.21000828 -0.3021981
000010 39 b3 21 3f 68 18 cf 3e 31 b1 0f 3e 30 26 06 3e
       0.631641 0.40448308 0.14032437 0.13100505
000020 c5 b5 2d bf 01 ef a7 3e d7 8b a1 3e 8e 86 ec bd
       -0.67855483 0.32799533 0.31552002 -0.11549102
000030 bc 00 03 bf 90 10 26 bd ea a0 a7 bd 0f 1c b2 3e
       -0.51172996 -0.04054314 -0.08184989 0.34787032
000040 31 0e 05 bd 2c d0 8d be 1f 3b f6 be 99 34 87 bd
       -0.032484237 -0.27697885 -0.4809198 -0.06601829
000050 ff 7d 1e bf 12 c5 10 bf ca 90 83 be d9 e4 bf 3e
       -0.61911005 -0.56550705 -0.25696403 0.37479284
000060 97 bf 6c be a9 42 ff be d8 3c ad 3d 74 11 24 bf
       -0.2311996 -0.49855545 0.08458871 -0.6408913
000070 29 1f 14 3f 8b 1b 33 bf 8b c4 16 3e 25 51 14 bf
       0.57860047 -0.699639 0.14723413 -0.57936317
000080 aa d4 f7 3e ce 64 1e 3e 88 b4 6a be 8f 4c 11 bf
       0.48404437 0.15468141 -0.2292043 -0.56757444
000090 f1 d1 ee be 9a 8f 27 3f d4 4c 3a bd f6 4a 03 bf
       -0.46644548 0.65453494 -0.045483425 -0.51286256
0000a0 f8 d8 bf 3e 32 06 3e bd 69 a3 0b 3e 0b c5 8c 3e
       0.37470222 -0.046392627 0.13636555 0.27494082
0000b0 12 32 87 bd e9 a2 30 3d 77 02 ab be 87 52 05 bf
       -0.06601347 0.043124113 -0.33400318 -0.5207905
0000c0 ae 57 dd be 48 69 d6 be 9d 94 e4 bc e8 66 e7 be
       -0.43230957 -0.41877198 -0.027902896 -0.451957
0000d0 4e 65 02 3f e8 2b 3a 3f ba ff 9e be 99 13 a8 be
       0.5093583 0.72723246 -0.3105448 -0.32827452
0000e0 a0 48 8f be cd 48 0d bf 43 20 d0 3d 2a 26 92 be
       -0.27985096 -0.5518921 0.101624034 -0.28544742
0000f0 c5 8b 17 3f 33 aa 4d 3c 5e 59 23 3f ec 6e 01 bf
       0.59197646 0.012552786 0.6380824 -0.5055988
000100 58 51 c4 be 43 96 d2 3d 55 5a bc 3e 68 ae d6 be
       -0.3834331 0.102825664 0.36787668 -0.41929936
000110 4a 55 16 3f 58 f3 b7 3e 53 6c 08 3f da 0a a3 be
       0.5872389 0.35927844 0.5329029 -0.31844217
000120 22 2b 9b be 77 ed df 3e 2d 9c 25 bf 13 83 98 be
       -0.30306345 0.4373586 -0.6469143 -0.29787502
000130 49 43 07 bf b1 a0 26 bf c8 ac 77 3e fb 91 7e be
       -0.52837044 -0.65088946 0.24187005 -0.24860375
000140 9f a1 02 bd 7f a3 21 3f e9 26 e1 be 4e b1 cb be
       -0.031892415 0.631401 -0.43975 -0.3978371
000150 5c 29 df be 26 a4 ab be 06 64 1d bf 25 c9 2e bf
       -0.43586242 -0.33523673 -0.6148075 -0.6827567
000160 66 c0 29 bf df dd 12 bd 2f c1 12 3f 30 c3 26 bf
       -0.663092 -0.035856124 0.57326025 -0.6514158
000170 b8 60 68 3e c4 1d 29 bf dd ff 2a bf 58 c2 fe 3e
       0.22693145 -0.66061044 -0.66796666 0.49757648
000180 a0 b5 ca be c6 d6 26 bf c3 17 44 be 9b c1 74 be
       -0.39591694 -0.6517147 -0.1914969 -0.2390198
000190 d6 81 a9 3d b3 62 10 3f 58 bf bb 3d 67 5b fc be
       0.08276717 0.56400603 0.09167355 -0.49288484
0001a0 bc 78 9d be ca e6 1a 3e 0a 9a a6 3e a6 08 dd 3c
       -0.30756176 0.15127102 0.32539397 0.026981663
0001b0 27 8c 85 be 66 1f a1 3e 96 8d 22 bf 53 ef 96 bd
       -0.2608349 0.31469268 -0.63497293 -0.07369866
0001c0 1b 84 ef 3e aa 43 df be da 4d 46 3e e9 e4 94 be
       0.46780476 -0.4360631 0.19365636 -0.29080895
0001d0 f0 52 16 bf 65 e2 f0 be 49 36 7a 3e b8 d1 22 bf
       -0.587203 -0.47047725 0.2443477 -0.63601255
0001e0 13 ec f4 be f4 11 22 be 78 0e 39 3e c0 88 00 3c
       -0.4783636 -0.15827161 0.18071926 0.007845104
0001f0 ee 5d 0e 3f 50 39 f2 3e 7e 26 eb be 98 12 33 be
       0.55612075 0.4730935 -0.45927805 -0.17487562
000200 c2 5c 7b be 70 ef 4c 3e 0c ad 06 3e a2 39 1a bf
       -0.24547103 0.20013213 0.1315195 -0.6024419
000210 be 96 1e 3f 3f 4a d1 3e 2d 58 09 bf 11 d7 91 be
       0.61948764 0.40876958 -0.5365017 -0.28484395
000220 1a 33 9a 3e ed cc d5 be f9 11 07 3f 3c 94 b3 be
       0.30117112 -0.41757908 0.527618 -0.3507403
000230 6a 81 75 be fd 0a 31 3f 51 5a a0 3d c6 67 11 bf
       -0.23975149 0.6915739 0.078297265 -0.5679897
000240 a7 e6 04 3f d3 f8 47 be 56 6d 1d be 49 a4 0c bf
       0.5191445 -0.19528513 -0.1537374 -0.5493818
000250 36 9e c8 3e 59 36 22 3e a2 b0 e7 3e 7c 2b a5 be
       0.39183205 0.15841044 0.45251948 -0.32259738
000260 ee b3 24 bf 6b 81 e7 be eb a8 25 3f 5b 7a 16 bf
       -0.6433705 -0.45215926 0.64710873 -0.5878045
000270 da fd c6 3e 76 f0 ee 3e 12 b0 b0 bd 20 2a ab bc
       0.38865548 0.46667832 -0.08627333 -0.02089411
000280 a5 74 12 bd 10 df 83 3e 10 c2 30 bf 8f 4e 95 bd
       -0.035755772 0.2575612 -0.69046116 -0.072903745
000290 2b 46 65 be ca 23 01 bf 38 8e 09 bf 8d 5f bb 3e
       -0.22390048 -0.50445235 -0.53732634 0.36596337
0002a0 f7 ed ad bd b1 a5 cd 3e 15 ba 80 3e 1a e5 de bd
       -0.08492654 0.40165475 0.2514197 -0.108835414
0002b0 d6 34 31 3f 46 0a c7 be f2 db 34 3f f7 86 10 3f
       0.69221246 -0.38875026 0.7064811 0.5645594
0002c0 2a 69 c7 bd a5 12 0b 3f 12 c6 12 bf de d4 dd 3e
       -0.09736855 0.54325324 -0.5733348 0.43326467
0002d0 6c 5c cc be 40 47 2f 3f 52 7b 8e 3e 76 ea b1 3d
       -0.39914262 0.68468094 0.2782846 0.08687298
0002e0 77 ae a1 bd 10 e5 0a 3f 56 5d 1d 3f 14 20 b3 be
       -0.07894605 0.5425577 0.61470544 -0.3498541
0002f0 a0 c1 0a 3f da b1 e9 3e 25 d8 b6 bd 37 5c c1 3e
       0.542017 0.45643502 -0.08927945 0.37765667
000300 2c 91 b5 bd fe c0 cd bd f3 46 17 3f 5f 37 03 be
       -0.0886558 -0.10046576 0.59092635 -0.12814091
000310 13 13 bd 3e 10 7b 59 3e e9 18 c1 3e 9c 2e 04 bf
       0.36928615 0.21238351 0.37714317 -0.5163362
000320 9b 52 24 3f bb 26 f6 be 1a 38 84 bd a7 37 9a 3e
       0.64188546 -0.48076424 -0.06456013 0.30120584
000330 c4 6b b1 3e 5a 43 2c be 5a 4e 39 3f 53 b1 0f 3f
       0.3465253 -0.16822568 0.7238518 0.5612995
000340 50 47 14 3f ff 3e 1c bf fa 55 41 3f 2a 40 cf 3e
       0.57921314 -0.61033624 0.75521815 0.4047864
000350 ac 17 28 3f fe 24 ad 3e 1f 48 e8 3e 7a 25 fe 3d
       0.6566112 0.33817285 0.45367524 0.12409492
000360 59 58 83 be c0 05 3c be 89 1a 1e bf c5 0d ce 3e
       -0.2565334 -0.18361568 -0.6175924 0.4024488
000370 60 60 0b bf 74 d2 bb bc 31 69 15 bf c6 6f c7 be
       -0.5444393 -0.0229275 -0.58363634 -0.38952464
000380 ef c5 f1 3e 03 70 fe bd 66 ef 2b bf 05 a0 d5 3d
       0.47221324 -0.12423708 -0.6716217 0.10430912
000390 d5 b1 01 bd 38 3e dd 3d 15 4c 1b 3f c8 fc 88 bd
       -0.031663734 0.10802883 0.60662967 -0.06688839
0003a0 cd 9c 1c bd f1 17 a5 3e f9 66 ab 3e 24 41 1a bf
       -0.038235474 0.32244828 0.33477 -0.60255647
0003b0 39 59 2f 3f 10 40 2a bf 7c 6a 12 3e e8 1f df be
       0.6849552 -0.66504 0.14298433 -0.4357903
0003c0 30 3e 8e be 41 8e 41 3e 6c 15 1a 3f 10 d7 87 be
       -0.2778182 0.18901922 0.6018894 -0.26531267
0003d0 77 d8 90 be 27 6a c5 3e ce 3f 14 bf 7a 2e 8c 3e
       -0.2829015 0.3855755 -0.5790986 0.2737921
0003e0 e0 ee bd 3d 05 a6 15 be a8 b4 65 3e 7e f8 f0 bd
       0.092740774 -0.14614113 0.22432196 -0.11766146
0003f0 5c 06 12 bf a7 1d 27 3f 2f 4d 6a be b3 41 62 3d
       -0.57040954 0.6527962 -0.22881006 0.055238437

cells.0.h2h.weight f4 [256, 64]
000000 3c ee d0 3c 80 24 30 3e e8 e9 ed 3d 64 e9 09 be
       0.025504224 0.17201424 0.1161688 -0.13467938
000010 b7 89 e5 3d 5e a3 53 3d e4 bd c8 bd e3 f5 e6 bd
       0.11207908 0.05166947 -0.09801844 -0.11277368
000020 71 9d af 3c 3e 6d 90 3c a3 b3 d8 3d fc 16 45 be
       0.021437379 0.017630216 0.10581138 -0.19247049
000030 71 6f 59 bd c8 03 4e 3e 8b cd df 3c 25 6e 98 3c
       -0.053084794 0.2011863 0.02731969 0.018607209
000040 f1 57 a7 ba d2 54 6f ba fb 64 d3 bc fd af b3 bd
       -0.0012767297 -0.00091297657 -0.025804987 -0.087738015
000050 6d f8 c1 3d 00 53 a7 3d c6 79 88 3d f2 40 14 be
       0.094712116 0.08170128 0.066638514 -0.144779
000060 cb 14 c5 bd 31 cf 32 3d 1d 7c b4 3d cf c4 2e be
       -0.096231066 0.043654624 0.08812735 -0.17067264
000070 cf 27 71 3d 48 e3 54 3c 09 5b 84 3d 61 cf 3f bd
       0.058875855 0.012993641 0.06462676 -0.04682863
000080 df 41 04 bc c0 29 fe 3c 60 15 05 be 26 d8 06 be
       -0.0080723455 0.031025767 -0.12996435 -0.13168392
000090 57 44 af 3d 61 6e 8e bd 61 5b 17 be 8d 5f 38 3e
       0.08557957 -0.06954647 -0.14780952 0.180052
0000a0 62 22 0b 3e dc e2 44 3e 89 19 fd 3d 8b 1d 41 be
       0.13587335 0.19227165 0.12358386 -0.18858926
0000b0 58 a4 2d 3e fe e9 13 bd 9b 50 23 bb 3b 3d a5 3d
       0.16957223 -0.036111824 -0.002491987 0.080683194
0000c0 de 50 48 bc 1a 6d 02 3e 8b f8 1d 3c 97 68 10 3e
       -0.0122263115 0.12736931 0.009641777 0.14102398
0000d0 70 8a 2f be ed 49 3d 3d eb 5c 08 3e f0 1c f4 bb
       -0.17142653 0.04621308 0.13316695 -0.0074497387
0000e0 37 e7 43 be 1b 3e 3b 3d ff ba 3c 3c 86 6b 29 be
       -0.1913117 0.045713525 0.011519193 -0.16544923
0000f0 7c 2e 25 3e 75 ca 32 3e 6c 8e 0e be 71 13 02 3e
       0.16131014 0.17460044 -0.13921517 0.12702729
000100 39 5d d2 3c 97 e2 4e bc 34 60 be bd b3 32 1e be
       0.025679218 -0.012627265 -0.09295693 -0.15449028
000110 25 a6 94 3d 21 d7 86 3d 4b 06 23 be f5 f6 68 3d
       0.07258252 0.06584001 -0.1592037 0.05687614
000120 84 9d f6 3d 53 7d b3 3c 7e 08 4b 3d 65 59 a2 bc
       0.120417625 0.021910345 0.049568646 -0.019818017
000130 fc 9c bc bd 5a 74 35 bc 19 ba d1 bd 72 8c 2d bd
       -0.0920963 -0.011075104 -0.102405734 -0.042370267
000140 78 a5 1a 3e f5 6a 1e be 0f 60 24 3c cd be 89 3c
       0.15102184 -0.15470488 0.010032668 0.016814614
000150 71 c2 56 bd 8b eb e6 bb 8d 07 01 bc d2 e5 0a be
       -0.052431528 -0.007047122 -0.007875335 -0.13564232
000160 14 6a 98 3c 0c 09 11 bd e4 d4 1f 3e 93 c7 8e 3d
       0.01860527 -0.03540902 0.15608555 0.069716595
000170 dc db 9a bd 40 9b 01 3e 14 67 15 be 27 92 11 3e
       -0.07561466 0.1265688 -0.14590102 0.14215909
000180 9f 83 80 3d 6a c1 64 bd ff b4 9d bd 65 25 a7 3d
       0.06275105 -0.055848517 -0.07700538 0.08161429
000190 91 91 83 3d fb c1 2d bd fe ac 3f 3d b6 79 80 bd
       0.06424249 -0.042421322 0.046795838 -0.062732145
0001a0 ca 4f 10 bd 60 2a 2f 3d fd 9a 0a 3d 9b 8a e3 bc
       -0.035232343 0.04276502 0.033839215 -0.027776053
0001b0 fe 0f 76 3d 86 65 9c bb 3c a2 08 3d a7 47 c1 3b
       0.060073845 -0.0047728447 0.033357844 0.005898434
0001c0 fa e9 eb bd c9 b6 0c 3e 8f 73 0b 3d b6 18 02 be
       -0.11519237 0.13741602 0.034045752 -0.12704739
0001d0 8e d0 93 bd 56 f9 0e 3e fb 29 24 3d d7 05 28 3e
       -0.07217513 0.13962302 0.0400791 0.16408478
0001e0 c7 a2 c3 3d 6e b0 f9 3d 09 7a 86 bc ac 28 06 be
       0.09552532 0.121918544 -0.016415613 -0.13101453
0001f0 6e 02 1b 3b 56 fd 17 3c 53 4a 93 3c 23 d2 5a bd
       0.0023652571 0.009276709 0.017979776 -0.05342306
000200 50 20 36 be df 29 1b bd 86 32 5e 3d 78 79 3f be
       -0.17785764 -0.03788173 0.0542474 -0.1869868
000210 1a 41 b2 bc e8 7c 4d 3d 23 d4 22 3c b1 18 28 bb
       -0.021759558 0.050167948 0.009938273 -0.0025649483
000220 b6 a7 9b 3d 26 de af ba 85 da 97 3d 10 41 b8 bd
       0.07600348 -0.0013417646 0.07414726 -0.08996785
000230 b0 29 a3 bc 34 1d 93 3c c4 07 26 bd 7f c7 30 be
       -0.01991734 0.017958261 -0.04053475 -0.17263602
000240 12 82 1f 3e 4c de 06 bd 7c 74 01 3e d9 e7 34 be
       0.15576962 -0.032926843 0.12642092 -0.17666568
000250 66 af 61 3d 55 a8 67 3d 1d 8c 81 bd c9 d7 3e be
       0.055098914 0.05655702 -0.063255526 -0.18637003
000260 95 49 b6 3c 08 67 41 be 30 1e 6f bd ef 78 11 3d
       0.022251884 -0.1888696 -0.0583784 0.035515722
000270 ab b4 7f 3d 6d 17 26 3e 6b f3 f7 bd 65 f6 2b bc
       0.062428158 0.16219874 -0.12106975 -0.010495757
000280 25 49 95 3d 57 26 32 bd 4a 76 83 bc 05 d9 4b 3c
       0.07289342 -0.043493595 -0.016047616 0.012441878
000290 09 a1 1b 3e 07 c1 f2 bc c7 76 75 bd 3b df 32 3e
       0.15198149 -0.029633058 -0.059927728 0.17467968
0002a0 d3 3f 0c 3e 25 41 ed 3d 98 40 b5 3d 74 51 fc bc
       0.13696222 0.11584691 0.08850211 -0.030800559
0002b0 ff 47 85 3c b1 b1 0a 3c 64 43 01 bd 0b 56 86 3c
       0.016269682 0.0084652165 -0.03155841 0.01639845
0002c0 fb e6 80 bd bb e2 1d bc 31 7f 3a be d9 d5 13 3e
       -0.06294056 -0.009636576 -0.18212582 0.14437045
0002d0 40 dc 84 bd 64 8b 81 3d 61 c9 07 3e 0f a5 2b 3e
       -0.06487322 0.06325415 0.13260414 0.16762184
0002e0 c6 7e df bd 28 f6 2f 3e 90 8f 0d bd fc 06 9c bb
       -0.10912852 0.17183745 -0.03456074 -0.004761575
0002f0 7b 75 6f bd 34 ea 21 3e 46 42 05 be 12 f1 09 3e
       -0.058461647 0.15811998 -0.13013563 0.13470867
000300 0d ce 08 bc 00 80 d9 b7 cd 81 f9 3c dd ad 09 be
       -0.008349908 -2.592802e-05 0.030457402 -0.1344523
000310 40 3c c7 3d f8 c9 07 3e b9 37 db 3b 38 4d c6 bd
       0.09728289 0.13260639 0.0066899923 -0.09682697
000320 98 7c 02 3e cb 95 2d bd 33 46 5e bd 9c 12 4c bd
       0.12742841 -0.04237918 -0.054266166 -0.049822435
000330 fb 12 91 3d 2b ea 07 bd 51 75 98 bc d6 6b b5 3c
       0.07083698 -0.033182304 -0.018610628 0.022146147
000340 a9 e4 30 3e f0 28 87 3d f2 96 b0 3c 96 04 30 bd
       0.17274727 0.06599605 0.021556351 -0.042973123
000350 b8 82 ea bc 27 33 52 3c cd 4b a8 3d c7 1c ae bc
       -0.028626785 0.0128295785 0.08217583 -0.021253956
000360 76 82 59 bd 13 0c 1a bc 3c ed 98 3d ff 22 3a bd
       -0.053102933 -0.009402293 0.07467124 -0.04544353
000370 ad c9 84 bd 68 3e 6e 3d cf 2e 8c bd a3 a2 b9 bd
       -0.06483779 0.058164984 -0.068448655 -0.090642236
000380 f1 2f c8 bd 9b 6e a0 3d 90 f5 23 be 2f 09 41 3d
       -0.09774769 0.07833596 -0.16011643 0.0471279
000390 b6 6d a1 3a c5 82 ca 3c 8f 54 0a 3d 5f 5b fd 3d
       0.0012316022 0.024720559 0.033772048 0.12370943
0003a0 21 6d 8a 3c a3 f7 3c 3d 8b 39 17 bb eb ee 2d 3c
       0.01689774 0.046134602 -0.002307507 0.0106160445
0003b0 ce 45 06 3d d6 e1 12 be 05 87 31 3e de fe f7 3d
       0.032781415 -0.14343962 0.17336662 0.12109159
0003c0 8d 5b 06 be a2 4b b4 3d a6 a3 d2 bd 4a 9c 4f 3d
       -0.13120861 0.08803488 -0.1028512 0.05068616
0003d0 af 29 93 bd 1a ec f7 3d ab 6b 25 bd d2 68 22 3e
       -0.07185685 0.1210558 -0.040385883 0.15860298
0003e0 ca 3a 7a bd d8 db c8 3d b4 02 c9 3d 00 81 ae bd
       -0.061091222 0.09807557 0.09814969 -0.085206985
0003f0 fa 33 7a 3c 14 8d 07 bd 31 da 06 be c3 ed 3d 3e
       0.015271181 -0.033093527 -0.13169171 0.1854773

cells.0.h2h.bias f4 [256]
000000 01 42 30 bc 90 81 ec 3d c1 56 a9 3c 43 0e bb 3d
       -0.010757924 0.115481496 0.02067125 0.091335796
000010 bb 8a be bd 33 61 38 3c 80 ec 60 3c e2 29 30 bd
       -0.093038045 0.011253643 0.013728261 -0.043008693
000020 da f1 8e 3d e3 8b ac 3d 1b 5b fe 3c e0 e5 67 3b
       0.06979723 0.08425119 0.031049302 0.003538482
000030 cd 23 27 bd c6 51 b3 3d 8c 5e 58 bb 94 16 77 3d
       -0.040805627 0.087558314 -0.0033015339 0.060324267
000040 36 8c 00 3d 89 f2 2e bd 57 0d 29 bd 2b 12 99 bd
       0.031383716 -0.04271177 -0.041272487 -0.074741684
000050 8c 3a 88 bd d4 c4 15 3e fe ec 1b ba 3b c1 9b 3d
       -0.06651792 0.14625865 -0.00059480953 0.07605215
000060 1f 3d 0f bd 3d e6 67 3c 26 42 01 3e 7f 8e 4c bd
       -0.0349704 0.014154014 0.1262289 -0.049940582
000070 7e db a7 3d 2c 0c bc 3a a9 47 3e bc b6 f1 b1 3d
       0.08196162 0.0014346889 -0.011613765 0.08688681
000080 54 37 fc bc 0f 7f 73 3d d6 c7 b4 3d be ef 29 3e
       -0.030788101 0.059447344 0.08827178 0.1659536
000090 73 a6 1b 3e 9f 96 24 bc 2e 2c 78 bd ef 63 f0 3d
       0.15200214 -0.0100456765 -0.060589008 0.11737811
0000a0 b0 ef 43 bd c4 5e d4 3c ed c0 6a bd 49 4a c5 bd
       -0.047836006 0.025924094 -0.057312895 -0.096333094
0000b0 7b 21 fc 3d f0 6f db 3d 68 bc 9a bd ae 51 9b 3d
       0.123110734 0.1071471 -0.07555467 0.075839385
0000c0 7b 4f f7 3d 41 47 5d 3d ef b8 59 3d 5d be a8 3d
       0.120757066 0.05402303 0.053154882 0.08239434
0000d0 88 c4 c8 3c 07 50 ef 3d 60 36 50 3c fe 9f 9a 3d
       0.024507776 0.11685186 0.0127082765 0.07550047
0000e0 da a5 94 bd 0e df 9b 3d 03 a7 74 bc 65 9b a9 3d
       -0.07258196 0.07610904 -0.014932397 0.08281592
0000f0 da e1 0c 3d 9d de 4c bc 76 f1 1b 3d fa d0 91 3d
       0.034395076 -0.012504247 0.038072072 0.07119937
000100 41 ab a4 3d 6d 4c fc 3d 2d e5 cb bd c8 2c 27 3e
       0.080404766 0.123192646 -0.09955821 0.16325676
000110 6d a1 ee bd 04 90 0b be c6 6c 28 3c d7 5f 58 bd
       -0.11651883 -0.13629156 0.01027984 -0.052825775
000120 6e 0f 84 bd 2e 87 1b 3d 24 d2 06 3e a0 03 db bd
       -0.064482555 0.037970714 0.131661 -0.10694051
000130 25 49 b7 3d 97 c7 b9 bc ee 91 c0 bd a9 0e eb bd
       0.08949498 -0.02267818 -0.09402834 -0.114774056
000140 f7 5e d3 bd 26 5a 2d 3e 13 72 06 be 45 ce c9 bd
       -0.103208475 0.1692892 -0.13129453 -0.09853796
000150 38 6f 0a 3c 1d bd 12 bd 62 e5 a2 3b ec fa 8f bd
       0.008449368 -0.035824884 0.004971192 -0.070302814
000160 99 03 aa 3d c6 0c de bd 8b bd 42 bd 04 91 99 3d
       0.083014674 -0.1084228 -0.047544044 0.07498363
000170 fa a7 de 3d cd d1 a0 3d fd 4e a0 bd 2d 3f 8a 3d
       0.10871883 0.07852516 -0.07827566 0.06750331
000180 b6 2e da 3d 8f 22 bd 3c 4e de a7 bd 4b 42 11 bc
       0.10653441 0.023087768 -0.08196698 -0.008865903
000190 00 d7 e1 3c 47 84 62 bd e3 6b 24 3d 67 f1 3d 3c
       0.02756834 -0.05530193 0.04014195 0.011593199
0001a0 4c 86 e9 3c e6 f9 d7 3d 08 6d aa 3d 22 fd 28 3d
       0.02850642 0.10545711 0.08321577 0.04125703
0001b0 82 b5 2d 3c 8f 56 c0 bc 22 ca 06 3e e5 45 c1 bb
       0.010602357 -0.023478774 0.13163045 -0.0058982247
0001c0 6e fe ce 3d 66 18 4a 39 3c 9b 4d bd 7e 3d 85 3c
       0.10107122 0.0001927331 -0.05019687 0.016264673
0001d0 24 46 43 bc f1 10 20 bc 08 13 e3 3d 98 48 c3 3d
       -0.011918578 -0.009769664 0.11087614 0.095353305
0001e0 58 89 fe 3d 77 41 20 3d 56 08 dc bc a0 82 8e bd
       0.1242854 0.039124932 -0.026859444 -0.069585085
0001f0 7d 95 cf 3d 73 88 89 bd d1 89 07 3d 1c 00 0f 3e
       0.101359345 -0.06715479 0.033090416 0.13964885
000200 8e 45 0a be 0e c5 dd 3d 9c b7 94 bd 55 a8 d0 3d
       -0.13503096 0.10828601 -0.07261583 0.10188357
000210 c2 f6 82 3d b4 a0 99 bd 45 17 a2 3d 04 70 5a bd
       0.063947216 -0.07501355 0.079145946 -0.053329483
000220 54 10 4b bd 2e 47 dd bd 6c 51 e6 3b ed 5f d5 bd
       -0.04957612 -0.10804592 0.007028749 -0.10418687
000230 5d ca ca 3d 5a 6e 98 bd 2f 4d f7 bd f9 25 ee 3d
       0.09901879 -0.07442923 -0.120752685 0.116283365
000240 0f 12 f9 bd c3 ee af bd 6c e6 2b bd 37 01 0e 3d
       -0.121616475 -0.08590462 -0.041967794 0.034669127
000250 de 58 f4 3d a0 08 04 3e 18 13 1e bd 64 3f 01 be
       0.119310126 0.12893915 -0.038592428 -0.12621838
000260 6f ef e1 bd b4 79 53 bd a1 8c 61 3c 6d 59 c7 bb
       -0.110319965 -0.051629737 0.013766439 -0.0060836584
000270 a8 b0 92 bd 1b 3a a6 3d 78 a9 4e 3d 0a 88 ec 3c
       -0.07162601 0.081165515 0.050454587 0.028873462
000280 3b d1 7e bc cc 7d b2 bd 10 ec 9f 3b 2e 0c c7 bd
       -0.015552814 -0.087154 0.0048804358 -0.0971912
000290 ed d8 30 bd fa 4f 81 bc c7 18 a6 3d e0 8a 7b bd
       -0.043175627 -0.015785206 0.08110195 -0.06141174
0002a0 f0 d1 a1 3d de 67 1b bd df 38 b0 bd 94 af a9 bd
       0.079013705 -0.037940852 -0.08604597 -0.08285442
0002b0 19 c4 a2 3d 77 d1 03 be 63 ad f5 3d 80 fd b5 3d
       0.07947559 -0.12872873 0.119959615 0.08886242
0002c0 d6 bb 95 3c ae 6f d0 3d 42 45 fd 3b 89 28 d3 bd
       0.018278044 0.10177551 0.0077292034 -0.10310466
0002d0 db 12 45 3d 9b 9e 6f 3d de 71 8d 3d ad 0c 81 bd
       0.048113685 0.058500867 0.06906484 -0.06301246
0002e0 6d 2e cb 3d cd 0e b1 3d 45 82 18 3d 71 2f b4 bd
       0.099209644 0.08645401 0.03723361 -0.08798111
0002f0 79 4a 74 3d 2c cc 59 3d bb e9 ed bd 60 ae 87 3c
       0.059641335 0.05317323 -0.11616846 0.01656264
000300 4a e4 27 3e 6c 12 88 3d 00 27 ff 3b 4e 35 46 3d
       0.16395679 0.06644139 0.0077866316 0.04839068
000310 f0 19 95 3d 82 f3 e0 3d b1 58 d0 bd 57 36 89 3d
       0.07280338 0.109839454 -0.101731665 0.06699818
000320 11 3e b9 bc eb 76 95 bc ca 87 17 bc 4b ba 35 bd
       -0.022612603 -0.018245181 -0.009248683 -0.044367116
000330 e1 53 71 3d b0 de c4 bd 44 42 dd 3d c7 55 2d bd
       0.058917884 -0.09612787 0.10803655 -0.04231813
000340 c1 2d 42 bd 9e 66 fa 3d f9 db 8c 3d 7d dd c8 3d
       -0.047406916 0.12226604 0.06877894 0.098078705
000350 ec f2 39 3d 4c e9 f9 3d ad b5 08 3e 6a 18 f4 3d
       0.045397684 0.12202701 0.13350554 0.11918719
000360 5e 0c 36 bc 89 9f b0 3d bc 88 34 bc 22 ff 5d 3d
       -0.011111347 0.08624179 -0.011018928 0.05419839
000370 b0 59 cf 3d 62 83 29 bc c8 69 0d 3e a7 0c af 3d
       0.101245284 -0.0103462655 0.13809884 0.08547335
000380 b7 77 04 3e 58 76 0b 3d 15 be 05 3d 59 59 48 bd
       0.12936293 0.03404841 0.03265198 -0.048913334
000390 2e af f5 bc 8e fc 85 bc 6e 5b 68 3c 18 48 a7 3d
       -0.029990759 -0.016355779 0.014181955 0.08168048
0003a0 e5 04 8d 3c 74 dd 01 3d a9 93 21 3e 05 36 93 bc
       0.017214248 0.031705335 0.15778984 -0.017970094
0003b0 4d 0d 8d 3c b6 b7 f8 3d 91 80 fe 3d e9 ae f5 bc
       0.017218256 0.12144415 0.12426866 -0.02999063
0003c0 14 f4 a6 3d da 04 0d 3e eb 8d 8b bd 68 31 14 3e
       0.08152023 0.13771382 -0.06814178 0.14471972
0003d0 e8 c4 2e 3d c6 07 68 bd 5b eb de bc 3e ea 15 3e
       0.042668253 -0.05664804 -0.027211836 0.14640138
0003e0 9f 9b d0 3d 47 56 23 bd 5e 8a 9c bd e0 7b 0c 3e
       0.10185932 -0.039877202 -0.07643579 0.1371913
0003f0 7b 45 c0 3c a2 e3 ce 3c 80 b2 3d bd 5e 8a 89 bd
       0.02347063 0.025255028 -0.04631281 -0.067158446

cells.1.x2h.weight f4 [256, 64]
000000 ef 05 af 3d cd b6 09 3d a3 33 1b 3d a5 a3 0c bd
       0.085460536 0.033621598 0.03789104 -0.03433575
000010 fb ca ad 3d 87 dd d4 bc 02 6b 88 3d d7 b3 0e bd
       0.08485981 -0.025984539 0.06661035 -0.034839477
000020 d0 03 ba 3d 63 02 b7 3d 8e 2b 21 3b d5 e3 93 3d
       0.090827584 0.08936002 0.002459261 0.0722119
000030 32 1a d0 3d 8b ba a5 3d 60 8c 3d bd 17 11 28 bd
       0.10161246 0.08092221 -0.04627645 -0.041031923
000040 a0 3c d4 3c b4 da 01 3b c9 c7 eb bd 23 ca c2 bd
       0.025907815 0.0019814195 -0.11512715 -0.09511211
000050 39 27 b6 bd 39 b2 11 3c f7 b6 a1 bd 0e bd 10 be
       -0.088942 0.008892589 -0.07896226 -0.14134619
000060 13 9d 5e bd cd 03 ab bd e9 25 32 bd 3b 03 c1 3d
       -0.054349016 -0.08350334 -0.043493185 0.09424444
000070 d1 ad 0c 3d ef ab 47 bd 9b 3a 10 bd 4a 95 16 3d
       0.03434545 -0.048747953 -0.03521214 0.036763467
000080 b6 cf db 3d 39 54 2b 3e 7e 28 09 be 7d 3d 40 3b
       0.10732977 0.16731347 -0.13394353 0.0029333525
000090 d1 1e 0a be ee b3 ea bd a7 78 0f be 18 c4 ff bc
       -0.13488318 -0.114601 -0.14010869 -0.031221434
0000a0 e5 5c 24 bc 03 51 59 3d e6 c1 c1 3d d4 6e f4 bd
       -0.010031913 0.053055774 0.09460811 -0.11935201
0000b0 ed dd 96 bd 9e 25 c7 3c 6c bb a6 bc e0 4a cb 3b
       -0.07366548 0.02430993 -0.020353042 0.006203994
0000c0 b2 97 93 bd c0 44 c0 bd e4 d1 4e bd 85 42 88 3d
       -0.07206668 -0.09388113 -0.050493136 0.066533126
0000d0 db fc b4 3d 03 56 b8 bd f7 ba d9 3d 81 a2 bd 3d
       0.08837291 -0.090007804 0.10631364 0.09259511
0000e0 f2 f3 d5 3d df 83 7f bc 8b 52 77 bc 35 58 7e 3d
       0.104469195 -0.015595405 -0.015095363 0.06209584
0000f0 05 ae 70 3d 4e a6 95 bd 82 41 8b bd 39 5c c4 bc
       0.058759708 -0.07307111 -0.06799604 -0.023969756
000100 17 91 a9 3d f6 12 74 bd dc a2 a2 bc 76 8e 12 3d
       0.08279627 -0.059588395 -0.019853048 0.035780393
000110 8c 8e 34 bd 7b e6 90 bd cd f1 db 3c ce 8c 85 bd
       -0.044081256 -0.07075211 0.026848698 -0.06520997
000120 55 c6 31 bd b5 79 f5 bd 7e af 63 bd d7 1d b8 bd
       -0.043402035 -0.119861044 -0.055587284 -0.089900665
000130 18 5a cd 3d 40 9f f8 3d a5 d3 a0 bd 67 b4 00 be
       0.1002695 0.121397495 -0.07852868 -0.12568818
000140 a1 67 bb bc b3 f5 68 bd dc 11 2d 3d 5c d6 94 3d
       -0.022876563 -0.056874942 0.04225336 0.07267448
000150 8d 17 3b bd f3 52 8a bd 13 45 3c bb 1e 93 34 bd
       -0.045676757 -0.067541026 -0.0028727695 -0.044085614
000160 94 de a7 3b 1c 10 e2 3c cd 03 84 3d bd c4 01 be
       0.005122969 0.027595572 0.064460374 -0.12672706
000170 d6 98 bc bd ef 48 6d 3d f4 4b 1a bd d7 93 e2 bd
       -0.09208839 0.057930883 -0.03767009 -0.110633545
000180 7c 53 f1 bd c3 84 a6 bd 41 0e a3 bd f4 e9 88 bd
       -0.117835015 -0.08130791 -0.07961703 -0.06685248
000190 89 39 4f 3d 72 0c 2d 3d 07 1a a6 bd ca af 08 bd
       0.05059198 0.042248197 -0.08110433 -0.03337077
0001a0 78 49 d7 39 a3 c3 79 bc df b4 f8 bd 4c 08 d3 bd
       0.00041062734 -0.015244397 -0.121438734 -0.10304317
0001b0 f1 f4 b4 bd 84 dc 66 3d 52 be 0a 3d 91 94 7e bd
       -0.08835781 0.056362644 0.03387291 -0.062153403
0001c0 8a 63 d2 3d 8b e9 8f bd f5 26 d3 bd c1 9b 91 3b
       0.10272892 -0.07026967 -0.10310165 0.004443616
0001d0 8f 3e 3e bd fc 79 d2 3b fb f6 9a bd cc f9 95 bc
       -0.04644638 0.006423233 -0.07566639 -0.018307589
0001e0 43 70 91 3c 49 25 ed bd 69 57 86 bd 98 6f fb bd
       0.017753726 -0.11579377 -0.06559641 -0.12277144
0001f0 ca 21 6f bc 3a f3 c3 bc 13 db 96 3c e7 38 07 3d
       -0.014595458 -0.02391969 0.01841501 0.03301325
000200 2e 19 ca 3c 93 59 ed 3c ca 1f 6a 3d f9 07 1a 3b
       0.02467021 0.028973376 0.057159223 0.0023503287
000210 e3 16 d5 3d 37 d9 03 3e 84 24 68 3c 8f 2d 7c bd
       0.10404756 0.1287583 0.014168862 -0.061566886
000220 9f 75 25 bd 70 00 26 bd 70 44 9a bd b2 db 02 be
       -0.040395375 -0.04052776 -0.07532585 -0.1277912
000230 19 06 67 3d 67 36 61 bd db a7 0d be 10 dc c7 3c
       0.0564023 -0.054983523 -0.13833563 0.024396926
000240 4e 2a f2 3c c5 22 b5 bd 4f a9 8b bd d1 49 e6 bd
       0.029561188 -0.088445224 -0.068194024 -0.11244548
000250 1d ab 94 3d 44 d2 38 3d a2 95 ae bd 11 bb 8f 3d
       0.072592 0.0451224 -0.08524634 0.07018102
000260 8d d9 5f bd bb e4 00 bd b2 34 06 3b 0a 10 83 3d
       -0.054650832 -0.031468134 0.0020478186 0.063995436
000270 f9 42 59 bc d3 fa d4 3d 84 5e 1b be c2 90 9f bd
       -0.013260596 0.103994034 -0.15172774 -0.07791282
000280 10 ce 4f 3c 86 3e 51 3d 9a ee 4b 3d 6c 25 b9 bd
       0.0126834065 0.051085018 0.049788095 -0.09040341
000290 c0 73 8c bd b4 63 f8 bd bf 92 96 3c 2c 30 14 bd
       -0.06858015 -0.12128392 0.01838052 -0.036178753
0002a0 74 f4 49 bd b0 e9 83 bd be 23 0f 3d 33 9f 02 be
       -0.049305394 -0.06441057 0.034946196 -0.12756042
0002b0 4a b1 9b bc e1 33 ed 3c 12 b2 5c 3d 91 d0 45 3d
       -0.019005436 0.028955402 0.05388076 0.048294608
0002c0 a2 c7 16 be 5c 8e 86 bd 1d 65 92 3b d9 b2 be bd
       -0.14724591 -0.06570122 0.00446762 -0.09311456
0002d0 06 76 b8 bc 51 79 9e bd 7e a3 b3 bd ca 8f ac 3d
       -0.022517215 -0.07737983 -0.08771418 0.08425863
0002e0 29 f7 f3 3d 65 4c 38 bd bb a2 08 bc 3f 41 df bd
       0.119123764 -0.04499473 -0.008339579 -0.109011166
0002f0 cf 59 12 3e 1d 58 bd bc b9 23 9a 3d de d2 bf 3d
       0.14292072 -0.023113305 0.07526345 0.093663916
000300 8f b5 14 3e 09 56 2e 3d a9 b4 32 3c 26 72 d0 bd
       0.14522384 0.04256252 0.010907331 -0.10178022
000310 35 fd fc 3d b8 e6 96 bd f8 6e 31 bd 50 1a ab bd
       0.12352983 -0.07368225 -0.04331872 -0.08354628
000320 50 87 26 3d 84 b9 90 3c 9f de 82 3d 21 e8 0f be
       0.040656388 0.017666586 0.06390118 -0.14053394
000330 45 53 cb 3d ac af 5e bd eb 50 f5 3d 75 3a 89 bd
       0.09927992 -0.054366753 0.119783245 -0.06700603
000340 b5 b9 5c 3d e1 b9 9c 3d 17 93 7c bc eb 8f 0e 3d
       0.05388804 0.07652641 -0.015415928 0.03480522
000350 e8 26 83 ba ea b2 4d bd 2e e3 de bc 41 c0 ce 3d
       -0.0010006102 -0.050219454 -0.027207937 0.10095263
000360 df de 66 3d e8 fa d7 bd c7 2c a3 bd d5 a9 96 bd
       0.05636489 -0.105459034 -0.07967525 -0.07356612
000370 d6 ca 08 3d 33 68 25 bd cc d4 ef bd 42 3a 51 3d
       0.033396564 -0.040382575 -0.1171051 0.05108095
000380 50 11 ca 3d 5a 56 04 3e 5a f1 58 bd 8d 0e 89 3d
       0.09866583 0.12923566 -0.052964546 0.066922285
000390 07 74 17 be 6c f8 cb 3d 63 ad 73 3d 95 50 0c 3e
       -0.14790355 0.09959492 0.059491526 0.13702615
0003a0 81 2e 91 3d aa f7 df bd e8 f0 5c 3d 4e b1 ed 3d
       0.07088948 -0.1093591 0.053940684 0.11606084
0003b0 99 5b da bb d9 b1 7f 3d a1 7f 00 bd 9f ff d5 bd
       -0.0066637513 0.062425468 -0.031371716 -0.104491465
0003c0 d8 87 08 3d 29 a4 72 3d 59 58 9e 3d 6b 00 8f 3d
       0.033332676 0.059238587 0.07731695 0.069825016
0003d0 69 48 77 3c 03 f2 57 3b f3 d4 0a 3d 8d 96 c7 bb
       0.0150929475 0.0032950647 0.03389449 -0.006090945
0003e0 d3 65 3a bd f2 34 89 3d dd d6 27 3d 57 82 c4 bc
       -0.045507263 0.06699552 0.040976394 -0.023987932
0003f0 50 81 f4 bd 66 8c cb bc f4 cd 88 bb b5 67 c7 bd
       -0.11938727 -0.02484722 -0.004174942 -0.097365774

cells.1.x2h.bias f4 [256]
000000 a6 8a 3a 3d 31 73 c7 3d 77 55 10 3e 8f 84 27 bd
       0.04554238 0.09738768 0.14095102 -0.040897902
000010 36 6b 62 3d 31 d1 84 bd 98 49 08 bc ca 71 da 3d
       0.055278026 -0.064852126 -0.008318327 0.10666235
000020 ae ef 04 3c 5d 8c b8 3d 0c c4 bf 3c 07 9a 9c 3c
       0.008113785 0.09011147 0.023408912 0.019116415
000030 e0 db 19 3a 8f b5 87 bd 8d d9 a4 bd 20 9c d2 3d
       0.0005869251 -0.066264264 -0.08049307 0.10283685
000040 12 6b cd 3d 8a 08 51 bc ea b9 ab 3b 84 c0 09 3e
       0.10030188 -0.0127583835 0.0052406685 0.13452345
000050 40 2e 37 39 71 42 5e 3d a4 3e c0 bc bb f1 5d 3b
       0.0001746947 0.054262582 -0.02346737 0.0033866006
000060 67 84 c4 bd 6f 63 d9 bc ac 6e 20 3e cd 2a 65 3c
       -0.09595566 -0.026536671 0.15667218 0.013987255
000070 56 09 0a 3e 28 2a e2 3d d7 d5 62 bd 4f f8 0c 3e
       0.13480124 0.11043197 -0.055379715 0.13766597
000080 49 c7 97 bd 96 a8 96 bd 06 6a 4a 3d 23 aa 35 bd
       -0.074110575 -0.07356374 0.049417518 -0.04435171
000090 5a 6a 91 bd 1b 03 88 bd 04 6c cf bc 73 1b 90 3d
       -0.07100363 -0.06641217 -0.02532006 0.070364855
0000a0 eb 76 06 bd c4 1b 06 bd 79 b1 5c bd 5f 8b 31 3e
       -0.032828253 -0.032741323 -0.05388019 0.17338322
0000b0 b2 8d 82 bc db 14 ff 3d 4b 12 12 3e 0c 9b 20 3e
       -0.015936706 0.1245515 0.1426479 0.15684146
0000c0 97 0c 8c 3d 14 59 d7 bc 77 db 79 bd d1 fb 60 3d
       0.06838339 -0.026287593 -0.061000314 0.05492765
0000d0 8a 02 2f bd 71 f5 72 bd 20 f2 1a 3e fa 35 3b bc
       -0.04272703 -0.059316102 0.15131426 -0.011426443
0000e0 7a e9 d2 3d a8 a8 54 bd fa 5c b2 bd ec c0 d3 bd
       0.10298438 -0.051918656 -0.0870914 -0.10339531
0000f0 f1 f6 59 3d 5d 43 c2 bd 19 f4 ed bc 7d f6 83 3d
       0.053214017 -0.09485505 -0.029047059 0.06443498
000100 df b8 5f 3d d5 68 b9 bd 07 78 3a bd 76 4e 73 3d
       0.054619666 -0.09053198 -0.045524623 0.059400998
000110 84 60 87 3c ba 0c 5f 3d af 89 e5 bc 40 83 cb bd
       0.016525514 0.054455496 -0.028019754 -0.09937143
000120 86 83 c3 3c 17 dc ea 3c 06 48 5a 3d a9 6e 12 bc
       0.023866426 0.0286694 0.053291343 -0.008937516
000130 9b 16 82 bd aa c1 d0 3d 32 a7 a8 3c 21 e9 a3 bd
       -0.06351968 0.101931885 0.020587537 -0.0800345
000140 6d d5 ea bd d1 11 c1 bd 58 f5 f3 3d 31 9d 9f 3d
       -0.11466489 -0.09427226 0.1191203 0.07793654
000150 58 d2 b4 3d 8f 3d 21 bd a5 29 fd 3d fb e7 89 bd
       0.088291824 -0.039365347 0.12361459 -0.067337
000160 13 c2 97 3c 4c 60 b2 bd b8 c4 51 bd c7 7d d6 3d
       0.018525159 -0.087097734 -0.051212996 0.10473209
000170 f4 d1 71 3d e1 e6 97 bd b2 e2 6e 3d 10 08 d5 3d
       0.059038118 -0.074170835 0.058321662 0.104019284
000180 d7 b0 b7 3d c2 ee b1 3d c6 62 41 3c fc 3c 33 3d
       0.089692764 0.086881176 0.011803335 0.04375933
000190 b4 05 84 3d 4d 7e d5 bc dc 7b c2 3d 5a 72 2b bd
       0.064464 -0.026061201 0.094962806 -0.0418571
0001a0 98 4a 96 3d e8 cc c4 bd 24 81 aa bd 9d bf 68 bd
       0.073384464 -0.09609395 -0.08325413 -0.05682336
0001b0 c9 e3 6e 3d 95 30 fc bd 1b 6c cb bd 3b 78 28 3b
       0.0583227 -0.12313954 -0.09932729 0.0025706429
0001c0 fe 4f 6b 3d 67 12 b6 3d e6 90 bf bd 95 b0 94 bd
       0.057449333 0.08890229 -0.09353809 -0.07260243
0001d0 da 98 5d bd de 49 42 bd 4f cf 92 bc 17 57 af bd
       -0.05410085 -0.047433726 -0.017921118 -0.08561533
0001e0 1d 1b b0 3d 25 41 a8 3d 35 b7 35 bc 10 fd de 3c
       0.085989214 0.0821555 -0.011091043 0.027220279
0001f0 92 db b8 3c 47 2c 4e 3d 29 e6 53 3d 89 6f f9 3c
       0.022565637 0.050335195 0.05173317 0.030448692
000200 1d a3 6c bd cd aa f8 3d cb e9 b5 3d 18 00 1d bc
       -0.057772744 0.12141953 0.08882483 -0.009582542
000210 d0 de d7 3d 31 ec c4 3d 14 ce 6d 3d fc 0a 86 bd
       0.10540545 0.096153624 0.05805786 -0.06545064
000220 9a c9 81 bd 2c fc f4 bc 1d e7 89 bd 09 73 00 be
       -0.063372806 -0.029905401 -0.067335345 -0.12543882
000230 ec cf 3b bd a1 a5 12 bd 29 3b 06 be df 1f 96 bd
       -0.045852587 -0.035802487 -0.13108505 -0.07330298
000240 f2 41 4c 3d 1e d5 b8 bd aa 1d a8 bd e0 24 0d bd
       0.049867578 -0.09025024 -0.08208783 -0.034458995
000250 be c4 9b ba 00 0c eb 3d ec fe e0 3d c2 ee 8a bb
       -0.0011884195 0.11476898 0.109861225 -0.004239888
000260 88 9c 06 3e 4a 22 88 3d ef e8 b1 bb 54 14 59 bd
       0.1314565 0.06647165 -0.005429379 -0.052997902
000270 52 80 38 3d 4e 1b 9e bd ce da fa bd 19 4f 21 3e
       0.04504425 -0.07720052 -0.12248765 0.1575283
000280 2c 0f 52 bd 52 0b a3 bd 9a 26 51 3d 6e 2c 4e bd
       -0.051284 -0.079611436 0.051062204 -0.05033534
000290 fe 5b fb 3d 80 95 97 3d 7c 7c e2 bc b4 32 80 3d
       0.122734055 0.07401562 -0.02764725 0.06259671
0002a0 b8 97 d2 bc 60 34 f1 bd dc 13 f1 3d f2 93 24 bd
       -0.02570711 -0.11777568 0.11771366 -0.040180154
0002b0 64 6d 0f be 8d f6 8e 3d f1 58 f0 bd 2c e8 83 3b
       -0.14006573 0.069806196 -0.11735714 0.00402548
0002c0 88 81 8b 3d 51 e2 81 bc cf 87 63 bc 63 d8 ef 3d
       0.068118155 -0.015854986 -0.01388736 0.11711194
0002d0 2c 41 34 bd 17 5f f1 bd 49 f6 42 3d 7f 9d d7 bd
       -0.044007465 -0.11785715 0.047598157 -0.10528087
0002e0 53 8b 52 bc 4d 71 f5 3d 31 b9 cb bd 95 ee 0a be
       -0.0128506 0.11984501 -0.09947432 -0.13567574
0002f0 1c 0f 47 3d 69 a7 e2 bd 9e 46 ce bd f1 48 52 3d
       0.048598394 -0.11067087 -0.10072063 0.051339094
000300 49 dd 2d 3d 56 17 a0 3d 5a 9d ce bd 64 13 00 3a
       0.042447362 0.07816951 -0.10088606 0.0004885702
000310 33 44 ed 3d e8 9b 43 bd 2a 96 de 3d 87 34 0e 3e
       0.115852736 -0.047756106 0.10868485 0.13887225
000320 22 7c 0d bd 96 5e 49 bd 09 34 09 3e d6 b1 97 bd
       -0.03454221 -0.04916247 0.13398756 -0.074069664
000330 28 53 28 3d d6 36 06 3e cd 31 8d bc 6a e7 01 3e
       0.04109493 0.13106856 -0.01723566 0.12685934
000340 62 d4 a5 3d 7e 6b 84 3c aa 70 86 3c a6 84 1e 3e
       0.080971494 0.016164538 0.016411144 0.15480289
000350 20 2a 0c bc 86 95 5f 3c 01 ec b4 3d 5a 88 eb 3d
       -0.008554965 0.013646489 0.08834077 0.11500616
000360 4a cd d9 3d 44 31 92 bd 75 9d a3 3d e3 2d 6a 3c
       0.10634859 -0.07138303 0.07989017 0.014293167
000370 53 b2 c5 3d 11 cc 86 3d ef 73 ca 3d c8 b3 83 3d
       0.09653153 0.06581891 0.09885394 0.06430775
000380 54 d2 ce 3d 55 bd b0 bd 38 4f 33 3d fd b2 1d 3e
       0.10098711 -0.08629862 0.04377672 0.1540031
000390 07 7b 3e 3d 9d 13 13 3e b3 b8 f9 bd 1c a1 6b bd
       0.046504047 0.1436295 -0.12193432 -0.057526693
0003a0 13 83 12 3e 45 37 2a bd c1 3c 8d bd ca 02 d3 3d
       0.14307813 -0.041556615 -0.068963535 0.10303266
0003b0 01 fb 0d 3c 5c 3a 3c bd 42 e3 0b bc 31 24 4a 3d
       0.008665801 -0.045954093 -0.008538069 0.04935092
0003c0 31 c3 57 3c a6 59 7c bd f2 85 f7 3c 73 b1 34 3d
       0.013169096 -0.061608933 0.030215237 0.04411454
0003d0 b2 57 fe 3d cc ee 88 3d a1 db 34 3d 5d 47 d7 3d
       0.1241907 0.06686172 0.044154767 0.10511658
0003e0 0f 6a 4d 3d 99 d4 81 3d 5c a3 0e 3d 1a de 38 bd
       0.050149973 0.06339378 0.03482376 -0.045133688
0003f0 2b 8f 92 3d 6d 53 82 3d 82 ac c6 3d 14 2f 84 3d
       0.071562134 0.063635685 0.09700872 0.06454292

cells.1.h2h.weight f4 [256, 64]
000000 f1 5d a1 bc 0c 1b f5 bc d2 b7 05 3c 30 51 28 bc
       -0.019698115 -0.029920124 0.008161502 -0.010273263
000010 0f 22 e6 bc 9a 59 5d bd b4 70 85 3d 51 e3 d8 3d
       -0.028092412 -0.05404053 0.06515637 0.10590232
000020 47 c0 e4 bd c7 1d c8 3d cc 56 ba bd dd e6 d8 bd
       -0.111694865 0.097713046 -0.090985864 -0.10590909
000030 59 81 ee bd d8 c6 4a 3d 18 41 66 bb 07 76 86 bd
       -0.11645765 0.04950604 -0.0035134014 -0.06565481
000040 1e d5 64 bd 95 c7 69 bd 45 0e 7d bc e5 62 44 bd
       -0.055867307 -0.057075102 -0.015445297 -0.047945876
000050 50 01 09 be 31 5c 06 3c bf 9d 70 bd a0 17 86 bd
       -0.13379407 0.008200691 -0.05874419 -0.06547475
000060 0b d7 a9 3d 3f 93 2f 3d ec 2e 09 be a8 d1 7e bd
       0.08292969 0.042865034 -0.13396806 -0.062211663
000070 9f ad b1 bd 23 b3 18 3d da d8 1f bb 6b 8c ee 3d
       -0.08675694 0.037280213 -0.0024390728 0.11647876
000080 87 c7 7e bd fd e7 bb 3d 15 39 c9 bb b0 81 ab bd
       -0.062202003 0.09175108 -0.006140838 -0.08374345
000090 c2 31 69 bd 21 f6 17 3c a3 93 87 bd 3b 41 af bd
       -0.05693222 0.00927499 -0.06619956 -0.085573636
0000a0 06 26 57 3c ee 45 aa 3d 84 d0 7e 3d b4 d0 eb 3d
       0.013131624 0.08314119 0.062210575 0.11514416
0000b0 e9 99 8a 3d 78 a0 82 3d 86 34 ae 3c 6c ef 96 bd
       0.06767637 0.06378263 0.02126528 -0.07369885
0000c0 3a 23 72 3d 7a da 85 3c 09 de 99 bd e5 83 b3 bd
       0.059115626 0.01633953 -0.07513053 -0.08765391
0000d0 05 cb f6 bc e0 d1 9f bd 07 89 ab 3d 51 3f 83 3d
       -0.030126104 -0.07803702 0.08375745 0.06408561
0000e0 4e 6c e1 3d e9 91 5b 3c b9 4f 6d bd 2e 0f 98 3c
       0.110069856 0.013401487 -0.057937358 0.018561926
0000f0 6e 29 7f bd cf f9 e3 3d d2 59 5e bc fe 02 ee 3b
       -0.06229537 0.111316316 -0.0135712195 0.0072635403
000100 6d 77 ff 3c c0 76 e3 3d 85 00 81 3c 11 73 34 bd
       0.031184876 0.11106634 0.015747318 -0.04405505
000110 09 b3 06 3e de e2 59 3d 1a 4a ac 3c c4 d2 3c bc
       0.13154234 0.053194873 0.021031428 -0.01152486
000120 79 4d 9a 3d 47 06 83 3d 65 26 19 3d 52 d8 92 3d
       0.07534308 0.06397682 0.03739013 0.07170166
000130 d8 52 93 3d 48 cc 59 bd f1 1a f3 bd 5b 93 a4 bc
       0.071935356 -0.053173333 -0.11870373 -0.020089796
000140 d3 42 c5 bd 85 e5 d7 bc 64 18 0d be 66 f6 81 bd
       -0.09631886 -0.02635456 -0.13778836 -0.06345825
000150 ba c7 8d 3c 2b f2 d1 3d 93 16 b7 3c 7b 83 34 3c
       0.017307151 0.10251268 0.022349631 0.0110176755
000160 52 29 90 bd 2a 1a 2c 3d 98 f8 12 be 83 1f 1e be
       -0.07039131 0.04201714 -0.14352643 -0.15441708
000170 9d 8f b9 bd 2e f5 d9 3d 32 6c df 3d 92 97 3a 3d
       -0.09060595 0.106424674 0.109093085 0.045554705
000180 40 a4 0f be 1f c2 ba 3d 51 ba 9d 3d d6 37 b1 bd
       -0.140275 0.09119057 0.07701553 -0.08653228
000190 64 65 cc bd 0a 7b a5 3d 8a 73 50 3d 59 81 95 bd
       -0.09980276 0.080801085 0.050891437 -0.07300062
0001a0 56 e2 aa 3d 9a 68 d1 bd 6a 91 e1 3c 7e 0b 8f bd
       0.083439514 -0.10225029 0.02753516 -0.06984614
0001b0 8a 03 98 bd 28 0e b7 bd 0d ba 20 bd 23 98 84 bd
       -0.0742255 -0.08938247 -0.03923993 -0.0647433
0001c0 60 4e 45 3d 2e 6b 09 3c fc 3c 0f 3c 23 d4 d8 3d
       0.048170447 0.00838737 0.008742567 0.10587337
0001d0 dd af a6 3d ca 93 9f 3d 14 9e bc 3c 16 00 9f bd
       0.08139012 0.077918604 0.023024596 -0.07763688
0001e0 74 99 36 3d 4b ab 13 3e a1 c5 ab bd 2e 89 c7 3d
       0.044579938 0.14420812 -0.08387304 0.09742962
0001f0 3d d3 08 3e 08 40 a3 3d d0 09 2e bd c1 d9 be bd
       0.13361831 0.07971197 -0.042489827 -0.09318877
000200 79 c8 1c be 8f e8 c2 3d 80 2d a1 bd 19 54 93 3b
       -0.15310849 0.09517013 -0.078700066 0.004496109
000210 30 80 8d bd a2 fc f4 3d 73 b4 0f bd 4b 47 c4 bd
       -0.069092155 0.119622484 -0.0350842 -0.095839106
000220 23 91 94 3d 4e 22 c0 3d 85 14 5d 3d b7 f3 12 be
       0.07254245 0.09381543 0.053974647 -0.14350782
000230 c9 6c 8a 3c 66 7e 0c bb 6d 07 ac 3d c2 2f 34 3c
       0.016897576 -0.0021437644 0.08399854 0.0109977145
000240 f7 61 bc 3d 74 af a2 3c 72 a2 f7 bd 62 04 d2 3d
       0.09198373 0.019859053 -0.12091531 0.10254742
000250 0d 8c fe bd 23 e2 b4 3d fa 78 81 3c c2 33 f2 bd
       -0.12429056 0.08832195 0.015804756 -0.11826278
000260 05 6c c2 3d 59 84 a8 bd 4e 20 e5 3c 6e cb c0 bc
       0.09493259 -0.08228368 0.027969506 -0.023534503
000270 5c b2 09 bb f3 f8 b9 3d 84 2d 63 3d f0 72 91 bd
       -0.0021010851 0.090806864 0.05546333 -0.07102001
000280 6d 8d a9 bd 59 bc 74 bc 70 64 03 3d 98 44 81 3d
       -0.08278928 -0.014937484 0.032078207 0.06311911
000290 a2 ff 8b 3d 02 f9 48 3d ea 5c 20 be 75 f2 f6 bc
       0.068358675 0.049065597 -0.15660444 -0.03014491
0002a0 41 3c e9 bc a1 b8 82 bd 89 fe ba 3d 84 6d ed 3d
       -0.028471114 -0.063828714 0.0913058 0.11593154
0002b0 7c ed 47 3d 56 47 70 3d 8f 37 d5 bd c8 b3 9c bb
       0.048810467 0.05866178 -0.104109876 -0.004782174
0002c0 1d 68 9c bd e6 71 74 bd 21 b5 02 bd 5d b2 80 bd
       -0.076370455 -0.059678935 -0.03191102 -0.0628402
0002d0 a5 fe d1 3c b4 9c 0c be b2 48 61 bd 67 71 64 3d
       0.02563412 -0.13731652 -0.05500097 0.05577221
0002e0 21 0e 34 bc 35 81 7a 3b fc 97 dd 3d af 1d b9 3d
       -0.010989697 0.0038223986 0.10820004 0.09038865
0002f0 c0 cf 1a 3e 12 2f e0 bd 7c 84 6b 3d 72 78 a7 bc
       0.15118313 -0.10946478 0.057499394 -0.020443175
000300 96 8b 5d 38 34 6e 5e bd f0 48 20 bc 8e 97 e8 3d
       5.2820506e-05 -0.054304317 -0.009783015 0.11357032
000310 9f ec ca bd 18 a9 99 bd ca 4c ea 3d 7c a0 97 3d
       -0.09908413 -0.07502955 0.114404276 0.07403657
000320 4d e8 0d 3e 97 90 f8 bd 01 fd 37 bd 73 e7 b5 bd
       0.13858147 -0.12136953 -0.044919018 -0.08882036
000330 82 7b 78 3d af eb 59 3d b1 a0 8f 3d 62 a3 a9 3d
       0.06066466 0.05320328 0.07013071 0.08283116
000340 27 f2 ae 3d 21 ac 07 3d 3e af 11 be e6 37 79 3c
       0.08542281 0.03312314 -0.14227006 0.015211081
000350 21 0b f2 bb 18 4d 97 bb d3 b5 16 bc ea f8 9d bd
       -0.0073865806 -0.0046173446 -0.009198624 -0.07713492
000360 5d a4 2b 3e 67 d5 8d 3d 35 53 a4 3d 91 91 13 3d
       0.16761918 0.06925469 0.08023683 0.036027495
000370 da 39 f8 3d 9a aa 50 bd 3c bc cc 3c 03 23 3f bd
       0.12120409 -0.05094395 0.0249921 -0.04666425
000380 70 10 52 3c 66 c9 ca bd 19 05 36 bd ac 94 f1 3c
       0.012821302 -0.09901695 -0.044438455 0.029489838
000390 36 d5 49 3d 71 e9 04 3e d0 9d c4 3b 2f 91 76 3d
       0.0492756 0.12979676 0.006000258 0.06019705
0003a0 a7 10 7d 3c 19 43 67 bd 9d 16 b3 bd 90 1b 7d 3d
       0.015445865 -0.056460474 -0.087445475 0.061793864
0003b0 7a a4 b6 bd bc 36 4d 3d 2b 01 df bd 68 db d8 3d
       -0.0891809 0.050101027 -0.10888895 0.105887234
0003c0 a5 d0 b1 bd 02 c1 85 bd 9e 2f 30 3d 35 f9 d7 3d
       -0.08682374 -0.06530954 0.04301416 0.10545579
0003d0 d1 41 35 3d a1 53 6a bd 5c b3 a8 3d d6 d0 4b 3d
       0.04425222 -0.05720866 0.08237335 0.04975971
0003e0 a5 76 21 bd 37 ee 12 3d f9 83 b9 3d 47 af 49 bd
       -0.03941979 0.03587171 0.09058375 -0.049239423
0003f0 4e e5 cc 3b c9 f2 bd 3b b1 f6 43 3d 36 5b 09 bc
       0.006252921 0.0057967645 0.047842685 -0.008383563
