model_group/models_group_demand/LSTM_model_STATEN ISLAND_RICHMOND AVENUE.pth (torch, 351286 bytes, 17 tensors)

input_projection.weight f4 [2, 2]
0.64393646 0.2601913 0.6776994 -0.39124876
00000000: 05d9 243f cb37 853e b57d 2d3f c251 c8be

input_projection.bias f4 [2]
-0.2580883 0.04406038
00000000: 2624 84be a878 343d

cells.0.x2h.weight f4 [256, 2]
-0.2598246 -0.2530767 0.4682429 0.10627332 -0.56118 -0.35835162 -0.24257104 0.3641083
0.48679888 0.06916074 0.37590593 -0.25017753 -0.35321984 0.44029617 -0.31148177 -0.3089548
0.33266273 0.70016634 0.30390948 -0.7391955 -0.43559167 0.22426778 -0.15301971 -0.5238652
-0.5469407 0.6448486 -0.3503712 0.39718905 -0.50090057 -0.016844723 0.11532422 -0.42786926
0.4681061 -0.37795597 0.08549481 -0.6518885 -0.002361695 -0.31798655 -0.6088936 0.079939485
-0.4621126 0.68887573 -0.4970547 -0.4638947 0.50829 0.5441133 -0.48162422 0.33592942
-0.0063962 -0.5332884 0.42991337 0.75181746 -0.68175304 0.033421963 0.5917052 0.487711
-0.29286945 -0.20951107 0.6860071 -0.5116328 0.3023162 -0.52606255 0.100375496 0.1256817
-0.4274859 -0.1196863 0.27026296 0.12728743 0.03781008 0.26141015 -0.72089756 0.4515308
-0.2590917 -0.17583129 0.34833887 0.06667248 -0.18381035 0.37522337 0.25356647 -0.6666799
0.006406104 -0.23475847 0.5379746 -0.13869464 -0.4730222 0.53655076 -0.21255115 -0.5358572
-0.5625332 -0.36884803 0.44124237 0.09955533 0.27780637 0.67359936 -0.7161055 -0.16370988
-0.13812086 0.41683805 0.5246586 -0.7325468 0.32853103 0.63529 -0.07824209 0.6802769
0.25003016 -0.7079538 0.596333 -0.39824212 0.7335605 0.55426234 0.25459656 -0.54290205
-0.21210033 -0.15676041 0.36326286 -0.24637444 -0.32219353 0.73131686 -0.3826757 -0.053378586
0.08511423 -0.4552608 0.45050472 -0.3817163 0.17096981 -0.10651274 -0.06994445 0.2528652
0.5462078 0.16724458 -0.41172883 -0.39187244 -0.038900193 -0.34756756 0.31851292 -0.4973048
0.12164682 0.35315084 -0.64487755 -0.24443251 0.4802658 0.44156912 -0.15035787 -0.18274042
-0.45397604 0.45812216 -0.40363058 0.57559747 0.6870264 -0.24336594 -0.070464395 0.07128285
0.2535965 0.60334605 -0.4156681 0.12804368 -0.14315408 0.35015434 -0.5670777 -0.51151574
-0.6441 0.057656765 0.14485693 0.5564082 0.5804814 0.5122401 0.534691 0.4972628
0.10579437 -0.090257384 0.24890262 0.35317665 0.04968265 0.07264543 0.27709323 -0.6887039
-0.66503215 0.5556931 0.25748664 0.49031287 0.12250166 0.2268744 -0.6579916 0.103696994
-0.6739618 0.2167831 -0.4993885 0.17518872 -0.613199 -0.41842762 -0.11634266 -0.501757
-0.50013554 -0.5378153 -0.16699766 0.13615532 -0.46510667 0.045036044 0.16952772 -0.49355105
-0.72258276 -0.69999874 0.07567861 -0.36266872 -0.029600058 -0.47853136 0.17781965 0.41539067
-0.5872859 -0.58850765 -0.020839415 0.61774594 0.21826936 0.654095 -0.025519786 -0.50198793
0.26182097 0.37715703 0.44059625 0.5451514 0.28323328 -0.6907029 -0.3298449 -0.06974717
0.36601722 -0.619574 0.48680264 -0.28499982 -0.36721134 0.6474483 0.13847236 0.6549026
0.43385372 -0.28127277 -0.08278925 0.22003943 0.61808527 0.21946238 0.19110666 0.6295043
-0.17692837 -0.49892375 -0.20981021 0.55276376 0.067673534 -0.520855 0.52923304 0.48539326
-0.55787265 -0.5959107 -0.5809025 0.5996278 -0.04171945 0.6573385 -0.56684864 0.034905087
00000000: bb07 85be 4593 81be 89bd ef3e d4a5 d93d
00000010: 7ea9 0fbf dd79 b7be 8b64 78be 676c ba3e
00000020: b43d f93e 25a4 8d3d be76 c03e 4517 80be
00000030: 3bd9 b4be 806e e13e 8a7a 9fbe 532f 9ebe
00000040: c552 aa3e 1a3e 333f 069a 9b3e eb3b 3dbf
00000050: df05 dfbe 74a6 653e 33b1 1cbe 081c 06bf
00000060: 4e04 0cbf cc14 253f db63 b3be 5d5c cb3e
00000070: 053b 00bf f2fd 89bc 1b2f ec3d ae11 dbbe
00000080: 9aab ef3e 7283 c1be e717 af3d 2ae2 26bf
00000090: abc6 1abb 22cf a2be 73e0 1bbf 50b7 a33d
000000a0: 069a ecbe 295a 303f f47d febe 9b83 edbe
000000b0: 4b1f 023f 024b 0b3f 7397 f6be f1fe ab3e
000000c0: 3797 d1bb 9785 08bf 9b1d dc3e 1c77 403f
000000d0: 5e87 2ebf 78e5 083d fe79 173f 42b5 f93e
000000e0: fcf2 95be 128a 56be 299e 2f3f 5efa 02bf
000000f0: 30c9 9a3e 09ac 06bf ab91 cd3d b4b2 003e
00000100: 6fdf dabe 171e f5bd e85f 8a3e a357 023e
00000110: bede 1a3d 8dd7 853e be8c 38bf 0c2f e73e
00000120: aba7 84be 1e0d 34be 7959 b23e 958b 883d
00000130: c838 3cbe 471d c03e 77d3 813e 89ab 2abf
00000140: 4cea d13b 8664 70be b4b8 093f f805 0ebe
00000150: f72f f2be 645b 093f 02a7 59be f02d 09bf
00000160: 2d02 10bf a6d9 bcbe 85ea e13e aae3 cb3d
00000170: a33c 8e3e 0271 2c3f b152 37bf 90a3 27be
00000180: 8e6f 0dbe cc6b d53e 0750 063f 3088 3bbf
00000190: 3835 a83e 5ea2 223f 643d a0bd a026 2e3f
000001a0: f403 803e 763c 35bf 48a9 183f 64e6 cbbe
000001b0: 9fca 3b3f 23e4 0d3f 7b5a 823e a1fb 0abf
000001c0: d430 59be cd85 20be 97fd b93e 9549 7cbe
000001d0: 8df6 a4be 9537 3b3f 12ee c3be 81a3 5abd
000001e0: 5f50 ae3d f217 e9be 8ea8 e63e 5270 c3be
000001f0: b612 2f3e 5a23 dabd 093f 8fbd 8c77 813e
00000200: 46d4 0b3f 2a42 2b3e 1fce d2be 81a3 c8be
00000210: cf55 1fbd 60f4 b1be 2014 a33e bc9e febe
00000220: f821 f93d 30d0 b43e b216 25bf 844c 7abe
00000230: 66e5 f53e 5915 e23e 6af7 19be 4e20 3bbe
00000240: 8c6f e8be fd8e ea3e aba8 cebe 5b5a 133f
00000250: f6e0 2f3f ec34 79be a34f 90bd befc 913d
00000260: 67d7 813e e374 1a3f 73d2 d4be e21d 033e
00000270: fc96 12be 6e47 b33e 012c 11bf b2f2 02bf
00000280: bde3 24bf 8029 6c3d 6055 143e c570 0e3f
00000290: 6e9a 143f 2b22 033f 82e1 083f 3b99 fe3e
000002a0: b8aa d83d ddd8 b8bd 54e0 7e3e 92d3 b43e
000002b0: 0980 4b3d 21c7 943d 2adf 8d3e e64e 30bf
000002c0: 8c3f 2abf e741 0e3f 4ad5 833e 4a0a fb3e
000002d0: 26e2 fa3d c351 683e 2372 28bf 175f d43d
000002e0: c388 2cbf 64fc 5d3e d9af ffbe ac64 333e
000002f0: 9cfa 1cbf 253c d6be 0f45 eebd 2673 00bf
00000300: e208 00bf 43ae 09bf 6f01 2bbe 4d6c 0b3e
00000310: 7622 eebe b777 383d ad98 2d3e b9b2 fcbe
00000320: 2ffb 38bf 1e33 33bf 63fd 9a3d b7af b9be
00000330: d27b f2bc 1002 f5be 5b16 363e 16ae d43e
00000340: 5e58 16bf 70a8 16bf 6cb7 aabc 9924 1e3f
00000350: 0182 5f3e c572 273f df0e d1bc 4882 00bf
00000360: 660d 863e ba1a c13e d595 e13e 0b8f 0b3f
00000370: f403 913e e8d1 30bf 6ee1 a8be 9bd7 8ebd
00000380: 9c66 bb3e 679c 1ebf 323e f93e 7feb 91be
00000390: 2003 bcbe 2cbf 253f b3cb 0d3e b2a7 273f
000003a0: 1322 de3e fc02 90be 698d a9bd 0452 613e
000003b0: d63a 1e3f bfba 603e 77b1 433e 3227 213f
000003c0: b62c 35be ef72 ffbe 7dd8 56be ed81 0d3f
000003d0: 6c98 8a3d c156 05bf d17b 073f 7785 f83e
000003e0: bed0 0ebf 9b8d 18bf 07b6 14bf 3581 193f
000003f0: 04e2 2abd 5647 283f fe1c 11bf a3f8 0e3d

cells.0.x2h.bias f4 [256]
-0.42985648 0.37389717 0.36633536 0.20362318 -0.40594023 0.49714175 0.10499373 0.03269742
-0.62349963 -0.4135632 0.13050099 0.6882215 0.072563045 -0.48141947 0.0024449113 -0.52808017
0.43240514 -0.52802765 -0.17386286 -0.058208592 -0.40536502 0.03967106 -0.49049902 -0.4711167
-0.52249247 -0.34168983 0.5648116 -0.2164792 -0.29127294 0.36601987 0.086052135 -0.123220794
0.583698 0.111451246 0.6753637 -0.21187223 0.009097867 -0.5845935 0.30380228 -0.25157565
0.24713401 -0.4151554 -0.4743058 0.5823601 -0.042390086 -0.5373168 0.36798033 0.049450386
-0.123024896 0.31660572 0.43064195 -0.3896752 0.5450814 0.5686502 0.021674197 0.19883236
-0.5673579 0.59674644 -0.032179825 -0.5063336 -0.51385564 -0.062002216 -0.539906 0.10179131
0.60261613 -0.439576 -0.42887428 -0.18579943 0.6547953 0.21889707 0.21944095 0.6254503
-0.42877474 -0.08039365 -0.632446 0.6704039 -0.1951023 0.5883855 0.072365165 -0.27124506
-0.47920078 -0.688883 0.2355762 -0.21474373 -0.3644191 -0.32279766 -0.41913375 -0.5791876
0.0063286135 0.25176522 -0.42393643 0.35399282 -0.67529887 -0.23806992 -0.6711241 -0.3775274
0.15303779 -0.26930547 -0.6325707 -0.67441845 0.00847517 0.5254492 -0.40859142 -0.54955775
0.49626684 0.40808776 -0.40213332 -0.45071045 0.6937322 -0.52693576 0.4086023 -0.049789235
0.2489867 0.30772668 0.38184944 0.22236061 -0.09652077 0.41025522 0.08973301 0.019851249
0.6372905 0.6164863 -0.2507843 0.22068079 0.16987522 0.4894393 -0.55901 -0.12327812
-0.093132064 0.011211669 0.050705258 -0.4671248 -0.58840925 -0.060921323 -0.010585282 0.12934203
-0.5451724 -0.11632234 -0.2188961 -0.19737488 -0.455433 -0.67739105 0.5013395 -0.2576479
0.4024037 0.03374695 0.55811006 -0.020579295 -0.30123416 -0.5997653 0.06822298 0.5773666
-0.46003184 -0.30005845 -0.6629505 0.19714725 0.4047551 -0.51702476 -0.08411425 -0.118422575
-0.60503715 0.10999136 0.13575642 0.56812364 0.06781837 -0.3318771 -0.026940811 0.4817973
-0.29891142 -0.60847366 0.4321268 0.17014612 -0.49595895 0.5742345 0.6351858 0.38290697
-0.45824403 0.6929146 -0.54356766 -0.559557 0.09507019 0.022187315 -0.64567125 0.045211777
-0.22676083 0.3215999 0.34061313 0.6719678 0.4780088 0.16845708 -0.5872275 0.12388179
-0.50023675 -0.3232714 0.29468954 0.22476114 0.56874025 0.32273358 0.6943126 0.13899417
0.13317148 -0.23304123 0.24178305 0.28473863 0.653661 -0.5708307 0.05148951 0.28215992
0.3214715 -0.6070334 0.0074165557 0.0099526355 -0.6208324 -0.42128024 0.24333194 0.68386924
0.65267444 -0.41331643 0.2223514 -0.36906186 -0.68211585 -0.22541997 -0.20854017 -0.5473444
-0.5605715 0.52232486 -0.62397695 -0.225973 0.60569686 0.24318548 -0.6782566 0.48482636
-0.40206334 0.39992535 0.50618434 -0.6774255 0.6652021 -0.06163159 0.6254862 0.0047883503
-0.4737435 -0.32257906 0.37555745 -0.30105656 -0.6587977 0.4919856 -0.01287797 0.34927422
-0.5674746 0.25838238 -0.0439636 0.12954944 -0.5320204 0.62303627 -0.18299341 -0.52737194
00000000: 2616 dcbe 736f bf3e 4f90 bb3e 9882 503e
00000010: 66d7 cfbe 5d89 fe3e f406 d73d bbed 053d
00000020: ac9d 1fbf 8ebe d3be 0da2 053e 492f 303f
00000030: ef9b 943d 9d7c f6be ce3a 203b 4330 07bf
00000040: 3564 dd3e d22c 07bf 1b09 32be 226c 6ebd
00000050: 018c cfbe 1f7e 223d b022 fbbe 3536 f1be
00000060: 11c2 05bf f8f1 aebe 7e97 103f b9ac 5dbe
00000070: ba21 95be f566 bb3e 1a3c b03d 2f5b fcbd
00000080: 3b6d 153f 8d40 e43d a3e4 2c3f 09f5 58be
00000090: 380f 153c eba7 15bf f98b 9b3e 86ce 80be
000000a0: b310 7d3e 408f d4be 36d8 f2be 8d15 153f
000000b0: 3aa1 2dbd 988d 09bf eb67 bc3e 7d8c 4a3d
000000c0: 7af4 fbbd 251a a23e 1a7d dc3e 8283 c7be
000000d0: 748a 0b3f 0f93 113f 168e b13c b69a 4b3e
000000e0: 5e3e 11bf 60c4 183f fece 03bd 149f 01bf
000000f0: 0b8c 03bf 09f6 7dbd 4837 0abf f677 d03d
00000100: 0d45 1a3f 1b10 e1be 6995 dbbe 3542 3ebe
00000110: aaa0 273f 8e26 603e 21b5 603e 831d 203f
00000120: 5d88 dbbe 6da5 a4bd fbe7 21bf 979f 2b3f
00000130: e6c8 47be 6fa0 163f 3034 943d a2e0 8abe
00000140: ce59 f5be a35a 30bf e33a 713e c8e5 5bbe
00000150: 2495 babe bc45 a5be b398 d6be a345 14bf
00000160: 4260 cf3b 5fe7 803e 320e d9be 8c3e b53e
00000170: 63e0 2cbf 9ac8 73be cace 2bbf 454b c1be
00000180: f0b5 1c3e 68e2 89be 27f0 21bf b0a6 2cbf
00000190: 70db 0a3c d783 063f e532 d1be d1af 0cbf
000001a0: b016 fe3e e1f0 d03e 6be4 cdbe 85c3 e6be
000001b0: 6f98 313f 43e5 06bf 5234 d13e ccef 4bbd
000001c0: 5ff6 7e3e 5a8e 9d3e c581 c33e 80b2 633e
000001d0: aeac c5bd f90c d23e f1c5 b73d 169f a23c
000001e0: 7825 233f 0cd2 1d3f cd66 80be 25fa 613e
000001f0: c5f3 2d3e ca97 fa3e 481b 0fbf 3d79 fcbd
00000200: 06bc bebd 26b1 373c 51b0 4f3d fb2a efbe
00000210: fda1 16bf a388 79bd e46d 2dbc 3d72 043e
00000220: 6b90 0bbf 683a eebd 4d26 60be a41c 4abe
00000230: 842e e9be 8069 2dbf c957 003f 6dea 83be
00000240: dc07 ce3e 3e3a 0a3d 4de0 0e3f e995 a8bc
00000250: 5d3b 9abe 388a 19bf 7db8 8b3d 4cce 133f
00000260: 4b89 ebbe 43a1 99be 20b7 29bf f8e0 493e
00000270: 0f3c cf3e bc5b 04bf 1844 acbd 8987 f2bd
00000280: b7e3 1abf 2643 e13d bb03 0b3e 8d70 113f
00000290: 5ce4 8a3d cceb a9be fab2 dcbc 23ae f63e
000002a0: eb0a 99be eec4 1bbf b93f dd3e c93a 2e3e
000002b0: 55ee fdbe 0801 133f 899b 223f 620c c43e
000002c0: f69e eabe da62 313f 4027 0bbf 213f 0fbf
000002d0: 29b4 c23d 2cc2 b53c b64a 25bf fc2f 393d
000002e0: fe33 68be bea8 a43e d864 ae3e 1506 2c3f
000002f0: 92bd f43e 0380 2c3e 8b54 16bf bcb5 fd3d
00000300: 840f 00bf d483 a5be 8ce1 963e c927 663e
00000310: f698 113f 563d a53e 78be 313f 7d54 0e3e
00000320: 1b5e 083e 5ca2 6ebe fa95 773e 43c9 913e
00000330: 5456 273f f621 12bf aae6 523d 4477 903e
00000340: ea97 a43e 8a66 1bbf 9406 f33b 6110 233c
00000350: dfee 1ebf 0bb2 d7be 022c 793e 0e12 2f3f
00000360: ac15 273f 369e d3be 16b0 633e adf5 bcbe
00000370: 259f 2ebf 7ed4 66be 8e8b 55be c31e 0cbf
00000380: 9d81 0fbf 15b7 053f f4bc 1fbf 7765 67be
00000390: f30e 1b3f 9d05 793e 39a2 2dbf 293b f83e
000003a0: 3fdb cdbe 04c3 cc3e 4c95 013f c26b 2dbf
000003b0: af4a 2a3f 6871 7cbd dd1f 203f 98e7 9c3b
000003c0: 828e f2be 1529 a5be 1149 c03e 1624 9abe
000003d0: f7a6 28bf 89e5 fb3e 1ffe 52bc 12d4 b23e
000003e0: 0446 11bf b24a 843e 2d13 34bd 9ca8 043e
000003f0: 7d32 08bf 4e7f 1f3f a062 3bbe d901 07bf

cells.0.h2h.weight f4 [256, 64]
0.055819463 -0.024458488 -0.14314723 -0.067380175 -0.07713613 0.006325976 -0.015315832 -0.15659204
-0.029392265 -0.13163689 0.103183515 0.074884094 0.028295465 0.03778701 0.12436372 -0.06196375
0.11473797 0.07560935 0.123981275 -0.047891796 0.029688423 0.032655217 0.10441626 -0.08194533
0.011230302 0.026365198 0.04327957 0.09557475 0.026383873 -0.01966628 0.17419368 -0.06346384
-0.04275045 -0.118871376 0.10776302 -0.017496252 0.08411723 0.018034177 0.113942385 -0.09813775
0.03999228 -0.054725487 -0.11343241 -0.016170587 0.08667546 -0.059006315 -0.027683314 -0.0026823452
-0.11618773 -0.051307466 0.09343764 0.061236396 -0.07768181 -0.10408435 -0.12516145 0.04075671
-0.030485345 0.121709056 0.11305753 0.030749405 -0.028584706 -0.10709609 -0.022573527 -0.018506447
-0.024533005 -0.06517195 -0.038222898 -0.05787583 0.13324222 -0.048441593 0.11171572 0.084650636
0.031016102 0.12017596 -0.11352512 -0.11293682 0.12992969 -0.10435341 -0.08343237 0.08429066
-0.09242916 0.049095206 -0.054627385 0.14840342 0.11259209 0.019957425 0.043874033 -0.02973022
-0.023450075 -0.12505919 -0.058531854 0.06992861 0.052068155 -0.004617475 -0.14392456 -0.03761694
0.09201026 -0.06892148 -0.1380745 -0.12516673 -0.049588006 0.04519196 0.05550354 -0.10955757
0.10363605 0.007055747 -0.049538594 0.023719976 0.06335522 0.006019868 0.07970395 -0.0964446
-0.070118226 -0.024837539 -0.041633617 0.0983948 0.13986073 0.076640464 0.095773295 0.031139938
0.028849682 -0.099276304 0.07311052 -0.040435422 -0.05043986 -0.043225512 0.03786388 0.14488107
-0.13691081 -0.16951369 0.06993767 -0.1521999 -0.008436201 -0.007454565 -0.10359088 -0.08227981
-0.11719689 -0.042445127 0.10241538 0.08696916 -0.060833037 0.061832655 0.0014155305 -0.12067122
0.12328163 -0.14673652 0.15087453 -0.07129304 0.005344141 -0.09794048 -0.09691304 0.17217003
0.04876718 0.07335189 0.071210235 -0.098870434 -0.013816618 0.036916044 0.06537243 -0.14290324
0.048641212 0.0741859 -0.084084235 0.08687559 0.119649194 0.048569422 -0.038477954 -0.021008387
0.021220218 -0.037105728 0.018389247 -0.060277455 -0.06007478 0.057765182 -0.03721906 0.11099685
-0.053701855 0.051209215 0.01581562 -0.015357356 -0.09101294 -0.073573224 -0.15185641 -0.004763138
0.0763028 0.11523653 -0.009665518 0.1381659 0.056132454 0.07291221 -0.14565118 -0.13894272
-0.06689462 -0.10770555 0.032055054 0.0747873 -0.114527084 -0.08112648 -0.028801117 -0.10830615
-0.031010533 -0.07028214 0.057012513 -0.08800821 -0.135193 0.06712828 0.11382235 -0.050113756
0.10977331 0.008824086 -0.10338397 0.00724288 0.026588911 0.114244275 0.014262407 0.07545468
-0.020299302 -0.097063884 0.058844775 -0.031099334 0.1628536 -0.11948011 0.16515364 0.06232756
-0.11097199 0.046243865 -0.006726995 0.051989373 -0.023314888 -0.0056923353 -0.08814718 -0.07205887
0.040564395 0.0048079104 -0.112502605 -0.060891557 -0.074106954 0.08665411 0.079726204 0.13965754
-0.04289498 -0.020497883 0.057651244 0.020872336 0.0987974 -0.08314793 -0.12258911 0.107505865
-0.0062446776 -0.1005283 0.020716555 -0.07811732 0.12514524 -0.0031478875 -0.11314454 -0.08772142
00000000: f3a2 643d 2b5d c8bc 3095 12be 9efe 89bd
00000010: 8cf9 9dbd 224a cf3b 41ef 7abc aa59 20be
00000020: 0cc8 f0bc d2cb 06be e151 d33d d55c 993d
00000030: e4cb e73c 8dc6 1a3d 68b2 fe3d b3cd 7dbd
00000040: befb ea3d 13d9 9a3d e5e9 fd3d 302a 44bd
00000050: 2335 f33c 7ac1 053d 31d8 d53d f4d2 a7bd
00000060: 4dff 373c d4fb d73c eb45 313d b2bc c33d
00000070: fe22 d83c 2e1b a1bc d45f 323e 54f9 81bd
00000080: 191b 2fbd d672 f3bd dcb2 dc3d 4d54 8fbc
00000090: a745 ac3d 69bc 933c a05a e93d 72fc c8bd
000000a0: f2ce 233d d527 60bd 404f e8bd 2e78 84bc
000000b0: e782 b13d 9bb0 71bd 1ec8 e2bc 49ca 2fbb
000000c0: d5f3 edbd c727 52bd 3c5c bf3d 04d3 7a3d
000000d0: a417 9fbd 2d2a d5bd 532a 00be 82f0 263d
000000e0: 67bc f9bc 9942 f93d b58a e73d 2de6 fb3c
000000f0: 792a eabc 3255 dbbd 1eec b8bc d59a 97bc
00000100: 71f9 c8bc df78 85bd 9d8f 1cbd 350f 6dbd
00000110: a670 083e b16a 46bd 36cb e43d 505d ad3d
00000120: 7b15 fe3c d01e f63d dc7f e8bd 6b4b e7bd
00000130: 4a0c 053e 3eb7 d5bd 97de aabd 95a0 ac3d
00000140: 804b bdbd 0e18 493d f7c0 5fbd 11f7 173e
00000150: af96 e63d c17d a33c 42b5 333d ca8c f3bc
00000160: 5f1a c0bc 840f 00be 19bf 6fbd bb36 8f3d
00000170: 6b45 553d 304e 97bb f660 13be 3814 1abd
00000180: e06f bc3d b426 8dbd 6763 0dbe b52b 00be
00000190: cb1c 4bbd 341b 393d ae57 633d b85f e0bd
000001a0: 233f d43d e533 e73b fbe8 4abd 6550 c23c
000001b0: 62c0 813d 5042 c53b d33b a33d bf84 c5bd
000001c0: 259a 8fbd 1878 cbbc 0388 2abd 3783 c93d
000001d0: a737 0f3e adf5 9c3d ca24 c43d 2f19 ff3c
000001e0: 2b56 ec3c 6051 cbbd f8ba 953d 9d9f 25bd
000001f0: 079a 4ebd 3c0d 31bd 2817 1b3d b45b 143e
00000200: 5932 0cbe ff94 2dbe 7b3b 8f3d 4ada 1bbe
00000210: fe37 0abc 6c45 f4bb 7527 d4bd 5182 a8bd
00000220: ec04 f0bd f1da 2dbd 28bf d13d e31c b23d
00000230: 102c 79bd 3d44 7d3d 5289 b93a 7922 f7bd
00000240: 147b fc3d 1942 16be da7e 1a3e 1602 92bd
00000250: e71d af3b 0595 c8bd 587a c6bd 574d 303e
00000260: 18c0 473d 8439 963d acd6 913d 957c cabd
00000270: 195f 62bc 4735 173d fbe1 853d 3a55 12be
00000280: 023c 473d c7ee 973d 5b34 acbd d4eb b13d
00000290: a30a f53d bbf0 463d 0f9b 1dbd c819 acbc
000002a0: 06d6 ad3c 2dfc 17bd 0ca5 963c 7ee5 76bd
000002b0: f910 76bd 2f9b 6c3d 0373 18bd 5152 e33d
000002c0: 7af6 5bbd c1c0 513d c28f 813c 6b9d 7bbc
000002d0: fe64 babd 8fad 96bd 3f80 1bbe 1914 9cbb
000002e0: a444 9c3d 2101 ec3d 1f5c 1ebc 5d7b 0d3e
000002f0: 25eb 653d ff52 953d 9525 15be 0047 0ebe
00000300: 0c00 89bd ba94 dcbd 294c 033d 152a 993d
00000310: 2d8d eabd a425 a6bd 52f0 ebbc 9dcf ddbd
00000320: cd09 febc 15f0 8fbd f485 693d a63d b4bd
00000330: 0970 0abe 8d7a 893d b11b e93d 1544 4dbd
00000340: d4d0 e03d e692 103c faba d3bd ae55 ed3b
00000350: fdd0 d93c e7f8 e93d dfac 693c fc87 9a3d
00000360: b94a a6bc 6ec9 c6bd 3807 713d 08c4 febc
00000370: 18c3 263e fdb1 f4bd 091e 293e 2f4b 7f3d
00000380: 4845 e3bd 356a 3d3d 206e dcbb cff2 543d
00000390: ddfe bebc c586 babb 8286 b4bd 9a93 93bd
000003a0: da26 263d ad8b 9d3b c467 e6bd 6d69 79bd
000003b0: 63c5 97bd b677 b13d 7e47 a33d 6302 0f3e
000003c0: a6b2 2fbd 2deb a7bc b623 6c3d 76fc aa3c
000003d0: 4b56 ca3d 7649 aabd 0010 fbbd 092c dc3d
000003e0: 27a0 ccbb c8e1 cdbd c4b5 a93c f9fb 9fbd
000003f0: 1326 003e ca4c 4ebb 53b8 e7bd 4aa7 b3bd

cells.0.h2h.bias f4 [256]
0.09581819 0.03188735 -0.06474054 0.11680907 0.012650725 0.05150392 -0.038581107 -0.061521944
0.071409576 -0.06432743 0.12652414 -0.082953446 0.038830675 -0.03836975 0.06565129 -0.11038026
0.070329376 0.13985813 -0.051882386 0.112028554 0.013830108 0.07109795 0.065346465 -0.014930949
-0.0094542755 0.03797363 0.1175248 -0.04651868 0.11193037 0.12361357 0.038646165 -0.059244238
0.17652826 0.09970992 0.09120553 0.1414556 0.062391702 0.12656148 0.032205198 0.00404592
-0.08121534 0.13161461 -0.04616 0.1031912 0.026720382 0.016719295 -0.034670662 0.032257404
0.013548296 0.011758418 0.10062196 -0.08782588 0.06934286 -0.095453314 -0.0754748 0.059633683
0.06313643 0.056436848 0.09325261 -0.029472137 0.012541409 -0.09322583 -0.036203068 -0.08925088
-0.012744066 -0.03831323 0.10701353 0.07883563 0.03592877 -0.016940612 -0.10092287 -0.12249916
0.109955154 -0.10496528 -0.11437816 0.08554123 0.0016067298 0.098754905 -0.115709305 0.02870153
-0.06857595 -0.03202128 -0.06046677 -0.08650866 -0.0030910023 -0.0016446445 0.05872823 0.12768362
-0.08833168 0.124627516 -0.03153581 -0.08450026 0.103039615 0.10250209 -0.03854592 -0.10441231
0.06776434 -0.106914185 0.0038129422 0.06431826 0.07791476 -0.10208172 0.1228189 -0.08926307
0.051768016 -0.09948936 -0.015153737 0.059463516 0.032832697 0.02892038 0.084615216 0.001826577
0.12563898 -0.022231726 -0.030012902 0.111151785 -0.05303825 0.015164492 0.037814513 0.11992561
-0.099508755 0.16515605 0.015721736 0.014715573 -0.06015417 -0.12423241 0.070725836 -0.067481525
-0.0098111145 -0.047623914 -0.09353064 0.10582841 -0.07875236 -0.13566741 -0.065934986 -0.035241265
-0.12219762 -0.007987295 -0.012992176 -0.029098902 -0.054963164 0.02325841 -0.0737101 -0.029240945
0.030498065 -0.05760106 -0.0943286 -0.052104235 -0.023077535 0.028070003 0.028348146 0.016627269
0.023881001 0.022172185 -0.11022896 -0.022748448 -0.1280809 0.072946236 0.014721357 -0.06311978
-0.09696288 0.045835037 -0.00403899 -0.08057011 0.15068616 0.10848018 -0.08579378 -0.04092454
-0.079911 -0.0049711885 -0.054133773 0.022529308 0.046290938 -0.08693649 0.09678561 -0.01021835
0.07681898 0.082233965 0.073650695 -0.033606023 -0.070057705 -0.10588205 -0.06735727 0.048548646
0.0771771 -0.067147054 0.07282219 0.0862273 0.079566844 -0.017121876 -0.02710186 -0.09135839
-0.11347707 -0.034317087 -0.006213971 -0.07202982 -0.12095327 -0.04935838 -0.085100085 -0.08054708
-0.039105415 -0.026671989 0.13912499 0.0411951 0.012667025 -0.080866754 0.021449404 0.10275275
-0.051317617 0.030076083 -0.045316823 -0.030635297 0.03902926 -0.044039488 0.062827975 0.015027121
-0.00429244 0.06352285 -0.05508016 0.15256138 0.011468408 -0.0648866 -0.03228429 -0.08672885
-0.08778131 0.044831038 0.09400932 -0.047936194 0.14595746 -0.019433212 -0.06495958 -0.01646238
-0.02099228 0.08469684 0.10326665 -0.022327786 0.12295193 -0.00084573834 0.03835568 -0.09034074
-0.06233709 0.04342622 -0.027878694 -0.044872224 0.08531793 0.081094645 -0.020981096 -7.1727656e-05
-0.09053191 0.0036909694 -0.020006822 0.11105077 -0.059015416 -0.0032074049 -0.10683932 -0.0065953373
00000000: 543c c43d 4f9c 023d b096 84bd 9839 ef3d
00000010: fd44 4f3c c6f5 523d 3907 1ebd 6ffe 7bbd
00000020: 2f3f 923d 1abe 83bd 8b8f 013e 7fe3 a9bd
00000030: ea0c 1f3d 9929 1dbd 2f74 863d 0c0f e2bd
00000040: d908 903d f836 0f3e a082 54bd 3a6f e53d
00000050: ad97 623c cd9b 913d 5ed4 853d f0a0 74bc
00000060: 1be6 1abc 3d8a 1b3d d8b0 f03d 5f8a 3ebd
00000070: c03b e53d 1d29 fd3d 714b 1e3d 16aa 72bd
00000080: d3c3 343e b734 cc3d f7c9 ba3d bdd9 103e
00000090: 718e 7f3d 5599 013e 99e9 033d a393 843b
000000a0: 3a54 a6bd fbc5 063e 4512 3dbd e855 d33d
000000b0: b4e4 da3c e7f6 883c d302 0ebd 5720 043d
000000c0: acf9 5d3c 61a6 403c e312 ce3d 0ede b3bd
000000d0: a103 8e3d 077d c3bd 8892 9abd 7342 743d
000000e0: ac4d 813d 532a 673d 39fb be3d 8d6f f1bc
000000f0: 7b7a 4d3c 2fed bebd ab49 14bd 2ac9 b6bd
00000100: 7dcc 50bc 55ee 1cbd e929 db3d 9374 a13d
00000110: 0c2a 133d 0ac7 8abc a6b0 cebd d7e0 fabd
00000120: 2b30 e13d 09f8 d6bd 193f eabd 3e30 af3d
00000130: e898 d23a 0340 ca3d 00f9 ecbd 791f eb3c
00000140: 8c71 8cbd bf28 03bd 01ac 77bd 742b b1bd
00000150: 6a92 4abb 1d91 d7ba 038d 703d 7fbf 023e
00000160: 3de7 b4bd b63c ff3d b22b 01bd 790e adbd
00000170: 6f06 d33d 9eec d13d 54e2 1dbd 1fd6 d5bd
00000180: 08c8 8a3d d3f5 dabd 8ee2 793b 4bb9 833d
00000190: c691 9f3d 3910 d1bd 7a88 fb3d 8ecf b6bd
000001a0: b30a 543d 14c1 cbbd 6147 78bc 0490 733d
000001b0: 947b 063d 6fea ec3c be4a ad3d c169 ef3a
000001c0: 81a7 003e 4f1f b6bc 9edd f5bc 8ca3 e33d
000001d0: a33e 59bd 7d74 783c 64e3 1a3d 8f9b f53d
000001e0: 3fcb cbbd ab1e 293e dfca 803c 9619 713c
000001f0: 3864 76bd 906d febd b5d8 903d c133 8abd
00000200: ccbe 20bc 4b11 43bd fe8c bfbd 91bc d83d
00000210: eb48 a1bd 66ec 0abe ec08 87bd 2559 10bd
00000220: bf42 fabd 25dd 02bc 23dd 54bc d260 eebc
00000230: 0e21 61bd 6c88 be3c 52f5 96bd b58a efbc
00000240: 14d7 f93c 17ef 6bbd 5a2f c1bd 406b 55bd
00000250: 190d bdbc 10f3 e53c 5f3a e83c e935 883c
00000260: 17a2 c33c 71a2 b53c b9bf e1bd f45a babc
00000270: a427 03be d664 953d d931 713c f144 81bd
00000280: 7994 c6bd 85bd 3b3d 8159 84bb f101 a5bd
00000290: 794d 1a3e db2a de3d a6b4 afbd 7ea0 27bd
000002a0: 61a8 a3bd 5ae5 a2bb 60bb 5dbd 628f b83c
000002b0: 919b 3d3d c20b b2bd 8937 c63d de6a 27bc
000002c0: 4553 9d3d 486a a83d 2dd6 963d 78a6 09bd
000002d0: 6a7a 8fbd b0d8 d8bd 9cf2 89bd f2da 463d
000002e0: 070f 9e3d 6584 89bd cd23 953d f097 b03d
000002f0: f1f3 a23d 2d43 8cbc b804 debc 1c1a bbbd
00000300: ab66 e8bd 1390 0cbd 919e cbbb 5f84 93bd
00000310: 59b6 f7bd 032c 4abd f448 aebd def5 a4bd
00000320: 002d 20bd 377f dabc c876 0e3e 31bc 283d
00000330: 5b89 4f3c 789d a5bd a9b6 af3c 0970 d23d
00000340: 6c32 52bd 1e62 f63c 229e 39bd e0f6 fabc
00000350: 25dd 1f3d c062 34bd f4ab 803d 5034 763c
00000360: 99a7 8cbb 4518 823d bc9b 61bd 0d39 1c3e
00000370: fde5 3b3c 44e3 84bd 883c 04bd e59e b1bd
00000380: b0c6 b3bd c0a0 373d f587 c03d be58 44bd
00000390: df75 153e 6632 9fbc 8709 85bd 1ddc 86bc
000003a0: 01f8 abbc 8975 ad3d 777d d33d c3e8 b6bc
000003b0: 39ce fb3d 8ab4 5dba d81a 1d3d 9104 b9bd
000003c0: 2d55 7fbd b1df 313d dc61 e4bc f0cb 37bd
000003d0: 2bbb ae3d f314 a63d 8ce0 abbc 7e6c 96b8
000003e0: cb68 b9bd 31e4 713b 59e5 a3bc 966e e33d
000003f0: 26ba 71bd 5333 52bb 93ce dabd b31d d8bb

cells.1.x2h.weight f4 [256, 64]
-0.088926256 0.022209449 -0.17235105 0.046777736 -0.09527859 0.025458459 -0.09085535 0.014505934
-0.114296295 -0.111150295 0.026143136 -0.1135931 -0.06554527 0.07010583 0.10462614 -0.042185258
0.09466898 -0.12137318 -0.031755634 0.07406254 -0.06445039 0.04146065 -0.06386682 0.13857853
-0.11808445 -0.041125894 -0.13320358 -0.0047850623 0.07310792 -0.13407819 0.004975218 -0.09853309
-0.031450365 0.058222808 -0.021544322 -0.034178745 0.022111611 0.09485177 0.08231788 0.009302977
-0.07509211 -0.049973086 0.04601021 -0.017948383 -0.051231537 0.018253565 0.08628744 -0.055740118
0.06324112 -0.051858597 -0.07321114 0.010726845 -0.050099455 0.05767454 0.004811444 -0.07022081
0.09592276 0.052970994 0.08759225 -0.10152457 -0.057312902 -0.057213847 -0.046844576 0.09236152
0.13918923 0.09211999 0.04565626 0.05993364 0.017812856 -0.1036065 0.04030051 0.017787341
-0.05653323 -0.06311172 0.04914909 0.038961645 0.008313504 -0.0461808 -0.09419531 0.08211765
-0.11025853 -0.04878601 -0.0031763734 0.14150366 -0.01652208 0.051516004 0.050576974 -0.18721227
0.11720739 0.08844032 0.054763794 0.019536119 -0.1490641 0.025938317 -0.07753005 -0.12977466
-0.088429935 -0.122141965 -0.084061384 -0.19084984 -0.08903536 0.059700027 0.13453734 -0.069690906
-0.03599552 0.15913998 -0.11765842 -0.025869107 0.20213579 -0.014537932 -0.08670436 -0.033856492
-0.038088564 0.056835584 0.005778497 -0.0391224 -0.026887827 -0.02481185 0.09033143 -0.07448914
-0.09377016 0.08326736 0.028313823 0.09621975 -0.12259505 -0.053424217 -0.09296174 0.056768328
-0.04773719 0.08614557 -0.14075048 0.024693854 0.08817473 0.07214998 0.09404485 -0.033947136
0.05649486 -0.08208869 -0.12414781 0.0841783 -0.056246452 -0.0968979 -0.01128738 0.09691029
0.12279935 -0.017572325 0.1454112 0.07746908 -0.11144914 0.050636638 0.04580177 -0.08529885
-0.07137886 -0.022741549 0.006759616 -0.071306124 0.011585346 0.034303505 0.053773332 -0.09895441
-0.104494624 0.09123751 0.10657199 0.051540624 0.031556718 0.11012335 0.041255593 0.04206708
-0.11687759 -0.07619455 0.08391026 0.04557189 -0.08244387 0.15276845 0.056281015 0.0114030205
-0.012656602 0.063471876 -0.013818715 -0.09333615 -0.09053005 0.1363489 -0.12293259 0.065542266
-0.04313422 0.034920022 0.087108694 0.11125179 0.11241977 0.074768625 -0.04546288 0.06367775
-0.12156769 -0.06808914 -0.12260223 0.052279025 -0.025452867 0.00079355674 -0.08033351 -0.06443596
-0.010639635 -0.0378607 -0.098440565 -0.13682236 0.09130061 0.08157533 0.080452666 -0.12380856
-0.08263465 0.082611956 -0.08136107 -0.10855579 -0.14319138 0.038207166 -0.102006 -0.045455635
-0.054184582 0.039806083 -0.033320274 -0.043516267 0.00083140685 0.07330641 -0.049951293 -0.05569056
-0.15545641 -0.08776883 0.08477981 0.055189095 0.120603316 -0.025638979 -0.09299118 0.09340758
0.011871549 -0.05938198 0.07441916 -0.09075665 -0.11272265 -0.008828322 0.08150256 0.017649392
-0.109197885 0.09664553 -0.027456729 0.0009246482 -0.15473306 0.014393343 0.012644459 -0.017616378
0.08954542 0.0035897777 -0.048660666 0.13946593 0.14155291 0.08021551 0.078457795 -0.055067908
00000000: f81e b6bd 97f0 b53c cb7c 30be 039a 3f3d
00000010: 6c21 c3bd 428e d03c 5f12 babd 4caa 6d3c
00000020: 2d14 eabd c4a2 e3bd 212a d63c 80a3 e8bd
00000030: 993c 86bd a593 8f3d 3b46 d63d 73ca 2cbd
00000040: cfe1 c13d 8092 f8bd 3212 02bd 1aae 973d
00000050: 91fe 83bd a4d2 293d 9bcc 82bd 88e7 0d3e
00000060: 43d6 f1bd a073 28bd 8566 08be 03cc 9cbb
00000070: 9bb9 953d cb4b 09be 2707 a33b b7cb c9bd
00000080: 19d2 00bd 0a7b 6e3d b87d b0bc 03ff 0bbd
00000090: 6923 b53c a541 c23d 4796 a83d 836b 183c
000000a0: e4c9 99bd 94b0 4cbd 3475 3c3d 7d08 93bc
000000b0: 29d8 51bd 8088 953c 78b7 b03d c04f 64bd
000000c0: 8f84 813d ae69 54bd b9ef 95bd a6bf 2f3c
000000d0: 1635 4dbd 233c 6c3d 51a9 9d3b eecf 8fbd
000000e0: 2773 c43d 1df8 583d 9163 b33d 1dec cfbd
000000f0: efc0 6abd 1159 6abd 19e0 3fbd 0928 bd3d
00000100: 9f87 0e3e 68a9 bc3d 0f02 3b3d fa7c 753d
00000110: 44ec 913c a52f d4bd 2612 253d c2b6 913c
00000120: 638f 67bd b840 81bd 8e50 493d 3f96 1f3d
00000130: 5d35 083c 1428 3dbd 78e9 c0bd 4c2d a83d
00000140: 39cf e1bd d7d3 47bd b42a 50bb 56e6 103e
00000150: 5059 87bc 7202 533d cd29 4f3d 93b4 3fbe
00000160: 6e0a f03d 3320 b53d 0050 603d 360a a03c
00000170: 42a4 18be 987c d43c 13c8 9ebd a6e3 04be
00000180: c11a b5bd 9125 fabd 6028 acbd 246e 43be
00000190: 2c58 b6bd 0488 743d 28c4 093e 1bba 8ebd
000001a0: 0a70 13bd 97f5 223e e6f6 f0bd 73eb d3bc
000001b0: affc 4e3e 8230 6ebc 0e92 b1bd 1bad 0abd
000001c0: c102 1cbd 6ecc 683d 8c59 bd3b cf3e 20bd
000001d0: dc43 dcbc 3942 cbbc afff b83d c38d 98bd
000001e0: 920a c0bd 1488 aa3d 64f2 e73c dc0e c53d
000001f0: 1d13 fbbd 5ad3 5abd ba62 bebd e885 683d
00000200: 1288 43bd 176d b03d e520 10be c44a ca3c
00000210: f494 b43d 5ec3 933d 969a c03d 270c 0bbd
00000220: 2867 673d 1d1e a8bd 3541 febd ac65 ac3d
00000230: ae62 66bd 6872 c6bd b4ee 38bc e778 c63d
00000240: 3a7e fb3d d6f3 8fbc ace6 143e 1ca8 9e3d
00000250: 723f e4bd 5d68 4f3d a39a 3b3d 2ab1 aebd
00000260: 142f 92bd 7c4c babc c57f dd3b f208 92bd
00000270: 77d0 3d3c d581 0c3d 6d41 5c3d 9ca8 cabd
00000280: 4701 d6bd bbda ba3d 6a42 da3d 431c 533d
00000290: 9e41 013d 5a88 e13d a0fb 283d 884e 2c3d
000002a0: 855d efbd e30b 9cbd 24d9 ab3d 97a9 3a3d
000002b0: 55d8 a8bd 556f 1c3e ec86 663d bcd3 3a3c
000002c0: a35d 4fbc 8bfd 813d e467 62bc 0627 bfbd
000002d0: d267 b9bd 0c9f 0b3e 15c4 fbbd 063b 863d
000002e0: 82ad 30bd 4c08 0f3d 0b66 b23d fad7 e33d
000002f0: 563c e63d 4b20 993d 4937 3abd 7b69 823d
00000300: 7bf8 f8bd 5272 8bbd e116 fbbd 8822 563d
00000310: 8882 d0bc b106 503a e585 a4bd 00f7 83bd
00000320: dd51 2ebc d213 1bbd 359b c9bd 291b 0cbe
00000330: d0fb ba3d f710 a73d 5ec4 a43d 588f fdbd
00000340: 5b3c a9bd 7530 a93d a2a0 a6bd 7f52 debd
00000350: c3a0 12be 1e7f 1c3d 86e8 d0bd b02f 3abd
00000360: a7f0 5dbd b40b 233d d77a 08bd 1d3e 32bd
00000370: c5f2 593a ac21 963d ba99 4cbd c91b 64bd
00000380: f72f 1fbe 25c0 b3bd 09a1 ad3d f60d 623d
00000390: dffe f63d d608 d2bc 2972 bebd 794c bf3d
000003a0: e380 423c 853a 73bd 1369 983d 9fde b9bd
000003b0: 22db e6bd aba4 10bc d0ea a63d 7595 903c
000003c0: 24a3 dfbd 17ee c53d efec e0bc 1764 723a
000003d0: 5872 1ebe 0ed2 6b3c b42a 4f3c 3950 90bc
000003e0: 9763 b73d 7a42 6b3b 6850 47bd 28d0 0e3e
000003f0: 3ff3 103e 0848 a43d 7bae a03d e38e 61bd

cells.1.x2h.bias f4 [256]
0.0967996 0.05254975 0.0490686 0.002941571 -0.045769356 -0.09770892 -0.06469286 0.04386166
0.088621035 -0.009971594 0.023360554 -0.016388226 -0.09246388 -0.01784295 -0.05016931 0.16332296
0.06400095 -0.02234692 -0.012987941 0.0075505488 -0.10278499 0.055193342 0.012949613 -0.020509664
0.052751575 0.0921148 0.08902035 0.057690106 -0.03476438 0.024459895 -0.045510795 -0.071789905
0.040031314 0.10407718 0.022057092 0.12471451 -0.06252688 -0.012693631 0.07440003 -0.02165493
-0.03285707 0.09723905 0.13741694 -0.07032918 -0.048611462 0.099683315 0.11068264 0.12225828
0.026114969 0.10741165 0.055259276 0.06927881 -0.12081947 0.12768115 -0.025162688 0.06909346
0.113608554 0.16311343 0.003377951 0.042043336 0.08836183 0.06294993 -0.04251778 0.058412876
-0.047393505 0.02722034 -0.104029045 0.06190627 0.065896034 -0.014243361 0.13019067 0.005296672
-0.04795709 0.073238105 -0.045624014 0.032620814 -0.02949973 -0.01757337 0.05565994 0.076121755
-0.028406763 0.06627418 0.08858522 0.07602793 0.08505055 0.06572508 -0.049847264 0.06674529
-0.007938311 0.13209155 -0.08352614 0.081493706 -0.1002142 -0.10000529 0.08911759 0.00422819
0.07413618 -0.04279365 -0.06420484 -0.10291233 -0.103811614 -0.10251431 -0.014203416 0.0047652274
0.06126607 0.13144773 -0.009435754 -0.0135229565 0.012083633 -0.015401771 -0.1177046 0.019884659
-0.0071351775 0.08387807 -0.09935051 -0.0030587693 0.072042875 0.10258897 0.03275755 0.02474422
0.006247373 -0.06872767 0.018759362 -0.03701749 -0.07999043 -0.017136171 -0.11567701 0.08432233
-0.08158578 0.024095649 -0.0017654784 -0.024721636 -0.07002454 -0.06924539 0.12907751 0.06976736
-0.07313465 0.05462285 -0.100922674 -0.03424171 -0.041720618 -0.08471425 0.08560058 -0.06826121
-0.10009267 0.033280093 0.12678024 -0.0051859636 -0.031703603 0.047128856 -0.029711707 -0.01417444
0.056456156 -0.04341424 -0.016350804 -0.10641973 0.10793803 0.08550866 -0.090020515 -0.081979424
0.12408604 -0.106664896 0.014951358 -0.121496394 -0.016159015 0.09528622 0.05463431 -0.007937388
0.08976039 -0.11240732 -0.059176724 0.09580143 0.03972956 -0.035839017 -0.11059754 0.029372375
-0.07646688 0.028965883 0.09892192 -0.033833705 -0.0051430664 -0.015439257 0.09806852 0.08968808
0.07774932 -0.053180013 0.096895814 0.07263769 0.041024577 0.010507856 0.09775787 -0.10185165
0.031356156 0.011873238 0.10849555 -0.035220586 0.01678614 -0.02907328 0.071337454 -0.08913525
-0.072796635 -0.017071309 0.13306208 0.050461452 0.13862014 -0.0053344523 0.021294532 -0.05191026
-0.01009698 0.048243072 0.017652005 -0.080404416 0.03855619 0.026932096 0.0946705 0.11432264
0.060398076 0.020146228 0.07747259 -0.029897774 0.013920527 -0.096270606 0.12979196 -0.025914196
0.06035463 0.009347003 0.011910583 -0.024580413 -0.05734892 -0.039275087 0.031678353 -0.02480684
-0.112088546 -0.0338317 0.012852678 -0.051573403 -0.0793803 -0.11683835 -0.041548584 0.03688486
0.033657987 -0.03133243 -0.05333948 0.06018167 -0.037021775 -0.09637335 0.0500479 0.06476948
-0.061430413 0.00551548 0.0997668 -0.040328406 0.13772607 0.11255776 -0.014203197 0.04519654
00000000: de3e c63d 683e 573d 28fc 483d 5fc7 403b
00000010: a678 3bbd 9d1b c8bd b17d 84bd 49a8 333d
00000020: f27e b53d e65f 23bc a25e bf3c 9a40 86bc
00000030: b45d bdbd 612b 92bc 567e 4dbd 223e 273e
00000040: ee12 833d e310 b7bc 5fcb 54bc 986a f73b
00000050: f080 d2bd 6a12 623d 9d2a 543c e203 a8bc
00000060: 0912 583d afa6 bc3d 4d50 b63d 764c 6c3d
00000070: 1865 0ebd 1e60 c83c 8769 3abd 9606 93bd
00000080: e0f7 233d 6b26 d53d 13b1 b43c 526a ff3d
00000090: 180e 80bd f3f8 4fbc 0b5f 983d ae65 b1bc
000000a0: 2395 06bd 4425 c73d 07b7 0c3e bf08 90bd
000000b0: d01c 47bd c426 cc3d 94ad e23d 8d62 fa3d
000000c0: 0fef d53c a4fa db3d 8d57 623d 0ce2 8d3d
000000d0: 3370 f7bd d9be 023e fb21 cebc df80 8d3d
000000e0: 9aab e83d 3507 273e 9d60 5d3b a235 2c3d
000000f0: 0cf7 b43d e5eb 803d 2027 2ebd 5742 6f3d
00000100: b11f 42bd 31fd de3c 2e0d d5bd 6e91 7d3d
00000110: 80f4 863d fc5c 69bc b450 053e b58f ad3b
00000120: a76e 44bd dcfd 953d 3fe0 3abd 679d 053d
00000130: 6ba9 f1bc 07f6 8fbc adfb 633d b9e5 9b3d
00000140: 4db5 e8bc c2ba 873d 2b6c b53d 88b4 9b3d
00000150: fc2e ae3d df9a 863d a52c 4cbd c1b1 883d
00000160: b10f 02bc 0243 073e c10f abbd 2ce6 a63d
00000170: 1a3d cdbd 93cf ccbd 4883 b63d a18c 8a3b
00000180: b6d4 973d 6548 2fbd d47d 83bd b3c3 d2bd
00000190: 2f9b d4bd 06f3 d1bd 72b5 68bc a025 9c3b
000001a0: 21f2 7a3d 3c9a 063e 6c98 1abc 648f 5dbc
000001b0: 6efa 453c b657 7cbc 1c0f f1bd 27e5 a23c
000001c0: 35ce e9bb 44c8 ab3d 4878 cbbd a275 48bb
000001d0: 378b 933d 2a1a d23d c82c 063d 64b4 ca3c
000001e0: c3b6 cc3b 18c1 8cbd 3cad 993c a79f 17bd
000001f0: 06d2 a3bd 2861 8cbc 11e8 ecbd 30b1 ac3d
00000200: 7216 a7bd 3d64 c53c a067 e7ba 0785 cabc
00000210: 0769 8fbd 87d0 8dbd e52c 043e 31e2 8e3d
00000220: 9fc7 95bd 36bc 5f3d 8cb0 cebd 0941 0cbd
00000230: 3de3 2abd aa7e adbd 5b4f af3d 89cc 8bbd
00000240: 63fd ccbd b550 083d aed2 013e 04ef a9bb
00000250: a3db 01bd 300a 413d f765 f3bc e93b 68bc
00000260: 923e 673d 21d3 31bd 1ff2 85bc 96f2 d9bd
00000270: 9d0e dd3d 2a1f af3d ad5c b8bd d4e4 a7bd
00000280: d220 fe3d 2073 dabd 8af6 743c 1ad3 f8bd
00000290: e95f 84bc 6c25 c33d 3ac8 5f3d d10b 02bc
000002a0: 4cd4 b73d cf35 e6bd 4b63 72bd 8a33 c43d
000002b0: 77bb 223d efcb 12bd f780 e2bd 569e f03c
000002c0: ab9a 9cbd dc49 ed3c 9397 ca3d 3695 0abd
000002d0: 2b87 a8bb f0f4 7cbc 26d8 c83d 62ae b73d
000002e0: 093b 9f3d 49d3 59bd 5071 c63d 12c3 943d
000002f0: 6309 283d 2429 2c3c 4735 c83d 9997 d0bd
00000300: 506f 003d f887 423c ea32 de3d 7643 10bd
00000310: 1683 893c 162b eebc 5f19 923d 8b8c b6bd
00000320: 6716 95bd 21d9 8bbc 6d41 083e abb0 4e3d
00000330: 70f2 0d3e a1cc aebb df71 ae3c da9f 54bd
00000340: ce6d 25bc 879a 453d f09a 903c 12ab a4bd
00000350: 18ed 1d3d b3a0 dc3c 9be2 c13d fd21 ea3d
00000360: f963 773d b409 a53c f3a9 9e3d 2dec f4bc
00000370: ec12 643c 8629 c5bd 2fe8 043e 024a d4bc
00000380: 6b36 773d 2c24 193c 9b24 433c dd5c c9bc
00000390: b3e6 6abd eade 20bd 29c1 013d b737 cbbc
000003a0: ae8e e5bd 1c93 0abd 0a94 523c a23e 53bd
000003b0: 2492 a2bd f248 efbd d92e 2abd 9414 173d
000003c0: f5dc 093d 6f56 00bd 807a 5abd 0e81 763d
000003d0: 25a4 17bd 645f c5bd 07ff 4c3d dca5 843d
000003e0: 759e 7bbd 33bb b43b 8952 cc3d 662f 25bd
000003f0: 1008 0d3e af84 e63d 87b4 68bc 0220 393d

cells.1.h2h.weight f4 [256, 64]
-0.10100211 0.12986833 0.044747226 0.07378178 0.13718273 -0.104826055 0.0022193315 0.009544439
-0.026842952 -0.023127422 -0.04187088 -0.14269511 0.09274476 -0.06036666 -0.071057305 0.05318897
-0.057876207 -0.09552856 -0.14305885 -0.024686785 -0.056441784 0.092036456 0.031788502 0.077840924
-0.11977598 0.09914768 0.11962938 -0.03143758 0.105328776 0.1476344 0.093264304 -0.009632982
-0.11970052 -0.03833327 0.038303137 0.10453369 0.04094559 0.069426715 0.08230784 0.040226962
0.013169624 0.062134773 0.037705977 -0.0749731 0.107267834 -0.05077557 -0.09887655 -0.050587308
-0.0883192 0.020505065 -0.01314477 0.081393816 -0.05083634 -0.10293352 0.12235179 0.051956754
-0.03620085 0.08983047 -0.052141406 -0.043194257 -0.010602826 0.043849874 0.140245 0.0871189
0.073603824 0.06687121 0.016163215 0.055237714 0.07188362 -0.014323371 0.18208884 -0.009289421
-0.1321716 -0.098859176 0.021395177 -0.018643027 -0.0602983 -0.021663234 -0.13811438 -0.017037671
0.06073993 -0.04204727 0.064781584 -0.068852715 0.050236143 -0.04313251 -0.039335668 0.18216561
0.06439029 -0.042729497 0.036099087 -0.07113067 -0.11744558 -0.043346737 0.14039598 0.05694773
-0.058436863 -0.07376162 0.014101447 -0.09913805 -0.021746667 -0.057535432 0.08190738 -0.05511493
-0.019013643 0.13572814 -0.051874723 0.02619665 -0.045368444 0.039073505 0.09513308 -0.08051716
0.090146154 -0.029871691 0.046828967 0.12952389 -0.085011914 0.037427 -0.052969992 -0.106184
-0.024248164 -0.09046481 -0.055487256 -0.07664654 0.14114793 0.12465677 -0.10691787 -0.06605517
0.047920916 0.14391695 -0.0042365184 0.12708065 0.027564865 0.007673585 0.08136817 0.06127039
-0.1478064 -0.0069336696 -0.14762796 -0.003999745 0.09873926 0.026007915 0.0862484 0.10203295
0.12868704 -0.07849834 0.05484098 0.11102799 -0.11044786 -0.035565626 0.09657207 -0.022396851
0.07329299 -0.028288122 0.027711442 -0.107094765 0.101268634 0.12389331 0.08978156 -0.06637843
-0.018486293 0.028742809 0.074097075 -0.026060693 -0.11733252 0.05744544 -0.005372816 0.0024479988
0.030952426 0.0615063 0.10297947 -0.028114619 -0.074730225 -0.091292314 0.10955088 -0.08694845
-0.029438669 -0.06755095 -0.020966748 0.095243946 0.10384458 -0.10413237 -0.032105446 0.04449749
-0.03682624 0.11391464 0.03537635 0.074887745 -0.06028758 0.016745131 0.09917515 -0.09461374
-0.11290862 0.124773234 0.118207864 0.03736398 0.12877928 0.055971794 -0.083355814 0.13769947
-0.10548527 -0.062007748 -0.022790197 0.0012810125 -0.031530105 0.0030387836 0.085488 -0.085151315
-0.053045966 -0.023077201 -0.06761711 0.05010952 -0.019329114 0.056062818 -0.069793664 0.10362587
-0.14601356 0.055100344 -0.0047820383 -0.08246584 -0.076810025 -0.08503198 -0.1420785 -0.040731262
-0.04687523 0.12819485 -0.12129022 0.06207167 0.027258944 0.07826256 0.10196337 0.10944947
-0.05684042 -0.07802378 -0.035356667 0.066504605 -0.020784266 0.01068817 -0.082245335 0.11530431
0.08413204 0.12217026 0.11381632 0.014501614 -0.055065017 -0.028221855 0.10407098 0.049842186
0.09722924 -0.044284888 0.034745436 0.076968804 0.01406256 -0.07560019 0.12536818 0.02755873
00000000: 32da cebd 34fc 043e de48 373d e71a 973d
00000010: a179 0c3e 0baf d6bd 3472 113b 4760 1c3c
00000020: c0e5 dbbc b875 bdbc cd80 2bbd ab1e 12be
00000030: f7f0 bd3d 0843 77bd 7e86 91bd addc 593d
00000040: 9a0f 6dbd 7aa4 c3bd 057e 12be f13b cabc
00000050: 802f 67bd 9c7d bc3d a934 023d 106b 9f3d
00000060: 1c4d f5bd f00d cb3d 4000 f53d b1c4 00bd
00000070: 9db6 d73d 792d 173e 5b01 bf3d a8d3 1dbc
00000080: 8c25 f5bd 5903 1dbd c0e3 1c3d c215 d63d
00000090: 90b6 273d 982f 8e3d 0391 a83d 07c5 243d
000000a0: 68c5 573c 0881 7e3d 9571 1a3d 7f8b 99bd
000000b0: 3daf db3d 0bfa 4fbd ca7f cabd a334 4fbd
000000c0: b2e0 b4bd 3dfa a73c 295d 57bc cdb1 a63d
000000d0: c439 50bd cfce d2bd 9393 fa3d 9bd0 543d
000000e0: 5847 14bd 0af9 b73d 3a92 55bd 76ec 30bd
000000f0: 7ab7 2dbc ed9b 333d 639c 0f3e 656b b23d
00000100: 9abd 963d c6f3 883d b868 843c f140 623d
00000110: b837 933d 93ac 6abc 7f75 3a3e a832 18bc
00000120: fe57 07be ae76 cabd f044 af3c 43b9 98bc
00000130: 5afb 76bd 1877 b1bc db6d 0dbe 9692 8bbc
00000140: 6fca 783d c239 2cbd 35ac 843d a702 8dbd
00000150: 6ac4 4d3d b7ab 30bd 701e 21bd 9f89 3a3e
00000160: 0edf 833d 2005 2fbd a3dc 133d f5ac 91bd
00000170: 4f87 f0bd 598c 31bd f7c3 0f3e 0642 693d
00000180: 7e5b 6fbd 5510 97bd c109 673c e408 cbbd
00000190: 1126 b2bc 46aa 6bbd 0ebf a73d 31c0 61bd
000001a0: 80c2 9bbc 51fc 0a3e 977a 54bd 5b9a d63c
000001b0: 43d4 39bd 8a0b 203d 22d5 c23d 2ee6 a4bd
000001c0: 8c9e b83d 7ab5 f4bc bbcf 3f3d e9a1 043e
000001d0: ba1a aebd 0e4d 193d 10f7 58bd ff76 d9bd
000001e0: 16a4 c6bc 9d45 b9bd 9b46 63bd dcf8 9cbd
000001f0: 1589 103e 0c4c ff3d c2f7 dabd ef47 87bd
00000200: b948 443d f75e 133e 7ed2 8abb 6e21 023e
00000210: b6cf e13c b272 fb3b 5ba4 a63d a9f6 7a3d
00000220: 905a 17be d633 e3bb c92b 17be 4b10 83bb
00000230: cf37 ca3d 8d0e d53c 00a3 b03d a7f6 d03d
00000240: 89c6 033e bdc3 a0bd efa0 603d a562 e33d
00000250: 7d32 e2bd 43ad 11bd 94c7 c53d 9a79 b7bc
00000260: a31a 963d 7ebc e7bc 1b03 e33c 8054 dbbd
00000270: ee65 cf3d c7bb fd3d 65df b73d 6af1 87bd
00000280: 9170 97bc 0a76 eb3c 35c0 973d 3c7d d5bc
00000290: 084c f0bd e94b 6b3d 730e b0bb 9b6e 203b
000002a0: f18f fd3c 08ee 7b3d e6e6 d23d a150 e6bc
000002b0: 290c 99bd 77f7 babd 365c e03d 0712 b2bd
000002c0: 5d29 f1bc 2758 8abd 75c2 abbc 420f c33d
000002d0: 78ac d43d 5a43 d5bd 0081 03bd 0043 363d
000002e0: 1dd7 16bd 144c e93d cbe6 103d bf5e 993d
000002f0: 1cf0 76bd 162d 893c 571c cb3d d9c4 c1bd
00000300: a23c e7bd 1c89 ff3d f716 f23d f90a 193d
00000310: b7de 033e ae42 653d 74b6 aabd 1701 0d3e
00000320: a908 d8bd d6fb 7dbd 82b2 babc a6e7 a73a
00000330: b625 01bd 5426 473b 5514 af3d d063 aebd
00000340: ba46 59bd 660c bdbc d77a 8abd a43f 4d3d
00000350: 1758 9ebc 20a2 653d fbef 8ebd cd39 d43d
00000360: 9484 15be e6b0 613d a5b2 9cbb dae3 a8bd
00000370: 934e 9dbd 3f25 aebd 077d 11be d3d5 26bd
00000380: 3e00 40bd 8345 033e 0267 f8bd dd3e 7e3d
00000390: 264e df3c 1f48 a03d 2cd2 d03d 0b27 e03d
000003a0: 80d1 68bd eeca 9fbd 27d2 10bd 9133 883d
000003b0: c443 aabc 6f1d 2f3c 3e70 a8bd ab24 ec3d
000003c0: 6b4d ac3d 6734 fa3d 8818 e93d 2d98 6d3c
000003d0: db8b 61bd 8531 e7bc 2a23 d53d 5227 4c3d
000003e0: 2020 c73d 1264 35bd 3b51 0e3d d2a1 9d3d
000003f0: a766 663c 46d4 9abd 8460 003e d9c2 e13c

cells.1.h2h.bias f4 [256]
0.02639313 0.036714632 0.03787045 0.054164007 0.11021092 -0.12901631 0.02177031 0.06443293
0.032478422 0.12950964 -0.064014025 -0.0294486 0.037900515 0.10321904 0.10303851 0.022210004
0.10095194 -0.0828702 0.045710895 -0.04567718 0.058389664 0.07036455 0.068201184 -0.065414384
-0.04088531 0.105744235 -0.033330206 0.037971083 0.10846179 -0.029364083 0.08905867 0.021278722
0.106242746 -0.031250354 0.020678943 -0.03487429 -0.03568848 0.06564615 0.11103285 -0.06326957
-0.030014597 -0.008099135 0.08875506 -0.09489402 -0.09180475 -0.07491921 0.030608406 -0.01036308
-0.025404153 0.03396821 0.048420094 -0.021625426 0.037298296 0.14284693 -0.11980738 0.09979095
-0.10331142 0.11909177 0.07842775 0.021050338 0.025228601 0.008235078 -0.05094582 0.11476535
0.09490883 -0.06352387 0.084341764 0.093264 0.12051271 0.061770402 0.063795626 0.088085674
-0.035729114 0.030651547 -0.073330864 -0.039425794 -0.07761025 -0.028411796 0.040832706 -0.019259818
0.085808866 0.07792403 0.10016031 0.01757537 0.056748126 0.022115657 -0.08671146 0.06723059
-0.03076427 -0.05045594 0.1355811 -0.06262968 -0.085383326 -0.10559919 0.047945224 -0.0030407286
0.12793641 0.08301277 0.13658902 0.058859725 0.034027122 0.046658646 0.0184092 0.116937436
0.121139266 -0.088383384 -0.08788872 0.07499849 -0.115611225 -0.070727795 0.07152569 -0.047567096
0.07161563 -0.05488817 0.092736915 -0.09524112 0.08568176 -0.054271564 0.0764877 -0.08621938
-0.07074559 0.06616131 0.09955209 -0.01905483 0.03149773 -0.01663842 0.095489316 0.12240998
-0.09198311 0.08016475 -0.00859077 0.06458626 -0.039943248 -0.05362517 -0.093417026 -0.04208247
-0.05053108 -0.05884628 0.06677605 0.036629837 0.013777754 -0.10821135 0.013708839 0.0061978237
0.071854256 0.0065957317 -0.096880876 -0.09331561 0.002784543 -0.075844906 -0.08418745 0.05811936
-0.060276132 -0.06974135 0.12548493 -0.11608079 -0.1297652 -0.05613317 0.03287849 0.06941274
-0.060938388 0.04928317 -0.055694766 0.07207911 -0.006847324 0.0668883 0.12925315 0.078786224
0.031613912 0.12985182 0.01498672 -0.0058471765 0.044158004 0.10249135 -0.024543006 0.033429544
-0.020463279 -0.012852766 0.08828544 0.115250595 0.03278129 -0.02221874 0.06829749 0.006665184
-0.117879026 -0.093311176 -0.03988505 0.02832478 -0.01926037 -0.0074759447 0.080893435 0.034303166
-0.06365881 0.086574286 -0.06533299 0.11795202 0.12623046 0.021251507 -0.0719315 -0.07275132
-0.08028724 -0.047135096 -0.09860535 0.0813107 -0.050916027 0.0043098195 0.09313189 0.12274545
0.13334459 -0.06924895 0.034506507 -0.008372034 0.045995176 0.06949001 0.13064888 -0.08915473
-0.054320857 0.14191452 0.108034216 0.030901225 0.12192012 0.054673508 0.015965577 0.0738754
0.15716349 -0.03367691 0.06618734 -0.026412541 -0.06957192 0.1266326 0.09060788 0.02352856
-0.0727418 0.13720737 0.025078591 -0.038823172 0.08029464 0.082954735 -0.10622257 -0.080858424
-0.08856776 0.006502224 -0.038396552 0.11673625 0.099741176 0.008068077 0.080620594 -0.05036184
0.09062068 0.015037759 -0.04096361 -0.09916738 0.045685057 0.044924427 -0.06238318 -0.08675991
00000000: 6836 d83c 1562 163d 0c1e 1b3d 14db 5d3d
00000010: 43b6 e13d da1c 04be a657 b23c 69f5 833d
00000020: 1808 053d 2d9e 043e c919 83bd 313e f1bc
00000030: 923d 1b3d 8164 d33d db05 d33d c1f1 b53c
00000040: e4bf ce3d dab7 a9bd 593b 3b3d ff17 3bbd
00000050: 002a 6f3d 4a1b 903d 10ad 8b3d faf7 85bd
00000060: 5b77 27bd 6f90 d83d 4185 08bd 9187 1b3d
00000070: 3721 de3d f28c f0bc 6464 b63d b750 ae3c
00000080: cc95 d93d 5f00 00bd e366 a93c 58d8 0ebd
00000090: 152e 12bd 7d71 863d 3165 e33d 7a93 81bd
000000a0: 2ce1 f5bc 3cb2 04bc 37c5 b53d cc57 c2bd
000000b0: 2104 bcbd 3e6f 99bd 7bbe fa3c e8c9 29bc
000000c0: 5f1c d0bc 4022 0b3d 2654 463d ce27 b1bc
000000d0: 19c6 183d 7746 123e 925d f5bd 335f cc3d
000000e0: f094 d3bd 63e6 f33d ba9e a03d c271 ac3c
000000f0: 36ac ce3c 6cec 063c 90ac 50bd 190a eb3d
00000100: 905f c23d ce18 82bd 60bb ac3d 3201 bf3d
00000110: 5ecf f63d f602 7d3d 48a7 823d 4366 b43d
00000120: b158 12bd f418 fb3c 7e2e 96bd f17c 21bd
00000130: 1ff2 9ebd dbbf e8bc 3240 273d c4c6 9dbc
00000140: 8fbc af3d a296 9f3d d920 cd3d 39fa 8f3c
00000150: b970 683d e52b b53c c795 b1bd 31b0 893d
00000160: 5a05 fcbc e3aa 4ebd c6d5 0a3e fd43 80bd
00000170: 74dd aebd 6344 d8bd 3662 443d f646 47bb
00000180: c301 033e 9902 aa3d fedd 0b3e e516 713d
00000190: 0660 0b3d 231d 3f3d e4ce 963c e57c ef3d
000001a0: dd17 f83d 5902 b5bd 00ff b3bd cf98 993d
000001b0: 94c5 ecbd bcd9 90bd 107c 923d b7d5 42bd
000001c0: 37ab 923d 6bd2 60bd daec bd3d c70d c3bd
000001d0: eb79 af3d dc4b 5ebd 95a5 9c3d c993 b0bd
000001e0: 10e3 90bd 957f 873d f7e1 cb3d e018 9cbc
000001f0: c403 013d 4c4d 88bc e78f c33d 15b2 fa3d
00000200: a461 bcbd 6b2d a43d 4dc0 0cbc cd45 843d
00000210: 889b 23bd 11a6 5bbd 6d51 bfbd ab5e 2cbd
00000220: aef9 4ebd cc08 71bd e2c1 883d 2b09 163d
00000230: 17bc 613c ea9d ddbd 0a9b 603c 1d17 cb3b
00000240: 5328 933d 0221 d83b 7b69 c6bd 411c bfbd
00000250: e17c 363b 9354 9bbd 786a acbd 910e 6e3d
00000260: 1be4 76bd 8ed4 8ebd 1f7f 003e c4bb edbd
00000270: 2be1 04be e5eb 65bd 98ab 063d 4428 8e3d
00000280: 889a 79bd 26dd 493d 3220 64bd 369e 933d
00000290: 845f e0bb bcfc 883d f05a 043e ac5a a13d
000002a0: 977d 013d e0f7 043e dc8a 753c ac99 bfbb
000002b0: 06df 343d fce6 d13d 6a0e c9bc 6bed 083d
000002c0: 9ba2 a7bc 6894 52bc ffce b43d 8108 ec3d
000002d0: ad45 063d 1304 b6bc 8edf 8b3d 9e67 da3b
000002e0: 8f6a f1bd ee19 bfbd 825e 23bd 5e09 e83c
000002f0: ecc7 9dbc c5f8 f4bb 75ab a53d 7a81 0c3d
00000300: 8d5f 82bd dc4d b13d 4dcd 85bd d490 f13d
00000310: 8f42 013e a417 ae3c d350 93bd a5fe 94bd
00000320: a36d a4bd bb10 41bd 9af1 c9bd 3986 a63d
00000330: 538d 50bd 6339 8d3b efbb be3d f761 fb3d
00000340: 7c8b 083e 65d2 8dbd b256 0d3d db2a 09bc
00000350: 7065 3c3d c750 8e3d d2c8 053e c196 b6bd
00000360: 8c7f 5ebd 0a52 113e 0b41 dd3d 9124 fd3c
00000370: 42b1 f93d 54f1 5f3d 3eca 823c fc4b 973d
00000380: 77ef 203e cdf0 09bd 3a8d 873d 1d5f d8bc
00000390: b97b 8ebd faab 013e a090 b93d f7be c03c
000003a0: a7f9 94bd 1780 0c3e 9e71 cd3c 0c05 1fbd
000003b0: 8471 a43d 2ce4 a93d 388b d9bd 1a99 a5bd
000003c0: 0463 b5bd 9c10 d53b b445 1dbd 6a13 ef3d
000003d0: 1a45 cc3d f82f 043c 691c a53d 3748 4ebd
000003e0: 5697 b93d ef60 763c 75c9 27bd 4418 cbbd
000003f0: 4120 3b3d ad02 383d 8185 7fbd 2eaf b1bd
