model_group/models_group_demand/LSTM_model_QUEENS_CROSS BAY BOULEVARD.pth (torch, 351220 bytes, 17 tensors)

input_projection.weight f4 [2, 2]
0.34177226 0.5877947 0.21025477 -0.5822448
00000000: c6fc ae3e b779 163f 074d 573e ff0d 15bf

input_projection.bias f4 [2]
-0.31163222 0.31622604
00000000: 428e 9fbe 61e8 a13e

cells.0.x2h.weight f4 [256, 2]
0.56823826 -0.07331863 0.780086 0.5567781 -0.26432794 -0.62920547 0.7684033 0.52704644
0.088415705 0.6345111 -0.5712164 0.025585717 0.4045469 0.7271169 -0.7394884 -0.42252374
0.27434233 -0.6594994 -0.59231305 0.74013454 -0.66517305 -0.0843067 0.47419024 -0.48877132
0.40304562 -0.544683 0.017880753 0.5612726 -0.15181333 -0.45233607 0.00899374 0.6328968
-0.123163596 -0.73320454 -0.5404179 -0.3987473 0.38900754 -0.6022068 -0.24720027 0.5871741
0.54978883 0.67573625 -0.48932853 0.5427223 -0.015949277 0.13089457 0.21539761 -0.11815907
-0.07058367 -0.20705488 0.12844346 0.047278147 -0.33229595 -0.32957238 -0.39802027 0.63151544
0.39199594 0.69596255 -0.66056824 -0.28809348 -0.6936752 0.13466388 -0.6272827 -0.4360975
-0.38880593 -0.20392306 -0.52446884 -0.40123823 0.5549051 0.5935494 0.5376658 0.33361885
0.05422618 -0.4874512 0.707251 0.76357573 -0.28563082 0.76031125 0.63949656 0.39954466
-0.65322894 -0.1974209 -0.7580222 -0.4332593 0.4258048 0.075220816 0.46681157 -0.0025747053
0.21875308 0.28743923 -0.07973647 -0.15166736 0.43347162 0.002208675 0.31850803 0.040689502
-0.6078989 0.74767417 0.6035494 0.00041995902 0.21598251 0.51436543 0.46581802 -0.26478058
0.17578672 -0.46264043 -0.1658056 0.4490325 0.1887004 -0.5553773 -0.4662258 -0.0071525862
-0.6745976 0.56483656 -0.44395003 0.5827501 0.7304036 -0.4479905 0.00935674 -0.24109183
0.65951556 -0.4166816 -0.7620256 0.00067004416 0.54074293 -0.47486106 -0.29962417 -0.19854838
-0.2255817 0.5831754 0.35350308 -0.2348838 -0.021108482 -0.7371761 0.37083507 0.2323001
0.6437795 0.39321533 0.364566 -0.0184902 0.76008064 0.013603142 -0.29634562 -0.6315549
0.39463076 0.43325785 -0.1540441 -0.23639154 0.4811716 0.2671871 -0.22355857 -0.44996086
-0.5979999 0.56707805 0.72659004 0.54338074 -0.7177767 -0.08225653 -0.19859579 0.21949664
-0.53057754 -0.13868636 -0.33925912 0.55539376 -0.57502717 -0.37771654 0.24489456 -0.14409494
0.24086861 -0.00503185 0.72263396 0.40437293 0.08398085 -0.3059825 0.35918954 -0.015719857
0.36716816 -0.18576998 -0.1981942 -0.34632412 -0.6265713 -0.6263011 0.69161594 0.0047974843
-0.04495311 -0.5716869 -0.7028362 -0.20414111 -0.26154628 -0.2762848 0.59108293 0.06982674
0.60801214 0.56980115 -0.03574601 0.4360028 0.24817751 -0.6417653 0.58197194 0.0713764
0.44762146 0.15890437 0.55191517 -0.33533818 0.6700054 0.60531425 -0.37995294 0.38814482
-0.4526866 0.07320923 -0.6593943 -0.39959168 0.06576737 -0.49593645 -0.26343232 -0.02934548
-0.4797445 -0.30315813 -0.14499474 0.38875252 0.46973005 -0.75912213 0.42017153 0.1427364
-0.252781 0.12089025 0.31692085 -0.118403256 -0.14427043 -0.22622398 0.48652238 0.62886655
0.03872068 0.564619 0.21616772 0.65604377 0.6350163 -0.18601209 -0.44291234 -0.025013808
0.4494497 -0.50924146 -0.26133865 -0.1172098 0.41562912 0.10871572 -0.6461311 -0.28499538
0.046344057 -0.30775687 0.5629617 -0.6299961 -0.26074174 0.4191665 -0.04029011 -0.32262832
00000000: 1078 113f 1428 96bd b7b3 473f 0289 0e3f
00000010: fe55 87be 9c13 21bf 14b6 443f 84ec 063f
00000020: 4b13 b53d 526f 223f 3d3b 12bf 2399 d13c
00000030: c520 cf3e 5524 3a3f 1d4f 3dbf 0855 d8be
00000040: 9976 8c3e f4d4 28bf d4a1 17bf 7579 3d3f
00000050: c848 2abf fea8 acbd 10c9 f23e 3c40 fabe
00000060: ff5b ce3e 5870 0bbf a87a 923c 90af 0f3f
00000070: f474 1bbe 9898 e7be 7b5a 133c 8605 223f
00000080: 323d fcbd 4bb3 3bbf d458 0abf 9b28 ccbe
00000090: ff2b c73e 3a2a 1abf 1122 7dbe 0b51 163f
000000a0: f6be 0c3f 0dfd 2c3f 4589 fabe d9ef 0a3f
000000b0: 0fa8 82bc 3a09 063e 3191 5c3e 62fd f1bd
000000c0: 2c8e 90bd 3206 54be af86 033e bba6 413d
000000d0: b222 aabe b6bd a8be 50c9 cbbe ffaa 213f
000000e0: b1b3 c83e 9a2a 323f 001b 29bf fd80 93be
000000f0: b394 31bf 54e5 093e 9995 20bf 2c48 dfbe
00000100: 9211 c7be 35d1 50be 9743 06bf 196f cdbe
00000110: 430e 0e3f daf2 173f 77a4 093f 17d0 aa3e
00000120: 451c 5e3d 3493 f9be 670e 353f b379 433f
00000130: 343e 92be c2a3 423f 0cb6 233f 1e91 cc3e
00000140: 033a 27bf b428 4abe be0d 42bf 2ad4 ddbe
00000150: 1603 da3e 5f0d 9a3d ed01 ef3e 63bc 28bb
00000160: cf00 603e 3c2b 933e e04c a3bd b04e 1bbe
00000170: feef dd3e 6bbf 103b 7c13 a33e 09aa 263d
00000180: 439f 1bbf 9367 3f3f 3782 1a3f f22d dc39
00000190: 852a 5d3e 74ad 033f b37f ee3e 5291 87be
000001a0: 6f01 343e 35df ecbe f1c8 29be 96e7 e53e
000001b0: ad3a 413e 352d 0ebf 26b5 eebe 3e60 eabb
000001c0: 6eb2 2cbf 2199 103f 6b4d e3be 1c2f 153f
000001d0: bbfb 3a3f 035f e5be 034d 193c c7e0 76be
000001e0: 03d6 283f 4a57 d5be 1c14 43bf e7a5 2f3a
000001f0: 216e 0a3f fd20 f3be 5768 99be 4450 4bbe
00000200: e4fe 66be fc4a 153f 5bfe b43e 6185 70be
00000210: b2eb acbc 93b7 3cbf 18de bd3e 14e0 6d3e
00000220: bcce 243f 8553 c93e 65a8 ba3e c378 97bc
00000230: a594 423f b7df 5e3c 9dba 97be 95ad 21bf
00000240: 0b0d ca3e f9d3 dd3e bdbd 1dbe a010 72be
00000250: 205c f63e bfcc 883e 8aec 64be 4561 e6be
00000260: 8516 19bf 072c 113f ce01 3a3f 001b 0b3f
00000270: 37c0 37bf 1d76 a8bd b25c 4bbe bac3 603e
00000280: eed3 07bf cc03 0ebe 5fb3 adbe 492e 0e3f
00000290: fb34 13bf 1064 c1be a4c5 7a3e a08d 13be
000002a0: 43a6 763e 38e2 a4bb 8afe 383f f809 cf3e
000002b0: 27fe ab3d bda9 9cbe b1e7 b73e eec6 80bc
000002c0: 77fd bb3e 7c3a 3ebe 6cf3 4abe 6551 b1be
000002d0: fa66 20bf 4555 20bf be0d 313f 3734 9d3b
000002e0: c120 38bd 135a 12bf 13ed 33bf 5e0a 51be
000002f0: 65e9 85be 3475 8dbe 3651 173f 5201 8f3d
00000300: afa6 1b3f 7dde 113f 686a 12bd c23b df3e
00000310: 3f22 7e3e bb4a 24bf 1dfc 143f ca2d 923d
00000320: a42e e53e d4b7 223e 504a 0d3f 72b1 abbe
00000330: 7985 2b3f e0f5 1a3f 3189 c2be ebba c63e
00000340: 8ac6 e7be b9ee 953d 11ce 28bf 4897 ccbe
00000350: 0bb1 863d 62eb fdbe 9ae0 86be ef65 f0bc
00000360: 12a1 f5be 8b37 9bbe 8079 14be 920a c73e
00000370: 7580 f03e d455 42bf b920 d73e 7e29 123e
00000380: 836c 81be 4f95 f73d 7343 a23e 687d f2bd
00000390: a1bb 13be 42a7 67be 7619 f93e 66fd 203f
000003a0: 9399 1e3d df8a 103f 125b 5d3e 7cf2 273f
000003b0: 6e90 223f f479 3ebe 68c5 e2be c2e9 ccbc
000003c0: 451e e63e a65d 02bf 2ece 85be b10b f0bd
000003d0: 57cd d43e 59a6 de3d d968 25bf eaea 91be
000003e0: 44d3 3d3d 4f92 9dbe 421e 103f 6d47 21bf
000003f0: f17f 85be fe9c d63e 3e07 25bd 8a2f a5be

cells.0.x2h.bias f4 [256]
-0.12654065 0.34585503 -0.56036377 0.5254837 -0.34768036 0.21282806 0.5501603 0.6016524
-0.12645516 -0.078019604 0.24798657 -0.39348078 0.15074521 0.011049137 -0.035186224 0.44358054
0.004117035 0.67794 -0.64360565 -0.6499647 0.18344453 -0.5962194 -0.056912184 -0.5509831
-0.61482745 0.1539012 0.082703836 -0.24284163 0.07583173 0.14448452 -0.6899048 -0.3817634
-0.36222312 -0.60830414 0.47622302 -0.52694905 -0.32066166 -0.12248302 -0.62126887 -0.37984622
0.61218965 0.013780074 0.40392065 0.6654975 0.5642012 -0.063465774 -0.30512464 -0.11514348
0.6491295 0.5557185 0.50815856 -0.4664315 -0.62280035 0.42576873 0.5489198 0.7030392
-0.5136758 0.54375905 -0.5581036 0.5461188 0.4818567 -0.14611864 -0.49573696 0.6806154
0.48179752 0.24052046 -0.3460807 0.44980222 -0.08447523 0.62436473 -0.52187747 0.46367872
-0.29974252 -0.024378704 -0.03514448 -0.4233806 -0.01663305 -0.176399 -0.66460365 -0.39342505
-0.04884831 -0.29329836 -0.39055836 -0.6253556 0.52080745 0.46570387 0.6514843 0.20482232
0.14344734 -0.16127501 -0.47696248 0.42824915 0.5877448 0.63977414 -0.028898364 -0.35390824
-0.23378561 0.10601792 0.36515465 -0.6742813 0.27244377 -0.6102038 0.19703543 -0.23904543
-0.5709427 0.26887706 -0.65875894 -0.2585708 0.37012297 -0.26291385 -0.40456915 0.2261068
0.58414704 0.42138666 0.4582643 0.16312544 0.14754857 -0.6947556 0.4857608 0.2019456
-0.22597513 0.11856953 -0.116463065 0.019024258 0.38878965 0.39110944 -0.5172181 -0.06308087
-0.30480078 -0.06721768 0.29156348 0.061659764 0.6790969 -0.1454138 -0.5550221 -0.26341397
-0.48185602 -0.2993418 0.54714614 -0.3953004 -0.11804726 -0.27319512 -0.290616 -0.5088589
-0.099013135 0.509179 -0.64625233 0.44268554 0.652353 -0.63404983 -0.012852478 -0.50087696
-0.017578105 -0.5559163 0.31256604 0.52655256 -0.34473386 -0.33632758 -0.6520946 -0.5700218
0.06085827 0.12323636 0.14451858 -0.5864174 -0.52697885 -0.08887316 0.090011306 -0.5522108
-0.6245142 -0.06384501 0.544859 -0.13430887 -0.4339757 -0.13106857 0.14146183 -0.37049434
-0.23593695 -0.22686169 -0.26782757 0.5952452 -0.6953234 -0.027261643 0.47642532 -0.1488276
0.67527837 -0.39120632 -0.56608266 -0.5662851 -0.4535233 -0.26521724 0.02647623 0.64007413
0.19843118 0.15704769 -0.44431445 0.2010351 0.38419852 -0.52019495 -0.19733898 -0.09408814
-0.63579065 -0.46657965 0.5806795 0.4833734 0.0565469 0.41300312 0.25524533 -0.5813054
0.76103055 -0.7373226 0.7003672 0.23962466 -0.25697345 0.034345582 -0.013180623 -0.25363943
-0.10519606 0.15191928 -0.29272196 0.061808802 -0.36123362 -0.043115668 -0.36970493 -0.33671755
0.7140009 -0.4875555 0.32509354 -0.591822 0.6155863 0.4294663 0.38642538 0.62090933
0.12217705 -0.21468551 0.5937534 -0.10293969 0.4635466 0.25194678 0.59203154 0.43489686
-0.17410478 -0.5569733 0.1863326 -0.10943811 -0.3605817 0.19809133 -0.41979834 0.20834416
-0.21332218 -0.24426262 -0.020762201 0.6080893 -0.23867325 -0.15397383 0.0017119048 -0.28821236
00000000: df93 01be e913 b13e 0074 0fbf 1a86 063f
00000010: 2903 b2be 99ef 593e 4ed7 0c3f e405 1a3f
00000020: 767d 01be bec8 9fbd 31f0 7d3e 5076 c9be
00000030: f45c 1a3e 7107 353c 6e1f 10bd fd1c e33e
00000040: 31e8 863b 7a8d 2d3f 57c3 24bf 1664 26bf
00000050: e2d8 3b3e d6a1 18bf c01c 69bd 3a0d 0dbf
00000060: 5565 1dbf 4798 1d3e a160 a93d 7aab 78be
00000070: ab4d 9b3d c0f3 133e 9a9d 30bf 7e76 c3be
00000080: 4f75 b9be d2b9 1bbf 81d3 f33e 22e6 06bf
00000090: c42d a4be 61d8 fabd 7a0b 1fbf 347b c2be
000000a0: 76b8 1c3f d2c5 613c b0ce ce3e 0b5e 2a3f
000000b0: 7d6f 103f 58fa 81bd 4c39 9cbe 58d0 ebbd
000000c0: 5a2d 263f 9143 0e3f ae16 023f 1cd0 eebe
000000d0: d86f 1fbf 5cfe d93e 0286 0c3f 61fa 333f
000000e0: 4280 03bf cb33 0b3f e1df 0ebf 71ce 0b3f
000000f0: ecb5 f63e 20a0 15be 3cd1 fdbe d03c 2e3f
00000100: 2aae f63e ff4a 763e 7d31 b1be 7a4c e63e
00000110: 5901 adbd 5ed6 1f3f c399 05bf 4c67 ed3e
00000120: da77 99be d9b5 c7bc a9f3 0fbd 58c5 d8be
00000130: 0942 88bc f1a1 34be 7723 2abf 026f c9be
00000140: 2a15 48bd 342b 96be 44f7 c7be 4e17 20bf
00000150: a353 053f bd70 ee3e adc7 263f f1bc 513e
00000160: dce3 123e 4725 25be 6d34 f4be 7943 db3e
00000170: 7176 163f 3dc8 233f 43bc ecbc 7633 b5be
00000180: 7f65 6fbe ec1f d93d 8df5 ba3e b39d 2cbf
00000190: c07d 8b3e 5136 1cbf a8c3 493e 53c8 74be
000001a0: 4d29 12bf 41aa 893e 6da4 28bf 6463 84be
000001b0: c280 bd3e a59c 86be b023 cfbe 8a88 673e
000001c0: a98a 153f febf d73e 9ea1 ea3e 5b0a 273e
000001d0: f916 173e 81db 31bf a4b5 f83e d4ca 4e3e
000001e0: 0666 67be 95d4 f23d 3084 eebd c3d8 9b3c
000001f0: 700f c73e 7f3f c83e 6868 04bf 8b30 81bd
00000200: d90e 9cbe 6ca9 89bd cf47 953e f38e 7c3d
00000210: 4bd9 2d3f 5be7 14be ee15 0ebf 32de 86be
00000220: d5b5 f6be 5443 99be c511 0c3f d064 cabe
00000230: c3c2 f1bd 3be0 8bbe 9fcb 94be 9444 02bf
00000240: 66c7 cabd 8e59 023f cb70 25bf aea7 e23e
00000250: 9b00 273f 1751 22bf 3393 52bc 7939 00bf
00000260: f5ff 8fbc 8850 0ebf a808 a03e 26cc 063f
00000270: f580 b0be 2133 acbe acef 26bf f3ec 11bf
00000280: 8546 793d 5863 fc3d aefc 133e 731f 16bf
00000290: 16e8 06bf 2203 b6bd d957 b83d b05d 0dbf
000002a0: 2ae0 1fbf 2cc1 82bd e17b 0b3f 4488 09be
000002b0: 1032 debe d736 06be 5fdb 103e 6fb1 bdbe
000002c0: 7599 71be 6e4e 68be b220 89be fd61 183f
000002d0: b700 32bf cf53 dfbc 05ee f33e 4366 18be
000002e0: 0bdf 2c3f 324c c8be cbea 10bf 0ff8 10bf
000002f0: 3534 e8be 8eca 87be aee4 d83c e6db 233f
00000300: 8b31 4b3e 1cd1 203e 2f7d e3be 25dc 4d3e
00000310: abb5 c43e 7f2b 05bf 3b13 4abe 48b1 c0bd
00000320: 2dc3 22bf 87e3 eebe 69a7 143f b87c f73e
00000330: b99d 673d 2575 d33e 84af 823e 6ed0 14bf
00000340: e6d2 423f 2dc1 3cbf 444b 333f 2b60 753e
00000350: 0692 83be f4ad 0c3d 8af3 57bc 07dd 81be
00000360: 0871 d7bd ba90 1b3e a7df 95be 3a2b 7d3d
00000370: 9df3 b8be 0e9a 30bd f749 bdbe 3e66 acbe
00000380: c3c8 363f e0a0 f9be a972 a63e a681 17bf
00000390: 1097 1d3f 02e3 db3e 8cd9 c53e eaf3 1e3f
000003a0: f637 fa3d 85d6 5bbe 3900 183f 0bd2 d2bd
000003b0: fb55 ed3e 2bff 803e 618f 173f cdaa de3e
000003c0: 8648 32be cd95 0ebf f9cd 3e3e 1621 e0bd
000003d0: 2a9e b8be 74d8 4a3e cfef d6be 2c58 553e
000003e0: 2171 5abe fb1f 7abe 7e15 aabc beab 1b3f
000003f0: c366 74be 51ab 1dbe fe61 e03a 9290 93be

cells.0.h2h.weight f4 [256, 64]
-0.031754103 -0.031260815 -0.05469379 -0.14304842 0.023991201 -0.08312514 0.0014568819 0.05650461
0.09065407 -0.12531534 -0.009691436 -0.08536566 -0.062059283 -0.06414927 0.06692628 -0.13542649
0.071861 0.10450243 -0.05314779 0.0033347162 0.07380696 -0.03244949 -0.14377104 -0.006558481
-0.065618254 -0.028221168 0.016370857 0.100049995 -0.06615633 0.06864248 0.11686435 0.11412633
0.008680085 0.07594435 0.073874295 0.102728054 0.03879171 -0.019192928 0.017220756 -0.10719739
0.02139743 -0.09044504 0.11379784 -0.074432604 -0.1385773 -0.05031197 -0.002535741 -0.04803506
0.08305801 -0.024824543 0.079128206 -0.10697466 -0.11976385 0.0050422894 -0.014918792 -0.025795497
0.0060633216 0.08085721 0.025240267 0.10815113 -0.08502576 0.1083275 0.00889612 -0.014133565
-0.06418561 -0.12240864 0.15477458 -0.03383304 0.064022586 0.1830802 -0.083696514 -0.11419174
0.05081077 -0.04825693 -0.03874863 -0.04611089 -0.14287595 0.011572242 -0.07591694 -0.13716911
-0.060833674 0.12149158 -0.08042985 -0.0762181 0.13933012 -0.14865695 -0.10027415 -0.12745924
-0.15194768 -0.13125736 0.1156302 -0.01974492 -0.2056092 0.01570876 0.09362217 -0.050630055
-0.18662891 0.11275984 -0.056880195 0.013167721 0.0025140315 -0.051269088 0.061953716 -0.049447503
-0.009034587 0.046219073 0.14356738 0.120497905 0.0017662578 -0.08063382 -0.061662186 -0.15045536
-0.09167632 -0.0021017343 0.0647621 0.059237905 0.06584489 0.018805044 0.063244194 0.10275235
-0.03597542 0.03279987 0.030172516 -0.04346488 -0.07266893 0.10520001 0.19338253 -0.05326921
-0.14333233 0.032177053 0.014289619 -0.016091432 0.14532685 -0.042768337 -0.047456708 -0.074712895
-0.1635953 -0.16040461 0.11592529 -0.17657496 0.04022013 -0.124271855 -0.16374353 -0.0522323
0.033472992 0.122354515 0.037269812 -0.030866744 0.14247634 -0.17780429 -0.058700673 -0.11662733
-0.0392674 -0.012806328 0.06799444 0.077965565 -0.049177393 0.0106164105 -0.08635025 -0.10001666
-0.044230416 -0.001230423 0.04189747 0.0031925603 -0.056538243 0.042168483 0.011965502 -0.06792752
0.010527439 -0.1373962 0.12768525 -0.08955454 0.023448128 -0.10698311 0.10151827 -0.12855877
0.020602567 -0.06035417 -0.094632976 -0.03628976 0.0039578453 -0.07897101 -0.036110524 -0.045003574
0.09848749 -0.12894921 -0.09473127 -0.062859625 0.024767108 -0.10381476 0.0574549 -0.032307133
-0.06369705 -0.0052996357 0.10957538 -0.08526948 0.04381382 -0.024369452 -0.079111144 -0.18104902
-0.11872332 -0.16266915 -0.088853166 0.008076344 -0.17584151 0.1141556 0.061804075 -0.042780176
0.14001857 0.024706375 0.0596384 0.12226235 0.113704294 0.019150108 -0.09716733 0.016449569
-0.056082718 0.055869296 0.18153515 -0.056226205 -0.024263518 0.020426344 0.07368931 -0.14641005
0.017871697 0.0344333 -0.061768144 -0.087324105 0.024135854 -0.07289975 -0.13103253 -0.11315363
0.018914718 0.010459576 0.12255904 0.038542517 -0.14234902 -0.06720209 0.008442558 -0.05422426
0.055467572 -0.0046816347 0.13335541 0.10845893 -0.12579192 0.18040124 -0.03976993 0.08889337
0.12853543 -0.07993883 -0.07424758 0.061243754 -0.13841166 -0.08372842 0.1435342 0.017771222
00000000: 9710 02bd 570b 00bd 9806 60bd 497b 12be
00000010: 3289 c43c 833d aabd d8f4 be3a 6171 673d
00000020: d7a8 b93d aa52 00be d4c8 1ebc 31d4 aebd
00000030: e031 7ebd b160 83bd a510 893d 3ead 0abe
00000040: dc2b 933d 5f05 d63d 7fb1 59bd 418b 5a3b
00000050: 1a28 973d c2e9 04bd b738 13be 87e8 d6bb
00000060: dd62 86bd 1430 e7bc 2d1c 863c 03e7 cc3d
00000070: f87c 87bd 6e94 8c3d 9456 ef3d 11bb e93d
00000080: ea36 0e3c b688 9b3d 684b 973d 1663 d23d
00000090: 0ee4 1e3d 7d3a 9dbc 8b12 8d3c 4e8a dbbd
000000a0: aa49 af3c 403b b9bd d80e e93d 1f70 98bd
000000b0: 35e7 0dbe ed13 4ebd ad2e 26bb 69c0 44bd
000000c0: 511a aa3d d75c cbbc f80d a23d 8815 dbbd
000000d0: c046 f5bd ca39 a53b f36d 74bc 1451 d3bc
000000e0: d4ae c63b 7798 a53d adc4 ce3c 577e dd3d
000000f0: fc21 aebd cfda dd3d 08c1 113c 7890 67bc
00000100: bf73 83bd 62b1 fabd 3a7d 1e3e 8494 0abd
00000110: 461e 833d 6079 3b3e 1469 abbd 5cdd e9bd
00000120: f41e 503d 0fa9 45bd e2b6 1ebd c6de 3cbd
00000130: 134e 12be 8099 3d3c 577a 9bbd 0f76 0cbe
00000140: bb2c 79bd 94d0 f83d 68b8 a4bd 3c18 9cbd
00000150: 8eac 0e3e 8739 18be 895c cdbd ad84 02be
00000160: 2c98 1bbe 5468 06be 87cf ec3d 19c0 a1bc
00000170: 388b 52be a8af 803c fbbc bf3d 7661 4fbd
00000180: a61b 3fbe a2ee e63d 35fb 68bd 6dbd 573c
00000190: 73c2 243b 89ff 51bd 2ec3 7d3d 7789 4abd
000001a0: ce05 14bc 3650 3d3d 5403 133e 9bc7 f63d
000001b0: c781 e73a 5823 a5bd 7d91 7cbd f810 1abe
000001c0: cbc0 bbbd 40bd 09bb fea1 843d 72a3 723d
000001d0: b0d9 863d 090d 9a3c 2c86 813d d36f d23d
000001e0: f65a 13bd 2859 063d 5a2c f73c 3b08 32bd
000001f0: 73d3 94bd 1a73 d73d 1206 463e d130 5abd
00000200: b6c5 12be 16cc 033d 021f 6a3c 2ed2 83bc
00000210: 90d0 143e da2d 2fbd f761 42bd 1303 99bd
00000220: 8785 27be 1b41 24be 3d6a ed3d 11d0 34be
00000230: ddbd 243d 3e82 febd 62ac 27be 89f1 55bd
00000240: fa1a 093d 0195 fa3d 3ba8 183d 41dc fcbc
00000250: 51e5 113e 5412 36be 1e70 70bd 4fda eebd
00000260: dad6 20bd a2d1 51bc ab40 8b3d 69ac 9f3d
00000270: 3c6e 49bd 74f0 2d3c 66d8 b0bd 89d5 ccbd
00000280: f42a 35bd 2546 a1ba ae9c 2b3d 463a 513b
00000290: a594 67bd dcb8 2c3d f40a 443c 951d 8bbd
000002a0: 487b 2c3c 97b1 0cbe ecbf 023e 5f68 b7bd
000002b0: 4a16 c03c f619 dbbd d0e8 cf3d e9a4 03be
000002c0: b7c6 a83c ef35 77bd efce c1bd 92a4 14bd
000002d0: d0b0 813b 8ebb a1bd a1e8 13bd ab55 38bd
000002e0: cfb3 c93d 430b 04be 7802 c2bd 8cbc 80bd
000002f0: 64e4 ca3c d59c d4bd d455 6b3d 7c54 04bd
00000300: 9973 82bd 91a8 adbb 0f69 e03d c4a1 aebd
00000310: 1f76 333d 72a2 c7bc 0605 a2bd ea64 39be
00000320: 3625 f3bd be92 26be a6f8 b5bd a452 043c
00000330: cc0f 34be 69ca e93d 4526 7d3d 443a 2fbd
00000340: 0761 0f3e 0665 ca3c 6547 743d af64 fa3d
00000350: ccdd e83d b0e0 9c3c aaff c6bd 3fc1 863c
00000360: feb6 65bd 34d7 643d 5ae4 393e 734d 66bd
00000370: 49c4 c6bc 2655 a73c 6cea 963d 84ec 15be
00000380: aa67 923c ef09 0d3d 9800 7dbd fbd6 b2bd
00000390: 8eb8 c53c 774c 95bd 642d 06be 17bd e7bd
000003a0: 0af3 9a3c a45e 2b3c 3c00 fb3d c2de 1d3d
000003b0: f1c3 11be 40a1 89bd a852 0a3c 421a 5ebd
000003c0: f731 633d 6668 99bb 528e 083e b71f de3d
000003d0: 99cf 00be 1abb 383e cbe5 22bd ba0d b63d
000003e0: cb9e 033e f8b6 a3bd 1d0f 98bd bbda 7a3d
000003f0: c9bb 0dbe ce79 abbd a1fa 123e f494 913c

cells.0.h2h.bias f4 [256]
-0.04805328 0.13352312 -0.02365837 -0.02241927 -0.044865347 0.1885977 0.04359663 0.047707953
0.09832104 -0.079857685 -0.10642379 -0.0062313275 0.064323395 0.13780853 -0.02334384 0.09058453
0.112399615 -0.03476919 0.08942031 -0.07229749 -0.07161315 0.11845678 0.06339945 0.0013563178
0.005139181 -0.021511653 0.03998434 0.0042649736 0.04671272 0.15311623 0.06811052 0.09950832
0.04663761 0.090653695 -0.041567042 -0.098376974 -0.08689186 -0.06307188 0.11798325 0.012413296
-0.040767457 0.118989244 -0.03511623 -0.05043919 -0.047848895 0.13705695 0.1627704 -0.018514112
-0.029569212 -0.06564672 0.07988875 0.045054562 -0.039947636 0.012572713 -0.012462387 0.066709705
0.058983367 -0.06519956 -0.028837968 0.09155363 0.02931767 -0.038823515 0.060786113 0.0547465
-0.029630914 0.063993104 -0.030511202 0.14000243 0.11420318 0.05758377 0.06765805 -0.043179557
-0.0955862 0.005905896 -0.10280282 -0.01805849 0.07457298 0.10725272 0.086035825 0.12010526
0.06318558 -0.08157633 0.05941615 -0.07127536 0.04278369 0.008210817 -0.08791828 -0.07464451
-0.09036783 0.0077484194 -0.03771052 0.085632265 -0.11797892 -0.08241803 -0.008110017 0.0807073
-0.02183435 0.1311119 0.021395387 -0.015710456 -0.10468663 0.06835604 0.042794745 0.08940771
0.11301202 -0.08417245 -0.016729224 -0.067034006 -0.070681065 -0.0717645 -0.064901255 0.088592514
-0.00015875677 0.055980626 -0.023202613 -0.00067255157 -0.0020292548 0.06287482 -0.07605744 -0.0998995
-0.10337731 0.07823499 0.12686501 -0.03746156 -0.08503115 -0.019778334 0.076811396 0.15088801
0.11831669 0.020502416 0.030162554 -0.0021780378 -0.021195278 0.11960129 -0.065395474 0.10209161
-0.09733587 -0.075802624 0.057705097 -0.018382873 0.03803146 -0.09779327 -0.012300256 -0.10121991
-0.05198858 -0.05473914 0.05988893 0.1000408 -0.122433595 -0.06608516 -0.029740572 0.029450405
-0.13396686 -0.03669422 0.08461411 -0.022650382 0.101715244 0.05258381 -0.01899029 0.022755401
-0.09304405 0.1309234 0.107178815 0.12064386 -0.024322568 0.058566667 -0.03167818 0.00019067785
0.098454416 0.108556494 -0.01691592 -0.07133111 0.08823392 -0.05504442 -0.030525276 -0.06765066
0.08848375 -0.06028647 0.07783121 -0.07873084 0.05429054 0.0043812753 -0.06632345 -0.07983903
-0.011516204 0.08981644 0.10409961 0.14209628 -0.05665428 0.03822366 -0.008494411 0.07015108
-0.060013223 0.0905695 0.0050312635 -0.020672051 0.04002351 0.15814362 0.03489124 0.15176293
0.04016316 -0.13979681 -0.024532853 -0.08130521 0.09964052 0.09786075 -0.06049383 -0.06665906
0.17305885 -0.01667669 -0.033971976 -0.023461364 0.08189174 0.02187093 0.08788498 0.0694389
0.09708616 0.102904096 -0.002514856 -0.101371 0.1138429 0.10713389 -0.11834065 -0.04514464
0.0027735792 0.0039100363 -0.11151887 -0.07509544 -0.010115048 0.08143685 0.025340056 0.10897187
0.078518696 0.17397864 -0.007608665 0.13588534 0.0032930353 0.07391871 0.07977645 0.123029836
-0.09083732 0.12551002 0.14761327 0.11732501 -0.039948992 0.07265832 0.09671013 0.038242195
0.022797888 0.028737659 -0.103639975 0.12217732 -0.0552938 0.12986633 0.041688066 -0.096496776
00000000: 84d3 44bd 49ba 083e 33cf c1bc 9ea8 b7bc
00000010: bac4 37bd c11f 413e 6192 323d 6a69 433d
00000020: 8b5c c93d 6d8c a3bd b7f4 d9bd 2a30 ccbb
00000030: fcbb 833d ae1d 0d3e 953b bfbc 6284 b93d
00000040: c531 e63d 236a 0ebd ff21 b73d b510 94bd
00000050: eaa9 92bd 7899 f23d 92d7 813d 79c6 b13a
00000060: 9366 a83b 3539 b0bc 9fc6 233d 31c1 8b3b
00000070: d655 3f3d 80ca 1c3e 877d 8b3d 05cb cb3d
00000080: 1407 3f3d a5a8 b93d 3442 2abd de79 c9bd
00000090: 5cf4 b1bd d42b 81bd 34a1 f13d 2361 4b3c
000000a0: c7fb 26bd a2b0 f33d 09d6 0fbd 5399 4ebd
000000b0: 34fd 43bd a858 0c3e 49ad 263e e8aa 97bc
000000c0: 223b f2bc ca71 86bd b79c a33d 228b 383d
000000d0: 22a0 23bd c8fd 4d3c 0a2f 4cbc 199f 883d
000000e0: 8b98 713d 5987 85bd 9a3d ecbc 7880 bb3d
000000f0: 9c2b f03c 6805 1fbd dcfa 783d de3d 603d
00000100: 88bc f2bc d10e 833d a1f2 f9bc cc5c 0f3e
00000110: 5be3 e93d f6dc 6b3d 4e90 8a3d 0cdd 30bd
00000120: b3c2 c3bd 3f86 c13b 498a d2bd 66ef 93bc
00000130: b8b9 983d 50a7 db3d 8d33 b03d bff9 f53d
00000140: 7167 813d 7e11 a7bd 595e 733d d1f8 91bd
00000150: f33d 2f3d aa86 063c 800e b4bd 39df 98bd
00000160: c512 b9bd 74e6 fd3b 5976 1abd f85f af3d
00000170: ef9e f1bd c9ca a8bd e0df 04bc de49 a53d
00000180: f3dd b2bc 3342 063e 6145 af3c 37b3 80bc
00000190: f265 d6bd 40fe 8b3d 8b49 2f3d 641b b73d
000001a0: d972 e73d 9b62 acbd ba0b 89bc 2049 89bd
000001b0: 3cc1 90bd 44f9 92bd f3ea 84bd fe6f b53d
000001c0: f277 26b9 f14b 653d 6813 bebc 2c4e 30ba
000001d0: 3ffd 04bb 83c4 803d 01c4 9bbd 1c98 ccbd
000001e0: 7cb7 d3bd ab39 a03d e7e8 013e 4b71 19bd
000001f0: d024 aebd 2c06 a2bc 4b4f 9d3d 6382 1a3e
00000200: 0550 f23d aff4 a73c 7617 f73c 69bd 0ebb
00000210: b8a1 adbc 85f1 f43d 10ee 85bd 6815 d13d
00000220: 0758 c7bd 683e 9bbd 2e5c 6c3d ae97 96bc
00000230: e0c6 1b3d d747 c8bd 0387 49bc 624c cfbd
00000240: faf1 54bd 2636 60bd 184e 753d 31e2 cc3d
00000250: 77be fabd a857 87bd 80a2 f3bc fa41 f13c
00000260: 9c2e 09be ae4c 16bd 2a4a ad3d 4b8d b9bc
00000270: 1550 d03d 1f62 573d 8691 9bbc 8969 ba3c
00000280: e18d bebd c910 063e 9180 db3d 2114 f73d
00000290: 1f40 c7bc 9ae3 6f3d fbc0 01bd b2f0 4739
000002a0: 78a2 c93d de52 de3d 4193 8abc 0c16 92bd
000002b0: fcb3 b43d 4276 61bd 2510 fabc 6e8c 8abd
000002c0: f836 b53d f2ee 76bd f865 9f3d a23d a1bd
000002d0: c25f 5e3d cd90 8f3b 97d4 87bd a582 a3bd
000002e0: 76ae 3cbc aff1 b73d 2d32 d53d b081 113e
000002f0: 510e 68bd 6a90 1c3d 242c 0bbc 5fab 8f3d
00000300: 6dd0 75bd 817c b93d 4cdd a43b 6f58 a9bc
00000310: b1ef 233d 67f0 213e 1eea 0e3d be67 1b3e
00000320: 2082 243d e526 0fbe 1ff9 c8bc 5983 a6bd
00000330: 5410 cc3d 386b c83d 61c8 77bd 8c84 88bd
00000340: 5736 313e 8e9d 88bc 3326 0bbd 0c32 c0bc
00000350: dbb6 a73d aa2a b33c 0afd b33d fb35 8e3d
00000360: 1cd5 c63d 62bf d23d 48d0 24bb 999b cfbd
00000370: 7726 e93d 0369 db3d 955c f2bd 96e9 38bd
00000380: f0c4 353b c31f 803b 0164 e4bd a3cb 99bd
00000390: 96b9 25bc 5dc8 a63d f395 cf3c a52c df3d
000003a0: 69ce a03d 7527 323e 1c52 f9bb 8725 0b3e
000003b0: f7cf 573b b162 973d d661 a33d 11f7 fb3d
000003c0: eb08 babd b385 003e ef27 173e 1848 f03d
000003d0: 8ea1 23bd e3cd 943d f60f c63d d9a3 1c3d
000003e0: a3c2 ba3c 3d6b eb3c 3241 d4bd 1a38 fa3d
000003f0: c07b 62bd aefb 043e 1bc1 2a3d 1aa0 c5bd

cells.1.x2h.weight f4 [256, 64]
-0.10931436 0.16803889 -0.18025386 0.124033414 -0.10985994 -0.056438006 -0.11404033 -0.05390039
0.09599498 0.03457374 0.10093424 -0.07689203 0.0117619885 -0.03784582 -0.07579166 0.17213954
-0.10176426 -0.08156042 -0.012073444 -0.017006405 0.10721965 -0.052824795 -0.053162683 -0.14501964
0.15814118 -0.08803801 -0.034690958 0.1173528 -0.0068769422 -0.010948489 -0.047263063 0.07741576
0.015074085 -0.021121161 -0.062370926 -0.106092066 -0.014714253 0.16610266 0.027802745 -0.006403716
-0.061904073 -0.20021772 -0.041123632 0.030894173 0.077815875 -0.12924081 0.04903887 -0.099154025
0.020504244 -0.044126414 -0.14734562 0.08738164 -0.12610437 -0.17856982 -0.058954425 -0.07380075
0.16140907 0.06349894 0.10782426 -0.17337973 -0.09253665 0.0600197 0.107892536 0.03936475
-0.028512256 -0.15330021 0.061964 -0.17365497 -0.052124694 0.14532039 -0.094246246 0.002546209
0.09815143 -0.109470606 -0.09019386 -0.09073175 0.041824624 0.13976349 0.019548897 0.02627623
0.16874291 -0.122202605 0.06254335 0.0041451063 0.13930228 -0.01860821 0.0622915 -0.01716874
0.032932222 -0.08832531 -0.051428325 -0.0757728 -0.14181304 0.01740307 -0.06837632 -0.055634804
-0.074291416 0.07508195 -0.11783586 0.010763742 -0.11096682 -0.012348685 -0.14041579 0.046366956
-0.0038256887 0.14552508 -0.024463432 -0.028919995 0.08184894 0.02919815 -0.21009845 -7.0912894e-05
0.087350406 -0.11503441 0.16507375 -0.04736467 0.07678886 -0.0026822842 0.14158317 -0.013097622
-0.036401153 0.07511831 0.08060991 0.017030519 0.025987254 0.10895804 -0.062471993 -0.10416547
0.04136643 -0.029329441 0.06527676 0.14896089 0.15031156 0.15369873 0.053170115 0.07724685
0.0026975528 0.09436596 0.07897733 0.06936478 -0.17365494 -0.07829459 0.007845899 0.06167527
-0.089986384 -0.075580545 -0.08342576 0.0926477 0.032754794 -0.010667323 -0.01634971 -0.016055143
-0.048192557 -0.13201591 -0.024922505 -0.030219737 -0.040691253 -0.024799258 -0.024974087 -0.06627673
-0.062192943 0.089338586 0.040842313 -0.038484003 -0.14569585 -0.026690725 -0.046824925 -0.14805326
-0.07745083 -0.05904946 0.079201624 -0.012656741 -0.11892324 0.036027383 -0.036725514 0.048582204
-0.1476913 -0.07796355 0.022060735 -0.035552833 -0.12251081 -0.06262378 0.044748046 0.055303663
0.076665744 -0.15648042 0.01563903 0.058113046 -0.025735311 -0.04645818 -0.0439322 0.08387454
-0.06259167 -0.0920559 0.1879202 -0.067386255 0.07620145 0.17025688 -0.034984443 0.037002165
-0.0010749502 0.009198141 -0.08043284 0.001488804 0.039092664 0.042646907 0.20650072 0.03040587
0.096983805 -0.057430644 -0.08032399 -0.096005924 0.05728505 0.018064024 -0.026174266 0.10170372
-0.05886975 0.04789255 -0.019340154 0.10812925 -0.16587605 0.031249497 0.0835033 -0.0016588907
-0.15403888 0.055635434 0.058891926 -0.11121796 -0.11914043 -0.12224468 -0.033321645 -0.05510598
-0.013798955 -0.04575484 -0.028863583 -0.057317983 -0.1531028 -0.03727762 -0.011701419 -0.1393446
0.10098373 0.004121678 0.04322475 0.044897817 -0.11798478 0.18679257 0.08157298 -0.0017097609
-0.101227045 -0.14858533 -0.09800035 0.13011786 0.059377335 0.06288703 0.14064373 0.0572829
00000000: 35e0 dfbd 6312 2c3e 7894 38be 3b05 fe3d
00000010: 40fe e0bd 8a2b 67bd fa8d e9bd a8c6 5cbd
00000020: 0499 c43d 329d 0d3d 9cb6 ce3d 9279 9dbd
00000030: 5bb5 403c 3804 1bbd a838 9bbd 5945 303e
00000040: c869 d0bd 2609 a7bd b2cf 45bc 0451 8bbc
00000050: fa95 db3d d05e 58bd 1dc1 59bd 0780 14be
00000060: c3ef 213e 464d b4bd 1b18 0ebd aa56 f03d
00000070: f957 e1bb 4b61 33bc ea96 41bd 278c 9e3d
00000080: 4cf9 763c 4906 adbc a878 7fbd cc46 d9bd
00000090: 0d14 71bc d116 2a3e 95c2 e33c 43d6 d1bb
000000a0: 208f 7dbd e005 4dbe 4171 28bd c715 fd3c
000000b0: ee5d 9f3d b457 04be fbdc 483d 4411 cbbd
000000c0: 84f8 a73c e6bd 34bd c5e1 16be 25f5 b23d
000000d0: 8121 01be 02db 36be 327a 71bd d924 97bd
000000e0: 6b48 253e bb0b 823d f7d2 dc3d 758a 31be
000000f0: db83 bdbd 38d7 753d c3f6 dc3d ef3c 213d
00000100: 8992 e9bc bbfa 1cbe f7cd 7d3d 9cd2 31be
00000110: b480 55bd dece 143e 2d04 c1bd 4cde 263b
00000120: 9e03 c93d 2032 e0bd 8fb7 b8bd 91d1 b9bd
00000130: 4c50 2b3d 291e 0f3e 0225 a03c 4041 d73c
00000140: f1ca 2c3e 5c45 fabd ba16 803d acd3 873b
00000150: 42a5 0e3e 3f70 98bc 5f25 7f3d 75a5 8cbc
00000160: f0e3 063d e6e3 b4bd 82a6 52bd c52e 9bbd
00000170: 7037 11be e290 8e3c e208 8cbd 52e1 63bd
00000180: 1926 98bd 91c4 993d ed53 f1bd 685a 303c
00000190: 9242 e3bd 2452 4abc 28c9 0fbe 47eb 3d3d
000001a0: 68b8 7abb 8704 153e 8967 c8bc a0e9 ecbc
000001b0: 6ba0 a73d f530 ef3c 0c24 57be 12b7 94b8
000001c0: c5e4 b23d 2997 ebbd 1809 293e 7501 42bd
000001d0: 7a43 9d3d 43c9 2fbb 2efb 103e 6997 56bc
000001e0: 6019 15bd a1d7 993d cf16 a53d 9683 8b3c
000001f0: 39e3 d43c 6525 df3d a2e2 7fbd b554 d5bd
00000200: d96f 293d 4c44 f0bc d2af 853d 3489 183e
00000210: 46eb 193e 3363 1d3e e8c8 593d 9933 9e3d
00000220: 6dc9 303b f142 c13d debe a13d 1f0f 8e3d
00000230: 9ad2 31be ea58 a0bd 168c 003c 359f 7c3d
00000240: c84a b8bd f9c9 9abd 20db aabd 14be bd3d
00000250: e429 063d ffc5 2ebc d4ef 85bc 1386 83bc
00000260: 8f65 45bd 2e2f 07be 482a ccbc 628f f7bc
00000270: dfab 26bd d027 cbbc 7596 ccbc 18bc 87bd
00000280: 07be 7ebd 26f7 b63d 454a 273d 67a1 1dbd
00000290: 4b31 15be 82a6 dabc 7ecb 3fbd 469b 17be
000002a0: 8a9e 9ebd d9dd 71bd 7634 a23d 385e 4fbc
000002b0: 078e f3bd 7391 133d 7e6d 16bd 22fe 463d
000002c0: 633c 17be 5bab 9fbd b7b8 b43c d99f 11bd
000002d0: f3e6 fabd e540 80bd ba49 373d 1886 623d
000002e0: ee02 9d3d 673c 20be 6c1d 803c f207 6e3d
000002f0: dcd2 d2bc ef4a 3ebd 40f2 33bd 6ac6 ab3d
00000300: 1030 80bd ce87 bcbd 276e 403e ce01 8abd
00000310: 810f 9c3d d257 2e3e d94b 0fbd 958f 173d
00000320: 58e5 8cba cdb3 163c f9b9 a4bd f923 c33a
00000330: a11f 203d 86ae 2e3d ed74 533e bb15 f93c
00000340: 729f c63d 653c 6bbd e780 a4bd c19e c4bd
00000350: bba3 6a3d 01fb 933c 6a6b d6bc 0a4a d03d
00000360: 6821 71bd fa2a 443d 3e6f 9ebc de72 dd3d
00000370: 69db 29be f2fe ff3c c703 ab3d 236f d9ba
00000380: 5ebc 1dbe fbe1 633d a938 713d 3ec6 e3bd
00000390: e6ff f3bd 6b5b fabd 477c 08bd cfb6 61bd
000003a0: 0315 62bc 6d69 3bbd 5273 ecbc 43c6 6abd
000003b0: fbc6 1cbe 6bb0 18bd 4fb7 3fbc 5ab0 0ebe
000003c0: 8fd0 ce3d 240f 873b 6f0c 313d c6e6 373d
000003d0: 01a2 f1bd 8d46 3f3e bc0f a73d 0e1a e0ba
000003e0: 2050 cfbd c126 18be 68b4 c8bd 9e3d 053e
000003f0: a635 733d eaca 803d e904 103e 79a1 6a3d

cells.1.x2h.bias f4 [256]
-0.01494556 0.05612262 0.030654196 -0.087214395 0.034102265 0.09203803 0.02680759 0.071066596
0.14138164 -0.011135414 -0.022102479 -0.038120165 0.0106240185 0.08110668 -0.0068876133 -0.06950738
-0.05950227 0.13413762 0.019908132 0.02383637 -0.033460572 -0.06578417 -0.013625497 -0.012544469
0.11366891 0.0001130674 -0.02866133 -0.013182228 0.1034635 -0.09744946 0.109729305 0.088839024
0.14371695 -0.04646499 0.017552422 0.16589881 -0.12476325 -0.05835143 0.00018609929 -0.031287007
0.0049898764 -0.027793339 -0.06495595 0.13568836 0.10417981 0.12630518 -0.06483078 -0.100527264
-0.10616149 0.05149274 0.017962478 0.1344913 -0.12140608 0.082500584 0.07436743 0.15629643
-0.111464575 0.06626358 0.088427104 0.1285955 0.038879495 0.113417804 0.08852913 -0.060172133
-0.021467023 -0.07727705 0.014403267 -0.026184529 -0.07437821 0.08889802 0.07753011 -0.07234969
-0.014450939 -0.006023972 -0.029629068 -0.11480917 -0.105872355 0.09445393 -0.016855324 0.13049676
0.029247314 -0.00604327 0.033363692 -0.008219978 -0.0016971236 0.020796381 0.048067253 0.080073655
-0.13483346 -0.062010262 -0.12237374 -0.12420607 -0.016133113 0.105241716 -0.0105929915 -0.051836725
0.05278943 0.063903645 -0.027794939 0.042621695 -0.040711332 0.07581254 -0.10615097 -0.056035515
-0.14267232 -0.010274923 -0.09619278 -0.11237251 0.02093071 0.008093723 -0.08503951 0.09263187
0.04185411 0.011228869 0.046191745 0.06370285 -0.08265068 0.09501109 0.02026854 0.10837922
-0.13717331 -0.07005569 0.055034332 0.04955238 0.0218786 -0.0074360855 0.08485667 -0.03572025
0.04079449 0.06290658 -0.017363496 0.11767245 0.04886463 0.023804499 0.023738798 0.03341213
-0.026776684 -0.100585304 0.05890786 0.11157893 0.09539346 0.11267013 -0.046534054 -0.11214043
0.06793069 -0.06618221 -0.00059350824 -0.108982734 -0.10868886 0.09111404 0.04803195 -0.030596158
-0.010010069 0.019711321 -0.044215005 0.021821903 -0.08435282 -0.1013969 0.024569212 -0.04754108
-0.06666282 0.02413757 0.029520692 -0.11545332 0.03760785 0.0031290145 -0.0992444 -0.058998507
-0.109763704 0.08925601 0.111815736 0.017072933 -0.11159039 -0.06773403 0.05372998 0.08600685
0.016848957 -0.021875221 -0.08277777 -0.018657524 -0.10357242 0.07161274 0.10582492 -0.0783826
-0.105796516 0.08203809 0.09921934 -0.113577254 -0.06610904 -0.032524887 0.08427454 0.04237015
0.10035966 -0.11951837 0.10920237 -0.09139722 0.005710619 0.052216984 0.06752239 0.112510815
0.12146944 -0.05821987 0.09281043 0.08613516 -0.06856006 0.07267058 0.10224382 -0.08241854
0.04305774 0.030539993 0.12480085 0.07450353 -0.07866135 0.059477776 -0.11019596 -0.018584345
0.036153372 -0.049755745 0.056438252 -0.0025890593 -0.07120103 -0.11572513 0.034875516 0.18794425
-0.035118446 0.019625567 0.07616655 0.022377184 -0.086016186 -0.023373846 0.05008818 -0.00692617
0.052042603 0.15168552 0.07998505 -0.0074339914 -0.053143248 -0.087269284 0.14635208 -0.08403496
-0.1104229 0.03022615 -0.058649953 -0.020595271 0.023357647 0.028469896 -0.018495483 -0.034394804
-0.11466706 -0.092732996 0.1368084 0.11360105 0.053876635 0.15142395 -0.011162887 -0.029801736
00000000: 39de 74bc d5e0 653d 821e fb3c 769d b2bd
00000010: d1ae 0b3d 6f7e bc3d 979b db3c 5d8b 913d
00000020: 59c6 103e 5071 36bc 4210 b5bc e423 1cbd
00000030: 5d10 2e3c 421b a63d 7db1 e1bb e359 8ebd
00000040: a7b8 73bd 5f5b 093e 6116 a33c 7e44 c33c
00000050: f40d 09bd dab9 86bd 7a3d 5fbc 5187 4dbc
00000060: 3fcb e83d 991e ed38 2acb eabc 46fa 57bc
00000070: ace4 d33d 9593 c7bd c2b9 e03d 3cf1 b53d
00000080: 892a 133e 1352 3ebd 19ca 8f3c 61e1 293e
00000090: e083 ffbd e901 6fbd a623 4339 ce26 00bd
000000a0: 1e82 a33b dbae e3bc a007 85bd e4f1 0a3e
000000b0: 395c d53d 2556 013e 00c6 84bd 3de1 cdbd
000000c0: 326b d9bd 0dea 523d 0c26 933c 16b8 093e
000000d0: c0a3 f8bd 11f6 a83d f34d 983d 2c0c 203e
000000e0: 8a47 e4bd 33b5 873d 4519 b53d 8aae 033e
000000f0: 1b40 1f3d 9847 e83d c34e b53d 0e77 76bd
00000100: 9cdb afbc 6e43 9ebd aefb 6b3c f080 d6bc
00000110: 9a53 98bd 2a10 b63d 1bc8 9e3d 132c 94bd
00000120: a2c3 6cbc bd64 c5bb a9b8 f2bc 1221 ebbd
00000130: 9bd3 d8bd 1071 c13d 2d14 8abc f1a0 053e
00000140: 1098 ef3c a006 c6bb 5ea8 083d 16ad 06bc
00000150: 0572 deba 2c5d aa3c 2be2 443d a8fd a33d
00000160: c811 0abe 79fe 7dbd 159f fabd c15f febd
00000170: 9729 84bc f888 d73d 3a8e 2dbc bf52 54bd
00000180: bb39 583d eadf 823d 36b2 e3bc 1694 2e3d
00000190: edc0 26bd 9b43 9b3d ae65 d9bd 7f85 65bd
000001a0: b118 12be 2758 28bc b800 c5bd 8f23 e6bd
000001b0: e176 ab3c 899b 043c 3229 aebd c7b5 bd3d
000001c0: 376f 2b3d 4af9 373c 8e33 3d3d a476 823d
000001d0: c244 a9bd 2d95 c23d 360a a63c edf5 dd3d
000001e0: 2977 0cbe 5c79 8fbd ae6b 613d 70f7 4a3d
000001f0: c03a b33c 68aa f3bb 55c9 ad3d 664f 12bd
00000200: 2018 273d 2ad5 803d e43d 8ebc 41fe f03d
00000210: 4726 483d a701 c33c de77 c23c 28db 083d
00000220: c75a dbbc abff cdbd 5e49 713d 7e83 e43d
00000230: a55d c33d 99bf e63d 7e9a 3ebd e2a9 e5bd
00000240: 3f1f 8b3d 8a8a 87bd aa95 1bba 5732 dfbd
00000250: 4498 debd ff99 ba3d 26bd 443d cba4 fabc
00000260: 4601 24bc a379 a13c cb1a 35bd d9c3 b23c
00000270: 2cc1 acbd 2ea9 cfbd 5f45 c93c 6fba 42bd
00000280: 8486 88bd 27bc c53c 61d5 f13c ca72 ecbd
00000290: b00a 1a3d 2710 4d3b a640 cbbd 6ba8 71bd
000002a0: cbcb e0bd dbcb b63d a6ff e43d 89dc 8b3c
000002b0: 8189 e4bd 24b8 8abd f813 5c3d 5c24 b03d
000002c0: d306 8a3c aa33 b3bc 6487 a9bd aad7 98bc
000002d0: c71d d4bd b3a9 923d bcba d83d 0e87 a0bd
000002e0: d8ab d8bd 9603 a83d 8233 cb3d 319b e8bd
000002f0: 2d64 87bd d138 05bd 2198 ac3d 538c 2d3d
00000300: 5e89 cd3d 0cc6 f4bd 7ea5 df3d 772e bbbd
00000310: 2520 bb3b 7ae1 553d 2e49 8a3d 126c e63d
00000320: f8c4 f83d f577 6ebd 6513 be3d a167 b03d
00000330: 3769 8cbd 50d4 943d 3565 d13d 0dcb a8bd
00000340: 505d 303d 022f fa3c 9797 ff3d 4f95 983d
00000350: 3419 a1bd f89e 733d 6bae e1bd 323e 98bc
00000360: 8f15 143d aecc 4bbd cc2b 673d 35ad 29bb
00000370: d8d1 91bd 4c01 edbd a1d9 0e3d 7574 403e
00000380: 5cd8 0fbd ccc5 a03c 35fd 9b3d 5b50 b73c
00000390: 4129 b0bd 827a bfbc 4329 4d3d edf4 e2bb
000003a0: a02a 553d 7353 1b3e 34cf a33d d798 f3bb
000003b0: bcac 59bd 3dba b2bd 52dd 153e 851a acbd
000003c0: 6725 e2bd d59c f73c ef3a 70bd 6ab7 a8bc
000003d0: 8958 bf3c b339 e93c d783 97bc 91e1 0cbd
000003e0: 90d6 eabd ccea bdbd 8017 0c3e aba7 e83d
000003f0: bfad 5c3d e10e 1b3e 8be4 36bc c522 f4bc

cells.1.h2h.weight f4 [256, 64]
-0.110916145 0.017837577 0.040151693 0.011601592 0.03782102 0.089320436 -0.0064443755 -0.052370902
0.055470575 -0.018081877 -0.14235558 0.12961222 0.032007057 0.04983185 -0.07155606 -0.089600064
0.07039128 0.016136058 -0.037242625 -0.108240224 -0.039390456 -0.072278626 -0.07729119 0.08668188
0.013760148 0.10058028 -0.035575762 0.13392514 -0.055582553 0.068987094 0.05892917 0.0048536113
-0.10034973 0.086690135 -0.07524697 0.09692052 -0.1503966 -0.06875762 0.13225898 0.01659147
0.09087817 0.02578055 0.066756904 -0.10399026 0.058324747 0.030633906 0.048803836 0.003119784
0.08504021 -0.07700087 -0.06853333 0.0037590303 -0.053327903 0.047547184 -0.069145925 0.010881362
0.055010527 0.1032708 -0.024358667 -0.023566116 0.029199528 0.0058935937 0.08956658 0.09177531
0.045109756 -0.10327027 0.05930694 0.10384005 0.000636519 -0.017163988 0.027223336 0.035220508
0.15214421 0.013006805 -0.039027605 0.11943466 0.054636043 0.05869029 0.059520844 0.14864643
-0.0030699922 0.03457234 -0.13951188 0.10735107 0.16022734 -0.06538278 -0.10815039 -0.055016883
-0.1069745 -0.046511535 0.056380976 -0.055164024 0.02389054 0.07033451 -0.004340019 -0.10415464
-0.014544986 0.013080969 -0.012948037 -0.06446547 0.08308404 -0.034223463 -0.089301534 0.11081586
-0.038563862 -0.04409535 -0.051250856 0.037472434 0.06818203 -0.051042285 0.07861801 0.058034457
-0.079259545 -0.10762522 0.041486915 -0.05964415 0.06092689 -0.0965183 0.008250677 -0.06505136
0.08110171 0.076727994 -0.04682187 0.08281716 0.094235085 0.0021444247 -0.05052259 -0.08782465
0.024293957 -0.080747634 0.032482997 -0.032087192 0.093840554 -0.049387444 0.065381765 -0.001014854
-0.13178843 -0.0374671 0.062272716 0.053240653 0.0050185546 -0.08259791 -0.042332415 -0.0138668725
0.13378362 0.09841641 0.10259863 0.026102949 -0.024922544 0.12881193 0.10960993 0.04564687
-0.03934726 -0.07410293 -0.013458259 0.13642402 -0.041858044 -0.09296526 0.07670507 0.075592466
-0.06832671 0.007432193 -0.07765384 0.08565189 -0.014553697 -0.006463844 0.045366086 0.042320646
-0.02209447 0.08977323 -0.0023123124 0.016361203 -0.09302541 -0.009081681 0.0095588 0.007540555
0.06961486 -0.092125155 -0.067693934 -0.059381653 0.059709433 0.029436773 0.13878414 -0.048216403
-0.022255573 -0.0044823107 -0.06928133 0.021019176 -0.06465632 0.00023388409 0.051006477 -0.008170844
0.16632564 -0.13689356 -0.04127043 0.15156975 0.07713084 -0.12935206 0.02665241 0.11155865
0.018586304 -0.0003608691 -0.06921481 -0.10192799 -0.022288477 0.121701024 0.039590616 -0.10762192
0.0025165507 0.0887015 -0.08887922 -0.038765848 -0.036914073 0.09609337 0.09083435 0.0121175395
-0.04341278 -0.024631014 0.018695636 -0.052159324 -0.087514825 -0.0934401 -0.09005785 -0.102920726
-0.13160047 0.06860996 -0.088215984 -0.16516645 0.04126704 0.10625882 0.033855308 0.09270659
-0.025604155 0.11913482 -0.068299405 -0.07691813 0.050247926 0.17754138 0.009203485 0.10369024
0.007486853 0.014705404 0.13829182 -0.0941808 -0.03729482 0.0449579 0.09103177 -0.023102142
-0.009192195 -0.086101465 0.0051480858 -0.0068914876 0.014235258 0.020863678 0.028354505 0.051802486
00000000: 0128 e3bd 1c20 923c 1a76 243d 9b14 3e3c
00000010: 37ea 1a3d a2ed b63d 572b d3bb df82 56bd
00000020: 1d35 633d 7220 94bc a9c5 11be 11b9 043e
00000030: d519 033d 7b1c 4c3d fc8b 92bd 3d80 b7bd
00000040: 4e29 903d c42f 843c b98b 18bd 0dad ddbd
00000050: e357 21bd d106 94bd d84a 9ebd 4586 b13d
00000060: 3e72 613c 09fd cd3d e4b7 11bd ac23 093e
00000070: 88aa 63bd 1b49 8d3d b75f 713d 0b0b 9f3b
00000080: 2984 cdbd 998a b13d 151b 9abd 447e c63d
00000090: 9101 1abe ccd0 8cbd e66e 073e d6ea 873c
000000a0: 561e ba3d bb31 d33c d8b7 883d d8f8 d4bd
000000b0: eee5 6e3d f5f3 fa3c 88e6 473d 4a75 4c3b
000000c0: 9029 ae3d a2b2 9dbd 345b 8cbd 105a 763b
000000d0: 5c6e 5abd d6c0 423d 619c 8dbd bd47 323c
000000e0: b852 613d a47f d33d d48b c7bc ba0d c1bc
000000f0: d933 ef3c 0c1f c13b af6e b73d b2f4 bb3d
00000100: 02c5 383d 5d7f d3bd d5eb 723d 18aa d43d
00000110: 11dc 263a 7e9b 8cbc 7903 df3c 6143 103d
00000120: b1cb 1b3e 7f1a 553c 69db 1fbd 299a f43d
00000130: 0bca 5f3d 3b65 703d 21cc 733d c536 183e
00000140: ec31 49bb ba9b 0d3d 34dc 0ebe e1da db3d
00000150: a312 243e 68e7 85bd f47d ddbd 6259 61bd
00000160: 7215 dbbd e182 3ebd bdef 663d acf3 61bd
00000170: 18b6 c33c 8a0b 903d b836 8ebb 074f d5bd
00000180: 184e 6ebc 9051 563c 0124 54bc 7906 84bd
00000190: f727 aa3d e72d 0cbd b9e3 b6bd 6df3 e23d
000001a0: 24f5 1dbd 539d 34bd 6bec 51bd b27c 193d
000001b0: 05a3 8b3d b711 51bd 7b02 a13d 8ab5 6d3d
000001c0: d452 a2bd 9d6a dcbd 2fee 293d 6d4d 74bd
000001d0: 798e 793d 63ab c5bd d92d 073c a639 85bd
000001e0: a718 a63d 9123 9d3d 4ac8 3fbd 0b9c a93d
000001f0: 53fe c03d 7a89 0c3b c6f0 4ebd 69dd b3bd
00000200: 1f04 c73c 045f a5bd e40c 053d dc6d 03bd
00000210: 7a2f c03d 7d4a 4abd e0e6 853d d904 85ba
00000220: 8cf3 06be 1a77 19bd ad11 7f3d df12 5a3d
00000230: b072 a43b 1829 a9bd c164 2dbd e131 63bc
00000240: 93fe 083e 8b8e c93d 3b1f d23d dad5 d53c
00000250: 5d2a ccbc 46e7 033e 2c7b e03d 36f8 3a3d
00000260: 982a 21bd 47c3 97bd 0880 5cbc bdb2 0b3e
00000270: 5773 2bbd 9264 bebd 8c17 9d3d 39d0 9a3d
00000280: e0ee 8bbd c189 f33b fa08 9fbd 426a af3d
00000290: a172 6ebc a7ce d3bb cad1 393d 6a58 2d3d
000002a0: 76ff b4bc 07db b73d 2a8a 17bb ee07 863c
000002b0: 1b84 bebd 55cb 14bc 839c 1c3c c316 f73b
000002c0: 3c92 8e3d 1dac bcbd 1ea3 8abd 2d3a 73bd
000002d0: e191 743d 6325 f13c 6e1d 0e3e 907e 45bd
000002e0: 5251 b6bc 59e0 92bb 5fe3 8dbd 6830 ac3c
000002f0: 886a 84bd c83e 7539 2bec 503d 01df 05bc
00000300: 4551 2a3e d32d 0cbe 2f0b 29bd 1a35 1b3e
00000310: c6f6 9d3d de74 04be 2856 da3c dd78 e43d
00000320: 4e42 983c 0833 bdb9 7fc0 8dbd 9fbf d0bd
00000330: 5396 b6bc 633e f93d c529 223d e268 dcbd
00000340: b7ec 243b 22a9 b53d 4f06 b6bd f0c8 1ebd
00000350: 3633 17bd 9acc c43d 5c07 ba3d a588 463c
00000360: 99d1 31bd fbc6 c9bc 9727 993c 04a5 55bd
00000370: f93a b3bd 865d bfbd 4070 b8bd 1ac8 d2bd
00000380: 46c2 06be 6183 8c3d 95aa b4bd 6521 29be
00000390: a107 293d 399e d93d ddab 0a3d f4dc bd3d
000003a0: cebf d1bc f5fc f33d 8fe0 8bbd 4187 9dbd
000003b0: c5d0 4d3d 68cd 353e 37ca 163c 8c5b d43d
000003c0: 4654 f53b efee 703c 5f9c 0d3e dde1 c0bd
000003d0: 74c2 18bd c625 383d dd6e ba3d b440 bdbc
000003e0: dc9a 16bc f755 b0bd 46b1 a83b fdd1 e1bb
000003f0: 003b 693c 4eea aa3c b547 e83c d82e 543d

cells.1.h2h.bias f4 [256]
0.047507435 0.028560251 -0.057575945 0.09357397 0.015964959 0.029147325 0.0263715 -0.120047264
-0.021114573 0.113375574 0.0871921 -0.031694397 0.16062611 -0.07002169 -0.112945296 -0.015716335
0.059401225 -0.013438983 0.07119362 -0.100156 -0.08418676 0.006789278 -0.07732104 -0.027178394
-0.051136617 -0.033211887 0.15046039 -0.010884022 0.10663946 0.055615313 0.0050744964 -0.0031672234
-0.10042848 0.110457495 0.09095222 0.03657662 -0.06914702 -0.043821897 0.14378217 -0.07822394
-0.048162915 0.09622031 0.16669486 0.031001918 0.012901968 -0.09553862 0.14891262 -0.083279364
-0.11828199 0.041988898 -0.017756531 -0.081000805 -0.07695642 0.07457588 -0.018415762 0.12736402
0.015105121 -0.08343742 -0.0081299385 -0.0072904695 -0.06911609 0.15774962 -0.046246488 -0.06629351
0.074182205 -0.0070031905 -0.040456735 -0.027655857 -0.10623145 -0.049417987 -0.0011658361 -0.12632425
-0.056324672 0.022857113 -0.0017027399 0.10063098 -0.0734117 -0.07571001 -0.13619715 0.019231586
-0.090010725 -0.07137567 0.038778014 0.052192215 0.09446847 0.051956423 0.06698098 -0.06677153
-0.033213615 0.033305723 0.09446948 0.09217497 -0.019116733 0.021286586 0.05686073 -0.045853537
0.10774497 0.0700221 -0.05130331 0.1606784 -0.015621777 -0.005127643 -0.02540726 -0.05586381
0.0936318 0.10464687 0.035134997 -0.065201886 -0.03974993 -0.06433517 -0.10118826 0.11258057
0.059787042 -0.13016465 -0.12812497 -0.00775274 -0.10580939 -0.1313774 -0.15373996 0.018635955
0.07198364 0.03855228 -0.07907941 0.030582026 0.03980931 0.07074717 0.040804654 0.055515077
0.06644777 -0.093538396 0.07319217 0.09882095 0.04590563 0.025410922 -0.019652296 0.052329298
0.09052726 -0.1201539 -0.03484445 0.09408632 -0.022094036 0.079822905 -0.08982481 -0.061977718
-0.033272497 -0.04928972 -0.034131013 -0.114088595 0.09716961 0.106754266 0.06261298 0.055577867
-0.083751015 0.09000702 0.07078627 0.10632652 0.04658238 0.04335538 -0.02141576 -0.06935553
-0.024569275 0.030383635 0.053862054 0.049936645 0.051334664 0.094018795 0.10638611 -0.052978594
0.08229441 -0.07463196 0.05400893 -0.112625174 -0.026186954 0.08383044 -0.11723005 0.057107117
-0.091004625 -0.06758254 -0.013784512 0.10726537 -0.039066248 -0.06998479 -0.082323715 0.08679813
-0.061771665 0.08344753 0.031553365 -0.029637937 0.009231081 -0.0072946837 0.08295 0.01706254
0.15575854 -0.027193576 0.107158825 0.029304065 0.01116038 -0.03462766 0.056262743 -0.028280146
0.0012116398 0.051817745 -0.059640195 0.005045185 0.083617516 -0.06816436 -0.12122718 -0.053687196
-0.04985302 0.14823468 0.008589307 0.10132218 0.04684676 -0.033347495 -0.14645183 -0.050361663
-0.033141803 0.14092155 0.09736171 0.095811315 -0.05573088 -0.02930121 0.04010808 0.08442802
-0.011651542 -0.06867074 0.103249155 0.043237083 -0.08842664 0.011979568 0.07888975 -0.051174495
0.020380516 0.14260836 0.015944446 0.014825333 -0.09193471 -0.058517702 -0.055484783 -0.07910157
-0.10115852 0.06997928 0.12570868 -0.022385184 0.02695591 -0.085703835 -0.08398286 -0.03895675
0.041271098 -0.025510887 0.045448434 0.13625792 0.06853863 -0.018166084 -0.041719727 -0.04019063
00000000: 2897 423d 30f7 e93c c1d4 6bbd b6a3 bf3d
00000010: f2c8 823c 5fc6 ee3c 0b09 d83c 57db f5bd
00000020: 78f8 acbc 7431 e83d c691 b23d fcd1 01bd
00000030: 2c7b 243e 8867 8fbd dd4f e7bd 8bbf 80bc
00000040: b34e 733d 2e2f 5cbc f6cd 913d 971e cdbd
00000050: 1c6a acbd 9778 de3b 7e5a 9ebd 39a5 debc
00000060: a174 51bd 3009 08bd 4a12 1a3e e652 32bc
00000070: ca65 da3d e2cc 633d f647 a63b 3191 4fbb
00000080: 72ad cdbd 8a37 e23d 2845 ba3d 5ed1 153d
00000090: f49c 8dbd 977e 33bd a23b 133e e033 a0bd
000000a0: 7a46 45bd 270f c53d 0fb2 2a3e bcf7 fd3c
000000b0: c762 533c c1a9 c3bd 8d7c 183e 5f8e aabd
000000c0: d43d f2bd 8dfc 2b3d 2576 91bc c0e3 a5bd
000000d0: 549b 9dbd 3dbb 983d a7dc 96bc b76b 023e
000000e0: 787b 773c 3de1 aabd 6f33 05bc e4e4 eebb
000000f0: bd8c 8dbd 1e89 213e f56c 3dbd e4c4 87bd
00000100: d7ec 973d 057b e5bb f6b5 25bd 898e e2bc
00000110: e08f d9bd 846a 4abd f8ce 98ba 255b 01be
00000120: b3b4 66bd d73e bb3c 782e dfba 9e17 ce3d
00000130: e058 96bd da0d 9bbd 4477 0bbe 8f8b 9d3c
00000140: 8b57 b8bd 682d 92bd b2d5 1e3d 81c7 553d
00000150: af78 c13d 42d0 543d 532d 893d 83bf 88bd
00000160: 000b 08bd 956b 083d 3779 c13d 3bc6 bc3d
00000170: b29a 9cbc 3561 ae3c cce6 683d ebd0 3bbd
00000180: 65a9 dc3d bf67 8f3d 6b23 52bd e188 243e
00000190: 7bf2 7fbc c905 a8bb e322 d0bc 73d1 64bd
000001a0: 07c2 bf3d 1951 d63d b7e9 0f3d 9188 85bd
000001b0: d3d0 22bd 28c2 83bd ca3b cfbd a490 e63d
000001c0: 42e3 743d e249 05be 3133 03be b20a febb
000001d0: 98b2 d8bd cc87 06be 026e 1dbe 6eaa 983c
000001e0: 296c 933d ffe8 1d3d 63f4 a1bd 2887 fa3c
000001f0: 160f 233d e4e3 903d c822 273d c763 633d
00000200: c515 883d 0f91 bfbd c7e5 953d a362 ca3d
00000210: 8b07 3c3d 912a d03c dafd a0bc 3f57 563d
00000220: 5b66 b93d 3f13 f6bd 0eb9 0ebd 54b0 c03d
00000230: 8dfe b4bc 317a a33d 12f6 b7bd 59dc 7dbd
00000240: be48 08bd 04e4 49bd f6cc 0bbd 48a7 e9bd
00000250: dc00 c73d fba1 da3d 3c3b 803d 9ea5 633d
00000260: a785 abbd 9a55 b83d 64f8 903d b8c1 d93d
00000270: 2acd 3e3d 6995 313d 1b70 afbc 460a 8ebd
00000280: 8145 c9bc 1ae7 f83c 759e 5c3d 5e8a 4c3d
00000290: 4c44 523d ed8c c03d f6e0 d93d 1500 59bd
000002a0: f989 a83d a4d8 98bd 7838 5d3d 07a8 e6bd
000002b0: 0686 d6bc 4baf ab3d 4f16 f0bd 27e9 693d
000002c0: a260 babd b768 8abd 6fd8 61bc f2ad db3d
000002d0: ee03 20bd 3054 8fbd 5699 a8bd 38c3 b13d
000002e0: 4904 7dbd 8ae6 aa3d 1a3e 013d 42cb f2bc
000002f0: f63d 173c 3e08 efbb b1e1 a93d bdc6 8b3c
00000300: 2b7f 1f3e 10c5 debc 1676 db3d 140f f03c
00000310: 07da 363c bcd5 0dbd c373 663d c4ab e7bc
00000320: e3cf 9e3a d83e 543d 4749 74bd 1452 a53b
00000330: a93f ab3d c299 8bbd f545 f8bd 1be7 5bbd
00000340: ae32 4cbd d5ca 173e 2aba 0c3c 0182 cf3d
00000350: 63e2 3f3d 6297 08bd 78f7 15be 0848 4ebd
00000360: b3bf 07bd bd4d 103e 9465 c73d b938 c43d
00000370: 1046 64bd 1709 f0bc 5f48 243d 99e8 ac3d
00000380: 1ce6 3ebc 3fa3 8cbd 4b74 d33d 5e19 313d
00000390: 0719 b5bd f345 443c f390 a13d 599c 51bd
000003a0: 0af5 a63c ed07 123e ed9d 823c f4e5 723c
000003b0: 4448 bcbd 42b0 6fbd 0344 63bd 0100 a2bd
000003c0: 332c cfbd 4c51 8f3d c7b9 003e 2261 b7bc
000003d0: a4d2 dc3c 7e85 afbd 35ff abbd 1d91 1fbd
000003e0: e20b 293d 35fc d0bc 2328 3a3d 3287 0b3e
000003f0: fb5d 8c3d 0ad1 94bc 4ee2 2abd ee9e 24bd
