model_group/models_group_demand/LSTM_model_QUEENS_MARATHON PARKWAY.pth (torch, 351154 bytes, 17 tensors)

input_projection.weight f4 [2, 2]
0.45205534 0.35411385 0.14904207 0.20430389
00000000: cc73 e73e 694e b53e 7c9e 183e 0a35 513e

input_projection.bias f4 [2]
0.67318255 -0.13634329
00000000: b155 2c3f 939d 0bbe

cells.0.x2h.weight f4 [256, 2]
-0.32198256 -0.26584405 0.64604694 0.26852232 -0.37401587 0.37571055 0.12079353 -0.19072552
0.39810386 -0.19732714 0.13183527 -0.69269663 0.3608715 -0.69703794 0.32056814 -0.56179655
-0.013618566 0.22886729 0.44015878 0.5991741 -0.47123465 -0.017427625 0.6491071 0.08843841
0.72240776 -0.25495607 -0.2701425 -0.13117422 0.58344924 -0.5874667 0.32876667 0.5084993
0.15470894 -0.13526878 -0.1305891 -0.0031829244 -0.48108968 -0.28689042 -0.1044238 -0.679745
0.59914964 -0.18533333 -0.21918897 0.37493068 0.4599951 0.33253127 -0.24651387 0.13516003
0.0039917575 0.047000412 -0.027477361 0.51257455 0.396291 0.10705681 -0.44644096 -0.5364233
-0.55297077 0.47420108 0.71617 -0.6160068 0.26806277 -0.09792202 -0.45237887 0.5136641
0.36358437 0.31544846 0.39175835 -0.0140695255 0.58106756 0.416365 -0.69244313 0.059494108
-0.49132937 0.21288994 0.0019660844 0.15139103 0.000252367 -0.0057443874 -0.5021711 -0.22424401
-0.43417823 -0.6889946 0.5668395 -0.3260105 -0.545441 -0.6963892 0.10620431 0.52832925
-0.3376119 0.18490927 -0.109387554 -0.5182767 -0.64798427 -0.5848223 0.4297869 -0.094056696
0.26308495 0.078534104 0.58338636 -0.20453374 0.07282088 -0.049192313 -0.25557378 -0.02894513
0.71431035 -0.01193289 -0.23721623 -0.36866435 -0.30628955 0.36313972 0.34450236 -0.13318162
0.6083525 -0.19349195 -0.37562883 0.22203547 -0.11458921 -0.70858806 0.36944568 -0.72052413
0.4676311 0.23858844 0.28289175 0.34550622 0.34623268 0.5807691 0.18927884 0.58341455
-0.031760875 -0.47965613 -0.32390985 -0.7238146 -0.34822717 -0.48299274 0.41612765 -0.3436524
0.074237294 0.4422009 -0.51506686 0.2882104 0.17914099 0.3141791 -0.45755684 -0.30254978
0.18830207 0.31030503 0.3878975 0.28513804 0.70508003 0.061806485 -0.09378343 0.5889537
0.037543833 -0.15252496 -0.5048428 0.4908101 0.25595388 0.22747593 0.07984214 0.32808945
0.49342254 0.062969476 0.54002196 -0.48708624 -0.591971 -0.7291656 -0.3211809 -0.18591881
0.028380457 -0.3854808 0.037556138 -0.13684563 -0.5639553 -0.535406 -0.18288767 -0.6214134
0.3165678 -0.46489412 0.07945725 0.5548993 0.14306845 0.33715478 0.5357691 0.5635301
-0.41179323 0.034312397 -0.28031975 -0.7134562 0.47196648 -0.62841064 -0.47386774 -0.2077647
0.68705696 -0.43566826 0.31724665 -0.27287078 -0.2698124 -0.6276818 -0.3557202 0.2696682
0.45546237 -0.6304968 -0.30084378 -0.09586208 0.5366736 -0.68633586 -0.67854875 0.3241392
0.41208756 0.18083374 0.42391533 0.67519915 0.39466122 0.22805376 -0.053307306 0.29810378
0.13423088 0.2332945 0.3881135 0.6779553 -0.30483708 0.065250374 0.6303551 -0.21058358
0.26365116 -0.17755271 0.2627357 -0.17699365 0.6104379 -0.047604028 -0.49497 0.5530648
-0.017917436 -0.1124111 -0.1239521 0.642123 -0.26100737 0.16976888 0.6335649 -0.046826627
-0.51841354 -0.27538246 0.22032288 0.34325358 0.053409353 0.17177615 0.04754588 -0.50094897
-0.386297 -0.4060552 0.10769202 -0.035492107 -0.6011981 -0.36475545 0.7300996 -0.25706536
00000000: e6da a4be b61c 88be 5563 253f c27b 893e
00000010: 027f bfbe 225d c03e 9962 f73d 8d4d 43be
00000020: 45d4 cb3e 2010 4abe d3ff 063e 9154 31bf
00000030: 26c4 b83e 1471 32bf 8221 a43e e6d1 0fbf
00000040: 6820 5fbc 305c 6a3e 7e5c e13e 7963 193f
00000050: ab45 f1be 61c4 8ebc e22b 263f 321f b53d
00000060: b7ef 383f 9a89 82be 1e50 8abe 8952 06be
00000070: ee5c 153f 3864 16bf 1b54 a83e 032d 023f
00000080: 056c 1e3e e683 0abe 26b9 05be 9c98 50bb
00000090: 6351 f6be 4de3 92be 25dc d5bd c503 2ebf
000000a0: df61 193f 05c8 3dbe 1373 60be eaf6 bf3e
000000b0: 7a84 eb3e 8a41 aa3e 226e 7cbe 6467 0a3e
000000c0: 4acd 823b 8183 403d 3418 e1bc 1638 033f
000000d0: a7e6 ca3e 9a40 db3d e993 e4be 0a53 09bf
000000e0: 7e8f 0dbf 7cca f23e eb56 373f 9fb2 1dbf
000000f0: 863f 893e 578b c8bd 349e e7be 7e7f 033f
00000100: bb27 ba3e 7682 a13e 8d94 c83e de83 66bc
00000110: d8c0 143f cb2d d53e f443 31bf 18b0 733d
00000120: 868f fbbe d2ff 593e 6cd9 003b 4006 1b3e
00000130: 2050 8439 6a3b bcbb 498e 00bf 39a0 65be
00000140: 9c4c debe f361 30bf 651c 113f d9ea a6be
00000150: 05a2 0bbf 9046 32bf a581 d93d 9640 073f
00000160: 78db acbe db58 3d3e 9506 e0bd c8ad 04bf
00000170: 4ce2 25bf eab6 15bf 070d dc3e cca0 c0bd
00000180: 12b3 863e 7dd6 a03d cf58 153f 4b71 51be
00000190: 1d23 953d e17d 49bd 91da 82be 561e edbc
000001a0: 0bdd 363f 2b82 43bc d0e8 72be 93c1 bcbe
000001b0: fcd1 9cbe 73ed b93e 9d62 b03e c360 08be
000001c0: fdbc 1b3f c122 46be 6c52 c0be 445d 633e
000001d0: bfad eabd 0766 35bf fc27 bd3e 4574 38bf
000001e0: 586d ef3e 8750 743e 30d7 903e 31e6 b03e
000001f0: 6945 b13e 49ad 143f 50d2 413e a85a 153f
00000200: b117 02bd 7d95 f5be 83d7 a5be ea4b 39bf
00000210: d54a b2be d34a f7be af0e d53e 35f3 afbe
00000220: b909 983d 2868 e23e 6cdb 03bf 5090 933e
00000230: bc70 373e 15dc a03e e444 eabe cee7 9abe
00000240: 42d2 403e 4de0 9e3e 809a c63e 9dfd 913e
00000250: 2080 343f cc28 7d3d 8711 c0bd abc5 163f
00000260: 90c7 193d 812f 1cbe 613d 01bf 764b fb3e
00000270: 630c 833e 73ef 683e 4784 a33d 57fb a73e
00000280: e1a1 fc3e 24f6 803d e13e 0a3f 5e63 f9be
00000290: 698b 17bf 99aa 3abf d371 a4be 8061 3ebe
000002a0: 227e e83c bd5d c5be 77d4 193d 4321 0cbe
000002b0: 605f 10bf 5e10 09bf e846 3bbe f314 1fbf
000002c0: 2d15 a23e 9a06 eebe 7cba a23d e10d 0e3f
000002d0: 8980 123e 8d9f ac3e 2a28 093f 8243 103f
000002e0: 90d6 d2be 288b 0c3d 1286 8fbe 11a5 36bf
000002f0: 97a5 f13e 85df 20bf cb9e f2be 45c0 54be
00000300: f7e2 2f3f e90f dfbe 276e a23e b8b5 8bbe
00000310: da24 8abe c1af 20bf f520 b6be f311 8a3e
00000320: 5d32 e93e 3d68 21bf 3208 9abe 5753 c4bd
00000330: 7163 093f b5b3 2fbf 5fb5 2dbf 93f5 a53e
00000340: 24fd d23e 7b2c 393e 6e0b d93e dad9 2c3f
00000350: 0911 ca3e ed86 693e c358 5abd 0fa1 983e
00000360: d273 093e c1e4 6e3e d0b6 c63e 7b8e 2d3f
00000370: 9b13 9cbe fda1 853d f45e 213f 39a3 57be
00000380: 49fd 863e 61d0 35be 4b85 863e d33d 35be
00000390: a945 1c3f 71fc 42bd b56c fdbe a895 0d3f
000003a0: 96c7 92bc ca37 e6bd 99da fdbd 2c62 243f
000003b0: c2a2 85be e5d7 2d3e 4f31 223f 47cd 3fbd
000003c0: c0b6 04bf eefe 8cbe 529c 613e efbe af3e
000003d0: c4c3 5a3d 16e6 2f3e 78bf 423d 313e 00bf
000003e0: b8c8 c5be 78e6 cfbe a28d dc3d 2c60 11bd
000003f0: 1ee8 19bf 3ac1 babe cfe7 3a3f 129e 83be

cells.0.x2h.bias f4 [256]
-0.26246417 0.008222822 0.55802214 -0.59310436 0.48987752 0.6630607 0.3889402 -0.2400956
0.6584672 -0.45457572 0.7001583 0.18613344 0.117738366 -0.65914756 -0.17918038 0.27338335
0.24426049 -0.4840534 -0.17402871 0.0024772827 0.41021946 -0.5893404 0.6945065 -0.23185626
-0.6728517 -0.29674244 -0.43393236 0.5992066 0.16933867 0.26104006 0.5562617 -0.52818763
0.0319286 0.271167 -0.3387399 -0.04151045 -0.052940417 0.6586887 -0.15675895 0.41679305
0.614926 -0.06962525 0.42699045 0.5589494 -0.16676366 -0.6211009 0.059388917 0.7214867
0.43636742 -0.67133546 0.711845 0.08643093 0.19013225 0.48826608 0.19368137 -0.37131074
-0.094528206 0.099670485 0.29507452 0.1699988 0.21991645 0.22708438 0.17984323 0.6242329
-0.09486533 0.25868127 0.48588285 0.09291531 -0.25830793 -0.6139211 -0.3097805 0.45206264
0.08736495 0.21858022 0.17802949 0.6140812 -0.40860525 -0.012573153 -0.4326972 0.40613258
-0.18408325 -0.1691024 0.16521104 0.40688974 -0.62282497 0.010263893 0.13555788 0.031753935
-0.00983729 -0.17841674 -0.18889984 0.38691655 -0.117184296 0.4423373 0.25481597 0.20121744
0.23972844 -0.3648335 0.22437909 -0.29090804 0.43895933 0.4898474 -0.12240553 0.5946789
0.41764814 0.53621304 0.21833844 -0.43368262 -0.5663545 0.38014224 0.45072317 0.64523345
0.17047325 -0.28862005 0.7073983 0.13964944 0.06993208 -0.35270357 -0.30721462 -0.26760563
0.1581378 0.37247685 -0.5643011 -0.0011021302 0.5721712 0.52882373 0.19452828 0.25416827
0.5790622 0.18931223 0.01843536 -0.05555774 -0.45142907 -0.5396076 0.43121383 0.105985254
-0.22230335 -0.42738757 0.004705016 -0.61572367 -0.57050484 -0.26486427 -0.36936164 -0.121885315
-0.3572486 0.26613703 0.48735607 -0.12404719 0.12107047 -0.20691493 -0.24724494 -0.35136044
0.5750315 -0.09046386 -0.59515977 -0.37068054 0.009564631 0.052326836 0.11791574 0.31376907
0.04283398 0.40398064 0.5237787 0.35527915 -0.630693 -0.52743745 0.14886445 0.4030889
0.01428787 0.15499657 0.21823604 0.36390543 -0.020093283 0.5160714 -0.30563197 0.64738613
0.49500436 0.40099755 0.6722866 0.30260554 -0.009957097 -0.66653126 -0.2721071 -0.10327455
0.46564287 -0.190179 -0.3212684 -0.35048488 0.6506707 0.68155855 -0.6738282 -0.11971717
0.5964792 -0.6283684 -0.46945935 -0.17003249 -0.60121965 0.6018419 0.69723094 0.20736274
-0.3414818 -0.46705416 0.47130486 0.7061385 -0.48852614 -0.49801886 -0.13854857 -0.41117674
0.16784574 0.49506477 -0.70050406 0.547529 0.3094389 -0.0946789 0.065708466 0.35051522
-0.6879399 -0.019606486 -0.09088179 -0.2654853 -0.10644646 -0.08528308 0.57035154 -0.31844908
0.07984617 -0.5355494 -0.3115256 0.07579872 0.6060401 -0.19882174 -0.33202466 -0.348934
-0.67006665 0.4350596 -0.46325925 0.24770387 0.15762456 0.5046808 -0.09508908 -0.63899755
0.44970444 -0.11510437 -0.12189445 0.14942895 -0.24128136 0.5523952 -0.3127415 -0.46392384
0.5625101 0.6077627 0.3328786 0.038029388 0.08549874 0.31785616 -0.14959233 0.013680377
00000000: b461 86be 04b9 063c 8ada 0e3f b0d5 17bf
00000010: 3ad1 fa3e 59be 293f 2b23 c73e 9fdb 75be
00000020: 4e91 283f 26be e8be 933d 333f c499 3e3e
00000030: d020 f13d e5bd 28bf 107b 37be e7f8 8b3e
00000040: 6c1f 7a3e d9d5 f7be 9534 32be e859 223b
00000050: 4908 d23e 03df 16bf 2ecb 313f ba6b 6dbe
00000060: 0240 2cbf a0ee 97be 622c debe 9b65 193f
00000070: 1e67 2d3e 0ba7 853e 2b67 0e3f 4e37 07bf
00000080: 90c7 023d 67d6 8a3e 516f adbe dd06 2abd
00000090: 0dd8 58bd d39f 283f 6b85 20be e665 d53e
000000a0: ca6b 1d3f af97 8ebd 7e9e da3e 4f17 0f3f
000000b0: 18c4 2abe 7800 1fbf cb41 733d 5ab3 383f
000000c0: 8d6b df3e a4dc 2bbf 793b 363f b302 b13d
000000d0: 07b2 423e 03fe f93e 6954 463e 711c bebe
000000e0: 0198 c1bd 0a20 cc3d 0214 973e 2a14 2e3e
000000f0: c731 613e cf88 683e d328 383e bacd 1f3f
00000100: c148 c2bd df71 843e a3c5 f83e 624a be3d
00000110: f040 84be ef29 1dbf 8d9b 9ebe c174 e73e
00000120: 65ec b23d 7ed3 5f3e 5d4d 363e 6d34 1d3f
00000130: b534 d1be a0ff 4dbc 7d8a ddbe 9cf0 cf3e
00000140: 5280 3cbe 2e29 2dbe 152d 293e da53 d03e
00000150: 7571 1fbf e329 283c afcf 0a3e 6a10 023d
00000160: 962c 21bc e1b2 36be f66e 41be ed19 c63e
00000170: 52fe efbd 097a e23e 3d77 823e f20b 4e3e
00000180: 5f7b 753e 75cb babe a2c3 653e e6f1 94be
00000190: 47bf e03e 47cd fa3e c0af fabd e03c 183f
000001a0: fad5 d53e 4245 093f 1d94 5f3e a60b debe
000001b0: 9cfc 10bf 01a2 c23e 30c5 e63e 052e 253f
000001c0: 8a90 2e3e 02c6 93be 0e18 353f 4300 0f3e
000001d0: 8d38 8f3d 9095 b4be 3c4b 9dbe 9b03 89be
000001e0: e0ee 213e 49b5 be3e 0976 10bf 5a75 90ba
000001f0: d079 123f fe60 073f 6c32 473e 5822 823e
00000200: 6c3d 143f 11db 413e c105 973c 8390 63bd
00000210: b621 e7be b923 0abf 0fc8 dc3e cc0e d93d
00000220: 7da3 63be 8bd2 dabe 892c 9a3b 11a0 1dbf
00000230: 9b0c 12bf 4a9c 87be f81c bdbe 029f f9bd
00000240: 4ae9 b6be 1d43 883e bc86 f93e 740c febd
00000250: cbf3 f73d 82e1 53be c72d 7dbe 84e5 b3be
00000260: 4435 133f 1e45 b9bd 645c 18bf d7c9 bdbe
00000270: f8b4 1c3c aa54 563d cf7d f13d 57a6 a03e
00000280: af72 2f3d 8dd6 ce3e 5c16 063f 26e7 b53e
00000290: 1975 21bf 2406 07bf ec6f 183e ab61 ce3e
000002a0: ac17 6a3c 6cb7 1e3e 4579 5f3e d051 ba3e
000002b0: ab9a a4bc 411d 043f cb7b 9cbe 19bb 253f
000002c0: 3671 fd3e 8d4f cd3e fa1a 2c3f 1def 9a3e
000002d0: 1723 23bc cba1 2abf 9f51 8bbe 9b81 d3bd
000002e0: be68 ee3e 49be 42be 4b7d a4be c172 b3be
000002f0: 5b92 263f 9f7a 2e3f 0180 2cbf 472e f5bd
00000300: dcb2 183f c0dc 20bf fa5c f0be ff1c 2ebe
00000310: 88e9 19bf 5012 1a3f ba7d 323f e656 543e
00000320: b4d6 aebe b921 efbe df4e f13e 7ec5 343f
00000330: 1920 fabe 54fc febe addf 0dbe c285 d2be
00000340: c1df 2b3e 2179 fd3e 3c54 33bf dc2a 0c3f
00000350: c76e 9e3e 03e7 c1bd 2992 863d bb76 b33e
00000360: d41c 30bf c89d a0bc 3b20 babd b0ed 87be
00000370: 9a00 dabd e5a8 aebd 8f02 123f c20b a3be
00000380: 6486 a33d c419 09bf 4980 9fbe 5c3c 9b3d
00000390: 7225 1b3f ed97 4bbe 23ff a9be 7aa7 b2be
000003a0: 7d89 2bbf 22c0 de3e 5130 edbe 15a6 7d3e
000003b0: 5568 213e c332 013f 10be c2bd 5895 23bf
000003c0: a93f e63e d7bb ebbd cca3 f9bd e703 193e
000003d0: 7612 77be c669 0d3f a71f a0be 6d87 edbe
000003e0: a900 103f 5696 1b3f 106f aa3e b4c4 1b3d
000003f0: f719 af3d 0bbe a23e bb2e 19be a923 603c

cells.0.h2h.weight f4 [256, 64]
0.07931626 -0.08872061 -0.07918148 0.06694175 0.09439817 -0.11560458 0.07329487 -0.1124487
-0.026582278 0.0756236 0.04742091 0.05187195 0.0795467 -0.10862625 -0.018709542 0.08367863
-0.024825815 0.09768939 0.06943852 0.06969616 -0.036873166 0.0011639602 0.028020414 -0.07926861
-0.12139052 -0.045925334 -0.09224806 -0.089063615 -0.09063701 0.023977622 -0.038247623 -0.105538085
0.110081084 0.02045812 0.14559676 -0.07619549 -0.09695165 0.0505813 0.037645087 0.0109515665
-0.08114182 0.056499843 0.042779185 0.00030429935 0.09378874 0.04476518 -0.023415854 -0.12014819
0.04165245 -0.009077015 0.06399407 -0.11458171 -0.07657233 0.018164711 0.089542955 -0.05913368
-0.07705541 -0.07025731 -0.09882511 -0.05949583 -0.099048026 -0.027007584 -0.15387896 0.0149676325
0.14660008 0.01384463 -0.013850402 -0.040067416 -0.037535027 -0.08489903 0.062353197 -0.0021638493
0.021012334 -0.019128991 0.038182817 -0.11673359 0.01800436 0.018634357 -0.03571924 0.11397391
0.016753683 0.10755387 0.010605804 -0.10985797 -0.08798036 -0.039460223 0.03061356 -0.07829225
-0.036638856 -0.072458155 0.057990327 0.054699093 -0.16769288 -0.1165523 -0.06429107 0.00548381
0.095195875 -0.021873722 0.015242664 0.05455612 -0.13801298 0.026860354 0.051967524 -0.047852464
-0.055028334 0.14625278 0.15006682 0.018185494 -0.091480255 0.029360734 0.007521554 0.13389166
0.14948928 -0.08914275 0.114337154 -0.026550127 -0.0949896 -0.10676662 -0.14902872 -0.08837949
0.019011851 -0.14601302 -0.034019098 -0.079461746 0.013710655 0.08779764 -0.09837007 0.027400639
0.08341801 0.05172827 -0.04574627 -0.049117904 0.032394893 0.045053896 0.093915075 -0.06400949
0.058434915 -0.14331162 -0.065100975 0.09551785 -0.11252546 -0.06401421 -0.056506176 0.020006884
-0.0672622 0.11747931 0.21479003 -0.07234768 -0.10304016 0.016682208 0.04058178 0.009605193
0.10209581 -0.13997592 -0.012185617 -0.012173511 -0.1657582 0.059359223 0.059029814 0.14891493
0.12334855 0.08918067 0.22521748 0.15597457 -0.0357946 -0.16377659 0.09259873 0.19194576
-0.1459035 0.15720786 0.08759916 0.14145032 0.05585759 -0.053332772 -0.013441442 0.17567137
0.034422465 -0.04740547 0.12430421 0.15088724 -0.12815496 -0.08894748 0.03767453 0.13884345
0.060063805 -0.06680686 -0.13600692 -0.0909076 0.060029373 -0.0022575883 -0.11745473 -0.12385205
0.16012847 -0.017887877 -0.06185579 0.10915017 0.030689728 -0.12869018 0.108114555 0.14367677
0.08573293 -0.23063874 -0.19778906 0.04874182 -0.047023322 -0.14787881 -0.14274794 -0.03625108
-0.11343178 0.08716302 0.12125483 -0.07758748 -0.16600044 -0.04011992 -0.032743122 -0.052414857
0.040639646 0.06724059 0.03939247 -0.039321814 -0.18045866 -0.08597612 0.20786537 -0.013023459
-0.0239532 0.22413453 0.17877248 0.06561096 -0.07413204 -0.18311045 -0.06960713 0.08212359
-0.030324625 -0.017608464 0.14010987 0.21222158 0.07316695 -0.03404016 -0.0615803 0.1405967
-0.013207438 -0.0041087205 0.21465483 0.10371361 -0.059676137 -0.13894732 -0.08854528 0.1336408
0.0662052 -0.08620825 -0.15383661 -0.13018294 0.16720308 0.15049708 -0.20296156 -0.012575449
00000000: 9070 a23d 27b3 b5bd e629 a2bd c218 893d
00000010: d453 c13d 18c2 ecbd 9f1b 963d 814b e6bd
00000020: 14c3 d9bc 8ce0 9a3d 6e3c 423d af77 543d
00000030: 61e9 a23d 7077 debd c144 99bc b45f ab3d
00000040: 825f cbbc 6011 c83d c835 8e3d dcbc 8e3d
00000050: 5108 17bd 0690 983a 118b e53c 9557 a2bd
00000060: 989b f8bd 341c 3cbd 8dec bcbd fc66 b6bd
00000070: e69f b9bd b86c c43c 8aa9 1cbd 5a24 d8bd
00000080: 3172 e13d ca97 a73c 5117 153e 620c 9cbd
00000090: 968e c6bd 562e 4f3d bc31 1a3d 336e 333c
000000a0: af2d a6bd 616c 673d 3a39 2f3d 5e8a 9f39
000000b0: 5014 c03d b25b 373d 9bd2 bfbc 4110 f6bd
000000c0: c29b 2a3d c3b7 14bc 530f 833d d1a9 eabd
000000d0: f4d1 9cbd 29ce 943c 4c62 b73d 2836 72bd
000000e0: 3acf 9dbd 11e3 8fbd d264 cabd e6b1 73bd
000000f0: b1d9 cabd 023f ddbc 7292 1dbe cd3a 753c
00000100: 551e 163e 96d4 623c ccec 62bc bb1d 24bd
00000110: 54be 19bd 8bdf adbd 1166 7f3d 5ecf 0dbb
00000120: 0f22 ac3c 67b4 9cbc 9665 1c3d 0512 efbd
00000130: e17d 933c 14a7 983c 564e 12bd 276b e93d
00000140: 053f 893c 3445 dc3d f7c3 2d3c 37fd e0bd
00000150: 0c2f b4bd 0ba1 21bd 4ac9 fa3c b057 a0bd
00000160: a012 16bd f164 94bd 4487 6d3d 280c 603d
00000170: afb7 2bbe f9b2 eebd 09ab 83bd 88b1 b33b
00000180: 0ef6 c23d 8530 b3bc 5ebc 793c 3d76 5f3d
00000190: 4653 0dbe 3f0a dc3c e6db 543d f200 44bd
000001a0: 6465 61bd 4ac3 153e 1eab 193e bff9 943c
000001b0: 005a bbbd ec85 f03c 5e77 f63b e51a 093e
000001c0: b813 193e 7990 b6bd 9929 ea3d a77f d9bc
000001d0: e889 c2bd 75a8 dabd fc9a 18be 4e00 b5bd
000001e0: bebe 9b3c 7084 15be 9c57 0bbd d7bc a2bd
000001f0: a8a2 603c 40cf b33d 3f76 c9bd 4e77 e03c
00000200: 10d7 aa3d 06e1 533d 7160 3bbd db2f 49bd
00000210: 82b0 043d 6f8a 383d 8c56 c03d 6817 83bd
00000220: 7359 6f3d 48c0 12be a953 85bd dd9e c33d
00000230: c073 e6bd e219 83bd 0573 67bd 7ae5 a33c
00000240: c4c0 89bd fe98 f03d ebf1 5b3e 052b 94bd
00000250: b806 d3bd 20a9 883c 1539 263d 195f 1d3c
00000260: 9c17 d13d d955 0fbe 2fa6 47bc 6873 47bc
00000270: 85bc 29be a822 733d 3fc9 713d 287d 183e
00000280: 2a9e fc3d 5ba4 b63d 699f 663e ccb7 1f3e
00000290: 5c9d 12bd 0db5 27be 67a4 bd3d 6e8d 443e
000002a0: ba67 15be 19fb 203e 3067 b33d 5ad8 103e
000002b0: eeca 643d 7773 5abd 7e39 5cbc 32e3 333e
000002c0: 92fe 0c3d 3d2c 42bd 3593 fe3d 2f82 1a3e
000002d0: 0e3b 03be 192a b6bd 9c50 1a3d fa2c 0e3e
000002e0: 7705 763d 09d2 88bd 6645 0bbe c42d babd
000002f0: 5ce1 753d 0cf4 13bb 1b8c f0bd 25a6 fdbd
00000300: b8f8 233e 9989 92bc 7f5c 7dbd 208a df3d
00000310: 0669 fb3c 5cc7 03be 2a6b dd3d 0120 133e
00000320: bf94 af3d 902c 6cbe 3789 4abe 81a5 473d
00000330: 879b 40bd 8b6d 17be 842c 12be 037c 14bd
00000340: ec4e e8bd 8782 b23d 7454 f83d 2fe6 9ebd
00000350: 05fc 29be c954 24bd a71d 06bd f6b0 56bd
00000360: c275 263d 6fb5 893d 005a 213d e90f 21bd
00000370: 28ca 38be 3f14 b0bd a9da 543e 5960 55bc
00000380: 8039 c4bc 8683 653e 2210 373e 0a5f 863d
00000390: 8ad2 97bd 4e81 3bbe 2f8e 8ebd 6a30 a83d
000003a0: 596b f8bc a03f 90bc f678 0f3e 9d50 593e
000003b0: 8ed8 953d b26d 0bbd a03b 7cbd 95f8 0f3e
000003c0: 0364 58bc 72a2 86bb 7ace 5b3e cd67 d43d
000003d0: f76e 74bd 3548 0ebe 3a57 b5bd 22d9 083e
000003e0: 9896 873d f38d b0bd 5887 1dbe ad4e 05be
000003f0: 4937 2b3e e81b 1a3e 28d5 4fbe 4209 4ebc

cells.0.h2h.bias f4 [256]
-0.028506199 -0.06125621 0.028396077 -0.0049205376 -0.11324063 -0.025111537 -0.0803662 -0.043197677
-0.016309557 -0.004446984 -0.06092248 0.00035686872 0.05463109 0.061139394 0.0840926 0.124643125
-0.051121622 0.03426495 -0.122646555 0.08258742 -0.047870513 -0.06576856 0.09858765 -0.0049497047
-0.04216244 0.06533492 0.02794937 -0.050797164 0.10227294 0.053854294 0.08416194 -0.12026066
0.18410006 0.019924238 -0.058074806 -0.0046240166 -0.110753894 -0.022613028 -0.021109678 0.0050836145
-0.026191462 -0.092582665 -0.031478632 -0.035651956 0.12863725 -0.1157829 -0.047430873 0.12451288
0.14761075 -0.11919069 0.018756155 -0.099086516 -0.078861006 -0.011114194 -0.087678775 0.16299048
0.10217755 -0.014101206 0.0014286556 -0.027516212 0.05101546 -0.10937467 0.10319904 0.05856457
0.11379544 -0.0021757092 -0.05504203 0.07377078 0.08535152 -0.04460015 0.07962314 0.07346599
-0.072248004 0.07526919 0.091964856 -0.0729396 -0.063299224 0.0217253 0.03666844 0.10015137
-0.03212927 0.09929606 -0.015469222 0.10216537 0.1285952 -0.0046318276 -0.082724266 -0.03194611
-0.012687694 -0.011317387 -0.108888 -0.0423028 -0.079657175 -0.0887664 -0.039072618 -0.07714976
0.051110104 0.04513968 -0.079908006 0.02722674 0.05701145 0.05165569 0.12291167 -0.06581293
0.110672615 0.103697844 0.012698118 -0.024428582 -0.028411804 -0.031922255 0.12413029 0.08172107
-0.06814801 0.079145595 0.052477177 -0.08412822 0.024368173 0.044366837 -0.068505146 0.06364534
0.011740759 0.12994735 -0.07146154 -0.021323333 -0.046950527 0.016873883 0.13235547 0.053415243
0.07792168 -0.103215046 -0.11653689 -0.084645145 0.121194124 0.043141183 -0.028119516 -0.01619303
-0.028383575 -0.10877565 -0.08519169 -0.09333769 0.04317338 -0.08070563 -0.012854578 0.117482916
-0.030782126 -0.100691386 0.07967504 -0.13135979 -0.12247356 -0.07097931 0.06286126 -0.05462791
0.066334166 -0.072582856 0.041755542 -0.021942314 -0.11685267 0.048076667 0.08048808 0.014961628
0.07315972 0.067596674 0.070504814 -0.081581905 -0.029099138 0.0057595475 -0.06612013 0.087213434
0.07789254 0.07184156 0.102765694 -0.017621385 -0.02580015 0.026072972 -0.034422193 -0.006272392
0.11553048 0.07290075 -0.07840513 -0.0009338621 -0.06900541 0.05830855 -0.1443012 0.058669917
-0.118775815 -0.008995104 -0.012008998 -0.011630083 0.018841287 0.04547949 0.032980602 -0.1144983
0.1185645 -0.07570158 0.11894261 0.09658967 -0.07561868 0.11769337 -0.06059806 0.1260749
0.15711132 -0.021383008 0.12279429 -0.042763606 -0.030364335 -0.07110316 0.001392707 0.0525779
-0.10188801 0.014892133 -0.052884717 0.009197807 -0.05323096 0.13605323 0.05618953 -0.10487102
0.06446784 0.1634322 -0.0049133613 0.12474544 -0.036567338 -0.010232524 0.027822144 -0.08162577
-0.0056975014 0.095130935 0.062977165 -0.072183035 0.021375917 -0.0040451777 0.09147486 0.08199606
0.0115394285 0.0066769924 -0.07886496 0.102762565 -0.037338328 0.037611905 0.051423244 -0.0054507134
0.09715201 -0.11805745 -0.04085378 -0.07380083 -0.074324556 -0.09420354 -0.066626675 0.12669441
-0.068101116 -0.011362411 0.050871026 -0.029195286 -0.02725194 0.07862604 0.06614836 -0.01753218
00000000: d585 e9bc cbe7 7abd e49e e83c 763c a1bb
00000010: b4ea e7bd b6b6 cdbc 0997 a4bd 0cf0 30bd
00000020: 9f9b 85bc 01b8 91bb da89 79bd 1c1a bb39
00000030: dac4 5f3d 4d6d 7a3d be38 ac3d e544 ff3d
00000040: e864 51bd 6759 0c3d 1e2e fbbd 9823 a93d
00000050: df13 44bd abb1 86bd 52e8 c93d 2231 a2bb
00000060: 86b2 2cbd 51ce 853d 14f6 e43c b010 50bd
00000070: 7a74 d13d 5296 5c3d 185d ac3d 394b f6bd
00000080: ba84 3c3e 2838 a33c d9df 6dbd 1085 97bb
00000090: f0d2 e2bd f53e b9bc 34ee acbc 7394 a63b
000000a0: 7a8f d6bc fb9b bdbd bdef 00bd c907 12bd
000000b0: 7cb9 033e 961f edbd e046 42bd 9c00 ff3d
000000c0: 4627 173e 401a f4bd 82a6 993c dfed cabd
000000d0: e181 a1bd 4f18 36bc ee90 b3bd fae6 263e
000000e0: 7742 d13d bf08 67bc ba41 bb3a ae69 e1bc
000000f0: 96f5 503d d4ff dfbd 055a d33d 67e1 6f3d
00000100: 950d e93d 5896 0ebb c073 61bd 2215 973d
00000110: c7cc ae3d a6ae 36bd 7511 a33d 5675 963d
00000120: c3f6 93bd bc26 9a3d 1258 bc3d 5b61 95bd
00000130: 06a3 81bd 42f9 b13c a531 163d 291c cd3d
00000140: fb99 03bd bc5b cb3d 9f72 7dbc 143c d13d
00000150: 76ae 033e 96c6 97bb 576b a9bd edd9 02bd
00000160: 0ce0 4fbc 906c 39bc ac00 dfbd b345 2dbd
00000170: 4d23 a3bd 29cb b5bd 9c0a 20bd b200 9ebd
00000180: d458 513d 63e4 383d cfa6 a3bd 9d0a df3c
00000190: d784 693d eb94 533d 1db9 fb3d eec8 86bd
000001a0: 53a8 e23d 895f d43d c40b 503c 731e c8bc
000001b0: dfbf e8bc e9c0 02bd 0538 fe3d 605d a73d
000001c0: 2f91 8bbd 1617 a23d 4ff2 563d 6b4b acbd
000001d0: c39f c73c 00ba 353d 6d4c 8cbd 7d58 823d
000001e0: 505c 403c eb10 053e 6e5a 92bd 45ae aebc
000001f0: 324f 40bd 193b 8a3c 3188 073e f1c9 5a3d
00000200: 6795 9f3d 6962 d3bd e5aa eebd 6f5a adbd
00000210: a034 f83d cfb4 303d e65a e6bc 3fa7 84bc
00000220: ac84 e8bc c5c5 debd fb78 aebd d527 bfbd
00000230: 92d6 303d fe48 a5bd 029c 52bc e29a f03d
00000240: cc2a fcbc 4937 cebd ab2c a33d 2e83 06be
00000250: 6bd3 fabd 9a5d 91bd 67bd 803d 84c1 5fbd
00000260: 35da 873d 52a6 94bd dc07 2b3d 5ec0 b3bc
00000270: 7450 efbd 0aec 443d efd6 a43d 9e21 753c
00000280: c3d4 953d 2070 8a3d d464 903d 6a14 a7bd
00000290: 5161 eebc 96ba bc3b fe69 87bd f59c b23d
000002a0: 2086 9f3d ab21 933d d276 d23d b95a 90bc
000002b0: d65a d3bc fc96 d53c 49fe 0cbd a388 cdbb
000002c0: 3f9b ec3d fd4c 953d de92 a0bd 6dce 74ba
000002d0: b552 8dbd f2d4 6e3d b2c3 13be de4f 703d
000002e0: bc40 f3bd 3360 13bc 63c1 44bc 1b8c 3ebc
000002f0: 0b59 9a3c b448 3a3d ab16 073d 167e eabd
00000300: f2d1 f23d 6e09 9bbd 2f98 f33d ced0 c53d
00000310: f7dd 9abd 3909 f13d ac35 78bd c719 013e
00000320: cae1 203e 6b2b afbc 937b fb3d e428 2fbd
00000330: a0be f8bc 899e 91bd 7e8b b63a ed5b 573d
00000340: a9aa d0bd 22fe 733c a59d 58bd 66b2 163c
00000350: b508 5abd 8a51 0b3e fe26 663d 9ec6 d6bd
00000360: b707 843d c55a 273e 4300 a1bb 8a7a ff3d
00000370: a2c7 15bd 51a6 27bc 44eb e33c 692b a7bd
00000380: 1bb2 babb 02d4 c23d 2cfa 803d b3d4 93bd
00000390: 8c1c af3c 698d 84bb 2c57 bb3d 8ded a73d
000003a0: df0f 3d3c acca da3b f483 a1bd 2e75 d23d
000003b0: 13f0 18bd f10e 1a3d 2ea1 523d e69b b2bb
000003c0: a2f7 c63d 1bc8 f1bd 4b56 27bd e424 97bd
000003d0: 7937 98bd c9ed c0bd 9173 88bd 2ebc 013e
000003e0: 9978 8bbd 6829 3abc 235e 503d f42a efbc
000003f0: 763f dfbc b006 a13d cb78 873d a59f 8fbc

cells.1.x2h.weight f4 [256, 64]
0.10480885 0.179241 -0.06345133 0.17050833 0.010759365 0.023660516 0.12467836 0.11419499
-0.023683436 -0.109600455 -0.0011073143 -0.026545005 -0.039349955 0.070954256 0.029716888 -0.023505012
-0.09048419 0.015848849 0.12920307 0.07533253 -0.1293178 -0.045119293 0.075451195 -0.11645652
-0.0011471265 0.012753579 0.06402343 -0.16488484 -0.14997913 0.048747946 0.12534624 -0.049772624
0.14864276 0.041958336 0.03841399 -0.046989538 0.05018896 0.037456654 -0.059554502 0.13827528
-0.07942417 -0.051790506 0.012725984 0.03588154 -0.077606976 0.032835793 -0.015658248 0.00029810402
-0.07556035 0.11576358 -0.016698575 -0.005642095 -0.095717356 -0.019937348 -0.08825812 -0.098295815
0.013877895 -0.11849245 0.035829823 -0.15539166 0.1418222 0.13307169 -0.0033135745 -0.06310395
0.11240518 -0.13615754 0.008393866 -0.11974603 -0.045872975 -0.06769434 -0.0052102488 0.12294693
-0.17184788 0.11283621 0.08359021 -0.08783088 -0.13431276 -0.017875686 -0.040554542 0.057540458
0.043065924 0.05356667 0.10405005 0.016612545 -0.045796115 -0.034591105 -0.035980456 -0.025584571
0.12960269 0.121233515 0.026253859 0.15305214 -0.055899914 0.084651634 -0.120440915 0.104208075
-0.10916137 -0.081268854 0.06914443 0.034619454 0.06309079 -0.06102118 -0.026235925 -0.008105784
-0.0024559554 0.110300556 -0.101668276 -0.092213966 -0.0002175672 0.101054214 0.0054900344 -0.02769682
0.050220143 -0.0262542 0.053341623 0.021602653 -0.11085366 -0.12744541 -0.09246064 0.008876666
0.10484143 0.04517112 0.085276045 -0.1268951 0.039916888 0.16750716 -0.08273377 -0.005588034
0.09201536 -0.077867106 -0.08700323 -0.0594983 0.053592663 0.06496553 0.0006858335 0.012995362
-0.0739633 -0.07785173 -0.093621604 0.07449173 -0.078426175 -0.12689881 -0.0139504 0.04796819
0.061366737 -0.0035511784 0.070738256 -0.037691604 -0.0885194 -0.04447116 -0.11391279 -0.027449144
0.11724435 -0.014608934 0.018340098 -0.13793676 -0.030413179 0.014890427 0.021748612 -0.09637601
-0.048640918 0.14951263 0.12985161 0.06306251 -0.032567818 0.09829087 0.07532928 0.010120819
-0.08336689 -0.050910506 0.07090759 0.04557753 -0.059793502 -0.103588246 -0.13497664 0.036236197
-0.051308125 0.011043875 0.14370994 -0.10394486 -0.07105416 0.022040093 -0.016525647 0.11551653
-0.021352006 -0.090288006 0.07175594 -0.08053335 0.043788325 -0.09423355 -0.033987157 -0.054956697
0.10422866 -0.02337805 -0.087680385 0.15693496 -0.055954378 0.05824507 -0.039311733 0.017057443
0.14120875 0.061886687 0.0209502 0.07237689 -0.06699644 0.006392088 -0.0968751 -0.11716345
-0.09603916 -0.049824543 0.11684192 -0.05690889 0.016287657 0.010451044 -0.1236677 -0.120812744
0.05147138 -0.1335652 -0.10552713 -0.12948261 -0.079355 0.08413398 0.0685028 -0.10447679
-0.021764927 0.054785132 -0.008821461 0.14135511 -0.14008592 0.04734103 -0.0020078376 -0.06350091
0.006163486 -0.06444119 -0.059817534 -0.02877245 0.1065413 0.087541975 0.049536727 0.031797487
-0.050981883 0.02376026 -0.06260182 -0.0059876093 0.10263757 -0.004075688 -0.030031988 0.0034372266
-0.029168915 0.06653137 -0.10925989 -0.04905262 -0.088024184 0.0775197 -0.04323758 0.12664646
00000000: 06a6 d63d f48a 373e c5f2 81bd bc99 2e3e
00000010: 0c48 303c b3d3 c13c 5e57 ff3d 10df e93d
00000020: c403 c2bc 3476 e0bd 4d23 91ba e974 d9bc
00000030: 6b2d 21bd 7750 913d d570 f33c 958d c0bc
00000040: c64f b9bd 72d5 813c cf4d 043e f147 9a3d
00000050: e36b 04be 02cf 38bd 2886 9a3d c280 eebd
00000060: 2e5b 96ba 63f4 503c b71e 833d 92d7 28be
00000070: 2194 19be edab 473d c45a 003e 61de 4bbd
00000080: cf35 183e 81dc 2b3d fd57 1d3d 1a78 40bd
00000090: f092 4d3d 266c 193d 6cef 73bd 0998 0d3e
000000a0: 24a9 a2bd 4822 54bd a580 503c 86f8 123d
000000b0: 68f0 9ebd d37e 063d ba45 80bc d84a 9c39
000000c0: 63bf 9abd 7515 ed3d 73cb 88bc 53e1 b8bb
000000d0: 7607 c4bd a653 a3bc acc0 b4bd 514f c9bd
000000e0: 1c60 633c 2bac f2bd 4bc2 123d fe1e 1fbe
000000f0: d739 113e f243 083e 8e28 59bb a53c 81bd
00000100: b034 e63d e26c 0bbe 6d86 093c 683d f5bd
00000110: 4de5 3bbd 55a3 8abd bcba aabb 9acb fb3d
00000120: e4f8 2fbe ac16 e73d 5831 ab3d ade0 b3bd
00000130: 4989 09be 0870 92bc 851c 26bd 8baf 6b3d
00000140: e565 303d b968 5b3d 3118 d53d 0817 883c
00000150: b594 3bbd 67af 0dbd 3e60 13bd bc96 d1bc
00000160: 91b6 043e 4749 f83d 5512 d73c b3b9 1c3e
00000170: 4ff7 64bd d65d ad3d baa9 f6bd 0b6b d53d
00000180: ff8f dfbd 4970 a6bd 989b 8d3d 21cd 0d3d
00000190: be35 813d 58f1 79bd b9ec d6bc 1fce 04bc
000001a0: 18f4 20bb 42e5 e13d 7537 d0bd adda bcbd
000001b0: c022 64b9 83f5 ce3d bfe5 b33b 71e4 e2bc
000001c0: a3b3 4d3d 0c13 d7bc bf7c 5a3d 0cf8 b03c
000001d0: 3e07 e3bd 0d81 02be 015c bdbd 706f 113c
000001e0: 1bb7 d63d 5a05 393d 35a5 ae3d caf0 01be
000001f0: e47f 233d ff86 2b3e 5370 a9bd d41b b7bb
00000200: 8d72 bc3d ca78 9fbd c02e b2bd 7db4 73bd
00000210: fb83 5b3d a60c 853d 82c9 333a 80ea 543c
00000220: 127a 97bd ba70 9fbd afbc bfbd 1f8f 983d
00000230: e79d a0bd c3f1 01be 3890 64bc 4b7a 443d
00000240: b05b 7b3d e3ba 68bb 38df 903d 8362 1abd
00000250: a949 b5bd 6427 36bd 1c4b e9bd 07dd e0bc
00000260: ce1d f03d 4f5a 6fbc f93d 963c 4b3f 0dbe
00000270: 0f25 f9bc faf6 733c 252a b23c c960 c5bd
00000280: b33b 47bd d719 193e d2f7 043e eb26 813d
00000290: d565 05bd b94c c93d 3d46 9a3d cbd1 253c
000002a0: 43bc aabd 8987 50bd 0038 913d 81af 3a3d
000002b0: 08ea 74bd 1326 d4bd 5137 0abe 686c 143d
000002c0: 7828 52bd 5ef1 343c b328 133e 0be1 d4bd
000002d0: d884 91bd 6d8d b43c cb60 87bc ee93 ec3d
000002e0: 67ea aebc ebe8 b8bd c7f4 923d abee a4bd
000002f0: 635b 333d 85fd c0bd 1e36 0bbd 461a 61bd
00000300: d675 d53d 5383 bfbc c691 b3bd 8fb3 203e
00000310: 6b30 65bd 6292 6e3d 5705 21bd 0dbc 8b3c
00000320: 0799 103e e57c 7d3d c19f ab3c 563a 943d
00000330: 6e35 89bd b874 d13b 7466 c6bd 64f3 efbd
00000340: 2eb0 c4bd d214 4cbd d14a ef3d 4c19 69bd
00000350: b16d 853c db3a 2b3c 7e45 fdbd ac6c f7bd
00000360: a7d3 523d 51c5 08be 9c1e d8bd 1797 04be
00000370: e084 a2bd 704e ac3d 324b 8c3d edf7 d5bd
00000380: 5c4c b2bc 6066 603d e487 10bc 65bf 103e
00000390: af72 0fbe abe8 413d ed95 03bb c40c 82bd
000003a0: 11f7 c93b bef9 83bd 3b03 75bd 33b4 ebbc
000003b0: 5332 da3d 3549 b33d 06e7 4a3d 153e 023d
000003c0: 61d2 50bd e0a4 c23c 6235 80bd b533 c4bb
000003d0: a533 d23d 598d 85bb a505 f6bc 1843 613b
000003e0: a6f3 eebc 9941 883d a6c3 dfbd 66eb 48bd
000003f0: 0646 b4bd a6c2 9e3d e419 31bd 9caf 013e

cells.1.x2h.bias f4 [256]
-0.0006016294 0.11100678 0.121131316 0.1287199 0.033189278 0.102734454 0.10016033 -0.038915757
0.009142739 -0.030223142 0.0959388 0.0680891 -0.009869306 0.07541389 0.06117001 -0.02692293
0.048968825 -0.01775237 0.08797103 0.010779571 -0.10740362 0.061133407 -0.0097942725 -0.01762702
0.039422777 0.07537141 0.13191776 0.012760755 -0.09789068 0.016548155 -0.09295549 -0.019136362
0.078262635 -0.044225365 -0.05602697 -0.09414458 0.12315424 0.10090927 0.0862711 0.014963143
-0.07685365 0.10522967 0.104573175 -0.010846773 0.059307415 -0.012915091 -0.11374397 0.09392311
0.0059645986 -0.0501759 0.029090323 0.1967735 0.06769601 -0.077301644 0.113751136 0.07738026
-0.00095519266 -0.07594235 0.06870295 0.02873042 -0.0734071 0.1270118 0.07222289 0.044072837
0.00027129595 0.09271784 -0.039417468 0.028657308 -0.095439196 0.06580389 -0.080999404 -0.0447228
0.1157325 -0.08721257 0.06549062 0.039842162 -0.00054751046 0.060751144 0.01736809 -0.058276348
-0.029465131 -0.012006773 0.106916 0.029350704 -0.023631673 0.030051276 -0.011225432 0.047189552
0.013781062 0.06685457 -0.078300945 -0.066523336 -0.10102669 0.12271261 0.086363316 -0.083949275
0.0249238 -0.056180347 -0.09550648 0.1081456 -0.07608475 0.13296403 -0.06494387 -0.07847785
0.06504618 0.018849747 0.031913128 0.06786782 -0.022818238 -0.0927897 -0.013411013 0.036599483
-0.0559745 -0.007675286 -0.07213734 0.15780282 0.09714664 0.0656321 0.05813991 -0.02181071
0.005959092 0.15899058 0.016704306 0.059380945 0.013937753 -0.0151798455 -0.089088574 0.14758559
0.069569945 -0.08448596 0.09043337 0.09693499 -0.0035602283 0.103963226 -0.0039265496 -0.10218825
-0.053522903 0.095637195 0.08423639 -0.08819222 0.08115245 0.14418496 0.00460978 0.019797504
0.061554976 -0.014550777 -0.11156509 -0.06499316 -0.0021268085 -0.032054428 -0.03155239 0.10500628
0.03920179 -0.085610874 -0.11444792 0.11745114 -0.1139519 0.121221855 0.05326746 -0.095757134
-0.09812115 0.115484074 -0.072351135 -0.104246154 0.035205305 -0.112291515 -0.118003406 -0.05584963
0.11177411 0.11374537 0.054581784 0.055318486 0.032975733 -0.02235099 0.0027308601 0.029138457
-0.10417359 -0.016118033 0.08543967 0.02774466 0.00875583 -0.011893625 -0.0010816877 0.06805014
0.020447966 -0.027634379 -0.063778564 0.095962174 -0.08180408 -0.10512844 -0.031008158 -0.021783251
0.09089253 -0.0043243715 -0.026179494 -0.029245492 0.020602023 -0.093032226 0.08722332 0.05469584
0.143145 0.0024973555 -0.0659797 -0.061012167 0.05979253 0.0039506787 -0.073619656 0.06538315
-0.03710429 0.14138237 -0.061511997 0.075312234 0.019489247 -0.022141948 -0.025815777 0.043016322
0.03059283 0.040561806 -0.016606314 -0.008546394 -0.07879895 0.052235223 0.04471521 0.11944472
-0.01314052 0.027725548 -0.054936476 0.117163 0.03592738 0.13324228 -0.005266982 -0.015763821
0.042948943 -0.08338218 -0.13106869 0.114529215 -0.10620241 0.013936912 0.11505494 -0.005333412
-0.02555193 0.110779166 -0.0024549942 0.07045831 0.0790134 -0.01192628 0.0571082 -0.08033687
-0.076767445 0.028569253 0.1000923 0.038871568 0.047103398 -0.031710714 0.029991208 0.1064641
00000000: aab6 1dba 8657 e33d b213 f83d 26cf 033e
00000010: 7bf1 073d 7166 d23d dc20 cd3d 2166 1fbd
00000020: 6dcb 153c 8696 f7bc 907b c43d 4c72 8b3d
00000030: dfb2 21bc 9972 9a3d 688d 7a3d 7a8d dcbc
00000040: 8993 483d 6b6d 91bc 282a b43d cc9c 303c
00000050: 6ef6 dbbd 0667 7a3d 2878 20bc 8a66 90bc
00000060: c779 213d 535c 9a3d 7315 073e 7c12 513c
00000070: e97a c8bd ff8f 873c 735f bebd dcc3 9cbc
00000080: 2948 a03d a825 35bd 897c 65bd e0ce c0bd
00000090: 4a38 fc3d 85a9 ce3d e7ae b03d f827 753c
000000a0: 7265 9dbd a782 d73d 762a d63d aab6 31bc
000000b0: 55ec 723d d199 53bc 99f2 e8bd c25a c03d
000000c0: ae72 c33b 3f85 4dbd d44e ee3c fe7e 493e
000000d0: 35a4 8a3d 5350 9ebd 5bf6 e83d 8b79 9e3d
000000e0: e565 7aba aa87 9bbd 22b4 8c3d 0f5c eb3c
000000f0: 7656 96bd 620f 023e 98e9 933d b885 343d
00000100: ba3c 8e39 dae2 bd3d 3674 21bd bbc2 ea3c
00000110: a075 c3bd 31c4 863d 04e3 a5bd 412f 37bd
00000120: 2905 ed3d 819c b2bd f21f 863d 8931 233d
00000130: ce86 0fba 31d6 783d 8647 8e3c 2eb3 6ebd
00000140: dc60 f1bc 0eb8 44bc c7f6 da3d e370 f03c
00000150: 3697 c1bc 182e f63c e0ea 37bc d549 413d
00000160: f7c9 613c 0ceb 883d 3f5c a0bd 633d 88bd
00000170: 15e7 cebd c050 fb3d 40df b03d 99ed abbd
00000180: ff2c cc3c 5d1d 66bd e798 c3bd 717b dd3d
00000190: 52d2 9bbd b927 083e 4b01 85bd ffb8 a0bd
000001a0: ee36 853d c96a 9a3c 57b7 023d 49fe 8a3d
000001b0: 50ed babc 8708 bebd deb9 5bbc 57e9 153d
000001c0: 8445 65bd f780 fbbb bebc 93bd 1097 213e
000001d0: d1f4 c63d 1f6a 863d 1d24 6e3d 60ac b2bc
000001e0: 7d44 c33b 6dce 223e 78d7 883c 6f39 733d
000001f0: 2c5b 643c e3b4 78bc 1274 b6bd ad20 173e
00000200: b07a 8e3d fa06 adbd 2135 b93d da85 c63d
00000210: b852 69bb acea d43d 49aa 80bb 1348 d1bd
00000220: d53a 5bbd 6fdd c33d 2184 ac3d 1f9e b4bd
00000230: 4133 a63d 39a5 133e a30d 973b 602e a23c
00000240: 1221 7c3d 6266 6ebc 3d7c e4bd 221b 85bd
00000250: ed61 0bbb 814b 03bd 143d 01bd 880d d73d
00000260: 0e92 203d c154 afbd ac63 eabd 398a f03d
00000270: 9d5f e9bd 2a43 f83d fb2e 5a3d 511c c4bd
00000280: bef3 c8bd ea82 ec3d d52c 94bd 027f d5bd
00000290: 7033 103d 18f9 e5bd c5ab f1bd 95c2 64bd
000002a0: d3e9 e43d 55f3 e83d 2691 5f3d a395 623d
000002b0: 9011 073d 6c19 b7bc 3bf8 323b c6b3 ee3c
000002c0: f758 d5bd f709 84bc fefa ae3d c548 e33c
000002d0: 9d74 0f3c 7bdd 42bc 6bc7 8dba df5d 8b3d
000002e0: 7e82 a73c 7e61 e2bc 569e 82bd d187 c43d
000002f0: e688 a7bd 944d d7bd d204 febc ca72 b2bc
00000300: dd25 ba3d 75b3 8dbb 6176 d6bc 3e94 efbc
00000310: 93c5 a83c ae87 bebd 24a2 b23d bf08 603d
00000320: 9a94 123e acaa 233b 5d20 87bd e5e7 79bd
00000330: 03e9 743d b274 813b e7c5 96bd 9ae7 853d
00000340: abfa 17bd 8ac6 103e 01f4 7bbd 4d3d 9a3d
00000350: eaa7 9f3c 0863 b5bc 9c7b d3bc e231 303d
00000360: d19d fa3c 2324 263d f709 88bc 2d06 0cbc
00000370: 5861 a1bd 9af4 553d 4c27 373d 6f9f f43d
00000380: 564b 57bc b020 e33c 1205 61bd 28f3 ef3d
00000390: 9728 133d aa70 083e a696 acbb 2123 81bc
000003a0: 3beb 2f3d 47c4 aabd df36 06be 4b8e ea3d
000003b0: a680 d9bd a557 643c eda1 eb3d e7c3 aebb
000003c0: 4852 d1bc 30e0 e23d f8e3 20bb 724c 903d
000003d0: c7d1 a13d 7266 43bc 4aea 693d a887 a4bd
000003e0: 4038 9dbd 110a ea3c 31fd cc3d cb37 1f3d
000003f0: 7eef 403d 18e3 01bd 1fb0 f53c da09 da3d

cells.1.h2h.weight f4 [256, 64]
-0.057143047 -0.0063011837 -0.043668274 0.14388528 -0.16413805 -0.07037301 0.0285488 0.104791515
0.073903024 -0.011829718 0.087632656 0.027780155 -0.04592535 -0.06467689 0.018110793 0.027427265
0.039964527 -0.06320871 -0.17387192 0.021687167 -0.027264865 -0.14705299 0.02670514 0.020309385
0.06138172 -0.13549314 -0.008185197 0.058345977 -0.040181026 0.021695647 0.17752884 -0.051403876
-0.15657234 0.08334065 -0.123194195 0.026745815 -0.051557787 0.020961283 -0.08905844 -0.057967965
0.06578185 0.008281284 -0.023977138 -0.12692338 0.04250272 -0.006951471 0.084398136 0.15846205
0.060072847 0.06538209 0.105365746 0.004171313 -0.11317211 -0.16988556 0.019264068 0.036738236
-0.06695134 -0.11553381 0.09182511 0.16540535 -0.10824243 0.08190424 -0.06757503 -0.10128196
0.021314519 -0.091562144 -0.080391 -0.005403733 -0.05306344 0.10592395 -0.058586124 -0.16661175
-0.036417514 -0.011569954 0.14129552 -0.06664648 0.077301845 0.066415794 -0.06890802 -0.11073464
0.108803675 0.09155606 0.060058136 -0.06774786 -0.01840144 -0.11043844 -0.008010146 -0.12807243
0.041834142 0.110404015 -0.037026595 -0.0069448072 -0.030706596 0.11601292 -0.04637348 0.08290495
-0.00065202033 0.06230977 -0.03851717 -0.09152657 -0.061477404 -0.16286612 0.064376764 0.02415423
0.02175944 -0.12252566 -0.004235611 0.013584761 0.04017244 0.1259562 0.17487289 -0.1237311
-0.09916386 -0.040523525 -0.05486294 0.07091411 -0.02160138 0.05065593 0.019148242 -0.13648827
-0.050943468 -0.092285134 0.0944522 -0.098046355 -0.04095695 0.1296824 0.1222594 -0.165331
0.09250842 -0.0031111662 -0.1060287 0.09274866 0.048982915 0.008979466 -0.14433485 0.017315429
0.014051526 -0.12745047 0.11450177 0.02287273 0.02526648 0.098506 -0.076200254 -0.07924725
-0.036025085 0.09379629 -0.10837863 0.0040289676 0.13159952 -0.13346331 0.09343519 -0.052838277
-0.038053725 0.05522933 -0.046533253 -0.03202774 -0.012796467 -0.027316794 0.009047248 0.00360972
-0.06297809 -0.0570683 -0.11939214 -0.11031682 0.12340929 0.016000275 0.09390244 -0.06824385
0.09124162 0.06298454 0.09676863 0.054224096 0.08456347 -0.031730287 -0.07378028 -0.0188929
0.059296258 0.006251223 0.06648542 0.0038700837 0.05532529 -0.061138976 0.09103002 0.081602745
-0.023588521 0.09312769 0.032893922 -0.07964568 -0.01310085 -0.033955418 0.09360194 -0.022603786
-0.018322356 0.065517545 -0.07404738 -0.026851846 0.088660546 -0.09376904 -0.033290755 -0.10170776
-0.07937693 -0.055921 -0.034441456 0.04332012 -0.059949048 -0.06316963 -0.03331286 -0.12132323
0.00084165414 0.039369285 0.024732068 0.004480418 0.07953837 -0.035868406 -0.058004923 -0.027207894
-0.096192196 -0.107989654 -0.051767685 0.02059288 0.045645878 -0.025389982 -0.0532465 0.00823564
0.05923532 -0.08714695 0.068667576 -0.043074355 0.104413904 0.055886663 -0.07278199 0.044705242
0.05702827 0.036678273 -0.043910414 -0.08163021 -0.072765514 0.05565856 -0.031844087 0.014862984
-0.055329386 -0.010624168 -0.06425351 -0.10748778 -0.00789052 -0.13768007 0.060034726 -0.059983976
-0.012129222 0.014023613 0.058421053 0.0019119112 -0.04206418 0.07314818 -0.095970936 -0.07642275
00000000: d40e 6abd 297a cebb 81dd 32bd aa56 133e
00000010: ce13 28be ba1f 90bd 2cdf e93c ef9c d63d
00000020: 785a 973d 6fd1 41bc c078 b33d 3593 e33c
00000030: 381c 3cbd 5175 84bd 165d 943c 25af e03c
00000040: d8b1 233d 9173 81bd 7b0b 32be 49a9 b13c
00000050: 915a dfbc 0f95 16be bdc4 da3c de5f a63c
00000060: 666b 7b3d b7be 0abe 341b 06bc 31fc 6e3d
00000070: dc94 24bd 12bb b13c 1fca 353e df8c 52bd
00000080: 8054 20be 81ae aa3d 3d4d fcbd 0a1a db3c
00000090: 422e 53bd ffb6 ab3c 4564 b6bd d16f 6dbd
000000a0: a2b8 863d 39ae 073c b46b c4bc 34f8 01be
000000b0: 5517 2e3d 2ac9 e3bb eed8 ac3d e043 223e
000000c0: f20e 763d 0ce7 853d ffc9 d73d 82af 883b
000000d0: c7c6 e7bd 7bf6 2dbe aecf 9d3c d57a 163d
000000e0: c91d 89bd fd9c ecbd ce0e bc3d 0560 293e
000000f0: 35ae ddbd 69bd a73d c764 8abd eb6c cfbd
00000100: c99b ae3c ef84 bbbd 09a4 a4bd cc11 b1bb
00000110: 0d59 59bd a8ee d83d 01f8 6fbd 459c 2abe
00000120: 882a 15bd e88f 3dbc c6af 103e f37d 88bd
00000130: 6e50 9e3d 0105 883d a61f 8dbd d8c8 e2bd
00000140: 76d4 de3d be81 bb3d 85ff 753d 64bf 8abd
00000150: 9ebe 96bc 8d2d e2bd fd3c 03bc 6b25 03be
00000160: 475a 2b3d 801b e23d 33a9 17bd 4491 e3bb
00000170: 668c fbbc 2f98 ed3d 1ef2 3dbd 12ca a93d
00000180: 58ec 2aba 8838 7f3d 2ec4 1dbd 4872 bbbd
00000190: bbcf 7bbd 60c6 26be f7d7 833d 17df c53c
000001a0: da40 b23c bcee fabd e1ca 8abb 9e92 5e3c
000001b0: db8b 243d a9fa 003e e111 333e bb66 fdbd
000001c0: 6c16 cbbd fffb 25bd f6b7 60bd 6b3b 913d
000001d0: 61f5 b0bc 987c 4f3d c6dc 9c3c 95c3 0bbe
000001e0: 19aa 50bd fdff bcbd 2870 c13d 87cc c8bd
000001f0: 7ac2 27bd 77cb 043e 2363 fa3d 884c 29be
00000200: 0e75 bd3d b5e4 4bbb 9325 d9bd 02f3 bd3d
00000210: 4fa2 483d 9c1e 133c 84cc 13be 16d9 8d3c
00000220: 5f38 663c 6082 02be e77f ea3d 975f bb3c
00000230: a6fb ce3c 84bd c93d e10e 9cbd 624c a2bd
00000240: 0a8f 13bd 4518 c03d 9df5 ddbd 6e05 843b
00000250: 06c2 063e 9baa 08be f35a bf3d f36c 58bd
00000260: 39de 1bbd 2638 623d a799 3ebd 852f 03bd
00000270: 46a8 51bc 78c7 dfbc e93a 143c 0d91 6c3b
00000280: a8fa 80bd 73c0 69bd de83 f4bd c9ed e1bd
00000290: 03be fc3d 0213 833c ec4f c03d 6ec3 8bbd
000002a0: e3dc ba3d 0afe 803d a22e c63d 161a 5e3d
000002b0: 9d2f ad3d 9ef7 01bd 1e1a 97bd 48c5 9abc
000002c0: a2e0 723d 0fd7 cc3b 8229 883d 3ba1 7d3b
000002d0: c59c 623d dd6c 7abd f26d ba3d 571f a73d
000002e0: b73c c1bc bbb9 be3d c7bb 063d 461d a3bd
000002f0: f3a4 56bc d614 0bbd 60b2 bf3d 932b b9bc
00000300: c418 96bc 102e 863d 27a6 97bd 67f8 dbbc
00000310: a993 b53d fc09 c0bd e35b 08bd 284c d0bd
00000320: 5f90 a2bd 6b0d 65bd 7c12 0dbd 7070 313d
00000330: 228d 75bd 145f 81bd 1173 08bd 5078 f8bd
00000340: 74a2 5c3a b041 213d e89a ca3c 78d0 923b
00000350: 03e5 a23d c0ea 12bd 9296 6dbd 17e3 debc
00000360: 6a00 c5bd ae29 ddbd 5a0a 54bd 66b2 a83c
00000370: 2cf7 3a3d a7fe cfbc 0119 5abd c7ee 063c
00000380: bca0 723d 1a7a b2bd 96a1 8c3d bc6e 30bd
00000390: f5d6 d53d 6ae9 643d b90e 95bd d81c 373d
000003a0: 7a96 693d f53b 163d 68db 33bd bd2d a7bd
000003b0: 1606 95bd 3bfa 633d f26e 02bd e083 733c
000003c0: 11a1 62bd fe10 2ebc 5897 83bd 8e22 dcbd
000003d0: 3d47 01bc 01fc 0cbe f9e6 753d c2b1 75bd
000003e0: a5b9 46bc 4cc3 653c ea4a 6f3d 1899 fa3a
000003f0: 7d4b 2cbd b7ce 953d 698c c4bd 8883 9cbd

cells.1.h2h.bias f4 [256]
-0.022932725 0.049796693 -0.0064179767 0.01688011 0.036346182 -0.011002326 0.0058910293 0.09394523
0.10799922 -0.061111312 -0.11097871 -0.08615029 0.08695675 0.12251323 0.07959963 -0.06235451
0.14306723 0.11974467 0.08856979 -0.048684567 0.050870143 0.12293075 0.11899985 -0.01915706
-0.022240488 -0.06695518 0.12610185 0.056525905 0.0029319313 0.034189466 0.021207608 0.17640606
0.10910711 0.067959055 0.078407966 -0.049123045 -0.0071079964 0.120995134 0.05559275 -0.05453804
0.054020904 0.073839374 0.050224926 0.047783382 0.09345536 -0.09723407 0.096435495 0.024972003
0.049370695 0.16224216 0.08642683 0.20440492 0.13942334 -0.0028235712 0.023725389 0.012785352
0.13998042 0.12507215 -0.032581616 -0.0815984 -0.057892352 -0.058289196 0.003076785 -0.030349217
-0.12063485 0.06458862 0.0580854 -0.06303208 -0.06364401 0.10086772 0.07129378 -0.10243406
0.07732921 -0.024631655 -0.0032353827 0.0145079335 0.11648662 -0.024315 -0.11088825 -0.008237268
-0.110934295 -0.041555844 0.09001232 0.06565707 -0.09901555 -0.002972527 0.042735226 0.027464047
0.04075526 -0.04631989 -0.046587147 0.05007282 -0.00783899 -0.027412515 -0.038229816 -0.05448391
0.10122651 0.008822197 0.113568604 -0.0697776 0.05311556 -0.10732786 0.10245186 0.104834616
-0.033726376 0.0779043 -0.013050863 0.11705459 -0.06254692 0.054795448 -0.032083493 0.13005126
-0.081198275 -0.022557463 -0.031379584 0.17086402 0.14398994 -0.032187555 0.04183284 -0.027832925
0.117782995 0.14792292 -0.045081154 0.06952098 0.082646616 0.1342278 0.098000884 -0.0045873304
0.027378507 -0.012839436 -0.089958586 -0.010830311 0.090319626 0.14952558 -0.08338582 0.046946563
-0.016052412 0.03892579 0.05081831 0.093085416 0.12951516 -0.027169222 -0.019139515 -0.11168049
0.04637275 0.092923135 0.005656477 -0.11060622 -0.04174216 -0.10809623 -0.0868132 0.08635743
0.04305897 -0.025775257 0.084403306 -0.06292752 -0.10827818 0.081329316 -0.088623375 -0.059839282
-0.03016129 0.09409647 -0.013952376 -0.011480533 0.09565703 0.010394001 -0.12727508 0.03307127
-0.10531052 0.0389591 0.06501818 -0.09269598 -0.10530358 -0.07117908 0.053446706 -0.05076176
0.0018405134 0.080291666 0.10301402 0.023699632 -0.050042216 0.018360697 -0.072075546 0.086898096
-0.03134692 -0.12515172 0.068971284 0.09062838 -0.02848738 0.09526864 -0.0029327837 -0.036741454
0.04116394 0.15269077 0.05722294 0.11199208 0.07230064 0.047241915 -0.030689016 0.114339426
-0.041371156 -0.0010959718 -0.019463578 0.053266454 0.12728195 -0.012832083 0.12682602 0.037931062
0.1265405 -0.0132220695 0.014341104 -0.07570898 0.09081685 0.013796729 0.057108987 0.16336176
-0.0028808808 0.09295572 0.0053508687 -0.015776321 0.018787416 0.05101528 -0.07747639 0.1422336
0.15410617 0.064305246 0.13370025 0.021582384 -0.07124 -0.10980588 -0.083764404 0.09187664
-0.034488548 0.02648454 0.066658504 -0.026260136 -0.035446223 -0.051261343 0.031345464 0.14615503
-0.040173277 -0.06374532 0.07524907 0.1143294 0.0011730711 -0.010141803 0.10547489 -0.0073427926
-0.06981403 0.050958607 0.0021165994 0.04845903 0.08431215 -0.11416331 -0.04345049 0.12990595
00000000: 69dd bbbc 9ef7 4b3d e44d d2bb 2848 8a3c
00000010: bcdf 143d 1a43 34bc 8909 c13b 5b66 c03d
00000020: b22e dd3d db4f 7abd ce48 e3bd 906f b0bd
00000030: 6116 b23d 37e8 fa3d 2105 a33d 7167 7fbd
00000040: 3780 123e b23c f53d 1464 b53d 7869 47bd
00000050: 365d 503d 1ec3 fb3d 31b6 f33d 44ef 9cbc
00000060: af31 b6bc cc1f 89bd d820 013e b587 673d
00000070: a525 403b 410a 0c3d 94bb ad3c caa3 343e
00000080: 8c73 df3d 1e2e 8b3d 5b94 a03d 3f35 49bd
00000090: 32ea e8bb 4ccc f73d 39b5 633d 4863 5fbd
000000a0: 0645 5d3d 1939 973d a7b8 4d3d 82b8 433d
000000b0: 8665 bf3d a822 c7bd f97f c53d 1692 cc3c
000000c0: ed38 4a3d cf22 263e 8d00 b13d 864f 513e
000000d0: fec4 0e3e aa0b 39bb bf5b c23c a779 513c
000000e0: 0757 0f3e ea12 003e 4d74 05bd 101d a7bd
000000f0: 8820 6dbd a7c0 6ebd e3a3 493b ec9e f8bc
00000100: 670f f7bd 0a47 843d f5ea 6d3d f716 81bd
00000110: ca57 82bd bc93 ce3d 7902 923d f3c8 d1bd
00000120: c75e 9e3d 53c8 c9bc b708 54bb afb2 6d3c
00000130: 8990 ee3d 4030 c7bc 6119 e3bd 9bf5 06bc
00000140: 8531 e3bd 7636 2abd 6158 b83d 3777 863d
00000150: aac8 cabd bace 42bb 220b 2f3d 48fc e03c
00000160: fdee 263d edb9 3dbd 2ad2 3ebd 2819 4d3d
00000170: 1b6f 00bc 3690 e0bc de96 1cbd 852a 5fbd
00000180: d84f cf3d fa8a 103c a896 e83d 8fe7 8ebd
00000190: b48f 593d b6ce dbbd 48d2 d13d 88b3 d63d
000001a0: ab24 0abd 4a8c 9f3d 49d3 55bc 51ba ef3d
000001b0: 9918 80bd 3171 603d fb69 03bd 282c 053e
000001c0: 484b a6bd 6eca b8bc e187 00bd faf6 2e3e
000001d0: 1972 133e 19d7 03bd e958 2b3d e001 e4bc
000001e0: 3638 f13d 1b79 173e 04a7 38bd 0461 8e3d
000001f0: a142 a93d 0373 093e b0b4 c83d 5151 96bb
00000200: e448 e03c 7f5c 52bc 353c b8bd 9e71 31bc
00000210: 7ff9 b83d 3c1d 193e 2fc6 aabd 0a4b 403d
00000220: 5980 83bc a670 1f3d dc26 503d 91a3 be3d
00000230: 9f9f 043e fd91 debc 79ca 9cbc beb8 e4bd
00000240: 5af1 3d3d 7c4e be3d f859 b93b 8485 e2bd
00000250: d4f9 2abd 8e61 ddbd 1ecb b1bd 2adc b03d
00000260: 9a5e 303d a226 d3bc a4db ac3d 25e0 80bd
00000270: f3c0 ddbd fc8f a63d 2c80 b5bd 091a 75bd
00000280: cf14 f7bc a6b5 c03d 8298 64bc d818 3cbc
00000290: d5e7 c33d 9a4b 2a3c 6654 02be bd75 073d
000002a0: 0bad d7bd 9493 1f3d 4028 853d 64d7 bdbd
000002b0: 67a9 d7bd 56c6 91bd efea 5a3d 90eb 4fbd
000002c0: 623d f13a f56f a43d 04f9 d23d bb25 c23c
000002d0: 11f9 4cbd 2c69 963c 589c 93bd a1f7 b13d
000002e0: a165 00bd c627 00be d140 8d3d 5f9b b93d
000002f0: 5e5e e9bc 341c c33d f233 40bb 357e 16bd
00000300: 859b 283d f85a 1c3e 9a62 6a3d 1b5c e53d
00000310: 5c12 943d bd80 413d 8867 fbbc ca2a ea3d
00000320: cd74 29bd b6a6 8fba 1572 9fbc ed2d 5a3d
00000330: 3356 023e a83d 52bc aede 013e 9a5d 1b3d
00000340: d593 013e 61a1 58bc f3f6 6a3c 4f0d 9bbd
00000350: 2ffe b93d ad0b 623c 1deb 693d 4e48 273e
00000360: 29cd 3cbb 925f be3d 5756 af3b 583d 81bc
00000370: 11e8 993c 66f5 503d f1ab 9ebd afa5 113e
00000380: 02ce 1d3e 78b2 833d b8e8 083e 8acd b03c
00000390: 47e6 91bd e8e1 e0bd ac8c abbd d229 bc3d
000003a0: dd43 0dbd 1bf6 d83c 4184 883d 7f1f d7bc
000003b0: 0f30 11bd 6af7 51bd 1a64 003d aaa9 153e
000003c0: bc8c 24bd e88c 82bd 2f1c 9a3d 8825 ea3d
000003d0: bcc1 993a ce29 26bc 3803 d83d cf9b f0bb
000003e0: a8fa 8ebd f9b9 503d a5b6 0a3b fa7c 463d
000003f0: d9ab ac3d 74ce e9bd 24f9 31bd 1106 053e
