model_group/models_group_demand/LSTM_model_QUEENS_PARSONS BOULEVARD.pth (torch, 351176 bytes, 17 tensors)

input_projection.weight f4 [2, 2]
00000000: dd13 fe3e cb69 edbc 0a7a 183f 89ee d6bd
0.4962453 -0.02898111 0.59561217 -0.10494716

input_projection.bias f4 [2]
00000000: 27cd 9dbd 6c15 eb3c
-0.07705145 0.028696738

cells.0.x2h.weight f4 [256, 2]
00000000: 89f0 42be 9d8a 0cbf 9134 2cbf 6e01 3ebf
00000010: 7315 013e 2848 a3be 7ce1 e2be 9389 b3bd
00000020: 30f7 e7be 174c 3fbd ae12 47be 1d3c 11bd
00000030: e9e2 2dbf a9ad b5be aa1a 35bf 8dfb fe3e
00000040: b37d 823c cdd2 9ebc b22c 23be e3a3 e13d
00000050: 6cc2 a8be 41af 2ebf eaaa 073f b7aa d0be
00000060: 04e8 103f d808 623e 28ac 21bf 4c0c 19be
00000070: 0ece 37be be13 213f a282 663e 1c68 f03e
00000080: e5ab 64be 7abb 47be 9168 46be 10df e13d
00000090: 400c c23e 0f99 3dbf b065 0f3e d43d 043f
000000a0: 416e 263e e65d 56be 02d1 6dbe b556 3dbf
000000b0: 3316 643e cc57 c9be 5248 21bf 388a 303f
000000c0: 4362 083f 14b3 c0bc 8324 4ebe a639 90be
000000d0: 1f7f 2abd 058e 153f db7c a4be 37f2 46be
000000e0: aa7b 9abe 0a83 1d3f ffc3 01bf b159 45be
000000f0: cbc4 08bf 9f91 25bf 8808 9fbe 7c7f e8be
00000100: c2f1 3e3e 207c b3be 3934 bebd cd99 eabe
00000110: 96be 16be 2ddd 573d d94b 50bd 7edf 173f
00000120: acea ab3d c475 143f 2dfa 8ebe fd3d 9bbe
00000130: 1625 88be 7343 103f d63f efbd 915c a0bd
00000140: d89c 1cbe 239b 75be 638e 5f3e dc7f 89bc
00000150: 627c c8be f9b6 66be d01c c23e c280 213e
00000160: 4f5c 16be 6dd9 7c3e 40b6 95bc 57a1 2b3e
00000170: 16ea be3c 267f 653e b13c 053f 59e1 4a3e
00000180: 21a0 cbbe bf28 e63e 574b 0bbf 9428 96be
00000190: 1267 2dbf 0142 a63e 9633 ac3e 365c 933e
000001a0: 238c 2ebf 59d5 43bf 0715 ee3e ae42 00bf
000001b0: 4998 57bb 8dcc b43e 1e08 58bd f273 e23d
000001c0: 1545 cdbe 909e 213f fc08 0bbe 85ab 423f
000001d0: de3e 2a3f d7d7 d43c 0080 10bf 97c4 cbbe
000001e0: b7dc 323c 929f e6bc 49ce 2a3f 6c94 313f
000001f0: 271e dbbd 8f42 16be d511 bfbe fa02 f7be
00000200: 5ae7 633e ca53 75be 72fa 1dbf ed66 2abe
00000210: cac0 ac3d 24f8 babb e964 9cbe e9fe 2a3f
00000220: 0aa9 0e3f 8b4f bf3e 59b7 cabd d34d 2ebf
00000230: 6f91 f0be e09a 1e3b 8401 9d3c 4364 013e
00000240: fdc0 87be 4dcd 013f eec5 d03e a8cc 8abe
00000250: 5a96 6b3e e7e7 aabd cdc3 253e e732 1e3f
00000260: 10c9 cabe eccc 6a3e 2da3 94be e7bf 45be
00000270: 94bd 68be 010f bd3c ef69 d4bc de93 ac3e
00000280: 572f 6c3d 0664 af3e 197d fc3e 9ce8 1c3f
00000290: ffc6 bb3e 04ec 813e e13e 803e 1d88 bdbe
000002a0: 7f83 30be 2f7c 31be 23f2 3dbf e280 0abf
000002b0: dc32 303f 6ee8 a23e 01c8 823b 320c 06bf
000002c0: 2e5d 513e c8fa b2be 3b8a ccbe 43a6 ce3e
000002d0: 88eb ac3e 1c8d ac3e 447a 743e bd93 1d3d
000002e0: f1ec d8be 9fa3 2bbf 3f5f 1f3f 61de fabe
000002f0: dff8 04bf 88fe df3e 61af f33d 5487 603e
00000300: 3842 a43e 3d50 1ebf 2984 1d3f a325 efbe
00000310: f71f 36bf fc58 76bd 7060 afbe 0ba8 34bf
00000320: e64b 8fbe b16c 093f 1bbd 2dbd 2cf8 26bf
00000330: 53a7 16be 7575 00bf c329 b0bd aa0f cf3e
00000340: 70bc 0f3f 4eaa 06be 9992 8e3e a0cd 703e
00000350: 5bc3 bebe 22c6 4c3e 7ed3 1a3e 7a92 0d3d
00000360: 02ea 18bf 2fb4 29be 69ed ae3e 373d 1fbf
00000370: 005e 2e3e 0cc8 193f 5d67 1c3f 26a1 b73e
00000380: bedd 8d3e 82b1 193e e591 01bf b351 213f
00000390: 88a6 fbbe 634e 27bf c98f 3f3f 96b2 0e3e
000003a0: 2288 ab3e 5f66 a43d 497c b8be 7f7f 083f
000003b0: 4a21 21bf 2542 063e b828 2bbf 0202 11bf
000003c0: 1d56 0c3d 8d18 42bd 07eb 5d3e 19a5 413f
000003d0: 50a3 a5bc de8e febe 868b 123f 6a42 483c
000003e0: 2673 89bc e957 edbd 0e54 99be 8995 3a3f
000003f0: 34e0 233e 9332 033e 5994 043d a680 243f
-0.1903707 -0.5489901 -0.6726771 -0.7422093 0.12605838 -0.31890988 -0.44312656 -0.087664746
-0.45305777 -0.046703424 -0.1944072 -0.03545772 -0.6792436 -0.35484055 -0.7074381 0.49801293
0.015929079 -0.019387627 -0.15935019 0.11017587 -0.32960832 -0.68236166 0.5299517 -0.40755245
0.5660403 0.22073686 -0.63153315 -0.14946097 -0.17949697 0.6292075 0.2251077 0.4695443
-0.22331198 -0.1950511 -0.19375826 0.11028874 0.3789997 -0.74061674 0.14003634 0.5165684
0.16252996 -0.20934257 -0.23224261 -0.7396043 0.22274093 -0.39324796 -0.6300098 0.68960905
0.53274935 -0.023522891 -0.20131116 -0.28168982 -0.04162514 0.5841983 -0.32126507 -0.19428335
-0.30172473 0.61528075 -0.5068969 -0.19272496 -0.5342528 -0.64675325 -0.31061196 -0.45409763
0.18646911 -0.35055637 -0.092873044 -0.45820466 -0.1472114 0.052701164 -0.050853584 0.59325397
0.083943695 0.57992196 -0.27925244 -0.3032073 -0.26590794 0.5635292 -0.116820976 -0.07830156
-0.15294206 -0.23984961 0.2183166 -0.0167846 -0.39157397 -0.22530736 0.37912607 0.15771773
-0.1468365 0.24692316 -0.01827538 0.16760765 0.02330498 0.22411785 0.5204573 0.19812526
-0.39770606 0.44952962 -0.54411834 -0.29327834 -0.677354 0.32472232 0.33633107 0.2878129
-0.6818258 -0.7649742 0.46500418 -0.50101745 -0.0032897166 0.3531231 -0.052742116 0.11057271
-0.40091768 0.6313257 -0.13577646 0.7604297 0.6650218 0.025981827 -0.5644531 -0.39798424
0.01091688 -0.02815226 0.66721016 0.693671 -0.106991105 -0.14673828 -0.37318292 -0.48244458
0.22256222 -0.23957744 -0.61710274 -0.16640826 0.08435209 -0.00570585 -0.30545738 0.6679521
0.55726683 0.37365374 -0.09898252 -0.680875 -0.46985957 0.00242012 0.019165762 0.12635903
-0.26514426 0.5070389 0.40776008 -0.27109265 0.23006573 -0.08345013 0.16187973 0.6179642
-0.39606524 0.22929734 -0.29030743 -0.19311486 -0.22728568 0.023078443 -0.02592942 0.33706564
0.057662334 0.34256 0.49314192 0.61292434 0.3667526 0.25375378 0.25047973 -0.3701791
-0.17237662 -0.17332529 -0.74197596 -0.5410291 0.68827605 0.31817955 0.0039911275 -0.5236236
0.20445701 -0.34956956 -0.3994921 0.40361223 0.33773446 0.33701408 0.23874766 0.038470972
-0.42368272 -0.6704654 0.6225471 -0.48997787 -0.5194225 0.4374888 0.11898685 0.21926624
0.3208177 -0.61841184 0.61529785 -0.46708402 -0.71142524 -0.060143456 -0.34253263 -0.70568913
-0.27987593 0.53681475 -0.042416673 -0.6522243 -0.14712267 -0.50179225 -0.086017154 0.40441638
0.5614691 -0.13150904 0.2784622 0.2351594 -0.3725842 0.19997457 0.1511974 0.03456352
-0.5973207 -0.16572641 0.34165505 -0.6220278 0.17028046 0.6007087 0.6109522 0.35865134
0.27708238 0.1500912 -0.5061324 0.6301529 -0.4915049 -0.65353984 0.74828774 0.13935313
0.335023 0.08027338 -0.36032322 0.53319544 -0.6294142 0.1311117 -0.66859007 -0.5664369
0.03426181 -0.047386695 0.21671687 0.75642544 -0.020219475 -0.49718374 0.57244146 0.012222866
-0.01677854 -0.11589033 -0.2994694 0.7288442 0.16003495 0.12812261 0.032368038 0.642588

cells.0.x2h.bias f4 [256]
00000000: fbc0 183e ed79 db3e 861d f2be 7299 293f
00000010: 6480 abbe 2da2 e6be e8f0 1e3f da6a 143f
00000020: 52fe 633d a521 323f c272 d7bd 5fcb d1be
00000030: 7438 98be 1076 1fbf 091b c4be ae28 903e
00000040: f775 283e 57a6 35bf 3251 1cbf e818 31be
00000050: 1446 8cbe 74e5 3b3c 6fb2 003d b767 143e
00000060: 3187 e73e 7c8c 15be 673d 87be 7d04 373f
00000070: 740d a53e 92a4 183f 8f4e 9abe 0f7f d3be
00000080: d50a d53e 3aed 5abe 8542 cc3e d85f 0b3f
00000090: d844 3d3f 624e c33e 836f dcbe 0c5e 8fbe
000000a0: d1e9 613e 8822 863d f665 463e 3c92 393f
000000b0: f2c0 da3c 107f a8be 53f6 cf3e a227 033f
000000c0: a573 c6be ddf5 0f3f 11ba e0bd d834 eabe
000000d0: fa8e c23e 48b2 52bd c946 2b3f 97d0 b0bd
000000e0: 2744 803d fcd7 12be 2420 10bf d9fe bd3d
000000f0: cb6d 1fbe 66c6 16bf 62f1 073f 7ce3 213e
00000100: 996c f13d 99bb fc3e 9313 f73e 3614 e03d
00000110: 617e c03e 6aac ebbd 2b1a aabe 514b cabe
00000120: 26c9 893e f5c6 55be 56a7 093f 339f b13e
00000130: 7553 013f 4528 343e 8840 a9be e65d 0fbf
00000140: 79b3 abbe d91e 263f 405e a4be ba1d 9d3d
00000150: 966b 81be f814 b73e 4c75 d23e 4cc3 2e3f
00000160: b732 5a3d ec17 d83e ad83 84bc aff3 a1be
00000170: 207c 9bbe f786 5ebe 9367 0fbf 7d49 c8be
00000180: 4a1c 9c3d ba93 72be 41a6 04bf da8a 2ebf
00000190: b504 efbd 9429 7dbe 3cd8 423e f57c 15bf
000001a0: e4be 5d3e 2c0f 0cbf aedd e7be 60e0 213f
000001b0: 5efd dc3d 8a67 903c f56e 3f3f 21ec e4be
000001c0: 1039 f33e 6f71 04bf e008 debe fb02 1cbf
000001d0: e522 093d eb53 233f b811 cdbd 3cf3 aa3e
000001e0: 6629 033f 84a7 28bf 5a30 3ebe dec9 be3e
000001f0: ab44 f0be 56ff d33e 0a3f 263f e290 323e
00000200: 71c0 903e 66f3 e3be e815 103f 3a45 87be
00000210: 03d6 013f 750a f53e f38d da3e c501 09bf
00000220: 92d3 ffbe 44a7 fa3d 9b41 dc3e 7754 42be
00000230: 41e5 cdbc 9b92 6e3e ce1d 32bf 2514 173f
00000240: a841 4f3e de21 fb3e bd11 223f 9bf0 81be
00000250: 81bf 08bf 0688 a43e 86b3 d73e 8833 b43e
00000260: aedc bb3e 49a8 f9be 5760 c7be 731c 0ebe
00000270: f508 dbbe 512c 07be fbbf f5be 2b59 d33c
00000280: a485 6a3e 7990 8ebd 40a6 623e 33ed 36bf
00000290: 929c 7fbe 7585 18bf ed15 f9bd 41ba f13e
000002a0: de4f 073f 5064 9a3e 5b4f 0dbf 94d9 0dbf
000002b0: 8090 403e 6229 063f 0722 bcbe 88eb 30bf
000002c0: d1a9 1cbf bad3 89be aa59 383f d9ac 12bf
000002d0: 4319 0b3e 3a58 3b3f e743 e93e 6fe1 35bf
000002e0: 60d2 22bf 7136 613e 1f32 093f 4d3d 14bf
000002f0: 12a2 c83e 073c b33e b46e 2dbf 7fd1 b63e
00000300: 47e7 03bf 2df3 abbe b4a0 4c3d 86d4 e8be
00000310: 4aa9 04bf 625e 523e 28b2 dfbe 49c9 ea3e
00000320: ab59 efbd 88c3 dfbe ce9d 7d3e a211 593c
00000330: 9e30 d73e cafa 993e d1f0 43be ae28 c9be
00000340: c54e d03e d388 7bbe 411b 0d3f 69f0 09bf
00000350: cb0c c7be e524 a33e 3475 82be 6e7d d5be
00000360: fb2e 113f 6191 d6be df94 da3e 062f c6bd
00000370: cb8d adbe 319e 803e c9ba f3be 332b 05bf
00000380: c947 223e 20f3 1d3e 7d2b 81be 878e c4be
00000390: 19cc 953e 0cef bcbe d22f 8c3e e670 8ebe
000003a0: 129d 243b 4eab d23e b957 6dbe 67b3 8a3e
000003b0: 526d a93d 3b7d f1be a4fb 9abd f659 8bbd
000003c0: ca59 0ebf 7f4a debe fea0 2abf 46ea f53d
000003d0: 261c 92be 57db e2bd 6fc5 0cbf cf91 4b3e
000003e0: b7ae 863e 14de 36bd 3ae4 a1be 8715 603e
000003f0: 438d ab3d 2bc9 06bf d51f 4ebd dfe6 cabd
0.14917366 0.4286646 -0.4728815 0.66249764 -0.33496392 -0.45045605 0.62086344 0.5797554
0.05566246 0.6958259 -0.10519935 -0.40975472 -0.2973057 -0.62289524 -0.38301876 0.28156036
0.1645125 -0.7095694 -0.61061394 -0.17294657 -0.27397215 0.01146828 0.031420168 0.14492689
0.4522033 -0.14604372 -0.26414034 0.71491224 0.32236826 0.59626114 -0.3013806 -0.41307876
0.41609827 -0.21379557 0.398945 0.5444312 0.7393317 0.3814574 -0.43053827 -0.2800144
0.2206185 0.06549555 0.19374833 0.7248876 0.026703332 -0.3290944 0.40617618 0.5123235
-0.38760105 0.5623453 -0.10972989 -0.45743442 0.37999707 -0.051439553 0.66904885 -0.08633535
0.06262999 -0.14340204 -0.5629904 0.09277124 -0.15569226 -0.5889648 0.53102696 0.15809435
0.117882915 0.49361876 0.4825712 0.10941355 0.3759642 -0.11507495 -0.3322309 -0.39510587
0.26911277 -0.20876677 0.5377096 0.34691772 0.5051797 0.17593487 -0.33057046 -0.5600265
-0.33535364 0.6489082 -0.32103157 0.076716855 -0.25277394 0.35758185 0.41105115 0.6826675
0.05327102 0.4220575 -0.01617607 -0.31631228 -0.30368137 -0.21731173 -0.56017417 -0.39118567
0.07622583 -0.23689166 -0.51816183 -0.6818062 -0.1167082 -0.24722892 0.190278 -0.58393794
0.2165485 -0.5471065 -0.45286316 0.63232994 0.107905135 0.017627496 0.7477868 -0.44711402
0.47504473 -0.51735586 -0.43366146 -0.6094205 0.033480544 0.63799924 -0.10013145 0.33388698
0.51235044 -0.6588061 -0.18573132 0.37263387 -0.4692739 0.41405743 0.6493994 0.17438081
0.2827182 -0.44521636 0.56283426 -0.26420003 0.5071718 0.4785954 0.42686424 -0.53518325
-0.49966103 0.12238935 0.43018803 -0.18977533 -0.02513373 0.23298113 -0.6957673 0.59015113
0.2023989 0.49049276 0.63308316 -0.2537888 -0.5341721 0.32135028 0.42129153 0.35195565
0.36691803 -0.48761204 -0.3894069 -0.1387804 -0.4278027 -0.13200499 -0.47998032 0.025799355
0.22902542 -0.0696115 0.22133732 -0.7145569 -0.2496207 -0.5957864 -0.12162385 0.47212413
0.5285624 0.30154657 -0.5519921 -0.5541012 0.18805122 0.52406895 -0.3674471 -0.6910939
-0.6119662 -0.26919347 0.72011817 -0.57294995 0.13583855 0.731815 0.45559618 -0.7104711
-0.63602257 0.21993424 0.53592104 -0.5790604 0.3918615 0.35006735 -0.67747045 0.35706708
-0.51524776 -0.33583966 0.049957946 -0.45474643 -0.51820815 0.20543817 -0.4369061 0.45856693
-0.11687025 -0.43703866 0.24767229 0.013248833 0.4202928 0.3007415 -0.19134833 -0.3928885
0.40685096 -0.24563913 0.5511971 -0.5388246 -0.38876948 0.31864086 -0.25480044 -0.41697258
0.5671231 -0.4190779 0.42691705 -0.09676938 -0.33897242 0.2512069 -0.47603443 -0.5201904
0.15847696 0.15424776 -0.2522849 -0.3838999 0.29257277 -0.36901128 0.27380234 -0.2782051
0.0025118035 0.4114632 -0.23177995 0.27089998 0.08272804 -0.47165856 -0.07567528 -0.06804268
-0.5560576 -0.4341621 -0.66651905 0.12007575 -0.285371 -0.11076992 -0.5498876 0.1987984
0.26305172 -0.044645384 -0.31619436 0.21883212 0.08376553 -0.5265071 -0.050323326 -0.099073164

cells.0.h2h.weight f4 [256, 64]
00000000: 425f 8a3d 42d5 c43d fc43 a5bd 4204 293c
00000010: ce10 86bc 5563 e23c 2838 7d3d ccd5 16bd
00000020: 026b d33d d22f 643d b29a 8f3b 8ae2 f1bd
00000030: a294 293c 9f66 973d 1707 abbd e467 dbbc
00000040: b8c9 a8bd c6a0 0fbc 8245 78bd c3a8 893b
00000050: 3942 b6bd bea9 bf3d 4a09 b9bd 178b b3bd
00000060: 80e9 dd3d 68d7 0cbe 41e8 04be e851 05be
00000070: c7ae e13d 4881 ab3d bc5c b9bd b6da d1bd
00000080: d6de ac3d fbea f33c 4f78 b838 ff8f d4bd
00000090: 3a03 a53c 4d2b 61bc a54f 20be 7d09 f53d
000000a0: c8f7 0b3e 42a6 7dbc dd34 3a3c f80b 92b8
000000b0: f8d8 8abd b55e b53d a892 da3d 8ce1 be3c
000000c0: bd31 07be 13fe 34bd abd3 c13d d84e f5bd
000000d0: ab48 8dbc 9294 2cbd 41ad 6cbb cc0e 033d
000000e0: 1d17 c93d 8489 ec3d c32b 623d 8e60 733d
000000f0: 69a2 aa3d 82cc fbbd 89ac bd3d 9c91 14bd
00000100: 15f4 b13c b617 cebd 68e3 1d3b 63ed 2e3e
00000110: 8c98 a53d 1aa6 d8bd 485c 3ebd 1e7f 023d
00000120: 80c3 ca3d 87f2 8bbd 1455 823d cd48 683d
00000130: 0adf a33d 47cf a4bd 81a8 783c 133e e6bd
00000140: f323 ed3d 9399 b83d cf15 8d3d d6c2 70bc
00000150: 0b8e e13d f730 f7bd e76a a8bd 4861 873d
00000160: e823 82bd fdd7 ba3c ab3f a03d b5b0 68bc
00000170: 8d48 dbbd 394c cfbc 5f2c 063e c28a 763c
00000180: 2659 f1bd f5bc f9bd 78a7 593d 2224 b43d
00000190: b459 b13d 822f b93c 3e95 2e3e 3f04 19bd
000001a0: 05e3 963d 0db3 dbbd dad3 cf3d 6dcb 753d
000001b0: 96e7 203d b0f3 98bc d9c9 c2bd 3c21 ae3d
000001c0: 1e59 99bd 7158 f5bd ce36 673d bec4 f7bd
000001d0: fc3e e1bd 6c90 5e3d 2f1c 80bd ca03 ab3d
000001e0: afeb 9e3d adea 4cbc acfa 573b e408 763d
000001f0: a067 07be f2d3 15be c5c0 abbd 01ee 81bd
00000200: aaa1 cdbc db02 d23d 0ae6 06be 62b4 25be
00000210: 1b87 82ba e618 a63d 55ba 113e f688 39bd
00000220: 8c00 b23d 1018 1b3d 09e7 c93d 4630 fabd
00000230: 71eb c13d 91e3 18bc 59b2 263d 8e2f 8ebd
00000240: 48b9 dfbd 1ab3 a5bd 196c b03b da72 c83d
00000250: 4463 a8bd 36b4 53bd fdc2 42bd fd7e 073d
00000260: 976a 09be ca9a 20bd a9b6 c83d 0c84 d2bc
00000270: 189a fdbd 3fb8 f93c df3f 3fbd a3df 67bb
00000280: 21f3 3bbc 87a4 7fbb e917 263e e500 643d
00000290: 5f9d 0b3e 3642 c4bd e26b 5e3d ee7f 34bd
000002a0: f944 8e3d 2f45 ef3b acdc b83d c153 293d
000002b0: 5832 b73b f250 233d 4dd2 44be 12f2 eb3d
000002c0: 7dbd a63d 297b 76bd a7cd a73d 9ebb 7abd
000002d0: db89 bbbd 115c 59bd 53ba 8bbd d047 fa3d
000002e0: b283 15bd dd41 4c3d 8945 0ebd 70c3 1f3d
000002f0: 3c6c e73d 9944 2d3e c59f 2bbd a888 ecbd
00000300: 609e e8bd f4f8 853d 288c ffbd d9cd 8e3d
00000310: e4ce fe3d a83c 6abd d1d2 c93d c5a5 5f3d
00000320: aa0b 7c3b 8108 213c 8774 c93d 10ed 76bc
00000330: ea1d 203d e32d 03bd 9160 a43c 3b08 c53d
00000340: 0258 7d3d 6cec ee3d f2d5 71bc 1397 01be
00000350: 26d0 26bd f8e2 efbd deb0 f0bd 5f65 a3bd
00000360: 9340 fbbc 1bf2 cb3d 9983 be3d b61c 02be
00000370: 06a1 1ebd 5628 fa3d 71ec 7a3d 167e d33d
00000380: 3f8f f83d 7be3 02be 5a0b e1bd b258 00be
00000390: ca0c 8d3d 787c f3bd ebb4 f93d e28e 00be
000003a0: 3e6b bebd 968a 4cbd 6164 dfba d2f7 d4bd
000003b0: 0788 1f3d da68 d03d deed 7f3c b4d7 06be
000003c0: 26d8 c5bd 89e7 433c d94c 61bb ff9f b43b
000003d0: 440b 84bd 5fc7 aabd 787c af3b 68aa 263c
000003e0: ddb6 3ebd 7f9a 96bd f915 513d 9edb afbd
000003f0: dcd4 e63d 9910 9bbc d71e 74bd b0c7 c83c
0.0675645 0.09610988 -0.080696076 0.010315957 -0.016365435 0.027635256 0.061821133 -0.036824986
0.103231445 0.055709668 0.004382455 -0.11810787 0.010350378 0.0739262 -0.08350962 -0.026782937
-0.082416 -0.008766359 -0.060613163 0.004201026 -0.0889935 0.09358548 -0.09034975 -0.08766764
0.10835552 -0.13754046 -0.12979223 -0.13019526 0.11019664 0.08374268 -0.09050891 -0.10246794
0.0844094 0.029775133 8.796213e-05 -0.103790276 0.02014314 -0.013743234 -0.15655382 0.119647
0.1366874 -0.0154815335 0.011365143 -6.964052e-05 -0.06779665 0.088559546 0.10672504 0.023300909
-0.13202567 -0.044187617 0.094642006 -0.11977929 -0.017246565 -0.042133875 -0.003611401 0.031996533
0.09818862 0.115496665 0.055217516 0.059418254 0.083317585 -0.12294866 0.09261424 -0.036271676
0.021722833 -0.10063116 0.0024091844 0.17082743 0.08085737 -0.10578556 -0.046474725 0.03185951
0.0990057 -0.06833368 0.063638836 0.056710053 0.08001526 -0.080473475 0.015176893 -0.112423085
0.115791224 0.09013667 0.06888925 -0.01469489 0.11013421 -0.12069886 -0.08223515 0.06610352
-0.06354505 0.02280807 0.07824644 -0.0142022865 -0.10707197 -0.0253049 0.13102864 0.015047731
-0.11784582 -0.12194244 0.053138226 0.08795954 0.08659688 0.022605661 0.17049119 -0.037357565
0.07367519 -0.107275106 0.10147829 0.060008455 0.039283358 -0.018670887 -0.09511156 0.08502433
-0.07487701 -0.119797595 0.05644875 -0.120980725 -0.109983414 0.05433695 -0.062553756 0.08350332
0.07759797 -0.012507123 0.0032955809 0.060067073 -0.13223124 -0.14631632 -0.08386377 -0.06344224
-0.025101501 0.10254451 -0.1317369 -0.16182092 -0.0009958477 0.08110218 0.14231236 -0.04529663
0.086915106 0.037864745 0.098585196 -0.12216239 0.09468735 -0.0093316 0.04069743 -0.06942664
-0.109240115 -0.080908015 0.00538398 0.09787531 -0.082220584 -0.051685534 -0.047549237 0.03308009
-0.13419567 -0.03921012 0.09800465 -0.02569773 -0.12382907 0.030483363 -0.04669177 -0.00353811
-0.011471541 -0.0039007978 0.16220059 0.055664916 0.13634251 -0.09582941 0.054302104 -0.044067316
0.06946749 0.0073019485 0.09026465 0.04133964 0.0055907182 0.039872117 -0.19220848 0.115207806
0.08141611 -0.06017605 0.08193522 -0.061214082 -0.09157153 -0.053066317 -0.06822648 0.122207284
-0.036502548 0.0498675 -0.034734283 0.039004743 0.11299941 0.16920699 -0.041900415 -0.115495026
-0.11358333 0.06541625 -0.124779046 0.06972856 0.12441805 -0.057186753 0.09854663 0.05460145
0.00384591 0.009828688 0.09836679 -0.015071169 0.03909103 -0.032026183 0.020065578 0.096207105
0.06185151 0.11666188 -0.014760481 -0.12655286 -0.04072585 -0.11713213 -0.11752485 -0.079783194
-0.03067044 0.09958287 0.09302444 -0.12706265 -0.038727783 0.12214725 0.061260644 0.10326783
0.12136697 -0.1278209 -0.10988493 -0.12533835 0.06887205 -0.11888975 0.121927105 -0.12554505
-0.092977986 -0.049936853 -0.0017043465 -0.103988305 0.038948085 0.10176249 0.015620677 -0.13168222
-0.09660368 0.011957058 -0.003437808 0.005512237 -0.06447461 -0.08338808 0.005355414 0.010172464
-0.04656111 -0.073536865 0.051046345 -0.085868105 0.112710685 -0.018928813 -0.059599724 0.02450928

cells.0.h2h.bias f4 [256]
00000000: e1d1 c93c 3389 efbc 7b2a cf3d 5f3b e03d
00000010: 5521 5e3c bb95 7a3d dc83 d1bc 440d ea3b
00000020: 5c73 14be 26d9 6ebd ee56 973d bbba efbb
00000030: 72ab 053e 01b2 28bd 362e ab3c 533f b4bd
00000040: 65bd 513d c8c3 b13c 7e92 0e3d 792d babd
00000050: 1000 a23d 0098 60b9 7504 9a3d 39e7 96bd
00000060: a9d7 f33d c723 85bd f6ba 763d 274c 803d
00000070: 397f e73d bf9c 95bd ada4 503c f7eb ff3d
00000080: 0f90 8d3c f1e5 20bd b94d c93d 40be 8cbc
00000090: 7a1b 073e 3d8f fb3d d300 af3d 79ca cbbc
000000a0: b935 a0bd 3647 0bbb e980 983c eccb 0b3d
000000b0: 3987 873d 3453 db3d bc4a 483d b8ff 8dbd
000000c0: 63d6 773d 02a9 d53d 2efb 24bd 2f98 df3d
000000d0: 65dc 30be d00a fbbc f33b 0dbc 41f5 5e3d
000000e0: 1be8 703b 0d80 cc3d 0efe a53a 39e2 a9bd
000000f0: 4b0c 2f3d 3da8 43bb 4c98 babc bbba f0bc
00000100: ddf4 2abd 2495 80bd f188 08be ae52 bd3d
00000110: 894d 563d b113 8c3d 2d32 2ebc b90c b7bd
00000120: a3cd 5f3d f677 3dbc 9980 1ebc 11cb 15be
00000130: c8a8 59bd d494 d9bc 1f1c edbc c54d 80bd
00000140: b2ae d43d 123a c13d 3da9 17bd cffc eb3b
00000150: 4508 cebc 07ec 053c 7820 0e3e e71f da3c
00000160: fdc8 b83d 7fcb 92bd f6f0 883d 40ea bcbc
00000170: f513 af3d 1573 febc 4ac8 2c3e dca2 b6bd
00000180: 18af 62bc 13bc b4bd cab7 e8bd a800 003e
00000190: 26ad 2bbc 80e3 bbbc 8a81 9a3d 3a15 093e
000001a0: f56b 7d3c 0841 013d ae53 26be bf34 453a
000001b0: b1f6 673d 4f21 cebd 33cd bb3d 87d9 93bd
000001c0: 8257 153c ae19 b5bd 555c c4bd 0544 35bc
000001d0: 08b4 623b 921f b6bc 33f3 95bd 66bf e3bd
000001e0: 65eb 023d d561 583d 6766 523c 8aa2 60bd
000001f0: f9a5 673d 51ad fe3d 3fdf 98bd fedd c2bd
00000200: a74d 9f3d 4232 393e 7b58 d5bd 50ca 8c3c
00000210: 96b0 0e3e 55e9 523d 527b abbd c051 9a3d
00000220: 6a33 e5bd 3be3 b33c ad72 bfbd 146a bbbd
00000230: 9937 233d d2c0 a73d 98e9 09be 444e 593d
00000240: 95bc c03a 5be7 823d ac25 f03d f4c1 09be
00000250: 6e2e 9ebd 56ee ca3d c176 fe3d 6be2 a73c
00000260: 6dcd bdbc 5f55 bd3d 8a68 0bbd f139 003e
00000270: 081f 82bd 3673 bcbc 23c6 833d 5848 91bd
00000280: b575 aabd f11a 37bd c561 cfbd a24a bfbd
00000290: b40c 983d 0862 3abc 1026 1cbd 51aa 32bd
000002a0: 36bf b039 c4bb 29bd 6d2e 8d3c d088 0cbd
000002b0: 4d01 e13d c3ec abbd 8830 643d f565 09be
000002c0: ba03 0dbd 2b60 e13c 2f85 71bd 8e42 793d
000002d0: a854 8fbd 368c 09bc 890c a1bd 8c31 51bd
000002e0: 5db2 153d f68d 8a3d 3b2f f2bd c4bf a03d
000002f0: bd9e 613d ff03 3d3d 3f24 ddbd c797 e93c
00000300: 2ba1 333d 03aa cbbd b09a c93d d0db 983d
00000310: f30c 423d e412 b53d 097d bc3d 0adc 6dbd
00000320: 6fc1 f73c f98f b5bb 0e12 babc 0e1b 613d
00000330: 110d 30bd 80d3 483d 1639 9fbd fe49 0c3e
00000340: f8f1 50bc 5ce3 8fbc ca29 923d 4d0c 8f3d
00000350: b25a dfbc 8b62 8f3d fdb2 c7bd 9a3b 4c3d
00000360: 85f9 05bc b087 373d d1e6 ccbd ca69 043e
00000370: e188 693d 8660 f43d 42b0 293e dd40 0b3e
00000380: 432e 0c3e 5957 b8bd 8037 a8bd e084 b1bd
00000390: 5848 0b3e 25e2 60bd 8819 af3c 1f50 3c3d
000003a0: b01d 0e3d 0ddf c43d 5aee c93d 45ef 273d
000003b0: 37f2 0abd 9c5b 7d3c 64dc da3c a14f c13c
000003c0: ab7f e73d dc4d 4e3d a081 bdbd ab64 c43b
000003d0: 9fb1 2cbd 41b4 bebd c7f7 0fba 70ac 023e
000003e0: bf36 8fbd 5788 8dbd c1b8 2d3d d54c 1dbd
000003f0: 3ad1 d9bd 1aba e33d ff12 943d 07ec 1f3e
0.02463621 -0.029240226 0.101155244 0.10948824 0.013557752 0.06117795 -0.02557557 0.0071426947
-0.14497131 -0.058312558 0.073896274 -0.007315961 0.13053682 -0.041185383 0.020896059 -0.08801141
0.05120601 0.021699801 0.034807675 -0.090907045 0.07910168 -0.00021418929 0.07520381 -0.07368321
0.11906368 -0.065009646 0.060236894 0.06264525 0.11303563 -0.073052876 0.012734574 0.124961786
0.017280607 -0.03928179 0.098292775 -0.017180562 0.13194075 0.1228318 0.08545079 -0.02487682
-0.07822747 -0.0021252162 0.018616157 0.034130022 0.066175885 0.10709229 0.048899397 -0.0693354
0.06050719 0.10432626 -0.040278606 0.109176986 -0.17271574 -0.030644804 -0.00862025 0.05443311
0.003675944 0.09985361 0.0012664215 -0.08295102 0.042736333 -0.0029854917 -0.022777699 -0.029385915
-0.041737426 -0.06278446 -0.13333489 0.092442855 0.052320037 0.06839693 -0.01063208 -0.089379735
0.05463947 -0.011564245 -0.009674215 -0.14628245 -0.053139478 -0.026560225 -0.028944073 -0.06264833
0.10384883 0.09434904 -0.037026633 0.007201768 -0.025150428 0.008173949 0.13879573 0.02662654
0.090227105 -0.0716772 0.06686585 -0.023060918 0.085487284 -0.031060735 0.16873279 -0.08917782
-0.013835691 -0.08824935 -0.1136318 0.1250025 -0.0104782935 -0.022935629 0.07544239 0.13387004
0.0154676335 0.03155616 -0.16242859 0.00075228134 0.056631748 -0.10064947 0.09169998 -0.072192244
0.009115102 -0.08842789 -0.095879234 -0.01106358 0.003459217 -0.02223185 -0.07321777 -0.11120491
0.03196277 0.052827675 0.012841797 -0.05484251 0.05655477 0.12435401 -0.07464456 -0.09514998
0.07778483 0.18085578 -0.10417267 0.017186314 0.1393455 0.051492054 -0.08373131 0.07535124
-0.11191447 0.021958938 -0.093480445 -0.09151092 0.039847944 0.081910744 -0.13468015 0.053053156
0.0014704639 0.06391784 0.11725935 -0.13452893 -0.077236995 0.0990874 0.12424994 0.020493707
-0.023169244 0.09244799 -0.034035243 0.12522103 -0.06353575 -0.023004156 0.06434276 -0.070938766
-0.08323232 -0.044703428 -0.1012607 -0.09340407 0.07424298 -0.0113759115 -0.038122237 -0.043619458
0.000337118 -0.041438833 0.017234052 -0.034310162 0.10986576 -0.08394768 0.055710346 -0.134178
-0.034427382 0.027511677 -0.058964904 0.060854487 -0.06998569 -0.008395245 -0.07863719 -0.051072642
0.036547054 0.06765358 -0.11825415 0.078490764 0.055083025 0.04614639 -0.10797929 0.028514756
0.043854874 -0.099445365 0.098439574 0.07463801 0.04737563 0.08841494 0.09203536 -0.058071174
0.030243604 -0.0055408445 -0.022713687 0.054957442 -0.04298121 0.049029827 -0.0777456 0.13700101
-0.012753002 -0.017564468 0.07136877 0.06984768 -0.027264927 0.070012175 -0.09750936 0.049861528
-0.008177166 0.044807136 -0.10004962 0.1293098 0.057015304 0.11932473 0.16571143 0.13598962
0.13689522 -0.09001035 -0.08213711 -0.08667922 0.13601816 -0.05490317 0.021374479 0.045974847
0.03469628 0.09612856 0.09859915 0.04099967 -0.0339224 0.015463736 0.026716419 0.02359754
0.113036476 0.05036722 -0.0925324 0.005993446 -0.04216158 -0.093117245 -0.0005491939 0.12761092
-0.06992864 -0.069107704 0.042412523 -0.03840335 -0.1063561 0.111194804 0.07230186 0.15617381

cells.1.x2h.weight f4 [256, 64]
00000000: cddf 313c ec8d 8b3d 0def d43d b4b0 83bd
00000010: da37 ad3d af8d fabc 4139 bf3d cb1d 3e3d
00000020: 3c7f 70bd bd88 3fbb c7f9 89bd 2519 c13d
00000030: 9458 9ebd cdb7 043e c5fc a13d b8b4 bc3d
00000040: 5f1e e43d 3271 2fbd a1bb d43d cdf9 08be
00000050: 8bce e3bd 2340 12be e06e fe3c b67d 3f3c
00000060: 31a1 c23d 1297 ac3d 7050 923d 135b e7bd
00000070: 7480 3dbd 21a2 1cbd b6e8 153a eaa5 00be
00000080: 2388 af3d f75d 443d 2776 0b3d b30c 32bd
00000090: c256 fd3d 1f35 c03d 5d18 65bc a8fb 9a3a
000000a0: 9fdd 2bbd 4851 08be bb3c e5bd 0f1e 2f3d
000000b0: 1211 cc3a 14aa 973d 91a7 423d dfcc a6bd
000000c0: 74f7 debd c43f ad3d 5783 39bd 6c27 02be
000000d0: 37d1 cdbd 767c 8f3d 6b7b ac3d 2224 653d
000000e0: 3a2c b3bd 9efc 30bd aa09 833d 411c 83bd
000000f0: 8d2c c9bd bda7 81be 19b4 08bd 189d 44be
00000100: 2778 923c 2e48 a43d a3d3 fbbb d661 66bd
00000110: 3e41 d63c fe43 d43b b0d1 0a3e d138 9ebd
00000120: 6df4 0cbe 36f2 59bd 129b 62bd 8a3d 06be
00000130: 0ed8 903d e94a de3b 2f12 eebd b8d9 0a3e
00000140: ad2d e33d 87b8 103e fb34 553d 842c eabd
00000150: 5c08 c2bd d2a6 92bd e352 7fbd ce0a f83d
00000160: f5f0 0ebd 7301 0fbe ae05 333d 7eb8 42be
00000170: b554 723d 6f35 833d 3954 e93b cdc0 8dbc
00000180: 69cc e43d 2f29 8dbd d5d2 e03c 9945 42bd
00000190: 11c3 cc3c 759d 9ebd 5669 9c3d 5cff 86bd
000001a0: af04 0abd dd7b ee3c 6b32 c2bc 1f84 35bc
000001b0: 21f9 b3bd b98d 79bc d31c cbbc f030 76bc
000001c0: 80e7 883d d7ed af3d 352b b13d 3364 7ebd
000001d0: 914f 5cbc 46cd ff3d 9793 e63d 7341 3e3d
000001e0: 5fb6 02bc 6c68 a6bc f481 78bd ad17 913d
000001f0: c83c e0b8 3f7a 86bd 127d 2e3b 356e 80bd
00000200: fa39 c0bd ac65 fe3c 1528 babd 667b efbd
00000210: a33c fbbd 6c07 80bd cdaa 95bc c973 893c
00000220: d2fd 77bd c6e0 c2bd 2a95 ddbc a6b8 213d
00000230: baa4 ad3d 3fb8 a23d 5e29 b73c 3261 fdbd
00000240: 8155 ad3d 282b d13d 4161 84bd a0c6 8f3d
00000250: ff95 843d fd5e 25be e2f0 dcbd d14b 9d3d
00000260: 6fc6 09bd b29f b13d 562a d33d cb55 85bd
00000270: f13d 16bd 2095 ee3b cb19 043e 9a38 9cbd
00000280: 5c63 a7b9 61b0 133d ae59 6b3c 1049 bbbd
00000290: 4b2a 67bd efa6 8a3c b8d2 9e3d ecd6 94bd
000002a0: 1d8e bf3d ddf1 10be c2db 2f3d 9da1 b5bc
000002b0: fe06 8fbd 6366 383d 6dd8 db3d 9147 b6bd
000002c0: 71bb ef3d 9145 21bd e4fe 1d3e 54ce 033d
000002d0: 5222 d6bd a27d 493d c3ce 913d a53f f2bd
000002e0: caa4 bbbd f8c6 c5bc 30c1 e6bd 86ea 34bd
000002f0: 7672 963d 5938 6bbe 42f5 703c 2680 14be
00000300: a1fb f63d 0fec 14bc 986a 5cbd 3365 3c3d
00000310: 6ebf 043e ee73 053e 4343 c8bd c230 43bd
00000320: 95ab 473d 64ed ac3b 45da b13c fa3e 9bbc
00000330: 5412 e7bd df8c 363d 8741 db3c 4b31 0d3e
00000340: 2a16 1ebd 21ed 80bd ea70 31bd c76d 8e3d
00000350: 95f6 a03d b04d a1bb fae4 f4bd e211 0b3e
00000360: a170 a4bd 21c1 ae3d 2ca1 02be 9415 0e3d
00000370: 67c1 d93d e12f fa3d cc66 8f3d 0f1f 9abd
00000380: bb2b c8bd a2a7 11be 24c5 823d a4c3 d6bd
00000390: 4d7d 7abd f7c4 15be abee 60bd a2b7 95bc
000003a0: d583 51bc b598 03be f00d 483d 3358 7dbd
000003b0: b42b 19bb 9d5c f03d 57f8 dfbc cfed cd3c
000003c0: b5ac 5fbd fd32 673d 9bb4 093e f2d5 34bd
000003d0: 8888 64be 4b1f bcbd e705 d4bc 36fc 0c3d
000003e0: 1f84 b3bc 9c1e 81bc 67ce 5e3d 40ea aebd
000003f0: 9877 a03d 6f92 44be 2870 193c 4d35 1a3d
0.010856581 0.06814179 0.10397158 -0.06430188 0.084579185 -0.030585138 0.09337092 0.04641513
-0.05871509 -0.002922579 -0.06737094 0.09428624 -0.07731739 0.1296074 0.0790954 0.09214157
0.11138605 -0.04283256 0.1038735 -0.13376541 -0.11123379 -0.14282279 0.031058729 0.011687687
0.09503401 0.08427252 0.071442485 -0.11296668 -0.04626508 -0.038240556 0.00057185756 -0.12563291
0.08570888 0.047941174 0.034048226 -0.043469142 0.12370063 0.09385132 -0.013982859 0.0011824267
-0.0419594 -0.13312256 -0.11193224 0.042753275 0.0015569052 0.07405487 0.047523085 -0.08144545
-0.10887042 0.08459428 -0.04529127 -0.12710351 -0.1004967 0.07006161 0.084219776 0.055942662
-0.0874867 -0.043209665 0.06398328 -0.064018734 -0.098229505 -0.25323287 -0.03337488 -0.19200552
0.017879559 0.0802158 -0.007685141 -0.056245647 0.026154157 0.006477832 0.13556552 -0.077256806
-0.13765116 -0.053209506 -0.055323668 -0.13109413 0.07072459 0.0067838323 -0.11624562 0.13559616
0.11092696 0.14132892 0.05205248 -0.11434272 -0.09474251 -0.07160725 -0.062334906 0.12111436
-0.034897763 -0.13965397 0.04370659 -0.1901569 0.059162814 0.06406676 0.007120636 -0.017303849
0.11171801 -0.06892621 0.027444283 -0.047429655 0.024995359 -0.07744876 0.07637279 -0.06591675
-0.033695873 0.029111797 -0.023705682 -0.011078863 -0.08787752 -0.015231543 -0.024794018 -0.015026316
0.0668478 0.08590286 0.08650819 -0.062107276 -0.0134467045 0.12490325 0.11258619 0.046449136
-0.007978051 -0.020313464 -0.060670808 0.07084594 -0.00010692474 -0.06566285 0.002662484 -0.0627102
-0.09386058 0.03105434 -0.09089676 -0.11693458 -0.12267425 -0.062514156 -0.01826992 0.016778843
-0.060544796 -0.095155284 -0.027048666 0.039482735 0.08478685 0.079452984 0.022358593 -0.12372054
0.08463574 0.102133095 -0.06463862 0.070203066 0.06473922 -0.16149516 -0.10788132 0.076804765
-0.033636507 0.086730376 0.10310809 -0.06510504 -0.036680166 0.0072809607 0.12900464 -0.076279834
-0.0003192675 0.03605688 0.014364643 -0.09144795 -0.056436818 0.016925303 0.07755035 -0.072675556
0.09353278 -0.14154764 0.042934187 -0.02217179 -0.069837555 0.04501952 0.10734639 -0.08900369
0.117056735 -0.039372984 0.15429264 0.03217919 -0.10455765 0.04919208 0.07119515 -0.118285455
-0.091622904 -0.024142727 -0.11267316 -0.04416897 0.073460504 -0.22970714 0.0147069115 -0.1450201
0.12059713 -0.009089484 -0.053812593 0.04599495 0.1296365 0.13032505 -0.09778454 -0.04765392
0.048747618 0.0052773226 0.021710524 -0.018950928 -0.11282793 0.04456794 0.026764644 0.13788335
-0.038595356 -0.06295229 -0.043320574 0.06954532 0.07859532 -0.004922591 -0.11957736 0.1358104
-0.08029295 0.0853293 -0.12756795 0.034688547 0.10632592 0.122161634 0.07002029 -0.07525455
-0.09773966 -0.14224103 0.06385258 -0.10486534 -0.061154652 -0.14625917 -0.05491511 -0.01827604
-0.012787779 -0.12851222 0.048841417 -0.06185169 -0.0023371996 0.117364146 -0.027340097 0.02513781
-0.054608066 0.05644511 0.13447802 -0.044149347 -0.22317708 -0.09185656 -0.02588172 0.034420215
-0.021913586 -0.015761666 0.05439606 -0.085407734 0.07835311 -0.19196485 0.009365119 0.037648488

cells.1.x2h.bias f4 [256]
00000000: 5036 35bd 32e0 b9bd 5da9 803c daf1 e73b
00000010: 4f3a ad3d ac1c ae3d 60e6 f23d d5ee c13d
00000020: 4934 673c ab23 153d dedb d73d 35cf 5b3d
00000030: ea99 123d bfb3 d13d 9945 27bc fe08 89bd
00000040: e859 fcbd 01fd b9bb fdac 593d ef5d e1bd
00000050: 2d8d 1e3d e5fa 64bc dac8 6ebd 1573 a33c
00000060: 2987 af3d 7bc7 5d3c b501 96bd 67ba 1abd
00000070: 2b7d dbbc 4bfd c13c ea55 233d 6b42 c03d
00000080: 1e64 6abd a47d 073c 2a2e 96bd 01e8 cabc
00000090: fbef 1b3d 644a 3abd 8c63 073e 7822 9fbd
000000a0: 339f b43d 153c 65bd 7423 473d 97c8 fe3d
000000b0: 4263 c9bd caea ff3d 58db da3d 7727 f93c
000000c0: 4d18 013e d277 243d 55f7 44bb c43c 95bd
000000d0: c71b ad3c 1c1b b23d e1f5 4e3d cf79 663c
000000e0: a138 a6bd 5a39 d33d 2233 093e f36f a03d
000000f0: 8904 13bb 047a 823d ed88 423a c42c f0bd
00000100: 14df d4bc 61c4 a93d 8f9f d4bd 6477 3f3d
00000110: 0fde b03c 8bdd 4dbd c2d8 afbd bbb1 8b3d
00000120: 89f1 e93d 2d70 a93d 46b1 cabd 0f1c babd
00000130: 70aa fc3b c245 a43d 37f3 8ebd ff0d 13bd
00000140: 17a9 d4bd 057f da3d abe2 5abb ef65 ab3c
00000150: 1daa f6bd 82db 4bbc 2ee7 bfbd 60ee d73c
00000160: a706 66bd 3ce7 963d 45ff 153e f5c4 983d
00000170: 2ae0 26bd de37 babd ff24 ba3d e954 9ebd
00000180: 76d7 183c e115 ffbd cde9 743d 019d 563d
00000190: 6c3c 1a3d 9a54 60bd 2147 dcbb 87fb 1d3d
000001a0: 2326 833d b3a1 1a3c 6de2 c7bb 15d1 973b
000001b0: 8c13 d6bc d393 07bd 7a3b ae3d a95d 773d
000001c0: 9886 d0bd 6b46 11be e515 eabc 93e9 023e
000001d0: 6f3b 093e c569 c2bd f67d cd3d feba 253d
000001e0: 39a2 bdbd 97da d3bc 6982 983d b4cc e9bd
000001f0: 2f14 7cbd 99bb babd b27b c93c e29a 843d
00000200: 701f d03d 9300 02bd 9165 2dbc 0ff5 2fbd
00000210: b729 05bd 1b3f e5bd 1726 afbd abaa 14bd
00000220: c3d5 a73c 55f4 3abd 45c2 b839 1b07 76bd
00000230: 1e8d 89bc c613 09be e516 043c d37f 90bd
00000240: 8260 b53d 1b92 9bbd b5c2 41bc 93bf 043d
00000250: 07db 283d f757 fabb 542e 033e 8cf6 2b3d
00000260: 6c37 dabc b480 eabd 3f5f 043e f8f7 be3c
00000270: 935c b6bd a7c3 0b3e c652 f2bd b2c5 b63c
00000280: 3d37 ae3d ce28 653c f702 aa3c d9ff 5cbd
00000290: 4cd1 66bd 3cb2 dc3d 2cef 0b3d 808d 0fbe
000002a0: e0f7 8f3d d105 e2bd ea8e 1abd a811 bdbd
000002b0: 7813 efbd 2bad 1dbc bbef 043e 625c 0bbc
000002c0: ec34 d63d 1fd0 453d eadb 62bd 5250 4b3d
000002d0: cb48 083e 532d cf3d ab0a 4dbd ad0d ba3d
000002e0: f905 8abd 261c 4e3d 0f21 9d3d e949 edbc
000002f0: 29c2 c73d 2d94 183c 9151 79bc 54e1 fd3d
00000300: 63d5 0c3d dbd9 b53d 32ee ba3d 4a62 193e
00000310: b4c4 183d f6ac 7abd 8399 f03d 5dcc a33d
00000320: 7194 1f3d 144f dbbd 3858 e43d 5977 54bd
00000330: 3b70 ad3d 830d c43d 2c7b 0a3e 8037 d2bd
00000340: 5310 c0bd 6d9f d93d e9ef 81bd 582f 8f3d
00000350: e53d aebd 0338 ab3d ac08 cd3d ff60 b6bc
00000360: 08cd c2bc 5db0 c0bd 3a58 e5bc 672b 893d
00000370: b4a3 5f3d afa8 0ebd ea96 c63d d23f 143e
00000380: 992d 043e c09f 6e3d 1484 a23d 28f7 deba
00000390: 4233 77bd 9a0b 99bd b8b3 0c3e fdae a23d
000003a0: 353e f03d 8219 d1bc 2edb e83d 400a fc3d
000003b0: d190 11bd 21ad 2b3d cd10 b4bd f2f0 913d
000003c0: d1aa 8c3d b3b9 b1bc 5cbf 833c b803 b53c
000003d0: 9518 30bd f9ef b83d 3183 f9bd 1ae2 85bd
000003e0: 9863 b43d f16d e73d 7d8f a1bd 5fd3 bf3d
000003f0: 26e6 fa3c 5b92 14bd 17a5 243d b64c 9d3d
-0.04424125 -0.09075965 0.015705759 0.0070783915 0.08458387 0.085015625 0.11860347 0.09469382
0.014111587 0.03641097 0.10539983 0.053664405 0.035791315 0.10239362 -0.0102094645 -0.06691168
-0.12321836 -0.0056759124 0.05314349 -0.110042445 0.038708854 -0.013975834 -0.058297016 0.019952336
0.08570702 0.013536329 -0.07324544 -0.037775423 -0.026793083 0.02368035 0.039876856 0.09387668
-0.057224385 0.008269701 -0.07333024 -0.024768831 0.03807066 -0.0454811 0.13221568 -0.07770246
0.08819427 -0.0559655 0.048617795 0.12440603 -0.09833385 0.12495954 0.10686368 0.030414326
0.12606926 0.040153332 -0.0030054648 -0.07286981 0.02113141 0.08696577 0.050527457 0.014067127
-0.0811627 0.10313673 0.13398412 0.078338526 -0.0022433123 0.06370929 0.0007420916 -0.11727288
-0.025985278 0.082894094 -0.10381996 0.04674472 0.02159026 -0.050260108 -0.08586265 0.06821009
0.11423022 0.08273349 -0.098970935 -0.09087383 0.0077107474 0.08021118 -0.06979983 -0.03590202
-0.10383814 0.10668758 -0.0033399265 0.02092263 -0.12044165 -0.012442471 -0.09370266 0.026358783
-0.056158688 0.07368323 0.14648159 0.074594416 -0.040741123 -0.09092687 0.09089088 -0.07731039
0.009328714 -0.12455345 0.059793282 0.052395824 0.03765528 -0.054768182 -0.0067223464 0.038569953
0.064037584 0.009437966 -0.00609999 0.004633079 -0.026132368 -0.03309996 0.08507438 0.060392056
-0.10181922 -0.14187019 -0.028574893 0.12784414 0.13401578 -0.0949283 0.10033791 0.040461533
-0.09259457 -0.025861068 0.07446749 -0.11415997 -0.061542686 -0.09117813 0.024595115 0.06474854
0.10162246 -0.03173883 -0.010583297 -0.042958315 -0.032510486 -0.11193677 -0.08552187 -0.036295574
0.020487672 -0.04564317 0.00035239957 -0.06006537 -0.016790923 -0.13386449 0.008062099 -0.070556305
0.08856298 -0.07596227 -0.011826207 0.032409262 0.041224506 -0.0076398808 0.12810642 0.041983172
-0.026637755 -0.114503294 0.12926959 0.0233116 -0.08904376 0.13648854 -0.11832194 0.022311065
0.085066296 0.013986779 0.020753367 -0.053954933 -0.056351945 0.10776183 0.03416364 -0.14018822
0.070297 -0.11036266 -0.03773395 -0.09231883 -0.11673635 -0.009623806 0.12982075 -0.0085059125
0.10459313 0.048294183 -0.055385508 0.049637146 0.13309018 0.10116067 -0.050059002 0.0908464
-0.067394204 0.050319813 0.07672321 -0.028965907 0.0975383 0.009312672 -0.015217201 0.123964936
0.03438319 0.08879443 0.091274634 0.149789 0.037296966 -0.061200105 0.1174803 0.079979636
0.038959924 -0.10708442 0.11149639 -0.05187163 0.08468672 0.0957289 0.13523549 -0.10264492
-0.093781136 0.10626111 -0.06344587 0.06991452 -0.08507899 0.08360293 0.1001142 -0.022263048
-0.023779407 -0.094086386 -0.027996171 0.066977315 0.05459948 -0.034828838 0.09696753 0.1447747
0.12908019 0.05825782 0.07935348 -0.0017010914 -0.060351618 -0.07472916 0.13740432 0.079435326
0.11730615 -0.025524858 0.1136993 0.123066425 -0.0355385 0.041913155 -0.08792267 0.07126035
0.06868518 -0.021694994 0.016082458 0.0220965 -0.042992193 0.09030146 -0.12183226 -0.06537266
0.088080585 0.113002665 -0.07888696 0.09366488 0.030627321 -0.036272388 0.040196504 0.07680647

cells.1.h2h.weight f4 [256, 64]
00000000: a785 063d 3049 3cbd 9796 8b3d 62d3 d6bd
00000010: 3c78 4e3d 6498 e83d 06e8 bebd a60e 1e3c
00000020: d962 a43c a1a8 ccbd da94 953d 4bb2 bdbd
00000030: ddc0 bfb9 9297 64bd 554f 94bb fbc8 e73c
00000040: b342 a53d 0571 e73d ffa0 383c e24b f9bc
00000050: 912b b43d 8a0f afbd 2ab3 ad3d 0e7a 313d
00000060: 26e7 00be 6ba9 18be f90e 6cbc 84a5 0b3d
00000070: 0d2a 043d 08de 883c a121 d33d a3a0 db3d
00000080: fd28 803d f8ea 4dbc 9911 0fbb b198 55bd
00000090: 6a5c 53bd e830 10be d574 443d bd5e 833c
000000a0: 37b2 bc3d 5a4a 0d3d d561 c13d df5b ccbd
000000b0: 6213 eabd db1c 08be 190c bb3c 11eb a63d
000000c0: 876e fabc f50e 053e 98e2 0abe cdea 893d
000000d0: 2653 c23c c0d8 babd 6566 95bd daca 13bc
000000e0: 2f94 4ebd 20d9 26bd df21 51bd 4bc1 573c
000000f0: 0c76 47bd f924 af3d 81e7 93bc d685 43bd
00000100: e4ac 153c 6791 cb3d bada 99bd 7c86 453c
00000110: 7821 c63d 657d b6bd e1b0 aabc 66e1 843a
00000120: a16c f6bd d65a c13d 3176 f4bb 6197 8d3d
00000130: ce37 2cbc 648b fabd 6b73 9dbd 6bbb 693d
00000140: 70be 403d 38de e9bd d68d 70bd fe28 16bc
00000150: 4aee 10bd ae73 00be 9d03 bc3d ea2c ec3d
00000160: 7794 a9bd e4f8 82bd 2183 dd3c d4eb 9dbd
00000170: 0237 d1bd 439d 563d 85f1 62bd afed dcbd
00000180: 516e ddbc b08d fe3d 25c3 50bc 9d0e be3d
00000190: 24f5 9fbd b172 e53d 637b 0d3e 31d2 bd3d
000001a0: fa98 fc3d eabf a33d c2b3 a53d 9805 873d
000001b0: 5be7 ccbd 06f5 c13d 76cb c73d 0a6e 9fbd
000001c0: ba7c 8f3c d6ce 9a3d 7cb5 9d3c 94db f33d
000001d0: 6336 89bd ea50 093e 4978 35bc a2c3 223d
000001e0: aea6 8cbd a69f c23d 7347 873d fb34 94bd
000001f0: 13ea 09bd 399e 9fbc 4dbc d63c 06dc e73c
00000200: 6b8e eb3d a0d3 01be 2ca9 da3c 4374 18be
00000210: ac3a c53d 5eef 7ebd 7ebd 46be de3b a8bd
00000220: 51c1 16be 4daa 013e acce 2bbe 5724 b4ba
00000230: 3b9d 3c3d ec15 7fbd c5a8 d0bd 83a7 a9bd
00000240: 6b52 eabd 96ba 0c3d 6759 efbc 3fe6 063d
00000250: faa0 cd3d fe57 0dbe 5a0c db3d 75de 333d
00000260: 82a8 2d3d b6b4 753d ed76 e83d 8a43 f73d
00000270: e62c 98bd 38e2 3c3d c7e1 cdbd 9bfa 0ebe
00000280: ccb2 deba 2e2f 3b3d 791e c2bd 9852 d1bd
00000290: 1ad0 e2bd d80f 16bd a0ef 953d a48f 523d
000002a0: 30fc d13d a4c9 31bd 14b8 a73d 9e45 dabd
000002b0: 9a86 183d 353c 42be b61b 503d 25da a9bc
000002c0: fb16 fb3d 2a45 153e 6ee2 0fbe fdc5 03bd
000002d0: ca96 ebbc e184 fe3d a472 9ebd cdf9 9f3c
000002e0: e76d bf3b 0193 ecbd 99af 913d b18b 663d
000002f0: d295 e1bc 627e bebd d115 993d 877d 01bd
00000300: dcda 083c d848 813b e762 0bbd 7cb3 c2bd
00000310: 35c7 063e d128 05bd ff6b 21bd 1e24 79bd
00000320: e893 56bd 1759 1fbd ddca 443d 568d bdbc
00000330: 075c 2c3b a5e6 07bd fd26 36bd 4d9b d93d
00000340: 5f6f 8dbd 248e a4bc eb39 53bd 1d9c 113e
00000350: c36c 0cbe 1002 3b3d 464d 063e 077e d33d
00000360: 9fa6 02be 3913 253d 9825 973d 6bda 30bd
00000370: 596b 043c 76d8 0fbd d1d5 2e3c 7f29 c7bd
00000380: a6b7 933d 300f 763d 596f 803c b09e 9f3c
00000390: 91e6 1bbe 9fba bbbd 537d a6bd 46f4 1ebe
000003a0: 3ecf 123e 11b3 cb3d ec53 9dbd 5ad7 933b
000003b0: b33d b539 4bca 3bbe 92f9 d43b e1ad 9fbd
000003c0: 2f63 a0bd 7576 2d3c f8ef e2bc c5e1 e2bc
000003d0: de36 61bd 386f c3bd d202 f23d 4fb3 babb
000003e0: 2759 353d 3efe a43c fef1 8dbd aef7 813d
000003f0: 70e8 c63d 828a c83d 0023 9abd c9f5 b63c
0.032842305 -0.045968235 0.06815832 -0.10489537 0.050407633 0.11357191 -0.09321599 0.009647047
0.020066665 -0.09993101 0.07303782 -0.09262522 -0.00036574053 -0.05580861 -0.0045260587 0.028294077
0.080693625 0.11300854 0.011268853 -0.030431692 0.08797372 -0.08547886 0.084814385 0.04332929
-0.12588176 -0.14908378 -0.014407867 0.034093395 0.032266665 0.016707435 0.103091486 0.107239984
0.06257818 -0.012568228 -0.0021830557 -0.05214757 -0.051601805 -0.14081156 0.047962982 0.016036386
0.09213679 0.034494735 0.09442488 -0.099784605 -0.11429478 -0.13292257 0.022832917 0.08150304
-0.030570282 0.12993987 -0.13563001 0.06734238 0.023721289 -0.09123373 -0.07294921 -0.009020532
-0.050434288 -0.04073441 -0.051057693 0.013168643 -0.048696563 0.08551974 -0.018054726 -0.047735058
0.009135459 0.09939843 -0.07512422 0.012055989 0.096743524 -0.08910636 -0.020836296 0.0010137975
-0.12032438 0.09441154 -0.0074603786 0.06913639 -0.010511352 -0.12233618 -0.0768803 0.0570635
0.047056615 -0.11419338 -0.058729015 -0.009165047 -0.0353835 -0.12544128 0.09180377 0.11532004
-0.082802705 -0.06395128 0.027040066 -0.07710996 -0.1021557 0.05239607 -0.055406112 -0.10787522
-0.027030142 0.124293685 -0.012741839 0.09280131 -0.07810429 0.11203516 0.138166 0.092686065
0.123338655 0.07995589 0.08090927 0.06592864 -0.10005065 0.09470563 0.09755604 -0.0778466
0.017515529 0.07558982 0.019251578 0.119071156 -0.066998266 0.13409773 -0.0110760415 0.03973735
-0.06867729 0.09503107 0.06605425 -0.07236668 -0.033670496 -0.019484626 0.026212836 0.028303158
0.115017734 -0.12678385 0.026691996 -0.148881 0.096303314 -0.062239997 -0.19408223 -0.08214544
-0.14722182 0.12662621 -0.16778058 -0.001374374 0.046048384 -0.062276766 -0.1018844 -0.082839034
-0.11441501 0.03435763 -0.029217435 0.032934424 0.100404695 -0.13803098 0.10695715 0.043913323
0.04239703 0.059986793 0.11350808 0.12073429 -0.07430439 0.046114177 -0.10052829 -0.13962786
-0.0016990541 0.04569929 -0.094784684 -0.10220832 -0.110748485 -0.036636204 0.073210955 0.051406518
0.10253179 -0.04340519 0.08189407 -0.1065781 0.03723774 -0.1896828 0.050807677 -0.020733902
0.122602426 0.14577165 -0.1405122 -0.03217124 -0.028758425 0.124276884 -0.0773671 0.019528294
0.005841959 -0.11551476 0.07113571 0.056285564 -0.02753726 -0.09301449 0.07474864 -0.031613853
0.008352961 0.003945451 -0.034029868 -0.0950689 0.13161929 -0.03250963 -0.039409634 -0.06082546
-0.05238715 -0.038903322 0.048045028 -0.023138683 0.002629997 -0.033178944 -0.044470776 0.106253244
-0.06906008 -0.02008731 -0.051568907 0.14219709 -0.13713364 0.045656264 0.13115415 0.10326772
-0.12758873 0.040301535 0.07380217 -0.04317705 0.008082234 -0.035118543 0.010671095 -0.097247116
0.072127625 0.060073078 0.015678095 0.019484848 -0.15224673 -0.091664545 -0.081293724 -0.1552287
0.14336869 0.099462636 -0.076820225 0.004511756 0.0003456898 -0.18338887 0.0064994777 -0.07796837
-0.07831418 0.010587324 -0.027702317 -0.027695546 -0.054983966 -0.09542698 0.11816944 -0.005697645
0.044274475 0.020140763 -0.06930922 0.06346069 0.09712303 0.09792043 -0.07526207 0.022333996

cells.1.h2h.bias f4 [256]
00000000: 62be 8cbc d154 453d 49ad 143d b688 fc3b
00000010: bb20 0d3e aecc d53d d092 133d 4c77 e93c
00000020: 5058 f53c 82bc afbd 35e7 11bd 335d c63c
00000030: 1c3d 5a3c fb93 83bd 0898 9f3d 6dab 0e3e
00000040: e8c8 dc3d c876 fd3d a9c1 95bd 0dbe 323d
00000050: 7d7f 123d e843 cb3d 60c8 d13d d928 293d
00000060: 7157 0d3d 4d56 c6bd 7a3c 7c3d d5c9 3e3d
00000070: 31c2 9f3d 6721 913d c5e9 793d d149 a1bd
00000080: 1d3f 053e 9715 b9bc ed7f eabb 122d f63d
00000090: c52f 423d e411 bcbd ed8d 40bc 082a 9f3d
000000a0: b0c6 20bd bbcd c8bc 96c2 a83c 6be7 e03d
000000b0: 3e96 a83b c6e6 45bd ec22 e3bd b678 aebd
000000c0: 0a59 203c 74cc 8cbb c250 c6bd 4ba4 063e
000000d0: f0ab 083e c1f6 52bd 6e36 0cbe c5f2 4dbc
000000e0: c976 c3bd fa21 fb3d fc7b 12bd dc4a 9cbc
000000f0: df2d 163d 5f95 ee3d 08c7 2d3d 5a85 f3bd
00000100: d749 2d3d 5fb3 eabc 055f bcb9 e611 c2bc
00000110: 9b7c c8bd e0c8 c93c 01a0 2fbd 0a29 b5bd
00000120: 8416 ad3d d3d6 ccbd d57e f13d 0111 e13d
00000130: 4be9 c23d 9f92 913c 736b 9ebb e9ff 433c
00000140: a127 823d 437b b2bd ee20 2b3d 2f05 c13c
00000150: 117a 8abd 39a4 b3bb 1c8d bdbd 3c6c 013d
00000160: df40 903d 5748 3b3b 2054 84bd 1f92 e2bd
00000170: a782 0c3c 5e63 be3d 279c a03d ef13 86bc
00000180: 4c3b 053e 9c7c ae3d 1cda a43d 2045 033e
00000190: ad4b d3bc 75f5 a6bd ff9e af3d e821 c03d
000001a0: cd5c a0bd 1046 95bd 79f8 b8bd 0cc3 0a3e
000001b0: 209b 9b3c 077e 5fbb dbe5 6a3d 41b0 ee3d
000001c0: bc55 9b3d fca2 f5bd 76c1 04bd dff8 803c
000001d0: c101 9bbd 388c 86bd 2b1b fd3c be88 933d
000001e0: 874c d93d baa7 0dbd 0a93 9f3a 1093 dfbc
000001f0: 8b7f 4e3d d146 aebd 93e6 6eba 5c79 0e3d
00000200: cfd4 043c 85a5 08be 33d5 f73c 47a0 b33c
00000210: 9501 0d3e 9fbe dcbd f8b4 6c3d af3c 3fbd
00000220: 219b 28bd 8f57 c83d 490a d03d d3f0 d5bc
00000230: f4d1 fabc 4769 c4bc a3da 14be 03d6 02bd
00000240: 3adc 073e d280 adbd 65f2 1c3d 4136 66bd
00000250: abb1 c2ba 00f2 823d 3e63 aabd e8ff 9c3d
00000260: 4621 5ebc c615 463c fd37 f53d b007 403c
00000270: 2f08 e33d a049 76bd e7c6 d2bd d4f7 14bd
00000280: b918 8dbd 2385 b23d 26f2 9b3d fc92 0d3e
00000290: 901b f9bd 50cf e4bd c019 bf3d 8c73 093c
000002a0: a6a6 963d 8833 9fbc 72b0 17bd dd99 03be
000002b0: f26c 223d 1e65 db3d 3dca cabb eca4 b2bd
000002c0: 118f 103e c28c cd3c d194 d43d 6d47 ea3d
000002d0: 9a21 e33d 945b edbb 244b 92bd 9af5 8dbc
000002e0: cc6e 973d 6985 103e 72b0 ba3d c1b1 653c
000002f0: 20b3 3fbd 104f 0c3d afb0 223d dc4f b53d
00000300: 51f8 1d3d 7682 fc3d 1021 a2bd 7a30 0f3e
00000310: ee02 1fbd 664e 943c 9061 683d e438 0fbd
00000320: 694a c53d ce18 393d a1ef de3b 4170 06bd
00000330: 3132 98bc 975e a93c ebda 4f3d 71ca 26bd
00000340: 1b8e cd3d c201 bf3c 1ea8 c5bd 2fe3 99bd
00000350: 2a83 fe3d e913 d1bd 33be 373d 2859 83bd
00000360: 0d9c c13b 6155 913d 8770 463d 77bb b8bd
00000370: 1461 46bd 4725 f53d b7cf 7fbc c22f aebd
00000380: 05ed 683d 389e d33c 9d28 ac3b 111d b83d
00000390: 2693 4abd f835 b53d 4564 1cbd eb37 e43d
000003a0: bc6b 3fbd 4550 02bd 072e 143d 95c4 0f3e
000003b0: 6538 d43d 88d8 eb3d 49fb 333c 731c d13d
000003c0: fb54 10bd d982 afbd f798 1dbd 92a1 833d
000003d0: e74d 40bd abe1 d93c 3357 983d e7fc 2e3d
000003e0: 3075 ae3c ad43 363d bd19 c8bd b14e 3e3d
000003f0: b665 80bd 14e5 debb 9f40 2a3c 2f5b 8bbd
-0.017180625 0.04817659 0.03629807 0.007706727 0.13782017 0.1043943 0.036028683 0.028499268
0.029949337 -0.08580877 -0.035620887 0.024214363 0.013320234 -0.064247094 0.077926695 0.13932581
0.10780507 0.12376171 -0.07312328 0.043638278 0.035766114 0.099250615 0.102432966 0.04129872
0.03450722 -0.09684429 0.061581112 0.0465792 0.07800711 0.07086449 0.061013956 -0.078754075
0.13012357 -0.022593303 -0.007156363 0.12020315 0.047408838 -0.091831 -0.011752588 0.07771689
-0.039251983 -0.024512162 0.020600598 0.109816395 0.0051448634 -0.048315786 -0.11090645 -0.085191175
0.009786854 -0.0042968336 -0.09683372 0.1314861 0.13346839 -0.051504854 -0.13692638 -0.012570088
-0.09544141 0.1226234 -0.035762772 -0.019078664 0.03666484 0.11649584 0.04242614 -0.11890669
0.042306747 -0.028649984 -0.0003592895 -0.023690175 -0.097893916 0.024631917 -0.0428772 -0.08845718
0.0845156 -0.10001912 0.117917694 0.10989571 0.09517153 0.01777011 -0.0048345863 0.011962869
0.06355215 -0.087149166 0.04177945 0.023562042 -0.067615636 -0.0054822234 -0.0925543 0.03159736
0.07043623 0.0028577053 -0.06461358 -0.11063027 0.008576072 0.092962965 0.07842284 -0.016366927
0.13010901 0.08519861 0.080494136 0.12819338 -0.025792921 -0.08152286 0.08575248 0.09381467
-0.078302 -0.07288754 -0.090317674 0.13550967 0.018994868 -0.0034102218 0.057348114 0.116547115
0.07584712 -0.119939774 -0.03241106 0.015743671 -0.07568694 -0.06569713 0.030896744 0.07203816
0.106102996 -0.034583785 0.0012174558 -0.027291805 0.050414603 -0.08509601 -0.0009113338 0.034783706
0.008107378 -0.1334439 0.030253028 0.021927012 0.13770135 -0.107785456 0.057789773 -0.04668873
-0.041163567 0.097823255 0.10158212 -0.02611581 -0.030617692 -0.023975981 -0.14536528 -0.03194238
0.13267604 -0.08471836 0.038317103 -0.056204084 -0.0014853975 0.06393814 -0.0831971 0.07665998
-0.013557738 0.012090152 0.119735695 0.011720583 0.11085545 -0.060128808 -0.10291844 -0.03636916
-0.06889481 0.087168 0.076145455 0.13825601 -0.1216346 -0.11172354 0.09331083 0.008389365
0.073560044 -0.019433752 -0.037033506 -0.12851663 0.03965468 0.10712646 -0.0061886595 -0.087228626
0.14117076 0.025091533 0.10379947 0.11439405 0.11090393 -0.007243583 -0.07143238 -0.017329026
0.0739418 0.14113392 0.091156855 0.014019431 -0.046801686 0.034255087 0.03971928 0.088531226
0.03856689 0.12329571 -0.079164624 0.13983336 -0.038821153 0.01810379 0.056733668 -0.034966365
0.09633333 0.04518967 0.0068034683 -0.032821897 -0.01857862 0.020674987 0.050745886 -0.040720407
0.1003687 0.023316268 -0.096512064 -0.07514035 0.12427361 -0.10208876 0.044859122 -0.064134896
0.0059084953 0.07096363 0.04844716 -0.09020131 -0.048432425 0.11970001 -0.015613488 -0.08505203
0.056866664 0.02583228 0.005253865 0.08989919 -0.049456738 0.08848184 -0.038181562 0.11143478
-0.046733603 -0.031814832 0.036176708 0.14039834 0.10362319 0.115159094 0.010985204 0.102105044
-0.035237294 -0.08569879 -0.038475957 0.064273015 -0.046949293 0.026596865 0.07438507 0.042721655
0.021296114 0.044498134 -0.09770534 0.046461765 -0.062694 -0.0068022106 0.010391383 -0.06804501
