model_group/models_group_demand/LSTM_model_MANHATTAN_COLUMBUS AVENUE.pth (torch, 351198 bytes, 17 tensors)

input_projection.weight f4 [2, 2]
000000 21 b2 40 3f b0 b4 1c bf 5e 4a c8 3e 31 24 15 bf
       0.75271803 -0.6121321 0.39119238 -0.5825835

input_projection.bias f4 [2]
000000 64 c5 10 bf 9a c1 ac be
       -0.56551194 -0.33741456

cells.0.x2h.weight f4 [256, 2]
000000 62 d4 26 3d 44 b4 34 bf e5 fa 56 3d 3a f9 17 bf
       0.040729888 -0.70587564 0.052485365 -0.59364665
000010 4d 0f 17 bf fd 6d 03 3f 95 0a 24 bf 7b 5e 8d 3e
       -0.5900772 0.51339704 -0.64078647 0.27611145
000020 25 31 ec 3e f9 a5 3b bd f5 08 54 be 52 b2 82 3e
       0.46131244 -0.04581258 -0.20706542 0.25526673
000030 2d b7 d4 3e 8b 58 fa be 7e 5a 3b bf 57 02 77 3e
       0.41546002 -0.48895678 -0.73184955 0.24121986
000040 85 cd 6f 3e 17 73 18 bf be b3 af 3e 43 96 aa be
       0.23418243 -0.59550613 0.3431682 -0.33317766
000050 fd 12 54 3e 15 26 ed be 71 d5 1a bf f6 c1 e9 3e
       0.20710368 -0.46318117 -0.60481936 0.45655793
000060 f2 68 f4 3c a3 d8 31 bf 3c de d8 be ff 23 30 bf
       0.029835198 -0.69471186 -0.4235705 -0.68804926
000070 b7 1e cc be 3e 6d b5 3d 46 f2 95 be 81 04 75 be
       -0.39867184 0.08858727 -0.29286402 -0.239275
000080 c5 74 57 3e 97 9d 35 be e2 3a b7 3e f4 1c 08 bf
       0.21040638 -0.17735897 0.35787112 -0.5316918
000090 20 10 14 3e 7e f8 bf 3e ae 74 fa 3d c1 32 3c be
       0.14459276 0.37494272 0.12229286 -0.18378736
0000a0 64 a1 37 be 52 54 17 3d 85 e9 35 bf 38 3c d7 3e
       -0.1793266 0.03694565 -0.7105945 0.4203813
0000b0 25 5b 19 bd ff 3b bb be de b4 0d bf 56 5b 66 3e
       -0.037440438 -0.3656921 -0.55354106 0.2249578
0000c0 e0 b9 b5 3e e6 cf 13 bf ad 23 19 bf f8 9f 09 bd
       0.35493374 -0.577391 -0.5982006 -0.033599824
0000d0 9d 51 c4 bc e6 81 cb be 74 51 26 3f cc c2 16 bf
       -0.023964697 -0.39747542 0.6496804 -0.58890986
0000e0 e7 b3 2c bf 84 ec 34 bf 94 c8 c7 be 9c 6f 85 be
       -0.6746201 -0.70673394 -0.39020216 -0.26061714
0000f0 8e 39 8b be c1 75 1c bf 31 dd 30 bf af c9 9e bd
       -0.27192348 -0.6111718 -0.6908751 -0.07753312
000100 ec ec 33 3f b2 9f d7 3e 32 c2 08 bf e1 c3 d9 be
       0.7028339 0.42114025 -0.5342132 -0.42532256
000110 d0 1e e4 3c 6b 59 5d 3e 78 d7 c0 bd b9 e5 25 bf
       0.027846724 0.21616141 -0.094160974 -0.64803654
000120 f3 83 09 3e 1f 64 ea 3e 04 32 ad be 24 1b b4 be
       0.13429241 0.4577951 -0.3382722 -0.35176957
000130 f5 51 0f 3d 71 76 20 bf dc 95 ee be 95 a7 38 3d
       0.03499027 -0.6268073 -0.4659871 0.045081694
000140 6e bb a2 3e bd 34 9c be 4d 04 ff 3d ce 84 0d be
       0.31783623 -0.30508986 0.12451992 -0.13820192
000150 17 5e ca 3e 19 68 a1 3e 1e e9 00 bf 14 a9 21 bf
       0.3952491 0.31524733 -0.5035571 -0.6314862
000160 f7 0a 91 be 7a 54 09 be 62 04 13 be 27 6d 02 bf
       -0.28328678 -0.13411132 -0.1435714 -0.50947803
000170 dc c9 4f 3e 83 b3 01 bf 98 c3 be 3e 25 05 a2 3e
       0.20291847 -0.5066454 0.372586 0.3164455
000180 73 05 ae 3e 3a c8 ef be 65 74 cb be 99 08 25 3f
       0.33988532 -0.46832448 -0.3973724 0.64466244
000190 e8 5b 1b bf e3 76 41 be 3f eb 2d bf 56 df 9c be
       -0.6068711 -0.18893008 -0.6793708 -0.30639142
0001a0 a2 36 41 3d cc 50 6b bd 8a 00 84 3d 01 80 06 3f
       0.047171243 -0.0574501 0.06445415 0.5253907
0001b0 05 46 b3 bc cc 7e 10 bf 47 c0 99 bd cc b1 de bc
       -0.021883974 -0.56443477 -0.07507377 -0.02718439
0001c0 ea 80 2f 3f da 04 05 3d 3b 25 2c 3f 90 72 b5 3e
       0.6855608 0.03247533 0.6724431 0.35438967
0001d0 9c 3e 95 3e 3f 1f 89 3e 6d 50 c3 3c 09 68 1e bf
       0.2914933 0.2678165 0.023842061 -0.61877495
0001e0 f9 ce 1f bf 30 7a 63 3e e2 4f 03 be 54 f0 fd 3e
       -0.6242519 0.2221458 -0.12823442 0.49597418
0001f0 4a d5 bc 3e 1d 01 22 3f b4 c0 1b 3f db 88 40 bf
       0.36881477 0.6328295 0.60840917 -0.75208825
000200 3d ed ce 3e 1e d3 d3 3e d9 21 0b 3f 07 3b a4 be
       0.40415373 0.41372007 0.5434852 -0.32076284
000210 88 94 85 be 8c b1 0c bf 27 a0 df 3e b1 a4 15 bf
       -0.26089883 -0.54958415 0.43676874 -0.58454424
000220 28 5f 10 be 47 cc 1a 3f e1 29 05 3f 48 97 95 be
       -0.14098799 0.6046795 0.5201703 -0.2921698
000230 c5 ac ce be d2 49 1e bf 11 e6 c4 3e 33 a9 c0 3d
       -0.40366188 -0.6183139 0.38456777 0.09407272
000240 ac 54 0f bf e2 0f 1e 3f 63 42 dd 3e 3e 66 8f 3c
       -0.55988574 0.61742985 0.43214712 0.017504808
000250 82 6b bb be 53 64 e2 3e 84 54 fd bd f9 ee 86 3e
       -0.3660546 0.44217166 -0.12369636 0.26354197
000260 e5 57 c6 be c7 6c c1 3d ce 29 31 3f 00 ed 09 3f
       -0.38738933 0.09444576 0.69204414 0.5387726
000270 19 c9 a9 be 2d 09 f4 be fb dc 1a 3f 23 1b 14 3f
       -0.33161238 -0.4766325 0.6049344 0.5785391
000280 18 04 94 bd 0a 65 1a 3d 0f 81 8d 3c 51 c6 16 3f
       -0.07227343 0.037694015 0.017273454 0.58896357
000290 b1 39 22 3f d7 9f bf 3e 79 77 ab be 6a 03 16 bf
       0.6336928 0.37426636 -0.33489588 -0.5859896
0002a0 44 43 c6 3d ee 1e 51 3e 67 42 79 3e 2f 16 68 be
       0.09680799 0.20421955 0.24341737 -0.22664712
0002b0 88 63 8b be 35 cb d6 3d 4f 77 84 3e 02 28 ad 3d
       -0.27224374 0.104879774 0.25872275 0.084548965
0002c0 5b eb 2e bf 84 c6 15 bf c4 6b 61 3e 26 3d 05 3f
       -0.68327874 -0.58506036 0.22013766 0.5204643
0002d0 30 d2 21 3f 8f 95 fb 3d fb 58 1d be 30 a3 2f bf
       0.63211346 0.122843854 -0.15365975 -0.6860838
0002e0 a9 3b 9b 3d 4c 17 02 3d 4e cc 9d 3e 57 3f 08 bf
       0.07579739 0.0317605 0.30819935 -0.5322165
0002f0 d2 8a e1 bd 4c 4f d7 3d 94 e3 e7 3e 8b 53 c2 be
       -0.11012806 0.105131716 0.45290816 -0.37954363
000300 ab 52 fd be f4 5e d1 be e9 d5 00 3f 06 a8 cc 3e
       -0.49477133 -0.40892756 0.503264 0.39971942
000310 df ee 25 bf b4 a4 10 3f 0f 0c 28 bf f5 c9 5d 3e
       -0.64817613 0.5650132 -0.656434 0.21659072
000320 47 12 8b 3d c5 4b 01 3f 29 bf 79 be 3e 90 49 be
       0.067905955 0.5050624 -0.24389328 -0.1968393
000330 0b e4 f6 3b d0 ec da 3e 30 80 2a bf ea 6e 28 be
       0.007534509 0.427588 -0.6660185 -0.1644856
000340 79 09 5b be ff 2e d0 3e bc 2e ac be 0e 1a 9e 3d
       -0.21390332 0.40660855 -0.33629405 0.07719813
000350 47 19 31 bf a0 71 97 bd c4 a6 2d bf 9b 40 f2 3e
       -0.69179195 -0.07394719 -0.6783259 0.47314915
000360 ae 59 e1 3e 46 b1 a9 3e a5 a8 af 3e c4 66 f9 be
       0.44013733 0.3314306 0.34308353 -0.48711216
000370 1c 2d 01 bf a9 d9 16 3e 34 c5 2a 3f 09 fd eb 3e
       -0.50459456 0.14731468 0.6670716 0.46091488
000380 39 da 0c be f0 0c fb be b8 9e 19 3f 24 49 2e 3f
       -0.1375512 -0.49033308 0.6000781 0.68080354
000390 54 54 19 3f 9c b4 01 3e c9 13 25 3f 4b a7 3a bf
       0.598943 0.12666553 0.64483315 -0.7291152
0003a0 0f b9 b7 3d b0 7e 25 3f 84 a1 10 bf db 23 24 bf
       0.08970844 0.64646435 -0.56496453 -0.6411721
0003b0 cc 04 a9 bd f9 46 2c be ea 55 10 bf 99 7f c3 be
       -0.08252868 -0.16823949 -0.56381094 -0.38183287
0003c0 b7 5a 37 bf a2 47 29 be 6d 10 f3 be bc 75 fa bd
       -0.71622795 -0.16531232 -0.4747347 -0.12229487
0003d0 b8 ce ef 3e 6a 3b ba be 99 f8 cb 3e d8 3a c0 3e
       0.468374 -0.36373454 0.39838102 0.37544894
0003e0 b4 70 18 3f 78 81 1f 3f ce 32 c1 be 51 ff a8 3e
       0.5954697 0.6230693 -0.37734073 0.3300729
0003f0 16 ad 90 3e 99 0d 06 be b0 a2 5f be 2f ef 08 3f
       0.28257054 -0.13091125 -0.21839404 0.53489965

cells.0.x2h.bias f4 [256]
000000 6c 35 90 be dc 76 67 bd 94 35 68 bd 53 1c eb be
       -0.28165758 -0.056509838 -0.05669172 -0.45920047
000010 02 f7 27 3f d0 bd fc 3e 3a df 32 3e ba 5f 22 bf
       0.6561128 0.49363565 0.17467967 -0.6342732
000020 95 f4 ac be ad 72 1d bf b1 06 00 be f6 63 4d 3e
       -0.3378035 -0.61503106 -0.12502553 0.20057663
000030 77 56 6d 3e 6a d7 06 bf 55 b4 86 3e 49 08 fe bd
       0.23177515 -0.52672446 0.26309457 -0.12403924
000040 35 e5 28 bf 1a 73 13 3f a6 0c 26 3f 2e 85 b2 be
       -0.6597474 0.57597506 0.6486305 -0.34867233
000050 c7 ff 88 be d9 64 2b bf e0 c7 32 3b 66 e2 14 3f
       -0.26757643 -0.66950756 0.002727978 0.58157957
000060 f9 ed 03 be ef b0 09 3f 56 c9 5b bd 39 4a 1b be
       -0.12883748 0.53785604 -0.053658806 -0.15165032
000070 4f 73 28 3e 7c a0 0b be 00 ad 00 be 04 5d 6c be
       0.16450237 -0.13635439 -0.12565994 -0.23082358
000080 2b 54 a4 3d 25 09 05 3f 14 b6 b1 3e 1f b5 19 be
       0.08023866 0.5196708 0.34709227 -0.15010498
000090 91 37 c5 3e c6 5f 1a 3f 0d 0b 9d be bb 8a 9b 3e
       0.38518956 0.6030239 -0.30672494 0.3037928
0000a0 f9 d4 29 3f 3c 82 4d 3e 77 24 c4 3e 28 ea 19 3d
       0.66340595 0.20069212 0.3830907 0.037576824
0000b0 9f e3 e9 be 2e 1e ea be ed a5 f2 3e 46 bd 21 bf
       -0.45681474 -0.4572615 0.47392216 -0.63179433
0000c0 b9 61 12 bf 56 3f 23 3f e8 fb 72 bd 37 75 ce 3e
       -0.5718036 0.6376852 -0.059322268 0.40323803
0000d0 a9 d1 f9 3e c1 01 b4 3e ee b0 d5 3e ce 38 1e 3f
       0.4879277 0.35157588 0.4173655 0.6180543
0000e0 50 0d 2b 3f 40 af ca 3e 05 9f 2a 3f 65 f2 29 bf
       0.6681719 0.3958683 0.66648895 -0.6638549
0000f0 3a 07 12 bf ef 0b 1d 3f 13 d2 e9 bc 4f 16 e8 bd
       -0.57042277 0.61346334 -0.028542554 -0.1133238
000100 cb 4c 07 bf 22 54 62 3e 62 52 2e 3f 5b 24 a6 be
       -0.5285155 0.22102407 0.68094456 -0.32449612
000110 98 9e 2d bf 4f 39 0c 3e e1 80 92 bc ad 10 68 3e
       -0.6782012 0.13693736 -0.01788372 0.22662611
000120 34 a7 f2 3e 95 4e 4c 3e b0 97 db 3e 99 b6 b2 be
       0.4739319 0.19951852 0.42889166 -0.34904936
000130 79 f7 e7 3e 44 c6 0d be 11 85 ab 3e a1 46 b9 bd
       0.45305994 -0.13845164 0.3349996 -0.090466745
000140 fb dc 00 3f 30 48 9e 3e dc a9 57 3e 94 94 b3 be
       0.5033719 0.3091445 0.2106089 -0.35074294
000150 57 a2 1e 3f fe 27 25 bf a6 50 4f be f1 8e 58 3d
       0.6196646 -0.6451415 -0.20245609 0.052870695
000160 a2 c4 32 bd 57 fd 6d 3e 64 9c ce 3e 2f 01 4b 3e
       -0.043644555 0.23241173 0.40353692 0.1982467
000170 da 0e bb bd 19 10 2b 3f ae 86 eb be ea ce 62 bd
       -0.09133692 0.6682144 -0.4600119 -0.05537311
000180 07 0b 1c 3f a6 73 91 bc a7 6c 09 bf 88 85 37 3e
       0.60954326 -0.01775534 -0.53681415 0.17922032
000190 6a b3 07 bf 09 f6 d3 3e 99 21 1f be 95 6e fb 3e
       -0.5300814 0.41398647 -0.1554016 0.49107805
0001a0 cb 60 58 be b1 e9 cd 3c 81 01 e8 bd c9 11 30 3e
       -0.21130674 0.025135847 -0.11328412 0.17194284
0001b0 5c ce 15 3f 2e e9 bf bd 1e b5 72 3e 46 31 3c 3e
       0.58518004 -0.09370647 0.23701903 0.18378171
0001c0 dc a1 74 be 58 75 22 3f af 33 db bc 44 28 22 3e
       -0.2388987 0.634603 -0.026758043 0.15835673
0001d0 54 1c 19 bf f2 73 2c be cb d5 b2 be fe a5 f9 3e
       -0.5980885 -0.16841105 -0.34928736 0.48759454
0001e0 2d 58 0c 3e f2 93 e6 bd 27 c9 91 3e ee 5d 17 3f
       0.13705511 -0.11258687 0.2847378 0.591277
0001f0 5a 11 62 3e 69 18 ce 3e e5 ae 7c 3e 37 35 92 be
       0.22076932 0.40252998 0.24676092 -0.28556225
000200 e6 69 c9 be 68 83 1d bf 24 17 c1 be ad 4f 90 be
       -0.39338607 -0.61528635 -0.37712967 -0.28185788
000210 e6 67 a5 be d3 51 2c 3f c9 73 99 3e 95 60 1e 3f
       -0.3230583 0.67312354 0.2997115 0.6186612
000220 a4 3f 24 3d e8 bb cd be 56 06 83 3e a5 fc e8 3e
       0.040099755 -0.40182424 0.2559077 0.45505252
000230 fe c0 0a 3f f2 df 92 3e 3b 0b 45 3d 45 02 37 bf
       0.5420073 0.28686482 0.048106413 -0.7148784
000240 a6 58 20 3f f0 8f 0b 3f 76 0e 47 be fb cd 3b bf
       0.62635267 0.54516506 -0.1943911 -0.73361176
000250 b4 99 20 bf ef d9 dd be 49 c2 2c bf c0 5d 98 3e
       -0.6273453 -0.43330333 -0.67483956 0.29759026
000260 14 fb 06 3f a3 f5 f5 be 18 80 9c 3e a0 f0 31 3f
       0.52726865 -0.48038968 0.30566478 0.6950779
000270 16 56 1b bf 86 12 17 3f 5a a6 21 bf 6a 7d 25 bf
       -0.6067823 0.5901264 -0.6314446 -0.6464449
000280 e7 70 15 3f 41 0d d1 be bd b6 eb be 95 b3 1d 3f
       0.583754 -0.40830424 -0.46037856 0.61602145
000290 a2 08 14 3f a3 46 d4 3e 46 a8 4c 3e e4 e3 71 3d
       0.5782567 0.41460142 0.19986066 0.059055224
0002a0 75 3f e1 3e ac 90 bc be eb 6c 25 3e ea ec 0c 3e
       0.43993726 -0.36829126 0.1615483 0.1376225
0002b0 36 7b d0 3d 57 d3 8d 3c 61 82 f2 be a0 04 23 3f
       0.101797506 0.017312689 -0.47365096 0.6367893
0002c0 88 3e 3d bd 25 4f 0e 3f e2 fe 03 bf ba e5 0c 3f
       -0.046202213 0.55589515 -0.51560795 0.55038035
0002d0 67 30 3b 3e 05 8f 23 3f 00 c8 0f be 5e 98 94 be
       0.18280183 0.63890105 -0.14041138 -0.29022497
0002e0 e8 a5 86 be 16 62 04 3e bf 41 26 bf 9b 65 a0 3e
       -0.2629845 0.12928042 -0.6494407 0.3132752
0002f0 42 74 78 be 80 e4 07 bf c6 ef 2d 3e aa 08 49 3e
       -0.24263099 -0.5308304 0.16985998 0.19632211
000300 02 71 8f be 6f eb 0a 3e aa 26 95 3e 2c 51 c8 be
       -0.28015906 0.13566373 0.2913106 -0.3912443
000310 01 aa 0a 3f 39 a7 70 be 12 c1 10 bf 05 47 c1 be
       0.54165655 -0.2350129 -0.565446 -0.37749496
000320 b4 fe 88 3e 97 e4 c3 3e 76 8a 10 bd 33 56 6e be
       0.26756823 0.38260338 -0.035288297 -0.2327507
000330 b3 a3 23 bf ba 4b f6 3e 96 3c 0e bf 3b 5e d4 3e
       -0.6392166 0.4810465 -0.55561197 0.41478142
000340 4c 0f 12 3d d0 3e 82 be 6a 4f 93 3e 2b fa 89 be
       0.03565912 -0.25438547 0.28771526 -0.26948676
000350 82 01 fd be f9 44 5b 3e 71 5e 8c bd 9a 40 21 bf
       -0.49415213 0.2141303 -0.06853951 -0.629892
000360 b4 46 54 3e ec 6e 1f 3f 5f 3e ff be 17 b0 cf be
       0.20730096 0.6227863 -0.49852273 -0.40564033
000370 e6 ea 05 3e 6e 9e 01 3f 3c 81 2d 3f f0 fc 28 bf
       0.13077888 0.5063237 0.6777532 -0.6601095
000380 10 36 d0 3d 0d 38 fe bd 9b 31 2e 3f 28 07 94 bc
       0.101665616 -0.124130346 0.6804444 -0.018069819
000390 73 b8 24 3f b3 31 08 bf 07 5a 84 be 91 69 0a 3f
       0.6434395 -0.53200835 -0.25849935 0.5406733
0003a0 06 3a a0 3e 05 7c 65 3e 01 bf f0 be 2b b2 0c bf
       0.31294268 0.22410591 -0.47020724 -0.5495936
0003b0 0d 9a 13 3f 15 d7 17 3f 31 4b ea 3e 59 8e 37 3e
       0.5765694 0.59312564 0.45760491 0.17925395
0003c0 c5 c2 0e bf bc 1b 1d bf 61 5b 20 3f 69 c0 cf 3d
       -0.55765945 -0.61370444 0.62639433 0.10144121
0003d0 62 35 ec 3e 83 ce 0b bf 8f 2e ca 3e aa 4a 3a be
       0.46134478 -0.54611987 0.39488646 -0.18192545
0003e0 b0 f7 d1 3e c4 3d 1f bd 3a 22 12 3f 89 bb 4b bd
       0.41009283 -0.038877264 0.57083476 -0.049739394
0003f0 70 26 2f 3f a0 ac 0c 3f 87 e8 26 3d 49 cb 0f 3f
       0.68418026 0.54950905 0.0407491 0.56169564

cells.0.h2h.weight f4 [256, 64]
000000 c1 41 df 3d 53 0c e5 bd 7d fb 3a be 79 30 aa bd
       0.109012134 -0.11183991 -0.18259998 -0.08310027
000010 09 8d 85 bd 3d 23 46 3c 3f 5a 64 3d ed db 75 3d
       -0.06521041 0.012093362 0.055750128 0.06002419
000020 12 9e 96 bc 36 14 33 be 30 3f 37 3e 1c 1a d2 3c
       -0.01838592 -0.17488179 0.17895198 0.025647216
000030 10 59 05 bd 90 48 0e 3e de f3 f2 3c 57 a0 38 bc
       -0.03255564 0.13894868 0.0296573 -0.011268697
000040 5f 30 06 bc be 04 a2 bc 5f 8c 7d bc 4b de ec 3c
       -0.0081902435 -0.019777652 -0.015475362 0.028914591
000050 ee be 34 be 62 f8 16 3e 00 1e 09 bd e1 9a 8c 3d
       -0.17650959 0.14743188 -0.033475876 0.06865478
000060 cd 30 f6 3d b8 32 18 be 07 ed c8 3d 76 db ff 3d
       0.12021027 -0.14863098 0.098108344 0.12493031
000070 b4 9b 31 bd 33 1b 72 3c c2 f1 06 bd e5 e4 44 bd
       -0.04336138 0.014776993 -0.032945402 -0.048069853
000080 d5 2e 05 3e f8 85 8a 3d 38 11 12 3e de cb 2b bd
       0.13006146 0.06763834 0.14264381 -0.04194247
000090 52 a6 2f 3e b8 e0 39 3e d4 95 0f bd 29 a9 ae 3d
       0.1715329 0.1815213 -0.035054997 0.085283585
0000a0 58 f0 a2 3d 4a c4 26 be 96 44 2b 3d 09 32 29 3e
       0.07955998 -0.16285816 0.041813456 0.16522993
0000b0 0b 30 03 bd f2 ba ca bb 3b af ed bd 0d c1 00 3e
       -0.03202824 -0.0061868364 -0.11605688 0.12573643
0000c0 d1 84 f0 ba 2f 16 95 3d 98 45 31 be 9f 7a b2 3d
       -0.0018350129 0.07279622 -0.17311704 0.08714794
0000d0 2f 35 1c bc fc 5e 93 3b 4a 72 c2 bd 52 4c 1a b9
       -0.009534164 0.004497407 -0.09494455 -0.00014715016
0000e0 a9 29 43 bd 95 84 05 be 62 16 35 3d 3e 57 71 bd
       -0.047647152 -0.13038857 0.0442108 -0.05892109
0000f0 ab 3b 98 3d c6 3a 45 3c c9 39 ca 3d 32 90 e9 3c
       0.07433256 0.012037938 0.09874303 0.02851114
000100 2d 8c b6 3d 14 fb 1c bd 07 f5 b3 bd 3e 8c 23 be
       0.08913455 -0.038325384 -0.0878697 -0.15971467
000110 d9 76 d8 bc f7 db d3 3d 2b e7 01 be 3b 97 01 3e
       -0.026423858 0.10344689 -0.1268584 0.12655346
000120 5e 2e 15 bd 59 a5 18 be 97 98 02 3d df 6a d9 bc
       -0.036421172 -0.14906825 0.031883802 -0.026540218
000130 e2 99 80 3d 26 ed be 3d 0a 66 09 bd b1 4d e8 bd
       0.06279351 0.09322576 -0.033544578 -0.113429435
000140 6c 1e f6 3c 9b 6a b7 3d 57 bc 91 3a a5 49 18 3d
       0.030043803 0.0895588 0.0011118752 0.037179608
000150 30 5a 05 be d6 81 b4 3d af 8a 46 bd 8c bd 25 3e
       -0.13022685 0.08813827 -0.048472103 0.16185588
000160 89 96 b4 3d 53 98 12 bd e6 3d 1b 3e b4 b0 4a 3b
       0.08817775 -0.0357898 0.15160331 0.0030928077
000170 3e a2 c0 3c ab e7 66 bd c3 3d 78 3c 2b 9d bc bd
       0.023514863 -0.05637328 0.015151444 -0.09209665
000180 81 6a 16 3d 19 d8 87 bd 5f 68 8a bd fa 0f d8 3d
       0.036722664 -0.06633014 -0.067581885 0.10549922
000190 1d f7 40 3d b0 e6 25 bd 27 68 78 bd 33 5d 4f 3d
       0.047110666 -0.040503204 -0.060646202 0.05062599
0001a0 82 35 87 3d db 19 1e bc 91 59 f9 bd da 65 a5 3d
       0.06602003 -0.009649719 -0.121752866 0.08076067
0001b0 78 81 87 bd 0e 22 95 3d b7 7b 1f 3d cc 9a 0b bd
       -0.06616491 0.07281886 0.038936343 -0.034083173
0001c0 8e f7 0b 3e 34 26 29 bd 02 eb 23 be 6c 16 7c 3d
       0.13668653 -0.0412962 -0.16007617 0.06154482
0001d0 45 4b 91 3c 12 e5 69 bd a2 8a 29 bc de 8a 08 3e
       0.017736087 -0.057103224 -0.010347994 0.13334224
0001e0 04 1c 94 3d fa ab d1 3c 80 45 ae 3d f3 10 21 3e
       0.07231906 0.0255947 0.0850935 0.15729122
0001f0 5b e1 c6 3d 7e 49 d6 3c 33 e2 31 bd b0 dc 83 3d
       0.09710952 0.02615809 -0.04342861 0.06438577
000200 c4 cf 25 be 2c f1 29 be 82 25 a8 bd 94 5d ea bd
       -0.16192538 -0.16595906 -0.08210279 -0.1144363
000210 b0 ad c2 bd 6b 51 6f 3d a9 09 ee 3d 43 f7 29 3e
       -0.095057845 0.058427256 0.11622936 0.16598229
000220 6d 65 6a 3d d4 ef c7 bd de 47 42 3e c3 79 1e 3d
       0.057225633 -0.097625405 0.18972728 0.03869034
000230 dc 98 eb 3d c4 b9 2b bd 8d e8 a1 bb e0 28 1e be
       0.11503765 -0.041925207 -0.0049410523 -0.1544528
000240 46 7b fd 3d db c7 0b 3d f7 aa 25 be 64 a5 54 be
       0.12377028 0.034126144 -0.16178499 -0.20766217
000250 1f 18 95 bd e5 76 2b bd d0 83 ce bd 6e a7 e8 3d
       -0.07279991 -0.041861434 -0.10083735 0.1136006
000260 e0 65 ca 3d c0 b8 29 bc 1f f0 1f 3e 5b 05 52 3e
       0.09882712 -0.010358989 0.15618943 0.20509855
000270 c2 71 02 be c8 e3 4f bc 54 f6 02 be b2 c5 81 bd
       -0.12738708 -0.012688585 -0.12789279 -0.063365355
000280 f9 9a 0c 3e a3 9f b3 bd a0 e9 81 3d de 98 f3 3d
       0.13730992 -0.08770683 0.063433886 0.118943915
000290 13 e2 a0 3d 67 18 98 3c 50 df b8 3c c2 47 15 3e
       0.0785562 0.018566323 0.022567421 0.14578155
0002a0 75 f4 8a 3c 17 aa d4 3a 2e 6c 9a 3d 66 61 9b 3d
       0.01696227 0.0016225007 0.07540165 0.07586937
0002b0 90 d1 9b 3d 52 2c d6 bd 0d 14 38 be 1d 3a 39 3e
       0.0760833 -0.10457672 -0.17976399 0.18088575
0002c0 c6 35 6c bb 76 66 89 3d 59 10 43 bd ac 6d 9b 3d
       -0.0036042794 0.06708996 -0.047623012 0.075892776
0002d0 ba 0e 06 3e 1b fd e2 3b bc 35 ed bd 59 5c 9e bc
       0.13091555 0.006927145 -0.11582515 -0.019331144
0002e0 0f 26 23 be 19 39 39 3c 67 51 0e be 21 ed 8c 3d
       -0.15932487 0.011305117 -0.1389824 0.06881166
0002f0 5b dc e6 bd 72 8e 1f bd 65 7b e2 3d 9f 2a 03 3e
       -0.11272498 -0.038954206 0.11058692 0.12809227
000300 96 b3 76 3d b0 a6 b9 bd 17 4b 20 bd 43 aa 9a 3d
       0.06022986 -0.09064996 -0.03913411 0.07552006
000310 40 19 bd bd aa 06 d0 bd 2a 5b 5c 3d 8c 7e b0 3d
       -0.09233332 -0.10157521 0.05379788 0.08617887
000320 e4 a2 68 3d 04 24 4d bc a4 0d f6 3d 2f 2e 9d bd
       0.05679597 -0.012520794 0.120143205 -0.076748244
000330 4b 62 d8 3d 61 26 1e 3c 1e 4a e0 3c ea a1 e8 3d
       0.10565623 0.009652705 0.027379092 0.11359008
000340 7f 28 01 3e b4 04 eb 3c 37 d0 40 bc 0d 4d 48 bd
       0.12613104 0.028688766 -0.011768392 -0.048901606
000350 dd 24 90 3d a6 37 45 bc ea b4 34 bc 5c d0 5f 3b
       0.07038281 -0.012037193 -0.011029461 0.0034151291
000360 46 da 17 3d 65 f2 06 bc 93 d5 d0 3d b9 24 4b bd
       0.037073396 -0.008236502 0.10196986 -0.04959557
000370 49 0b 31 bd 54 84 2c bd 93 2b d3 bd b5 de 9a bb
       -0.043223653 -0.042118385 -0.103110455 -0.004726256
000380 1d 36 06 3e 3b 6a 49 3b 70 ea 9f 3c d2 af 13 3d
       0.1310658 0.0030733484 0.019520968 0.036056347
000390 e5 99 b3 bd 1d c0 67 3d 67 6d d0 3d e2 1f 2e 3c
       -0.087695874 0.056579698 0.10177117 0.010627719
0003a0 00 97 ac 3d 62 fe 84 bd b4 c6 e6 3d aa c5 24 bd
       0.084272385 -0.06493832 0.11268368 -0.04022757
0003b0 a5 c0 b4 bd 11 d7 c2 bd 9e 82 8b 3c b3 09 a3 3d
       -0.088258065 -0.09513677 0.017030057 0.07960834
0003c0 ce 9f 29 3c 0b 38 c5 bd b2 5a 25 bc fb dc 63 bd
       0.010353042 -0.0962983 -0.010092424 -0.055630665
0003d0 33 4d 38 3d 9b 81 6d 3d 51 af c5 3d 7f 85 b2 3d
       0.044995498 0.05798493 0.096525796 0.087168686
0003e0 58 3f 9b bd cf f8 ae bd d2 be 46 3b ad 3d d6 bd
       -0.07580441 -0.0854355 0.003032614 -0.104609825
0003f0 6d da b0 3d 73 74 97 3b 8a a1 a1 bd 1f 94 ae bd
       0.086354114 0.004622036 -0.07892139 -0.085243456

cells.0.h2h.bias f4 [256]
000000 c2 27 41 3d 0b d4 93 3d 88 26 25 3e 69 c8 d6 3c
       0.047157057 0.07218178 0.1612798 0.02621861
000010 30 83 18 bd 8d 91 53 3d 66 87 af 3d 06 cb c0 ba
       -0.037234485 0.05165248 0.08570747 -0.0014708943
000020 a0 2c 08 bb 20 2e 8b 3c 91 cb 17 3e 72 04 0a 3e
       -0.0020778552 0.016989768 0.14823748 0.13478258
000030 8f 76 22 3c 8d ec 52 3d 46 a8 da bd 34 b1 3b bd
       0.009915962 0.051495124 -0.10676627 -0.04582329
000040 07 64 b3 bd 49 2a dc 3d b5 6e c3 3d e2 55 12 3e
       -0.08759313 0.10750253 0.095426 0.14290574
000050 b1 d2 9d 3d 53 21 db 3d 31 33 11 3e 93 47 5c bd
       0.07706202 0.106997155 0.14179684 -0.053779196
000060 d4 e1 ea 3d 47 47 d3 bc 0e 2d 86 3d 73 8a d7 3c
       0.114688545 -0.025790824 0.06551562 0.026311135
000070 f0 22 0b bd 77 39 d7 ba 96 6a 8e bd 7d 44 35 bc
       -0.033968866 -0.0016420324 -0.069539234 -0.011063692
000080 95 c6 1b 3d 68 71 61 3b f8 27 9c 3d 57 2b f7 bd
       0.03803118 0.003439987 0.07624811 -0.12068813
000090 34 10 01 be e2 23 0a 3d a9 ab 48 bb 8c cb b1 3c
       -0.12603837 0.033725627 -0.0030619896 0.021703504
0000a0 98 62 10 3c bd 0a 0c bb 9f a1 a4 3c 56 18 ce 3b
       0.008812569 -0.0021368705 0.020096598 0.006289522
0000b0 e9 3b d3 3c 38 22 85 bd f8 3b bd bc 25 d5 65 bb
       0.025785403 -0.06500667 -0.023099884 -0.003506967
0000c0 6c 35 25 bc 5e 22 03 3e 34 27 d3 3d 8f af 11 bd
       -0.010083538 0.12806079 0.10310212 -0.035567816
0000d0 0f 8e 10 3e 19 c3 15 3e f0 4d 9f 3c e2 b1 60 bd
       0.14116691 0.14625205 0.019446343 -0.054857142
0000e0 f5 41 0d bd b7 c2 e1 bd 82 5c 25 bc 2c 1a 9b 3d
       -0.03448673 -0.11023467 -0.010092856 0.07573351
0000f0 61 27 34 3b 54 78 30 bc 2d 12 98 bd 48 65 69 3d
       0.0027489292 -0.010770876 -0.07425342 0.056981355
000100 0b a1 e2 bd 61 a7 ed 3d 53 0f 25 bd da 71 cc bd
       -0.11065873 0.116041906 -0.040297817 -0.09982653
000110 84 c1 de 3d 81 04 dd bd 8b 9b 4c 3d 9a 2d eb ba
       0.10876754 -0.10791875 0.049953025 -0.0017942667
000120 d9 3c fc bb 36 f3 0d 3e 71 a5 14 3e a6 c2 cb 3d
       -0.0076976833 0.13862309 0.14516236 0.099492356
000130 80 5e 2f 3d 3b 51 e0 3d 16 ae 05 be d2 d1 3d 3d
       0.04281473 0.109529935 -0.1305469 0.04634268
000140 eb e6 54 3d 77 cc 4e bd fe 32 30 3e ba 41 1c 3e
       0.051978033 -0.05048796 0.17206952 0.15259448
000150 73 2e a8 3d 79 65 c3 3d 35 8c 07 bd 5a 0a b8 3d
       0.082119845 0.09540839 -0.033092696 0.089863494
000160 d2 14 d8 bd 51 e6 ed 3b c6 c7 80 bc c0 ea f4 3c
       -0.10550846 0.007260122 -0.01572026 0.029897094
000170 a1 16 c9 3d 25 25 09 3e 25 f0 00 3e 60 31 c0 bc
       0.09818769 0.13393076 0.12591608 -0.023461044
000180 2e 21 b8 bd ce b0 13 3d b3 3c d9 bd 19 73 c0 bc
       -0.089907035 0.036057286 -0.106072806 -0.023492383
000190 45 85 d6 3d 09 c4 b9 bd 36 89 fe ba d6 7e a0 bd
       0.10474638 -0.09070594 -0.0019419554 -0.07836692
0001a0 04 3a 9d bd 82 1f 2c bd d9 c8 96 bd 4d cd 83 bd
       -0.07677081 -0.042022236 -0.073625274 -0.064356424
0001b0 16 ea 6d bc f3 41 89 3d 08 c0 d5 bd d6 85 23 3d
       -0.0145211425 0.06702032 -0.10437018 0.039922558
0001c0 63 a4 bb bc e5 8e 82 3d dd 1d 69 3d e2 e8 15 3e
       -0.022905534 0.06374911 0.056913245 0.14639619
0001d0 4d 12 00 bd cd 06 60 3d ea 78 f3 3d ef d0 0b 3d
       -0.031267453 0.054693986 0.11888297 0.0341348
0001e0 6d 8f f2 3d 94 77 10 3e 9b 54 a0 bd 55 db a7 bc
       0.118437625 0.14108115 -0.07828637 -0.020490328
0001f0 2b 39 09 3d 60 a9 25 3d 30 87 78 bd d4 78 b7 bc
       0.033501785 0.04044473 -0.0606758 -0.022396483
000200 cc 7f 03 be dd b5 b2 3d 55 b8 1a bd 77 48 8a bd
       -0.1284172 0.08726094 -0.03777345 -0.06752103
000210 ce 84 5b 3d cc 61 b8 bc e6 48 92 3c 24 11 44 3d
       0.05359345 -0.02250757 0.017857026 0.04786791
000220 fb 2d 9f 3c 9d 41 51 bd a7 ea f6 3d c9 80 84 3c
       0.019431105 -0.051087964 0.12056475 0.01617469
000230 a4 6a dc 3b 01 b8 c5 3d 8f 1f ab bb 43 5e 9f 3d
       0.0067265797 0.096542366 -0.005222268 0.07781651
000240 a9 b4 12 3e f2 2b 3d 3d 16 7b bb bc 81 44 69 3d
       0.14326729 0.046184488 -0.02288584 0.056950096
000250 80 a5 0c 3c 7b a5 88 3d a2 68 e4 bd 6b 60 90 3d
       0.00858438 0.06672188 -0.111527696 0.0704964
000260 cc ec e9 3d 20 e5 a8 3d ae 18 97 bd f1 a5 6f 3d
       0.114221185 0.08246827 -0.07377754 0.058507863
000270 cc e9 71 3d 48 5d 9b bd 28 39 41 3c 64 a8 a1 bd
       0.059060857 -0.07586151 0.011793412 -0.07893446
000280 12 e6 05 bd 82 78 86 3d 6c 13 d7 3a 5c 61 e9 bd
       -0.032690115 0.06565954 0.0016408986 -0.11395523
000290 7a 62 96 3c 78 a0 25 3d ab 0a 8d bd 8f d6 6b bd
       0.018357504 0.040436238 -0.068868004 -0.057577666
0002a0 4a 68 74 bc ff 83 cf bc 2f 6a a1 bd 8c 67 05 3d
       -0.014917443 -0.025331495 -0.07881581 0.032569453
0002b0 34 e3 fc 3d 23 a3 ca bc 96 11 75 3d f8 ff 94 bb
       0.12348023 -0.024735993 0.059831224 -0.0045471154
0002c0 83 75 f1 bd d8 f0 5d 3d df 05 00 be 31 3f 18 be
       -0.11789992 0.054184765 -0.1250224 -0.14867856
0002d0 b6 3c 89 bd ad 68 72 3a 55 f0 8e bd cf fe 99 bd
       -0.06701033 0.0009247165 -0.069794334 -0.07519304
0002e0 2c 8a e9 3d 2c 30 b4 bd aa 47 fb bc ae 49 50 3c
       0.11403307 -0.087982506 -0.03067382 0.012712879
0002f0 5b 91 05 be ff 77 e9 bd 0c 80 ba 3d 7d 59 20 bd
       -0.1304373 -0.113998406 0.09106454 -0.039147843
000300 cc ed 70 3b c0 3f 53 3d 20 14 c3 bb a3 a6 2e 3d
       0.0036762832 0.05157447 -0.005953327 0.042639386
000310 e1 2f 85 3d 4e 6f db 3d 26 77 9d 3c 36 3d 8e bc
       0.06503273 0.10714589 0.019221853 -0.017363172
000320 43 0c 36 3c ba d4 d6 3d b0 1e 11 3a 7f 17 ff 3d
       0.011111322 0.10489793 0.0005535884 0.124556534
000330 0d fc 80 bd 08 9f 8f ba 8e c3 8f bd 09 8c 8f 3d
       -0.06298075 -0.0010957429 -0.07019721 0.070091315
000340 7e 60 74 3d b4 23 8a 3d d1 96 af bc 0e 71 36 3d
       0.059662335 0.06745091 -0.02143422 0.04454141
000350 51 6c 44 3d 9f f7 0f 3d 75 ac 34 bd 23 1f 05 3e
       0.04795486 0.03514826 -0.04410978 0.13000159
000360 75 2b dd 3c 5b 5b 68 bd 46 7a 9b 3d c2 18 b3 3d
       0.026998261 -0.05672775 0.07591681 0.087449566
000370 91 30 3a 3c 0a 8f 93 bd 3b 7e 3f bd d5 7c 83 3d
       0.011364118 -0.07205017 -0.046751242 0.06420294
000380 02 b6 ea 3d 54 8b 2d bc f4 b0 08 3d fd 75 61 bc
       0.114604965 -0.0105923 0.03337188 -0.013761041
000390 e5 8a 81 3d 74 a9 1c 3e ac e0 21 3e cf 8c c1 bd
       0.0632532 0.15299016 0.15808362 -0.09450685
0003a0 43 82 a3 3d 6d ca 0b bd a0 39 09 3e 0a 8a 0f 3c
       0.0798383 -0.034128595 0.13400888 0.008760938
0003b0 2f a5 1b bd 3b 68 72 3d b8 ff fd 3d c6 e7 df ba
       -0.03799933 0.059181433 0.1240229 -0.0017082624
0003c0 08 f5 e8 3d c5 c9 d6 bd 30 98 03 3e 91 3c ad 3d
       0.11374861 -0.10487703 0.12851024 0.08458818
0003d0 92 78 ae bd af f8 89 3d f0 ed 53 bd 27 64 a7 3d
       -0.08519091 0.06736886 -0.051740587 0.081733994
0003e0 90 e5 c6 bd 5b 85 ef bc a8 b9 0a 3e 0d db 92 bd
       -0.09711754 -0.029238394 0.13547385 -0.07170687
0003f0 b5 9a d5 3d 3b e4 fe 3c ab 27 fd 3d dd a8 a0 bc
       0.10429899 0.031114688 0.12361082 -0.01961177

cells.1.x2h.weight f4 [256, 64]
000000 ab 14 0a be 67 84 b5 bd df 05 b9 bd cb 79 d8 bc
       -0.13484447 -0.08863144 -0.09034323 -0.026425263
000010 f4 99 29 bd 62 c4 04 3d 9b 72 3f 3c b1 f7 39 3d
       -0.041406587 0.032413848 0.011685039 0.045402233
000020 6d f5 dd bd 4e e1 9d 3d f1 3d 15 bc 4c 39 ad 3d
       -0.10837827 0.07708989 -0.009109006 0.08458194
000030 c3 e5 94 3c 48 fe 91 3c 50 3b 9e ba 71 bb e6 bd
       0.018175965 0.017821446 -0.001207212 -0.1126622
000040 23 ac 51 bd 57 8c 1e bd 6f ba a8 bc fb b0 75 bd
       -0.051189553 -0.038708057 -0.020596711 -0.059983235
000050 f0 90 d2 bc 81 fe cb bd 79 7a 40 bd ae 87 89 3d
       -0.025703877 -0.09960652 -0.0469918 0.06715332
000060 6f bc f9 3d 54 01 0c be 50 f2 2d 3d bb 44 26 bc
       0.12194144 -0.13672382 0.042467415 -0.010148223
000070 78 45 03 bd 04 a7 04 3e c4 d9 2f 3d 70 e8 9a bc
       -0.032048672 0.12954336 0.042932287 -0.018909663
000080 1e 30 9d bd 93 b8 0e be 45 6c 3e bc 24 69 69 3d
       -0.07675193 -0.13937597 -0.011622493 0.056985036
000090 ef 64 26 3e 97 b2 c8 3d 75 87 83 3d b4 14 a9 3d
       0.1624944 0.09799688 0.06422321 0.08255902
0000a0 0e 92 bf bd 95 04 de bd e9 c3 89 3c 6b b4 90 3d
       -0.093540296 -0.10840718 0.01681705 0.07065662
0000b0 51 f1 88 3d 32 08 90 bc 6c 74 17 be 85 59 7d bd
       0.066866525 -0.017582033 -0.14790505 -0.06185295
0000c0 81 a0 12 bd 57 70 b3 3d 5a 33 0f bd 91 0e 57 bd
       -0.0357976 0.087616615 -0.034961082 -0.052504126
0000d0 cd 48 dc 3d 78 a1 d6 bd 3a 32 9d 3d 1c 6b 1f 3d
       0.10756073 -0.104800165 0.076755956 0.038920507
0000e0 37 ca ca bc ba 33 d3 bb 7b 66 ba bd af c5 18 3d
       -0.024754627 -0.0064453753 -0.09101578 0.0372979
0000f0 24 30 49 bd 6a ff 20 3d 99 3e fc 3c 7d fc f5 3d
       -0.049118176 0.03930608 0.030791568 0.12011049
000100 08 b1 fd 3d 29 ca 6f bc de bb 8e 3d 9a d4 e0 3d
       0.12387282 -0.014635601 0.069694266 0.109780505
000110 44 f3 96 3d 83 e9 11 be a8 fe 3c bd ed a6 c2 bd
       0.07370618 -0.14249234 -0.046141297 -0.09504495
000120 d7 5d 03 ba aa 29 ca bd 74 19 e0 3c 5a 03 58 3d
       -0.00050112366 -0.09871228 0.027355887 0.05273757
000130 42 2c 72 3b f1 d5 f0 bd c2 d9 59 bc 8e ff c4 3c
       0.003695265 -0.11759556 -0.013296546 0.02404764
000140 7a 27 2d bd 58 c4 e7 bb 37 69 ee bd 0c d6 c0 3d
       -0.042273976 -0.0070729665 -0.11641162 0.09415826
000150 e0 1a 72 bc 24 31 5b 3d 92 ad 0a 3e cd eb 2b bd
       -0.014776915 0.05351366 0.13542774 -0.041972924
000160 c8 b3 9a bc e7 87 5c 3c 42 d1 bf bd 63 99 a1 bd
       -0.018884555 0.013460136 -0.09366085 -0.07890584
000170 41 37 d1 bd 4c 79 ff 3d 6f 49 23 3e 2f 71 ae bb
       -0.10215617 0.124743074 0.15945981 -0.005323551
000180 90 ff 88 3b 9d e3 26 bd 1d 8c e7 bc 9e 1a 86 3d
       0.004180856 -0.040744413 -0.028265053 0.065480456
000190 c9 df 70 bd 99 f3 c5 bd 03 96 1e 3c e8 16 f4 bc
       -0.05880717 -0.09665603 0.00967932 -0.029796079
0001a0 51 0f 41 bd ff a7 43 3d 3d 67 fa b9 9b dd a8 3d
       -0.047133747 0.047767635 -0.00047760634 0.08245393
0001b0 52 85 ba 3d 39 53 ce 3d 49 86 3d 3e 84 6c 99 bd
       0.0910746 0.10074467 0.18508257 -0.07491401
0001c0 84 71 9f ba 55 96 b2 3c 37 35 38 bd e4 25 36 3c
       -0.0012164568 0.0218002 -0.044972625 0.011117432
0001d0 b5 a6 90 bc c0 7f b8 bd 11 c8 90 bd 57 a0 07 3e
       -0.017657617 -0.090087414 -0.0706941 0.13244759
0001e0 49 9b 8a bd 40 e1 74 3a 7c fa fe 3d 3b 0f ee 3d
       -0.067678995 0.0009341426 0.1245012 0.11623999
0001f0 d8 a6 16 3e d4 ee 33 3c 22 f1 fa bc 91 00 c2 3d
       0.14712083 0.010982234 -0.03063256 0.09472764
000200 83 e2 0c be 46 35 b5 bd da 22 cb 3c ee 90 3d 3d
       -0.13758282 -0.08848052 0.024796892 0.046280794
000210 2f bb 3b bd d2 e1 f5 bc cf 70 f0 3c e2 f6 de 3c
       -0.04583281 -0.030014906 0.029350666 0.027217332
000220 19 97 8d 3c 69 19 bd 3d 97 a0 52 bd 44 e4 8a 3c
       0.017283963 0.09233362 -0.05142268 0.016954549
000230 7a bc 22 3d 4f 23 a2 3c 38 ac 92 3c 0c 26 c9 3d
       0.039730527 0.019792227 0.017904386 0.0982171
000240 54 28 a8 bd c1 0a 07 3e b3 04 d8 bd 13 2c b7 3c
       -0.08210817 0.13187696 -0.10547771 0.022359883
000250 32 ff b2 bd 46 7f da 3c 60 89 00 be 44 7e 06 bc
       -0.08740081 0.026672017 -0.12552404 -0.008208815
000260 96 fa 2f bd f8 09 a3 3d b8 a5 18 bc 89 ed f7 bd
       -0.042963587 0.07960886 -0.009316854 -0.12105853
000270 f5 c2 a2 bc 17 4d 15 bd c3 6d 4e bd ed 80 59 bd
       -0.019868353 -0.03645047 -0.050397646 -0.05310147
000280 3b 70 c7 3d 90 94 3c 3d 18 e6 ef bd 2f cc c8 3d
       0.09738203 0.046040118 -0.11713809 0.0980457
000290 e2 98 20 3c c2 b4 f5 3d d3 0f 88 bd 22 cb 9c bd
       0.009802075 0.119973674 -0.06643643 -0.07655932
0002a0 64 28 53 3d 0b 45 49 3d f5 16 a2 3b a7 4f db 3c
       0.05155219 0.04913811 0.0049465843 0.02677138
0002b0 1c 61 85 bd d6 3b 88 bd c5 2d fe bd 09 6a d7 bd
       -0.06512663 -0.06652038 -0.124110736 -0.105182715
0002c0 22 e3 bf 3d 82 a7 0c 3d a7 aa a6 3b 32 07 5a bd
       0.09369494 0.034339435 0.0050862613 -0.05322952
0002d0 8c da 7a 3d c9 56 d3 bc 00 b5 e9 bd fc de 6a bd
       0.06124358 -0.025798218 -0.11411476 -0.05734156
0002e0 11 c7 bd bd bd 61 46 bb 04 26 93 3d 42 4c 17 3d
       -0.092664845 -0.003027066 0.07184985 0.03693796
0002f0 78 78 90 3d 79 36 db 3d 74 1e c4 3d bf a5 f6 3d
       0.070542276 0.10703749 0.09576121 0.12043332
000300 60 b2 ac 3d ec af ed 3c 2f 7e 84 3c 44 46 b1 bd
       0.0843246 0.02901455 0.01617345 -0.0865598
000310 75 ee b7 bd e4 16 bb 3c 12 d8 cd 3b 35 c0 0f bc
       -0.08981029 0.022838064 0.006281861 -0.008773853
000320 6d 71 5d bc a9 68 fb 3c 2e 55 83 3d e9 b7 71 3d
       -0.013515812 0.030689554 0.06412731 0.05901328
000330 71 e8 87 bd d3 57 de 3d 0c 78 26 3d 2a 6b 44 3b
       -0.066361316 0.10856595 0.04064183 0.0029971101
000340 9c 72 53 bc 4c 7c 0b bd 6e d8 51 bd 74 96 1b bb
       -0.012905743 -0.034054086 -0.051231794 -0.00237408
000350 1e 85 38 3d 08 47 7d bd 6a da bf bd 09 29 a2 3c
       0.045048825 -0.06183532 -0.09367831 0.019794958
000360 79 a6 cf bc f9 60 57 3d 8a cc a1 bd cd f2 b6 3d
       -0.025347935 0.052582715 -0.07900341 0.08933029
000370 85 f0 91 bc c3 70 8f 3d ca a7 bb 3d cb 3a a9 3c
       -0.017814884 0.070039295 0.091628626 0.020657917
000380 73 b2 0c be 36 8f 9d 3d 4a fa 18 bd 88 8d c5 bd
       -0.13739948 0.07693331 -0.03734807 -0.096461356
000390 b3 c3 86 bd b9 42 09 be 9b 27 a3 bd d3 c9 35 3c
       -0.065802954 -0.13404359 -0.079665385 0.011095482
0003a0 42 d4 b5 bd 42 7f 6f 3d 49 d5 cb bd 77 73 f9 bd
       -0.088783756 0.058470972 -0.0995279 -0.12180226
0003b0 ab cc cb 3c 4e 0c e3 bd 19 57 0d 3d ff d9 20 be
       0.024877867 -0.11086331 0.03450689 -0.15708159
0003c0 d8 d4 0a 3e 1f 10 c4 3d ae 1d e0 3d c7 41 54 3d
       0.13557756 0.09573387 0.10943161 0.051820543
0003d0 09 66 f3 bd 31 fa 25 3d 58 c9 46 bd e1 0f 29 3d
       -0.11884696 0.040521804 -0.04853186 0.04127491
0003e0 64 77 62 3d af 67 1a bd c5 f8 42 bc 5d 3f 88 bd
       0.05528964 -0.037696537 -0.011900132 -0.066527106
0003f0 ba cb 47 bd ab 9b 56 bd 4b 91 cb bc 11 5b d6 bd
       -0.048778273 -0.05239455 -0.024849555 -0.10466588

cells.1.x2h.bias f4 [256]
000000 97 b0 4d bd 0c 2e da 3d 62 a2 88 bd 8e 72 bc bd
       -0.050217237 0.10653314 -0.06671597 -0.09201537
000010 bb 10 15 3e 1f a1 1e 3e fa 56 87 bd 0e ec ce bc
       0.14557163 0.1549115 -0.06608386 -0.025259044
000020 eb 20 1d 3e a0 07 93 3c 34 94 af 36 da 93 d3 bd
       0.15344588 0.017947972 5.2326595e-06 -0.10330935
000030 11 e5 59 3d a0 83 3d 3d 7b 44 a1 bd 46 1d 93 bd
       0.05319697 0.046268106 -0.0787439 -0.07183318
000040 5c 65 87 3d fd 54 7d bd 81 bc 74 bc f1 ca 75 3c
       0.0661113 -0.06184863 -0.014937521 0.015001998
000050 e5 13 ad 3c 01 55 9e bd 0e 05 d0 bc f9 66 90 bc
       0.02112765 -0.07731057 -0.025393035 -0.017627226
000060 f2 15 95 bd d7 f6 0a 3e 02 2b e1 bc e0 8a 01 3c
       -0.07279576 0.13570724 -0.027486328 0.007906646
000070 d8 a0 99 bb a3 9e 9e bc 30 04 98 bd da 7e b7 bd
       -0.0046883635 -0.019362753 -0.07422674 -0.08959742
000080 31 68 7a 3c f6 99 79 b9 e6 65 24 bd ab a3 c1 bc
       0.01528363 -0.00023803845 -0.04013624 -0.023637613
000090 31 63 23 3d 5c b8 f5 3d 9c 3e b6 bd 49 8b 24 bd
       0.03988952 0.119980544 -0.088986605 -0.040171895
0000a0 21 5b a0 bd 1d 82 8e 3d bc ce 0a bc 9c cf 27 3d
       -0.078298815 0.06958411 -0.008472141 0.040969476
0000b0 4f d8 c6 bc 78 4e fb 3d 87 79 00 3d b0 6f c1 ba
       -0.024273066 0.12270826 0.031365898 -0.0014758017
0000c0 9e 7d d5 3d 4a 99 1f bd 17 27 82 3d e9 91 88 3d
       0.1042435 -0.038964547 0.06355112 0.06668455
0000d0 4b 0e f3 3d dc b6 ca bc 3d b1 e7 bc 5d 79 6b bd
       0.118679605 -0.024745397 -0.028282756 -0.057488788
0000e0 86 a8 1f 3d 85 02 1c 3c 86 52 75 bd ae 19 0e 3e
       0.038979076 0.009522085 -0.059893154 0.13876984
0000f0 08 a4 b1 3d 30 6b 98 bd 1d 7e 0a 3e 5d a0 91 3d
       0.086738646 -0.074423194 0.13524671 0.07110665
000100 8a 7c b1 bc 20 c4 b5 bd ac 6e c7 3d 1a 72 2c 3d
       -0.02166583 -0.088752985 0.09737906 0.042101003
000110 eb 1b d0 bd 5f 5c 61 bd 2f 26 b6 3d 05 83 80 bd
       -0.10161575 -0.055019733 0.08894002 -0.0627499
000120 14 cf c4 bb d3 a5 41 bd e7 57 de 3d fa 4a b0 3d
       -0.006006131 -0.047277283 0.1085661 0.08608051
000130 64 39 2c bd a4 df e3 bd 17 01 00 bd d3 99 8d bc
       -0.04204692 -0.111266404 -0.03125104 -0.017285263
000140 b2 94 63 3d 44 3e 84 3d bd 1a f0 bd 5c 97 bd 3c
       0.05556173 0.06457189 -0.1172385 0.023143463
000150 e6 c2 34 3d 2e 8b 6a bd ea 72 ca 3d 0a df 10 3c
       0.044131182 -0.05726164 0.09885199 0.008842239
000160 7a 8c 16 3c 2f 2f 99 3b f9 bf 0e 3c 06 1e 97 bd
       0.009188766 0.004674814 0.008712762 -0.073787734
000170 5a 82 a9 bd 3e de 05 bd 78 a8 42 3d 8d 8e 69 bd
       -0.08276816 -0.03268265 0.047523946 -0.057020713
000180 08 66 c5 3d b9 17 fd bd e2 f4 86 3d d9 5a 51 3d
       0.096386015 -0.1235804 0.065896764 0.05111203
000190 de 18 b4 bd c8 2a e8 3d 37 3a 07 bd d5 a1 98 3d
       -0.087938055 0.11336285 -0.033014502 0.07452742
0001a0 91 0a 03 3c 72 5d b2 bb 24 6b 0c 3e 80 fa f0 3c
       0.007998125 -0.0054432685 0.13712746 0.029416323
0001b0 69 81 a9 bb 4b d9 87 bc 8c af eb bd 73 e0 ba 3d
       -0.0051728976 -0.016583106 -0.11508092 0.091248415
0001c0 d5 1c 75 3d 39 42 18 3e dd d3 ca bd 7e e4 5d bd
       0.05984195 0.14869012 -0.09903691 -0.054172985
0001d0 28 81 fc 3c f5 df 04 3e 96 ad 7c bd e2 b1 c5 3d
       0.030823305 0.12976058 -0.061688982 0.09653069
0001e0 4f 43 06 bd 8f e4 e5 bb 94 cd e2 3c b9 9f 57 bc
       -0.032779034 -0.0070157717 0.027685918 -0.013160639
0001f0 2e bd 1f 3d 48 8f d1 3c 53 7a f9 3c f3 13 a9 3c
       0.038998775 0.025581017 0.030453837 0.020639395
000200 07 19 f1 3c d3 51 72 bc 13 29 06 3d 37 dc 07 3e
       0.02943088 -0.014790016 0.032754015 0.13267599
000210 ec 6f c0 bc c1 f0 89 bc ea ea c7 bd 0f 1a 6d 3d
       -0.023490869 -0.016838433 -0.09761603 0.05788618
000220 a1 46 b8 bd d2 d5 ac 3d 99 b7 01 3e 71 9e 7e bd
       -0.089978464 0.084392205 0.12667693 -0.06216282
000230 31 c1 fb 3d 1e fe 79 3d 04 6a d2 3c a4 f4 9c 3d
       0.12292708 0.06103336 0.025685318 0.07663849
000240 6b 93 9d bd 50 fe 9e bc 09 0c d3 bd df 57 15 3c
       -0.07694133 -0.019408375 -0.1030503 0.009115188
000250 ef cc d3 bc e1 b1 37 bd 49 c5 dd 3d 08 cc 39 bb
       -0.025854556 -0.044847373 0.10828645 -0.0028350372
000260 73 06 c3 3c d9 d9 d5 bc de 1f be bc 25 34 cb 3d
       0.023806786 -0.026104854 -0.023208555 0.09922055
000270 da 78 b8 3d af 5c 51 3c ae 2a 48 bd 09 dc 92 3d
       0.090074256 0.012778445 -0.048868828 0.071708746
000280 58 7a 1f bd b3 b6 24 bd 8a e0 bc bc f4 88 96 3d
       -0.038935035 -0.040213298 -0.023056287 0.073503405
000290 4b 32 0d be 0a 12 7b 3d 30 08 20 bd 19 9f 24 3d
       -0.13788716 0.0612965 -0.03907031 0.04019079
0002a0 58 a6 09 be 08 13 94 bc 90 47 11 be 57 ec 90 3c
       -0.13442361 -0.018075481 -0.14187455 0.01769082
0002b0 92 56 f8 b9 91 db a5 bd 3e cf 9b 3d 99 3e b6 bb
       -0.00047366746 -0.080985196 0.07607888 -0.0055616614
0002c0 a0 f3 28 bd 4c ce 8a bd ad e3 6e 3c 62 a0 e0 3d
       -0.041247964 -0.06777629 0.014580649 0.109680906
0002d0 d0 b7 35 bd df 56 9d bc d2 3b f0 bb 0e 19 c0 3d
       -0.04436475 -0.019206462 -0.00733135 0.09379779
0002e0 83 eb 67 3d 48 7a 32 bd 18 b3 93 3d 23 4e 63 3d
       0.056621086 -0.043573648 0.07211894 0.05549444
0002f0 b4 e0 37 3c e1 d1 bc 3d 0d 0e 76 bd 38 b9 69 bb
       0.011223007 0.09219719 -0.060071994 -0.0035663377
000300 d6 51 a4 3d 99 3f e6 3d 7d 27 ec 3d f8 ed 96 3c
       0.080234215 0.11242599 0.11530969 0.01842402
000310 af f4 25 3e 56 b8 7d 3d 9b 6c b8 3d 1a da bf bd
       0.1620662 0.061943375 0.0900509 -0.093677714
000320 d1 a6 81 bc b6 aa 6b 3d 96 87 7b bd 60 3d c6 bd
       -0.015826615 0.05753585 -0.0614086 -0.09679675
000330 49 db d3 bd 04 e6 c7 3d c0 f0 b3 bc 77 0b 61 bd
       -0.1034456 0.09760669 -0.021965384 -0.054942574
000340 3a 98 95 3b a0 e1 48 3d 47 f5 40 3d 57 b6 0b 3e
       0.004565266 0.049043298 0.047108915 0.13643776
000350 41 16 50 bc 47 2c cc 3d 18 23 ae 3c bd 31 ac 3c
       -0.012700618 0.09969383 0.021256968 0.02101981
000360 9c f5 3b 3d 2b 14 c6 3d fe 7d ce 3d bc 51 d5 3d
       0.04588853 0.096718155 0.10082625 0.1041598
000370 43 75 b5 bd 45 47 ff bc d9 8d 97 bd 1e a6 15 3e
       -0.088602565 -0.031161914 -0.07400102 0.1461415
000380 0d 0d 87 3d e2 c4 c8 3d ac f2 04 3d 37 ad d0 3d
       0.06594286 0.098031774 0.032457992 0.10189288
000390 46 5c bc bc 1d 16 18 3d f8 45 aa bd 63 1f c4 3a
       -0.022993218 0.037130464 -0.08314127 0.0014962967
0003a0 45 5e 9e 3d e1 62 68 bd d7 87 9a 3d 36 3a a6 3d
       0.07732824 -0.056734923 0.07545441 0.081165716
0003b0 5e 0e 22 3e d1 b5 6f 3d c4 9c f1 bd af 30 81 bd
       0.15825793 0.058523003 -0.11797479 -0.06308114
0003c0 d1 30 2f 3e 08 b9 12 3d b7 f3 28 bc 2d bd 30 bd
       0.17108466 0.03582099 -0.010312012 -0.043149162
0003d0 42 df 7e 3d 65 90 9c bd 83 74 07 3d 6a 54 fc ba
       0.062224634 -0.076447286 0.0330701 -0.0019251232
0003e0 ab b3 91 bd cf 3c 9e bd d7 24 b6 bb c1 f0 e3 bc
       -0.07114347 -0.07726442 -0.005558591 -0.027824761
0003f0 2f 05 fb 3d 40 a2 70 3d ad d2 4c 3d 20 4d ac 3d
       0.12256848 0.058748484 0.050005604 0.08413148

cells.1.h2h.weight f4 [256, 64]
000000 c1 da d5 3d b9 d4 42 bc 9c 25 0d 3d bb f3 07 3e
       0.104421146 -0.011891537 0.034459695 0.1327657
000010 57 d6 58 3d 7a ea f5 3d b8 77 b0 3d e1 35 aa 3c
       0.052938785 0.120076135 0.086165845 0.020777645
000020 d8 c7 87 bd 1b bf 0e bc de 90 ef bc f0 67 12 bd
       -0.06629914 -0.008712555 -0.029243883 -0.035743654
000030 c0 67 27 bd eb 26 de 3d 6d 85 a8 3d b7 06 01 3e
       -0.040870428 0.10847267 0.08228574 0.12600218
000040 49 38 58 bd 34 3f 9c 3d ff 6a de bd 81 40 51 bd
       -0.052788053 0.076292425 -0.10860252 -0.051086906
000050 42 35 97 bd 48 db 17 be 3a 17 e9 3d c4 0e 3b 3a
       -0.07383205 -0.14829743 0.11381383 0.0007135684
000060 62 6e 91 bd 75 54 e7 bd 4f f3 62 3d 79 9b c0 3d
       -0.07101132 -0.11295406 0.05540782 0.09404654
000070 4f 57 64 3c 32 c3 a3 bc 64 3e 8a bd 67 14 96 3d
       0.013936832 -0.019990537 -0.06750181 0.0732811
000080 7a a3 e1 bd 4d 7f 9d 3b d6 13 e1 3c 36 72 c7 bd
       -0.11017509 0.004806435 0.027475279 -0.09738581
000090 a2 e3 a3 bd 34 53 e4 3d 2a de c7 bd 1a 14 e0 bd
       -0.08002402 0.11148682 -0.09759171 -0.10941334
0000a0 c4 64 f0 3b af 86 55 bd 8e 5e 15 bd 09 22 b1 3d
       0.007336231 -0.052130397 -0.036467128 0.0864907
0000b0 d6 a7 b8 bd ef be 2c bc 06 be 9c bd b3 6e 16 3e
       -0.09016387 -0.010543569 -0.076534316 0.14690666
0000c0 5f 7b c3 39 89 ab e4 bd ba 2f e2 bd b8 87 e9 bc
       0.00037285217 -0.1116553 -0.11044259 -0.028507099
0000d0 ad ec 98 bd 09 32 f7 bd 14 31 94 bd ae d3 1a bc
       -0.07467017 -0.1207009 -0.072359234 -0.009449882
0000e0 24 b5 d6 bc 19 b3 f7 3d e6 be 8b bb b5 a3 35 3d
       -0.026209421 0.12094707 -0.0042647 0.044345576
0000f0 8a be 83 bb b4 3b 49 bd 45 34 71 bd 28 44 06 be
       -0.0040205168 -0.049129203 -0.05888774 -0.13111937
000100 05 5e c8 bd dc 73 5e bd e3 c7 31 bc 1b 74 06 3e
       -0.09783558 -0.05430971 -0.010850879 0.13130228
000110 28 fc 94 bd b7 4c ac 3d 33 79 55 bd 16 3c d8 bd
       -0.072746575 0.0841307 -0.052117538 -0.105583355
000120 fd 58 ad bd 3f 21 d4 3d 41 16 ed 3d ab 49 8b bc
       -0.08464239 0.10357904 0.1157651 -0.017002901
000130 73 fd 27 3d 17 b0 79 3a 35 c5 07 bd 3f 7c ee bd
       0.041013192 0.00095248356 -0.033147056 -0.11644792
000140 e5 56 0f bc ab a6 15 3d a8 80 ce bd 6b 8a 5b bc
       -0.008748745 0.0365359 -0.10083133 -0.013399701
000150 e8 2b 5b 3d 66 76 b6 3d 09 cc 9b bd db d4 fc 3d
       0.05350867 0.089093015 -0.07607276 0.123452865
000160 7e 7c 64 bd fc 7f d1 3d b1 ad 8e bd 73 61 f4 bd
       -0.055782788 0.10229489 -0.06966723 -0.119326495
000170 2c b0 06 bd 2b ba e8 3c be df e9 3d f7 28 a0 bd
       -0.032882854 0.028409084 0.114196286 -0.078203134
000180 42 68 b1 bc 94 f6 07 3d f6 76 6b 3d 84 0b 00 be
       -0.02165616 0.03319414 0.057486497 -0.12504393
000190 19 c8 aa 3d 15 76 dd 3d 82 a4 25 bd 39 43 fc 3b
       0.08338947 0.10813538 -0.04044009 0.0076984433
0001a0 b0 af 77 3b b3 ac 90 3d 80 bf 38 bd 87 d9 ec bd
       0.0037793927 0.0706419 -0.045104504 -0.115649275
0001b0 ca 49 a7 bd 19 e5 03 be 75 97 e1 3d 67 d5 8f 3d
       -0.08168371 -0.12880363 0.11015216 0.07023125
0001c0 4c 10 ac 3d 8d 94 91 3d 72 26 e0 bd 34 83 fb bd
       0.08401546 0.07108412 -0.10944833 -0.122808844
0001d0 86 a4 88 bd 24 28 5f 3d 2a 37 34 bd 19 e7 9c 3d
       -0.06672005 0.05448164 -0.04399792 0.07661266
0001e0 87 84 8e 3d 2d 47 b7 3c 52 dc 8e bd ef d7 57 3c
       0.06958871 0.022372806 -0.069756165 0.013174041
0001f0 09 77 73 3d bd e2 03 3e 82 60 94 bd 27 bc 8a 3d
       0.059439693 0.12879463 -0.0724497 0.067741685
000200 a4 91 b1 3b f8 f2 5b bd 50 0e 24 bd 4d d9 7d bb
       0.005418973 -0.05369851 -0.040052712 -0.0038734258
000210 53 bb ba bd 63 98 a4 bd d8 57 8a bc d9 eb 01 be
       -0.091177605 -0.08036878 -0.01688759 -0.12687625
000220 3b 4b 81 3c 1d d9 b1 3d a6 b6 9d bc bd ad d0 bd
       0.015782943 0.08683989 -0.019252133 -0.10189388
000230 de a9 fa 3d 97 e9 18 bc e5 aa 45 3d 2b bc 5c 3d
       0.12239431 -0.009333036 0.04825868 0.05389039
000240 78 d4 c7 bd 04 67 f4 bd 58 5a ca 3c 54 76 ed bd
       -0.09757322 -0.11933711 0.024701282 -0.11594835
000250 3f b8 c5 3d b4 04 89 bd 62 91 0d bd ed 82 ba bd
       0.09654283 -0.0669035 -0.034562476 -0.09107003
000260 09 73 a2 bd db 2e 5d 3d e8 27 31 bd 74 cb ce 3d
       -0.079320975 0.053999763 -0.04325095 0.10097399
000270 21 35 53 bc db 56 7d bd eb a5 d1 bd e1 7a 76 bd
       -0.012891085 -0.06185041 -0.102367245 -0.06017578
000280 fd 85 c8 bd d8 ae bf 3d 00 9b 21 bd 4f ae d2 bd
       -0.09791181 0.09359521 -0.03945446 -0.10287153
000290 dd 56 57 3d 2a 33 d3 3c 26 c6 87 3c c0 76 0d 3e
       0.052573074 0.025781233 0.016573977 0.13814831
0002a0 c4 cb 43 3d 33 14 d4 3d ff 1d 05 be 3d 55 34 bd
       0.047801748 0.10355415 -0.12999724 -0.044026602
0002b0 42 ee 04 bc 66 ae 65 3d be 0e ac 3d dc 82 c0 3d
       -0.008113446 0.056074522 0.08401249 0.093999594
0002c0 d4 4a e5 3d 07 d7 60 3c b1 46 07 be 85 7c 75 3d
       0.11195913 0.0137231415 -0.1321056 0.059933204
0002d0 30 12 9a bd 5e 35 0a bd 80 8c 79 3d 2b f6 ec 3d
       -0.07523 -0.0337423 0.060925007 0.1157039
0002e0 74 53 44 3d be 86 ef bc 01 56 c4 3d 76 09 e9 bd
       0.04793115 -0.029239055 0.095867164 -0.11378758
0002f0 da 1a 96 bd ba 59 2b 3c 8a 4f a4 bd 39 c8 a6 bd
       -0.0732934 0.010458404 -0.08022983 -0.08143658
000300 49 9e 8b bd ba a8 75 3c 16 a7 70 3c 8c 6f 25 bd
       -0.068173 0.014993841 0.014688274 -0.040389583
000310 d9 24 c8 3c 39 66 4b bc e5 d9 bb bd 11 f4 e0 bc
       0.024431633 -0.0124145085 -0.091724195 -0.02746013
000320 d4 06 94 3d 8b ce 5b bd 56 9c 3a 3b a1 78 84 bd
       0.07227865 -0.05366377 0.002847453 -0.06468321
000330 a2 1f bc bd fa 9c c5 bc 5b ec e1 bd 7a eb 64 3d
       -0.09185721 -0.024122704 -0.11031409 0.05588863
000340 4d b7 3c 3d 63 41 ca bd aa 49 9e bc 05 cb a0 3d
       0.046073247 -0.09875753 -0.019322235 0.07851223
000350 5d d0 8c 3d 60 ae f6 3d ee 83 97 3d 21 77 43 bb
       0.0687568 0.12044978 0.073982105 -0.0029825645
000360 77 f8 ea 3c 9a f0 95 3c c7 2f 3d bd 2a c3 07 be
       0.02868293 0.018303204 -0.046188142 -0.13258043
000370 69 1c e7 bd a5 71 ae 3d dc aa 8a bd 15 1c 87 3d
       -0.11284716 0.0851777 -0.0677087 0.06597153
000380 b2 88 2e 3d c0 58 b9 3d a1 ee bc bd 1b 70 76 bd
       0.04261083 0.09050131 -0.09225202 -0.060165506
000390 06 7f da bd 81 71 5a 3c d6 78 4c 3d 7f 59 72 3c
       -0.10668759 0.0133327255 0.049919926 0.014791845
0003a0 69 38 6c bc 65 d4 3b bd 54 69 b6 3c 37 5f 1e 3d
       -0.014417746 -0.045856852 0.022267021 0.038665023
0003b0 ed 26 84 bd 4d 1e 38 bd 48 7b 45 3c 84 75 b8 3c
       -0.06452737 -0.044950772 0.012053318 0.022516973
0003c0 eb 97 23 bd 92 2d 3a 3d df c4 e6 bd 1d 01 40 bd
       -0.039939802 0.045453615 -0.11268019 -0.04687606
0003d0 72 1f 0c 3e 64 7f 7c 3b 76 ba 95 bd 08 75 4f bc
       0.1368387 0.003852808 -0.07310955 -0.01266218
0003e0 2c 8d 04 3e 28 7d d5 3d 48 78 4d bd 6c 81 7d 3c
       0.12944478 0.10424262 -0.050163537 0.015472751
0003f0 5e ab 42 bb ac a8 6a 3d da c1 9a bb c5 a7 08 3d
       -0.0029704194 0.057289764 -0.004722816 0.033363122
